…
I1227 14:38:28.928190 12937 net.cpp:301] The NetState phase (0) differed from the phase (1) specified by a rule in layer mnist
I1227 14:38:28.928216 12937 net.cpp:301] The NetState phase (0) differed from the phase (1) specified by a rule in layer accuracy
I1227 14:38:28.928419 12937 net.cpp:51] Initializing net from parameters: 
name: "LeNet"
state {
  phase: TRAIN
  level: 0
  stage: ""
}
layer {
  name: "mnist"
  type: "Data"
  top: "data"
  top: "label"
  include {
    phase: TRAIN
  }
  transform_param {
    scale: 0.00390625
  }
  data_param {
    source: "examples/mnist/mnist_train_lmdb"
    batch_size: 128
    backend: LMDB
  }
}
layer {
  name: "conv1"
  type: "DNSConvolution"
  bottom: "data"
  top: "conv1"
  param {
    lr_mult: 1
  }
  param {
    lr_mult: 2
  }
  convolution_param {
    num_output: 20
    kernel_size: 5
    stride: 1
    weight_filler {
      type: "xavier"
    }
    bias_filler {
      type: "constant"
    }
  }
  dns_convolution_param {
    gamma: 1e-05
    power: 1
    c_rate: 0.4
    iter_stop: 140000
    weight_mask_filler {
      type: "constant"
      value: 1
    }
    bias_mask_filler {
      type: "constant"
      value: 1
    }
  }
}
layer {
  name: "pool1"
  type: "Pooling"
  bottom: "conv1"
  top: "pool1"
  pooling_param {
    pool: MAX
    kernel_size: 2
    stride: 2
  }
}
layer {
  name: "conv2"
  type: "DNSConvolution"
  bottom: "pool1"
  top: "conv2"
  param {
    lr_mult: 1
  }
  param {
    lr_mult: 2
  }
  convolution_param {
    num_output: 50
    kernel_size: 5
    stride: 1
    weight_filler {
      type: "xavier"
    }
    bias_filler {
      type: "constant"
    }
  }
  dns_convolution_param {
    gamma: 1e-05
    power: 1
    c_rate: 2.5
    iter_stop: 140000
    weight_mask_filler {
      type: "constant"
      value: 1
    }
    bias_mask_filler {
      type: "constant"
      value: 1
    }
  }
}
layer {
  name: "pool2"
  type: "Pooling"
  bottom: "conv2"
  top: "pool2"
  pooling_param {
    pool: MAX
    kernel_size: 2
    stride: 2
  }
}
layer {
  name: "ip1"
  type: "DNSInnerProduct"
  bottom: "pool2"
  top: "ip1"
  param {
    lr_mult: 1
  }
  param {
    lr_mult: 2
  }
  inner_product_param {
    num_output: 500
    weight_filler {
      type: "xavier"
    }
    bias_filler {
      type: "constant"
    }
  }
  dns_inner_product_param {
    gamma: 1e-05
    power: 1
    c_rate: 2.5
    iter_stop: 140000
    weight_mask_filler {
      type: "constant"
      value: 1
    }
    bias_mask_filler {
      type: "constant"
      value: 1
    }
  }
}
layer {
  name: "relu1"
  type: "ReLU"
  bottom: "ip1"
  top: "ip1"
}
layer {
  name: "ip2"
  type: "DNSInnerProduct"
  bottom: "ip1"
  top: "ip2"
  param {
    lr_mult: 1
  }
  param {
    lr_mult: 2
  }
  inner_product_param {
    num_output: 10
    weight_filler {
      type: "xavier"
    }
    bias_filler {
      type: "constant"
    }
  }
  dns_inner_product_param {
    gamma: 1e-05
    power: 1
    c_rate: 3
    iter_stop: 140000
    weight_mask_filler {
      type: "constant"
      value: 1
    }
    bias_mask_filler {
      type: "constant"
      value: 1
    }
  }
}
layer {
  name: "loss"
  type: "SoftmaxWithLoss"
  bottom: "ip2"
  bottom: "label"
  top: "loss"
}
I1227 14:38:28.928532 12937 layer_factory.hpp:77] Creating layer mnist
I1227 14:38:28.928688 12937 db_lmdb.cpp:35] Opened lmdb examples/mnist/mnist_train_lmdb
I1227 14:38:28.928757 12937 net.cpp:84] Creating Layer mnist
I1227 14:38:28.928768 12937 net.cpp:387] mnist -> data
I1227 14:38:28.928805 12937 net.cpp:387] mnist -> label
I1227 14:38:28.930259 12937 data_layer.cpp:45] output data size: 128,1,28,28
I1227 14:38:28.933686 12937 net.cpp:127] Setting up mnist
I1227 14:38:28.933706 12937 net.cpp:136] Top shape: 128 1 28 28 (100352)
I1227 14:38:28.933713 12937 net.cpp:136] Top shape: 128 (128)
I1227 14:38:28.933718 12937 net.cpp:144] Memory required for data: 401920
I1227 14:38:28.933727 12937 layer_factory.hpp:77] Creating layer conv1
I1227 14:38:28.933789 12937 net.cpp:84] Creating Layer conv1
I1227 14:38:28.933799 12937 net.cpp:413] conv1 <- data
I1227 14:38:28.933816 12937 net.cpp:387] conv1 -> conv1
I1227 14:38:28.935708 12937 net.cpp:127] Setting up conv1
I1227 14:38:28.935725 12937 net.cpp:136] Top shape: 128 20 24 24 (1474560)
I1227 14:38:28.935730 12937 net.cpp:144] Memory required for data: 6300160
I1227 14:38:28.935758 12937 layer_factory.hpp:77] Creating layer pool1
I1227 14:38:28.935776 12937 net.cpp:84] Creating Layer pool1
I1227 14:38:28.935781 12937 net.cpp:413] pool1 <- conv1
I1227 14:38:28.935788 12937 net.cpp:387] pool1 -> pool1
I1227 14:38:28.935856 12937 net.cpp:127] Setting up pool1
I1227 14:38:28.935864 12937 net.cpp:136] Top shape: 128 20 12 12 (368640)
I1227 14:38:28.935868 12937 net.cpp:144] Memory required for data: 7774720
I1227 14:38:28.935873 12937 layer_factory.hpp:77] Creating layer conv2
I1227 14:38:28.935883 12937 net.cpp:84] Creating Layer conv2
I1227 14:38:28.935889 12937 net.cpp:413] conv2 <- pool1
I1227 14:38:28.935896 12937 net.cpp:387] conv2 -> conv2
I1227 14:38:28.937772 12937 net.cpp:127] Setting up conv2
I1227 14:38:28.937789 12937 net.cpp:136] Top shape: 128 50 8 8 (409600)
I1227 14:38:28.937794 12937 net.cpp:144] Memory required for data: 9413120
I1227 14:38:28.937808 12937 layer_factory.hpp:77] Creating layer pool2
I1227 14:38:28.937820 12937 net.cpp:84] Creating Layer pool2
I1227 14:38:28.937826 12937 net.cpp:413] pool2 <- conv2
I1227 14:38:28.937834 12937 net.cpp:387] pool2 -> pool2
I1227 14:38:28.937877 12937 net.cpp:127] Setting up pool2
I1227 14:38:28.937885 12937 net.cpp:136] Top shape: 128 50 4 4 (102400)
I1227 14:38:28.937889 12937 net.cpp:144] Memory required for data: 9822720
I1227 14:38:28.937896 12937 layer_factory.hpp:77] Creating layer ip1
I1227 14:38:28.937908 12937 net.cpp:84] Creating Layer ip1
I1227 14:38:28.937913 12937 net.cpp:413] ip1 <- pool2
I1227 14:38:28.937935 12937 net.cpp:387] ip1 -> ip1
I1227 14:38:28.944026 12937 net.cpp:127] Setting up ip1
I1227 14:38:28.944043 12937 net.cpp:136] Top shape: 128 500 (64000)
I1227 14:38:28.944047 12937 net.cpp:144] Memory required for data: 10078720
I1227 14:38:28.944063 12937 layer_factory.hpp:77] Creating layer relu1
I1227 14:38:28.944074 12937 net.cpp:84] Creating Layer relu1
I1227 14:38:28.944079 12937 net.cpp:413] relu1 <- ip1
I1227 14:38:28.944087 12937 net.cpp:374] relu1 -> ip1 (in-place)
I1227 14:38:29.282526 12937 net.cpp:127] Setting up relu1
I1227 14:38:29.282572 12937 net.cpp:136] Top shape: 128 500 (64000)
I1227 14:38:29.282578 12937 net.cpp:144] Memory required for data: 10334720
I1227 14:38:29.282588 12937 layer_factory.hpp:77] Creating layer ip2
I1227 14:38:29.282608 12937 net.cpp:84] Creating Layer ip2
I1227 14:38:29.282615 12937 net.cpp:413] ip2 <- ip1
I1227 14:38:29.282626 12937 net.cpp:387] ip2 -> ip2
I1227 14:38:29.284245 12937 net.cpp:127] Setting up ip2
I1227 14:38:29.284261 12937 net.cpp:136] Top shape: 128 10 (1280)
I1227 14:38:29.284267 12937 net.cpp:144] Memory required for data: 10339840
I1227 14:38:29.284281 12937 layer_factory.hpp:77] Creating layer loss
I1227 14:38:29.284303 12937 net.cpp:84] Creating Layer loss
I1227 14:38:29.284308 12937 net.cpp:413] loss <- ip2
I1227 14:38:29.284314 12937 net.cpp:413] loss <- label
I1227 14:38:29.284322 12937 net.cpp:387] loss -> loss
I1227 14:38:29.284346 12937 layer_factory.hpp:77] Creating layer loss
…
I1227 14:38:29.287649 12937 solver.cpp:172] Creating test net (#0) specified by net file: examples/mnist/lenet_train_test_DNS.prototxt
I1227 14:38:29.287685 12937 net.cpp:301] The NetState phase (1) differed from the phase (0) specified by a rule in layer mnist
I1227 14:38:29.287878 12937 net.cpp:51] Initializing net from parameters: 
name: "LeNet"
state {
  phase: TEST
}
layer {
  name: "mnist"
  type: "Data"
  top: "data"
  top: "label"
  include {
    phase: TEST
  }
  transform_param {
    scale: 0.00390625
  }
  data_param {
    source: "examples/mnist/mnist_test_lmdb"
    batch_size: 100
    backend: LMDB
  }
}
layer {
  name: "conv1"
  type: "DNSConvolution"
  bottom: "data"
  top: "conv1"
  param {
    lr_mult: 1
  }
  param {
    lr_mult: 2
  }
  convolution_param {
    num_output: 20
    kernel_size: 5
    stride: 1
    weight_filler {
      type: "xavier"
    }
    bias_filler {
      type: "constant"
    }
  }
  dns_convolution_param {
    gamma: 1e-05
    power: 1
    c_rate: 0.4
    iter_stop: 140000
    weight_mask_filler {
      type: "constant"
      value: 1
    }
    bias_mask_filler {
      type: "constant"
      value: 1
    }
  }
}
layer {
  name: "pool1"
  type: "Pooling"
  bottom: "conv1"
  top: "pool1"
  pooling_param {
    pool: MAX
    kernel_size: 2
    stride: 2
  }
}
layer {
  name: "conv2"
  type: "DNSConvolution"
  bottom: "pool1"
  top: "conv2"
  param {
    lr_mult: 1
  }
  param {
    lr_mult: 2
  }
  convolution_param {
    num_output: 50
    kernel_size: 5
    stride: 1
    weight_filler {
      type: "xavier"
    }
    bias_filler {
      type: "constant"
    }
  }
  dns_convolution_param {
    gamma: 1e-05
    power: 1
    c_rate: 2.5
    iter_stop: 140000
    weight_mask_filler {
      type: "constant"
      value: 1
    }
    bias_mask_filler {
      type: "constant"
      value: 1
    }
  }
}
layer {
  name: "pool2"
  type: "Pooling"
  bottom: "conv2"
  top: "pool2"
  pooling_param {
    pool: MAX
    kernel_size: 2
    stride: 2
  }
}
layer {
  name: "ip1"
  type: "DNSInnerProduct"
  bottom: "pool2"
  top: "ip1"
  param {
    lr_mult: 1
  }
  param {
    lr_mult: 2
  }
  inner_product_param {
    num_output: 500
    weight_filler {
      type: "xavier"
    }
    bias_filler {
      type: "constant"
    }
  }
  dns_inner_product_param {
    gamma: 1e-05
    power: 1
    c_rate: 2.5
    iter_stop: 140000
    weight_mask_filler {
      type: "constant"
      value: 1
    }
    bias_mask_filler {
      type: "constant"
      value: 1
    }
  }
}
layer {
  name: "relu1"
  type: "ReLU"
  bottom: "ip1"
  top: "ip1"
}
layer {
  name: "ip2"
  type: "DNSInnerProduct"
  bottom: "ip1"
  top: "ip2"
  param {
    lr_mult: 1
  }
  param {
    lr_mult: 2
  }
  inner_product_param {
    num_output: 10
    weight_filler {
      type: "xavier"
    }
    bias_filler {
      type: "constant"
    }
  }
  dns_inner_product_param {
    gamma: 1e-05
    power: 1
    c_rate: 3
    iter_stop: 140000
    weight_mask_filler {
      type: "constant"
      value: 1
    }
    bias_mask_filler {
      type: "constant"
      value: 1
    }
  }
}
layer {
  name: "accuracy"
  type: "Accuracy"
  bottom: "ip2"
  bottom: "label"
  top: "accuracy"
  include {
    phase: TEST
  }
}
layer {
  name: "loss"
  type: "SoftmaxWithLoss"
  bottom: "ip2"
  bottom: "label"
  top: "loss"
}
I1227 14:38:29.287982 12937 layer_factory.hpp:77] Creating layer mnist
I1227 14:38:29.288048 12937 db_lmdb.cpp:35] Opened lmdb examples/mnist/mnist_test_lmdb
I1227 14:38:29.288067 12937 net.cpp:84] Creating Layer mnist
I1227 14:38:29.288074 12937 net.cpp:387] mnist -> data
I1227 14:38:29.288085 12937 net.cpp:387] mnist -> label
I1227 14:38:29.288197 12937 data_layer.cpp:45] output data size: 100,1,28,28
I1227 14:38:29.291751 12937 net.cpp:127] Setting up mnist
I1227 14:38:29.291769 12937 net.cpp:136] Top shape: 100 1 28 28 (78400)
I1227 14:38:29.291776 12937 net.cpp:136] Top shape: 100 (100)
I1227 14:38:29.291781 12937 net.cpp:144] Memory required for data: 314000
I1227 14:38:29.291787 12937 layer_factory.hpp:77] Creating layer label_mnist_1_split
I1227 14:38:29.291815 12937 net.cpp:84] Creating Layer label_mnist_1_split
I1227 14:38:29.291821 12937 net.cpp:413] label_mnist_1_split <- label
I1227 14:38:29.291828 12937 net.cpp:387] label_mnist_1_split -> label_mnist_1_split_0
I1227 14:38:29.291838 12937 net.cpp:387] label_mnist_1_split -> label_mnist_1_split_1
I1227 14:38:29.291972 12937 net.cpp:127] Setting up label_mnist_1_split
I1227 14:38:29.291980 12937 net.cpp:136] Top shape: 100 (100)
I1227 14:38:29.291986 12937 net.cpp:136] Top shape: 100 (100)
I1227 14:38:29.291990 12937 net.cpp:144] Memory required for data: 314800
I1227 14:38:29.291995 12937 layer_factory.hpp:77] Creating layer conv1
I1227 14:38:29.292006 12937 net.cpp:84] Creating Layer conv1
I1227 14:38:29.292011 12937 net.cpp:413] conv1 <- data
I1227 14:38:29.292017 12937 net.cpp:387] conv1 -> conv1
I1227 14:38:29.292431 12937 net.cpp:127] Setting up conv1
I1227 14:38:29.292443 12937 net.cpp:136] Top shape: 100 20 24 24 (1152000)
I1227 14:38:29.292448 12937 net.cpp:144] Memory required for data: 4922800
I1227 14:38:29.292465 12937 layer_factory.hpp:77] Creating layer pool1
I1227 14:38:29.292475 12937 net.cpp:84] Creating Layer pool1
I1227 14:38:29.292480 12937 net.cpp:413] pool1 <- conv1
I1227 14:38:29.292486 12937 net.cpp:387] pool1 -> pool1
I1227 14:38:29.292534 12937 net.cpp:127] Setting up pool1
I1227 14:38:29.292541 12937 net.cpp:136] Top shape: 100 20 12 12 (288000)
I1227 14:38:29.292546 12937 net.cpp:144] Memory required for data: 6074800
I1227 14:38:29.292551 12937 layer_factory.hpp:77] Creating layer conv2
I1227 14:38:29.292562 12937 net.cpp:84] Creating Layer conv2
I1227 14:38:29.292567 12937 net.cpp:413] conv2 <- pool1
I1227 14:38:29.292574 12937 net.cpp:387] conv2 -> conv2
I1227 14:38:29.293118 12937 net.cpp:127] Setting up conv2
I1227 14:38:29.293128 12937 net.cpp:136] Top shape: 100 50 8 8 (320000)
I1227 14:38:29.293133 12937 net.cpp:144] Memory required for data: 7354800
I1227 14:38:29.293144 12937 layer_factory.hpp:77] Creating layer pool2
I1227 14:38:29.293154 12937 net.cpp:84] Creating Layer pool2
I1227 14:38:29.293159 12937 net.cpp:413] pool2 <- conv2
I1227 14:38:29.293166 12937 net.cpp:387] pool2 -> pool2
I1227 14:38:29.293205 12937 net.cpp:127] Setting up pool2
I1227 14:38:29.293212 12937 net.cpp:136] Top shape: 100 50 4 4 (80000)
I1227 14:38:29.293216 12937 net.cpp:144] Memory required for data: 7674800
I1227 14:38:29.293220 12937 layer_factory.hpp:77] Creating layer ip1
I1227 14:38:29.293231 12937 net.cpp:84] Creating Layer ip1
I1227 14:38:29.293236 12937 net.cpp:413] ip1 <- pool2
I1227 14:38:29.293243 12937 net.cpp:387] ip1 -> ip1
I1227 14:38:29.298086 12937 net.cpp:127] Setting up ip1
I1227 14:38:29.298105 12937 net.cpp:136] Top shape: 100 500 (50000)
I1227 14:38:29.298110 12937 net.cpp:144] Memory required for data: 7874800
I1227 14:38:29.298123 12937 layer_factory.hpp:77] Creating layer relu1
I1227 14:38:29.298132 12937 net.cpp:84] Creating Layer relu1
I1227 14:38:29.298138 12937 net.cpp:413] relu1 <- ip1
I1227 14:38:29.298151 12937 net.cpp:374] relu1 -> ip1 (in-place)
I1227 14:38:29.298424 12937 net.cpp:127] Setting up relu1
I1227 14:38:29.298435 12937 net.cpp:136] Top shape: 100 500 (50000)
I1227 14:38:29.298440 12937 net.cpp:144] Memory required for data: 8074800
I1227 14:38:29.298445 12937 layer_factory.hpp:77] Creating layer ip2
I1227 14:38:29.298460 12937 net.cpp:84] Creating Layer ip2
I1227 14:38:29.298465 12937 net.cpp:413] ip2 <- ip1
I1227 14:38:29.298473 12937 net.cpp:387] ip2 -> ip2
I1227 14:38:29.298727 12937 net.cpp:127] Setting up ip2
I1227 14:38:29.298737 12937 net.cpp:136] Top shape: 100 10 (1000)
I1227 14:38:29.298740 12937 net.cpp:144] Memory required for data: 8078800
I1227 14:38:29.298751 12937 layer_factory.hpp:77] Creating layer ip2_ip2_0_split
I1227 14:38:29.298758 12937 net.cpp:84] Creating Layer ip2_ip2_0_split
I1227 14:38:29.298761 12937 net.cpp:413] ip2_ip2_0_split <- ip2
I1227 14:38:29.298770 12937 net.cpp:387] ip2_ip2_0_split -> ip2_ip2_0_split_0
I1227 14:38:29.298779 12937 net.cpp:387] ip2_ip2_0_split -> ip2_ip2_0_split_1
I1227 14:38:29.298815 12937 net.cpp:127] Setting up ip2_ip2_0_split
I1227 14:38:29.298821 12937 net.cpp:136] Top shape: 100 10 (1000)
I1227 14:38:29.298826 12937 net.cpp:136] Top shape: 100 10 (1000)
I1227 14:38:29.298830 12937 net.cpp:144] Memory required for data: 8086800
I1227 14:38:29.298835 12937 layer_factory.hpp:77] Creating layer accuracy
I1227 14:38:29.298846 12937 net.cpp:84] Creating Layer accuracy
I1227 14:38:29.298851 12937 net.cpp:413] accuracy <- ip2_ip2_0_split_0
I1227 14:38:29.298856 12937 net.cpp:413] accuracy <- label_mnist_1_split_0
I1227 14:38:29.298861 12937 net.cpp:387] accuracy -> accuracy
…
