…
I1227 15:47:19.394847 30254 net.cpp:301] The NetState phase (0) differed from the phase (1) specified by a rule in layer mnist
I1227 15:47:19.394875 30254 net.cpp:301] The NetState phase (0) differed from the phase (1) specified by a rule in layer accuracy
I1227 15:47:19.395054 30254 net.cpp:51] Initializing net from parameters: 
name: "LeNet"
state {
  phase: TRAIN
  level: 0
  stage: ""
}
layer {
  name: "mnist"
  type: "Data"
  top: "data"
  top: "label"
  include {
    phase: TRAIN
  }
  transform_param {
    scale: 0.00390625
  }
  data_param {
    source: "examples/mnist/mnist_train_lmdb"
    batch_size: 128
    backend: LMDB
  }
}
layer {
  name: "conv1"
  type: "INQConvolution"
  bottom: "data"
  top: "conv1"
  param {
    lr_mult: 1
  }
  param {
    lr_mult: 2
  }
  convolution_param {
    num_output: 20
    kernel_size: 5
    stride: 1
    weight_filler {
      type: "xavier"
    }
    bias_filler {
      type: "constant"
    }
  }
  inq_convolution_param {
    portion: 0.3
    portion: 0.6
    weight_mask_filler {
      type: "constant"
      value: 1
    }
    bias_mask_filler {
      type: "constant"
      value: 1
    }
    num_quantum_values: 7
  }
}
layer {
  name: "pool1"
  type: "Pooling"
  bottom: "conv1"
  top: "pool1"
  pooling_param {
    pool: MAX
    kernel_size: 2
    stride: 2
  }
}
layer {
  name: "conv2"
  type: "INQConvolution"
  bottom: "pool1"
  top: "conv2"
  param {
    lr_mult: 1
  }
  param {
    lr_mult: 2
  }
  convolution_param {
    num_output: 50
    kernel_size: 5
    stride: 1
    weight_filler {
      type: "xavier"
    }
    bias_filler {
      type: "constant"
    }
  }
  inq_convolution_param {
    portion: 0.3
    portion: 0.6
    weight_mask_filler {
      type: "constant"
      value: 1
    }
    bias_mask_filler {
      type: "constant"
      value: 1
    }
    num_quantum_values: 7
  }
}
layer {
  name: "pool2"
  type: "Pooling"
  bottom: "conv2"
  top: "pool2"
  pooling_param {
    pool: MAX
    kernel_size: 2
    stride: 2
  }
}
layer {
  name: "ip1"
  type: "INQInnerProduct"
  bottom: "pool2"
  top: "ip1"
  param {
    lr_mult: 1
  }
  param {
    lr_mult: 2
  }
  inner_product_param {
    num_output: 500
    weight_filler {
      type: "xavier"
    }
    bias_filler {
      type: "constant"
    }
  }
  inq_inner_product_param {
    portion: 0.3
    portion: 0.6
    weight_mask_filler {
      type: "constant"
      value: 1
    }
    bias_mask_filler {
      type: "constant"
      value: 1
    }
    num_quantum_values: 7
  }
}
layer {
  name: "relu1"
  type: "ReLU"
  bottom: "ip1"
  top: "ip1"
}
layer {
  name: "ip2"
  type: "INQInnerProduct"
  bottom: "ip1"
  top: "ip2"
  param {
    lr_mult: 1
  }
  param {
    lr_mult: 2
  }
  inner_product_param {
    num_output: 10
    weight_filler {
      type: "xavier"
    }
    bias_filler {
      type: "constant"
    }
  }
  inq_inner_product_param {
    portion: 0.3
    portion: 0.6
    weight_mask_filler {
      type: "constant"
      value: 1
    }
    bias_mask_filler {
      type: "constant"
      value: 1
    }
    num_quantum_values: 7
  }
}
layer {
  name: "loss"
  type: "SoftmaxWithLoss"
  bottom: "ip2"
  bottom: "label"
  top: "loss"
}
I1227 15:47:19.395153 30254 layer_factory.hpp:77] Creating layer mnist
I1227 15:47:19.395372 30254 db_lmdb.cpp:35] Opened lmdb examples/mnist/mnist_train_lmdb
I1227 15:47:19.395443 30254 net.cpp:84] Creating Layer mnist
I1227 15:47:19.395454 30254 net.cpp:387] mnist -> data
I1227 15:47:19.395489 30254 net.cpp:387] mnist -> label
I1227 15:47:19.396956 30254 data_layer.cpp:45] output data size: 128,1,28,28
I1227 15:47:19.400382 30254 net.cpp:127] Setting up mnist
I1227 15:47:19.400401 30254 net.cpp:136] Top shape: 128 1 28 28 (100352)
I1227 15:47:19.400408 30254 net.cpp:136] Top shape: 128 (128)
I1227 15:47:19.400413 30254 net.cpp:144] Memory required for data: 401920
I1227 15:47:19.400423 30254 layer_factory.hpp:77] Creating layer conv1
I1227 15:47:19.400454 30254 net.cpp:84] Creating Layer conv1
I1227 15:47:19.400462 30254 net.cpp:413] conv1 <- data
I1227 15:47:19.400481 30254 net.cpp:387] conv1 -> conv1
I1227 15:47:19.402367 30254 net.cpp:127] Setting up conv1
I1227 15:47:19.402385 30254 net.cpp:136] Top shape: 128 20 24 24 (1474560)
I1227 15:47:19.402390 30254 net.cpp:144] Memory required for data: 6300160
I1227 15:47:19.402406 30254 net.cpp:453] Found INQ layer:conv1, type: INQConvolution, layer id:1
I1227 15:47:19.402418 30254 net.cpp:453] Found INQ layer:conv1, type: INQConvolution, layer id:1
I1227 15:47:19.402426 30254 net.cpp:453] Found INQ layer:conv1, type: INQConvolution, layer id:1
I1227 15:47:19.402432 30254 net.cpp:453] Found INQ layer:conv1, type: INQConvolution, layer id:1
I1227 15:47:19.402437 30254 layer_factory.hpp:77] Creating layer pool1
I1227 15:47:19.402453 30254 net.cpp:84] Creating Layer pool1
I1227 15:47:19.402458 30254 net.cpp:413] pool1 <- conv1
I1227 15:47:19.402465 30254 net.cpp:387] pool1 -> pool1
I1227 15:47:19.402521 30254 net.cpp:127] Setting up pool1
I1227 15:47:19.402529 30254 net.cpp:136] Top shape: 128 20 12 12 (368640)
I1227 15:47:19.402534 30254 net.cpp:144] Memory required for data: 7774720
I1227 15:47:19.402537 30254 layer_factory.hpp:77] Creating layer conv2
I1227 15:47:19.402549 30254 net.cpp:84] Creating Layer conv2
I1227 15:47:19.402554 30254 net.cpp:413] conv2 <- pool1
I1227 15:47:19.402562 30254 net.cpp:387] conv2 -> conv2
I1227 15:47:19.404439 30254 net.cpp:127] Setting up conv2
I1227 15:47:19.404459 30254 net.cpp:136] Top shape: 128 50 8 8 (409600)
I1227 15:47:19.404464 30254 net.cpp:144] Memory required for data: 9413120
I1227 15:47:19.404474 30254 net.cpp:453] Found INQ layer:conv2, type: INQConvolution, layer id:3
I1227 15:47:19.404482 30254 net.cpp:453] Found INQ layer:conv2, type: INQConvolution, layer id:3
I1227 15:47:19.404489 30254 net.cpp:453] Found INQ layer:conv2, type: INQConvolution, layer id:3
I1227 15:47:19.404494 30254 net.cpp:453] Found INQ layer:conv2, type: INQConvolution, layer id:3
I1227 15:47:19.404498 30254 layer_factory.hpp:77] Creating layer pool2
I1227 15:47:19.404508 30254 net.cpp:84] Creating Layer pool2
I1227 15:47:19.404515 30254 net.cpp:413] pool2 <- conv2
I1227 15:47:19.404521 30254 net.cpp:387] pool2 -> pool2
I1227 15:47:19.404566 30254 net.cpp:127] Setting up pool2
I1227 15:47:19.404572 30254 net.cpp:136] Top shape: 128 50 4 4 (102400)
I1227 15:47:19.404577 30254 net.cpp:144] Memory required for data: 9822720
I1227 15:47:19.404580 30254 layer_factory.hpp:77] Creating layer ip1
I1227 15:47:19.404597 30254 net.cpp:84] Creating Layer ip1
I1227 15:47:19.404601 30254 net.cpp:413] ip1 <- pool2
I1227 15:47:19.404610 30254 net.cpp:387] ip1 -> ip1
I1227 15:47:19.410724 30254 net.cpp:127] Setting up ip1
I1227 15:47:19.410742 30254 net.cpp:136] Top shape: 128 500 (64000)
I1227 15:47:19.410749 30254 net.cpp:144] Memory required for data: 10078720
I1227 15:47:19.410758 30254 net.cpp:453] Found INQ layer:ip1, type: INQInnerProduct, layer id:5
I1227 15:47:19.410768 30254 net.cpp:453] Found INQ layer:ip1, type: INQInnerProduct, layer id:5
I1227 15:47:19.410774 30254 net.cpp:453] Found INQ layer:ip1, type: INQInnerProduct, layer id:5
I1227 15:47:19.410780 30254 net.cpp:453] Found INQ layer:ip1, type: INQInnerProduct, layer id:5
I1227 15:47:19.410784 30254 layer_factory.hpp:77] Creating layer relu1
I1227 15:47:19.410799 30254 net.cpp:84] Creating Layer relu1
I1227 15:47:19.410805 30254 net.cpp:413] relu1 <- ip1
I1227 15:47:19.410825 30254 net.cpp:374] relu1 -> ip1 (in-place)
I1227 15:47:19.751000 30254 net.cpp:127] Setting up relu1
I1227 15:47:19.751045 30254 net.cpp:136] Top shape: 128 500 (64000)
I1227 15:47:19.751051 30254 net.cpp:144] Memory required for data: 10334720
I1227 15:47:19.751060 30254 layer_factory.hpp:77] Creating layer ip2
I1227 15:47:19.751083 30254 net.cpp:84] Creating Layer ip2
I1227 15:47:19.751091 30254 net.cpp:413] ip2 <- ip1
I1227 15:47:19.751101 30254 net.cpp:387] ip2 -> ip2
I1227 15:47:19.752708 30254 net.cpp:127] Setting up ip2
I1227 15:47:19.752727 30254 net.cpp:136] Top shape: 128 10 (1280)
I1227 15:47:19.752732 30254 net.cpp:144] Memory required for data: 10339840
I1227 15:47:19.752740 30254 net.cpp:453] Found INQ layer:ip2, type: INQInnerProduct, layer id:7
I1227 15:47:19.752748 30254 net.cpp:453] Found INQ layer:ip2, type: INQInnerProduct, layer id:7
I1227 15:47:19.752755 30254 net.cpp:453] Found INQ layer:ip2, type: INQInnerProduct, layer id:7
I1227 15:47:19.752761 30254 net.cpp:453] Found INQ layer:ip2, type: INQInnerProduct, layer id:7
…
I1227 15:47:19.756079 30254 solver.cpp:172] Creating test net (#0) specified by net file: examples/mnist/lenet_train_test_inq_60.prototxt
I1227 15:47:19.756115 30254 net.cpp:301] The NetState phase (1) differed from the phase (0) specified by a rule in layer mnist
I1227 15:47:19.756310 30254 net.cpp:51] Initializing net from parameters: 
name: "LeNet"
state {
  phase: TEST
}
layer {
  name: "mnist"
  type: "Data"
  top: "data"
  top: "label"
  include {
    phase: TEST
  }
  transform_param {
    scale: 0.00390625
  }
  data_param {
    source: "examples/mnist/mnist_test_lmdb"
    batch_size: 100
    backend: LMDB
  }
}
layer {
  name: "conv1"
  type: "INQConvolution"
  bottom: "data"
  top: "conv1"
  param {
    lr_mult: 1
  }
  param {
    lr_mult: 2
  }
  convolution_param {
    num_output: 20
    kernel_size: 5
    stride: 1
    weight_filler {
      type: "xavier"
    }
    bias_filler {
      type: "constant"
    }
  }
  inq_convolution_param {
    portion: 0.3
    portion: 0.6
    weight_mask_filler {
      type: "constant"
      value: 1
    }
    bias_mask_filler {
      type: "constant"
      value: 1
    }
    num_quantum_values: 7
  }
}
layer {
  name: "pool1"
  type: "Pooling"
  bottom: "conv1"
  top: "pool1"
  pooling_param {
    pool: MAX
    kernel_size: 2
    stride: 2
  }
}
layer {
  name: "conv2"
  type: "INQConvolution"
  bottom: "pool1"
  top: "conv2"
  param {
    lr_mult: 1
  }
  param {
    lr_mult: 2
  }
  convolution_param {
    num_output: 50
    kernel_size: 5
    stride: 1
    weight_filler {
      type: "xavier"
    }
    bias_filler {
      type: "constant"
    }
  }
  inq_convolution_param {
    portion: 0.3
    portion: 0.6
    weight_mask_filler {
      type: "constant"
      value: 1
    }
    bias_mask_filler {
      type: "constant"
      value: 1
    }
    num_quantum_values: 7
  }
}
layer {
  name: "pool2"
  type: "Pooling"
  bottom: "conv2"
  top: "pool2"
  pooling_param {
    pool: MAX
    kernel_size: 2
    stride: 2
  }
}
layer {
  name: "ip1"
  type: "INQInnerProduct"
  bottom: "pool2"
  top: "ip1"
  param {
    lr_mult: 1
  }
  param {
    lr_mult: 2
  }
  inner_product_param {
    num_output: 500
    weight_filler {
      type: "xavier"
    }
    bias_filler {
      type: "constant"
    }
  }
  inq_inner_product_param {
    portion: 0.3
    portion: 0.6
    weight_mask_filler {
      type: "constant"
      value: 1
    }
    bias_mask_filler {
      type: "constant"
      value: 1
    }
    num_quantum_values: 7
  }
}
layer {
  name: "relu1"
  type: "ReLU"
  bottom: "ip1"
  top: "ip1"
}
layer {
  name: "ip2"
  type: "INQInnerProduct"
  bottom: "ip1"
  top: "ip2"
  param {
    lr_mult: 1
  }
  param {
    lr_mult: 2
  }
  inner_product_param {
    num_output: 10
    weight_filler {
      type: "xavier"
    }
    bias_filler {
      type: "constant"
    }
  }
  inq_inner_product_param {
    portion: 0.3
    portion: 0.6
    weight_mask_filler {
      type: "constant"
      value: 1
    }
    bias_mask_filler {
      type: "constant"
      value: 1
    }
    num_quantum_values: 7
  }
}
layer {
  name: "accuracy"
  type: "Accuracy"
  bottom: "ip2"
  bottom: "label"
  top: "accuracy"
  include {
    phase: TEST
  }
}
layer {
  name: "loss"
  type: "SoftmaxWithLoss"
  bottom: "ip2"
  bottom: "label"
  top: "loss"
}
I1227 15:47:19.756438 30254 layer_factory.hpp:77] Creating layer mnist
I1227 15:47:19.756510 30254 db_lmdb.cpp:35] Opened lmdb examples/mnist/mnist_test_lmdb
I1227 15:47:19.756528 30254 net.cpp:84] Creating Layer mnist
I1227 15:47:19.756536 30254 net.cpp:387] mnist -> data
I1227 15:47:19.756546 30254 net.cpp:387] mnist -> label
I1227 15:47:19.756655 30254 data_layer.cpp:45] output data size: 100,1,28,28
I1227 15:47:19.760187 30254 net.cpp:127] Setting up mnist
I1227 15:47:19.760206 30254 net.cpp:136] Top shape: 100 1 28 28 (78400)
I1227 15:47:19.760213 30254 net.cpp:136] Top shape: 100 (100)
I1227 15:47:19.760217 30254 net.cpp:144] Memory required for data: 314000
I1227 15:47:19.760223 30254 layer_factory.hpp:77] Creating layer label_mnist_1_split
I1227 15:47:19.760248 30254 net.cpp:84] Creating Layer label_mnist_1_split
I1227 15:47:19.760254 30254 net.cpp:413] label_mnist_1_split <- label
I1227 15:47:19.760262 30254 net.cpp:387] label_mnist_1_split -> label_mnist_1_split_0
I1227 15:47:19.760272 30254 net.cpp:387] label_mnist_1_split -> label_mnist_1_split_1
I1227 15:47:19.760498 30254 net.cpp:127] Setting up label_mnist_1_split
I1227 15:47:19.760506 30254 net.cpp:136] Top shape: 100 (100)
I1227 15:47:19.760512 30254 net.cpp:136] Top shape: 100 (100)
I1227 15:47:19.760516 30254 net.cpp:144] Memory required for data: 314800
I1227 15:47:19.760521 30254 layer_factory.hpp:77] Creating layer conv1
I1227 15:47:19.760532 30254 net.cpp:84] Creating Layer conv1
I1227 15:47:19.760537 30254 net.cpp:413] conv1 <- data
I1227 15:47:19.760545 30254 net.cpp:387] conv1 -> conv1
I1227 15:47:19.760879 30254 net.cpp:127] Setting up conv1
I1227 15:47:19.760887 30254 net.cpp:136] Top shape: 100 20 24 24 (1152000)
I1227 15:47:19.760892 30254 net.cpp:144] Memory required for data: 4922800
I1227 15:47:19.760900 30254 net.cpp:453] Found INQ layer:conv1, type: INQConvolution, layer id:2
I1227 15:47:19.760908 30254 net.cpp:453] Found INQ layer:conv1, type: INQConvolution, layer id:2
I1227 15:47:19.760916 30254 net.cpp:453] Found INQ layer:conv1, type: INQConvolution, layer id:2
I1227 15:47:19.760922 30254 net.cpp:453] Found INQ layer:conv1, type: INQConvolution, layer id:2
I1227 15:47:19.760927 30254 layer_factory.hpp:77] Creating layer pool1
I1227 15:47:19.760942 30254 net.cpp:84] Creating Layer pool1
I1227 15:47:19.760959 30254 net.cpp:413] pool1 <- conv1
I1227 15:47:19.760967 30254 net.cpp:387] pool1 -> pool1
I1227 15:47:19.761009 30254 net.cpp:127] Setting up pool1
I1227 15:47:19.761016 30254 net.cpp:136] Top shape: 100 20 12 12 (288000)
I1227 15:47:19.761021 30254 net.cpp:144] Memory required for data: 6074800
I1227 15:47:19.761025 30254 layer_factory.hpp:77] Creating layer conv2
I1227 15:47:19.761035 30254 net.cpp:84] Creating Layer conv2
I1227 15:47:19.761039 30254 net.cpp:413] conv2 <- pool1
I1227 15:47:19.761046 30254 net.cpp:387] conv2 -> conv2
I1227 15:47:19.761569 30254 net.cpp:127] Setting up conv2
I1227 15:47:19.761579 30254 net.cpp:136] Top shape: 100 50 8 8 (320000)
I1227 15:47:19.761584 30254 net.cpp:144] Memory required for data: 7354800
I1227 15:47:19.761591 30254 net.cpp:453] Found INQ layer:conv2, type: INQConvolution, layer id:4
I1227 15:47:19.761600 30254 net.cpp:453] Found INQ layer:conv2, type: INQConvolution, layer id:4
I1227 15:47:19.761605 30254 net.cpp:453] Found INQ layer:conv2, type: INQConvolution, layer id:4
I1227 15:47:19.761610 30254 net.cpp:453] Found INQ layer:conv2, type: INQConvolution, layer id:4
I1227 15:47:19.761615 30254 layer_factory.hpp:77] Creating layer pool2
I1227 15:47:19.761622 30254 net.cpp:84] Creating Layer pool2
I1227 15:47:19.761626 30254 net.cpp:413] pool2 <- conv2
I1227 15:47:19.761632 30254 net.cpp:387] pool2 -> pool2
I1227 15:47:19.761669 30254 net.cpp:127] Setting up pool2
I1227 15:47:19.761677 30254 net.cpp:136] Top shape: 100 50 4 4 (80000)
I1227 15:47:19.761680 30254 net.cpp:144] Memory required for data: 7674800
I1227 15:47:19.761684 30254 layer_factory.hpp:77] Creating layer ip1
I1227 15:47:19.761693 30254 net.cpp:84] Creating Layer ip1
I1227 15:47:19.761698 30254 net.cpp:413] ip1 <- pool2
I1227 15:47:19.761703 30254 net.cpp:387] ip1 -> ip1
I1227 15:47:19.766535 30254 net.cpp:127] Setting up ip1
I1227 15:47:19.766551 30254 net.cpp:136] Top shape: 100 500 (50000)
I1227 15:47:19.766556 30254 net.cpp:144] Memory required for data: 7874800
I1227 15:47:19.766566 30254 net.cpp:453] Found INQ layer:ip1, type: INQInnerProduct, layer id:6
I1227 15:47:19.766575 30254 net.cpp:453] Found INQ layer:ip1, type: INQInnerProduct, layer id:6
I1227 15:47:19.766582 30254 net.cpp:453] Found INQ layer:ip1, type: INQInnerProduct, layer id:6
I1227 15:47:19.766587 30254 net.cpp:453] Found INQ layer:ip1, type: INQInnerProduct, layer id:6
I1227 15:47:19.766592 30254 layer_factory.hpp:77] Creating layer relu1
I1227 15:47:19.766600 30254 net.cpp:84] Creating Layer relu1
I1227 15:47:19.766607 30254 net.cpp:413] relu1 <- ip1
I1227 15:47:19.766613 30254 net.cpp:374] relu1 -> ip1 (in-place)
I1227 15:47:19.766849 30254 net.cpp:127] Setting up relu1
I1227 15:47:19.766860 30254 net.cpp:136] Top shape: 100 500 (50000)
I1227 15:47:19.766865 30254 net.cpp:144] Memory required for data: 8074800
I1227 15:47:19.766870 30254 layer_factory.hpp:77] Creating layer ip2
I1227 15:47:19.766880 30254 net.cpp:84] Creating Layer ip2
I1227 15:47:19.766885 30254 net.cpp:413] ip2 <- ip1
I1227 15:47:19.766892 30254 net.cpp:387] ip2 -> ip2
I1227 15:47:19.767120 30254 net.cpp:127] Setting up ip2
I1227 15:47:19.767128 30254 net.cpp:136] Top shape: 100 10 (1000)
I1227 15:47:19.767133 30254 net.cpp:144] Memory required for data: 8078800
I1227 15:47:19.767139 30254 net.cpp:453] Found INQ layer:ip2, type: INQInnerProduct, layer id:8
I1227 15:47:19.767146 30254 net.cpp:453] Found INQ layer:ip2, type: INQInnerProduct, layer id:8
I1227 15:47:19.767151 30254 net.cpp:453] Found INQ layer:ip2, type: INQInnerProduct, layer id:8
I1227 15:47:19.767156 30254 net.cpp:453] Found INQ layer:ip2, type: INQInnerProduct, layer id:8
I1227 15:47:19.767161 30254 layer_factory.hpp:77] Creating layer ip2_ip2_0_split
I1227 15:47:19.767168 30254 net.cpp:84] Creating Layer ip2_ip2_0_split
I1227 15:47:19.767172 30254 net.cpp:413] ip2_ip2_0_split <- ip2
I1227 15:47:19.767179 30254 net.cpp:387] ip2_ip2_0_split -> ip2_ip2_0_split_0
I1227 15:47:19.767186 30254 net.cpp:387] ip2_ip2_0_split -> ip2_ip2_0_split_1
I1227 15:47:19.767232 30254 net.cpp:127] Setting up ip2_ip2_0_split
I1227 15:47:19.767251 30254 net.cpp:136] Top shape: 100 10 (1000)
I1227 15:47:19.767257 30254 net.cpp:136] Top shape: 100 10 (1000)
I1227 15:47:19.767261 30254 net.cpp:144] Memory required for data: 8086800
I1227 15:47:19.767266 30254 layer_factory.hpp:77] Creating layer accuracy
I1227 15:47:19.767277 30254 net.cpp:84] Creating Layer accuracy
I1227 15:47:19.767282 30254 net.cpp:413] accuracy <- ip2_ip2_0_split_0
I1227 15:47:19.767293 30254 net.cpp:413] accuracy <- label_mnist_1_split_0
I1227 15:47:19.767300 30254 net.cpp:387] accuracy -> accuracy
…
