…
WARNING: Logging before InitGoogleLogging() is written to STDERR
I1227 15:31:20.687351 26136 net.cpp:301] The NetState phase (1) differed from the phase (0) specified by a rule in layer mnist
I1227 15:31:20.687623 26136 net.cpp:51] Initializing net from parameters: 
name: "LeNet"
state {
  phase: TEST
  level: 0
}
layer {
  name: "mnist"
  type: "Data"
  top: "data"
  top: "label"
  include {
    phase: TEST
  }
  transform_param {
    scale: 0.00390625
  }
  data_param {
    source: "examples/mnist/mnist_test_lmdb"
    batch_size: 100
    backend: LMDB
  }
}
layer {
  name: "conv1"
  type: "DNSConvolution"
  bottom: "data"
  top: "conv1"
  param {
    lr_mult: 1
  }
  param {
    lr_mult: 2
  }
  convolution_param {
    num_output: 20
    kernel_size: 5
    stride: 1
    weight_filler {
      type: "xavier"
    }
    bias_filler {
      type: "constant"
    }
  }
  dns_convolution_param {
    gamma: 1e-05
    power: 1
    c_rate: 0.4
    iter_stop: 140000
    weight_mask_filler {
      type: "constant"
      value: 1
    }
    bias_mask_filler {
      type: "constant"
      value: 1
    }
  }
}
layer {
  name: "pool1"
  type: "Pooling"
  bottom: "conv1"
  top: "pool1"
  pooling_param {
    pool: MAX
    kernel_size: 2
    stride: 2
  }
}
layer {
  name: "conv2"
  type: "DNSConvolution"
  bottom: "pool1"
  top: "conv2"
  param {
    lr_mult: 1
  }
  param {
    lr_mult: 2
  }
  convolution_param {
    num_output: 50
    kernel_size: 5
    stride: 1
    weight_filler {
      type: "xavier"
    }
    bias_filler {
      type: "constant"
    }
  }
  dns_convolution_param {
    gamma: 1e-05
    power: 1
    c_rate: 2.5
    iter_stop: 140000
    weight_mask_filler {
      type: "constant"
      value: 1
    }
    bias_mask_filler {
      type: "constant"
      value: 1
    }
  }
}
layer {
  name: "pool2"
  type: "Pooling"
  bottom: "conv2"
  top: "pool2"
  pooling_param {
    pool: MAX
    kernel_size: 2
    stride: 2
  }
}
layer {
  name: "ip1"
  type: "DNSInnerProduct"
  bottom: "pool2"
  top: "ip1"
  param {
    lr_mult: 1
  }
  param {
    lr_mult: 2
  }
  inner_product_param {
    num_output: 500
    weight_filler {
      type: "xavier"
    }
    bias_filler {
      type: "constant"
    }
  }
  dns_inner_product_param {
    gamma: 1e-05
    power: 1
    c_rate: 2.5
    iter_stop: 140000
    weight_mask_filler {
      type: "constant"
      value: 1
    }
    bias_mask_filler {
      type: "constant"
      value: 1
    }
  }
}
layer {
  name: "relu1"
  type: "ReLU"
  bottom: "ip1"
  top: "ip1"
}
layer {
  name: "ip2"
  type: "DNSInnerProduct"
  bottom: "ip1"
  top: "ip2"
  param {
    lr_mult: 1
  }
  param {
    lr_mult: 2
  }
  inner_product_param {
    num_output: 10
    weight_filler {
      type: "xavier"
    }
    bias_filler {
      type: "constant"
    }
  }
  dns_inner_product_param {
    gamma: 1e-05
    power: 1
    c_rate: 3
    iter_stop: 140000
    weight_mask_filler {
      type: "constant"
      value: 1
    }
    bias_mask_filler {
      type: "constant"
      value: 1
    }
  }
}
layer {
  name: "accuracy"
  type: "Accuracy"
  bottom: "ip2"
  bottom: "label"
  top: "accuracy"
  include {
    phase: TEST
  }
}
layer {
  name: "loss"
  type: "SoftmaxWithLoss"
  bottom: "ip2"
  bottom: "label"
  top: "loss"
}
I1227 15:31:20.687711 26136 layer_factory.hpp:77] Creating layer mnist
I1227 15:31:20.687798 26136 db_lmdb.cpp:35] Opened lmdb examples/mnist/mnist_test_lmdb
I1227 15:31:20.687825 26136 net.cpp:84] Creating Layer mnist
I1227 15:31:20.687834 26136 net.cpp:387] mnist -> data
I1227 15:31:20.687852 26136 net.cpp:387] mnist -> label
I1227 15:31:20.687885 26136 data_layer.cpp:45] output data size: 100,1,28,28
I1227 15:31:20.694375 26136 net.cpp:127] Setting up mnist
I1227 15:31:20.694392 26136 net.cpp:136] Top shape: 100 1 28 28 (78400)
I1227 15:31:20.694399 26136 net.cpp:136] Top shape: 100 (100)
I1227 15:31:20.694403 26136 net.cpp:144] Memory required for data: 314000
I1227 15:31:20.694408 26136 layer_factory.hpp:77] Creating layer label_mnist_1_split
I1227 15:31:20.694458 26136 net.cpp:84] Creating Layer label_mnist_1_split
I1227 15:31:20.694475 26136 net.cpp:413] label_mnist_1_split <- label
I1227 15:31:20.694483 26136 net.cpp:387] label_mnist_1_split -> label_mnist_1_split_0
I1227 15:31:20.694494 26136 net.cpp:387] label_mnist_1_split -> label_mnist_1_split_1
I1227 15:31:20.694505 26136 net.cpp:127] Setting up label_mnist_1_split
I1227 15:31:20.694511 26136 net.cpp:136] Top shape: 100 (100)
I1227 15:31:20.694516 26136 net.cpp:136] Top shape: 100 (100)
I1227 15:31:20.694520 26136 net.cpp:144] Memory required for data: 314800
I1227 15:31:20.694525 26136 layer_factory.hpp:77] Creating layer conv1
I1227 15:31:20.694537 26136 net.cpp:84] Creating Layer conv1
I1227 15:31:20.694542 26136 net.cpp:413] conv1 <- data
I1227 15:31:20.694552 26136 net.cpp:387] conv1 -> conv1
I1227 15:31:20.694623 26136 net.cpp:127] Setting up conv1
I1227 15:31:20.694631 26136 net.cpp:136] Top shape: 100 20 24 24 (1152000)
I1227 15:31:20.694635 26136 net.cpp:144] Memory required for data: 4922800
I1227 15:31:20.694658 26136 layer_factory.hpp:77] Creating layer pool1
I1227 15:31:20.694669 26136 net.cpp:84] Creating Layer pool1
I1227 15:31:20.694674 26136 net.cpp:413] pool1 <- conv1
I1227 15:31:20.694679 26136 net.cpp:387] pool1 -> pool1
I1227 15:31:20.694691 26136 net.cpp:127] Setting up pool1
I1227 15:31:20.694697 26136 net.cpp:136] Top shape: 100 20 12 12 (288000)
I1227 15:31:20.694701 26136 net.cpp:144] Memory required for data: 6074800
I1227 15:31:20.694705 26136 layer_factory.hpp:77] Creating layer conv2
I1227 15:31:20.694712 26136 net.cpp:84] Creating Layer conv2
I1227 15:31:20.694717 26136 net.cpp:413] conv2 <- pool1
I1227 15:31:20.694723 26136 net.cpp:387] conv2 -> conv2
I1227 15:31:20.695040 26136 net.cpp:127] Setting up conv2
I1227 15:31:20.695047 26136 net.cpp:136] Top shape: 100 50 8 8 (320000)
I1227 15:31:20.695051 26136 net.cpp:144] Memory required for data: 7354800
I1227 15:31:20.695062 26136 layer_factory.hpp:77] Creating layer pool2
I1227 15:31:20.695070 26136 net.cpp:84] Creating Layer pool2
I1227 15:31:20.695073 26136 net.cpp:413] pool2 <- conv2
I1227 15:31:20.695078 26136 net.cpp:387] pool2 -> pool2
I1227 15:31:20.695086 26136 net.cpp:127] Setting up pool2
I1227 15:31:20.695091 26136 net.cpp:136] Top shape: 100 50 4 4 (80000)
I1227 15:31:20.695096 26136 net.cpp:144] Memory required for data: 7674800
I1227 15:31:20.695099 26136 layer_factory.hpp:77] Creating layer ip1
I1227 15:31:20.695108 26136 net.cpp:84] Creating Layer ip1
I1227 15:31:20.695113 26136 net.cpp:413] ip1 <- pool2
I1227 15:31:20.695119 26136 net.cpp:387] ip1 -> ip1
I1227 15:31:20.700294 26136 net.cpp:127] Setting up ip1
I1227 15:31:20.700307 26136 net.cpp:136] Top shape: 100 500 (50000)
I1227 15:31:20.700311 26136 net.cpp:144] Memory required for data: 7874800
I1227 15:31:20.700325 26136 layer_factory.hpp:77] Creating layer relu1
I1227 15:31:20.700333 26136 net.cpp:84] Creating Layer relu1
I1227 15:31:20.700338 26136 net.cpp:413] relu1 <- ip1
I1227 15:31:20.700345 26136 net.cpp:374] relu1 -> ip1 (in-place)
I1227 15:31:21.053553 26136 net.cpp:127] Setting up relu1
I1227 15:31:21.053596 26136 net.cpp:136] Top shape: 100 500 (50000)
I1227 15:31:21.053601 26136 net.cpp:144] Memory required for data: 8074800
I1227 15:31:21.053608 26136 layer_factory.hpp:77] Creating layer ip2
I1227 15:31:21.053632 26136 net.cpp:84] Creating Layer ip2
I1227 15:31:21.053637 26136 net.cpp:413] ip2 <- ip1
I1227 15:31:21.053648 26136 net.cpp:387] ip2 -> ip2
I1227 15:31:21.053724 26136 net.cpp:127] Setting up ip2
I1227 15:31:21.053730 26136 net.cpp:136] Top shape: 100 10 (1000)
I1227 15:31:21.053735 26136 net.cpp:144] Memory required for data: 8078800
I1227 15:31:21.053748 26136 layer_factory.hpp:77] Creating layer ip2_ip2_0_split
I1227 15:31:21.053755 26136 net.cpp:84] Creating Layer ip2_ip2_0_split
I1227 15:31:21.053761 26136 net.cpp:413] ip2_ip2_0_split <- ip2
I1227 15:31:21.053766 26136 net.cpp:387] ip2_ip2_0_split -> ip2_ip2_0_split_0
I1227 15:31:21.053773 26136 net.cpp:387] ip2_ip2_0_split -> ip2_ip2_0_split_1
I1227 15:31:21.053781 26136 net.cpp:127] Setting up ip2_ip2_0_split
I1227 15:31:21.053797 26136 net.cpp:136] Top shape: 100 10 (1000)
I1227 15:31:21.053802 26136 net.cpp:136] Top shape: 100 10 (1000)
I1227 15:31:21.053807 26136 net.cpp:144] Memory required for data: 8086800
I1227 15:31:21.053810 26136 layer_factory.hpp:77] Creating layer accuracy
I1227 15:31:21.053820 26136 net.cpp:84] Creating Layer accuracy
I1227 15:31:21.053824 26136 net.cpp:413] accuracy <- ip2_ip2_0_split_0
I1227 15:31:21.053830 26136 net.cpp:413] accuracy <- label_mnist_1_split_0
I1227 15:31:21.053835 26136 net.cpp:387] accuracy -> accuracy
…
