…
I1227 14:38:00.304474 12869 net.cpp:301] The NetState phase (0) differed from the phase (1) specified by a rule in layer mnist
I1227 14:38:00.304494 12869 net.cpp:301] The NetState phase (0) differed from the phase (1) specified by a rule in layer accuracy
I1227 14:38:00.304630 12869 net.cpp:51] Initializing net from parameters: 
name: "LeNet"
state {
  phase: TRAIN
  level: 0
  stage: ""
}
layer {
  name: "mnist"
  type: "Data"
  top: "data"
  top: "label"
  include {
    phase: TRAIN
  }
  transform_param {
    scale: 0.00390625
  }
  data_param {
    source: "examples/mnist/mnist_train_lmdb"
    batch_size: 64
    backend: LMDB
  }
}
layer {
  name: "conv1"
  type: "Convolution"
  bottom: "data"
  top: "conv1"
  param {
    lr_mult: 1
  }
  param {
    lr_mult: 2
  }
  convolution_param {
    num_output: 20
    kernel_size: 5
    stride: 1
    weight_filler {
      type: "xavier"
    }
    bias_filler {
      type: "constant"
    }
  }
}
layer {
  name: "pool1"
  type: "Pooling"
  bottom: "conv1"
  top: "pool1"
  pooling_param {
    pool: MAX
    kernel_size: 2
    stride: 2
  }
}
layer {
  name: "conv2"
  type: "Convolution"
  bottom: "pool1"
  top: "conv2"
  param {
    lr_mult: 1
  }
  param {
    lr_mult: 2
  }
  convolution_param {
    num_output: 50
    kernel_size: 5
    stride: 1
    weight_filler {
      type: "xavier"
    }
    bias_filler {
      type: "constant"
    }
  }
}
layer {
  name: "pool2"
  type: "Pooling"
  bottom: "conv2"
  top: "pool2"
  pooling_param {
    pool: MAX
    kernel_size: 2
    stride: 2
  }
}
layer {
  name: "ip1"
  type: "InnerProduct"
  bottom: "pool2"
  top: "ip1"
  param {
    lr_mult: 1
  }
  param {
    lr_mult: 2
  }
  inner_product_param {
    num_output: 500
    weight_filler {
      type: "xavier"
    }
    bias_filler {
      type: "constant"
    }
  }
}
layer {
  name: "relu1"
  type: "ReLU"
  bottom: "ip1"
  top: "ip1"
}
layer {
  name: "ip2"
  type: "InnerProduct"
  bottom: "ip1"
  top: "ip2"
  param {
    lr_mult: 1
  }
  param {
    lr_mult: 2
  }
  inner_product_param {
    num_output: 10
    weight_filler {
      type: "xavier"
    }
    bias_filler {
      type: "constant"
    }
  }
}
layer {
  name: "loss"
  type: "SoftmaxWithLoss"
  bottom: "ip2"
  bottom: "label"
  top: "loss"
}
I1227 14:38:00.304725 12869 layer_factory.hpp:77] Creating layer mnist
I1227 14:38:00.304877 12869 db_lmdb.cpp:35] Opened lmdb examples/mnist/mnist_train_lmdb
I1227 14:38:00.304919 12869 net.cpp:84] Creating Layer mnist
I1227 14:38:00.304934 12869 net.cpp:387] mnist -> data
I1227 14:38:00.304966 12869 net.cpp:387] mnist -> label
I1227 14:38:00.306438 12869 data_layer.cpp:45] output data size: 64,1,28,28
I1227 14:38:00.310200 12869 net.cpp:127] Setting up mnist
I1227 14:38:00.310221 12869 net.cpp:136] Top shape: 64 1 28 28 (50176)
I1227 14:38:00.310228 12869 net.cpp:136] Top shape: 64 (64)
I1227 14:38:00.310232 12869 net.cpp:144] Memory required for data: 200960
I1227 14:38:00.310242 12869 layer_factory.hpp:77] Creating layer conv1
I1227 14:38:00.310359 12869 net.cpp:84] Creating Layer conv1
I1227 14:38:00.310369 12869 net.cpp:413] conv1 <- data
I1227 14:38:00.310389 12869 net.cpp:387] conv1 -> conv1
I1227 14:38:00.651855 12869 net.cpp:127] Setting up conv1
I1227 14:38:00.651914 12869 net.cpp:136] Top shape: 64 20 24 24 (737280)
I1227 14:38:00.651921 12869 net.cpp:144] Memory required for data: 3150080
I1227 14:38:00.651983 12869 layer_factory.hpp:77] Creating layer pool1
I1227 14:38:00.652004 12869 net.cpp:84] Creating Layer pool1
I1227 14:38:00.652010 12869 net.cpp:413] pool1 <- conv1
I1227 14:38:00.652019 12869 net.cpp:387] pool1 -> pool1
I1227 14:38:00.652081 12869 net.cpp:127] Setting up pool1
I1227 14:38:00.652088 12869 net.cpp:136] Top shape: 64 20 12 12 (184320)
I1227 14:38:00.652093 12869 net.cpp:144] Memory required for data: 3887360
I1227 14:38:00.652097 12869 layer_factory.hpp:77] Creating layer conv2
I1227 14:38:00.652113 12869 net.cpp:84] Creating Layer conv2
I1227 14:38:00.652117 12869 net.cpp:413] conv2 <- pool1
I1227 14:38:00.652124 12869 net.cpp:387] conv2 -> conv2
I1227 14:38:00.655442 12869 net.cpp:127] Setting up conv2
I1227 14:38:00.655462 12869 net.cpp:136] Top shape: 64 50 8 8 (204800)
I1227 14:38:00.655467 12869 net.cpp:144] Memory required for data: 4706560
I1227 14:38:00.655478 12869 layer_factory.hpp:77] Creating layer pool2
I1227 14:38:00.655488 12869 net.cpp:84] Creating Layer pool2
I1227 14:38:00.655494 12869 net.cpp:413] pool2 <- conv2
I1227 14:38:00.655501 12869 net.cpp:387] pool2 -> pool2
I1227 14:38:00.655545 12869 net.cpp:127] Setting up pool2
I1227 14:38:00.655553 12869 net.cpp:136] Top shape: 64 50 4 4 (51200)
I1227 14:38:00.655557 12869 net.cpp:144] Memory required for data: 4911360
I1227 14:38:00.655562 12869 layer_factory.hpp:77] Creating layer ip1
I1227 14:38:00.655575 12869 net.cpp:84] Creating Layer ip1
I1227 14:38:00.655580 12869 net.cpp:413] ip1 <- pool2
I1227 14:38:00.655586 12869 net.cpp:387] ip1 -> ip1
I1227 14:38:00.659929 12869 net.cpp:127] Setting up ip1
I1227 14:38:00.659945 12869 net.cpp:136] Top shape: 64 500 (32000)
I1227 14:38:00.659950 12869 net.cpp:144] Memory required for data: 5039360
I1227 14:38:00.659961 12869 layer_factory.hpp:77] Creating layer relu1
I1227 14:38:00.659970 12869 net.cpp:84] Creating Layer relu1
I1227 14:38:00.659976 12869 net.cpp:413] relu1 <- ip1
I1227 14:38:00.659982 12869 net.cpp:374] relu1 -> ip1 (in-place)
I1227 14:38:00.660195 12869 net.cpp:127] Setting up relu1
I1227 14:38:00.660205 12869 net.cpp:136] Top shape: 64 500 (32000)
I1227 14:38:00.660209 12869 net.cpp:144] Memory required for data: 5167360
I1227 14:38:00.660214 12869 layer_factory.hpp:77] Creating layer ip2
I1227 14:38:00.660223 12869 net.cpp:84] Creating Layer ip2
I1227 14:38:00.660228 12869 net.cpp:413] ip2 <- ip1
I1227 14:38:00.660234 12869 net.cpp:387] ip2 -> ip2
I1227 14:38:00.661646 12869 net.cpp:127] Setting up ip2
I1227 14:38:00.661662 12869 net.cpp:136] Top shape: 64 10 (640)
I1227 14:38:00.661667 12869 net.cpp:144] Memory required for data: 5169920
I1227 14:38:00.661676 12869 layer_factory.hpp:77] Creating layer loss
I1227 14:38:00.661689 12869 net.cpp:84] Creating Layer loss
I1227 14:38:00.661695 12869 net.cpp:413] loss <- ip2
I1227 14:38:00.661700 12869 net.cpp:413] loss <- label
I1227 14:38:00.661708 12869 net.cpp:387] loss -> loss
I1227 14:38:00.661731 12869 layer_factory.hpp:77] Creating layer loss
…
I1227 14:38:00.663698 12869 solver.cpp:172] Creating test net (#0) specified by net file: examples/mnist/lenet_train_test.prototxt
I1227 14:38:00.663730 12869 net.cpp:301] The NetState phase (1) differed from the phase (0) specified by a rule in layer mnist
I1227 14:38:00.663879 12869 net.cpp:51] Initializing net from parameters: 
name: "LeNet"
state {
  phase: TEST
}
layer {
  name: "mnist"
  type: "Data"
  top: "data"
  top: "label"
  include {
    phase: TEST
  }
  transform_param {
    scale: 0.00390625
  }
  data_param {
    source: "examples/mnist/mnist_test_lmdb"
    batch_size: 100
    backend: LMDB
  }
}
layer {
  name: "conv1"
  type: "Convolution"
  bottom: "data"
  top: "conv1"
  param {
    lr_mult: 1
  }
  param {
    lr_mult: 2
  }
  convolution_param {
    num_output: 20
    kernel_size: 5
    stride: 1
    weight_filler {
      type: "xavier"
    }
    bias_filler {
      type: "constant"
    }
  }
}
layer {
  name: "pool1"
  type: "Pooling"
  bottom: "conv1"
  top: "pool1"
  pooling_param {
    pool: MAX
    kernel_size: 2
    stride: 2
  }
}
layer {
  name: "conv2"
  type: "Convolution"
  bottom: "pool1"
  top: "conv2"
  param {
    lr_mult: 1
  }
  param {
    lr_mult: 2
  }
  convolution_param {
    num_output: 50
    kernel_size: 5
    stride: 1
    weight_filler {
      type: "xavier"
    }
    bias_filler {
      type: "constant"
    }
  }
}
layer {
  name: "pool2"
  type: "Pooling"
  bottom: "conv2"
  top: "pool2"
  pooling_param {
    pool: MAX
    kernel_size: 2
    stride: 2
  }
}
layer {
  name: "ip1"
  type: "InnerProduct"
  bottom: "pool2"
  top: "ip1"
  param {
    lr_mult: 1
  }
  param {
    lr_mult: 2
  }
  inner_product_param {
    num_output: 500
    weight_filler {
      type: "xavier"
    }
    bias_filler {
      type: "constant"
    }
  }
}
layer {
  name: "relu1"
  type: "ReLU"
  bottom: "ip1"
  top: "ip1"
}
layer {
  name: "ip2"
  type: "InnerProduct"
  bottom: "ip1"
  top: "ip2"
  param {
    lr_mult: 1
  }
  param {
    lr_mult: 2
  }
  inner_product_param {
    num_output: 10
    weight_filler {
      type: "xavier"
    }
    bias_filler {
      type: "constant"
    }
  }
}
layer {
  name: "accuracy"
  type: "Accuracy"
  bottom: "ip2"
  bottom: "label"
  top: "accuracy"
  include {
    phase: TEST
  }
}
layer {
  name: "loss"
  type: "SoftmaxWithLoss"
  bottom: "ip2"
  bottom: "label"
  top: "loss"
}
I1227 14:38:00.663960 12869 layer_factory.hpp:77] Creating layer mnist
I1227 14:38:00.664032 12869 db_lmdb.cpp:35] Opened lmdb examples/mnist/mnist_test_lmdb
I1227 14:38:00.664050 12869 net.cpp:84] Creating Layer mnist
I1227 14:38:00.664057 12869 net.cpp:387] mnist -> data
I1227 14:38:00.664068 12869 net.cpp:387] mnist -> label
I1227 14:38:00.664170 12869 data_layer.cpp:45] output data size: 100,1,28,28
I1227 14:38:00.667162 12869 net.cpp:127] Setting up mnist
I1227 14:38:00.667181 12869 net.cpp:136] Top shape: 100 1 28 28 (78400)
I1227 14:38:00.667187 12869 net.cpp:136] Top shape: 100 (100)
I1227 14:38:00.667192 12869 net.cpp:144] Memory required for data: 314000
I1227 14:38:00.667198 12869 layer_factory.hpp:77] Creating layer label_mnist_1_split
I1227 14:38:00.667210 12869 net.cpp:84] Creating Layer label_mnist_1_split
I1227 14:38:00.667215 12869 net.cpp:413] label_mnist_1_split <- label
I1227 14:38:00.667222 12869 net.cpp:387] label_mnist_1_split -> label_mnist_1_split_0
I1227 14:38:00.667232 12869 net.cpp:387] label_mnist_1_split -> label_mnist_1_split_1
I1227 14:38:00.667332 12869 net.cpp:127] Setting up label_mnist_1_split
I1227 14:38:00.667343 12869 net.cpp:136] Top shape: 100 (100)
I1227 14:38:00.667348 12869 net.cpp:136] Top shape: 100 (100)
I1227 14:38:00.667352 12869 net.cpp:144] Memory required for data: 314800
I1227 14:38:00.667357 12869 layer_factory.hpp:77] Creating layer conv1
I1227 14:38:00.667368 12869 net.cpp:84] Creating Layer conv1
I1227 14:38:00.667373 12869 net.cpp:413] conv1 <- data
I1227 14:38:00.667381 12869 net.cpp:387] conv1 -> conv1
I1227 14:38:00.668400 12869 net.cpp:127] Setting up conv1
I1227 14:38:00.668429 12869 net.cpp:136] Top shape: 100 20 24 24 (1152000)
I1227 14:38:00.668434 12869 net.cpp:144] Memory required for data: 4922800
I1227 14:38:00.668447 12869 layer_factory.hpp:77] Creating layer pool1
I1227 14:38:00.668455 12869 net.cpp:84] Creating Layer pool1
I1227 14:38:00.668460 12869 net.cpp:413] pool1 <- conv1
I1227 14:38:00.668467 12869 net.cpp:387] pool1 -> pool1
I1227 14:38:00.668510 12869 net.cpp:127] Setting up pool1
I1227 14:38:00.668517 12869 net.cpp:136] Top shape: 100 20 12 12 (288000)
I1227 14:38:00.668522 12869 net.cpp:144] Memory required for data: 6074800
I1227 14:38:00.668526 12869 layer_factory.hpp:77] Creating layer conv2
I1227 14:38:00.668537 12869 net.cpp:84] Creating Layer conv2
I1227 14:38:00.668541 12869 net.cpp:413] conv2 <- pool1
I1227 14:38:00.668548 12869 net.cpp:387] conv2 -> conv2
I1227 14:38:00.670970 12869 net.cpp:127] Setting up conv2
I1227 14:38:00.670989 12869 net.cpp:136] Top shape: 100 50 8 8 (320000)
I1227 14:38:00.670994 12869 net.cpp:144] Memory required for data: 7354800
I1227 14:38:00.671005 12869 layer_factory.hpp:77] Creating layer pool2
I1227 14:38:00.671015 12869 net.cpp:84] Creating Layer pool2
I1227 14:38:00.671021 12869 net.cpp:413] pool2 <- conv2
I1227 14:38:00.671030 12869 net.cpp:387] pool2 -> pool2
I1227 14:38:00.671074 12869 net.cpp:127] Setting up pool2
I1227 14:38:00.671082 12869 net.cpp:136] Top shape: 100 50 4 4 (80000)
I1227 14:38:00.671087 12869 net.cpp:144] Memory required for data: 7674800
I1227 14:38:00.671090 12869 layer_factory.hpp:77] Creating layer ip1
I1227 14:38:00.671098 12869 net.cpp:84] Creating Layer ip1
I1227 14:38:00.671103 12869 net.cpp:413] ip1 <- pool2
I1227 14:38:00.671111 12869 net.cpp:387] ip1 -> ip1
I1227 14:38:00.675436 12869 net.cpp:127] Setting up ip1
I1227 14:38:00.675453 12869 net.cpp:136] Top shape: 100 500 (50000)
I1227 14:38:00.675457 12869 net.cpp:144] Memory required for data: 7874800
I1227 14:38:00.675469 12869 layer_factory.hpp:77] Creating layer relu1
I1227 14:38:00.675477 12869 net.cpp:84] Creating Layer relu1
I1227 14:38:00.675483 12869 net.cpp:413] relu1 <- ip1
I1227 14:38:00.675489 12869 net.cpp:374] relu1 -> ip1 (in-place)
I1227 14:38:00.676834 12869 net.cpp:127] Setting up relu1
I1227 14:38:00.676851 12869 net.cpp:136] Top shape: 100 500 (50000)
I1227 14:38:00.676856 12869 net.cpp:144] Memory required for data: 8074800
I1227 14:38:00.676862 12869 layer_factory.hpp:77] Creating layer ip2
I1227 14:38:00.676872 12869 net.cpp:84] Creating Layer ip2
I1227 14:38:00.676877 12869 net.cpp:413] ip2 <- ip1
I1227 14:38:00.676884 12869 net.cpp:387] ip2 -> ip2
I1227 14:38:00.677044 12869 net.cpp:127] Setting up ip2
I1227 14:38:00.677052 12869 net.cpp:136] Top shape: 100 10 (1000)
I1227 14:38:00.677057 12869 net.cpp:144] Memory required for data: 8078800
I1227 14:38:00.677065 12869 layer_factory.hpp:77] Creating layer ip2_ip2_0_split
I1227 14:38:00.677072 12869 net.cpp:84] Creating Layer ip2_ip2_0_split
I1227 14:38:00.677076 12869 net.cpp:413] ip2_ip2_0_split <- ip2
I1227 14:38:00.677083 12869 net.cpp:387] ip2_ip2_0_split -> ip2_ip2_0_split_0
I1227 14:38:00.677090 12869 net.cpp:387] ip2_ip2_0_split -> ip2_ip2_0_split_1
I1227 14:38:00.677126 12869 net.cpp:127] Setting up ip2_ip2_0_split
I1227 14:38:00.677134 12869 net.cpp:136] Top shape: 100 10 (1000)
I1227 14:38:00.677139 12869 net.cpp:136] Top shape: 100 10 (1000)
I1227 14:38:00.677142 12869 net.cpp:144] Memory required for data: 8086800
I1227 14:38:00.677146 12869 layer_factory.hpp:77] Creating layer accuracy
I1227 14:38:00.677157 12869 net.cpp:84] Creating Layer accuracy
I1227 14:38:00.677162 12869 net.cpp:413] accuracy <- ip2_ip2_0_split_0
I1227 14:38:00.677167 12869 net.cpp:413] accuracy <- label_mnist_1_split_0
I1227 14:38:00.677173 12869 net.cpp:387] accuracy -> accuracy
…
