…
I1227 15:31:25.668303 27897 net.cpp:301] The NetState phase (0) differed from the phase (1) specified by a rule in layer mnist
I1227 15:31:25.668329 27897 net.cpp:301] The NetState phase (0) differed from the phase (1) specified by a rule in layer accuracy
I1227 15:31:25.668509 27897 net.cpp:51] Initializing net from parameters: 
name: "LeNet"
state {
  phase: TRAIN
  level: 0
  stage: ""
}
layer {
  name: "mnist"
  type: "Data"
  top: "data"
  top: "label"
  include {
    phase: TRAIN
  }
  transform_param {
    scale: 0.00390625
  }
  data_param {
    source: "examples/mnist/mnist_train_lmdb"
    batch_size: 128
    backend: LMDB
  }
}
layer {
  name: "conv1"
  type: "INQConvolution"
  bottom: "data"
  top: "conv1"
  param {
    lr_mult: 1
  }
  param {
    lr_mult: 2
  }
  convolution_param {
    num_output: 20
    kernel_size: 5
    stride: 1
    weight_filler {
      type: "xavier"
    }
    bias_filler {
      type: "constant"
    }
  }
  inq_convolution_param {
    portion: 0
    portion: 0.3
    weight_mask_filler {
      type: "constant"
      value: 1
    }
    bias_mask_filler {
      type: "constant"
      value: 1
    }
    num_quantum_values: 7
  }
}
layer {
  name: "pool1"
  type: "Pooling"
  bottom: "conv1"
  top: "pool1"
  pooling_param {
    pool: MAX
    kernel_size: 2
    stride: 2
  }
}
layer {
  name: "conv2"
  type: "INQConvolution"
  bottom: "pool1"
  top: "conv2"
  param {
    lr_mult: 1
  }
  param {
    lr_mult: 2
  }
  convolution_param {
    num_output: 50
    kernel_size: 5
    stride: 1
    weight_filler {
      type: "xavier"
    }
    bias_filler {
      type: "constant"
    }
  }
  inq_convolution_param {
    portion: 0
    portion: 0.3
    weight_mask_filler {
      type: "constant"
      value: 1
    }
    bias_mask_filler {
      type: "constant"
      value: 1
    }
    num_quantum_values: 7
  }
}
layer {
  name: "pool2"
  type: "Pooling"
  bottom: "conv2"
  top: "pool2"
  pooling_param {
    pool: MAX
    kernel_size: 2
    stride: 2
  }
}
layer {
  name: "ip1"
  type: "INQInnerProduct"
  bottom: "pool2"
  top: "ip1"
  param {
    lr_mult: 1
  }
  param {
    lr_mult: 2
  }
  inner_product_param {
    num_output: 500
    weight_filler {
      type: "xavier"
    }
    bias_filler {
      type: "constant"
    }
  }
  inq_inner_product_param {
    portion: 0
    portion: 0.3
    weight_mask_filler {
      type: "constant"
      value: 1
    }
    bias_mask_filler {
      type: "constant"
      value: 1
    }
    num_quantum_values: 7
  }
}
layer {
  name: "relu1"
  type: "ReLU"
  bottom: "ip1"
  top: "ip1"
}
layer {
  name: "ip2"
  type: "INQInnerProduct"
  bottom: "ip1"
  top: "ip2"
  param {
    lr_mult: 1
  }
  param {
    lr_mult: 2
  }
  inner_product_param {
    num_output: 10
    weight_filler {
      type: "xavier"
    }
    bias_filler {
      type: "constant"
    }
  }
  inq_inner_product_param {
    portion: 0
    portion: 0.3
    weight_mask_filler {
      type: "constant"
      value: 1
    }
    bias_mask_filler {
      type: "constant"
      value: 1
    }
    num_quantum_values: 7
  }
}
layer {
  name: "loss"
  type: "SoftmaxWithLoss"
  bottom: "ip2"
  bottom: "label"
  top: "loss"
}
I1227 15:31:25.668606 27897 layer_factory.hpp:77] Creating layer mnist
I1227 15:31:25.668771 27897 db_lmdb.cpp:35] Opened lmdb examples/mnist/mnist_train_lmdb
I1227 15:31:25.668843 27897 net.cpp:84] Creating Layer mnist
I1227 15:31:25.668853 27897 net.cpp:387] mnist -> data
I1227 15:31:25.668889 27897 net.cpp:387] mnist -> label
I1227 15:31:25.670364 27897 data_layer.cpp:45] output data size: 128,1,28,28
I1227 15:31:25.673781 27897 net.cpp:127] Setting up mnist
I1227 15:31:25.673801 27897 net.cpp:136] Top shape: 128 1 28 28 (100352)
I1227 15:31:25.673810 27897 net.cpp:136] Top shape: 128 (128)
I1227 15:31:25.673813 27897 net.cpp:144] Memory required for data: 401920
I1227 15:31:25.673822 27897 layer_factory.hpp:77] Creating layer conv1
I1227 15:31:25.673866 27897 net.cpp:84] Creating Layer conv1
I1227 15:31:25.673874 27897 net.cpp:413] conv1 <- data
I1227 15:31:25.673892 27897 net.cpp:387] conv1 -> conv1
I1227 15:31:25.675721 27897 net.cpp:127] Setting up conv1
I1227 15:31:25.675740 27897 net.cpp:136] Top shape: 128 20 24 24 (1474560)
I1227 15:31:25.675745 27897 net.cpp:144] Memory required for data: 6300160
I1227 15:31:25.675761 27897 net.cpp:453] Found INQ layer:conv1, type: INQConvolution, layer id:1
I1227 15:31:25.675772 27897 net.cpp:453] Found INQ layer:conv1, type: INQConvolution, layer id:1
I1227 15:31:25.675783 27897 net.cpp:453] Found INQ layer:conv1, type: INQConvolution, layer id:1
I1227 15:31:25.675791 27897 net.cpp:453] Found INQ layer:conv1, type: INQConvolution, layer id:1
I1227 15:31:25.675796 27897 layer_factory.hpp:77] Creating layer pool1
I1227 15:31:25.675809 27897 net.cpp:84] Creating Layer pool1
I1227 15:31:25.675814 27897 net.cpp:413] pool1 <- conv1
I1227 15:31:25.675822 27897 net.cpp:387] pool1 -> pool1
I1227 15:31:25.675887 27897 net.cpp:127] Setting up pool1
I1227 15:31:25.675896 27897 net.cpp:136] Top shape: 128 20 12 12 (368640)
I1227 15:31:25.675900 27897 net.cpp:144] Memory required for data: 7774720
I1227 15:31:25.675905 27897 layer_factory.hpp:77] Creating layer conv2
I1227 15:31:25.675916 27897 net.cpp:84] Creating Layer conv2
I1227 15:31:25.675920 27897 net.cpp:413] conv2 <- pool1
I1227 15:31:25.675935 27897 net.cpp:387] conv2 -> conv2
I1227 15:31:25.677809 27897 net.cpp:127] Setting up conv2
I1227 15:31:25.677827 27897 net.cpp:136] Top shape: 128 50 8 8 (409600)
I1227 15:31:25.677832 27897 net.cpp:144] Memory required for data: 9413120
I1227 15:31:25.677842 27897 net.cpp:453] Found INQ layer:conv2, type: INQConvolution, layer id:3
I1227 15:31:25.677851 27897 net.cpp:453] Found INQ layer:conv2, type: INQConvolution, layer id:3
I1227 15:31:25.677857 27897 net.cpp:453] Found INQ layer:conv2, type: INQConvolution, layer id:3
I1227 15:31:25.677863 27897 net.cpp:453] Found INQ layer:conv2, type: INQConvolution, layer id:3
I1227 15:31:25.677868 27897 layer_factory.hpp:77] Creating layer pool2
I1227 15:31:25.677877 27897 net.cpp:84] Creating Layer pool2
I1227 15:31:25.677882 27897 net.cpp:413] pool2 <- conv2
I1227 15:31:25.677892 27897 net.cpp:387] pool2 -> pool2
I1227 15:31:25.677933 27897 net.cpp:127] Setting up pool2
I1227 15:31:25.677940 27897 net.cpp:136] Top shape: 128 50 4 4 (102400)
I1227 15:31:25.677945 27897 net.cpp:144] Memory required for data: 9822720
I1227 15:31:25.677949 27897 layer_factory.hpp:77] Creating layer ip1
I1227 15:31:25.677965 27897 net.cpp:84] Creating Layer ip1
I1227 15:31:25.677970 27897 net.cpp:413] ip1 <- pool2
I1227 15:31:25.677979 27897 net.cpp:387] ip1 -> ip1
I1227 15:31:25.684062 27897 net.cpp:127] Setting up ip1
I1227 15:31:25.684079 27897 net.cpp:136] Top shape: 128 500 (64000)
I1227 15:31:25.684084 27897 net.cpp:144] Memory required for data: 10078720
I1227 15:31:25.684093 27897 net.cpp:453] Found INQ layer:ip1, type: INQInnerProduct, layer id:5
I1227 15:31:25.684103 27897 net.cpp:453] Found INQ layer:ip1, type: INQInnerProduct, layer id:5
I1227 15:31:25.684109 27897 net.cpp:453] Found INQ layer:ip1, type: INQInnerProduct, layer id:5
I1227 15:31:25.684114 27897 net.cpp:453] Found INQ layer:ip1, type: INQInnerProduct, layer id:5
I1227 15:31:25.684119 27897 layer_factory.hpp:77] Creating layer relu1
I1227 15:31:25.684134 27897 net.cpp:84] Creating Layer relu1
I1227 15:31:25.684140 27897 net.cpp:413] relu1 <- ip1
I1227 15:31:25.684160 27897 net.cpp:374] relu1 -> ip1 (in-place)
I1227 15:31:26.023247 27897 net.cpp:127] Setting up relu1
I1227 15:31:26.023305 27897 net.cpp:136] Top shape: 128 500 (64000)
I1227 15:31:26.023313 27897 net.cpp:144] Memory required for data: 10334720
I1227 15:31:26.023322 27897 layer_factory.hpp:77] Creating layer ip2
I1227 15:31:26.023350 27897 net.cpp:84] Creating Layer ip2
I1227 15:31:26.023357 27897 net.cpp:413] ip2 <- ip1
I1227 15:31:26.023368 27897 net.cpp:387] ip2 -> ip2
I1227 15:31:26.024981 27897 net.cpp:127] Setting up ip2
I1227 15:31:26.024997 27897 net.cpp:136] Top shape: 128 10 (1280)
I1227 15:31:26.025003 27897 net.cpp:144] Memory required for data: 10339840
I1227 15:31:26.025012 27897 net.cpp:453] Found INQ layer:ip2, type: INQInnerProduct, layer id:7
I1227 15:31:26.025020 27897 net.cpp:453] Found INQ layer:ip2, type: INQInnerProduct, layer id:7
I1227 15:31:26.025027 27897 net.cpp:453] Found INQ layer:ip2, type: INQInnerProduct, layer id:7
I1227 15:31:26.025032 27897 net.cpp:453] Found INQ layer:ip2, type: INQInnerProduct, layer id:7
…
I1227 15:31:26.028369 27897 solver.cpp:172] Creating test net (#0) specified by net file: examples/mnist/lenet_train_test_inq_30.prototxt
I1227 15:31:26.028406 27897 net.cpp:301] The NetState phase (1) differed from the phase (0) specified by a rule in layer mnist
I1227 15:31:26.028592 27897 net.cpp:51] Initializing net from parameters: 
name: "LeNet"
state {
  phase: TEST
}
layer {
  name: "mnist"
  type: "Data"
  top: "data"
  top: "label"
  include {
    phase: TEST
  }
  transform_param {
    scale: 0.00390625
  }
  data_param {
    source: "examples/mnist/mnist_test_lmdb"
    batch_size: 100
    backend: LMDB
  }
}
layer {
  name: "conv1"
  type: "INQConvolution"
  bottom: "data"
  top: "conv1"
  param {
    lr_mult: 1
  }
  param {
    lr_mult: 2
  }
  convolution_param {
    num_output: 20
    kernel_size: 5
    stride: 1
    weight_filler {
      type: "xavier"
    }
    bias_filler {
      type: "constant"
    }
  }
  inq_convolution_param {
    portion: 0
    portion: 0.3
    weight_mask_filler {
      type: "constant"
      value: 1
    }
    bias_mask_filler {
      type: "constant"
      value: 1
    }
    num_quantum_values: 7
  }
}
layer {
  name: "pool1"
  type: "Pooling"
  bottom: "conv1"
  top: "pool1"
  pooling_param {
    pool: MAX
    kernel_size: 2
    stride: 2
  }
}
layer {
  name: "conv2"
  type: "INQConvolution"
  bottom: "pool1"
  top: "conv2"
  param {
    lr_mult: 1
  }
  param {
    lr_mult: 2
  }
  convolution_param {
    num_output: 50
    kernel_size: 5
    stride: 1
    weight_filler {
      type: "xavier"
    }
    bias_filler {
      type: "constant"
    }
  }
  inq_convolution_param {
    portion: 0
    portion: 0.3
    weight_mask_filler {
      type: "constant"
      value: 1
    }
    bias_mask_filler {
      type: "constant"
      value: 1
    }
    num_quantum_values: 7
  }
}
layer {
  name: "pool2"
  type: "Pooling"
  bottom: "conv2"
  top: "pool2"
  pooling_param {
    pool: MAX
    kernel_size: 2
    stride: 2
  }
}
layer {
  name: "ip1"
  type: "INQInnerProduct"
  bottom: "pool2"
  top: "ip1"
  param {
    lr_mult: 1
  }
  param {
    lr_mult: 2
  }
  inner_product_param {
    num_output: 500
    weight_filler {
      type: "xavier"
    }
    bias_filler {
      type: "constant"
    }
  }
  inq_inner_product_param {
    portion: 0
    portion: 0.3
    weight_mask_filler {
      type: "constant"
      value: 1
    }
    bias_mask_filler {
      type: "constant"
      value: 1
    }
    num_quantum_values: 7
  }
}
layer {
  name: "relu1"
  type: "ReLU"
  bottom: "ip1"
  top: "ip1"
}
layer {
  name: "ip2"
  type: "INQInnerProduct"
  bottom: "ip1"
  top: "ip2"
  param {
    lr_mult: 1
  }
  param {
    lr_mult: 2
  }
  inner_product_param {
    num_output: 10
    weight_filler {
      type: "xavier"
    }
    bias_filler {
      type: "constant"
    }
  }
  inq_inner_product_param {
    portion: 0
    portion: 0.3
    weight_mask_filler {
      type: "constant"
      value: 1
    }
    bias_mask_filler {
      type: "constant"
      value: 1
    }
    num_quantum_values: 7
  }
}
layer {
  name: "accuracy"
  type: "Accuracy"
  bottom: "ip2"
  bottom: "label"
  top: "accuracy"
  include {
    phase: TEST
  }
}
layer {
  name: "loss"
  type: "SoftmaxWithLoss"
  bottom: "ip2"
  bottom: "label"
  top: "loss"
}
I1227 15:31:26.028717 27897 layer_factory.hpp:77] Creating layer mnist
I1227 15:31:26.028786 27897 db_lmdb.cpp:35] Opened lmdb examples/mnist/mnist_test_lmdb
I1227 15:31:26.028803 27897 net.cpp:84] Creating Layer mnist
I1227 15:31:26.028810 27897 net.cpp:387] mnist -> data
I1227 15:31:26.028821 27897 net.cpp:387] mnist -> label
I1227 15:31:26.028931 27897 data_layer.cpp:45] output data size: 100,1,28,28
I1227 15:31:26.032037 27897 net.cpp:127] Setting up mnist
I1227 15:31:26.032057 27897 net.cpp:136] Top shape: 100 1 28 28 (78400)
I1227 15:31:26.032063 27897 net.cpp:136] Top shape: 100 (100)
I1227 15:31:26.032068 27897 net.cpp:144] Memory required for data: 314000
I1227 15:31:26.032074 27897 layer_factory.hpp:77] Creating layer label_mnist_1_split
I1227 15:31:26.032102 27897 net.cpp:84] Creating Layer label_mnist_1_split
I1227 15:31:26.032109 27897 net.cpp:413] label_mnist_1_split <- label
I1227 15:31:26.032115 27897 net.cpp:387] label_mnist_1_split -> label_mnist_1_split_0
I1227 15:31:26.032125 27897 net.cpp:387] label_mnist_1_split -> label_mnist_1_split_1
I1227 15:31:26.032256 27897 net.cpp:127] Setting up label_mnist_1_split
I1227 15:31:26.032265 27897 net.cpp:136] Top shape: 100 (100)
I1227 15:31:26.032271 27897 net.cpp:136] Top shape: 100 (100)
I1227 15:31:26.032275 27897 net.cpp:144] Memory required for data: 314800
I1227 15:31:26.032279 27897 layer_factory.hpp:77] Creating layer conv1
I1227 15:31:26.032297 27897 net.cpp:84] Creating Layer conv1
I1227 15:31:26.032304 27897 net.cpp:413] conv1 <- data
I1227 15:31:26.032310 27897 net.cpp:387] conv1 -> conv1
I1227 15:31:26.032758 27897 net.cpp:127] Setting up conv1
I1227 15:31:26.032769 27897 net.cpp:136] Top shape: 100 20 24 24 (1152000)
I1227 15:31:26.032774 27897 net.cpp:144] Memory required for data: 4922800
I1227 15:31:26.032783 27897 net.cpp:453] Found INQ layer:conv1, type: INQConvolution, layer id:2
I1227 15:31:26.032791 27897 net.cpp:453] Found INQ layer:conv1, type: INQConvolution, layer id:2
I1227 15:31:26.032799 27897 net.cpp:453] Found INQ layer:conv1, type: INQConvolution, layer id:2
I1227 15:31:26.032805 27897 net.cpp:453] Found INQ layer:conv1, type: INQConvolution, layer id:2
I1227 15:31:26.032810 27897 layer_factory.hpp:77] Creating layer pool1
I1227 15:31:26.032825 27897 net.cpp:84] Creating Layer pool1
I1227 15:31:26.032830 27897 net.cpp:413] pool1 <- conv1
I1227 15:31:26.032850 27897 net.cpp:387] pool1 -> pool1
I1227 15:31:26.032892 27897 net.cpp:127] Setting up pool1
I1227 15:31:26.032901 27897 net.cpp:136] Top shape: 100 20 12 12 (288000)
I1227 15:31:26.032904 27897 net.cpp:144] Memory required for data: 6074800
I1227 15:31:26.032909 27897 layer_factory.hpp:77] Creating layer conv2
I1227 15:31:26.032919 27897 net.cpp:84] Creating Layer conv2
I1227 15:31:26.032924 27897 net.cpp:413] conv2 <- pool1
I1227 15:31:26.032930 27897 net.cpp:387] conv2 -> conv2
I1227 15:31:26.033448 27897 net.cpp:127] Setting up conv2
I1227 15:31:26.033459 27897 net.cpp:136] Top shape: 100 50 8 8 (320000)
I1227 15:31:26.033463 27897 net.cpp:144] Memory required for data: 7354800
I1227 15:31:26.033471 27897 net.cpp:453] Found INQ layer:conv2, type: INQConvolution, layer id:4
I1227 15:31:26.033479 27897 net.cpp:453] Found INQ layer:conv2, type: INQConvolution, layer id:4
I1227 15:31:26.033485 27897 net.cpp:453] Found INQ layer:conv2, type: INQConvolution, layer id:4
I1227 15:31:26.033491 27897 net.cpp:453] Found INQ layer:conv2, type: INQConvolution, layer id:4
I1227 15:31:26.033495 27897 layer_factory.hpp:77] Creating layer pool2
I1227 15:31:26.033502 27897 net.cpp:84] Creating Layer pool2
I1227 15:31:26.033507 27897 net.cpp:413] pool2 <- conv2
I1227 15:31:26.033514 27897 net.cpp:387] pool2 -> pool2
I1227 15:31:26.033550 27897 net.cpp:127] Setting up pool2
I1227 15:31:26.033557 27897 net.cpp:136] Top shape: 100 50 4 4 (80000)
I1227 15:31:26.033561 27897 net.cpp:144] Memory required for data: 7674800
I1227 15:31:26.033565 27897 layer_factory.hpp:77] Creating layer ip1
I1227 15:31:26.033573 27897 net.cpp:84] Creating Layer ip1
I1227 15:31:26.033578 27897 net.cpp:413] ip1 <- pool2
I1227 15:31:26.033586 27897 net.cpp:387] ip1 -> ip1
I1227 15:31:26.038398 27897 net.cpp:127] Setting up ip1
I1227 15:31:26.038414 27897 net.cpp:136] Top shape: 100 500 (50000)
I1227 15:31:26.038420 27897 net.cpp:144] Memory required for data: 7874800
I1227 15:31:26.038429 27897 net.cpp:453] Found INQ layer:ip1, type: INQInnerProduct, layer id:6
I1227 15:31:26.038439 27897 net.cpp:453] Found INQ layer:ip1, type: INQInnerProduct, layer id:6
I1227 15:31:26.038446 27897 net.cpp:453] Found INQ layer:ip1, type: INQInnerProduct, layer id:6
I1227 15:31:26.038452 27897 net.cpp:453] Found INQ layer:ip1, type: INQInnerProduct, layer id:6
I1227 15:31:26.038456 27897 layer_factory.hpp:77] Creating layer relu1
I1227 15:31:26.038466 27897 net.cpp:84] Creating Layer relu1
I1227 15:31:26.038471 27897 net.cpp:413] relu1 <- ip1
I1227 15:31:26.038478 27897 net.cpp:374] relu1 -> ip1 (in-place)
I1227 15:31:26.038714 27897 net.cpp:127] Setting up relu1
I1227 15:31:26.038724 27897 net.cpp:136] Top shape: 100 500 (50000)
I1227 15:31:26.038729 27897 net.cpp:144] Memory required for data: 8074800
I1227 15:31:26.038734 27897 layer_factory.hpp:77] Creating layer ip2
I1227 15:31:26.038746 27897 net.cpp:84] Creating Layer ip2
I1227 15:31:26.038753 27897 net.cpp:413] ip2 <- ip1
I1227 15:31:26.038759 27897 net.cpp:387] ip2 -> ip2
I1227 15:31:26.038990 27897 net.cpp:127] Setting up ip2
I1227 15:31:26.038998 27897 net.cpp:136] Top shape: 100 10 (1000)
I1227 15:31:26.039002 27897 net.cpp:144] Memory required for data: 8078800
I1227 15:31:26.039010 27897 net.cpp:453] Found INQ layer:ip2, type: INQInnerProduct, layer id:8
I1227 15:31:26.039016 27897 net.cpp:453] Found INQ layer:ip2, type: INQInnerProduct, layer id:8
I1227 15:31:26.039021 27897 net.cpp:453] Found INQ layer:ip2, type: INQInnerProduct, layer id:8
I1227 15:31:26.039026 27897 net.cpp:453] Found INQ layer:ip2, type: INQInnerProduct, layer id:8
I1227 15:31:26.039031 27897 layer_factory.hpp:77] Creating layer ip2_ip2_0_split
I1227 15:31:26.039037 27897 net.cpp:84] Creating Layer ip2_ip2_0_split
I1227 15:31:26.039041 27897 net.cpp:413] ip2_ip2_0_split <- ip2
I1227 15:31:26.039048 27897 net.cpp:387] ip2_ip2_0_split -> ip2_ip2_0_split_0
I1227 15:31:26.039055 27897 net.cpp:387] ip2_ip2_0_split -> ip2_ip2_0_split_1
I1227 15:31:26.039101 27897 net.cpp:127] Setting up ip2_ip2_0_split
I1227 15:31:26.039121 27897 net.cpp:136] Top shape: 100 10 (1000)
I1227 15:31:26.039127 27897 net.cpp:136] Top shape: 100 10 (1000)
I1227 15:31:26.039131 27897 net.cpp:144] Memory required for data: 8086800
I1227 15:31:26.039135 27897 layer_factory.hpp:77] Creating layer accuracy
I1227 15:31:26.039146 27897 net.cpp:84] Creating Layer accuracy
I1227 15:31:26.039151 27897 net.cpp:413] accuracy <- ip2_ip2_0_split_0
I1227 15:31:26.039157 27897 net.cpp:413] accuracy <- label_mnist_1_split_0
I1227 15:31:26.039163 27897 net.cpp:387] accuracy -> accuracy
…
