…
I1227 16:19:00.089328 39117 net.cpp:301] The NetState phase (0) differed from the phase (1) specified by a rule in layer mnist
I1227 16:19:00.089351 39117 net.cpp:301] The NetState phase (0) differed from the phase (1) specified by a rule in layer accuracy
I1227 16:19:00.089550 39117 net.cpp:51] Initializing net from parameters: 
name: "LeNet"
state {
  phase: TRAIN
  level: 0
  stage: ""
}
layer {
  name: "mnist"
  type: "Data"
  top: "data"
  top: "label"
  include {
    phase: TRAIN
  }
  transform_param {
    scale: 0.00390625
  }
  data_param {
    source: "examples/mnist/mnist_train_lmdb"
    batch_size: 128
    backend: LMDB
  }
}
layer {
  name: "conv1"
  type: "INQConvolution"
  bottom: "data"
  top: "conv1"
  param {
    lr_mult: 1
  }
  param {
    lr_mult: 2
  }
  convolution_param {
    num_output: 20
    kernel_size: 5
    stride: 1
    weight_filler {
      type: "xavier"
    }
    bias_filler {
      type: "constant"
    }
  }
  inq_convolution_param {
    portion: 0.8
    portion: 0.9
    weight_mask_filler {
      type: "constant"
      value: 1
    }
    bias_mask_filler {
      type: "constant"
      value: 1
    }
    num_quantum_values: 7
  }
}
layer {
  name: "pool1"
  type: "Pooling"
  bottom: "conv1"
  top: "pool1"
  pooling_param {
    pool: MAX
    kernel_size: 2
    stride: 2
  }
}
layer {
  name: "conv2"
  type: "INQConvolution"
  bottom: "pool1"
  top: "conv2"
  param {
    lr_mult: 1
  }
  param {
    lr_mult: 2
  }
  convolution_param {
    num_output: 50
    kernel_size: 5
    stride: 1
    weight_filler {
      type: "xavier"
    }
    bias_filler {
      type: "constant"
    }
  }
  inq_convolution_param {
    portion: 0.8
    portion: 0.9
    weight_mask_filler {
      type: "constant"
      value: 1
    }
    bias_mask_filler {
      type: "constant"
      value: 1
    }
    num_quantum_values: 7
  }
}
layer {
  name: "pool2"
  type: "Pooling"
  bottom: "conv2"
  top: "pool2"
  pooling_param {
    pool: MAX
    kernel_size: 2
    stride: 2
  }
}
layer {
  name: "ip1"
  type: "INQInnerProduct"
  bottom: "pool2"
  top: "ip1"
  param {
    lr_mult: 1
  }
  param {
    lr_mult: 2
  }
  inner_product_param {
    num_output: 500
    weight_filler {
      type: "xavier"
    }
    bias_filler {
      type: "constant"
    }
  }
  inq_inner_product_param {
    portion: 0.8
    portion: 0.9
    weight_mask_filler {
      type: "constant"
      value: 1
    }
    bias_mask_filler {
      type: "constant"
      value: 1
    }
    num_quantum_values: 7
  }
}
layer {
  name: "relu1"
  type: "ReLU"
  bottom: "ip1"
  top: "ip1"
}
layer {
  name: "ip2"
  type: "INQInnerProduct"
  bottom: "ip1"
  top: "ip2"
  param {
    lr_mult: 1
  }
  param {
    lr_mult: 2
  }
  inner_product_param {
    num_output: 10
    weight_filler {
      type: "xavier"
    }
    bias_filler {
      type: "constant"
    }
  }
  inq_inner_product_param {
    portion: 0.8
    portion: 0.9
    weight_mask_filler {
      type: "constant"
      value: 1
    }
    bias_mask_filler {
      type: "constant"
      value: 1
    }
    num_quantum_values: 7
  }
}
layer {
  name: "loss"
  type: "SoftmaxWithLoss"
  bottom: "ip2"
  bottom: "label"
  top: "loss"
}
I1227 16:19:00.089642 39117 layer_factory.hpp:77] Creating layer mnist
I1227 16:19:00.089794 39117 db_lmdb.cpp:35] Opened lmdb examples/mnist/mnist_train_lmdb
I1227 16:19:00.089864 39117 net.cpp:84] Creating Layer mnist
I1227 16:19:00.089879 39117 net.cpp:387] mnist -> data
I1227 16:19:00.089910 39117 net.cpp:387] mnist -> label
I1227 16:19:00.091446 39117 data_layer.cpp:45] output data size: 128,1,28,28
I1227 16:19:00.094943 39117 net.cpp:127] Setting up mnist
I1227 16:19:00.094965 39117 net.cpp:136] Top shape: 128 1 28 28 (100352)
I1227 16:19:00.094972 39117 net.cpp:136] Top shape: 128 (128)
I1227 16:19:00.094976 39117 net.cpp:144] Memory required for data: 401920
I1227 16:19:00.094985 39117 layer_factory.hpp:77] Creating layer conv1
I1227 16:19:00.095036 39117 net.cpp:84] Creating Layer conv1
I1227 16:19:00.095043 39117 net.cpp:413] conv1 <- data
I1227 16:19:00.095065 39117 net.cpp:387] conv1 -> conv1
I1227 16:19:00.097084 39117 net.cpp:127] Setting up conv1
I1227 16:19:00.097101 39117 net.cpp:136] Top shape: 128 20 24 24 (1474560)
I1227 16:19:00.097106 39117 net.cpp:144] Memory required for data: 6300160
I1227 16:19:00.097122 39117 net.cpp:453] Found INQ layer:conv1, type: INQConvolution, layer id:1
I1227 16:19:00.097133 39117 net.cpp:453] Found INQ layer:conv1, type: INQConvolution, layer id:1
I1227 16:19:00.097141 39117 net.cpp:453] Found INQ layer:conv1, type: INQConvolution, layer id:1
I1227 16:19:00.097148 39117 net.cpp:453] Found INQ layer:conv1, type: INQConvolution, layer id:1
I1227 16:19:00.097153 39117 layer_factory.hpp:77] Creating layer pool1
I1227 16:19:00.097170 39117 net.cpp:84] Creating Layer pool1
I1227 16:19:00.097177 39117 net.cpp:413] pool1 <- conv1
I1227 16:19:00.097182 39117 net.cpp:387] pool1 -> pool1
I1227 16:19:00.097247 39117 net.cpp:127] Setting up pool1
I1227 16:19:00.097255 39117 net.cpp:136] Top shape: 128 20 12 12 (368640)
I1227 16:19:00.097259 39117 net.cpp:144] Memory required for data: 7774720
I1227 16:19:00.097265 39117 layer_factory.hpp:77] Creating layer conv2
I1227 16:19:00.097275 39117 net.cpp:84] Creating Layer conv2
I1227 16:19:00.097280 39117 net.cpp:413] conv2 <- pool1
I1227 16:19:00.097299 39117 net.cpp:387] conv2 -> conv2
I1227 16:19:00.099279 39117 net.cpp:127] Setting up conv2
I1227 16:19:00.099303 39117 net.cpp:136] Top shape: 128 50 8 8 (409600)
I1227 16:19:00.099308 39117 net.cpp:144] Memory required for data: 9413120
I1227 16:19:00.099316 39117 net.cpp:453] Found INQ layer:conv2, type: INQConvolution, layer id:3
I1227 16:19:00.099326 39117 net.cpp:453] Found INQ layer:conv2, type: INQConvolution, layer id:3
I1227 16:19:00.099333 39117 net.cpp:453] Found INQ layer:conv2, type: INQConvolution, layer id:3
I1227 16:19:00.099339 39117 net.cpp:453] Found INQ layer:conv2, type: INQConvolution, layer id:3
I1227 16:19:00.099344 39117 layer_factory.hpp:77] Creating layer pool2
I1227 16:19:00.099355 39117 net.cpp:84] Creating Layer pool2
I1227 16:19:00.099361 39117 net.cpp:413] pool2 <- conv2
I1227 16:19:00.099369 39117 net.cpp:387] pool2 -> pool2
I1227 16:19:00.099412 39117 net.cpp:127] Setting up pool2
I1227 16:19:00.099419 39117 net.cpp:136] Top shape: 128 50 4 4 (102400)
I1227 16:19:00.099424 39117 net.cpp:144] Memory required for data: 9822720
I1227 16:19:00.099428 39117 layer_factory.hpp:77] Creating layer ip1
I1227 16:19:00.099445 39117 net.cpp:84] Creating Layer ip1
I1227 16:19:00.099450 39117 net.cpp:413] ip1 <- pool2
I1227 16:19:00.099460 39117 net.cpp:387] ip1 -> ip1
I1227 16:19:00.105774 39117 net.cpp:127] Setting up ip1
I1227 16:19:00.105792 39117 net.cpp:136] Top shape: 128 500 (64000)
I1227 16:19:00.105798 39117 net.cpp:144] Memory required for data: 10078720
I1227 16:19:00.105808 39117 net.cpp:453] Found INQ layer:ip1, type: INQInnerProduct, layer id:5
I1227 16:19:00.105816 39117 net.cpp:453] Found INQ layer:ip1, type: INQInnerProduct, layer id:5
I1227 16:19:00.105823 39117 net.cpp:453] Found INQ layer:ip1, type: INQInnerProduct, layer id:5
I1227 16:19:00.105829 39117 net.cpp:453] Found INQ layer:ip1, type: INQInnerProduct, layer id:5
I1227 16:19:00.105834 39117 layer_factory.hpp:77] Creating layer relu1
I1227 16:19:00.105847 39117 net.cpp:84] Creating Layer relu1
I1227 16:19:00.105852 39117 net.cpp:413] relu1 <- ip1
I1227 16:19:00.105871 39117 net.cpp:374] relu1 -> ip1 (in-place)
I1227 16:19:00.459031 39117 net.cpp:127] Setting up relu1
I1227 16:19:00.459076 39117 net.cpp:136] Top shape: 128 500 (64000)
I1227 16:19:00.459082 39117 net.cpp:144] Memory required for data: 10334720
I1227 16:19:00.459090 39117 layer_factory.hpp:77] Creating layer ip2
I1227 16:19:00.459110 39117 net.cpp:84] Creating Layer ip2
I1227 16:19:00.459117 39117 net.cpp:413] ip2 <- ip1
I1227 16:19:00.459128 39117 net.cpp:387] ip2 -> ip2
I1227 16:19:00.460817 39117 net.cpp:127] Setting up ip2
I1227 16:19:00.460835 39117 net.cpp:136] Top shape: 128 10 (1280)
I1227 16:19:00.460840 39117 net.cpp:144] Memory required for data: 10339840
I1227 16:19:00.460849 39117 net.cpp:453] Found INQ layer:ip2, type: INQInnerProduct, layer id:7
I1227 16:19:00.460857 39117 net.cpp:453] Found INQ layer:ip2, type: INQInnerProduct, layer id:7
I1227 16:19:00.460863 39117 net.cpp:453] Found INQ layer:ip2, type: INQInnerProduct, layer id:7
I1227 16:19:00.460868 39117 net.cpp:453] Found INQ layer:ip2, type: INQInnerProduct, layer id:7
…
I1227 16:19:00.464306 39117 solver.cpp:172] Creating test net (#0) specified by net file: examples/mnist/lenet_train_test_inq_90.prototxt
I1227 16:19:00.464342 39117 net.cpp:301] The NetState phase (1) differed from the phase (0) specified by a rule in layer mnist
I1227 16:19:00.464524 39117 net.cpp:51] Initializing net from parameters: 
name: "LeNet"
state {
  phase: TEST
}
layer {
  name: "mnist"
  type: "Data"
  top: "data"
  top: "label"
  include {
    phase: TEST
  }
  transform_param {
    scale: 0.00390625
  }
  data_param {
    source: "examples/mnist/mnist_test_lmdb"
    batch_size: 100
    backend: LMDB
  }
}
layer {
  name: "conv1"
  type: "INQConvolution"
  bottom: "data"
  top: "conv1"
  param {
    lr_mult: 1
  }
  param {
    lr_mult: 2
  }
  convolution_param {
    num_output: 20
    kernel_size: 5
    stride: 1
    weight_filler {
      type: "xavier"
    }
    bias_filler {
      type: "constant"
    }
  }
  inq_convolution_param {
    portion: 0.8
    portion: 0.9
    weight_mask_filler {
      type: "constant"
      value: 1
    }
    bias_mask_filler {
      type: "constant"
      value: 1
    }
    num_quantum_values: 7
  }
}
layer {
  name: "pool1"
  type: "Pooling"
  bottom: "conv1"
  top: "pool1"
  pooling_param {
    pool: MAX
    kernel_size: 2
    stride: 2
  }
}
layer {
  name: "conv2"
  type: "INQConvolution"
  bottom: "pool1"
  top: "conv2"
  param {
    lr_mult: 1
  }
  param {
    lr_mult: 2
  }
  convolution_param {
    num_output: 50
    kernel_size: 5
    stride: 1
    weight_filler {
      type: "xavier"
    }
    bias_filler {
      type: "constant"
    }
  }
  inq_convolution_param {
    portion: 0.8
    portion: 0.9
    weight_mask_filler {
      type: "constant"
      value: 1
    }
    bias_mask_filler {
      type: "constant"
      value: 1
    }
    num_quantum_values: 7
  }
}
layer {
  name: "pool2"
  type: "Pooling"
  bottom: "conv2"
  top: "pool2"
  pooling_param {
    pool: MAX
    kernel_size: 2
    stride: 2
  }
}
layer {
  name: "ip1"
  type: "INQInnerProduct"
  bottom: "pool2"
  top: "ip1"
  param {
    lr_mult: 1
  }
  param {
    lr_mult: 2
  }
  inner_product_param {
    num_output: 500
    weight_filler {
      type: "xavier"
    }
    bias_filler {
      type: "constant"
    }
  }
  inq_inner_product_param {
    portion: 0.8
    portion: 0.9
    weight_mask_filler {
      type: "constant"
      value: 1
    }
    bias_mask_filler {
      type: "constant"
      value: 1
    }
    num_quantum_values: 7
  }
}
layer {
  name: "relu1"
  type: "ReLU"
  bottom: "ip1"
  top: "ip1"
}
layer {
  name: "ip2"
  type: "INQInnerProduct"
  bottom: "ip1"
  top: "ip2"
  param {
    lr_mult: 1
  }
  param {
    lr_mult: 2
  }
  inner_product_param {
    num_output: 10
    weight_filler {
      type: "xavier"
    }
    bias_filler {
      type: "constant"
    }
  }
  inq_inner_product_param {
    portion: 0.8
    portion: 0.9
    weight_mask_filler {
      type: "constant"
      value: 1
    }
    bias_mask_filler {
      type: "constant"
      value: 1
    }
    num_quantum_values: 7
  }
}
layer {
  name: "accuracy"
  type: "Accuracy"
  bottom: "ip2"
  bottom: "label"
  top: "accuracy"
  include {
    phase: TEST
  }
}
layer {
  name: "loss"
  type: "SoftmaxWithLoss"
  bottom: "ip2"
  bottom: "label"
  top: "loss"
}
I1227 16:19:00.464648 39117 layer_factory.hpp:77] Creating layer mnist
I1227 16:19:00.464717 39117 db_lmdb.cpp:35] Opened lmdb examples/mnist/mnist_test_lmdb
I1227 16:19:00.464735 39117 net.cpp:84] Creating Layer mnist
I1227 16:19:00.464742 39117 net.cpp:387] mnist -> data
I1227 16:19:00.464753 39117 net.cpp:387] mnist -> label
I1227 16:19:00.464864 39117 data_layer.cpp:45] output data size: 100,1,28,28
I1227 16:19:00.468072 39117 net.cpp:127] Setting up mnist
I1227 16:19:00.468091 39117 net.cpp:136] Top shape: 100 1 28 28 (78400)
I1227 16:19:00.468098 39117 net.cpp:136] Top shape: 100 (100)
I1227 16:19:00.468103 39117 net.cpp:144] Memory required for data: 314000
I1227 16:19:00.468109 39117 layer_factory.hpp:77] Creating layer label_mnist_1_split
I1227 16:19:00.468135 39117 net.cpp:84] Creating Layer label_mnist_1_split
I1227 16:19:00.468142 39117 net.cpp:413] label_mnist_1_split <- label
I1227 16:19:00.468149 39117 net.cpp:387] label_mnist_1_split -> label_mnist_1_split_0
I1227 16:19:00.468158 39117 net.cpp:387] label_mnist_1_split -> label_mnist_1_split_1
I1227 16:19:00.468274 39117 net.cpp:127] Setting up label_mnist_1_split
I1227 16:19:00.468288 39117 net.cpp:136] Top shape: 100 (100)
I1227 16:19:00.468294 39117 net.cpp:136] Top shape: 100 (100)
I1227 16:19:00.468299 39117 net.cpp:144] Memory required for data: 314800
I1227 16:19:00.468303 39117 layer_factory.hpp:77] Creating layer conv1
I1227 16:19:00.468314 39117 net.cpp:84] Creating Layer conv1
I1227 16:19:00.468319 39117 net.cpp:413] conv1 <- data
I1227 16:19:00.468327 39117 net.cpp:387] conv1 -> conv1
I1227 16:19:00.468724 39117 net.cpp:127] Setting up conv1
I1227 16:19:00.468734 39117 net.cpp:136] Top shape: 100 20 24 24 (1152000)
I1227 16:19:00.468739 39117 net.cpp:144] Memory required for data: 4922800
I1227 16:19:00.468747 39117 net.cpp:453] Found INQ layer:conv1, type: INQConvolution, layer id:2
I1227 16:19:00.468756 39117 net.cpp:453] Found INQ layer:conv1, type: INQConvolution, layer id:2
I1227 16:19:00.468765 39117 net.cpp:453] Found INQ layer:conv1, type: INQConvolution, layer id:2
I1227 16:19:00.468773 39117 net.cpp:453] Found INQ layer:conv1, type: INQConvolution, layer id:2
I1227 16:19:00.468778 39117 layer_factory.hpp:77] Creating layer pool1
I1227 16:19:00.468794 39117 net.cpp:84] Creating Layer pool1
I1227 16:19:00.468811 39117 net.cpp:413] pool1 <- conv1
I1227 16:19:00.468818 39117 net.cpp:387] pool1 -> pool1
I1227 16:19:00.468868 39117 net.cpp:127] Setting up pool1
I1227 16:19:00.468874 39117 net.cpp:136] Top shape: 100 20 12 12 (288000)
I1227 16:19:00.468879 39117 net.cpp:144] Memory required for data: 6074800
I1227 16:19:00.468883 39117 layer_factory.hpp:77] Creating layer conv2
I1227 16:19:00.468894 39117 net.cpp:84] Creating Layer conv2
I1227 16:19:00.468899 39117 net.cpp:413] conv2 <- pool1
I1227 16:19:00.468904 39117 net.cpp:387] conv2 -> conv2
I1227 16:19:00.469424 39117 net.cpp:127] Setting up conv2
I1227 16:19:00.469434 39117 net.cpp:136] Top shape: 100 50 8 8 (320000)
I1227 16:19:00.469437 39117 net.cpp:144] Memory required for data: 7354800
I1227 16:19:00.469445 39117 net.cpp:453] Found INQ layer:conv2, type: INQConvolution, layer id:4
I1227 16:19:00.469454 39117 net.cpp:453] Found INQ layer:conv2, type: INQConvolution, layer id:4
I1227 16:19:00.469460 39117 net.cpp:453] Found INQ layer:conv2, type: INQConvolution, layer id:4
I1227 16:19:00.469465 39117 net.cpp:453] Found INQ layer:conv2, type: INQConvolution, layer id:4
I1227 16:19:00.469468 39117 layer_factory.hpp:77] Creating layer pool2
I1227 16:19:00.469475 39117 net.cpp:84] Creating Layer pool2
I1227 16:19:00.469480 39117 net.cpp:413] pool2 <- conv2
I1227 16:19:00.469486 39117 net.cpp:387] pool2 -> pool2
I1227 16:19:00.469524 39117 net.cpp:127] Setting up pool2
I1227 16:19:00.469532 39117 net.cpp:136] Top shape: 100 50 4 4 (80000)
I1227 16:19:00.469535 39117 net.cpp:144] Memory required for data: 7674800
I1227 16:19:00.469540 39117 layer_factory.hpp:77] Creating layer ip1
I1227 16:19:00.469548 39117 net.cpp:84] Creating Layer ip1
I1227 16:19:00.469553 39117 net.cpp:413] ip1 <- pool2
I1227 16:19:00.469560 39117 net.cpp:387] ip1 -> ip1
I1227 16:19:00.474503 39117 net.cpp:127] Setting up ip1
I1227 16:19:00.474522 39117 net.cpp:136] Top shape: 100 500 (50000)
I1227 16:19:00.474529 39117 net.cpp:144] Memory required for data: 7874800
I1227 16:19:00.474537 39117 net.cpp:453] Found INQ layer:ip1, type: INQInnerProduct, layer id:6
I1227 16:19:00.474546 39117 net.cpp:453] Found INQ layer:ip1, type: INQInnerProduct, layer id:6
I1227 16:19:00.474553 39117 net.cpp:453] Found INQ layer:ip1, type: INQInnerProduct, layer id:6
I1227 16:19:00.474560 39117 net.cpp:453] Found INQ layer:ip1, type: INQInnerProduct, layer id:6
I1227 16:19:00.474565 39117 layer_factory.hpp:77] Creating layer relu1
I1227 16:19:00.474573 39117 net.cpp:84] Creating Layer relu1
I1227 16:19:00.474578 39117 net.cpp:413] relu1 <- ip1
I1227 16:19:00.474587 39117 net.cpp:374] relu1 -> ip1 (in-place)
I1227 16:19:00.474823 39117 net.cpp:127] Setting up relu1
I1227 16:19:00.474833 39117 net.cpp:136] Top shape: 100 500 (50000)
I1227 16:19:00.474838 39117 net.cpp:144] Memory required for data: 8074800
I1227 16:19:00.474844 39117 layer_factory.hpp:77] Creating layer ip2
I1227 16:19:00.474855 39117 net.cpp:84] Creating Layer ip2
I1227 16:19:00.474861 39117 net.cpp:413] ip2 <- ip1
I1227 16:19:00.474869 39117 net.cpp:387] ip2 -> ip2
I1227 16:19:00.475102 39117 net.cpp:127] Setting up ip2
I1227 16:19:00.475111 39117 net.cpp:136] Top shape: 100 10 (1000)
I1227 16:19:00.475116 39117 net.cpp:144] Memory required for data: 8078800
I1227 16:19:00.475121 39117 net.cpp:453] Found INQ layer:ip2, type: INQInnerProduct, layer id:8
I1227 16:19:00.475128 39117 net.cpp:453] Found INQ layer:ip2, type: INQInnerProduct, layer id:8
I1227 16:19:00.475134 39117 net.cpp:453] Found INQ layer:ip2, type: INQInnerProduct, layer id:8
I1227 16:19:00.475139 39117 net.cpp:453] Found INQ layer:ip2, type: INQInnerProduct, layer id:8
I1227 16:19:00.475143 39117 layer_factory.hpp:77] Creating layer ip2_ip2_0_split
I1227 16:19:00.475149 39117 net.cpp:84] Creating Layer ip2_ip2_0_split
I1227 16:19:00.475154 39117 net.cpp:413] ip2_ip2_0_split <- ip2
I1227 16:19:00.475160 39117 net.cpp:387] ip2_ip2_0_split -> ip2_ip2_0_split_0
I1227 16:19:00.475168 39117 net.cpp:387] ip2_ip2_0_split -> ip2_ip2_0_split_1
I1227 16:19:00.475214 39117 net.cpp:127] Setting up ip2_ip2_0_split
I1227 16:19:00.475234 39117 net.cpp:136] Top shape: 100 10 (1000)
I1227 16:19:00.475239 39117 net.cpp:136] Top shape: 100 10 (1000)
I1227 16:19:00.475244 39117 net.cpp:144] Memory required for data: 8086800
I1227 16:19:00.475248 39117 layer_factory.hpp:77] Creating layer accuracy
I1227 16:19:00.475258 39117 net.cpp:84] Creating Layer accuracy
I1227 16:19:00.475263 39117 net.cpp:413] accuracy <- ip2_ip2_0_split_0
I1227 16:19:00.475270 39117 net.cpp:413] accuracy <- label_mnist_1_split_0
I1227 16:19:00.475276 39117 net.cpp:387] accuracy -> accuracy
…
