…
I1227 16:03:11.059538 36890 net.cpp:301] The NetState phase (0) differed from the phase (1) specified by a rule in layer mnist
I1227 16:03:11.059561 36890 net.cpp:301] The NetState phase (0) differed from the phase (1) specified by a rule in layer accuracy
I1227 16:03:11.059732 36890 net.cpp:51] Initializing net from parameters: 
name: "LeNet"
state {
  phase: TRAIN
  level: 0
  stage: ""
}
layer {
  name: "mnist"
  type: "Data"
  top: "data"
  top: "label"
  include {
    phase: TRAIN
  }
  transform_param {
    scale: 0.00390625
  }
  data_param {
    source: "examples/mnist/mnist_train_lmdb"
    batch_size: 128
    backend: LMDB
  }
}
layer {
  name: "conv1"
  type: "INQConvolution"
  bottom: "data"
  top: "conv1"
  param {
    lr_mult: 1
  }
  param {
    lr_mult: 2
  }
  convolution_param {
    num_output: 20
    kernel_size: 5
    stride: 1
    weight_filler {
      type: "xavier"
    }
    bias_filler {
      type: "constant"
    }
  }
  inq_convolution_param {
    portion: 0.6
    portion: 0.8
    weight_mask_filler {
      type: "constant"
      value: 1
    }
    bias_mask_filler {
      type: "constant"
      value: 1
    }
    num_quantum_values: 7
  }
}
layer {
  name: "pool1"
  type: "Pooling"
  bottom: "conv1"
  top: "pool1"
  pooling_param {
    pool: MAX
    kernel_size: 2
    stride: 2
  }
}
layer {
  name: "conv2"
  type: "INQConvolution"
  bottom: "pool1"
  top: "conv2"
  param {
    lr_mult: 1
  }
  param {
    lr_mult: 2
  }
  convolution_param {
    num_output: 50
    kernel_size: 5
    stride: 1
    weight_filler {
      type: "xavier"
    }
    bias_filler {
      type: "constant"
    }
  }
  inq_convolution_param {
    portion: 0.6
    portion: 0.8
    weight_mask_filler {
      type: "constant"
      value: 1
    }
    bias_mask_filler {
      type: "constant"
      value: 1
    }
    num_quantum_values: 7
  }
}
layer {
  name: "pool2"
  type: "Pooling"
  bottom: "conv2"
  top: "pool2"
  pooling_param {
    pool: MAX
    kernel_size: 2
    stride: 2
  }
}
layer {
  name: "ip1"
  type: "INQInnerProduct"
  bottom: "pool2"
  top: "ip1"
  param {
    lr_mult: 1
  }
  param {
    lr_mult: 2
  }
  inner_product_param {
    num_output: 500
    weight_filler {
      type: "xavier"
    }
    bias_filler {
      type: "constant"
    }
  }
  inq_inner_product_param {
    portion: 0.6
    portion: 0.8
    weight_mask_filler {
      type: "constant"
      value: 1
    }
    bias_mask_filler {
      type: "constant"
      value: 1
    }
    num_quantum_values: 7
  }
}
layer {
  name: "relu1"
  type: "ReLU"
  bottom: "ip1"
  top: "ip1"
}
layer {
  name: "ip2"
  type: "INQInnerProduct"
  bottom: "ip1"
  top: "ip2"
  param {
    lr_mult: 1
  }
  param {
    lr_mult: 2
  }
  inner_product_param {
    num_output: 10
    weight_filler {
      type: "xavier"
    }
    bias_filler {
      type: "constant"
    }
  }
  inq_inner_product_param {
    portion: 0.6
    portion: 0.8
    weight_mask_filler {
      type: "constant"
      value: 1
    }
    bias_mask_filler {
      type: "constant"
      value: 1
    }
    num_quantum_values: 7
  }
}
layer {
  name: "loss"
  type: "SoftmaxWithLoss"
  bottom: "ip2"
  bottom: "label"
  top: "loss"
}
I1227 16:03:11.059823 36890 layer_factory.hpp:77] Creating layer mnist
I1227 16:03:11.059983 36890 db_lmdb.cpp:35] Opened lmdb examples/mnist/mnist_train_lmdb
I1227 16:03:11.060051 36890 net.cpp:84] Creating Layer mnist
I1227 16:03:11.060062 36890 net.cpp:387] mnist -> data
I1227 16:03:11.060096 36890 net.cpp:387] mnist -> label
I1227 16:03:11.061575 36890 data_layer.cpp:45] output data size: 128,1,28,28
I1227 16:03:11.064986 36890 net.cpp:127] Setting up mnist
I1227 16:03:11.065007 36890 net.cpp:136] Top shape: 128 1 28 28 (100352)
I1227 16:03:11.065014 36890 net.cpp:136] Top shape: 128 (128)
I1227 16:03:11.065019 36890 net.cpp:144] Memory required for data: 401920
I1227 16:03:11.065028 36890 layer_factory.hpp:77] Creating layer conv1
I1227 16:03:11.065049 36890 net.cpp:84] Creating Layer conv1
I1227 16:03:11.065057 36890 net.cpp:413] conv1 <- data
I1227 16:03:11.065073 36890 net.cpp:387] conv1 -> conv1
I1227 16:03:11.066958 36890 net.cpp:127] Setting up conv1
I1227 16:03:11.066977 36890 net.cpp:136] Top shape: 128 20 24 24 (1474560)
I1227 16:03:11.066982 36890 net.cpp:144] Memory required for data: 6300160
I1227 16:03:11.066999 36890 net.cpp:453] Found INQ layer:conv1, type: INQConvolution, layer id:1
I1227 16:03:11.067011 36890 net.cpp:453] Found INQ layer:conv1, type: INQConvolution, layer id:1
I1227 16:03:11.067019 36890 net.cpp:453] Found INQ layer:conv1, type: INQConvolution, layer id:1
I1227 16:03:11.067026 36890 net.cpp:453] Found INQ layer:conv1, type: INQConvolution, layer id:1
I1227 16:03:11.067031 36890 layer_factory.hpp:77] Creating layer pool1
I1227 16:03:11.067045 36890 net.cpp:84] Creating Layer pool1
I1227 16:03:11.067050 36890 net.cpp:413] pool1 <- conv1
I1227 16:03:11.067057 36890 net.cpp:387] pool1 -> pool1
I1227 16:03:11.067108 36890 net.cpp:127] Setting up pool1
I1227 16:03:11.067116 36890 net.cpp:136] Top shape: 128 20 12 12 (368640)
I1227 16:03:11.067121 36890 net.cpp:144] Memory required for data: 7774720
I1227 16:03:11.067126 36890 layer_factory.hpp:77] Creating layer conv2
I1227 16:03:11.067134 36890 net.cpp:84] Creating Layer conv2
I1227 16:03:11.067139 36890 net.cpp:413] conv2 <- pool1
I1227 16:03:11.067147 36890 net.cpp:387] conv2 -> conv2
I1227 16:03:11.068907 36890 net.cpp:127] Setting up conv2
I1227 16:03:11.068924 36890 net.cpp:136] Top shape: 128 50 8 8 (409600)
I1227 16:03:11.068929 36890 net.cpp:144] Memory required for data: 9413120
I1227 16:03:11.068938 36890 net.cpp:453] Found INQ layer:conv2, type: INQConvolution, layer id:3
I1227 16:03:11.068946 36890 net.cpp:453] Found INQ layer:conv2, type: INQConvolution, layer id:3
I1227 16:03:11.068953 36890 net.cpp:453] Found INQ layer:conv2, type: INQConvolution, layer id:3
I1227 16:03:11.068958 36890 net.cpp:453] Found INQ layer:conv2, type: INQConvolution, layer id:3
I1227 16:03:11.068962 36890 layer_factory.hpp:77] Creating layer pool2
I1227 16:03:11.068971 36890 net.cpp:84] Creating Layer pool2
I1227 16:03:11.068976 36890 net.cpp:413] pool2 <- conv2
I1227 16:03:11.068984 36890 net.cpp:387] pool2 -> pool2
I1227 16:03:11.069020 36890 net.cpp:127] Setting up pool2
I1227 16:03:11.069027 36890 net.cpp:136] Top shape: 128 50 4 4 (102400)
I1227 16:03:11.069034 36890 net.cpp:144] Memory required for data: 9822720
I1227 16:03:11.069038 36890 layer_factory.hpp:77] Creating layer ip1
I1227 16:03:11.069051 36890 net.cpp:84] Creating Layer ip1
I1227 16:03:11.069056 36890 net.cpp:413] ip1 <- pool2
I1227 16:03:11.069062 36890 net.cpp:387] ip1 -> ip1
I1227 16:03:11.075204 36890 net.cpp:127] Setting up ip1
I1227 16:03:11.075224 36890 net.cpp:136] Top shape: 128 500 (64000)
I1227 16:03:11.075229 36890 net.cpp:144] Memory required for data: 10078720
I1227 16:03:11.075238 36890 net.cpp:453] Found INQ layer:ip1, type: INQInnerProduct, layer id:5
I1227 16:03:11.075248 36890 net.cpp:453] Found INQ layer:ip1, type: INQInnerProduct, layer id:5
I1227 16:03:11.075254 36890 net.cpp:453] Found INQ layer:ip1, type: INQInnerProduct, layer id:5
I1227 16:03:11.075260 36890 net.cpp:453] Found INQ layer:ip1, type: INQInnerProduct, layer id:5
I1227 16:03:11.075264 36890 layer_factory.hpp:77] Creating layer relu1
I1227 16:03:11.075280 36890 net.cpp:84] Creating Layer relu1
I1227 16:03:11.075294 36890 net.cpp:413] relu1 <- ip1
I1227 16:03:11.075314 36890 net.cpp:374] relu1 -> ip1 (in-place)
I1227 16:03:11.411543 36890 net.cpp:127] Setting up relu1
I1227 16:03:11.411590 36890 net.cpp:136] Top shape: 128 500 (64000)
I1227 16:03:11.411597 36890 net.cpp:144] Memory required for data: 10334720
I1227 16:03:11.411605 36890 layer_factory.hpp:77] Creating layer ip2
I1227 16:03:11.411628 36890 net.cpp:84] Creating Layer ip2
I1227 16:03:11.411633 36890 net.cpp:413] ip2 <- ip1
I1227 16:03:11.411645 36890 net.cpp:387] ip2 -> ip2
I1227 16:03:11.413260 36890 net.cpp:127] Setting up ip2
I1227 16:03:11.413278 36890 net.cpp:136] Top shape: 128 10 (1280)
I1227 16:03:11.413290 36890 net.cpp:144] Memory required for data: 10339840
I1227 16:03:11.413300 36890 net.cpp:453] Found INQ layer:ip2, type: INQInnerProduct, layer id:7
I1227 16:03:11.413308 36890 net.cpp:453] Found INQ layer:ip2, type: INQInnerProduct, layer id:7
I1227 16:03:11.413314 36890 net.cpp:453] Found INQ layer:ip2, type: INQInnerProduct, layer id:7
I1227 16:03:11.413321 36890 net.cpp:453] Found INQ layer:ip2, type: INQInnerProduct, layer id:7
…
I1227 16:03:11.416673 36890 solver.cpp:172] Creating test net (#0) specified by net file: examples/mnist/lenet_train_test_inq_80.prototxt
I1227 16:03:11.416712 36890 net.cpp:301] The NetState phase (1) differed from the phase (0) specified by a rule in layer mnist
I1227 16:03:11.416894 36890 net.cpp:51] Initializing net from parameters: 
name: "LeNet"
state {
  phase: TEST
}
layer {
  name: "mnist"
  type: "Data"
  top: "data"
  top: "label"
  include {
    phase: TEST
  }
  transform_param {
    scale: 0.00390625
  }
  data_param {
    source: "examples/mnist/mnist_test_lmdb"
    batch_size: 100
    backend: LMDB
  }
}
layer {
  name: "conv1"
  type: "INQConvolution"
  bottom: "data"
  top: "conv1"
  param {
    lr_mult: 1
  }
  param {
    lr_mult: 2
  }
  convolution_param {
    num_output: 20
    kernel_size: 5
    stride: 1
    weight_filler {
      type: "xavier"
    }
    bias_filler {
      type: "constant"
    }
  }
  inq_convolution_param {
    portion: 0.6
    portion: 0.8
    weight_mask_filler {
      type: "constant"
      value: 1
    }
    bias_mask_filler {
      type: "constant"
      value: 1
    }
    num_quantum_values: 7
  }
}
layer {
  name: "pool1"
  type: "Pooling"
  bottom: "conv1"
  top: "pool1"
  pooling_param {
    pool: MAX
    kernel_size: 2
    stride: 2
  }
}
layer {
  name: "conv2"
  type: "INQConvolution"
  bottom: "pool1"
  top: "conv2"
  param {
    lr_mult: 1
  }
  param {
    lr_mult: 2
  }
  convolution_param {
    num_output: 50
    kernel_size: 5
    stride: 1
    weight_filler {
      type: "xavier"
    }
    bias_filler {
      type: "constant"
    }
  }
  inq_convolution_param {
    portion: 0.6
    portion: 0.8
    weight_mask_filler {
      type: "constant"
      value: 1
    }
    bias_mask_filler {
      type: "constant"
      value: 1
    }
    num_quantum_values: 7
  }
}
layer {
  name: "pool2"
  type: "Pooling"
  bottom: "conv2"
  top: "pool2"
  pooling_param {
    pool: MAX
    kernel_size: 2
    stride: 2
  }
}
layer {
  name: "ip1"
  type: "INQInnerProduct"
  bottom: "pool2"
  top: "ip1"
  param {
    lr_mult: 1
  }
  param {
    lr_mult: 2
  }
  inner_product_param {
    num_output: 500
    weight_filler {
      type: "xavier"
    }
    bias_filler {
      type: "constant"
    }
  }
  inq_inner_product_param {
    portion: 0.6
    portion: 0.8
    weight_mask_filler {
      type: "constant"
      value: 1
    }
    bias_mask_filler {
      type: "constant"
      value: 1
    }
    num_quantum_values: 7
  }
}
layer {
  name: "relu1"
  type: "ReLU"
  bottom: "ip1"
  top: "ip1"
}
layer {
  name: "ip2"
  type: "INQInnerProduct"
  bottom: "ip1"
  top: "ip2"
  param {
    lr_mult: 1
  }
  param {
    lr_mult: 2
  }
  inner_product_param {
    num_output: 10
    weight_filler {
      type: "xavier"
    }
    bias_filler {
      type: "constant"
    }
  }
  inq_inner_product_param {
    portion: 0.6
    portion: 0.8
    weight_mask_filler {
      type: "constant"
      value: 1
    }
    bias_mask_filler {
      type: "constant"
      value: 1
    }
    num_quantum_values: 7
  }
}
layer {
  name: "accuracy"
  type: "Accuracy"
  bottom: "ip2"
  bottom: "label"
  top: "accuracy"
  include {
    phase: TEST
  }
}
layer {
  name: "loss"
  type: "SoftmaxWithLoss"
  bottom: "ip2"
  bottom: "label"
  top: "loss"
}
I1227 16:03:11.417019 36890 layer_factory.hpp:77] Creating layer mnist
I1227 16:03:11.417089 36890 db_lmdb.cpp:35] Opened lmdb examples/mnist/mnist_test_lmdb
I1227 16:03:11.417107 36890 net.cpp:84] Creating Layer mnist
I1227 16:03:11.417114 36890 net.cpp:387] mnist -> data
I1227 16:03:11.417125 36890 net.cpp:387] mnist -> label
I1227 16:03:11.417235 36890 data_layer.cpp:45] output data size: 100,1,28,28
I1227 16:03:11.420363 36890 net.cpp:127] Setting up mnist
I1227 16:03:11.420382 36890 net.cpp:136] Top shape: 100 1 28 28 (78400)
I1227 16:03:11.420389 36890 net.cpp:136] Top shape: 100 (100)
I1227 16:03:11.420394 36890 net.cpp:144] Memory required for data: 314000
I1227 16:03:11.420400 36890 layer_factory.hpp:77] Creating layer label_mnist_1_split
I1227 16:03:11.420413 36890 net.cpp:84] Creating Layer label_mnist_1_split
I1227 16:03:11.420418 36890 net.cpp:413] label_mnist_1_split <- label
I1227 16:03:11.420425 36890 net.cpp:387] label_mnist_1_split -> label_mnist_1_split_0
I1227 16:03:11.420434 36890 net.cpp:387] label_mnist_1_split -> label_mnist_1_split_1
I1227 16:03:11.420531 36890 net.cpp:127] Setting up label_mnist_1_split
I1227 16:03:11.420541 36890 net.cpp:136] Top shape: 100 (100)
I1227 16:03:11.420547 36890 net.cpp:136] Top shape: 100 (100)
I1227 16:03:11.420550 36890 net.cpp:144] Memory required for data: 314800
I1227 16:03:11.420554 36890 layer_factory.hpp:77] Creating layer conv1
I1227 16:03:11.420567 36890 net.cpp:84] Creating Layer conv1
I1227 16:03:11.420572 36890 net.cpp:413] conv1 <- data
I1227 16:03:11.420579 36890 net.cpp:387] conv1 -> conv1
I1227 16:03:11.420984 36890 net.cpp:127] Setting up conv1
I1227 16:03:11.420994 36890 net.cpp:136] Top shape: 100 20 24 24 (1152000)
I1227 16:03:11.421000 36890 net.cpp:144] Memory required for data: 4922800
I1227 16:03:11.421007 36890 net.cpp:453] Found INQ layer:conv1, type: INQConvolution, layer id:2
I1227 16:03:11.421018 36890 net.cpp:453] Found INQ layer:conv1, type: INQConvolution, layer id:2
I1227 16:03:11.421027 36890 net.cpp:453] Found INQ layer:conv1, type: INQConvolution, layer id:2
I1227 16:03:11.421034 36890 net.cpp:453] Found INQ layer:conv1, type: INQConvolution, layer id:2
I1227 16:03:11.421039 36890 layer_factory.hpp:77] Creating layer pool1
I1227 16:03:11.421054 36890 net.cpp:84] Creating Layer pool1
I1227 16:03:11.421072 36890 net.cpp:413] pool1 <- conv1
I1227 16:03:11.421080 36890 net.cpp:387] pool1 -> pool1
I1227 16:03:11.421134 36890 net.cpp:127] Setting up pool1
I1227 16:03:11.421142 36890 net.cpp:136] Top shape: 100 20 12 12 (288000)
I1227 16:03:11.421147 36890 net.cpp:144] Memory required for data: 6074800
I1227 16:03:11.421151 36890 layer_factory.hpp:77] Creating layer conv2
I1227 16:03:11.421161 36890 net.cpp:84] Creating Layer conv2
I1227 16:03:11.421166 36890 net.cpp:413] conv2 <- pool1
I1227 16:03:11.421174 36890 net.cpp:387] conv2 -> conv2
I1227 16:03:11.421743 36890 net.cpp:127] Setting up conv2
I1227 16:03:11.421754 36890 net.cpp:136] Top shape: 100 50 8 8 (320000)
I1227 16:03:11.421759 36890 net.cpp:144] Memory required for data: 7354800
I1227 16:03:11.421767 36890 net.cpp:453] Found INQ layer:conv2, type: INQConvolution, layer id:4
I1227 16:03:11.421775 36890 net.cpp:453] Found INQ layer:conv2, type: INQConvolution, layer id:4
I1227 16:03:11.421782 36890 net.cpp:453] Found INQ layer:conv2, type: INQConvolution, layer id:4
I1227 16:03:11.421787 36890 net.cpp:453] Found INQ layer:conv2, type: INQConvolution, layer id:4
I1227 16:03:11.421792 36890 layer_factory.hpp:77] Creating layer pool2
I1227 16:03:11.421799 36890 net.cpp:84] Creating Layer pool2
I1227 16:03:11.421804 36890 net.cpp:413] pool2 <- conv2
I1227 16:03:11.421810 36890 net.cpp:387] pool2 -> pool2
I1227 16:03:11.421852 36890 net.cpp:127] Setting up pool2
I1227 16:03:11.421859 36890 net.cpp:136] Top shape: 100 50 4 4 (80000)
I1227 16:03:11.421864 36890 net.cpp:144] Memory required for data: 7674800
I1227 16:03:11.421869 36890 layer_factory.hpp:77] Creating layer ip1
I1227 16:03:11.421877 36890 net.cpp:84] Creating Layer ip1
I1227 16:03:11.421882 36890 net.cpp:413] ip1 <- pool2
I1227 16:03:11.421890 36890 net.cpp:387] ip1 -> ip1
I1227 16:03:11.426733 36890 net.cpp:127] Setting up ip1
I1227 16:03:11.426753 36890 net.cpp:136] Top shape: 100 500 (50000)
I1227 16:03:11.426757 36890 net.cpp:144] Memory required for data: 7874800
I1227 16:03:11.426766 36890 net.cpp:453] Found INQ layer:ip1, type: INQInnerProduct, layer id:6
I1227 16:03:11.426776 36890 net.cpp:453] Found INQ layer:ip1, type: INQInnerProduct, layer id:6
I1227 16:03:11.426784 36890 net.cpp:453] Found INQ layer:ip1, type: INQInnerProduct, layer id:6
I1227 16:03:11.426789 36890 net.cpp:453] Found INQ layer:ip1, type: INQInnerProduct, layer id:6
I1227 16:03:11.426795 36890 layer_factory.hpp:77] Creating layer relu1
I1227 16:03:11.426802 36890 net.cpp:84] Creating Layer relu1
I1227 16:03:11.426810 36890 net.cpp:413] relu1 <- ip1
I1227 16:03:11.426816 36890 net.cpp:374] relu1 -> ip1 (in-place)
I1227 16:03:11.427042 36890 net.cpp:127] Setting up relu1
I1227 16:03:11.427052 36890 net.cpp:136] Top shape: 100 500 (50000)
I1227 16:03:11.427057 36890 net.cpp:144] Memory required for data: 8074800
I1227 16:03:11.427062 36890 layer_factory.hpp:77] Creating layer ip2
I1227 16:03:11.427073 36890 net.cpp:84] Creating Layer ip2
I1227 16:03:11.427079 36890 net.cpp:413] ip2 <- ip1
I1227 16:03:11.427088 36890 net.cpp:387] ip2 -> ip2
I1227 16:03:11.427317 36890 net.cpp:127] Setting up ip2
I1227 16:03:11.427327 36890 net.cpp:136] Top shape: 100 10 (1000)
I1227 16:03:11.427332 36890 net.cpp:144] Memory required for data: 8078800
I1227 16:03:11.427338 36890 net.cpp:453] Found INQ layer:ip2, type: INQInnerProduct, layer id:8
I1227 16:03:11.427345 36890 net.cpp:453] Found INQ layer:ip2, type: INQInnerProduct, layer id:8
I1227 16:03:11.427350 36890 net.cpp:453] Found INQ layer:ip2, type: INQInnerProduct, layer id:8
I1227 16:03:11.427356 36890 net.cpp:453] Found INQ layer:ip2, type: INQInnerProduct, layer id:8
I1227 16:03:11.427361 36890 layer_factory.hpp:77] Creating layer ip2_ip2_0_split
I1227 16:03:11.427366 36890 net.cpp:84] Creating Layer ip2_ip2_0_split
I1227 16:03:11.427371 36890 net.cpp:413] ip2_ip2_0_split <- ip2
I1227 16:03:11.427377 36890 net.cpp:387] ip2_ip2_0_split -> ip2_ip2_0_split_0
I1227 16:03:11.427386 36890 net.cpp:387] ip2_ip2_0_split -> ip2_ip2_0_split_1
I1227 16:03:11.427433 36890 net.cpp:127] Setting up ip2_ip2_0_split
I1227 16:03:11.427464 36890 net.cpp:136] Top shape: 100 10 (1000)
I1227 16:03:11.427469 36890 net.cpp:136] Top shape: 100 10 (1000)
I1227 16:03:11.427474 36890 net.cpp:144] Memory required for data: 8086800
I1227 16:03:11.427477 36890 layer_factory.hpp:77] Creating layer accuracy
I1227 16:03:11.427489 36890 net.cpp:84] Creating Layer accuracy
I1227 16:03:11.427494 36890 net.cpp:413] accuracy <- ip2_ip2_0_split_0
I1227 16:03:11.427500 36890 net.cpp:413] accuracy <- label_mnist_1_split_0
I1227 16:03:11.427505 36890 net.cpp:387] accuracy -> accuracy
…
