…
I1227 16:34:58.712357 43416 net.cpp:301] The NetState phase (0) differed from the phase (1) specified by a rule in layer mnist
I1227 16:34:58.712380 43416 net.cpp:301] The NetState phase (0) differed from the phase (1) specified by a rule in layer accuracy
I1227 16:34:58.712560 43416 net.cpp:51] Initializing net from parameters: 
name: "LeNet"
state {
  phase: TRAIN
  level: 0
  stage: ""
}
layer {
  name: "mnist"
  type: "Data"
  top: "data"
  top: "label"
  include {
    phase: TRAIN
  }
  transform_param {
    scale: 0.00390625
  }
  data_param {
    source: "examples/mnist/mnist_train_lmdb"
    batch_size: 64
    backend: LMDB
  }
}
layer {
  name: "conv1"
  type: "INQConvolution"
  bottom: "data"
  top: "conv1"
  param {
    lr_mult: 1
  }
  param {
    lr_mult: 2
  }
  convolution_param {
    num_output: 20
    kernel_size: 5
    stride: 1
    weight_filler {
      type: "xavier"
    }
    bias_filler {
      type: "constant"
    }
  }
  inq_convolution_param {
    portion: 0.8
    portion: 1
    weight_mask_filler {
      type: "constant"
      value: 1
    }
    bias_mask_filler {
      type: "constant"
      value: 1
    }
    num_quantum_values: 7
  }
}
layer {
  name: "pool1"
  type: "Pooling"
  bottom: "conv1"
  top: "pool1"
  pooling_param {
    pool: MAX
    kernel_size: 2
    stride: 2
  }
}
layer {
  name: "conv2"
  type: "INQConvolution"
  bottom: "pool1"
  top: "conv2"
  param {
    lr_mult: 1
  }
  param {
    lr_mult: 2
  }
  convolution_param {
    num_output: 50
    kernel_size: 5
    stride: 1
    weight_filler {
      type: "xavier"
    }
    bias_filler {
      type: "constant"
    }
  }
  inq_convolution_param {
    portion: 0.8
    portion: 1
    weight_mask_filler {
      type: "constant"
      value: 1
    }
    bias_mask_filler {
      type: "constant"
      value: 1
    }
    num_quantum_values: 7
  }
}
layer {
  name: "pool2"
  type: "Pooling"
  bottom: "conv2"
  top: "pool2"
  pooling_param {
    pool: MAX
    kernel_size: 2
    stride: 2
  }
}
layer {
  name: "ip1"
  type: "INQInnerProduct"
  bottom: "pool2"
  top: "ip1"
  param {
    lr_mult: 1
  }
  param {
    lr_mult: 2
  }
  inner_product_param {
    num_output: 500
    weight_filler {
      type: "xavier"
    }
    bias_filler {
      type: "constant"
    }
  }
  inq_inner_product_param {
    portion: 0.8
    portion: 1
    weight_mask_filler {
      type: "constant"
      value: 1
    }
    bias_mask_filler {
      type: "constant"
      value: 1
    }
    num_quantum_values: 7
  }
}
layer {
  name: "relu1"
  type: "ReLU"
  bottom: "ip1"
  top: "ip1"
}
layer {
  name: "ip2"
  type: "INQInnerProduct"
  bottom: "ip1"
  top: "ip2"
  param {
    lr_mult: 1
  }
  param {
    lr_mult: 2
  }
  inner_product_param {
    num_output: 10
    weight_filler {
      type: "xavier"
    }
    bias_filler {
      type: "constant"
    }
  }
  inq_inner_product_param {
    portion: 0.8
    portion: 1
    weight_mask_filler {
      type: "constant"
      value: 1
    }
    bias_mask_filler {
      type: "constant"
      value: 1
    }
    num_quantum_values: 7
  }
}
layer {
  name: "loss"
  type: "SoftmaxWithLoss"
  bottom: "ip2"
  bottom: "label"
  top: "loss"
}
I1227 16:34:58.712649 43416 layer_factory.hpp:77] Creating layer mnist
I1227 16:34:58.712800 43416 db_lmdb.cpp:35] Opened lmdb examples/mnist/mnist_train_lmdb
I1227 16:34:58.712870 43416 net.cpp:84] Creating Layer mnist
I1227 16:34:58.712884 43416 net.cpp:387] mnist -> data
I1227 16:34:58.712915 43416 net.cpp:387] mnist -> label
I1227 16:34:58.714468 43416 data_layer.cpp:45] output data size: 64,1,28,28
I1227 16:34:58.717896 43416 net.cpp:127] Setting up mnist
I1227 16:34:58.717919 43416 net.cpp:136] Top shape: 64 1 28 28 (50176)
I1227 16:34:58.717926 43416 net.cpp:136] Top shape: 64 (64)
I1227 16:34:58.717931 43416 net.cpp:144] Memory required for data: 200960
I1227 16:34:58.717941 43416 layer_factory.hpp:77] Creating layer conv1
I1227 16:34:58.717991 43416 net.cpp:84] Creating Layer conv1
I1227 16:34:58.717998 43416 net.cpp:413] conv1 <- data
I1227 16:34:58.718015 43416 net.cpp:387] conv1 -> conv1
I1227 16:34:58.719949 43416 net.cpp:127] Setting up conv1
I1227 16:34:58.719966 43416 net.cpp:136] Top shape: 64 20 24 24 (737280)
I1227 16:34:58.719971 43416 net.cpp:144] Memory required for data: 3150080
I1227 16:34:58.719987 43416 net.cpp:453] Found INQ layer:conv1, type: INQConvolution, layer id:1
I1227 16:34:58.719998 43416 net.cpp:453] Found INQ layer:conv1, type: INQConvolution, layer id:1
I1227 16:34:58.720006 43416 net.cpp:453] Found INQ layer:conv1, type: INQConvolution, layer id:1
I1227 16:34:58.720013 43416 net.cpp:453] Found INQ layer:conv1, type: INQConvolution, layer id:1
I1227 16:34:58.720018 43416 layer_factory.hpp:77] Creating layer pool1
I1227 16:34:58.720034 43416 net.cpp:84] Creating Layer pool1
I1227 16:34:58.720039 43416 net.cpp:413] pool1 <- conv1
I1227 16:34:58.720048 43416 net.cpp:387] pool1 -> pool1
I1227 16:34:58.720101 43416 net.cpp:127] Setting up pool1
I1227 16:34:58.720109 43416 net.cpp:136] Top shape: 64 20 12 12 (184320)
I1227 16:34:58.720113 43416 net.cpp:144] Memory required for data: 3887360
I1227 16:34:58.720118 43416 layer_factory.hpp:77] Creating layer conv2
I1227 16:34:58.720129 43416 net.cpp:84] Creating Layer conv2
I1227 16:34:58.720134 43416 net.cpp:413] conv2 <- pool1
I1227 16:34:58.720142 43416 net.cpp:387] conv2 -> conv2
I1227 16:34:58.720661 43416 net.cpp:127] Setting up conv2
I1227 16:34:58.720675 43416 net.cpp:136] Top shape: 64 50 8 8 (204800)
I1227 16:34:58.720680 43416 net.cpp:144] Memory required for data: 4706560
I1227 16:34:58.720687 43416 net.cpp:453] Found INQ layer:conv2, type: INQConvolution, layer id:3
I1227 16:34:58.720695 43416 net.cpp:453] Found INQ layer:conv2, type: INQConvolution, layer id:3
I1227 16:34:58.720701 43416 net.cpp:453] Found INQ layer:conv2, type: INQConvolution, layer id:3
I1227 16:34:58.720707 43416 net.cpp:453] Found INQ layer:conv2, type: INQConvolution, layer id:3
I1227 16:34:58.720711 43416 layer_factory.hpp:77] Creating layer pool2
I1227 16:34:58.720719 43416 net.cpp:84] Creating Layer pool2
I1227 16:34:58.720724 43416 net.cpp:413] pool2 <- conv2
I1227 16:34:58.720731 43416 net.cpp:387] pool2 -> pool2
I1227 16:34:58.720790 43416 net.cpp:127] Setting up pool2
I1227 16:34:58.720799 43416 net.cpp:136] Top shape: 64 50 4 4 (51200)
I1227 16:34:58.720803 43416 net.cpp:144] Memory required for data: 4911360
I1227 16:34:58.720808 43416 layer_factory.hpp:77] Creating layer ip1
I1227 16:34:58.720821 43416 net.cpp:84] Creating Layer ip1
I1227 16:34:58.720826 43416 net.cpp:413] ip1 <- pool2
I1227 16:34:58.720835 43416 net.cpp:387] ip1 -> ip1
I1227 16:34:58.727134 43416 net.cpp:127] Setting up ip1
I1227 16:34:58.727152 43416 net.cpp:136] Top shape: 64 500 (32000)
I1227 16:34:58.727156 43416 net.cpp:144] Memory required for data: 5039360
I1227 16:34:58.727165 43416 net.cpp:453] Found INQ layer:ip1, type: INQInnerProduct, layer id:5
I1227 16:34:58.727174 43416 net.cpp:453] Found INQ layer:ip1, type: INQInnerProduct, layer id:5
I1227 16:34:58.727180 43416 net.cpp:453] Found INQ layer:ip1, type: INQInnerProduct, layer id:5
I1227 16:34:58.727186 43416 net.cpp:453] Found INQ layer:ip1, type: INQInnerProduct, layer id:5
I1227 16:34:58.727190 43416 layer_factory.hpp:77] Creating layer relu1
I1227 16:34:58.727200 43416 net.cpp:84] Creating Layer relu1
I1227 16:34:58.727210 43416 net.cpp:413] relu1 <- ip1
I1227 16:34:58.727231 43416 net.cpp:374] relu1 -> ip1 (in-place)
I1227 16:34:59.078248 43416 net.cpp:127] Setting up relu1
I1227 16:34:59.078299 43416 net.cpp:136] Top shape: 64 500 (32000)
I1227 16:34:59.078306 43416 net.cpp:144] Memory required for data: 5167360
I1227 16:34:59.078315 43416 layer_factory.hpp:77] Creating layer ip2
I1227 16:34:59.078333 43416 net.cpp:84] Creating Layer ip2
I1227 16:34:59.078341 43416 net.cpp:413] ip2 <- ip1
I1227 16:34:59.078352 43416 net.cpp:387] ip2 -> ip2
I1227 16:34:59.080039 43416 net.cpp:127] Setting up ip2
I1227 16:34:59.080055 43416 net.cpp:136] Top shape: 64 10 (640)
I1227 16:34:59.080060 43416 net.cpp:144] Memory required for data: 5169920
I1227 16:34:59.080070 43416 net.cpp:453] Found INQ layer:ip2, type: INQInnerProduct, layer id:7
I1227 16:34:59.080077 43416 net.cpp:453] Found INQ layer:ip2, type: INQInnerProduct, layer id:7
I1227 16:34:59.080083 43416 net.cpp:453] Found INQ layer:ip2, type: INQInnerProduct, layer id:7
I1227 16:34:59.080088 43416 net.cpp:453] Found INQ layer:ip2, type: INQInnerProduct, layer id:7
…
I1227 16:34:59.082149 43416 solver.cpp:172] Creating test net (#0) specified by net file: examples/mnist/lenet_train_test_inq_100.prototxt
I1227 16:34:59.082185 43416 net.cpp:301] The NetState phase (1) differed from the phase (0) specified by a rule in layer mnist
I1227 16:34:59.082370 43416 net.cpp:51] Initializing net from parameters: 
name: "LeNet"
state {
  phase: TEST
}
layer {
  name: "mnist"
  type: "Data"
  top: "data"
  top: "label"
  include {
    phase: TEST
  }
  transform_param {
    scale: 0.00390625
  }
  data_param {
    source: "examples/mnist/mnist_test_lmdb"
    batch_size: 100
    backend: LMDB
  }
}
layer {
  name: "conv1"
  type: "INQConvolution"
  bottom: "data"
  top: "conv1"
  param {
    lr_mult: 1
  }
  param {
    lr_mult: 2
  }
  convolution_param {
    num_output: 20
    kernel_size: 5
    stride: 1
    weight_filler {
      type: "xavier"
    }
    bias_filler {
      type: "constant"
    }
  }
  inq_convolution_param {
    portion: 0.8
    portion: 1
    weight_mask_filler {
      type: "constant"
      value: 1
    }
    bias_mask_filler {
      type: "constant"
      value: 1
    }
    num_quantum_values: 7
  }
}
layer {
  name: "pool1"
  type: "Pooling"
  bottom: "conv1"
  top: "pool1"
  pooling_param {
    pool: MAX
    kernel_size: 2
    stride: 2
  }
}
layer {
  name: "conv2"
  type: "INQConvolution"
  bottom: "pool1"
  top: "conv2"
  param {
    lr_mult: 1
  }
  param {
    lr_mult: 2
  }
  convolution_param {
    num_output: 50
    kernel_size: 5
    stride: 1
    weight_filler {
      type: "xavier"
    }
    bias_filler {
      type: "constant"
    }
  }
  inq_convolution_param {
    portion: 0.8
    portion: 1
    weight_mask_filler {
      type: "constant"
      value: 1
    }
    bias_mask_filler {
      type: "constant"
      value: 1
    }
    num_quantum_values: 7
  }
}
layer {
  name: "pool2"
  type: "Pooling"
  bottom: "conv2"
  top: "pool2"
  pooling_param {
    pool: MAX
    kernel_size: 2
    stride: 2
  }
}
layer {
  name: "ip1"
  type: "INQInnerProduct"
  bottom: "pool2"
  top: "ip1"
  param {
    lr_mult: 1
  }
  param {
    lr_mult: 2
  }
  inner_product_param {
    num_output: 500
    weight_filler {
      type: "xavier"
    }
    bias_filler {
      type: "constant"
    }
  }
  inq_inner_product_param {
    portion: 0.8
    portion: 1
    weight_mask_filler {
      type: "constant"
      value: 1
    }
    bias_mask_filler {
      type: "constant"
      value: 1
    }
    num_quantum_values: 7
  }
}
layer {
  name: "relu1"
  type: "ReLU"
  bottom: "ip1"
  top: "ip1"
}
layer {
  name: "ip2"
  type: "INQInnerProduct"
  bottom: "ip1"
  top: "ip2"
  param {
    lr_mult: 1
  }
  param {
    lr_mult: 2
  }
  inner_product_param {
    num_output: 10
    weight_filler {
      type: "xavier"
    }
    bias_filler {
      type: "constant"
    }
  }
  inq_inner_product_param {
    portion: 0.8
    portion: 1
    weight_mask_filler {
      type: "constant"
      value: 1
    }
    bias_mask_filler {
      type: "constant"
      value: 1
    }
    num_quantum_values: 7
  }
}
layer {
  name: "accuracy"
  type: "Accuracy"
  bottom: "ip2"
  bottom: "label"
  top: "accuracy"
  include {
    phase: TEST
  }
}
layer {
  name: "loss"
  type: "SoftmaxWithLoss"
  bottom: "ip2"
  bottom: "label"
  top: "loss"
}
I1227 16:34:59.082495 43416 layer_factory.hpp:77] Creating layer mnist
I1227 16:34:59.082562 43416 db_lmdb.cpp:35] Opened lmdb examples/mnist/mnist_test_lmdb
I1227 16:34:59.082578 43416 net.cpp:84] Creating Layer mnist
I1227 16:34:59.082586 43416 net.cpp:387] mnist -> data
I1227 16:34:59.082597 43416 net.cpp:387] mnist -> label
I1227 16:34:59.082706 43416 data_layer.cpp:45] output data size: 100,1,28,28
I1227 16:34:59.086299 43416 net.cpp:127] Setting up mnist
I1227 16:34:59.086318 43416 net.cpp:136] Top shape: 100 1 28 28 (78400)
I1227 16:34:59.086326 43416 net.cpp:136] Top shape: 100 (100)
I1227 16:34:59.086331 43416 net.cpp:144] Memory required for data: 314000
I1227 16:34:59.086336 43416 layer_factory.hpp:77] Creating layer label_mnist_1_split
I1227 16:34:59.086349 43416 net.cpp:84] Creating Layer label_mnist_1_split
I1227 16:34:59.086354 43416 net.cpp:413] label_mnist_1_split <- label
I1227 16:34:59.086361 43416 net.cpp:387] label_mnist_1_split -> label_mnist_1_split_0
I1227 16:34:59.086370 43416 net.cpp:387] label_mnist_1_split -> label_mnist_1_split_1
I1227 16:34:59.086473 43416 net.cpp:127] Setting up label_mnist_1_split
I1227 16:34:59.086482 43416 net.cpp:136] Top shape: 100 (100)
I1227 16:34:59.086488 43416 net.cpp:136] Top shape: 100 (100)
I1227 16:34:59.086491 43416 net.cpp:144] Memory required for data: 314800
I1227 16:34:59.086495 43416 layer_factory.hpp:77] Creating layer conv1
I1227 16:34:59.086508 43416 net.cpp:84] Creating Layer conv1
I1227 16:34:59.086511 43416 net.cpp:413] conv1 <- data
I1227 16:34:59.086519 43416 net.cpp:387] conv1 -> conv1
I1227 16:34:59.086885 43416 net.cpp:127] Setting up conv1
I1227 16:34:59.086896 43416 net.cpp:136] Top shape: 100 20 24 24 (1152000)
I1227 16:34:59.086901 43416 net.cpp:144] Memory required for data: 4922800
I1227 16:34:59.086910 43416 net.cpp:453] Found INQ layer:conv1, type: INQConvolution, layer id:2
I1227 16:34:59.086918 43416 net.cpp:453] Found INQ layer:conv1, type: INQConvolution, layer id:2
I1227 16:34:59.086926 43416 net.cpp:453] Found INQ layer:conv1, type: INQConvolution, layer id:2
I1227 16:34:59.086935 43416 net.cpp:453] Found INQ layer:conv1, type: INQConvolution, layer id:2
I1227 16:34:59.086940 43416 layer_factory.hpp:77] Creating layer pool1
I1227 16:34:59.086947 43416 net.cpp:84] Creating Layer pool1
I1227 16:34:59.086958 43416 net.cpp:413] pool1 <- conv1
I1227 16:34:59.086977 43416 net.cpp:387] pool1 -> pool1
I1227 16:34:59.087028 43416 net.cpp:127] Setting up pool1
I1227 16:34:59.087034 43416 net.cpp:136] Top shape: 100 20 12 12 (288000)
I1227 16:34:59.087039 43416 net.cpp:144] Memory required for data: 6074800
I1227 16:34:59.087044 43416 layer_factory.hpp:77] Creating layer conv2
I1227 16:34:59.087054 43416 net.cpp:84] Creating Layer conv2
I1227 16:34:59.087057 43416 net.cpp:413] conv2 <- pool1
I1227 16:34:59.087064 43416 net.cpp:387] conv2 -> conv2
I1227 16:34:59.087597 43416 net.cpp:127] Setting up conv2
I1227 16:34:59.087608 43416 net.cpp:136] Top shape: 100 50 8 8 (320000)
I1227 16:34:59.087612 43416 net.cpp:144] Memory required for data: 7354800
I1227 16:34:59.087620 43416 net.cpp:453] Found INQ layer:conv2, type: INQConvolution, layer id:4
I1227 16:34:59.087628 43416 net.cpp:453] Found INQ layer:conv2, type: INQConvolution, layer id:4
I1227 16:34:59.087635 43416 net.cpp:453] Found INQ layer:conv2, type: INQConvolution, layer id:4
I1227 16:34:59.087640 43416 net.cpp:453] Found INQ layer:conv2, type: INQConvolution, layer id:4
I1227 16:34:59.087643 43416 layer_factory.hpp:77] Creating layer pool2
I1227 16:34:59.087651 43416 net.cpp:84] Creating Layer pool2
I1227 16:34:59.087656 43416 net.cpp:413] pool2 <- conv2
I1227 16:34:59.087661 43416 net.cpp:387] pool2 -> pool2
I1227 16:34:59.087699 43416 net.cpp:127] Setting up pool2
I1227 16:34:59.087707 43416 net.cpp:136] Top shape: 100 50 4 4 (80000)
I1227 16:34:59.087710 43416 net.cpp:144] Memory required for data: 7674800
I1227 16:34:59.087714 43416 layer_factory.hpp:77] Creating layer ip1
I1227 16:34:59.087723 43416 net.cpp:84] Creating Layer ip1
I1227 16:34:59.087728 43416 net.cpp:413] ip1 <- pool2
I1227 16:34:59.087734 43416 net.cpp:387] ip1 -> ip1
I1227 16:34:59.093999 43416 net.cpp:127] Setting up ip1
I1227 16:34:59.094017 43416 net.cpp:136] Top shape: 100 500 (50000)
I1227 16:34:59.094022 43416 net.cpp:144] Memory required for data: 7874800
I1227 16:34:59.094032 43416 net.cpp:453] Found INQ layer:ip1, type: INQInnerProduct, layer id:6
I1227 16:34:59.094040 43416 net.cpp:453] Found INQ layer:ip1, type: INQInnerProduct, layer id:6
I1227 16:34:59.094046 43416 net.cpp:453] Found INQ layer:ip1, type: INQInnerProduct, layer id:6
I1227 16:34:59.094053 43416 net.cpp:453] Found INQ layer:ip1, type: INQInnerProduct, layer id:6
I1227 16:34:59.094056 43416 layer_factory.hpp:77] Creating layer relu1
I1227 16:34:59.094065 43416 net.cpp:84] Creating Layer relu1
I1227 16:34:59.094070 43416 net.cpp:413] relu1 <- ip1
I1227 16:34:59.094077 43416 net.cpp:374] relu1 -> ip1 (in-place)
I1227 16:34:59.094305 43416 net.cpp:127] Setting up relu1
I1227 16:34:59.094316 43416 net.cpp:136] Top shape: 100 500 (50000)
I1227 16:34:59.094321 43416 net.cpp:144] Memory required for data: 8074800
I1227 16:34:59.094326 43416 layer_factory.hpp:77] Creating layer ip2
I1227 16:34:59.094336 43416 net.cpp:84] Creating Layer ip2
I1227 16:34:59.094341 43416 net.cpp:413] ip2 <- ip1
I1227 16:34:59.094348 43416 net.cpp:387] ip2 -> ip2
I1227 16:34:59.094566 43416 net.cpp:127] Setting up ip2
I1227 16:34:59.094574 43416 net.cpp:136] Top shape: 100 10 (1000)
I1227 16:34:59.094579 43416 net.cpp:144] Memory required for data: 8078800
I1227 16:34:59.094585 43416 net.cpp:453] Found INQ layer:ip2, type: INQInnerProduct, layer id:8
I1227 16:34:59.094593 43416 net.cpp:453] Found INQ layer:ip2, type: INQInnerProduct, layer id:8
I1227 16:34:59.094597 43416 net.cpp:453] Found INQ layer:ip2, type: INQInnerProduct, layer id:8
I1227 16:34:59.094602 43416 net.cpp:453] Found INQ layer:ip2, type: INQInnerProduct, layer id:8
I1227 16:34:59.094607 43416 layer_factory.hpp:77] Creating layer ip2_ip2_0_split
I1227 16:34:59.094614 43416 net.cpp:84] Creating Layer ip2_ip2_0_split
I1227 16:34:59.094619 43416 net.cpp:413] ip2_ip2_0_split <- ip2
I1227 16:34:59.094624 43416 net.cpp:387] ip2_ip2_0_split -> ip2_ip2_0_split_0
I1227 16:34:59.094632 43416 net.cpp:387] ip2_ip2_0_split -> ip2_ip2_0_split_1
I1227 16:34:59.094678 43416 net.cpp:127] Setting up ip2_ip2_0_split
I1227 16:34:59.094686 43416 net.cpp:136] Top shape: 100 10 (1000)
I1227 16:34:59.094703 43416 net.cpp:136] Top shape: 100 10 (1000)
I1227 16:34:59.094708 43416 net.cpp:144] Memory required for data: 8086800
I1227 16:34:59.094712 43416 layer_factory.hpp:77] Creating layer accuracy
I1227 16:34:59.094723 43416 net.cpp:84] Creating Layer accuracy
I1227 16:34:59.094728 43416 net.cpp:413] accuracy <- ip2_ip2_0_split_0
I1227 16:34:59.094734 43416 net.cpp:413] accuracy <- label_mnist_1_split_0
I1227 16:34:59.094740 43416 net.cpp:387] accuracy -> accuracy
…
