…
I1223 13:32:05.101590 30208 net.cpp:301] The NetState phase (0) differed from the phase (1) specified by a rule in layer accuracy_top5
I1223 13:32:05.101939 30208 net.cpp:51] Initializing net from parameters: 
name: "AlexNet"
state {
  phase: TRAIN
  level: 0
  stage: ""
}
layer {
  name: "data"
  type: "Data"
  top: "data"
  top: "label"
  include {
    phase: TRAIN
  }
  transform_param {
    mirror: true
    crop_size: 227
    mean_file: "/home/data/caffe-imagenet/imagenet_mean.binaryproto"
  }
  data_param {
    source: "/home/data/caffe-imagenet/ilsvrc12_train_lmdb"
    batch_size: 256
    backend: LMDB
  }
}
layer {
  name: "conv1"
  type: "INQConvolution"
  bottom: "data"
  top: "conv1"
  param {
    lr_mult: 1
    decay_mult: 1
  }
  param {
    lr_mult: 2
    decay_mult: 0
  }
  convolution_param {
    num_output: 96
    kernel_size: 11
    stride: 4
    weight_filler {
      type: "gaussian"
      std: 0.01
    }
    bias_filler {
      type: "constant"
      value: 0
    }
  }
  inq_convolution_param {
    portion: 0.7
    portion: 0.85
    weight_mask_filler {
      type: "constant"
      value: 1
    }
    bias_mask_filler {
      type: "constant"
      value: 1
    }
    num_quantum_values: 7
  }
}
layer {
  name: "relu1"
  type: "ReLU"
  bottom: "conv1"
  top: "conv1"
}
layer {
  name: "norm1"
  type: "LRN"
  bottom: "conv1"
  top: "norm1"
  lrn_param {
    local_size: 5
    alpha: 0.0001
    beta: 0.75
  }
}
layer {
  name: "pool1"
  type: "Pooling"
  bottom: "norm1"
  top: "pool1"
  pooling_param {
    pool: MAX
    kernel_size: 3
    stride: 2
  }
}
layer {
  name: "conv2"
  type: "INQConvolution"
  bottom: "pool1"
  top: "conv2"
  param {
    lr_mult: 1
    decay_mult: 1
  }
  param {
    lr_mult: 2
    decay_mult: 0
  }
  convolution_param {
    num_output: 256
    pad: 2
    kernel_size: 5
    group: 2
    weight_filler {
      type: "gaussian"
      std: 0.01
    }
    bias_filler {
      type: "constant"
      value: 0.1
    }
  }
  inq_convolution_param {
    portion: 0.7
    portion: 0.85
    weight_mask_filler {
      type: "constant"
      value: 1
    }
    bias_mask_filler {
      type: "constant"
      value: 1
    }
    num_quantum_values: 7
  }
}
layer {
  name: "relu2"
  type: "ReLU"
  bottom: "conv2"
  top: "conv2"
}
layer {
  name: "norm2"
  type: "LRN"
  bottom: "conv2"
  top: "norm2"
  lrn_param {
    local_size: 5
    alpha: 0.0001
    beta: 0.75
  }
}
layer {
  name: "pool2"
  type: "Pooling"
  bottom: "norm2"
  top: "pool2"
  pooling_param {
    pool: MAX
    kernel_size: 3
    stride: 2
  }
}
layer {
  name: "conv3"
  type: "INQConvolution"
  bottom: "pool2"
  top: "conv3"
  param {
    lr_mult: 1
    decay_mult: 1
  }
  param {
    lr_mult: 2
    decay_mult: 0
  }
  convolution_param {
    num_output: 384
    pad: 1
    kernel_size: 3
    weight_filler {
      type: "gaussian"
      std: 0.01
    }
    bias_filler {
      type: "constant"
      value: 0
    }
  }
  inq_convolution_param {
    portion: 0.7
    portion: 0.85
    weight_mask_filler {
      type: "constant"
      value: 1
    }
    bias_mask_filler {
      type: "constant"
      value: 1
    }
    num_quantum_values: 7
  }
}
layer {
  name: "relu3"
  type: "ReLU"
  bottom: "conv3"
  top: "conv3"
}
layer {
  name: "conv4"
  type: "INQConvolution"
  bottom: "conv3"
  top: "conv4"
  param {
    lr_mult: 1
    decay_mult: 1
  }
  param {
    lr_mult: 2
    decay_mult: 0
  }
  convolution_param {
    num_output: 384
    pad: 1
    kernel_size: 3
    group: 2
    weight_filler {
      type: "gaussian"
      std: 0.01
    }
    bias_filler {
      type: "constant"
      value: 0.1
    }
  }
  inq_convolution_param {
    portion: 0.7
    portion: 0.85
    weight_mask_filler {
      type: "constant"
      value: 1
    }
    bias_mask_filler {
      type: "constant"
      value: 1
    }
    num_quantum_values: 7
  }
}
layer {
  name: "relu4"
  type: "ReLU"
  bottom: "conv4"
  top: "conv4"
}
layer {
  name: "conv5"
  type: "INQConvolution"
  bottom: "conv4"
  top: "conv5"
  param {
    lr_mult: 1
    decay_mult: 1
  }
  param {
    lr_mult: 2
    decay_mult: 0
  }
  convolution_param {
    num_output: 256
    pad: 1
    kernel_size: 3
    group: 2
    weight_filler {
      type: "gaussian"
      std: 0.01
    }
    bias_filler {
      type: "constant"
      value: 0.1
    }
  }
  inq_convolution_param {
    portion: 0.7
    portion: 0.85
    weight_mask_filler {
      type: "constant"
      value: 1
    }
    bias_mask_filler {
      type: "constant"
      value: 1
    }
    num_quantum_values: 7
  }
}
layer {
  name: "relu5"
  type: "ReLU"
  bottom: "conv5"
  top: "conv5"
}
layer {
  name: "pool5"
  type: "Pooling"
  bottom: "conv5"
  top: "pool5"
  pooling_param {
    pool: MAX
    kernel_size: 3
    stride: 2
  }
}
layer {
  name: "fc6"
  type: "INQInnerProduct"
  bottom: "pool5"
  top: "fc6"
  param {
    lr_mult: 1
    decay_mult: 1
  }
  param {
    lr_mult: 2
    decay_mult: 0
  }
  inner_product_param {
    num_output: 4096
    weight_filler {
      type: "gaussian"
      std: 0.005
    }
    bias_filler {
      type: "constant"
      value: 0.1
    }
  }
  inq_inner_product_param {
    portion: 0.7
    portion: 0.85
    weight_mask_filler {
      type: "constant"
      value: 1
    }
    bias_mask_filler {
      type: "constant"
      value: 1
    }
    num_quantum_values: 7
  }
}
layer {
  name: "relu6"
  type: "ReLU"
  bottom: "fc6"
  top: "fc6"
}
layer {
  name: "drop6"
  type: "Dropout"
  bottom: "fc6"
  top: "fc6"
  dropout_param {
    dropout_ratio: 0.5
  }
}
layer {
  name: "fc7"
  type: "INQInnerProduct"
  bottom: "fc6"
  top: "fc7"
  param {
    lr_mult: 1
    decay_mult: 1
  }
  param {
    lr_mult: 2
    decay_mult: 0
  }
  inner_product_param {
    num_output: 4096
    weight_filler {
      type: "gaussian"
      std: 0.005
    }
    bias_filler {
      type: "constant"
      value: 0.1
    }
  }
  inq_inner_product_param {
    portion: 0.7
    portion: 0.85
    weight_mask_filler {
      type: "constant"
      value: 1
    }
    bias_mask_filler {
      type: "constant"
      value: 1
    }
    num_quantum_values: 7
  }
}
layer {
  name: "relu7"
  type: "ReLU"
  bottom: "fc7"
  top: "fc7"
}
layer {
  name: "drop7"
  type: "Dropout"
  bottom: "fc7"
  top: "fc7"
  dropout_param {
    dropout_ratio: 0.5
  }
}
layer {
  name: "fc8"
  type: "INQInnerProduct"
  bottom: "fc7"
  top: "fc8"
  param {
    lr_mult: 1
    decay_mult: 1
  }
  param {
    lr_mult: 2
    decay_mult: 0
  }
  inner_product_param {
    num_output: 1000
    weight_filler {
      type: "gaussian"
      std: 0.01
    }
    bias_filler {
      type: "constant"
      value: 0
    }
  }
  inq_inner_product_param {
    portion: 0.7
    portion: 0.85
    weight_mask_filler {
      type: "constant"
      value: 1
    }
    bias_mask_filler {
      type: "constant"
      value: 1
    }
    num_quantum_values: 7
  }
}
layer {
  name: "loss"
  type: "SoftmaxWithLoss"
  bottom: "fc8"
  bottom: "label"
  top: "loss"
}
I1223 13:32:05.102134 30208 layer_factory.hpp:77] Creating layer data
I1223 13:32:05.102607 30208 db_lmdb.cpp:35] Opened lmdb /home/data/caffe-imagenet/ilsvrc12_train_lmdb
I1223 13:32:05.102694 30208 net.cpp:84] Creating Layer data
I1223 13:32:05.102705 30208 net.cpp:387] data -> data
I1223 13:32:05.102738 30208 net.cpp:387] data -> label
I1223 13:32:05.102758 30208 data_transformer.cpp:25] Loading mean file from: /home/data/caffe-imagenet/imagenet_mean.binaryproto
I1223 13:32:05.109167 30208 data_layer.cpp:45] output data size: 256,3,227,227
I1223 13:32:05.631023 30208 net.cpp:127] Setting up data
I1223 13:32:05.631069 30208 net.cpp:136] Top shape: 256 3 227 227 (39574272)
I1223 13:32:05.631078 30208 net.cpp:136] Top shape: 256 (256)
I1223 13:32:05.631083 30208 net.cpp:144] Memory required for data: 158298112
I1223 13:32:05.631098 30208 layer_factory.hpp:77] Creating layer conv1
I1223 13:32:05.631125 30208 net.cpp:84] Creating Layer conv1
I1223 13:32:05.631134 30208 net.cpp:413] conv1 <- data
I1223 13:32:05.631153 30208 net.cpp:387] conv1 -> conv1
I1223 13:32:05.635542 30208 net.cpp:127] Setting up conv1
I1223 13:32:05.635561 30208 net.cpp:136] Top shape: 256 96 55 55 (74342400)
I1223 13:32:05.635567 30208 net.cpp:144] Memory required for data: 455667712
I1223 13:32:05.635586 30208 net.cpp:453] Found INQ layer:conv1, type: INQConvolution, layer id:1
I1223 13:32:05.635601 30208 net.cpp:453] Found INQ layer:conv1, type: INQConvolution, layer id:1
I1223 13:32:05.635609 30208 net.cpp:453] Found INQ layer:conv1, type: INQConvolution, layer id:1
I1223 13:32:05.635617 30208 net.cpp:453] Found INQ layer:conv1, type: INQConvolution, layer id:1
I1223 13:32:05.635622 30208 layer_factory.hpp:77] Creating layer relu1
I1223 13:32:05.635637 30208 net.cpp:84] Creating Layer relu1
I1223 13:32:05.635643 30208 net.cpp:413] relu1 <- conv1
I1223 13:32:05.635650 30208 net.cpp:374] relu1 -> conv1 (in-place)
I1223 13:32:06.072785 30208 net.cpp:127] Setting up relu1
I1223 13:32:06.072836 30208 net.cpp:136] Top shape: 256 96 55 55 (74342400)
I1223 13:32:06.072845 30208 net.cpp:144] Memory required for data: 753037312
I1223 13:32:06.072860 30208 layer_factory.hpp:77] Creating layer norm1
I1223 13:32:06.072892 30208 net.cpp:84] Creating Layer norm1
I1223 13:32:06.072901 30208 net.cpp:413] norm1 <- conv1
I1223 13:32:06.072912 30208 net.cpp:387] norm1 -> norm1
I1223 13:32:06.074266 30208 net.cpp:127] Setting up norm1
I1223 13:32:06.074291 30208 net.cpp:136] Top shape: 256 96 55 55 (74342400)
I1223 13:32:06.074297 30208 net.cpp:144] Memory required for data: 1050406912
I1223 13:32:06.074303 30208 layer_factory.hpp:77] Creating layer pool1
I1223 13:32:06.074321 30208 net.cpp:84] Creating Layer pool1
I1223 13:32:06.074326 30208 net.cpp:413] pool1 <- norm1
I1223 13:32:06.074334 30208 net.cpp:387] pool1 -> pool1
I1223 13:32:06.074394 30208 net.cpp:127] Setting up pool1
I1223 13:32:06.074404 30208 net.cpp:136] Top shape: 256 96 27 27 (17915904)
I1223 13:32:06.074409 30208 net.cpp:144] Memory required for data: 1122070528
I1223 13:32:06.074414 30208 layer_factory.hpp:77] Creating layer conv2
I1223 13:32:06.074430 30208 net.cpp:84] Creating Layer conv2
I1223 13:32:06.074435 30208 net.cpp:413] conv2 <- pool1
I1223 13:32:06.074443 30208 net.cpp:387] conv2 -> conv2
I1223 13:32:06.082161 30208 net.cpp:127] Setting up conv2
I1223 13:32:06.082180 30208 net.cpp:136] Top shape: 256 256 27 27 (47775744)
I1223 13:32:06.082185 30208 net.cpp:144] Memory required for data: 1313173504
I1223 13:32:06.082200 30208 net.cpp:453] Found INQ layer:conv2, type: INQConvolution, layer id:5
I1223 13:32:06.082209 30208 net.cpp:453] Found INQ layer:conv2, type: INQConvolution, layer id:5
I1223 13:32:06.082216 30208 net.cpp:453] Found INQ layer:conv2, type: INQConvolution, layer id:5
I1223 13:32:06.082222 30208 net.cpp:453] Found INQ layer:conv2, type: INQConvolution, layer id:5
I1223 13:32:06.082227 30208 layer_factory.hpp:77] Creating layer relu2
I1223 13:32:06.082240 30208 net.cpp:84] Creating Layer relu2
I1223 13:32:06.082247 30208 net.cpp:413] relu2 <- conv2
I1223 13:32:06.082253 30208 net.cpp:374] relu2 -> conv2 (in-place)
I1223 13:32:06.082484 30208 net.cpp:127] Setting up relu2
I1223 13:32:06.082526 30208 net.cpp:136] Top shape: 256 256 27 27 (47775744)
I1223 13:32:06.082532 30208 net.cpp:144] Memory required for data: 1504276480
I1223 13:32:06.082537 30208 layer_factory.hpp:77] Creating layer norm2
I1223 13:32:06.082550 30208 net.cpp:84] Creating Layer norm2
I1223 13:32:06.082554 30208 net.cpp:413] norm2 <- conv2
I1223 13:32:06.082561 30208 net.cpp:387] norm2 -> norm2
I1223 13:32:06.082811 30208 net.cpp:127] Setting up norm2
I1223 13:32:06.082823 30208 net.cpp:136] Top shape: 256 256 27 27 (47775744)
I1223 13:32:06.082826 30208 net.cpp:144] Memory required for data: 1695379456
I1223 13:32:06.082831 30208 layer_factory.hpp:77] Creating layer pool2
I1223 13:32:06.082844 30208 net.cpp:84] Creating Layer pool2
I1223 13:32:06.082849 30208 net.cpp:413] pool2 <- norm2
I1223 13:32:06.082854 30208 net.cpp:387] pool2 -> pool2
I1223 13:32:06.082904 30208 net.cpp:127] Setting up pool2
I1223 13:32:06.082911 30208 net.cpp:136] Top shape: 256 256 13 13 (11075584)
I1223 13:32:06.082916 30208 net.cpp:144] Memory required for data: 1739681792
I1223 13:32:06.082919 30208 layer_factory.hpp:77] Creating layer conv3
I1223 13:32:06.082932 30208 net.cpp:84] Creating Layer conv3
I1223 13:32:06.082937 30208 net.cpp:413] conv3 <- pool2
I1223 13:32:06.082947 30208 net.cpp:387] conv3 -> conv3
I1223 13:32:06.100075 30208 net.cpp:127] Setting up conv3
I1223 13:32:06.100093 30208 net.cpp:136] Top shape: 256 384 13 13 (16613376)
I1223 13:32:06.100098 30208 net.cpp:144] Memory required for data: 1806135296
I1223 13:32:06.100107 30208 net.cpp:453] Found INQ layer:conv3, type: INQConvolution, layer id:9
I1223 13:32:06.100116 30208 net.cpp:453] Found INQ layer:conv3, type: INQConvolution, layer id:9
I1223 13:32:06.100122 30208 net.cpp:453] Found INQ layer:conv3, type: INQConvolution, layer id:9
I1223 13:32:06.100128 30208 net.cpp:453] Found INQ layer:conv3, type: INQConvolution, layer id:9
I1223 13:32:06.100137 30208 layer_factory.hpp:77] Creating layer relu3
I1223 13:32:06.100148 30208 net.cpp:84] Creating Layer relu3
I1223 13:32:06.100153 30208 net.cpp:413] relu3 <- conv3
I1223 13:32:06.100160 30208 net.cpp:374] relu3 -> conv3 (in-place)
I1223 13:32:06.102846 30208 net.cpp:127] Setting up relu3
I1223 13:32:06.102864 30208 net.cpp:136] Top shape: 256 384 13 13 (16613376)
I1223 13:32:06.102872 30208 net.cpp:144] Memory required for data: 1872588800
I1223 13:32:06.102877 30208 layer_factory.hpp:77] Creating layer conv4
I1223 13:32:06.102892 30208 net.cpp:84] Creating Layer conv4
I1223 13:32:06.102897 30208 net.cpp:413] conv4 <- conv3
I1223 13:32:06.102911 30208 net.cpp:387] conv4 -> conv4
I1223 13:32:06.128568 30208 net.cpp:127] Setting up conv4
I1223 13:32:06.128590 30208 net.cpp:136] Top shape: 256 384 13 13 (16613376)
I1223 13:32:06.128595 30208 net.cpp:144] Memory required for data: 1939042304
I1223 13:32:06.128603 30208 net.cpp:453] Found INQ layer:conv4, type: INQConvolution, layer id:11
I1223 13:32:06.128609 30208 net.cpp:453] Found INQ layer:conv4, type: INQConvolution, layer id:11
I1223 13:32:06.128615 30208 net.cpp:453] Found INQ layer:conv4, type: INQConvolution, layer id:11
I1223 13:32:06.128620 30208 net.cpp:453] Found INQ layer:conv4, type: INQConvolution, layer id:11
I1223 13:32:06.128625 30208 layer_factory.hpp:77] Creating layer relu4
I1223 13:32:06.128636 30208 net.cpp:84] Creating Layer relu4
I1223 13:32:06.128641 30208 net.cpp:413] relu4 <- conv4
I1223 13:32:06.128649 30208 net.cpp:374] relu4 -> conv4 (in-place)
I1223 13:32:06.128880 30208 net.cpp:127] Setting up relu4
I1223 13:32:06.128891 30208 net.cpp:136] Top shape: 256 384 13 13 (16613376)
I1223 13:32:06.128895 30208 net.cpp:144] Memory required for data: 2005495808
I1223 13:32:06.128901 30208 layer_factory.hpp:77] Creating layer conv5
I1223 13:32:06.128919 30208 net.cpp:84] Creating Layer conv5
I1223 13:32:06.128924 30208 net.cpp:413] conv5 <- conv4
I1223 13:32:06.128934 30208 net.cpp:387] conv5 -> conv5
I1223 13:32:06.138473 30208 net.cpp:127] Setting up conv5
I1223 13:32:06.138501 30208 net.cpp:136] Top shape: 256 256 13 13 (11075584)
I1223 13:32:06.138531 30208 net.cpp:144] Memory required for data: 2049798144
I1223 13:32:06.138542 30208 net.cpp:453] Found INQ layer:conv5, type: INQConvolution, layer id:13
I1223 13:32:06.138555 30208 net.cpp:453] Found INQ layer:conv5, type: INQConvolution, layer id:13
I1223 13:32:06.138561 30208 net.cpp:453] Found INQ layer:conv5, type: INQConvolution, layer id:13
I1223 13:32:06.138566 30208 net.cpp:453] Found INQ layer:conv5, type: INQConvolution, layer id:13
I1223 13:32:06.138571 30208 layer_factory.hpp:77] Creating layer relu5
I1223 13:32:06.138578 30208 net.cpp:84] Creating Layer relu5
I1223 13:32:06.138583 30208 net.cpp:413] relu5 <- conv5
I1223 13:32:06.138590 30208 net.cpp:374] relu5 -> conv5 (in-place)
I1223 13:32:06.138826 30208 net.cpp:127] Setting up relu5
I1223 13:32:06.138837 30208 net.cpp:136] Top shape: 256 256 13 13 (11075584)
I1223 13:32:06.138842 30208 net.cpp:144] Memory required for data: 2094100480
I1223 13:32:06.138846 30208 layer_factory.hpp:77] Creating layer pool5
I1223 13:32:06.138859 30208 net.cpp:84] Creating Layer pool5
I1223 13:32:06.138864 30208 net.cpp:413] pool5 <- conv5
I1223 13:32:06.138872 30208 net.cpp:387] pool5 -> pool5
I1223 13:32:06.138921 30208 net.cpp:127] Setting up pool5
I1223 13:32:06.138928 30208 net.cpp:136] Top shape: 256 256 6 6 (2359296)
I1223 13:32:06.138932 30208 net.cpp:144] Memory required for data: 2103537664
I1223 13:32:06.138937 30208 layer_factory.hpp:77] Creating layer fc6
I1223 13:32:06.138962 30208 net.cpp:84] Creating Layer fc6
I1223 13:32:06.138970 30208 net.cpp:413] fc6 <- pool5
I1223 13:32:06.138978 30208 net.cpp:387] fc6 -> fc6
I1223 13:32:06.818218 30208 net.cpp:127] Setting up fc6
I1223 13:32:06.818269 30208 net.cpp:136] Top shape: 256 4096 (1048576)
I1223 13:32:06.818275 30208 net.cpp:144] Memory required for data: 2107731968
I1223 13:32:06.818300 30208 net.cpp:453] Found INQ layer:fc6, type: INQInnerProduct, layer id:16
I1223 13:32:06.818308 30208 net.cpp:453] Found INQ layer:fc6, type: INQInnerProduct, layer id:16
I1223 13:32:06.818315 30208 net.cpp:453] Found INQ layer:fc6, type: INQInnerProduct, layer id:16
I1223 13:32:06.818320 30208 net.cpp:453] Found INQ layer:fc6, type: INQInnerProduct, layer id:16
I1223 13:32:06.818327 30208 layer_factory.hpp:77] Creating layer relu6
I1223 13:32:06.818351 30208 net.cpp:84] Creating Layer relu6
I1223 13:32:06.818361 30208 net.cpp:413] relu6 <- fc6
I1223 13:32:06.818370 30208 net.cpp:374] relu6 -> fc6 (in-place)
I1223 13:32:06.818830 30208 net.cpp:127] Setting up relu6
I1223 13:32:06.818841 30208 net.cpp:136] Top shape: 256 4096 (1048576)
I1223 13:32:06.818846 30208 net.cpp:144] Memory required for data: 2111926272
I1223 13:32:06.818851 30208 layer_factory.hpp:77] Creating layer drop6
I1223 13:32:06.818866 30208 net.cpp:84] Creating Layer drop6
I1223 13:32:06.818871 30208 net.cpp:413] drop6 <- fc6
I1223 13:32:06.818878 30208 net.cpp:374] drop6 -> fc6 (in-place)
I1223 13:32:06.818912 30208 net.cpp:127] Setting up drop6
I1223 13:32:06.818918 30208 net.cpp:136] Top shape: 256 4096 (1048576)
I1223 13:32:06.818923 30208 net.cpp:144] Memory required for data: 2116120576
I1223 13:32:06.818928 30208 layer_factory.hpp:77] Creating layer fc7
I1223 13:32:06.818944 30208 net.cpp:84] Creating Layer fc7
I1223 13:32:06.818949 30208 net.cpp:413] fc7 <- fc6
I1223 13:32:06.818959 30208 net.cpp:387] fc7 -> fc7
I1223 13:32:07.119169 30208 net.cpp:127] Setting up fc7
I1223 13:32:07.119222 30208 net.cpp:136] Top shape: 256 4096 (1048576)
I1223 13:32:07.119228 30208 net.cpp:144] Memory required for data: 2120314880
I1223 13:32:07.119240 30208 net.cpp:453] Found INQ layer:fc7, type: INQInnerProduct, layer id:19
I1223 13:32:07.119249 30208 net.cpp:453] Found INQ layer:fc7, type: INQInnerProduct, layer id:19
I1223 13:32:07.119256 30208 net.cpp:453] Found INQ layer:fc7, type: INQInnerProduct, layer id:19
I1223 13:32:07.119261 30208 net.cpp:453] Found INQ layer:fc7, type: INQInnerProduct, layer id:19
I1223 13:32:07.119271 30208 layer_factory.hpp:77] Creating layer relu7
I1223 13:32:07.119310 30208 net.cpp:84] Creating Layer relu7
I1223 13:32:07.119349 30208 net.cpp:413] relu7 <- fc7
I1223 13:32:07.119359 30208 net.cpp:374] relu7 -> fc7 (in-place)
I1223 13:32:07.120940 30208 net.cpp:127] Setting up relu7
I1223 13:32:07.120959 30208 net.cpp:136] Top shape: 256 4096 (1048576)
I1223 13:32:07.120966 30208 net.cpp:144] Memory required for data: 2124509184
I1223 13:32:07.120971 30208 layer_factory.hpp:77] Creating layer drop7
I1223 13:32:07.120985 30208 net.cpp:84] Creating Layer drop7
I1223 13:32:07.120990 30208 net.cpp:413] drop7 <- fc7
I1223 13:32:07.120996 30208 net.cpp:374] drop7 -> fc7 (in-place)
I1223 13:32:07.121023 30208 net.cpp:127] Setting up drop7
I1223 13:32:07.121031 30208 net.cpp:136] Top shape: 256 4096 (1048576)
I1223 13:32:07.121034 30208 net.cpp:144] Memory required for data: 2128703488
I1223 13:32:07.121038 30208 layer_factory.hpp:77] Creating layer fc8
I1223 13:32:07.121057 30208 net.cpp:84] Creating Layer fc8
I1223 13:32:07.121062 30208 net.cpp:413] fc8 <- fc7
I1223 13:32:07.121068 30208 net.cpp:387] fc8 -> fc8
I1223 13:32:07.195355 30208 net.cpp:127] Setting up fc8
I1223 13:32:07.195392 30208 net.cpp:136] Top shape: 256 1000 (256000)
I1223 13:32:07.195397 30208 net.cpp:144] Memory required for data: 2129727488
I1223 13:32:07.195407 30208 net.cpp:453] Found INQ layer:fc8, type: INQInnerProduct, layer id:22
I1223 13:32:07.195415 30208 net.cpp:453] Found INQ layer:fc8, type: INQInnerProduct, layer id:22
I1223 13:32:07.195421 30208 net.cpp:453] Found INQ layer:fc8, type: INQInnerProduct, layer id:22
I1223 13:32:07.195426 30208 net.cpp:453] Found INQ layer:fc8, type: INQInnerProduct, layer id:22
…
I1223 13:32:07.199223 30208 net.cpp:301] The NetState phase (1) differed from the phase (0) specified by a rule in layer data
I1223 13:32:07.199607 30208 net.cpp:51] Initializing net from parameters: 
name: "AlexNet"
state {
  phase: TEST
}
layer {
  name: "data"
  type: "Data"
  top: "data"
  top: "label"
  include {
    phase: TEST
  }
  transform_param {
    mirror: false
    crop_size: 227
    mean_file: "/home/data/caffe-imagenet/imagenet_mean.binaryproto"
  }
  data_param {
    source: "/home/data/caffe-imagenet/ilsvrc12_val_lmdb"
    batch_size: 50
    backend: LMDB
  }
}
layer {
  name: "conv1"
  type: "INQConvolution"
  bottom: "data"
  top: "conv1"
  param {
    lr_mult: 1
    decay_mult: 1
  }
  param {
    lr_mult: 2
    decay_mult: 0
  }
  convolution_param {
    num_output: 96
    kernel_size: 11
    stride: 4
    weight_filler {
      type: "gaussian"
      std: 0.01
    }
    bias_filler {
      type: "constant"
      value: 0
    }
  }
  inq_convolution_param {
    portion: 0.7
    portion: 0.85
    weight_mask_filler {
      type: "constant"
      value: 1
    }
    bias_mask_filler {
      type: "constant"
      value: 1
    }
    num_quantum_values: 7
  }
}
layer {
  name: "relu1"
  type: "ReLU"
  bottom: "conv1"
  top: "conv1"
}
layer {
  name: "norm1"
  type: "LRN"
  bottom: "conv1"
  top: "norm1"
  lrn_param {
    local_size: 5
    alpha: 0.0001
    beta: 0.75
  }
}
layer {
  name: "pool1"
  type: "Pooling"
  bottom: "norm1"
  top: "pool1"
  pooling_param {
    pool: MAX
    kernel_size: 3
    stride: 2
  }
}
layer {
  name: "conv2"
  type: "INQConvolution"
  bottom: "pool1"
  top: "conv2"
  param {
    lr_mult: 1
    decay_mult: 1
  }
  param {
    lr_mult: 2
    decay_mult: 0
  }
  convolution_param {
    num_output: 256
    pad: 2
    kernel_size: 5
    group: 2
    weight_filler {
      type: "gaussian"
      std: 0.01
    }
    bias_filler {
      type: "constant"
      value: 0.1
    }
  }
  inq_convolution_param {
    portion: 0.7
    portion: 0.85
    weight_mask_filler {
      type: "constant"
      value: 1
    }
    bias_mask_filler {
      type: "constant"
      value: 1
    }
    num_quantum_values: 7
  }
}
layer {
  name: "relu2"
  type: "ReLU"
  bottom: "conv2"
  top: "conv2"
}
layer {
  name: "norm2"
  type: "LRN"
  bottom: "conv2"
  top: "norm2"
  lrn_param {
    local_size: 5
    alpha: 0.0001
    beta: 0.75
  }
}
layer {
  name: "pool2"
  type: "Pooling"
  bottom: "norm2"
  top: "pool2"
  pooling_param {
    pool: MAX
    kernel_size: 3
    stride: 2
  }
}
layer {
  name: "conv3"
  type: "INQConvolution"
  bottom: "pool2"
  top: "conv3"
  param {
    lr_mult: 1
    decay_mult: 1
  }
  param {
    lr_mult: 2
    decay_mult: 0
  }
  convolution_param {
    num_output: 384
    pad: 1
    kernel_size: 3
    weight_filler {
      type: "gaussian"
      std: 0.01
    }
    bias_filler {
      type: "constant"
      value: 0
    }
  }
  inq_convolution_param {
    portion: 0.7
    portion: 0.85
    weight_mask_filler {
      type: "constant"
      value: 1
    }
    bias_mask_filler {
      type: "constant"
      value: 1
    }
    num_quantum_values: 7
  }
}
layer {
  name: "relu3"
  type: "ReLU"
  bottom: "conv3"
  top: "conv3"
}
layer {
  name: "conv4"
  type: "INQConvolution"
  bottom: "conv3"
  top: "conv4"
  param {
    lr_mult: 1
    decay_mult: 1
  }
  param {
    lr_mult: 2
    decay_mult: 0
  }
  convolution_param {
    num_output: 384
    pad: 1
    kernel_size: 3
    group: 2
    weight_filler {
      type: "gaussian"
      std: 0.01
    }
    bias_filler {
      type: "constant"
      value: 0.1
    }
  }
  inq_convolution_param {
    portion: 0.7
    portion: 0.85
    weight_mask_filler {
      type: "constant"
      value: 1
    }
    bias_mask_filler {
      type: "constant"
      value: 1
    }
    num_quantum_values: 7
  }
}
layer {
  name: "relu4"
  type: "ReLU"
  bottom: "conv4"
  top: "conv4"
}
layer {
  name: "conv5"
  type: "INQConvolution"
  bottom: "conv4"
  top: "conv5"
  param {
    lr_mult: 1
    decay_mult: 1
  }
  param {
    lr_mult: 2
    decay_mult: 0
  }
  convolution_param {
    num_output: 256
    pad: 1
    kernel_size: 3
    group: 2
    weight_filler {
      type: "gaussian"
      std: 0.01
    }
    bias_filler {
      type: "constant"
      value: 0.1
    }
  }
  inq_convolution_param {
    portion: 0.7
    portion: 0.85
    weight_mask_filler {
      type: "constant"
      value: 1
    }
    bias_mask_filler {
      type: "constant"
      value: 1
    }
    num_quantum_values: 7
  }
}
layer {
  name: "relu5"
  type: "ReLU"
  bottom: "conv5"
  top: "conv5"
}
layer {
  name: "pool5"
  type: "Pooling"
  bottom: "conv5"
  top: "pool5"
  pooling_param {
    pool: MAX
    kernel_size: 3
    stride: 2
  }
}
layer {
  name: "fc6"
  type: "INQInnerProduct"
  bottom: "pool5"
  top: "fc6"
  param {
    lr_mult: 1
    decay_mult: 1
  }
  param {
    lr_mult: 2
    decay_mult: 0
  }
  inner_product_param {
    num_output: 4096
    weight_filler {
      type: "gaussian"
      std: 0.005
    }
    bias_filler {
      type: "constant"
      value: 0.1
    }
  }
  inq_inner_product_param {
    portion: 0.7
    portion: 0.85
    weight_mask_filler {
      type: "constant"
      value: 1
    }
    bias_mask_filler {
      type: "constant"
      value: 1
    }
    num_quantum_values: 7
  }
}
layer {
  name: "relu6"
  type: "ReLU"
  bottom: "fc6"
  top: "fc6"
}
layer {
  name: "drop6"
  type: "Dropout"
  bottom: "fc6"
  top: "fc6"
  dropout_param {
    dropout_ratio: 0.5
  }
}
layer {
  name: "fc7"
  type: "INQInnerProduct"
  bottom: "fc6"
  top: "fc7"
  param {
    lr_mult: 1
    decay_mult: 1
  }
  param {
    lr_mult: 2
    decay_mult: 0
  }
  inner_product_param {
    num_output: 4096
    weight_filler {
      type: "gaussian"
      std: 0.005
    }
    bias_filler {
      type: "constant"
      value: 0.1
    }
  }
  inq_inner_product_param {
    portion: 0.7
    portion: 0.85
    weight_mask_filler {
      type: "constant"
      value: 1
    }
    bias_mask_filler {
      type: "constant"
      value: 1
    }
    num_quantum_values: 7
  }
}
layer {
  name: "relu7"
  type: "ReLU"
  bottom: "fc7"
  top: "fc7"
}
layer {
  name: "drop7"
  type: "Dropout"
  bottom: "fc7"
  top: "fc7"
  dropout_param {
    dropout_ratio: 0.5
  }
}
layer {
  name: "fc8"
  type: "INQInnerProduct"
  bottom: "fc7"
  top: "fc8"
  param {
    lr_mult: 1
    decay_mult: 1
  }
  param {
    lr_mult: 2
    decay_mult: 0
  }
  inner_product_param {
    num_output: 1000
    weight_filler {
      type: "gaussian"
      std: 0.01
    }
    bias_filler {
      type: "constant"
      value: 0
    }
  }
  inq_inner_product_param {
    portion: 0.7
    portion: 0.85
    weight_mask_filler {
      type: "constant"
      value: 1
    }
    bias_mask_filler {
      type: "constant"
      value: 1
    }
    num_quantum_values: 7
  }
}
layer {
  name: "accuracy_top1"
  type: "Accuracy"
  bottom: "fc8"
  bottom: "label"
  top: "accuracy_top1"
  include {
    phase: TEST
  }
  accuracy_param {
    top_k: 1
  }
}
layer {
  name: "accuracy_top5"
  type: "Accuracy"
  bottom: "fc8"
  bottom: "label"
  top: "accuracy_top5"
  include {
    phase: TEST
  }
  accuracy_param {
    top_k: 5
  }
}
layer {
  name: "loss"
  type: "SoftmaxWithLoss"
  bottom: "fc8"
  bottom: "label"
  top: "loss"
}
I1223 13:32:07.199793 30208 layer_factory.hpp:77] Creating layer data
I1223 13:32:07.199862 30208 db_lmdb.cpp:35] Opened lmdb /home/data/caffe-imagenet/ilsvrc12_val_lmdb
I1223 13:32:07.199892 30208 net.cpp:84] Creating Layer data
I1223 13:32:07.199903 30208 net.cpp:387] data -> data
I1223 13:32:07.199914 30208 net.cpp:387] data -> label
I1223 13:32:07.199923 30208 data_transformer.cpp:25] Loading mean file from: /home/data/caffe-imagenet/imagenet_mean.binaryproto
I1223 13:32:07.202424 30208 data_layer.cpp:45] output data size: 50,3,227,227
I1223 13:32:07.312547 30208 net.cpp:127] Setting up data
I1223 13:32:07.312608 30208 net.cpp:136] Top shape: 50 3 227 227 (7729350)
I1223 13:32:07.312654 30208 net.cpp:136] Top shape: 50 (50)
I1223 13:32:07.312659 30208 net.cpp:144] Memory required for data: 30917600
I1223 13:32:07.312671 30208 layer_factory.hpp:77] Creating layer label_data_1_split
I1223 13:32:07.312700 30208 net.cpp:84] Creating Layer label_data_1_split
I1223 13:32:07.312708 30208 net.cpp:413] label_data_1_split <- label
I1223 13:32:07.312718 30208 net.cpp:387] label_data_1_split -> label_data_1_split_0
I1223 13:32:07.312733 30208 net.cpp:387] label_data_1_split -> label_data_1_split_1
I1223 13:32:07.312741 30208 net.cpp:387] label_data_1_split -> label_data_1_split_2
I1223 13:32:07.312871 30208 net.cpp:127] Setting up label_data_1_split
I1223 13:32:07.312880 30208 net.cpp:136] Top shape: 50 (50)
I1223 13:32:07.312885 30208 net.cpp:136] Top shape: 50 (50)
I1223 13:32:07.312891 30208 net.cpp:136] Top shape: 50 (50)
I1223 13:32:07.312896 30208 net.cpp:144] Memory required for data: 30918200
I1223 13:32:07.312901 30208 layer_factory.hpp:77] Creating layer conv1
I1223 13:32:07.312932 30208 net.cpp:84] Creating Layer conv1
I1223 13:32:07.312937 30208 net.cpp:413] conv1 <- data
I1223 13:32:07.312947 30208 net.cpp:387] conv1 -> conv1
I1223 13:32:07.313879 30208 net.cpp:127] Setting up conv1
I1223 13:32:07.313889 30208 net.cpp:136] Top shape: 50 96 55 55 (14520000)
I1223 13:32:07.313894 30208 net.cpp:144] Memory required for data: 88998200
I1223 13:32:07.313902 30208 net.cpp:453] Found INQ layer:conv1, type: INQConvolution, layer id:2
I1223 13:32:07.313912 30208 net.cpp:453] Found INQ layer:conv1, type: INQConvolution, layer id:2
I1223 13:32:07.313921 30208 net.cpp:453] Found INQ layer:conv1, type: INQConvolution, layer id:2
I1223 13:32:07.313928 30208 net.cpp:453] Found INQ layer:conv1, type: INQConvolution, layer id:2
I1223 13:32:07.313935 30208 layer_factory.hpp:77] Creating layer relu1
I1223 13:32:07.313947 30208 net.cpp:84] Creating Layer relu1
I1223 13:32:07.313952 30208 net.cpp:413] relu1 <- conv1
I1223 13:32:07.313961 30208 net.cpp:374] relu1 -> conv1 (in-place)
I1223 13:32:07.316612 30208 net.cpp:127] Setting up relu1
I1223 13:32:07.316625 30208 net.cpp:136] Top shape: 50 96 55 55 (14520000)
I1223 13:32:07.316630 30208 net.cpp:144] Memory required for data: 147078200
I1223 13:32:07.316635 30208 layer_factory.hpp:77] Creating layer norm1
I1223 13:32:07.316653 30208 net.cpp:84] Creating Layer norm1
I1223 13:32:07.316658 30208 net.cpp:413] norm1 <- conv1
I1223 13:32:07.316664 30208 net.cpp:387] norm1 -> norm1
I1223 13:32:07.316918 30208 net.cpp:127] Setting up norm1
I1223 13:32:07.316928 30208 net.cpp:136] Top shape: 50 96 55 55 (14520000)
I1223 13:32:07.316932 30208 net.cpp:144] Memory required for data: 205158200
I1223 13:32:07.316937 30208 layer_factory.hpp:77] Creating layer pool1
I1223 13:32:07.316951 30208 net.cpp:84] Creating Layer pool1
I1223 13:32:07.316956 30208 net.cpp:413] pool1 <- norm1
I1223 13:32:07.316962 30208 net.cpp:387] pool1 -> pool1
I1223 13:32:07.317006 30208 net.cpp:127] Setting up pool1
I1223 13:32:07.317013 30208 net.cpp:136] Top shape: 50 96 27 27 (3499200)
I1223 13:32:07.317018 30208 net.cpp:144] Memory required for data: 219155000
I1223 13:32:07.317021 30208 layer_factory.hpp:77] Creating layer conv2
I1223 13:32:07.317037 30208 net.cpp:84] Creating Layer conv2
I1223 13:32:07.317041 30208 net.cpp:413] conv2 <- pool1
I1223 13:32:07.317049 30208 net.cpp:387] conv2 -> conv2
I1223 13:32:07.324733 30208 net.cpp:127] Setting up conv2
I1223 13:32:07.324751 30208 net.cpp:136] Top shape: 50 256 27 27 (9331200)
I1223 13:32:07.324755 30208 net.cpp:144] Memory required for data: 256479800
I1223 13:32:07.324765 30208 net.cpp:453] Found INQ layer:conv2, type: INQConvolution, layer id:6
I1223 13:32:07.324774 30208 net.cpp:453] Found INQ layer:conv2, type: INQConvolution, layer id:6
I1223 13:32:07.324780 30208 net.cpp:453] Found INQ layer:conv2, type: INQConvolution, layer id:6
I1223 13:32:07.324785 30208 net.cpp:453] Found INQ layer:conv2, type: INQConvolution, layer id:6
I1223 13:32:07.324800 30208 layer_factory.hpp:77] Creating layer relu2
I1223 13:32:07.324821 30208 net.cpp:84] Creating Layer relu2
I1223 13:32:07.324827 30208 net.cpp:413] relu2 <- conv2
I1223 13:32:07.324836 30208 net.cpp:374] relu2 -> conv2 (in-place)
I1223 13:32:07.326146 30208 net.cpp:127] Setting up relu2
I1223 13:32:07.326164 30208 net.cpp:136] Top shape: 50 256 27 27 (9331200)
I1223 13:32:07.326169 30208 net.cpp:144] Memory required for data: 293804600
I1223 13:32:07.326179 30208 layer_factory.hpp:77] Creating layer norm2
I1223 13:32:07.326192 30208 net.cpp:84] Creating Layer norm2
I1223 13:32:07.326197 30208 net.cpp:413] norm2 <- conv2
I1223 13:32:07.326205 30208 net.cpp:387] norm2 -> norm2
I1223 13:32:07.326452 30208 net.cpp:127] Setting up norm2
I1223 13:32:07.326462 30208 net.cpp:136] Top shape: 50 256 27 27 (9331200)
I1223 13:32:07.326467 30208 net.cpp:144] Memory required for data: 331129400
I1223 13:32:07.326472 30208 layer_factory.hpp:77] Creating layer pool2
I1223 13:32:07.326481 30208 net.cpp:84] Creating Layer pool2
I1223 13:32:07.326486 30208 net.cpp:413] pool2 <- norm2
I1223 13:32:07.326493 30208 net.cpp:387] pool2 -> pool2
I1223 13:32:07.326539 30208 net.cpp:127] Setting up pool2
I1223 13:32:07.326545 30208 net.cpp:136] Top shape: 50 256 13 13 (2163200)
I1223 13:32:07.326550 30208 net.cpp:144] Memory required for data: 339782200
I1223 13:32:07.326555 30208 layer_factory.hpp:77] Creating layer conv3
I1223 13:32:07.326570 30208 net.cpp:84] Creating Layer conv3
I1223 13:32:07.326575 30208 net.cpp:413] conv3 <- pool2
I1223 13:32:07.326583 30208 net.cpp:387] conv3 -> conv3
I1223 13:32:07.343673 30208 net.cpp:127] Setting up conv3
I1223 13:32:07.343691 30208 net.cpp:136] Top shape: 50 384 13 13 (3244800)
I1223 13:32:07.343696 30208 net.cpp:144] Memory required for data: 352761400
I1223 13:32:07.343705 30208 net.cpp:453] Found INQ layer:conv3, type: INQConvolution, layer id:10
I1223 13:32:07.343714 30208 net.cpp:453] Found INQ layer:conv3, type: INQConvolution, layer id:10
I1223 13:32:07.343720 30208 net.cpp:453] Found INQ layer:conv3, type: INQConvolution, layer id:10
I1223 13:32:07.343726 30208 net.cpp:453] Found INQ layer:conv3, type: INQConvolution, layer id:10
I1223 13:32:07.343735 30208 layer_factory.hpp:77] Creating layer relu3
I1223 13:32:07.343744 30208 net.cpp:84] Creating Layer relu3
I1223 13:32:07.343750 30208 net.cpp:413] relu3 <- conv3
I1223 13:32:07.343757 30208 net.cpp:374] relu3 -> conv3 (in-place)
I1223 13:32:07.343972 30208 net.cpp:127] Setting up relu3
I1223 13:32:07.343982 30208 net.cpp:136] Top shape: 50 384 13 13 (3244800)
I1223 13:32:07.343986 30208 net.cpp:144] Memory required for data: 365740600
I1223 13:32:07.343991 30208 layer_factory.hpp:77] Creating layer conv4
I1223 13:32:07.344004 30208 net.cpp:84] Creating Layer conv4
I1223 13:32:07.344009 30208 net.cpp:413] conv4 <- conv3
I1223 13:32:07.344018 30208 net.cpp:387] conv4 -> conv4
I1223 13:32:07.357161 30208 net.cpp:127] Setting up conv4
I1223 13:32:07.357179 30208 net.cpp:136] Top shape: 50 384 13 13 (3244800)
I1223 13:32:07.357184 30208 net.cpp:144] Memory required for data: 378719800
I1223 13:32:07.357192 30208 net.cpp:453] Found INQ layer:conv4, type: INQConvolution, layer id:12
I1223 13:32:07.357197 30208 net.cpp:453] Found INQ layer:conv4, type: INQConvolution, layer id:12
I1223 13:32:07.357203 30208 net.cpp:453] Found INQ layer:conv4, type: INQConvolution, layer id:12
I1223 13:32:07.357208 30208 net.cpp:453] Found INQ layer:conv4, type: INQConvolution, layer id:12
I1223 13:32:07.357213 30208 layer_factory.hpp:77] Creating layer relu4
I1223 13:32:07.357221 30208 net.cpp:84] Creating Layer relu4
I1223 13:32:07.357228 30208 net.cpp:413] relu4 <- conv4
I1223 13:32:07.357234 30208 net.cpp:374] relu4 -> conv4 (in-place)
I1223 13:32:07.359140 30208 net.cpp:127] Setting up relu4
I1223 13:32:07.359158 30208 net.cpp:136] Top shape: 50 384 13 13 (3244800)
I1223 13:32:07.359163 30208 net.cpp:144] Memory required for data: 391699000
I1223 13:32:07.359174 30208 layer_factory.hpp:77] Creating layer conv5
I1223 13:32:07.359194 30208 net.cpp:84] Creating Layer conv5
I1223 13:32:07.359201 30208 net.cpp:413] conv5 <- conv4
I1223 13:32:07.359225 30208 net.cpp:387] conv5 -> conv5
I1223 13:32:07.373217 30208 net.cpp:127] Setting up conv5
I1223 13:32:07.373247 30208 net.cpp:136] Top shape: 50 256 13 13 (2163200)
I1223 13:32:07.373256 30208 net.cpp:144] Memory required for data: 400351800
I1223 13:32:07.373275 30208 net.cpp:453] Found INQ layer:conv5, type: INQConvolution, layer id:14
I1223 13:32:07.373296 30208 net.cpp:453] Found INQ layer:conv5, type: INQConvolution, layer id:14
I1223 13:32:07.373309 30208 net.cpp:453] Found INQ layer:conv5, type: INQConvolution, layer id:14
I1223 13:32:07.373319 30208 net.cpp:453] Found INQ layer:conv5, type: INQConvolution, layer id:14
I1223 13:32:07.373327 30208 layer_factory.hpp:77] Creating layer relu5
I1223 13:32:07.373340 30208 net.cpp:84] Creating Layer relu5
I1223 13:32:07.373350 30208 net.cpp:413] relu5 <- conv5
I1223 13:32:07.373363 30208 net.cpp:374] relu5 -> conv5 (in-place)
I1223 13:32:07.373705 30208 net.cpp:127] Setting up relu5
I1223 13:32:07.373723 30208 net.cpp:136] Top shape: 50 256 13 13 (2163200)
I1223 13:32:07.373729 30208 net.cpp:144] Memory required for data: 409004600
I1223 13:32:07.373739 30208 layer_factory.hpp:77] Creating layer pool5
I1223 13:32:07.373754 30208 net.cpp:84] Creating Layer pool5
I1223 13:32:07.373762 30208 net.cpp:413] pool5 <- conv5
I1223 13:32:07.373775 30208 net.cpp:387] pool5 -> pool5
I1223 13:32:07.373853 30208 net.cpp:127] Setting up pool5
I1223 13:32:07.373867 30208 net.cpp:136] Top shape: 50 256 6 6 (460800)
I1223 13:32:07.373874 30208 net.cpp:144] Memory required for data: 410847800
I1223 13:32:07.373881 30208 layer_factory.hpp:77] Creating layer fc6
I1223 13:32:07.373906 30208 net.cpp:84] Creating Layer fc6
I1223 13:32:07.373915 30208 net.cpp:413] fc6 <- pool5
I1223 13:32:07.373929 30208 net.cpp:387] fc6 -> fc6
I1223 13:32:08.050477 30208 net.cpp:127] Setting up fc6
I1223 13:32:08.050537 30208 net.cpp:136] Top shape: 50 4096 (204800)
I1223 13:32:08.050544 30208 net.cpp:144] Memory required for data: 411667000
I1223 13:32:08.050557 30208 net.cpp:453] Found INQ layer:fc6, type: INQInnerProduct, layer id:17
I1223 13:32:08.050568 30208 net.cpp:453] Found INQ layer:fc6, type: INQInnerProduct, layer id:17
I1223 13:32:08.050575 30208 net.cpp:453] Found INQ layer:fc6, type: INQInnerProduct, layer id:17
I1223 13:32:08.050580 30208 net.cpp:453] Found INQ layer:fc6, type: INQInnerProduct, layer id:17
I1223 13:32:08.050590 30208 layer_factory.hpp:77] Creating layer relu6
I1223 13:32:08.050607 30208 net.cpp:84] Creating Layer relu6
I1223 13:32:08.050616 30208 net.cpp:413] relu6 <- fc6
I1223 13:32:08.050626 30208 net.cpp:374] relu6 -> fc6 (in-place)
I1223 13:32:08.051093 30208 net.cpp:127] Setting up relu6
I1223 13:32:08.051105 30208 net.cpp:136] Top shape: 50 4096 (204800)
I1223 13:32:08.051110 30208 net.cpp:144] Memory required for data: 412486200
I1223 13:32:08.051115 30208 layer_factory.hpp:77] Creating layer drop6
I1223 13:32:08.051126 30208 net.cpp:84] Creating Layer drop6
I1223 13:32:08.051131 30208 net.cpp:413] drop6 <- fc6
I1223 13:32:08.051141 30208 net.cpp:374] drop6 -> fc6 (in-place)
I1223 13:32:08.051188 30208 net.cpp:127] Setting up drop6
I1223 13:32:08.051198 30208 net.cpp:136] Top shape: 50 4096 (204800)
I1223 13:32:08.051201 30208 net.cpp:144] Memory required for data: 413305400
I1223 13:32:08.051205 30208 layer_factory.hpp:77] Creating layer fc7
I1223 13:32:08.051221 30208 net.cpp:84] Creating Layer fc7
I1223 13:32:08.051226 30208 net.cpp:413] fc7 <- fc6
I1223 13:32:08.051236 30208 net.cpp:387] fc7 -> fc7
I1223 13:32:08.354418 30208 net.cpp:127] Setting up fc7
I1223 13:32:08.354470 30208 net.cpp:136] Top shape: 50 4096 (204800)
I1223 13:32:08.354475 30208 net.cpp:144] Memory required for data: 414124600
I1223 13:32:08.354490 30208 net.cpp:453] Found INQ layer:fc7, type: INQInnerProduct, layer id:20
I1223 13:32:08.354499 30208 net.cpp:453] Found INQ layer:fc7, type: INQInnerProduct, layer id:20
I1223 13:32:08.354506 30208 net.cpp:453] Found INQ layer:fc7, type: INQInnerProduct, layer id:20
I1223 13:32:08.354526 30208 net.cpp:453] Found INQ layer:fc7, type: INQInnerProduct, layer id:20
I1223 13:32:08.354563 30208 layer_factory.hpp:77] Creating layer relu7
I1223 13:32:08.354588 30208 net.cpp:84] Creating Layer relu7
I1223 13:32:08.354598 30208 net.cpp:413] relu7 <- fc7
I1223 13:32:08.354607 30208 net.cpp:374] relu7 -> fc7 (in-place)
I1223 13:32:08.355000 30208 net.cpp:127] Setting up relu7
I1223 13:32:08.355011 30208 net.cpp:136] Top shape: 50 4096 (204800)
I1223 13:32:08.355015 30208 net.cpp:144] Memory required for data: 414943800
I1223 13:32:08.355020 30208 layer_factory.hpp:77] Creating layer drop7
I1223 13:32:08.355036 30208 net.cpp:84] Creating Layer drop7
I1223 13:32:08.355041 30208 net.cpp:413] drop7 <- fc7
I1223 13:32:08.355048 30208 net.cpp:374] drop7 -> fc7 (in-place)
I1223 13:32:08.355100 30208 net.cpp:127] Setting up drop7
I1223 13:32:08.355108 30208 net.cpp:136] Top shape: 50 4096 (204800)
I1223 13:32:08.355111 30208 net.cpp:144] Memory required for data: 415763000
I1223 13:32:08.355118 30208 layer_factory.hpp:77] Creating layer fc8
I1223 13:32:08.355136 30208 net.cpp:84] Creating Layer fc8
I1223 13:32:08.355141 30208 net.cpp:413] fc8 <- fc7
I1223 13:32:08.355150 30208 net.cpp:387] fc8 -> fc8
I1223 13:32:08.431977 30208 net.cpp:127] Setting up fc8
I1223 13:32:08.432016 30208 net.cpp:136] Top shape: 50 1000 (50000)
I1223 13:32:08.432023 30208 net.cpp:144] Memory required for data: 415963000
I1223 13:32:08.432037 30208 net.cpp:453] Found INQ layer:fc8, type: INQInnerProduct, layer id:23
I1223 13:32:08.432046 30208 net.cpp:453] Found INQ layer:fc8, type: INQInnerProduct, layer id:23
I1223 13:32:08.432052 30208 net.cpp:453] Found INQ layer:fc8, type: INQInnerProduct, layer id:23
I1223 13:32:08.432059 30208 net.cpp:453] Found INQ layer:fc8, type: INQInnerProduct, layer id:23
I1223 13:32:08.432063 30208 layer_factory.hpp:77] Creating layer fc8_fc8_0_split
I1223 13:32:08.432078 30208 net.cpp:84] Creating Layer fc8_fc8_0_split
I1223 13:32:08.432088 30208 net.cpp:413] fc8_fc8_0_split <- fc8
I1223 13:32:08.432101 30208 net.cpp:387] fc8_fc8_0_split -> fc8_fc8_0_split_0
I1223 13:32:08.432113 30208 net.cpp:387] fc8_fc8_0_split -> fc8_fc8_0_split_1
I1223 13:32:08.432121 30208 net.cpp:387] fc8_fc8_0_split -> fc8_fc8_0_split_2
I1223 13:32:08.432205 30208 net.cpp:127] Setting up fc8_fc8_0_split
I1223 13:32:08.432214 30208 net.cpp:136] Top shape: 50 1000 (50000)
I1223 13:32:08.432219 30208 net.cpp:136] Top shape: 50 1000 (50000)
I1223 13:32:08.432224 30208 net.cpp:136] Top shape: 50 1000 (50000)
I1223 13:32:08.432229 30208 net.cpp:144] Memory required for data: 416563000
I1223 13:32:08.432234 30208 layer_factory.hpp:77] Creating layer accuracy_top1
I1223 13:32:08.432251 30208 net.cpp:84] Creating Layer accuracy_top1
I1223 13:32:08.432256 30208 net.cpp:413] accuracy_top1 <- fc8_fc8_0_split_0
I1223 13:32:08.432262 30208 net.cpp:413] accuracy_top1 <- label_data_1_split_0
I1223 13:32:08.432272 30208 net.cpp:387] accuracy_top1 -> accuracy_top1
…
