…
I1214 07:24:07.147333 37522 net.cpp:301] The NetState phase (0) differed from the phase (1) specified by a rule in layer accuracy_top5
I1214 07:24:07.147702 37522 net.cpp:51] Initializing net from parameters: 
name: "AlexNet"
state {
  phase: TRAIN
  level: 0
  stage: ""
}
layer {
  name: "data"
  type: "Data"
  top: "data"
  top: "label"
  include {
    phase: TRAIN
  }
  transform_param {
    mirror: true
    crop_size: 227
    mean_file: "/home/data/caffe-imagenet/imagenet_mean.binaryproto"
  }
  data_param {
    source: "/home/data/caffe-imagenet/ilsvrc12_train_lmdb"
    batch_size: 256
    backend: LMDB
  }
}
layer {
  name: "conv1"
  type: "DNSConvolution"
  bottom: "data"
  top: "conv1"
  param {
    lr_mult: 1
    decay_mult: 1
  }
  param {
    lr_mult: 2
    decay_mult: 0
  }
  convolution_param {
    num_output: 96
    kernel_size: 11
    stride: 4
    weight_filler {
      type: "gaussian"
      std: 0.01
    }
    bias_filler {
      type: "constant"
      value: 0
    }
  }
  dns_convolution_param {
    gamma: 1e-05
    power: 1
    c_rate: -0.5
    iter_stop: 1e+06
    weight_mask_filler {
      type: "constant"
      value: 1
    }
    bias_mask_filler {
      type: "constant"
      value: 1
    }
  }
}
layer {
  name: "relu1"
  type: "ReLU"
  bottom: "conv1"
  top: "conv1"
}
layer {
  name: "norm1"
  type: "LRN"
  bottom: "conv1"
  top: "norm1"
  lrn_param {
    local_size: 5
    alpha: 0.0001
    beta: 0.75
  }
}
layer {
  name: "pool1"
  type: "Pooling"
  bottom: "norm1"
  top: "pool1"
  pooling_param {
    pool: MAX
    kernel_size: 3
    stride: 2
  }
}
layer {
  name: "conv2"
  type: "DNSConvolution"
  bottom: "pool1"
  top: "conv2"
  param {
    lr_mult: 1
    decay_mult: 1
  }
  param {
    lr_mult: 2
    decay_mult: 0
  }
  convolution_param {
    num_output: 256
    pad: 2
    kernel_size: 5
    group: 2
    weight_filler {
      type: "gaussian"
      std: 0.01
    }
    bias_filler {
      type: "constant"
      value: 0.1
    }
  }
  dns_convolution_param {
    gamma: 1e-05
    power: 1
    c_rate: -0.2
    iter_stop: 1e+06
    weight_mask_filler {
      type: "constant"
      value: 1
    }
    bias_mask_filler {
      type: "constant"
      value: 1
    }
  }
}
layer {
  name: "relu2"
  type: "ReLU"
  bottom: "conv2"
  top: "conv2"
}
layer {
  name: "norm2"
  type: "LRN"
  bottom: "conv2"
  top: "norm2"
  lrn_param {
    local_size: 5
    alpha: 0.0001
    beta: 0.75
  }
}
layer {
  name: "pool2"
  type: "Pooling"
  bottom: "norm2"
  top: "pool2"
  pooling_param {
    pool: MAX
    kernel_size: 3
    stride: 2
  }
}
layer {
  name: "conv3"
  type: "DNSConvolution"
  bottom: "pool2"
  top: "conv3"
  param {
    lr_mult: 1
    decay_mult: 1
  }
  param {
    lr_mult: 2
    decay_mult: 0
  }
  convolution_param {
    num_output: 384
    pad: 1
    kernel_size: 3
    weight_filler {
      type: "gaussian"
      std: 0.01
    }
    bias_filler {
      type: "constant"
      value: 0
    }
  }
  dns_convolution_param {
    gamma: 1e-05
    power: 1
    c_rate: 0.2
    iter_stop: 1e+06
    weight_mask_filler {
      type: "constant"
      value: 1
    }
    bias_mask_filler {
      type: "constant"
      value: 1
    }
  }
}
layer {
  name: "relu3"
  type: "ReLU"
  bottom: "conv3"
  top: "conv3"
}
layer {
  name: "conv4"
  type: "DNSConvolution"
  bottom: "conv3"
  top: "conv4"
  param {
    lr_mult: 1
    decay_mult: 1
  }
  param {
    lr_mult: 2
    decay_mult: 0
  }
  convolution_param {
    num_output: 384
    pad: 1
    kernel_size: 3
    group: 2
    weight_filler {
      type: "gaussian"
      std: 0.01
    }
    bias_filler {
      type: "constant"
      value: 0.1
    }
  }
  dns_convolution_param {
    gamma: 1e-05
    power: 1
    c_rate: 0.2
    iter_stop: 1e+06
    weight_mask_filler {
      type: "constant"
      value: 1
    }
    bias_mask_filler {
      type: "constant"
      value: 1
    }
  }
}
layer {
  name: "relu4"
  type: "ReLU"
  bottom: "conv4"
  top: "conv4"
}
layer {
  name: "conv5"
  type: "DNSConvolution"
  bottom: "conv4"
  top: "conv5"
  param {
    lr_mult: 1
    decay_mult: 1
  }
  param {
    lr_mult: 2
    decay_mult: 0
  }
  convolution_param {
    num_output: 256
    pad: 1
    kernel_size: 3
    group: 2
    weight_filler {
      type: "gaussian"
      std: 0.01
    }
    bias_filler {
      type: "constant"
      value: 0.1
    }
  }
  dns_convolution_param {
    gamma: 1e-05
    power: 1
    c_rate: 0.2
    iter_stop: 1e+06
    weight_mask_filler {
      type: "constant"
      value: 1
    }
    bias_mask_filler {
      type: "constant"
      value: 1
    }
  }
}
layer {
  name: "relu5"
  type: "ReLU"
  bottom: "conv5"
  top: "conv5"
}
layer {
  name: "pool5"
  type: "Pooling"
  bottom: "conv5"
  top: "pool5"
  pooling_param {
    pool: MAX
    kernel_size: 3
    stride: 2
  }
}
layer {
  name: "fc6"
  type: "DNSInnerProduct"
  bottom: "pool5"
  top: "fc6"
  param {
    lr_mult: 1
    decay_mult: 1
  }
  param {
    lr_mult: 2
    decay_mult: 0
  }
  inner_product_param {
    num_output: 4096
    weight_filler {
      type: "gaussian"
      std: 0.005
    }
    bias_filler {
      type: "constant"
      value: 0.1
    }
  }
  dns_inner_product_param {
    gamma: 1e-05
    power: 1
    c_rate: 2.6
    iter_stop: 1e+06
    weight_mask_filler {
      type: "constant"
      value: 1
    }
    bias_mask_filler {
      type: "constant"
      value: 1
    }
  }
}
layer {
  name: "relu6"
  type: "ReLU"
  bottom: "fc6"
  top: "fc6"
}
layer {
  name: "drop6"
  type: "Dropout"
  bottom: "fc6"
  top: "fc6"
  dropout_param {
    dropout_ratio: 0.5
  }
}
layer {
  name: "fc7"
  type: "DNSInnerProduct"
  bottom: "fc6"
  top: "fc7"
  param {
    lr_mult: 1
    decay_mult: 1
  }
  param {
    lr_mult: 2
    decay_mult: 0
  }
  inner_product_param {
    num_output: 4096
    weight_filler {
      type: "gaussian"
      std: 0.005
    }
    bias_filler {
      type: "constant"
      value: 0.1
    }
  }
  dns_inner_product_param {
    gamma: 1e-05
    power: 1
    c_rate: 2.2
    iter_stop: 1e+06
    weight_mask_filler {
      type: "constant"
      value: 1
    }
    bias_mask_filler {
      type: "constant"
      value: 1
    }
  }
}
layer {
  name: "relu7"
  type: "ReLU"
  bottom: "fc7"
  top: "fc7"
}
layer {
  name: "drop7"
  type: "Dropout"
  bottom: "fc7"
  top: "fc7"
  dropout_param {
    dropout_ratio: 0.5
  }
}
layer {
  name: "fc8"
  type: "DNSInnerProduct"
  bottom: "fc7"
  top: "fc8"
  param {
    lr_mult: 1
    decay_mult: 1
  }
  param {
    lr_mult: 2
    decay_mult: 0
  }
  inner_product_param {
    num_output: 1000
    weight_filler {
      type: "gaussian"
      std: 0.01
    }
    bias_filler {
      type: "constant"
      value: 0
    }
  }
  dns_inner_product_param {
    gamma: 1e-05
    power: 1
    c_rate: 3
    iter_stop: 1e+06
    weight_mask_filler {
      type: "constant"
      value: 1
    }
    bias_mask_filler {
      type: "constant"
      value: 1
    }
  }
}
layer {
  name: "loss"
  type: "SoftmaxWithLoss"
  bottom: "fc8"
  bottom: "label"
  top: "loss"
}
I1214 07:24:07.147881 37522 layer_factory.hpp:77] Creating layer data
I1214 07:24:07.148023 37522 db_lmdb.cpp:35] Opened lmdb /home/data/caffe-imagenet/ilsvrc12_train_lmdb
I1214 07:24:07.148067 37522 net.cpp:84] Creating Layer data
I1214 07:24:07.148077 37522 net.cpp:387] data -> data
I1214 07:24:07.148108 37522 net.cpp:387] data -> label
I1214 07:24:07.148128 37522 data_transformer.cpp:25] Loading mean file from: /home/data/caffe-imagenet/imagenet_mean.binaryproto
I1214 07:24:07.153244 37522 data_layer.cpp:45] output data size: 256,3,227,227
I1214 07:24:07.536214 37522 net.cpp:127] Setting up data
I1214 07:24:07.536257 37522 net.cpp:136] Top shape: 256 3 227 227 (39574272)
I1214 07:24:07.536264 37522 net.cpp:136] Top shape: 256 (256)
I1214 07:24:07.536268 37522 net.cpp:144] Memory required for data: 158298112
I1214 07:24:07.536283 37522 layer_factory.hpp:77] Creating layer conv1
I1214 07:24:07.536311 37522 net.cpp:84] Creating Layer conv1
I1214 07:24:07.536319 37522 net.cpp:413] conv1 <- data
I1214 07:24:07.536337 37522 net.cpp:387] conv1 -> conv1
I1214 07:24:07.539924 37522 net.cpp:127] Setting up conv1
I1214 07:24:07.539940 37522 net.cpp:136] Top shape: 256 96 55 55 (74342400)
I1214 07:24:07.539945 37522 net.cpp:144] Memory required for data: 455667712
I1214 07:24:07.539976 37522 layer_factory.hpp:77] Creating layer relu1
I1214 07:24:07.539991 37522 net.cpp:84] Creating Layer relu1
I1214 07:24:07.539996 37522 net.cpp:413] relu1 <- conv1
I1214 07:24:07.540004 37522 net.cpp:374] relu1 -> conv1 (in-place)
I1214 07:24:07.925720 37522 net.cpp:127] Setting up relu1
I1214 07:24:07.925760 37522 net.cpp:136] Top shape: 256 96 55 55 (74342400)
I1214 07:24:07.925765 37522 net.cpp:144] Memory required for data: 753037312
I1214 07:24:07.925776 37522 layer_factory.hpp:77] Creating layer norm1
I1214 07:24:07.925806 37522 net.cpp:84] Creating Layer norm1
I1214 07:24:07.925812 37522 net.cpp:413] norm1 <- conv1
I1214 07:24:07.925822 37522 net.cpp:387] norm1 -> norm1
I1214 07:24:07.927307 37522 net.cpp:127] Setting up norm1
I1214 07:24:07.927323 37522 net.cpp:136] Top shape: 256 96 55 55 (74342400)
I1214 07:24:07.927328 37522 net.cpp:144] Memory required for data: 1050406912
I1214 07:24:07.927333 37522 layer_factory.hpp:77] Creating layer pool1
I1214 07:24:07.927346 37522 net.cpp:84] Creating Layer pool1
I1214 07:24:07.927351 37522 net.cpp:413] pool1 <- norm1
I1214 07:24:07.927357 37522 net.cpp:387] pool1 -> pool1
I1214 07:24:07.927415 37522 net.cpp:127] Setting up pool1
I1214 07:24:07.927423 37522 net.cpp:136] Top shape: 256 96 27 27 (17915904)
I1214 07:24:07.927428 37522 net.cpp:144] Memory required for data: 1122070528
I1214 07:24:07.927431 37522 layer_factory.hpp:77] Creating layer conv2
I1214 07:24:07.927448 37522 net.cpp:84] Creating Layer conv2
I1214 07:24:07.927453 37522 net.cpp:413] conv2 <- pool1
I1214 07:24:07.927459 37522 net.cpp:387] conv2 -> conv2
I1214 07:24:07.934264 37522 net.cpp:127] Setting up conv2
I1214 07:24:07.934280 37522 net.cpp:136] Top shape: 256 256 27 27 (47775744)
I1214 07:24:07.934285 37522 net.cpp:144] Memory required for data: 1313173504
I1214 07:24:07.934303 37522 layer_factory.hpp:77] Creating layer relu2
I1214 07:24:07.934314 37522 net.cpp:84] Creating Layer relu2
I1214 07:24:07.934319 37522 net.cpp:413] relu2 <- conv2
I1214 07:24:07.934324 37522 net.cpp:374] relu2 -> conv2 (in-place)
I1214 07:24:07.934530 37522 net.cpp:127] Setting up relu2
I1214 07:24:07.934538 37522 net.cpp:136] Top shape: 256 256 27 27 (47775744)
I1214 07:24:07.934542 37522 net.cpp:144] Memory required for data: 1504276480
I1214 07:24:07.934547 37522 layer_factory.hpp:77] Creating layer norm2
I1214 07:24:07.934554 37522 net.cpp:84] Creating Layer norm2
I1214 07:24:07.934566 37522 net.cpp:413] norm2 <- conv2
I1214 07:24:07.934571 37522 net.cpp:387] norm2 -> norm2
I1214 07:24:07.934787 37522 net.cpp:127] Setting up norm2
I1214 07:24:07.934795 37522 net.cpp:136] Top shape: 256 256 27 27 (47775744)
I1214 07:24:07.934799 37522 net.cpp:144] Memory required for data: 1695379456
I1214 07:24:07.934803 37522 layer_factory.hpp:77] Creating layer pool2
I1214 07:24:07.934818 37522 net.cpp:84] Creating Layer pool2
I1214 07:24:07.934849 37522 net.cpp:413] pool2 <- norm2
I1214 07:24:07.934855 37522 net.cpp:387] pool2 -> pool2
I1214 07:24:07.934895 37522 net.cpp:127] Setting up pool2
I1214 07:24:07.934902 37522 net.cpp:136] Top shape: 256 256 13 13 (11075584)
I1214 07:24:07.934906 37522 net.cpp:144] Memory required for data: 1739681792
I1214 07:24:07.934911 37522 layer_factory.hpp:77] Creating layer conv3
I1214 07:24:07.934922 37522 net.cpp:84] Creating Layer conv3
I1214 07:24:07.934926 37522 net.cpp:413] conv3 <- pool2
I1214 07:24:07.934932 37522 net.cpp:387] conv3 -> conv3
I1214 07:24:07.950294 37522 net.cpp:127] Setting up conv3
I1214 07:24:07.950316 37522 net.cpp:136] Top shape: 256 384 13 13 (16613376)
I1214 07:24:07.950321 37522 net.cpp:144] Memory required for data: 1806135296
I1214 07:24:07.950337 37522 layer_factory.hpp:77] Creating layer relu3
I1214 07:24:07.950346 37522 net.cpp:84] Creating Layer relu3
I1214 07:24:07.950351 37522 net.cpp:413] relu3 <- conv3
I1214 07:24:07.950358 37522 net.cpp:374] relu3 -> conv3 (in-place)
I1214 07:24:07.951771 37522 net.cpp:127] Setting up relu3
I1214 07:24:07.951786 37522 net.cpp:136] Top shape: 256 384 13 13 (16613376)
I1214 07:24:07.951791 37522 net.cpp:144] Memory required for data: 1872588800
I1214 07:24:07.951795 37522 layer_factory.hpp:77] Creating layer conv4
I1214 07:24:07.951809 37522 net.cpp:84] Creating Layer conv4
I1214 07:24:07.951814 37522 net.cpp:413] conv4 <- conv3
I1214 07:24:07.951823 37522 net.cpp:387] conv4 -> conv4
I1214 07:24:07.963599 37522 net.cpp:127] Setting up conv4
I1214 07:24:07.963616 37522 net.cpp:136] Top shape: 256 384 13 13 (16613376)
I1214 07:24:07.963620 37522 net.cpp:144] Memory required for data: 1939042304
I1214 07:24:07.963634 37522 layer_factory.hpp:77] Creating layer relu4
I1214 07:24:07.963644 37522 net.cpp:84] Creating Layer relu4
I1214 07:24:07.963649 37522 net.cpp:413] relu4 <- conv4
I1214 07:24:07.963655 37522 net.cpp:374] relu4 -> conv4 (in-place)
I1214 07:24:07.963871 37522 net.cpp:127] Setting up relu4
I1214 07:24:07.963881 37522 net.cpp:136] Top shape: 256 384 13 13 (16613376)
I1214 07:24:07.963884 37522 net.cpp:144] Memory required for data: 2005495808
I1214 07:24:07.963889 37522 layer_factory.hpp:77] Creating layer conv5
I1214 07:24:07.963901 37522 net.cpp:84] Creating Layer conv5
I1214 07:24:07.963904 37522 net.cpp:413] conv5 <- conv4
I1214 07:24:07.963913 37522 net.cpp:387] conv5 -> conv5
I1214 07:24:07.972390 37522 net.cpp:127] Setting up conv5
I1214 07:24:07.972406 37522 net.cpp:136] Top shape: 256 256 13 13 (11075584)
I1214 07:24:07.972410 37522 net.cpp:144] Memory required for data: 2049798144
I1214 07:24:07.972427 37522 layer_factory.hpp:77] Creating layer relu5
I1214 07:24:07.972439 37522 net.cpp:84] Creating Layer relu5
I1214 07:24:07.972443 37522 net.cpp:413] relu5 <- conv5
I1214 07:24:07.972450 37522 net.cpp:374] relu5 -> conv5 (in-place)
I1214 07:24:07.972674 37522 net.cpp:127] Setting up relu5
I1214 07:24:07.972683 37522 net.cpp:136] Top shape: 256 256 13 13 (11075584)
I1214 07:24:07.972687 37522 net.cpp:144] Memory required for data: 2094100480
I1214 07:24:07.972692 37522 layer_factory.hpp:77] Creating layer pool5
I1214 07:24:07.972703 37522 net.cpp:84] Creating Layer pool5
I1214 07:24:07.972708 37522 net.cpp:413] pool5 <- conv5
I1214 07:24:07.972715 37522 net.cpp:387] pool5 -> pool5
I1214 07:24:07.972764 37522 net.cpp:127] Setting up pool5
I1214 07:24:07.972771 37522 net.cpp:136] Top shape: 256 256 6 6 (2359296)
I1214 07:24:07.972775 37522 net.cpp:144] Memory required for data: 2103537664
I1214 07:24:07.972779 37522 layer_factory.hpp:77] Creating layer fc6
I1214 07:24:07.972798 37522 net.cpp:84] Creating Layer fc6
I1214 07:24:07.972802 37522 net.cpp:413] fc6 <- pool5
I1214 07:24:07.972810 37522 net.cpp:387] fc6 -> fc6
I1214 07:24:08.575258 37522 net.cpp:127] Setting up fc6
I1214 07:24:08.575302 37522 net.cpp:136] Top shape: 256 4096 (1048576)
I1214 07:24:08.575309 37522 net.cpp:144] Memory required for data: 2107731968
I1214 07:24:08.575323 37522 layer_factory.hpp:77] Creating layer relu6
I1214 07:24:08.575348 37522 net.cpp:84] Creating Layer relu6
I1214 07:24:08.575381 37522 net.cpp:413] relu6 <- fc6
I1214 07:24:08.575390 37522 net.cpp:374] relu6 -> fc6 (in-place)
I1214 07:24:08.575687 37522 net.cpp:127] Setting up relu6
I1214 07:24:08.575696 37522 net.cpp:136] Top shape: 256 4096 (1048576)
I1214 07:24:08.575700 37522 net.cpp:144] Memory required for data: 2111926272
I1214 07:24:08.575706 37522 layer_factory.hpp:77] Creating layer drop6
I1214 07:24:08.575721 37522 net.cpp:84] Creating Layer drop6
I1214 07:24:08.575724 37522 net.cpp:413] drop6 <- fc6
I1214 07:24:08.575731 37522 net.cpp:374] drop6 -> fc6 (in-place)
I1214 07:24:08.575762 37522 net.cpp:127] Setting up drop6
I1214 07:24:08.575768 37522 net.cpp:136] Top shape: 256 4096 (1048576)
I1214 07:24:08.575772 37522 net.cpp:144] Memory required for data: 2116120576
I1214 07:24:08.575776 37522 layer_factory.hpp:77] Creating layer fc7
I1214 07:24:08.575788 37522 net.cpp:84] Creating Layer fc7
I1214 07:24:08.575793 37522 net.cpp:413] fc7 <- fc6
I1214 07:24:08.575800 37522 net.cpp:387] fc7 -> fc7
I1214 07:24:08.845896 37522 net.cpp:127] Setting up fc7
I1214 07:24:08.845942 37522 net.cpp:136] Top shape: 256 4096 (1048576)
I1214 07:24:08.845947 37522 net.cpp:144] Memory required for data: 2120314880
I1214 07:24:08.845963 37522 layer_factory.hpp:77] Creating layer relu7
I1214 07:24:08.845985 37522 net.cpp:84] Creating Layer relu7
I1214 07:24:08.845991 37522 net.cpp:413] relu7 <- fc7
I1214 07:24:08.846000 37522 net.cpp:374] relu7 -> fc7 (in-place)
I1214 07:24:08.847621 37522 net.cpp:127] Setting up relu7
I1214 07:24:08.847635 37522 net.cpp:136] Top shape: 256 4096 (1048576)
I1214 07:24:08.847640 37522 net.cpp:144] Memory required for data: 2124509184
I1214 07:24:08.847645 37522 layer_factory.hpp:77] Creating layer drop7
I1214 07:24:08.847654 37522 net.cpp:84] Creating Layer drop7
I1214 07:24:08.847659 37522 net.cpp:413] drop7 <- fc7
I1214 07:24:08.847666 37522 net.cpp:374] drop7 -> fc7 (in-place)
I1214 07:24:08.847694 37522 net.cpp:127] Setting up drop7
I1214 07:24:08.847702 37522 net.cpp:136] Top shape: 256 4096 (1048576)
I1214 07:24:08.847704 37522 net.cpp:144] Memory required for data: 2128703488
I1214 07:24:08.847709 37522 layer_factory.hpp:77] Creating layer fc8
I1214 07:24:08.847723 37522 net.cpp:84] Creating Layer fc8
I1214 07:24:08.847726 37522 net.cpp:413] fc8 <- fc7
I1214 07:24:08.847734 37522 net.cpp:387] fc8 -> fc8
I1214 07:24:08.914062 37522 net.cpp:127] Setting up fc8
I1214 07:24:08.914093 37522 net.cpp:136] Top shape: 256 1000 (256000)
I1214 07:24:08.914098 37522 net.cpp:144] Memory required for data: 2129727488
I1214 07:24:08.914113 37522 layer_factory.hpp:77] Creating layer loss
I1214 07:24:08.914131 37522 net.cpp:84] Creating Layer loss
I1214 07:24:08.914137 37522 net.cpp:413] loss <- fc8
I1214 07:24:08.914145 37522 net.cpp:413] loss <- label
I1214 07:24:08.914153 37522 net.cpp:387] loss -> loss
I1214 07:24:08.914177 37522 layer_factory.hpp:77] Creating layer loss
…
I1214 07:24:08.917973 37522 net.cpp:301] The NetState phase (1) differed from the phase (0) specified by a rule in layer data
I1214 07:24:08.918354 37522 net.cpp:51] Initializing net from parameters: 
name: "AlexNet"
state {
  phase: TEST
}
layer {
  name: "data"
  type: "Data"
  top: "data"
  top: "label"
  include {
    phase: TEST
  }
  transform_param {
    mirror: false
    crop_size: 227
    mean_file: "/home/data/caffe-imagenet/imagenet_mean.binaryproto"
  }
  data_param {
    source: "/home/data/caffe-imagenet/ilsvrc12_val_lmdb"
    batch_size: 50
    backend: LMDB
  }
}
layer {
  name: "conv1"
  type: "DNSConvolution"
  bottom: "data"
  top: "conv1"
  param {
    lr_mult: 1
    decay_mult: 1
  }
  param {
    lr_mult: 2
    decay_mult: 0
  }
  convolution_param {
    num_output: 96
    kernel_size: 11
    stride: 4
    weight_filler {
      type: "gaussian"
      std: 0.01
    }
    bias_filler {
      type: "constant"
      value: 0
    }
  }
  dns_convolution_param {
    gamma: 1e-05
    power: 1
    c_rate: -0.5
    iter_stop: 1e+06
    weight_mask_filler {
      type: "constant"
      value: 1
    }
    bias_mask_filler {
      type: "constant"
      value: 1
    }
  }
}
layer {
  name: "relu1"
  type: "ReLU"
  bottom: "conv1"
  top: "conv1"
}
layer {
  name: "norm1"
  type: "LRN"
  bottom: "conv1"
  top: "norm1"
  lrn_param {
    local_size: 5
    alpha: 0.0001
    beta: 0.75
  }
}
layer {
  name: "pool1"
  type: "Pooling"
  bottom: "norm1"
  top: "pool1"
  pooling_param {
    pool: MAX
    kernel_size: 3
    stride: 2
  }
}
layer {
  name: "conv2"
  type: "DNSConvolution"
  bottom: "pool1"
  top: "conv2"
  param {
    lr_mult: 1
    decay_mult: 1
  }
  param {
    lr_mult: 2
    decay_mult: 0
  }
  convolution_param {
    num_output: 256
    pad: 2
    kernel_size: 5
    group: 2
    weight_filler {
      type: "gaussian"
      std: 0.01
    }
    bias_filler {
      type: "constant"
      value: 0.1
    }
  }
  dns_convolution_param {
    gamma: 1e-05
    power: 1
    c_rate: -0.2
    iter_stop: 1e+06
    weight_mask_filler {
      type: "constant"
      value: 1
    }
    bias_mask_filler {
      type: "constant"
      value: 1
    }
  }
}
layer {
  name: "relu2"
  type: "ReLU"
  bottom: "conv2"
  top: "conv2"
}
layer {
  name: "norm2"
  type: "LRN"
  bottom: "conv2"
  top: "norm2"
  lrn_param {
    local_size: 5
    alpha: 0.0001
    beta: 0.75
  }
}
layer {
  name: "pool2"
  type: "Pooling"
  bottom: "norm2"
  top: "pool2"
  pooling_param {
    pool: MAX
    kernel_size: 3
    stride: 2
  }
}
layer {
  name: "conv3"
  type: "DNSConvolution"
  bottom: "pool2"
  top: "conv3"
  param {
    lr_mult: 1
    decay_mult: 1
  }
  param {
    lr_mult: 2
    decay_mult: 0
  }
  convolution_param {
    num_output: 384
    pad: 1
    kernel_size: 3
    weight_filler {
      type: "gaussian"
      std: 0.01
    }
    bias_filler {
      type: "constant"
      value: 0
    }
  }
  dns_convolution_param {
    gamma: 1e-05
    power: 1
    c_rate: 0.2
    iter_stop: 1e+06
    weight_mask_filler {
      type: "constant"
      value: 1
    }
    bias_mask_filler {
      type: "constant"
      value: 1
    }
  }
}
layer {
  name: "relu3"
  type: "ReLU"
  bottom: "conv3"
  top: "conv3"
}
layer {
  name: "conv4"
  type: "DNSConvolution"
  bottom: "conv3"
  top: "conv4"
  param {
    lr_mult: 1
    decay_mult: 1
  }
  param {
    lr_mult: 2
    decay_mult: 0
  }
  convolution_param {
    num_output: 384
    pad: 1
    kernel_size: 3
    group: 2
    weight_filler {
      type: "gaussian"
      std: 0.01
    }
    bias_filler {
      type: "constant"
      value: 0.1
    }
  }
  dns_convolution_param {
    gamma: 1e-05
    power: 1
    c_rate: 0.2
    iter_stop: 1e+06
    weight_mask_filler {
      type: "constant"
      value: 1
    }
    bias_mask_filler {
      type: "constant"
      value: 1
    }
  }
}
layer {
  name: "relu4"
  type: "ReLU"
  bottom: "conv4"
  top: "conv4"
}
layer {
  name: "conv5"
  type: "DNSConvolution"
  bottom: "conv4"
  top: "conv5"
  param {
    lr_mult: 1
    decay_mult: 1
  }
  param {
    lr_mult: 2
    decay_mult: 0
  }
  convolution_param {
    num_output: 256
    pad: 1
    kernel_size: 3
    group: 2
    weight_filler {
      type: "gaussian"
      std: 0.01
    }
    bias_filler {
      type: "constant"
      value: 0.1
    }
  }
  dns_convolution_param {
    gamma: 1e-05
    power: 1
    c_rate: 0.2
    iter_stop: 1e+06
    weight_mask_filler {
      type: "constant"
      value: 1
    }
    bias_mask_filler {
      type: "constant"
      value: 1
    }
  }
}
layer {
  name: "relu5"
  type: "ReLU"
  bottom: "conv5"
  top: "conv5"
}
layer {
  name: "pool5"
  type: "Pooling"
  bottom: "conv5"
  top: "pool5"
  pooling_param {
    pool: MAX
    kernel_size: 3
    stride: 2
  }
}
layer {
  name: "fc6"
  type: "DNSInnerProduct"
  bottom: "pool5"
  top: "fc6"
  param {
    lr_mult: 1
    decay_mult: 1
  }
  param {
    lr_mult: 2
    decay_mult: 0
  }
  inner_product_param {
    num_output: 4096
    weight_filler {
      type: "gaussian"
      std: 0.005
    }
    bias_filler {
      type: "constant"
      value: 0.1
    }
  }
  dns_inner_product_param {
    gamma: 1e-05
    power: 1
    c_rate: 2.6
    iter_stop: 1e+06
    weight_mask_filler {
      type: "constant"
      value: 1
    }
    bias_mask_filler {
      type: "constant"
      value: 1
    }
  }
}
layer {
  name: "relu6"
  type: "ReLU"
  bottom: "fc6"
  top: "fc6"
}
layer {
  name: "drop6"
  type: "Dropout"
  bottom: "fc6"
  top: "fc6"
  dropout_param {
    dropout_ratio: 0.5
  }
}
layer {
  name: "fc7"
  type: "DNSInnerProduct"
  bottom: "fc6"
  top: "fc7"
  param {
    lr_mult: 1
    decay_mult: 1
  }
  param {
    lr_mult: 2
    decay_mult: 0
  }
  inner_product_param {
    num_output: 4096
    weight_filler {
      type: "gaussian"
      std: 0.005
    }
    bias_filler {
      type: "constant"
      value: 0.1
    }
  }
  dns_inner_product_param {
    gamma: 1e-05
    power: 1
    c_rate: 2.2
    iter_stop: 1e+06
    weight_mask_filler {
      type: "constant"
      value: 1
    }
    bias_mask_filler {
      type: "constant"
      value: 1
    }
  }
}
layer {
  name: "relu7"
  type: "ReLU"
  bottom: "fc7"
  top: "fc7"
}
layer {
  name: "drop7"
  type: "Dropout"
  bottom: "fc7"
  top: "fc7"
  dropout_param {
    dropout_ratio: 0.5
  }
}
layer {
  name: "fc8"
  type: "DNSInnerProduct"
  bottom: "fc7"
  top: "fc8"
  param {
    lr_mult: 1
    decay_mult: 1
  }
  param {
    lr_mult: 2
    decay_mult: 0
  }
  inner_product_param {
    num_output: 1000
    weight_filler {
      type: "gaussian"
      std: 0.01
    }
    bias_filler {
      type: "constant"
      value: 0
    }
  }
  dns_inner_product_param {
    gamma: 1e-05
    power: 1
    c_rate: 3
    iter_stop: 1e+06
    weight_mask_filler {
      type: "constant"
      value: 1
    }
    bias_mask_filler {
      type: "constant"
      value: 1
    }
  }
}
layer {
  name: "accuracy_top1"
  type: "Accuracy"
  bottom: "fc8"
  bottom: "label"
  top: "accuracy_top1"
  include {
    phase: TEST
  }
  accuracy_param {
    top_k: 1
  }
}
layer {
  name: "accuracy_top5"
  type: "Accuracy"
  bottom: "fc8"
  bottom: "label"
  top: "accuracy_top5"
  include {
    phase: TEST
  }
  accuracy_param {
    top_k: 5
  }
}
layer {
  name: "loss"
  type: "SoftmaxWithLoss"
  bottom: "fc8"
  bottom: "label"
  top: "loss"
}
I1214 07:24:08.918516 37522 layer_factory.hpp:77] Creating layer data
I1214 07:24:08.918591 37522 db_lmdb.cpp:35] Opened lmdb /home/data/caffe-imagenet/ilsvrc12_val_lmdb
I1214 07:24:08.918609 37522 net.cpp:84] Creating Layer data
I1214 07:24:08.918617 37522 net.cpp:387] data -> data
I1214 07:24:08.918628 37522 net.cpp:387] data -> label
I1214 07:24:08.918637 37522 data_transformer.cpp:25] Loading mean file from: /home/data/caffe-imagenet/imagenet_mean.binaryproto
I1214 07:24:08.920712 37522 data_layer.cpp:45] output data size: 50,3,227,227
I1214 07:24:09.002849 37522 net.cpp:127] Setting up data
I1214 07:24:09.002889 37522 net.cpp:136] Top shape: 50 3 227 227 (7729350)
I1214 07:24:09.002897 37522 net.cpp:136] Top shape: 50 (50)
I1214 07:24:09.002902 37522 net.cpp:144] Memory required for data: 30917600
I1214 07:24:09.002912 37522 layer_factory.hpp:77] Creating layer label_data_1_split
I1214 07:24:09.002935 37522 net.cpp:84] Creating Layer label_data_1_split
I1214 07:24:09.002941 37522 net.cpp:413] label_data_1_split <- label
I1214 07:24:09.002950 37522 net.cpp:387] label_data_1_split -> label_data_1_split_0
I1214 07:24:09.002962 37522 net.cpp:387] label_data_1_split -> label_data_1_split_1
I1214 07:24:09.002969 37522 net.cpp:387] label_data_1_split -> label_data_1_split_2
I1214 07:24:09.003141 37522 net.cpp:127] Setting up label_data_1_split
I1214 07:24:09.003149 37522 net.cpp:136] Top shape: 50 (50)
I1214 07:24:09.003154 37522 net.cpp:136] Top shape: 50 (50)
I1214 07:24:09.003159 37522 net.cpp:136] Top shape: 50 (50)
I1214 07:24:09.003162 37522 net.cpp:144] Memory required for data: 30918200
I1214 07:24:09.003167 37522 layer_factory.hpp:77] Creating layer conv1
I1214 07:24:09.003183 37522 net.cpp:84] Creating Layer conv1
I1214 07:24:09.003188 37522 net.cpp:413] conv1 <- data
I1214 07:24:09.003196 37522 net.cpp:387] conv1 -> conv1
I1214 07:24:09.004192 37522 net.cpp:127] Setting up conv1
I1214 07:24:09.004204 37522 net.cpp:136] Top shape: 50 96 55 55 (14520000)
I1214 07:24:09.004209 37522 net.cpp:144] Memory required for data: 88998200
I1214 07:24:09.004227 37522 layer_factory.hpp:77] Creating layer relu1
I1214 07:24:09.004237 37522 net.cpp:84] Creating Layer relu1
I1214 07:24:09.004241 37522 net.cpp:413] relu1 <- conv1
I1214 07:24:09.004248 37522 net.cpp:374] relu1 -> conv1 (in-place)
I1214 07:24:09.004506 37522 net.cpp:127] Setting up relu1
I1214 07:24:09.004515 37522 net.cpp:136] Top shape: 50 96 55 55 (14520000)
I1214 07:24:09.004519 37522 net.cpp:144] Memory required for data: 147078200
I1214 07:24:09.004523 37522 layer_factory.hpp:77] Creating layer norm1
I1214 07:24:09.004535 37522 net.cpp:84] Creating Layer norm1
I1214 07:24:09.004540 37522 net.cpp:413] norm1 <- conv1
I1214 07:24:09.004547 37522 net.cpp:387] norm1 -> norm1
I1214 07:24:09.004801 37522 net.cpp:127] Setting up norm1
I1214 07:24:09.004811 37522 net.cpp:136] Top shape: 50 96 55 55 (14520000)
I1214 07:24:09.004814 37522 net.cpp:144] Memory required for data: 205158200
I1214 07:24:09.004818 37522 layer_factory.hpp:77] Creating layer pool1
I1214 07:24:09.004828 37522 net.cpp:84] Creating Layer pool1
I1214 07:24:09.004832 37522 net.cpp:413] pool1 <- norm1
I1214 07:24:09.004839 37522 net.cpp:387] pool1 -> pool1
I1214 07:24:09.004925 37522 net.cpp:127] Setting up pool1
I1214 07:24:09.004933 37522 net.cpp:136] Top shape: 50 96 27 27 (3499200)
I1214 07:24:09.004938 37522 net.cpp:144] Memory required for data: 219155000
I1214 07:24:09.004943 37522 layer_factory.hpp:77] Creating layer conv2
I1214 07:24:09.004954 37522 net.cpp:84] Creating Layer conv2
I1214 07:24:09.004958 37522 net.cpp:413] conv2 <- pool1
I1214 07:24:09.004973 37522 net.cpp:387] conv2 -> conv2
I1214 07:24:09.011756 37522 net.cpp:127] Setting up conv2
I1214 07:24:09.011772 37522 net.cpp:136] Top shape: 50 256 27 27 (9331200)
I1214 07:24:09.011776 37522 net.cpp:144] Memory required for data: 256479800
I1214 07:24:09.011791 37522 layer_factory.hpp:77] Creating layer relu2
I1214 07:24:09.011801 37522 net.cpp:84] Creating Layer relu2
I1214 07:24:09.011806 37522 net.cpp:413] relu2 <- conv2
I1214 07:24:09.011812 37522 net.cpp:374] relu2 -> conv2 (in-place)
I1214 07:24:09.013218 37522 net.cpp:127] Setting up relu2
I1214 07:24:09.013233 37522 net.cpp:136] Top shape: 50 256 27 27 (9331200)
I1214 07:24:09.013237 37522 net.cpp:144] Memory required for data: 293804600
I1214 07:24:09.013242 37522 layer_factory.hpp:77] Creating layer norm2
I1214 07:24:09.013252 37522 net.cpp:84] Creating Layer norm2
I1214 07:24:09.013257 37522 net.cpp:413] norm2 <- conv2
I1214 07:24:09.013263 37522 net.cpp:387] norm2 -> norm2
I1214 07:24:09.013494 37522 net.cpp:127] Setting up norm2
I1214 07:24:09.013502 37522 net.cpp:136] Top shape: 50 256 27 27 (9331200)
I1214 07:24:09.013506 37522 net.cpp:144] Memory required for data: 331129400
I1214 07:24:09.013510 37522 layer_factory.hpp:77] Creating layer pool2
I1214 07:24:09.013517 37522 net.cpp:84] Creating Layer pool2
I1214 07:24:09.013521 37522 net.cpp:413] pool2 <- norm2
I1214 07:24:09.013528 37522 net.cpp:387] pool2 -> pool2
I1214 07:24:09.013576 37522 net.cpp:127] Setting up pool2
I1214 07:24:09.013584 37522 net.cpp:136] Top shape: 50 256 13 13 (2163200)
I1214 07:24:09.013587 37522 net.cpp:144] Memory required for data: 339782200
I1214 07:24:09.013592 37522 layer_factory.hpp:77] Creating layer conv3
I1214 07:24:09.013602 37522 net.cpp:84] Creating Layer conv3
I1214 07:24:09.013605 37522 net.cpp:413] conv3 <- pool2
I1214 07:24:09.013613 37522 net.cpp:387] conv3 -> conv3
I1214 07:24:09.028975 37522 net.cpp:127] Setting up conv3
I1214 07:24:09.028990 37522 net.cpp:136] Top shape: 50 384 13 13 (3244800)
I1214 07:24:09.028995 37522 net.cpp:144] Memory required for data: 352761400
I1214 07:24:09.029008 37522 layer_factory.hpp:77] Creating layer relu3
I1214 07:24:09.029017 37522 net.cpp:84] Creating Layer relu3
I1214 07:24:09.029021 37522 net.cpp:413] relu3 <- conv3
I1214 07:24:09.029028 37522 net.cpp:374] relu3 -> conv3 (in-place)
I1214 07:24:09.029245 37522 net.cpp:127] Setting up relu3
I1214 07:24:09.029254 37522 net.cpp:136] Top shape: 50 384 13 13 (3244800)
I1214 07:24:09.029258 37522 net.cpp:144] Memory required for data: 365740600
I1214 07:24:09.029263 37522 layer_factory.hpp:77] Creating layer conv4
I1214 07:24:09.029273 37522 net.cpp:84] Creating Layer conv4
I1214 07:24:09.029278 37522 net.cpp:413] conv4 <- conv3
I1214 07:24:09.029285 37522 net.cpp:387] conv4 -> conv4
I1214 07:24:09.041134 37522 net.cpp:127] Setting up conv4
I1214 07:24:09.041151 37522 net.cpp:136] Top shape: 50 384 13 13 (3244800)
I1214 07:24:09.041154 37522 net.cpp:144] Memory required for data: 378719800
I1214 07:24:09.041164 37522 layer_factory.hpp:77] Creating layer relu4
I1214 07:24:09.041172 37522 net.cpp:84] Creating Layer relu4
I1214 07:24:09.041177 37522 net.cpp:413] relu4 <- conv4
I1214 07:24:09.041184 37522 net.cpp:374] relu4 -> conv4 (in-place)
I1214 07:24:09.042598 37522 net.cpp:127] Setting up relu4
I1214 07:24:09.042613 37522 net.cpp:136] Top shape: 50 384 13 13 (3244800)
I1214 07:24:09.042618 37522 net.cpp:144] Memory required for data: 391699000
I1214 07:24:09.042623 37522 layer_factory.hpp:77] Creating layer conv5
I1214 07:24:09.042634 37522 net.cpp:84] Creating Layer conv5
I1214 07:24:09.042637 37522 net.cpp:413] conv5 <- conv4
I1214 07:24:09.042646 37522 net.cpp:387] conv5 -> conv5
I1214 07:24:09.051259 37522 net.cpp:127] Setting up conv5
I1214 07:24:09.051275 37522 net.cpp:136] Top shape: 50 256 13 13 (2163200)
I1214 07:24:09.051278 37522 net.cpp:144] Memory required for data: 400351800
I1214 07:24:09.051295 37522 layer_factory.hpp:77] Creating layer relu5
I1214 07:24:09.051302 37522 net.cpp:84] Creating Layer relu5
I1214 07:24:09.051311 37522 net.cpp:413] relu5 <- conv5
I1214 07:24:09.051318 37522 net.cpp:374] relu5 -> conv5 (in-place)
I1214 07:24:09.051548 37522 net.cpp:127] Setting up relu5
I1214 07:24:09.051563 37522 net.cpp:136] Top shape: 50 256 13 13 (2163200)
I1214 07:24:09.051566 37522 net.cpp:144] Memory required for data: 409004600
I1214 07:24:09.051571 37522 layer_factory.hpp:77] Creating layer pool5
I1214 07:24:09.051581 37522 net.cpp:84] Creating Layer pool5
I1214 07:24:09.051585 37522 net.cpp:413] pool5 <- conv5
I1214 07:24:09.051591 37522 net.cpp:387] pool5 -> pool5
I1214 07:24:09.051641 37522 net.cpp:127] Setting up pool5
I1214 07:24:09.051648 37522 net.cpp:136] Top shape: 50 256 6 6 (460800)
I1214 07:24:09.051652 37522 net.cpp:144] Memory required for data: 410847800
I1214 07:24:09.051656 37522 layer_factory.hpp:77] Creating layer fc6
I1214 07:24:09.051667 37522 net.cpp:84] Creating Layer fc6
I1214 07:24:09.051671 37522 net.cpp:413] fc6 <- pool5
I1214 07:24:09.051678 37522 net.cpp:387] fc6 -> fc6
I1214 07:24:09.652781 37522 net.cpp:127] Setting up fc6
I1214 07:24:09.652827 37522 net.cpp:136] Top shape: 50 4096 (204800)
I1214 07:24:09.652832 37522 net.cpp:144] Memory required for data: 411667000
I1214 07:24:09.652848 37522 layer_factory.hpp:77] Creating layer relu6
I1214 07:24:09.652861 37522 net.cpp:84] Creating Layer relu6
I1214 07:24:09.652868 37522 net.cpp:413] relu6 <- fc6
I1214 07:24:09.652876 37522 net.cpp:374] relu6 -> fc6 (in-place)
I1214 07:24:09.653163 37522 net.cpp:127] Setting up relu6
I1214 07:24:09.653172 37522 net.cpp:136] Top shape: 50 4096 (204800)
I1214 07:24:09.653177 37522 net.cpp:144] Memory required for data: 412486200
I1214 07:24:09.653180 37522 layer_factory.hpp:77] Creating layer drop6
I1214 07:24:09.653189 37522 net.cpp:84] Creating Layer drop6
I1214 07:24:09.653193 37522 net.cpp:413] drop6 <- fc6
I1214 07:24:09.653200 37522 net.cpp:374] drop6 -> fc6 (in-place)
I1214 07:24:09.653235 37522 net.cpp:127] Setting up drop6
I1214 07:24:09.653241 37522 net.cpp:136] Top shape: 50 4096 (204800)
I1214 07:24:09.653244 37522 net.cpp:144] Memory required for data: 413305400
I1214 07:24:09.653249 37522 layer_factory.hpp:77] Creating layer fc7
I1214 07:24:09.653260 37522 net.cpp:84] Creating Layer fc7
I1214 07:24:09.653264 37522 net.cpp:413] fc7 <- fc6
I1214 07:24:09.653271 37522 net.cpp:387] fc7 -> fc7
I1214 07:24:09.922466 37522 net.cpp:127] Setting up fc7
I1214 07:24:09.922513 37522 net.cpp:136] Top shape: 50 4096 (204800)
I1214 07:24:09.922518 37522 net.cpp:144] Memory required for data: 414124600
I1214 07:24:09.922539 37522 layer_factory.hpp:77] Creating layer relu7
I1214 07:24:09.922554 37522 net.cpp:84] Creating Layer relu7
I1214 07:24:09.922566 37522 net.cpp:413] relu7 <- fc7
I1214 07:24:09.922576 37522 net.cpp:374] relu7 -> fc7 (in-place)
I1214 07:24:09.922968 37522 net.cpp:127] Setting up relu7
I1214 07:24:09.922978 37522 net.cpp:136] Top shape: 50 4096 (204800)
I1214 07:24:09.922982 37522 net.cpp:144] Memory required for data: 414943800
I1214 07:24:09.922987 37522 layer_factory.hpp:77] Creating layer drop7
I1214 07:24:09.922997 37522 net.cpp:84] Creating Layer drop7
I1214 07:24:09.923002 37522 net.cpp:413] drop7 <- fc7
I1214 07:24:09.923008 37522 net.cpp:374] drop7 -> fc7 (in-place)
I1214 07:24:09.923048 37522 net.cpp:127] Setting up drop7
I1214 07:24:09.923054 37522 net.cpp:136] Top shape: 50 4096 (204800)
I1214 07:24:09.923058 37522 net.cpp:144] Memory required for data: 415763000
I1214 07:24:09.923063 37522 layer_factory.hpp:77] Creating layer fc8
I1214 07:24:09.923075 37522 net.cpp:84] Creating Layer fc8
I1214 07:24:09.923079 37522 net.cpp:413] fc8 <- fc7
I1214 07:24:09.923087 37522 net.cpp:387] fc8 -> fc8
I1214 07:24:09.989902 37522 net.cpp:127] Setting up fc8
I1214 07:24:09.989934 37522 net.cpp:136] Top shape: 50 1000 (50000)
I1214 07:24:09.989938 37522 net.cpp:144] Memory required for data: 415963000
I1214 07:24:09.989954 37522 layer_factory.hpp:77] Creating layer fc8_fc8_0_split
I1214 07:24:09.989966 37522 net.cpp:84] Creating Layer fc8_fc8_0_split
I1214 07:24:09.989972 37522 net.cpp:413] fc8_fc8_0_split <- fc8
I1214 07:24:09.989987 37522 net.cpp:387] fc8_fc8_0_split -> fc8_fc8_0_split_0
I1214 07:24:09.990025 37522 net.cpp:387] fc8_fc8_0_split -> fc8_fc8_0_split_1
I1214 07:24:09.990031 37522 net.cpp:387] fc8_fc8_0_split -> fc8_fc8_0_split_2
I1214 07:24:09.990097 37522 net.cpp:127] Setting up fc8_fc8_0_split
I1214 07:24:09.990103 37522 net.cpp:136] Top shape: 50 1000 (50000)
I1214 07:24:09.990108 37522 net.cpp:136] Top shape: 50 1000 (50000)
I1214 07:24:09.990113 37522 net.cpp:136] Top shape: 50 1000 (50000)
I1214 07:24:09.990116 37522 net.cpp:144] Memory required for data: 416563000
I1214 07:24:09.990120 37522 layer_factory.hpp:77] Creating layer accuracy_top1
I1214 07:24:09.990135 37522 net.cpp:84] Creating Layer accuracy_top1
I1214 07:24:09.990139 37522 net.cpp:413] accuracy_top1 <- fc8_fc8_0_split_0
I1214 07:24:09.990145 37522 net.cpp:413] accuracy_top1 <- label_data_1_split_0
I1214 07:24:09.990151 37522 net.cpp:387] accuracy_top1 -> accuracy_top1
…
