…
I1209 13:51:26.149952 20785 net.cpp:301] The NetState phase (0) differed from the phase (1) specified by a rule in layer accuracy_top5
I1209 13:51:26.150544 20785 net.cpp:51] Initializing net from parameters: 
name: "AlexNet"
state {
  phase: TRAIN
  level: 0
  stage: ""
}
layer {
  name: "data"
  type: "Data"
  top: "data"
  top: "label"
  include {
    phase: TRAIN
  }
  transform_param {
    mirror: true
    crop_size: 227
    mean_file: "data/ilsvrc12/imagenet_mean.binaryproto"
  }
  data_param {
    source: "/home/data/caffe-imagenet/ilsvrc12_train_lmdb"
    batch_size: 256
    backend: LMDB
  }
}
layer {
  name: "conv1"
  type: "DNSConvolution"
  bottom: "data"
  top: "conv1"
  param {
    lr_mult: 1
    decay_mult: 1
  }
  param {
    lr_mult: 2
    decay_mult: 0
  }
  convolution_param {
    num_output: 96
    kernel_size: 11
    stride: 4
    weight_filler {
      type: "gaussian"
      std: 0.01
    }
    bias_filler {
      type: "constant"
      value: 0
    }
  }
  dns_convolution_param {
    gamma: 2.5e-06
    power: 1
    c_rate: -0.9
    iter_stop: -1
    weight_mask_filler {
      type: "constant"
      value: 1
    }
    bias_mask_filler {
      type: "constant"
      value: 1
    }
  }
}
layer {
  name: "relu1"
  type: "ReLU"
  bottom: "conv1"
  top: "conv1"
}
layer {
  name: "norm1"
  type: "LRN"
  bottom: "conv1"
  top: "norm1"
  lrn_param {
    local_size: 5
    alpha: 0.0001
    beta: 0.75
  }
}
layer {
  name: "pool1"
  type: "Pooling"
  bottom: "norm1"
  top: "pool1"
  pooling_param {
    pool: MAX
    kernel_size: 3
    stride: 2
  }
}
layer {
  name: "conv2"
  type: "DNSConvolution"
  bottom: "pool1"
  top: "conv2"
  param {
    lr_mult: 1
    decay_mult: 1
  }
  param {
    lr_mult: 2
    decay_mult: 0
  }
  convolution_param {
    num_output: 256
    pad: 2
    kernel_size: 5
    group: 2
    weight_filler {
      type: "gaussian"
      std: 0.01
    }
    bias_filler {
      type: "constant"
      value: 0.1
    }
  }
  dns_convolution_param {
    gamma: 2.5e-06
    power: 1
    c_rate: 0
    iter_stop: -1
    weight_mask_filler {
      type: "constant"
      value: 1
    }
    bias_mask_filler {
      type: "constant"
      value: 1
    }
  }
}
layer {
  name: "relu2"
  type: "ReLU"
  bottom: "conv2"
  top: "conv2"
}
layer {
  name: "norm2"
  type: "LRN"
  bottom: "conv2"
  top: "norm2"
  lrn_param {
    local_size: 5
    alpha: 0.0001
    beta: 0.75
  }
}
layer {
  name: "pool2"
  type: "Pooling"
  bottom: "norm2"
  top: "pool2"
  pooling_param {
    pool: MAX
    kernel_size: 3
    stride: 2
  }
}
layer {
  name: "conv3"
  type: "DNSConvolution"
  bottom: "pool2"
  top: "conv3"
  param {
    lr_mult: 1
    decay_mult: 1
  }
  param {
    lr_mult: 2
    decay_mult: 0
  }
  convolution_param {
    num_output: 384
    pad: 1
    kernel_size: 3
    weight_filler {
      type: "gaussian"
      std: 0.01
    }
    bias_filler {
      type: "constant"
      value: 0
    }
  }
  dns_convolution_param {
    gamma: 2.5e-06
    power: 1
    c_rate: 0.5
    iter_stop: -1
    weight_mask_filler {
      type: "constant"
      value: 1
    }
    bias_mask_filler {
      type: "constant"
      value: 1
    }
  }
}
layer {
  name: "relu3"
  type: "ReLU"
  bottom: "conv3"
  top: "conv3"
}
layer {
  name: "conv4"
  type: "DNSConvolution"
  bottom: "conv3"
  top: "conv4"
  param {
    lr_mult: 1
    decay_mult: 1
  }
  param {
    lr_mult: 2
    decay_mult: 0
  }
  convolution_param {
    num_output: 384
    pad: 1
    kernel_size: 3
    group: 2
    weight_filler {
      type: "gaussian"
      std: 0.01
    }
    bias_filler {
      type: "constant"
      value: 0.1
    }
  }
  dns_convolution_param {
    gamma: 2.5e-06
    power: 1
    c_rate: 0.5
    iter_stop: -1
    weight_mask_filler {
      type: "constant"
      value: 1
    }
    bias_mask_filler {
      type: "constant"
      value: 1
    }
  }
}
layer {
  name: "relu4"
  type: "ReLU"
  bottom: "conv4"
  top: "conv4"
}
layer {
  name: "conv5"
  type: "DNSConvolution"
  bottom: "conv4"
  top: "conv5"
  param {
    lr_mult: 1
    decay_mult: 1
  }
  param {
    lr_mult: 2
    decay_mult: 0
  }
  convolution_param {
    num_output: 256
    pad: 1
    kernel_size: 3
    group: 2
    weight_filler {
      type: "gaussian"
      std: 0.01
    }
    bias_filler {
      type: "constant"
      value: 0.1
    }
  }
  dns_convolution_param {
    gamma: 2.5e-06
    power: 1
    c_rate: 0.5
    iter_stop: -1
    weight_mask_filler {
      type: "constant"
      value: 1
    }
    bias_mask_filler {
      type: "constant"
      value: 1
    }
  }
}
layer {
  name: "relu5"
  type: "ReLU"
  bottom: "conv5"
  top: "conv5"
}
layer {
  name: "pool5"
  type: "Pooling"
  bottom: "conv5"
  top: "pool5"
  pooling_param {
    pool: MAX
    kernel_size: 3
    stride: 2
  }
}
layer {
  name: "fc6"
  type: "DNSInnerProduct"
  bottom: "pool5"
  top: "fc6"
  param {
    lr_mult: 1
    decay_mult: 1
  }
  param {
    lr_mult: 2
    decay_mult: 0
  }
  inner_product_param {
    num_output: 4096
    weight_filler {
      type: "gaussian"
      std: 0.005
    }
    bias_filler {
      type: "constant"
      value: 0.1
    }
  }
  dns_inner_product_param {
    gamma: 2.5e-06
    power: 1
    c_rate: 2.6
    iter_stop: 1e+06
    weight_mask_filler {
      type: "constant"
      value: 1
    }
    bias_mask_filler {
      type: "constant"
      value: 1
    }
  }
}
layer {
  name: "relu6"
  type: "ReLU"
  bottom: "fc6"
  top: "fc6"
}
layer {
  name: "drop6"
  type: "Dropout"
  bottom: "fc6"
  top: "fc6"
  dropout_param {
    dropout_ratio: 0.5
  }
}
layer {
  name: "fc7"
  type: "DNSInnerProduct"
  bottom: "fc6"
  top: "fc7"
  param {
    lr_mult: 1
    decay_mult: 1
  }
  param {
    lr_mult: 2
    decay_mult: 0
  }
  inner_product_param {
    num_output: 4096
    weight_filler {
      type: "gaussian"
      std: 0.005
    }
    bias_filler {
      type: "constant"
      value: 0.1
    }
  }
  dns_inner_product_param {
    gamma: 2.5e-06
    power: 1
    c_rate: 1.5
    iter_stop: 1e+06
    weight_mask_filler {
      type: "constant"
      value: 1
    }
    bias_mask_filler {
      type: "constant"
      value: 1
    }
  }
}
layer {
  name: "relu7"
  type: "ReLU"
  bottom: "fc7"
  top: "fc7"
}
layer {
  name: "drop7"
  type: "Dropout"
  bottom: "fc7"
  top: "fc7"
  dropout_param {
    dropout_ratio: 0.5
  }
}
layer {
  name: "fc8"
  type: "DNSInnerProduct"
  bottom: "fc7"
  top: "fc8"
  param {
    lr_mult: 1
    decay_mult: 1
  }
  param {
    lr_mult: 2
    decay_mult: 0
  }
  inner_product_param {
    num_output: 1000
    weight_filler {
      type: "gaussian"
      std: 0.01
    }
    bias_filler {
      type: "constant"
      value: 0
    }
  }
  dns_inner_product_param {
    gamma: 2.5e-06
    power: 1
    c_rate: 2.7
    iter_stop: 1e+06
    weight_mask_filler {
      type: "constant"
      value: 1
    }
    bias_mask_filler {
      type: "constant"
      value: 1
    }
  }
}
layer {
  name: "loss"
  type: "SoftmaxWithLoss"
  bottom: "fc8"
  bottom: "label"
  top: "loss"
}
I1209 13:51:26.150843 20785 layer_factory.hpp:77] Creating layer data
I1209 13:51:26.156918 20785 db_lmdb.cpp:35] Opened lmdb /home/data/caffe-imagenet/ilsvrc12_train_lmdb
I1209 13:51:26.157027 20785 net.cpp:84] Creating Layer data
I1209 13:51:26.157049 20785 net.cpp:387] data -> data
I1209 13:51:26.157099 20785 net.cpp:387] data -> label
I1209 13:51:26.157132 20785 data_transformer.cpp:25] Loading mean file from: data/ilsvrc12/imagenet_mean.binaryproto
I1209 13:51:26.165539 20785 data_layer.cpp:45] output data size: 256,3,227,227
I1209 13:51:26.595544 20785 net.cpp:127] Setting up data
I1209 13:51:26.595605 20785 net.cpp:136] Top shape: 256 3 227 227 (39574272)
I1209 13:51:26.595614 20785 net.cpp:136] Top shape: 256 (256)
I1209 13:51:26.595620 20785 net.cpp:144] Memory required for data: 158298112
I1209 13:51:26.595650 20785 layer_factory.hpp:77] Creating layer conv1
I1209 13:51:26.595691 20785 net.cpp:84] Creating Layer conv1
I1209 13:51:26.595702 20785 net.cpp:413] conv1 <- data
I1209 13:51:26.595726 20785 net.cpp:387] conv1 -> conv1
I1209 13:51:26.601202 20785 net.cpp:127] Setting up conv1
I1209 13:51:26.601222 20785 net.cpp:136] Top shape: 256 96 55 55 (74342400)
I1209 13:51:26.601228 20785 net.cpp:144] Memory required for data: 455667712
I1209 13:51:26.601261 20785 layer_factory.hpp:77] Creating layer relu1
I1209 13:51:26.601281 20785 net.cpp:84] Creating Layer relu1
I1209 13:51:26.601295 20785 net.cpp:413] relu1 <- conv1
I1209 13:51:26.601303 20785 net.cpp:374] relu1 -> conv1 (in-place)
I1209 13:51:27.655004 20785 net.cpp:127] Setting up relu1
I1209 13:51:27.655056 20785 net.cpp:136] Top shape: 256 96 55 55 (74342400)
I1209 13:51:27.655063 20785 net.cpp:144] Memory required for data: 753037312
I1209 13:51:27.655072 20785 layer_factory.hpp:77] Creating layer norm1
I1209 13:51:27.655097 20785 net.cpp:84] Creating Layer norm1
I1209 13:51:27.655103 20785 net.cpp:413] norm1 <- conv1
I1209 13:51:27.655114 20785 net.cpp:387] norm1 -> norm1
I1209 13:51:27.656569 20785 net.cpp:127] Setting up norm1
I1209 13:51:27.656587 20785 net.cpp:136] Top shape: 256 96 55 55 (74342400)
I1209 13:51:27.656592 20785 net.cpp:144] Memory required for data: 1050406912
I1209 13:51:27.656600 20785 layer_factory.hpp:77] Creating layer pool1
I1209 13:51:27.656616 20785 net.cpp:84] Creating Layer pool1
I1209 13:51:27.656621 20785 net.cpp:413] pool1 <- norm1
I1209 13:51:27.656630 20785 net.cpp:387] pool1 -> pool1
I1209 13:51:27.656689 20785 net.cpp:127] Setting up pool1
I1209 13:51:27.656698 20785 net.cpp:136] Top shape: 256 96 27 27 (17915904)
I1209 13:51:27.656703 20785 net.cpp:144] Memory required for data: 1122070528
I1209 13:51:27.656708 20785 layer_factory.hpp:77] Creating layer conv2
I1209 13:51:27.656723 20785 net.cpp:84] Creating Layer conv2
I1209 13:51:27.656728 20785 net.cpp:413] conv2 <- pool1
I1209 13:51:27.656735 20785 net.cpp:387] conv2 -> conv2
I1209 13:51:27.663607 20785 net.cpp:127] Setting up conv2
I1209 13:51:27.663626 20785 net.cpp:136] Top shape: 256 256 27 27 (47775744)
I1209 13:51:27.663631 20785 net.cpp:144] Memory required for data: 1313173504
I1209 13:51:27.663650 20785 layer_factory.hpp:77] Creating layer relu2
I1209 13:51:27.663661 20785 net.cpp:84] Creating Layer relu2
I1209 13:51:27.663666 20785 net.cpp:413] relu2 <- conv2
I1209 13:51:27.663673 20785 net.cpp:374] relu2 -> conv2 (in-place)
I1209 13:51:27.663879 20785 net.cpp:127] Setting up relu2
I1209 13:51:27.663889 20785 net.cpp:136] Top shape: 256 256 27 27 (47775744)
I1209 13:51:27.663893 20785 net.cpp:144] Memory required for data: 1504276480
I1209 13:51:27.663898 20785 layer_factory.hpp:77] Creating layer norm2
I1209 13:51:27.663908 20785 net.cpp:84] Creating Layer norm2
I1209 13:51:27.663913 20785 net.cpp:413] norm2 <- conv2
I1209 13:51:27.663919 20785 net.cpp:387] norm2 -> norm2
I1209 13:51:27.664139 20785 net.cpp:127] Setting up norm2
I1209 13:51:27.664149 20785 net.cpp:136] Top shape: 256 256 27 27 (47775744)
I1209 13:51:27.664153 20785 net.cpp:144] Memory required for data: 1695379456
I1209 13:51:27.664161 20785 layer_factory.hpp:77] Creating layer pool2
I1209 13:51:27.664180 20785 net.cpp:84] Creating Layer pool2
I1209 13:51:27.664186 20785 net.cpp:413] pool2 <- norm2
I1209 13:51:27.664221 20785 net.cpp:387] pool2 -> pool2
I1209 13:51:27.664261 20785 net.cpp:127] Setting up pool2
I1209 13:51:27.664268 20785 net.cpp:136] Top shape: 256 256 13 13 (11075584)
I1209 13:51:27.664273 20785 net.cpp:144] Memory required for data: 1739681792
I1209 13:51:27.664278 20785 layer_factory.hpp:77] Creating layer conv3
I1209 13:51:27.664294 20785 net.cpp:84] Creating Layer conv3
I1209 13:51:27.664301 20785 net.cpp:413] conv3 <- pool2
I1209 13:51:27.664309 20785 net.cpp:387] conv3 -> conv3
I1209 13:51:27.679826 20785 net.cpp:127] Setting up conv3
I1209 13:51:27.679847 20785 net.cpp:136] Top shape: 256 384 13 13 (16613376)
I1209 13:51:27.679852 20785 net.cpp:144] Memory required for data: 1806135296
I1209 13:51:27.679867 20785 layer_factory.hpp:77] Creating layer relu3
I1209 13:51:27.679877 20785 net.cpp:84] Creating Layer relu3
I1209 13:51:27.679882 20785 net.cpp:413] relu3 <- conv3
I1209 13:51:27.679888 20785 net.cpp:374] relu3 -> conv3 (in-place)
I1209 13:51:27.681251 20785 net.cpp:127] Setting up relu3
I1209 13:51:27.681267 20785 net.cpp:136] Top shape: 256 384 13 13 (16613376)
I1209 13:51:27.681272 20785 net.cpp:144] Memory required for data: 1872588800
I1209 13:51:27.681280 20785 layer_factory.hpp:77] Creating layer conv4
I1209 13:51:27.681301 20785 net.cpp:84] Creating Layer conv4
I1209 13:51:27.681306 20785 net.cpp:413] conv4 <- conv3
I1209 13:51:27.681315 20785 net.cpp:387] conv4 -> conv4
I1209 13:51:27.693307 20785 net.cpp:127] Setting up conv4
I1209 13:51:27.693326 20785 net.cpp:136] Top shape: 256 384 13 13 (16613376)
I1209 13:51:27.693331 20785 net.cpp:144] Memory required for data: 1939042304
I1209 13:51:27.693343 20785 layer_factory.hpp:77] Creating layer relu4
I1209 13:51:27.693352 20785 net.cpp:84] Creating Layer relu4
I1209 13:51:27.693358 20785 net.cpp:413] relu4 <- conv4
I1209 13:51:27.693367 20785 net.cpp:374] relu4 -> conv4 (in-place)
I1209 13:51:27.693572 20785 net.cpp:127] Setting up relu4
I1209 13:51:27.693583 20785 net.cpp:136] Top shape: 256 384 13 13 (16613376)
I1209 13:51:27.693588 20785 net.cpp:144] Memory required for data: 2005495808
I1209 13:51:27.693591 20785 layer_factory.hpp:77] Creating layer conv5
I1209 13:51:27.693606 20785 net.cpp:84] Creating Layer conv5
I1209 13:51:27.693611 20785 net.cpp:413] conv5 <- conv4
I1209 13:51:27.693619 20785 net.cpp:387] conv5 -> conv5
I1209 13:51:27.702273 20785 net.cpp:127] Setting up conv5
I1209 13:51:27.702298 20785 net.cpp:136] Top shape: 256 256 13 13 (11075584)
I1209 13:51:27.702304 20785 net.cpp:144] Memory required for data: 2049798144
I1209 13:51:27.702324 20785 layer_factory.hpp:77] Creating layer relu5
I1209 13:51:27.702333 20785 net.cpp:84] Creating Layer relu5
I1209 13:51:27.702338 20785 net.cpp:413] relu5 <- conv5
I1209 13:51:27.702347 20785 net.cpp:374] relu5 -> conv5 (in-place)
I1209 13:51:27.702565 20785 net.cpp:127] Setting up relu5
I1209 13:51:27.702576 20785 net.cpp:136] Top shape: 256 256 13 13 (11075584)
I1209 13:51:27.702581 20785 net.cpp:144] Memory required for data: 2094100480
I1209 13:51:27.702586 20785 layer_factory.hpp:77] Creating layer pool5
I1209 13:51:27.702595 20785 net.cpp:84] Creating Layer pool5
I1209 13:51:27.702600 20785 net.cpp:413] pool5 <- conv5
I1209 13:51:27.702606 20785 net.cpp:387] pool5 -> pool5
I1209 13:51:27.702656 20785 net.cpp:127] Setting up pool5
I1209 13:51:27.702662 20785 net.cpp:136] Top shape: 256 256 6 6 (2359296)
I1209 13:51:27.702667 20785 net.cpp:144] Memory required for data: 2103537664
I1209 13:51:27.702672 20785 layer_factory.hpp:77] Creating layer fc6
I1209 13:51:27.702692 20785 net.cpp:84] Creating Layer fc6
I1209 13:51:27.702697 20785 net.cpp:413] fc6 <- pool5
I1209 13:51:27.702704 20785 net.cpp:387] fc6 -> fc6
I1209 13:51:28.327996 20785 net.cpp:127] Setting up fc6
I1209 13:51:28.328047 20785 net.cpp:136] Top shape: 256 4096 (1048576)
I1209 13:51:28.328053 20785 net.cpp:144] Memory required for data: 2107731968
I1209 13:51:28.328092 20785 layer_factory.hpp:77] Creating layer relu6
I1209 13:51:28.328128 20785 net.cpp:84] Creating Layer relu6
I1209 13:51:28.328166 20785 net.cpp:413] relu6 <- fc6
I1209 13:51:28.328176 20785 net.cpp:374] relu6 -> fc6 (in-place)
I1209 13:51:28.328533 20785 net.cpp:127] Setting up relu6
I1209 13:51:28.328546 20785 net.cpp:136] Top shape: 256 4096 (1048576)
I1209 13:51:28.328550 20785 net.cpp:144] Memory required for data: 2111926272
I1209 13:51:28.328555 20785 layer_factory.hpp:77] Creating layer drop6
I1209 13:51:28.328569 20785 net.cpp:84] Creating Layer drop6
I1209 13:51:28.328574 20785 net.cpp:413] drop6 <- fc6
I1209 13:51:28.328583 20785 net.cpp:374] drop6 -> fc6 (in-place)
I1209 13:51:28.328615 20785 net.cpp:127] Setting up drop6
I1209 13:51:28.328624 20785 net.cpp:136] Top shape: 256 4096 (1048576)
I1209 13:51:28.328627 20785 net.cpp:144] Memory required for data: 2116120576
I1209 13:51:28.328631 20785 layer_factory.hpp:77] Creating layer fc7
I1209 13:51:28.328647 20785 net.cpp:84] Creating Layer fc7
I1209 13:51:28.328652 20785 net.cpp:413] fc7 <- fc6
I1209 13:51:28.328660 20785 net.cpp:387] fc7 -> fc7
I1209 13:51:28.602399 20785 net.cpp:127] Setting up fc7
I1209 13:51:28.602450 20785 net.cpp:136] Top shape: 256 4096 (1048576)
I1209 13:51:28.602458 20785 net.cpp:144] Memory required for data: 2120314880
I1209 13:51:28.602475 20785 layer_factory.hpp:77] Creating layer relu7
I1209 13:51:28.602489 20785 net.cpp:84] Creating Layer relu7
I1209 13:51:28.602495 20785 net.cpp:413] relu7 <- fc7
I1209 13:51:28.602506 20785 net.cpp:374] relu7 -> fc7 (in-place)
I1209 13:51:28.604135 20785 net.cpp:127] Setting up relu7
I1209 13:51:28.604152 20785 net.cpp:136] Top shape: 256 4096 (1048576)
I1209 13:51:28.604158 20785 net.cpp:144] Memory required for data: 2124509184
I1209 13:51:28.604164 20785 layer_factory.hpp:77] Creating layer drop7
I1209 13:51:28.604176 20785 net.cpp:84] Creating Layer drop7
I1209 13:51:28.604180 20785 net.cpp:413] drop7 <- fc7
I1209 13:51:28.604188 20785 net.cpp:374] drop7 -> fc7 (in-place)
I1209 13:51:28.604216 20785 net.cpp:127] Setting up drop7
I1209 13:51:28.604224 20785 net.cpp:136] Top shape: 256 4096 (1048576)
I1209 13:51:28.604229 20785 net.cpp:144] Memory required for data: 2128703488
I1209 13:51:28.604233 20785 layer_factory.hpp:77] Creating layer fc8
I1209 13:51:28.604250 20785 net.cpp:84] Creating Layer fc8
I1209 13:51:28.604255 20785 net.cpp:413] fc8 <- fc7
I1209 13:51:28.604264 20785 net.cpp:387] fc8 -> fc8
I1209 13:51:28.672235 20785 net.cpp:127] Setting up fc8
I1209 13:51:28.672271 20785 net.cpp:136] Top shape: 256 1000 (256000)
I1209 13:51:28.672277 20785 net.cpp:144] Memory required for data: 2129727488
I1209 13:51:28.672297 20785 layer_factory.hpp:77] Creating layer loss
I1209 13:51:28.672319 20785 net.cpp:84] Creating Layer loss
I1209 13:51:28.672327 20785 net.cpp:413] loss <- fc8
I1209 13:51:28.672334 20785 net.cpp:413] loss <- label
I1209 13:51:28.672344 20785 net.cpp:387] loss -> loss
I1209 13:51:28.672372 20785 layer_factory.hpp:77] Creating layer loss
…
I1209 13:51:28.675706 20785 net.cpp:301] The NetState phase (1) differed from the phase (0) specified by a rule in layer data
I1209 13:51:28.676090 20785 net.cpp:51] Initializing net from parameters: 
name: "AlexNet"
state {
  phase: TEST
}
layer {
  name: "data"
  type: "Data"
  top: "data"
  top: "label"
  include {
    phase: TEST
  }
  transform_param {
    mirror: false
    crop_size: 227
    mean_file: "data/ilsvrc12/imagenet_mean.binaryproto"
  }
  data_param {
    source: "/home/data/caffe-imagenet/ilsvrc12_val_lmdb"
    batch_size: 50
    backend: LMDB
  }
}
layer {
  name: "conv1"
  type: "DNSConvolution"
  bottom: "data"
  top: "conv1"
  param {
    lr_mult: 1
    decay_mult: 1
  }
  param {
    lr_mult: 2
    decay_mult: 0
  }
  convolution_param {
    num_output: 96
    kernel_size: 11
    stride: 4
    weight_filler {
      type: "gaussian"
      std: 0.01
    }
    bias_filler {
      type: "constant"
      value: 0
    }
  }
  dns_convolution_param {
    gamma: 2.5e-06
    power: 1
    c_rate: -0.9
    iter_stop: -1
    weight_mask_filler {
      type: "constant"
      value: 1
    }
    bias_mask_filler {
      type: "constant"
      value: 1
    }
  }
}
layer {
  name: "relu1"
  type: "ReLU"
  bottom: "conv1"
  top: "conv1"
}
layer {
  name: "norm1"
  type: "LRN"
  bottom: "conv1"
  top: "norm1"
  lrn_param {
    local_size: 5
    alpha: 0.0001
    beta: 0.75
  }
}
layer {
  name: "pool1"
  type: "Pooling"
  bottom: "norm1"
  top: "pool1"
  pooling_param {
    pool: MAX
    kernel_size: 3
    stride: 2
  }
}
layer {
  name: "conv2"
  type: "DNSConvolution"
  bottom: "pool1"
  top: "conv2"
  param {
    lr_mult: 1
    decay_mult: 1
  }
  param {
    lr_mult: 2
    decay_mult: 0
  }
  convolution_param {
    num_output: 256
    pad: 2
    kernel_size: 5
    group: 2
    weight_filler {
      type: "gaussian"
      std: 0.01
    }
    bias_filler {
      type: "constant"
      value: 0.1
    }
  }
  dns_convolution_param {
    gamma: 2.5e-06
    power: 1
    c_rate: 0
    iter_stop: -1
    weight_mask_filler {
      type: "constant"
      value: 1
    }
    bias_mask_filler {
      type: "constant"
      value: 1
    }
  }
}
layer {
  name: "relu2"
  type: "ReLU"
  bottom: "conv2"
  top: "conv2"
}
layer {
  name: "norm2"
  type: "LRN"
  bottom: "conv2"
  top: "norm2"
  lrn_param {
    local_size: 5
    alpha: 0.0001
    beta: 0.75
  }
}
layer {
  name: "pool2"
  type: "Pooling"
  bottom: "norm2"
  top: "pool2"
  pooling_param {
    pool: MAX
    kernel_size: 3
    stride: 2
  }
}
layer {
  name: "conv3"
  type: "DNSConvolution"
  bottom: "pool2"
  top: "conv3"
  param {
    lr_mult: 1
    decay_mult: 1
  }
  param {
    lr_mult: 2
    decay_mult: 0
  }
  convolution_param {
    num_output: 384
    pad: 1
    kernel_size: 3
    weight_filler {
      type: "gaussian"
      std: 0.01
    }
    bias_filler {
      type: "constant"
      value: 0
    }
  }
  dns_convolution_param {
    gamma: 2.5e-06
    power: 1
    c_rate: 0.5
    iter_stop: -1
    weight_mask_filler {
      type: "constant"
      value: 1
    }
    bias_mask_filler {
      type: "constant"
      value: 1
    }
  }
}
layer {
  name: "relu3"
  type: "ReLU"
  bottom: "conv3"
  top: "conv3"
}
layer {
  name: "conv4"
  type: "DNSConvolution"
  bottom: "conv3"
  top: "conv4"
  param {
    lr_mult: 1
    decay_mult: 1
  }
  param {
    lr_mult: 2
    decay_mult: 0
  }
  convolution_param {
    num_output: 384
    pad: 1
    kernel_size: 3
    group: 2
    weight_filler {
      type: "gaussian"
      std: 0.01
    }
    bias_filler {
      type: "constant"
      value: 0.1
    }
  }
  dns_convolution_param {
    gamma: 2.5e-06
    power: 1
    c_rate: 0.5
    iter_stop: -1
    weight_mask_filler {
      type: "constant"
      value: 1
    }
    bias_mask_filler {
      type: "constant"
      value: 1
    }
  }
}
layer {
  name: "relu4"
  type: "ReLU"
  bottom: "conv4"
  top: "conv4"
}
layer {
  name: "conv5"
  type: "DNSConvolution"
  bottom: "conv4"
  top: "conv5"
  param {
    lr_mult: 1
    decay_mult: 1
  }
  param {
    lr_mult: 2
    decay_mult: 0
  }
  convolution_param {
    num_output: 256
    pad: 1
    kernel_size: 3
    group: 2
    weight_filler {
      type: "gaussian"
      std: 0.01
    }
    bias_filler {
      type: "constant"
      value: 0.1
    }
  }
  dns_convolution_param {
    gamma: 2.5e-06
    power: 1
    c_rate: 0.5
    iter_stop: -1
    weight_mask_filler {
      type: "constant"
      value: 1
    }
    bias_mask_filler {
      type: "constant"
      value: 1
    }
  }
}
layer {
  name: "relu5"
  type: "ReLU"
  bottom: "conv5"
  top: "conv5"
}
layer {
  name: "pool5"
  type: "Pooling"
  bottom: "conv5"
  top: "pool5"
  pooling_param {
    pool: MAX
    kernel_size: 3
    stride: 2
  }
}
layer {
  name: "fc6"
  type: "DNSInnerProduct"
  bottom: "pool5"
  top: "fc6"
  param {
    lr_mult: 1
    decay_mult: 1
  }
  param {
    lr_mult: 2
    decay_mult: 0
  }
  inner_product_param {
    num_output: 4096
    weight_filler {
      type: "gaussian"
      std: 0.005
    }
    bias_filler {
      type: "constant"
      value: 0.1
    }
  }
  dns_inner_product_param {
    gamma: 2.5e-06
    power: 1
    c_rate: 2.6
    iter_stop: 1e+06
    weight_mask_filler {
      type: "constant"
      value: 1
    }
    bias_mask_filler {
      type: "constant"
      value: 1
    }
  }
}
layer {
  name: "relu6"
  type: "ReLU"
  bottom: "fc6"
  top: "fc6"
}
layer {
  name: "drop6"
  type: "Dropout"
  bottom: "fc6"
  top: "fc6"
  dropout_param {
    dropout_ratio: 0.5
  }
}
layer {
  name: "fc7"
  type: "DNSInnerProduct"
  bottom: "fc6"
  top: "fc7"
  param {
    lr_mult: 1
    decay_mult: 1
  }
  param {
    lr_mult: 2
    decay_mult: 0
  }
  inner_product_param {
    num_output: 4096
    weight_filler {
      type: "gaussian"
      std: 0.005
    }
    bias_filler {
      type: "constant"
      value: 0.1
    }
  }
  dns_inner_product_param {
    gamma: 2.5e-06
    power: 1
    c_rate: 1.5
    iter_stop: 1e+06
    weight_mask_filler {
      type: "constant"
      value: 1
    }
    bias_mask_filler {
      type: "constant"
      value: 1
    }
  }
}
layer {
  name: "relu7"
  type: "ReLU"
  bottom: "fc7"
  top: "fc7"
}
layer {
  name: "drop7"
  type: "Dropout"
  bottom: "fc7"
  top: "fc7"
  dropout_param {
    dropout_ratio: 0.5
  }
}
layer {
  name: "fc8"
  type: "DNSInnerProduct"
  bottom: "fc7"
  top: "fc8"
  param {
    lr_mult: 1
    decay_mult: 1
  }
  param {
    lr_mult: 2
    decay_mult: 0
  }
  inner_product_param {
    num_output: 1000
    weight_filler {
      type: "gaussian"
      std: 0.01
    }
    bias_filler {
      type: "constant"
      value: 0
    }
  }
  dns_inner_product_param {
    gamma: 2.5e-06
    power: 1
    c_rate: 2.7
    iter_stop: 1e+06
    weight_mask_filler {
      type: "constant"
      value: 1
    }
    bias_mask_filler {
      type: "constant"
      value: 1
    }
  }
}
layer {
  name: "accuracy_top1"
  type: "Accuracy"
  bottom: "fc8"
  bottom: "label"
  top: "accuracy_top1"
  include {
    phase: TEST
  }
  accuracy_param {
    top_k: 1
  }
}
layer {
  name: "accuracy_top5"
  type: "Accuracy"
  bottom: "fc8"
  bottom: "label"
  top: "accuracy_top5"
  include {
    phase: TEST
  }
  accuracy_param {
    top_k: 5
  }
}
layer {
  name: "loss"
  type: "SoftmaxWithLoss"
  bottom: "fc8"
  bottom: "label"
  top: "loss"
}
I1209 13:51:28.676265 20785 layer_factory.hpp:77] Creating layer data
I1209 13:51:28.680685 20785 db_lmdb.cpp:35] Opened lmdb /home/data/caffe-imagenet/ilsvrc12_val_lmdb
I1209 13:51:28.680711 20785 net.cpp:84] Creating Layer data
I1209 13:51:28.680719 20785 net.cpp:387] data -> data
I1209 13:51:28.680732 20785 net.cpp:387] data -> label
I1209 13:51:28.680742 20785 data_transformer.cpp:25] Loading mean file from: data/ilsvrc12/imagenet_mean.binaryproto
I1209 13:51:28.693181 20785 data_layer.cpp:45] output data size: 50,3,227,227
I1209 13:51:28.778295 20785 net.cpp:127] Setting up data
I1209 13:51:28.778339 20785 net.cpp:136] Top shape: 50 3 227 227 (7729350)
I1209 13:51:28.778348 20785 net.cpp:136] Top shape: 50 (50)
I1209 13:51:28.778355 20785 net.cpp:144] Memory required for data: 30917600
I1209 13:51:28.778364 20785 layer_factory.hpp:77] Creating layer label_data_1_split
I1209 13:51:28.778386 20785 net.cpp:84] Creating Layer label_data_1_split
I1209 13:51:28.778393 20785 net.cpp:413] label_data_1_split <- label
I1209 13:51:28.778403 20785 net.cpp:387] label_data_1_split -> label_data_1_split_0
I1209 13:51:28.778415 20785 net.cpp:387] label_data_1_split -> label_data_1_split_1
I1209 13:51:28.778424 20785 net.cpp:387] label_data_1_split -> label_data_1_split_2
I1209 13:51:28.778507 20785 net.cpp:127] Setting up label_data_1_split
I1209 13:51:28.778515 20785 net.cpp:136] Top shape: 50 (50)
I1209 13:51:28.778522 20785 net.cpp:136] Top shape: 50 (50)
I1209 13:51:28.778527 20785 net.cpp:136] Top shape: 50 (50)
I1209 13:51:28.778530 20785 net.cpp:144] Memory required for data: 30918200
I1209 13:51:28.778535 20785 layer_factory.hpp:77] Creating layer conv1
I1209 13:51:28.778553 20785 net.cpp:84] Creating Layer conv1
I1209 13:51:28.778558 20785 net.cpp:413] conv1 <- data
I1209 13:51:28.778566 20785 net.cpp:387] conv1 -> conv1
I1209 13:51:28.779443 20785 net.cpp:127] Setting up conv1
I1209 13:51:28.779456 20785 net.cpp:136] Top shape: 50 96 55 55 (14520000)
I1209 13:51:28.779460 20785 net.cpp:144] Memory required for data: 88998200
I1209 13:51:28.779480 20785 layer_factory.hpp:77] Creating layer relu1
I1209 13:51:28.779490 20785 net.cpp:84] Creating Layer relu1
I1209 13:51:28.779496 20785 net.cpp:413] relu1 <- conv1
I1209 13:51:28.779503 20785 net.cpp:374] relu1 -> conv1 (in-place)
I1209 13:51:28.779763 20785 net.cpp:127] Setting up relu1
I1209 13:51:28.779774 20785 net.cpp:136] Top shape: 50 96 55 55 (14520000)
I1209 13:51:28.779779 20785 net.cpp:144] Memory required for data: 147078200
I1209 13:51:28.779784 20785 layer_factory.hpp:77] Creating layer norm1
I1209 13:51:28.779796 20785 net.cpp:84] Creating Layer norm1
I1209 13:51:28.779801 20785 net.cpp:413] norm1 <- conv1
I1209 13:51:28.779809 20785 net.cpp:387] norm1 -> norm1
I1209 13:51:28.782512 20785 net.cpp:127] Setting up norm1
I1209 13:51:28.782526 20785 net.cpp:136] Top shape: 50 96 55 55 (14520000)
I1209 13:51:28.782531 20785 net.cpp:144] Memory required for data: 205158200
I1209 13:51:28.782536 20785 layer_factory.hpp:77] Creating layer pool1
I1209 13:51:28.782547 20785 net.cpp:84] Creating Layer pool1
I1209 13:51:28.782552 20785 net.cpp:413] pool1 <- norm1
I1209 13:51:28.782559 20785 net.cpp:387] pool1 -> pool1
I1209 13:51:28.782603 20785 net.cpp:127] Setting up pool1
I1209 13:51:28.782611 20785 net.cpp:136] Top shape: 50 96 27 27 (3499200)
I1209 13:51:28.782615 20785 net.cpp:144] Memory required for data: 219155000
I1209 13:51:28.782620 20785 layer_factory.hpp:77] Creating layer conv2
I1209 13:51:28.782631 20785 net.cpp:84] Creating Layer conv2
I1209 13:51:28.782636 20785 net.cpp:413] conv2 <- pool1
I1209 13:51:28.782645 20785 net.cpp:387] conv2 -> conv2
I1209 13:51:28.789561 20785 net.cpp:127] Setting up conv2
I1209 13:51:28.789605 20785 net.cpp:136] Top shape: 50 256 27 27 (9331200)
I1209 13:51:28.789611 20785 net.cpp:144] Memory required for data: 256479800
I1209 13:51:28.789626 20785 layer_factory.hpp:77] Creating layer relu2
I1209 13:51:28.789636 20785 net.cpp:84] Creating Layer relu2
I1209 13:51:28.789641 20785 net.cpp:413] relu2 <- conv2
I1209 13:51:28.789649 20785 net.cpp:374] relu2 -> conv2 (in-place)
I1209 13:51:28.791046 20785 net.cpp:127] Setting up relu2
I1209 13:51:28.791064 20785 net.cpp:136] Top shape: 50 256 27 27 (9331200)
I1209 13:51:28.791069 20785 net.cpp:144] Memory required for data: 293804600
I1209 13:51:28.791074 20785 layer_factory.hpp:77] Creating layer norm2
I1209 13:51:28.791086 20785 net.cpp:84] Creating Layer norm2
I1209 13:51:28.791092 20785 net.cpp:413] norm2 <- conv2
I1209 13:51:28.791100 20785 net.cpp:387] norm2 -> norm2
I1209 13:51:28.791333 20785 net.cpp:127] Setting up norm2
I1209 13:51:28.791345 20785 net.cpp:136] Top shape: 50 256 27 27 (9331200)
I1209 13:51:28.791349 20785 net.cpp:144] Memory required for data: 331129400
I1209 13:51:28.791354 20785 layer_factory.hpp:77] Creating layer pool2
I1209 13:51:28.791363 20785 net.cpp:84] Creating Layer pool2
I1209 13:51:28.791368 20785 net.cpp:413] pool2 <- norm2
I1209 13:51:28.791375 20785 net.cpp:387] pool2 -> pool2
I1209 13:51:28.791417 20785 net.cpp:127] Setting up pool2
I1209 13:51:28.791424 20785 net.cpp:136] Top shape: 50 256 13 13 (2163200)
I1209 13:51:28.791429 20785 net.cpp:144] Memory required for data: 339782200
I1209 13:51:28.791434 20785 layer_factory.hpp:77] Creating layer conv3
I1209 13:51:28.791445 20785 net.cpp:84] Creating Layer conv3
I1209 13:51:28.791450 20785 net.cpp:413] conv3 <- pool2
I1209 13:51:28.791458 20785 net.cpp:387] conv3 -> conv3
I1209 13:51:28.807126 20785 net.cpp:127] Setting up conv3
I1209 13:51:28.807152 20785 net.cpp:136] Top shape: 50 384 13 13 (3244800)
I1209 13:51:28.807157 20785 net.cpp:144] Memory required for data: 352761400
I1209 13:51:28.807174 20785 layer_factory.hpp:77] Creating layer relu3
I1209 13:51:28.807185 20785 net.cpp:84] Creating Layer relu3
I1209 13:51:28.807191 20785 net.cpp:413] relu3 <- conv3
I1209 13:51:28.807199 20785 net.cpp:374] relu3 -> conv3 (in-place)
I1209 13:51:28.807435 20785 net.cpp:127] Setting up relu3
I1209 13:51:28.807446 20785 net.cpp:136] Top shape: 50 384 13 13 (3244800)
I1209 13:51:28.807451 20785 net.cpp:144] Memory required for data: 365740600
I1209 13:51:28.807456 20785 layer_factory.hpp:77] Creating layer conv4
I1209 13:51:28.807467 20785 net.cpp:84] Creating Layer conv4
I1209 13:51:28.807473 20785 net.cpp:413] conv4 <- conv3
I1209 13:51:28.807482 20785 net.cpp:387] conv4 -> conv4
I1209 13:51:28.819617 20785 net.cpp:127] Setting up conv4
I1209 13:51:28.819639 20785 net.cpp:136] Top shape: 50 384 13 13 (3244800)
I1209 13:51:28.819644 20785 net.cpp:144] Memory required for data: 378719800
I1209 13:51:28.819658 20785 layer_factory.hpp:77] Creating layer relu4
I1209 13:51:28.819667 20785 net.cpp:84] Creating Layer relu4
I1209 13:51:28.819672 20785 net.cpp:413] relu4 <- conv4
I1209 13:51:28.819684 20785 net.cpp:374] relu4 -> conv4 (in-place)
I1209 13:51:28.821105 20785 net.cpp:127] Setting up relu4
I1209 13:51:28.821122 20785 net.cpp:136] Top shape: 50 384 13 13 (3244800)
I1209 13:51:28.821128 20785 net.cpp:144] Memory required for data: 391699000
I1209 13:51:28.821133 20785 layer_factory.hpp:77] Creating layer conv5
I1209 13:51:28.821146 20785 net.cpp:84] Creating Layer conv5
I1209 13:51:28.821151 20785 net.cpp:413] conv5 <- conv4
I1209 13:51:28.821162 20785 net.cpp:387] conv5 -> conv5
I1209 13:51:28.829908 20785 net.cpp:127] Setting up conv5
I1209 13:51:28.829929 20785 net.cpp:136] Top shape: 50 256 13 13 (2163200)
I1209 13:51:28.829934 20785 net.cpp:144] Memory required for data: 400351800
I1209 13:51:28.829952 20785 layer_factory.hpp:77] Creating layer relu5
I1209 13:51:28.829962 20785 net.cpp:84] Creating Layer relu5
I1209 13:51:28.829967 20785 net.cpp:413] relu5 <- conv5
I1209 13:51:28.829987 20785 net.cpp:374] relu5 -> conv5 (in-place)
I1209 13:51:28.830214 20785 net.cpp:127] Setting up relu5
I1209 13:51:28.830250 20785 net.cpp:136] Top shape: 50 256 13 13 (2163200)
I1209 13:51:28.830255 20785 net.cpp:144] Memory required for data: 409004600
I1209 13:51:28.830260 20785 layer_factory.hpp:77] Creating layer pool5
I1209 13:51:28.830273 20785 net.cpp:84] Creating Layer pool5
I1209 13:51:28.830278 20785 net.cpp:413] pool5 <- conv5
I1209 13:51:28.830291 20785 net.cpp:387] pool5 -> pool5
I1209 13:51:28.830346 20785 net.cpp:127] Setting up pool5
I1209 13:51:28.830354 20785 net.cpp:136] Top shape: 50 256 6 6 (460800)
I1209 13:51:28.830359 20785 net.cpp:144] Memory required for data: 410847800
I1209 13:51:28.830363 20785 layer_factory.hpp:77] Creating layer fc6
I1209 13:51:28.830376 20785 net.cpp:84] Creating Layer fc6
I1209 13:51:28.830381 20785 net.cpp:413] fc6 <- pool5
I1209 13:51:28.830389 20785 net.cpp:387] fc6 -> fc6
I1209 13:51:29.439601 20785 net.cpp:127] Setting up fc6
I1209 13:51:29.439651 20785 net.cpp:136] Top shape: 50 4096 (204800)
I1209 13:51:29.439657 20785 net.cpp:144] Memory required for data: 411667000
I1209 13:51:29.439677 20785 layer_factory.hpp:77] Creating layer relu6
I1209 13:51:29.439692 20785 net.cpp:84] Creating Layer relu6
I1209 13:51:29.439699 20785 net.cpp:413] relu6 <- fc6
I1209 13:51:29.439709 20785 net.cpp:374] relu6 -> fc6 (in-place)
I1209 13:51:29.440006 20785 net.cpp:127] Setting up relu6
I1209 13:51:29.440016 20785 net.cpp:136] Top shape: 50 4096 (204800)
I1209 13:51:29.440021 20785 net.cpp:144] Memory required for data: 412486200
I1209 13:51:29.440026 20785 layer_factory.hpp:77] Creating layer drop6
I1209 13:51:29.440037 20785 net.cpp:84] Creating Layer drop6
I1209 13:51:29.440042 20785 net.cpp:413] drop6 <- fc6
I1209 13:51:29.440048 20785 net.cpp:374] drop6 -> fc6 (in-place)
I1209 13:51:29.440084 20785 net.cpp:127] Setting up drop6
I1209 13:51:29.440091 20785 net.cpp:136] Top shape: 50 4096 (204800)
I1209 13:51:29.440096 20785 net.cpp:144] Memory required for data: 413305400
I1209 13:51:29.440100 20785 layer_factory.hpp:77] Creating layer fc7
I1209 13:51:29.440114 20785 net.cpp:84] Creating Layer fc7
I1209 13:51:29.440117 20785 net.cpp:413] fc7 <- fc6
I1209 13:51:29.440126 20785 net.cpp:387] fc7 -> fc7
I1209 13:51:29.711874 20785 net.cpp:127] Setting up fc7
I1209 13:51:29.711921 20785 net.cpp:136] Top shape: 50 4096 (204800)
I1209 13:51:29.711928 20785 net.cpp:144] Memory required for data: 414124600
I1209 13:51:29.711947 20785 layer_factory.hpp:77] Creating layer relu7
I1209 13:51:29.711961 20785 net.cpp:84] Creating Layer relu7
I1209 13:51:29.711969 20785 net.cpp:413] relu7 <- fc7
I1209 13:51:29.711979 20785 net.cpp:374] relu7 -> fc7 (in-place)
I1209 13:51:29.712270 20785 net.cpp:127] Setting up relu7
I1209 13:51:29.712281 20785 net.cpp:136] Top shape: 50 4096 (204800)
I1209 13:51:29.712291 20785 net.cpp:144] Memory required for data: 414943800
I1209 13:51:29.712296 20785 layer_factory.hpp:77] Creating layer drop7
I1209 13:51:29.712307 20785 net.cpp:84] Creating Layer drop7
I1209 13:51:29.712312 20785 net.cpp:413] drop7 <- fc7
I1209 13:51:29.712319 20785 net.cpp:374] drop7 -> fc7 (in-place)
I1209 13:51:29.712357 20785 net.cpp:127] Setting up drop7
I1209 13:51:29.712363 20785 net.cpp:136] Top shape: 50 4096 (204800)
I1209 13:51:29.712368 20785 net.cpp:144] Memory required for data: 415763000
I1209 13:51:29.712373 20785 layer_factory.hpp:77] Creating layer fc8
I1209 13:51:29.712386 20785 net.cpp:84] Creating Layer fc8
I1209 13:51:29.712390 20785 net.cpp:413] fc8 <- fc7
I1209 13:51:29.712399 20785 net.cpp:387] fc8 -> fc8
I1209 13:51:29.779923 20785 net.cpp:127] Setting up fc8
I1209 13:51:29.779958 20785 net.cpp:136] Top shape: 50 1000 (50000)
I1209 13:51:29.779963 20785 net.cpp:144] Memory required for data: 415963000
I1209 13:51:29.779980 20785 layer_factory.hpp:77] Creating layer fc8_fc8_0_split
I1209 13:51:29.779992 20785 net.cpp:84] Creating Layer fc8_fc8_0_split
I1209 13:51:29.779999 20785 net.cpp:413] fc8_fc8_0_split <- fc8
I1209 13:51:29.780007 20785 net.cpp:387] fc8_fc8_0_split -> fc8_fc8_0_split_0
I1209 13:51:29.780031 20785 net.cpp:387] fc8_fc8_0_split -> fc8_fc8_0_split_1
I1209 13:51:29.780069 20785 net.cpp:387] fc8_fc8_0_split -> fc8_fc8_0_split_2
I1209 13:51:29.780134 20785 net.cpp:127] Setting up fc8_fc8_0_split
I1209 13:51:29.780143 20785 net.cpp:136] Top shape: 50 1000 (50000)
I1209 13:51:29.780148 20785 net.cpp:136] Top shape: 50 1000 (50000)
I1209 13:51:29.780153 20785 net.cpp:136] Top shape: 50 1000 (50000)
I1209 13:51:29.780158 20785 net.cpp:144] Memory required for data: 416563000
I1209 13:51:29.780161 20785 layer_factory.hpp:77] Creating layer accuracy_top1
I1209 13:51:29.780179 20785 net.cpp:84] Creating Layer accuracy_top1
I1209 13:51:29.780185 20785 net.cpp:413] accuracy_top1 <- fc8_fc8_0_split_0
I1209 13:51:29.780191 20785 net.cpp:413] accuracy_top1 <- label_data_1_split_0
I1209 13:51:29.780198 20785 net.cpp:387] accuracy_top1 -> accuracy_top1
…
