…
I1223 13:21:38.177443 27366 net.cpp:301] The NetState phase (0) differed from the phase (1) specified by a rule in layer accuracy_top5
I1223 13:21:38.177786 27366 net.cpp:51] Initializing net from parameters: 
name: "AlexNet"
state {
  phase: TRAIN
  level: 0
  stage: ""
}
layer {
  name: "data"
  type: "Data"
  top: "data"
  top: "label"
  include {
    phase: TRAIN
  }
  transform_param {
    mirror: true
    crop_size: 227
    mean_file: "/home/data/caffe-imagenet/imagenet_mean.binaryproto"
  }
  data_param {
    source: "/home/data/caffe-imagenet/ilsvrc12_train_lmdb"
    batch_size: 256
    backend: LMDB
  }
}
layer {
  name: "conv1"
  type: "INQConvolution"
  bottom: "data"
  top: "conv1"
  param {
    lr_mult: 1
    decay_mult: 1
  }
  param {
    lr_mult: 2
    decay_mult: 0
  }
  convolution_param {
    num_output: 96
    kernel_size: 11
    stride: 4
    weight_filler {
      type: "gaussian"
      std: 0.01
    }
    bias_filler {
      type: "constant"
      value: 0
    }
  }
  inq_convolution_param {
    portion: 0.7
    portion: 0.9
    weight_mask_filler {
      type: "constant"
      value: 1
    }
    bias_mask_filler {
      type: "constant"
      value: 1
    }
    num_quantum_values: 7
  }
}
layer {
  name: "relu1"
  type: "ReLU"
  bottom: "conv1"
  top: "conv1"
}
layer {
  name: "norm1"
  type: "LRN"
  bottom: "conv1"
  top: "norm1"
  lrn_param {
    local_size: 5
    alpha: 0.0001
    beta: 0.75
  }
}
layer {
  name: "pool1"
  type: "Pooling"
  bottom: "norm1"
  top: "pool1"
  pooling_param {
    pool: MAX
    kernel_size: 3
    stride: 2
  }
}
layer {
  name: "conv2"
  type: "INQConvolution"
  bottom: "pool1"
  top: "conv2"
  param {
    lr_mult: 1
    decay_mult: 1
  }
  param {
    lr_mult: 2
    decay_mult: 0
  }
  convolution_param {
    num_output: 256
    pad: 2
    kernel_size: 5
    group: 2
    weight_filler {
      type: "gaussian"
      std: 0.01
    }
    bias_filler {
      type: "constant"
      value: 0.1
    }
  }
  inq_convolution_param {
    portion: 0.7
    portion: 0.9
    weight_mask_filler {
      type: "constant"
      value: 1
    }
    bias_mask_filler {
      type: "constant"
      value: 1
    }
    num_quantum_values: 7
  }
}
layer {
  name: "relu2"
  type: "ReLU"
  bottom: "conv2"
  top: "conv2"
}
layer {
  name: "norm2"
  type: "LRN"
  bottom: "conv2"
  top: "norm2"
  lrn_param {
    local_size: 5
    alpha: 0.0001
    beta: 0.75
  }
}
layer {
  name: "pool2"
  type: "Pooling"
  bottom: "norm2"
  top: "pool2"
  pooling_param {
    pool: MAX
    kernel_size: 3
    stride: 2
  }
}
layer {
  name: "conv3"
  type: "INQConvolution"
  bottom: "pool2"
  top: "conv3"
  param {
    lr_mult: 1
    decay_mult: 1
  }
  param {
    lr_mult: 2
    decay_mult: 0
  }
  convolution_param {
    num_output: 384
    pad: 1
    kernel_size: 3
    weight_filler {
      type: "gaussian"
      std: 0.01
    }
    bias_filler {
      type: "constant"
      value: 0
    }
  }
  inq_convolution_param {
    portion: 0.7
    portion: 0.9
    weight_mask_filler {
      type: "constant"
      value: 1
    }
    bias_mask_filler {
      type: "constant"
      value: 1
    }
    num_quantum_values: 7
  }
}
layer {
  name: "relu3"
  type: "ReLU"
  bottom: "conv3"
  top: "conv3"
}
layer {
  name: "conv4"
  type: "INQConvolution"
  bottom: "conv3"
  top: "conv4"
  param {
    lr_mult: 1
    decay_mult: 1
  }
  param {
    lr_mult: 2
    decay_mult: 0
  }
  convolution_param {
    num_output: 384
    pad: 1
    kernel_size: 3
    group: 2
    weight_filler {
      type: "gaussian"
      std: 0.01
    }
    bias_filler {
      type: "constant"
      value: 0.1
    }
  }
  inq_convolution_param {
    portion: 0.7
    portion: 0.9
    weight_mask_filler {
      type: "constant"
      value: 1
    }
    bias_mask_filler {
      type: "constant"
      value: 1
    }
    num_quantum_values: 7
  }
}
layer {
  name: "relu4"
  type: "ReLU"
  bottom: "conv4"
  top: "conv4"
}
layer {
  name: "conv5"
  type: "INQConvolution"
  bottom: "conv4"
  top: "conv5"
  param {
    lr_mult: 1
    decay_mult: 1
  }
  param {
    lr_mult: 2
    decay_mult: 0
  }
  convolution_param {
    num_output: 256
    pad: 1
    kernel_size: 3
    group: 2
    weight_filler {
      type: "gaussian"
      std: 0.01
    }
    bias_filler {
      type: "constant"
      value: 0.1
    }
  }
  inq_convolution_param {
    portion: 0.7
    portion: 0.9
    weight_mask_filler {
      type: "constant"
      value: 1
    }
    bias_mask_filler {
      type: "constant"
      value: 1
    }
    num_quantum_values: 7
  }
}
layer {
  name: "relu5"
  type: "ReLU"
  bottom: "conv5"
  top: "conv5"
}
layer {
  name: "pool5"
  type: "Pooling"
  bottom: "conv5"
  top: "pool5"
  pooling_param {
    pool: MAX
    kernel_size: 3
    stride: 2
  }
}
layer {
  name: "fc6"
  type: "INQInnerProduct"
  bottom: "pool5"
  top: "fc6"
  param {
    lr_mult: 1
    decay_mult: 1
  }
  param {
    lr_mult: 2
    decay_mult: 0
  }
  inner_product_param {
    num_output: 4096
    weight_filler {
      type: "gaussian"
      std: 0.005
    }
    bias_filler {
      type: "constant"
      value: 0.1
    }
  }
  inq_inner_product_param {
    portion: 0.7
    portion: 0.9
    weight_mask_filler {
      type: "constant"
      value: 1
    }
    bias_mask_filler {
      type: "constant"
      value: 1
    }
    num_quantum_values: 7
  }
}
layer {
  name: "relu6"
  type: "ReLU"
  bottom: "fc6"
  top: "fc6"
}
layer {
  name: "drop6"
  type: "Dropout"
  bottom: "fc6"
  top: "fc6"
  dropout_param {
    dropout_ratio: 0.5
  }
}
layer {
  name: "fc7"
  type: "INQInnerProduct"
  bottom: "fc6"
  top: "fc7"
  param {
    lr_mult: 1
    decay_mult: 1
  }
  param {
    lr_mult: 2
    decay_mult: 0
  }
  inner_product_param {
    num_output: 4096
    weight_filler {
      type: "gaussian"
      std: 0.005
    }
    bias_filler {
      type: "constant"
      value: 0.1
    }
  }
  inq_inner_product_param {
    portion: 0.7
    portion: 0.9
    weight_mask_filler {
      type: "constant"
      value: 1
    }
    bias_mask_filler {
      type: "constant"
      value: 1
    }
    num_quantum_values: 7
  }
}
layer {
  name: "relu7"
  type: "ReLU"
  bottom: "fc7"
  top: "fc7"
}
layer {
  name: "drop7"
  type: "Dropout"
  bottom: "fc7"
  top: "fc7"
  dropout_param {
    dropout_ratio: 0.5
  }
}
layer {
  name: "fc8"
  type: "INQInnerProduct"
  bottom: "fc7"
  top: "fc8"
  param {
    lr_mult: 1
    decay_mult: 1
  }
  param {
    lr_mult: 2
    decay_mult: 0
  }
  inner_product_param {
    num_output: 1000
    weight_filler {
      type: "gaussian"
      std: 0.01
    }
    bias_filler {
      type: "constant"
      value: 0
    }
  }
  inq_inner_product_param {
    portion: 0.7
    portion: 0.9
    weight_mask_filler {
      type: "constant"
      value: 1
    }
    bias_mask_filler {
      type: "constant"
      value: 1
    }
    num_quantum_values: 7
  }
}
layer {
  name: "loss"
  type: "SoftmaxWithLoss"
  bottom: "fc8"
  bottom: "label"
  top: "loss"
}
I1223 13:21:38.177966 27366 layer_factory.hpp:77] Creating layer data
I1223 13:21:38.178117 27366 db_lmdb.cpp:35] Opened lmdb /home/data/caffe-imagenet/ilsvrc12_train_lmdb
I1223 13:21:38.178174 27366 net.cpp:84] Creating Layer data
I1223 13:21:38.178184 27366 net.cpp:387] data -> data
I1223 13:21:38.178215 27366 net.cpp:387] data -> label
I1223 13:21:38.178234 27366 data_transformer.cpp:25] Loading mean file from: /home/data/caffe-imagenet/imagenet_mean.binaryproto
I1223 13:21:38.183853 27366 data_layer.cpp:45] output data size: 256,3,227,227
I1223 13:21:38.610461 27366 net.cpp:127] Setting up data
I1223 13:21:38.610505 27366 net.cpp:136] Top shape: 256 3 227 227 (39574272)
I1223 13:21:38.610514 27366 net.cpp:136] Top shape: 256 (256)
I1223 13:21:38.610519 27366 net.cpp:144] Memory required for data: 158298112
I1223 13:21:38.610533 27366 layer_factory.hpp:77] Creating layer conv1
I1223 13:21:38.610561 27366 net.cpp:84] Creating Layer conv1
I1223 13:21:38.610569 27366 net.cpp:413] conv1 <- data
I1223 13:21:38.610589 27366 net.cpp:387] conv1 -> conv1
I1223 13:21:38.614287 27366 net.cpp:127] Setting up conv1
I1223 13:21:38.614306 27366 net.cpp:136] Top shape: 256 96 55 55 (74342400)
I1223 13:21:38.614311 27366 net.cpp:144] Memory required for data: 455667712
I1223 13:21:38.614331 27366 net.cpp:453] Found INQ layer:conv1, type: INQConvolution, layer id:1
I1223 13:21:38.614342 27366 net.cpp:453] Found INQ layer:conv1, type: INQConvolution, layer id:1
I1223 13:21:38.614352 27366 net.cpp:453] Found INQ layer:conv1, type: INQConvolution, layer id:1
I1223 13:21:38.614359 27366 net.cpp:453] Found INQ layer:conv1, type: INQConvolution, layer id:1
I1223 13:21:38.614365 27366 layer_factory.hpp:77] Creating layer relu1
I1223 13:21:38.614380 27366 net.cpp:84] Creating Layer relu1
I1223 13:21:38.614387 27366 net.cpp:413] relu1 <- conv1
I1223 13:21:38.614393 27366 net.cpp:374] relu1 -> conv1 (in-place)
I1223 13:21:39.146731 27366 net.cpp:127] Setting up relu1
I1223 13:21:39.146770 27366 net.cpp:136] Top shape: 256 96 55 55 (74342400)
I1223 13:21:39.146777 27366 net.cpp:144] Memory required for data: 753037312
I1223 13:21:39.146786 27366 layer_factory.hpp:77] Creating layer norm1
I1223 13:21:39.146816 27366 net.cpp:84] Creating Layer norm1
I1223 13:21:39.146822 27366 net.cpp:413] norm1 <- conv1
I1223 13:21:39.146833 27366 net.cpp:387] norm1 -> norm1
I1223 13:21:39.148325 27366 net.cpp:127] Setting up norm1
I1223 13:21:39.148344 27366 net.cpp:136] Top shape: 256 96 55 55 (74342400)
I1223 13:21:39.148349 27366 net.cpp:144] Memory required for data: 1050406912
I1223 13:21:39.148355 27366 layer_factory.hpp:77] Creating layer pool1
I1223 13:21:39.148370 27366 net.cpp:84] Creating Layer pool1
I1223 13:21:39.148375 27366 net.cpp:413] pool1 <- norm1
I1223 13:21:39.148382 27366 net.cpp:387] pool1 -> pool1
I1223 13:21:39.148439 27366 net.cpp:127] Setting up pool1
I1223 13:21:39.148448 27366 net.cpp:136] Top shape: 256 96 27 27 (17915904)
I1223 13:21:39.148453 27366 net.cpp:144] Memory required for data: 1122070528
I1223 13:21:39.148458 27366 layer_factory.hpp:77] Creating layer conv2
I1223 13:21:39.148475 27366 net.cpp:84] Creating Layer conv2
I1223 13:21:39.148480 27366 net.cpp:413] conv2 <- pool1
I1223 13:21:39.148488 27366 net.cpp:387] conv2 -> conv2
I1223 13:21:39.155448 27366 net.cpp:127] Setting up conv2
I1223 13:21:39.155467 27366 net.cpp:136] Top shape: 256 256 27 27 (47775744)
I1223 13:21:39.155472 27366 net.cpp:144] Memory required for data: 1313173504
I1223 13:21:39.155486 27366 net.cpp:453] Found INQ layer:conv2, type: INQConvolution, layer id:5
I1223 13:21:39.155496 27366 net.cpp:453] Found INQ layer:conv2, type: INQConvolution, layer id:5
I1223 13:21:39.155503 27366 net.cpp:453] Found INQ layer:conv2, type: INQConvolution, layer id:5
I1223 13:21:39.155509 27366 net.cpp:453] Found INQ layer:conv2, type: INQConvolution, layer id:5
I1223 13:21:39.155514 27366 layer_factory.hpp:77] Creating layer relu2
I1223 13:21:39.155524 27366 net.cpp:84] Creating Layer relu2
I1223 13:21:39.155530 27366 net.cpp:413] relu2 <- conv2
I1223 13:21:39.155537 27366 net.cpp:374] relu2 -> conv2 (in-place)
I1223 13:21:39.155760 27366 net.cpp:127] Setting up relu2
I1223 13:21:39.155795 27366 net.cpp:136] Top shape: 256 256 27 27 (47775744)
I1223 13:21:39.155802 27366 net.cpp:144] Memory required for data: 1504276480
I1223 13:21:39.155807 27366 layer_factory.hpp:77] Creating layer norm2
I1223 13:21:39.155817 27366 net.cpp:84] Creating Layer norm2
I1223 13:21:39.155823 27366 net.cpp:413] norm2 <- conv2
I1223 13:21:39.155829 27366 net.cpp:387] norm2 -> norm2
I1223 13:21:39.156054 27366 net.cpp:127] Setting up norm2
I1223 13:21:39.156064 27366 net.cpp:136] Top shape: 256 256 27 27 (47775744)
I1223 13:21:39.156069 27366 net.cpp:144] Memory required for data: 1695379456
I1223 13:21:39.156075 27366 layer_factory.hpp:77] Creating layer pool2
I1223 13:21:39.156085 27366 net.cpp:84] Creating Layer pool2
I1223 13:21:39.156090 27366 net.cpp:413] pool2 <- norm2
I1223 13:21:39.156096 27366 net.cpp:387] pool2 -> pool2
I1223 13:21:39.156134 27366 net.cpp:127] Setting up pool2
I1223 13:21:39.156141 27366 net.cpp:136] Top shape: 256 256 13 13 (11075584)
I1223 13:21:39.156146 27366 net.cpp:144] Memory required for data: 1739681792
I1223 13:21:39.156150 27366 layer_factory.hpp:77] Creating layer conv3
I1223 13:21:39.156163 27366 net.cpp:84] Creating Layer conv3
I1223 13:21:39.156168 27366 net.cpp:413] conv3 <- pool2
I1223 13:21:39.156175 27366 net.cpp:387] conv3 -> conv3
I1223 13:21:39.171890 27366 net.cpp:127] Setting up conv3
I1223 13:21:39.171912 27366 net.cpp:136] Top shape: 256 384 13 13 (16613376)
I1223 13:21:39.171918 27366 net.cpp:144] Memory required for data: 1806135296
I1223 13:21:39.171928 27366 net.cpp:453] Found INQ layer:conv3, type: INQConvolution, layer id:9
I1223 13:21:39.171938 27366 net.cpp:453] Found INQ layer:conv3, type: INQConvolution, layer id:9
I1223 13:21:39.171946 27366 net.cpp:453] Found INQ layer:conv3, type: INQConvolution, layer id:9
I1223 13:21:39.171952 27366 net.cpp:453] Found INQ layer:conv3, type: INQConvolution, layer id:9
I1223 13:21:39.171957 27366 layer_factory.hpp:77] Creating layer relu3
I1223 13:21:39.171965 27366 net.cpp:84] Creating Layer relu3
I1223 13:21:39.171972 27366 net.cpp:413] relu3 <- conv3
I1223 13:21:39.171978 27366 net.cpp:374] relu3 -> conv3 (in-place)
I1223 13:21:39.173362 27366 net.cpp:127] Setting up relu3
I1223 13:21:39.173379 27366 net.cpp:136] Top shape: 256 384 13 13 (16613376)
I1223 13:21:39.173384 27366 net.cpp:144] Memory required for data: 1872588800
I1223 13:21:39.173390 27366 layer_factory.hpp:77] Creating layer conv4
I1223 13:21:39.173404 27366 net.cpp:84] Creating Layer conv4
I1223 13:21:39.173409 27366 net.cpp:413] conv4 <- conv3
I1223 13:21:39.173418 27366 net.cpp:387] conv4 -> conv4
I1223 13:21:39.185497 27366 net.cpp:127] Setting up conv4
I1223 13:21:39.185516 27366 net.cpp:136] Top shape: 256 384 13 13 (16613376)
I1223 13:21:39.185523 27366 net.cpp:144] Memory required for data: 1939042304
I1223 13:21:39.185530 27366 net.cpp:453] Found INQ layer:conv4, type: INQConvolution, layer id:11
I1223 13:21:39.185537 27366 net.cpp:453] Found INQ layer:conv4, type: INQConvolution, layer id:11
I1223 13:21:39.185544 27366 net.cpp:453] Found INQ layer:conv4, type: INQConvolution, layer id:11
I1223 13:21:39.185549 27366 net.cpp:453] Found INQ layer:conv4, type: INQConvolution, layer id:11
I1223 13:21:39.185554 27366 layer_factory.hpp:77] Creating layer relu4
I1223 13:21:39.185565 27366 net.cpp:84] Creating Layer relu4
I1223 13:21:39.185571 27366 net.cpp:413] relu4 <- conv4
I1223 13:21:39.185580 27366 net.cpp:374] relu4 -> conv4 (in-place)
I1223 13:21:39.185797 27366 net.cpp:127] Setting up relu4
I1223 13:21:39.185807 27366 net.cpp:136] Top shape: 256 384 13 13 (16613376)
I1223 13:21:39.185812 27366 net.cpp:144] Memory required for data: 2005495808
I1223 13:21:39.185817 27366 layer_factory.hpp:77] Creating layer conv5
I1223 13:21:39.185832 27366 net.cpp:84] Creating Layer conv5
I1223 13:21:39.185837 27366 net.cpp:413] conv5 <- conv4
I1223 13:21:39.185847 27366 net.cpp:387] conv5 -> conv5
I1223 13:21:39.194584 27366 net.cpp:127] Setting up conv5
I1223 13:21:39.194614 27366 net.cpp:136] Top shape: 256 256 13 13 (11075584)
I1223 13:21:39.194645 27366 net.cpp:144] Memory required for data: 2049798144
I1223 13:21:39.194658 27366 net.cpp:453] Found INQ layer:conv5, type: INQConvolution, layer id:13
I1223 13:21:39.194667 27366 net.cpp:453] Found INQ layer:conv5, type: INQConvolution, layer id:13
I1223 13:21:39.194674 27366 net.cpp:453] Found INQ layer:conv5, type: INQConvolution, layer id:13
I1223 13:21:39.194679 27366 net.cpp:453] Found INQ layer:conv5, type: INQConvolution, layer id:13
I1223 13:21:39.194684 27366 layer_factory.hpp:77] Creating layer relu5
I1223 13:21:39.194694 27366 net.cpp:84] Creating Layer relu5
I1223 13:21:39.194699 27366 net.cpp:413] relu5 <- conv5
I1223 13:21:39.194706 27366 net.cpp:374] relu5 -> conv5 (in-place)
I1223 13:21:39.194928 27366 net.cpp:127] Setting up relu5
I1223 13:21:39.194938 27366 net.cpp:136] Top shape: 256 256 13 13 (11075584)
I1223 13:21:39.194943 27366 net.cpp:144] Memory required for data: 2094100480
I1223 13:21:39.194948 27366 layer_factory.hpp:77] Creating layer pool5
I1223 13:21:39.194962 27366 net.cpp:84] Creating Layer pool5
I1223 13:21:39.194967 27366 net.cpp:413] pool5 <- conv5
I1223 13:21:39.194974 27366 net.cpp:387] pool5 -> pool5
I1223 13:21:39.195025 27366 net.cpp:127] Setting up pool5
I1223 13:21:39.195034 27366 net.cpp:136] Top shape: 256 256 6 6 (2359296)
I1223 13:21:39.195037 27366 net.cpp:144] Memory required for data: 2103537664
I1223 13:21:39.195044 27366 layer_factory.hpp:77] Creating layer fc6
I1223 13:21:39.195065 27366 net.cpp:84] Creating Layer fc6
I1223 13:21:39.195070 27366 net.cpp:413] fc6 <- pool5
I1223 13:21:39.195078 27366 net.cpp:387] fc6 -> fc6
I1223 13:21:39.810247 27366 net.cpp:127] Setting up fc6
I1223 13:21:39.810308 27366 net.cpp:136] Top shape: 256 4096 (1048576)
I1223 13:21:39.810315 27366 net.cpp:144] Memory required for data: 2107731968
I1223 13:21:39.810328 27366 net.cpp:453] Found INQ layer:fc6, type: INQInnerProduct, layer id:16
I1223 13:21:39.810336 27366 net.cpp:453] Found INQ layer:fc6, type: INQInnerProduct, layer id:16
I1223 13:21:39.810343 27366 net.cpp:453] Found INQ layer:fc6, type: INQInnerProduct, layer id:16
I1223 13:21:39.810348 27366 net.cpp:453] Found INQ layer:fc6, type: INQInnerProduct, layer id:16
I1223 13:21:39.810353 27366 layer_factory.hpp:77] Creating layer relu6
I1223 13:21:39.810367 27366 net.cpp:84] Creating Layer relu6
I1223 13:21:39.810374 27366 net.cpp:413] relu6 <- fc6
I1223 13:21:39.810384 27366 net.cpp:374] relu6 -> fc6 (in-place)
I1223 13:21:39.810672 27366 net.cpp:127] Setting up relu6
I1223 13:21:39.810683 27366 net.cpp:136] Top shape: 256 4096 (1048576)
I1223 13:21:39.810688 27366 net.cpp:144] Memory required for data: 2111926272
I1223 13:21:39.810694 27366 layer_factory.hpp:77] Creating layer drop6
I1223 13:21:39.810712 27366 net.cpp:84] Creating Layer drop6
I1223 13:21:39.810719 27366 net.cpp:413] drop6 <- fc6
I1223 13:21:39.810726 27366 net.cpp:374] drop6 -> fc6 (in-place)
I1223 13:21:39.810758 27366 net.cpp:127] Setting up drop6
I1223 13:21:39.810766 27366 net.cpp:136] Top shape: 256 4096 (1048576)
I1223 13:21:39.810771 27366 net.cpp:144] Memory required for data: 2116120576
I1223 13:21:39.810776 27366 layer_factory.hpp:77] Creating layer fc7
I1223 13:21:39.810791 27366 net.cpp:84] Creating Layer fc7
I1223 13:21:39.810796 27366 net.cpp:413] fc7 <- fc6
I1223 13:21:39.810804 27366 net.cpp:387] fc7 -> fc7
I1223 13:21:40.085778 27366 net.cpp:127] Setting up fc7
I1223 13:21:40.085836 27366 net.cpp:136] Top shape: 256 4096 (1048576)
I1223 13:21:40.085842 27366 net.cpp:144] Memory required for data: 2120314880
I1223 13:21:40.085855 27366 net.cpp:453] Found INQ layer:fc7, type: INQInnerProduct, layer id:19
I1223 13:21:40.085863 27366 net.cpp:453] Found INQ layer:fc7, type: INQInnerProduct, layer id:19
I1223 13:21:40.085870 27366 net.cpp:453] Found INQ layer:fc7, type: INQInnerProduct, layer id:19
I1223 13:21:40.085875 27366 net.cpp:453] Found INQ layer:fc7, type: INQInnerProduct, layer id:19
I1223 13:21:40.085880 27366 layer_factory.hpp:77] Creating layer relu7
I1223 13:21:40.085921 27366 net.cpp:84] Creating Layer relu7
I1223 13:21:40.085953 27366 net.cpp:413] relu7 <- fc7
I1223 13:21:40.085963 27366 net.cpp:374] relu7 -> fc7 (in-place)
I1223 13:21:40.087576 27366 net.cpp:127] Setting up relu7
I1223 13:21:40.087594 27366 net.cpp:136] Top shape: 256 4096 (1048576)
I1223 13:21:40.087599 27366 net.cpp:144] Memory required for data: 2124509184
I1223 13:21:40.087605 27366 layer_factory.hpp:77] Creating layer drop7
I1223 13:21:40.087620 27366 net.cpp:84] Creating Layer drop7
I1223 13:21:40.087625 27366 net.cpp:413] drop7 <- fc7
I1223 13:21:40.087633 27366 net.cpp:374] drop7 -> fc7 (in-place)
I1223 13:21:40.087662 27366 net.cpp:127] Setting up drop7
I1223 13:21:40.087671 27366 net.cpp:136] Top shape: 256 4096 (1048576)
I1223 13:21:40.087676 27366 net.cpp:144] Memory required for data: 2128703488
I1223 13:21:40.087679 27366 layer_factory.hpp:77] Creating layer fc8
I1223 13:21:40.087693 27366 net.cpp:84] Creating Layer fc8
I1223 13:21:40.087698 27366 net.cpp:413] fc8 <- fc7
I1223 13:21:40.087707 27366 net.cpp:387] fc8 -> fc8
I1223 13:21:40.156026 27366 net.cpp:127] Setting up fc8
I1223 13:21:40.156060 27366 net.cpp:136] Top shape: 256 1000 (256000)
I1223 13:21:40.156066 27366 net.cpp:144] Memory required for data: 2129727488
I1223 13:21:40.156076 27366 net.cpp:453] Found INQ layer:fc8, type: INQInnerProduct, layer id:22
I1223 13:21:40.156085 27366 net.cpp:453] Found INQ layer:fc8, type: INQInnerProduct, layer id:22
I1223 13:21:40.156090 27366 net.cpp:453] Found INQ layer:fc8, type: INQInnerProduct, layer id:22
I1223 13:21:40.156096 27366 net.cpp:453] Found INQ layer:fc8, type: INQInnerProduct, layer id:22
…
I1223 13:21:40.159499 27366 net.cpp:301] The NetState phase (1) differed from the phase (0) specified by a rule in layer data
I1223 13:21:40.159878 27366 net.cpp:51] Initializing net from parameters: 
name: "AlexNet"
state {
  phase: TEST
}
layer {
  name: "data"
  type: "Data"
  top: "data"
  top: "label"
  include {
    phase: TEST
  }
  transform_param {
    mirror: false
    crop_size: 227
    mean_file: "/home/data/caffe-imagenet/imagenet_mean.binaryproto"
  }
  data_param {
    source: "/home/data/caffe-imagenet/ilsvrc12_val_lmdb"
    batch_size: 50
    backend: LMDB
  }
}
layer {
  name: "conv1"
  type: "INQConvolution"
  bottom: "data"
  top: "conv1"
  param {
    lr_mult: 1
    decay_mult: 1
  }
  param {
    lr_mult: 2
    decay_mult: 0
  }
  convolution_param {
    num_output: 96
    kernel_size: 11
    stride: 4
    weight_filler {
      type: "gaussian"
      std: 0.01
    }
    bias_filler {
      type: "constant"
      value: 0
    }
  }
  inq_convolution_param {
    portion: 0.7
    portion: 0.9
    weight_mask_filler {
      type: "constant"
      value: 1
    }
    bias_mask_filler {
      type: "constant"
      value: 1
    }
    num_quantum_values: 7
  }
}
layer {
  name: "relu1"
  type: "ReLU"
  bottom: "conv1"
  top: "conv1"
}
layer {
  name: "norm1"
  type: "LRN"
  bottom: "conv1"
  top: "norm1"
  lrn_param {
    local_size: 5
    alpha: 0.0001
    beta: 0.75
  }
}
layer {
  name: "pool1"
  type: "Pooling"
  bottom: "norm1"
  top: "pool1"
  pooling_param {
    pool: MAX
    kernel_size: 3
    stride: 2
  }
}
layer {
  name: "conv2"
  type: "INQConvolution"
  bottom: "pool1"
  top: "conv2"
  param {
    lr_mult: 1
    decay_mult: 1
  }
  param {
    lr_mult: 2
    decay_mult: 0
  }
  convolution_param {
    num_output: 256
    pad: 2
    kernel_size: 5
    group: 2
    weight_filler {
      type: "gaussian"
      std: 0.01
    }
    bias_filler {
      type: "constant"
      value: 0.1
    }
  }
  inq_convolution_param {
    portion: 0.7
    portion: 0.9
    weight_mask_filler {
      type: "constant"
      value: 1
    }
    bias_mask_filler {
      type: "constant"
      value: 1
    }
    num_quantum_values: 7
  }
}
layer {
  name: "relu2"
  type: "ReLU"
  bottom: "conv2"
  top: "conv2"
}
layer {
  name: "norm2"
  type: "LRN"
  bottom: "conv2"
  top: "norm2"
  lrn_param {
    local_size: 5
    alpha: 0.0001
    beta: 0.75
  }
}
layer {
  name: "pool2"
  type: "Pooling"
  bottom: "norm2"
  top: "pool2"
  pooling_param {
    pool: MAX
    kernel_size: 3
    stride: 2
  }
}
layer {
  name: "conv3"
  type: "INQConvolution"
  bottom: "pool2"
  top: "conv3"
  param {
    lr_mult: 1
    decay_mult: 1
  }
  param {
    lr_mult: 2
    decay_mult: 0
  }
  convolution_param {
    num_output: 384
    pad: 1
    kernel_size: 3
    weight_filler {
      type: "gaussian"
      std: 0.01
    }
    bias_filler {
      type: "constant"
      value: 0
    }
  }
  inq_convolution_param {
    portion: 0.7
    portion: 0.9
    weight_mask_filler {
      type: "constant"
      value: 1
    }
    bias_mask_filler {
      type: "constant"
      value: 1
    }
    num_quantum_values: 7
  }
}
layer {
  name: "relu3"
  type: "ReLU"
  bottom: "conv3"
  top: "conv3"
}
layer {
  name: "conv4"
  type: "INQConvolution"
  bottom: "conv3"
  top: "conv4"
  param {
    lr_mult: 1
    decay_mult: 1
  }
  param {
    lr_mult: 2
    decay_mult: 0
  }
  convolution_param {
    num_output: 384
    pad: 1
    kernel_size: 3
    group: 2
    weight_filler {
      type: "gaussian"
      std: 0.01
    }
    bias_filler {
      type: "constant"
      value: 0.1
    }
  }
  inq_convolution_param {
    portion: 0.7
    portion: 0.9
    weight_mask_filler {
      type: "constant"
      value: 1
    }
    bias_mask_filler {
      type: "constant"
      value: 1
    }
    num_quantum_values: 7
  }
}
layer {
  name: "relu4"
  type: "ReLU"
  bottom: "conv4"
  top: "conv4"
}
layer {
  name: "conv5"
  type: "INQConvolution"
  bottom: "conv4"
  top: "conv5"
  param {
    lr_mult: 1
    decay_mult: 1
  }
  param {
    lr_mult: 2
    decay_mult: 0
  }
  convolution_param {
    num_output: 256
    pad: 1
    kernel_size: 3
    group: 2
    weight_filler {
      type: "gaussian"
      std: 0.01
    }
    bias_filler {
      type: "constant"
      value: 0.1
    }
  }
  inq_convolution_param {
    portion: 0.7
    portion: 0.9
    weight_mask_filler {
      type: "constant"
      value: 1
    }
    bias_mask_filler {
      type: "constant"
      value: 1
    }
    num_quantum_values: 7
  }
}
layer {
  name: "relu5"
  type: "ReLU"
  bottom: "conv5"
  top: "conv5"
}
layer {
  name: "pool5"
  type: "Pooling"
  bottom: "conv5"
  top: "pool5"
  pooling_param {
    pool: MAX
    kernel_size: 3
    stride: 2
  }
}
layer {
  name: "fc6"
  type: "INQInnerProduct"
  bottom: "pool5"
  top: "fc6"
  param {
    lr_mult: 1
    decay_mult: 1
  }
  param {
    lr_mult: 2
    decay_mult: 0
  }
  inner_product_param {
    num_output: 4096
    weight_filler {
      type: "gaussian"
      std: 0.005
    }
    bias_filler {
      type: "constant"
      value: 0.1
    }
  }
  inq_inner_product_param {
    portion: 0.7
    portion: 0.9
    weight_mask_filler {
      type: "constant"
      value: 1
    }
    bias_mask_filler {
      type: "constant"
      value: 1
    }
    num_quantum_values: 7
  }
}
layer {
  name: "relu6"
  type: "ReLU"
  bottom: "fc6"
  top: "fc6"
}
layer {
  name: "drop6"
  type: "Dropout"
  bottom: "fc6"
  top: "fc6"
  dropout_param {
    dropout_ratio: 0.5
  }
}
layer {
  name: "fc7"
  type: "INQInnerProduct"
  bottom: "fc6"
  top: "fc7"
  param {
    lr_mult: 1
    decay_mult: 1
  }
  param {
    lr_mult: 2
    decay_mult: 0
  }
  inner_product_param {
    num_output: 4096
    weight_filler {
      type: "gaussian"
      std: 0.005
    }
    bias_filler {
      type: "constant"
      value: 0.1
    }
  }
  inq_inner_product_param {
    portion: 0.7
    portion: 0.9
    weight_mask_filler {
      type: "constant"
      value: 1
    }
    bias_mask_filler {
      type: "constant"
      value: 1
    }
    num_quantum_values: 7
  }
}
layer {
  name: "relu7"
  type: "ReLU"
  bottom: "fc7"
  top: "fc7"
}
layer {
  name: "drop7"
  type: "Dropout"
  bottom: "fc7"
  top: "fc7"
  dropout_param {
    dropout_ratio: 0.5
  }
}
layer {
  name: "fc8"
  type: "INQInnerProduct"
  bottom: "fc7"
  top: "fc8"
  param {
    lr_mult: 1
    decay_mult: 1
  }
  param {
    lr_mult: 2
    decay_mult: 0
  }
  inner_product_param {
    num_output: 1000
    weight_filler {
      type: "gaussian"
      std: 0.01
    }
    bias_filler {
      type: "constant"
      value: 0
    }
  }
  inq_inner_product_param {
    portion: 0.7
    portion: 0.9
    weight_mask_filler {
      type: "constant"
      value: 1
    }
    bias_mask_filler {
      type: "constant"
      value: 1
    }
    num_quantum_values: 7
  }
}
layer {
  name: "accuracy_top1"
  type: "Accuracy"
  bottom: "fc8"
  bottom: "label"
  top: "accuracy_top1"
  include {
    phase: TEST
  }
  accuracy_param {
    top_k: 1
  }
}
layer {
  name: "accuracy_top5"
  type: "Accuracy"
  bottom: "fc8"
  bottom: "label"
  top: "accuracy_top5"
  include {
    phase: TEST
  }
  accuracy_param {
    top_k: 5
  }
}
layer {
  name: "loss"
  type: "SoftmaxWithLoss"
  bottom: "fc8"
  bottom: "label"
  top: "loss"
}
I1223 13:21:40.160038 27366 layer_factory.hpp:77] Creating layer data
I1223 13:21:40.160116 27366 db_lmdb.cpp:35] Opened lmdb /home/data/caffe-imagenet/ilsvrc12_val_lmdb
I1223 13:21:40.160137 27366 net.cpp:84] Creating Layer data
I1223 13:21:40.160145 27366 net.cpp:387] data -> data
I1223 13:21:40.160157 27366 net.cpp:387] data -> label
I1223 13:21:40.160167 27366 data_transformer.cpp:25] Loading mean file from: /home/data/caffe-imagenet/imagenet_mean.binaryproto
I1223 13:21:40.161998 27366 data_layer.cpp:45] output data size: 50,3,227,227
I1223 13:21:40.250190 27366 net.cpp:127] Setting up data
I1223 13:21:40.250246 27366 net.cpp:136] Top shape: 50 3 227 227 (7729350)
I1223 13:21:40.250282 27366 net.cpp:136] Top shape: 50 (50)
I1223 13:21:40.250294 27366 net.cpp:144] Memory required for data: 30917600
I1223 13:21:40.250303 27366 layer_factory.hpp:77] Creating layer label_data_1_split
I1223 13:21:40.250326 27366 net.cpp:84] Creating Layer label_data_1_split
I1223 13:21:40.250332 27366 net.cpp:413] label_data_1_split <- label
I1223 13:21:40.250342 27366 net.cpp:387] label_data_1_split -> label_data_1_split_0
I1223 13:21:40.250355 27366 net.cpp:387] label_data_1_split -> label_data_1_split_1
I1223 13:21:40.250363 27366 net.cpp:387] label_data_1_split -> label_data_1_split_2
I1223 13:21:40.250494 27366 net.cpp:127] Setting up label_data_1_split
I1223 13:21:40.250504 27366 net.cpp:136] Top shape: 50 (50)
I1223 13:21:40.250509 27366 net.cpp:136] Top shape: 50 (50)
I1223 13:21:40.250514 27366 net.cpp:136] Top shape: 50 (50)
I1223 13:21:40.250519 27366 net.cpp:144] Memory required for data: 30918200
I1223 13:21:40.250524 27366 layer_factory.hpp:77] Creating layer conv1
I1223 13:21:40.250540 27366 net.cpp:84] Creating Layer conv1
I1223 13:21:40.250545 27366 net.cpp:413] conv1 <- data
I1223 13:21:40.250555 27366 net.cpp:387] conv1 -> conv1
I1223 13:21:40.251477 27366 net.cpp:127] Setting up conv1
I1223 13:21:40.251488 27366 net.cpp:136] Top shape: 50 96 55 55 (14520000)
I1223 13:21:40.251493 27366 net.cpp:144] Memory required for data: 88998200
I1223 13:21:40.251502 27366 net.cpp:453] Found INQ layer:conv1, type: INQConvolution, layer id:2
I1223 13:21:40.251513 27366 net.cpp:453] Found INQ layer:conv1, type: INQConvolution, layer id:2
I1223 13:21:40.251521 27366 net.cpp:453] Found INQ layer:conv1, type: INQConvolution, layer id:2
I1223 13:21:40.251528 27366 net.cpp:453] Found INQ layer:conv1, type: INQConvolution, layer id:2
I1223 13:21:40.251533 27366 layer_factory.hpp:77] Creating layer relu1
I1223 13:21:40.251543 27366 net.cpp:84] Creating Layer relu1
I1223 13:21:40.251549 27366 net.cpp:413] relu1 <- conv1
I1223 13:21:40.251555 27366 net.cpp:374] relu1 -> conv1 (in-place)
I1223 13:21:40.251813 27366 net.cpp:127] Setting up relu1
I1223 13:21:40.251823 27366 net.cpp:136] Top shape: 50 96 55 55 (14520000)
I1223 13:21:40.251828 27366 net.cpp:144] Memory required for data: 147078200
I1223 13:21:40.251833 27366 layer_factory.hpp:77] Creating layer norm1
I1223 13:21:40.251844 27366 net.cpp:84] Creating Layer norm1
I1223 13:21:40.251849 27366 net.cpp:413] norm1 <- conv1
I1223 13:21:40.251857 27366 net.cpp:387] norm1 -> norm1
I1223 13:21:40.252102 27366 net.cpp:127] Setting up norm1
I1223 13:21:40.252112 27366 net.cpp:136] Top shape: 50 96 55 55 (14520000)
I1223 13:21:40.252117 27366 net.cpp:144] Memory required for data: 205158200
I1223 13:21:40.252122 27366 layer_factory.hpp:77] Creating layer pool1
I1223 13:21:40.252131 27366 net.cpp:84] Creating Layer pool1
I1223 13:21:40.252136 27366 net.cpp:413] pool1 <- norm1
I1223 13:21:40.252144 27366 net.cpp:387] pool1 -> pool1
I1223 13:21:40.252190 27366 net.cpp:127] Setting up pool1
I1223 13:21:40.252198 27366 net.cpp:136] Top shape: 50 96 27 27 (3499200)
I1223 13:21:40.252203 27366 net.cpp:144] Memory required for data: 219155000
I1223 13:21:40.252208 27366 layer_factory.hpp:77] Creating layer conv2
I1223 13:21:40.252219 27366 net.cpp:84] Creating Layer conv2
I1223 13:21:40.252224 27366 net.cpp:413] conv2 <- pool1
I1223 13:21:40.252233 27366 net.cpp:387] conv2 -> conv2
I1223 13:21:40.259235 27366 net.cpp:127] Setting up conv2
I1223 13:21:40.259254 27366 net.cpp:136] Top shape: 50 256 27 27 (9331200)
I1223 13:21:40.259259 27366 net.cpp:144] Memory required for data: 256479800
I1223 13:21:40.259269 27366 net.cpp:453] Found INQ layer:conv2, type: INQConvolution, layer id:6
I1223 13:21:40.259279 27366 net.cpp:453] Found INQ layer:conv2, type: INQConvolution, layer id:6
I1223 13:21:40.259292 27366 net.cpp:453] Found INQ layer:conv2, type: INQConvolution, layer id:6
I1223 13:21:40.259299 27366 net.cpp:453] Found INQ layer:conv2, type: INQConvolution, layer id:6
I1223 13:21:40.259310 27366 layer_factory.hpp:77] Creating layer relu2
I1223 13:21:40.259331 27366 net.cpp:84] Creating Layer relu2
I1223 13:21:40.259337 27366 net.cpp:413] relu2 <- conv2
I1223 13:21:40.259344 27366 net.cpp:374] relu2 -> conv2 (in-place)
I1223 13:21:40.260757 27366 net.cpp:127] Setting up relu2
I1223 13:21:40.260774 27366 net.cpp:136] Top shape: 50 256 27 27 (9331200)
I1223 13:21:40.260781 27366 net.cpp:144] Memory required for data: 293804600
I1223 13:21:40.260785 27366 layer_factory.hpp:77] Creating layer norm2
I1223 13:21:40.260797 27366 net.cpp:84] Creating Layer norm2
I1223 13:21:40.260802 27366 net.cpp:413] norm2 <- conv2
I1223 13:21:40.260810 27366 net.cpp:387] norm2 -> norm2
I1223 13:21:40.261045 27366 net.cpp:127] Setting up norm2
I1223 13:21:40.261055 27366 net.cpp:136] Top shape: 50 256 27 27 (9331200)
I1223 13:21:40.261060 27366 net.cpp:144] Memory required for data: 331129400
I1223 13:21:40.261065 27366 layer_factory.hpp:77] Creating layer pool2
I1223 13:21:40.261075 27366 net.cpp:84] Creating Layer pool2
I1223 13:21:40.261080 27366 net.cpp:413] pool2 <- norm2
I1223 13:21:40.261086 27366 net.cpp:387] pool2 -> pool2
I1223 13:21:40.261128 27366 net.cpp:127] Setting up pool2
I1223 13:21:40.261135 27366 net.cpp:136] Top shape: 50 256 13 13 (2163200)
I1223 13:21:40.261140 27366 net.cpp:144] Memory required for data: 339782200
I1223 13:21:40.261145 27366 layer_factory.hpp:77] Creating layer conv3
I1223 13:21:40.261157 27366 net.cpp:84] Creating Layer conv3
I1223 13:21:40.261162 27366 net.cpp:413] conv3 <- pool2
I1223 13:21:40.261170 27366 net.cpp:387] conv3 -> conv3
I1223 13:21:40.276986 27366 net.cpp:127] Setting up conv3
I1223 13:21:40.277004 27366 net.cpp:136] Top shape: 50 384 13 13 (3244800)
I1223 13:21:40.277010 27366 net.cpp:144] Memory required for data: 352761400
I1223 13:21:40.277020 27366 net.cpp:453] Found INQ layer:conv3, type: INQConvolution, layer id:10
I1223 13:21:40.277029 27366 net.cpp:453] Found INQ layer:conv3, type: INQConvolution, layer id:10
I1223 13:21:40.277035 27366 net.cpp:453] Found INQ layer:conv3, type: INQConvolution, layer id:10
I1223 13:21:40.277041 27366 net.cpp:453] Found INQ layer:conv3, type: INQConvolution, layer id:10
I1223 13:21:40.277046 27366 layer_factory.hpp:77] Creating layer relu3
I1223 13:21:40.277055 27366 net.cpp:84] Creating Layer relu3
I1223 13:21:40.277060 27366 net.cpp:413] relu3 <- conv3
I1223 13:21:40.277068 27366 net.cpp:374] relu3 -> conv3 (in-place)
I1223 13:21:40.277295 27366 net.cpp:127] Setting up relu3
I1223 13:21:40.277307 27366 net.cpp:136] Top shape: 50 384 13 13 (3244800)
I1223 13:21:40.277312 27366 net.cpp:144] Memory required for data: 365740600
I1223 13:21:40.277317 27366 layer_factory.hpp:77] Creating layer conv4
I1223 13:21:40.277328 27366 net.cpp:84] Creating Layer conv4
I1223 13:21:40.277333 27366 net.cpp:413] conv4 <- conv3
I1223 13:21:40.277343 27366 net.cpp:387] conv4 -> conv4
I1223 13:21:40.289486 27366 net.cpp:127] Setting up conv4
I1223 13:21:40.289505 27366 net.cpp:136] Top shape: 50 384 13 13 (3244800)
I1223 13:21:40.289511 27366 net.cpp:144] Memory required for data: 378719800
I1223 13:21:40.289518 27366 net.cpp:453] Found INQ layer:conv4, type: INQConvolution, layer id:12
I1223 13:21:40.289525 27366 net.cpp:453] Found INQ layer:conv4, type: INQConvolution, layer id:12
I1223 13:21:40.289531 27366 net.cpp:453] Found INQ layer:conv4, type: INQConvolution, layer id:12
I1223 13:21:40.289536 27366 net.cpp:453] Found INQ layer:conv4, type: INQConvolution, layer id:12
I1223 13:21:40.289541 27366 layer_factory.hpp:77] Creating layer relu4
I1223 13:21:40.289549 27366 net.cpp:84] Creating Layer relu4
I1223 13:21:40.289554 27366 net.cpp:413] relu4 <- conv4
I1223 13:21:40.289562 27366 net.cpp:374] relu4 -> conv4 (in-place)
I1223 13:21:40.290998 27366 net.cpp:127] Setting up relu4
I1223 13:21:40.291015 27366 net.cpp:136] Top shape: 50 384 13 13 (3244800)
I1223 13:21:40.291020 27366 net.cpp:144] Memory required for data: 391699000
I1223 13:21:40.291026 27366 layer_factory.hpp:77] Creating layer conv5
I1223 13:21:40.291038 27366 net.cpp:84] Creating Layer conv5
I1223 13:21:40.291050 27366 net.cpp:413] conv5 <- conv4
I1223 13:21:40.291072 27366 net.cpp:387] conv5 -> conv5
I1223 13:21:40.299932 27366 net.cpp:127] Setting up conv5
I1223 13:21:40.299952 27366 net.cpp:136] Top shape: 50 256 13 13 (2163200)
I1223 13:21:40.299957 27366 net.cpp:144] Memory required for data: 400351800
I1223 13:21:40.299968 27366 net.cpp:453] Found INQ layer:conv5, type: INQConvolution, layer id:14
I1223 13:21:40.299978 27366 net.cpp:453] Found INQ layer:conv5, type: INQConvolution, layer id:14
I1223 13:21:40.299984 27366 net.cpp:453] Found INQ layer:conv5, type: INQConvolution, layer id:14
I1223 13:21:40.299990 27366 net.cpp:453] Found INQ layer:conv5, type: INQConvolution, layer id:14
I1223 13:21:40.299995 27366 layer_factory.hpp:77] Creating layer relu5
I1223 13:21:40.300004 27366 net.cpp:84] Creating Layer relu5
I1223 13:21:40.300009 27366 net.cpp:413] relu5 <- conv5
I1223 13:21:40.300016 27366 net.cpp:374] relu5 -> conv5 (in-place)
I1223 13:21:40.300237 27366 net.cpp:127] Setting up relu5
I1223 13:21:40.300248 27366 net.cpp:136] Top shape: 50 256 13 13 (2163200)
I1223 13:21:40.300253 27366 net.cpp:144] Memory required for data: 409004600
I1223 13:21:40.300258 27366 layer_factory.hpp:77] Creating layer pool5
I1223 13:21:40.300269 27366 net.cpp:84] Creating Layer pool5
I1223 13:21:40.300274 27366 net.cpp:413] pool5 <- conv5
I1223 13:21:40.300282 27366 net.cpp:387] pool5 -> pool5
I1223 13:21:40.300343 27366 net.cpp:127] Setting up pool5
I1223 13:21:40.300349 27366 net.cpp:136] Top shape: 50 256 6 6 (460800)
I1223 13:21:40.300354 27366 net.cpp:144] Memory required for data: 410847800
I1223 13:21:40.300359 27366 layer_factory.hpp:77] Creating layer fc6
I1223 13:21:40.300371 27366 net.cpp:84] Creating Layer fc6
I1223 13:21:40.300376 27366 net.cpp:413] fc6 <- pool5
I1223 13:21:40.300384 27366 net.cpp:387] fc6 -> fc6
I1223 13:21:40.915581 27366 net.cpp:127] Setting up fc6
I1223 13:21:40.915634 27366 net.cpp:136] Top shape: 50 4096 (204800)
I1223 13:21:40.915640 27366 net.cpp:144] Memory required for data: 411667000
I1223 13:21:40.915652 27366 net.cpp:453] Found INQ layer:fc6, type: INQInnerProduct, layer id:17
I1223 13:21:40.915662 27366 net.cpp:453] Found INQ layer:fc6, type: INQInnerProduct, layer id:17
I1223 13:21:40.915669 27366 net.cpp:453] Found INQ layer:fc6, type: INQInnerProduct, layer id:17
I1223 13:21:40.915674 27366 net.cpp:453] Found INQ layer:fc6, type: INQInnerProduct, layer id:17
I1223 13:21:40.915679 27366 layer_factory.hpp:77] Creating layer relu6
I1223 13:21:40.915693 27366 net.cpp:84] Creating Layer relu6
I1223 13:21:40.915700 27366 net.cpp:413] relu6 <- fc6
I1223 13:21:40.915709 27366 net.cpp:374] relu6 -> fc6 (in-place)
I1223 13:21:40.915999 27366 net.cpp:127] Setting up relu6
I1223 13:21:40.916010 27366 net.cpp:136] Top shape: 50 4096 (204800)
I1223 13:21:40.916015 27366 net.cpp:144] Memory required for data: 412486200
I1223 13:21:40.916020 27366 layer_factory.hpp:77] Creating layer drop6
I1223 13:21:40.916030 27366 net.cpp:84] Creating Layer drop6
I1223 13:21:40.916035 27366 net.cpp:413] drop6 <- fc6
I1223 13:21:40.916043 27366 net.cpp:374] drop6 -> fc6 (in-place)
I1223 13:21:40.916079 27366 net.cpp:127] Setting up drop6
I1223 13:21:40.916086 27366 net.cpp:136] Top shape: 50 4096 (204800)
I1223 13:21:40.916091 27366 net.cpp:144] Memory required for data: 413305400
I1223 13:21:40.916096 27366 layer_factory.hpp:77] Creating layer fc7
I1223 13:21:40.916110 27366 net.cpp:84] Creating Layer fc7
I1223 13:21:40.916115 27366 net.cpp:413] fc7 <- fc6
I1223 13:21:40.916123 27366 net.cpp:387] fc7 -> fc7
I1223 13:21:41.193120 27366 net.cpp:127] Setting up fc7
I1223 13:21:41.193174 27366 net.cpp:136] Top shape: 50 4096 (204800)
I1223 13:21:41.193181 27366 net.cpp:144] Memory required for data: 414124600
I1223 13:21:41.193195 27366 net.cpp:453] Found INQ layer:fc7, type: INQInnerProduct, layer id:20
I1223 13:21:41.193203 27366 net.cpp:453] Found INQ layer:fc7, type: INQInnerProduct, layer id:20
I1223 13:21:41.193210 27366 net.cpp:453] Found INQ layer:fc7, type: INQInnerProduct, layer id:20
I1223 13:21:41.193231 27366 net.cpp:453] Found INQ layer:fc7, type: INQInnerProduct, layer id:20
I1223 13:21:41.193264 27366 layer_factory.hpp:77] Creating layer relu7
I1223 13:21:41.193279 27366 net.cpp:84] Creating Layer relu7
I1223 13:21:41.193295 27366 net.cpp:413] relu7 <- fc7
I1223 13:21:41.193306 27366 net.cpp:374] relu7 -> fc7 (in-place)
I1223 13:21:41.193706 27366 net.cpp:127] Setting up relu7
I1223 13:21:41.193717 27366 net.cpp:136] Top shape: 50 4096 (204800)
I1223 13:21:41.193722 27366 net.cpp:144] Memory required for data: 414943800
I1223 13:21:41.193727 27366 layer_factory.hpp:77] Creating layer drop7
I1223 13:21:41.193738 27366 net.cpp:84] Creating Layer drop7
I1223 13:21:41.193743 27366 net.cpp:413] drop7 <- fc7
I1223 13:21:41.193753 27366 net.cpp:374] drop7 -> fc7 (in-place)
I1223 13:21:41.193792 27366 net.cpp:127] Setting up drop7
I1223 13:21:41.193799 27366 net.cpp:136] Top shape: 50 4096 (204800)
I1223 13:21:41.193804 27366 net.cpp:144] Memory required for data: 415763000
I1223 13:21:41.193809 27366 layer_factory.hpp:77] Creating layer fc8
I1223 13:21:41.193823 27366 net.cpp:84] Creating Layer fc8
I1223 13:21:41.193828 27366 net.cpp:413] fc8 <- fc7
I1223 13:21:41.193838 27366 net.cpp:387] fc8 -> fc8
I1223 13:21:41.262452 27366 net.cpp:127] Setting up fc8
I1223 13:21:41.262488 27366 net.cpp:136] Top shape: 50 1000 (50000)
I1223 13:21:41.262495 27366 net.cpp:144] Memory required for data: 415963000
I1223 13:21:41.262503 27366 net.cpp:453] Found INQ layer:fc8, type: INQInnerProduct, layer id:23
I1223 13:21:41.262511 27366 net.cpp:453] Found INQ layer:fc8, type: INQInnerProduct, layer id:23
I1223 13:21:41.262518 27366 net.cpp:453] Found INQ layer:fc8, type: INQInnerProduct, layer id:23
I1223 13:21:41.262523 27366 net.cpp:453] Found INQ layer:fc8, type: INQInnerProduct, layer id:23
I1223 13:21:41.262528 27366 layer_factory.hpp:77] Creating layer fc8_fc8_0_split
I1223 13:21:41.262542 27366 net.cpp:84] Creating Layer fc8_fc8_0_split
I1223 13:21:41.262549 27366 net.cpp:413] fc8_fc8_0_split <- fc8
I1223 13:21:41.262558 27366 net.cpp:387] fc8_fc8_0_split -> fc8_fc8_0_split_0
I1223 13:21:41.262570 27366 net.cpp:387] fc8_fc8_0_split -> fc8_fc8_0_split_1
I1223 13:21:41.262578 27366 net.cpp:387] fc8_fc8_0_split -> fc8_fc8_0_split_2
I1223 13:21:41.262645 27366 net.cpp:127] Setting up fc8_fc8_0_split
I1223 13:21:41.262653 27366 net.cpp:136] Top shape: 50 1000 (50000)
I1223 13:21:41.262660 27366 net.cpp:136] Top shape: 50 1000 (50000)
I1223 13:21:41.262665 27366 net.cpp:136] Top shape: 50 1000 (50000)
I1223 13:21:41.262668 27366 net.cpp:144] Memory required for data: 416563000
I1223 13:21:41.262673 27366 layer_factory.hpp:77] Creating layer accuracy_top1
I1223 13:21:41.262691 27366 net.cpp:84] Creating Layer accuracy_top1
I1223 13:21:41.262696 27366 net.cpp:413] accuracy_top1 <- fc8_fc8_0_split_0
I1223 13:21:41.262702 27366 net.cpp:413] accuracy_top1 <- label_data_1_split_0
I1223 13:21:41.262711 27366 net.cpp:387] accuracy_top1 -> accuracy_top1
…
