…
I1218 07:49:57.184106  3616 net.cpp:301] The NetState phase (0) differed from the phase (1) specified by a rule in layer accuracy_top5
I1218 07:49:57.184535  3616 net.cpp:51] Initializing net from parameters: 
name: "AlexNet"
state {
  phase: TRAIN
  level: 0
  stage: ""
}
layer {
  name: "data"
  type: "Data"
  top: "data"
  top: "label"
  include {
    phase: TRAIN
  }
  transform_param {
    mirror: true
    crop_size: 227
    mean_file: "/home/data/caffe-imagenet/imagenet_mean.binaryproto"
  }
  data_param {
    source: "/home/data/caffe-imagenet/ilsvrc12_train_lmdb"
    batch_size: 256
    backend: LMDB
  }
}
layer {
  name: "conv1"
  type: "INQConvolution"
  bottom: "data"
  top: "conv1"
  param {
    lr_mult: 1
    decay_mult: 1
  }
  param {
    lr_mult: 2
    decay_mult: 0
  }
  convolution_param {
    num_output: 96
    kernel_size: 11
    stride: 4
    weight_filler {
      type: "gaussian"
      std: 0.01
    }
    bias_filler {
      type: "constant"
      value: 0
    }
  }
  inq_convolution_param {
    portion: 0
    portion: 0.3
    weight_mask_filler {
      type: "constant"
      value: 1
    }
    bias_mask_filler {
      type: "constant"
      value: 1
    }
    num_quantum_values: 8
  }
}
layer {
  name: "relu1"
  type: "ReLU"
  bottom: "conv1"
  top: "conv1"
}
layer {
  name: "norm1"
  type: "LRN"
  bottom: "conv1"
  top: "norm1"
  lrn_param {
    local_size: 5
    alpha: 0.0001
    beta: 0.75
  }
}
layer {
  name: "pool1"
  type: "Pooling"
  bottom: "norm1"
  top: "pool1"
  pooling_param {
    pool: MAX
    kernel_size: 3
    stride: 2
  }
}
layer {
  name: "conv2"
  type: "INQConvolution"
  bottom: "pool1"
  top: "conv2"
  param {
    lr_mult: 1
    decay_mult: 1
  }
  param {
    lr_mult: 2
    decay_mult: 0
  }
  convolution_param {
    num_output: 256
    pad: 2
    kernel_size: 5
    group: 2
    weight_filler {
      type: "gaussian"
      std: 0.01
    }
    bias_filler {
      type: "constant"
      value: 0.1
    }
  }
  inq_convolution_param {
    portion: 0
    portion: 0.3
    weight_mask_filler {
      type: "constant"
      value: 1
    }
    bias_mask_filler {
      type: "constant"
      value: 1
    }
    num_quantum_values: 8
  }
}
layer {
  name: "relu2"
  type: "ReLU"
  bottom: "conv2"
  top: "conv2"
}
layer {
  name: "norm2"
  type: "LRN"
  bottom: "conv2"
  top: "norm2"
  lrn_param {
    local_size: 5
    alpha: 0.0001
    beta: 0.75
  }
}
layer {
  name: "pool2"
  type: "Pooling"
  bottom: "norm2"
  top: "pool2"
  pooling_param {
    pool: MAX
    kernel_size: 3
    stride: 2
  }
}
layer {
  name: "conv3"
  type: "INQConvolution"
  bottom: "pool2"
  top: "conv3"
  param {
    lr_mult: 1
    decay_mult: 1
  }
  param {
    lr_mult: 2
    decay_mult: 0
  }
  convolution_param {
    num_output: 384
    pad: 1
    kernel_size: 3
    weight_filler {
      type: "gaussian"
      std: 0.01
    }
    bias_filler {
      type: "constant"
      value: 0
    }
  }
  inq_convolution_param {
    portion: 0
    portion: 0.3
    weight_mask_filler {
      type: "constant"
      value: 1
    }
    bias_mask_filler {
      type: "constant"
      value: 1
    }
    num_quantum_values: 8
  }
}
layer {
  name: "relu3"
  type: "ReLU"
  bottom: "conv3"
  top: "conv3"
}
layer {
  name: "conv4"
  type: "INQConvolution"
  bottom: "conv3"
  top: "conv4"
  param {
    lr_mult: 1
    decay_mult: 1
  }
  param {
    lr_mult: 2
    decay_mult: 0
  }
  convolution_param {
    num_output: 384
    pad: 1
    kernel_size: 3
    group: 2
    weight_filler {
      type: "gaussian"
      std: 0.01
    }
    bias_filler {
      type: "constant"
      value: 0.1
    }
  }
  inq_convolution_param {
    portion: 0
    portion: 0.3
    weight_mask_filler {
      type: "constant"
      value: 1
    }
    bias_mask_filler {
      type: "constant"
      value: 1
    }
    num_quantum_values: 8
  }
}
layer {
  name: "relu4"
  type: "ReLU"
  bottom: "conv4"
  top: "conv4"
}
layer {
  name: "conv5"
  type: "INQConvolution"
  bottom: "conv4"
  top: "conv5"
  param {
    lr_mult: 1
    decay_mult: 1
  }
  param {
    lr_mult: 2
    decay_mult: 0
  }
  convolution_param {
    num_output: 256
    pad: 1
    kernel_size: 3
    group: 2
    weight_filler {
      type: "gaussian"
      std: 0.01
    }
    bias_filler {
      type: "constant"
      value: 0.1
    }
  }
  inq_convolution_param {
    portion: 0
    portion: 0.3
    weight_mask_filler {
      type: "constant"
      value: 1
    }
    bias_mask_filler {
      type: "constant"
      value: 1
    }
    num_quantum_values: 8
  }
}
layer {
  name: "relu5"
  type: "ReLU"
  bottom: "conv5"
  top: "conv5"
}
layer {
  name: "pool5"
  type: "Pooling"
  bottom: "conv5"
  top: "pool5"
  pooling_param {
    pool: MAX
    kernel_size: 3
    stride: 2
  }
}
layer {
  name: "fc6"
  type: "INQInnerProduct"
  bottom: "pool5"
  top: "fc6"
  param {
    lr_mult: 1
    decay_mult: 1
  }
  param {
    lr_mult: 2
    decay_mult: 0
  }
  inner_product_param {
    num_output: 4096
    weight_filler {
      type: "gaussian"
      std: 0.005
    }
    bias_filler {
      type: "constant"
      value: 0.1
    }
  }
  inq_inner_product_param {
    portion: 0
    portion: 0.3
    weight_mask_filler {
      type: "constant"
      value: 1
    }
    bias_mask_filler {
      type: "constant"
      value: 1
    }
    num_quantum_values: 8
  }
}
layer {
  name: "relu6"
  type: "ReLU"
  bottom: "fc6"
  top: "fc6"
}
layer {
  name: "drop6"
  type: "Dropout"
  bottom: "fc6"
  top: "fc6"
  dropout_param {
    dropout_ratio: 0.5
  }
}
layer {
  name: "fc7"
  type: "INQInnerProduct"
  bottom: "fc6"
  top: "fc7"
  param {
    lr_mult: 1
    decay_mult: 1
  }
  param {
    lr_mult: 2
    decay_mult: 0
  }
  inner_product_param {
    num_output: 4096
    weight_filler {
      type: "gaussian"
      std: 0.005
    }
    bias_filler {
      type: "constant"
      value: 0.1
    }
  }
  inq_inner_product_param {
    portion: 0
    portion: 0.3
    weight_mask_filler {
      type: "constant"
      value: 1
    }
    bias_mask_filler {
      type: "constant"
      value: 1
    }
    num_quantum_values: 8
  }
}
layer {
  name: "relu7"
  type: "ReLU"
  bottom: "fc7"
  top: "fc7"
}
layer {
  name: "drop7"
  type: "Dropout"
  bottom: "fc7"
  top: "fc7"
  dropout_param {
    dropout_ratio: 0.5
  }
}
layer {
  name: "fc8"
  type: "INQInnerProduct"
  bottom: "fc7"
  top: "fc8"
  param {
    lr_mult: 1
    decay_mult: 1
  }
  param {
    lr_mult: 2
    decay_mult: 0
  }
  inner_product_param {
    num_output: 1000
    weight_filler {
      type: "gaussian"
      std: 0.01
    }
    bias_filler {
      type: "constant"
      value: 0
    }
  }
  inq_inner_product_param {
    portion: 0
    portion: 0.3
    weight_mask_filler {
      type: "constant"
      value: 1
    }
    bias_mask_filler {
      type: "constant"
      value: 1
    }
    num_quantum_values: 8
  }
}
layer {
  name: "loss"
  type: "SoftmaxWithLoss"
  bottom: "fc8"
  bottom: "label"
  top: "loss"
}
I1218 07:49:57.184705  3616 layer_factory.hpp:77] Creating layer data
I1218 07:49:57.184841  3616 db_lmdb.cpp:35] Opened lmdb /home/data/caffe-imagenet/ilsvrc12_train_lmdb
I1218 07:49:57.184891  3616 net.cpp:84] Creating Layer data
I1218 07:49:57.184901  3616 net.cpp:387] data -> data
I1218 07:49:57.184929  3616 net.cpp:387] data -> label
I1218 07:49:57.184947  3616 data_transformer.cpp:25] Loading mean file from: /home/data/caffe-imagenet/imagenet_mean.binaryproto
I1218 07:49:57.189973  3616 data_layer.cpp:45] output data size: 256,3,227,227
I1218 07:49:57.572845  3616 net.cpp:127] Setting up data
I1218 07:49:57.572882  3616 net.cpp:136] Top shape: 256 3 227 227 (39574272)
I1218 07:49:57.572890  3616 net.cpp:136] Top shape: 256 (256)
I1218 07:49:57.572893  3616 net.cpp:144] Memory required for data: 158298112
I1218 07:49:57.572906  3616 layer_factory.hpp:77] Creating layer conv1
I1218 07:49:57.572932  3616 net.cpp:84] Creating Layer conv1
I1218 07:49:57.572939  3616 net.cpp:413] conv1 <- data
I1218 07:49:57.572958  3616 net.cpp:387] conv1 -> conv1
I1218 07:49:57.576721  3616 net.cpp:127] Setting up conv1
I1218 07:49:57.576737  3616 net.cpp:136] Top shape: 256 96 55 55 (74342400)
I1218 07:49:57.576742  3616 net.cpp:144] Memory required for data: 455667712
I1218 07:49:57.576781  3616 net.cpp:453] Found INQ layer:conv1, type: INQConvolution, layer id:1
I1218 07:49:57.576794  3616 net.cpp:453] Found INQ layer:conv1, type: INQConvolution, layer id:1
I1218 07:49:57.576802  3616 net.cpp:453] Found INQ layer:conv1, type: INQConvolution, layer id:1
I1218 07:49:57.576809  3616 net.cpp:453] Found INQ layer:conv1, type: INQConvolution, layer id:1
I1218 07:49:57.576814  3616 layer_factory.hpp:77] Creating layer relu1
I1218 07:49:57.576828  3616 net.cpp:84] Creating Layer relu1
I1218 07:49:57.576833  3616 net.cpp:413] relu1 <- conv1
I1218 07:49:57.576840  3616 net.cpp:374] relu1 -> conv1 (in-place)
I1218 07:49:57.980608  3616 net.cpp:127] Setting up relu1
I1218 07:49:57.980649  3616 net.cpp:136] Top shape: 256 96 55 55 (74342400)
I1218 07:49:57.980654  3616 net.cpp:144] Memory required for data: 753037312
I1218 07:49:57.980662  3616 layer_factory.hpp:77] Creating layer norm1
I1218 07:49:57.980684  3616 net.cpp:84] Creating Layer norm1
I1218 07:49:57.980690  3616 net.cpp:413] norm1 <- conv1
I1218 07:49:57.980700  3616 net.cpp:387] norm1 -> norm1
I1218 07:49:57.982144  3616 net.cpp:127] Setting up norm1
I1218 07:49:57.982159  3616 net.cpp:136] Top shape: 256 96 55 55 (74342400)
I1218 07:49:57.982164  3616 net.cpp:144] Memory required for data: 1050406912
I1218 07:49:57.982169  3616 layer_factory.hpp:77] Creating layer pool1
I1218 07:49:57.982182  3616 net.cpp:84] Creating Layer pool1
I1218 07:49:57.982187  3616 net.cpp:413] pool1 <- norm1
I1218 07:49:57.982192  3616 net.cpp:387] pool1 -> pool1
I1218 07:49:57.982249  3616 net.cpp:127] Setting up pool1
I1218 07:49:57.982256  3616 net.cpp:136] Top shape: 256 96 27 27 (17915904)
I1218 07:49:57.982260  3616 net.cpp:144] Memory required for data: 1122070528
I1218 07:49:57.982264  3616 layer_factory.hpp:77] Creating layer conv2
I1218 07:49:57.982277  3616 net.cpp:84] Creating Layer conv2
I1218 07:49:57.982281  3616 net.cpp:413] conv2 <- pool1
I1218 07:49:57.982288  3616 net.cpp:387] conv2 -> conv2
I1218 07:49:57.988983  3616 net.cpp:127] Setting up conv2
I1218 07:49:57.988998  3616 net.cpp:136] Top shape: 256 256 27 27 (47775744)
I1218 07:49:57.989003  3616 net.cpp:144] Memory required for data: 1313173504
I1218 07:49:57.989013  3616 net.cpp:453] Found INQ layer:conv2, type: INQConvolution, layer id:5
I1218 07:49:57.989023  3616 net.cpp:453] Found INQ layer:conv2, type: INQConvolution, layer id:5
I1218 07:49:57.989030  3616 net.cpp:453] Found INQ layer:conv2, type: INQConvolution, layer id:5
I1218 07:49:57.989035  3616 net.cpp:453] Found INQ layer:conv2, type: INQConvolution, layer id:5
I1218 07:49:57.989039  3616 layer_factory.hpp:77] Creating layer relu2
I1218 07:49:57.989048  3616 net.cpp:84] Creating Layer relu2
I1218 07:49:57.989053  3616 net.cpp:413] relu2 <- conv2
I1218 07:49:57.989058  3616 net.cpp:374] relu2 -> conv2 (in-place)
I1218 07:49:57.989264  3616 net.cpp:127] Setting up relu2
I1218 07:49:57.989277  3616 net.cpp:136] Top shape: 256 256 27 27 (47775744)
I1218 07:49:57.989307  3616 net.cpp:144] Memory required for data: 1504276480
I1218 07:49:57.989312  3616 layer_factory.hpp:77] Creating layer norm2
I1218 07:49:57.989320  3616 net.cpp:84] Creating Layer norm2
I1218 07:49:57.989325  3616 net.cpp:413] norm2 <- conv2
I1218 07:49:57.989331  3616 net.cpp:387] norm2 -> norm2
I1218 07:49:57.989557  3616 net.cpp:127] Setting up norm2
I1218 07:49:57.989565  3616 net.cpp:136] Top shape: 256 256 27 27 (47775744)
I1218 07:49:57.989569  3616 net.cpp:144] Memory required for data: 1695379456
I1218 07:49:57.989573  3616 layer_factory.hpp:77] Creating layer pool2
I1218 07:49:57.989583  3616 net.cpp:84] Creating Layer pool2
I1218 07:49:57.989586  3616 net.cpp:413] pool2 <- norm2
I1218 07:49:57.989593  3616 net.cpp:387] pool2 -> pool2
I1218 07:49:57.989630  3616 net.cpp:127] Setting up pool2
I1218 07:49:57.989636  3616 net.cpp:136] Top shape: 256 256 13 13 (11075584)
I1218 07:49:57.989640  3616 net.cpp:144] Memory required for data: 1739681792
I1218 07:49:57.989645  3616 layer_factory.hpp:77] Creating layer conv3
I1218 07:49:57.989653  3616 net.cpp:84] Creating Layer conv3
I1218 07:49:57.989657  3616 net.cpp:413] conv3 <- pool2
I1218 07:49:57.989665  3616 net.cpp:387] conv3 -> conv3
I1218 07:49:58.004890  3616 net.cpp:127] Setting up conv3
I1218 07:49:58.004906  3616 net.cpp:136] Top shape: 256 384 13 13 (16613376)
I1218 07:49:58.004911  3616 net.cpp:144] Memory required for data: 1806135296
I1218 07:49:58.004920  3616 net.cpp:453] Found INQ layer:conv3, type: INQConvolution, layer id:9
I1218 07:49:58.004930  3616 net.cpp:453] Found INQ layer:conv3, type: INQConvolution, layer id:9
I1218 07:49:58.004935  3616 net.cpp:453] Found INQ layer:conv3, type: INQConvolution, layer id:9
I1218 07:49:58.004940  3616 net.cpp:453] Found INQ layer:conv3, type: INQConvolution, layer id:9
I1218 07:49:58.004943  3616 layer_factory.hpp:77] Creating layer relu3
I1218 07:49:58.004951  3616 net.cpp:84] Creating Layer relu3
I1218 07:49:58.004956  3616 net.cpp:413] relu3 <- conv3
I1218 07:49:58.004961  3616 net.cpp:374] relu3 -> conv3 (in-place)
I1218 07:49:58.006310  3616 net.cpp:127] Setting up relu3
I1218 07:49:58.006325  3616 net.cpp:136] Top shape: 256 384 13 13 (16613376)
I1218 07:49:58.006330  3616 net.cpp:144] Memory required for data: 1872588800
I1218 07:49:58.006335  3616 layer_factory.hpp:77] Creating layer conv4
I1218 07:49:58.006345  3616 net.cpp:84] Creating Layer conv4
I1218 07:49:58.006350  3616 net.cpp:413] conv4 <- conv3
I1218 07:49:58.006357  3616 net.cpp:387] conv4 -> conv4
I1218 07:49:58.018052  3616 net.cpp:127] Setting up conv4
I1218 07:49:58.018067  3616 net.cpp:136] Top shape: 256 384 13 13 (16613376)
I1218 07:49:58.018072  3616 net.cpp:144] Memory required for data: 1939042304
I1218 07:49:58.018079  3616 net.cpp:453] Found INQ layer:conv4, type: INQConvolution, layer id:11
I1218 07:49:58.018085  3616 net.cpp:453] Found INQ layer:conv4, type: INQConvolution, layer id:11
I1218 07:49:58.018091  3616 net.cpp:453] Found INQ layer:conv4, type: INQConvolution, layer id:11
I1218 07:49:58.018095  3616 net.cpp:453] Found INQ layer:conv4, type: INQConvolution, layer id:11
I1218 07:49:58.018100  3616 layer_factory.hpp:77] Creating layer relu4
I1218 07:49:58.018107  3616 net.cpp:84] Creating Layer relu4
I1218 07:49:58.018111  3616 net.cpp:413] relu4 <- conv4
I1218 07:49:58.018118  3616 net.cpp:374] relu4 -> conv4 (in-place)
I1218 07:49:58.018319  3616 net.cpp:127] Setting up relu4
I1218 07:49:58.018328  3616 net.cpp:136] Top shape: 256 384 13 13 (16613376)
I1218 07:49:58.018332  3616 net.cpp:144] Memory required for data: 2005495808
I1218 07:49:58.018337  3616 layer_factory.hpp:77] Creating layer conv5
I1218 07:49:58.018347  3616 net.cpp:84] Creating Layer conv5
I1218 07:49:58.018352  3616 net.cpp:413] conv5 <- conv4
I1218 07:49:58.018357  3616 net.cpp:387] conv5 -> conv5
I1218 07:49:58.026777  3616 net.cpp:127] Setting up conv5
I1218 07:49:58.026792  3616 net.cpp:136] Top shape: 256 256 13 13 (11075584)
I1218 07:49:58.026799  3616 net.cpp:144] Memory required for data: 2049798144
I1218 07:49:58.026821  3616 net.cpp:453] Found INQ layer:conv5, type: INQConvolution, layer id:13
I1218 07:49:58.026829  3616 net.cpp:453] Found INQ layer:conv5, type: INQConvolution, layer id:13
I1218 07:49:58.026835  3616 net.cpp:453] Found INQ layer:conv5, type: INQConvolution, layer id:13
I1218 07:49:58.026840  3616 net.cpp:453] Found INQ layer:conv5, type: INQConvolution, layer id:13
I1218 07:49:58.026844  3616 layer_factory.hpp:77] Creating layer relu5
I1218 07:49:58.026851  3616 net.cpp:84] Creating Layer relu5
I1218 07:49:58.026856  3616 net.cpp:413] relu5 <- conv5
I1218 07:49:58.026862  3616 net.cpp:374] relu5 -> conv5 (in-place)
I1218 07:49:58.027067  3616 net.cpp:127] Setting up relu5
I1218 07:49:58.027076  3616 net.cpp:136] Top shape: 256 256 13 13 (11075584)
I1218 07:49:58.027081  3616 net.cpp:144] Memory required for data: 2094100480
I1218 07:49:58.027084  3616 layer_factory.hpp:77] Creating layer pool5
I1218 07:49:58.027091  3616 net.cpp:84] Creating Layer pool5
I1218 07:49:58.027096  3616 net.cpp:413] pool5 <- conv5
I1218 07:49:58.027101  3616 net.cpp:387] pool5 -> pool5
I1218 07:49:58.027148  3616 net.cpp:127] Setting up pool5
I1218 07:49:58.027153  3616 net.cpp:136] Top shape: 256 256 6 6 (2359296)
I1218 07:49:58.027158  3616 net.cpp:144] Memory required for data: 2103537664
I1218 07:49:58.027160  3616 layer_factory.hpp:77] Creating layer fc6
I1218 07:49:58.027175  3616 net.cpp:84] Creating Layer fc6
I1218 07:49:58.027179  3616 net.cpp:413] fc6 <- pool5
I1218 07:49:58.027186  3616 net.cpp:387] fc6 -> fc6
I1218 07:49:58.626863  3616 net.cpp:127] Setting up fc6
I1218 07:49:58.626909  3616 net.cpp:136] Top shape: 256 4096 (1048576)
I1218 07:49:58.626915  3616 net.cpp:144] Memory required for data: 2107731968
I1218 07:49:58.626925  3616 net.cpp:453] Found INQ layer:fc6, type: INQInnerProduct, layer id:16
I1218 07:49:58.626933  3616 net.cpp:453] Found INQ layer:fc6, type: INQInnerProduct, layer id:16
I1218 07:49:58.626940  3616 net.cpp:453] Found INQ layer:fc6, type: INQInnerProduct, layer id:16
I1218 07:49:58.626945  3616 net.cpp:453] Found INQ layer:fc6, type: INQInnerProduct, layer id:16
I1218 07:49:58.626948  3616 layer_factory.hpp:77] Creating layer relu6
I1218 07:49:58.626960  3616 net.cpp:84] Creating Layer relu6
I1218 07:49:58.626966  3616 net.cpp:413] relu6 <- fc6
I1218 07:49:58.626976  3616 net.cpp:374] relu6 -> fc6 (in-place)
I1218 07:49:58.627249  3616 net.cpp:127] Setting up relu6
I1218 07:49:58.627259  3616 net.cpp:136] Top shape: 256 4096 (1048576)
I1218 07:49:58.627264  3616 net.cpp:144] Memory required for data: 2111926272
I1218 07:49:58.627267  3616 layer_factory.hpp:77] Creating layer drop6
I1218 07:49:58.627279  3616 net.cpp:84] Creating Layer drop6
I1218 07:49:58.627284  3616 net.cpp:413] drop6 <- fc6
I1218 07:49:58.627290  3616 net.cpp:374] drop6 -> fc6 (in-place)
I1218 07:49:58.627319  3616 net.cpp:127] Setting up drop6
I1218 07:49:58.627326  3616 net.cpp:136] Top shape: 256 4096 (1048576)
I1218 07:49:58.627331  3616 net.cpp:144] Memory required for data: 2116120576
I1218 07:49:58.627334  3616 layer_factory.hpp:77] Creating layer fc7
I1218 07:49:58.627347  3616 net.cpp:84] Creating Layer fc7
I1218 07:49:58.627351  3616 net.cpp:413] fc7 <- fc6
I1218 07:49:58.627359  3616 net.cpp:387] fc7 -> fc7
I1218 07:49:58.895001  3616 net.cpp:127] Setting up fc7
I1218 07:49:58.895043  3616 net.cpp:136] Top shape: 256 4096 (1048576)
I1218 07:49:58.895048  3616 net.cpp:144] Memory required for data: 2120314880
I1218 07:49:58.895059  3616 net.cpp:453] Found INQ layer:fc7, type: INQInnerProduct, layer id:19
I1218 07:49:58.895067  3616 net.cpp:453] Found INQ layer:fc7, type: INQInnerProduct, layer id:19
I1218 07:49:58.895072  3616 net.cpp:453] Found INQ layer:fc7, type: INQInnerProduct, layer id:19
I1218 07:49:58.895077  3616 net.cpp:453] Found INQ layer:fc7, type: INQInnerProduct, layer id:19
I1218 07:49:58.895082  3616 layer_factory.hpp:77] Creating layer relu7
I1218 07:49:58.895094  3616 net.cpp:84] Creating Layer relu7
I1218 07:49:58.895109  3616 net.cpp:413] relu7 <- fc7
I1218 07:49:58.895118  3616 net.cpp:374] relu7 -> fc7 (in-place)
I1218 07:49:58.896739  3616 net.cpp:127] Setting up relu7
I1218 07:49:58.896752  3616 net.cpp:136] Top shape: 256 4096 (1048576)
I1218 07:49:58.896757  3616 net.cpp:144] Memory required for data: 2124509184
I1218 07:49:58.896762  3616 layer_factory.hpp:77] Creating layer drop7
I1218 07:49:58.896772  3616 net.cpp:84] Creating Layer drop7
I1218 07:49:58.896776  3616 net.cpp:413] drop7 <- fc7
I1218 07:49:58.896783  3616 net.cpp:374] drop7 -> fc7 (in-place)
I1218 07:49:58.896811  3616 net.cpp:127] Setting up drop7
I1218 07:49:58.896816  3616 net.cpp:136] Top shape: 256 4096 (1048576)
I1218 07:49:58.896821  3616 net.cpp:144] Memory required for data: 2128703488
I1218 07:49:58.896824  3616 layer_factory.hpp:77] Creating layer fc8
I1218 07:49:58.896837  3616 net.cpp:84] Creating Layer fc8
I1218 07:49:58.896842  3616 net.cpp:413] fc8 <- fc7
I1218 07:49:58.896849  3616 net.cpp:387] fc8 -> fc8
I1218 07:49:58.963187  3616 net.cpp:127] Setting up fc8
I1218 07:49:58.963222  3616 net.cpp:136] Top shape: 256 1000 (256000)
I1218 07:49:58.963227  3616 net.cpp:144] Memory required for data: 2129727488
I1218 07:49:58.963237  3616 net.cpp:453] Found INQ layer:fc8, type: INQInnerProduct, layer id:22
I1218 07:49:58.963243  3616 net.cpp:453] Found INQ layer:fc8, type: INQInnerProduct, layer id:22
I1218 07:49:58.963249  3616 net.cpp:453] Found INQ layer:fc8, type: INQInnerProduct, layer id:22
I1218 07:49:58.963254  3616 net.cpp:453] Found INQ layer:fc8, type: INQInnerProduct, layer id:22
…
I1218 07:49:58.967198  3616 net.cpp:301] The NetState phase (1) differed from the phase (0) specified by a rule in layer data
I1218 07:49:58.967871  3616 net.cpp:51] Initializing net from parameters: 
name: "AlexNet"
state {
  phase: TEST
}
layer {
  name: "data"
  type: "Data"
  top: "data"
  top: "label"
  include {
    phase: TEST
  }
  transform_param {
    mirror: false
    crop_size: 227
    mean_file: "/home/data/caffe-imagenet/imagenet_mean.binaryproto"
  }
  data_param {
    source: "/home/data/caffe-imagenet/ilsvrc12_val_lmdb"
    batch_size: 50
    backend: LMDB
  }
}
layer {
  name: "conv1"
  type: "INQConvolution"
  bottom: "data"
  top: "conv1"
  param {
    lr_mult: 1
    decay_mult: 1
  }
  param {
    lr_mult: 2
    decay_mult: 0
  }
  convolution_param {
    num_output: 96
    kernel_size: 11
    stride: 4
    weight_filler {
      type: "gaussian"
      std: 0.01
    }
    bias_filler {
      type: "constant"
      value: 0
    }
  }
  inq_convolution_param {
    portion: 0
    portion: 0.3
    weight_mask_filler {
      type: "constant"
      value: 1
    }
    bias_mask_filler {
      type: "constant"
      value: 1
    }
    num_quantum_values: 8
  }
}
layer {
  name: "relu1"
  type: "ReLU"
  bottom: "conv1"
  top: "conv1"
}
layer {
  name: "norm1"
  type: "LRN"
  bottom: "conv1"
  top: "norm1"
  lrn_param {
    local_size: 5
    alpha: 0.0001
    beta: 0.75
  }
}
layer {
  name: "pool1"
  type: "Pooling"
  bottom: "norm1"
  top: "pool1"
  pooling_param {
    pool: MAX
    kernel_size: 3
    stride: 2
  }
}
layer {
  name: "conv2"
  type: "INQConvolution"
  bottom: "pool1"
  top: "conv2"
  param {
    lr_mult: 1
    decay_mult: 1
  }
  param {
    lr_mult: 2
    decay_mult: 0
  }
  convolution_param {
    num_output: 256
    pad: 2
    kernel_size: 5
    group: 2
    weight_filler {
      type: "gaussian"
      std: 0.01
    }
    bias_filler {
      type: "constant"
      value: 0.1
    }
  }
  inq_convolution_param {
    portion: 0
    portion: 0.3
    weight_mask_filler {
      type: "constant"
      value: 1
    }
    bias_mask_filler {
      type: "constant"
      value: 1
    }
    num_quantum_values: 8
  }
}
layer {
  name: "relu2"
  type: "ReLU"
  bottom: "conv2"
  top: "conv2"
}
layer {
  name: "norm2"
  type: "LRN"
  bottom: "conv2"
  top: "norm2"
  lrn_param {
    local_size: 5
    alpha: 0.0001
    beta: 0.75
  }
}
layer {
  name: "pool2"
  type: "Pooling"
  bottom: "norm2"
  top: "pool2"
  pooling_param {
    pool: MAX
    kernel_size: 3
    stride: 2
  }
}
layer {
  name: "conv3"
  type: "INQConvolution"
  bottom: "pool2"
  top: "conv3"
  param {
    lr_mult: 1
    decay_mult: 1
  }
  param {
    lr_mult: 2
    decay_mult: 0
  }
  convolution_param {
    num_output: 384
    pad: 1
    kernel_size: 3
    weight_filler {
      type: "gaussian"
      std: 0.01
    }
    bias_filler {
      type: "constant"
      value: 0
    }
  }
  inq_convolution_param {
    portion: 0
    portion: 0.3
    weight_mask_filler {
      type: "constant"
      value: 1
    }
    bias_mask_filler {
      type: "constant"
      value: 1
    }
    num_quantum_values: 8
  }
}
layer {
  name: "relu3"
  type: "ReLU"
  bottom: "conv3"
  top: "conv3"
}
layer {
  name: "conv4"
  type: "INQConvolution"
  bottom: "conv3"
  top: "conv4"
  param {
    lr_mult: 1
    decay_mult: 1
  }
  param {
    lr_mult: 2
    decay_mult: 0
  }
  convolution_param {
    num_output: 384
    pad: 1
    kernel_size: 3
    group: 2
    weight_filler {
      type: "gaussian"
      std: 0.01
    }
    bias_filler {
      type: "constant"
      value: 0.1
    }
  }
  inq_convolution_param {
    portion: 0
    portion: 0.3
    weight_mask_filler {
      type: "constant"
      value: 1
    }
    bias_mask_filler {
      type: "constant"
      value: 1
    }
    num_quantum_values: 8
  }
}
layer {
  name: "relu4"
  type: "ReLU"
  bottom: "conv4"
  top: "conv4"
}
layer {
  name: "conv5"
  type: "INQConvolution"
  bottom: "conv4"
  top: "conv5"
  param {
    lr_mult: 1
    decay_mult: 1
  }
  param {
    lr_mult: 2
    decay_mult: 0
  }
  convolution_param {
    num_output: 256
    pad: 1
    kernel_size: 3
    group: 2
    weight_filler {
      type: "gaussian"
      std: 0.01
    }
    bias_filler {
      type: "constant"
      value: 0.1
    }
  }
  inq_convolution_param {
    portion: 0
    portion: 0.3
    weight_mask_filler {
      type: "constant"
      value: 1
    }
    bias_mask_filler {
      type: "constant"
      value: 1
    }
    num_quantum_values: 8
  }
}
layer {
  name: "relu5"
  type: "ReLU"
  bottom: "conv5"
  top: "conv5"
}
layer {
  name: "pool5"
  type: "Pooling"
  bottom: "conv5"
  top: "pool5"
  pooling_param {
    pool: MAX
    kernel_size: 3
    stride: 2
  }
}
layer {
  name: "fc6"
  type: "INQInnerProduct"
  bottom: "pool5"
  top: "fc6"
  param {
    lr_mult: 1
    decay_mult: 1
  }
  param {
    lr_mult: 2
    decay_mult: 0
  }
  inner_product_param {
    num_output: 4096
    weight_filler {
      type: "gaussian"
      std: 0.005
    }
    bias_filler {
      type: "constant"
      value: 0.1
    }
  }
  inq_inner_product_param {
    portion: 0
    portion: 0.3
    weight_mask_filler {
      type: "constant"
      value: 1
    }
    bias_mask_filler {
      type: "constant"
      value: 1
    }
    num_quantum_values: 8
  }
}
layer {
  name: "relu6"
  type: "ReLU"
  bottom: "fc6"
  top: "fc6"
}
layer {
  name: "drop6"
  type: "Dropout"
  bottom: "fc6"
  top: "fc6"
  dropout_param {
    dropout_ratio: 0.5
  }
}
layer {
  name: "fc7"
  type: "INQInnerProduct"
  bottom: "fc6"
  top: "fc7"
  param {
    lr_mult: 1
    decay_mult: 1
  }
  param {
    lr_mult: 2
    decay_mult: 0
  }
  inner_product_param {
    num_output: 4096
    weight_filler {
      type: "gaussian"
      std: 0.005
    }
    bias_filler {
      type: "constant"
      value: 0.1
    }
  }
  inq_inner_product_param {
    portion: 0
    portion: 0.3
    weight_mask_filler {
      type: "constant"
      value: 1
    }
    bias_mask_filler {
      type: "constant"
      value: 1
    }
    num_quantum_values: 8
  }
}
layer {
  name: "relu7"
  type: "ReLU"
  bottom: "fc7"
  top: "fc7"
}
layer {
  name: "drop7"
  type: "Dropout"
  bottom: "fc7"
  top: "fc7"
  dropout_param {
    dropout_ratio: 0.5
  }
}
layer {
  name: "fc8"
  type: "INQInnerProduct"
  bottom: "fc7"
  top: "fc8"
  param {
    lr_mult: 1
    decay_mult: 1
  }
  param {
    lr_mult: 2
    decay_mult: 0
  }
  inner_product_param {
    num_output: 1000
    weight_filler {
      type: "gaussian"
      std: 0.01
    }
    bias_filler {
      type: "constant"
      value: 0
    }
  }
  inq_inner_product_param {
    portion: 0
    portion: 0.3
    weight_mask_filler {
      type: "constant"
      value: 1
    }
    bias_mask_filler {
      type: "constant"
      value: 1
    }
    num_quantum_values: 8
  }
}
layer {
  name: "accuracy_top1"
  type: "Accuracy"
  bottom: "fc8"
  bottom: "label"
  top: "accuracy_top1"
  include {
    phase: TEST
  }
  accuracy_param {
    top_k: 1
  }
}
layer {
  name: "accuracy_top5"
  type: "Accuracy"
  bottom: "fc8"
  bottom: "label"
  top: "accuracy_top5"
  include {
    phase: TEST
  }
  accuracy_param {
    top_k: 5
  }
}
layer {
  name: "loss"
  type: "SoftmaxWithLoss"
  bottom: "fc8"
  bottom: "label"
  top: "loss"
}
I1218 07:49:58.968152  3616 layer_factory.hpp:77] Creating layer data
I1218 07:49:58.968253  3616 db_lmdb.cpp:35] Opened lmdb /home/data/caffe-imagenet/ilsvrc12_val_lmdb
I1218 07:49:58.968282  3616 net.cpp:84] Creating Layer data
I1218 07:49:58.968294  3616 net.cpp:387] data -> data
I1218 07:49:58.968313  3616 net.cpp:387] data -> label
I1218 07:49:58.968329  3616 data_transformer.cpp:25] Loading mean file from: /home/data/caffe-imagenet/imagenet_mean.binaryproto
I1218 07:49:58.971685  3616 data_layer.cpp:45] output data size: 50,3,227,227
I1218 07:49:59.072902  3616 net.cpp:127] Setting up data
I1218 07:49:59.072949  3616 net.cpp:136] Top shape: 50 3 227 227 (7729350)
I1218 07:49:59.072964  3616 net.cpp:136] Top shape: 50 (50)
I1218 07:49:59.072999  3616 net.cpp:144] Memory required for data: 30917600
I1218 07:49:59.073009  3616 layer_factory.hpp:77] Creating layer label_data_1_split
I1218 07:49:59.073032  3616 net.cpp:84] Creating Layer label_data_1_split
I1218 07:49:59.073037  3616 net.cpp:413] label_data_1_split <- label
I1218 07:49:59.073048  3616 net.cpp:387] label_data_1_split -> label_data_1_split_0
I1218 07:49:59.073061  3616 net.cpp:387] label_data_1_split -> label_data_1_split_1
I1218 07:49:59.073068  3616 net.cpp:387] label_data_1_split -> label_data_1_split_2
I1218 07:49:59.073199  3616 net.cpp:127] Setting up label_data_1_split
I1218 07:49:59.073210  3616 net.cpp:136] Top shape: 50 (50)
I1218 07:49:59.073215  3616 net.cpp:136] Top shape: 50 (50)
I1218 07:49:59.073218  3616 net.cpp:136] Top shape: 50 (50)
I1218 07:49:59.073222  3616 net.cpp:144] Memory required for data: 30918200
I1218 07:49:59.073226  3616 layer_factory.hpp:77] Creating layer conv1
I1218 07:49:59.073245  3616 net.cpp:84] Creating Layer conv1
I1218 07:49:59.073249  3616 net.cpp:413] conv1 <- data
I1218 07:49:59.073258  3616 net.cpp:387] conv1 -> conv1
I1218 07:49:59.074239  3616 net.cpp:127] Setting up conv1
I1218 07:49:59.074252  3616 net.cpp:136] Top shape: 50 96 55 55 (14520000)
I1218 07:49:59.074257  3616 net.cpp:144] Memory required for data: 88998200
I1218 07:49:59.074266  3616 net.cpp:453] Found INQ layer:conv1, type: INQConvolution, layer id:2
I1218 07:49:59.074276  3616 net.cpp:453] Found INQ layer:conv1, type: INQConvolution, layer id:2
I1218 07:49:59.074285  3616 net.cpp:453] Found INQ layer:conv1, type: INQConvolution, layer id:2
I1218 07:49:59.074291  3616 net.cpp:453] Found INQ layer:conv1, type: INQConvolution, layer id:2
I1218 07:49:59.074295  3616 layer_factory.hpp:77] Creating layer relu1
I1218 07:49:59.074306  3616 net.cpp:84] Creating Layer relu1
I1218 07:49:59.074311  3616 net.cpp:413] relu1 <- conv1
I1218 07:49:59.074317  3616 net.cpp:374] relu1 -> conv1 (in-place)
I1218 07:49:59.074604  3616 net.cpp:127] Setting up relu1
I1218 07:49:59.074615  3616 net.cpp:136] Top shape: 50 96 55 55 (14520000)
I1218 07:49:59.074618  3616 net.cpp:144] Memory required for data: 147078200
I1218 07:49:59.074623  3616 layer_factory.hpp:77] Creating layer norm1
I1218 07:49:59.074635  3616 net.cpp:84] Creating Layer norm1
I1218 07:49:59.074640  3616 net.cpp:413] norm1 <- conv1
I1218 07:49:59.074647  3616 net.cpp:387] norm1 -> norm1
I1218 07:49:59.074920  3616 net.cpp:127] Setting up norm1
I1218 07:49:59.074932  3616 net.cpp:136] Top shape: 50 96 55 55 (14520000)
I1218 07:49:59.074937  3616 net.cpp:144] Memory required for data: 205158200
I1218 07:49:59.074942  3616 layer_factory.hpp:77] Creating layer pool1
I1218 07:49:59.074954  3616 net.cpp:84] Creating Layer pool1
I1218 07:49:59.074957  3616 net.cpp:413] pool1 <- norm1
I1218 07:49:59.074965  3616 net.cpp:387] pool1 -> pool1
I1218 07:49:59.075078  3616 net.cpp:127] Setting up pool1
I1218 07:49:59.075088  3616 net.cpp:136] Top shape: 50 96 27 27 (3499200)
I1218 07:49:59.075091  3616 net.cpp:144] Memory required for data: 219155000
I1218 07:49:59.075096  3616 layer_factory.hpp:77] Creating layer conv2
I1218 07:49:59.075109  3616 net.cpp:84] Creating Layer conv2
I1218 07:49:59.075114  3616 net.cpp:413] conv2 <- pool1
I1218 07:49:59.075122  3616 net.cpp:387] conv2 -> conv2
I1218 07:49:59.082144  3616 net.cpp:127] Setting up conv2
I1218 07:49:59.082161  3616 net.cpp:136] Top shape: 50 256 27 27 (9331200)
I1218 07:49:59.082166  3616 net.cpp:144] Memory required for data: 256479800
I1218 07:49:59.082175  3616 net.cpp:453] Found INQ layer:conv2, type: INQConvolution, layer id:6
I1218 07:49:59.082183  3616 net.cpp:453] Found INQ layer:conv2, type: INQConvolution, layer id:6
I1218 07:49:59.082190  3616 net.cpp:453] Found INQ layer:conv2, type: INQConvolution, layer id:6
I1218 07:49:59.082195  3616 net.cpp:453] Found INQ layer:conv2, type: INQConvolution, layer id:6
I1218 07:49:59.082198  3616 layer_factory.hpp:77] Creating layer relu2
I1218 07:49:59.082211  3616 net.cpp:84] Creating Layer relu2
I1218 07:49:59.082216  3616 net.cpp:413] relu2 <- conv2
I1218 07:49:59.082234  3616 net.cpp:374] relu2 -> conv2 (in-place)
I1218 07:49:59.083670  3616 net.cpp:127] Setting up relu2
I1218 07:49:59.083685  3616 net.cpp:136] Top shape: 50 256 27 27 (9331200)
I1218 07:49:59.083690  3616 net.cpp:144] Memory required for data: 293804600
I1218 07:49:59.083694  3616 layer_factory.hpp:77] Creating layer norm2
I1218 07:49:59.083706  3616 net.cpp:84] Creating Layer norm2
I1218 07:49:59.083711  3616 net.cpp:413] norm2 <- conv2
I1218 07:49:59.083719  3616 net.cpp:387] norm2 -> norm2
I1218 07:49:59.083951  3616 net.cpp:127] Setting up norm2
I1218 07:49:59.083961  3616 net.cpp:136] Top shape: 50 256 27 27 (9331200)
I1218 07:49:59.083966  3616 net.cpp:144] Memory required for data: 331129400
I1218 07:49:59.083971  3616 layer_factory.hpp:77] Creating layer pool2
I1218 07:49:59.083978  3616 net.cpp:84] Creating Layer pool2
I1218 07:49:59.083982  3616 net.cpp:413] pool2 <- norm2
I1218 07:49:59.083989  3616 net.cpp:387] pool2 -> pool2
I1218 07:49:59.084030  3616 net.cpp:127] Setting up pool2
I1218 07:49:59.084036  3616 net.cpp:136] Top shape: 50 256 13 13 (2163200)
I1218 07:49:59.084039  3616 net.cpp:144] Memory required for data: 339782200
I1218 07:49:59.084043  3616 layer_factory.hpp:77] Creating layer conv3
I1218 07:49:59.084054  3616 net.cpp:84] Creating Layer conv3
I1218 07:49:59.084059  3616 net.cpp:413] conv3 <- pool2
I1218 07:49:59.084066  3616 net.cpp:387] conv3 -> conv3
I1218 07:49:59.099681  3616 net.cpp:127] Setting up conv3
I1218 07:49:59.099697  3616 net.cpp:136] Top shape: 50 384 13 13 (3244800)
I1218 07:49:59.099701  3616 net.cpp:144] Memory required for data: 352761400
I1218 07:49:59.099710  3616 net.cpp:453] Found INQ layer:conv3, type: INQConvolution, layer id:10
I1218 07:49:59.099719  3616 net.cpp:453] Found INQ layer:conv3, type: INQConvolution, layer id:10
I1218 07:49:59.099725  3616 net.cpp:453] Found INQ layer:conv3, type: INQConvolution, layer id:10
I1218 07:49:59.099730  3616 net.cpp:453] Found INQ layer:conv3, type: INQConvolution, layer id:10
I1218 07:49:59.099733  3616 layer_factory.hpp:77] Creating layer relu3
I1218 07:49:59.099740  3616 net.cpp:84] Creating Layer relu3
I1218 07:49:59.099745  3616 net.cpp:413] relu3 <- conv3
I1218 07:49:59.099752  3616 net.cpp:374] relu3 -> conv3 (in-place)
I1218 07:49:59.099970  3616 net.cpp:127] Setting up relu3
I1218 07:49:59.099979  3616 net.cpp:136] Top shape: 50 384 13 13 (3244800)
I1218 07:49:59.099983  3616 net.cpp:144] Memory required for data: 365740600
I1218 07:49:59.099987  3616 layer_factory.hpp:77] Creating layer conv4
I1218 07:49:59.099998  3616 net.cpp:84] Creating Layer conv4
I1218 07:49:59.100003  3616 net.cpp:413] conv4 <- conv3
I1218 07:49:59.100009  3616 net.cpp:387] conv4 -> conv4
I1218 07:49:59.112017  3616 net.cpp:127] Setting up conv4
I1218 07:49:59.112033  3616 net.cpp:136] Top shape: 50 384 13 13 (3244800)
I1218 07:49:59.112037  3616 net.cpp:144] Memory required for data: 378719800
I1218 07:49:59.112043  3616 net.cpp:453] Found INQ layer:conv4, type: INQConvolution, layer id:12
I1218 07:49:59.112049  3616 net.cpp:453] Found INQ layer:conv4, type: INQConvolution, layer id:12
I1218 07:49:59.112054  3616 net.cpp:453] Found INQ layer:conv4, type: INQConvolution, layer id:12
I1218 07:49:59.112059  3616 net.cpp:453] Found INQ layer:conv4, type: INQConvolution, layer id:12
I1218 07:49:59.112062  3616 layer_factory.hpp:77] Creating layer relu4
I1218 07:49:59.112071  3616 net.cpp:84] Creating Layer relu4
I1218 07:49:59.112076  3616 net.cpp:413] relu4 <- conv4
I1218 07:49:59.112082  3616 net.cpp:374] relu4 -> conv4 (in-place)
I1218 07:49:59.113507  3616 net.cpp:127] Setting up relu4
I1218 07:49:59.113523  3616 net.cpp:136] Top shape: 50 384 13 13 (3244800)
I1218 07:49:59.113526  3616 net.cpp:144] Memory required for data: 391699000
I1218 07:49:59.113531  3616 layer_factory.hpp:77] Creating layer conv5
I1218 07:49:59.113548  3616 net.cpp:84] Creating Layer conv5
I1218 07:49:59.113554  3616 net.cpp:413] conv5 <- conv4
I1218 07:49:59.113565  3616 net.cpp:387] conv5 -> conv5
I1218 07:49:59.122169  3616 net.cpp:127] Setting up conv5
I1218 07:49:59.122196  3616 net.cpp:136] Top shape: 50 256 13 13 (2163200)
I1218 07:49:59.122200  3616 net.cpp:144] Memory required for data: 400351800
I1218 07:49:59.122210  3616 net.cpp:453] Found INQ layer:conv5, type: INQConvolution, layer id:14
I1218 07:49:59.122220  3616 net.cpp:453] Found INQ layer:conv5, type: INQConvolution, layer id:14
I1218 07:49:59.122225  3616 net.cpp:453] Found INQ layer:conv5, type: INQConvolution, layer id:14
I1218 07:49:59.122229  3616 net.cpp:453] Found INQ layer:conv5, type: INQConvolution, layer id:14
I1218 07:49:59.122233  3616 layer_factory.hpp:77] Creating layer relu5
I1218 07:49:59.122241  3616 net.cpp:84] Creating Layer relu5
I1218 07:49:59.122246  3616 net.cpp:413] relu5 <- conv5
I1218 07:49:59.122252  3616 net.cpp:374] relu5 -> conv5 (in-place)
I1218 07:49:59.122468  3616 net.cpp:127] Setting up relu5
I1218 07:49:59.122478  3616 net.cpp:136] Top shape: 50 256 13 13 (2163200)
I1218 07:49:59.122481  3616 net.cpp:144] Memory required for data: 409004600
I1218 07:49:59.122486  3616 layer_factory.hpp:77] Creating layer pool5
I1218 07:49:59.122495  3616 net.cpp:84] Creating Layer pool5
I1218 07:49:59.122499  3616 net.cpp:413] pool5 <- conv5
I1218 07:49:59.122506  3616 net.cpp:387] pool5 -> pool5
I1218 07:49:59.122562  3616 net.cpp:127] Setting up pool5
I1218 07:49:59.122570  3616 net.cpp:136] Top shape: 50 256 6 6 (460800)
I1218 07:49:59.122572  3616 net.cpp:144] Memory required for data: 410847800
I1218 07:49:59.122576  3616 layer_factory.hpp:77] Creating layer fc6
I1218 07:49:59.122587  3616 net.cpp:84] Creating Layer fc6
I1218 07:49:59.122591  3616 net.cpp:413] fc6 <- pool5
I1218 07:49:59.122599  3616 net.cpp:387] fc6 -> fc6
I1218 07:49:59.723286  3616 net.cpp:127] Setting up fc6
I1218 07:49:59.723338  3616 net.cpp:136] Top shape: 50 4096 (204800)
I1218 07:49:59.723343  3616 net.cpp:144] Memory required for data: 411667000
I1218 07:49:59.723354  3616 net.cpp:453] Found INQ layer:fc6, type: INQInnerProduct, layer id:17
I1218 07:49:59.723362  3616 net.cpp:453] Found INQ layer:fc6, type: INQInnerProduct, layer id:17
I1218 07:49:59.723368  3616 net.cpp:453] Found INQ layer:fc6, type: INQInnerProduct, layer id:17
I1218 07:49:59.723372  3616 net.cpp:453] Found INQ layer:fc6, type: INQInnerProduct, layer id:17
I1218 07:49:59.723377  3616 layer_factory.hpp:77] Creating layer relu6
I1218 07:49:59.723389  3616 net.cpp:84] Creating Layer relu6
I1218 07:49:59.723395  3616 net.cpp:413] relu6 <- fc6
I1218 07:49:59.723403  3616 net.cpp:374] relu6 -> fc6 (in-place)
I1218 07:49:59.723698  3616 net.cpp:127] Setting up relu6
I1218 07:49:59.723708  3616 net.cpp:136] Top shape: 50 4096 (204800)
I1218 07:49:59.723712  3616 net.cpp:144] Memory required for data: 412486200
I1218 07:49:59.723717  3616 layer_factory.hpp:77] Creating layer drop6
I1218 07:49:59.723727  3616 net.cpp:84] Creating Layer drop6
I1218 07:49:59.723731  3616 net.cpp:413] drop6 <- fc6
I1218 07:49:59.723737  3616 net.cpp:374] drop6 -> fc6 (in-place)
I1218 07:49:59.723773  3616 net.cpp:127] Setting up drop6
I1218 07:49:59.723779  3616 net.cpp:136] Top shape: 50 4096 (204800)
I1218 07:49:59.723783  3616 net.cpp:144] Memory required for data: 413305400
I1218 07:49:59.723786  3616 layer_factory.hpp:77] Creating layer fc7
I1218 07:49:59.723799  3616 net.cpp:84] Creating Layer fc7
I1218 07:49:59.723803  3616 net.cpp:413] fc7 <- fc6
I1218 07:49:59.723811  3616 net.cpp:387] fc7 -> fc7
I1218 07:49:59.991457  3616 net.cpp:127] Setting up fc7
I1218 07:49:59.991502  3616 net.cpp:136] Top shape: 50 4096 (204800)
I1218 07:49:59.991506  3616 net.cpp:144] Memory required for data: 414124600
I1218 07:49:59.991516  3616 net.cpp:453] Found INQ layer:fc7, type: INQInnerProduct, layer id:20
I1218 07:49:59.991524  3616 net.cpp:453] Found INQ layer:fc7, type: INQInnerProduct, layer id:20
I1218 07:49:59.991529  3616 net.cpp:453] Found INQ layer:fc7, type: INQInnerProduct, layer id:20
I1218 07:49:59.991534  3616 net.cpp:453] Found INQ layer:fc7, type: INQInnerProduct, layer id:20
I1218 07:49:59.991552  3616 layer_factory.hpp:77] Creating layer relu7
I1218 07:49:59.991595  3616 net.cpp:84] Creating Layer relu7
I1218 07:49:59.991601  3616 net.cpp:413] relu7 <- fc7
I1218 07:49:59.991611  3616 net.cpp:374] relu7 -> fc7 (in-place)
I1218 07:49:59.991906  3616 net.cpp:127] Setting up relu7
I1218 07:49:59.991916  3616 net.cpp:136] Top shape: 50 4096 (204800)
I1218 07:49:59.991920  3616 net.cpp:144] Memory required for data: 414943800
I1218 07:49:59.991925  3616 layer_factory.hpp:77] Creating layer drop7
I1218 07:49:59.991933  3616 net.cpp:84] Creating Layer drop7
I1218 07:49:59.991937  3616 net.cpp:413] drop7 <- fc7
I1218 07:49:59.991943  3616 net.cpp:374] drop7 -> fc7 (in-place)
I1218 07:49:59.991979  3616 net.cpp:127] Setting up drop7
I1218 07:49:59.991986  3616 net.cpp:136] Top shape: 50 4096 (204800)
I1218 07:49:59.991988  3616 net.cpp:144] Memory required for data: 415763000
I1218 07:49:59.991992  3616 layer_factory.hpp:77] Creating layer fc8
I1218 07:49:59.992005  3616 net.cpp:84] Creating Layer fc8
I1218 07:49:59.992009  3616 net.cpp:413] fc8 <- fc7
I1218 07:49:59.992017  3616 net.cpp:387] fc8 -> fc8
I1218 07:50:00.059571  3616 net.cpp:127] Setting up fc8
I1218 07:50:00.059603  3616 net.cpp:136] Top shape: 50 1000 (50000)
I1218 07:50:00.059608  3616 net.cpp:144] Memory required for data: 415963000
I1218 07:50:00.059619  3616 net.cpp:453] Found INQ layer:fc8, type: INQInnerProduct, layer id:23
I1218 07:50:00.059628  3616 net.cpp:453] Found INQ layer:fc8, type: INQInnerProduct, layer id:23
I1218 07:50:00.059633  3616 net.cpp:453] Found INQ layer:fc8, type: INQInnerProduct, layer id:23
I1218 07:50:00.059638  3616 net.cpp:453] Found INQ layer:fc8, type: INQInnerProduct, layer id:23
I1218 07:50:00.059643  3616 layer_factory.hpp:77] Creating layer fc8_fc8_0_split
I1218 07:50:00.059655  3616 net.cpp:84] Creating Layer fc8_fc8_0_split
I1218 07:50:00.059664  3616 net.cpp:413] fc8_fc8_0_split <- fc8
I1218 07:50:00.059672  3616 net.cpp:387] fc8_fc8_0_split -> fc8_fc8_0_split_0
I1218 07:50:00.059682  3616 net.cpp:387] fc8_fc8_0_split -> fc8_fc8_0_split_1
I1218 07:50:00.059689  3616 net.cpp:387] fc8_fc8_0_split -> fc8_fc8_0_split_2
I1218 07:50:00.059762  3616 net.cpp:127] Setting up fc8_fc8_0_split
I1218 07:50:00.059769  3616 net.cpp:136] Top shape: 50 1000 (50000)
I1218 07:50:00.059774  3616 net.cpp:136] Top shape: 50 1000 (50000)
I1218 07:50:00.059779  3616 net.cpp:136] Top shape: 50 1000 (50000)
I1218 07:50:00.059782  3616 net.cpp:144] Memory required for data: 416563000
I1218 07:50:00.059787  3616 layer_factory.hpp:77] Creating layer accuracy_top1
I1218 07:50:00.059801  3616 net.cpp:84] Creating Layer accuracy_top1
I1218 07:50:00.059806  3616 net.cpp:413] accuracy_top1 <- fc8_fc8_0_split_0
I1218 07:50:00.059811  3616 net.cpp:413] accuracy_top1 <- label_data_1_split_0
I1218 07:50:00.059818  3616 net.cpp:387] accuracy_top1 -> accuracy_top1
…
