…
I1223 20:38:32.083859 24505 net.cpp:301] The NetState phase (0) differed from the phase (1) specified by a rule in layer accuracy_top5
I1223 20:38:32.084516 24505 net.cpp:51] Initializing net from parameters: 
name: "AlexNet"
state {
  phase: TRAIN
  level: 0
  stage: ""
}
layer {
  name: "data"
  type: "Data"
  top: "data"
  top: "label"
  include {
    phase: TRAIN
  }
  transform_param {
    mirror: true
    crop_size: 227
    mean_file: "/home/data/caffe-imagenet/imagenet_mean.binaryproto"
  }
  data_param {
    source: "/home/data/caffe-imagenet/ilsvrc12_train_lmdb"
    batch_size: 256
    backend: LMDB
  }
}
layer {
  name: "conv1"
  type: "INQConvolution"
  bottom: "data"
  top: "conv1"
  param {
    lr_mult: 1
    decay_mult: 1
  }
  param {
    lr_mult: 2
    decay_mult: 0
  }
  convolution_param {
    num_output: 96
    kernel_size: 11
    stride: 4
    weight_filler {
      type: "gaussian"
      std: 0.01
    }
    bias_filler {
      type: "constant"
      value: 0
    }
  }
  inq_convolution_param {
    portion: 0.9
    portion: 0.97
    weight_mask_filler {
      type: "constant"
      value: 1
    }
    bias_mask_filler {
      type: "constant"
      value: 1
    }
    num_quantum_values: 7
  }
}
layer {
  name: "relu1"
  type: "ReLU"
  bottom: "conv1"
  top: "conv1"
}
layer {
  name: "norm1"
  type: "LRN"
  bottom: "conv1"
  top: "norm1"
  lrn_param {
    local_size: 5
    alpha: 0.0001
    beta: 0.75
  }
}
layer {
  name: "pool1"
  type: "Pooling"
  bottom: "norm1"
  top: "pool1"
  pooling_param {
    pool: MAX
    kernel_size: 3
    stride: 2
  }
}
layer {
  name: "conv2"
  type: "INQConvolution"
  bottom: "pool1"
  top: "conv2"
  param {
    lr_mult: 1
    decay_mult: 1
  }
  param {
    lr_mult: 2
    decay_mult: 0
  }
  convolution_param {
    num_output: 256
    pad: 2
    kernel_size: 5
    group: 2
    weight_filler {
      type: "gaussian"
      std: 0.01
    }
    bias_filler {
      type: "constant"
      value: 0.1
    }
  }
  inq_convolution_param {
    portion: 0.9
    portion: 0.97
    weight_mask_filler {
      type: "constant"
      value: 1
    }
    bias_mask_filler {
      type: "constant"
      value: 1
    }
    num_quantum_values: 7
  }
}
layer {
  name: "relu2"
  type: "ReLU"
  bottom: "conv2"
  top: "conv2"
}
layer {
  name: "norm2"
  type: "LRN"
  bottom: "conv2"
  top: "norm2"
  lrn_param {
    local_size: 5
    alpha: 0.0001
    beta: 0.75
  }
}
layer {
  name: "pool2"
  type: "Pooling"
  bottom: "norm2"
  top: "pool2"
  pooling_param {
    pool: MAX
    kernel_size: 3
    stride: 2
  }
}
layer {
  name: "conv3"
  type: "INQConvolution"
  bottom: "pool2"
  top: "conv3"
  param {
    lr_mult: 1
    decay_mult: 1
  }
  param {
    lr_mult: 2
    decay_mult: 0
  }
  convolution_param {
    num_output: 384
    pad: 1
    kernel_size: 3
    weight_filler {
      type: "gaussian"
      std: 0.01
    }
    bias_filler {
      type: "constant"
      value: 0
    }
  }
  inq_convolution_param {
    portion: 0.9
    portion: 0.97
    weight_mask_filler {
      type: "constant"
      value: 1
    }
    bias_mask_filler {
      type: "constant"
      value: 1
    }
    num_quantum_values: 7
  }
}
layer {
  name: "relu3"
  type: "ReLU"
  bottom: "conv3"
  top: "conv3"
}
layer {
  name: "conv4"
  type: "INQConvolution"
  bottom: "conv3"
  top: "conv4"
  param {
    lr_mult: 1
    decay_mult: 1
  }
  param {
    lr_mult: 2
    decay_mult: 0
  }
  convolution_param {
    num_output: 384
    pad: 1
    kernel_size: 3
    group: 2
    weight_filler {
      type: "gaussian"
      std: 0.01
    }
    bias_filler {
      type: "constant"
      value: 0.1
    }
  }
  inq_convolution_param {
    portion: 0.9
    portion: 0.97
    weight_mask_filler {
      type: "constant"
      value: 1
    }
    bias_mask_filler {
      type: "constant"
      value: 1
    }
    num_quantum_values: 7
  }
}
layer {
  name: "relu4"
  type: "ReLU"
  bottom: "conv4"
  top: "conv4"
}
layer {
  name: "conv5"
  type: "INQConvolution"
  bottom: "conv4"
  top: "conv5"
  param {
    lr_mult: 1
    decay_mult: 1
  }
  param {
    lr_mult: 2
    decay_mult: 0
  }
  convolution_param {
    num_output: 256
    pad: 1
    kernel_size: 3
    group: 2
    weight_filler {
      type: "gaussian"
      std: 0.01
    }
    bias_filler {
      type: "constant"
      value: 0.1
    }
  }
  inq_convolution_param {
    portion: 0.9
    portion: 0.97
    weight_mask_filler {
      type: "constant"
      value: 1
    }
    bias_mask_filler {
      type: "constant"
      value: 1
    }
    num_quantum_values: 7
  }
}
layer {
  name: "relu5"
  type: "ReLU"
  bottom: "conv5"
  top: "conv5"
}
layer {
  name: "pool5"
  type: "Pooling"
  bottom: "conv5"
  top: "pool5"
  pooling_param {
    pool: MAX
    kernel_size: 3
    stride: 2
  }
}
layer {
  name: "fc6"
  type: "INQInnerProduct"
  bottom: "pool5"
  top: "fc6"
  param {
    lr_mult: 1
    decay_mult: 1
  }
  param {
    lr_mult: 2
    decay_mult: 0
  }
  inner_product_param {
    num_output: 4096
    weight_filler {
      type: "gaussian"
      std: 0.005
    }
    bias_filler {
      type: "constant"
      value: 0.1
    }
  }
  inq_inner_product_param {
    portion: 0.9
    portion: 0.97
    weight_mask_filler {
      type: "constant"
      value: 1
    }
    bias_mask_filler {
      type: "constant"
      value: 1
    }
    num_quantum_values: 7
  }
}
layer {
  name: "relu6"
  type: "ReLU"
  bottom: "fc6"
  top: "fc6"
}
layer {
  name: "drop6"
  type: "Dropout"
  bottom: "fc6"
  top: "fc6"
  dropout_param {
    dropout_ratio: 0.5
  }
}
layer {
  name: "fc7"
  type: "INQInnerProduct"
  bottom: "fc6"
  top: "fc7"
  param {
    lr_mult: 1
    decay_mult: 1
  }
  param {
    lr_mult: 2
    decay_mult: 0
  }
  inner_product_param {
    num_output: 4096
    weight_filler {
      type: "gaussian"
      std: 0.005
    }
    bias_filler {
      type: "constant"
      value: 0.1
    }
  }
  inq_inner_product_param {
    portion: 0.9
    portion: 0.97
    weight_mask_filler {
      type: "constant"
      value: 1
    }
    bias_mask_filler {
      type: "constant"
      value: 1
    }
    num_quantum_values: 7
  }
}
layer {
  name: "relu7"
  type: "ReLU"
  bottom: "fc7"
  top: "fc7"
}
layer {
  name: "drop7"
  type: "Dropout"
  bottom: "fc7"
  top: "fc7"
  dropout_param {
    dropout_ratio: 0.5
  }
}
layer {
  name: "fc8"
  type: "INQInnerProduct"
  bottom: "fc7"
  top: "fc8"
  param {
    lr_mult: 1
    decay_mult: 1
  }
  param {
    lr_mult: 2
    decay_mult: 0
  }
  inner_product_param {
    num_output: 1000
    weight_filler {
      type: "gaussian"
      std: 0.01
    }
    bias_filler {
      type: "constant"
      value: 0
    }
  }
  inq_inner_product_param {
    portion: 0.9
    portion: 0.97
    weight_mask_filler {
      type: "constant"
      value: 1
    }
    bias_mask_filler {
      type: "constant"
      value: 1
    }
    num_quantum_values: 7
  }
}
layer {
  name: "loss"
  type: "SoftmaxWithLoss"
  bottom: "fc8"
  bottom: "label"
  top: "loss"
}
I1223 20:38:32.084833 24505 layer_factory.hpp:77] Creating layer data
I1223 20:38:32.085084 24505 db_lmdb.cpp:35] Opened lmdb /home/data/caffe-imagenet/ilsvrc12_train_lmdb
I1223 20:38:32.085180 24505 net.cpp:84] Creating Layer data
I1223 20:38:32.085198 24505 net.cpp:387] data -> data
I1223 20:38:32.085252 24505 net.cpp:387] data -> label
I1223 20:38:32.085284 24505 data_transformer.cpp:25] Loading mean file from: /home/data/caffe-imagenet/imagenet_mean.binaryproto
I1223 20:38:32.107333 24505 data_layer.cpp:45] output data size: 256,3,227,227
I1223 20:38:32.538527 24505 net.cpp:127] Setting up data
I1223 20:38:32.538578 24505 net.cpp:136] Top shape: 256 3 227 227 (39574272)
I1223 20:38:32.538586 24505 net.cpp:136] Top shape: 256 (256)
I1223 20:38:32.538590 24505 net.cpp:144] Memory required for data: 158298112
I1223 20:38:32.538604 24505 layer_factory.hpp:77] Creating layer conv1
I1223 20:38:32.538631 24505 net.cpp:84] Creating Layer conv1
I1223 20:38:32.538640 24505 net.cpp:413] conv1 <- data
I1223 20:38:32.538660 24505 net.cpp:387] conv1 -> conv1
I1223 20:38:32.556677 24505 net.cpp:127] Setting up conv1
I1223 20:38:32.556707 24505 net.cpp:136] Top shape: 256 96 55 55 (74342400)
I1223 20:38:32.556715 24505 net.cpp:144] Memory required for data: 455667712
I1223 20:38:32.556744 24505 net.cpp:453] Found INQ layer:conv1, type: INQConvolution, layer id:1
I1223 20:38:32.556763 24505 net.cpp:453] Found INQ layer:conv1, type: INQConvolution, layer id:1
I1223 20:38:32.556777 24505 net.cpp:453] Found INQ layer:conv1, type: INQConvolution, layer id:1
I1223 20:38:32.556788 24505 net.cpp:453] Found INQ layer:conv1, type: INQConvolution, layer id:1
I1223 20:38:32.556795 24505 layer_factory.hpp:77] Creating layer relu1
I1223 20:38:32.556820 24505 net.cpp:84] Creating Layer relu1
I1223 20:38:32.556828 24505 net.cpp:413] relu1 <- conv1
I1223 20:38:32.556839 24505 net.cpp:374] relu1 -> conv1 (in-place)
I1223 20:38:33.976511 24505 net.cpp:127] Setting up relu1
I1223 20:38:33.976562 24505 net.cpp:136] Top shape: 256 96 55 55 (74342400)
I1223 20:38:33.976568 24505 net.cpp:144] Memory required for data: 753037312
I1223 20:38:33.976582 24505 layer_factory.hpp:77] Creating layer norm1
I1223 20:38:33.976616 24505 net.cpp:84] Creating Layer norm1
I1223 20:38:33.976626 24505 net.cpp:413] norm1 <- conv1
I1223 20:38:33.976640 24505 net.cpp:387] norm1 -> norm1
I1223 20:38:33.978682 24505 net.cpp:127] Setting up norm1
I1223 20:38:33.978704 24505 net.cpp:136] Top shape: 256 96 55 55 (74342400)
I1223 20:38:33.978711 24505 net.cpp:144] Memory required for data: 1050406912
I1223 20:38:33.978719 24505 layer_factory.hpp:77] Creating layer pool1
I1223 20:38:33.978737 24505 net.cpp:84] Creating Layer pool1
I1223 20:38:33.978744 24505 net.cpp:413] pool1 <- norm1
I1223 20:38:33.978754 24505 net.cpp:387] pool1 -> pool1
I1223 20:38:33.978832 24505 net.cpp:127] Setting up pool1
I1223 20:38:33.978843 24505 net.cpp:136] Top shape: 256 96 27 27 (17915904)
I1223 20:38:33.978848 24505 net.cpp:144] Memory required for data: 1122070528
I1223 20:38:33.978854 24505 layer_factory.hpp:77] Creating layer conv2
I1223 20:38:33.978874 24505 net.cpp:84] Creating Layer conv2
I1223 20:38:33.978880 24505 net.cpp:413] conv2 <- pool1
I1223 20:38:33.978889 24505 net.cpp:387] conv2 -> conv2
I1223 20:38:33.988204 24505 net.cpp:127] Setting up conv2
I1223 20:38:33.988224 24505 net.cpp:136] Top shape: 256 256 27 27 (47775744)
I1223 20:38:33.988230 24505 net.cpp:144] Memory required for data: 1313173504
I1223 20:38:33.988246 24505 net.cpp:453] Found INQ layer:conv2, type: INQConvolution, layer id:5
I1223 20:38:33.988260 24505 net.cpp:453] Found INQ layer:conv2, type: INQConvolution, layer id:5
I1223 20:38:33.988267 24505 net.cpp:453] Found INQ layer:conv2, type: INQConvolution, layer id:5
I1223 20:38:33.988274 24505 net.cpp:453] Found INQ layer:conv2, type: INQConvolution, layer id:5
I1223 20:38:33.988279 24505 layer_factory.hpp:77] Creating layer relu2
I1223 20:38:33.988291 24505 net.cpp:84] Creating Layer relu2
I1223 20:38:33.988297 24505 net.cpp:413] relu2 <- conv2
I1223 20:38:33.988306 24505 net.cpp:374] relu2 -> conv2 (in-place)
I1223 20:38:33.988605 24505 net.cpp:127] Setting up relu2
I1223 20:38:33.988618 24505 net.cpp:136] Top shape: 256 256 27 27 (47775744)
I1223 20:38:33.988656 24505 net.cpp:144] Memory required for data: 1504276480
I1223 20:38:33.988663 24505 layer_factory.hpp:77] Creating layer norm2
I1223 20:38:33.988675 24505 net.cpp:84] Creating Layer norm2
I1223 20:38:33.988682 24505 net.cpp:413] norm2 <- conv2
I1223 20:38:33.988689 24505 net.cpp:387] norm2 -> norm2
I1223 20:38:33.988991 24505 net.cpp:127] Setting up norm2
I1223 20:38:33.989002 24505 net.cpp:136] Top shape: 256 256 27 27 (47775744)
I1223 20:38:33.989007 24505 net.cpp:144] Memory required for data: 1695379456
I1223 20:38:33.989012 24505 layer_factory.hpp:77] Creating layer pool2
I1223 20:38:33.989024 24505 net.cpp:84] Creating Layer pool2
I1223 20:38:33.989029 24505 net.cpp:413] pool2 <- norm2
I1223 20:38:33.989037 24505 net.cpp:387] pool2 -> pool2
I1223 20:38:33.989085 24505 net.cpp:127] Setting up pool2
I1223 20:38:33.989094 24505 net.cpp:136] Top shape: 256 256 13 13 (11075584)
I1223 20:38:33.989099 24505 net.cpp:144] Memory required for data: 1739681792
I1223 20:38:33.989104 24505 layer_factory.hpp:77] Creating layer conv3
I1223 20:38:33.989118 24505 net.cpp:84] Creating Layer conv3
I1223 20:38:33.989123 24505 net.cpp:413] conv3 <- pool2
I1223 20:38:33.989132 24505 net.cpp:387] conv3 -> conv3
I1223 20:38:34.008867 24505 net.cpp:127] Setting up conv3
I1223 20:38:34.008888 24505 net.cpp:136] Top shape: 256 384 13 13 (16613376)
I1223 20:38:34.008893 24505 net.cpp:144] Memory required for data: 1806135296
I1223 20:38:34.008903 24505 net.cpp:453] Found INQ layer:conv3, type: INQConvolution, layer id:9
I1223 20:38:34.008913 24505 net.cpp:453] Found INQ layer:conv3, type: INQConvolution, layer id:9
I1223 20:38:34.008919 24505 net.cpp:453] Found INQ layer:conv3, type: INQConvolution, layer id:9
I1223 20:38:34.008925 24505 net.cpp:453] Found INQ layer:conv3, type: INQConvolution, layer id:9
I1223 20:38:34.008930 24505 layer_factory.hpp:77] Creating layer relu3
I1223 20:38:34.008939 24505 net.cpp:84] Creating Layer relu3
I1223 20:38:34.008944 24505 net.cpp:413] relu3 <- conv3
I1223 20:38:34.008952 24505 net.cpp:374] relu3 -> conv3 (in-place)
I1223 20:38:34.010716 24505 net.cpp:127] Setting up relu3
I1223 20:38:34.010735 24505 net.cpp:136] Top shape: 256 384 13 13 (16613376)
I1223 20:38:34.010741 24505 net.cpp:144] Memory required for data: 1872588800
I1223 20:38:34.010751 24505 layer_factory.hpp:77] Creating layer conv4
I1223 20:38:34.010764 24505 net.cpp:84] Creating Layer conv4
I1223 20:38:34.010771 24505 net.cpp:413] conv4 <- conv3
I1223 20:38:34.010779 24505 net.cpp:387] conv4 -> conv4
I1223 20:38:34.024689 24505 net.cpp:127] Setting up conv4
I1223 20:38:34.024708 24505 net.cpp:136] Top shape: 256 384 13 13 (16613376)
I1223 20:38:34.024713 24505 net.cpp:144] Memory required for data: 1939042304
I1223 20:38:34.024720 24505 net.cpp:453] Found INQ layer:conv4, type: INQConvolution, layer id:11
I1223 20:38:34.024727 24505 net.cpp:453] Found INQ layer:conv4, type: INQConvolution, layer id:11
I1223 20:38:34.024734 24505 net.cpp:453] Found INQ layer:conv4, type: INQConvolution, layer id:11
I1223 20:38:34.024739 24505 net.cpp:453] Found INQ layer:conv4, type: INQConvolution, layer id:11
I1223 20:38:34.024744 24505 layer_factory.hpp:77] Creating layer relu4
I1223 20:38:34.024751 24505 net.cpp:84] Creating Layer relu4
I1223 20:38:34.024756 24505 net.cpp:413] relu4 <- conv4
I1223 20:38:34.024763 24505 net.cpp:374] relu4 -> conv4 (in-place)
I1223 20:38:34.025012 24505 net.cpp:127] Setting up relu4
I1223 20:38:34.025022 24505 net.cpp:136] Top shape: 256 384 13 13 (16613376)
I1223 20:38:34.025025 24505 net.cpp:144] Memory required for data: 2005495808
I1223 20:38:34.025032 24505 layer_factory.hpp:77] Creating layer conv5
I1223 20:38:34.025048 24505 net.cpp:84] Creating Layer conv5
I1223 20:38:34.025053 24505 net.cpp:413] conv5 <- conv4
I1223 20:38:34.025061 24505 net.cpp:387] conv5 -> conv5
I1223 20:38:34.034548 24505 net.cpp:127] Setting up conv5
I1223 20:38:34.034564 24505 net.cpp:136] Top shape: 256 256 13 13 (11075584)
I1223 20:38:34.034574 24505 net.cpp:144] Memory required for data: 2049798144
I1223 20:38:34.034598 24505 net.cpp:453] Found INQ layer:conv5, type: INQConvolution, layer id:13
I1223 20:38:34.034607 24505 net.cpp:453] Found INQ layer:conv5, type: INQConvolution, layer id:13
I1223 20:38:34.034613 24505 net.cpp:453] Found INQ layer:conv5, type: INQConvolution, layer id:13
I1223 20:38:34.034618 24505 net.cpp:453] Found INQ layer:conv5, type: INQConvolution, layer id:13
I1223 20:38:34.034622 24505 layer_factory.hpp:77] Creating layer relu5
I1223 20:38:34.034631 24505 net.cpp:84] Creating Layer relu5
I1223 20:38:34.034636 24505 net.cpp:413] relu5 <- conv5
I1223 20:38:34.034642 24505 net.cpp:374] relu5 -> conv5 (in-place)
I1223 20:38:34.034874 24505 net.cpp:127] Setting up relu5
I1223 20:38:34.034884 24505 net.cpp:136] Top shape: 256 256 13 13 (11075584)
I1223 20:38:34.034888 24505 net.cpp:144] Memory required for data: 2094100480
I1223 20:38:34.034893 24505 layer_factory.hpp:77] Creating layer pool5
I1223 20:38:34.034900 24505 net.cpp:84] Creating Layer pool5
I1223 20:38:34.034905 24505 net.cpp:413] pool5 <- conv5
I1223 20:38:34.034911 24505 net.cpp:387] pool5 -> pool5
I1223 20:38:34.034960 24505 net.cpp:127] Setting up pool5
I1223 20:38:34.034966 24505 net.cpp:136] Top shape: 256 256 6 6 (2359296)
I1223 20:38:34.034970 24505 net.cpp:144] Memory required for data: 2103537664
I1223 20:38:34.034973 24505 layer_factory.hpp:77] Creating layer fc6
I1223 20:38:34.034992 24505 net.cpp:84] Creating Layer fc6
I1223 20:38:34.034996 24505 net.cpp:413] fc6 <- pool5
I1223 20:38:34.035003 24505 net.cpp:387] fc6 -> fc6
I1223 20:38:34.648754 24505 net.cpp:127] Setting up fc6
I1223 20:38:34.648797 24505 net.cpp:136] Top shape: 256 4096 (1048576)
I1223 20:38:34.648802 24505 net.cpp:144] Memory required for data: 2107731968
I1223 20:38:34.648811 24505 net.cpp:453] Found INQ layer:fc6, type: INQInnerProduct, layer id:16
I1223 20:38:34.648819 24505 net.cpp:453] Found INQ layer:fc6, type: INQInnerProduct, layer id:16
I1223 20:38:34.648825 24505 net.cpp:453] Found INQ layer:fc6, type: INQInnerProduct, layer id:16
I1223 20:38:34.648829 24505 net.cpp:453] Found INQ layer:fc6, type: INQInnerProduct, layer id:16
I1223 20:38:34.648836 24505 layer_factory.hpp:77] Creating layer relu6
I1223 20:38:34.648849 24505 net.cpp:84] Creating Layer relu6
I1223 20:38:34.648854 24505 net.cpp:413] relu6 <- fc6
I1223 20:38:34.648865 24505 net.cpp:374] relu6 -> fc6 (in-place)
I1223 20:38:34.649164 24505 net.cpp:127] Setting up relu6
I1223 20:38:34.649173 24505 net.cpp:136] Top shape: 256 4096 (1048576)
I1223 20:38:34.649178 24505 net.cpp:144] Memory required for data: 2111926272
I1223 20:38:34.649183 24505 layer_factory.hpp:77] Creating layer drop6
I1223 20:38:34.649193 24505 net.cpp:84] Creating Layer drop6
I1223 20:38:34.649196 24505 net.cpp:413] drop6 <- fc6
I1223 20:38:34.649204 24505 net.cpp:374] drop6 -> fc6 (in-place)
I1223 20:38:34.649233 24505 net.cpp:127] Setting up drop6
I1223 20:38:34.649240 24505 net.cpp:136] Top shape: 256 4096 (1048576)
I1223 20:38:34.649243 24505 net.cpp:144] Memory required for data: 2116120576
I1223 20:38:34.649247 24505 layer_factory.hpp:77] Creating layer fc7
I1223 20:38:34.649262 24505 net.cpp:84] Creating Layer fc7
I1223 20:38:34.649266 24505 net.cpp:413] fc7 <- fc6
I1223 20:38:34.649276 24505 net.cpp:387] fc7 -> fc7
I1223 20:38:34.921257 24505 net.cpp:127] Setting up fc7
I1223 20:38:34.921298 24505 net.cpp:136] Top shape: 256 4096 (1048576)
I1223 20:38:34.921303 24505 net.cpp:144] Memory required for data: 2120314880
I1223 20:38:34.921314 24505 net.cpp:453] Found INQ layer:fc7, type: INQInnerProduct, layer id:19
I1223 20:38:34.921320 24505 net.cpp:453] Found INQ layer:fc7, type: INQInnerProduct, layer id:19
I1223 20:38:34.921326 24505 net.cpp:453] Found INQ layer:fc7, type: INQInnerProduct, layer id:19
I1223 20:38:34.921331 24505 net.cpp:453] Found INQ layer:fc7, type: INQInnerProduct, layer id:19
I1223 20:38:34.921335 24505 layer_factory.hpp:77] Creating layer relu7
I1223 20:38:34.921350 24505 net.cpp:84] Creating Layer relu7
I1223 20:38:34.921360 24505 net.cpp:413] relu7 <- fc7
I1223 20:38:34.921396 24505 net.cpp:374] relu7 -> fc7 (in-place)
I1223 20:38:34.923030 24505 net.cpp:127] Setting up relu7
I1223 20:38:34.923046 24505 net.cpp:136] Top shape: 256 4096 (1048576)
I1223 20:38:34.923051 24505 net.cpp:144] Memory required for data: 2124509184
I1223 20:38:34.923058 24505 layer_factory.hpp:77] Creating layer drop7
I1223 20:38:34.923066 24505 net.cpp:84] Creating Layer drop7
I1223 20:38:34.923070 24505 net.cpp:413] drop7 <- fc7
I1223 20:38:34.923077 24505 net.cpp:374] drop7 -> fc7 (in-place)
I1223 20:38:34.923105 24505 net.cpp:127] Setting up drop7
I1223 20:38:34.923112 24505 net.cpp:136] Top shape: 256 4096 (1048576)
I1223 20:38:34.923115 24505 net.cpp:144] Memory required for data: 2128703488
I1223 20:38:34.923120 24505 layer_factory.hpp:77] Creating layer fc8
I1223 20:38:34.923135 24505 net.cpp:84] Creating Layer fc8
I1223 20:38:34.923138 24505 net.cpp:413] fc8 <- fc7
I1223 20:38:34.923144 24505 net.cpp:387] fc8 -> fc8
I1223 20:38:34.990597 24505 net.cpp:127] Setting up fc8
I1223 20:38:34.990624 24505 net.cpp:136] Top shape: 256 1000 (256000)
I1223 20:38:34.990628 24505 net.cpp:144] Memory required for data: 2129727488
I1223 20:38:34.990638 24505 net.cpp:453] Found INQ layer:fc8, type: INQInnerProduct, layer id:22
I1223 20:38:34.990645 24505 net.cpp:453] Found INQ layer:fc8, type: INQInnerProduct, layer id:22
I1223 20:38:34.990651 24505 net.cpp:453] Found INQ layer:fc8, type: INQInnerProduct, layer id:22
I1223 20:38:34.990655 24505 net.cpp:453] Found INQ layer:fc8, type: INQInnerProduct, layer id:22
…
I1223 20:38:34.995369 24505 net.cpp:301] The NetState phase (1) differed from the phase (0) specified by a rule in layer data
I1223 20:38:34.996057 24505 net.cpp:51] Initializing net from parameters: 
name: "AlexNet"
state {
  phase: TEST
}
layer {
  name: "data"
  type: "Data"
  top: "data"
  top: "label"
  include {
    phase: TEST
  }
  transform_param {
    mirror: false
    crop_size: 227
    mean_file: "/home/data/caffe-imagenet/imagenet_mean.binaryproto"
  }
  data_param {
    source: "/home/data/caffe-imagenet/ilsvrc12_val_lmdb"
    batch_size: 50
    backend: LMDB
  }
}
layer {
  name: "conv1"
  type: "INQConvolution"
  bottom: "data"
  top: "conv1"
  param {
    lr_mult: 1
    decay_mult: 1
  }
  param {
    lr_mult: 2
    decay_mult: 0
  }
  convolution_param {
    num_output: 96
    kernel_size: 11
    stride: 4
    weight_filler {
      type: "gaussian"
      std: 0.01
    }
    bias_filler {
      type: "constant"
      value: 0
    }
  }
  inq_convolution_param {
    portion: 0.9
    portion: 0.97
    weight_mask_filler {
      type: "constant"
      value: 1
    }
    bias_mask_filler {
      type: "constant"
      value: 1
    }
    num_quantum_values: 7
  }
}
layer {
  name: "relu1"
  type: "ReLU"
  bottom: "conv1"
  top: "conv1"
}
layer {
  name: "norm1"
  type: "LRN"
  bottom: "conv1"
  top: "norm1"
  lrn_param {
    local_size: 5
    alpha: 0.0001
    beta: 0.75
  }
}
layer {
  name: "pool1"
  type: "Pooling"
  bottom: "norm1"
  top: "pool1"
  pooling_param {
    pool: MAX
    kernel_size: 3
    stride: 2
  }
}
layer {
  name: "conv2"
  type: "INQConvolution"
  bottom: "pool1"
  top: "conv2"
  param {
    lr_mult: 1
    decay_mult: 1
  }
  param {
    lr_mult: 2
    decay_mult: 0
  }
  convolution_param {
    num_output: 256
    pad: 2
    kernel_size: 5
    group: 2
    weight_filler {
      type: "gaussian"
      std: 0.01
    }
    bias_filler {
      type: "constant"
      value: 0.1
    }
  }
  inq_convolution_param {
    portion: 0.9
    portion: 0.97
    weight_mask_filler {
      type: "constant"
      value: 1
    }
    bias_mask_filler {
      type: "constant"
      value: 1
    }
    num_quantum_values: 7
  }
}
layer {
  name: "relu2"
  type: "ReLU"
  bottom: "conv2"
  top: "conv2"
}
layer {
  name: "norm2"
  type: "LRN"
  bottom: "conv2"
  top: "norm2"
  lrn_param {
    local_size: 5
    alpha: 0.0001
    beta: 0.75
  }
}
layer {
  name: "pool2"
  type: "Pooling"
  bottom: "norm2"
  top: "pool2"
  pooling_param {
    pool: MAX
    kernel_size: 3
    stride: 2
  }
}
layer {
  name: "conv3"
  type: "INQConvolution"
  bottom: "pool2"
  top: "conv3"
  param {
    lr_mult: 1
    decay_mult: 1
  }
  param {
    lr_mult: 2
    decay_mult: 0
  }
  convolution_param {
    num_output: 384
    pad: 1
    kernel_size: 3
    weight_filler {
      type: "gaussian"
      std: 0.01
    }
    bias_filler {
      type: "constant"
      value: 0
    }
  }
  inq_convolution_param {
    portion: 0.9
    portion: 0.97
    weight_mask_filler {
      type: "constant"
      value: 1
    }
    bias_mask_filler {
      type: "constant"
      value: 1
    }
    num_quantum_values: 7
  }
}
layer {
  name: "relu3"
  type: "ReLU"
  bottom: "conv3"
  top: "conv3"
}
layer {
  name: "conv4"
  type: "INQConvolution"
  bottom: "conv3"
  top: "conv4"
  param {
    lr_mult: 1
    decay_mult: 1
  }
  param {
    lr_mult: 2
    decay_mult: 0
  }
  convolution_param {
    num_output: 384
    pad: 1
    kernel_size: 3
    group: 2
    weight_filler {
      type: "gaussian"
      std: 0.01
    }
    bias_filler {
      type: "constant"
      value: 0.1
    }
  }
  inq_convolution_param {
    portion: 0.9
    portion: 0.97
    weight_mask_filler {
      type: "constant"
      value: 1
    }
    bias_mask_filler {
      type: "constant"
      value: 1
    }
    num_quantum_values: 7
  }
}
layer {
  name: "relu4"
  type: "ReLU"
  bottom: "conv4"
  top: "conv4"
}
layer {
  name: "conv5"
  type: "INQConvolution"
  bottom: "conv4"
  top: "conv5"
  param {
    lr_mult: 1
    decay_mult: 1
  }
  param {
    lr_mult: 2
    decay_mult: 0
  }
  convolution_param {
    num_output: 256
    pad: 1
    kernel_size: 3
    group: 2
    weight_filler {
      type: "gaussian"
      std: 0.01
    }
    bias_filler {
      type: "constant"
      value: 0.1
    }
  }
  inq_convolution_param {
    portion: 0.9
    portion: 0.97
    weight_mask_filler {
      type: "constant"
      value: 1
    }
    bias_mask_filler {
      type: "constant"
      value: 1
    }
    num_quantum_values: 7
  }
}
layer {
  name: "relu5"
  type: "ReLU"
  bottom: "conv5"
  top: "conv5"
}
layer {
  name: "pool5"
  type: "Pooling"
  bottom: "conv5"
  top: "pool5"
  pooling_param {
    pool: MAX
    kernel_size: 3
    stride: 2
  }
}
layer {
  name: "fc6"
  type: "INQInnerProduct"
  bottom: "pool5"
  top: "fc6"
  param {
    lr_mult: 1
    decay_mult: 1
  }
  param {
    lr_mult: 2
    decay_mult: 0
  }
  inner_product_param {
    num_output: 4096
    weight_filler {
      type: "gaussian"
      std: 0.005
    }
    bias_filler {
      type: "constant"
      value: 0.1
    }
  }
  inq_inner_product_param {
    portion: 0.9
    portion: 0.97
    weight_mask_filler {
      type: "constant"
      value: 1
    }
    bias_mask_filler {
      type: "constant"
      value: 1
    }
    num_quantum_values: 7
  }
}
layer {
  name: "relu6"
  type: "ReLU"
  bottom: "fc6"
  top: "fc6"
}
layer {
  name: "drop6"
  type: "Dropout"
  bottom: "fc6"
  top: "fc6"
  dropout_param {
    dropout_ratio: 0.5
  }
}
layer {
  name: "fc7"
  type: "INQInnerProduct"
  bottom: "fc6"
  top: "fc7"
  param {
    lr_mult: 1
    decay_mult: 1
  }
  param {
    lr_mult: 2
    decay_mult: 0
  }
  inner_product_param {
    num_output: 4096
    weight_filler {
      type: "gaussian"
      std: 0.005
    }
    bias_filler {
      type: "constant"
      value: 0.1
    }
  }
  inq_inner_product_param {
    portion: 0.9
    portion: 0.97
    weight_mask_filler {
      type: "constant"
      value: 1
    }
    bias_mask_filler {
      type: "constant"
      value: 1
    }
    num_quantum_values: 7
  }
}
layer {
  name: "relu7"
  type: "ReLU"
  bottom: "fc7"
  top: "fc7"
}
layer {
  name: "drop7"
  type: "Dropout"
  bottom: "fc7"
  top: "fc7"
  dropout_param {
    dropout_ratio: 0.5
  }
}
layer {
  name: "fc8"
  type: "INQInnerProduct"
  bottom: "fc7"
  top: "fc8"
  param {
    lr_mult: 1
    decay_mult: 1
  }
  param {
    lr_mult: 2
    decay_mult: 0
  }
  inner_product_param {
    num_output: 1000
    weight_filler {
      type: "gaussian"
      std: 0.01
    }
    bias_filler {
      type: "constant"
      value: 0
    }
  }
  inq_inner_product_param {
    portion: 0.9
    portion: 0.97
    weight_mask_filler {
      type: "constant"
      value: 1
    }
    bias_mask_filler {
      type: "constant"
      value: 1
    }
    num_quantum_values: 7
  }
}
layer {
  name: "accuracy_top1"
  type: "Accuracy"
  bottom: "fc8"
  bottom: "label"
  top: "accuracy_top1"
  include {
    phase: TEST
  }
  accuracy_param {
    top_k: 1
  }
}
layer {
  name: "accuracy_top5"
  type: "Accuracy"
  bottom: "fc8"
  bottom: "label"
  top: "accuracy_top5"
  include {
    phase: TEST
  }
  accuracy_param {
    top_k: 5
  }
}
layer {
  name: "loss"
  type: "SoftmaxWithLoss"
  bottom: "fc8"
  bottom: "label"
  top: "loss"
}
I1223 20:38:34.996353 24505 layer_factory.hpp:77] Creating layer data
I1223 20:38:34.996464 24505 db_lmdb.cpp:35] Opened lmdb /home/data/caffe-imagenet/ilsvrc12_val_lmdb
I1223 20:38:34.996493 24505 net.cpp:84] Creating Layer data
I1223 20:38:34.996508 24505 net.cpp:387] data -> data
I1223 20:38:34.996526 24505 net.cpp:387] data -> label
I1223 20:38:34.996551 24505 data_transformer.cpp:25] Loading mean file from: /home/data/caffe-imagenet/imagenet_mean.binaryproto
I1223 20:38:35.000154 24505 data_layer.cpp:45] output data size: 50,3,227,227
I1223 20:38:35.103730 24505 net.cpp:127] Setting up data
I1223 20:38:35.103781 24505 net.cpp:136] Top shape: 50 3 227 227 (7729350)
I1223 20:38:35.103822 24505 net.cpp:136] Top shape: 50 (50)
I1223 20:38:35.103826 24505 net.cpp:144] Memory required for data: 30917600
I1223 20:38:35.103837 24505 layer_factory.hpp:77] Creating layer label_data_1_split
I1223 20:38:35.103857 24505 net.cpp:84] Creating Layer label_data_1_split
I1223 20:38:35.103863 24505 net.cpp:413] label_data_1_split <- label
I1223 20:38:35.103873 24505 net.cpp:387] label_data_1_split -> label_data_1_split_0
I1223 20:38:35.103886 24505 net.cpp:387] label_data_1_split -> label_data_1_split_1
I1223 20:38:35.103893 24505 net.cpp:387] label_data_1_split -> label_data_1_split_2
I1223 20:38:35.104028 24505 net.cpp:127] Setting up label_data_1_split
I1223 20:38:35.104038 24505 net.cpp:136] Top shape: 50 (50)
I1223 20:38:35.104041 24505 net.cpp:136] Top shape: 50 (50)
I1223 20:38:35.104046 24505 net.cpp:136] Top shape: 50 (50)
I1223 20:38:35.104049 24505 net.cpp:144] Memory required for data: 30918200
I1223 20:38:35.104054 24505 layer_factory.hpp:77] Creating layer conv1
I1223 20:38:35.104071 24505 net.cpp:84] Creating Layer conv1
I1223 20:38:35.104076 24505 net.cpp:413] conv1 <- data
I1223 20:38:35.104085 24505 net.cpp:387] conv1 -> conv1
I1223 20:38:35.105074 24505 net.cpp:127] Setting up conv1
I1223 20:38:35.105087 24505 net.cpp:136] Top shape: 50 96 55 55 (14520000)
I1223 20:38:35.105090 24505 net.cpp:144] Memory required for data: 88998200
I1223 20:38:35.105099 24505 net.cpp:453] Found INQ layer:conv1, type: INQConvolution, layer id:2
I1223 20:38:35.105108 24505 net.cpp:453] Found INQ layer:conv1, type: INQConvolution, layer id:2
I1223 20:38:35.105116 24505 net.cpp:453] Found INQ layer:conv1, type: INQConvolution, layer id:2
I1223 20:38:35.105123 24505 net.cpp:453] Found INQ layer:conv1, type: INQConvolution, layer id:2
I1223 20:38:35.105126 24505 layer_factory.hpp:77] Creating layer relu1
I1223 20:38:35.105135 24505 net.cpp:84] Creating Layer relu1
I1223 20:38:35.105140 24505 net.cpp:413] relu1 <- conv1
I1223 20:38:35.105146 24505 net.cpp:374] relu1 -> conv1 (in-place)
I1223 20:38:35.105414 24505 net.cpp:127] Setting up relu1
I1223 20:38:35.105423 24505 net.cpp:136] Top shape: 50 96 55 55 (14520000)
I1223 20:38:35.105427 24505 net.cpp:144] Memory required for data: 147078200
I1223 20:38:35.105432 24505 layer_factory.hpp:77] Creating layer norm1
I1223 20:38:35.105443 24505 net.cpp:84] Creating Layer norm1
I1223 20:38:35.105448 24505 net.cpp:413] norm1 <- conv1
I1223 20:38:35.105454 24505 net.cpp:387] norm1 -> norm1
I1223 20:38:35.105716 24505 net.cpp:127] Setting up norm1
I1223 20:38:35.105726 24505 net.cpp:136] Top shape: 50 96 55 55 (14520000)
I1223 20:38:35.105729 24505 net.cpp:144] Memory required for data: 205158200
I1223 20:38:35.105733 24505 layer_factory.hpp:77] Creating layer pool1
I1223 20:38:35.105743 24505 net.cpp:84] Creating Layer pool1
I1223 20:38:35.105747 24505 net.cpp:413] pool1 <- norm1
I1223 20:38:35.105753 24505 net.cpp:387] pool1 -> pool1
I1223 20:38:35.105796 24505 net.cpp:127] Setting up pool1
I1223 20:38:35.105803 24505 net.cpp:136] Top shape: 50 96 27 27 (3499200)
I1223 20:38:35.105806 24505 net.cpp:144] Memory required for data: 219155000
I1223 20:38:35.105809 24505 layer_factory.hpp:77] Creating layer conv2
I1223 20:38:35.105820 24505 net.cpp:84] Creating Layer conv2
I1223 20:38:35.105824 24505 net.cpp:413] conv2 <- pool1
I1223 20:38:35.105832 24505 net.cpp:387] conv2 -> conv2
I1223 20:38:35.112880 24505 net.cpp:127] Setting up conv2
I1223 20:38:35.112896 24505 net.cpp:136] Top shape: 50 256 27 27 (9331200)
I1223 20:38:35.112900 24505 net.cpp:144] Memory required for data: 256479800
I1223 20:38:35.112908 24505 net.cpp:453] Found INQ layer:conv2, type: INQConvolution, layer id:6
I1223 20:38:35.112916 24505 net.cpp:453] Found INQ layer:conv2, type: INQConvolution, layer id:6
I1223 20:38:35.112922 24505 net.cpp:453] Found INQ layer:conv2, type: INQConvolution, layer id:6
I1223 20:38:35.112927 24505 net.cpp:453] Found INQ layer:conv2, type: INQConvolution, layer id:6
I1223 20:38:35.112936 24505 layer_factory.hpp:77] Creating layer relu2
I1223 20:38:35.112944 24505 net.cpp:84] Creating Layer relu2
I1223 20:38:35.112960 24505 net.cpp:413] relu2 <- conv2
I1223 20:38:35.112967 24505 net.cpp:374] relu2 -> conv2 (in-place)
I1223 20:38:35.114400 24505 net.cpp:127] Setting up relu2
I1223 20:38:35.114414 24505 net.cpp:136] Top shape: 50 256 27 27 (9331200)
I1223 20:38:35.114418 24505 net.cpp:144] Memory required for data: 293804600
I1223 20:38:35.114423 24505 layer_factory.hpp:77] Creating layer norm2
I1223 20:38:35.114434 24505 net.cpp:84] Creating Layer norm2
I1223 20:38:35.114439 24505 net.cpp:413] norm2 <- conv2
I1223 20:38:35.114445 24505 net.cpp:387] norm2 -> norm2
I1223 20:38:35.114686 24505 net.cpp:127] Setting up norm2
I1223 20:38:35.114696 24505 net.cpp:136] Top shape: 50 256 27 27 (9331200)
I1223 20:38:35.114701 24505 net.cpp:144] Memory required for data: 331129400
I1223 20:38:35.114703 24505 layer_factory.hpp:77] Creating layer pool2
I1223 20:38:35.114711 24505 net.cpp:84] Creating Layer pool2
I1223 20:38:35.114717 24505 net.cpp:413] pool2 <- norm2
I1223 20:38:35.114722 24505 net.cpp:387] pool2 -> pool2
I1223 20:38:35.114764 24505 net.cpp:127] Setting up pool2
I1223 20:38:35.114770 24505 net.cpp:136] Top shape: 50 256 13 13 (2163200)
I1223 20:38:35.114774 24505 net.cpp:144] Memory required for data: 339782200
I1223 20:38:35.114778 24505 layer_factory.hpp:77] Creating layer conv3
I1223 20:38:35.114789 24505 net.cpp:84] Creating Layer conv3
I1223 20:38:35.114792 24505 net.cpp:413] conv3 <- pool2
I1223 20:38:35.114799 24505 net.cpp:387] conv3 -> conv3
I1223 20:38:35.130605 24505 net.cpp:127] Setting up conv3
I1223 20:38:35.130621 24505 net.cpp:136] Top shape: 50 384 13 13 (3244800)
I1223 20:38:35.130625 24505 net.cpp:144] Memory required for data: 352761400
I1223 20:38:35.130633 24505 net.cpp:453] Found INQ layer:conv3, type: INQConvolution, layer id:10
I1223 20:38:35.130642 24505 net.cpp:453] Found INQ layer:conv3, type: INQConvolution, layer id:10
I1223 20:38:35.130647 24505 net.cpp:453] Found INQ layer:conv3, type: INQConvolution, layer id:10
I1223 20:38:35.130652 24505 net.cpp:453] Found INQ layer:conv3, type: INQConvolution, layer id:10
I1223 20:38:35.130656 24505 layer_factory.hpp:77] Creating layer relu3
I1223 20:38:35.130663 24505 net.cpp:84] Creating Layer relu3
I1223 20:38:35.130668 24505 net.cpp:413] relu3 <- conv3
I1223 20:38:35.130676 24505 net.cpp:374] relu3 -> conv3 (in-place)
I1223 20:38:35.130900 24505 net.cpp:127] Setting up relu3
I1223 20:38:35.130910 24505 net.cpp:136] Top shape: 50 384 13 13 (3244800)
I1223 20:38:35.130914 24505 net.cpp:144] Memory required for data: 365740600
I1223 20:38:35.130918 24505 layer_factory.hpp:77] Creating layer conv4
I1223 20:38:35.130928 24505 net.cpp:84] Creating Layer conv4
I1223 20:38:35.130933 24505 net.cpp:413] conv4 <- conv3
I1223 20:38:35.130940 24505 net.cpp:387] conv4 -> conv4
I1223 20:38:35.143055 24505 net.cpp:127] Setting up conv4
I1223 20:38:35.143071 24505 net.cpp:136] Top shape: 50 384 13 13 (3244800)
I1223 20:38:35.143075 24505 net.cpp:144] Memory required for data: 378719800
I1223 20:38:35.143082 24505 net.cpp:453] Found INQ layer:conv4, type: INQConvolution, layer id:12
I1223 20:38:35.143087 24505 net.cpp:453] Found INQ layer:conv4, type: INQConvolution, layer id:12
I1223 20:38:35.143092 24505 net.cpp:453] Found INQ layer:conv4, type: INQConvolution, layer id:12
I1223 20:38:35.143097 24505 net.cpp:453] Found INQ layer:conv4, type: INQConvolution, layer id:12
I1223 20:38:35.143101 24505 layer_factory.hpp:77] Creating layer relu4
I1223 20:38:35.143108 24505 net.cpp:84] Creating Layer relu4
I1223 20:38:35.143112 24505 net.cpp:413] relu4 <- conv4
I1223 20:38:35.143120 24505 net.cpp:374] relu4 -> conv4 (in-place)
I1223 20:38:35.144580 24505 net.cpp:127] Setting up relu4
I1223 20:38:35.144594 24505 net.cpp:136] Top shape: 50 384 13 13 (3244800)
I1223 20:38:35.144598 24505 net.cpp:144] Memory required for data: 391699000
I1223 20:38:35.144603 24505 layer_factory.hpp:77] Creating layer conv5
I1223 20:38:35.144614 24505 net.cpp:84] Creating Layer conv5
I1223 20:38:35.144623 24505 net.cpp:413] conv5 <- conv4
I1223 20:38:35.144644 24505 net.cpp:387] conv5 -> conv5
I1223 20:38:35.153401 24505 net.cpp:127] Setting up conv5
I1223 20:38:35.153417 24505 net.cpp:136] Top shape: 50 256 13 13 (2163200)
I1223 20:38:35.153422 24505 net.cpp:144] Memory required for data: 400351800
I1223 20:38:35.153431 24505 net.cpp:453] Found INQ layer:conv5, type: INQConvolution, layer id:14
I1223 20:38:35.153439 24505 net.cpp:453] Found INQ layer:conv5, type: INQConvolution, layer id:14
I1223 20:38:35.153445 24505 net.cpp:453] Found INQ layer:conv5, type: INQConvolution, layer id:14
I1223 20:38:35.153450 24505 net.cpp:453] Found INQ layer:conv5, type: INQConvolution, layer id:14
I1223 20:38:35.153453 24505 layer_factory.hpp:77] Creating layer relu5
I1223 20:38:35.153461 24505 net.cpp:84] Creating Layer relu5
I1223 20:38:35.153465 24505 net.cpp:413] relu5 <- conv5
I1223 20:38:35.153472 24505 net.cpp:374] relu5 -> conv5 (in-place)
I1223 20:38:35.153697 24505 net.cpp:127] Setting up relu5
I1223 20:38:35.153707 24505 net.cpp:136] Top shape: 50 256 13 13 (2163200)
I1223 20:38:35.153710 24505 net.cpp:144] Memory required for data: 409004600
I1223 20:38:35.153714 24505 layer_factory.hpp:77] Creating layer pool5
I1223 20:38:35.153724 24505 net.cpp:84] Creating Layer pool5
I1223 20:38:35.153728 24505 net.cpp:413] pool5 <- conv5
I1223 20:38:35.153734 24505 net.cpp:387] pool5 -> pool5
I1223 20:38:35.153784 24505 net.cpp:127] Setting up pool5
I1223 20:38:35.153789 24505 net.cpp:136] Top shape: 50 256 6 6 (460800)
I1223 20:38:35.153794 24505 net.cpp:144] Memory required for data: 410847800
I1223 20:38:35.153796 24505 layer_factory.hpp:77] Creating layer fc6
I1223 20:38:35.153807 24505 net.cpp:84] Creating Layer fc6
I1223 20:38:35.153811 24505 net.cpp:413] fc6 <- pool5
I1223 20:38:35.153818 24505 net.cpp:387] fc6 -> fc6
I1223 20:38:35.763063 24505 net.cpp:127] Setting up fc6
I1223 20:38:35.763109 24505 net.cpp:136] Top shape: 50 4096 (204800)
I1223 20:38:35.763114 24505 net.cpp:144] Memory required for data: 411667000
I1223 20:38:35.763124 24505 net.cpp:453] Found INQ layer:fc6, type: INQInnerProduct, layer id:17
I1223 20:38:35.763131 24505 net.cpp:453] Found INQ layer:fc6, type: INQInnerProduct, layer id:17
I1223 20:38:35.763137 24505 net.cpp:453] Found INQ layer:fc6, type: INQInnerProduct, layer id:17
I1223 20:38:35.763141 24505 net.cpp:453] Found INQ layer:fc6, type: INQInnerProduct, layer id:17
I1223 20:38:35.763145 24505 layer_factory.hpp:77] Creating layer relu6
I1223 20:38:35.763157 24505 net.cpp:84] Creating Layer relu6
I1223 20:38:35.763164 24505 net.cpp:413] relu6 <- fc6
I1223 20:38:35.763172 24505 net.cpp:374] relu6 -> fc6 (in-place)
I1223 20:38:35.763463 24505 net.cpp:127] Setting up relu6
I1223 20:38:35.763471 24505 net.cpp:136] Top shape: 50 4096 (204800)
I1223 20:38:35.763475 24505 net.cpp:144] Memory required for data: 412486200
I1223 20:38:35.763479 24505 layer_factory.hpp:77] Creating layer drop6
I1223 20:38:35.763489 24505 net.cpp:84] Creating Layer drop6
I1223 20:38:35.763494 24505 net.cpp:413] drop6 <- fc6
I1223 20:38:35.763499 24505 net.cpp:374] drop6 -> fc6 (in-place)
I1223 20:38:35.763533 24505 net.cpp:127] Setting up drop6
I1223 20:38:35.763545 24505 net.cpp:136] Top shape: 50 4096 (204800)
I1223 20:38:35.763550 24505 net.cpp:144] Memory required for data: 413305400
I1223 20:38:35.763552 24505 layer_factory.hpp:77] Creating layer fc7
I1223 20:38:35.763566 24505 net.cpp:84] Creating Layer fc7
I1223 20:38:35.763569 24505 net.cpp:413] fc7 <- fc6
I1223 20:38:35.763577 24505 net.cpp:387] fc7 -> fc7
I1223 20:38:36.037077 24505 net.cpp:127] Setting up fc7
I1223 20:38:36.037123 24505 net.cpp:136] Top shape: 50 4096 (204800)
I1223 20:38:36.037128 24505 net.cpp:144] Memory required for data: 414124600
I1223 20:38:36.037140 24505 net.cpp:453] Found INQ layer:fc7, type: INQInnerProduct, layer id:20
I1223 20:38:36.037148 24505 net.cpp:453] Found INQ layer:fc7, type: INQInnerProduct, layer id:20
I1223 20:38:36.037154 24505 net.cpp:453] Found INQ layer:fc7, type: INQInnerProduct, layer id:20
I1223 20:38:36.037168 24505 net.cpp:453] Found INQ layer:fc7, type: INQInnerProduct, layer id:20
I1223 20:38:36.037201 24505 layer_factory.hpp:77] Creating layer relu7
I1223 20:38:36.037215 24505 net.cpp:84] Creating Layer relu7
I1223 20:38:36.037222 24505 net.cpp:413] relu7 <- fc7
I1223 20:38:36.037231 24505 net.cpp:374] relu7 -> fc7 (in-place)
I1223 20:38:36.037642 24505 net.cpp:127] Setting up relu7
I1223 20:38:36.037652 24505 net.cpp:136] Top shape: 50 4096 (204800)
I1223 20:38:36.037657 24505 net.cpp:144] Memory required for data: 414943800
I1223 20:38:36.037662 24505 layer_factory.hpp:77] Creating layer drop7
I1223 20:38:36.037670 24505 net.cpp:84] Creating Layer drop7
I1223 20:38:36.037674 24505 net.cpp:413] drop7 <- fc7
I1223 20:38:36.037680 24505 net.cpp:374] drop7 -> fc7 (in-place)
I1223 20:38:36.037719 24505 net.cpp:127] Setting up drop7
I1223 20:38:36.037725 24505 net.cpp:136] Top shape: 50 4096 (204800)
I1223 20:38:36.037729 24505 net.cpp:144] Memory required for data: 415763000
I1223 20:38:36.037734 24505 layer_factory.hpp:77] Creating layer fc8
I1223 20:38:36.037746 24505 net.cpp:84] Creating Layer fc8
I1223 20:38:36.037750 24505 net.cpp:413] fc8 <- fc7
I1223 20:38:36.037760 24505 net.cpp:387] fc8 -> fc8
I1223 20:38:36.105168 24505 net.cpp:127] Setting up fc8
I1223 20:38:36.105201 24505 net.cpp:136] Top shape: 50 1000 (50000)
I1223 20:38:36.105206 24505 net.cpp:144] Memory required for data: 415963000
I1223 20:38:36.105213 24505 net.cpp:453] Found INQ layer:fc8, type: INQInnerProduct, layer id:23
I1223 20:38:36.105221 24505 net.cpp:453] Found INQ layer:fc8, type: INQInnerProduct, layer id:23
I1223 20:38:36.105226 24505 net.cpp:453] Found INQ layer:fc8, type: INQInnerProduct, layer id:23
I1223 20:38:36.105231 24505 net.cpp:453] Found INQ layer:fc8, type: INQInnerProduct, layer id:23
I1223 20:38:36.105234 24505 layer_factory.hpp:77] Creating layer fc8_fc8_0_split
I1223 20:38:36.105244 24505 net.cpp:84] Creating Layer fc8_fc8_0_split
I1223 20:38:36.105249 24505 net.cpp:413] fc8_fc8_0_split <- fc8
I1223 20:38:36.105258 24505 net.cpp:387] fc8_fc8_0_split -> fc8_fc8_0_split_0
I1223 20:38:36.105268 24505 net.cpp:387] fc8_fc8_0_split -> fc8_fc8_0_split_1
I1223 20:38:36.105274 24505 net.cpp:387] fc8_fc8_0_split -> fc8_fc8_0_split_2
I1223 20:38:36.105339 24505 net.cpp:127] Setting up fc8_fc8_0_split
I1223 20:38:36.105345 24505 net.cpp:136] Top shape: 50 1000 (50000)
I1223 20:38:36.105350 24505 net.cpp:136] Top shape: 50 1000 (50000)
I1223 20:38:36.105353 24505 net.cpp:136] Top shape: 50 1000 (50000)
I1223 20:38:36.105357 24505 net.cpp:144] Memory required for data: 416563000
I1223 20:38:36.105361 24505 layer_factory.hpp:77] Creating layer accuracy_top1
I1223 20:38:36.105376 24505 net.cpp:84] Creating Layer accuracy_top1
I1223 20:38:36.105381 24505 net.cpp:413] accuracy_top1 <- fc8_fc8_0_split_0
I1223 20:38:36.105386 24505 net.cpp:413] accuracy_top1 <- label_data_1_split_0
I1223 20:38:36.105393 24505 net.cpp:387] accuracy_top1 -> accuracy_top1
…
