…
I1222 20:57:29.060312 20466 net.cpp:301] The NetState phase (0) differed from the phase (1) specified by a rule in layer accuracy_top5
I1222 20:57:29.060883 20466 net.cpp:51] Initializing net from parameters: 
name: "AlexNet"
state {
  phase: TRAIN
  level: 0
  stage: ""
}
layer {
  name: "data"
  type: "Data"
  top: "data"
  top: "label"
  include {
    phase: TRAIN
  }
  transform_param {
    mirror: true
    crop_size: 227
    mean_file: "/home/data/caffe-imagenet/imagenet_mean.binaryproto"
  }
  data_param {
    source: "/home/data/caffe-imagenet/ilsvrc12_train_lmdb"
    batch_size: 256
    backend: LMDB
  }
}
layer {
  name: "conv1"
  type: "INQConvolution"
  bottom: "data"
  top: "conv1"
  param {
    lr_mult: 1
    decay_mult: 1
  }
  param {
    lr_mult: 2
    decay_mult: 0
  }
  convolution_param {
    num_output: 96
    kernel_size: 11
    stride: 4
    weight_filler {
      type: "gaussian"
      std: 0.01
    }
    bias_filler {
      type: "constant"
      value: 0
    }
  }
  inq_convolution_param {
    portion: 0.7
    portion: 0.9
    weight_mask_filler {
      type: "constant"
      value: 1
    }
    bias_mask_filler {
      type: "constant"
      value: 1
    }
    num_quantum_values: 7
  }
}
layer {
  name: "relu1"
  type: "ReLU"
  bottom: "conv1"
  top: "conv1"
}
layer {
  name: "norm1"
  type: "LRN"
  bottom: "conv1"
  top: "norm1"
  lrn_param {
    local_size: 5
    alpha: 0.0001
    beta: 0.75
  }
}
layer {
  name: "pool1"
  type: "Pooling"
  bottom: "norm1"
  top: "pool1"
  pooling_param {
    pool: MAX
    kernel_size: 3
    stride: 2
  }
}
layer {
  name: "conv2"
  type: "INQConvolution"
  bottom: "pool1"
  top: "conv2"
  param {
    lr_mult: 1
    decay_mult: 1
  }
  param {
    lr_mult: 2
    decay_mult: 0
  }
  convolution_param {
    num_output: 256
    pad: 2
    kernel_size: 5
    group: 2
    weight_filler {
      type: "gaussian"
      std: 0.01
    }
    bias_filler {
      type: "constant"
      value: 0.1
    }
  }
  inq_convolution_param {
    portion: 0.7
    portion: 0.9
    weight_mask_filler {
      type: "constant"
      value: 1
    }
    bias_mask_filler {
      type: "constant"
      value: 1
    }
    num_quantum_values: 7
  }
}
layer {
  name: "relu2"
  type: "ReLU"
  bottom: "conv2"
  top: "conv2"
}
layer {
  name: "norm2"
  type: "LRN"
  bottom: "conv2"
  top: "norm2"
  lrn_param {
    local_size: 5
    alpha: 0.0001
    beta: 0.75
  }
}
layer {
  name: "pool2"
  type: "Pooling"
  bottom: "norm2"
  top: "pool2"
  pooling_param {
    pool: MAX
    kernel_size: 3
    stride: 2
  }
}
layer {
  name: "conv3"
  type: "INQConvolution"
  bottom: "pool2"
  top: "conv3"
  param {
    lr_mult: 1
    decay_mult: 1
  }
  param {
    lr_mult: 2
    decay_mult: 0
  }
  convolution_param {
    num_output: 384
    pad: 1
    kernel_size: 3
    weight_filler {
      type: "gaussian"
      std: 0.01
    }
    bias_filler {
      type: "constant"
      value: 0
    }
  }
  inq_convolution_param {
    portion: 0.7
    portion: 0.9
    weight_mask_filler {
      type: "constant"
      value: 1
    }
    bias_mask_filler {
      type: "constant"
      value: 1
    }
    num_quantum_values: 7
  }
}
layer {
  name: "relu3"
  type: "ReLU"
  bottom: "conv3"
  top: "conv3"
}
layer {
  name: "conv4"
  type: "INQConvolution"
  bottom: "conv3"
  top: "conv4"
  param {
    lr_mult: 1
    decay_mult: 1
  }
  param {
    lr_mult: 2
    decay_mult: 0
  }
  convolution_param {
    num_output: 384
    pad: 1
    kernel_size: 3
    group: 2
    weight_filler {
      type: "gaussian"
      std: 0.01
    }
    bias_filler {
      type: "constant"
      value: 0.1
    }
  }
  inq_convolution_param {
    portion: 0.7
    portion: 0.9
    weight_mask_filler {
      type: "constant"
      value: 1
    }
    bias_mask_filler {
      type: "constant"
      value: 1
    }
    num_quantum_values: 7
  }
}
layer {
  name: "relu4"
  type: "ReLU"
  bottom: "conv4"
  top: "conv4"
}
layer {
  name: "conv5"
  type: "INQConvolution"
  bottom: "conv4"
  top: "conv5"
  param {
    lr_mult: 1
    decay_mult: 1
  }
  param {
    lr_mult: 2
    decay_mult: 0
  }
  convolution_param {
    num_output: 256
    pad: 1
    kernel_size: 3
    group: 2
    weight_filler {
      type: "gaussian"
      std: 0.01
    }
    bias_filler {
      type: "constant"
      value: 0.1
    }
  }
  inq_convolution_param {
    portion: 0.7
    portion: 0.9
    weight_mask_filler {
      type: "constant"
      value: 1
    }
    bias_mask_filler {
      type: "constant"
      value: 1
    }
    num_quantum_values: 7
  }
}
layer {
  name: "relu5"
  type: "ReLU"
  bottom: "conv5"
  top: "conv5"
}
layer {
  name: "pool5"
  type: "Pooling"
  bottom: "conv5"
  top: "pool5"
  pooling_param {
    pool: MAX
    kernel_size: 3
    stride: 2
  }
}
layer {
  name: "fc6"
  type: "INQInnerProduct"
  bottom: "pool5"
  top: "fc6"
  param {
    lr_mult: 1
    decay_mult: 1
  }
  param {
    lr_mult: 2
    decay_mult: 0
  }
  inner_product_param {
    num_output: 4096
    weight_filler {
      type: "gaussian"
      std: 0.005
    }
    bias_filler {
      type: "constant"
      value: 0.1
    }
  }
  inq_inner_product_param {
    portion: 0.7
    portion: 0.9
    weight_mask_filler {
      type: "constant"
      value: 1
    }
    bias_mask_filler {
      type: "constant"
      value: 1
    }
    num_quantum_values: 7
  }
}
layer {
  name: "relu6"
  type: "ReLU"
  bottom: "fc6"
  top: "fc6"
}
layer {
  name: "drop6"
  type: "Dropout"
  bottom: "fc6"
  top: "fc6"
  dropout_param {
    dropout_ratio: 0.5
  }
}
layer {
  name: "fc7"
  type: "INQInnerProduct"
  bottom: "fc6"
  top: "fc7"
  param {
    lr_mult: 1
    decay_mult: 1
  }
  param {
    lr_mult: 2
    decay_mult: 0
  }
  inner_product_param {
    num_output: 4096
    weight_filler {
      type: "gaussian"
      std: 0.005
    }
    bias_filler {
      type: "constant"
      value: 0.1
    }
  }
  inq_inner_product_param {
    portion: 0.7
    portion: 0.9
    weight_mask_filler {
      type: "constant"
      value: 1
    }
    bias_mask_filler {
      type: "constant"
      value: 1
    }
    num_quantum_values: 7
  }
}
layer {
  name: "relu7"
  type: "ReLU"
  bottom: "fc7"
  top: "fc7"
}
layer {
  name: "drop7"
  type: "Dropout"
  bottom: "fc7"
  top: "fc7"
  dropout_param {
    dropout_ratio: 0.5
  }
}
layer {
  name: "fc8"
  type: "INQInnerProduct"
  bottom: "fc7"
  top: "fc8"
  param {
    lr_mult: 1
    decay_mult: 1
  }
  param {
    lr_mult: 2
    decay_mult: 0
  }
  inner_product_param {
    num_output: 1000
    weight_filler {
      type: "gaussian"
      std: 0.01
    }
    bias_filler {
      type: "constant"
      value: 0
    }
  }
  inq_inner_product_param {
    portion: 0.7
    portion: 0.9
    weight_mask_filler {
      type: "constant"
      value: 1
    }
    bias_mask_filler {
      type: "constant"
      value: 1
    }
    num_quantum_values: 7
  }
}
layer {
  name: "loss"
  type: "SoftmaxWithLoss"
  bottom: "fc8"
  bottom: "label"
  top: "loss"
}
I1222 20:57:29.061118 20466 layer_factory.hpp:77] Creating layer data
I1222 20:57:29.065575 20466 db_lmdb.cpp:35] Opened lmdb /home/data/caffe-imagenet/ilsvrc12_train_lmdb
I1222 20:57:29.065693 20466 net.cpp:84] Creating Layer data
I1222 20:57:29.065712 20466 net.cpp:387] data -> data
I1222 20:57:29.065753 20466 net.cpp:387] data -> label
I1222 20:57:29.065781 20466 data_transformer.cpp:25] Loading mean file from: /home/data/caffe-imagenet/imagenet_mean.binaryproto
I1222 20:57:29.086695 20466 data_layer.cpp:45] output data size: 256,3,227,227
I1222 20:57:29.500761 20466 net.cpp:127] Setting up data
I1222 20:57:29.500804 20466 net.cpp:136] Top shape: 256 3 227 227 (39574272)
I1222 20:57:29.500814 20466 net.cpp:136] Top shape: 256 (256)
I1222 20:57:29.500819 20466 net.cpp:144] Memory required for data: 158298112
I1222 20:57:29.500831 20466 layer_factory.hpp:77] Creating layer conv1
I1222 20:57:29.500856 20466 net.cpp:84] Creating Layer conv1
I1222 20:57:29.500864 20466 net.cpp:413] conv1 <- data
I1222 20:57:29.500882 20466 net.cpp:387] conv1 -> conv1
I1222 20:57:29.504492 20466 net.cpp:127] Setting up conv1
I1222 20:57:29.504509 20466 net.cpp:136] Top shape: 256 96 55 55 (74342400)
I1222 20:57:29.504514 20466 net.cpp:144] Memory required for data: 455667712
I1222 20:57:29.504534 20466 net.cpp:453] Found INQ layer:conv1, type: INQConvolution, layer id:1
I1222 20:57:29.504552 20466 net.cpp:453] Found INQ layer:conv1, type: INQConvolution, layer id:1
I1222 20:57:29.504560 20466 net.cpp:453] Found INQ layer:conv1, type: INQConvolution, layer id:1
I1222 20:57:29.504566 20466 net.cpp:453] Found INQ layer:conv1, type: INQConvolution, layer id:1
I1222 20:57:29.504571 20466 layer_factory.hpp:77] Creating layer relu1
I1222 20:57:29.504586 20466 net.cpp:84] Creating Layer relu1
I1222 20:57:29.504590 20466 net.cpp:413] relu1 <- conv1
I1222 20:57:29.504596 20466 net.cpp:374] relu1 -> conv1 (in-place)
I1222 20:57:29.934381 20466 net.cpp:127] Setting up relu1
I1222 20:57:29.934424 20466 net.cpp:136] Top shape: 256 96 55 55 (74342400)
I1222 20:57:29.934429 20466 net.cpp:144] Memory required for data: 753037312
I1222 20:57:29.934439 20466 layer_factory.hpp:77] Creating layer norm1
I1222 20:57:29.934460 20466 net.cpp:84] Creating Layer norm1
I1222 20:57:29.934468 20466 net.cpp:413] norm1 <- conv1
I1222 20:57:29.934478 20466 net.cpp:387] norm1 -> norm1
I1222 20:57:29.935940 20466 net.cpp:127] Setting up norm1
I1222 20:57:29.935956 20466 net.cpp:136] Top shape: 256 96 55 55 (74342400)
I1222 20:57:29.935959 20466 net.cpp:144] Memory required for data: 1050406912
I1222 20:57:29.935964 20466 layer_factory.hpp:77] Creating layer pool1
I1222 20:57:29.935976 20466 net.cpp:84] Creating Layer pool1
I1222 20:57:29.935981 20466 net.cpp:413] pool1 <- norm1
I1222 20:57:29.935988 20466 net.cpp:387] pool1 -> pool1
I1222 20:57:29.936043 20466 net.cpp:127] Setting up pool1
I1222 20:57:29.936051 20466 net.cpp:136] Top shape: 256 96 27 27 (17915904)
I1222 20:57:29.936054 20466 net.cpp:144] Memory required for data: 1122070528
I1222 20:57:29.936059 20466 layer_factory.hpp:77] Creating layer conv2
I1222 20:57:29.936074 20466 net.cpp:84] Creating Layer conv2
I1222 20:57:29.936077 20466 net.cpp:413] conv2 <- pool1
I1222 20:57:29.936084 20466 net.cpp:387] conv2 -> conv2
I1222 20:57:29.942781 20466 net.cpp:127] Setting up conv2
I1222 20:57:29.942798 20466 net.cpp:136] Top shape: 256 256 27 27 (47775744)
I1222 20:57:29.942803 20466 net.cpp:144] Memory required for data: 1313173504
I1222 20:57:29.942813 20466 net.cpp:453] Found INQ layer:conv2, type: INQConvolution, layer id:5
I1222 20:57:29.942822 20466 net.cpp:453] Found INQ layer:conv2, type: INQConvolution, layer id:5
I1222 20:57:29.942829 20466 net.cpp:453] Found INQ layer:conv2, type: INQConvolution, layer id:5
I1222 20:57:29.942834 20466 net.cpp:453] Found INQ layer:conv2, type: INQConvolution, layer id:5
I1222 20:57:29.942838 20466 layer_factory.hpp:77] Creating layer relu2
I1222 20:57:29.942848 20466 net.cpp:84] Creating Layer relu2
I1222 20:57:29.942853 20466 net.cpp:413] relu2 <- conv2
I1222 20:57:29.942859 20466 net.cpp:374] relu2 -> conv2 (in-place)
I1222 20:57:29.943068 20466 net.cpp:127] Setting up relu2
I1222 20:57:29.943078 20466 net.cpp:136] Top shape: 256 256 27 27 (47775744)
I1222 20:57:29.943106 20466 net.cpp:144] Memory required for data: 1504276480
I1222 20:57:29.943111 20466 layer_factory.hpp:77] Creating layer norm2
I1222 20:57:29.943120 20466 net.cpp:84] Creating Layer norm2
I1222 20:57:29.943123 20466 net.cpp:413] norm2 <- conv2
I1222 20:57:29.943130 20466 net.cpp:387] norm2 -> norm2
I1222 20:57:29.943348 20466 net.cpp:127] Setting up norm2
I1222 20:57:29.943358 20466 net.cpp:136] Top shape: 256 256 27 27 (47775744)
I1222 20:57:29.943362 20466 net.cpp:144] Memory required for data: 1695379456
I1222 20:57:29.943367 20466 layer_factory.hpp:77] Creating layer pool2
I1222 20:57:29.943377 20466 net.cpp:84] Creating Layer pool2
I1222 20:57:29.943382 20466 net.cpp:413] pool2 <- norm2
I1222 20:57:29.943387 20466 net.cpp:387] pool2 -> pool2
I1222 20:57:29.943423 20466 net.cpp:127] Setting up pool2
I1222 20:57:29.943430 20466 net.cpp:136] Top shape: 256 256 13 13 (11075584)
I1222 20:57:29.943434 20466 net.cpp:144] Memory required for data: 1739681792
I1222 20:57:29.943437 20466 layer_factory.hpp:77] Creating layer conv3
I1222 20:57:29.943447 20466 net.cpp:84] Creating Layer conv3
I1222 20:57:29.943451 20466 net.cpp:413] conv3 <- pool2
I1222 20:57:29.943457 20466 net.cpp:387] conv3 -> conv3
I1222 20:57:29.958868 20466 net.cpp:127] Setting up conv3
I1222 20:57:29.958891 20466 net.cpp:136] Top shape: 256 384 13 13 (16613376)
I1222 20:57:29.958896 20466 net.cpp:144] Memory required for data: 1806135296
I1222 20:57:29.958906 20466 net.cpp:453] Found INQ layer:conv3, type: INQConvolution, layer id:9
I1222 20:57:29.958915 20466 net.cpp:453] Found INQ layer:conv3, type: INQConvolution, layer id:9
I1222 20:57:29.958921 20466 net.cpp:453] Found INQ layer:conv3, type: INQConvolution, layer id:9
I1222 20:57:29.958926 20466 net.cpp:453] Found INQ layer:conv3, type: INQConvolution, layer id:9
I1222 20:57:29.958932 20466 layer_factory.hpp:77] Creating layer relu3
I1222 20:57:29.958941 20466 net.cpp:84] Creating Layer relu3
I1222 20:57:29.958946 20466 net.cpp:413] relu3 <- conv3
I1222 20:57:29.958953 20466 net.cpp:374] relu3 -> conv3 (in-place)
I1222 20:57:29.960333 20466 net.cpp:127] Setting up relu3
I1222 20:57:29.960348 20466 net.cpp:136] Top shape: 256 384 13 13 (16613376)
I1222 20:57:29.960352 20466 net.cpp:144] Memory required for data: 1872588800
I1222 20:57:29.960357 20466 layer_factory.hpp:77] Creating layer conv4
I1222 20:57:29.960371 20466 net.cpp:84] Creating Layer conv4
I1222 20:57:29.960376 20466 net.cpp:413] conv4 <- conv3
I1222 20:57:29.960386 20466 net.cpp:387] conv4 -> conv4
I1222 20:57:29.972194 20466 net.cpp:127] Setting up conv4
I1222 20:57:29.972211 20466 net.cpp:136] Top shape: 256 384 13 13 (16613376)
I1222 20:57:29.972216 20466 net.cpp:144] Memory required for data: 1939042304
I1222 20:57:29.972223 20466 net.cpp:453] Found INQ layer:conv4, type: INQConvolution, layer id:11
I1222 20:57:29.972230 20466 net.cpp:453] Found INQ layer:conv4, type: INQConvolution, layer id:11
I1222 20:57:29.972235 20466 net.cpp:453] Found INQ layer:conv4, type: INQConvolution, layer id:11
I1222 20:57:29.972240 20466 net.cpp:453] Found INQ layer:conv4, type: INQConvolution, layer id:11
I1222 20:57:29.972244 20466 layer_factory.hpp:77] Creating layer relu4
I1222 20:57:29.972252 20466 net.cpp:84] Creating Layer relu4
I1222 20:57:29.972257 20466 net.cpp:413] relu4 <- conv4
I1222 20:57:29.972267 20466 net.cpp:374] relu4 -> conv4 (in-place)
I1222 20:57:29.972478 20466 net.cpp:127] Setting up relu4
I1222 20:57:29.972488 20466 net.cpp:136] Top shape: 256 384 13 13 (16613376)
I1222 20:57:29.972492 20466 net.cpp:144] Memory required for data: 2005495808
I1222 20:57:29.972497 20466 layer_factory.hpp:77] Creating layer conv5
I1222 20:57:29.972512 20466 net.cpp:84] Creating Layer conv5
I1222 20:57:29.972517 20466 net.cpp:413] conv5 <- conv4
I1222 20:57:29.972525 20466 net.cpp:387] conv5 -> conv5
I1222 20:57:29.981014 20466 net.cpp:127] Setting up conv5
I1222 20:57:29.981029 20466 net.cpp:136] Top shape: 256 256 13 13 (11075584)
I1222 20:57:29.981040 20466 net.cpp:144] Memory required for data: 2049798144
I1222 20:57:29.981072 20466 net.cpp:453] Found INQ layer:conv5, type: INQConvolution, layer id:13
I1222 20:57:29.981081 20466 net.cpp:453] Found INQ layer:conv5, type: INQConvolution, layer id:13
I1222 20:57:29.981087 20466 net.cpp:453] Found INQ layer:conv5, type: INQConvolution, layer id:13
I1222 20:57:29.981091 20466 net.cpp:453] Found INQ layer:conv5, type: INQConvolution, layer id:13
I1222 20:57:29.981096 20466 layer_factory.hpp:77] Creating layer relu5
I1222 20:57:29.981102 20466 net.cpp:84] Creating Layer relu5
I1222 20:57:29.981107 20466 net.cpp:413] relu5 <- conv5
I1222 20:57:29.981113 20466 net.cpp:374] relu5 -> conv5 (in-place)
I1222 20:57:29.981326 20466 net.cpp:127] Setting up relu5
I1222 20:57:29.981335 20466 net.cpp:136] Top shape: 256 256 13 13 (11075584)
I1222 20:57:29.981339 20466 net.cpp:144] Memory required for data: 2094100480
I1222 20:57:29.981344 20466 layer_factory.hpp:77] Creating layer pool5
I1222 20:57:29.981353 20466 net.cpp:84] Creating Layer pool5
I1222 20:57:29.981356 20466 net.cpp:413] pool5 <- conv5
I1222 20:57:29.981364 20466 net.cpp:387] pool5 -> pool5
I1222 20:57:29.981410 20466 net.cpp:127] Setting up pool5
I1222 20:57:29.981417 20466 net.cpp:136] Top shape: 256 256 6 6 (2359296)
I1222 20:57:29.981421 20466 net.cpp:144] Memory required for data: 2103537664
I1222 20:57:29.981426 20466 layer_factory.hpp:77] Creating layer fc6
I1222 20:57:29.981444 20466 net.cpp:84] Creating Layer fc6
I1222 20:57:29.981449 20466 net.cpp:413] fc6 <- pool5
I1222 20:57:29.981456 20466 net.cpp:387] fc6 -> fc6
I1222 20:57:30.608649 20466 net.cpp:127] Setting up fc6
I1222 20:57:30.608695 20466 net.cpp:136] Top shape: 256 4096 (1048576)
I1222 20:57:30.608701 20466 net.cpp:144] Memory required for data: 2107731968
I1222 20:57:30.608711 20466 net.cpp:453] Found INQ layer:fc6, type: INQInnerProduct, layer id:16
I1222 20:57:30.608719 20466 net.cpp:453] Found INQ layer:fc6, type: INQInnerProduct, layer id:16
I1222 20:57:30.608726 20466 net.cpp:453] Found INQ layer:fc6, type: INQInnerProduct, layer id:16
I1222 20:57:30.608729 20466 net.cpp:453] Found INQ layer:fc6, type: INQInnerProduct, layer id:16
I1222 20:57:30.608733 20466 layer_factory.hpp:77] Creating layer relu6
I1222 20:57:30.608745 20466 net.cpp:84] Creating Layer relu6
I1222 20:57:30.608750 20466 net.cpp:413] relu6 <- fc6
I1222 20:57:30.608758 20466 net.cpp:374] relu6 -> fc6 (in-place)
I1222 20:57:30.609035 20466 net.cpp:127] Setting up relu6
I1222 20:57:30.609045 20466 net.cpp:136] Top shape: 256 4096 (1048576)
I1222 20:57:30.609048 20466 net.cpp:144] Memory required for data: 2111926272
I1222 20:57:30.609053 20466 layer_factory.hpp:77] Creating layer drop6
I1222 20:57:30.609063 20466 net.cpp:84] Creating Layer drop6
I1222 20:57:30.609068 20466 net.cpp:413] drop6 <- fc6
I1222 20:57:30.609074 20466 net.cpp:374] drop6 -> fc6 (in-place)
I1222 20:57:30.609103 20466 net.cpp:127] Setting up drop6
I1222 20:57:30.609110 20466 net.cpp:136] Top shape: 256 4096 (1048576)
I1222 20:57:30.609114 20466 net.cpp:144] Memory required for data: 2116120576
I1222 20:57:30.609117 20466 layer_factory.hpp:77] Creating layer fc7
I1222 20:57:30.609135 20466 net.cpp:84] Creating Layer fc7
I1222 20:57:30.609139 20466 net.cpp:413] fc7 <- fc6
I1222 20:57:30.609148 20466 net.cpp:387] fc7 -> fc7
I1222 20:57:30.909232 20466 net.cpp:127] Setting up fc7
I1222 20:57:30.909272 20466 net.cpp:136] Top shape: 256 4096 (1048576)
I1222 20:57:30.909278 20466 net.cpp:144] Memory required for data: 2120314880
I1222 20:57:30.909287 20466 net.cpp:453] Found INQ layer:fc7, type: INQInnerProduct, layer id:19
I1222 20:57:30.909296 20466 net.cpp:453] Found INQ layer:fc7, type: INQInnerProduct, layer id:19
I1222 20:57:30.909301 20466 net.cpp:453] Found INQ layer:fc7, type: INQInnerProduct, layer id:19
I1222 20:57:30.909306 20466 net.cpp:453] Found INQ layer:fc7, type: INQInnerProduct, layer id:19
I1222 20:57:30.909315 20466 layer_factory.hpp:77] Creating layer relu7
I1222 20:57:30.909327 20466 net.cpp:84] Creating Layer relu7
I1222 20:57:30.909340 20466 net.cpp:413] relu7 <- fc7
I1222 20:57:30.909376 20466 net.cpp:374] relu7 -> fc7 (in-place)
I1222 20:57:30.910993 20466 net.cpp:127] Setting up relu7
I1222 20:57:30.911008 20466 net.cpp:136] Top shape: 256 4096 (1048576)
I1222 20:57:30.911013 20466 net.cpp:144] Memory required for data: 2124509184
I1222 20:57:30.911018 20466 layer_factory.hpp:77] Creating layer drop7
I1222 20:57:30.911027 20466 net.cpp:84] Creating Layer drop7
I1222 20:57:30.911031 20466 net.cpp:413] drop7 <- fc7
I1222 20:57:30.911041 20466 net.cpp:374] drop7 -> fc7 (in-place)
I1222 20:57:30.911068 20466 net.cpp:127] Setting up drop7
I1222 20:57:30.911075 20466 net.cpp:136] Top shape: 256 4096 (1048576)
I1222 20:57:30.911078 20466 net.cpp:144] Memory required for data: 2128703488
I1222 20:57:30.911082 20466 layer_factory.hpp:77] Creating layer fc8
I1222 20:57:30.911095 20466 net.cpp:84] Creating Layer fc8
I1222 20:57:30.911099 20466 net.cpp:413] fc8 <- fc7
I1222 20:57:30.911110 20466 net.cpp:387] fc8 -> fc8
I1222 20:57:30.985853 20466 net.cpp:127] Setting up fc8
I1222 20:57:30.985888 20466 net.cpp:136] Top shape: 256 1000 (256000)
I1222 20:57:30.985893 20466 net.cpp:144] Memory required for data: 2129727488
I1222 20:57:30.985903 20466 net.cpp:453] Found INQ layer:fc8, type: INQInnerProduct, layer id:22
I1222 20:57:30.985911 20466 net.cpp:453] Found INQ layer:fc8, type: INQInnerProduct, layer id:22
I1222 20:57:30.985916 20466 net.cpp:453] Found INQ layer:fc8, type: INQInnerProduct, layer id:22
I1222 20:57:30.985921 20466 net.cpp:453] Found INQ layer:fc8, type: INQInnerProduct, layer id:22
…
I1222 20:57:30.990217 20466 net.cpp:301] The NetState phase (1) differed from the phase (0) specified by a rule in layer data
I1222 20:57:30.990883 20466 net.cpp:51] Initializing net from parameters: 
name: "AlexNet"
state {
  phase: TEST
}
layer {
  name: "data"
  type: "Data"
  top: "data"
  top: "label"
  include {
    phase: TEST
  }
  transform_param {
    mirror: false
    crop_size: 227
    mean_file: "/home/data/caffe-imagenet/imagenet_mean.binaryproto"
  }
  data_param {
    source: "/home/data/caffe-imagenet/ilsvrc12_val_lmdb"
    batch_size: 50
    backend: LMDB
  }
}
layer {
  name: "conv1"
  type: "INQConvolution"
  bottom: "data"
  top: "conv1"
  param {
    lr_mult: 1
    decay_mult: 1
  }
  param {
    lr_mult: 2
    decay_mult: 0
  }
  convolution_param {
    num_output: 96
    kernel_size: 11
    stride: 4
    weight_filler {
      type: "gaussian"
      std: 0.01
    }
    bias_filler {
      type: "constant"
      value: 0
    }
  }
  inq_convolution_param {
    portion: 0.7
    portion: 0.9
    weight_mask_filler {
      type: "constant"
      value: 1
    }
    bias_mask_filler {
      type: "constant"
      value: 1
    }
    num_quantum_values: 7
  }
}
layer {
  name: "relu1"
  type: "ReLU"
  bottom: "conv1"
  top: "conv1"
}
layer {
  name: "norm1"
  type: "LRN"
  bottom: "conv1"
  top: "norm1"
  lrn_param {
    local_size: 5
    alpha: 0.0001
    beta: 0.75
  }
}
layer {
  name: "pool1"
  type: "Pooling"
  bottom: "norm1"
  top: "pool1"
  pooling_param {
    pool: MAX
    kernel_size: 3
    stride: 2
  }
}
layer {
  name: "conv2"
  type: "INQConvolution"
  bottom: "pool1"
  top: "conv2"
  param {
    lr_mult: 1
    decay_mult: 1
  }
  param {
    lr_mult: 2
    decay_mult: 0
  }
  convolution_param {
    num_output: 256
    pad: 2
    kernel_size: 5
    group: 2
    weight_filler {
      type: "gaussian"
      std: 0.01
    }
    bias_filler {
      type: "constant"
      value: 0.1
    }
  }
  inq_convolution_param {
    portion: 0.7
    portion: 0.9
    weight_mask_filler {
      type: "constant"
      value: 1
    }
    bias_mask_filler {
      type: "constant"
      value: 1
    }
    num_quantum_values: 7
  }
}
layer {
  name: "relu2"
  type: "ReLU"
  bottom: "conv2"
  top: "conv2"
}
layer {
  name: "norm2"
  type: "LRN"
  bottom: "conv2"
  top: "norm2"
  lrn_param {
    local_size: 5
    alpha: 0.0001
    beta: 0.75
  }
}
layer {
  name: "pool2"
  type: "Pooling"
  bottom: "norm2"
  top: "pool2"
  pooling_param {
    pool: MAX
    kernel_size: 3
    stride: 2
  }
}
layer {
  name: "conv3"
  type: "INQConvolution"
  bottom: "pool2"
  top: "conv3"
  param {
    lr_mult: 1
    decay_mult: 1
  }
  param {
    lr_mult: 2
    decay_mult: 0
  }
  convolution_param {
    num_output: 384
    pad: 1
    kernel_size: 3
    weight_filler {
      type: "gaussian"
      std: 0.01
    }
    bias_filler {
      type: "constant"
      value: 0
    }
  }
  inq_convolution_param {
    portion: 0.7
    portion: 0.9
    weight_mask_filler {
      type: "constant"
      value: 1
    }
    bias_mask_filler {
      type: "constant"
      value: 1
    }
    num_quantum_values: 7
  }
}
layer {
  name: "relu3"
  type: "ReLU"
  bottom: "conv3"
  top: "conv3"
}
layer {
  name: "conv4"
  type: "INQConvolution"
  bottom: "conv3"
  top: "conv4"
  param {
    lr_mult: 1
    decay_mult: 1
  }
  param {
    lr_mult: 2
    decay_mult: 0
  }
  convolution_param {
    num_output: 384
    pad: 1
    kernel_size: 3
    group: 2
    weight_filler {
      type: "gaussian"
      std: 0.01
    }
    bias_filler {
      type: "constant"
      value: 0.1
    }
  }
  inq_convolution_param {
    portion: 0.7
    portion: 0.9
    weight_mask_filler {
      type: "constant"
      value: 1
    }
    bias_mask_filler {
      type: "constant"
      value: 1
    }
    num_quantum_values: 7
  }
}
layer {
  name: "relu4"
  type: "ReLU"
  bottom: "conv4"
  top: "conv4"
}
layer {
  name: "conv5"
  type: "INQConvolution"
  bottom: "conv4"
  top: "conv5"
  param {
    lr_mult: 1
    decay_mult: 1
  }
  param {
    lr_mult: 2
    decay_mult: 0
  }
  convolution_param {
    num_output: 256
    pad: 1
    kernel_size: 3
    group: 2
    weight_filler {
      type: "gaussian"
      std: 0.01
    }
    bias_filler {
      type: "constant"
      value: 0.1
    }
  }
  inq_convolution_param {
    portion: 0.7
    portion: 0.9
    weight_mask_filler {
      type: "constant"
      value: 1
    }
    bias_mask_filler {
      type: "constant"
      value: 1
    }
    num_quantum_values: 7
  }
}
layer {
  name: "relu5"
  type: "ReLU"
  bottom: "conv5"
  top: "conv5"
}
layer {
  name: "pool5"
  type: "Pooling"
  bottom: "conv5"
  top: "pool5"
  pooling_param {
    pool: MAX
    kernel_size: 3
    stride: 2
  }
}
layer {
  name: "fc6"
  type: "INQInnerProduct"
  bottom: "pool5"
  top: "fc6"
  param {
    lr_mult: 1
    decay_mult: 1
  }
  param {
    lr_mult: 2
    decay_mult: 0
  }
  inner_product_param {
    num_output: 4096
    weight_filler {
      type: "gaussian"
      std: 0.005
    }
    bias_filler {
      type: "constant"
      value: 0.1
    }
  }
  inq_inner_product_param {
    portion: 0.7
    portion: 0.9
    weight_mask_filler {
      type: "constant"
      value: 1
    }
    bias_mask_filler {
      type: "constant"
      value: 1
    }
    num_quantum_values: 7
  }
}
layer {
  name: "relu6"
  type: "ReLU"
  bottom: "fc6"
  top: "fc6"
}
layer {
  name: "drop6"
  type: "Dropout"
  bottom: "fc6"
  top: "fc6"
  dropout_param {
    dropout_ratio: 0.5
  }
}
layer {
  name: "fc7"
  type: "INQInnerProduct"
  bottom: "fc6"
  top: "fc7"
  param {
    lr_mult: 1
    decay_mult: 1
  }
  param {
    lr_mult: 2
    decay_mult: 0
  }
  inner_product_param {
    num_output: 4096
    weight_filler {
      type: "gaussian"
      std: 0.005
    }
    bias_filler {
      type: "constant"
      value: 0.1
    }
  }
  inq_inner_product_param {
    portion: 0.7
    portion: 0.9
    weight_mask_filler {
      type: "constant"
      value: 1
    }
    bias_mask_filler {
      type: "constant"
      value: 1
    }
    num_quantum_values: 7
  }
}
layer {
  name: "relu7"
  type: "ReLU"
  bottom: "fc7"
  top: "fc7"
}
layer {
  name: "drop7"
  type: "Dropout"
  bottom: "fc7"
  top: "fc7"
  dropout_param {
    dropout_ratio: 0.5
  }
}
layer {
  name: "fc8"
  type: "INQInnerProduct"
  bottom: "fc7"
  top: "fc8"
  param {
    lr_mult: 1
    decay_mult: 1
  }
  param {
    lr_mult: 2
    decay_mult: 0
  }
  inner_product_param {
    num_output: 1000
    weight_filler {
      type: "gaussian"
      std: 0.01
    }
    bias_filler {
      type: "constant"
      value: 0
    }
  }
  inq_inner_product_param {
    portion: 0.7
    portion: 0.9
    weight_mask_filler {
      type: "constant"
      value: 1
    }
    bias_mask_filler {
      type: "constant"
      value: 1
    }
    num_quantum_values: 7
  }
}
layer {
  name: "accuracy_top1"
  type: "Accuracy"
  bottom: "fc8"
  bottom: "label"
  top: "accuracy_top1"
  include {
    phase: TEST
  }
  accuracy_param {
    top_k: 1
  }
}
layer {
  name: "accuracy_top5"
  type: "Accuracy"
  bottom: "fc8"
  bottom: "label"
  top: "accuracy_top5"
  include {
    phase: TEST
  }
  accuracy_param {
    top_k: 5
  }
}
layer {
  name: "loss"
  type: "SoftmaxWithLoss"
  bottom: "fc8"
  bottom: "label"
  top: "loss"
}
I1222 20:57:30.991195 20466 layer_factory.hpp:77] Creating layer data
I1222 20:57:30.991308 20466 db_lmdb.cpp:35] Opened lmdb /home/data/caffe-imagenet/ilsvrc12_val_lmdb
I1222 20:57:30.991339 20466 net.cpp:84] Creating Layer data
I1222 20:57:30.991354 20466 net.cpp:387] data -> data
I1222 20:57:30.991374 20466 net.cpp:387] data -> label
I1222 20:57:30.991389 20466 data_transformer.cpp:25] Loading mean file from: /home/data/caffe-imagenet/imagenet_mean.binaryproto
I1222 20:57:30.994101 20466 data_layer.cpp:45] output data size: 50,3,227,227
I1222 20:57:31.113185 20466 net.cpp:127] Setting up data
I1222 20:57:31.113226 20466 net.cpp:136] Top shape: 50 3 227 227 (7729350)
I1222 20:57:31.113240 20466 net.cpp:136] Top shape: 50 (50)
I1222 20:57:31.113272 20466 net.cpp:144] Memory required for data: 30917600
I1222 20:57:31.113281 20466 layer_factory.hpp:77] Creating layer label_data_1_split
I1222 20:57:31.113301 20466 net.cpp:84] Creating Layer label_data_1_split
I1222 20:57:31.113306 20466 net.cpp:413] label_data_1_split <- label
I1222 20:57:31.113317 20466 net.cpp:387] label_data_1_split -> label_data_1_split_0
I1222 20:57:31.113328 20466 net.cpp:387] label_data_1_split -> label_data_1_split_1
I1222 20:57:31.113335 20466 net.cpp:387] label_data_1_split -> label_data_1_split_2
I1222 20:57:31.113463 20466 net.cpp:127] Setting up label_data_1_split
I1222 20:57:31.113471 20466 net.cpp:136] Top shape: 50 (50)
I1222 20:57:31.113476 20466 net.cpp:136] Top shape: 50 (50)
I1222 20:57:31.113481 20466 net.cpp:136] Top shape: 50 (50)
I1222 20:57:31.113484 20466 net.cpp:144] Memory required for data: 30918200
I1222 20:57:31.113488 20466 layer_factory.hpp:77] Creating layer conv1
I1222 20:57:31.113504 20466 net.cpp:84] Creating Layer conv1
I1222 20:57:31.113509 20466 net.cpp:413] conv1 <- data
I1222 20:57:31.113519 20466 net.cpp:387] conv1 -> conv1
I1222 20:57:31.114513 20466 net.cpp:127] Setting up conv1
I1222 20:57:31.114524 20466 net.cpp:136] Top shape: 50 96 55 55 (14520000)
I1222 20:57:31.114528 20466 net.cpp:144] Memory required for data: 88998200
I1222 20:57:31.114537 20466 net.cpp:453] Found INQ layer:conv1, type: INQConvolution, layer id:2
I1222 20:57:31.114553 20466 net.cpp:453] Found INQ layer:conv1, type: INQConvolution, layer id:2
I1222 20:57:31.114562 20466 net.cpp:453] Found INQ layer:conv1, type: INQConvolution, layer id:2
I1222 20:57:31.114567 20466 net.cpp:453] Found INQ layer:conv1, type: INQConvolution, layer id:2
I1222 20:57:31.114572 20466 layer_factory.hpp:77] Creating layer relu1
I1222 20:57:31.114580 20466 net.cpp:84] Creating Layer relu1
I1222 20:57:31.114585 20466 net.cpp:413] relu1 <- conv1
I1222 20:57:31.114593 20466 net.cpp:374] relu1 -> conv1 (in-place)
I1222 20:57:31.114857 20466 net.cpp:127] Setting up relu1
I1222 20:57:31.114866 20466 net.cpp:136] Top shape: 50 96 55 55 (14520000)
I1222 20:57:31.114871 20466 net.cpp:144] Memory required for data: 147078200
I1222 20:57:31.114874 20466 layer_factory.hpp:77] Creating layer norm1
I1222 20:57:31.114886 20466 net.cpp:84] Creating Layer norm1
I1222 20:57:31.114889 20466 net.cpp:413] norm1 <- conv1
I1222 20:57:31.114897 20466 net.cpp:387] norm1 -> norm1
I1222 20:57:31.115142 20466 net.cpp:127] Setting up norm1
I1222 20:57:31.115151 20466 net.cpp:136] Top shape: 50 96 55 55 (14520000)
I1222 20:57:31.115155 20466 net.cpp:144] Memory required for data: 205158200
I1222 20:57:31.115159 20466 layer_factory.hpp:77] Creating layer pool1
I1222 20:57:31.115169 20466 net.cpp:84] Creating Layer pool1
I1222 20:57:31.115172 20466 net.cpp:413] pool1 <- norm1
I1222 20:57:31.115180 20466 net.cpp:387] pool1 -> pool1
I1222 20:57:31.115226 20466 net.cpp:127] Setting up pool1
I1222 20:57:31.115233 20466 net.cpp:136] Top shape: 50 96 27 27 (3499200)
I1222 20:57:31.115237 20466 net.cpp:144] Memory required for data: 219155000
I1222 20:57:31.115242 20466 layer_factory.hpp:77] Creating layer conv2
I1222 20:57:31.115253 20466 net.cpp:84] Creating Layer conv2
I1222 20:57:31.115258 20466 net.cpp:413] conv2 <- pool1
I1222 20:57:31.115267 20466 net.cpp:387] conv2 -> conv2
I1222 20:57:31.122855 20466 net.cpp:127] Setting up conv2
I1222 20:57:31.122872 20466 net.cpp:136] Top shape: 50 256 27 27 (9331200)
I1222 20:57:31.122877 20466 net.cpp:144] Memory required for data: 256479800
I1222 20:57:31.122885 20466 net.cpp:453] Found INQ layer:conv2, type: INQConvolution, layer id:6
I1222 20:57:31.122895 20466 net.cpp:453] Found INQ layer:conv2, type: INQConvolution, layer id:6
I1222 20:57:31.122900 20466 net.cpp:453] Found INQ layer:conv2, type: INQConvolution, layer id:6
I1222 20:57:31.122905 20466 net.cpp:453] Found INQ layer:conv2, type: INQConvolution, layer id:6
I1222 20:57:31.122910 20466 layer_factory.hpp:77] Creating layer relu2
I1222 20:57:31.122922 20466 net.cpp:84] Creating Layer relu2
I1222 20:57:31.122941 20466 net.cpp:413] relu2 <- conv2
I1222 20:57:31.122947 20466 net.cpp:374] relu2 -> conv2 (in-place)
I1222 20:57:31.124383 20466 net.cpp:127] Setting up relu2
I1222 20:57:31.124398 20466 net.cpp:136] Top shape: 50 256 27 27 (9331200)
I1222 20:57:31.124403 20466 net.cpp:144] Memory required for data: 293804600
I1222 20:57:31.124408 20466 layer_factory.hpp:77] Creating layer norm2
I1222 20:57:31.124421 20466 net.cpp:84] Creating Layer norm2
I1222 20:57:31.124425 20466 net.cpp:413] norm2 <- conv2
I1222 20:57:31.124433 20466 net.cpp:387] norm2 -> norm2
I1222 20:57:31.124680 20466 net.cpp:127] Setting up norm2
I1222 20:57:31.124689 20466 net.cpp:136] Top shape: 50 256 27 27 (9331200)
I1222 20:57:31.124693 20466 net.cpp:144] Memory required for data: 331129400
I1222 20:57:31.124698 20466 layer_factory.hpp:77] Creating layer pool2
I1222 20:57:31.124706 20466 net.cpp:84] Creating Layer pool2
I1222 20:57:31.124711 20466 net.cpp:413] pool2 <- norm2
I1222 20:57:31.124717 20466 net.cpp:387] pool2 -> pool2
I1222 20:57:31.124759 20466 net.cpp:127] Setting up pool2
I1222 20:57:31.124765 20466 net.cpp:136] Top shape: 50 256 13 13 (2163200)
I1222 20:57:31.124768 20466 net.cpp:144] Memory required for data: 339782200
I1222 20:57:31.124773 20466 layer_factory.hpp:77] Creating layer conv3
I1222 20:57:31.124784 20466 net.cpp:84] Creating Layer conv3
I1222 20:57:31.124788 20466 net.cpp:413] conv3 <- pool2
I1222 20:57:31.124796 20466 net.cpp:387] conv3 -> conv3
I1222 20:57:31.141765 20466 net.cpp:127] Setting up conv3
I1222 20:57:31.141782 20466 net.cpp:136] Top shape: 50 384 13 13 (3244800)
I1222 20:57:31.141786 20466 net.cpp:144] Memory required for data: 352761400
I1222 20:57:31.141795 20466 net.cpp:453] Found INQ layer:conv3, type: INQConvolution, layer id:10
I1222 20:57:31.141803 20466 net.cpp:453] Found INQ layer:conv3, type: INQConvolution, layer id:10
I1222 20:57:31.141809 20466 net.cpp:453] Found INQ layer:conv3, type: INQConvolution, layer id:10
I1222 20:57:31.141814 20466 net.cpp:453] Found INQ layer:conv3, type: INQConvolution, layer id:10
I1222 20:57:31.141819 20466 layer_factory.hpp:77] Creating layer relu3
I1222 20:57:31.141826 20466 net.cpp:84] Creating Layer relu3
I1222 20:57:31.141830 20466 net.cpp:413] relu3 <- conv3
I1222 20:57:31.141839 20466 net.cpp:374] relu3 -> conv3 (in-place)
I1222 20:57:31.142055 20466 net.cpp:127] Setting up relu3
I1222 20:57:31.142066 20466 net.cpp:136] Top shape: 50 384 13 13 (3244800)
I1222 20:57:31.142069 20466 net.cpp:144] Memory required for data: 365740600
I1222 20:57:31.142076 20466 layer_factory.hpp:77] Creating layer conv4
I1222 20:57:31.142086 20466 net.cpp:84] Creating Layer conv4
I1222 20:57:31.142091 20466 net.cpp:413] conv4 <- conv3
I1222 20:57:31.142099 20466 net.cpp:387] conv4 -> conv4
I1222 20:57:31.155086 20466 net.cpp:127] Setting up conv4
I1222 20:57:31.155102 20466 net.cpp:136] Top shape: 50 384 13 13 (3244800)
I1222 20:57:31.155107 20466 net.cpp:144] Memory required for data: 378719800
I1222 20:57:31.155113 20466 net.cpp:453] Found INQ layer:conv4, type: INQConvolution, layer id:12
I1222 20:57:31.155119 20466 net.cpp:453] Found INQ layer:conv4, type: INQConvolution, layer id:12
I1222 20:57:31.155124 20466 net.cpp:453] Found INQ layer:conv4, type: INQConvolution, layer id:12
I1222 20:57:31.155129 20466 net.cpp:453] Found INQ layer:conv4, type: INQConvolution, layer id:12
I1222 20:57:31.155133 20466 layer_factory.hpp:77] Creating layer relu4
I1222 20:57:31.155141 20466 net.cpp:84] Creating Layer relu4
I1222 20:57:31.155145 20466 net.cpp:413] relu4 <- conv4
I1222 20:57:31.155153 20466 net.cpp:374] relu4 -> conv4 (in-place)
I1222 20:57:31.156587 20466 net.cpp:127] Setting up relu4
I1222 20:57:31.156602 20466 net.cpp:136] Top shape: 50 384 13 13 (3244800)
I1222 20:57:31.156606 20466 net.cpp:144] Memory required for data: 391699000
I1222 20:57:31.156611 20466 layer_factory.hpp:77] Creating layer conv5
I1222 20:57:31.156623 20466 net.cpp:84] Creating Layer conv5
I1222 20:57:31.156632 20466 net.cpp:413] conv5 <- conv4
I1222 20:57:31.156642 20466 net.cpp:387] conv5 -> conv5
I1222 20:57:31.166146 20466 net.cpp:127] Setting up conv5
I1222 20:57:31.166163 20466 net.cpp:136] Top shape: 50 256 13 13 (2163200)
I1222 20:57:31.166167 20466 net.cpp:144] Memory required for data: 400351800
I1222 20:57:31.166177 20466 net.cpp:453] Found INQ layer:conv5, type: INQConvolution, layer id:14
I1222 20:57:31.166187 20466 net.cpp:453] Found INQ layer:conv5, type: INQConvolution, layer id:14
I1222 20:57:31.166191 20466 net.cpp:453] Found INQ layer:conv5, type: INQConvolution, layer id:14
I1222 20:57:31.166196 20466 net.cpp:453] Found INQ layer:conv5, type: INQConvolution, layer id:14
I1222 20:57:31.166200 20466 layer_factory.hpp:77] Creating layer relu5
I1222 20:57:31.166208 20466 net.cpp:84] Creating Layer relu5
I1222 20:57:31.166213 20466 net.cpp:413] relu5 <- conv5
I1222 20:57:31.166220 20466 net.cpp:374] relu5 -> conv5 (in-place)
I1222 20:57:31.166437 20466 net.cpp:127] Setting up relu5
I1222 20:57:31.166447 20466 net.cpp:136] Top shape: 50 256 13 13 (2163200)
I1222 20:57:31.166451 20466 net.cpp:144] Memory required for data: 409004600
I1222 20:57:31.166455 20466 layer_factory.hpp:77] Creating layer pool5
I1222 20:57:31.166465 20466 net.cpp:84] Creating Layer pool5
I1222 20:57:31.166471 20466 net.cpp:413] pool5 <- conv5
I1222 20:57:31.166477 20466 net.cpp:387] pool5 -> pool5
I1222 20:57:31.166529 20466 net.cpp:127] Setting up pool5
I1222 20:57:31.166535 20466 net.cpp:136] Top shape: 50 256 6 6 (460800)
I1222 20:57:31.166544 20466 net.cpp:144] Memory required for data: 410847800
I1222 20:57:31.166548 20466 layer_factory.hpp:77] Creating layer fc6
I1222 20:57:31.166559 20466 net.cpp:84] Creating Layer fc6
I1222 20:57:31.166564 20466 net.cpp:413] fc6 <- pool5
I1222 20:57:31.166573 20466 net.cpp:387] fc6 -> fc6
I1222 20:57:31.831967 20466 net.cpp:127] Setting up fc6
I1222 20:57:31.832015 20466 net.cpp:136] Top shape: 50 4096 (204800)
I1222 20:57:31.832020 20466 net.cpp:144] Memory required for data: 411667000
I1222 20:57:31.832034 20466 net.cpp:453] Found INQ layer:fc6, type: INQInnerProduct, layer id:17
I1222 20:57:31.832042 20466 net.cpp:453] Found INQ layer:fc6, type: INQInnerProduct, layer id:17
I1222 20:57:31.832047 20466 net.cpp:453] Found INQ layer:fc6, type: INQInnerProduct, layer id:17
I1222 20:57:31.832053 20466 net.cpp:453] Found INQ layer:fc6, type: INQInnerProduct, layer id:17
I1222 20:57:31.832059 20466 layer_factory.hpp:77] Creating layer relu6
I1222 20:57:31.832072 20466 net.cpp:84] Creating Layer relu6
I1222 20:57:31.832080 20466 net.cpp:413] relu6 <- fc6
I1222 20:57:31.832089 20466 net.cpp:374] relu6 -> fc6 (in-place)
I1222 20:57:31.832448 20466 net.cpp:127] Setting up relu6
I1222 20:57:31.832458 20466 net.cpp:136] Top shape: 50 4096 (204800)
I1222 20:57:31.832463 20466 net.cpp:144] Memory required for data: 412486200
I1222 20:57:31.832468 20466 layer_factory.hpp:77] Creating layer drop6
I1222 20:57:31.832478 20466 net.cpp:84] Creating Layer drop6
I1222 20:57:31.832482 20466 net.cpp:413] drop6 <- fc6
I1222 20:57:31.832489 20466 net.cpp:374] drop6 -> fc6 (in-place)
I1222 20:57:31.832530 20466 net.cpp:127] Setting up drop6
I1222 20:57:31.832536 20466 net.cpp:136] Top shape: 50 4096 (204800)
I1222 20:57:31.832545 20466 net.cpp:144] Memory required for data: 413305400
I1222 20:57:31.832551 20466 layer_factory.hpp:77] Creating layer fc7
I1222 20:57:31.832564 20466 net.cpp:84] Creating Layer fc7
I1222 20:57:31.832568 20466 net.cpp:413] fc7 <- fc6
I1222 20:57:31.832577 20466 net.cpp:387] fc7 -> fc7
I1222 20:57:32.129254 20466 net.cpp:127] Setting up fc7
I1222 20:57:32.129300 20466 net.cpp:136] Top shape: 50 4096 (204800)
I1222 20:57:32.129307 20466 net.cpp:144] Memory required for data: 414124600
I1222 20:57:32.129317 20466 net.cpp:453] Found INQ layer:fc7, type: INQInnerProduct, layer id:20
I1222 20:57:32.129324 20466 net.cpp:453] Found INQ layer:fc7, type: INQInnerProduct, layer id:20
I1222 20:57:32.129330 20466 net.cpp:453] Found INQ layer:fc7, type: INQInnerProduct, layer id:20
I1222 20:57:32.129335 20466 net.cpp:453] Found INQ layer:fc7, type: INQInnerProduct, layer id:20
I1222 20:57:32.129381 20466 layer_factory.hpp:77] Creating layer relu7
I1222 20:57:32.129393 20466 net.cpp:84] Creating Layer relu7
I1222 20:57:32.129400 20466 net.cpp:413] relu7 <- fc7
I1222 20:57:32.129408 20466 net.cpp:374] relu7 -> fc7 (in-place)
I1222 20:57:32.129726 20466 net.cpp:127] Setting up relu7
I1222 20:57:32.129736 20466 net.cpp:136] Top shape: 50 4096 (204800)
I1222 20:57:32.129741 20466 net.cpp:144] Memory required for data: 414943800
I1222 20:57:32.129745 20466 layer_factory.hpp:77] Creating layer drop7
I1222 20:57:32.129755 20466 net.cpp:84] Creating Layer drop7
I1222 20:57:32.129758 20466 net.cpp:413] drop7 <- fc7
I1222 20:57:32.129765 20466 net.cpp:374] drop7 -> fc7 (in-place)
I1222 20:57:32.129802 20466 net.cpp:127] Setting up drop7
I1222 20:57:32.129809 20466 net.cpp:136] Top shape: 50 4096 (204800)
I1222 20:57:32.129814 20466 net.cpp:144] Memory required for data: 415763000
I1222 20:57:32.129818 20466 layer_factory.hpp:77] Creating layer fc8
I1222 20:57:32.129832 20466 net.cpp:84] Creating Layer fc8
I1222 20:57:32.129835 20466 net.cpp:413] fc8 <- fc7
I1222 20:57:32.129843 20466 net.cpp:387] fc8 -> fc8
I1222 20:57:32.203727 20466 net.cpp:127] Setting up fc8
I1222 20:57:32.203758 20466 net.cpp:136] Top shape: 50 1000 (50000)
I1222 20:57:32.203763 20466 net.cpp:144] Memory required for data: 415963000
I1222 20:57:32.203770 20466 net.cpp:453] Found INQ layer:fc8, type: INQInnerProduct, layer id:23
I1222 20:57:32.203778 20466 net.cpp:453] Found INQ layer:fc8, type: INQInnerProduct, layer id:23
I1222 20:57:32.203783 20466 net.cpp:453] Found INQ layer:fc8, type: INQInnerProduct, layer id:23
I1222 20:57:32.203788 20466 net.cpp:453] Found INQ layer:fc8, type: INQInnerProduct, layer id:23
I1222 20:57:32.203793 20466 layer_factory.hpp:77] Creating layer fc8_fc8_0_split
I1222 20:57:32.203804 20466 net.cpp:84] Creating Layer fc8_fc8_0_split
I1222 20:57:32.203810 20466 net.cpp:413] fc8_fc8_0_split <- fc8
I1222 20:57:32.203819 20466 net.cpp:387] fc8_fc8_0_split -> fc8_fc8_0_split_0
I1222 20:57:32.203830 20466 net.cpp:387] fc8_fc8_0_split -> fc8_fc8_0_split_1
I1222 20:57:32.203836 20466 net.cpp:387] fc8_fc8_0_split -> fc8_fc8_0_split_2
I1222 20:57:32.203902 20466 net.cpp:127] Setting up fc8_fc8_0_split
I1222 20:57:32.203907 20466 net.cpp:136] Top shape: 50 1000 (50000)
I1222 20:57:32.203912 20466 net.cpp:136] Top shape: 50 1000 (50000)
I1222 20:57:32.203917 20466 net.cpp:136] Top shape: 50 1000 (50000)
I1222 20:57:32.203920 20466 net.cpp:144] Memory required for data: 416563000
I1222 20:57:32.203924 20466 layer_factory.hpp:77] Creating layer accuracy_top1
I1222 20:57:32.203938 20466 net.cpp:84] Creating Layer accuracy_top1
I1222 20:57:32.203943 20466 net.cpp:413] accuracy_top1 <- fc8_fc8_0_split_0
I1222 20:57:32.203948 20466 net.cpp:413] accuracy_top1 <- label_data_1_split_0
I1222 20:57:32.203955 20466 net.cpp:387] accuracy_top1 -> accuracy_top1
…
