…
I1221 18:41:27.167263 47853 net.cpp:301] The NetState phase (0) differed from the phase (1) specified by a rule in layer accuracy_top5
I1221 18:41:27.167613 47853 net.cpp:51] Initializing net from parameters: 
name: "AlexNet"
state {
  phase: TRAIN
  level: 0
  stage: ""
}
layer {
  name: "data"
  type: "Data"
  top: "data"
  top: "label"
  include {
    phase: TRAIN
  }
  transform_param {
    mirror: true
    crop_size: 227
    mean_file: "/home/data/caffe-imagenet/imagenet_mean.binaryproto"
  }
  data_param {
    source: "/home/data/caffe-imagenet/ilsvrc12_train_lmdb"
    batch_size: 256
    backend: LMDB
  }
}
layer {
  name: "conv1"
  type: "INQConvolution"
  bottom: "data"
  top: "conv1"
  param {
    lr_mult: 1
    decay_mult: 1
  }
  param {
    lr_mult: 2
    decay_mult: 0
  }
  convolution_param {
    num_output: 96
    kernel_size: 11
    stride: 4
    weight_filler {
      type: "gaussian"
      std: 0.01
    }
    bias_filler {
      type: "constant"
      value: 0
    }
  }
  inq_convolution_param {
    portion: 0.5
    portion: 0.7
    weight_mask_filler {
      type: "constant"
      value: 1
    }
    bias_mask_filler {
      type: "constant"
      value: 1
    }
    num_quantum_values: 7
  }
}
layer {
  name: "relu1"
  type: "ReLU"
  bottom: "conv1"
  top: "conv1"
}
layer {
  name: "norm1"
  type: "LRN"
  bottom: "conv1"
  top: "norm1"
  lrn_param {
    local_size: 5
    alpha: 0.0001
    beta: 0.75
  }
}
layer {
  name: "pool1"
  type: "Pooling"
  bottom: "norm1"
  top: "pool1"
  pooling_param {
    pool: MAX
    kernel_size: 3
    stride: 2
  }
}
layer {
  name: "conv2"
  type: "INQConvolution"
  bottom: "pool1"
  top: "conv2"
  param {
    lr_mult: 1
    decay_mult: 1
  }
  param {
    lr_mult: 2
    decay_mult: 0
  }
  convolution_param {
    num_output: 256
    pad: 2
    kernel_size: 5
    group: 2
    weight_filler {
      type: "gaussian"
      std: 0.01
    }
    bias_filler {
      type: "constant"
      value: 0.1
    }
  }
  inq_convolution_param {
    portion: 0.5
    portion: 0.7
    weight_mask_filler {
      type: "constant"
      value: 1
    }
    bias_mask_filler {
      type: "constant"
      value: 1
    }
    num_quantum_values: 7
  }
}
layer {
  name: "relu2"
  type: "ReLU"
  bottom: "conv2"
  top: "conv2"
}
layer {
  name: "norm2"
  type: "LRN"
  bottom: "conv2"
  top: "norm2"
  lrn_param {
    local_size: 5
    alpha: 0.0001
    beta: 0.75
  }
}
layer {
  name: "pool2"
  type: "Pooling"
  bottom: "norm2"
  top: "pool2"
  pooling_param {
    pool: MAX
    kernel_size: 3
    stride: 2
  }
}
layer {
  name: "conv3"
  type: "INQConvolution"
  bottom: "pool2"
  top: "conv3"
  param {
    lr_mult: 1
    decay_mult: 1
  }
  param {
    lr_mult: 2
    decay_mult: 0
  }
  convolution_param {
    num_output: 384
    pad: 1
    kernel_size: 3
    weight_filler {
      type: "gaussian"
      std: 0.01
    }
    bias_filler {
      type: "constant"
      value: 0
    }
  }
  inq_convolution_param {
    portion: 0.5
    portion: 0.7
    weight_mask_filler {
      type: "constant"
      value: 1
    }
    bias_mask_filler {
      type: "constant"
      value: 1
    }
    num_quantum_values: 7
  }
}
layer {
  name: "relu3"
  type: "ReLU"
  bottom: "conv3"
  top: "conv3"
}
layer {
  name: "conv4"
  type: "INQConvolution"
  bottom: "conv3"
  top: "conv4"
  param {
    lr_mult: 1
    decay_mult: 1
  }
  param {
    lr_mult: 2
    decay_mult: 0
  }
  convolution_param {
    num_output: 384
    pad: 1
    kernel_size: 3
    group: 2
    weight_filler {
      type: "gaussian"
      std: 0.01
    }
    bias_filler {
      type: "constant"
      value: 0.1
    }
  }
  inq_convolution_param {
    portion: 0.5
    portion: 0.7
    weight_mask_filler {
      type: "constant"
      value: 1
    }
    bias_mask_filler {
      type: "constant"
      value: 1
    }
    num_quantum_values: 7
  }
}
layer {
  name: "relu4"
  type: "ReLU"
  bottom: "conv4"
  top: "conv4"
}
layer {
  name: "conv5"
  type: "INQConvolution"
  bottom: "conv4"
  top: "conv5"
  param {
    lr_mult: 1
    decay_mult: 1
  }
  param {
    lr_mult: 2
    decay_mult: 0
  }
  convolution_param {
    num_output: 256
    pad: 1
    kernel_size: 3
    group: 2
    weight_filler {
      type: "gaussian"
      std: 0.01
    }
    bias_filler {
      type: "constant"
      value: 0.1
    }
  }
  inq_convolution_param {
    portion: 0.5
    portion: 0.7
    weight_mask_filler {
      type: "constant"
      value: 1
    }
    bias_mask_filler {
      type: "constant"
      value: 1
    }
    num_quantum_values: 7
  }
}
layer {
  name: "relu5"
  type: "ReLU"
  bottom: "conv5"
  top: "conv5"
}
layer {
  name: "pool5"
  type: "Pooling"
  bottom: "conv5"
  top: "pool5"
  pooling_param {
    pool: MAX
    kernel_size: 3
    stride: 2
  }
}
layer {
  name: "fc6"
  type: "INQInnerProduct"
  bottom: "pool5"
  top: "fc6"
  param {
    lr_mult: 1
    decay_mult: 1
  }
  param {
    lr_mult: 2
    decay_mult: 0
  }
  inner_product_param {
    num_output: 4096
    weight_filler {
      type: "gaussian"
      std: 0.005
    }
    bias_filler {
      type: "constant"
      value: 0.1
    }
  }
  inq_inner_product_param {
    portion: 0.5
    portion: 0.7
    weight_mask_filler {
      type: "constant"
      value: 1
    }
    bias_mask_filler {
      type: "constant"
      value: 1
    }
    num_quantum_values: 7
  }
}
layer {
  name: "relu6"
  type: "ReLU"
  bottom: "fc6"
  top: "fc6"
}
layer {
  name: "drop6"
  type: "Dropout"
  bottom: "fc6"
  top: "fc6"
  dropout_param {
    dropout_ratio: 0.5
  }
}
layer {
  name: "fc7"
  type: "INQInnerProduct"
  bottom: "fc6"
  top: "fc7"
  param {
    lr_mult: 1
    decay_mult: 1
  }
  param {
    lr_mult: 2
    decay_mult: 0
  }
  inner_product_param {
    num_output: 4096
    weight_filler {
      type: "gaussian"
      std: 0.005
    }
    bias_filler {
      type: "constant"
      value: 0.1
    }
  }
  inq_inner_product_param {
    portion: 0.5
    portion: 0.7
    weight_mask_filler {
      type: "constant"
      value: 1
    }
    bias_mask_filler {
      type: "constant"
      value: 1
    }
    num_quantum_values: 7
  }
}
layer {
  name: "relu7"
  type: "ReLU"
  bottom: "fc7"
  top: "fc7"
}
layer {
  name: "drop7"
  type: "Dropout"
  bottom: "fc7"
  top: "fc7"
  dropout_param {
    dropout_ratio: 0.5
  }
}
layer {
  name: "fc8"
  type: "INQInnerProduct"
  bottom: "fc7"
  top: "fc8"
  param {
    lr_mult: 1
    decay_mult: 1
  }
  param {
    lr_mult: 2
    decay_mult: 0
  }
  inner_product_param {
    num_output: 1000
    weight_filler {
      type: "gaussian"
      std: 0.01
    }
    bias_filler {
      type: "constant"
      value: 0
    }
  }
  inq_inner_product_param {
    portion: 0.5
    portion: 0.7
    weight_mask_filler {
      type: "constant"
      value: 1
    }
    bias_mask_filler {
      type: "constant"
      value: 1
    }
    num_quantum_values: 7
  }
}
layer {
  name: "loss"
  type: "SoftmaxWithLoss"
  bottom: "fc8"
  bottom: "label"
  top: "loss"
}
I1221 18:41:27.167789 47853 layer_factory.hpp:77] Creating layer data
I1221 18:41:27.179669 47853 db_lmdb.cpp:35] Opened lmdb /home/data/caffe-imagenet/ilsvrc12_train_lmdb
I1221 18:41:27.189275 47853 net.cpp:84] Creating Layer data
I1221 18:41:27.189297 47853 net.cpp:387] data -> data
I1221 18:41:27.189327 47853 net.cpp:387] data -> label
I1221 18:41:27.189347 47853 data_transformer.cpp:25] Loading mean file from: /home/data/caffe-imagenet/imagenet_mean.binaryproto
I1221 18:41:27.208353 47853 data_layer.cpp:45] output data size: 256,3,227,227
I1221 18:41:27.639612 47853 net.cpp:127] Setting up data
I1221 18:41:27.639655 47853 net.cpp:136] Top shape: 256 3 227 227 (39574272)
I1221 18:41:27.639663 47853 net.cpp:136] Top shape: 256 (256)
I1221 18:41:27.639667 47853 net.cpp:144] Memory required for data: 158298112
I1221 18:41:27.639683 47853 layer_factory.hpp:77] Creating layer conv1
I1221 18:41:27.639716 47853 net.cpp:84] Creating Layer conv1
I1221 18:41:27.639725 47853 net.cpp:413] conv1 <- data
I1221 18:41:27.639746 47853 net.cpp:387] conv1 -> conv1
I1221 18:41:27.644455 47853 net.cpp:127] Setting up conv1
I1221 18:41:27.644474 47853 net.cpp:136] Top shape: 256 96 55 55 (74342400)
I1221 18:41:27.644479 47853 net.cpp:144] Memory required for data: 455667712
I1221 18:41:27.644498 47853 net.cpp:453] Found INQ layer:conv1, type: INQConvolution, layer id:1
I1221 18:41:27.644510 47853 net.cpp:453] Found INQ layer:conv1, type: INQConvolution, layer id:1
I1221 18:41:27.644520 47853 net.cpp:453] Found INQ layer:conv1, type: INQConvolution, layer id:1
I1221 18:41:27.644527 47853 net.cpp:453] Found INQ layer:conv1, type: INQConvolution, layer id:1
I1221 18:41:27.644534 47853 layer_factory.hpp:77] Creating layer relu1
I1221 18:41:27.644551 47853 net.cpp:84] Creating Layer relu1
I1221 18:41:27.644556 47853 net.cpp:413] relu1 <- conv1
I1221 18:41:27.644562 47853 net.cpp:374] relu1 -> conv1 (in-place)
I1221 18:41:28.509861 47853 net.cpp:127] Setting up relu1
I1221 18:41:28.509912 47853 net.cpp:136] Top shape: 256 96 55 55 (74342400)
I1221 18:41:28.509918 47853 net.cpp:144] Memory required for data: 753037312
I1221 18:41:28.509927 47853 layer_factory.hpp:77] Creating layer norm1
I1221 18:41:28.509953 47853 net.cpp:84] Creating Layer norm1
I1221 18:41:28.509959 47853 net.cpp:413] norm1 <- conv1
I1221 18:41:28.509969 47853 net.cpp:387] norm1 -> norm1
I1221 18:41:28.511426 47853 net.cpp:127] Setting up norm1
I1221 18:41:28.511445 47853 net.cpp:136] Top shape: 256 96 55 55 (74342400)
I1221 18:41:28.511449 47853 net.cpp:144] Memory required for data: 1050406912
I1221 18:41:28.511457 47853 layer_factory.hpp:77] Creating layer pool1
I1221 18:41:28.511469 47853 net.cpp:84] Creating Layer pool1
I1221 18:41:28.511474 47853 net.cpp:413] pool1 <- norm1
I1221 18:41:28.511482 47853 net.cpp:387] pool1 -> pool1
I1221 18:41:28.511543 47853 net.cpp:127] Setting up pool1
I1221 18:41:28.511550 47853 net.cpp:136] Top shape: 256 96 27 27 (17915904)
I1221 18:41:28.511555 47853 net.cpp:144] Memory required for data: 1122070528
I1221 18:41:28.511560 47853 layer_factory.hpp:77] Creating layer conv2
I1221 18:41:28.511575 47853 net.cpp:84] Creating Layer conv2
I1221 18:41:28.511580 47853 net.cpp:413] conv2 <- pool1
I1221 18:41:28.511587 47853 net.cpp:387] conv2 -> conv2
I1221 18:41:28.518577 47853 net.cpp:127] Setting up conv2
I1221 18:41:28.518595 47853 net.cpp:136] Top shape: 256 256 27 27 (47775744)
I1221 18:41:28.518600 47853 net.cpp:144] Memory required for data: 1313173504
I1221 18:41:28.518611 47853 net.cpp:453] Found INQ layer:conv2, type: INQConvolution, layer id:5
I1221 18:41:28.518621 47853 net.cpp:453] Found INQ layer:conv2, type: INQConvolution, layer id:5
I1221 18:41:28.518628 47853 net.cpp:453] Found INQ layer:conv2, type: INQConvolution, layer id:5
I1221 18:41:28.518635 47853 net.cpp:453] Found INQ layer:conv2, type: INQConvolution, layer id:5
I1221 18:41:28.518638 47853 layer_factory.hpp:77] Creating layer relu2
I1221 18:41:28.518647 47853 net.cpp:84] Creating Layer relu2
I1221 18:41:28.518652 47853 net.cpp:413] relu2 <- conv2
I1221 18:41:28.518659 47853 net.cpp:374] relu2 -> conv2 (in-place)
I1221 18:41:28.518877 47853 net.cpp:127] Setting up relu2
I1221 18:41:28.518887 47853 net.cpp:136] Top shape: 256 256 27 27 (47775744)
I1221 18:41:28.518923 47853 net.cpp:144] Memory required for data: 1504276480
I1221 18:41:28.518930 47853 layer_factory.hpp:77] Creating layer norm2
I1221 18:41:28.518939 47853 net.cpp:84] Creating Layer norm2
I1221 18:41:28.518944 47853 net.cpp:413] norm2 <- conv2
I1221 18:41:28.518951 47853 net.cpp:387] norm2 -> norm2
I1221 18:41:28.519171 47853 net.cpp:127] Setting up norm2
I1221 18:41:28.519181 47853 net.cpp:136] Top shape: 256 256 27 27 (47775744)
I1221 18:41:28.519186 47853 net.cpp:144] Memory required for data: 1695379456
I1221 18:41:28.519191 47853 layer_factory.hpp:77] Creating layer pool2
I1221 18:41:28.519199 47853 net.cpp:84] Creating Layer pool2
I1221 18:41:28.519204 47853 net.cpp:413] pool2 <- norm2
I1221 18:41:28.519210 47853 net.cpp:387] pool2 -> pool2
I1221 18:41:28.519248 47853 net.cpp:127] Setting up pool2
I1221 18:41:28.519255 47853 net.cpp:136] Top shape: 256 256 13 13 (11075584)
I1221 18:41:28.519259 47853 net.cpp:144] Memory required for data: 1739681792
I1221 18:41:28.519264 47853 layer_factory.hpp:77] Creating layer conv3
I1221 18:41:28.519276 47853 net.cpp:84] Creating Layer conv3
I1221 18:41:28.519280 47853 net.cpp:413] conv3 <- pool2
I1221 18:41:28.519294 47853 net.cpp:387] conv3 -> conv3
I1221 18:41:28.535168 47853 net.cpp:127] Setting up conv3
I1221 18:41:28.535187 47853 net.cpp:136] Top shape: 256 384 13 13 (16613376)
I1221 18:41:28.535192 47853 net.cpp:144] Memory required for data: 1806135296
I1221 18:41:28.535202 47853 net.cpp:453] Found INQ layer:conv3, type: INQConvolution, layer id:9
I1221 18:41:28.535212 47853 net.cpp:453] Found INQ layer:conv3, type: INQConvolution, layer id:9
I1221 18:41:28.535218 47853 net.cpp:453] Found INQ layer:conv3, type: INQConvolution, layer id:9
I1221 18:41:28.535223 47853 net.cpp:453] Found INQ layer:conv3, type: INQConvolution, layer id:9
I1221 18:41:28.535228 47853 layer_factory.hpp:77] Creating layer relu3
I1221 18:41:28.535236 47853 net.cpp:84] Creating Layer relu3
I1221 18:41:28.535241 47853 net.cpp:413] relu3 <- conv3
I1221 18:41:28.535248 47853 net.cpp:374] relu3 -> conv3 (in-place)
I1221 18:41:28.536636 47853 net.cpp:127] Setting up relu3
I1221 18:41:28.536653 47853 net.cpp:136] Top shape: 256 384 13 13 (16613376)
I1221 18:41:28.536659 47853 net.cpp:144] Memory required for data: 1872588800
I1221 18:41:28.536665 47853 layer_factory.hpp:77] Creating layer conv4
I1221 18:41:28.536679 47853 net.cpp:84] Creating Layer conv4
I1221 18:41:28.536684 47853 net.cpp:413] conv4 <- conv3
I1221 18:41:28.536691 47853 net.cpp:387] conv4 -> conv4
I1221 18:41:28.548862 47853 net.cpp:127] Setting up conv4
I1221 18:41:28.548882 47853 net.cpp:136] Top shape: 256 384 13 13 (16613376)
I1221 18:41:28.548887 47853 net.cpp:144] Memory required for data: 1939042304
I1221 18:41:28.548893 47853 net.cpp:453] Found INQ layer:conv4, type: INQConvolution, layer id:11
I1221 18:41:28.548900 47853 net.cpp:453] Found INQ layer:conv4, type: INQConvolution, layer id:11
I1221 18:41:28.548907 47853 net.cpp:453] Found INQ layer:conv4, type: INQConvolution, layer id:11
I1221 18:41:28.548912 47853 net.cpp:453] Found INQ layer:conv4, type: INQConvolution, layer id:11
I1221 18:41:28.548915 47853 layer_factory.hpp:77] Creating layer relu4
I1221 18:41:28.548923 47853 net.cpp:84] Creating Layer relu4
I1221 18:41:28.548928 47853 net.cpp:413] relu4 <- conv4
I1221 18:41:28.548935 47853 net.cpp:374] relu4 -> conv4 (in-place)
I1221 18:41:28.549149 47853 net.cpp:127] Setting up relu4
I1221 18:41:28.549160 47853 net.cpp:136] Top shape: 256 384 13 13 (16613376)
I1221 18:41:28.549163 47853 net.cpp:144] Memory required for data: 2005495808
I1221 18:41:28.549168 47853 layer_factory.hpp:77] Creating layer conv5
I1221 18:41:28.549183 47853 net.cpp:84] Creating Layer conv5
I1221 18:41:28.549188 47853 net.cpp:413] conv5 <- conv4
I1221 18:41:28.549196 47853 net.cpp:387] conv5 -> conv5
I1221 18:41:28.574411 47853 net.cpp:127] Setting up conv5
I1221 18:41:28.574432 47853 net.cpp:136] Top shape: 256 256 13 13 (11075584)
I1221 18:41:28.574447 47853 net.cpp:144] Memory required for data: 2049798144
I1221 18:41:28.574481 47853 net.cpp:453] Found INQ layer:conv5, type: INQConvolution, layer id:13
I1221 18:41:28.574491 47853 net.cpp:453] Found INQ layer:conv5, type: INQConvolution, layer id:13
I1221 18:41:28.574497 47853 net.cpp:453] Found INQ layer:conv5, type: INQConvolution, layer id:13
I1221 18:41:28.574503 47853 net.cpp:453] Found INQ layer:conv5, type: INQConvolution, layer id:13
I1221 18:41:28.574507 47853 layer_factory.hpp:77] Creating layer relu5
I1221 18:41:28.574517 47853 net.cpp:84] Creating Layer relu5
I1221 18:41:28.574522 47853 net.cpp:413] relu5 <- conv5
I1221 18:41:28.574528 47853 net.cpp:374] relu5 -> conv5 (in-place)
I1221 18:41:28.574753 47853 net.cpp:127] Setting up relu5
I1221 18:41:28.574764 47853 net.cpp:136] Top shape: 256 256 13 13 (11075584)
I1221 18:41:28.574769 47853 net.cpp:144] Memory required for data: 2094100480
I1221 18:41:28.574772 47853 layer_factory.hpp:77] Creating layer pool5
I1221 18:41:28.574781 47853 net.cpp:84] Creating Layer pool5
I1221 18:41:28.574785 47853 net.cpp:413] pool5 <- conv5
I1221 18:41:28.574792 47853 net.cpp:387] pool5 -> pool5
I1221 18:41:28.574841 47853 net.cpp:127] Setting up pool5
I1221 18:41:28.574848 47853 net.cpp:136] Top shape: 256 256 6 6 (2359296)
I1221 18:41:28.574852 47853 net.cpp:144] Memory required for data: 2103537664
I1221 18:41:28.574857 47853 layer_factory.hpp:77] Creating layer fc6
I1221 18:41:28.574877 47853 net.cpp:84] Creating Layer fc6
I1221 18:41:28.574882 47853 net.cpp:413] fc6 <- pool5
I1221 18:41:28.574888 47853 net.cpp:387] fc6 -> fc6
I1221 18:41:29.196108 47853 net.cpp:127] Setting up fc6
I1221 18:41:29.196154 47853 net.cpp:136] Top shape: 256 4096 (1048576)
I1221 18:41:29.196159 47853 net.cpp:144] Memory required for data: 2107731968
I1221 18:41:29.196171 47853 net.cpp:453] Found INQ layer:fc6, type: INQInnerProduct, layer id:16
I1221 18:41:29.196179 47853 net.cpp:453] Found INQ layer:fc6, type: INQInnerProduct, layer id:16
I1221 18:41:29.196185 47853 net.cpp:453] Found INQ layer:fc6, type: INQInnerProduct, layer id:16
I1221 18:41:29.196192 47853 net.cpp:453] Found INQ layer:fc6, type: INQInnerProduct, layer id:16
I1221 18:41:29.196199 47853 layer_factory.hpp:77] Creating layer relu6
I1221 18:41:29.196213 47853 net.cpp:84] Creating Layer relu6
I1221 18:41:29.196219 47853 net.cpp:413] relu6 <- fc6
I1221 18:41:29.196230 47853 net.cpp:374] relu6 -> fc6 (in-place)
I1221 18:41:29.196542 47853 net.cpp:127] Setting up relu6
I1221 18:41:29.196553 47853 net.cpp:136] Top shape: 256 4096 (1048576)
I1221 18:41:29.196558 47853 net.cpp:144] Memory required for data: 2111926272
I1221 18:41:29.196563 47853 layer_factory.hpp:77] Creating layer drop6
I1221 18:41:29.196576 47853 net.cpp:84] Creating Layer drop6
I1221 18:41:29.196581 47853 net.cpp:413] drop6 <- fc6
I1221 18:41:29.196588 47853 net.cpp:374] drop6 -> fc6 (in-place)
I1221 18:41:29.196619 47853 net.cpp:127] Setting up drop6
I1221 18:41:29.196625 47853 net.cpp:136] Top shape: 256 4096 (1048576)
I1221 18:41:29.196630 47853 net.cpp:144] Memory required for data: 2116120576
I1221 18:41:29.196635 47853 layer_factory.hpp:77] Creating layer fc7
I1221 18:41:29.196650 47853 net.cpp:84] Creating Layer fc7
I1221 18:41:29.196655 47853 net.cpp:413] fc7 <- fc6
I1221 18:41:29.196667 47853 net.cpp:387] fc7 -> fc7
I1221 18:41:29.474515 47853 net.cpp:127] Setting up fc7
I1221 18:41:29.474565 47853 net.cpp:136] Top shape: 256 4096 (1048576)
I1221 18:41:29.474570 47853 net.cpp:144] Memory required for data: 2120314880
I1221 18:41:29.474581 47853 net.cpp:453] Found INQ layer:fc7, type: INQInnerProduct, layer id:19
I1221 18:41:29.474588 47853 net.cpp:453] Found INQ layer:fc7, type: INQInnerProduct, layer id:19
I1221 18:41:29.474594 47853 net.cpp:453] Found INQ layer:fc7, type: INQInnerProduct, layer id:19
I1221 18:41:29.474599 47853 net.cpp:453] Found INQ layer:fc7, type: INQInnerProduct, layer id:19
I1221 18:41:29.474604 47853 layer_factory.hpp:77] Creating layer relu7
I1221 18:41:29.474617 47853 net.cpp:84] Creating Layer relu7
I1221 18:41:29.474635 47853 net.cpp:413] relu7 <- fc7
I1221 18:41:29.474675 47853 net.cpp:374] relu7 -> fc7 (in-place)
I1221 18:41:29.476327 47853 net.cpp:127] Setting up relu7
I1221 18:41:29.476346 47853 net.cpp:136] Top shape: 256 4096 (1048576)
I1221 18:41:29.476351 47853 net.cpp:144] Memory required for data: 2124509184
I1221 18:41:29.476356 47853 layer_factory.hpp:77] Creating layer drop7
I1221 18:41:29.476366 47853 net.cpp:84] Creating Layer drop7
I1221 18:41:29.476371 47853 net.cpp:413] drop7 <- fc7
I1221 18:41:29.476379 47853 net.cpp:374] drop7 -> fc7 (in-place)
I1221 18:41:29.476406 47853 net.cpp:127] Setting up drop7
I1221 18:41:29.476414 47853 net.cpp:136] Top shape: 256 4096 (1048576)
I1221 18:41:29.476418 47853 net.cpp:144] Memory required for data: 2128703488
I1221 18:41:29.476423 47853 layer_factory.hpp:77] Creating layer fc8
I1221 18:41:29.476439 47853 net.cpp:84] Creating Layer fc8
I1221 18:41:29.476444 47853 net.cpp:413] fc8 <- fc7
I1221 18:41:29.476454 47853 net.cpp:387] fc8 -> fc8
I1221 18:41:29.545466 47853 net.cpp:127] Setting up fc8
I1221 18:41:29.545502 47853 net.cpp:136] Top shape: 256 1000 (256000)
I1221 18:41:29.545507 47853 net.cpp:144] Memory required for data: 2129727488
I1221 18:41:29.545517 47853 net.cpp:453] Found INQ layer:fc8, type: INQInnerProduct, layer id:22
I1221 18:41:29.545526 47853 net.cpp:453] Found INQ layer:fc8, type: INQInnerProduct, layer id:22
I1221 18:41:29.545531 47853 net.cpp:453] Found INQ layer:fc8, type: INQInnerProduct, layer id:22
I1221 18:41:29.545536 47853 net.cpp:453] Found INQ layer:fc8, type: INQInnerProduct, layer id:22
…
I1221 18:41:29.548949 47853 net.cpp:301] The NetState phase (1) differed from the phase (0) specified by a rule in layer data
I1221 18:41:29.549325 47853 net.cpp:51] Initializing net from parameters: 
name: "AlexNet"
state {
  phase: TEST
}
layer {
  name: "data"
  type: "Data"
  top: "data"
  top: "label"
  include {
    phase: TEST
  }
  transform_param {
    mirror: false
    crop_size: 227
    mean_file: "/home/data/caffe-imagenet/imagenet_mean.binaryproto"
  }
  data_param {
    source: "/home/data/caffe-imagenet/ilsvrc12_val_lmdb"
    batch_size: 50
    backend: LMDB
  }
}
layer {
  name: "conv1"
  type: "INQConvolution"
  bottom: "data"
  top: "conv1"
  param {
    lr_mult: 1
    decay_mult: 1
  }
  param {
    lr_mult: 2
    decay_mult: 0
  }
  convolution_param {
    num_output: 96
    kernel_size: 11
    stride: 4
    weight_filler {
      type: "gaussian"
      std: 0.01
    }
    bias_filler {
      type: "constant"
      value: 0
    }
  }
  inq_convolution_param {
    portion: 0.5
    portion: 0.7
    weight_mask_filler {
      type: "constant"
      value: 1
    }
    bias_mask_filler {
      type: "constant"
      value: 1
    }
    num_quantum_values: 7
  }
}
layer {
  name: "relu1"
  type: "ReLU"
  bottom: "conv1"
  top: "conv1"
}
layer {
  name: "norm1"
  type: "LRN"
  bottom: "conv1"
  top: "norm1"
  lrn_param {
    local_size: 5
    alpha: 0.0001
    beta: 0.75
  }
}
layer {
  name: "pool1"
  type: "Pooling"
  bottom: "norm1"
  top: "pool1"
  pooling_param {
    pool: MAX
    kernel_size: 3
    stride: 2
  }
}
layer {
  name: "conv2"
  type: "INQConvolution"
  bottom: "pool1"
  top: "conv2"
  param {
    lr_mult: 1
    decay_mult: 1
  }
  param {
    lr_mult: 2
    decay_mult: 0
  }
  convolution_param {
    num_output: 256
    pad: 2
    kernel_size: 5
    group: 2
    weight_filler {
      type: "gaussian"
      std: 0.01
    }
    bias_filler {
      type: "constant"
      value: 0.1
    }
  }
  inq_convolution_param {
    portion: 0.5
    portion: 0.7
    weight_mask_filler {
      type: "constant"
      value: 1
    }
    bias_mask_filler {
      type: "constant"
      value: 1
    }
    num_quantum_values: 7
  }
}
layer {
  name: "relu2"
  type: "ReLU"
  bottom: "conv2"
  top: "conv2"
}
layer {
  name: "norm2"
  type: "LRN"
  bottom: "conv2"
  top: "norm2"
  lrn_param {
    local_size: 5
    alpha: 0.0001
    beta: 0.75
  }
}
layer {
  name: "pool2"
  type: "Pooling"
  bottom: "norm2"
  top: "pool2"
  pooling_param {
    pool: MAX
    kernel_size: 3
    stride: 2
  }
}
layer {
  name: "conv3"
  type: "INQConvolution"
  bottom: "pool2"
  top: "conv3"
  param {
    lr_mult: 1
    decay_mult: 1
  }
  param {
    lr_mult: 2
    decay_mult: 0
  }
  convolution_param {
    num_output: 384
    pad: 1
    kernel_size: 3
    weight_filler {
      type: "gaussian"
      std: 0.01
    }
    bias_filler {
      type: "constant"
      value: 0
    }
  }
  inq_convolution_param {
    portion: 0.5
    portion: 0.7
    weight_mask_filler {
      type: "constant"
      value: 1
    }
    bias_mask_filler {
      type: "constant"
      value: 1
    }
    num_quantum_values: 7
  }
}
layer {
  name: "relu3"
  type: "ReLU"
  bottom: "conv3"
  top: "conv3"
}
layer {
  name: "conv4"
  type: "INQConvolution"
  bottom: "conv3"
  top: "conv4"
  param {
    lr_mult: 1
    decay_mult: 1
  }
  param {
    lr_mult: 2
    decay_mult: 0
  }
  convolution_param {
    num_output: 384
    pad: 1
    kernel_size: 3
    group: 2
    weight_filler {
      type: "gaussian"
      std: 0.01
    }
    bias_filler {
      type: "constant"
      value: 0.1
    }
  }
  inq_convolution_param {
    portion: 0.5
    portion: 0.7
    weight_mask_filler {
      type: "constant"
      value: 1
    }
    bias_mask_filler {
      type: "constant"
      value: 1
    }
    num_quantum_values: 7
  }
}
layer {
  name: "relu4"
  type: "ReLU"
  bottom: "conv4"
  top: "conv4"
}
layer {
  name: "conv5"
  type: "INQConvolution"
  bottom: "conv4"
  top: "conv5"
  param {
    lr_mult: 1
    decay_mult: 1
  }
  param {
    lr_mult: 2
    decay_mult: 0
  }
  convolution_param {
    num_output: 256
    pad: 1
    kernel_size: 3
    group: 2
    weight_filler {
      type: "gaussian"
      std: 0.01
    }
    bias_filler {
      type: "constant"
      value: 0.1
    }
  }
  inq_convolution_param {
    portion: 0.5
    portion: 0.7
    weight_mask_filler {
      type: "constant"
      value: 1
    }
    bias_mask_filler {
      type: "constant"
      value: 1
    }
    num_quantum_values: 7
  }
}
layer {
  name: "relu5"
  type: "ReLU"
  bottom: "conv5"
  top: "conv5"
}
layer {
  name: "pool5"
  type: "Pooling"
  bottom: "conv5"
  top: "pool5"
  pooling_param {
    pool: MAX
    kernel_size: 3
    stride: 2
  }
}
layer {
  name: "fc6"
  type: "INQInnerProduct"
  bottom: "pool5"
  top: "fc6"
  param {
    lr_mult: 1
    decay_mult: 1
  }
  param {
    lr_mult: 2
    decay_mult: 0
  }
  inner_product_param {
    num_output: 4096
    weight_filler {
      type: "gaussian"
      std: 0.005
    }
    bias_filler {
      type: "constant"
      value: 0.1
    }
  }
  inq_inner_product_param {
    portion: 0.5
    portion: 0.7
    weight_mask_filler {
      type: "constant"
      value: 1
    }
    bias_mask_filler {
      type: "constant"
      value: 1
    }
    num_quantum_values: 7
  }
}
layer {
  name: "relu6"
  type: "ReLU"
  bottom: "fc6"
  top: "fc6"
}
layer {
  name: "drop6"
  type: "Dropout"
  bottom: "fc6"
  top: "fc6"
  dropout_param {
    dropout_ratio: 0.5
  }
}
layer {
  name: "fc7"
  type: "INQInnerProduct"
  bottom: "fc6"
  top: "fc7"
  param {
    lr_mult: 1
    decay_mult: 1
  }
  param {
    lr_mult: 2
    decay_mult: 0
  }
  inner_product_param {
    num_output: 4096
    weight_filler {
      type: "gaussian"
      std: 0.005
    }
    bias_filler {
      type: "constant"
      value: 0.1
    }
  }
  inq_inner_product_param {
    portion: 0.5
    portion: 0.7
    weight_mask_filler {
      type: "constant"
      value: 1
    }
    bias_mask_filler {
      type: "constant"
      value: 1
    }
    num_quantum_values: 7
  }
}
layer {
  name: "relu7"
  type: "ReLU"
  bottom: "fc7"
  top: "fc7"
}
layer {
  name: "drop7"
  type: "Dropout"
  bottom: "fc7"
  top: "fc7"
  dropout_param {
    dropout_ratio: 0.5
  }
}
layer {
  name: "fc8"
  type: "INQInnerProduct"
  bottom: "fc7"
  top: "fc8"
  param {
    lr_mult: 1
    decay_mult: 1
  }
  param {
    lr_mult: 2
    decay_mult: 0
  }
  inner_product_param {
    num_output: 1000
    weight_filler {
      type: "gaussian"
      std: 0.01
    }
    bias_filler {
      type: "constant"
      value: 0
    }
  }
  inq_inner_product_param {
    portion: 0.5
    portion: 0.7
    weight_mask_filler {
      type: "constant"
      value: 1
    }
    bias_mask_filler {
      type: "constant"
      value: 1
    }
    num_quantum_values: 7
  }
}
layer {
  name: "accuracy_top1"
  type: "Accuracy"
  bottom: "fc8"
  bottom: "label"
  top: "accuracy_top1"
  include {
    phase: TEST
  }
  accuracy_param {
    top_k: 1
  }
}
layer {
  name: "accuracy_top5"
  type: "Accuracy"
  bottom: "fc8"
  bottom: "label"
  top: "accuracy_top5"
  include {
    phase: TEST
  }
  accuracy_param {
    top_k: 5
  }
}
layer {
  name: "loss"
  type: "SoftmaxWithLoss"
  bottom: "fc8"
  bottom: "label"
  top: "loss"
}
I1221 18:41:29.549500 47853 layer_factory.hpp:77] Creating layer data
I1221 18:41:29.552242 47853 db_lmdb.cpp:35] Opened lmdb /home/data/caffe-imagenet/ilsvrc12_val_lmdb
I1221 18:41:29.552269 47853 net.cpp:84] Creating Layer data
I1221 18:41:29.552278 47853 net.cpp:387] data -> data
I1221 18:41:29.552294 47853 net.cpp:387] data -> label
I1221 18:41:29.552304 47853 data_transformer.cpp:25] Loading mean file from: /home/data/caffe-imagenet/imagenet_mean.binaryproto
I1221 18:41:29.554633 47853 data_layer.cpp:45] output data size: 50,3,227,227
I1221 18:41:29.643309 47853 net.cpp:127] Setting up data
I1221 18:41:29.643352 47853 net.cpp:136] Top shape: 50 3 227 227 (7729350)
I1221 18:41:29.643368 47853 net.cpp:136] Top shape: 50 (50)
I1221 18:41:29.643405 47853 net.cpp:144] Memory required for data: 30917600
I1221 18:41:29.643417 47853 layer_factory.hpp:77] Creating layer label_data_1_split
I1221 18:41:29.643440 47853 net.cpp:84] Creating Layer label_data_1_split
I1221 18:41:29.643448 47853 net.cpp:413] label_data_1_split <- label
I1221 18:41:29.643458 47853 net.cpp:387] label_data_1_split -> label_data_1_split_0
I1221 18:41:29.643471 47853 net.cpp:387] label_data_1_split -> label_data_1_split_1
I1221 18:41:29.643479 47853 net.cpp:387] label_data_1_split -> label_data_1_split_2
I1221 18:41:29.643667 47853 net.cpp:127] Setting up label_data_1_split
I1221 18:41:29.643676 47853 net.cpp:136] Top shape: 50 (50)
I1221 18:41:29.643682 47853 net.cpp:136] Top shape: 50 (50)
I1221 18:41:29.643687 47853 net.cpp:136] Top shape: 50 (50)
I1221 18:41:29.643692 47853 net.cpp:144] Memory required for data: 30918200
I1221 18:41:29.643697 47853 layer_factory.hpp:77] Creating layer conv1
I1221 18:41:29.643715 47853 net.cpp:84] Creating Layer conv1
I1221 18:41:29.643720 47853 net.cpp:413] conv1 <- data
I1221 18:41:29.643729 47853 net.cpp:387] conv1 -> conv1
I1221 18:41:29.644611 47853 net.cpp:127] Setting up conv1
I1221 18:41:29.644624 47853 net.cpp:136] Top shape: 50 96 55 55 (14520000)
I1221 18:41:29.644629 47853 net.cpp:144] Memory required for data: 88998200
I1221 18:41:29.644636 47853 net.cpp:453] Found INQ layer:conv1, type: INQConvolution, layer id:2
I1221 18:41:29.644646 47853 net.cpp:453] Found INQ layer:conv1, type: INQConvolution, layer id:2
I1221 18:41:29.644655 47853 net.cpp:453] Found INQ layer:conv1, type: INQConvolution, layer id:2
I1221 18:41:29.644661 47853 net.cpp:453] Found INQ layer:conv1, type: INQConvolution, layer id:2
I1221 18:41:29.644666 47853 layer_factory.hpp:77] Creating layer relu1
I1221 18:41:29.644675 47853 net.cpp:84] Creating Layer relu1
I1221 18:41:29.644680 47853 net.cpp:413] relu1 <- conv1
I1221 18:41:29.644687 47853 net.cpp:374] relu1 -> conv1 (in-place)
I1221 18:41:29.644942 47853 net.cpp:127] Setting up relu1
I1221 18:41:29.644953 47853 net.cpp:136] Top shape: 50 96 55 55 (14520000)
I1221 18:41:29.644958 47853 net.cpp:144] Memory required for data: 147078200
I1221 18:41:29.644961 47853 layer_factory.hpp:77] Creating layer norm1
I1221 18:41:29.644973 47853 net.cpp:84] Creating Layer norm1
I1221 18:41:29.644976 47853 net.cpp:413] norm1 <- conv1
I1221 18:41:29.644984 47853 net.cpp:387] norm1 -> norm1
I1221 18:41:29.645328 47853 net.cpp:127] Setting up norm1
I1221 18:41:29.645340 47853 net.cpp:136] Top shape: 50 96 55 55 (14520000)
I1221 18:41:29.645345 47853 net.cpp:144] Memory required for data: 205158200
I1221 18:41:29.645349 47853 layer_factory.hpp:77] Creating layer pool1
I1221 18:41:29.645359 47853 net.cpp:84] Creating Layer pool1
I1221 18:41:29.645364 47853 net.cpp:413] pool1 <- norm1
I1221 18:41:29.645370 47853 net.cpp:387] pool1 -> pool1
I1221 18:41:29.645413 47853 net.cpp:127] Setting up pool1
I1221 18:41:29.645421 47853 net.cpp:136] Top shape: 50 96 27 27 (3499200)
I1221 18:41:29.645424 47853 net.cpp:144] Memory required for data: 219155000
I1221 18:41:29.645429 47853 layer_factory.hpp:77] Creating layer conv2
I1221 18:41:29.645438 47853 net.cpp:84] Creating Layer conv2
I1221 18:41:29.645443 47853 net.cpp:413] conv2 <- pool1
I1221 18:41:29.645450 47853 net.cpp:387] conv2 -> conv2
I1221 18:41:29.652518 47853 net.cpp:127] Setting up conv2
I1221 18:41:29.652535 47853 net.cpp:136] Top shape: 50 256 27 27 (9331200)
I1221 18:41:29.652539 47853 net.cpp:144] Memory required for data: 256479800
I1221 18:41:29.652549 47853 net.cpp:453] Found INQ layer:conv2, type: INQConvolution, layer id:6
I1221 18:41:29.652557 47853 net.cpp:453] Found INQ layer:conv2, type: INQConvolution, layer id:6
I1221 18:41:29.652564 47853 net.cpp:453] Found INQ layer:conv2, type: INQConvolution, layer id:6
I1221 18:41:29.652570 47853 net.cpp:453] Found INQ layer:conv2, type: INQConvolution, layer id:6
I1221 18:41:29.652575 47853 layer_factory.hpp:77] Creating layer relu2
I1221 18:41:29.652590 47853 net.cpp:84] Creating Layer relu2
I1221 18:41:29.652606 47853 net.cpp:413] relu2 <- conv2
I1221 18:41:29.652613 47853 net.cpp:374] relu2 -> conv2 (in-place)
I1221 18:41:29.654021 47853 net.cpp:127] Setting up relu2
I1221 18:41:29.654037 47853 net.cpp:136] Top shape: 50 256 27 27 (9331200)
I1221 18:41:29.654042 47853 net.cpp:144] Memory required for data: 293804600
I1221 18:41:29.654047 47853 layer_factory.hpp:77] Creating layer norm2
I1221 18:41:29.654059 47853 net.cpp:84] Creating Layer norm2
I1221 18:41:29.654063 47853 net.cpp:413] norm2 <- conv2
I1221 18:41:29.654072 47853 net.cpp:387] norm2 -> norm2
I1221 18:41:29.654309 47853 net.cpp:127] Setting up norm2
I1221 18:41:29.654320 47853 net.cpp:136] Top shape: 50 256 27 27 (9331200)
I1221 18:41:29.654325 47853 net.cpp:144] Memory required for data: 331129400
I1221 18:41:29.654330 47853 layer_factory.hpp:77] Creating layer pool2
I1221 18:41:29.654337 47853 net.cpp:84] Creating Layer pool2
I1221 18:41:29.654342 47853 net.cpp:413] pool2 <- norm2
I1221 18:41:29.654350 47853 net.cpp:387] pool2 -> pool2
I1221 18:41:29.654392 47853 net.cpp:127] Setting up pool2
I1221 18:41:29.654398 47853 net.cpp:136] Top shape: 50 256 13 13 (2163200)
I1221 18:41:29.654402 47853 net.cpp:144] Memory required for data: 339782200
I1221 18:41:29.654407 47853 layer_factory.hpp:77] Creating layer conv3
I1221 18:41:29.654417 47853 net.cpp:84] Creating Layer conv3
I1221 18:41:29.654422 47853 net.cpp:413] conv3 <- pool2
I1221 18:41:29.654430 47853 net.cpp:387] conv3 -> conv3
I1221 18:41:29.670334 47853 net.cpp:127] Setting up conv3
I1221 18:41:29.670352 47853 net.cpp:136] Top shape: 50 384 13 13 (3244800)
I1221 18:41:29.670357 47853 net.cpp:144] Memory required for data: 352761400
I1221 18:41:29.670367 47853 net.cpp:453] Found INQ layer:conv3, type: INQConvolution, layer id:10
I1221 18:41:29.670375 47853 net.cpp:453] Found INQ layer:conv3, type: INQConvolution, layer id:10
I1221 18:41:29.670382 47853 net.cpp:453] Found INQ layer:conv3, type: INQConvolution, layer id:10
I1221 18:41:29.670387 47853 net.cpp:453] Found INQ layer:conv3, type: INQConvolution, layer id:10
I1221 18:41:29.670392 47853 layer_factory.hpp:77] Creating layer relu3
I1221 18:41:29.670400 47853 net.cpp:84] Creating Layer relu3
I1221 18:41:29.670405 47853 net.cpp:413] relu3 <- conv3
I1221 18:41:29.670413 47853 net.cpp:374] relu3 -> conv3 (in-place)
I1221 18:41:29.670626 47853 net.cpp:127] Setting up relu3
I1221 18:41:29.670636 47853 net.cpp:136] Top shape: 50 384 13 13 (3244800)
I1221 18:41:29.670640 47853 net.cpp:144] Memory required for data: 365740600
I1221 18:41:29.670645 47853 layer_factory.hpp:77] Creating layer conv4
I1221 18:41:29.670655 47853 net.cpp:84] Creating Layer conv4
I1221 18:41:29.670660 47853 net.cpp:413] conv4 <- conv3
I1221 18:41:29.670668 47853 net.cpp:387] conv4 -> conv4
I1221 18:41:29.682972 47853 net.cpp:127] Setting up conv4
I1221 18:41:29.682991 47853 net.cpp:136] Top shape: 50 384 13 13 (3244800)
I1221 18:41:29.682996 47853 net.cpp:144] Memory required for data: 378719800
I1221 18:41:29.683002 47853 net.cpp:453] Found INQ layer:conv4, type: INQConvolution, layer id:12
I1221 18:41:29.683009 47853 net.cpp:453] Found INQ layer:conv4, type: INQConvolution, layer id:12
I1221 18:41:29.683014 47853 net.cpp:453] Found INQ layer:conv4, type: INQConvolution, layer id:12
I1221 18:41:29.683019 47853 net.cpp:453] Found INQ layer:conv4, type: INQConvolution, layer id:12
I1221 18:41:29.683024 47853 layer_factory.hpp:77] Creating layer relu4
I1221 18:41:29.683032 47853 net.cpp:84] Creating Layer relu4
I1221 18:41:29.683037 47853 net.cpp:413] relu4 <- conv4
I1221 18:41:29.683044 47853 net.cpp:374] relu4 -> conv4 (in-place)
I1221 18:41:29.684465 47853 net.cpp:127] Setting up relu4
I1221 18:41:29.684482 47853 net.cpp:136] Top shape: 50 384 13 13 (3244800)
I1221 18:41:29.684487 47853 net.cpp:144] Memory required for data: 391699000
I1221 18:41:29.684492 47853 layer_factory.hpp:77] Creating layer conv5
I1221 18:41:29.684504 47853 net.cpp:84] Creating Layer conv5
I1221 18:41:29.684515 47853 net.cpp:413] conv5 <- conv4
I1221 18:41:29.684526 47853 net.cpp:387] conv5 -> conv5
I1221 18:41:29.693446 47853 net.cpp:127] Setting up conv5
I1221 18:41:29.693465 47853 net.cpp:136] Top shape: 50 256 13 13 (2163200)
I1221 18:41:29.693470 47853 net.cpp:144] Memory required for data: 400351800
I1221 18:41:29.693480 47853 net.cpp:453] Found INQ layer:conv5, type: INQConvolution, layer id:14
I1221 18:41:29.693490 47853 net.cpp:453] Found INQ layer:conv5, type: INQConvolution, layer id:14
I1221 18:41:29.693496 47853 net.cpp:453] Found INQ layer:conv5, type: INQConvolution, layer id:14
I1221 18:41:29.693501 47853 net.cpp:453] Found INQ layer:conv5, type: INQConvolution, layer id:14
I1221 18:41:29.693506 47853 layer_factory.hpp:77] Creating layer relu5
I1221 18:41:29.693514 47853 net.cpp:84] Creating Layer relu5
I1221 18:41:29.693519 47853 net.cpp:413] relu5 <- conv5
I1221 18:41:29.693526 47853 net.cpp:374] relu5 -> conv5 (in-place)
I1221 18:41:29.693744 47853 net.cpp:127] Setting up relu5
I1221 18:41:29.693754 47853 net.cpp:136] Top shape: 50 256 13 13 (2163200)
I1221 18:41:29.693759 47853 net.cpp:144] Memory required for data: 409004600
I1221 18:41:29.693763 47853 layer_factory.hpp:77] Creating layer pool5
I1221 18:41:29.693774 47853 net.cpp:84] Creating Layer pool5
I1221 18:41:29.693779 47853 net.cpp:413] pool5 <- conv5
I1221 18:41:29.693786 47853 net.cpp:387] pool5 -> pool5
I1221 18:41:29.693837 47853 net.cpp:127] Setting up pool5
I1221 18:41:29.693845 47853 net.cpp:136] Top shape: 50 256 6 6 (460800)
I1221 18:41:29.693850 47853 net.cpp:144] Memory required for data: 410847800
I1221 18:41:29.693853 47853 layer_factory.hpp:77] Creating layer fc6
I1221 18:41:29.693866 47853 net.cpp:84] Creating Layer fc6
I1221 18:41:29.693869 47853 net.cpp:413] fc6 <- pool5
I1221 18:41:29.693877 47853 net.cpp:387] fc6 -> fc6
I1221 18:41:30.314327 47853 net.cpp:127] Setting up fc6
I1221 18:41:30.314376 47853 net.cpp:136] Top shape: 50 4096 (204800)
I1221 18:41:30.314381 47853 net.cpp:144] Memory required for data: 411667000
I1221 18:41:30.314391 47853 net.cpp:453] Found INQ layer:fc6, type: INQInnerProduct, layer id:17
I1221 18:41:30.314399 47853 net.cpp:453] Found INQ layer:fc6, type: INQInnerProduct, layer id:17
I1221 18:41:30.314405 47853 net.cpp:453] Found INQ layer:fc6, type: INQInnerProduct, layer id:17
I1221 18:41:30.314411 47853 net.cpp:453] Found INQ layer:fc6, type: INQInnerProduct, layer id:17
I1221 18:41:30.314416 47853 layer_factory.hpp:77] Creating layer relu6
I1221 18:41:30.314430 47853 net.cpp:84] Creating Layer relu6
I1221 18:41:30.314437 47853 net.cpp:413] relu6 <- fc6
I1221 18:41:30.314445 47853 net.cpp:374] relu6 -> fc6 (in-place)
I1221 18:41:30.314741 47853 net.cpp:127] Setting up relu6
I1221 18:41:30.314751 47853 net.cpp:136] Top shape: 50 4096 (204800)
I1221 18:41:30.314755 47853 net.cpp:144] Memory required for data: 412486200
I1221 18:41:30.314760 47853 layer_factory.hpp:77] Creating layer drop6
I1221 18:41:30.314770 47853 net.cpp:84] Creating Layer drop6
I1221 18:41:30.314775 47853 net.cpp:413] drop6 <- fc6
I1221 18:41:30.314782 47853 net.cpp:374] drop6 -> fc6 (in-place)
I1221 18:41:30.314819 47853 net.cpp:127] Setting up drop6
I1221 18:41:30.314826 47853 net.cpp:136] Top shape: 50 4096 (204800)
I1221 18:41:30.314831 47853 net.cpp:144] Memory required for data: 413305400
I1221 18:41:30.314836 47853 layer_factory.hpp:77] Creating layer fc7
I1221 18:41:30.314848 47853 net.cpp:84] Creating Layer fc7
I1221 18:41:30.314853 47853 net.cpp:413] fc7 <- fc6
I1221 18:41:30.314862 47853 net.cpp:387] fc7 -> fc7
I1221 18:41:30.594388 47853 net.cpp:127] Setting up fc7
I1221 18:41:30.594437 47853 net.cpp:136] Top shape: 50 4096 (204800)
I1221 18:41:30.594442 47853 net.cpp:144] Memory required for data: 414124600
I1221 18:41:30.594461 47853 net.cpp:453] Found INQ layer:fc7, type: INQInnerProduct, layer id:20
I1221 18:41:30.594470 47853 net.cpp:453] Found INQ layer:fc7, type: INQInnerProduct, layer id:20
I1221 18:41:30.594475 47853 net.cpp:453] Found INQ layer:fc7, type: INQInnerProduct, layer id:20
I1221 18:41:30.594480 47853 net.cpp:453] Found INQ layer:fc7, type: INQInnerProduct, layer id:20
I1221 18:41:30.594530 47853 layer_factory.hpp:77] Creating layer relu7
I1221 18:41:30.594552 47853 net.cpp:84] Creating Layer relu7
I1221 18:41:30.594559 47853 net.cpp:413] relu7 <- fc7
I1221 18:41:30.594569 47853 net.cpp:374] relu7 -> fc7 (in-place)
I1221 18:41:30.594935 47853 net.cpp:127] Setting up relu7
I1221 18:41:30.594945 47853 net.cpp:136] Top shape: 50 4096 (204800)
I1221 18:41:30.594949 47853 net.cpp:144] Memory required for data: 414943800
I1221 18:41:30.594954 47853 layer_factory.hpp:77] Creating layer drop7
I1221 18:41:30.594966 47853 net.cpp:84] Creating Layer drop7
I1221 18:41:30.594971 47853 net.cpp:413] drop7 <- fc7
I1221 18:41:30.594977 47853 net.cpp:374] drop7 -> fc7 (in-place)
I1221 18:41:30.595022 47853 net.cpp:127] Setting up drop7
I1221 18:41:30.595029 47853 net.cpp:136] Top shape: 50 4096 (204800)
I1221 18:41:30.595033 47853 net.cpp:144] Memory required for data: 415763000
I1221 18:41:30.595037 47853 layer_factory.hpp:77] Creating layer fc8
I1221 18:41:30.595053 47853 net.cpp:84] Creating Layer fc8
I1221 18:41:30.595058 47853 net.cpp:413] fc8 <- fc7
I1221 18:41:30.595067 47853 net.cpp:387] fc8 -> fc8
I1221 18:41:30.664315 47853 net.cpp:127] Setting up fc8
I1221 18:41:30.664350 47853 net.cpp:136] Top shape: 50 1000 (50000)
I1221 18:41:30.664355 47853 net.cpp:144] Memory required for data: 415963000
I1221 18:41:30.664363 47853 net.cpp:453] Found INQ layer:fc8, type: INQInnerProduct, layer id:23
I1221 18:41:30.664371 47853 net.cpp:453] Found INQ layer:fc8, type: INQInnerProduct, layer id:23
I1221 18:41:30.664377 47853 net.cpp:453] Found INQ layer:fc8, type: INQInnerProduct, layer id:23
I1221 18:41:30.664382 47853 net.cpp:453] Found INQ layer:fc8, type: INQInnerProduct, layer id:23
I1221 18:41:30.664386 47853 layer_factory.hpp:77] Creating layer fc8_fc8_0_split
I1221 18:41:30.664399 47853 net.cpp:84] Creating Layer fc8_fc8_0_split
I1221 18:41:30.664405 47853 net.cpp:413] fc8_fc8_0_split <- fc8
I1221 18:41:30.664414 47853 net.cpp:387] fc8_fc8_0_split -> fc8_fc8_0_split_0
I1221 18:41:30.664425 47853 net.cpp:387] fc8_fc8_0_split -> fc8_fc8_0_split_1
I1221 18:41:30.664433 47853 net.cpp:387] fc8_fc8_0_split -> fc8_fc8_0_split_2
I1221 18:41:30.664497 47853 net.cpp:127] Setting up fc8_fc8_0_split
I1221 18:41:30.664505 47853 net.cpp:136] Top shape: 50 1000 (50000)
I1221 18:41:30.664510 47853 net.cpp:136] Top shape: 50 1000 (50000)
I1221 18:41:30.664515 47853 net.cpp:136] Top shape: 50 1000 (50000)
I1221 18:41:30.664520 47853 net.cpp:144] Memory required for data: 416563000
I1221 18:41:30.664523 47853 layer_factory.hpp:77] Creating layer accuracy_top1
I1221 18:41:30.664539 47853 net.cpp:84] Creating Layer accuracy_top1
I1221 18:41:30.664543 47853 net.cpp:413] accuracy_top1 <- fc8_fc8_0_split_0
I1221 18:41:30.664551 47853 net.cpp:413] accuracy_top1 <- label_data_1_split_0
I1221 18:41:30.664559 47853 net.cpp:387] accuracy_top1 -> accuracy_top1
…
