…
I1216 17:11:06.647121 43748 net.cpp:301] The NetState phase (0) differed from the phase (1) specified by a rule in layer accuracy_top5
I1216 17:11:06.647483 43748 net.cpp:51] Initializing net from parameters: 
name: "AlexNet"
state {
  phase: TRAIN
  level: 0
  stage: ""
}
layer {
  name: "data"
  type: "Data"
  top: "data"
  top: "label"
  include {
    phase: TRAIN
  }
  transform_param {
    mirror: true
    crop_size: 227
    mean_file: "/home/data/caffe-imagenet/imagenet_mean.binaryproto"
  }
  data_param {
    source: "/home/data/caffe-imagenet/ilsvrc12_train_lmdb"
    batch_size: 256
    backend: LMDB
  }
}
layer {
  name: "conv1"
  type: "DNSConvolution"
  bottom: "data"
  top: "conv1"
  param {
    lr_mult: 1
    decay_mult: 1
  }
  param {
    lr_mult: 2
    decay_mult: 0
  }
  convolution_param {
    num_output: 96
    kernel_size: 11
    stride: 4
    weight_filler {
      type: "gaussian"
      std: 0.01
    }
    bias_filler {
      type: "constant"
      value: 0
    }
  }
  dns_convolution_param {
    gamma: 1e-05
    power: 1
    c_rate: -0.55
    iter_stop: 1e+06
    weight_mask_filler {
      type: "constant"
      value: 1
    }
    bias_mask_filler {
      type: "constant"
      value: 1
    }
  }
}
layer {
  name: "relu1"
  type: "ReLU"
  bottom: "conv1"
  top: "conv1"
}
layer {
  name: "norm1"
  type: "LRN"
  bottom: "conv1"
  top: "norm1"
  lrn_param {
    local_size: 5
    alpha: 0.0001
    beta: 0.75
  }
}
layer {
  name: "pool1"
  type: "Pooling"
  bottom: "norm1"
  top: "pool1"
  pooling_param {
    pool: MAX
    kernel_size: 3
    stride: 2
  }
}
layer {
  name: "conv2"
  type: "DNSConvolution"
  bottom: "pool1"
  top: "conv2"
  param {
    lr_mult: 1
    decay_mult: 1
  }
  param {
    lr_mult: 2
    decay_mult: 0
  }
  convolution_param {
    num_output: 256
    pad: 2
    kernel_size: 5
    group: 2
    weight_filler {
      type: "gaussian"
      std: 0.01
    }
    bias_filler {
      type: "constant"
      value: 0.1
    }
  }
  dns_convolution_param {
    gamma: 1e-05
    power: 1
    c_rate: -0.15
    iter_stop: 1e+06
    weight_mask_filler {
      type: "constant"
      value: 1
    }
    bias_mask_filler {
      type: "constant"
      value: 1
    }
  }
}
layer {
  name: "relu2"
  type: "ReLU"
  bottom: "conv2"
  top: "conv2"
}
layer {
  name: "norm2"
  type: "LRN"
  bottom: "conv2"
  top: "norm2"
  lrn_param {
    local_size: 5
    alpha: 0.0001
    beta: 0.75
  }
}
layer {
  name: "pool2"
  type: "Pooling"
  bottom: "norm2"
  top: "pool2"
  pooling_param {
    pool: MAX
    kernel_size: 3
    stride: 2
  }
}
layer {
  name: "conv3"
  type: "DNSConvolution"
  bottom: "pool2"
  top: "conv3"
  param {
    lr_mult: 1
    decay_mult: 1
  }
  param {
    lr_mult: 2
    decay_mult: 0
  }
  convolution_param {
    num_output: 384
    pad: 1
    kernel_size: 3
    weight_filler {
      type: "gaussian"
      std: 0.01
    }
    bias_filler {
      type: "constant"
      value: 0
    }
  }
  dns_convolution_param {
    gamma: 1e-05
    power: 1
    c_rate: 0.32
    iter_stop: 1e+06
    weight_mask_filler {
      type: "constant"
      value: 1
    }
    bias_mask_filler {
      type: "constant"
      value: 1
    }
  }
}
layer {
  name: "relu3"
  type: "ReLU"
  bottom: "conv3"
  top: "conv3"
}
layer {
  name: "conv4"
  type: "DNSConvolution"
  bottom: "conv3"
  top: "conv4"
  param {
    lr_mult: 1
    decay_mult: 1
  }
  param {
    lr_mult: 2
    decay_mult: 0
  }
  convolution_param {
    num_output: 384
    pad: 1
    kernel_size: 3
    group: 2
    weight_filler {
      type: "gaussian"
      std: 0.01
    }
    bias_filler {
      type: "constant"
      value: 0.1
    }
  }
  dns_convolution_param {
    gamma: 1e-05
    power: 1
    c_rate: 0.24
    iter_stop: 1e+06
    weight_mask_filler {
      type: "constant"
      value: 1
    }
    bias_mask_filler {
      type: "constant"
      value: 1
    }
  }
}
layer {
  name: "relu4"
  type: "ReLU"
  bottom: "conv4"
  top: "conv4"
}
layer {
  name: "conv5"
  type: "DNSConvolution"
  bottom: "conv4"
  top: "conv5"
  param {
    lr_mult: 1
    decay_mult: 1
  }
  param {
    lr_mult: 2
    decay_mult: 0
  }
  convolution_param {
    num_output: 256
    pad: 1
    kernel_size: 3
    group: 2
    weight_filler {
      type: "gaussian"
      std: 0.01
    }
    bias_filler {
      type: "constant"
      value: 0.1
    }
  }
  dns_convolution_param {
    gamma: 1e-05
    power: 1
    c_rate: 0.27
    iter_stop: 1e+06
    weight_mask_filler {
      type: "constant"
      value: 1
    }
    bias_mask_filler {
      type: "constant"
      value: 1
    }
  }
}
layer {
  name: "relu5"
  type: "ReLU"
  bottom: "conv5"
  top: "conv5"
}
layer {
  name: "pool5"
  type: "Pooling"
  bottom: "conv5"
  top: "pool5"
  pooling_param {
    pool: MAX
    kernel_size: 3
    stride: 2
  }
}
layer {
  name: "fc6"
  type: "DNSInnerProduct"
  bottom: "pool5"
  top: "fc6"
  param {
    lr_mult: 1
    decay_mult: 1
  }
  param {
    lr_mult: 2
    decay_mult: 0
  }
  inner_product_param {
    num_output: 4096
    weight_filler {
      type: "gaussian"
      std: 0.005
    }
    bias_filler {
      type: "constant"
      value: 0.1
    }
  }
  dns_inner_product_param {
    gamma: 1e-05
    power: 1
    c_rate: 4
    iter_stop: 1e+06
    weight_mask_filler {
      type: "constant"
      value: 1
    }
    bias_mask_filler {
      type: "constant"
      value: 1
    }
  }
}
layer {
  name: "relu6"
  type: "ReLU"
  bottom: "fc6"
  top: "fc6"
}
layer {
  name: "drop6"
  type: "Dropout"
  bottom: "fc6"
  top: "fc6"
  dropout_param {
    dropout_ratio: 0.5
  }
}
layer {
  name: "fc7"
  type: "DNSInnerProduct"
  bottom: "fc6"
  top: "fc7"
  param {
    lr_mult: 1
    decay_mult: 1
  }
  param {
    lr_mult: 2
    decay_mult: 0
  }
  inner_product_param {
    num_output: 4096
    weight_filler {
      type: "gaussian"
      std: 0.005
    }
    bias_filler {
      type: "constant"
      value: 0.1
    }
  }
  dns_inner_product_param {
    gamma: 1e-05
    power: 1
    c_rate: 2.2
    iter_stop: 1e+06
    weight_mask_filler {
      type: "constant"
      value: 1
    }
    bias_mask_filler {
      type: "constant"
      value: 1
    }
  }
}
layer {
  name: "relu7"
  type: "ReLU"
  bottom: "fc7"
  top: "fc7"
}
layer {
  name: "drop7"
  type: "Dropout"
  bottom: "fc7"
  top: "fc7"
  dropout_param {
    dropout_ratio: 0.5
  }
}
layer {
  name: "fc8"
  type: "DNSInnerProduct"
  bottom: "fc7"
  top: "fc8"
  param {
    lr_mult: 1
    decay_mult: 1
  }
  param {
    lr_mult: 2
    decay_mult: 0
  }
  inner_product_param {
    num_output: 1000
    weight_filler {
      type: "gaussian"
      std: 0.01
    }
    bias_filler {
      type: "constant"
      value: 0
    }
  }
  dns_inner_product_param {
    gamma: 1e-05
    power: 1
    c_rate: 4.3
    iter_stop: 1e+06
    weight_mask_filler {
      type: "constant"
      value: 1
    }
    bias_mask_filler {
      type: "constant"
      value: 1
    }
  }
}
layer {
  name: "loss"
  type: "SoftmaxWithLoss"
  bottom: "fc8"
  bottom: "label"
  top: "loss"
}
I1216 17:11:06.647665 43748 layer_factory.hpp:77] Creating layer data
I1216 17:11:06.662449 43748 db_lmdb.cpp:35] Opened lmdb /home/data/caffe-imagenet/ilsvrc12_train_lmdb
I1216 17:11:06.668076 43748 net.cpp:84] Creating Layer data
I1216 17:11:06.668112 43748 net.cpp:387] data -> data
I1216 17:11:06.668157 43748 net.cpp:387] data -> label
I1216 17:11:06.668190 43748 data_transformer.cpp:25] Loading mean file from: /home/data/caffe-imagenet/imagenet_mean.binaryproto
I1216 17:11:06.682266 43748 data_layer.cpp:45] output data size: 256,3,227,227
I1216 17:11:07.075136 43748 net.cpp:127] Setting up data
I1216 17:11:07.075176 43748 net.cpp:136] Top shape: 256 3 227 227 (39574272)
I1216 17:11:07.075183 43748 net.cpp:136] Top shape: 256 (256)
I1216 17:11:07.075187 43748 net.cpp:144] Memory required for data: 158298112
I1216 17:11:07.075201 43748 layer_factory.hpp:77] Creating layer conv1
I1216 17:11:07.075230 43748 net.cpp:84] Creating Layer conv1
I1216 17:11:07.075237 43748 net.cpp:413] conv1 <- data
I1216 17:11:07.075254 43748 net.cpp:387] conv1 -> conv1
I1216 17:11:07.078855 43748 net.cpp:127] Setting up conv1
I1216 17:11:07.078871 43748 net.cpp:136] Top shape: 256 96 55 55 (74342400)
I1216 17:11:07.078876 43748 net.cpp:144] Memory required for data: 455667712
I1216 17:11:07.078905 43748 layer_factory.hpp:77] Creating layer relu1
I1216 17:11:07.078922 43748 net.cpp:84] Creating Layer relu1
I1216 17:11:07.078927 43748 net.cpp:413] relu1 <- conv1
I1216 17:11:07.078934 43748 net.cpp:374] relu1 -> conv1 (in-place)
I1216 17:11:07.473918 43748 net.cpp:127] Setting up relu1
I1216 17:11:07.473959 43748 net.cpp:136] Top shape: 256 96 55 55 (74342400)
I1216 17:11:07.473964 43748 net.cpp:144] Memory required for data: 753037312
I1216 17:11:07.473973 43748 layer_factory.hpp:77] Creating layer norm1
I1216 17:11:07.473995 43748 net.cpp:84] Creating Layer norm1
I1216 17:11:07.474000 43748 net.cpp:413] norm1 <- conv1
I1216 17:11:07.474010 43748 net.cpp:387] norm1 -> norm1
I1216 17:11:07.475406 43748 net.cpp:127] Setting up norm1
I1216 17:11:07.475422 43748 net.cpp:136] Top shape: 256 96 55 55 (74342400)
I1216 17:11:07.475427 43748 net.cpp:144] Memory required for data: 1050406912
I1216 17:11:07.475432 43748 layer_factory.hpp:77] Creating layer pool1
I1216 17:11:07.475445 43748 net.cpp:84] Creating Layer pool1
I1216 17:11:07.475450 43748 net.cpp:413] pool1 <- norm1
I1216 17:11:07.475456 43748 net.cpp:387] pool1 -> pool1
I1216 17:11:07.475514 43748 net.cpp:127] Setting up pool1
I1216 17:11:07.475522 43748 net.cpp:136] Top shape: 256 96 27 27 (17915904)
I1216 17:11:07.475527 43748 net.cpp:144] Memory required for data: 1122070528
I1216 17:11:07.475530 43748 layer_factory.hpp:77] Creating layer conv2
I1216 17:11:07.475543 43748 net.cpp:84] Creating Layer conv2
I1216 17:11:07.475548 43748 net.cpp:413] conv2 <- pool1
I1216 17:11:07.475554 43748 net.cpp:387] conv2 -> conv2
I1216 17:11:07.482326 43748 net.cpp:127] Setting up conv2
I1216 17:11:07.482342 43748 net.cpp:136] Top shape: 256 256 27 27 (47775744)
I1216 17:11:07.482347 43748 net.cpp:144] Memory required for data: 1313173504
I1216 17:11:07.482363 43748 layer_factory.hpp:77] Creating layer relu2
I1216 17:11:07.482372 43748 net.cpp:84] Creating Layer relu2
I1216 17:11:07.482376 43748 net.cpp:413] relu2 <- conv2
I1216 17:11:07.482383 43748 net.cpp:374] relu2 -> conv2 (in-place)
I1216 17:11:07.482591 43748 net.cpp:127] Setting up relu2
I1216 17:11:07.482601 43748 net.cpp:136] Top shape: 256 256 27 27 (47775744)
I1216 17:11:07.482605 43748 net.cpp:144] Memory required for data: 1504276480
I1216 17:11:07.482610 43748 layer_factory.hpp:77] Creating layer norm2
I1216 17:11:07.482619 43748 net.cpp:84] Creating Layer norm2
I1216 17:11:07.482622 43748 net.cpp:413] norm2 <- conv2
I1216 17:11:07.482628 43748 net.cpp:387] norm2 -> norm2
I1216 17:11:07.482847 43748 net.cpp:127] Setting up norm2
I1216 17:11:07.482856 43748 net.cpp:136] Top shape: 256 256 27 27 (47775744)
I1216 17:11:07.482861 43748 net.cpp:144] Memory required for data: 1695379456
I1216 17:11:07.482866 43748 layer_factory.hpp:77] Creating layer pool2
I1216 17:11:07.482879 43748 net.cpp:84] Creating Layer pool2
I1216 17:11:07.482910 43748 net.cpp:413] pool2 <- norm2
I1216 17:11:07.482918 43748 net.cpp:387] pool2 -> pool2
I1216 17:11:07.482956 43748 net.cpp:127] Setting up pool2
I1216 17:11:07.482964 43748 net.cpp:136] Top shape: 256 256 13 13 (11075584)
I1216 17:11:07.482966 43748 net.cpp:144] Memory required for data: 1739681792
I1216 17:11:07.482970 43748 layer_factory.hpp:77] Creating layer conv3
I1216 17:11:07.482980 43748 net.cpp:84] Creating Layer conv3
I1216 17:11:07.482985 43748 net.cpp:413] conv3 <- pool2
I1216 17:11:07.482990 43748 net.cpp:387] conv3 -> conv3
I1216 17:11:07.498344 43748 net.cpp:127] Setting up conv3
I1216 17:11:07.498361 43748 net.cpp:136] Top shape: 256 384 13 13 (16613376)
I1216 17:11:07.498365 43748 net.cpp:144] Memory required for data: 1806135296
I1216 17:11:07.498380 43748 layer_factory.hpp:77] Creating layer relu3
I1216 17:11:07.498387 43748 net.cpp:84] Creating Layer relu3
I1216 17:11:07.498392 43748 net.cpp:413] relu3 <- conv3
I1216 17:11:07.498399 43748 net.cpp:374] relu3 -> conv3 (in-place)
I1216 17:11:07.499780 43748 net.cpp:127] Setting up relu3
I1216 17:11:07.499794 43748 net.cpp:136] Top shape: 256 384 13 13 (16613376)
I1216 17:11:07.499799 43748 net.cpp:144] Memory required for data: 1872588800
I1216 17:11:07.499804 43748 layer_factory.hpp:77] Creating layer conv4
I1216 17:11:07.499816 43748 net.cpp:84] Creating Layer conv4
I1216 17:11:07.499820 43748 net.cpp:413] conv4 <- conv3
I1216 17:11:07.499830 43748 net.cpp:387] conv4 -> conv4
I1216 17:11:07.511641 43748 net.cpp:127] Setting up conv4
I1216 17:11:07.511656 43748 net.cpp:136] Top shape: 256 384 13 13 (16613376)
I1216 17:11:07.511660 43748 net.cpp:144] Memory required for data: 1939042304
I1216 17:11:07.511672 43748 layer_factory.hpp:77] Creating layer relu4
I1216 17:11:07.511682 43748 net.cpp:84] Creating Layer relu4
I1216 17:11:07.511687 43748 net.cpp:413] relu4 <- conv4
I1216 17:11:07.511692 43748 net.cpp:374] relu4 -> conv4 (in-place)
I1216 17:11:07.511907 43748 net.cpp:127] Setting up relu4
I1216 17:11:07.511916 43748 net.cpp:136] Top shape: 256 384 13 13 (16613376)
I1216 17:11:07.511920 43748 net.cpp:144] Memory required for data: 2005495808
I1216 17:11:07.511925 43748 layer_factory.hpp:77] Creating layer conv5
I1216 17:11:07.511939 43748 net.cpp:84] Creating Layer conv5
I1216 17:11:07.511942 43748 net.cpp:413] conv5 <- conv4
I1216 17:11:07.511951 43748 net.cpp:387] conv5 -> conv5
I1216 17:11:07.520475 43748 net.cpp:127] Setting up conv5
I1216 17:11:07.520490 43748 net.cpp:136] Top shape: 256 256 13 13 (11075584)
I1216 17:11:07.520494 43748 net.cpp:144] Memory required for data: 2049798144
I1216 17:11:07.520514 43748 layer_factory.hpp:77] Creating layer relu5
I1216 17:11:07.520521 43748 net.cpp:84] Creating Layer relu5
I1216 17:11:07.520525 43748 net.cpp:413] relu5 <- conv5
I1216 17:11:07.520534 43748 net.cpp:374] relu5 -> conv5 (in-place)
I1216 17:11:07.520761 43748 net.cpp:127] Setting up relu5
I1216 17:11:07.520771 43748 net.cpp:136] Top shape: 256 256 13 13 (11075584)
I1216 17:11:07.520774 43748 net.cpp:144] Memory required for data: 2094100480
I1216 17:11:07.520778 43748 layer_factory.hpp:77] Creating layer pool5
I1216 17:11:07.520787 43748 net.cpp:84] Creating Layer pool5
I1216 17:11:07.520792 43748 net.cpp:413] pool5 <- conv5
I1216 17:11:07.520797 43748 net.cpp:387] pool5 -> pool5
I1216 17:11:07.520846 43748 net.cpp:127] Setting up pool5
I1216 17:11:07.520853 43748 net.cpp:136] Top shape: 256 256 6 6 (2359296)
I1216 17:11:07.520856 43748 net.cpp:144] Memory required for data: 2103537664
I1216 17:11:07.520860 43748 layer_factory.hpp:77] Creating layer fc6
I1216 17:11:07.520877 43748 net.cpp:84] Creating Layer fc6
I1216 17:11:07.520881 43748 net.cpp:413] fc6 <- pool5
I1216 17:11:07.520889 43748 net.cpp:387] fc6 -> fc6
I1216 17:11:08.127218 43748 net.cpp:127] Setting up fc6
I1216 17:11:08.127260 43748 net.cpp:136] Top shape: 256 4096 (1048576)
I1216 17:11:08.127265 43748 net.cpp:144] Memory required for data: 2107731968
I1216 17:11:08.127295 43748 layer_factory.hpp:77] Creating layer relu6
I1216 17:11:08.127341 43748 net.cpp:84] Creating Layer relu6
I1216 17:11:08.127348 43748 net.cpp:413] relu6 <- fc6
I1216 17:11:08.127357 43748 net.cpp:374] relu6 -> fc6 (in-place)
I1216 17:11:08.127691 43748 net.cpp:127] Setting up relu6
I1216 17:11:08.127701 43748 net.cpp:136] Top shape: 256 4096 (1048576)
I1216 17:11:08.127705 43748 net.cpp:144] Memory required for data: 2111926272
I1216 17:11:08.127709 43748 layer_factory.hpp:77] Creating layer drop6
I1216 17:11:08.127720 43748 net.cpp:84] Creating Layer drop6
I1216 17:11:08.127724 43748 net.cpp:413] drop6 <- fc6
I1216 17:11:08.127732 43748 net.cpp:374] drop6 -> fc6 (in-place)
I1216 17:11:08.127763 43748 net.cpp:127] Setting up drop6
I1216 17:11:08.127768 43748 net.cpp:136] Top shape: 256 4096 (1048576)
I1216 17:11:08.127771 43748 net.cpp:144] Memory required for data: 2116120576
I1216 17:11:08.127776 43748 layer_factory.hpp:77] Creating layer fc7
I1216 17:11:08.127790 43748 net.cpp:84] Creating Layer fc7
I1216 17:11:08.127794 43748 net.cpp:413] fc7 <- fc6
I1216 17:11:08.127801 43748 net.cpp:387] fc7 -> fc7
I1216 17:11:08.396962 43748 net.cpp:127] Setting up fc7
I1216 17:11:08.397001 43748 net.cpp:136] Top shape: 256 4096 (1048576)
I1216 17:11:08.397006 43748 net.cpp:144] Memory required for data: 2120314880
I1216 17:11:08.397023 43748 layer_factory.hpp:77] Creating layer relu7
I1216 17:11:08.397039 43748 net.cpp:84] Creating Layer relu7
I1216 17:11:08.397044 43748 net.cpp:413] relu7 <- fc7
I1216 17:11:08.397053 43748 net.cpp:374] relu7 -> fc7 (in-place)
I1216 17:11:08.398685 43748 net.cpp:127] Setting up relu7
I1216 17:11:08.398699 43748 net.cpp:136] Top shape: 256 4096 (1048576)
I1216 17:11:08.398705 43748 net.cpp:144] Memory required for data: 2124509184
I1216 17:11:08.398710 43748 layer_factory.hpp:77] Creating layer drop7
I1216 17:11:08.398721 43748 net.cpp:84] Creating Layer drop7
I1216 17:11:08.398726 43748 net.cpp:413] drop7 <- fc7
I1216 17:11:08.398732 43748 net.cpp:374] drop7 -> fc7 (in-place)
I1216 17:11:08.398759 43748 net.cpp:127] Setting up drop7
I1216 17:11:08.398768 43748 net.cpp:136] Top shape: 256 4096 (1048576)
I1216 17:11:08.398772 43748 net.cpp:144] Memory required for data: 2128703488
I1216 17:11:08.398775 43748 layer_factory.hpp:77] Creating layer fc8
I1216 17:11:08.398787 43748 net.cpp:84] Creating Layer fc8
I1216 17:11:08.398790 43748 net.cpp:413] fc8 <- fc7
I1216 17:11:08.398798 43748 net.cpp:387] fc8 -> fc8
I1216 17:11:08.465920 43748 net.cpp:127] Setting up fc8
I1216 17:11:08.465956 43748 net.cpp:136] Top shape: 256 1000 (256000)
I1216 17:11:08.465960 43748 net.cpp:144] Memory required for data: 2129727488
I1216 17:11:08.465978 43748 layer_factory.hpp:77] Creating layer loss
I1216 17:11:08.465996 43748 net.cpp:84] Creating Layer loss
I1216 17:11:08.466001 43748 net.cpp:413] loss <- fc8
I1216 17:11:08.466009 43748 net.cpp:413] loss <- label
I1216 17:11:08.466017 43748 net.cpp:387] loss -> loss
I1216 17:11:08.466044 43748 layer_factory.hpp:77] Creating layer loss
…
I1216 17:11:08.469995 43748 net.cpp:301] The NetState phase (1) differed from the phase (0) specified by a rule in layer data
I1216 17:11:08.470371 43748 net.cpp:51] Initializing net from parameters: 
name: "AlexNet"
state {
  phase: TEST
}
layer {
  name: "data"
  type: "Data"
  top: "data"
  top: "label"
  include {
    phase: TEST
  }
  transform_param {
    mirror: false
    crop_size: 227
    mean_file: "/home/data/caffe-imagenet/imagenet_mean.binaryproto"
  }
  data_param {
    source: "/home/data/caffe-imagenet/ilsvrc12_val_lmdb"
    batch_size: 50
    backend: LMDB
  }
}
layer {
  name: "conv1"
  type: "DNSConvolution"
  bottom: "data"
  top: "conv1"
  param {
    lr_mult: 1
    decay_mult: 1
  }
  param {
    lr_mult: 2
    decay_mult: 0
  }
  convolution_param {
    num_output: 96
    kernel_size: 11
    stride: 4
    weight_filler {
      type: "gaussian"
      std: 0.01
    }
    bias_filler {
      type: "constant"
      value: 0
    }
  }
  dns_convolution_param {
    gamma: 1e-05
    power: 1
    c_rate: -0.55
    iter_stop: 1e+06
    weight_mask_filler {
      type: "constant"
      value: 1
    }
    bias_mask_filler {
      type: "constant"
      value: 1
    }
  }
}
layer {
  name: "relu1"
  type: "ReLU"
  bottom: "conv1"
  top: "conv1"
}
layer {
  name: "norm1"
  type: "LRN"
  bottom: "conv1"
  top: "norm1"
  lrn_param {
    local_size: 5
    alpha: 0.0001
    beta: 0.75
  }
}
layer {
  name: "pool1"
  type: "Pooling"
  bottom: "norm1"
  top: "pool1"
  pooling_param {
    pool: MAX
    kernel_size: 3
    stride: 2
  }
}
layer {
  name: "conv2"
  type: "DNSConvolution"
  bottom: "pool1"
  top: "conv2"
  param {
    lr_mult: 1
    decay_mult: 1
  }
  param {
    lr_mult: 2
    decay_mult: 0
  }
  convolution_param {
    num_output: 256
    pad: 2
    kernel_size: 5
    group: 2
    weight_filler {
      type: "gaussian"
      std: 0.01
    }
    bias_filler {
      type: "constant"
      value: 0.1
    }
  }
  dns_convolution_param {
    gamma: 1e-05
    power: 1
    c_rate: -0.15
    iter_stop: 1e+06
    weight_mask_filler {
      type: "constant"
      value: 1
    }
    bias_mask_filler {
      type: "constant"
      value: 1
    }
  }
}
layer {
  name: "relu2"
  type: "ReLU"
  bottom: "conv2"
  top: "conv2"
}
layer {
  name: "norm2"
  type: "LRN"
  bottom: "conv2"
  top: "norm2"
  lrn_param {
    local_size: 5
    alpha: 0.0001
    beta: 0.75
  }
}
layer {
  name: "pool2"
  type: "Pooling"
  bottom: "norm2"
  top: "pool2"
  pooling_param {
    pool: MAX
    kernel_size: 3
    stride: 2
  }
}
layer {
  name: "conv3"
  type: "DNSConvolution"
  bottom: "pool2"
  top: "conv3"
  param {
    lr_mult: 1
    decay_mult: 1
  }
  param {
    lr_mult: 2
    decay_mult: 0
  }
  convolution_param {
    num_output: 384
    pad: 1
    kernel_size: 3
    weight_filler {
      type: "gaussian"
      std: 0.01
    }
    bias_filler {
      type: "constant"
      value: 0
    }
  }
  dns_convolution_param {
    gamma: 1e-05
    power: 1
    c_rate: 0.32
    iter_stop: 1e+06
    weight_mask_filler {
      type: "constant"
      value: 1
    }
    bias_mask_filler {
      type: "constant"
      value: 1
    }
  }
}
layer {
  name: "relu3"
  type: "ReLU"
  bottom: "conv3"
  top: "conv3"
}
layer {
  name: "conv4"
  type: "DNSConvolution"
  bottom: "conv3"
  top: "conv4"
  param {
    lr_mult: 1
    decay_mult: 1
  }
  param {
    lr_mult: 2
    decay_mult: 0
  }
  convolution_param {
    num_output: 384
    pad: 1
    kernel_size: 3
    group: 2
    weight_filler {
      type: "gaussian"
      std: 0.01
    }
    bias_filler {
      type: "constant"
      value: 0.1
    }
  }
  dns_convolution_param {
    gamma: 1e-05
    power: 1
    c_rate: 0.24
    iter_stop: 1e+06
    weight_mask_filler {
      type: "constant"
      value: 1
    }
    bias_mask_filler {
      type: "constant"
      value: 1
    }
  }
}
layer {
  name: "relu4"
  type: "ReLU"
  bottom: "conv4"
  top: "conv4"
}
layer {
  name: "conv5"
  type: "DNSConvolution"
  bottom: "conv4"
  top: "conv5"
  param {
    lr_mult: 1
    decay_mult: 1
  }
  param {
    lr_mult: 2
    decay_mult: 0
  }
  convolution_param {
    num_output: 256
    pad: 1
    kernel_size: 3
    group: 2
    weight_filler {
      type: "gaussian"
      std: 0.01
    }
    bias_filler {
      type: "constant"
      value: 0.1
    }
  }
  dns_convolution_param {
    gamma: 1e-05
    power: 1
    c_rate: 0.27
    iter_stop: 1e+06
    weight_mask_filler {
      type: "constant"
      value: 1
    }
    bias_mask_filler {
      type: "constant"
      value: 1
    }
  }
}
layer {
  name: "relu5"
  type: "ReLU"
  bottom: "conv5"
  top: "conv5"
}
layer {
  name: "pool5"
  type: "Pooling"
  bottom: "conv5"
  top: "pool5"
  pooling_param {
    pool: MAX
    kernel_size: 3
    stride: 2
  }
}
layer {
  name: "fc6"
  type: "DNSInnerProduct"
  bottom: "pool5"
  top: "fc6"
  param {
    lr_mult: 1
    decay_mult: 1
  }
  param {
    lr_mult: 2
    decay_mult: 0
  }
  inner_product_param {
    num_output: 4096
    weight_filler {
      type: "gaussian"
      std: 0.005
    }
    bias_filler {
      type: "constant"
      value: 0.1
    }
  }
  dns_inner_product_param {
    gamma: 1e-05
    power: 1
    c_rate: 4
    iter_stop: 1e+06
    weight_mask_filler {
      type: "constant"
      value: 1
    }
    bias_mask_filler {
      type: "constant"
      value: 1
    }
  }
}
layer {
  name: "relu6"
  type: "ReLU"
  bottom: "fc6"
  top: "fc6"
}
layer {
  name: "drop6"
  type: "Dropout"
  bottom: "fc6"
  top: "fc6"
  dropout_param {
    dropout_ratio: 0.5
  }
}
layer {
  name: "fc7"
  type: "DNSInnerProduct"
  bottom: "fc6"
  top: "fc7"
  param {
    lr_mult: 1
    decay_mult: 1
  }
  param {
    lr_mult: 2
    decay_mult: 0
  }
  inner_product_param {
    num_output: 4096
    weight_filler {
      type: "gaussian"
      std: 0.005
    }
    bias_filler {
      type: "constant"
      value: 0.1
    }
  }
  dns_inner_product_param {
    gamma: 1e-05
    power: 1
    c_rate: 2.2
    iter_stop: 1e+06
    weight_mask_filler {
      type: "constant"
      value: 1
    }
    bias_mask_filler {
      type: "constant"
      value: 1
    }
  }
}
layer {
  name: "relu7"
  type: "ReLU"
  bottom: "fc7"
  top: "fc7"
}
layer {
  name: "drop7"
  type: "Dropout"
  bottom: "fc7"
  top: "fc7"
  dropout_param {
    dropout_ratio: 0.5
  }
}
layer {
  name: "fc8"
  type: "DNSInnerProduct"
  bottom: "fc7"
  top: "fc8"
  param {
    lr_mult: 1
    decay_mult: 1
  }
  param {
    lr_mult: 2
    decay_mult: 0
  }
  inner_product_param {
    num_output: 1000
    weight_filler {
      type: "gaussian"
      std: 0.01
    }
    bias_filler {
      type: "constant"
      value: 0
    }
  }
  dns_inner_product_param {
    gamma: 1e-05
    power: 1
    c_rate: 4.3
    iter_stop: 1e+06
    weight_mask_filler {
      type: "constant"
      value: 1
    }
    bias_mask_filler {
      type: "constant"
      value: 1
    }
  }
}
layer {
  name: "accuracy_top1"
  type: "Accuracy"
  bottom: "fc8"
  bottom: "label"
  top: "accuracy_top1"
  include {
    phase: TEST
  }
  accuracy_param {
    top_k: 1
  }
}
layer {
  name: "accuracy_top5"
  type: "Accuracy"
  bottom: "fc8"
  bottom: "label"
  top: "accuracy_top5"
  include {
    phase: TEST
  }
  accuracy_param {
    top_k: 5
  }
}
layer {
  name: "loss"
  type: "SoftmaxWithLoss"
  bottom: "fc8"
  bottom: "label"
  top: "loss"
}
I1216 17:11:08.470553 43748 layer_factory.hpp:77] Creating layer data
I1216 17:11:08.470628 43748 db_lmdb.cpp:35] Opened lmdb /home/data/caffe-imagenet/ilsvrc12_val_lmdb
I1216 17:11:08.470649 43748 net.cpp:84] Creating Layer data
I1216 17:11:08.470654 43748 net.cpp:387] data -> data
I1216 17:11:08.470665 43748 net.cpp:387] data -> label
I1216 17:11:08.470674 43748 data_transformer.cpp:25] Loading mean file from: /home/data/caffe-imagenet/imagenet_mean.binaryproto
I1216 17:11:08.472795 43748 data_layer.cpp:45] output data size: 50,3,227,227
I1216 17:11:08.563848 43748 net.cpp:127] Setting up data
I1216 17:11:08.563884 43748 net.cpp:136] Top shape: 50 3 227 227 (7729350)
I1216 17:11:08.563890 43748 net.cpp:136] Top shape: 50 (50)
I1216 17:11:08.563894 43748 net.cpp:144] Memory required for data: 30917600
I1216 17:11:08.563902 43748 layer_factory.hpp:77] Creating layer label_data_1_split
I1216 17:11:08.563925 43748 net.cpp:84] Creating Layer label_data_1_split
I1216 17:11:08.563930 43748 net.cpp:413] label_data_1_split <- label
I1216 17:11:08.563940 43748 net.cpp:387] label_data_1_split -> label_data_1_split_0
I1216 17:11:08.563951 43748 net.cpp:387] label_data_1_split -> label_data_1_split_1
I1216 17:11:08.563958 43748 net.cpp:387] label_data_1_split -> label_data_1_split_2
I1216 17:11:08.564205 43748 net.cpp:127] Setting up label_data_1_split
I1216 17:11:08.564214 43748 net.cpp:136] Top shape: 50 (50)
I1216 17:11:08.564219 43748 net.cpp:136] Top shape: 50 (50)
I1216 17:11:08.564224 43748 net.cpp:136] Top shape: 50 (50)
I1216 17:11:08.564229 43748 net.cpp:144] Memory required for data: 30918200
I1216 17:11:08.564232 43748 layer_factory.hpp:77] Creating layer conv1
I1216 17:11:08.564249 43748 net.cpp:84] Creating Layer conv1
I1216 17:11:08.564252 43748 net.cpp:413] conv1 <- data
I1216 17:11:08.564261 43748 net.cpp:387] conv1 -> conv1
I1216 17:11:08.576866 43748 net.cpp:127] Setting up conv1
I1216 17:11:08.576877 43748 net.cpp:136] Top shape: 50 96 55 55 (14520000)
I1216 17:11:08.576881 43748 net.cpp:144] Memory required for data: 88998200
I1216 17:11:08.576900 43748 layer_factory.hpp:77] Creating layer relu1
I1216 17:11:08.576908 43748 net.cpp:84] Creating Layer relu1
I1216 17:11:08.576912 43748 net.cpp:413] relu1 <- conv1
I1216 17:11:08.576920 43748 net.cpp:374] relu1 -> conv1 (in-place)
I1216 17:11:08.579588 43748 net.cpp:127] Setting up relu1
I1216 17:11:08.579598 43748 net.cpp:136] Top shape: 50 96 55 55 (14520000)
I1216 17:11:08.579602 43748 net.cpp:144] Memory required for data: 147078200
I1216 17:11:08.579607 43748 layer_factory.hpp:77] Creating layer norm1
I1216 17:11:08.579618 43748 net.cpp:84] Creating Layer norm1
I1216 17:11:08.579622 43748 net.cpp:413] norm1 <- conv1
I1216 17:11:08.579628 43748 net.cpp:387] norm1 -> norm1
I1216 17:11:08.579871 43748 net.cpp:127] Setting up norm1
I1216 17:11:08.579880 43748 net.cpp:136] Top shape: 50 96 55 55 (14520000)
I1216 17:11:08.579885 43748 net.cpp:144] Memory required for data: 205158200
I1216 17:11:08.579888 43748 layer_factory.hpp:77] Creating layer pool1
I1216 17:11:08.579897 43748 net.cpp:84] Creating Layer pool1
I1216 17:11:08.579902 43748 net.cpp:413] pool1 <- norm1
I1216 17:11:08.579908 43748 net.cpp:387] pool1 -> pool1
I1216 17:11:08.579951 43748 net.cpp:127] Setting up pool1
I1216 17:11:08.579957 43748 net.cpp:136] Top shape: 50 96 27 27 (3499200)
I1216 17:11:08.579959 43748 net.cpp:144] Memory required for data: 219155000
I1216 17:11:08.579963 43748 layer_factory.hpp:77] Creating layer conv2
I1216 17:11:08.579972 43748 net.cpp:84] Creating Layer conv2
I1216 17:11:08.579982 43748 net.cpp:413] conv2 <- pool1
I1216 17:11:08.579989 43748 net.cpp:387] conv2 -> conv2
I1216 17:11:08.586843 43748 net.cpp:127] Setting up conv2
I1216 17:11:08.586858 43748 net.cpp:136] Top shape: 50 256 27 27 (9331200)
I1216 17:11:08.586863 43748 net.cpp:144] Memory required for data: 256479800
I1216 17:11:08.586876 43748 layer_factory.hpp:77] Creating layer relu2
I1216 17:11:08.586885 43748 net.cpp:84] Creating Layer relu2
I1216 17:11:08.586889 43748 net.cpp:413] relu2 <- conv2
I1216 17:11:08.586896 43748 net.cpp:374] relu2 -> conv2 (in-place)
I1216 17:11:08.588296 43748 net.cpp:127] Setting up relu2
I1216 17:11:08.588310 43748 net.cpp:136] Top shape: 50 256 27 27 (9331200)
I1216 17:11:08.588315 43748 net.cpp:144] Memory required for data: 293804600
I1216 17:11:08.588320 43748 layer_factory.hpp:77] Creating layer norm2
I1216 17:11:08.588330 43748 net.cpp:84] Creating Layer norm2
I1216 17:11:08.588333 43748 net.cpp:413] norm2 <- conv2
I1216 17:11:08.588341 43748 net.cpp:387] norm2 -> norm2
I1216 17:11:08.588577 43748 net.cpp:127] Setting up norm2
I1216 17:11:08.588587 43748 net.cpp:136] Top shape: 50 256 27 27 (9331200)
I1216 17:11:08.588589 43748 net.cpp:144] Memory required for data: 331129400
I1216 17:11:08.588594 43748 layer_factory.hpp:77] Creating layer pool2
I1216 17:11:08.588601 43748 net.cpp:84] Creating Layer pool2
I1216 17:11:08.588605 43748 net.cpp:413] pool2 <- norm2
I1216 17:11:08.588611 43748 net.cpp:387] pool2 -> pool2
I1216 17:11:08.588655 43748 net.cpp:127] Setting up pool2
I1216 17:11:08.588661 43748 net.cpp:136] Top shape: 50 256 13 13 (2163200)
I1216 17:11:08.588665 43748 net.cpp:144] Memory required for data: 339782200
I1216 17:11:08.588668 43748 layer_factory.hpp:77] Creating layer conv3
I1216 17:11:08.588678 43748 net.cpp:84] Creating Layer conv3
I1216 17:11:08.588682 43748 net.cpp:413] conv3 <- pool2
I1216 17:11:08.588690 43748 net.cpp:387] conv3 -> conv3
I1216 17:11:08.604249 43748 net.cpp:127] Setting up conv3
I1216 17:11:08.604272 43748 net.cpp:136] Top shape: 50 384 13 13 (3244800)
I1216 17:11:08.604276 43748 net.cpp:144] Memory required for data: 352761400
I1216 17:11:08.604293 43748 layer_factory.hpp:77] Creating layer relu3
I1216 17:11:08.604302 43748 net.cpp:84] Creating Layer relu3
I1216 17:11:08.604307 43748 net.cpp:413] relu3 <- conv3
I1216 17:11:08.604315 43748 net.cpp:374] relu3 -> conv3 (in-place)
I1216 17:11:08.604535 43748 net.cpp:127] Setting up relu3
I1216 17:11:08.604545 43748 net.cpp:136] Top shape: 50 384 13 13 (3244800)
I1216 17:11:08.604549 43748 net.cpp:144] Memory required for data: 365740600
I1216 17:11:08.604553 43748 layer_factory.hpp:77] Creating layer conv4
I1216 17:11:08.604570 43748 net.cpp:84] Creating Layer conv4
I1216 17:11:08.604574 43748 net.cpp:413] conv4 <- conv3
I1216 17:11:08.604583 43748 net.cpp:387] conv4 -> conv4
I1216 17:11:08.616590 43748 net.cpp:127] Setting up conv4
I1216 17:11:08.616607 43748 net.cpp:136] Top shape: 50 384 13 13 (3244800)
I1216 17:11:08.616611 43748 net.cpp:144] Memory required for data: 378719800
I1216 17:11:08.616623 43748 layer_factory.hpp:77] Creating layer relu4
I1216 17:11:08.616631 43748 net.cpp:84] Creating Layer relu4
I1216 17:11:08.616636 43748 net.cpp:413] relu4 <- conv4
I1216 17:11:08.616642 43748 net.cpp:374] relu4 -> conv4 (in-place)
I1216 17:11:08.618068 43748 net.cpp:127] Setting up relu4
I1216 17:11:08.618083 43748 net.cpp:136] Top shape: 50 384 13 13 (3244800)
I1216 17:11:08.618088 43748 net.cpp:144] Memory required for data: 391699000
I1216 17:11:08.618093 43748 layer_factory.hpp:77] Creating layer conv5
I1216 17:11:08.618103 43748 net.cpp:84] Creating Layer conv5
I1216 17:11:08.618108 43748 net.cpp:413] conv5 <- conv4
I1216 17:11:08.618116 43748 net.cpp:387] conv5 -> conv5
I1216 17:11:08.626777 43748 net.cpp:127] Setting up conv5
I1216 17:11:08.626794 43748 net.cpp:136] Top shape: 50 256 13 13 (2163200)
I1216 17:11:08.626798 43748 net.cpp:144] Memory required for data: 400351800
I1216 17:11:08.626816 43748 layer_factory.hpp:77] Creating layer relu5
I1216 17:11:08.626824 43748 net.cpp:84] Creating Layer relu5
I1216 17:11:08.626833 43748 net.cpp:413] relu5 <- conv5
I1216 17:11:08.626864 43748 net.cpp:374] relu5 -> conv5 (in-place)
I1216 17:11:08.627085 43748 net.cpp:127] Setting up relu5
I1216 17:11:08.627094 43748 net.cpp:136] Top shape: 50 256 13 13 (2163200)
I1216 17:11:08.627099 43748 net.cpp:144] Memory required for data: 409004600
I1216 17:11:08.627104 43748 layer_factory.hpp:77] Creating layer pool5
I1216 17:11:08.627115 43748 net.cpp:84] Creating Layer pool5
I1216 17:11:08.627118 43748 net.cpp:413] pool5 <- conv5
I1216 17:11:08.627125 43748 net.cpp:387] pool5 -> pool5
I1216 17:11:08.627177 43748 net.cpp:127] Setting up pool5
I1216 17:11:08.627183 43748 net.cpp:136] Top shape: 50 256 6 6 (460800)
I1216 17:11:08.627187 43748 net.cpp:144] Memory required for data: 410847800
I1216 17:11:08.627190 43748 layer_factory.hpp:77] Creating layer fc6
I1216 17:11:08.627202 43748 net.cpp:84] Creating Layer fc6
I1216 17:11:08.627207 43748 net.cpp:413] fc6 <- pool5
I1216 17:11:08.627214 43748 net.cpp:387] fc6 -> fc6
I1216 17:11:09.228796 43748 net.cpp:127] Setting up fc6
I1216 17:11:09.228842 43748 net.cpp:136] Top shape: 50 4096 (204800)
I1216 17:11:09.228845 43748 net.cpp:144] Memory required for data: 411667000
I1216 17:11:09.228863 43748 layer_factory.hpp:77] Creating layer relu6
I1216 17:11:09.228875 43748 net.cpp:84] Creating Layer relu6
I1216 17:11:09.228881 43748 net.cpp:413] relu6 <- fc6
I1216 17:11:09.228891 43748 net.cpp:374] relu6 -> fc6 (in-place)
I1216 17:11:09.229183 43748 net.cpp:127] Setting up relu6
I1216 17:11:09.229192 43748 net.cpp:136] Top shape: 50 4096 (204800)
I1216 17:11:09.229197 43748 net.cpp:144] Memory required for data: 412486200
I1216 17:11:09.229200 43748 layer_factory.hpp:77] Creating layer drop6
I1216 17:11:09.229210 43748 net.cpp:84] Creating Layer drop6
I1216 17:11:09.229214 43748 net.cpp:413] drop6 <- fc6
I1216 17:11:09.229220 43748 net.cpp:374] drop6 -> fc6 (in-place)
I1216 17:11:09.229256 43748 net.cpp:127] Setting up drop6
I1216 17:11:09.229264 43748 net.cpp:136] Top shape: 50 4096 (204800)
I1216 17:11:09.229266 43748 net.cpp:144] Memory required for data: 413305400
I1216 17:11:09.229270 43748 layer_factory.hpp:77] Creating layer fc7
I1216 17:11:09.229282 43748 net.cpp:84] Creating Layer fc7
I1216 17:11:09.229286 43748 net.cpp:413] fc7 <- fc6
I1216 17:11:09.229293 43748 net.cpp:387] fc7 -> fc7
I1216 17:11:09.497833 43748 net.cpp:127] Setting up fc7
I1216 17:11:09.497876 43748 net.cpp:136] Top shape: 50 4096 (204800)
I1216 17:11:09.497880 43748 net.cpp:144] Memory required for data: 414124600
I1216 17:11:09.497898 43748 layer_factory.hpp:77] Creating layer relu7
I1216 17:11:09.497911 43748 net.cpp:84] Creating Layer relu7
I1216 17:11:09.497917 43748 net.cpp:413] relu7 <- fc7
I1216 17:11:09.497926 43748 net.cpp:374] relu7 -> fc7 (in-place)
I1216 17:11:09.498220 43748 net.cpp:127] Setting up relu7
I1216 17:11:09.498229 43748 net.cpp:136] Top shape: 50 4096 (204800)
I1216 17:11:09.498234 43748 net.cpp:144] Memory required for data: 414943800
I1216 17:11:09.498239 43748 layer_factory.hpp:77] Creating layer drop7
I1216 17:11:09.498247 43748 net.cpp:84] Creating Layer drop7
I1216 17:11:09.498252 43748 net.cpp:413] drop7 <- fc7
I1216 17:11:09.498258 43748 net.cpp:374] drop7 -> fc7 (in-place)
I1216 17:11:09.498294 43748 net.cpp:127] Setting up drop7
I1216 17:11:09.498301 43748 net.cpp:136] Top shape: 50 4096 (204800)
I1216 17:11:09.498304 43748 net.cpp:144] Memory required for data: 415763000
I1216 17:11:09.498308 43748 layer_factory.hpp:77] Creating layer fc8
I1216 17:11:09.498320 43748 net.cpp:84] Creating Layer fc8
I1216 17:11:09.498324 43748 net.cpp:413] fc8 <- fc7
I1216 17:11:09.498332 43748 net.cpp:387] fc8 -> fc8
I1216 17:11:09.565232 43748 net.cpp:127] Setting up fc8
I1216 17:11:09.565268 43748 net.cpp:136] Top shape: 50 1000 (50000)
I1216 17:11:09.565273 43748 net.cpp:144] Memory required for data: 415963000
I1216 17:11:09.565287 43748 layer_factory.hpp:77] Creating layer fc8_fc8_0_split
I1216 17:11:09.565299 43748 net.cpp:84] Creating Layer fc8_fc8_0_split
I1216 17:11:09.565313 43748 net.cpp:413] fc8_fc8_0_split <- fc8
I1216 17:11:09.565322 43748 net.cpp:387] fc8_fc8_0_split -> fc8_fc8_0_split_0
I1216 17:11:09.565358 43748 net.cpp:387] fc8_fc8_0_split -> fc8_fc8_0_split_1
I1216 17:11:09.565366 43748 net.cpp:387] fc8_fc8_0_split -> fc8_fc8_0_split_2
I1216 17:11:09.565431 43748 net.cpp:127] Setting up fc8_fc8_0_split
I1216 17:11:09.565438 43748 net.cpp:136] Top shape: 50 1000 (50000)
I1216 17:11:09.565443 43748 net.cpp:136] Top shape: 50 1000 (50000)
I1216 17:11:09.565448 43748 net.cpp:136] Top shape: 50 1000 (50000)
I1216 17:11:09.565451 43748 net.cpp:144] Memory required for data: 416563000
I1216 17:11:09.565455 43748 layer_factory.hpp:77] Creating layer accuracy_top1
I1216 17:11:09.565470 43748 net.cpp:84] Creating Layer accuracy_top1
I1216 17:11:09.565474 43748 net.cpp:413] accuracy_top1 <- fc8_fc8_0_split_0
I1216 17:11:09.565480 43748 net.cpp:413] accuracy_top1 <- label_data_1_split_0
I1216 17:11:09.565487 43748 net.cpp:387] accuracy_top1 -> accuracy_top1
…
