…
I1211 17:05:05.247854 33247 net.cpp:301] The NetState phase (0) differed from the phase (1) specified by a rule in layer accuracy_top5
I1211 17:05:05.248215 33247 net.cpp:51] Initializing net from parameters: 
name: "AlexNet"
state {
  phase: TRAIN
  level: 0
  stage: ""
}
layer {
  name: "data"
  type: "Data"
  top: "data"
  top: "label"
  include {
    phase: TRAIN
  }
  transform_param {
    mirror: true
    crop_size: 227
    mean_file: "data/ilsvrc12/imagenet_mean.binaryproto"
  }
  data_param {
    source: "/home/data/caffe-imagenet/ilsvrc12_train_lmdb"
    batch_size: 256
    backend: LMDB
  }
}
layer {
  name: "conv1"
  type: "DNSConvolution"
  bottom: "data"
  top: "conv1"
  param {
    lr_mult: 1
    decay_mult: 1
  }
  param {
    lr_mult: 2
    decay_mult: 0
  }
  convolution_param {
    num_output: 96
    kernel_size: 11
    stride: 4
    weight_filler {
      type: "gaussian"
      std: 0.01
    }
    bias_filler {
      type: "constant"
      value: 0
    }
  }
  dns_convolution_param {
    gamma: 2.5e-06
    power: 1
    c_rate: -0.9
    iter_stop: -1
    weight_mask_filler {
      type: "constant"
      value: 1
    }
    bias_mask_filler {
      type: "constant"
      value: 1
    }
  }
}
layer {
  name: "relu1"
  type: "ReLU"
  bottom: "conv1"
  top: "conv1"
}
layer {
  name: "norm1"
  type: "LRN"
  bottom: "conv1"
  top: "norm1"
  lrn_param {
    local_size: 5
    alpha: 0.0001
    beta: 0.75
  }
}
layer {
  name: "pool1"
  type: "Pooling"
  bottom: "norm1"
  top: "pool1"
  pooling_param {
    pool: MAX
    kernel_size: 3
    stride: 2
  }
}
layer {
  name: "conv2"
  type: "DNSConvolution"
  bottom: "pool1"
  top: "conv2"
  param {
    lr_mult: 1
    decay_mult: 1
  }
  param {
    lr_mult: 2
    decay_mult: 0
  }
  convolution_param {
    num_output: 256
    pad: 2
    kernel_size: 5
    group: 2
    weight_filler {
      type: "gaussian"
      std: 0.01
    }
    bias_filler {
      type: "constant"
      value: 0.1
    }
  }
  dns_convolution_param {
    gamma: 2.5e-06
    power: 1
    c_rate: 0
    iter_stop: -1
    weight_mask_filler {
      type: "constant"
      value: 1
    }
    bias_mask_filler {
      type: "constant"
      value: 1
    }
  }
}
layer {
  name: "relu2"
  type: "ReLU"
  bottom: "conv2"
  top: "conv2"
}
layer {
  name: "norm2"
  type: "LRN"
  bottom: "conv2"
  top: "norm2"
  lrn_param {
    local_size: 5
    alpha: 0.0001
    beta: 0.75
  }
}
layer {
  name: "pool2"
  type: "Pooling"
  bottom: "norm2"
  top: "pool2"
  pooling_param {
    pool: MAX
    kernel_size: 3
    stride: 2
  }
}
layer {
  name: "conv3"
  type: "DNSConvolution"
  bottom: "pool2"
  top: "conv3"
  param {
    lr_mult: 1
    decay_mult: 1
  }
  param {
    lr_mult: 2
    decay_mult: 0
  }
  convolution_param {
    num_output: 384
    pad: 1
    kernel_size: 3
    weight_filler {
      type: "gaussian"
      std: 0.01
    }
    bias_filler {
      type: "constant"
      value: 0
    }
  }
  dns_convolution_param {
    gamma: 2.5e-06
    power: 1
    c_rate: 0.5
    iter_stop: -1
    weight_mask_filler {
      type: "constant"
      value: 1
    }
    bias_mask_filler {
      type: "constant"
      value: 1
    }
  }
}
layer {
  name: "relu3"
  type: "ReLU"
  bottom: "conv3"
  top: "conv3"
}
layer {
  name: "conv4"
  type: "DNSConvolution"
  bottom: "conv3"
  top: "conv4"
  param {
    lr_mult: 1
    decay_mult: 1
  }
  param {
    lr_mult: 2
    decay_mult: 0
  }
  convolution_param {
    num_output: 384
    pad: 1
    kernel_size: 3
    group: 2
    weight_filler {
      type: "gaussian"
      std: 0.01
    }
    bias_filler {
      type: "constant"
      value: 0.1
    }
  }
  dns_convolution_param {
    gamma: 2.5e-06
    power: 1
    c_rate: 0.5
    iter_stop: -1
    weight_mask_filler {
      type: "constant"
      value: 1
    }
    bias_mask_filler {
      type: "constant"
      value: 1
    }
  }
}
layer {
  name: "relu4"
  type: "ReLU"
  bottom: "conv4"
  top: "conv4"
}
layer {
  name: "conv5"
  type: "DNSConvolution"
  bottom: "conv4"
  top: "conv5"
  param {
    lr_mult: 1
    decay_mult: 1
  }
  param {
    lr_mult: 2
    decay_mult: 0
  }
  convolution_param {
    num_output: 256
    pad: 1
    kernel_size: 3
    group: 2
    weight_filler {
      type: "gaussian"
      std: 0.01
    }
    bias_filler {
      type: "constant"
      value: 0.1
    }
  }
  dns_convolution_param {
    gamma: 2.5e-06
    power: 1
    c_rate: 0.5
    iter_stop: -1
    weight_mask_filler {
      type: "constant"
      value: 1
    }
    bias_mask_filler {
      type: "constant"
      value: 1
    }
  }
}
layer {
  name: "relu5"
  type: "ReLU"
  bottom: "conv5"
  top: "conv5"
}
layer {
  name: "pool5"
  type: "Pooling"
  bottom: "conv5"
  top: "pool5"
  pooling_param {
    pool: MAX
    kernel_size: 3
    stride: 2
  }
}
layer {
  name: "fc6"
  type: "DNSInnerProduct"
  bottom: "pool5"
  top: "fc6"
  param {
    lr_mult: 1
    decay_mult: 1
  }
  param {
    lr_mult: 2
    decay_mult: 0
  }
  inner_product_param {
    num_output: 4096
    weight_filler {
      type: "gaussian"
      std: 0.005
    }
    bias_filler {
      type: "constant"
      value: 0.1
    }
  }
  dns_inner_product_param {
    gamma: 2.5e-06
    power: 1
    c_rate: 1
    iter_stop: 1e+06
    weight_mask_filler {
      type: "constant"
      value: 1
    }
    bias_mask_filler {
      type: "constant"
      value: 1
    }
  }
}
layer {
  name: "relu6"
  type: "ReLU"
  bottom: "fc6"
  top: "fc6"
}
layer {
  name: "drop6"
  type: "Dropout"
  bottom: "fc6"
  top: "fc6"
  dropout_param {
    dropout_ratio: 0.5
  }
}
layer {
  name: "fc7"
  type: "DNSInnerProduct"
  bottom: "fc6"
  top: "fc7"
  param {
    lr_mult: 1
    decay_mult: 1
  }
  param {
    lr_mult: 2
    decay_mult: 0
  }
  inner_product_param {
    num_output: 4096
    weight_filler {
      type: "gaussian"
      std: 0.005
    }
    bias_filler {
      type: "constant"
      value: 0.1
    }
  }
  dns_inner_product_param {
    gamma: 2.5e-06
    power: 1
    c_rate: 0.8
    iter_stop: 1e+06
    weight_mask_filler {
      type: "constant"
      value: 1
    }
    bias_mask_filler {
      type: "constant"
      value: 1
    }
  }
}
layer {
  name: "relu7"
  type: "ReLU"
  bottom: "fc7"
  top: "fc7"
}
layer {
  name: "drop7"
  type: "Dropout"
  bottom: "fc7"
  top: "fc7"
  dropout_param {
    dropout_ratio: 0.5
  }
}
layer {
  name: "fc8"
  type: "DNSInnerProduct"
  bottom: "fc7"
  top: "fc8"
  param {
    lr_mult: 1
    decay_mult: 1
  }
  param {
    lr_mult: 2
    decay_mult: 0
  }
  inner_product_param {
    num_output: 1000
    weight_filler {
      type: "gaussian"
      std: 0.01
    }
    bias_filler {
      type: "constant"
      value: 0
    }
  }
  dns_inner_product_param {
    gamma: 2.5e-06
    power: 1
    c_rate: 1
    iter_stop: 1e+06
    weight_mask_filler {
      type: "constant"
      value: 1
    }
    bias_mask_filler {
      type: "constant"
      value: 1
    }
  }
}
layer {
  name: "loss"
  type: "SoftmaxWithLoss"
  bottom: "fc8"
  bottom: "label"
  top: "loss"
}
I1211 17:05:05.248416 33247 layer_factory.hpp:77] Creating layer data
I1211 17:05:05.248584 33247 db_lmdb.cpp:35] Opened lmdb /home/data/caffe-imagenet/ilsvrc12_train_lmdb
I1211 17:05:05.248630 33247 net.cpp:84] Creating Layer data
I1211 17:05:05.248641 33247 net.cpp:387] data -> data
I1211 17:05:05.248672 33247 net.cpp:387] data -> label
I1211 17:05:05.248694 33247 data_transformer.cpp:25] Loading mean file from: data/ilsvrc12/imagenet_mean.binaryproto
I1211 17:05:05.254272 33247 data_layer.cpp:45] output data size: 256,3,227,227
I1211 17:05:05.673985 33247 net.cpp:127] Setting up data
I1211 17:05:05.674036 33247 net.cpp:136] Top shape: 256 3 227 227 (39574272)
I1211 17:05:05.674046 33247 net.cpp:136] Top shape: 256 (256)
I1211 17:05:05.674052 33247 net.cpp:144] Memory required for data: 158298112
I1211 17:05:05.674068 33247 layer_factory.hpp:77] Creating layer conv1
I1211 17:05:05.674096 33247 net.cpp:84] Creating Layer conv1
I1211 17:05:05.674109 33247 net.cpp:413] conv1 <- data
I1211 17:05:05.674134 33247 net.cpp:387] conv1 -> conv1
I1211 17:05:05.677953 33247 net.cpp:127] Setting up conv1
I1211 17:05:05.677974 33247 net.cpp:136] Top shape: 256 96 55 55 (74342400)
I1211 17:05:05.677980 33247 net.cpp:144] Memory required for data: 455667712
I1211 17:05:05.678014 33247 layer_factory.hpp:77] Creating layer relu1
I1211 17:05:05.678031 33247 net.cpp:84] Creating Layer relu1
I1211 17:05:05.678040 33247 net.cpp:413] relu1 <- conv1
I1211 17:05:05.678048 33247 net.cpp:374] relu1 -> conv1 (in-place)
I1211 17:05:06.061458 33247 net.cpp:127] Setting up relu1
I1211 17:05:06.061512 33247 net.cpp:136] Top shape: 256 96 55 55 (74342400)
I1211 17:05:06.061519 33247 net.cpp:144] Memory required for data: 753037312
I1211 17:05:06.061529 33247 layer_factory.hpp:77] Creating layer norm1
I1211 17:05:06.061558 33247 net.cpp:84] Creating Layer norm1
I1211 17:05:06.061568 33247 net.cpp:413] norm1 <- conv1
I1211 17:05:06.061583 33247 net.cpp:387] norm1 -> norm1
I1211 17:05:06.063086 33247 net.cpp:127] Setting up norm1
I1211 17:05:06.063107 33247 net.cpp:136] Top shape: 256 96 55 55 (74342400)
I1211 17:05:06.063113 33247 net.cpp:144] Memory required for data: 1050406912
I1211 17:05:06.063120 33247 layer_factory.hpp:77] Creating layer pool1
I1211 17:05:06.063138 33247 net.cpp:84] Creating Layer pool1
I1211 17:05:06.063146 33247 net.cpp:413] pool1 <- norm1
I1211 17:05:06.063155 33247 net.cpp:387] pool1 -> pool1
I1211 17:05:06.063217 33247 net.cpp:127] Setting up pool1
I1211 17:05:06.063230 33247 net.cpp:136] Top shape: 256 96 27 27 (17915904)
I1211 17:05:06.063235 33247 net.cpp:144] Memory required for data: 1122070528
I1211 17:05:06.063241 33247 layer_factory.hpp:77] Creating layer conv2
I1211 17:05:06.063256 33247 net.cpp:84] Creating Layer conv2
I1211 17:05:06.063261 33247 net.cpp:413] conv2 <- pool1
I1211 17:05:06.063269 33247 net.cpp:387] conv2 -> conv2
I1211 17:05:06.070184 33247 net.cpp:127] Setting up conv2
I1211 17:05:06.070207 33247 net.cpp:136] Top shape: 256 256 27 27 (47775744)
I1211 17:05:06.070214 33247 net.cpp:144] Memory required for data: 1313173504
I1211 17:05:06.070233 33247 layer_factory.hpp:77] Creating layer relu2
I1211 17:05:06.070245 33247 net.cpp:84] Creating Layer relu2
I1211 17:05:06.070252 33247 net.cpp:413] relu2 <- conv2
I1211 17:05:06.070262 33247 net.cpp:374] relu2 -> conv2 (in-place)
I1211 17:05:06.070479 33247 net.cpp:127] Setting up relu2
I1211 17:05:06.070493 33247 net.cpp:136] Top shape: 256 256 27 27 (47775744)
I1211 17:05:06.070499 33247 net.cpp:144] Memory required for data: 1504276480
I1211 17:05:06.070507 33247 layer_factory.hpp:77] Creating layer norm2
I1211 17:05:06.070518 33247 net.cpp:84] Creating Layer norm2
I1211 17:05:06.070528 33247 net.cpp:413] norm2 <- conv2
I1211 17:05:06.070535 33247 net.cpp:387] norm2 -> norm2
I1211 17:05:06.070775 33247 net.cpp:127] Setting up norm2
I1211 17:05:06.070791 33247 net.cpp:136] Top shape: 256 256 27 27 (47775744)
I1211 17:05:06.070796 33247 net.cpp:144] Memory required for data: 1695379456
I1211 17:05:06.070802 33247 layer_factory.hpp:77] Creating layer pool2
I1211 17:05:06.070827 33247 net.cpp:84] Creating Layer pool2
I1211 17:05:06.070858 33247 net.cpp:413] pool2 <- norm2
I1211 17:05:06.070868 33247 net.cpp:387] pool2 -> pool2
I1211 17:05:06.070910 33247 net.cpp:127] Setting up pool2
I1211 17:05:06.070920 33247 net.cpp:136] Top shape: 256 256 13 13 (11075584)
I1211 17:05:06.070925 33247 net.cpp:144] Memory required for data: 1739681792
I1211 17:05:06.070930 33247 layer_factory.hpp:77] Creating layer conv3
I1211 17:05:06.070943 33247 net.cpp:84] Creating Layer conv3
I1211 17:05:06.070951 33247 net.cpp:413] conv3 <- pool2
I1211 17:05:06.070960 33247 net.cpp:387] conv3 -> conv3
I1211 17:05:06.086535 33247 net.cpp:127] Setting up conv3
I1211 17:05:06.086563 33247 net.cpp:136] Top shape: 256 384 13 13 (16613376)
I1211 17:05:06.086570 33247 net.cpp:144] Memory required for data: 1806135296
I1211 17:05:06.086588 33247 layer_factory.hpp:77] Creating layer relu3
I1211 17:05:06.086601 33247 net.cpp:84] Creating Layer relu3
I1211 17:05:06.086609 33247 net.cpp:413] relu3 <- conv3
I1211 17:05:06.086622 33247 net.cpp:374] relu3 -> conv3 (in-place)
I1211 17:05:06.088017 33247 net.cpp:127] Setting up relu3
I1211 17:05:06.088037 33247 net.cpp:136] Top shape: 256 384 13 13 (16613376)
I1211 17:05:06.088043 33247 net.cpp:144] Memory required for data: 1872588800
I1211 17:05:06.088052 33247 layer_factory.hpp:77] Creating layer conv4
I1211 17:05:06.088066 33247 net.cpp:84] Creating Layer conv4
I1211 17:05:06.088074 33247 net.cpp:413] conv4 <- conv3
I1211 17:05:06.088086 33247 net.cpp:387] conv4 -> conv4
I1211 17:05:06.100116 33247 net.cpp:127] Setting up conv4
I1211 17:05:06.100139 33247 net.cpp:136] Top shape: 256 384 13 13 (16613376)
I1211 17:05:06.100147 33247 net.cpp:144] Memory required for data: 1939042304
I1211 17:05:06.100158 33247 layer_factory.hpp:77] Creating layer relu4
I1211 17:05:06.100169 33247 net.cpp:84] Creating Layer relu4
I1211 17:05:06.100177 33247 net.cpp:413] relu4 <- conv4
I1211 17:05:06.100186 33247 net.cpp:374] relu4 -> conv4 (in-place)
I1211 17:05:06.100409 33247 net.cpp:127] Setting up relu4
I1211 17:05:06.100423 33247 net.cpp:136] Top shape: 256 384 13 13 (16613376)
I1211 17:05:06.100430 33247 net.cpp:144] Memory required for data: 2005495808
I1211 17:05:06.100436 33247 layer_factory.hpp:77] Creating layer conv5
I1211 17:05:06.100453 33247 net.cpp:84] Creating Layer conv5
I1211 17:05:06.100462 33247 net.cpp:413] conv5 <- conv4
I1211 17:05:06.100472 33247 net.cpp:387] conv5 -> conv5
I1211 17:05:06.109148 33247 net.cpp:127] Setting up conv5
I1211 17:05:06.109169 33247 net.cpp:136] Top shape: 256 256 13 13 (11075584)
I1211 17:05:06.109175 33247 net.cpp:144] Memory required for data: 2049798144
I1211 17:05:06.109194 33247 layer_factory.hpp:77] Creating layer relu5
I1211 17:05:06.109205 33247 net.cpp:84] Creating Layer relu5
I1211 17:05:06.109212 33247 net.cpp:413] relu5 <- conv5
I1211 17:05:06.109222 33247 net.cpp:374] relu5 -> conv5 (in-place)
I1211 17:05:06.109452 33247 net.cpp:127] Setting up relu5
I1211 17:05:06.109465 33247 net.cpp:136] Top shape: 256 256 13 13 (11075584)
I1211 17:05:06.109472 33247 net.cpp:144] Memory required for data: 2094100480
I1211 17:05:06.109478 33247 layer_factory.hpp:77] Creating layer pool5
I1211 17:05:06.109489 33247 net.cpp:84] Creating Layer pool5
I1211 17:05:06.109498 33247 net.cpp:413] pool5 <- conv5
I1211 17:05:06.109506 33247 net.cpp:387] pool5 -> pool5
I1211 17:05:06.109555 33247 net.cpp:127] Setting up pool5
I1211 17:05:06.109567 33247 net.cpp:136] Top shape: 256 256 6 6 (2359296)
I1211 17:05:06.109572 33247 net.cpp:144] Memory required for data: 2103537664
I1211 17:05:06.109577 33247 layer_factory.hpp:77] Creating layer fc6
I1211 17:05:06.109599 33247 net.cpp:84] Creating Layer fc6
I1211 17:05:06.109606 33247 net.cpp:413] fc6 <- pool5
I1211 17:05:06.109623 33247 net.cpp:387] fc6 -> fc6
I1211 17:05:06.723302 33247 net.cpp:127] Setting up fc6
I1211 17:05:06.723364 33247 net.cpp:136] Top shape: 256 4096 (1048576)
I1211 17:05:06.723372 33247 net.cpp:144] Memory required for data: 2107731968
I1211 17:05:06.723395 33247 layer_factory.hpp:77] Creating layer relu6
I1211 17:05:06.723428 33247 net.cpp:84] Creating Layer relu6
I1211 17:05:06.723465 33247 net.cpp:413] relu6 <- fc6
I1211 17:05:06.723476 33247 net.cpp:374] relu6 -> fc6 (in-place)
I1211 17:05:06.723764 33247 net.cpp:127] Setting up relu6
I1211 17:05:06.723778 33247 net.cpp:136] Top shape: 256 4096 (1048576)
I1211 17:05:06.723783 33247 net.cpp:144] Memory required for data: 2111926272
I1211 17:05:06.723790 33247 layer_factory.hpp:77] Creating layer drop6
I1211 17:05:06.723809 33247 net.cpp:84] Creating Layer drop6
I1211 17:05:06.723816 33247 net.cpp:413] drop6 <- fc6
I1211 17:05:06.723824 33247 net.cpp:374] drop6 -> fc6 (in-place)
I1211 17:05:06.723858 33247 net.cpp:127] Setting up drop6
I1211 17:05:06.723872 33247 net.cpp:136] Top shape: 256 4096 (1048576)
I1211 17:05:06.723879 33247 net.cpp:144] Memory required for data: 2116120576
I1211 17:05:06.723887 33247 layer_factory.hpp:77] Creating layer fc7
I1211 17:05:06.723902 33247 net.cpp:84] Creating Layer fc7
I1211 17:05:06.723909 33247 net.cpp:413] fc7 <- fc6
I1211 17:05:06.723918 33247 net.cpp:387] fc7 -> fc7
I1211 17:05:06.996752 33247 net.cpp:127] Setting up fc7
I1211 17:05:06.996810 33247 net.cpp:136] Top shape: 256 4096 (1048576)
I1211 17:05:06.996819 33247 net.cpp:144] Memory required for data: 2120314880
I1211 17:05:06.996836 33247 layer_factory.hpp:77] Creating layer relu7
I1211 17:05:06.996851 33247 net.cpp:84] Creating Layer relu7
I1211 17:05:06.996860 33247 net.cpp:413] relu7 <- fc7
I1211 17:05:06.996870 33247 net.cpp:374] relu7 -> fc7 (in-place)
I1211 17:05:06.998515 33247 net.cpp:127] Setting up relu7
I1211 17:05:06.998535 33247 net.cpp:136] Top shape: 256 4096 (1048576)
I1211 17:05:06.998541 33247 net.cpp:144] Memory required for data: 2124509184
I1211 17:05:06.998548 33247 layer_factory.hpp:77] Creating layer drop7
I1211 17:05:06.998564 33247 net.cpp:84] Creating Layer drop7
I1211 17:05:06.998570 33247 net.cpp:413] drop7 <- fc7
I1211 17:05:06.998579 33247 net.cpp:374] drop7 -> fc7 (in-place)
I1211 17:05:06.998610 33247 net.cpp:127] Setting up drop7
I1211 17:05:06.998622 33247 net.cpp:136] Top shape: 256 4096 (1048576)
I1211 17:05:06.998627 33247 net.cpp:144] Memory required for data: 2128703488
I1211 17:05:06.998632 33247 layer_factory.hpp:77] Creating layer fc8
I1211 17:05:06.998646 33247 net.cpp:84] Creating Layer fc8
I1211 17:05:06.998651 33247 net.cpp:413] fc8 <- fc7
I1211 17:05:06.998659 33247 net.cpp:387] fc8 -> fc8
I1211 17:05:07.065645 33247 net.cpp:127] Setting up fc8
I1211 17:05:07.065686 33247 net.cpp:136] Top shape: 256 1000 (256000)
I1211 17:05:07.065695 33247 net.cpp:144] Memory required for data: 2129727488
I1211 17:05:07.065711 33247 layer_factory.hpp:77] Creating layer loss
I1211 17:05:07.065733 33247 net.cpp:84] Creating Layer loss
I1211 17:05:07.065743 33247 net.cpp:413] loss <- fc8
I1211 17:05:07.065752 33247 net.cpp:413] loss <- label
I1211 17:05:07.065763 33247 net.cpp:387] loss -> loss
I1211 17:05:07.065795 33247 layer_factory.hpp:77] Creating layer loss
…
I1211 17:05:07.069073 33247 net.cpp:301] The NetState phase (1) differed from the phase (0) specified by a rule in layer data
I1211 17:05:07.069475 33247 net.cpp:51] Initializing net from parameters: 
name: "AlexNet"
state {
  phase: TEST
}
layer {
  name: "data"
  type: "Data"
  top: "data"
  top: "label"
  include {
    phase: TEST
  }
  transform_param {
    mirror: false
    crop_size: 227
    mean_file: "data/ilsvrc12/imagenet_mean.binaryproto"
  }
  data_param {
    source: "/home/data/caffe-imagenet/ilsvrc12_val_lmdb"
    batch_size: 50
    backend: LMDB
  }
}
layer {
  name: "conv1"
  type: "DNSConvolution"
  bottom: "data"
  top: "conv1"
  param {
    lr_mult: 1
    decay_mult: 1
  }
  param {
    lr_mult: 2
    decay_mult: 0
  }
  convolution_param {
    num_output: 96
    kernel_size: 11
    stride: 4
    weight_filler {
      type: "gaussian"
      std: 0.01
    }
    bias_filler {
      type: "constant"
      value: 0
    }
  }
  dns_convolution_param {
    gamma: 2.5e-06
    power: 1
    c_rate: -0.9
    iter_stop: -1
    weight_mask_filler {
      type: "constant"
      value: 1
    }
    bias_mask_filler {
      type: "constant"
      value: 1
    }
  }
}
layer {
  name: "relu1"
  type: "ReLU"
  bottom: "conv1"
  top: "conv1"
}
layer {
  name: "norm1"
  type: "LRN"
  bottom: "conv1"
  top: "norm1"
  lrn_param {
    local_size: 5
    alpha: 0.0001
    beta: 0.75
  }
}
layer {
  name: "pool1"
  type: "Pooling"
  bottom: "norm1"
  top: "pool1"
  pooling_param {
    pool: MAX
    kernel_size: 3
    stride: 2
  }
}
layer {
  name: "conv2"
  type: "DNSConvolution"
  bottom: "pool1"
  top: "conv2"
  param {
    lr_mult: 1
    decay_mult: 1
  }
  param {
    lr_mult: 2
    decay_mult: 0
  }
  convolution_param {
    num_output: 256
    pad: 2
    kernel_size: 5
    group: 2
    weight_filler {
      type: "gaussian"
      std: 0.01
    }
    bias_filler {
      type: "constant"
      value: 0.1
    }
  }
  dns_convolution_param {
    gamma: 2.5e-06
    power: 1
    c_rate: 0
    iter_stop: -1
    weight_mask_filler {
      type: "constant"
      value: 1
    }
    bias_mask_filler {
      type: "constant"
      value: 1
    }
  }
}
layer {
  name: "relu2"
  type: "ReLU"
  bottom: "conv2"
  top: "conv2"
}
layer {
  name: "norm2"
  type: "LRN"
  bottom: "conv2"
  top: "norm2"
  lrn_param {
    local_size: 5
    alpha: 0.0001
    beta: 0.75
  }
}
layer {
  name: "pool2"
  type: "Pooling"
  bottom: "norm2"
  top: "pool2"
  pooling_param {
    pool: MAX
    kernel_size: 3
    stride: 2
  }
}
layer {
  name: "conv3"
  type: "DNSConvolution"
  bottom: "pool2"
  top: "conv3"
  param {
    lr_mult: 1
    decay_mult: 1
  }
  param {
    lr_mult: 2
    decay_mult: 0
  }
  convolution_param {
    num_output: 384
    pad: 1
    kernel_size: 3
    weight_filler {
      type: "gaussian"
      std: 0.01
    }
    bias_filler {
      type: "constant"
      value: 0
    }
  }
  dns_convolution_param {
    gamma: 2.5e-06
    power: 1
    c_rate: 0.5
    iter_stop: -1
    weight_mask_filler {
      type: "constant"
      value: 1
    }
    bias_mask_filler {
      type: "constant"
      value: 1
    }
  }
}
layer {
  name: "relu3"
  type: "ReLU"
  bottom: "conv3"
  top: "conv3"
}
layer {
  name: "conv4"
  type: "DNSConvolution"
  bottom: "conv3"
  top: "conv4"
  param {
    lr_mult: 1
    decay_mult: 1
  }
  param {
    lr_mult: 2
    decay_mult: 0
  }
  convolution_param {
    num_output: 384
    pad: 1
    kernel_size: 3
    group: 2
    weight_filler {
      type: "gaussian"
      std: 0.01
    }
    bias_filler {
      type: "constant"
      value: 0.1
    }
  }
  dns_convolution_param {
    gamma: 2.5e-06
    power: 1
    c_rate: 0.5
    iter_stop: -1
    weight_mask_filler {
      type: "constant"
      value: 1
    }
    bias_mask_filler {
      type: "constant"
      value: 1
    }
  }
}
layer {
  name: "relu4"
  type: "ReLU"
  bottom: "conv4"
  top: "conv4"
}
layer {
  name: "conv5"
  type: "DNSConvolution"
  bottom: "conv4"
  top: "conv5"
  param {
    lr_mult: 1
    decay_mult: 1
  }
  param {
    lr_mult: 2
    decay_mult: 0
  }
  convolution_param {
    num_output: 256
    pad: 1
    kernel_size: 3
    group: 2
    weight_filler {
      type: "gaussian"
      std: 0.01
    }
    bias_filler {
      type: "constant"
      value: 0.1
    }
  }
  dns_convolution_param {
    gamma: 2.5e-06
    power: 1
    c_rate: 0.5
    iter_stop: -1
    weight_mask_filler {
      type: "constant"
      value: 1
    }
    bias_mask_filler {
      type: "constant"
      value: 1
    }
  }
}
layer {
  name: "relu5"
  type: "ReLU"
  bottom: "conv5"
  top: "conv5"
}
layer {
  name: "pool5"
  type: "Pooling"
  bottom: "conv5"
  top: "pool5"
  pooling_param {
    pool: MAX
    kernel_size: 3
    stride: 2
  }
}
layer {
  name: "fc6"
  type: "DNSInnerProduct"
  bottom: "pool5"
  top: "fc6"
  param {
    lr_mult: 1
    decay_mult: 1
  }
  param {
    lr_mult: 2
    decay_mult: 0
  }
  inner_product_param {
    num_output: 4096
    weight_filler {
      type: "gaussian"
      std: 0.005
    }
    bias_filler {
      type: "constant"
      value: 0.1
    }
  }
  dns_inner_product_param {
    gamma: 2.5e-06
    power: 1
    c_rate: 1
    iter_stop: 1e+06
    weight_mask_filler {
      type: "constant"
      value: 1
    }
    bias_mask_filler {
      type: "constant"
      value: 1
    }
  }
}
layer {
  name: "relu6"
  type: "ReLU"
  bottom: "fc6"
  top: "fc6"
}
layer {
  name: "drop6"
  type: "Dropout"
  bottom: "fc6"
  top: "fc6"
  dropout_param {
    dropout_ratio: 0.5
  }
}
layer {
  name: "fc7"
  type: "DNSInnerProduct"
  bottom: "fc6"
  top: "fc7"
  param {
    lr_mult: 1
    decay_mult: 1
  }
  param {
    lr_mult: 2
    decay_mult: 0
  }
  inner_product_param {
    num_output: 4096
    weight_filler {
      type: "gaussian"
      std: 0.005
    }
    bias_filler {
      type: "constant"
      value: 0.1
    }
  }
  dns_inner_product_param {
    gamma: 2.5e-06
    power: 1
    c_rate: 0.8
    iter_stop: 1e+06
    weight_mask_filler {
      type: "constant"
      value: 1
    }
    bias_mask_filler {
      type: "constant"
      value: 1
    }
  }
}
layer {
  name: "relu7"
  type: "ReLU"
  bottom: "fc7"
  top: "fc7"
}
layer {
  name: "drop7"
  type: "Dropout"
  bottom: "fc7"
  top: "fc7"
  dropout_param {
    dropout_ratio: 0.5
  }
}
layer {
  name: "fc8"
  type: "DNSInnerProduct"
  bottom: "fc7"
  top: "fc8"
  param {
    lr_mult: 1
    decay_mult: 1
  }
  param {
    lr_mult: 2
    decay_mult: 0
  }
  inner_product_param {
    num_output: 1000
    weight_filler {
      type: "gaussian"
      std: 0.01
    }
    bias_filler {
      type: "constant"
      value: 0
    }
  }
  dns_inner_product_param {
    gamma: 2.5e-06
    power: 1
    c_rate: 1
    iter_stop: 1e+06
    weight_mask_filler {
      type: "constant"
      value: 1
    }
    bias_mask_filler {
      type: "constant"
      value: 1
    }
  }
}
layer {
  name: "accuracy_top1"
  type: "Accuracy"
  bottom: "fc8"
  bottom: "label"
  top: "accuracy_top1"
  include {
    phase: TEST
  }
  accuracy_param {
    top_k: 1
  }
}
layer {
  name: "accuracy_top5"
  type: "Accuracy"
  bottom: "fc8"
  bottom: "label"
  top: "accuracy_top5"
  include {
    phase: TEST
  }
  accuracy_param {
    top_k: 5
  }
}
layer {
  name: "loss"
  type: "SoftmaxWithLoss"
  bottom: "fc8"
  bottom: "label"
  top: "loss"
}
I1211 17:05:07.069658 33247 layer_factory.hpp:77] Creating layer data
I1211 17:05:07.069737 33247 db_lmdb.cpp:35] Opened lmdb /home/data/caffe-imagenet/ilsvrc12_val_lmdb
I1211 17:05:07.069759 33247 net.cpp:84] Creating Layer data
I1211 17:05:07.069767 33247 net.cpp:387] data -> data
I1211 17:05:07.069780 33247 net.cpp:387] data -> label
I1211 17:05:07.069790 33247 data_transformer.cpp:25] Loading mean file from: data/ilsvrc12/imagenet_mean.binaryproto
I1211 17:05:07.071863 33247 data_layer.cpp:45] output data size: 50,3,227,227
I1211 17:05:07.156196 33247 net.cpp:127] Setting up data
I1211 17:05:07.156247 33247 net.cpp:136] Top shape: 50 3 227 227 (7729350)
I1211 17:05:07.156260 33247 net.cpp:136] Top shape: 50 (50)
I1211 17:05:07.156270 33247 net.cpp:144] Memory required for data: 30917600
I1211 17:05:07.156287 33247 layer_factory.hpp:77] Creating layer label_data_1_split
I1211 17:05:07.156319 33247 net.cpp:84] Creating Layer label_data_1_split
I1211 17:05:07.156330 33247 net.cpp:413] label_data_1_split <- label
I1211 17:05:07.156347 33247 net.cpp:387] label_data_1_split -> label_data_1_split_0
I1211 17:05:07.156368 33247 net.cpp:387] label_data_1_split -> label_data_1_split_1
I1211 17:05:07.156378 33247 net.cpp:387] label_data_1_split -> label_data_1_split_2
I1211 17:05:07.156538 33247 net.cpp:127] Setting up label_data_1_split
I1211 17:05:07.156553 33247 net.cpp:136] Top shape: 50 (50)
I1211 17:05:07.156559 33247 net.cpp:136] Top shape: 50 (50)
I1211 17:05:07.156565 33247 net.cpp:136] Top shape: 50 (50)
I1211 17:05:07.156571 33247 net.cpp:144] Memory required for data: 30918200
I1211 17:05:07.156579 33247 layer_factory.hpp:77] Creating layer conv1
I1211 17:05:07.156603 33247 net.cpp:84] Creating Layer conv1
I1211 17:05:07.156615 33247 net.cpp:413] conv1 <- data
I1211 17:05:07.156628 33247 net.cpp:387] conv1 -> conv1
I1211 17:05:07.157549 33247 net.cpp:127] Setting up conv1
I1211 17:05:07.157567 33247 net.cpp:136] Top shape: 50 96 55 55 (14520000)
I1211 17:05:07.157572 33247 net.cpp:144] Memory required for data: 88998200
I1211 17:05:07.157593 33247 layer_factory.hpp:77] Creating layer relu1
I1211 17:05:07.157603 33247 net.cpp:84] Creating Layer relu1
I1211 17:05:07.157611 33247 net.cpp:413] relu1 <- conv1
I1211 17:05:07.157619 33247 net.cpp:374] relu1 -> conv1 (in-place)
I1211 17:05:07.157904 33247 net.cpp:127] Setting up relu1
I1211 17:05:07.157919 33247 net.cpp:136] Top shape: 50 96 55 55 (14520000)
I1211 17:05:07.157925 33247 net.cpp:144] Memory required for data: 147078200
I1211 17:05:07.157932 33247 layer_factory.hpp:77] Creating layer norm1
I1211 17:05:07.157946 33247 net.cpp:84] Creating Layer norm1
I1211 17:05:07.157958 33247 net.cpp:413] norm1 <- conv1
I1211 17:05:07.157970 33247 net.cpp:387] norm1 -> norm1
I1211 17:05:07.158262 33247 net.cpp:127] Setting up norm1
I1211 17:05:07.158277 33247 net.cpp:136] Top shape: 50 96 55 55 (14520000)
I1211 17:05:07.158290 33247 net.cpp:144] Memory required for data: 205158200
I1211 17:05:07.158298 33247 layer_factory.hpp:77] Creating layer pool1
I1211 17:05:07.158310 33247 net.cpp:84] Creating Layer pool1
I1211 17:05:07.158321 33247 net.cpp:413] pool1 <- norm1
I1211 17:05:07.158334 33247 net.cpp:387] pool1 -> pool1
I1211 17:05:07.158411 33247 net.cpp:127] Setting up pool1
I1211 17:05:07.158423 33247 net.cpp:136] Top shape: 50 96 27 27 (3499200)
I1211 17:05:07.158428 33247 net.cpp:144] Memory required for data: 219155000
I1211 17:05:07.158434 33247 layer_factory.hpp:77] Creating layer conv2
I1211 17:05:07.158448 33247 net.cpp:84] Creating Layer conv2
I1211 17:05:07.158459 33247 net.cpp:413] conv2 <- pool1
I1211 17:05:07.158490 33247 net.cpp:387] conv2 -> conv2
I1211 17:05:07.167695 33247 net.cpp:127] Setting up conv2
I1211 17:05:07.167740 33247 net.cpp:136] Top shape: 50 256 27 27 (9331200)
I1211 17:05:07.167747 33247 net.cpp:144] Memory required for data: 256479800
I1211 17:05:07.167763 33247 layer_factory.hpp:77] Creating layer relu2
I1211 17:05:07.167773 33247 net.cpp:84] Creating Layer relu2
I1211 17:05:07.167780 33247 net.cpp:413] relu2 <- conv2
I1211 17:05:07.167788 33247 net.cpp:374] relu2 -> conv2 (in-place)
I1211 17:05:07.169221 33247 net.cpp:127] Setting up relu2
I1211 17:05:07.169241 33247 net.cpp:136] Top shape: 50 256 27 27 (9331200)
I1211 17:05:07.169248 33247 net.cpp:144] Memory required for data: 293804600
I1211 17:05:07.169253 33247 layer_factory.hpp:77] Creating layer norm2
I1211 17:05:07.169265 33247 net.cpp:84] Creating Layer norm2
I1211 17:05:07.169271 33247 net.cpp:413] norm2 <- conv2
I1211 17:05:07.169291 33247 net.cpp:387] norm2 -> norm2
I1211 17:05:07.169550 33247 net.cpp:127] Setting up norm2
I1211 17:05:07.169566 33247 net.cpp:136] Top shape: 50 256 27 27 (9331200)
I1211 17:05:07.169572 33247 net.cpp:144] Memory required for data: 331129400
I1211 17:05:07.169584 33247 layer_factory.hpp:77] Creating layer pool2
I1211 17:05:07.169597 33247 net.cpp:84] Creating Layer pool2
I1211 17:05:07.169606 33247 net.cpp:413] pool2 <- norm2
I1211 17:05:07.169620 33247 net.cpp:387] pool2 -> pool2
I1211 17:05:07.169682 33247 net.cpp:127] Setting up pool2
I1211 17:05:07.169694 33247 net.cpp:136] Top shape: 50 256 13 13 (2163200)
I1211 17:05:07.169700 33247 net.cpp:144] Memory required for data: 339782200
I1211 17:05:07.169706 33247 layer_factory.hpp:77] Creating layer conv3
I1211 17:05:07.169726 33247 net.cpp:84] Creating Layer conv3
I1211 17:05:07.169737 33247 net.cpp:413] conv3 <- pool2
I1211 17:05:07.169750 33247 net.cpp:387] conv3 -> conv3
I1211 17:05:07.185398 33247 net.cpp:127] Setting up conv3
I1211 17:05:07.185420 33247 net.cpp:136] Top shape: 50 384 13 13 (3244800)
I1211 17:05:07.185426 33247 net.cpp:144] Memory required for data: 352761400
I1211 17:05:07.185443 33247 layer_factory.hpp:77] Creating layer relu3
I1211 17:05:07.185454 33247 net.cpp:84] Creating Layer relu3
I1211 17:05:07.185461 33247 net.cpp:413] relu3 <- conv3
I1211 17:05:07.185472 33247 net.cpp:374] relu3 -> conv3 (in-place)
I1211 17:05:07.185719 33247 net.cpp:127] Setting up relu3
I1211 17:05:07.185735 33247 net.cpp:136] Top shape: 50 384 13 13 (3244800)
I1211 17:05:07.185742 33247 net.cpp:144] Memory required for data: 365740600
I1211 17:05:07.185751 33247 layer_factory.hpp:77] Creating layer conv4
I1211 17:05:07.185770 33247 net.cpp:84] Creating Layer conv4
I1211 17:05:07.185781 33247 net.cpp:413] conv4 <- conv3
I1211 17:05:07.185793 33247 net.cpp:387] conv4 -> conv4
I1211 17:05:07.197870 33247 net.cpp:127] Setting up conv4
I1211 17:05:07.197891 33247 net.cpp:136] Top shape: 50 384 13 13 (3244800)
I1211 17:05:07.197897 33247 net.cpp:144] Memory required for data: 378719800
I1211 17:05:07.197911 33247 layer_factory.hpp:77] Creating layer relu4
I1211 17:05:07.197921 33247 net.cpp:84] Creating Layer relu4
I1211 17:05:07.197933 33247 net.cpp:413] relu4 <- conv4
I1211 17:05:07.197942 33247 net.cpp:374] relu4 -> conv4 (in-place)
I1211 17:05:07.199400 33247 net.cpp:127] Setting up relu4
I1211 17:05:07.199421 33247 net.cpp:136] Top shape: 50 384 13 13 (3244800)
I1211 17:05:07.199427 33247 net.cpp:144] Memory required for data: 391699000
I1211 17:05:07.199434 33247 layer_factory.hpp:77] Creating layer conv5
I1211 17:05:07.199446 33247 net.cpp:84] Creating Layer conv5
I1211 17:05:07.199452 33247 net.cpp:413] conv5 <- conv4
I1211 17:05:07.199462 33247 net.cpp:387] conv5 -> conv5
I1211 17:05:07.208250 33247 net.cpp:127] Setting up conv5
I1211 17:05:07.208273 33247 net.cpp:136] Top shape: 50 256 13 13 (2163200)
I1211 17:05:07.208287 33247 net.cpp:144] Memory required for data: 400351800
I1211 17:05:07.208307 33247 layer_factory.hpp:77] Creating layer relu5
I1211 17:05:07.208317 33247 net.cpp:84] Creating Layer relu5
I1211 17:05:07.208324 33247 net.cpp:413] relu5 <- conv5
I1211 17:05:07.208341 33247 net.cpp:374] relu5 -> conv5 (in-place)
I1211 17:05:07.208611 33247 net.cpp:127] Setting up relu5
I1211 17:05:07.208626 33247 net.cpp:136] Top shape: 50 256 13 13 (2163200)
I1211 17:05:07.208633 33247 net.cpp:144] Memory required for data: 409004600
I1211 17:05:07.208642 33247 layer_factory.hpp:77] Creating layer pool5
I1211 17:05:07.208662 33247 net.cpp:84] Creating Layer pool5
I1211 17:05:07.208670 33247 net.cpp:413] pool5 <- conv5
I1211 17:05:07.208683 33247 net.cpp:387] pool5 -> pool5
I1211 17:05:07.208755 33247 net.cpp:127] Setting up pool5
I1211 17:05:07.208766 33247 net.cpp:136] Top shape: 50 256 6 6 (460800)
I1211 17:05:07.208781 33247 net.cpp:144] Memory required for data: 410847800
I1211 17:05:07.208786 33247 layer_factory.hpp:77] Creating layer fc6
I1211 17:05:07.208801 33247 net.cpp:84] Creating Layer fc6
I1211 17:05:07.208811 33247 net.cpp:413] fc6 <- pool5
I1211 17:05:07.208824 33247 net.cpp:387] fc6 -> fc6
I1211 17:05:07.814173 33247 net.cpp:127] Setting up fc6
I1211 17:05:07.814234 33247 net.cpp:136] Top shape: 50 4096 (204800)
I1211 17:05:07.814242 33247 net.cpp:144] Memory required for data: 411667000
I1211 17:05:07.814261 33247 layer_factory.hpp:77] Creating layer relu6
I1211 17:05:07.814277 33247 net.cpp:84] Creating Layer relu6
I1211 17:05:07.814291 33247 net.cpp:413] relu6 <- fc6
I1211 17:05:07.814303 33247 net.cpp:374] relu6 -> fc6 (in-place)
I1211 17:05:07.814633 33247 net.cpp:127] Setting up relu6
I1211 17:05:07.814649 33247 net.cpp:136] Top shape: 50 4096 (204800)
I1211 17:05:07.814656 33247 net.cpp:144] Memory required for data: 412486200
I1211 17:05:07.814661 33247 layer_factory.hpp:77] Creating layer drop6
I1211 17:05:07.814671 33247 net.cpp:84] Creating Layer drop6
I1211 17:05:07.814677 33247 net.cpp:413] drop6 <- fc6
I1211 17:05:07.814685 33247 net.cpp:374] drop6 -> fc6 (in-place)
I1211 17:05:07.814725 33247 net.cpp:127] Setting up drop6
I1211 17:05:07.814740 33247 net.cpp:136] Top shape: 50 4096 (204800)
I1211 17:05:07.814749 33247 net.cpp:144] Memory required for data: 413305400
I1211 17:05:07.814756 33247 layer_factory.hpp:77] Creating layer fc7
I1211 17:05:07.814774 33247 net.cpp:84] Creating Layer fc7
I1211 17:05:07.814782 33247 net.cpp:413] fc7 <- fc6
I1211 17:05:07.814798 33247 net.cpp:387] fc7 -> fc7
I1211 17:05:08.085577 33247 net.cpp:127] Setting up fc7
I1211 17:05:08.085638 33247 net.cpp:136] Top shape: 50 4096 (204800)
I1211 17:05:08.085647 33247 net.cpp:144] Memory required for data: 414124600
I1211 17:05:08.085671 33247 layer_factory.hpp:77] Creating layer relu7
I1211 17:05:08.085693 33247 net.cpp:84] Creating Layer relu7
I1211 17:05:08.085707 33247 net.cpp:413] relu7 <- fc7
I1211 17:05:08.085723 33247 net.cpp:374] relu7 -> fc7 (in-place)
I1211 17:05:08.086133 33247 net.cpp:127] Setting up relu7
I1211 17:05:08.086150 33247 net.cpp:136] Top shape: 50 4096 (204800)
I1211 17:05:08.086158 33247 net.cpp:144] Memory required for data: 414943800
I1211 17:05:08.086163 33247 layer_factory.hpp:77] Creating layer drop7
I1211 17:05:08.086174 33247 net.cpp:84] Creating Layer drop7
I1211 17:05:08.086179 33247 net.cpp:413] drop7 <- fc7
I1211 17:05:08.086189 33247 net.cpp:374] drop7 -> fc7 (in-place)
I1211 17:05:08.086235 33247 net.cpp:127] Setting up drop7
I1211 17:05:08.086251 33247 net.cpp:136] Top shape: 50 4096 (204800)
I1211 17:05:08.086261 33247 net.cpp:144] Memory required for data: 415763000
I1211 17:05:08.086271 33247 layer_factory.hpp:77] Creating layer fc8
I1211 17:05:08.086299 33247 net.cpp:84] Creating Layer fc8
I1211 17:05:08.086309 33247 net.cpp:413] fc8 <- fc7
I1211 17:05:08.086324 33247 net.cpp:387] fc8 -> fc8
I1211 17:05:08.153434 33247 net.cpp:127] Setting up fc8
I1211 17:05:08.153476 33247 net.cpp:136] Top shape: 50 1000 (50000)
I1211 17:05:08.153482 33247 net.cpp:144] Memory required for data: 415963000
I1211 17:05:08.153499 33247 layer_factory.hpp:77] Creating layer fc8_fc8_0_split
I1211 17:05:08.153513 33247 net.cpp:84] Creating Layer fc8_fc8_0_split
I1211 17:05:08.153523 33247 net.cpp:413] fc8_fc8_0_split <- fc8
I1211 17:05:08.153553 33247 net.cpp:387] fc8_fc8_0_split -> fc8_fc8_0_split_0
I1211 17:05:08.153604 33247 net.cpp:387] fc8_fc8_0_split -> fc8_fc8_0_split_1
I1211 17:05:08.153621 33247 net.cpp:387] fc8_fc8_0_split -> fc8_fc8_0_split_2
I1211 17:05:08.153724 33247 net.cpp:127] Setting up fc8_fc8_0_split
I1211 17:05:08.153736 33247 net.cpp:136] Top shape: 50 1000 (50000)
I1211 17:05:08.153743 33247 net.cpp:136] Top shape: 50 1000 (50000)
I1211 17:05:08.153754 33247 net.cpp:136] Top shape: 50 1000 (50000)
I1211 17:05:08.153764 33247 net.cpp:144] Memory required for data: 416563000
I1211 17:05:08.153772 33247 layer_factory.hpp:77] Creating layer accuracy_top1
I1211 17:05:08.153795 33247 net.cpp:84] Creating Layer accuracy_top1
I1211 17:05:08.153802 33247 net.cpp:413] accuracy_top1 <- fc8_fc8_0_split_0
I1211 17:05:08.153813 33247 net.cpp:413] accuracy_top1 <- label_data_1_split_0
I1211 17:05:08.153828 33247 net.cpp:387] accuracy_top1 -> accuracy_top1
…
