…
I1216 12:32:50.915313 17292 net.cpp:301] The NetState phase (0) differed from the phase (1) specified by a rule in layer accuracy_top5
I1216 12:32:50.915673 17292 net.cpp:51] Initializing net from parameters: 
name: "AlexNet"
state {
  phase: TRAIN
  level: 0
  stage: ""
}
layer {
  name: "data"
  type: "Data"
  top: "data"
  top: "label"
  include {
    phase: TRAIN
  }
  transform_param {
    mirror: true
    crop_size: 227
    mean_file: "data/ilsvrc12/imagenet_mean.binaryproto"
  }
  data_param {
    source: "/home/data/caffe-imagenet/ilsvrc12_train_lmdb"
    batch_size: 256
    backend: LMDB
  }
}
layer {
  name: "conv1"
  type: "DNSConvolution"
  bottom: "data"
  top: "conv1"
  param {
    lr_mult: 1
    decay_mult: 1
  }
  param {
    lr_mult: 2
    decay_mult: 0
  }
  convolution_param {
    num_output: 96
    kernel_size: 11
    stride: 4
    weight_filler {
      type: "gaussian"
      std: 0.01
    }
    bias_filler {
      type: "constant"
      value: 0
    }
  }
  dns_convolution_param {
    gamma: 2.5e-06
    power: 1
    c_rate: -0.9
    iter_stop: -1
    weight_mask_filler {
      type: "constant"
      value: 1
    }
    bias_mask_filler {
      type: "constant"
      value: 1
    }
  }
}
layer {
  name: "relu1"
  type: "ReLU"
  bottom: "conv1"
  top: "conv1"
}
layer {
  name: "norm1"
  type: "LRN"
  bottom: "conv1"
  top: "norm1"
  lrn_param {
    local_size: 5
    alpha: 0.0001
    beta: 0.75
  }
}
layer {
  name: "pool1"
  type: "Pooling"
  bottom: "norm1"
  top: "pool1"
  pooling_param {
    pool: MAX
    kernel_size: 3
    stride: 2
  }
}
layer {
  name: "conv2"
  type: "DNSConvolution"
  bottom: "pool1"
  top: "conv2"
  param {
    lr_mult: 1
    decay_mult: 1
  }
  param {
    lr_mult: 2
    decay_mult: 0
  }
  convolution_param {
    num_output: 256
    pad: 2
    kernel_size: 5
    group: 2
    weight_filler {
      type: "gaussian"
      std: 0.01
    }
    bias_filler {
      type: "constant"
      value: 0.1
    }
  }
  dns_convolution_param {
    gamma: 2.5e-06
    power: 1
    c_rate: 0
    iter_stop: -1
    weight_mask_filler {
      type: "constant"
      value: 1
    }
    bias_mask_filler {
      type: "constant"
      value: 1
    }
  }
}
layer {
  name: "relu2"
  type: "ReLU"
  bottom: "conv2"
  top: "conv2"
}
layer {
  name: "norm2"
  type: "LRN"
  bottom: "conv2"
  top: "norm2"
  lrn_param {
    local_size: 5
    alpha: 0.0001
    beta: 0.75
  }
}
layer {
  name: "pool2"
  type: "Pooling"
  bottom: "norm2"
  top: "pool2"
  pooling_param {
    pool: MAX
    kernel_size: 3
    stride: 2
  }
}
layer {
  name: "conv3"
  type: "DNSConvolution"
  bottom: "pool2"
  top: "conv3"
  param {
    lr_mult: 1
    decay_mult: 1
  }
  param {
    lr_mult: 2
    decay_mult: 0
  }
  convolution_param {
    num_output: 384
    pad: 1
    kernel_size: 3
    weight_filler {
      type: "gaussian"
      std: 0.01
    }
    bias_filler {
      type: "constant"
      value: 0
    }
  }
  dns_convolution_param {
    gamma: 2.5e-06
    power: 1
    c_rate: 0.5
    iter_stop: -1
    weight_mask_filler {
      type: "constant"
      value: 1
    }
    bias_mask_filler {
      type: "constant"
      value: 1
    }
  }
}
layer {
  name: "relu3"
  type: "ReLU"
  bottom: "conv3"
  top: "conv3"
}
layer {
  name: "conv4"
  type: "DNSConvolution"
  bottom: "conv3"
  top: "conv4"
  param {
    lr_mult: 1
    decay_mult: 1
  }
  param {
    lr_mult: 2
    decay_mult: 0
  }
  convolution_param {
    num_output: 384
    pad: 1
    kernel_size: 3
    group: 2
    weight_filler {
      type: "gaussian"
      std: 0.01
    }
    bias_filler {
      type: "constant"
      value: 0.1
    }
  }
  dns_convolution_param {
    gamma: 2.5e-06
    power: 1
    c_rate: 0.5
    iter_stop: -1
    weight_mask_filler {
      type: "constant"
      value: 1
    }
    bias_mask_filler {
      type: "constant"
      value: 1
    }
  }
}
layer {
  name: "relu4"
  type: "ReLU"
  bottom: "conv4"
  top: "conv4"
}
layer {
  name: "conv5"
  type: "DNSConvolution"
  bottom: "conv4"
  top: "conv5"
  param {
    lr_mult: 1
    decay_mult: 1
  }
  param {
    lr_mult: 2
    decay_mult: 0
  }
  convolution_param {
    num_output: 256
    pad: 1
    kernel_size: 3
    group: 2
    weight_filler {
      type: "gaussian"
      std: 0.01
    }
    bias_filler {
      type: "constant"
      value: 0.1
    }
  }
  dns_convolution_param {
    gamma: 2.5e-06
    power: 1
    c_rate: 0.5
    iter_stop: -1
    weight_mask_filler {
      type: "constant"
      value: 1
    }
    bias_mask_filler {
      type: "constant"
      value: 1
    }
  }
}
layer {
  name: "relu5"
  type: "ReLU"
  bottom: "conv5"
  top: "conv5"
}
layer {
  name: "pool5"
  type: "Pooling"
  bottom: "conv5"
  top: "pool5"
  pooling_param {
    pool: MAX
    kernel_size: 3
    stride: 2
  }
}
layer {
  name: "fc6"
  type: "DNSInnerProduct"
  bottom: "pool5"
  top: "fc6"
  param {
    lr_mult: 1
    decay_mult: 1
  }
  param {
    lr_mult: 2
    decay_mult: 0
  }
  inner_product_param {
    num_output: 4096
    weight_filler {
      type: "gaussian"
      std: 0.005
    }
    bias_filler {
      type: "constant"
      value: 0.1
    }
  }
  dns_inner_product_param {
    gamma: 2.5e-06
    power: 1
    c_rate: 0.3
    iter_stop: 1e+06
    weight_mask_filler {
      type: "constant"
      value: 1
    }
    bias_mask_filler {
      type: "constant"
      value: 1
    }
  }
}
layer {
  name: "relu6"
  type: "ReLU"
  bottom: "fc6"
  top: "fc6"
}
layer {
  name: "drop6"
  type: "Dropout"
  bottom: "fc6"
  top: "fc6"
  dropout_param {
    dropout_ratio: 0.5
  }
}
layer {
  name: "fc7"
  type: "DNSInnerProduct"
  bottom: "fc6"
  top: "fc7"
  param {
    lr_mult: 1
    decay_mult: 1
  }
  param {
    lr_mult: 2
    decay_mult: 0
  }
  inner_product_param {
    num_output: 4096
    weight_filler {
      type: "gaussian"
      std: 0.005
    }
    bias_filler {
      type: "constant"
      value: 0.1
    }
  }
  dns_inner_product_param {
    gamma: 2.5e-06
    power: 1
    c_rate: -0.17
    iter_stop: 1e+06
    weight_mask_filler {
      type: "constant"
      value: 1
    }
    bias_mask_filler {
      type: "constant"
      value: 1
    }
  }
}
layer {
  name: "relu7"
  type: "ReLU"
  bottom: "fc7"
  top: "fc7"
}
layer {
  name: "drop7"
  type: "Dropout"
  bottom: "fc7"
  top: "fc7"
  dropout_param {
    dropout_ratio: 0.5
  }
}
layer {
  name: "fc8"
  type: "DNSInnerProduct"
  bottom: "fc7"
  top: "fc8"
  param {
    lr_mult: 1
    decay_mult: 1
  }
  param {
    lr_mult: 2
    decay_mult: 0
  }
  inner_product_param {
    num_output: 1000
    weight_filler {
      type: "gaussian"
      std: 0.01
    }
    bias_filler {
      type: "constant"
      value: 0
    }
  }
  dns_inner_product_param {
    gamma: 2.5e-06
    power: 1
    c_rate: -0.12
    iter_stop: 1e+06
    weight_mask_filler {
      type: "constant"
      value: 1
    }
    bias_mask_filler {
      type: "constant"
      value: 1
    }
  }
}
layer {
  name: "loss"
  type: "SoftmaxWithLoss"
  bottom: "fc8"
  bottom: "label"
  top: "loss"
}
I1216 12:32:50.915863 17292 layer_factory.hpp:77] Creating layer data
I1216 12:32:50.916031 17292 db_lmdb.cpp:35] Opened lmdb /home/data/caffe-imagenet/ilsvrc12_train_lmdb
I1216 12:32:50.916083 17292 net.cpp:84] Creating Layer data
I1216 12:32:50.916095 17292 net.cpp:387] data -> data
I1216 12:32:50.916131 17292 net.cpp:387] data -> label
I1216 12:32:50.916151 17292 data_transformer.cpp:25] Loading mean file from: data/ilsvrc12/imagenet_mean.binaryproto
I1216 12:32:50.921751 17292 data_layer.cpp:45] output data size: 256,3,227,227
I1216 12:32:51.343796 17292 net.cpp:127] Setting up data
I1216 12:32:51.343849 17292 net.cpp:136] Top shape: 256 3 227 227 (39574272)
I1216 12:32:51.343860 17292 net.cpp:136] Top shape: 256 (256)
I1216 12:32:51.343868 17292 net.cpp:144] Memory required for data: 158298112
I1216 12:32:51.343885 17292 layer_factory.hpp:77] Creating layer conv1
I1216 12:32:51.343915 17292 net.cpp:84] Creating Layer conv1
I1216 12:32:51.343927 17292 net.cpp:413] conv1 <- data
I1216 12:32:51.343950 17292 net.cpp:387] conv1 -> conv1
I1216 12:32:51.347856 17292 net.cpp:127] Setting up conv1
I1216 12:32:51.347878 17292 net.cpp:136] Top shape: 256 96 55 55 (74342400)
I1216 12:32:51.347885 17292 net.cpp:144] Memory required for data: 455667712
I1216 12:32:51.347919 17292 layer_factory.hpp:77] Creating layer relu1
I1216 12:32:51.347942 17292 net.cpp:84] Creating Layer relu1
I1216 12:32:51.347951 17292 net.cpp:413] relu1 <- conv1
I1216 12:32:51.347959 17292 net.cpp:374] relu1 -> conv1 (in-place)
I1216 12:32:51.734987 17292 net.cpp:127] Setting up relu1
I1216 12:32:51.735038 17292 net.cpp:136] Top shape: 256 96 55 55 (74342400)
I1216 12:32:51.735044 17292 net.cpp:144] Memory required for data: 753037312
I1216 12:32:51.735054 17292 layer_factory.hpp:77] Creating layer norm1
I1216 12:32:51.735079 17292 net.cpp:84] Creating Layer norm1
I1216 12:32:51.735086 17292 net.cpp:413] norm1 <- conv1
I1216 12:32:51.735100 17292 net.cpp:387] norm1 -> norm1
I1216 12:32:51.736538 17292 net.cpp:127] Setting up norm1
I1216 12:32:51.736559 17292 net.cpp:136] Top shape: 256 96 55 55 (74342400)
I1216 12:32:51.736565 17292 net.cpp:144] Memory required for data: 1050406912
I1216 12:32:51.736572 17292 layer_factory.hpp:77] Creating layer pool1
I1216 12:32:51.736587 17292 net.cpp:84] Creating Layer pool1
I1216 12:32:51.736595 17292 net.cpp:413] pool1 <- norm1
I1216 12:32:51.736604 17292 net.cpp:387] pool1 -> pool1
I1216 12:32:51.736666 17292 net.cpp:127] Setting up pool1
I1216 12:32:51.736676 17292 net.cpp:136] Top shape: 256 96 27 27 (17915904)
I1216 12:32:51.736682 17292 net.cpp:144] Memory required for data: 1122070528
I1216 12:32:51.736687 17292 layer_factory.hpp:77] Creating layer conv2
I1216 12:32:51.736704 17292 net.cpp:84] Creating Layer conv2
I1216 12:32:51.736713 17292 net.cpp:413] conv2 <- pool1
I1216 12:32:51.736721 17292 net.cpp:387] conv2 -> conv2
I1216 12:32:51.746198 17292 net.cpp:127] Setting up conv2
I1216 12:32:51.746222 17292 net.cpp:136] Top shape: 256 256 27 27 (47775744)
I1216 12:32:51.746228 17292 net.cpp:144] Memory required for data: 1313173504
I1216 12:32:51.746250 17292 layer_factory.hpp:77] Creating layer relu2
I1216 12:32:51.746265 17292 net.cpp:84] Creating Layer relu2
I1216 12:32:51.746273 17292 net.cpp:413] relu2 <- conv2
I1216 12:32:51.746282 17292 net.cpp:374] relu2 -> conv2 (in-place)
I1216 12:32:51.746577 17292 net.cpp:127] Setting up relu2
I1216 12:32:51.746592 17292 net.cpp:136] Top shape: 256 256 27 27 (47775744)
I1216 12:32:51.746598 17292 net.cpp:144] Memory required for data: 1504276480
I1216 12:32:51.746603 17292 layer_factory.hpp:77] Creating layer norm2
I1216 12:32:51.746614 17292 net.cpp:84] Creating Layer norm2
I1216 12:32:51.746621 17292 net.cpp:413] norm2 <- conv2
I1216 12:32:51.746629 17292 net.cpp:387] norm2 -> norm2
I1216 12:32:51.746855 17292 net.cpp:127] Setting up norm2
I1216 12:32:51.746867 17292 net.cpp:136] Top shape: 256 256 27 27 (47775744)
I1216 12:32:51.746876 17292 net.cpp:144] Memory required for data: 1695379456
I1216 12:32:51.746882 17292 layer_factory.hpp:77] Creating layer pool2
I1216 12:32:51.746906 17292 net.cpp:84] Creating Layer pool2
I1216 12:32:51.746912 17292 net.cpp:413] pool2 <- norm2
I1216 12:32:51.746948 17292 net.cpp:387] pool2 -> pool2
I1216 12:32:51.746992 17292 net.cpp:127] Setting up pool2
I1216 12:32:51.747012 17292 net.cpp:136] Top shape: 256 256 13 13 (11075584)
I1216 12:32:51.747017 17292 net.cpp:144] Memory required for data: 1739681792
I1216 12:32:51.747022 17292 layer_factory.hpp:77] Creating layer conv3
I1216 12:32:51.747036 17292 net.cpp:84] Creating Layer conv3
I1216 12:32:51.747043 17292 net.cpp:413] conv3 <- pool2
I1216 12:32:51.747051 17292 net.cpp:387] conv3 -> conv3
I1216 12:32:51.762886 17292 net.cpp:127] Setting up conv3
I1216 12:32:51.762907 17292 net.cpp:136] Top shape: 256 384 13 13 (16613376)
I1216 12:32:51.762914 17292 net.cpp:144] Memory required for data: 1806135296
I1216 12:32:51.762929 17292 layer_factory.hpp:77] Creating layer relu3
I1216 12:32:51.762939 17292 net.cpp:84] Creating Layer relu3
I1216 12:32:51.762945 17292 net.cpp:413] relu3 <- conv3
I1216 12:32:51.762953 17292 net.cpp:374] relu3 -> conv3 (in-place)
I1216 12:32:51.764338 17292 net.cpp:127] Setting up relu3
I1216 12:32:51.764358 17292 net.cpp:136] Top shape: 256 384 13 13 (16613376)
I1216 12:32:51.764364 17292 net.cpp:144] Memory required for data: 1872588800
I1216 12:32:51.764370 17292 layer_factory.hpp:77] Creating layer conv4
I1216 12:32:51.764382 17292 net.cpp:84] Creating Layer conv4
I1216 12:32:51.764389 17292 net.cpp:413] conv4 <- conv3
I1216 12:32:51.764397 17292 net.cpp:387] conv4 -> conv4
I1216 12:32:51.776523 17292 net.cpp:127] Setting up conv4
I1216 12:32:51.776545 17292 net.cpp:136] Top shape: 256 384 13 13 (16613376)
I1216 12:32:51.776551 17292 net.cpp:144] Memory required for data: 1939042304
I1216 12:32:51.776562 17292 layer_factory.hpp:77] Creating layer relu4
I1216 12:32:51.776576 17292 net.cpp:84] Creating Layer relu4
I1216 12:32:51.776582 17292 net.cpp:413] relu4 <- conv4
I1216 12:32:51.776589 17292 net.cpp:374] relu4 -> conv4 (in-place)
I1216 12:32:51.776800 17292 net.cpp:127] Setting up relu4
I1216 12:32:51.776813 17292 net.cpp:136] Top shape: 256 384 13 13 (16613376)
I1216 12:32:51.776818 17292 net.cpp:144] Memory required for data: 2005495808
I1216 12:32:51.776826 17292 layer_factory.hpp:77] Creating layer conv5
I1216 12:32:51.776840 17292 net.cpp:84] Creating Layer conv5
I1216 12:32:51.776845 17292 net.cpp:413] conv5 <- conv4
I1216 12:32:51.776854 17292 net.cpp:387] conv5 -> conv5
I1216 12:32:51.785630 17292 net.cpp:127] Setting up conv5
I1216 12:32:51.785651 17292 net.cpp:136] Top shape: 256 256 13 13 (11075584)
I1216 12:32:51.785657 17292 net.cpp:144] Memory required for data: 2049798144
I1216 12:32:51.785675 17292 layer_factory.hpp:77] Creating layer relu5
I1216 12:32:51.785683 17292 net.cpp:84] Creating Layer relu5
I1216 12:32:51.785691 17292 net.cpp:413] relu5 <- conv5
I1216 12:32:51.785698 17292 net.cpp:374] relu5 -> conv5 (in-place)
I1216 12:32:51.785919 17292 net.cpp:127] Setting up relu5
I1216 12:32:51.785933 17292 net.cpp:136] Top shape: 256 256 13 13 (11075584)
I1216 12:32:51.785939 17292 net.cpp:144] Memory required for data: 2094100480
I1216 12:32:51.785945 17292 layer_factory.hpp:77] Creating layer pool5
I1216 12:32:51.785955 17292 net.cpp:84] Creating Layer pool5
I1216 12:32:51.785961 17292 net.cpp:413] pool5 <- conv5
I1216 12:32:51.785969 17292 net.cpp:387] pool5 -> pool5
I1216 12:32:51.786020 17292 net.cpp:127] Setting up pool5
I1216 12:32:51.786028 17292 net.cpp:136] Top shape: 256 256 6 6 (2359296)
I1216 12:32:51.786033 17292 net.cpp:144] Memory required for data: 2103537664
I1216 12:32:51.786041 17292 layer_factory.hpp:77] Creating layer fc6
I1216 12:32:51.786058 17292 net.cpp:84] Creating Layer fc6
I1216 12:32:51.786064 17292 net.cpp:413] fc6 <- pool5
I1216 12:32:51.786072 17292 net.cpp:387] fc6 -> fc6
I1216 12:32:52.404160 17292 net.cpp:127] Setting up fc6
I1216 12:32:52.404222 17292 net.cpp:136] Top shape: 256 4096 (1048576)
I1216 12:32:52.404228 17292 net.cpp:144] Memory required for data: 2107731968
I1216 12:32:52.404248 17292 layer_factory.hpp:77] Creating layer relu6
I1216 12:32:52.404292 17292 net.cpp:84] Creating Layer relu6
I1216 12:32:52.404328 17292 net.cpp:413] relu6 <- fc6
I1216 12:32:52.404340 17292 net.cpp:374] relu6 -> fc6 (in-place)
I1216 12:32:52.404659 17292 net.cpp:127] Setting up relu6
I1216 12:32:52.404675 17292 net.cpp:136] Top shape: 256 4096 (1048576)
I1216 12:32:52.404680 17292 net.cpp:144] Memory required for data: 2111926272
I1216 12:32:52.404685 17292 layer_factory.hpp:77] Creating layer drop6
I1216 12:32:52.404701 17292 net.cpp:84] Creating Layer drop6
I1216 12:32:52.404709 17292 net.cpp:413] drop6 <- fc6
I1216 12:32:52.404716 17292 net.cpp:374] drop6 -> fc6 (in-place)
I1216 12:32:52.404752 17292 net.cpp:127] Setting up drop6
I1216 12:32:52.404762 17292 net.cpp:136] Top shape: 256 4096 (1048576)
I1216 12:32:52.404767 17292 net.cpp:144] Memory required for data: 2116120576
I1216 12:32:52.404772 17292 layer_factory.hpp:77] Creating layer fc7
I1216 12:32:52.404786 17292 net.cpp:84] Creating Layer fc7
I1216 12:32:52.404791 17292 net.cpp:413] fc7 <- fc6
I1216 12:32:52.404798 17292 net.cpp:387] fc7 -> fc7
I1216 12:32:52.681841 17292 net.cpp:127] Setting up fc7
I1216 12:32:52.681900 17292 net.cpp:136] Top shape: 256 4096 (1048576)
I1216 12:32:52.681907 17292 net.cpp:144] Memory required for data: 2120314880
I1216 12:32:52.681926 17292 layer_factory.hpp:77] Creating layer relu7
I1216 12:32:52.681941 17292 net.cpp:84] Creating Layer relu7
I1216 12:32:52.681947 17292 net.cpp:413] relu7 <- fc7
I1216 12:32:52.681959 17292 net.cpp:374] relu7 -> fc7 (in-place)
I1216 12:32:52.683606 17292 net.cpp:127] Setting up relu7
I1216 12:32:52.683626 17292 net.cpp:136] Top shape: 256 4096 (1048576)
I1216 12:32:52.683634 17292 net.cpp:144] Memory required for data: 2124509184
I1216 12:32:52.683639 17292 layer_factory.hpp:77] Creating layer drop7
I1216 12:32:52.683652 17292 net.cpp:84] Creating Layer drop7
I1216 12:32:52.683661 17292 net.cpp:413] drop7 <- fc7
I1216 12:32:52.683670 17292 net.cpp:374] drop7 -> fc7 (in-place)
I1216 12:32:52.683701 17292 net.cpp:127] Setting up drop7
I1216 12:32:52.683708 17292 net.cpp:136] Top shape: 256 4096 (1048576)
I1216 12:32:52.683713 17292 net.cpp:144] Memory required for data: 2128703488
I1216 12:32:52.683718 17292 layer_factory.hpp:77] Creating layer fc8
I1216 12:32:52.683733 17292 net.cpp:84] Creating Layer fc8
I1216 12:32:52.683738 17292 net.cpp:413] fc8 <- fc7
I1216 12:32:52.683748 17292 net.cpp:387] fc8 -> fc8
I1216 12:32:52.752600 17292 net.cpp:127] Setting up fc8
I1216 12:32:52.752640 17292 net.cpp:136] Top shape: 256 1000 (256000)
I1216 12:32:52.752646 17292 net.cpp:144] Memory required for data: 2129727488
I1216 12:32:52.752663 17292 layer_factory.hpp:77] Creating layer loss
I1216 12:32:52.752686 17292 net.cpp:84] Creating Layer loss
I1216 12:32:52.752694 17292 net.cpp:413] loss <- fc8
I1216 12:32:52.752705 17292 net.cpp:413] loss <- label
I1216 12:32:52.752715 17292 net.cpp:387] loss -> loss
I1216 12:32:52.752741 17292 layer_factory.hpp:77] Creating layer loss
…
I1216 12:32:52.756161 17292 net.cpp:301] The NetState phase (1) differed from the phase (0) specified by a rule in layer data
I1216 12:32:52.756559 17292 net.cpp:51] Initializing net from parameters: 
name: "AlexNet"
state {
  phase: TEST
}
layer {
  name: "data"
  type: "Data"
  top: "data"
  top: "label"
  include {
    phase: TEST
  }
  transform_param {
    mirror: false
    crop_size: 227
    mean_file: "data/ilsvrc12/imagenet_mean.binaryproto"
  }
  data_param {
    source: "/home/data/caffe-imagenet/ilsvrc12_val_lmdb"
    batch_size: 50
    backend: LMDB
  }
}
layer {
  name: "conv1"
  type: "DNSConvolution"
  bottom: "data"
  top: "conv1"
  param {
    lr_mult: 1
    decay_mult: 1
  }
  param {
    lr_mult: 2
    decay_mult: 0
  }
  convolution_param {
    num_output: 96
    kernel_size: 11
    stride: 4
    weight_filler {
      type: "gaussian"
      std: 0.01
    }
    bias_filler {
      type: "constant"
      value: 0
    }
  }
  dns_convolution_param {
    gamma: 2.5e-06
    power: 1
    c_rate: -0.9
    iter_stop: -1
    weight_mask_filler {
      type: "constant"
      value: 1
    }
    bias_mask_filler {
      type: "constant"
      value: 1
    }
  }
}
layer {
  name: "relu1"
  type: "ReLU"
  bottom: "conv1"
  top: "conv1"
}
layer {
  name: "norm1"
  type: "LRN"
  bottom: "conv1"
  top: "norm1"
  lrn_param {
    local_size: 5
    alpha: 0.0001
    beta: 0.75
  }
}
layer {
  name: "pool1"
  type: "Pooling"
  bottom: "norm1"
  top: "pool1"
  pooling_param {
    pool: MAX
    kernel_size: 3
    stride: 2
  }
}
layer {
  name: "conv2"
  type: "DNSConvolution"
  bottom: "pool1"
  top: "conv2"
  param {
    lr_mult: 1
    decay_mult: 1
  }
  param {
    lr_mult: 2
    decay_mult: 0
  }
  convolution_param {
    num_output: 256
    pad: 2
    kernel_size: 5
    group: 2
    weight_filler {
      type: "gaussian"
      std: 0.01
    }
    bias_filler {
      type: "constant"
      value: 0.1
    }
  }
  dns_convolution_param {
    gamma: 2.5e-06
    power: 1
    c_rate: 0
    iter_stop: -1
    weight_mask_filler {
      type: "constant"
      value: 1
    }
    bias_mask_filler {
      type: "constant"
      value: 1
    }
  }
}
layer {
  name: "relu2"
  type: "ReLU"
  bottom: "conv2"
  top: "conv2"
}
layer {
  name: "norm2"
  type: "LRN"
  bottom: "conv2"
  top: "norm2"
  lrn_param {
    local_size: 5
    alpha: 0.0001
    beta: 0.75
  }
}
layer {
  name: "pool2"
  type: "Pooling"
  bottom: "norm2"
  top: "pool2"
  pooling_param {
    pool: MAX
    kernel_size: 3
    stride: 2
  }
}
layer {
  name: "conv3"
  type: "DNSConvolution"
  bottom: "pool2"
  top: "conv3"
  param {
    lr_mult: 1
    decay_mult: 1
  }
  param {
    lr_mult: 2
    decay_mult: 0
  }
  convolution_param {
    num_output: 384
    pad: 1
    kernel_size: 3
    weight_filler {
      type: "gaussian"
      std: 0.01
    }
    bias_filler {
      type: "constant"
      value: 0
    }
  }
  dns_convolution_param {
    gamma: 2.5e-06
    power: 1
    c_rate: 0.5
    iter_stop: -1
    weight_mask_filler {
      type: "constant"
      value: 1
    }
    bias_mask_filler {
      type: "constant"
      value: 1
    }
  }
}
layer {
  name: "relu3"
  type: "ReLU"
  bottom: "conv3"
  top: "conv3"
}
layer {
  name: "conv4"
  type: "DNSConvolution"
  bottom: "conv3"
  top: "conv4"
  param {
    lr_mult: 1
    decay_mult: 1
  }
  param {
    lr_mult: 2
    decay_mult: 0
  }
  convolution_param {
    num_output: 384
    pad: 1
    kernel_size: 3
    group: 2
    weight_filler {
      type: "gaussian"
      std: 0.01
    }
    bias_filler {
      type: "constant"
      value: 0.1
    }
  }
  dns_convolution_param {
    gamma: 2.5e-06
    power: 1
    c_rate: 0.5
    iter_stop: -1
    weight_mask_filler {
      type: "constant"
      value: 1
    }
    bias_mask_filler {
      type: "constant"
      value: 1
    }
  }
}
layer {
  name: "relu4"
  type: "ReLU"
  bottom: "conv4"
  top: "conv4"
}
layer {
  name: "conv5"
  type: "DNSConvolution"
  bottom: "conv4"
  top: "conv5"
  param {
    lr_mult: 1
    decay_mult: 1
  }
  param {
    lr_mult: 2
    decay_mult: 0
  }
  convolution_param {
    num_output: 256
    pad: 1
    kernel_size: 3
    group: 2
    weight_filler {
      type: "gaussian"
      std: 0.01
    }
    bias_filler {
      type: "constant"
      value: 0.1
    }
  }
  dns_convolution_param {
    gamma: 2.5e-06
    power: 1
    c_rate: 0.5
    iter_stop: -1
    weight_mask_filler {
      type: "constant"
      value: 1
    }
    bias_mask_filler {
      type: "constant"
      value: 1
    }
  }
}
layer {
  name: "relu5"
  type: "ReLU"
  bottom: "conv5"
  top: "conv5"
}
layer {
  name: "pool5"
  type: "Pooling"
  bottom: "conv5"
  top: "pool5"
  pooling_param {
    pool: MAX
    kernel_size: 3
    stride: 2
  }
}
layer {
  name: "fc6"
  type: "DNSInnerProduct"
  bottom: "pool5"
  top: "fc6"
  param {
    lr_mult: 1
    decay_mult: 1
  }
  param {
    lr_mult: 2
    decay_mult: 0
  }
  inner_product_param {
    num_output: 4096
    weight_filler {
      type: "gaussian"
      std: 0.005
    }
    bias_filler {
      type: "constant"
      value: 0.1
    }
  }
  dns_inner_product_param {
    gamma: 2.5e-06
    power: 1
    c_rate: 0.3
    iter_stop: 1e+06
    weight_mask_filler {
      type: "constant"
      value: 1
    }
    bias_mask_filler {
      type: "constant"
      value: 1
    }
  }
}
layer {
  name: "relu6"
  type: "ReLU"
  bottom: "fc6"
  top: "fc6"
}
layer {
  name: "drop6"
  type: "Dropout"
  bottom: "fc6"
  top: "fc6"
  dropout_param {
    dropout_ratio: 0.5
  }
}
layer {
  name: "fc7"
  type: "DNSInnerProduct"
  bottom: "fc6"
  top: "fc7"
  param {
    lr_mult: 1
    decay_mult: 1
  }
  param {
    lr_mult: 2
    decay_mult: 0
  }
  inner_product_param {
    num_output: 4096
    weight_filler {
      type: "gaussian"
      std: 0.005
    }
    bias_filler {
      type: "constant"
      value: 0.1
    }
  }
  dns_inner_product_param {
    gamma: 2.5e-06
    power: 1
    c_rate: -0.17
    iter_stop: 1e+06
    weight_mask_filler {
      type: "constant"
      value: 1
    }
    bias_mask_filler {
      type: "constant"
      value: 1
    }
  }
}
layer {
  name: "relu7"
  type: "ReLU"
  bottom: "fc7"
  top: "fc7"
}
layer {
  name: "drop7"
  type: "Dropout"
  bottom: "fc7"
  top: "fc7"
  dropout_param {
    dropout_ratio: 0.5
  }
}
layer {
  name: "fc8"
  type: "DNSInnerProduct"
  bottom: "fc7"
  top: "fc8"
  param {
    lr_mult: 1
    decay_mult: 1
  }
  param {
    lr_mult: 2
    decay_mult: 0
  }
  inner_product_param {
    num_output: 1000
    weight_filler {
      type: "gaussian"
      std: 0.01
    }
    bias_filler {
      type: "constant"
      value: 0
    }
  }
  dns_inner_product_param {
    gamma: 2.5e-06
    power: 1
    c_rate: -0.12
    iter_stop: 1e+06
    weight_mask_filler {
      type: "constant"
      value: 1
    }
    bias_mask_filler {
      type: "constant"
      value: 1
    }
  }
}
layer {
  name: "accuracy_top1"
  type: "Accuracy"
  bottom: "fc8"
  bottom: "label"
  top: "accuracy_top1"
  include {
    phase: TEST
  }
  accuracy_param {
    top_k: 1
  }
}
layer {
  name: "accuracy_top5"
  type: "Accuracy"
  bottom: "fc8"
  bottom: "label"
  top: "accuracy_top5"
  include {
    phase: TEST
  }
  accuracy_param {
    top_k: 5
  }
}
layer {
  name: "loss"
  type: "SoftmaxWithLoss"
  bottom: "fc8"
  bottom: "label"
  top: "loss"
}
I1216 12:32:52.756750 17292 layer_factory.hpp:77] Creating layer data
I1216 12:32:52.756829 17292 db_lmdb.cpp:35] Opened lmdb /home/data/caffe-imagenet/ilsvrc12_val_lmdb
I1216 12:32:52.756851 17292 net.cpp:84] Creating Layer data
I1216 12:32:52.756860 17292 net.cpp:387] data -> data
I1216 12:32:52.756870 17292 net.cpp:387] data -> label
I1216 12:32:52.756880 17292 data_transformer.cpp:25] Loading mean file from: data/ilsvrc12/imagenet_mean.binaryproto
I1216 12:32:52.759167 17292 data_layer.cpp:45] output data size: 50,3,227,227
I1216 12:32:52.849257 17292 net.cpp:127] Setting up data
I1216 12:32:52.849313 17292 net.cpp:136] Top shape: 50 3 227 227 (7729350)
I1216 12:32:52.849323 17292 net.cpp:136] Top shape: 50 (50)
I1216 12:32:52.849330 17292 net.cpp:144] Memory required for data: 30917600
I1216 12:32:52.849339 17292 layer_factory.hpp:77] Creating layer label_data_1_split
I1216 12:32:52.849362 17292 net.cpp:84] Creating Layer label_data_1_split
I1216 12:32:52.849370 17292 net.cpp:413] label_data_1_split <- label
I1216 12:32:52.849381 17292 net.cpp:387] label_data_1_split -> label_data_1_split_0
I1216 12:32:52.849395 17292 net.cpp:387] label_data_1_split -> label_data_1_split_1
I1216 12:32:52.849403 17292 net.cpp:387] label_data_1_split -> label_data_1_split_2
I1216 12:32:52.849586 17292 net.cpp:127] Setting up label_data_1_split
I1216 12:32:52.849597 17292 net.cpp:136] Top shape: 50 (50)
I1216 12:32:52.849603 17292 net.cpp:136] Top shape: 50 (50)
I1216 12:32:52.849609 17292 net.cpp:136] Top shape: 50 (50)
I1216 12:32:52.849614 17292 net.cpp:144] Memory required for data: 30918200
I1216 12:32:52.849619 17292 layer_factory.hpp:77] Creating layer conv1
I1216 12:32:52.849637 17292 net.cpp:84] Creating Layer conv1
I1216 12:32:52.849642 17292 net.cpp:413] conv1 <- data
I1216 12:32:52.849653 17292 net.cpp:387] conv1 -> conv1
I1216 12:32:52.850625 17292 net.cpp:127] Setting up conv1
I1216 12:32:52.850641 17292 net.cpp:136] Top shape: 50 96 55 55 (14520000)
I1216 12:32:52.850646 17292 net.cpp:144] Memory required for data: 88998200
I1216 12:32:52.850666 17292 layer_factory.hpp:77] Creating layer relu1
I1216 12:32:52.850677 17292 net.cpp:84] Creating Layer relu1
I1216 12:32:52.850682 17292 net.cpp:413] relu1 <- conv1
I1216 12:32:52.850690 17292 net.cpp:374] relu1 -> conv1 (in-place)
I1216 12:32:52.850947 17292 net.cpp:127] Setting up relu1
I1216 12:32:52.850971 17292 net.cpp:136] Top shape: 50 96 55 55 (14520000)
I1216 12:32:52.850976 17292 net.cpp:144] Memory required for data: 147078200
I1216 12:32:52.850982 17292 layer_factory.hpp:77] Creating layer norm1
I1216 12:32:52.850994 17292 net.cpp:84] Creating Layer norm1
I1216 12:32:52.850999 17292 net.cpp:413] norm1 <- conv1
I1216 12:32:52.851006 17292 net.cpp:387] norm1 -> norm1
I1216 12:32:52.851249 17292 net.cpp:127] Setting up norm1
I1216 12:32:52.851261 17292 net.cpp:136] Top shape: 50 96 55 55 (14520000)
I1216 12:32:52.851266 17292 net.cpp:144] Memory required for data: 205158200
I1216 12:32:52.851272 17292 layer_factory.hpp:77] Creating layer pool1
I1216 12:32:52.851289 17292 net.cpp:84] Creating Layer pool1
I1216 12:32:52.851295 17292 net.cpp:413] pool1 <- norm1
I1216 12:32:52.851305 17292 net.cpp:387] pool1 -> pool1
I1216 12:32:52.851418 17292 net.cpp:127] Setting up pool1
I1216 12:32:52.851428 17292 net.cpp:136] Top shape: 50 96 27 27 (3499200)
I1216 12:32:52.851440 17292 net.cpp:144] Memory required for data: 219155000
I1216 12:32:52.851446 17292 layer_factory.hpp:77] Creating layer conv2
I1216 12:32:52.851457 17292 net.cpp:84] Creating Layer conv2
I1216 12:32:52.851462 17292 net.cpp:413] conv2 <- pool1
I1216 12:32:52.851483 17292 net.cpp:387] conv2 -> conv2
I1216 12:32:52.858587 17292 net.cpp:127] Setting up conv2
I1216 12:32:52.858635 17292 net.cpp:136] Top shape: 50 256 27 27 (9331200)
I1216 12:32:52.858642 17292 net.cpp:144] Memory required for data: 256479800
I1216 12:32:52.858657 17292 layer_factory.hpp:77] Creating layer relu2
I1216 12:32:52.858667 17292 net.cpp:84] Creating Layer relu2
I1216 12:32:52.858675 17292 net.cpp:413] relu2 <- conv2
I1216 12:32:52.858681 17292 net.cpp:374] relu2 -> conv2 (in-place)
I1216 12:32:52.860096 17292 net.cpp:127] Setting up relu2
I1216 12:32:52.860116 17292 net.cpp:136] Top shape: 50 256 27 27 (9331200)
I1216 12:32:52.860122 17292 net.cpp:144] Memory required for data: 293804600
I1216 12:32:52.860128 17292 layer_factory.hpp:77] Creating layer norm2
I1216 12:32:52.860139 17292 net.cpp:84] Creating Layer norm2
I1216 12:32:52.860146 17292 net.cpp:413] norm2 <- conv2
I1216 12:32:52.860154 17292 net.cpp:387] norm2 -> norm2
I1216 12:32:52.860404 17292 net.cpp:127] Setting up norm2
I1216 12:32:52.860417 17292 net.cpp:136] Top shape: 50 256 27 27 (9331200)
I1216 12:32:52.860424 17292 net.cpp:144] Memory required for data: 331129400
I1216 12:32:52.860430 17292 layer_factory.hpp:77] Creating layer pool2
I1216 12:32:52.860438 17292 net.cpp:84] Creating Layer pool2
I1216 12:32:52.860443 17292 net.cpp:413] pool2 <- norm2
I1216 12:32:52.860450 17292 net.cpp:387] pool2 -> pool2
I1216 12:32:52.860494 17292 net.cpp:127] Setting up pool2
I1216 12:32:52.860502 17292 net.cpp:136] Top shape: 50 256 13 13 (2163200)
I1216 12:32:52.860507 17292 net.cpp:144] Memory required for data: 339782200
I1216 12:32:52.860512 17292 layer_factory.hpp:77] Creating layer conv3
I1216 12:32:52.860523 17292 net.cpp:84] Creating Layer conv3
I1216 12:32:52.860528 17292 net.cpp:413] conv3 <- pool2
I1216 12:32:52.860538 17292 net.cpp:387] conv3 -> conv3
I1216 12:32:52.876513 17292 net.cpp:127] Setting up conv3
I1216 12:32:52.876535 17292 net.cpp:136] Top shape: 50 384 13 13 (3244800)
I1216 12:32:52.876540 17292 net.cpp:144] Memory required for data: 352761400
I1216 12:32:52.876557 17292 layer_factory.hpp:77] Creating layer relu3
I1216 12:32:52.876569 17292 net.cpp:84] Creating Layer relu3
I1216 12:32:52.876574 17292 net.cpp:413] relu3 <- conv3
I1216 12:32:52.876583 17292 net.cpp:374] relu3 -> conv3 (in-place)
I1216 12:32:52.876803 17292 net.cpp:127] Setting up relu3
I1216 12:32:52.876816 17292 net.cpp:136] Top shape: 50 384 13 13 (3244800)
I1216 12:32:52.876822 17292 net.cpp:144] Memory required for data: 365740600
I1216 12:32:52.876827 17292 layer_factory.hpp:77] Creating layer conv4
I1216 12:32:52.876838 17292 net.cpp:84] Creating Layer conv4
I1216 12:32:52.876843 17292 net.cpp:413] conv4 <- conv3
I1216 12:32:52.876852 17292 net.cpp:387] conv4 -> conv4
I1216 12:32:52.889152 17292 net.cpp:127] Setting up conv4
I1216 12:32:52.889174 17292 net.cpp:136] Top shape: 50 384 13 13 (3244800)
I1216 12:32:52.889180 17292 net.cpp:144] Memory required for data: 378719800
I1216 12:32:52.889192 17292 layer_factory.hpp:77] Creating layer relu4
I1216 12:32:52.889201 17292 net.cpp:84] Creating Layer relu4
I1216 12:32:52.889207 17292 net.cpp:413] relu4 <- conv4
I1216 12:32:52.889214 17292 net.cpp:374] relu4 -> conv4 (in-place)
I1216 12:32:52.890645 17292 net.cpp:127] Setting up relu4
I1216 12:32:52.890664 17292 net.cpp:136] Top shape: 50 384 13 13 (3244800)
I1216 12:32:52.890671 17292 net.cpp:144] Memory required for data: 391699000
I1216 12:32:52.890676 17292 layer_factory.hpp:77] Creating layer conv5
I1216 12:32:52.890688 17292 net.cpp:84] Creating Layer conv5
I1216 12:32:52.890696 17292 net.cpp:413] conv5 <- conv4
I1216 12:32:52.890704 17292 net.cpp:387] conv5 -> conv5
I1216 12:32:52.899626 17292 net.cpp:127] Setting up conv5
I1216 12:32:52.899648 17292 net.cpp:136] Top shape: 50 256 13 13 (2163200)
I1216 12:32:52.899653 17292 net.cpp:144] Memory required for data: 400351800
I1216 12:32:52.899670 17292 layer_factory.hpp:77] Creating layer relu5
I1216 12:32:52.899680 17292 net.cpp:84] Creating Layer relu5
I1216 12:32:52.899686 17292 net.cpp:413] relu5 <- conv5
I1216 12:32:52.899703 17292 net.cpp:374] relu5 -> conv5 (in-place)
I1216 12:32:52.899943 17292 net.cpp:127] Setting up relu5
I1216 12:32:52.899956 17292 net.cpp:136] Top shape: 50 256 13 13 (2163200)
I1216 12:32:52.899962 17292 net.cpp:144] Memory required for data: 409004600
I1216 12:32:52.899967 17292 layer_factory.hpp:77] Creating layer pool5
I1216 12:32:52.899978 17292 net.cpp:84] Creating Layer pool5
I1216 12:32:52.899984 17292 net.cpp:413] pool5 <- conv5
I1216 12:32:52.899992 17292 net.cpp:387] pool5 -> pool5
I1216 12:32:52.900046 17292 net.cpp:127] Setting up pool5
I1216 12:32:52.900055 17292 net.cpp:136] Top shape: 50 256 6 6 (460800)
I1216 12:32:52.900060 17292 net.cpp:144] Memory required for data: 410847800
I1216 12:32:52.900065 17292 layer_factory.hpp:77] Creating layer fc6
I1216 12:32:52.900079 17292 net.cpp:84] Creating Layer fc6
I1216 12:32:52.900084 17292 net.cpp:413] fc6 <- pool5
I1216 12:32:52.900092 17292 net.cpp:387] fc6 -> fc6
I1216 12:32:53.516449 17292 net.cpp:127] Setting up fc6
I1216 12:32:53.516508 17292 net.cpp:136] Top shape: 50 4096 (204800)
I1216 12:32:53.516515 17292 net.cpp:144] Memory required for data: 411667000
I1216 12:32:53.516535 17292 layer_factory.hpp:77] Creating layer relu6
I1216 12:32:53.516548 17292 net.cpp:84] Creating Layer relu6
I1216 12:32:53.516554 17292 net.cpp:413] relu6 <- fc6
I1216 12:32:53.516566 17292 net.cpp:374] relu6 -> fc6 (in-place)
I1216 12:32:53.516861 17292 net.cpp:127] Setting up relu6
I1216 12:32:53.516875 17292 net.cpp:136] Top shape: 50 4096 (204800)
I1216 12:32:53.516880 17292 net.cpp:144] Memory required for data: 412486200
I1216 12:32:53.516885 17292 layer_factory.hpp:77] Creating layer drop6
I1216 12:32:53.516896 17292 net.cpp:84] Creating Layer drop6
I1216 12:32:53.516901 17292 net.cpp:413] drop6 <- fc6
I1216 12:32:53.516908 17292 net.cpp:374] drop6 -> fc6 (in-place)
I1216 12:32:53.516945 17292 net.cpp:127] Setting up drop6
I1216 12:32:53.516958 17292 net.cpp:136] Top shape: 50 4096 (204800)
I1216 12:32:53.516963 17292 net.cpp:144] Memory required for data: 413305400
I1216 12:32:53.516968 17292 layer_factory.hpp:77] Creating layer fc7
I1216 12:32:53.516981 17292 net.cpp:84] Creating Layer fc7
I1216 12:32:53.516986 17292 net.cpp:413] fc7 <- fc6
I1216 12:32:53.516995 17292 net.cpp:387] fc7 -> fc7
I1216 12:32:53.790861 17292 net.cpp:127] Setting up fc7
I1216 12:32:53.790923 17292 net.cpp:136] Top shape: 50 4096 (204800)
I1216 12:32:53.790931 17292 net.cpp:144] Memory required for data: 414124600
I1216 12:32:53.790956 17292 layer_factory.hpp:77] Creating layer relu7
I1216 12:32:53.790971 17292 net.cpp:84] Creating Layer relu7
I1216 12:32:53.790980 17292 net.cpp:413] relu7 <- fc7
I1216 12:32:53.790992 17292 net.cpp:374] relu7 -> fc7 (in-place)
I1216 12:32:53.791388 17292 net.cpp:127] Setting up relu7
I1216 12:32:53.791404 17292 net.cpp:136] Top shape: 50 4096 (204800)
I1216 12:32:53.791409 17292 net.cpp:144] Memory required for data: 414943800
I1216 12:32:53.791415 17292 layer_factory.hpp:77] Creating layer drop7
I1216 12:32:53.791426 17292 net.cpp:84] Creating Layer drop7
I1216 12:32:53.791431 17292 net.cpp:413] drop7 <- fc7
I1216 12:32:53.791440 17292 net.cpp:374] drop7 -> fc7 (in-place)
I1216 12:32:53.791479 17292 net.cpp:127] Setting up drop7
I1216 12:32:53.791487 17292 net.cpp:136] Top shape: 50 4096 (204800)
I1216 12:32:53.791492 17292 net.cpp:144] Memory required for data: 415763000
I1216 12:32:53.791497 17292 layer_factory.hpp:77] Creating layer fc8
I1216 12:32:53.791512 17292 net.cpp:84] Creating Layer fc8
I1216 12:32:53.791517 17292 net.cpp:413] fc8 <- fc7
I1216 12:32:53.791525 17292 net.cpp:387] fc8 -> fc8
I1216 12:32:53.859011 17292 net.cpp:127] Setting up fc8
I1216 12:32:53.859050 17292 net.cpp:136] Top shape: 50 1000 (50000)
I1216 12:32:53.859057 17292 net.cpp:144] Memory required for data: 415963000
I1216 12:32:53.859074 17292 layer_factory.hpp:77] Creating layer fc8_fc8_0_split
I1216 12:32:53.859088 17292 net.cpp:84] Creating Layer fc8_fc8_0_split
I1216 12:32:53.859096 17292 net.cpp:413] fc8_fc8_0_split <- fc8
I1216 12:32:53.859117 17292 net.cpp:387] fc8_fc8_0_split -> fc8_fc8_0_split_0
I1216 12:32:53.859129 17292 net.cpp:387] fc8_fc8_0_split -> fc8_fc8_0_split_1
I1216 12:32:53.859163 17292 net.cpp:387] fc8_fc8_0_split -> fc8_fc8_0_split_2
I1216 12:32:53.859233 17292 net.cpp:127] Setting up fc8_fc8_0_split
I1216 12:32:53.859246 17292 net.cpp:136] Top shape: 50 1000 (50000)
I1216 12:32:53.859251 17292 net.cpp:136] Top shape: 50 1000 (50000)
I1216 12:32:53.859257 17292 net.cpp:136] Top shape: 50 1000 (50000)
I1216 12:32:53.859261 17292 net.cpp:144] Memory required for data: 416563000
I1216 12:32:53.859266 17292 layer_factory.hpp:77] Creating layer accuracy_top1
I1216 12:32:53.859287 17292 net.cpp:84] Creating Layer accuracy_top1
I1216 12:32:53.859293 17292 net.cpp:413] accuracy_top1 <- fc8_fc8_0_split_0
I1216 12:32:53.859300 17292 net.cpp:413] accuracy_top1 <- label_data_1_split_0
I1216 12:32:53.859308 17292 net.cpp:387] accuracy_top1 -> accuracy_top1
…
