…
I1219 10:06:20.652721 31257 net.cpp:301] The NetState phase (0) differed from the phase (1) specified by a rule in layer accuracy_top5
I1219 10:06:20.653317 31257 net.cpp:51] Initializing net from parameters: 
name: "AlexNet"
state {
  phase: TRAIN
  level: 0
  stage: ""
}
layer {
  name: "data"
  type: "Data"
  top: "data"
  top: "label"
  include {
    phase: TRAIN
  }
  transform_param {
    mirror: true
    crop_size: 227
    mean_file: "/home/data/caffe-imagenet/imagenet_mean.binaryproto"
  }
  data_param {
    source: "/home/data/caffe-imagenet/ilsvrc12_train_lmdb"
    batch_size: 256
    backend: LMDB
  }
}
layer {
  name: "conv1"
  type: "INQConvolution"
  bottom: "data"
  top: "conv1"
  param {
    lr_mult: 1
    decay_mult: 1
  }
  param {
    lr_mult: 2
    decay_mult: 0
  }
  convolution_param {
    num_output: 96
    kernel_size: 11
    stride: 4
    weight_filler {
      type: "gaussian"
      std: 0.01
    }
    bias_filler {
      type: "constant"
      value: 0
    }
  }
  inq_convolution_param {
    portion: 0
    portion: 0.3
    weight_mask_filler {
      type: "constant"
      value: 1
    }
    bias_mask_filler {
      type: "constant"
      value: 1
    }
    num_quantum_values: 7
  }
}
layer {
  name: "relu1"
  type: "ReLU"
  bottom: "conv1"
  top: "conv1"
}
layer {
  name: "norm1"
  type: "LRN"
  bottom: "conv1"
  top: "norm1"
  lrn_param {
    local_size: 5
    alpha: 0.0001
    beta: 0.75
  }
}
layer {
  name: "pool1"
  type: "Pooling"
  bottom: "norm1"
  top: "pool1"
  pooling_param {
    pool: MAX
    kernel_size: 3
    stride: 2
  }
}
layer {
  name: "conv2"
  type: "INQConvolution"
  bottom: "pool1"
  top: "conv2"
  param {
    lr_mult: 1
    decay_mult: 1
  }
  param {
    lr_mult: 2
    decay_mult: 0
  }
  convolution_param {
    num_output: 256
    pad: 2
    kernel_size: 5
    group: 2
    weight_filler {
      type: "gaussian"
      std: 0.01
    }
    bias_filler {
      type: "constant"
      value: 0.1
    }
  }
  inq_convolution_param {
    portion: 0
    portion: 0.3
    weight_mask_filler {
      type: "constant"
      value: 1
    }
    bias_mask_filler {
      type: "constant"
      value: 1
    }
    num_quantum_values: 7
  }
}
layer {
  name: "relu2"
  type: "ReLU"
  bottom: "conv2"
  top: "conv2"
}
layer {
  name: "norm2"
  type: "LRN"
  bottom: "conv2"
  top: "norm2"
  lrn_param {
    local_size: 5
    alpha: 0.0001
    beta: 0.75
  }
}
layer {
  name: "pool2"
  type: "Pooling"
  bottom: "norm2"
  top: "pool2"
  pooling_param {
    pool: MAX
    kernel_size: 3
    stride: 2
  }
}
layer {
  name: "conv3"
  type: "INQConvolution"
  bottom: "pool2"
  top: "conv3"
  param {
    lr_mult: 1
    decay_mult: 1
  }
  param {
    lr_mult: 2
    decay_mult: 0
  }
  convolution_param {
    num_output: 384
    pad: 1
    kernel_size: 3
    weight_filler {
      type: "gaussian"
      std: 0.01
    }
    bias_filler {
      type: "constant"
      value: 0
    }
  }
  inq_convolution_param {
    portion: 0
    portion: 0.3
    weight_mask_filler {
      type: "constant"
      value: 1
    }
    bias_mask_filler {
      type: "constant"
      value: 1
    }
    num_quantum_values: 7
  }
}
layer {
  name: "relu3"
  type: "ReLU"
  bottom: "conv3"
  top: "conv3"
}
layer {
  name: "conv4"
  type: "INQConvolution"
  bottom: "conv3"
  top: "conv4"
  param {
    lr_mult: 1
    decay_mult: 1
  }
  param {
    lr_mult: 2
    decay_mult: 0
  }
  convolution_param {
    num_output: 384
    pad: 1
    kernel_size: 3
    group: 2
    weight_filler {
      type: "gaussian"
      std: 0.01
    }
    bias_filler {
      type: "constant"
      value: 0.1
    }
  }
  inq_convolution_param {
    portion: 0
    portion: 0.3
    weight_mask_filler {
      type: "constant"
      value: 1
    }
    bias_mask_filler {
      type: "constant"
      value: 1
    }
    num_quantum_values: 7
  }
}
layer {
  name: "relu4"
  type: "ReLU"
  bottom: "conv4"
  top: "conv4"
}
layer {
  name: "conv5"
  type: "INQConvolution"
  bottom: "conv4"
  top: "conv5"
  param {
    lr_mult: 1
    decay_mult: 1
  }
  param {
    lr_mult: 2
    decay_mult: 0
  }
  convolution_param {
    num_output: 256
    pad: 1
    kernel_size: 3
    group: 2
    weight_filler {
      type: "gaussian"
      std: 0.01
    }
    bias_filler {
      type: "constant"
      value: 0.1
    }
  }
  inq_convolution_param {
    portion: 0
    portion: 0.3
    weight_mask_filler {
      type: "constant"
      value: 1
    }
    bias_mask_filler {
      type: "constant"
      value: 1
    }
    num_quantum_values: 7
  }
}
layer {
  name: "relu5"
  type: "ReLU"
  bottom: "conv5"
  top: "conv5"
}
layer {
  name: "pool5"
  type: "Pooling"
  bottom: "conv5"
  top: "pool5"
  pooling_param {
    pool: MAX
    kernel_size: 3
    stride: 2
  }
}
layer {
  name: "fc6"
  type: "INQInnerProduct"
  bottom: "pool5"
  top: "fc6"
  param {
    lr_mult: 1
    decay_mult: 1
  }
  param {
    lr_mult: 2
    decay_mult: 0
  }
  inner_product_param {
    num_output: 4096
    weight_filler {
      type: "gaussian"
      std: 0.005
    }
    bias_filler {
      type: "constant"
      value: 0.1
    }
  }
  inq_inner_product_param {
    portion: 0
    portion: 0.3
    weight_mask_filler {
      type: "constant"
      value: 1
    }
    bias_mask_filler {
      type: "constant"
      value: 1
    }
    num_quantum_values: 7
  }
}
layer {
  name: "relu6"
  type: "ReLU"
  bottom: "fc6"
  top: "fc6"
}
layer {
  name: "drop6"
  type: "Dropout"
  bottom: "fc6"
  top: "fc6"
  dropout_param {
    dropout_ratio: 0.5
  }
}
layer {
  name: "fc7"
  type: "INQInnerProduct"
  bottom: "fc6"
  top: "fc7"
  param {
    lr_mult: 1
    decay_mult: 1
  }
  param {
    lr_mult: 2
    decay_mult: 0
  }
  inner_product_param {
    num_output: 4096
    weight_filler {
      type: "gaussian"
      std: 0.005
    }
    bias_filler {
      type: "constant"
      value: 0.1
    }
  }
  inq_inner_product_param {
    portion: 0
    portion: 0.3
    weight_mask_filler {
      type: "constant"
      value: 1
    }
    bias_mask_filler {
      type: "constant"
      value: 1
    }
    num_quantum_values: 7
  }
}
layer {
  name: "relu7"
  type: "ReLU"
  bottom: "fc7"
  top: "fc7"
}
layer {
  name: "drop7"
  type: "Dropout"
  bottom: "fc7"
  top: "fc7"
  dropout_param {
    dropout_ratio: 0.5
  }
}
layer {
  name: "fc8"
  type: "INQInnerProduct"
  bottom: "fc7"
  top: "fc8"
  param {
    lr_mult: 1
    decay_mult: 1
  }
  param {
    lr_mult: 2
    decay_mult: 0
  }
  inner_product_param {
    num_output: 1000
    weight_filler {
      type: "gaussian"
      std: 0.01
    }
    bias_filler {
      type: "constant"
      value: 0
    }
  }
  inq_inner_product_param {
    portion: 0
    portion: 0.3
    weight_mask_filler {
      type: "constant"
      value: 1
    }
    bias_mask_filler {
      type: "constant"
      value: 1
    }
    num_quantum_values: 7
  }
}
layer {
  name: "loss"
  type: "SoftmaxWithLoss"
  bottom: "fc8"
  bottom: "label"
  top: "loss"
}
I1219 10:06:20.653772 31257 layer_factory.hpp:77] Creating layer data
I1219 10:06:20.660272 31257 db_lmdb.cpp:35] Opened lmdb /home/data/caffe-imagenet/ilsvrc12_train_lmdb
I1219 10:06:20.660423 31257 net.cpp:84] Creating Layer data
I1219 10:06:20.660451 31257 net.cpp:387] data -> data
I1219 10:06:20.660509 31257 net.cpp:387] data -> label
I1219 10:06:20.660549 31257 data_transformer.cpp:25] Loading mean file from: /home/data/caffe-imagenet/imagenet_mean.binaryproto
I1219 10:06:20.690610 31257 data_layer.cpp:45] output data size: 256,3,227,227
I1219 10:06:21.135922 31257 net.cpp:127] Setting up data
I1219 10:06:21.135992 31257 net.cpp:136] Top shape: 256 3 227 227 (39574272)
I1219 10:06:21.136008 31257 net.cpp:136] Top shape: 256 (256)
I1219 10:06:21.136018 31257 net.cpp:144] Memory required for data: 158298112
I1219 10:06:21.136042 31257 layer_factory.hpp:77] Creating layer conv1
I1219 10:06:21.136289 31257 net.cpp:84] Creating Layer conv1
I1219 10:06:21.136315 31257 net.cpp:413] conv1 <- data
I1219 10:06:21.136340 31257 net.cpp:387] conv1 -> conv1
I1219 10:06:21.154273 31257 net.cpp:127] Setting up conv1
I1219 10:06:21.154317 31257 net.cpp:136] Top shape: 256 96 55 55 (74342400)
I1219 10:06:21.154328 31257 net.cpp:144] Memory required for data: 455667712
I1219 10:06:21.154361 31257 net.cpp:453] Found INQ layer:conv1, type: INQConvolution, layer id:1
I1219 10:06:21.154382 31257 net.cpp:453] Found INQ layer:conv1, type: INQConvolution, layer id:1
I1219 10:06:21.154402 31257 net.cpp:453] Found INQ layer:conv1, type: INQConvolution, layer id:1
I1219 10:06:21.154414 31257 net.cpp:453] Found INQ layer:conv1, type: INQConvolution, layer id:1
I1219 10:06:21.154423 31257 layer_factory.hpp:77] Creating layer relu1
I1219 10:06:21.154449 31257 net.cpp:84] Creating Layer relu1
I1219 10:06:21.154459 31257 net.cpp:413] relu1 <- conv1
I1219 10:06:21.154472 31257 net.cpp:374] relu1 -> conv1 (in-place)
I1219 10:06:22.088907 31257 net.cpp:127] Setting up relu1
I1219 10:06:22.088968 31257 net.cpp:136] Top shape: 256 96 55 55 (74342400)
I1219 10:06:22.088979 31257 net.cpp:144] Memory required for data: 753037312
I1219 10:06:22.088991 31257 layer_factory.hpp:77] Creating layer norm1
I1219 10:06:22.089026 31257 net.cpp:84] Creating Layer norm1
I1219 10:06:22.089037 31257 net.cpp:413] norm1 <- conv1
I1219 10:06:22.089052 31257 net.cpp:387] norm1 -> norm1
I1219 10:06:22.090952 31257 net.cpp:127] Setting up norm1
I1219 10:06:22.090978 31257 net.cpp:136] Top shape: 256 96 55 55 (74342400)
I1219 10:06:22.090986 31257 net.cpp:144] Memory required for data: 1050406912
I1219 10:06:22.090994 31257 layer_factory.hpp:77] Creating layer pool1
I1219 10:06:22.091013 31257 net.cpp:84] Creating Layer pool1
I1219 10:06:22.091022 31257 net.cpp:413] pool1 <- norm1
I1219 10:06:22.091032 31257 net.cpp:387] pool1 -> pool1
I1219 10:06:22.091104 31257 net.cpp:127] Setting up pool1
I1219 10:06:22.091116 31257 net.cpp:136] Top shape: 256 96 27 27 (17915904)
I1219 10:06:22.091123 31257 net.cpp:144] Memory required for data: 1122070528
I1219 10:06:22.091132 31257 layer_factory.hpp:77] Creating layer conv2
I1219 10:06:22.091154 31257 net.cpp:84] Creating Layer conv2
I1219 10:06:22.091161 31257 net.cpp:413] conv2 <- pool1
I1219 10:06:22.091171 31257 net.cpp:387] conv2 -> conv2
I1219 10:06:22.099630 31257 net.cpp:127] Setting up conv2
I1219 10:06:22.099658 31257 net.cpp:136] Top shape: 256 256 27 27 (47775744)
I1219 10:06:22.099666 31257 net.cpp:144] Memory required for data: 1313173504
I1219 10:06:22.099691 31257 net.cpp:453] Found INQ layer:conv2, type: INQConvolution, layer id:5
I1219 10:06:22.099705 31257 net.cpp:453] Found INQ layer:conv2, type: INQConvolution, layer id:5
I1219 10:06:22.099716 31257 net.cpp:453] Found INQ layer:conv2, type: INQConvolution, layer id:5
I1219 10:06:22.099725 31257 net.cpp:453] Found INQ layer:conv2, type: INQConvolution, layer id:5
I1219 10:06:22.099730 31257 layer_factory.hpp:77] Creating layer relu2
I1219 10:06:22.099743 31257 net.cpp:84] Creating Layer relu2
I1219 10:06:22.099755 31257 net.cpp:413] relu2 <- conv2
I1219 10:06:22.099763 31257 net.cpp:374] relu2 -> conv2 (in-place)
I1219 10:06:22.100034 31257 net.cpp:127] Setting up relu2
I1219 10:06:22.100077 31257 net.cpp:136] Top shape: 256 256 27 27 (47775744)
I1219 10:06:22.100085 31257 net.cpp:144] Memory required for data: 1504276480
I1219 10:06:22.100095 31257 layer_factory.hpp:77] Creating layer norm2
I1219 10:06:22.100107 31257 net.cpp:84] Creating Layer norm2
I1219 10:06:22.100117 31257 net.cpp:413] norm2 <- conv2
I1219 10:06:22.100131 31257 net.cpp:387] norm2 -> norm2
I1219 10:06:22.100440 31257 net.cpp:127] Setting up norm2
I1219 10:06:22.100457 31257 net.cpp:136] Top shape: 256 256 27 27 (47775744)
I1219 10:06:22.100464 31257 net.cpp:144] Memory required for data: 1695379456
I1219 10:06:22.100471 31257 layer_factory.hpp:77] Creating layer pool2
I1219 10:06:22.100487 31257 net.cpp:84] Creating Layer pool2
I1219 10:06:22.100497 31257 net.cpp:413] pool2 <- norm2
I1219 10:06:22.100504 31257 net.cpp:387] pool2 -> pool2
I1219 10:06:22.100553 31257 net.cpp:127] Setting up pool2
I1219 10:06:22.100564 31257 net.cpp:136] Top shape: 256 256 13 13 (11075584)
I1219 10:06:22.100569 31257 net.cpp:144] Memory required for data: 1739681792
I1219 10:06:22.100577 31257 layer_factory.hpp:77] Creating layer conv3
I1219 10:06:22.100594 31257 net.cpp:84] Creating Layer conv3
I1219 10:06:22.100600 31257 net.cpp:413] conv3 <- pool2
I1219 10:06:22.100610 31257 net.cpp:387] conv3 -> conv3
I1219 10:06:22.118535 31257 net.cpp:127] Setting up conv3
I1219 10:06:22.118568 31257 net.cpp:136] Top shape: 256 384 13 13 (16613376)
I1219 10:06:22.118576 31257 net.cpp:144] Memory required for data: 1806135296
I1219 10:06:22.118588 31257 net.cpp:453] Found INQ layer:conv3, type: INQConvolution, layer id:9
I1219 10:06:22.118599 31257 net.cpp:453] Found INQ layer:conv3, type: INQConvolution, layer id:9
I1219 10:06:22.118608 31257 net.cpp:453] Found INQ layer:conv3, type: INQConvolution, layer id:9
I1219 10:06:22.118615 31257 net.cpp:453] Found INQ layer:conv3, type: INQConvolution, layer id:9
I1219 10:06:22.118623 31257 layer_factory.hpp:77] Creating layer relu3
I1219 10:06:22.118635 31257 net.cpp:84] Creating Layer relu3
I1219 10:06:22.118641 31257 net.cpp:413] relu3 <- conv3
I1219 10:06:22.118651 31257 net.cpp:374] relu3 -> conv3 (in-place)
I1219 10:06:22.120191 31257 net.cpp:127] Setting up relu3
I1219 10:06:22.120213 31257 net.cpp:136] Top shape: 256 384 13 13 (16613376)
I1219 10:06:22.120220 31257 net.cpp:144] Memory required for data: 1872588800
I1219 10:06:22.120226 31257 layer_factory.hpp:77] Creating layer conv4
I1219 10:06:22.120247 31257 net.cpp:84] Creating Layer conv4
I1219 10:06:22.120254 31257 net.cpp:413] conv4 <- conv3
I1219 10:06:22.120265 31257 net.cpp:387] conv4 -> conv4
I1219 10:06:22.136862 31257 net.cpp:127] Setting up conv4
I1219 10:06:22.136883 31257 net.cpp:136] Top shape: 256 384 13 13 (16613376)
I1219 10:06:22.136890 31257 net.cpp:144] Memory required for data: 1939042304
I1219 10:06:22.136898 31257 net.cpp:453] Found INQ layer:conv4, type: INQConvolution, layer id:11
I1219 10:06:22.136905 31257 net.cpp:453] Found INQ layer:conv4, type: INQConvolution, layer id:11
I1219 10:06:22.136912 31257 net.cpp:453] Found INQ layer:conv4, type: INQConvolution, layer id:11
I1219 10:06:22.136919 31257 net.cpp:453] Found INQ layer:conv4, type: INQConvolution, layer id:11
I1219 10:06:22.136924 31257 layer_factory.hpp:77] Creating layer relu4
I1219 10:06:22.136934 31257 net.cpp:84] Creating Layer relu4
I1219 10:06:22.136940 31257 net.cpp:413] relu4 <- conv4
I1219 10:06:22.136947 31257 net.cpp:374] relu4 -> conv4 (in-place)
I1219 10:06:22.137176 31257 net.cpp:127] Setting up relu4
I1219 10:06:22.137192 31257 net.cpp:136] Top shape: 256 384 13 13 (16613376)
I1219 10:06:22.137197 31257 net.cpp:144] Memory required for data: 2005495808
I1219 10:06:22.137203 31257 layer_factory.hpp:77] Creating layer conv5
I1219 10:06:22.137217 31257 net.cpp:84] Creating Layer conv5
I1219 10:06:22.137228 31257 net.cpp:413] conv5 <- conv4
I1219 10:06:22.137245 31257 net.cpp:387] conv5 -> conv5
I1219 10:06:22.146067 31257 net.cpp:127] Setting up conv5
I1219 10:06:22.146098 31257 net.cpp:136] Top shape: 256 256 13 13 (11075584)
I1219 10:06:22.146129 31257 net.cpp:144] Memory required for data: 2049798144
I1219 10:06:22.146142 31257 net.cpp:453] Found INQ layer:conv5, type: INQConvolution, layer id:13
I1219 10:06:22.146152 31257 net.cpp:453] Found INQ layer:conv5, type: INQConvolution, layer id:13
I1219 10:06:22.146159 31257 net.cpp:453] Found INQ layer:conv5, type: INQConvolution, layer id:13
I1219 10:06:22.146167 31257 net.cpp:453] Found INQ layer:conv5, type: INQConvolution, layer id:13
I1219 10:06:22.146173 31257 layer_factory.hpp:77] Creating layer relu5
I1219 10:06:22.146184 31257 net.cpp:84] Creating Layer relu5
I1219 10:06:22.146195 31257 net.cpp:413] relu5 <- conv5
I1219 10:06:22.146209 31257 net.cpp:374] relu5 -> conv5 (in-place)
I1219 10:06:22.146467 31257 net.cpp:127] Setting up relu5
I1219 10:06:22.146484 31257 net.cpp:136] Top shape: 256 256 13 13 (11075584)
I1219 10:06:22.146492 31257 net.cpp:144] Memory required for data: 2094100480
I1219 10:06:22.146497 31257 layer_factory.hpp:77] Creating layer pool5
I1219 10:06:22.146508 31257 net.cpp:84] Creating Layer pool5
I1219 10:06:22.146518 31257 net.cpp:413] pool5 <- conv5
I1219 10:06:22.146531 31257 net.cpp:387] pool5 -> pool5
I1219 10:06:22.146606 31257 net.cpp:127] Setting up pool5
I1219 10:06:22.146622 31257 net.cpp:136] Top shape: 256 256 6 6 (2359296)
I1219 10:06:22.146632 31257 net.cpp:144] Memory required for data: 2103537664
I1219 10:06:22.146642 31257 layer_factory.hpp:77] Creating layer fc6
I1219 10:06:22.146667 31257 net.cpp:84] Creating Layer fc6
I1219 10:06:22.146674 31257 net.cpp:413] fc6 <- pool5
I1219 10:06:22.146684 31257 net.cpp:387] fc6 -> fc6
I1219 10:06:22.768299 31257 net.cpp:127] Setting up fc6
I1219 10:06:22.768360 31257 net.cpp:136] Top shape: 256 4096 (1048576)
I1219 10:06:22.768368 31257 net.cpp:144] Memory required for data: 2107731968
I1219 10:06:22.768381 31257 net.cpp:453] Found INQ layer:fc6, type: INQInnerProduct, layer id:16
I1219 10:06:22.768390 31257 net.cpp:453] Found INQ layer:fc6, type: INQInnerProduct, layer id:16
I1219 10:06:22.768399 31257 net.cpp:453] Found INQ layer:fc6, type: INQInnerProduct, layer id:16
I1219 10:06:22.768404 31257 net.cpp:453] Found INQ layer:fc6, type: INQInnerProduct, layer id:16
I1219 10:06:22.768409 31257 layer_factory.hpp:77] Creating layer relu6
I1219 10:06:22.768426 31257 net.cpp:84] Creating Layer relu6
I1219 10:06:22.768435 31257 net.cpp:413] relu6 <- fc6
I1219 10:06:22.768443 31257 net.cpp:374] relu6 -> fc6 (in-place)
I1219 10:06:22.768757 31257 net.cpp:127] Setting up relu6
I1219 10:06:22.768772 31257 net.cpp:136] Top shape: 256 4096 (1048576)
I1219 10:06:22.768779 31257 net.cpp:144] Memory required for data: 2111926272
I1219 10:06:22.768790 31257 layer_factory.hpp:77] Creating layer drop6
I1219 10:06:22.768805 31257 net.cpp:84] Creating Layer drop6
I1219 10:06:22.768810 31257 net.cpp:413] drop6 <- fc6
I1219 10:06:22.768818 31257 net.cpp:374] drop6 -> fc6 (in-place)
I1219 10:06:22.768854 31257 net.cpp:127] Setting up drop6
I1219 10:06:22.768868 31257 net.cpp:136] Top shape: 256 4096 (1048576)
I1219 10:06:22.768877 31257 net.cpp:144] Memory required for data: 2116120576
I1219 10:06:22.768888 31257 layer_factory.hpp:77] Creating layer fc7
I1219 10:06:22.768910 31257 net.cpp:84] Creating Layer fc7
I1219 10:06:22.768921 31257 net.cpp:413] fc7 <- fc6
I1219 10:06:22.768934 31257 net.cpp:387] fc7 -> fc7
I1219 10:06:23.046743 31257 net.cpp:127] Setting up fc7
I1219 10:06:23.046804 31257 net.cpp:136] Top shape: 256 4096 (1048576)
I1219 10:06:23.046811 31257 net.cpp:144] Memory required for data: 2120314880
I1219 10:06:23.046824 31257 net.cpp:453] Found INQ layer:fc7, type: INQInnerProduct, layer id:19
I1219 10:06:23.046834 31257 net.cpp:453] Found INQ layer:fc7, type: INQInnerProduct, layer id:19
I1219 10:06:23.046841 31257 net.cpp:453] Found INQ layer:fc7, type: INQInnerProduct, layer id:19
I1219 10:06:23.046849 31257 net.cpp:453] Found INQ layer:fc7, type: INQInnerProduct, layer id:19
I1219 10:06:23.046854 31257 layer_factory.hpp:77] Creating layer relu7
I1219 10:06:23.046885 31257 net.cpp:84] Creating Layer relu7
I1219 10:06:23.046931 31257 net.cpp:413] relu7 <- fc7
I1219 10:06:23.046948 31257 net.cpp:374] relu7 -> fc7 (in-place)
I1219 10:06:23.048606 31257 net.cpp:127] Setting up relu7
I1219 10:06:23.048627 31257 net.cpp:136] Top shape: 256 4096 (1048576)
I1219 10:06:23.048633 31257 net.cpp:144] Memory required for data: 2124509184
I1219 10:06:23.048640 31257 layer_factory.hpp:77] Creating layer drop7
I1219 10:06:23.048650 31257 net.cpp:84] Creating Layer drop7
I1219 10:06:23.048656 31257 net.cpp:413] drop7 <- fc7
I1219 10:06:23.048666 31257 net.cpp:374] drop7 -> fc7 (in-place)
I1219 10:06:23.048702 31257 net.cpp:127] Setting up drop7
I1219 10:06:23.048717 31257 net.cpp:136] Top shape: 256 4096 (1048576)
I1219 10:06:23.048728 31257 net.cpp:144] Memory required for data: 2128703488
I1219 10:06:23.048741 31257 layer_factory.hpp:77] Creating layer fc8
I1219 10:06:23.048768 31257 net.cpp:84] Creating Layer fc8
I1219 10:06:23.048777 31257 net.cpp:413] fc8 <- fc7
I1219 10:06:23.048789 31257 net.cpp:387] fc8 -> fc8
I1219 10:06:23.117933 31257 net.cpp:127] Setting up fc8
I1219 10:06:23.117971 31257 net.cpp:136] Top shape: 256 1000 (256000)
I1219 10:06:23.117979 31257 net.cpp:144] Memory required for data: 2129727488
I1219 10:06:23.117990 31257 net.cpp:453] Found INQ layer:fc8, type: INQInnerProduct, layer id:22
I1219 10:06:23.117998 31257 net.cpp:453] Found INQ layer:fc8, type: INQInnerProduct, layer id:22
I1219 10:06:23.118005 31257 net.cpp:453] Found INQ layer:fc8, type: INQInnerProduct, layer id:22
I1219 10:06:23.118011 31257 net.cpp:453] Found INQ layer:fc8, type: INQInnerProduct, layer id:22
…
I1219 10:06:23.121667 31257 net.cpp:301] The NetState phase (1) differed from the phase (0) specified by a rule in layer data
I1219 10:06:23.122058 31257 net.cpp:51] Initializing net from parameters: 
name: "AlexNet"
state {
  phase: TEST
}
layer {
  name: "data"
  type: "Data"
  top: "data"
  top: "label"
  include {
    phase: TEST
  }
  transform_param {
    mirror: false
    crop_size: 227
    mean_file: "/home/data/caffe-imagenet/imagenet_mean.binaryproto"
  }
  data_param {
    source: "/home/data/caffe-imagenet/ilsvrc12_val_lmdb"
    batch_size: 50
    backend: LMDB
  }
}
layer {
  name: "conv1"
  type: "INQConvolution"
  bottom: "data"
  top: "conv1"
  param {
    lr_mult: 1
    decay_mult: 1
  }
  param {
    lr_mult: 2
    decay_mult: 0
  }
  convolution_param {
    num_output: 96
    kernel_size: 11
    stride: 4
    weight_filler {
      type: "gaussian"
      std: 0.01
    }
    bias_filler {
      type: "constant"
      value: 0
    }
  }
  inq_convolution_param {
    portion: 0
    portion: 0.3
    weight_mask_filler {
      type: "constant"
      value: 1
    }
    bias_mask_filler {
      type: "constant"
      value: 1
    }
    num_quantum_values: 7
  }
}
layer {
  name: "relu1"
  type: "ReLU"
  bottom: "conv1"
  top: "conv1"
}
layer {
  name: "norm1"
  type: "LRN"
  bottom: "conv1"
  top: "norm1"
  lrn_param {
    local_size: 5
    alpha: 0.0001
    beta: 0.75
  }
}
layer {
  name: "pool1"
  type: "Pooling"
  bottom: "norm1"
  top: "pool1"
  pooling_param {
    pool: MAX
    kernel_size: 3
    stride: 2
  }
}
layer {
  name: "conv2"
  type: "INQConvolution"
  bottom: "pool1"
  top: "conv2"
  param {
    lr_mult: 1
    decay_mult: 1
  }
  param {
    lr_mult: 2
    decay_mult: 0
  }
  convolution_param {
    num_output: 256
    pad: 2
    kernel_size: 5
    group: 2
    weight_filler {
      type: "gaussian"
      std: 0.01
    }
    bias_filler {
      type: "constant"
      value: 0.1
    }
  }
  inq_convolution_param {
    portion: 0
    portion: 0.3
    weight_mask_filler {
      type: "constant"
      value: 1
    }
    bias_mask_filler {
      type: "constant"
      value: 1
    }
    num_quantum_values: 7
  }
}
layer {
  name: "relu2"
  type: "ReLU"
  bottom: "conv2"
  top: "conv2"
}
layer {
  name: "norm2"
  type: "LRN"
  bottom: "conv2"
  top: "norm2"
  lrn_param {
    local_size: 5
    alpha: 0.0001
    beta: 0.75
  }
}
layer {
  name: "pool2"
  type: "Pooling"
  bottom: "norm2"
  top: "pool2"
  pooling_param {
    pool: MAX
    kernel_size: 3
    stride: 2
  }
}
layer {
  name: "conv3"
  type: "INQConvolution"
  bottom: "pool2"
  top: "conv3"
  param {
    lr_mult: 1
    decay_mult: 1
  }
  param {
    lr_mult: 2
    decay_mult: 0
  }
  convolution_param {
    num_output: 384
    pad: 1
    kernel_size: 3
    weight_filler {
      type: "gaussian"
      std: 0.01
    }
    bias_filler {
      type: "constant"
      value: 0
    }
  }
  inq_convolution_param {
    portion: 0
    portion: 0.3
    weight_mask_filler {
      type: "constant"
      value: 1
    }
    bias_mask_filler {
      type: "constant"
      value: 1
    }
    num_quantum_values: 7
  }
}
layer {
  name: "relu3"
  type: "ReLU"
  bottom: "conv3"
  top: "conv3"
}
layer {
  name: "conv4"
  type: "INQConvolution"
  bottom: "conv3"
  top: "conv4"
  param {
    lr_mult: 1
    decay_mult: 1
  }
  param {
    lr_mult: 2
    decay_mult: 0
  }
  convolution_param {
    num_output: 384
    pad: 1
    kernel_size: 3
    group: 2
    weight_filler {
      type: "gaussian"
      std: 0.01
    }
    bias_filler {
      type: "constant"
      value: 0.1
    }
  }
  inq_convolution_param {
    portion: 0
    portion: 0.3
    weight_mask_filler {
      type: "constant"
      value: 1
    }
    bias_mask_filler {
      type: "constant"
      value: 1
    }
    num_quantum_values: 7
  }
}
layer {
  name: "relu4"
  type: "ReLU"
  bottom: "conv4"
  top: "conv4"
}
layer {
  name: "conv5"
  type: "INQConvolution"
  bottom: "conv4"
  top: "conv5"
  param {
    lr_mult: 1
    decay_mult: 1
  }
  param {
    lr_mult: 2
    decay_mult: 0
  }
  convolution_param {
    num_output: 256
    pad: 1
    kernel_size: 3
    group: 2
    weight_filler {
      type: "gaussian"
      std: 0.01
    }
    bias_filler {
      type: "constant"
      value: 0.1
    }
  }
  inq_convolution_param {
    portion: 0
    portion: 0.3
    weight_mask_filler {
      type: "constant"
      value: 1
    }
    bias_mask_filler {
      type: "constant"
      value: 1
    }
    num_quantum_values: 7
  }
}
layer {
  name: "relu5"
  type: "ReLU"
  bottom: "conv5"
  top: "conv5"
}
layer {
  name: "pool5"
  type: "Pooling"
  bottom: "conv5"
  top: "pool5"
  pooling_param {
    pool: MAX
    kernel_size: 3
    stride: 2
  }
}
layer {
  name: "fc6"
  type: "INQInnerProduct"
  bottom: "pool5"
  top: "fc6"
  param {
    lr_mult: 1
    decay_mult: 1
  }
  param {
    lr_mult: 2
    decay_mult: 0
  }
  inner_product_param {
    num_output: 4096
    weight_filler {
      type: "gaussian"
      std: 0.005
    }
    bias_filler {
      type: "constant"
      value: 0.1
    }
  }
  inq_inner_product_param {
    portion: 0
    portion: 0.3
    weight_mask_filler {
      type: "constant"
      value: 1
    }
    bias_mask_filler {
      type: "constant"
      value: 1
    }
    num_quantum_values: 7
  }
}
layer {
  name: "relu6"
  type: "ReLU"
  bottom: "fc6"
  top: "fc6"
}
layer {
  name: "drop6"
  type: "Dropout"
  bottom: "fc6"
  top: "fc6"
  dropout_param {
    dropout_ratio: 0.5
  }
}
layer {
  name: "fc7"
  type: "INQInnerProduct"
  bottom: "fc6"
  top: "fc7"
  param {
    lr_mult: 1
    decay_mult: 1
  }
  param {
    lr_mult: 2
    decay_mult: 0
  }
  inner_product_param {
    num_output: 4096
    weight_filler {
      type: "gaussian"
      std: 0.005
    }
    bias_filler {
      type: "constant"
      value: 0.1
    }
  }
  inq_inner_product_param {
    portion: 0
    portion: 0.3
    weight_mask_filler {
      type: "constant"
      value: 1
    }
    bias_mask_filler {
      type: "constant"
      value: 1
    }
    num_quantum_values: 7
  }
}
layer {
  name: "relu7"
  type: "ReLU"
  bottom: "fc7"
  top: "fc7"
}
layer {
  name: "drop7"
  type: "Dropout"
  bottom: "fc7"
  top: "fc7"
  dropout_param {
    dropout_ratio: 0.5
  }
}
layer {
  name: "fc8"
  type: "INQInnerProduct"
  bottom: "fc7"
  top: "fc8"
  param {
    lr_mult: 1
    decay_mult: 1
  }
  param {
    lr_mult: 2
    decay_mult: 0
  }
  inner_product_param {
    num_output: 1000
    weight_filler {
      type: "gaussian"
      std: 0.01
    }
    bias_filler {
      type: "constant"
      value: 0
    }
  }
  inq_inner_product_param {
    portion: 0
    portion: 0.3
    weight_mask_filler {
      type: "constant"
      value: 1
    }
    bias_mask_filler {
      type: "constant"
      value: 1
    }
    num_quantum_values: 7
  }
}
layer {
  name: "accuracy_top1"
  type: "Accuracy"
  bottom: "fc8"
  bottom: "label"
  top: "accuracy_top1"
  include {
    phase: TEST
  }
  accuracy_param {
    top_k: 1
  }
}
layer {
  name: "accuracy_top5"
  type: "Accuracy"
  bottom: "fc8"
  bottom: "label"
  top: "accuracy_top5"
  include {
    phase: TEST
  }
  accuracy_param {
    top_k: 5
  }
}
layer {
  name: "loss"
  type: "SoftmaxWithLoss"
  bottom: "fc8"
  bottom: "label"
  top: "loss"
}
I1219 10:06:23.122229 31257 layer_factory.hpp:77] Creating layer data
I1219 10:06:23.128880 31257 db_lmdb.cpp:35] Opened lmdb /home/data/caffe-imagenet/ilsvrc12_val_lmdb
I1219 10:06:23.128913 31257 net.cpp:84] Creating Layer data
I1219 10:06:23.128926 31257 net.cpp:387] data -> data
I1219 10:06:23.128940 31257 net.cpp:387] data -> label
I1219 10:06:23.128952 31257 data_transformer.cpp:25] Loading mean file from: /home/data/caffe-imagenet/imagenet_mean.binaryproto
I1219 10:06:23.131147 31257 data_layer.cpp:45] output data size: 50,3,227,227
I1219 10:06:23.221931 31257 net.cpp:127] Setting up data
I1219 10:06:23.221993 31257 net.cpp:136] Top shape: 50 3 227 227 (7729350)
I1219 10:06:23.222029 31257 net.cpp:136] Top shape: 50 (50)
I1219 10:06:23.222038 31257 net.cpp:144] Memory required for data: 30917600
I1219 10:06:23.222048 31257 layer_factory.hpp:77] Creating layer label_data_1_split
I1219 10:06:23.222070 31257 net.cpp:84] Creating Layer label_data_1_split
I1219 10:06:23.222079 31257 net.cpp:413] label_data_1_split <- label
I1219 10:06:23.222090 31257 net.cpp:387] label_data_1_split -> label_data_1_split_0
I1219 10:06:23.222105 31257 net.cpp:387] label_data_1_split -> label_data_1_split_1
I1219 10:06:23.222112 31257 net.cpp:387] label_data_1_split -> label_data_1_split_2
I1219 10:06:23.222209 31257 net.cpp:127] Setting up label_data_1_split
I1219 10:06:23.222219 31257 net.cpp:136] Top shape: 50 (50)
I1219 10:06:23.222226 31257 net.cpp:136] Top shape: 50 (50)
I1219 10:06:23.222232 31257 net.cpp:136] Top shape: 50 (50)
I1219 10:06:23.222236 31257 net.cpp:144] Memory required for data: 30918200
I1219 10:06:23.222242 31257 layer_factory.hpp:77] Creating layer conv1
I1219 10:06:23.222260 31257 net.cpp:84] Creating Layer conv1
I1219 10:06:23.222268 31257 net.cpp:413] conv1 <- data
I1219 10:06:23.222280 31257 net.cpp:387] conv1 -> conv1
I1219 10:06:23.223220 31257 net.cpp:127] Setting up conv1
I1219 10:06:23.223237 31257 net.cpp:136] Top shape: 50 96 55 55 (14520000)
I1219 10:06:23.223242 31257 net.cpp:144] Memory required for data: 88998200
I1219 10:06:23.223251 31257 net.cpp:453] Found INQ layer:conv1, type: INQConvolution, layer id:2
I1219 10:06:23.223263 31257 net.cpp:453] Found INQ layer:conv1, type: INQConvolution, layer id:2
I1219 10:06:23.223271 31257 net.cpp:453] Found INQ layer:conv1, type: INQConvolution, layer id:2
I1219 10:06:23.223279 31257 net.cpp:453] Found INQ layer:conv1, type: INQConvolution, layer id:2
I1219 10:06:23.223290 31257 layer_factory.hpp:77] Creating layer relu1
I1219 10:06:23.223300 31257 net.cpp:84] Creating Layer relu1
I1219 10:06:23.223309 31257 net.cpp:413] relu1 <- conv1
I1219 10:06:23.223315 31257 net.cpp:374] relu1 -> conv1 (in-place)
I1219 10:06:23.223568 31257 net.cpp:127] Setting up relu1
I1219 10:06:23.223580 31257 net.cpp:136] Top shape: 50 96 55 55 (14520000)
I1219 10:06:23.223587 31257 net.cpp:144] Memory required for data: 147078200
I1219 10:06:23.223592 31257 layer_factory.hpp:77] Creating layer norm1
I1219 10:06:23.223604 31257 net.cpp:84] Creating Layer norm1
I1219 10:06:23.223613 31257 net.cpp:413] norm1 <- conv1
I1219 10:06:23.223620 31257 net.cpp:387] norm1 -> norm1
I1219 10:06:23.223867 31257 net.cpp:127] Setting up norm1
I1219 10:06:23.223879 31257 net.cpp:136] Top shape: 50 96 55 55 (14520000)
I1219 10:06:23.223886 31257 net.cpp:144] Memory required for data: 205158200
I1219 10:06:23.223891 31257 layer_factory.hpp:77] Creating layer pool1
I1219 10:06:23.223902 31257 net.cpp:84] Creating Layer pool1
I1219 10:06:23.223909 31257 net.cpp:413] pool1 <- norm1
I1219 10:06:23.223917 31257 net.cpp:387] pool1 -> pool1
I1219 10:06:23.223960 31257 net.cpp:127] Setting up pool1
I1219 10:06:23.223969 31257 net.cpp:136] Top shape: 50 96 27 27 (3499200)
I1219 10:06:23.223975 31257 net.cpp:144] Memory required for data: 219155000
I1219 10:06:23.223981 31257 layer_factory.hpp:77] Creating layer conv2
I1219 10:06:23.223995 31257 net.cpp:84] Creating Layer conv2
I1219 10:06:23.224004 31257 net.cpp:413] conv2 <- pool1
I1219 10:06:23.224012 31257 net.cpp:387] conv2 -> conv2
I1219 10:06:23.231118 31257 net.cpp:127] Setting up conv2
I1219 10:06:23.231139 31257 net.cpp:136] Top shape: 50 256 27 27 (9331200)
I1219 10:06:23.231145 31257 net.cpp:144] Memory required for data: 256479800
I1219 10:06:23.231155 31257 net.cpp:453] Found INQ layer:conv2, type: INQConvolution, layer id:6
I1219 10:06:23.231165 31257 net.cpp:453] Found INQ layer:conv2, type: INQConvolution, layer id:6
I1219 10:06:23.231173 31257 net.cpp:453] Found INQ layer:conv2, type: INQConvolution, layer id:6
I1219 10:06:23.231179 31257 net.cpp:453] Found INQ layer:conv2, type: INQConvolution, layer id:6
I1219 10:06:23.231194 31257 layer_factory.hpp:77] Creating layer relu2
I1219 10:06:23.231204 31257 net.cpp:84] Creating Layer relu2
I1219 10:06:23.231222 31257 net.cpp:413] relu2 <- conv2
I1219 10:06:23.231230 31257 net.cpp:374] relu2 -> conv2 (in-place)
I1219 10:06:23.232658 31257 net.cpp:127] Setting up relu2
I1219 10:06:23.232677 31257 net.cpp:136] Top shape: 50 256 27 27 (9331200)
I1219 10:06:23.232683 31257 net.cpp:144] Memory required for data: 293804600
I1219 10:06:23.232689 31257 layer_factory.hpp:77] Creating layer norm2
I1219 10:06:23.232702 31257 net.cpp:84] Creating Layer norm2
I1219 10:06:23.232708 31257 net.cpp:413] norm2 <- conv2
I1219 10:06:23.232717 31257 net.cpp:387] norm2 -> norm2
I1219 10:06:23.232951 31257 net.cpp:127] Setting up norm2
I1219 10:06:23.232964 31257 net.cpp:136] Top shape: 50 256 27 27 (9331200)
I1219 10:06:23.232971 31257 net.cpp:144] Memory required for data: 331129400
I1219 10:06:23.232977 31257 layer_factory.hpp:77] Creating layer pool2
I1219 10:06:23.232986 31257 net.cpp:84] Creating Layer pool2
I1219 10:06:23.232992 31257 net.cpp:413] pool2 <- norm2
I1219 10:06:23.233007 31257 net.cpp:387] pool2 -> pool2
I1219 10:06:23.233052 31257 net.cpp:127] Setting up pool2
I1219 10:06:23.233062 31257 net.cpp:136] Top shape: 50 256 13 13 (2163200)
I1219 10:06:23.233067 31257 net.cpp:144] Memory required for data: 339782200
I1219 10:06:23.233072 31257 layer_factory.hpp:77] Creating layer conv3
I1219 10:06:23.233083 31257 net.cpp:84] Creating Layer conv3
I1219 10:06:23.233089 31257 net.cpp:413] conv3 <- pool2
I1219 10:06:23.233098 31257 net.cpp:387] conv3 -> conv3
I1219 10:06:23.248970 31257 net.cpp:127] Setting up conv3
I1219 10:06:23.248992 31257 net.cpp:136] Top shape: 50 384 13 13 (3244800)
I1219 10:06:23.248998 31257 net.cpp:144] Memory required for data: 352761400
I1219 10:06:23.249008 31257 net.cpp:453] Found INQ layer:conv3, type: INQConvolution, layer id:10
I1219 10:06:23.249019 31257 net.cpp:453] Found INQ layer:conv3, type: INQConvolution, layer id:10
I1219 10:06:23.249028 31257 net.cpp:453] Found INQ layer:conv3, type: INQConvolution, layer id:10
I1219 10:06:23.249034 31257 net.cpp:453] Found INQ layer:conv3, type: INQConvolution, layer id:10
I1219 10:06:23.249039 31257 layer_factory.hpp:77] Creating layer relu3
I1219 10:06:23.249047 31257 net.cpp:84] Creating Layer relu3
I1219 10:06:23.249053 31257 net.cpp:413] relu3 <- conv3
I1219 10:06:23.249061 31257 net.cpp:374] relu3 -> conv3 (in-place)
I1219 10:06:23.249279 31257 net.cpp:127] Setting up relu3
I1219 10:06:23.249300 31257 net.cpp:136] Top shape: 50 384 13 13 (3244800)
I1219 10:06:23.249305 31257 net.cpp:144] Memory required for data: 365740600
I1219 10:06:23.249310 31257 layer_factory.hpp:77] Creating layer conv4
I1219 10:06:23.249322 31257 net.cpp:84] Creating Layer conv4
I1219 10:06:23.249328 31257 net.cpp:413] conv4 <- conv3
I1219 10:06:23.249338 31257 net.cpp:387] conv4 -> conv4
I1219 10:06:23.261553 31257 net.cpp:127] Setting up conv4
I1219 10:06:23.261575 31257 net.cpp:136] Top shape: 50 384 13 13 (3244800)
I1219 10:06:23.261581 31257 net.cpp:144] Memory required for data: 378719800
I1219 10:06:23.261590 31257 net.cpp:453] Found INQ layer:conv4, type: INQConvolution, layer id:12
I1219 10:06:23.261597 31257 net.cpp:453] Found INQ layer:conv4, type: INQConvolution, layer id:12
I1219 10:06:23.261605 31257 net.cpp:453] Found INQ layer:conv4, type: INQConvolution, layer id:12
I1219 10:06:23.261610 31257 net.cpp:453] Found INQ layer:conv4, type: INQConvolution, layer id:12
I1219 10:06:23.261615 31257 layer_factory.hpp:77] Creating layer relu4
I1219 10:06:23.261624 31257 net.cpp:84] Creating Layer relu4
I1219 10:06:23.261631 31257 net.cpp:413] relu4 <- conv4
I1219 10:06:23.261638 31257 net.cpp:374] relu4 -> conv4 (in-place)
I1219 10:06:23.263011 31257 net.cpp:127] Setting up relu4
I1219 10:06:23.263031 31257 net.cpp:136] Top shape: 50 384 13 13 (3244800)
I1219 10:06:23.263037 31257 net.cpp:144] Memory required for data: 391699000
I1219 10:06:23.263043 31257 layer_factory.hpp:77] Creating layer conv5
I1219 10:06:23.263056 31257 net.cpp:84] Creating Layer conv5
I1219 10:06:23.263068 31257 net.cpp:413] conv5 <- conv4
I1219 10:06:23.263092 31257 net.cpp:387] conv5 -> conv5
I1219 10:06:23.271977 31257 net.cpp:127] Setting up conv5
I1219 10:06:23.271998 31257 net.cpp:136] Top shape: 50 256 13 13 (2163200)
I1219 10:06:23.272004 31257 net.cpp:144] Memory required for data: 400351800
I1219 10:06:23.272014 31257 net.cpp:453] Found INQ layer:conv5, type: INQConvolution, layer id:14
I1219 10:06:23.272027 31257 net.cpp:453] Found INQ layer:conv5, type: INQConvolution, layer id:14
I1219 10:06:23.272033 31257 net.cpp:453] Found INQ layer:conv5, type: INQConvolution, layer id:14
I1219 10:06:23.272039 31257 net.cpp:453] Found INQ layer:conv5, type: INQConvolution, layer id:14
I1219 10:06:23.272045 31257 layer_factory.hpp:77] Creating layer relu5
I1219 10:06:23.272053 31257 net.cpp:84] Creating Layer relu5
I1219 10:06:23.272059 31257 net.cpp:413] relu5 <- conv5
I1219 10:06:23.272068 31257 net.cpp:374] relu5 -> conv5 (in-place)
I1219 10:06:23.272290 31257 net.cpp:127] Setting up relu5
I1219 10:06:23.272303 31257 net.cpp:136] Top shape: 50 256 13 13 (2163200)
I1219 10:06:23.272310 31257 net.cpp:144] Memory required for data: 409004600
I1219 10:06:23.272315 31257 layer_factory.hpp:77] Creating layer pool5
I1219 10:06:23.272327 31257 net.cpp:84] Creating Layer pool5
I1219 10:06:23.272333 31257 net.cpp:413] pool5 <- conv5
I1219 10:06:23.272341 31257 net.cpp:387] pool5 -> pool5
I1219 10:06:23.272392 31257 net.cpp:127] Setting up pool5
I1219 10:06:23.272403 31257 net.cpp:136] Top shape: 50 256 6 6 (460800)
I1219 10:06:23.272408 31257 net.cpp:144] Memory required for data: 410847800
I1219 10:06:23.272413 31257 layer_factory.hpp:77] Creating layer fc6
I1219 10:06:23.272425 31257 net.cpp:84] Creating Layer fc6
I1219 10:06:23.272440 31257 net.cpp:413] fc6 <- pool5
I1219 10:06:23.272449 31257 net.cpp:387] fc6 -> fc6
I1219 10:06:23.893440 31257 net.cpp:127] Setting up fc6
I1219 10:06:23.893503 31257 net.cpp:136] Top shape: 50 4096 (204800)
I1219 10:06:23.893512 31257 net.cpp:144] Memory required for data: 411667000
I1219 10:06:23.893523 31257 net.cpp:453] Found INQ layer:fc6, type: INQInnerProduct, layer id:17
I1219 10:06:23.893532 31257 net.cpp:453] Found INQ layer:fc6, type: INQInnerProduct, layer id:17
I1219 10:06:23.893539 31257 net.cpp:453] Found INQ layer:fc6, type: INQInnerProduct, layer id:17
I1219 10:06:23.893545 31257 net.cpp:453] Found INQ layer:fc6, type: INQInnerProduct, layer id:17
I1219 10:06:23.893551 31257 layer_factory.hpp:77] Creating layer relu6
I1219 10:06:23.893566 31257 net.cpp:84] Creating Layer relu6
I1219 10:06:23.893573 31257 net.cpp:413] relu6 <- fc6
I1219 10:06:23.893584 31257 net.cpp:374] relu6 -> fc6 (in-place)
I1219 10:06:23.893893 31257 net.cpp:127] Setting up relu6
I1219 10:06:23.893905 31257 net.cpp:136] Top shape: 50 4096 (204800)
I1219 10:06:23.893911 31257 net.cpp:144] Memory required for data: 412486200
I1219 10:06:23.893918 31257 layer_factory.hpp:77] Creating layer drop6
I1219 10:06:23.893927 31257 net.cpp:84] Creating Layer drop6
I1219 10:06:23.893934 31257 net.cpp:413] drop6 <- fc6
I1219 10:06:23.893942 31257 net.cpp:374] drop6 -> fc6 (in-place)
I1219 10:06:23.893980 31257 net.cpp:127] Setting up drop6
I1219 10:06:23.893987 31257 net.cpp:136] Top shape: 50 4096 (204800)
I1219 10:06:23.893992 31257 net.cpp:144] Memory required for data: 413305400
I1219 10:06:23.893997 31257 layer_factory.hpp:77] Creating layer fc7
I1219 10:06:23.894011 31257 net.cpp:84] Creating Layer fc7
I1219 10:06:23.894016 31257 net.cpp:413] fc7 <- fc6
I1219 10:06:23.894026 31257 net.cpp:387] fc7 -> fc7
I1219 10:06:24.171332 31257 net.cpp:127] Setting up fc7
I1219 10:06:24.171387 31257 net.cpp:136] Top shape: 50 4096 (204800)
I1219 10:06:24.171396 31257 net.cpp:144] Memory required for data: 414124600
I1219 10:06:24.171407 31257 net.cpp:453] Found INQ layer:fc7, type: INQInnerProduct, layer id:20
I1219 10:06:24.171416 31257 net.cpp:453] Found INQ layer:fc7, type: INQInnerProduct, layer id:20
I1219 10:06:24.171424 31257 net.cpp:453] Found INQ layer:fc7, type: INQInnerProduct, layer id:20
I1219 10:06:24.171447 31257 net.cpp:453] Found INQ layer:fc7, type: INQInnerProduct, layer id:20
I1219 10:06:24.171479 31257 layer_factory.hpp:77] Creating layer relu7
I1219 10:06:24.171494 31257 net.cpp:84] Creating Layer relu7
I1219 10:06:24.171502 31257 net.cpp:413] relu7 <- fc7
I1219 10:06:24.171512 31257 net.cpp:374] relu7 -> fc7 (in-place)
I1219 10:06:24.171818 31257 net.cpp:127] Setting up relu7
I1219 10:06:24.171829 31257 net.cpp:136] Top shape: 50 4096 (204800)
I1219 10:06:24.171835 31257 net.cpp:144] Memory required for data: 414943800
I1219 10:06:24.171841 31257 layer_factory.hpp:77] Creating layer drop7
I1219 10:06:24.171851 31257 net.cpp:84] Creating Layer drop7
I1219 10:06:24.171856 31257 net.cpp:413] drop7 <- fc7
I1219 10:06:24.171864 31257 net.cpp:374] drop7 -> fc7 (in-place)
I1219 10:06:24.171901 31257 net.cpp:127] Setting up drop7
I1219 10:06:24.171911 31257 net.cpp:136] Top shape: 50 4096 (204800)
I1219 10:06:24.171916 31257 net.cpp:144] Memory required for data: 415763000
I1219 10:06:24.171921 31257 layer_factory.hpp:77] Creating layer fc8
I1219 10:06:24.171934 31257 net.cpp:84] Creating Layer fc8
I1219 10:06:24.171939 31257 net.cpp:413] fc8 <- fc7
I1219 10:06:24.171949 31257 net.cpp:387] fc8 -> fc8
I1219 10:06:24.240916 31257 net.cpp:127] Setting up fc8
I1219 10:06:24.240954 31257 net.cpp:136] Top shape: 50 1000 (50000)
I1219 10:06:24.240962 31257 net.cpp:144] Memory required for data: 415963000
I1219 10:06:24.240972 31257 net.cpp:453] Found INQ layer:fc8, type: INQInnerProduct, layer id:23
I1219 10:06:24.240980 31257 net.cpp:453] Found INQ layer:fc8, type: INQInnerProduct, layer id:23
I1219 10:06:24.240988 31257 net.cpp:453] Found INQ layer:fc8, type: INQInnerProduct, layer id:23
I1219 10:06:24.240994 31257 net.cpp:453] Found INQ layer:fc8, type: INQInnerProduct, layer id:23
I1219 10:06:24.240999 31257 layer_factory.hpp:77] Creating layer fc8_fc8_0_split
I1219 10:06:24.241011 31257 net.cpp:84] Creating Layer fc8_fc8_0_split
I1219 10:06:24.241019 31257 net.cpp:413] fc8_fc8_0_split <- fc8
I1219 10:06:24.241029 31257 net.cpp:387] fc8_fc8_0_split -> fc8_fc8_0_split_0
I1219 10:06:24.241040 31257 net.cpp:387] fc8_fc8_0_split -> fc8_fc8_0_split_1
I1219 10:06:24.241050 31257 net.cpp:387] fc8_fc8_0_split -> fc8_fc8_0_split_2
I1219 10:06:24.241114 31257 net.cpp:127] Setting up fc8_fc8_0_split
I1219 10:06:24.241123 31257 net.cpp:136] Top shape: 50 1000 (50000)
I1219 10:06:24.241129 31257 net.cpp:136] Top shape: 50 1000 (50000)
I1219 10:06:24.241135 31257 net.cpp:136] Top shape: 50 1000 (50000)
I1219 10:06:24.241139 31257 net.cpp:144] Memory required for data: 416563000
I1219 10:06:24.241144 31257 layer_factory.hpp:77] Creating layer accuracy_top1
I1219 10:06:24.241164 31257 net.cpp:84] Creating Layer accuracy_top1
I1219 10:06:24.241170 31257 net.cpp:413] accuracy_top1 <- fc8_fc8_0_split_0
I1219 10:06:24.241178 31257 net.cpp:413] accuracy_top1 <- label_data_1_split_0
I1219 10:06:24.241185 31257 net.cpp:387] accuracy_top1 -> accuracy_top1
…
