…
I1209 17:02:34.223549 45785 net.cpp:301] The NetState phase (0) differed from the phase (1) specified by a rule in layer accuracy_top5
I1209 17:02:34.223922 45785 net.cpp:51] Initializing net from parameters: 
name: "AlexNet"
state {
  phase: TRAIN
  level: 0
  stage: ""
}
layer {
  name: "data"
  type: "Data"
  top: "data"
  top: "label"
  include {
    phase: TRAIN
  }
  transform_param {
    mirror: true
    crop_size: 227
    mean_file: "data/ilsvrc12/imagenet_mean.binaryproto"
  }
  data_param {
    source: "/home/data/caffe-imagenet/ilsvrc12_train_lmdb"
    batch_size: 256
    backend: LMDB
  }
}
layer {
  name: "conv1"
  type: "DNSConvolution"
  bottom: "data"
  top: "conv1"
  param {
    lr_mult: 1
    decay_mult: 1
  }
  param {
    lr_mult: 2
    decay_mult: 0
  }
  convolution_param {
    num_output: 96
    kernel_size: 11
    stride: 4
    weight_filler {
      type: "gaussian"
      std: 0.01
    }
    bias_filler {
      type: "constant"
      value: 0
    }
  }
  dns_convolution_param {
    gamma: 2.5e-06
    power: 1
    c_rate: -0.9
    iter_stop: -1
    weight_mask_filler {
      type: "constant"
      value: 1
    }
    bias_mask_filler {
      type: "constant"
      value: 1
    }
  }
}
layer {
  name: "relu1"
  type: "ReLU"
  bottom: "conv1"
  top: "conv1"
}
layer {
  name: "norm1"
  type: "LRN"
  bottom: "conv1"
  top: "norm1"
  lrn_param {
    local_size: 5
    alpha: 0.0001
    beta: 0.75
  }
}
layer {
  name: "pool1"
  type: "Pooling"
  bottom: "norm1"
  top: "pool1"
  pooling_param {
    pool: MAX
    kernel_size: 3
    stride: 2
  }
}
layer {
  name: "conv2"
  type: "DNSConvolution"
  bottom: "pool1"
  top: "conv2"
  param {
    lr_mult: 1
    decay_mult: 1
  }
  param {
    lr_mult: 2
    decay_mult: 0
  }
  convolution_param {
    num_output: 256
    pad: 2
    kernel_size: 5
    group: 2
    weight_filler {
      type: "gaussian"
      std: 0.01
    }
    bias_filler {
      type: "constant"
      value: 0.1
    }
  }
  dns_convolution_param {
    gamma: 2.5e-06
    power: 1
    c_rate: 0
    iter_stop: -1
    weight_mask_filler {
      type: "constant"
      value: 1
    }
    bias_mask_filler {
      type: "constant"
      value: 1
    }
  }
}
layer {
  name: "relu2"
  type: "ReLU"
  bottom: "conv2"
  top: "conv2"
}
layer {
  name: "norm2"
  type: "LRN"
  bottom: "conv2"
  top: "norm2"
  lrn_param {
    local_size: 5
    alpha: 0.0001
    beta: 0.75
  }
}
layer {
  name: "pool2"
  type: "Pooling"
  bottom: "norm2"
  top: "pool2"
  pooling_param {
    pool: MAX
    kernel_size: 3
    stride: 2
  }
}
layer {
  name: "conv3"
  type: "DNSConvolution"
  bottom: "pool2"
  top: "conv3"
  param {
    lr_mult: 1
    decay_mult: 1
  }
  param {
    lr_mult: 2
    decay_mult: 0
  }
  convolution_param {
    num_output: 384
    pad: 1
    kernel_size: 3
    weight_filler {
      type: "gaussian"
      std: 0.01
    }
    bias_filler {
      type: "constant"
      value: 0
    }
  }
  dns_convolution_param {
    gamma: 2.5e-06
    power: 1
    c_rate: 0.5
    iter_stop: -1
    weight_mask_filler {
      type: "constant"
      value: 1
    }
    bias_mask_filler {
      type: "constant"
      value: 1
    }
  }
}
layer {
  name: "relu3"
  type: "ReLU"
  bottom: "conv3"
  top: "conv3"
}
layer {
  name: "conv4"
  type: "DNSConvolution"
  bottom: "conv3"
  top: "conv4"
  param {
    lr_mult: 1
    decay_mult: 1
  }
  param {
    lr_mult: 2
    decay_mult: 0
  }
  convolution_param {
    num_output: 384
    pad: 1
    kernel_size: 3
    group: 2
    weight_filler {
      type: "gaussian"
      std: 0.01
    }
    bias_filler {
      type: "constant"
      value: 0.1
    }
  }
  dns_convolution_param {
    gamma: 2.5e-06
    power: 1
    c_rate: 0.5
    iter_stop: -1
    weight_mask_filler {
      type: "constant"
      value: 1
    }
    bias_mask_filler {
      type: "constant"
      value: 1
    }
  }
}
layer {
  name: "relu4"
  type: "ReLU"
  bottom: "conv4"
  top: "conv4"
}
layer {
  name: "conv5"
  type: "DNSConvolution"
  bottom: "conv4"
  top: "conv5"
  param {
    lr_mult: 1
    decay_mult: 1
  }
  param {
    lr_mult: 2
    decay_mult: 0
  }
  convolution_param {
    num_output: 256
    pad: 1
    kernel_size: 3
    group: 2
    weight_filler {
      type: "gaussian"
      std: 0.01
    }
    bias_filler {
      type: "constant"
      value: 0.1
    }
  }
  dns_convolution_param {
    gamma: 2.5e-06
    power: 1
    c_rate: 0.5
    iter_stop: -1
    weight_mask_filler {
      type: "constant"
      value: 1
    }
    bias_mask_filler {
      type: "constant"
      value: 1
    }
  }
}
layer {
  name: "relu5"
  type: "ReLU"
  bottom: "conv5"
  top: "conv5"
}
layer {
  name: "pool5"
  type: "Pooling"
  bottom: "conv5"
  top: "pool5"
  pooling_param {
    pool: MAX
    kernel_size: 3
    stride: 2
  }
}
layer {
  name: "fc6"
  type: "DNSInnerProduct"
  bottom: "pool5"
  top: "fc6"
  param {
    lr_mult: 1
    decay_mult: 1
  }
  param {
    lr_mult: 2
    decay_mult: 0
  }
  inner_product_param {
    num_output: 4096
    weight_filler {
      type: "gaussian"
      std: 0.005
    }
    bias_filler {
      type: "constant"
      value: 0.1
    }
  }
  dns_inner_product_param {
    gamma: 2.5e-06
    power: 1
    c_rate: 2.6
    iter_stop: 1e+06
    weight_mask_filler {
      type: "constant"
      value: 1
    }
    bias_mask_filler {
      type: "constant"
      value: 1
    }
  }
}
layer {
  name: "relu6"
  type: "ReLU"
  bottom: "fc6"
  top: "fc6"
}
layer {
  name: "drop6"
  type: "Dropout"
  bottom: "fc6"
  top: "fc6"
  dropout_param {
    dropout_ratio: 0.5
  }
}
layer {
  name: "fc7"
  type: "DNSInnerProduct"
  bottom: "fc6"
  top: "fc7"
  param {
    lr_mult: 1
    decay_mult: 1
  }
  param {
    lr_mult: 2
    decay_mult: 0
  }
  inner_product_param {
    num_output: 4096
    weight_filler {
      type: "gaussian"
      std: 0.005
    }
    bias_filler {
      type: "constant"
      value: 0.1
    }
  }
  dns_inner_product_param {
    gamma: 2.5e-06
    power: 1
    c_rate: 1.5
    iter_stop: 1e+06
    weight_mask_filler {
      type: "constant"
      value: 1
    }
    bias_mask_filler {
      type: "constant"
      value: 1
    }
  }
}
layer {
  name: "relu7"
  type: "ReLU"
  bottom: "fc7"
  top: "fc7"
}
layer {
  name: "drop7"
  type: "Dropout"
  bottom: "fc7"
  top: "fc7"
  dropout_param {
    dropout_ratio: 0.5
  }
}
layer {
  name: "fc8"
  type: "DNSInnerProduct"
  bottom: "fc7"
  top: "fc8"
  param {
    lr_mult: 1
    decay_mult: 1
  }
  param {
    lr_mult: 2
    decay_mult: 0
  }
  inner_product_param {
    num_output: 1000
    weight_filler {
      type: "gaussian"
      std: 0.01
    }
    bias_filler {
      type: "constant"
      value: 0
    }
  }
  dns_inner_product_param {
    gamma: 2.5e-06
    power: 1
    c_rate: 2.7
    iter_stop: 1e+06
    weight_mask_filler {
      type: "constant"
      value: 1
    }
    bias_mask_filler {
      type: "constant"
      value: 1
    }
  }
}
layer {
  name: "loss"
  type: "SoftmaxWithLoss"
  bottom: "fc8"
  bottom: "label"
  top: "loss"
}
I1209 17:02:34.224107 45785 layer_factory.hpp:77] Creating layer data
I1209 17:02:34.224257 45785 db_lmdb.cpp:35] Opened lmdb /home/data/caffe-imagenet/ilsvrc12_train_lmdb
I1209 17:02:34.224303 45785 net.cpp:84] Creating Layer data
I1209 17:02:34.224313 45785 net.cpp:387] data -> data
I1209 17:02:34.224342 45785 net.cpp:387] data -> label
I1209 17:02:34.224361 45785 data_transformer.cpp:25] Loading mean file from: data/ilsvrc12/imagenet_mean.binaryproto
I1209 17:02:34.230674 45785 data_layer.cpp:45] output data size: 256,3,227,227
I1209 17:02:34.631598 45785 net.cpp:127] Setting up data
I1209 17:02:34.631638 45785 net.cpp:136] Top shape: 256 3 227 227 (39574272)
I1209 17:02:34.631644 45785 net.cpp:136] Top shape: 256 (256)
I1209 17:02:34.631649 45785 net.cpp:144] Memory required for data: 158298112
I1209 17:02:34.631660 45785 layer_factory.hpp:77] Creating layer conv1
I1209 17:02:34.631685 45785 net.cpp:84] Creating Layer conv1
I1209 17:02:34.631698 45785 net.cpp:413] conv1 <- data
I1209 17:02:34.631718 45785 net.cpp:387] conv1 -> conv1
I1209 17:02:34.635295 45785 net.cpp:127] Setting up conv1
I1209 17:02:34.635311 45785 net.cpp:136] Top shape: 256 96 55 55 (74342400)
I1209 17:02:34.635316 45785 net.cpp:144] Memory required for data: 455667712
I1209 17:02:34.635347 45785 layer_factory.hpp:77] Creating layer relu1
I1209 17:02:34.635362 45785 net.cpp:84] Creating Layer relu1
I1209 17:02:34.635367 45785 net.cpp:413] relu1 <- conv1
I1209 17:02:34.635375 45785 net.cpp:374] relu1 -> conv1 (in-place)
I1209 17:02:35.048725 45785 net.cpp:127] Setting up relu1
I1209 17:02:35.048763 45785 net.cpp:136] Top shape: 256 96 55 55 (74342400)
I1209 17:02:35.048768 45785 net.cpp:144] Memory required for data: 753037312
I1209 17:02:35.048779 45785 layer_factory.hpp:77] Creating layer norm1
I1209 17:02:35.048804 45785 net.cpp:84] Creating Layer norm1
I1209 17:02:35.048810 45785 net.cpp:413] norm1 <- conv1
I1209 17:02:35.048820 45785 net.cpp:387] norm1 -> norm1
I1209 17:02:35.050287 45785 net.cpp:127] Setting up norm1
I1209 17:02:35.050302 45785 net.cpp:136] Top shape: 256 96 55 55 (74342400)
I1209 17:02:35.050307 45785 net.cpp:144] Memory required for data: 1050406912
I1209 17:02:35.050312 45785 layer_factory.hpp:77] Creating layer pool1
I1209 17:02:35.050328 45785 net.cpp:84] Creating Layer pool1
I1209 17:02:35.050333 45785 net.cpp:413] pool1 <- norm1
I1209 17:02:35.050340 45785 net.cpp:387] pool1 -> pool1
I1209 17:02:35.050395 45785 net.cpp:127] Setting up pool1
I1209 17:02:35.050402 45785 net.cpp:136] Top shape: 256 96 27 27 (17915904)
I1209 17:02:35.050406 45785 net.cpp:144] Memory required for data: 1122070528
I1209 17:02:35.050410 45785 layer_factory.hpp:77] Creating layer conv2
I1209 17:02:35.050424 45785 net.cpp:84] Creating Layer conv2
I1209 17:02:35.050428 45785 net.cpp:413] conv2 <- pool1
I1209 17:02:35.050437 45785 net.cpp:387] conv2 -> conv2
I1209 17:02:35.057219 45785 net.cpp:127] Setting up conv2
I1209 17:02:35.057235 45785 net.cpp:136] Top shape: 256 256 27 27 (47775744)
I1209 17:02:35.057240 45785 net.cpp:144] Memory required for data: 1313173504
I1209 17:02:35.057260 45785 layer_factory.hpp:77] Creating layer relu2
I1209 17:02:35.057271 45785 net.cpp:84] Creating Layer relu2
I1209 17:02:35.057274 45785 net.cpp:413] relu2 <- conv2
I1209 17:02:35.057281 45785 net.cpp:374] relu2 -> conv2 (in-place)
I1209 17:02:35.057485 45785 net.cpp:127] Setting up relu2
I1209 17:02:35.057494 45785 net.cpp:136] Top shape: 256 256 27 27 (47775744)
I1209 17:02:35.057498 45785 net.cpp:144] Memory required for data: 1504276480
I1209 17:02:35.057504 45785 layer_factory.hpp:77] Creating layer norm2
I1209 17:02:35.057513 45785 net.cpp:84] Creating Layer norm2
I1209 17:02:35.057518 45785 net.cpp:413] norm2 <- conv2
I1209 17:02:35.057524 45785 net.cpp:387] norm2 -> norm2
I1209 17:02:35.057754 45785 net.cpp:127] Setting up norm2
I1209 17:02:35.057765 45785 net.cpp:136] Top shape: 256 256 27 27 (47775744)
I1209 17:02:35.057768 45785 net.cpp:144] Memory required for data: 1695379456
I1209 17:02:35.057772 45785 layer_factory.hpp:77] Creating layer pool2
I1209 17:02:35.057788 45785 net.cpp:84] Creating Layer pool2
I1209 17:02:35.057819 45785 net.cpp:413] pool2 <- norm2
I1209 17:02:35.057826 45785 net.cpp:387] pool2 -> pool2
I1209 17:02:35.057868 45785 net.cpp:127] Setting up pool2
I1209 17:02:35.057874 45785 net.cpp:136] Top shape: 256 256 13 13 (11075584)
I1209 17:02:35.057878 45785 net.cpp:144] Memory required for data: 1739681792
I1209 17:02:35.057881 45785 layer_factory.hpp:77] Creating layer conv3
I1209 17:02:35.057893 45785 net.cpp:84] Creating Layer conv3
I1209 17:02:35.057896 45785 net.cpp:413] conv3 <- pool2
I1209 17:02:35.057902 45785 net.cpp:387] conv3 -> conv3
I1209 17:02:35.073313 45785 net.cpp:127] Setting up conv3
I1209 17:02:35.073333 45785 net.cpp:136] Top shape: 256 384 13 13 (16613376)
I1209 17:02:35.073338 45785 net.cpp:144] Memory required for data: 1806135296
I1209 17:02:35.073357 45785 layer_factory.hpp:77] Creating layer relu3
I1209 17:02:35.073369 45785 net.cpp:84] Creating Layer relu3
I1209 17:02:35.073374 45785 net.cpp:413] relu3 <- conv3
I1209 17:02:35.073380 45785 net.cpp:374] relu3 -> conv3 (in-place)
I1209 17:02:35.074762 45785 net.cpp:127] Setting up relu3
I1209 17:02:35.074777 45785 net.cpp:136] Top shape: 256 384 13 13 (16613376)
I1209 17:02:35.074782 45785 net.cpp:144] Memory required for data: 1872588800
I1209 17:02:35.074786 45785 layer_factory.hpp:77] Creating layer conv4
I1209 17:02:35.074800 45785 net.cpp:84] Creating Layer conv4
I1209 17:02:35.074803 45785 net.cpp:413] conv4 <- conv3
I1209 17:02:35.074812 45785 net.cpp:387] conv4 -> conv4
I1209 17:02:35.086611 45785 net.cpp:127] Setting up conv4
I1209 17:02:35.086627 45785 net.cpp:136] Top shape: 256 384 13 13 (16613376)
I1209 17:02:35.086633 45785 net.cpp:144] Memory required for data: 1939042304
I1209 17:02:35.086644 45785 layer_factory.hpp:77] Creating layer relu4
I1209 17:02:35.086653 45785 net.cpp:84] Creating Layer relu4
I1209 17:02:35.086658 45785 net.cpp:413] relu4 <- conv4
I1209 17:02:35.086665 45785 net.cpp:374] relu4 -> conv4 (in-place)
I1209 17:02:35.086879 45785 net.cpp:127] Setting up relu4
I1209 17:02:35.086887 45785 net.cpp:136] Top shape: 256 384 13 13 (16613376)
I1209 17:02:35.086891 45785 net.cpp:144] Memory required for data: 2005495808
I1209 17:02:35.086896 45785 layer_factory.hpp:77] Creating layer conv5
I1209 17:02:35.086910 45785 net.cpp:84] Creating Layer conv5
I1209 17:02:35.086915 45785 net.cpp:413] conv5 <- conv4
I1209 17:02:35.086923 45785 net.cpp:387] conv5 -> conv5
I1209 17:02:35.095427 45785 net.cpp:127] Setting up conv5
I1209 17:02:35.095444 45785 net.cpp:136] Top shape: 256 256 13 13 (11075584)
I1209 17:02:35.095449 45785 net.cpp:144] Memory required for data: 2049798144
I1209 17:02:35.095466 45785 layer_factory.hpp:77] Creating layer relu5
I1209 17:02:35.095475 45785 net.cpp:84] Creating Layer relu5
I1209 17:02:35.095480 45785 net.cpp:413] relu5 <- conv5
I1209 17:02:35.095486 45785 net.cpp:374] relu5 -> conv5 (in-place)
I1209 17:02:35.095705 45785 net.cpp:127] Setting up relu5
I1209 17:02:35.095713 45785 net.cpp:136] Top shape: 256 256 13 13 (11075584)
I1209 17:02:35.095717 45785 net.cpp:144] Memory required for data: 2094100480
I1209 17:02:35.095722 45785 layer_factory.hpp:77] Creating layer pool5
I1209 17:02:35.095734 45785 net.cpp:84] Creating Layer pool5
I1209 17:02:35.095738 45785 net.cpp:413] pool5 <- conv5
I1209 17:02:35.095746 45785 net.cpp:387] pool5 -> pool5
I1209 17:02:35.095793 45785 net.cpp:127] Setting up pool5
I1209 17:02:35.095799 45785 net.cpp:136] Top shape: 256 256 6 6 (2359296)
I1209 17:02:35.095803 45785 net.cpp:144] Memory required for data: 2103537664
I1209 17:02:35.095808 45785 layer_factory.hpp:77] Creating layer fc6
I1209 17:02:35.095826 45785 net.cpp:84] Creating Layer fc6
I1209 17:02:35.095830 45785 net.cpp:413] fc6 <- pool5
I1209 17:02:35.095839 45785 net.cpp:387] fc6 -> fc6
I1209 17:02:35.701400 45785 net.cpp:127] Setting up fc6
I1209 17:02:35.701448 45785 net.cpp:136] Top shape: 256 4096 (1048576)
I1209 17:02:35.701454 45785 net.cpp:144] Memory required for data: 2107731968
I1209 17:02:35.701472 45785 layer_factory.hpp:77] Creating layer relu6
I1209 17:02:35.701491 45785 net.cpp:84] Creating Layer relu6
I1209 17:02:35.701524 45785 net.cpp:413] relu6 <- fc6
I1209 17:02:35.701534 45785 net.cpp:374] relu6 -> fc6 (in-place)
I1209 17:02:35.701819 45785 net.cpp:127] Setting up relu6
I1209 17:02:35.701829 45785 net.cpp:136] Top shape: 256 4096 (1048576)
I1209 17:02:35.701833 45785 net.cpp:144] Memory required for data: 2111926272
I1209 17:02:35.701838 45785 layer_factory.hpp:77] Creating layer drop6
I1209 17:02:35.701853 45785 net.cpp:84] Creating Layer drop6
I1209 17:02:35.701858 45785 net.cpp:413] drop6 <- fc6
I1209 17:02:35.701864 45785 net.cpp:374] drop6 -> fc6 (in-place)
I1209 17:02:35.701896 45785 net.cpp:127] Setting up drop6
I1209 17:02:35.701902 45785 net.cpp:136] Top shape: 256 4096 (1048576)
I1209 17:02:35.701906 45785 net.cpp:144] Memory required for data: 2116120576
I1209 17:02:35.701910 45785 layer_factory.hpp:77] Creating layer fc7
I1209 17:02:35.701920 45785 net.cpp:84] Creating Layer fc7
I1209 17:02:35.701925 45785 net.cpp:413] fc7 <- fc6
I1209 17:02:35.701932 45785 net.cpp:387] fc7 -> fc7
I1209 17:02:35.971776 45785 net.cpp:127] Setting up fc7
I1209 17:02:35.971822 45785 net.cpp:136] Top shape: 256 4096 (1048576)
I1209 17:02:35.971827 45785 net.cpp:144] Memory required for data: 2120314880
I1209 17:02:35.971843 45785 layer_factory.hpp:77] Creating layer relu7
I1209 17:02:35.971855 45785 net.cpp:84] Creating Layer relu7
I1209 17:02:35.971861 45785 net.cpp:413] relu7 <- fc7
I1209 17:02:35.971870 45785 net.cpp:374] relu7 -> fc7 (in-place)
I1209 17:02:35.973496 45785 net.cpp:127] Setting up relu7
I1209 17:02:35.973510 45785 net.cpp:136] Top shape: 256 4096 (1048576)
I1209 17:02:35.973515 45785 net.cpp:144] Memory required for data: 2124509184
I1209 17:02:35.973520 45785 layer_factory.hpp:77] Creating layer drop7
I1209 17:02:35.973536 45785 net.cpp:84] Creating Layer drop7
I1209 17:02:35.973539 45785 net.cpp:413] drop7 <- fc7
I1209 17:02:35.973547 45785 net.cpp:374] drop7 -> fc7 (in-place)
I1209 17:02:35.973574 45785 net.cpp:127] Setting up drop7
I1209 17:02:35.973582 45785 net.cpp:136] Top shape: 256 4096 (1048576)
I1209 17:02:35.973585 45785 net.cpp:144] Memory required for data: 2128703488
I1209 17:02:35.973588 45785 layer_factory.hpp:77] Creating layer fc8
I1209 17:02:35.973601 45785 net.cpp:84] Creating Layer fc8
I1209 17:02:35.973605 45785 net.cpp:413] fc8 <- fc7
I1209 17:02:35.973613 45785 net.cpp:387] fc8 -> fc8
I1209 17:02:36.040354 45785 net.cpp:127] Setting up fc8
I1209 17:02:36.040383 45785 net.cpp:136] Top shape: 256 1000 (256000)
I1209 17:02:36.040388 45785 net.cpp:144] Memory required for data: 2129727488
I1209 17:02:36.040403 45785 layer_factory.hpp:77] Creating layer loss
I1209 17:02:36.040424 45785 net.cpp:84] Creating Layer loss
I1209 17:02:36.040431 45785 net.cpp:413] loss <- fc8
I1209 17:02:36.040437 45785 net.cpp:413] loss <- label
I1209 17:02:36.040446 45785 net.cpp:387] loss -> loss
I1209 17:02:36.040468 45785 layer_factory.hpp:77] Creating layer loss
…
I1209 17:02:36.044286 45785 net.cpp:301] The NetState phase (1) differed from the phase (0) specified by a rule in layer data
I1209 17:02:36.044672 45785 net.cpp:51] Initializing net from parameters: 
name: "AlexNet"
state {
  phase: TEST
}
layer {
  name: "data"
  type: "Data"
  top: "data"
  top: "label"
  include {
    phase: TEST
  }
  transform_param {
    mirror: false
    crop_size: 227
    mean_file: "data/ilsvrc12/imagenet_mean.binaryproto"
  }
  data_param {
    source: "/home/data/caffe-imagenet/ilsvrc12_val_lmdb"
    batch_size: 50
    backend: LMDB
  }
}
layer {
  name: "conv1"
  type: "DNSConvolution"
  bottom: "data"
  top: "conv1"
  param {
    lr_mult: 1
    decay_mult: 1
  }
  param {
    lr_mult: 2
    decay_mult: 0
  }
  convolution_param {
    num_output: 96
    kernel_size: 11
    stride: 4
    weight_filler {
      type: "gaussian"
      std: 0.01
    }
    bias_filler {
      type: "constant"
      value: 0
    }
  }
  dns_convolution_param {
    gamma: 2.5e-06
    power: 1
    c_rate: -0.9
    iter_stop: -1
    weight_mask_filler {
      type: "constant"
      value: 1
    }
    bias_mask_filler {
      type: "constant"
      value: 1
    }
  }
}
layer {
  name: "relu1"
  type: "ReLU"
  bottom: "conv1"
  top: "conv1"
}
layer {
  name: "norm1"
  type: "LRN"
  bottom: "conv1"
  top: "norm1"
  lrn_param {
    local_size: 5
    alpha: 0.0001
    beta: 0.75
  }
}
layer {
  name: "pool1"
  type: "Pooling"
  bottom: "norm1"
  top: "pool1"
  pooling_param {
    pool: MAX
    kernel_size: 3
    stride: 2
  }
}
layer {
  name: "conv2"
  type: "DNSConvolution"
  bottom: "pool1"
  top: "conv2"
  param {
    lr_mult: 1
    decay_mult: 1
  }
  param {
    lr_mult: 2
    decay_mult: 0
  }
  convolution_param {
    num_output: 256
    pad: 2
    kernel_size: 5
    group: 2
    weight_filler {
      type: "gaussian"
      std: 0.01
    }
    bias_filler {
      type: "constant"
      value: 0.1
    }
  }
  dns_convolution_param {
    gamma: 2.5e-06
    power: 1
    c_rate: 0
    iter_stop: -1
    weight_mask_filler {
      type: "constant"
      value: 1
    }
    bias_mask_filler {
      type: "constant"
      value: 1
    }
  }
}
layer {
  name: "relu2"
  type: "ReLU"
  bottom: "conv2"
  top: "conv2"
}
layer {
  name: "norm2"
  type: "LRN"
  bottom: "conv2"
  top: "norm2"
  lrn_param {
    local_size: 5
    alpha: 0.0001
    beta: 0.75
  }
}
layer {
  name: "pool2"
  type: "Pooling"
  bottom: "norm2"
  top: "pool2"
  pooling_param {
    pool: MAX
    kernel_size: 3
    stride: 2
  }
}
layer {
  name: "conv3"
  type: "DNSConvolution"
  bottom: "pool2"
  top: "conv3"
  param {
    lr_mult: 1
    decay_mult: 1
  }
  param {
    lr_mult: 2
    decay_mult: 0
  }
  convolution_param {
    num_output: 384
    pad: 1
    kernel_size: 3
    weight_filler {
      type: "gaussian"
      std: 0.01
    }
    bias_filler {
      type: "constant"
      value: 0
    }
  }
  dns_convolution_param {
    gamma: 2.5e-06
    power: 1
    c_rate: 0.5
    iter_stop: -1
    weight_mask_filler {
      type: "constant"
      value: 1
    }
    bias_mask_filler {
      type: "constant"
      value: 1
    }
  }
}
layer {
  name: "relu3"
  type: "ReLU"
  bottom: "conv3"
  top: "conv3"
}
layer {
  name: "conv4"
  type: "DNSConvolution"
  bottom: "conv3"
  top: "conv4"
  param {
    lr_mult: 1
    decay_mult: 1
  }
  param {
    lr_mult: 2
    decay_mult: 0
  }
  convolution_param {
    num_output: 384
    pad: 1
    kernel_size: 3
    group: 2
    weight_filler {
      type: "gaussian"
      std: 0.01
    }
    bias_filler {
      type: "constant"
      value: 0.1
    }
  }
  dns_convolution_param {
    gamma: 2.5e-06
    power: 1
    c_rate: 0.5
    iter_stop: -1
    weight_mask_filler {
      type: "constant"
      value: 1
    }
    bias_mask_filler {
      type: "constant"
      value: 1
    }
  }
}
layer {
  name: "relu4"
  type: "ReLU"
  bottom: "conv4"
  top: "conv4"
}
layer {
  name: "conv5"
  type: "DNSConvolution"
  bottom: "conv4"
  top: "conv5"
  param {
    lr_mult: 1
    decay_mult: 1
  }
  param {
    lr_mult: 2
    decay_mult: 0
  }
  convolution_param {
    num_output: 256
    pad: 1
    kernel_size: 3
    group: 2
    weight_filler {
      type: "gaussian"
      std: 0.01
    }
    bias_filler {
      type: "constant"
      value: 0.1
    }
  }
  dns_convolution_param {
    gamma: 2.5e-06
    power: 1
    c_rate: 0.5
    iter_stop: -1
    weight_mask_filler {
      type: "constant"
      value: 1
    }
    bias_mask_filler {
      type: "constant"
      value: 1
    }
  }
}
layer {
  name: "relu5"
  type: "ReLU"
  bottom: "conv5"
  top: "conv5"
}
layer {
  name: "pool5"
  type: "Pooling"
  bottom: "conv5"
  top: "pool5"
  pooling_param {
    pool: MAX
    kernel_size: 3
    stride: 2
  }
}
layer {
  name: "fc6"
  type: "DNSInnerProduct"
  bottom: "pool5"
  top: "fc6"
  param {
    lr_mult: 1
    decay_mult: 1
  }
  param {
    lr_mult: 2
    decay_mult: 0
  }
  inner_product_param {
    num_output: 4096
    weight_filler {
      type: "gaussian"
      std: 0.005
    }
    bias_filler {
      type: "constant"
      value: 0.1
    }
  }
  dns_inner_product_param {
    gamma: 2.5e-06
    power: 1
    c_rate: 2.6
    iter_stop: 1e+06
    weight_mask_filler {
      type: "constant"
      value: 1
    }
    bias_mask_filler {
      type: "constant"
      value: 1
    }
  }
}
layer {
  name: "relu6"
  type: "ReLU"
  bottom: "fc6"
  top: "fc6"
}
layer {
  name: "drop6"
  type: "Dropout"
  bottom: "fc6"
  top: "fc6"
  dropout_param {
    dropout_ratio: 0.5
  }
}
layer {
  name: "fc7"
  type: "DNSInnerProduct"
  bottom: "fc6"
  top: "fc7"
  param {
    lr_mult: 1
    decay_mult: 1
  }
  param {
    lr_mult: 2
    decay_mult: 0
  }
  inner_product_param {
    num_output: 4096
    weight_filler {
      type: "gaussian"
      std: 0.005
    }
    bias_filler {
      type: "constant"
      value: 0.1
    }
  }
  dns_inner_product_param {
    gamma: 2.5e-06
    power: 1
    c_rate: 1.5
    iter_stop: 1e+06
    weight_mask_filler {
      type: "constant"
      value: 1
    }
    bias_mask_filler {
      type: "constant"
      value: 1
    }
  }
}
layer {
  name: "relu7"
  type: "ReLU"
  bottom: "fc7"
  top: "fc7"
}
layer {
  name: "drop7"
  type: "Dropout"
  bottom: "fc7"
  top: "fc7"
  dropout_param {
    dropout_ratio: 0.5
  }
}
layer {
  name: "fc8"
  type: "DNSInnerProduct"
  bottom: "fc7"
  top: "fc8"
  param {
    lr_mult: 1
    decay_mult: 1
  }
  param {
    lr_mult: 2
    decay_mult: 0
  }
  inner_product_param {
    num_output: 1000
    weight_filler {
      type: "gaussian"
      std: 0.01
    }
    bias_filler {
      type: "constant"
      value: 0
    }
  }
  dns_inner_product_param {
    gamma: 2.5e-06
    power: 1
    c_rate: 2.7
    iter_stop: 1e+06
    weight_mask_filler {
      type: "constant"
      value: 1
    }
    bias_mask_filler {
      type: "constant"
      value: 1
    }
  }
}
layer {
  name: "accuracy_top1"
  type: "Accuracy"
  bottom: "fc8"
  bottom: "label"
  top: "accuracy_top1"
  include {
    phase: TEST
  }
  accuracy_param {
    top_k: 1
  }
}
layer {
  name: "accuracy_top5"
  type: "Accuracy"
  bottom: "fc8"
  bottom: "label"
  top: "accuracy_top5"
  include {
    phase: TEST
  }
  accuracy_param {
    top_k: 5
  }
}
layer {
  name: "loss"
  type: "SoftmaxWithLoss"
  bottom: "fc8"
  bottom: "label"
  top: "loss"
}
I1209 17:02:36.044840 45785 layer_factory.hpp:77] Creating layer data
I1209 17:02:36.044910 45785 db_lmdb.cpp:35] Opened lmdb /home/data/caffe-imagenet/ilsvrc12_val_lmdb
I1209 17:02:36.044934 45785 net.cpp:84] Creating Layer data
I1209 17:02:36.044942 45785 net.cpp:387] data -> data
I1209 17:02:36.044953 45785 net.cpp:387] data -> label
I1209 17:02:36.044962 45785 data_transformer.cpp:25] Loading mean file from: data/ilsvrc12/imagenet_mean.binaryproto
I1209 17:02:36.046922 45785 data_layer.cpp:45] output data size: 50,3,227,227
I1209 17:02:36.130228 45785 net.cpp:127] Setting up data
I1209 17:02:36.130269 45785 net.cpp:136] Top shape: 50 3 227 227 (7729350)
I1209 17:02:36.130277 45785 net.cpp:136] Top shape: 50 (50)
I1209 17:02:36.130281 45785 net.cpp:144] Memory required for data: 30917600
I1209 17:02:36.130290 45785 layer_factory.hpp:77] Creating layer label_data_1_split
I1209 17:02:36.130311 45785 net.cpp:84] Creating Layer label_data_1_split
I1209 17:02:36.130318 45785 net.cpp:413] label_data_1_split <- label
I1209 17:02:36.130328 45785 net.cpp:387] label_data_1_split -> label_data_1_split_0
I1209 17:02:36.130342 45785 net.cpp:387] label_data_1_split -> label_data_1_split_1
I1209 17:02:36.130348 45785 net.cpp:387] label_data_1_split -> label_data_1_split_2
I1209 17:02:36.130522 45785 net.cpp:127] Setting up label_data_1_split
I1209 17:02:36.130530 45785 net.cpp:136] Top shape: 50 (50)
I1209 17:02:36.130535 45785 net.cpp:136] Top shape: 50 (50)
I1209 17:02:36.130540 45785 net.cpp:136] Top shape: 50 (50)
I1209 17:02:36.130543 45785 net.cpp:144] Memory required for data: 30918200
I1209 17:02:36.130548 45785 layer_factory.hpp:77] Creating layer conv1
I1209 17:02:36.130563 45785 net.cpp:84] Creating Layer conv1
I1209 17:02:36.130568 45785 net.cpp:413] conv1 <- data
I1209 17:02:36.130575 45785 net.cpp:387] conv1 -> conv1
I1209 17:02:36.131562 45785 net.cpp:127] Setting up conv1
I1209 17:02:36.131573 45785 net.cpp:136] Top shape: 50 96 55 55 (14520000)
I1209 17:02:36.131578 45785 net.cpp:144] Memory required for data: 88998200
I1209 17:02:36.131597 45785 layer_factory.hpp:77] Creating layer relu1
I1209 17:02:36.131605 45785 net.cpp:84] Creating Layer relu1
I1209 17:02:36.131610 45785 net.cpp:413] relu1 <- conv1
I1209 17:02:36.131616 45785 net.cpp:374] relu1 -> conv1 (in-place)
I1209 17:02:36.131966 45785 net.cpp:127] Setting up relu1
I1209 17:02:36.131978 45785 net.cpp:136] Top shape: 50 96 55 55 (14520000)
I1209 17:02:36.131983 45785 net.cpp:144] Memory required for data: 147078200
I1209 17:02:36.131986 45785 layer_factory.hpp:77] Creating layer norm1
I1209 17:02:36.131997 45785 net.cpp:84] Creating Layer norm1
I1209 17:02:36.132002 45785 net.cpp:413] norm1 <- conv1
I1209 17:02:36.132009 45785 net.cpp:387] norm1 -> norm1
I1209 17:02:36.132259 45785 net.cpp:127] Setting up norm1
I1209 17:02:36.132268 45785 net.cpp:136] Top shape: 50 96 55 55 (14520000)
I1209 17:02:36.132272 45785 net.cpp:144] Memory required for data: 205158200
I1209 17:02:36.132277 45785 layer_factory.hpp:77] Creating layer pool1
I1209 17:02:36.132285 45785 net.cpp:84] Creating Layer pool1
I1209 17:02:36.132289 45785 net.cpp:413] pool1 <- norm1
I1209 17:02:36.132297 45785 net.cpp:387] pool1 -> pool1
I1209 17:02:36.134685 45785 net.cpp:127] Setting up pool1
I1209 17:02:36.134699 45785 net.cpp:136] Top shape: 50 96 27 27 (3499200)
I1209 17:02:36.134703 45785 net.cpp:144] Memory required for data: 219155000
I1209 17:02:36.134707 45785 layer_factory.hpp:77] Creating layer conv2
I1209 17:02:36.134717 45785 net.cpp:84] Creating Layer conv2
I1209 17:02:36.134721 45785 net.cpp:413] conv2 <- pool1
I1209 17:02:36.134735 45785 net.cpp:387] conv2 -> conv2
I1209 17:02:36.141542 45785 net.cpp:127] Setting up conv2
I1209 17:02:36.141587 45785 net.cpp:136] Top shape: 50 256 27 27 (9331200)
I1209 17:02:36.141592 45785 net.cpp:144] Memory required for data: 256479800
I1209 17:02:36.141605 45785 layer_factory.hpp:77] Creating layer relu2
I1209 17:02:36.141614 45785 net.cpp:84] Creating Layer relu2
I1209 17:02:36.141619 45785 net.cpp:413] relu2 <- conv2
I1209 17:02:36.141625 45785 net.cpp:374] relu2 -> conv2 (in-place)
I1209 17:02:36.143024 45785 net.cpp:127] Setting up relu2
I1209 17:02:36.143038 45785 net.cpp:136] Top shape: 50 256 27 27 (9331200)
I1209 17:02:36.143043 45785 net.cpp:144] Memory required for data: 293804600
I1209 17:02:36.143048 45785 layer_factory.hpp:77] Creating layer norm2
I1209 17:02:36.143059 45785 net.cpp:84] Creating Layer norm2
I1209 17:02:36.143064 45785 net.cpp:413] norm2 <- conv2
I1209 17:02:36.143070 45785 net.cpp:387] norm2 -> norm2
I1209 17:02:36.143293 45785 net.cpp:127] Setting up norm2
I1209 17:02:36.143303 45785 net.cpp:136] Top shape: 50 256 27 27 (9331200)
I1209 17:02:36.143307 45785 net.cpp:144] Memory required for data: 331129400
I1209 17:02:36.143311 45785 layer_factory.hpp:77] Creating layer pool2
I1209 17:02:36.143319 45785 net.cpp:84] Creating Layer pool2
I1209 17:02:36.143323 45785 net.cpp:413] pool2 <- norm2
I1209 17:02:36.143330 45785 net.cpp:387] pool2 -> pool2
I1209 17:02:36.143370 45785 net.cpp:127] Setting up pool2
I1209 17:02:36.143378 45785 net.cpp:136] Top shape: 50 256 13 13 (2163200)
I1209 17:02:36.143380 45785 net.cpp:144] Memory required for data: 339782200
I1209 17:02:36.143384 45785 layer_factory.hpp:77] Creating layer conv3
I1209 17:02:36.143394 45785 net.cpp:84] Creating Layer conv3
I1209 17:02:36.143399 45785 net.cpp:413] conv3 <- pool2
I1209 17:02:36.143405 45785 net.cpp:387] conv3 -> conv3
I1209 17:02:36.158862 45785 net.cpp:127] Setting up conv3
I1209 17:02:36.158879 45785 net.cpp:136] Top shape: 50 384 13 13 (3244800)
I1209 17:02:36.158882 45785 net.cpp:144] Memory required for data: 352761400
I1209 17:02:36.158897 45785 layer_factory.hpp:77] Creating layer relu3
I1209 17:02:36.158905 45785 net.cpp:84] Creating Layer relu3
I1209 17:02:36.158910 45785 net.cpp:413] relu3 <- conv3
I1209 17:02:36.158917 45785 net.cpp:374] relu3 -> conv3 (in-place)
I1209 17:02:36.159122 45785 net.cpp:127] Setting up relu3
I1209 17:02:36.159132 45785 net.cpp:136] Top shape: 50 384 13 13 (3244800)
I1209 17:02:36.159137 45785 net.cpp:144] Memory required for data: 365740600
I1209 17:02:36.159140 45785 layer_factory.hpp:77] Creating layer conv4
I1209 17:02:36.159150 45785 net.cpp:84] Creating Layer conv4
I1209 17:02:36.159154 45785 net.cpp:413] conv4 <- conv3
I1209 17:02:36.159163 45785 net.cpp:387] conv4 -> conv4
I1209 17:02:36.171092 45785 net.cpp:127] Setting up conv4
I1209 17:02:36.171108 45785 net.cpp:136] Top shape: 50 384 13 13 (3244800)
I1209 17:02:36.171113 45785 net.cpp:144] Memory required for data: 378719800
I1209 17:02:36.171124 45785 layer_factory.hpp:77] Creating layer relu4
I1209 17:02:36.171133 45785 net.cpp:84] Creating Layer relu4
I1209 17:02:36.171136 45785 net.cpp:413] relu4 <- conv4
I1209 17:02:36.171144 45785 net.cpp:374] relu4 -> conv4 (in-place)
I1209 17:02:36.172514 45785 net.cpp:127] Setting up relu4
I1209 17:02:36.172529 45785 net.cpp:136] Top shape: 50 384 13 13 (3244800)
I1209 17:02:36.172533 45785 net.cpp:144] Memory required for data: 391699000
I1209 17:02:36.172538 45785 layer_factory.hpp:77] Creating layer conv5
I1209 17:02:36.172550 45785 net.cpp:84] Creating Layer conv5
I1209 17:02:36.172555 45785 net.cpp:413] conv5 <- conv4
I1209 17:02:36.172564 45785 net.cpp:387] conv5 -> conv5
I1209 17:02:36.181262 45785 net.cpp:127] Setting up conv5
I1209 17:02:36.181279 45785 net.cpp:136] Top shape: 50 256 13 13 (2163200)
I1209 17:02:36.181284 45785 net.cpp:144] Memory required for data: 400351800
I1209 17:02:36.181300 45785 layer_factory.hpp:77] Creating layer relu5
I1209 17:02:36.181308 45785 net.cpp:84] Creating Layer relu5
I1209 17:02:36.181313 45785 net.cpp:413] relu5 <- conv5
I1209 17:02:36.181324 45785 net.cpp:374] relu5 -> conv5 (in-place)
I1209 17:02:36.181545 45785 net.cpp:127] Setting up relu5
I1209 17:02:36.181555 45785 net.cpp:136] Top shape: 50 256 13 13 (2163200)
I1209 17:02:36.181558 45785 net.cpp:144] Memory required for data: 409004600
I1209 17:02:36.181562 45785 layer_factory.hpp:77] Creating layer pool5
I1209 17:02:36.181573 45785 net.cpp:84] Creating Layer pool5
I1209 17:02:36.181577 45785 net.cpp:413] pool5 <- conv5
I1209 17:02:36.181583 45785 net.cpp:387] pool5 -> pool5
I1209 17:02:36.181632 45785 net.cpp:127] Setting up pool5
I1209 17:02:36.181638 45785 net.cpp:136] Top shape: 50 256 6 6 (460800)
I1209 17:02:36.181643 45785 net.cpp:144] Memory required for data: 410847800
I1209 17:02:36.181646 45785 layer_factory.hpp:77] Creating layer fc6
I1209 17:02:36.181656 45785 net.cpp:84] Creating Layer fc6
I1209 17:02:36.181660 45785 net.cpp:413] fc6 <- pool5
I1209 17:02:36.181668 45785 net.cpp:387] fc6 -> fc6
I1209 17:02:36.784811 45785 net.cpp:127] Setting up fc6
I1209 17:02:36.784853 45785 net.cpp:136] Top shape: 50 4096 (204800)
I1209 17:02:36.784858 45785 net.cpp:144] Memory required for data: 411667000
I1209 17:02:36.784875 45785 layer_factory.hpp:77] Creating layer relu6
I1209 17:02:36.784888 45785 net.cpp:84] Creating Layer relu6
I1209 17:02:36.784894 45785 net.cpp:413] relu6 <- fc6
I1209 17:02:36.784903 45785 net.cpp:374] relu6 -> fc6 (in-place)
I1209 17:02:36.785187 45785 net.cpp:127] Setting up relu6
I1209 17:02:36.785195 45785 net.cpp:136] Top shape: 50 4096 (204800)
I1209 17:02:36.785200 45785 net.cpp:144] Memory required for data: 412486200
I1209 17:02:36.785204 45785 layer_factory.hpp:77] Creating layer drop6
I1209 17:02:36.785213 45785 net.cpp:84] Creating Layer drop6
I1209 17:02:36.785218 45785 net.cpp:413] drop6 <- fc6
I1209 17:02:36.785224 45785 net.cpp:374] drop6 -> fc6 (in-place)
I1209 17:02:36.785259 45785 net.cpp:127] Setting up drop6
I1209 17:02:36.785265 45785 net.cpp:136] Top shape: 50 4096 (204800)
I1209 17:02:36.785269 45785 net.cpp:144] Memory required for data: 413305400
I1209 17:02:36.785274 45785 layer_factory.hpp:77] Creating layer fc7
I1209 17:02:36.785284 45785 net.cpp:84] Creating Layer fc7
I1209 17:02:36.785289 45785 net.cpp:413] fc7 <- fc6
I1209 17:02:36.785296 45785 net.cpp:387] fc7 -> fc7
I1209 17:02:37.055639 45785 net.cpp:127] Setting up fc7
I1209 17:02:37.055685 45785 net.cpp:136] Top shape: 50 4096 (204800)
I1209 17:02:37.055691 45785 net.cpp:144] Memory required for data: 414124600
I1209 17:02:37.055711 45785 layer_factory.hpp:77] Creating layer relu7
I1209 17:02:37.055725 45785 net.cpp:84] Creating Layer relu7
I1209 17:02:37.055732 45785 net.cpp:413] relu7 <- fc7
I1209 17:02:37.055740 45785 net.cpp:374] relu7 -> fc7 (in-place)
I1209 17:02:37.056083 45785 net.cpp:127] Setting up relu7
I1209 17:02:37.056093 45785 net.cpp:136] Top shape: 50 4096 (204800)
I1209 17:02:37.056097 45785 net.cpp:144] Memory required for data: 414943800
I1209 17:02:37.056102 45785 layer_factory.hpp:77] Creating layer drop7
I1209 17:02:37.056111 45785 net.cpp:84] Creating Layer drop7
I1209 17:02:37.056116 45785 net.cpp:413] drop7 <- fc7
I1209 17:02:37.056123 45785 net.cpp:374] drop7 -> fc7 (in-place)
I1209 17:02:37.056159 45785 net.cpp:127] Setting up drop7
I1209 17:02:37.056165 45785 net.cpp:136] Top shape: 50 4096 (204800)
I1209 17:02:37.056169 45785 net.cpp:144] Memory required for data: 415763000
I1209 17:02:37.056174 45785 layer_factory.hpp:77] Creating layer fc8
I1209 17:02:37.056185 45785 net.cpp:84] Creating Layer fc8
I1209 17:02:37.056188 45785 net.cpp:413] fc8 <- fc7
I1209 17:02:37.056196 45785 net.cpp:387] fc8 -> fc8
I1209 17:02:37.123148 45785 net.cpp:127] Setting up fc8
I1209 17:02:37.123178 45785 net.cpp:136] Top shape: 50 1000 (50000)
I1209 17:02:37.123183 45785 net.cpp:144] Memory required for data: 415963000
I1209 17:02:37.123198 45785 layer_factory.hpp:77] Creating layer fc8_fc8_0_split
I1209 17:02:37.123209 45785 net.cpp:84] Creating Layer fc8_fc8_0_split
I1209 17:02:37.123214 45785 net.cpp:413] fc8_fc8_0_split <- fc8
I1209 17:02:37.123230 45785 net.cpp:387] fc8_fc8_0_split -> fc8_fc8_0_split_0
I1209 17:02:37.123240 45785 net.cpp:387] fc8_fc8_0_split -> fc8_fc8_0_split_1
I1209 17:02:37.123275 45785 net.cpp:387] fc8_fc8_0_split -> fc8_fc8_0_split_2
I1209 17:02:37.123337 45785 net.cpp:127] Setting up fc8_fc8_0_split
I1209 17:02:37.123344 45785 net.cpp:136] Top shape: 50 1000 (50000)
I1209 17:02:37.123349 45785 net.cpp:136] Top shape: 50 1000 (50000)
I1209 17:02:37.123353 45785 net.cpp:136] Top shape: 50 1000 (50000)
I1209 17:02:37.123356 45785 net.cpp:144] Memory required for data: 416563000
I1209 17:02:37.123360 45785 layer_factory.hpp:77] Creating layer accuracy_top1
I1209 17:02:37.123375 45785 net.cpp:84] Creating Layer accuracy_top1
I1209 17:02:37.123380 45785 net.cpp:413] accuracy_top1 <- fc8_fc8_0_split_0
I1209 17:02:37.123385 45785 net.cpp:413] accuracy_top1 <- label_data_1_split_0
I1209 17:02:37.123392 45785 net.cpp:387] accuracy_top1 -> accuracy_top1
…
