…
I1219 09:51:43.711855  7854 net.cpp:301] The NetState phase (0) differed from the phase (1) specified by a rule in layer accuracy_top5
I1219 09:51:43.712370  7854 net.cpp:51] Initializing net from parameters: 
name: "AlexNet"
state {
  phase: TRAIN
  level: 0
  stage: ""
}
layer {
  name: "data"
  type: "Data"
  top: "data"
  top: "label"
  include {
    phase: TRAIN
  }
  transform_param {
    mirror: true
    crop_size: 227
    mean_file: "/home/data/caffe-imagenet/imagenet_mean.binaryproto"
  }
  data_param {
    source: "/home/data/caffe-imagenet/ilsvrc12_train_lmdb"
    batch_size: 256
    backend: LMDB
  }
}
layer {
  name: "conv1"
  type: "INQConvolution"
  bottom: "data"
  top: "conv1"
  param {
    lr_mult: 1
    decay_mult: 1
  }
  param {
    lr_mult: 2
    decay_mult: 0
  }
  convolution_param {
    num_output: 96
    kernel_size: 11
    stride: 4
    weight_filler {
      type: "gaussian"
      std: 0.01
    }
    bias_filler {
      type: "constant"
      value: 0
    }
  }
  inq_convolution_param {
    portion: 0
    portion: 0.3
    weight_mask_filler {
      type: "constant"
      value: 1
    }
    bias_mask_filler {
      type: "constant"
      value: 1
    }
    num_quantum_values: 7
  }
}
layer {
  name: "relu1"
  type: "ReLU"
  bottom: "conv1"
  top: "conv1"
}
layer {
  name: "norm1"
  type: "LRN"
  bottom: "conv1"
  top: "norm1"
  lrn_param {
    local_size: 5
    alpha: 0.0001
    beta: 0.75
  }
}
layer {
  name: "pool1"
  type: "Pooling"
  bottom: "norm1"
  top: "pool1"
  pooling_param {
    pool: MAX
    kernel_size: 3
    stride: 2
  }
}
layer {
  name: "conv2"
  type: "INQConvolution"
  bottom: "pool1"
  top: "conv2"
  param {
    lr_mult: 1
    decay_mult: 1
  }
  param {
    lr_mult: 2
    decay_mult: 0
  }
  convolution_param {
    num_output: 256
    pad: 2
    kernel_size: 5
    group: 2
    weight_filler {
      type: "gaussian"
      std: 0.01
    }
    bias_filler {
      type: "constant"
      value: 0.1
    }
  }
  inq_convolution_param {
    portion: 0
    portion: 0.3
    weight_mask_filler {
      type: "constant"
      value: 1
    }
    bias_mask_filler {
      type: "constant"
      value: 1
    }
    num_quantum_values: 7
  }
}
layer {
  name: "relu2"
  type: "ReLU"
  bottom: "conv2"
  top: "conv2"
}
layer {
  name: "norm2"
  type: "LRN"
  bottom: "conv2"
  top: "norm2"
  lrn_param {
    local_size: 5
    alpha: 0.0001
    beta: 0.75
  }
}
layer {
  name: "pool2"
  type: "Pooling"
  bottom: "norm2"
  top: "pool2"
  pooling_param {
    pool: MAX
    kernel_size: 3
    stride: 2
  }
}
layer {
  name: "conv3"
  type: "INQConvolution"
  bottom: "pool2"
  top: "conv3"
  param {
    lr_mult: 1
    decay_mult: 1
  }
  param {
    lr_mult: 2
    decay_mult: 0
  }
  convolution_param {
    num_output: 384
    pad: 1
    kernel_size: 3
    weight_filler {
      type: "gaussian"
      std: 0.01
    }
    bias_filler {
      type: "constant"
      value: 0
    }
  }
  inq_convolution_param {
    portion: 0
    portion: 0.3
    weight_mask_filler {
      type: "constant"
      value: 1
    }
    bias_mask_filler {
      type: "constant"
      value: 1
    }
    num_quantum_values: 7
  }
}
layer {
  name: "relu3"
  type: "ReLU"
  bottom: "conv3"
  top: "conv3"
}
layer {
  name: "conv4"
  type: "INQConvolution"
  bottom: "conv3"
  top: "conv4"
  param {
    lr_mult: 1
    decay_mult: 1
  }
  param {
    lr_mult: 2
    decay_mult: 0
  }
  convolution_param {
    num_output: 384
    pad: 1
    kernel_size: 3
    group: 2
    weight_filler {
      type: "gaussian"
      std: 0.01
    }
    bias_filler {
      type: "constant"
      value: 0.1
    }
  }
  inq_convolution_param {
    portion: 0
    portion: 0.3
    weight_mask_filler {
      type: "constant"
      value: 1
    }
    bias_mask_filler {
      type: "constant"
      value: 1
    }
    num_quantum_values: 7
  }
}
layer {
  name: "relu4"
  type: "ReLU"
  bottom: "conv4"
  top: "conv4"
}
layer {
  name: "conv5"
  type: "INQConvolution"
  bottom: "conv4"
  top: "conv5"
  param {
    lr_mult: 1
    decay_mult: 1
  }
  param {
    lr_mult: 2
    decay_mult: 0
  }
  convolution_param {
    num_output: 256
    pad: 1
    kernel_size: 3
    group: 2
    weight_filler {
      type: "gaussian"
      std: 0.01
    }
    bias_filler {
      type: "constant"
      value: 0.1
    }
  }
  inq_convolution_param {
    portion: 0
    portion: 0.3
    weight_mask_filler {
      type: "constant"
      value: 1
    }
    bias_mask_filler {
      type: "constant"
      value: 1
    }
    num_quantum_values: 7
  }
}
layer {
  name: "relu5"
  type: "ReLU"
  bottom: "conv5"
  top: "conv5"
}
layer {
  name: "pool5"
  type: "Pooling"
  bottom: "conv5"
  top: "pool5"
  pooling_param {
    pool: MAX
    kernel_size: 3
    stride: 2
  }
}
layer {
  name: "fc6"
  type: "INQInnerProduct"
  bottom: "pool5"
  top: "fc6"
  param {
    lr_mult: 1
    decay_mult: 1
  }
  param {
    lr_mult: 2
    decay_mult: 0
  }
  inner_product_param {
    num_output: 4096
    weight_filler {
      type: "gaussian"
      std: 0.005
    }
    bias_filler {
      type: "constant"
      value: 0.1
    }
  }
  inq_inner_product_param {
    portion: 0
    portion: 0.3
    weight_mask_filler {
      type: "constant"
      value: 1
    }
    bias_mask_filler {
      type: "constant"
      value: 1
    }
    num_quantum_values: 7
  }
}
layer {
  name: "relu6"
  type: "ReLU"
  bottom: "fc6"
  top: "fc6"
}
layer {
  name: "drop6"
  type: "Dropout"
  bottom: "fc6"
  top: "fc6"
  dropout_param {
    dropout_ratio: 0.5
  }
}
layer {
  name: "fc7"
  type: "INQInnerProduct"
  bottom: "fc6"
  top: "fc7"
  param {
    lr_mult: 1
    decay_mult: 1
  }
  param {
    lr_mult: 2
    decay_mult: 0
  }
  inner_product_param {
    num_output: 4096
    weight_filler {
      type: "gaussian"
      std: 0.005
    }
    bias_filler {
      type: "constant"
      value: 0.1
    }
  }
  inq_inner_product_param {
    portion: 0
    portion: 0.3
    weight_mask_filler {
      type: "constant"
      value: 1
    }
    bias_mask_filler {
      type: "constant"
      value: 1
    }
    num_quantum_values: 7
  }
}
layer {
  name: "relu7"
  type: "ReLU"
  bottom: "fc7"
  top: "fc7"
}
layer {
  name: "drop7"
  type: "Dropout"
  bottom: "fc7"
  top: "fc7"
  dropout_param {
    dropout_ratio: 0.5
  }
}
layer {
  name: "fc8"
  type: "INQInnerProduct"
  bottom: "fc7"
  top: "fc8"
  param {
    lr_mult: 1
    decay_mult: 1
  }
  param {
    lr_mult: 2
    decay_mult: 0
  }
  inner_product_param {
    num_output: 1000
    weight_filler {
      type: "gaussian"
      std: 0.01
    }
    bias_filler {
      type: "constant"
      value: 0
    }
  }
  inq_inner_product_param {
    portion: 0
    portion: 0.3
    weight_mask_filler {
      type: "constant"
      value: 1
    }
    bias_mask_filler {
      type: "constant"
      value: 1
    }
    num_quantum_values: 7
  }
}
layer {
  name: "loss"
  type: "SoftmaxWithLoss"
  bottom: "fc8"
  bottom: "label"
  top: "loss"
}
I1219 09:51:43.712638  7854 layer_factory.hpp:77] Creating layer data
I1219 09:51:43.722697  7854 db_lmdb.cpp:35] Opened lmdb /home/data/caffe-imagenet/ilsvrc12_train_lmdb
I1219 09:51:43.722812  7854 net.cpp:84] Creating Layer data
I1219 09:51:43.722836  7854 net.cpp:387] data -> data
I1219 09:51:43.722895  7854 net.cpp:387] data -> label
I1219 09:51:43.722918  7854 data_transformer.cpp:25] Loading mean file from: /home/data/caffe-imagenet/imagenet_mean.binaryproto
I1219 09:51:43.731389  7854 data_layer.cpp:45] output data size: 256,3,227,227
I1219 09:51:44.143443  7854 net.cpp:127] Setting up data
I1219 09:51:44.143481  7854 net.cpp:136] Top shape: 256 3 227 227 (39574272)
I1219 09:51:44.143488  7854 net.cpp:136] Top shape: 256 (256)
I1219 09:51:44.143491  7854 net.cpp:144] Memory required for data: 158298112
I1219 09:51:44.143507  7854 layer_factory.hpp:77] Creating layer conv1
I1219 09:51:44.143534  7854 net.cpp:84] Creating Layer conv1
I1219 09:51:44.143548  7854 net.cpp:413] conv1 <- data
I1219 09:51:44.143566  7854 net.cpp:387] conv1 -> conv1
I1219 09:51:44.147397  7854 net.cpp:127] Setting up conv1
I1219 09:51:44.147413  7854 net.cpp:136] Top shape: 256 96 55 55 (74342400)
I1219 09:51:44.147416  7854 net.cpp:144] Memory required for data: 455667712
I1219 09:51:44.147435  7854 net.cpp:453] Found INQ layer:conv1, type: INQConvolution, layer id:1
I1219 09:51:44.147449  7854 net.cpp:453] Found INQ layer:conv1, type: INQConvolution, layer id:1
I1219 09:51:44.147456  7854 net.cpp:453] Found INQ layer:conv1, type: INQConvolution, layer id:1
I1219 09:51:44.147462  7854 net.cpp:453] Found INQ layer:conv1, type: INQConvolution, layer id:1
I1219 09:51:44.147466  7854 layer_factory.hpp:77] Creating layer relu1
I1219 09:51:44.147482  7854 net.cpp:84] Creating Layer relu1
I1219 09:51:44.147487  7854 net.cpp:413] relu1 <- conv1
I1219 09:51:44.147495  7854 net.cpp:374] relu1 -> conv1 (in-place)
I1219 09:51:44.577451  7854 net.cpp:127] Setting up relu1
I1219 09:51:44.577502  7854 net.cpp:136] Top shape: 256 96 55 55 (74342400)
I1219 09:51:44.577512  7854 net.cpp:144] Memory required for data: 753037312
I1219 09:51:44.577523  7854 layer_factory.hpp:77] Creating layer norm1
I1219 09:51:44.577565  7854 net.cpp:84] Creating Layer norm1
I1219 09:51:44.577575  7854 net.cpp:413] norm1 <- conv1
I1219 09:51:44.577590  7854 net.cpp:387] norm1 -> norm1
I1219 09:51:44.580101  7854 net.cpp:127] Setting up norm1
I1219 09:51:44.580127  7854 net.cpp:136] Top shape: 256 96 55 55 (74342400)
I1219 09:51:44.580137  7854 net.cpp:144] Memory required for data: 1050406912
I1219 09:51:44.580145  7854 layer_factory.hpp:77] Creating layer pool1
I1219 09:51:44.580165  7854 net.cpp:84] Creating Layer pool1
I1219 09:51:44.580174  7854 net.cpp:413] pool1 <- norm1
I1219 09:51:44.580186  7854 net.cpp:387] pool1 -> pool1
I1219 09:51:44.580283  7854 net.cpp:127] Setting up pool1
I1219 09:51:44.580299  7854 net.cpp:136] Top shape: 256 96 27 27 (17915904)
I1219 09:51:44.580307  7854 net.cpp:144] Memory required for data: 1122070528
I1219 09:51:44.580313  7854 layer_factory.hpp:77] Creating layer conv2
I1219 09:51:44.580335  7854 net.cpp:84] Creating Layer conv2
I1219 09:51:44.580343  7854 net.cpp:413] conv2 <- pool1
I1219 09:51:44.580355  7854 net.cpp:387] conv2 -> conv2
I1219 09:51:44.590934  7854 net.cpp:127] Setting up conv2
I1219 09:51:44.590961  7854 net.cpp:136] Top shape: 256 256 27 27 (47775744)
I1219 09:51:44.590970  7854 net.cpp:144] Memory required for data: 1313173504
I1219 09:51:44.590986  7854 net.cpp:453] Found INQ layer:conv2, type: INQConvolution, layer id:5
I1219 09:51:44.591002  7854 net.cpp:453] Found INQ layer:conv2, type: INQConvolution, layer id:5
I1219 09:51:44.591013  7854 net.cpp:453] Found INQ layer:conv2, type: INQConvolution, layer id:5
I1219 09:51:44.591022  7854 net.cpp:453] Found INQ layer:conv2, type: INQConvolution, layer id:5
I1219 09:51:44.591028  7854 layer_factory.hpp:77] Creating layer relu2
I1219 09:51:44.591042  7854 net.cpp:84] Creating Layer relu2
I1219 09:51:44.591049  7854 net.cpp:413] relu2 <- conv2
I1219 09:51:44.591060  7854 net.cpp:374] relu2 -> conv2 (in-place)
I1219 09:51:44.591418  7854 net.cpp:127] Setting up relu2
I1219 09:51:44.591471  7854 net.cpp:136] Top shape: 256 256 27 27 (47775744)
I1219 09:51:44.591480  7854 net.cpp:144] Memory required for data: 1504276480
I1219 09:51:44.591487  7854 layer_factory.hpp:77] Creating layer norm2
I1219 09:51:44.591500  7854 net.cpp:84] Creating Layer norm2
I1219 09:51:44.591508  7854 net.cpp:413] norm2 <- conv2
I1219 09:51:44.591518  7854 net.cpp:387] norm2 -> norm2
I1219 09:51:44.591922  7854 net.cpp:127] Setting up norm2
I1219 09:51:44.591938  7854 net.cpp:136] Top shape: 256 256 27 27 (47775744)
I1219 09:51:44.591944  7854 net.cpp:144] Memory required for data: 1695379456
I1219 09:51:44.591951  7854 layer_factory.hpp:77] Creating layer pool2
I1219 09:51:44.591965  7854 net.cpp:84] Creating Layer pool2
I1219 09:51:44.591972  7854 net.cpp:413] pool2 <- norm2
I1219 09:51:44.591981  7854 net.cpp:387] pool2 -> pool2
I1219 09:51:44.592039  7854 net.cpp:127] Setting up pool2
I1219 09:51:44.592051  7854 net.cpp:136] Top shape: 256 256 13 13 (11075584)
I1219 09:51:44.592056  7854 net.cpp:144] Memory required for data: 1739681792
I1219 09:51:44.592062  7854 layer_factory.hpp:77] Creating layer conv3
I1219 09:51:44.592077  7854 net.cpp:84] Creating Layer conv3
I1219 09:51:44.592083  7854 net.cpp:413] conv3 <- pool2
I1219 09:51:44.592094  7854 net.cpp:387] conv3 -> conv3
I1219 09:51:44.617663  7854 net.cpp:127] Setting up conv3
I1219 09:51:44.617686  7854 net.cpp:136] Top shape: 256 384 13 13 (16613376)
I1219 09:51:44.617692  7854 net.cpp:144] Memory required for data: 1806135296
I1219 09:51:44.617704  7854 net.cpp:453] Found INQ layer:conv3, type: INQConvolution, layer id:9
I1219 09:51:44.617717  7854 net.cpp:453] Found INQ layer:conv3, type: INQConvolution, layer id:9
I1219 09:51:44.617724  7854 net.cpp:453] Found INQ layer:conv3, type: INQConvolution, layer id:9
I1219 09:51:44.617732  7854 net.cpp:453] Found INQ layer:conv3, type: INQConvolution, layer id:9
I1219 09:51:44.617738  7854 layer_factory.hpp:77] Creating layer relu3
I1219 09:51:44.617748  7854 net.cpp:84] Creating Layer relu3
I1219 09:51:44.617753  7854 net.cpp:413] relu3 <- conv3
I1219 09:51:44.617763  7854 net.cpp:374] relu3 -> conv3 (in-place)
I1219 09:51:44.619608  7854 net.cpp:127] Setting up relu3
I1219 09:51:44.619629  7854 net.cpp:136] Top shape: 256 384 13 13 (16613376)
I1219 09:51:44.619635  7854 net.cpp:144] Memory required for data: 1872588800
I1219 09:51:44.619642  7854 layer_factory.hpp:77] Creating layer conv4
I1219 09:51:44.619657  7854 net.cpp:84] Creating Layer conv4
I1219 09:51:44.619664  7854 net.cpp:413] conv4 <- conv3
I1219 09:51:44.619675  7854 net.cpp:387] conv4 -> conv4
I1219 09:51:44.646456  7854 net.cpp:127] Setting up conv4
I1219 09:51:44.646478  7854 net.cpp:136] Top shape: 256 384 13 13 (16613376)
I1219 09:51:44.646484  7854 net.cpp:144] Memory required for data: 1939042304
I1219 09:51:44.646493  7854 net.cpp:453] Found INQ layer:conv4, type: INQConvolution, layer id:11
I1219 09:51:44.646502  7854 net.cpp:453] Found INQ layer:conv4, type: INQConvolution, layer id:11
I1219 09:51:44.646507  7854 net.cpp:453] Found INQ layer:conv4, type: INQConvolution, layer id:11
I1219 09:51:44.646513  7854 net.cpp:453] Found INQ layer:conv4, type: INQConvolution, layer id:11
I1219 09:51:44.646517  7854 layer_factory.hpp:77] Creating layer relu4
I1219 09:51:44.646528  7854 net.cpp:84] Creating Layer relu4
I1219 09:51:44.646533  7854 net.cpp:413] relu4 <- conv4
I1219 09:51:44.646546  7854 net.cpp:374] relu4 -> conv4 (in-place)
I1219 09:51:44.646805  7854 net.cpp:127] Setting up relu4
I1219 09:51:44.646817  7854 net.cpp:136] Top shape: 256 384 13 13 (16613376)
I1219 09:51:44.646822  7854 net.cpp:144] Memory required for data: 2005495808
I1219 09:51:44.646827  7854 layer_factory.hpp:77] Creating layer conv5
I1219 09:51:44.646842  7854 net.cpp:84] Creating Layer conv5
I1219 09:51:44.646847  7854 net.cpp:413] conv5 <- conv4
I1219 09:51:44.646857  7854 net.cpp:387] conv5 -> conv5
I1219 09:51:44.656852  7854 net.cpp:127] Setting up conv5
I1219 09:51:44.656870  7854 net.cpp:136] Top shape: 256 256 13 13 (11075584)
I1219 09:51:44.656880  7854 net.cpp:144] Memory required for data: 2049798144
I1219 09:51:44.656906  7854 net.cpp:453] Found INQ layer:conv5, type: INQConvolution, layer id:13
I1219 09:51:44.656918  7854 net.cpp:453] Found INQ layer:conv5, type: INQConvolution, layer id:13
I1219 09:51:44.656924  7854 net.cpp:453] Found INQ layer:conv5, type: INQConvolution, layer id:13
I1219 09:51:44.656929  7854 net.cpp:453] Found INQ layer:conv5, type: INQConvolution, layer id:13
I1219 09:51:44.656934  7854 layer_factory.hpp:77] Creating layer relu5
I1219 09:51:44.656944  7854 net.cpp:84] Creating Layer relu5
I1219 09:51:44.656949  7854 net.cpp:413] relu5 <- conv5
I1219 09:51:44.656956  7854 net.cpp:374] relu5 -> conv5 (in-place)
I1219 09:51:44.657203  7854 net.cpp:127] Setting up relu5
I1219 09:51:44.657215  7854 net.cpp:136] Top shape: 256 256 13 13 (11075584)
I1219 09:51:44.657222  7854 net.cpp:144] Memory required for data: 2094100480
I1219 09:51:44.657227  7854 layer_factory.hpp:77] Creating layer pool5
I1219 09:51:44.657235  7854 net.cpp:84] Creating Layer pool5
I1219 09:51:44.657240  7854 net.cpp:413] pool5 <- conv5
I1219 09:51:44.657248  7854 net.cpp:387] pool5 -> pool5
I1219 09:51:44.657302  7854 net.cpp:127] Setting up pool5
I1219 09:51:44.657311  7854 net.cpp:136] Top shape: 256 256 6 6 (2359296)
I1219 09:51:44.657315  7854 net.cpp:144] Memory required for data: 2103537664
I1219 09:51:44.657320  7854 layer_factory.hpp:77] Creating layer fc6
I1219 09:51:44.657338  7854 net.cpp:84] Creating Layer fc6
I1219 09:51:44.657343  7854 net.cpp:413] fc6 <- pool5
I1219 09:51:44.657351  7854 net.cpp:387] fc6 -> fc6
I1219 09:51:45.263985  7854 net.cpp:127] Setting up fc6
I1219 09:51:45.264039  7854 net.cpp:136] Top shape: 256 4096 (1048576)
I1219 09:51:45.264045  7854 net.cpp:144] Memory required for data: 2107731968
I1219 09:51:45.264056  7854 net.cpp:453] Found INQ layer:fc6, type: INQInnerProduct, layer id:16
I1219 09:51:45.264065  7854 net.cpp:453] Found INQ layer:fc6, type: INQInnerProduct, layer id:16
I1219 09:51:45.264070  7854 net.cpp:453] Found INQ layer:fc6, type: INQInnerProduct, layer id:16
I1219 09:51:45.264075  7854 net.cpp:453] Found INQ layer:fc6, type: INQInnerProduct, layer id:16
I1219 09:51:45.264080  7854 layer_factory.hpp:77] Creating layer relu6
I1219 09:51:45.264092  7854 net.cpp:84] Creating Layer relu6
I1219 09:51:45.264099  7854 net.cpp:413] relu6 <- fc6
I1219 09:51:45.264108  7854 net.cpp:374] relu6 -> fc6 (in-place)
I1219 09:51:45.264403  7854 net.cpp:127] Setting up relu6
I1219 09:51:45.264415  7854 net.cpp:136] Top shape: 256 4096 (1048576)
I1219 09:51:45.264420  7854 net.cpp:144] Memory required for data: 2111926272
I1219 09:51:45.264425  7854 layer_factory.hpp:77] Creating layer drop6
I1219 09:51:45.264437  7854 net.cpp:84] Creating Layer drop6
I1219 09:51:45.264442  7854 net.cpp:413] drop6 <- fc6
I1219 09:51:45.264448  7854 net.cpp:374] drop6 -> fc6 (in-place)
I1219 09:51:45.264483  7854 net.cpp:127] Setting up drop6
I1219 09:51:45.264492  7854 net.cpp:136] Top shape: 256 4096 (1048576)
I1219 09:51:45.264497  7854 net.cpp:144] Memory required for data: 2116120576
I1219 09:51:45.264500  7854 layer_factory.hpp:77] Creating layer fc7
I1219 09:51:45.264513  7854 net.cpp:84] Creating Layer fc7
I1219 09:51:45.264518  7854 net.cpp:413] fc7 <- fc6
I1219 09:51:45.264526  7854 net.cpp:387] fc7 -> fc7
I1219 09:51:45.534113  7854 net.cpp:127] Setting up fc7
I1219 09:51:45.534160  7854 net.cpp:136] Top shape: 256 4096 (1048576)
I1219 09:51:45.534165  7854 net.cpp:144] Memory required for data: 2120314880
I1219 09:51:45.534176  7854 net.cpp:453] Found INQ layer:fc7, type: INQInnerProduct, layer id:19
I1219 09:51:45.534183  7854 net.cpp:453] Found INQ layer:fc7, type: INQInnerProduct, layer id:19
I1219 09:51:45.534189  7854 net.cpp:453] Found INQ layer:fc7, type: INQInnerProduct, layer id:19
I1219 09:51:45.534194  7854 net.cpp:453] Found INQ layer:fc7, type: INQInnerProduct, layer id:19
I1219 09:51:45.534198  7854 layer_factory.hpp:77] Creating layer relu7
I1219 09:51:45.534220  7854 net.cpp:84] Creating Layer relu7
I1219 09:51:45.534226  7854 net.cpp:413] relu7 <- fc7
I1219 09:51:45.534263  7854 net.cpp:374] relu7 -> fc7 (in-place)
I1219 09:51:45.535919  7854 net.cpp:127] Setting up relu7
I1219 09:51:45.535935  7854 net.cpp:136] Top shape: 256 4096 (1048576)
I1219 09:51:45.535939  7854 net.cpp:144] Memory required for data: 2124509184
I1219 09:51:45.535944  7854 layer_factory.hpp:77] Creating layer drop7
I1219 09:51:45.535955  7854 net.cpp:84] Creating Layer drop7
I1219 09:51:45.535959  7854 net.cpp:413] drop7 <- fc7
I1219 09:51:45.535967  7854 net.cpp:374] drop7 -> fc7 (in-place)
I1219 09:51:45.535996  7854 net.cpp:127] Setting up drop7
I1219 09:51:45.536005  7854 net.cpp:136] Top shape: 256 4096 (1048576)
I1219 09:51:45.536007  7854 net.cpp:144] Memory required for data: 2128703488
I1219 09:51:45.536011  7854 layer_factory.hpp:77] Creating layer fc8
I1219 09:51:45.536025  7854 net.cpp:84] Creating Layer fc8
I1219 09:51:45.536029  7854 net.cpp:413] fc8 <- fc7
I1219 09:51:45.536036  7854 net.cpp:387] fc8 -> fc8
I1219 09:51:45.602879  7854 net.cpp:127] Setting up fc8
I1219 09:51:45.602915  7854 net.cpp:136] Top shape: 256 1000 (256000)
I1219 09:51:45.602919  7854 net.cpp:144] Memory required for data: 2129727488
I1219 09:51:45.602928  7854 net.cpp:453] Found INQ layer:fc8, type: INQInnerProduct, layer id:22
I1219 09:51:45.602936  7854 net.cpp:453] Found INQ layer:fc8, type: INQInnerProduct, layer id:22
I1219 09:51:45.602941  7854 net.cpp:453] Found INQ layer:fc8, type: INQInnerProduct, layer id:22
I1219 09:51:45.602946  7854 net.cpp:453] Found INQ layer:fc8, type: INQInnerProduct, layer id:22
…
I1219 09:51:45.606633  7854 net.cpp:301] The NetState phase (1) differed from the phase (0) specified by a rule in layer data
I1219 09:51:45.607296  7854 net.cpp:51] Initializing net from parameters: 
name: "AlexNet"
state {
  phase: TEST
}
layer {
  name: "data"
  type: "Data"
  top: "data"
  top: "label"
  include {
    phase: TEST
  }
  transform_param {
    mirror: false
    crop_size: 227
    mean_file: "/home/data/caffe-imagenet/imagenet_mean.binaryproto"
  }
  data_param {
    source: "/home/data/caffe-imagenet/ilsvrc12_val_lmdb"
    batch_size: 50
    backend: LMDB
  }
}
layer {
  name: "conv1"
  type: "INQConvolution"
  bottom: "data"
  top: "conv1"
  param {
    lr_mult: 1
    decay_mult: 1
  }
  param {
    lr_mult: 2
    decay_mult: 0
  }
  convolution_param {
    num_output: 96
    kernel_size: 11
    stride: 4
    weight_filler {
      type: "gaussian"
      std: 0.01
    }
    bias_filler {
      type: "constant"
      value: 0
    }
  }
  inq_convolution_param {
    portion: 0
    portion: 0.3
    weight_mask_filler {
      type: "constant"
      value: 1
    }
    bias_mask_filler {
      type: "constant"
      value: 1
    }
    num_quantum_values: 7
  }
}
layer {
  name: "relu1"
  type: "ReLU"
  bottom: "conv1"
  top: "conv1"
}
layer {
  name: "norm1"
  type: "LRN"
  bottom: "conv1"
  top: "norm1"
  lrn_param {
    local_size: 5
    alpha: 0.0001
    beta: 0.75
  }
}
layer {
  name: "pool1"
  type: "Pooling"
  bottom: "norm1"
  top: "pool1"
  pooling_param {
    pool: MAX
    kernel_size: 3
    stride: 2
  }
}
layer {
  name: "conv2"
  type: "INQConvolution"
  bottom: "pool1"
  top: "conv2"
  param {
    lr_mult: 1
    decay_mult: 1
  }
  param {
    lr_mult: 2
    decay_mult: 0
  }
  convolution_param {
    num_output: 256
    pad: 2
    kernel_size: 5
    group: 2
    weight_filler {
      type: "gaussian"
      std: 0.01
    }
    bias_filler {
      type: "constant"
      value: 0.1
    }
  }
  inq_convolution_param {
    portion: 0
    portion: 0.3
    weight_mask_filler {
      type: "constant"
      value: 1
    }
    bias_mask_filler {
      type: "constant"
      value: 1
    }
    num_quantum_values: 7
  }
}
layer {
  name: "relu2"
  type: "ReLU"
  bottom: "conv2"
  top: "conv2"
}
layer {
  name: "norm2"
  type: "LRN"
  bottom: "conv2"
  top: "norm2"
  lrn_param {
    local_size: 5
    alpha: 0.0001
    beta: 0.75
  }
}
layer {
  name: "pool2"
  type: "Pooling"
  bottom: "norm2"
  top: "pool2"
  pooling_param {
    pool: MAX
    kernel_size: 3
    stride: 2
  }
}
layer {
  name: "conv3"
  type: "INQConvolution"
  bottom: "pool2"
  top: "conv3"
  param {
    lr_mult: 1
    decay_mult: 1
  }
  param {
    lr_mult: 2
    decay_mult: 0
  }
  convolution_param {
    num_output: 384
    pad: 1
    kernel_size: 3
    weight_filler {
      type: "gaussian"
      std: 0.01
    }
    bias_filler {
      type: "constant"
      value: 0
    }
  }
  inq_convolution_param {
    portion: 0
    portion: 0.3
    weight_mask_filler {
      type: "constant"
      value: 1
    }
    bias_mask_filler {
      type: "constant"
      value: 1
    }
    num_quantum_values: 7
  }
}
layer {
  name: "relu3"
  type: "ReLU"
  bottom: "conv3"
  top: "conv3"
}
layer {
  name: "conv4"
  type: "INQConvolution"
  bottom: "conv3"
  top: "conv4"
  param {
    lr_mult: 1
    decay_mult: 1
  }
  param {
    lr_mult: 2
    decay_mult: 0
  }
  convolution_param {
    num_output: 384
    pad: 1
    kernel_size: 3
    group: 2
    weight_filler {
      type: "gaussian"
      std: 0.01
    }
    bias_filler {
      type: "constant"
      value: 0.1
    }
  }
  inq_convolution_param {
    portion: 0
    portion: 0.3
    weight_mask_filler {
      type: "constant"
      value: 1
    }
    bias_mask_filler {
      type: "constant"
      value: 1
    }
    num_quantum_values: 7
  }
}
layer {
  name: "relu4"
  type: "ReLU"
  bottom: "conv4"
  top: "conv4"
}
layer {
  name: "conv5"
  type: "INQConvolution"
  bottom: "conv4"
  top: "conv5"
  param {
    lr_mult: 1
    decay_mult: 1
  }
  param {
    lr_mult: 2
    decay_mult: 0
  }
  convolution_param {
    num_output: 256
    pad: 1
    kernel_size: 3
    group: 2
    weight_filler {
      type: "gaussian"
      std: 0.01
    }
    bias_filler {
      type: "constant"
      value: 0.1
    }
  }
  inq_convolution_param {
    portion: 0
    portion: 0.3
    weight_mask_filler {
      type: "constant"
      value: 1
    }
    bias_mask_filler {
      type: "constant"
      value: 1
    }
    num_quantum_values: 7
  }
}
layer {
  name: "relu5"
  type: "ReLU"
  bottom: "conv5"
  top: "conv5"
}
layer {
  name: "pool5"
  type: "Pooling"
  bottom: "conv5"
  top: "pool5"
  pooling_param {
    pool: MAX
    kernel_size: 3
    stride: 2
  }
}
layer {
  name: "fc6"
  type: "INQInnerProduct"
  bottom: "pool5"
  top: "fc6"
  param {
    lr_mult: 1
    decay_mult: 1
  }
  param {
    lr_mult: 2
    decay_mult: 0
  }
  inner_product_param {
    num_output: 4096
    weight_filler {
      type: "gaussian"
      std: 0.005
    }
    bias_filler {
      type: "constant"
      value: 0.1
    }
  }
  inq_inner_product_param {
    portion: 0
    portion: 0.3
    weight_mask_filler {
      type: "constant"
      value: 1
    }
    bias_mask_filler {
      type: "constant"
      value: 1
    }
    num_quantum_values: 7
  }
}
layer {
  name: "relu6"
  type: "ReLU"
  bottom: "fc6"
  top: "fc6"
}
layer {
  name: "drop6"
  type: "Dropout"
  bottom: "fc6"
  top: "fc6"
  dropout_param {
    dropout_ratio: 0.5
  }
}
layer {
  name: "fc7"
  type: "INQInnerProduct"
  bottom: "fc6"
  top: "fc7"
  param {
    lr_mult: 1
    decay_mult: 1
  }
  param {
    lr_mult: 2
    decay_mult: 0
  }
  inner_product_param {
    num_output: 4096
    weight_filler {
      type: "gaussian"
      std: 0.005
    }
    bias_filler {
      type: "constant"
      value: 0.1
    }
  }
  inq_inner_product_param {
    portion: 0
    portion: 0.3
    weight_mask_filler {
      type: "constant"
      value: 1
    }
    bias_mask_filler {
      type: "constant"
      value: 1
    }
    num_quantum_values: 7
  }
}
layer {
  name: "relu7"
  type: "ReLU"
  bottom: "fc7"
  top: "fc7"
}
layer {
  name: "drop7"
  type: "Dropout"
  bottom: "fc7"
  top: "fc7"
  dropout_param {
    dropout_ratio: 0.5
  }
}
layer {
  name: "fc8"
  type: "INQInnerProduct"
  bottom: "fc7"
  top: "fc8"
  param {
    lr_mult: 1
    decay_mult: 1
  }
  param {
    lr_mult: 2
    decay_mult: 0
  }
  inner_product_param {
    num_output: 1000
    weight_filler {
      type: "gaussian"
      std: 0.01
    }
    bias_filler {
      type: "constant"
      value: 0
    }
  }
  inq_inner_product_param {
    portion: 0
    portion: 0.3
    weight_mask_filler {
      type: "constant"
      value: 1
    }
    bias_mask_filler {
      type: "constant"
      value: 1
    }
    num_quantum_values: 7
  }
}
layer {
  name: "accuracy_top1"
  type: "Accuracy"
  bottom: "fc8"
  bottom: "label"
  top: "accuracy_top1"
  include {
    phase: TEST
  }
  accuracy_param {
    top_k: 1
  }
}
layer {
  name: "accuracy_top5"
  type: "Accuracy"
  bottom: "fc8"
  bottom: "label"
  top: "accuracy_top5"
  include {
    phase: TEST
  }
  accuracy_param {
    top_k: 5
  }
}
layer {
  name: "loss"
  type: "SoftmaxWithLoss"
  bottom: "fc8"
  bottom: "label"
  top: "loss"
}
I1219 09:51:45.607583  7854 layer_factory.hpp:77] Creating layer data
I1219 09:51:45.607688  7854 db_lmdb.cpp:35] Opened lmdb /home/data/caffe-imagenet/ilsvrc12_val_lmdb
I1219 09:51:45.607722  7854 net.cpp:84] Creating Layer data
I1219 09:51:45.607733  7854 net.cpp:387] data -> data
I1219 09:51:45.607751  7854 net.cpp:387] data -> label
I1219 09:51:45.607766  7854 data_transformer.cpp:25] Loading mean file from: /home/data/caffe-imagenet/imagenet_mean.binaryproto
I1219 09:51:45.611009  7854 data_layer.cpp:45] output data size: 50,3,227,227
I1219 09:51:45.711428  7854 net.cpp:127] Setting up data
I1219 09:51:45.711477  7854 net.cpp:136] Top shape: 50 3 227 227 (7729350)
I1219 09:51:45.711485  7854 net.cpp:136] Top shape: 50 (50)
I1219 09:51:45.711519  7854 net.cpp:144] Memory required for data: 30917600
I1219 09:51:45.711527  7854 layer_factory.hpp:77] Creating layer label_data_1_split
I1219 09:51:45.711557  7854 net.cpp:84] Creating Layer label_data_1_split
I1219 09:51:45.711562  7854 net.cpp:413] label_data_1_split <- label
I1219 09:51:45.711572  7854 net.cpp:387] label_data_1_split -> label_data_1_split_0
I1219 09:51:45.711585  7854 net.cpp:387] label_data_1_split -> label_data_1_split_1
I1219 09:51:45.711592  7854 net.cpp:387] label_data_1_split -> label_data_1_split_2
I1219 09:51:45.711742  7854 net.cpp:127] Setting up label_data_1_split
I1219 09:51:45.711752  7854 net.cpp:136] Top shape: 50 (50)
I1219 09:51:45.711757  7854 net.cpp:136] Top shape: 50 (50)
I1219 09:51:45.711762  7854 net.cpp:136] Top shape: 50 (50)
I1219 09:51:45.711766  7854 net.cpp:144] Memory required for data: 30918200
I1219 09:51:45.711771  7854 layer_factory.hpp:77] Creating layer conv1
I1219 09:51:45.711788  7854 net.cpp:84] Creating Layer conv1
I1219 09:51:45.711792  7854 net.cpp:413] conv1 <- data
I1219 09:51:45.711802  7854 net.cpp:387] conv1 -> conv1
I1219 09:51:45.712741  7854 net.cpp:127] Setting up conv1
I1219 09:51:45.712751  7854 net.cpp:136] Top shape: 50 96 55 55 (14520000)
I1219 09:51:45.712755  7854 net.cpp:144] Memory required for data: 88998200
I1219 09:51:45.712764  7854 net.cpp:453] Found INQ layer:conv1, type: INQConvolution, layer id:2
I1219 09:51:45.712774  7854 net.cpp:453] Found INQ layer:conv1, type: INQConvolution, layer id:2
I1219 09:51:45.712781  7854 net.cpp:453] Found INQ layer:conv1, type: INQConvolution, layer id:2
I1219 09:51:45.712788  7854 net.cpp:453] Found INQ layer:conv1, type: INQConvolution, layer id:2
I1219 09:51:45.712792  7854 layer_factory.hpp:77] Creating layer relu1
I1219 09:51:45.712801  7854 net.cpp:84] Creating Layer relu1
I1219 09:51:45.712806  7854 net.cpp:413] relu1 <- conv1
I1219 09:51:45.712812  7854 net.cpp:374] relu1 -> conv1 (in-place)
I1219 09:51:45.713079  7854 net.cpp:127] Setting up relu1
I1219 09:51:45.713088  7854 net.cpp:136] Top shape: 50 96 55 55 (14520000)
I1219 09:51:45.713093  7854 net.cpp:144] Memory required for data: 147078200
I1219 09:51:45.713096  7854 layer_factory.hpp:77] Creating layer norm1
I1219 09:51:45.713107  7854 net.cpp:84] Creating Layer norm1
I1219 09:51:45.713111  7854 net.cpp:413] norm1 <- conv1
I1219 09:51:45.713119  7854 net.cpp:387] norm1 -> norm1
I1219 09:51:45.713371  7854 net.cpp:127] Setting up norm1
I1219 09:51:45.713379  7854 net.cpp:136] Top shape: 50 96 55 55 (14520000)
I1219 09:51:45.713382  7854 net.cpp:144] Memory required for data: 205158200
I1219 09:51:45.713387  7854 layer_factory.hpp:77] Creating layer pool1
I1219 09:51:45.713397  7854 net.cpp:84] Creating Layer pool1
I1219 09:51:45.713400  7854 net.cpp:413] pool1 <- norm1
I1219 09:51:45.713407  7854 net.cpp:387] pool1 -> pool1
I1219 09:51:45.713451  7854 net.cpp:127] Setting up pool1
I1219 09:51:45.713459  7854 net.cpp:136] Top shape: 50 96 27 27 (3499200)
I1219 09:51:45.713462  7854 net.cpp:144] Memory required for data: 219155000
I1219 09:51:45.713465  7854 layer_factory.hpp:77] Creating layer conv2
I1219 09:51:45.713477  7854 net.cpp:84] Creating Layer conv2
I1219 09:51:45.713481  7854 net.cpp:413] conv2 <- pool1
I1219 09:51:45.713490  7854 net.cpp:387] conv2 -> conv2
I1219 09:51:45.720559  7854 net.cpp:127] Setting up conv2
I1219 09:51:45.720576  7854 net.cpp:136] Top shape: 50 256 27 27 (9331200)
I1219 09:51:45.720579  7854 net.cpp:144] Memory required for data: 256479800
I1219 09:51:45.720588  7854 net.cpp:453] Found INQ layer:conv2, type: INQConvolution, layer id:6
I1219 09:51:45.720597  7854 net.cpp:453] Found INQ layer:conv2, type: INQConvolution, layer id:6
I1219 09:51:45.720602  7854 net.cpp:453] Found INQ layer:conv2, type: INQConvolution, layer id:6
I1219 09:51:45.720608  7854 net.cpp:453] Found INQ layer:conv2, type: INQConvolution, layer id:6
I1219 09:51:45.720613  7854 layer_factory.hpp:77] Creating layer relu2
I1219 09:51:45.720624  7854 net.cpp:84] Creating Layer relu2
I1219 09:51:45.720640  7854 net.cpp:413] relu2 <- conv2
I1219 09:51:45.720649  7854 net.cpp:374] relu2 -> conv2 (in-place)
I1219 09:51:45.722086  7854 net.cpp:127] Setting up relu2
I1219 09:51:45.722101  7854 net.cpp:136] Top shape: 50 256 27 27 (9331200)
I1219 09:51:45.722105  7854 net.cpp:144] Memory required for data: 293804600
I1219 09:51:45.722110  7854 layer_factory.hpp:77] Creating layer norm2
I1219 09:51:45.722121  7854 net.cpp:84] Creating Layer norm2
I1219 09:51:45.722126  7854 net.cpp:413] norm2 <- conv2
I1219 09:51:45.722133  7854 net.cpp:387] norm2 -> norm2
I1219 09:51:45.722373  7854 net.cpp:127] Setting up norm2
I1219 09:51:45.722383  7854 net.cpp:136] Top shape: 50 256 27 27 (9331200)
I1219 09:51:45.722386  7854 net.cpp:144] Memory required for data: 331129400
I1219 09:51:45.722390  7854 layer_factory.hpp:77] Creating layer pool2
I1219 09:51:45.722398  7854 net.cpp:84] Creating Layer pool2
I1219 09:51:45.722403  7854 net.cpp:413] pool2 <- norm2
I1219 09:51:45.722409  7854 net.cpp:387] pool2 -> pool2
I1219 09:51:45.722450  7854 net.cpp:127] Setting up pool2
I1219 09:51:45.722456  7854 net.cpp:136] Top shape: 50 256 13 13 (2163200)
I1219 09:51:45.722460  7854 net.cpp:144] Memory required for data: 339782200
I1219 09:51:45.722463  7854 layer_factory.hpp:77] Creating layer conv3
I1219 09:51:45.722476  7854 net.cpp:84] Creating Layer conv3
I1219 09:51:45.722478  7854 net.cpp:413] conv3 <- pool2
I1219 09:51:45.722486  7854 net.cpp:387] conv3 -> conv3
I1219 09:51:45.738291  7854 net.cpp:127] Setting up conv3
I1219 09:51:45.738307  7854 net.cpp:136] Top shape: 50 384 13 13 (3244800)
I1219 09:51:45.738310  7854 net.cpp:144] Memory required for data: 352761400
I1219 09:51:45.738320  7854 net.cpp:453] Found INQ layer:conv3, type: INQConvolution, layer id:10
I1219 09:51:45.738328  7854 net.cpp:453] Found INQ layer:conv3, type: INQConvolution, layer id:10
I1219 09:51:45.738334  7854 net.cpp:453] Found INQ layer:conv3, type: INQConvolution, layer id:10
I1219 09:51:45.738339  7854 net.cpp:453] Found INQ layer:conv3, type: INQConvolution, layer id:10
I1219 09:51:45.738343  7854 layer_factory.hpp:77] Creating layer relu3
I1219 09:51:45.738350  7854 net.cpp:84] Creating Layer relu3
I1219 09:51:45.738355  7854 net.cpp:413] relu3 <- conv3
I1219 09:51:45.738363  7854 net.cpp:374] relu3 -> conv3 (in-place)
I1219 09:51:45.738587  7854 net.cpp:127] Setting up relu3
I1219 09:51:45.738596  7854 net.cpp:136] Top shape: 50 384 13 13 (3244800)
I1219 09:51:45.738600  7854 net.cpp:144] Memory required for data: 365740600
I1219 09:51:45.738605  7854 layer_factory.hpp:77] Creating layer conv4
I1219 09:51:45.738615  7854 net.cpp:84] Creating Layer conv4
I1219 09:51:45.738620  7854 net.cpp:413] conv4 <- conv3
I1219 09:51:45.738626  7854 net.cpp:387] conv4 -> conv4
I1219 09:51:45.750607  7854 net.cpp:127] Setting up conv4
I1219 09:51:45.750622  7854 net.cpp:136] Top shape: 50 384 13 13 (3244800)
I1219 09:51:45.750627  7854 net.cpp:144] Memory required for data: 378719800
I1219 09:51:45.750633  7854 net.cpp:453] Found INQ layer:conv4, type: INQConvolution, layer id:12
I1219 09:51:45.750638  7854 net.cpp:453] Found INQ layer:conv4, type: INQConvolution, layer id:12
I1219 09:51:45.750643  7854 net.cpp:453] Found INQ layer:conv4, type: INQConvolution, layer id:12
I1219 09:51:45.750648  7854 net.cpp:453] Found INQ layer:conv4, type: INQConvolution, layer id:12
I1219 09:51:45.750651  7854 layer_factory.hpp:77] Creating layer relu4
I1219 09:51:45.750659  7854 net.cpp:84] Creating Layer relu4
I1219 09:51:45.750664  7854 net.cpp:413] relu4 <- conv4
I1219 09:51:45.750670  7854 net.cpp:374] relu4 -> conv4 (in-place)
I1219 09:51:45.752104  7854 net.cpp:127] Setting up relu4
I1219 09:51:45.752118  7854 net.cpp:136] Top shape: 50 384 13 13 (3244800)
I1219 09:51:45.752122  7854 net.cpp:144] Memory required for data: 391699000
I1219 09:51:45.752127  7854 layer_factory.hpp:77] Creating layer conv5
I1219 09:51:45.752138  7854 net.cpp:84] Creating Layer conv5
I1219 09:51:45.752146  7854 net.cpp:413] conv5 <- conv4
I1219 09:51:45.752156  7854 net.cpp:387] conv5 -> conv5
I1219 09:51:45.760881  7854 net.cpp:127] Setting up conv5
I1219 09:51:45.760897  7854 net.cpp:136] Top shape: 50 256 13 13 (2163200)
I1219 09:51:45.760901  7854 net.cpp:144] Memory required for data: 400351800
I1219 09:51:45.760910  7854 net.cpp:453] Found INQ layer:conv5, type: INQConvolution, layer id:14
I1219 09:51:45.760920  7854 net.cpp:453] Found INQ layer:conv5, type: INQConvolution, layer id:14
I1219 09:51:45.760924  7854 net.cpp:453] Found INQ layer:conv5, type: INQConvolution, layer id:14
I1219 09:51:45.760929  7854 net.cpp:453] Found INQ layer:conv5, type: INQConvolution, layer id:14
I1219 09:51:45.760933  7854 layer_factory.hpp:77] Creating layer relu5
I1219 09:51:45.760941  7854 net.cpp:84] Creating Layer relu5
I1219 09:51:45.760946  7854 net.cpp:413] relu5 <- conv5
I1219 09:51:45.760952  7854 net.cpp:374] relu5 -> conv5 (in-place)
I1219 09:51:45.761167  7854 net.cpp:127] Setting up relu5
I1219 09:51:45.761175  7854 net.cpp:136] Top shape: 50 256 13 13 (2163200)
I1219 09:51:45.761179  7854 net.cpp:144] Memory required for data: 409004600
I1219 09:51:45.761183  7854 layer_factory.hpp:77] Creating layer pool5
I1219 09:51:45.761193  7854 net.cpp:84] Creating Layer pool5
I1219 09:51:45.761198  7854 net.cpp:413] pool5 <- conv5
I1219 09:51:45.761204  7854 net.cpp:387] pool5 -> pool5
I1219 09:51:45.761255  7854 net.cpp:127] Setting up pool5
I1219 09:51:45.761261  7854 net.cpp:136] Top shape: 50 256 6 6 (460800)
I1219 09:51:45.761265  7854 net.cpp:144] Memory required for data: 410847800
I1219 09:51:45.761268  7854 layer_factory.hpp:77] Creating layer fc6
I1219 09:51:45.761279  7854 net.cpp:84] Creating Layer fc6
I1219 09:51:45.761283  7854 net.cpp:413] fc6 <- pool5
I1219 09:51:45.761291  7854 net.cpp:387] fc6 -> fc6
I1219 09:51:46.362879  7854 net.cpp:127] Setting up fc6
I1219 09:51:46.362923  7854 net.cpp:136] Top shape: 50 4096 (204800)
I1219 09:51:46.362927  7854 net.cpp:144] Memory required for data: 411667000
I1219 09:51:46.362938  7854 net.cpp:453] Found INQ layer:fc6, type: INQInnerProduct, layer id:17
I1219 09:51:46.362946  7854 net.cpp:453] Found INQ layer:fc6, type: INQInnerProduct, layer id:17
I1219 09:51:46.362951  7854 net.cpp:453] Found INQ layer:fc6, type: INQInnerProduct, layer id:17
I1219 09:51:46.362956  7854 net.cpp:453] Found INQ layer:fc6, type: INQInnerProduct, layer id:17
I1219 09:51:46.362959  7854 layer_factory.hpp:77] Creating layer relu6
I1219 09:51:46.362972  7854 net.cpp:84] Creating Layer relu6
I1219 09:51:46.362978  7854 net.cpp:413] relu6 <- fc6
I1219 09:51:46.362987  7854 net.cpp:374] relu6 -> fc6 (in-place)
I1219 09:51:46.363277  7854 net.cpp:127] Setting up relu6
I1219 09:51:46.363286  7854 net.cpp:136] Top shape: 50 4096 (204800)
I1219 09:51:46.363291  7854 net.cpp:144] Memory required for data: 412486200
I1219 09:51:46.363294  7854 layer_factory.hpp:77] Creating layer drop6
I1219 09:51:46.363302  7854 net.cpp:84] Creating Layer drop6
I1219 09:51:46.363307  7854 net.cpp:413] drop6 <- fc6
I1219 09:51:46.363313  7854 net.cpp:374] drop6 -> fc6 (in-place)
I1219 09:51:46.363349  7854 net.cpp:127] Setting up drop6
I1219 09:51:46.363355  7854 net.cpp:136] Top shape: 50 4096 (204800)
I1219 09:51:46.363359  7854 net.cpp:144] Memory required for data: 413305400
I1219 09:51:46.363363  7854 layer_factory.hpp:77] Creating layer fc7
I1219 09:51:46.363375  7854 net.cpp:84] Creating Layer fc7
I1219 09:51:46.363379  7854 net.cpp:413] fc7 <- fc6
I1219 09:51:46.363386  7854 net.cpp:387] fc7 -> fc7
I1219 09:51:46.633208  7854 net.cpp:127] Setting up fc7
I1219 09:51:46.633255  7854 net.cpp:136] Top shape: 50 4096 (204800)
I1219 09:51:46.633260  7854 net.cpp:144] Memory required for data: 414124600
I1219 09:51:46.633273  7854 net.cpp:453] Found INQ layer:fc7, type: INQInnerProduct, layer id:20
I1219 09:51:46.633281  7854 net.cpp:453] Found INQ layer:fc7, type: INQInnerProduct, layer id:20
I1219 09:51:46.633286  7854 net.cpp:453] Found INQ layer:fc7, type: INQInnerProduct, layer id:20
I1219 09:51:46.633301  7854 net.cpp:453] Found INQ layer:fc7, type: INQInnerProduct, layer id:20
I1219 09:51:46.633332  7854 layer_factory.hpp:77] Creating layer relu7
I1219 09:51:46.633352  7854 net.cpp:84] Creating Layer relu7
I1219 09:51:46.633358  7854 net.cpp:413] relu7 <- fc7
I1219 09:51:46.633368  7854 net.cpp:374] relu7 -> fc7 (in-place)
I1219 09:51:46.633733  7854 net.cpp:127] Setting up relu7
I1219 09:51:46.633744  7854 net.cpp:136] Top shape: 50 4096 (204800)
I1219 09:51:46.633747  7854 net.cpp:144] Memory required for data: 414943800
I1219 09:51:46.633751  7854 layer_factory.hpp:77] Creating layer drop7
I1219 09:51:46.633762  7854 net.cpp:84] Creating Layer drop7
I1219 09:51:46.633766  7854 net.cpp:413] drop7 <- fc7
I1219 09:51:46.633772  7854 net.cpp:374] drop7 -> fc7 (in-place)
I1219 09:51:46.633810  7854 net.cpp:127] Setting up drop7
I1219 09:51:46.633816  7854 net.cpp:136] Top shape: 50 4096 (204800)
I1219 09:51:46.633821  7854 net.cpp:144] Memory required for data: 415763000
I1219 09:51:46.633824  7854 layer_factory.hpp:77] Creating layer fc8
I1219 09:51:46.633837  7854 net.cpp:84] Creating Layer fc8
I1219 09:51:46.633841  7854 net.cpp:413] fc8 <- fc7
I1219 09:51:46.633849  7854 net.cpp:387] fc8 -> fc8
I1219 09:51:46.700650  7854 net.cpp:127] Setting up fc8
I1219 09:51:46.700682  7854 net.cpp:136] Top shape: 50 1000 (50000)
I1219 09:51:46.700687  7854 net.cpp:144] Memory required for data: 415963000
I1219 09:51:46.700695  7854 net.cpp:453] Found INQ layer:fc8, type: INQInnerProduct, layer id:23
I1219 09:51:46.700702  7854 net.cpp:453] Found INQ layer:fc8, type: INQInnerProduct, layer id:23
I1219 09:51:46.700708  7854 net.cpp:453] Found INQ layer:fc8, type: INQInnerProduct, layer id:23
I1219 09:51:46.700712  7854 net.cpp:453] Found INQ layer:fc8, type: INQInnerProduct, layer id:23
I1219 09:51:46.700716  7854 layer_factory.hpp:77] Creating layer fc8_fc8_0_split
I1219 09:51:46.700729  7854 net.cpp:84] Creating Layer fc8_fc8_0_split
I1219 09:51:46.700736  7854 net.cpp:413] fc8_fc8_0_split <- fc8
I1219 09:51:46.700744  7854 net.cpp:387] fc8_fc8_0_split -> fc8_fc8_0_split_0
I1219 09:51:46.700753  7854 net.cpp:387] fc8_fc8_0_split -> fc8_fc8_0_split_1
I1219 09:51:46.700760  7854 net.cpp:387] fc8_fc8_0_split -> fc8_fc8_0_split_2
I1219 09:51:46.700824  7854 net.cpp:127] Setting up fc8_fc8_0_split
I1219 09:51:46.700830  7854 net.cpp:136] Top shape: 50 1000 (50000)
I1219 09:51:46.700835  7854 net.cpp:136] Top shape: 50 1000 (50000)
I1219 09:51:46.700839  7854 net.cpp:136] Top shape: 50 1000 (50000)
I1219 09:51:46.700844  7854 net.cpp:144] Memory required for data: 416563000
I1219 09:51:46.700847  7854 layer_factory.hpp:77] Creating layer accuracy_top1
I1219 09:51:46.700861  7854 net.cpp:84] Creating Layer accuracy_top1
I1219 09:51:46.700866  7854 net.cpp:413] accuracy_top1 <- fc8_fc8_0_split_0
I1219 09:51:46.700871  7854 net.cpp:413] accuracy_top1 <- label_data_1_split_0
I1219 09:51:46.700880  7854 net.cpp:387] accuracy_top1 -> accuracy_top1
…
