…
I1208 11:58:30.131593 38965 net.cpp:301] The NetState phase (0) differed from the phase (1) specified by a rule in layer accuracy_top5
I1208 11:58:30.132277 38965 net.cpp:51] Initializing net from parameters: 
name: "AlexNet"
state {
  phase: TRAIN
  level: 0
  stage: ""
}
layer {
  name: "data"
  type: "Data"
  top: "data"
  top: "label"
  include {
    phase: TRAIN
  }
  transform_param {
    mirror: true
    crop_size: 227
    mean_file: "data/ilsvrc12/imagenet_mean.binaryproto"
  }
  data_param {
    source: "/home/data/caffe-imagenet/ilsvrc12_train_lmdb"
    batch_size: 256
    backend: LMDB
  }
}
layer {
  name: "conv1"
  type: "DNSConvolution"
  bottom: "data"
  top: "conv1"
  param {
    lr_mult: 1
    decay_mult: 1
  }
  param {
    lr_mult: 2
    decay_mult: 0
  }
  convolution_param {
    num_output: 96
    kernel_size: 11
    stride: 4
    weight_filler {
      type: "gaussian"
      std: 0.01
    }
    bias_filler {
      type: "constant"
      value: 0
    }
  }
  dns_convolution_param {
    gamma: 1.25e-05
    power: 1
    c_rate: -0.7
    iter_stop: 1e+06
    weight_mask_filler {
      type: "constant"
      value: 1
    }
    bias_mask_filler {
      type: "constant"
      value: 1
    }
  }
}
layer {
  name: "relu1"
  type: "ReLU"
  bottom: "conv1"
  top: "conv1"
}
layer {
  name: "norm1"
  type: "LRN"
  bottom: "conv1"
  top: "norm1"
  lrn_param {
    local_size: 5
    alpha: 0.0001
    beta: 0.75
  }
}
layer {
  name: "pool1"
  type: "Pooling"
  bottom: "norm1"
  top: "pool1"
  pooling_param {
    pool: MAX
    kernel_size: 3
    stride: 2
  }
}
layer {
  name: "conv2"
  type: "DNSConvolution"
  bottom: "pool1"
  top: "conv2"
  param {
    lr_mult: 1
    decay_mult: 1
  }
  param {
    lr_mult: 2
    decay_mult: 0
  }
  convolution_param {
    num_output: 256
    pad: 2
    kernel_size: 5
    group: 2
    weight_filler {
      type: "gaussian"
      std: 0.01
    }
    bias_filler {
      type: "constant"
      value: 0.1
    }
  }
  dns_convolution_param {
    gamma: 1.25e-05
    power: 1
    c_rate: -0.15
    iter_stop: 1e+06
    weight_mask_filler {
      type: "constant"
      value: 1
    }
    bias_mask_filler {
      type: "constant"
      value: 1
    }
  }
}
layer {
  name: "relu2"
  type: "ReLU"
  bottom: "conv2"
  top: "conv2"
}
layer {
  name: "norm2"
  type: "LRN"
  bottom: "conv2"
  top: "norm2"
  lrn_param {
    local_size: 5
    alpha: 0.0001
    beta: 0.75
  }
}
layer {
  name: "pool2"
  type: "Pooling"
  bottom: "norm2"
  top: "pool2"
  pooling_param {
    pool: MAX
    kernel_size: 3
    stride: 2
  }
}
layer {
  name: "conv3"
  type: "DNSConvolution"
  bottom: "pool2"
  top: "conv3"
  param {
    lr_mult: 1
    decay_mult: 1
  }
  param {
    lr_mult: 2
    decay_mult: 0
  }
  convolution_param {
    num_output: 384
    pad: 1
    kernel_size: 3
    weight_filler {
      type: "gaussian"
      std: 0.01
    }
    bias_filler {
      type: "constant"
      value: 0
    }
  }
  dns_convolution_param {
    gamma: 1.25e-05
    power: 1
    c_rate: 0.3
    iter_stop: 1e+06
    weight_mask_filler {
      type: "constant"
      value: 1
    }
    bias_mask_filler {
      type: "constant"
      value: 1
    }
  }
}
layer {
  name: "relu3"
  type: "ReLU"
  bottom: "conv3"
  top: "conv3"
}
layer {
  name: "conv4"
  type: "DNSConvolution"
  bottom: "conv3"
  top: "conv4"
  param {
    lr_mult: 1
    decay_mult: 1
  }
  param {
    lr_mult: 2
    decay_mult: 0
  }
  convolution_param {
    num_output: 384
    pad: 1
    kernel_size: 3
    group: 2
    weight_filler {
      type: "gaussian"
      std: 0.01
    }
    bias_filler {
      type: "constant"
      value: 0.1
    }
  }
  dns_convolution_param {
    gamma: 1.25e-05
    power: 1
    c_rate: 0.25
    iter_stop: 1e+06
    weight_mask_filler {
      type: "constant"
      value: 1
    }
    bias_mask_filler {
      type: "constant"
      value: 1
    }
  }
}
layer {
  name: "relu4"
  type: "ReLU"
  bottom: "conv4"
  top: "conv4"
}
layer {
  name: "conv5"
  type: "DNSConvolution"
  bottom: "conv4"
  top: "conv5"
  param {
    lr_mult: 1
    decay_mult: 1
  }
  param {
    lr_mult: 2
    decay_mult: 0
  }
  convolution_param {
    num_output: 256
    pad: 1
    kernel_size: 3
    group: 2
    weight_filler {
      type: "gaussian"
      std: 0.01
    }
    bias_filler {
      type: "constant"
      value: 0.1
    }
  }
  dns_convolution_param {
    gamma: 1.25e-05
    power: 1
    c_rate: 0.25
    iter_stop: 1e+06
    weight_mask_filler {
      type: "constant"
      value: 1
    }
    bias_mask_filler {
      type: "constant"
      value: 1
    }
  }
}
layer {
  name: "relu5"
  type: "ReLU"
  bottom: "conv5"
  top: "conv5"
}
layer {
  name: "pool5"
  type: "Pooling"
  bottom: "conv5"
  top: "pool5"
  pooling_param {
    pool: MAX
    kernel_size: 3
    stride: 2
  }
}
layer {
  name: "fc6"
  type: "DNSInnerProduct"
  bottom: "pool5"
  top: "fc6"
  param {
    lr_mult: 1
    decay_mult: 1
  }
  param {
    lr_mult: 2
    decay_mult: 0
  }
  inner_product_param {
    num_output: 4096
    weight_filler {
      type: "gaussian"
      std: 0.005
    }
    bias_filler {
      type: "constant"
      value: 0.1
    }
  }
  dns_inner_product_param {
    gamma: 1.25e-05
    power: 1
    c_rate: 1.6
    iter_stop: -1
    weight_mask_filler {
      type: "constant"
      value: 1
    }
    bias_mask_filler {
      type: "constant"
      value: 1
    }
  }
}
layer {
  name: "relu6"
  type: "ReLU"
  bottom: "fc6"
  top: "fc6"
}
layer {
  name: "drop6"
  type: "Dropout"
  bottom: "fc6"
  top: "fc6"
  dropout_param {
    dropout_ratio: 0.5
  }
}
layer {
  name: "fc7"
  type: "DNSInnerProduct"
  bottom: "fc6"
  top: "fc7"
  param {
    lr_mult: 1
    decay_mult: 1
  }
  param {
    lr_mult: 2
    decay_mult: 0
  }
  inner_product_param {
    num_output: 4096
    weight_filler {
      type: "gaussian"
      std: 0.005
    }
    bias_filler {
      type: "constant"
      value: 0.1
    }
  }
  dns_inner_product_param {
    gamma: 1.25e-05
    power: 1
    c_rate: 1.6
    iter_stop: -1
    weight_mask_filler {
      type: "constant"
      value: 1
    }
    bias_mask_filler {
      type: "constant"
      value: 1
    }
  }
}
layer {
  name: "relu7"
  type: "ReLU"
  bottom: "fc7"
  top: "fc7"
}
layer {
  name: "drop7"
  type: "Dropout"
  bottom: "fc7"
  top: "fc7"
  dropout_param {
    dropout_ratio: 0.5
  }
}
layer {
  name: "fc8"
  type: "DNSInnerProduct"
  bottom: "fc7"
  top: "fc8"
  param {
    lr_mult: 1
    decay_mult: 1
  }
  param {
    lr_mult: 2
    decay_mult: 0
  }
  inner_product_param {
    num_output: 1000
    weight_filler {
      type: "gaussian"
      std: 0.01
    }
    bias_filler {
      type: "constant"
      value: 0
    }
  }
  dns_inner_product_param {
    gamma: 1.25e-05
    power: 1
    c_rate: 1
    iter_stop: -1
    weight_mask_filler {
      type: "constant"
      value: 1
    }
    bias_mask_filler {
      type: "constant"
      value: 1
    }
  }
}
layer {
  name: "loss"
  type: "SoftmaxWithLoss"
  bottom: "fc8"
  bottom: "label"
  top: "loss"
}
I1208 11:58:30.138766 38965 layer_factory.hpp:77] Creating layer data
I1208 11:58:30.160635 38965 db_lmdb.cpp:35] Opened lmdb /home/data/caffe-imagenet/ilsvrc12_train_lmdb
I1208 11:58:30.160753 38965 net.cpp:84] Creating Layer data
I1208 11:58:30.160800 38965 net.cpp:387] data -> data
I1208 11:58:30.160854 38965 net.cpp:387] data -> label
I1208 11:58:30.160894 38965 data_transformer.cpp:25] Loading mean file from: data/ilsvrc12/imagenet_mean.binaryproto
I1208 11:58:30.181964 38965 data_layer.cpp:45] output data size: 256,3,227,227
I1208 11:58:30.619679 38965 net.cpp:127] Setting up data
I1208 11:58:30.619740 38965 net.cpp:136] Top shape: 256 3 227 227 (39574272)
I1208 11:58:30.619755 38965 net.cpp:136] Top shape: 256 (256)
I1208 11:58:30.619763 38965 net.cpp:144] Memory required for data: 158298112
I1208 11:58:30.619793 38965 layer_factory.hpp:77] Creating layer conv1
I1208 11:58:30.619849 38965 net.cpp:84] Creating Layer conv1
I1208 11:58:30.619869 38965 net.cpp:413] conv1 <- data
I1208 11:58:30.619906 38965 net.cpp:387] conv1 -> conv1
I1208 11:58:30.638743 38965 net.cpp:127] Setting up conv1
I1208 11:58:30.638777 38965 net.cpp:136] Top shape: 256 96 55 55 (74342400)
I1208 11:58:30.638787 38965 net.cpp:144] Memory required for data: 455667712
I1208 11:58:30.638839 38965 layer_factory.hpp:77] Creating layer relu1
I1208 11:58:30.638866 38965 net.cpp:84] Creating Layer relu1
I1208 11:58:30.638876 38965 net.cpp:413] relu1 <- conv1
I1208 11:58:30.638888 38965 net.cpp:374] relu1 -> conv1 (in-place)
I1208 11:58:31.635846 38965 net.cpp:127] Setting up relu1
I1208 11:58:31.635906 38965 net.cpp:136] Top shape: 256 96 55 55 (74342400)
I1208 11:58:31.635915 38965 net.cpp:144] Memory required for data: 753037312
I1208 11:58:31.635929 38965 layer_factory.hpp:77] Creating layer norm1
I1208 11:58:31.635962 38965 net.cpp:84] Creating Layer norm1
I1208 11:58:31.635970 38965 net.cpp:413] norm1 <- conv1
I1208 11:58:31.635985 38965 net.cpp:387] norm1 -> norm1
I1208 11:58:31.638113 38965 net.cpp:127] Setting up norm1
I1208 11:58:31.638142 38965 net.cpp:136] Top shape: 256 96 55 55 (74342400)
I1208 11:58:31.638150 38965 net.cpp:144] Memory required for data: 1050406912
I1208 11:58:31.638159 38965 layer_factory.hpp:77] Creating layer pool1
I1208 11:58:31.638180 38965 net.cpp:84] Creating Layer pool1
I1208 11:58:31.638188 38965 net.cpp:413] pool1 <- norm1
I1208 11:58:31.638200 38965 net.cpp:387] pool1 -> pool1
I1208 11:58:31.638294 38965 net.cpp:127] Setting up pool1
I1208 11:58:31.638311 38965 net.cpp:136] Top shape: 256 96 27 27 (17915904)
I1208 11:58:31.638319 38965 net.cpp:144] Memory required for data: 1122070528
I1208 11:58:31.638326 38965 layer_factory.hpp:77] Creating layer conv2
I1208 11:58:31.638350 38965 net.cpp:84] Creating Layer conv2
I1208 11:58:31.638356 38965 net.cpp:413] conv2 <- pool1
I1208 11:58:31.638368 38965 net.cpp:387] conv2 -> conv2
I1208 11:58:31.647313 38965 net.cpp:127] Setting up conv2
I1208 11:58:31.647339 38965 net.cpp:136] Top shape: 256 256 27 27 (47775744)
I1208 11:58:31.647347 38965 net.cpp:144] Memory required for data: 1313173504
I1208 11:58:31.647372 38965 layer_factory.hpp:77] Creating layer relu2
I1208 11:58:31.647385 38965 net.cpp:84] Creating Layer relu2
I1208 11:58:31.647392 38965 net.cpp:413] relu2 <- conv2
I1208 11:58:31.647403 38965 net.cpp:374] relu2 -> conv2 (in-place)
I1208 11:58:31.647668 38965 net.cpp:127] Setting up relu2
I1208 11:58:31.647683 38965 net.cpp:136] Top shape: 256 256 27 27 (47775744)
I1208 11:58:31.647691 38965 net.cpp:144] Memory required for data: 1504276480
I1208 11:58:31.647701 38965 layer_factory.hpp:77] Creating layer norm2
I1208 11:58:31.647714 38965 net.cpp:84] Creating Layer norm2
I1208 11:58:31.647722 38965 net.cpp:413] norm2 <- conv2
I1208 11:58:31.647732 38965 net.cpp:387] norm2 -> norm2
I1208 11:58:31.648017 38965 net.cpp:127] Setting up norm2
I1208 11:58:31.648033 38965 net.cpp:136] Top shape: 256 256 27 27 (47775744)
I1208 11:58:31.648041 38965 net.cpp:144] Memory required for data: 1695379456
I1208 11:58:31.648047 38965 layer_factory.hpp:77] Creating layer pool2
I1208 11:58:31.648072 38965 net.cpp:84] Creating Layer pool2
I1208 11:58:31.648109 38965 net.cpp:413] pool2 <- norm2
I1208 11:58:31.648119 38965 net.cpp:387] pool2 -> pool2
I1208 11:58:31.648172 38965 net.cpp:127] Setting up pool2
I1208 11:58:31.648183 38965 net.cpp:136] Top shape: 256 256 13 13 (11075584)
I1208 11:58:31.648188 38965 net.cpp:144] Memory required for data: 1739681792
I1208 11:58:31.648195 38965 layer_factory.hpp:77] Creating layer conv3
I1208 11:58:31.648208 38965 net.cpp:84] Creating Layer conv3
I1208 11:58:31.648214 38965 net.cpp:413] conv3 <- pool2
I1208 11:58:31.648223 38965 net.cpp:387] conv3 -> conv3
I1208 11:58:31.667084 38965 net.cpp:127] Setting up conv3
I1208 11:58:31.667109 38965 net.cpp:136] Top shape: 256 384 13 13 (16613376)
I1208 11:58:31.667116 38965 net.cpp:144] Memory required for data: 1806135296
I1208 11:58:31.667136 38965 layer_factory.hpp:77] Creating layer relu3
I1208 11:58:31.667147 38965 net.cpp:84] Creating Layer relu3
I1208 11:58:31.667153 38965 net.cpp:413] relu3 <- conv3
I1208 11:58:31.667162 38965 net.cpp:374] relu3 -> conv3 (in-place)
I1208 11:58:31.668824 38965 net.cpp:127] Setting up relu3
I1208 11:58:31.668846 38965 net.cpp:136] Top shape: 256 384 13 13 (16613376)
I1208 11:58:31.668853 38965 net.cpp:144] Memory required for data: 1872588800
I1208 11:58:31.668862 38965 layer_factory.hpp:77] Creating layer conv4
I1208 11:58:31.668877 38965 net.cpp:84] Creating Layer conv4
I1208 11:58:31.668884 38965 net.cpp:413] conv4 <- conv3
I1208 11:58:31.668895 38965 net.cpp:387] conv4 -> conv4
I1208 11:58:31.682759 38965 net.cpp:127] Setting up conv4
I1208 11:58:31.682780 38965 net.cpp:136] Top shape: 256 384 13 13 (16613376)
I1208 11:58:31.682786 38965 net.cpp:144] Memory required for data: 1939042304
I1208 11:58:31.682801 38965 layer_factory.hpp:77] Creating layer relu4
I1208 11:58:31.682812 38965 net.cpp:84] Creating Layer relu4
I1208 11:58:31.682818 38965 net.cpp:413] relu4 <- conv4
I1208 11:58:31.682827 38965 net.cpp:374] relu4 -> conv4 (in-place)
I1208 11:58:31.683064 38965 net.cpp:127] Setting up relu4
I1208 11:58:31.683078 38965 net.cpp:136] Top shape: 256 384 13 13 (16613376)
I1208 11:58:31.683084 38965 net.cpp:144] Memory required for data: 2005495808
I1208 11:58:31.683089 38965 layer_factory.hpp:77] Creating layer conv5
I1208 11:58:31.683105 38965 net.cpp:84] Creating Layer conv5
I1208 11:58:31.683112 38965 net.cpp:413] conv5 <- conv4
I1208 11:58:31.683121 38965 net.cpp:387] conv5 -> conv5
I1208 11:58:31.692582 38965 net.cpp:127] Setting up conv5
I1208 11:58:31.692603 38965 net.cpp:136] Top shape: 256 256 13 13 (11075584)
I1208 11:58:31.692610 38965 net.cpp:144] Memory required for data: 2049798144
I1208 11:58:31.692627 38965 layer_factory.hpp:77] Creating layer relu5
I1208 11:58:31.692637 38965 net.cpp:84] Creating Layer relu5
I1208 11:58:31.692643 38965 net.cpp:413] relu5 <- conv5
I1208 11:58:31.692651 38965 net.cpp:374] relu5 -> conv5 (in-place)
I1208 11:58:31.692884 38965 net.cpp:127] Setting up relu5
I1208 11:58:31.692898 38965 net.cpp:136] Top shape: 256 256 13 13 (11075584)
I1208 11:58:31.692903 38965 net.cpp:144] Memory required for data: 2094100480
I1208 11:58:31.692909 38965 layer_factory.hpp:77] Creating layer pool5
I1208 11:58:31.692920 38965 net.cpp:84] Creating Layer pool5
I1208 11:58:31.692926 38965 net.cpp:413] pool5 <- conv5
I1208 11:58:31.692934 38965 net.cpp:387] pool5 -> pool5
I1208 11:58:31.692986 38965 net.cpp:127] Setting up pool5
I1208 11:58:31.692996 38965 net.cpp:136] Top shape: 256 256 6 6 (2359296)
I1208 11:58:31.693001 38965 net.cpp:144] Memory required for data: 2103537664
I1208 11:58:31.693006 38965 layer_factory.hpp:77] Creating layer fc6
I1208 11:58:31.693024 38965 net.cpp:84] Creating Layer fc6
I1208 11:58:31.693030 38965 net.cpp:413] fc6 <- pool5
I1208 11:58:31.693038 38965 net.cpp:387] fc6 -> fc6
I1208 11:58:32.302052 38965 net.cpp:127] Setting up fc6
I1208 11:58:32.302106 38965 net.cpp:136] Top shape: 256 4096 (1048576)
I1208 11:58:32.302114 38965 net.cpp:144] Memory required for data: 2107731968
I1208 11:58:32.302137 38965 layer_factory.hpp:77] Creating layer relu6
I1208 11:58:32.302170 38965 net.cpp:84] Creating Layer relu6
I1208 11:58:32.302206 38965 net.cpp:413] relu6 <- fc6
I1208 11:58:32.302217 38965 net.cpp:374] relu6 -> fc6 (in-place)
I1208 11:58:32.302520 38965 net.cpp:127] Setting up relu6
I1208 11:58:32.302534 38965 net.cpp:136] Top shape: 256 4096 (1048576)
I1208 11:58:32.302539 38965 net.cpp:144] Memory required for data: 2111926272
I1208 11:58:32.302544 38965 layer_factory.hpp:77] Creating layer drop6
I1208 11:58:32.302559 38965 net.cpp:84] Creating Layer drop6
I1208 11:58:32.302564 38965 net.cpp:413] drop6 <- fc6
I1208 11:58:32.302572 38965 net.cpp:374] drop6 -> fc6 (in-place)
I1208 11:58:32.302608 38965 net.cpp:127] Setting up drop6
I1208 11:58:32.302618 38965 net.cpp:136] Top shape: 256 4096 (1048576)
I1208 11:58:32.302623 38965 net.cpp:144] Memory required for data: 2116120576
I1208 11:58:32.302626 38965 layer_factory.hpp:77] Creating layer fc7
I1208 11:58:32.302639 38965 net.cpp:84] Creating Layer fc7
I1208 11:58:32.302644 38965 net.cpp:413] fc7 <- fc6
I1208 11:58:32.302654 38965 net.cpp:387] fc7 -> fc7
I1208 11:58:32.576139 38965 net.cpp:127] Setting up fc7
I1208 11:58:32.576198 38965 net.cpp:136] Top shape: 256 4096 (1048576)
I1208 11:58:32.576205 38965 net.cpp:144] Memory required for data: 2120314880
I1208 11:58:32.576231 38965 layer_factory.hpp:77] Creating layer relu7
I1208 11:58:32.576249 38965 net.cpp:84] Creating Layer relu7
I1208 11:58:32.576259 38965 net.cpp:413] relu7 <- fc7
I1208 11:58:32.576270 38965 net.cpp:374] relu7 -> fc7 (in-place)
I1208 11:58:32.577972 38965 net.cpp:127] Setting up relu7
I1208 11:58:32.577991 38965 net.cpp:136] Top shape: 256 4096 (1048576)
I1208 11:58:32.577996 38965 net.cpp:144] Memory required for data: 2124509184
I1208 11:58:32.578003 38965 layer_factory.hpp:77] Creating layer drop7
I1208 11:58:32.578016 38965 net.cpp:84] Creating Layer drop7
I1208 11:58:32.578022 38965 net.cpp:413] drop7 <- fc7
I1208 11:58:32.578030 38965 net.cpp:374] drop7 -> fc7 (in-place)
I1208 11:58:32.578060 38965 net.cpp:127] Setting up drop7
I1208 11:58:32.578069 38965 net.cpp:136] Top shape: 256 4096 (1048576)
I1208 11:58:32.578074 38965 net.cpp:144] Memory required for data: 2128703488
I1208 11:58:32.578078 38965 layer_factory.hpp:77] Creating layer fc8
I1208 11:58:32.578094 38965 net.cpp:84] Creating Layer fc8
I1208 11:58:32.578099 38965 net.cpp:413] fc8 <- fc7
I1208 11:58:32.578107 38965 net.cpp:387] fc8 -> fc8
I1208 11:58:32.645450 38965 net.cpp:127] Setting up fc8
I1208 11:58:32.645489 38965 net.cpp:136] Top shape: 256 1000 (256000)
I1208 11:58:32.645496 38965 net.cpp:144] Memory required for data: 2129727488
I1208 11:58:32.645514 38965 layer_factory.hpp:77] Creating layer loss
I1208 11:58:32.645534 38965 net.cpp:84] Creating Layer loss
I1208 11:58:32.645540 38965 net.cpp:413] loss <- fc8
I1208 11:58:32.645550 38965 net.cpp:413] loss <- label
I1208 11:58:32.645562 38965 net.cpp:387] loss -> loss
I1208 11:58:32.645632 38965 layer_factory.hpp:77] Creating layer loss
…
I1208 11:58:32.648926 38965 net.cpp:301] The NetState phase (1) differed from the phase (0) specified by a rule in layer data
I1208 11:58:32.649319 38965 net.cpp:51] Initializing net from parameters: 
name: "AlexNet"
state {
  phase: TEST
}
layer {
  name: "data"
  type: "Data"
  top: "data"
  top: "label"
  include {
    phase: TEST
  }
  transform_param {
    mirror: false
    crop_size: 227
    mean_file: "data/ilsvrc12/imagenet_mean.binaryproto"
  }
  data_param {
    source: "/home/data/caffe-imagenet/ilsvrc12_val_lmdb"
    batch_size: 50
    backend: LMDB
  }
}
layer {
  name: "conv1"
  type: "DNSConvolution"
  bottom: "data"
  top: "conv1"
  param {
    lr_mult: 1
    decay_mult: 1
  }
  param {
    lr_mult: 2
    decay_mult: 0
  }
  convolution_param {
    num_output: 96
    kernel_size: 11
    stride: 4
    weight_filler {
      type: "gaussian"
      std: 0.01
    }
    bias_filler {
      type: "constant"
      value: 0
    }
  }
  dns_convolution_param {
    gamma: 1.25e-05
    power: 1
    c_rate: -0.7
    iter_stop: 1e+06
    weight_mask_filler {
      type: "constant"
      value: 1
    }
    bias_mask_filler {
      type: "constant"
      value: 1
    }
  }
}
layer {
  name: "relu1"
  type: "ReLU"
  bottom: "conv1"
  top: "conv1"
}
layer {
  name: "norm1"
  type: "LRN"
  bottom: "conv1"
  top: "norm1"
  lrn_param {
    local_size: 5
    alpha: 0.0001
    beta: 0.75
  }
}
layer {
  name: "pool1"
  type: "Pooling"
  bottom: "norm1"
  top: "pool1"
  pooling_param {
    pool: MAX
    kernel_size: 3
    stride: 2
  }
}
layer {
  name: "conv2"
  type: "DNSConvolution"
  bottom: "pool1"
  top: "conv2"
  param {
    lr_mult: 1
    decay_mult: 1
  }
  param {
    lr_mult: 2
    decay_mult: 0
  }
  convolution_param {
    num_output: 256
    pad: 2
    kernel_size: 5
    group: 2
    weight_filler {
      type: "gaussian"
      std: 0.01
    }
    bias_filler {
      type: "constant"
      value: 0.1
    }
  }
  dns_convolution_param {
    gamma: 1.25e-05
    power: 1
    c_rate: -0.15
    iter_stop: 1e+06
    weight_mask_filler {
      type: "constant"
      value: 1
    }
    bias_mask_filler {
      type: "constant"
      value: 1
    }
  }
}
layer {
  name: "relu2"
  type: "ReLU"
  bottom: "conv2"
  top: "conv2"
}
layer {
  name: "norm2"
  type: "LRN"
  bottom: "conv2"
  top: "norm2"
  lrn_param {
    local_size: 5
    alpha: 0.0001
    beta: 0.75
  }
}
layer {
  name: "pool2"
  type: "Pooling"
  bottom: "norm2"
  top: "pool2"
  pooling_param {
    pool: MAX
    kernel_size: 3
    stride: 2
  }
}
layer {
  name: "conv3"
  type: "DNSConvolution"
  bottom: "pool2"
  top: "conv3"
  param {
    lr_mult: 1
    decay_mult: 1
  }
  param {
    lr_mult: 2
    decay_mult: 0
  }
  convolution_param {
    num_output: 384
    pad: 1
    kernel_size: 3
    weight_filler {
      type: "gaussian"
      std: 0.01
    }
    bias_filler {
      type: "constant"
      value: 0
    }
  }
  dns_convolution_param {
    gamma: 1.25e-05
    power: 1
    c_rate: 0.3
    iter_stop: 1e+06
    weight_mask_filler {
      type: "constant"
      value: 1
    }
    bias_mask_filler {
      type: "constant"
      value: 1
    }
  }
}
layer {
  name: "relu3"
  type: "ReLU"
  bottom: "conv3"
  top: "conv3"
}
layer {
  name: "conv4"
  type: "DNSConvolution"
  bottom: "conv3"
  top: "conv4"
  param {
    lr_mult: 1
    decay_mult: 1
  }
  param {
    lr_mult: 2
    decay_mult: 0
  }
  convolution_param {
    num_output: 384
    pad: 1
    kernel_size: 3
    group: 2
    weight_filler {
      type: "gaussian"
      std: 0.01
    }
    bias_filler {
      type: "constant"
      value: 0.1
    }
  }
  dns_convolution_param {
    gamma: 1.25e-05
    power: 1
    c_rate: 0.25
    iter_stop: 1e+06
    weight_mask_filler {
      type: "constant"
      value: 1
    }
    bias_mask_filler {
      type: "constant"
      value: 1
    }
  }
}
layer {
  name: "relu4"
  type: "ReLU"
  bottom: "conv4"
  top: "conv4"
}
layer {
  name: "conv5"
  type: "DNSConvolution"
  bottom: "conv4"
  top: "conv5"
  param {
    lr_mult: 1
    decay_mult: 1
  }
  param {
    lr_mult: 2
    decay_mult: 0
  }
  convolution_param {
    num_output: 256
    pad: 1
    kernel_size: 3
    group: 2
    weight_filler {
      type: "gaussian"
      std: 0.01
    }
    bias_filler {
      type: "constant"
      value: 0.1
    }
  }
  dns_convolution_param {
    gamma: 1.25e-05
    power: 1
    c_rate: 0.25
    iter_stop: 1e+06
    weight_mask_filler {
      type: "constant"
      value: 1
    }
    bias_mask_filler {
      type: "constant"
      value: 1
    }
  }
}
layer {
  name: "relu5"
  type: "ReLU"
  bottom: "conv5"
  top: "conv5"
}
layer {
  name: "pool5"
  type: "Pooling"
  bottom: "conv5"
  top: "pool5"
  pooling_param {
    pool: MAX
    kernel_size: 3
    stride: 2
  }
}
layer {
  name: "fc6"
  type: "DNSInnerProduct"
  bottom: "pool5"
  top: "fc6"
  param {
    lr_mult: 1
    decay_mult: 1
  }
  param {
    lr_mult: 2
    decay_mult: 0
  }
  inner_product_param {
    num_output: 4096
    weight_filler {
      type: "gaussian"
      std: 0.005
    }
    bias_filler {
      type: "constant"
      value: 0.1
    }
  }
  dns_inner_product_param {
    gamma: 1.25e-05
    power: 1
    c_rate: 1.6
    iter_stop: -1
    weight_mask_filler {
      type: "constant"
      value: 1
    }
    bias_mask_filler {
      type: "constant"
      value: 1
    }
  }
}
layer {
  name: "relu6"
  type: "ReLU"
  bottom: "fc6"
  top: "fc6"
}
layer {
  name: "drop6"
  type: "Dropout"
  bottom: "fc6"
  top: "fc6"
  dropout_param {
    dropout_ratio: 0.5
  }
}
layer {
  name: "fc7"
  type: "DNSInnerProduct"
  bottom: "fc6"
  top: "fc7"
  param {
    lr_mult: 1
    decay_mult: 1
  }
  param {
    lr_mult: 2
    decay_mult: 0
  }
  inner_product_param {
    num_output: 4096
    weight_filler {
      type: "gaussian"
      std: 0.005
    }
    bias_filler {
      type: "constant"
      value: 0.1
    }
  }
  dns_inner_product_param {
    gamma: 1.25e-05
    power: 1
    c_rate: 1.6
    iter_stop: -1
    weight_mask_filler {
      type: "constant"
      value: 1
    }
    bias_mask_filler {
      type: "constant"
      value: 1
    }
  }
}
layer {
  name: "relu7"
  type: "ReLU"
  bottom: "fc7"
  top: "fc7"
}
layer {
  name: "drop7"
  type: "Dropout"
  bottom: "fc7"
  top: "fc7"
  dropout_param {
    dropout_ratio: 0.5
  }
}
layer {
  name: "fc8"
  type: "DNSInnerProduct"
  bottom: "fc7"
  top: "fc8"
  param {
    lr_mult: 1
    decay_mult: 1
  }
  param {
    lr_mult: 2
    decay_mult: 0
  }
  inner_product_param {
    num_output: 1000
    weight_filler {
      type: "gaussian"
      std: 0.01
    }
    bias_filler {
      type: "constant"
      value: 0
    }
  }
  dns_inner_product_param {
    gamma: 1.25e-05
    power: 1
    c_rate: 1
    iter_stop: -1
    weight_mask_filler {
      type: "constant"
      value: 1
    }
    bias_mask_filler {
      type: "constant"
      value: 1
    }
  }
}
layer {
  name: "accuracy_top1"
  type: "Accuracy"
  bottom: "fc8"
  bottom: "label"
  top: "accuracy_top1"
  include {
    phase: TEST
  }
  accuracy_param {
    top_k: 1
  }
}
layer {
  name: "accuracy_top5"
  type: "Accuracy"
  bottom: "fc8"
  bottom: "label"
  top: "accuracy_top5"
  include {
    phase: TEST
  }
  accuracy_param {
    top_k: 5
  }
}
layer {
  name: "loss"
  type: "SoftmaxWithLoss"
  bottom: "fc8"
  bottom: "label"
  top: "loss"
}
I1208 11:58:32.649502 38965 layer_factory.hpp:77] Creating layer data
I1208 11:58:32.655416 38965 db_lmdb.cpp:35] Opened lmdb /home/data/caffe-imagenet/ilsvrc12_val_lmdb
I1208 11:58:32.655465 38965 net.cpp:84] Creating Layer data
I1208 11:58:32.655483 38965 net.cpp:387] data -> data
I1208 11:58:32.655504 38965 net.cpp:387] data -> label
I1208 11:58:32.655521 38965 data_transformer.cpp:25] Loading mean file from: data/ilsvrc12/imagenet_mean.binaryproto
I1208 11:58:32.659217 38965 data_layer.cpp:45] output data size: 50,3,227,227
I1208 11:58:32.765347 38965 net.cpp:127] Setting up data
I1208 11:58:32.765396 38965 net.cpp:136] Top shape: 50 3 227 227 (7729350)
I1208 11:58:32.765405 38965 net.cpp:136] Top shape: 50 (50)
I1208 11:58:32.765410 38965 net.cpp:144] Memory required for data: 30917600
I1208 11:58:32.765420 38965 layer_factory.hpp:77] Creating layer label_data_1_split
I1208 11:58:32.765619 38965 net.cpp:84] Creating Layer label_data_1_split
I1208 11:58:32.765645 38965 net.cpp:413] label_data_1_split <- label
I1208 11:58:32.765661 38965 net.cpp:387] label_data_1_split -> label_data_1_split_0
I1208 11:58:32.765679 38965 net.cpp:387] label_data_1_split -> label_data_1_split_1
I1208 11:58:32.765691 38965 net.cpp:387] label_data_1_split -> label_data_1_split_2
I1208 11:58:32.765810 38965 net.cpp:127] Setting up label_data_1_split
I1208 11:58:32.765823 38965 net.cpp:136] Top shape: 50 (50)
I1208 11:58:32.765831 38965 net.cpp:136] Top shape: 50 (50)
I1208 11:58:32.765839 38965 net.cpp:136] Top shape: 50 (50)
I1208 11:58:32.765846 38965 net.cpp:144] Memory required for data: 30918200
I1208 11:58:32.765853 38965 layer_factory.hpp:77] Creating layer conv1
I1208 11:58:32.765873 38965 net.cpp:84] Creating Layer conv1
I1208 11:58:32.765880 38965 net.cpp:413] conv1 <- data
I1208 11:58:32.765893 38965 net.cpp:387] conv1 -> conv1
I1208 11:58:32.769820 38965 net.cpp:127] Setting up conv1
I1208 11:58:32.769855 38965 net.cpp:136] Top shape: 50 96 55 55 (14520000)
I1208 11:58:32.769865 38965 net.cpp:144] Memory required for data: 88998200
I1208 11:58:32.769898 38965 layer_factory.hpp:77] Creating layer relu1
I1208 11:58:32.769917 38965 net.cpp:84] Creating Layer relu1
I1208 11:58:32.769927 38965 net.cpp:413] relu1 <- conv1
I1208 11:58:32.769939 38965 net.cpp:374] relu1 -> conv1 (in-place)
I1208 11:58:32.770354 38965 net.cpp:127] Setting up relu1
I1208 11:58:32.770372 38965 net.cpp:136] Top shape: 50 96 55 55 (14520000)
I1208 11:58:32.770380 38965 net.cpp:144] Memory required for data: 147078200
I1208 11:58:32.770390 38965 layer_factory.hpp:77] Creating layer norm1
I1208 11:58:32.770409 38965 net.cpp:84] Creating Layer norm1
I1208 11:58:32.770418 38965 net.cpp:413] norm1 <- conv1
I1208 11:58:32.770431 38965 net.cpp:387] norm1 -> norm1
I1208 11:58:32.770915 38965 net.cpp:127] Setting up norm1
I1208 11:58:32.770933 38965 net.cpp:136] Top shape: 50 96 55 55 (14520000)
I1208 11:58:32.770942 38965 net.cpp:144] Memory required for data: 205158200
I1208 11:58:32.770951 38965 layer_factory.hpp:77] Creating layer pool1
I1208 11:58:32.770965 38965 net.cpp:84] Creating Layer pool1
I1208 11:58:32.770974 38965 net.cpp:413] pool1 <- norm1
I1208 11:58:32.770987 38965 net.cpp:387] pool1 -> pool1
I1208 11:58:32.771060 38965 net.cpp:127] Setting up pool1
I1208 11:58:32.771072 38965 net.cpp:136] Top shape: 50 96 27 27 (3499200)
I1208 11:58:32.771080 38965 net.cpp:144] Memory required for data: 219155000
I1208 11:58:32.771087 38965 layer_factory.hpp:77] Creating layer conv2
I1208 11:58:32.771104 38965 net.cpp:84] Creating Layer conv2
I1208 11:58:32.771112 38965 net.cpp:413] conv2 <- pool1
I1208 11:58:32.771142 38965 net.cpp:387] conv2 -> conv2
I1208 11:58:32.782584 38965 net.cpp:127] Setting up conv2
I1208 11:58:32.782613 38965 net.cpp:136] Top shape: 50 256 27 27 (9331200)
I1208 11:58:32.782621 38965 net.cpp:144] Memory required for data: 256479800
I1208 11:58:32.782646 38965 layer_factory.hpp:77] Creating layer relu2
I1208 11:58:32.782660 38965 net.cpp:84] Creating Layer relu2
I1208 11:58:32.782670 38965 net.cpp:413] relu2 <- conv2
I1208 11:58:32.782681 38965 net.cpp:374] relu2 -> conv2 (in-place)
I1208 11:58:32.784986 38965 net.cpp:127] Setting up relu2
I1208 11:58:32.785012 38965 net.cpp:136] Top shape: 50 256 27 27 (9331200)
I1208 11:58:32.785022 38965 net.cpp:144] Memory required for data: 293804600
I1208 11:58:32.785032 38965 layer_factory.hpp:77] Creating layer norm2
I1208 11:58:32.785048 38965 net.cpp:84] Creating Layer norm2
I1208 11:58:32.785056 38965 net.cpp:413] norm2 <- conv2
I1208 11:58:32.785069 38965 net.cpp:387] norm2 -> norm2
I1208 11:58:32.785452 38965 net.cpp:127] Setting up norm2
I1208 11:58:32.785470 38965 net.cpp:136] Top shape: 50 256 27 27 (9331200)
I1208 11:58:32.785477 38965 net.cpp:144] Memory required for data: 331129400
I1208 11:58:32.785485 38965 layer_factory.hpp:77] Creating layer pool2
I1208 11:58:32.785498 38965 net.cpp:84] Creating Layer pool2
I1208 11:58:32.785506 38965 net.cpp:413] pool2 <- norm2
I1208 11:58:32.785516 38965 net.cpp:387] pool2 -> pool2
I1208 11:58:32.785585 38965 net.cpp:127] Setting up pool2
I1208 11:58:32.785596 38965 net.cpp:136] Top shape: 50 256 13 13 (2163200)
I1208 11:58:32.785604 38965 net.cpp:144] Memory required for data: 339782200
I1208 11:58:32.785610 38965 layer_factory.hpp:77] Creating layer conv3
I1208 11:58:32.785626 38965 net.cpp:84] Creating Layer conv3
I1208 11:58:32.785634 38965 net.cpp:413] conv3 <- pool2
I1208 11:58:32.785647 38965 net.cpp:387] conv3 -> conv3
I1208 11:58:32.809880 38965 net.cpp:127] Setting up conv3
I1208 11:58:32.809919 38965 net.cpp:136] Top shape: 50 384 13 13 (3244800)
I1208 11:58:32.809926 38965 net.cpp:144] Memory required for data: 352761400
I1208 11:58:32.809952 38965 layer_factory.hpp:77] Creating layer relu3
I1208 11:58:32.809969 38965 net.cpp:84] Creating Layer relu3
I1208 11:58:32.809976 38965 net.cpp:413] relu3 <- conv3
I1208 11:58:32.809988 38965 net.cpp:374] relu3 -> conv3 (in-place)
I1208 11:58:32.810335 38965 net.cpp:127] Setting up relu3
I1208 11:58:32.810351 38965 net.cpp:136] Top shape: 50 384 13 13 (3244800)
I1208 11:58:32.810359 38965 net.cpp:144] Memory required for data: 365740600
I1208 11:58:32.810365 38965 layer_factory.hpp:77] Creating layer conv4
I1208 11:58:32.810381 38965 net.cpp:84] Creating Layer conv4
I1208 11:58:32.810389 38965 net.cpp:413] conv4 <- conv3
I1208 11:58:32.810401 38965 net.cpp:387] conv4 -> conv4
I1208 11:58:32.827062 38965 net.cpp:127] Setting up conv4
I1208 11:58:32.827091 38965 net.cpp:136] Top shape: 50 384 13 13 (3244800)
I1208 11:58:32.827098 38965 net.cpp:144] Memory required for data: 378719800
I1208 11:58:32.827114 38965 layer_factory.hpp:77] Creating layer relu4
I1208 11:58:32.827126 38965 net.cpp:84] Creating Layer relu4
I1208 11:58:32.827133 38965 net.cpp:413] relu4 <- conv4
I1208 11:58:32.827143 38965 net.cpp:374] relu4 -> conv4 (in-place)
I1208 11:58:32.829069 38965 net.cpp:127] Setting up relu4
I1208 11:58:32.829092 38965 net.cpp:136] Top shape: 50 384 13 13 (3244800)
I1208 11:58:32.829099 38965 net.cpp:144] Memory required for data: 391699000
I1208 11:58:32.829107 38965 layer_factory.hpp:77] Creating layer conv5
I1208 11:58:32.829123 38965 net.cpp:84] Creating Layer conv5
I1208 11:58:32.829128 38965 net.cpp:413] conv5 <- conv4
I1208 11:58:32.829141 38965 net.cpp:387] conv5 -> conv5
I1208 11:58:32.840811 38965 net.cpp:127] Setting up conv5
I1208 11:58:32.840832 38965 net.cpp:136] Top shape: 50 256 13 13 (2163200)
I1208 11:58:32.840838 38965 net.cpp:144] Memory required for data: 400351800
I1208 11:58:32.840860 38965 layer_factory.hpp:77] Creating layer relu5
I1208 11:58:32.840870 38965 net.cpp:84] Creating Layer relu5
I1208 11:58:32.840889 38965 net.cpp:413] relu5 <- conv5
I1208 11:58:32.840898 38965 net.cpp:374] relu5 -> conv5 (in-place)
I1208 11:58:32.841193 38965 net.cpp:127] Setting up relu5
I1208 11:58:32.841205 38965 net.cpp:136] Top shape: 50 256 13 13 (2163200)
I1208 11:58:32.841212 38965 net.cpp:144] Memory required for data: 409004600
I1208 11:58:32.841217 38965 layer_factory.hpp:77] Creating layer pool5
I1208 11:58:32.841230 38965 net.cpp:84] Creating Layer pool5
I1208 11:58:32.841236 38965 net.cpp:413] pool5 <- conv5
I1208 11:58:32.841245 38965 net.cpp:387] pool5 -> pool5
I1208 11:58:32.841315 38965 net.cpp:127] Setting up pool5
I1208 11:58:32.841325 38965 net.cpp:136] Top shape: 50 256 6 6 (460800)
I1208 11:58:32.841331 38965 net.cpp:144] Memory required for data: 410847800
I1208 11:58:32.841336 38965 layer_factory.hpp:77] Creating layer fc6
I1208 11:58:32.841349 38965 net.cpp:84] Creating Layer fc6
I1208 11:58:32.841356 38965 net.cpp:413] fc6 <- pool5
I1208 11:58:32.841365 38965 net.cpp:387] fc6 -> fc6
I1208 11:58:33.455739 38965 net.cpp:127] Setting up fc6
I1208 11:58:33.455792 38965 net.cpp:136] Top shape: 50 4096 (204800)
I1208 11:58:33.455797 38965 net.cpp:144] Memory required for data: 411667000
I1208 11:58:33.455816 38965 layer_factory.hpp:77] Creating layer relu6
I1208 11:58:33.455829 38965 net.cpp:84] Creating Layer relu6
I1208 11:58:33.455835 38965 net.cpp:413] relu6 <- fc6
I1208 11:58:33.455845 38965 net.cpp:374] relu6 -> fc6 (in-place)
I1208 11:58:33.456135 38965 net.cpp:127] Setting up relu6
I1208 11:58:33.456146 38965 net.cpp:136] Top shape: 50 4096 (204800)
I1208 11:58:33.456151 38965 net.cpp:144] Memory required for data: 412486200
I1208 11:58:33.456156 38965 layer_factory.hpp:77] Creating layer drop6
I1208 11:58:33.456164 38965 net.cpp:84] Creating Layer drop6
I1208 11:58:33.456169 38965 net.cpp:413] drop6 <- fc6
I1208 11:58:33.456176 38965 net.cpp:374] drop6 -> fc6 (in-place)
I1208 11:58:33.456212 38965 net.cpp:127] Setting up drop6
I1208 11:58:33.456218 38965 net.cpp:136] Top shape: 50 4096 (204800)
I1208 11:58:33.456223 38965 net.cpp:144] Memory required for data: 413305400
I1208 11:58:33.456226 38965 layer_factory.hpp:77] Creating layer fc7
I1208 11:58:33.456239 38965 net.cpp:84] Creating Layer fc7
I1208 11:58:33.456243 38965 net.cpp:413] fc7 <- fc6
I1208 11:58:33.456251 38965 net.cpp:387] fc7 -> fc7
I1208 11:58:33.727677 38965 net.cpp:127] Setting up fc7
I1208 11:58:33.727733 38965 net.cpp:136] Top shape: 50 4096 (204800)
I1208 11:58:33.727741 38965 net.cpp:144] Memory required for data: 414124600
I1208 11:58:33.727757 38965 layer_factory.hpp:77] Creating layer relu7
I1208 11:58:33.727773 38965 net.cpp:84] Creating Layer relu7
I1208 11:58:33.727782 38965 net.cpp:413] relu7 <- fc7
I1208 11:58:33.727792 38965 net.cpp:374] relu7 -> fc7 (in-place)
I1208 11:58:33.728093 38965 net.cpp:127] Setting up relu7
I1208 11:58:33.728106 38965 net.cpp:136] Top shape: 50 4096 (204800)
I1208 11:58:33.728112 38965 net.cpp:144] Memory required for data: 414943800
I1208 11:58:33.728118 38965 layer_factory.hpp:77] Creating layer drop7
I1208 11:58:33.728128 38965 net.cpp:84] Creating Layer drop7
I1208 11:58:33.728134 38965 net.cpp:413] drop7 <- fc7
I1208 11:58:33.728142 38965 net.cpp:374] drop7 -> fc7 (in-place)
I1208 11:58:33.728178 38965 net.cpp:127] Setting up drop7
I1208 11:58:33.728185 38965 net.cpp:136] Top shape: 50 4096 (204800)
I1208 11:58:33.728190 38965 net.cpp:144] Memory required for data: 415763000
I1208 11:58:33.728195 38965 layer_factory.hpp:77] Creating layer fc8
I1208 11:58:33.728209 38965 net.cpp:84] Creating Layer fc8
I1208 11:58:33.728216 38965 net.cpp:413] fc8 <- fc7
I1208 11:58:33.728225 38965 net.cpp:387] fc8 -> fc8
I1208 11:58:33.795830 38965 net.cpp:127] Setting up fc8
I1208 11:58:33.795868 38965 net.cpp:136] Top shape: 50 1000 (50000)
I1208 11:58:33.795876 38965 net.cpp:144] Memory required for data: 415963000
I1208 11:58:33.795892 38965 layer_factory.hpp:77] Creating layer fc8_fc8_0_split
I1208 11:58:33.795907 38965 net.cpp:84] Creating Layer fc8_fc8_0_split
I1208 11:58:33.795914 38965 net.cpp:413] fc8_fc8_0_split <- fc8
I1208 11:58:33.795938 38965 net.cpp:387] fc8_fc8_0_split -> fc8_fc8_0_split_0
I1208 11:58:33.795975 38965 net.cpp:387] fc8_fc8_0_split -> fc8_fc8_0_split_1
I1208 11:58:33.795984 38965 net.cpp:387] fc8_fc8_0_split -> fc8_fc8_0_split_2
I1208 11:58:33.796051 38965 net.cpp:127] Setting up fc8_fc8_0_split
I1208 11:58:33.796058 38965 net.cpp:136] Top shape: 50 1000 (50000)
I1208 11:58:33.796066 38965 net.cpp:136] Top shape: 50 1000 (50000)
I1208 11:58:33.796070 38965 net.cpp:136] Top shape: 50 1000 (50000)
I1208 11:58:33.796077 38965 net.cpp:144] Memory required for data: 416563000
I1208 11:58:33.796082 38965 layer_factory.hpp:77] Creating layer accuracy_top1
I1208 11:58:33.796099 38965 net.cpp:84] Creating Layer accuracy_top1
I1208 11:58:33.796104 38965 net.cpp:413] accuracy_top1 <- fc8_fc8_0_split_0
I1208 11:58:33.796111 38965 net.cpp:413] accuracy_top1 <- label_data_1_split_0
I1208 11:58:33.796120 38965 net.cpp:387] accuracy_top1 -> accuracy_top1
…
