…
I1220 21:06:35.722587 13582 net.cpp:301] The NetState phase (0) differed from the phase (1) specified by a rule in layer accuracy_top5
I1220 21:06:35.722936 13582 net.cpp:51] Initializing net from parameters: 
name: "AlexNet"
state {
  phase: TRAIN
  level: 0
  stage: ""
}
layer {
  name: "data"
  type: "Data"
  top: "data"
  top: "label"
  include {
    phase: TRAIN
  }
  transform_param {
    mirror: true
    crop_size: 227
    mean_file: "/home/data/caffe-imagenet/imagenet_mean.binaryproto"
  }
  data_param {
    source: "/home/data/caffe-imagenet/ilsvrc12_train_lmdb"
    batch_size: 256
    backend: LMDB
  }
}
layer {
  name: "conv1"
  type: "INQConvolution"
  bottom: "data"
  top: "conv1"
  param {
    lr_mult: 1
    decay_mult: 1
  }
  param {
    lr_mult: 2
    decay_mult: 0
  }
  convolution_param {
    num_output: 96
    kernel_size: 11
    stride: 4
    weight_filler {
      type: "gaussian"
      std: 0.01
    }
    bias_filler {
      type: "constant"
      value: 0
    }
  }
  inq_convolution_param {
    portion: 0.3
    portion: 0.5
    weight_mask_filler {
      type: "constant"
      value: 1
    }
    bias_mask_filler {
      type: "constant"
      value: 1
    }
    num_quantum_values: 7
  }
}
layer {
  name: "relu1"
  type: "ReLU"
  bottom: "conv1"
  top: "conv1"
}
layer {
  name: "norm1"
  type: "LRN"
  bottom: "conv1"
  top: "norm1"
  lrn_param {
    local_size: 5
    alpha: 0.0001
    beta: 0.75
  }
}
layer {
  name: "pool1"
  type: "Pooling"
  bottom: "norm1"
  top: "pool1"
  pooling_param {
    pool: MAX
    kernel_size: 3
    stride: 2
  }
}
layer {
  name: "conv2"
  type: "INQConvolution"
  bottom: "pool1"
  top: "conv2"
  param {
    lr_mult: 1
    decay_mult: 1
  }
  param {
    lr_mult: 2
    decay_mult: 0
  }
  convolution_param {
    num_output: 256
    pad: 2
    kernel_size: 5
    group: 2
    weight_filler {
      type: "gaussian"
      std: 0.01
    }
    bias_filler {
      type: "constant"
      value: 0.1
    }
  }
  inq_convolution_param {
    portion: 0.3
    portion: 0.5
    weight_mask_filler {
      type: "constant"
      value: 1
    }
    bias_mask_filler {
      type: "constant"
      value: 1
    }
    num_quantum_values: 7
  }
}
layer {
  name: "relu2"
  type: "ReLU"
  bottom: "conv2"
  top: "conv2"
}
layer {
  name: "norm2"
  type: "LRN"
  bottom: "conv2"
  top: "norm2"
  lrn_param {
    local_size: 5
    alpha: 0.0001
    beta: 0.75
  }
}
layer {
  name: "pool2"
  type: "Pooling"
  bottom: "norm2"
  top: "pool2"
  pooling_param {
    pool: MAX
    kernel_size: 3
    stride: 2
  }
}
layer {
  name: "conv3"
  type: "INQConvolution"
  bottom: "pool2"
  top: "conv3"
  param {
    lr_mult: 1
    decay_mult: 1
  }
  param {
    lr_mult: 2
    decay_mult: 0
  }
  convolution_param {
    num_output: 384
    pad: 1
    kernel_size: 3
    weight_filler {
      type: "gaussian"
      std: 0.01
    }
    bias_filler {
      type: "constant"
      value: 0
    }
  }
  inq_convolution_param {
    portion: 0.3
    portion: 0.5
    weight_mask_filler {
      type: "constant"
      value: 1
    }
    bias_mask_filler {
      type: "constant"
      value: 1
    }
    num_quantum_values: 7
  }
}
layer {
  name: "relu3"
  type: "ReLU"
  bottom: "conv3"
  top: "conv3"
}
layer {
  name: "conv4"
  type: "INQConvolution"
  bottom: "conv3"
  top: "conv4"
  param {
    lr_mult: 1
    decay_mult: 1
  }
  param {
    lr_mult: 2
    decay_mult: 0
  }
  convolution_param {
    num_output: 384
    pad: 1
    kernel_size: 3
    group: 2
    weight_filler {
      type: "gaussian"
      std: 0.01
    }
    bias_filler {
      type: "constant"
      value: 0.1
    }
  }
  inq_convolution_param {
    portion: 0.3
    portion: 0.5
    weight_mask_filler {
      type: "constant"
      value: 1
    }
    bias_mask_filler {
      type: "constant"
      value: 1
    }
    num_quantum_values: 7
  }
}
layer {
  name: "relu4"
  type: "ReLU"
  bottom: "conv4"
  top: "conv4"
}
layer {
  name: "conv5"
  type: "INQConvolution"
  bottom: "conv4"
  top: "conv5"
  param {
    lr_mult: 1
    decay_mult: 1
  }
  param {
    lr_mult: 2
    decay_mult: 0
  }
  convolution_param {
    num_output: 256
    pad: 1
    kernel_size: 3
    group: 2
    weight_filler {
      type: "gaussian"
      std: 0.01
    }
    bias_filler {
      type: "constant"
      value: 0.1
    }
  }
  inq_convolution_param {
    portion: 0.3
    portion: 0.5
    weight_mask_filler {
      type: "constant"
      value: 1
    }
    bias_mask_filler {
      type: "constant"
      value: 1
    }
    num_quantum_values: 7
  }
}
layer {
  name: "relu5"
  type: "ReLU"
  bottom: "conv5"
  top: "conv5"
}
layer {
  name: "pool5"
  type: "Pooling"
  bottom: "conv5"
  top: "pool5"
  pooling_param {
    pool: MAX
    kernel_size: 3
    stride: 2
  }
}
layer {
  name: "fc6"
  type: "INQInnerProduct"
  bottom: "pool5"
  top: "fc6"
  param {
    lr_mult: 1
    decay_mult: 1
  }
  param {
    lr_mult: 2
    decay_mult: 0
  }
  inner_product_param {
    num_output: 4096
    weight_filler {
      type: "gaussian"
      std: 0.005
    }
    bias_filler {
      type: "constant"
      value: 0.1
    }
  }
  inq_inner_product_param {
    portion: 0.3
    portion: 0.5
    weight_mask_filler {
      type: "constant"
      value: 1
    }
    bias_mask_filler {
      type: "constant"
      value: 1
    }
    num_quantum_values: 7
  }
}
layer {
  name: "relu6"
  type: "ReLU"
  bottom: "fc6"
  top: "fc6"
}
layer {
  name: "drop6"
  type: "Dropout"
  bottom: "fc6"
  top: "fc6"
  dropout_param {
    dropout_ratio: 0.5
  }
}
layer {
  name: "fc7"
  type: "INQInnerProduct"
  bottom: "fc6"
  top: "fc7"
  param {
    lr_mult: 1
    decay_mult: 1
  }
  param {
    lr_mult: 2
    decay_mult: 0
  }
  inner_product_param {
    num_output: 4096
    weight_filler {
      type: "gaussian"
      std: 0.005
    }
    bias_filler {
      type: "constant"
      value: 0.1
    }
  }
  inq_inner_product_param {
    portion: 0.3
    portion: 0.5
    weight_mask_filler {
      type: "constant"
      value: 1
    }
    bias_mask_filler {
      type: "constant"
      value: 1
    }
    num_quantum_values: 7
  }
}
layer {
  name: "relu7"
  type: "ReLU"
  bottom: "fc7"
  top: "fc7"
}
layer {
  name: "drop7"
  type: "Dropout"
  bottom: "fc7"
  top: "fc7"
  dropout_param {
    dropout_ratio: 0.5
  }
}
layer {
  name: "fc8"
  type: "INQInnerProduct"
  bottom: "fc7"
  top: "fc8"
  param {
    lr_mult: 1
    decay_mult: 1
  }
  param {
    lr_mult: 2
    decay_mult: 0
  }
  inner_product_param {
    num_output: 1000
    weight_filler {
      type: "gaussian"
      std: 0.01
    }
    bias_filler {
      type: "constant"
      value: 0
    }
  }
  inq_inner_product_param {
    portion: 0.3
    portion: 0.5
    weight_mask_filler {
      type: "constant"
      value: 1
    }
    bias_mask_filler {
      type: "constant"
      value: 1
    }
    num_quantum_values: 7
  }
}
layer {
  name: "loss"
  type: "SoftmaxWithLoss"
  bottom: "fc8"
  bottom: "label"
  top: "loss"
}
I1220 21:06:35.723103 13582 layer_factory.hpp:77] Creating layer data
I1220 21:06:35.725999 13582 db_lmdb.cpp:35] Opened lmdb /home/data/caffe-imagenet/ilsvrc12_train_lmdb
I1220 21:06:35.726059 13582 net.cpp:84] Creating Layer data
I1220 21:06:35.726070 13582 net.cpp:387] data -> data
I1220 21:06:35.726097 13582 net.cpp:387] data -> label
I1220 21:06:35.726116 13582 data_transformer.cpp:25] Loading mean file from: /home/data/caffe-imagenet/imagenet_mean.binaryproto
I1220 21:06:35.732605 13582 data_layer.cpp:45] output data size: 256,3,227,227
I1220 21:06:36.124205 13582 net.cpp:127] Setting up data
I1220 21:06:36.124249 13582 net.cpp:136] Top shape: 256 3 227 227 (39574272)
I1220 21:06:36.124258 13582 net.cpp:136] Top shape: 256 (256)
I1220 21:06:36.124261 13582 net.cpp:144] Memory required for data: 158298112
I1220 21:06:36.124274 13582 layer_factory.hpp:77] Creating layer conv1
I1220 21:06:36.124300 13582 net.cpp:84] Creating Layer conv1
I1220 21:06:36.124307 13582 net.cpp:413] conv1 <- data
I1220 21:06:36.124325 13582 net.cpp:387] conv1 -> conv1
I1220 21:06:36.128059 13582 net.cpp:127] Setting up conv1
I1220 21:06:36.128077 13582 net.cpp:136] Top shape: 256 96 55 55 (74342400)
I1220 21:06:36.128080 13582 net.cpp:144] Memory required for data: 455667712
I1220 21:06:36.128098 13582 net.cpp:453] Found INQ layer:conv1, type: INQConvolution, layer id:1
I1220 21:06:36.128109 13582 net.cpp:453] Found INQ layer:conv1, type: INQConvolution, layer id:1
I1220 21:06:36.128118 13582 net.cpp:453] Found INQ layer:conv1, type: INQConvolution, layer id:1
I1220 21:06:36.128123 13582 net.cpp:453] Found INQ layer:conv1, type: INQConvolution, layer id:1
I1220 21:06:36.128129 13582 layer_factory.hpp:77] Creating layer relu1
I1220 21:06:36.128144 13582 net.cpp:84] Creating Layer relu1
I1220 21:06:36.128149 13582 net.cpp:413] relu1 <- conv1
I1220 21:06:36.128154 13582 net.cpp:374] relu1 -> conv1 (in-place)
I1220 21:06:36.528309 13582 net.cpp:127] Setting up relu1
I1220 21:06:36.528345 13582 net.cpp:136] Top shape: 256 96 55 55 (74342400)
I1220 21:06:36.528352 13582 net.cpp:144] Memory required for data: 753037312
I1220 21:06:36.528358 13582 layer_factory.hpp:77] Creating layer norm1
I1220 21:06:36.528380 13582 net.cpp:84] Creating Layer norm1
I1220 21:06:36.528388 13582 net.cpp:413] norm1 <- conv1
I1220 21:06:36.528398 13582 net.cpp:387] norm1 -> norm1
I1220 21:06:36.529825 13582 net.cpp:127] Setting up norm1
I1220 21:06:36.529841 13582 net.cpp:136] Top shape: 256 96 55 55 (74342400)
I1220 21:06:36.529845 13582 net.cpp:144] Memory required for data: 1050406912
I1220 21:06:36.529851 13582 layer_factory.hpp:77] Creating layer pool1
I1220 21:06:36.529863 13582 net.cpp:84] Creating Layer pool1
I1220 21:06:36.529868 13582 net.cpp:413] pool1 <- norm1
I1220 21:06:36.529875 13582 net.cpp:387] pool1 -> pool1
I1220 21:06:36.529932 13582 net.cpp:127] Setting up pool1
I1220 21:06:36.529939 13582 net.cpp:136] Top shape: 256 96 27 27 (17915904)
I1220 21:06:36.529943 13582 net.cpp:144] Memory required for data: 1122070528
I1220 21:06:36.529947 13582 layer_factory.hpp:77] Creating layer conv2
I1220 21:06:36.529960 13582 net.cpp:84] Creating Layer conv2
I1220 21:06:36.529964 13582 net.cpp:413] conv2 <- pool1
I1220 21:06:36.529971 13582 net.cpp:387] conv2 -> conv2
I1220 21:06:36.536706 13582 net.cpp:127] Setting up conv2
I1220 21:06:36.536722 13582 net.cpp:136] Top shape: 256 256 27 27 (47775744)
I1220 21:06:36.536727 13582 net.cpp:144] Memory required for data: 1313173504
I1220 21:06:36.536738 13582 net.cpp:453] Found INQ layer:conv2, type: INQConvolution, layer id:5
I1220 21:06:36.536747 13582 net.cpp:453] Found INQ layer:conv2, type: INQConvolution, layer id:5
I1220 21:06:36.536753 13582 net.cpp:453] Found INQ layer:conv2, type: INQConvolution, layer id:5
I1220 21:06:36.536759 13582 net.cpp:453] Found INQ layer:conv2, type: INQConvolution, layer id:5
I1220 21:06:36.536763 13582 layer_factory.hpp:77] Creating layer relu2
I1220 21:06:36.536772 13582 net.cpp:84] Creating Layer relu2
I1220 21:06:36.536777 13582 net.cpp:413] relu2 <- conv2
I1220 21:06:36.536782 13582 net.cpp:374] relu2 -> conv2 (in-place)
I1220 21:06:36.536996 13582 net.cpp:127] Setting up relu2
I1220 21:06:36.537005 13582 net.cpp:136] Top shape: 256 256 27 27 (47775744)
I1220 21:06:36.537035 13582 net.cpp:144] Memory required for data: 1504276480
I1220 21:06:36.537040 13582 layer_factory.hpp:77] Creating layer norm2
I1220 21:06:36.537048 13582 net.cpp:84] Creating Layer norm2
I1220 21:06:36.537052 13582 net.cpp:413] norm2 <- conv2
I1220 21:06:36.537058 13582 net.cpp:387] norm2 -> norm2
I1220 21:06:36.537282 13582 net.cpp:127] Setting up norm2
I1220 21:06:36.537292 13582 net.cpp:136] Top shape: 256 256 27 27 (47775744)
I1220 21:06:36.537295 13582 net.cpp:144] Memory required for data: 1695379456
I1220 21:06:36.537299 13582 layer_factory.hpp:77] Creating layer pool2
I1220 21:06:36.537308 13582 net.cpp:84] Creating Layer pool2
I1220 21:06:36.537312 13582 net.cpp:413] pool2 <- norm2
I1220 21:06:36.537317 13582 net.cpp:387] pool2 -> pool2
I1220 21:06:36.537354 13582 net.cpp:127] Setting up pool2
I1220 21:06:36.537360 13582 net.cpp:136] Top shape: 256 256 13 13 (11075584)
I1220 21:06:36.537364 13582 net.cpp:144] Memory required for data: 1739681792
I1220 21:06:36.537367 13582 layer_factory.hpp:77] Creating layer conv3
I1220 21:06:36.537377 13582 net.cpp:84] Creating Layer conv3
I1220 21:06:36.537381 13582 net.cpp:413] conv3 <- pool2
I1220 21:06:36.537387 13582 net.cpp:387] conv3 -> conv3
I1220 21:06:36.552793 13582 net.cpp:127] Setting up conv3
I1220 21:06:36.552810 13582 net.cpp:136] Top shape: 256 384 13 13 (16613376)
I1220 21:06:36.552815 13582 net.cpp:144] Memory required for data: 1806135296
I1220 21:06:36.552824 13582 net.cpp:453] Found INQ layer:conv3, type: INQConvolution, layer id:9
I1220 21:06:36.552832 13582 net.cpp:453] Found INQ layer:conv3, type: INQConvolution, layer id:9
I1220 21:06:36.552837 13582 net.cpp:453] Found INQ layer:conv3, type: INQConvolution, layer id:9
I1220 21:06:36.552842 13582 net.cpp:453] Found INQ layer:conv3, type: INQConvolution, layer id:9
I1220 21:06:36.552846 13582 layer_factory.hpp:77] Creating layer relu3
I1220 21:06:36.552855 13582 net.cpp:84] Creating Layer relu3
I1220 21:06:36.552858 13582 net.cpp:413] relu3 <- conv3
I1220 21:06:36.552865 13582 net.cpp:374] relu3 -> conv3 (in-place)
I1220 21:06:36.554220 13582 net.cpp:127] Setting up relu3
I1220 21:06:36.554234 13582 net.cpp:136] Top shape: 256 384 13 13 (16613376)
I1220 21:06:36.554245 13582 net.cpp:144] Memory required for data: 1872588800
I1220 21:06:36.554250 13582 layer_factory.hpp:77] Creating layer conv4
I1220 21:06:36.554261 13582 net.cpp:84] Creating Layer conv4
I1220 21:06:36.554265 13582 net.cpp:413] conv4 <- conv3
I1220 21:06:36.554273 13582 net.cpp:387] conv4 -> conv4
I1220 21:06:36.566169 13582 net.cpp:127] Setting up conv4
I1220 21:06:36.566185 13582 net.cpp:136] Top shape: 256 384 13 13 (16613376)
I1220 21:06:36.566190 13582 net.cpp:144] Memory required for data: 1939042304
I1220 21:06:36.566196 13582 net.cpp:453] Found INQ layer:conv4, type: INQConvolution, layer id:11
I1220 21:06:36.566202 13582 net.cpp:453] Found INQ layer:conv4, type: INQConvolution, layer id:11
I1220 21:06:36.566207 13582 net.cpp:453] Found INQ layer:conv4, type: INQConvolution, layer id:11
I1220 21:06:36.566212 13582 net.cpp:453] Found INQ layer:conv4, type: INQConvolution, layer id:11
I1220 21:06:36.566215 13582 layer_factory.hpp:77] Creating layer relu4
I1220 21:06:36.566223 13582 net.cpp:84] Creating Layer relu4
I1220 21:06:36.566227 13582 net.cpp:413] relu4 <- conv4
I1220 21:06:36.566233 13582 net.cpp:374] relu4 -> conv4 (in-place)
I1220 21:06:36.566444 13582 net.cpp:127] Setting up relu4
I1220 21:06:36.566454 13582 net.cpp:136] Top shape: 256 384 13 13 (16613376)
I1220 21:06:36.566458 13582 net.cpp:144] Memory required for data: 2005495808
I1220 21:06:36.566462 13582 layer_factory.hpp:77] Creating layer conv5
I1220 21:06:36.566473 13582 net.cpp:84] Creating Layer conv5
I1220 21:06:36.566478 13582 net.cpp:413] conv5 <- conv4
I1220 21:06:36.566485 13582 net.cpp:387] conv5 -> conv5
I1220 21:06:36.576922 13582 net.cpp:127] Setting up conv5
I1220 21:06:36.576939 13582 net.cpp:136] Top shape: 256 256 13 13 (11075584)
I1220 21:06:36.576948 13582 net.cpp:144] Memory required for data: 2049798144
I1220 21:06:36.576979 13582 net.cpp:453] Found INQ layer:conv5, type: INQConvolution, layer id:13
I1220 21:06:36.576989 13582 net.cpp:453] Found INQ layer:conv5, type: INQConvolution, layer id:13
I1220 21:06:36.576995 13582 net.cpp:453] Found INQ layer:conv5, type: INQConvolution, layer id:13
I1220 21:06:36.577000 13582 net.cpp:453] Found INQ layer:conv5, type: INQConvolution, layer id:13
I1220 21:06:36.577003 13582 layer_factory.hpp:77] Creating layer relu5
I1220 21:06:36.577021 13582 net.cpp:84] Creating Layer relu5
I1220 21:06:36.577028 13582 net.cpp:413] relu5 <- conv5
I1220 21:06:36.577033 13582 net.cpp:374] relu5 -> conv5 (in-place)
I1220 21:06:36.577311 13582 net.cpp:127] Setting up relu5
I1220 21:06:36.577322 13582 net.cpp:136] Top shape: 256 256 13 13 (11075584)
I1220 21:06:36.577325 13582 net.cpp:144] Memory required for data: 2094100480
I1220 21:06:36.577329 13582 layer_factory.hpp:77] Creating layer pool5
I1220 21:06:36.577338 13582 net.cpp:84] Creating Layer pool5
I1220 21:06:36.577342 13582 net.cpp:413] pool5 <- conv5
I1220 21:06:36.577352 13582 net.cpp:387] pool5 -> pool5
I1220 21:06:36.577404 13582 net.cpp:127] Setting up pool5
I1220 21:06:36.577414 13582 net.cpp:136] Top shape: 256 256 6 6 (2359296)
I1220 21:06:36.577417 13582 net.cpp:144] Memory required for data: 2103537664
I1220 21:06:36.577420 13582 layer_factory.hpp:77] Creating layer fc6
I1220 21:06:36.577440 13582 net.cpp:84] Creating Layer fc6
I1220 21:06:36.577445 13582 net.cpp:413] fc6 <- pool5
I1220 21:06:36.577452 13582 net.cpp:387] fc6 -> fc6
I1220 21:06:37.184020 13582 net.cpp:127] Setting up fc6
I1220 21:06:37.184073 13582 net.cpp:136] Top shape: 256 4096 (1048576)
I1220 21:06:37.184078 13582 net.cpp:144] Memory required for data: 2107731968
I1220 21:06:37.184088 13582 net.cpp:453] Found INQ layer:fc6, type: INQInnerProduct, layer id:16
I1220 21:06:37.184096 13582 net.cpp:453] Found INQ layer:fc6, type: INQInnerProduct, layer id:16
I1220 21:06:37.184103 13582 net.cpp:453] Found INQ layer:fc6, type: INQInnerProduct, layer id:16
I1220 21:06:37.184108 13582 net.cpp:453] Found INQ layer:fc6, type: INQInnerProduct, layer id:16
I1220 21:06:37.184111 13582 layer_factory.hpp:77] Creating layer relu6
I1220 21:06:37.184123 13582 net.cpp:84] Creating Layer relu6
I1220 21:06:37.184128 13582 net.cpp:413] relu6 <- fc6
I1220 21:06:37.184136 13582 net.cpp:374] relu6 -> fc6 (in-place)
I1220 21:06:37.184432 13582 net.cpp:127] Setting up relu6
I1220 21:06:37.184442 13582 net.cpp:136] Top shape: 256 4096 (1048576)
I1220 21:06:37.184445 13582 net.cpp:144] Memory required for data: 2111926272
I1220 21:06:37.184450 13582 layer_factory.hpp:77] Creating layer drop6
I1220 21:06:37.184464 13582 net.cpp:84] Creating Layer drop6
I1220 21:06:37.184468 13582 net.cpp:413] drop6 <- fc6
I1220 21:06:37.184476 13582 net.cpp:374] drop6 -> fc6 (in-place)
I1220 21:06:37.184504 13582 net.cpp:127] Setting up drop6
I1220 21:06:37.184510 13582 net.cpp:136] Top shape: 256 4096 (1048576)
I1220 21:06:37.184514 13582 net.cpp:144] Memory required for data: 2116120576
I1220 21:06:37.184517 13582 layer_factory.hpp:77] Creating layer fc7
I1220 21:06:37.184532 13582 net.cpp:84] Creating Layer fc7
I1220 21:06:37.184536 13582 net.cpp:413] fc7 <- fc6
I1220 21:06:37.184552 13582 net.cpp:387] fc7 -> fc7
I1220 21:06:37.455412 13582 net.cpp:127] Setting up fc7
I1220 21:06:37.455456 13582 net.cpp:136] Top shape: 256 4096 (1048576)
I1220 21:06:37.455461 13582 net.cpp:144] Memory required for data: 2120314880
I1220 21:06:37.455471 13582 net.cpp:453] Found INQ layer:fc7, type: INQInnerProduct, layer id:19
I1220 21:06:37.455479 13582 net.cpp:453] Found INQ layer:fc7, type: INQInnerProduct, layer id:19
I1220 21:06:37.455485 13582 net.cpp:453] Found INQ layer:fc7, type: INQInnerProduct, layer id:19
I1220 21:06:37.455490 13582 net.cpp:453] Found INQ layer:fc7, type: INQInnerProduct, layer id:19
I1220 21:06:37.455497 13582 layer_factory.hpp:77] Creating layer relu7
I1220 21:06:37.455509 13582 net.cpp:84] Creating Layer relu7
I1220 21:06:37.455523 13582 net.cpp:413] relu7 <- fc7
I1220 21:06:37.455567 13582 net.cpp:374] relu7 -> fc7 (in-place)
I1220 21:06:37.457197 13582 net.cpp:127] Setting up relu7
I1220 21:06:37.457212 13582 net.cpp:136] Top shape: 256 4096 (1048576)
I1220 21:06:37.457217 13582 net.cpp:144] Memory required for data: 2124509184
I1220 21:06:37.457221 13582 layer_factory.hpp:77] Creating layer drop7
I1220 21:06:37.457234 13582 net.cpp:84] Creating Layer drop7
I1220 21:06:37.457238 13582 net.cpp:413] drop7 <- fc7
I1220 21:06:37.457244 13582 net.cpp:374] drop7 -> fc7 (in-place)
I1220 21:06:37.457273 13582 net.cpp:127] Setting up drop7
I1220 21:06:37.457280 13582 net.cpp:136] Top shape: 256 4096 (1048576)
I1220 21:06:37.457283 13582 net.cpp:144] Memory required for data: 2128703488
I1220 21:06:37.457288 13582 layer_factory.hpp:77] Creating layer fc8
I1220 21:06:37.457299 13582 net.cpp:84] Creating Layer fc8
I1220 21:06:37.457304 13582 net.cpp:413] fc8 <- fc7
I1220 21:06:37.457311 13582 net.cpp:387] fc8 -> fc8
I1220 21:06:37.537322 13582 net.cpp:127] Setting up fc8
I1220 21:06:37.537358 13582 net.cpp:136] Top shape: 256 1000 (256000)
I1220 21:06:37.537362 13582 net.cpp:144] Memory required for data: 2129727488
I1220 21:06:37.537372 13582 net.cpp:453] Found INQ layer:fc8, type: INQInnerProduct, layer id:22
I1220 21:06:37.537379 13582 net.cpp:453] Found INQ layer:fc8, type: INQInnerProduct, layer id:22
I1220 21:06:37.537384 13582 net.cpp:453] Found INQ layer:fc8, type: INQInnerProduct, layer id:22
I1220 21:06:37.537389 13582 net.cpp:453] Found INQ layer:fc8, type: INQInnerProduct, layer id:22
…
I1220 21:06:37.541429 13582 net.cpp:301] The NetState phase (1) differed from the phase (0) specified by a rule in layer data
I1220 21:06:37.542102 13582 net.cpp:51] Initializing net from parameters: 
name: "AlexNet"
state {
  phase: TEST
}
layer {
  name: "data"
  type: "Data"
  top: "data"
  top: "label"
  include {
    phase: TEST
  }
  transform_param {
    mirror: false
    crop_size: 227
    mean_file: "/home/data/caffe-imagenet/imagenet_mean.binaryproto"
  }
  data_param {
    source: "/home/data/caffe-imagenet/ilsvrc12_val_lmdb"
    batch_size: 50
    backend: LMDB
  }
}
layer {
  name: "conv1"
  type: "INQConvolution"
  bottom: "data"
  top: "conv1"
  param {
    lr_mult: 1
    decay_mult: 1
  }
  param {
    lr_mult: 2
    decay_mult: 0
  }
  convolution_param {
    num_output: 96
    kernel_size: 11
    stride: 4
    weight_filler {
      type: "gaussian"
      std: 0.01
    }
    bias_filler {
      type: "constant"
      value: 0
    }
  }
  inq_convolution_param {
    portion: 0.3
    portion: 0.5
    weight_mask_filler {
      type: "constant"
      value: 1
    }
    bias_mask_filler {
      type: "constant"
      value: 1
    }
    num_quantum_values: 7
  }
}
layer {
  name: "relu1"
  type: "ReLU"
  bottom: "conv1"
  top: "conv1"
}
layer {
  name: "norm1"
  type: "LRN"
  bottom: "conv1"
  top: "norm1"
  lrn_param {
    local_size: 5
    alpha: 0.0001
    beta: 0.75
  }
}
layer {
  name: "pool1"
  type: "Pooling"
  bottom: "norm1"
  top: "pool1"
  pooling_param {
    pool: MAX
    kernel_size: 3
    stride: 2
  }
}
layer {
  name: "conv2"
  type: "INQConvolution"
  bottom: "pool1"
  top: "conv2"
  param {
    lr_mult: 1
    decay_mult: 1
  }
  param {
    lr_mult: 2
    decay_mult: 0
  }
  convolution_param {
    num_output: 256
    pad: 2
    kernel_size: 5
    group: 2
    weight_filler {
      type: "gaussian"
      std: 0.01
    }
    bias_filler {
      type: "constant"
      value: 0.1
    }
  }
  inq_convolution_param {
    portion: 0.3
    portion: 0.5
    weight_mask_filler {
      type: "constant"
      value: 1
    }
    bias_mask_filler {
      type: "constant"
      value: 1
    }
    num_quantum_values: 7
  }
}
layer {
  name: "relu2"
  type: "ReLU"
  bottom: "conv2"
  top: "conv2"
}
layer {
  name: "norm2"
  type: "LRN"
  bottom: "conv2"
  top: "norm2"
  lrn_param {
    local_size: 5
    alpha: 0.0001
    beta: 0.75
  }
}
layer {
  name: "pool2"
  type: "Pooling"
  bottom: "norm2"
  top: "pool2"
  pooling_param {
    pool: MAX
    kernel_size: 3
    stride: 2
  }
}
layer {
  name: "conv3"
  type: "INQConvolution"
  bottom: "pool2"
  top: "conv3"
  param {
    lr_mult: 1
    decay_mult: 1
  }
  param {
    lr_mult: 2
    decay_mult: 0
  }
  convolution_param {
    num_output: 384
    pad: 1
    kernel_size: 3
    weight_filler {
      type: "gaussian"
      std: 0.01
    }
    bias_filler {
      type: "constant"
      value: 0
    }
  }
  inq_convolution_param {
    portion: 0.3
    portion: 0.5
    weight_mask_filler {
      type: "constant"
      value: 1
    }
    bias_mask_filler {
      type: "constant"
      value: 1
    }
    num_quantum_values: 7
  }
}
layer {
  name: "relu3"
  type: "ReLU"
  bottom: "conv3"
  top: "conv3"
}
layer {
  name: "conv4"
  type: "INQConvolution"
  bottom: "conv3"
  top: "conv4"
  param {
    lr_mult: 1
    decay_mult: 1
  }
  param {
    lr_mult: 2
    decay_mult: 0
  }
  convolution_param {
    num_output: 384
    pad: 1
    kernel_size: 3
    group: 2
    weight_filler {
      type: "gaussian"
      std: 0.01
    }
    bias_filler {
      type: "constant"
      value: 0.1
    }
  }
  inq_convolution_param {
    portion: 0.3
    portion: 0.5
    weight_mask_filler {
      type: "constant"
      value: 1
    }
    bias_mask_filler {
      type: "constant"
      value: 1
    }
    num_quantum_values: 7
  }
}
layer {
  name: "relu4"
  type: "ReLU"
  bottom: "conv4"
  top: "conv4"
}
layer {
  name: "conv5"
  type: "INQConvolution"
  bottom: "conv4"
  top: "conv5"
  param {
    lr_mult: 1
    decay_mult: 1
  }
  param {
    lr_mult: 2
    decay_mult: 0
  }
  convolution_param {
    num_output: 256
    pad: 1
    kernel_size: 3
    group: 2
    weight_filler {
      type: "gaussian"
      std: 0.01
    }
    bias_filler {
      type: "constant"
      value: 0.1
    }
  }
  inq_convolution_param {
    portion: 0.3
    portion: 0.5
    weight_mask_filler {
      type: "constant"
      value: 1
    }
    bias_mask_filler {
      type: "constant"
      value: 1
    }
    num_quantum_values: 7
  }
}
layer {
  name: "relu5"
  type: "ReLU"
  bottom: "conv5"
  top: "conv5"
}
layer {
  name: "pool5"
  type: "Pooling"
  bottom: "conv5"
  top: "pool5"
  pooling_param {
    pool: MAX
    kernel_size: 3
    stride: 2
  }
}
layer {
  name: "fc6"
  type: "INQInnerProduct"
  bottom: "pool5"
  top: "fc6"
  param {
    lr_mult: 1
    decay_mult: 1
  }
  param {
    lr_mult: 2
    decay_mult: 0
  }
  inner_product_param {
    num_output: 4096
    weight_filler {
      type: "gaussian"
      std: 0.005
    }
    bias_filler {
      type: "constant"
      value: 0.1
    }
  }
  inq_inner_product_param {
    portion: 0.3
    portion: 0.5
    weight_mask_filler {
      type: "constant"
      value: 1
    }
    bias_mask_filler {
      type: "constant"
      value: 1
    }
    num_quantum_values: 7
  }
}
layer {
  name: "relu6"
  type: "ReLU"
  bottom: "fc6"
  top: "fc6"
}
layer {
  name: "drop6"
  type: "Dropout"
  bottom: "fc6"
  top: "fc6"
  dropout_param {
    dropout_ratio: 0.5
  }
}
layer {
  name: "fc7"
  type: "INQInnerProduct"
  bottom: "fc6"
  top: "fc7"
  param {
    lr_mult: 1
    decay_mult: 1
  }
  param {
    lr_mult: 2
    decay_mult: 0
  }
  inner_product_param {
    num_output: 4096
    weight_filler {
      type: "gaussian"
      std: 0.005
    }
    bias_filler {
      type: "constant"
      value: 0.1
    }
  }
  inq_inner_product_param {
    portion: 0.3
    portion: 0.5
    weight_mask_filler {
      type: "constant"
      value: 1
    }
    bias_mask_filler {
      type: "constant"
      value: 1
    }
    num_quantum_values: 7
  }
}
layer {
  name: "relu7"
  type: "ReLU"
  bottom: "fc7"
  top: "fc7"
}
layer {
  name: "drop7"
  type: "Dropout"
  bottom: "fc7"
  top: "fc7"
  dropout_param {
    dropout_ratio: 0.5
  }
}
layer {
  name: "fc8"
  type: "INQInnerProduct"
  bottom: "fc7"
  top: "fc8"
  param {
    lr_mult: 1
    decay_mult: 1
  }
  param {
    lr_mult: 2
    decay_mult: 0
  }
  inner_product_param {
    num_output: 1000
    weight_filler {
      type: "gaussian"
      std: 0.01
    }
    bias_filler {
      type: "constant"
      value: 0
    }
  }
  inq_inner_product_param {
    portion: 0.3
    portion: 0.5
    weight_mask_filler {
      type: "constant"
      value: 1
    }
    bias_mask_filler {
      type: "constant"
      value: 1
    }
    num_quantum_values: 7
  }
}
layer {
  name: "accuracy_top1"
  type: "Accuracy"
  bottom: "fc8"
  bottom: "label"
  top: "accuracy_top1"
  include {
    phase: TEST
  }
  accuracy_param {
    top_k: 1
  }
}
layer {
  name: "accuracy_top5"
  type: "Accuracy"
  bottom: "fc8"
  bottom: "label"
  top: "accuracy_top5"
  include {
    phase: TEST
  }
  accuracy_param {
    top_k: 5
  }
}
layer {
  name: "loss"
  type: "SoftmaxWithLoss"
  bottom: "fc8"
  bottom: "label"
  top: "loss"
}
I1220 21:06:37.542415 13582 layer_factory.hpp:77] Creating layer data
I1220 21:06:37.542524 13582 db_lmdb.cpp:35] Opened lmdb /home/data/caffe-imagenet/ilsvrc12_val_lmdb
I1220 21:06:37.542564 13582 net.cpp:84] Creating Layer data
I1220 21:06:37.542577 13582 net.cpp:387] data -> data
I1220 21:06:37.542598 13582 net.cpp:387] data -> label
I1220 21:06:37.542615 13582 data_transformer.cpp:25] Loading mean file from: /home/data/caffe-imagenet/imagenet_mean.binaryproto
I1220 21:06:37.546130 13582 data_layer.cpp:45] output data size: 50,3,227,227
I1220 21:06:37.631635 13582 net.cpp:127] Setting up data
I1220 21:06:37.631683 13582 net.cpp:136] Top shape: 50 3 227 227 (7729350)
I1220 21:06:37.631692 13582 net.cpp:136] Top shape: 50 (50)
I1220 21:06:37.631726 13582 net.cpp:144] Memory required for data: 30917600
I1220 21:06:37.631733 13582 layer_factory.hpp:77] Creating layer label_data_1_split
I1220 21:06:37.631757 13582 net.cpp:84] Creating Layer label_data_1_split
I1220 21:06:37.631762 13582 net.cpp:413] label_data_1_split <- label
I1220 21:06:37.631772 13582 net.cpp:387] label_data_1_split -> label_data_1_split_0
I1220 21:06:37.631784 13582 net.cpp:387] label_data_1_split -> label_data_1_split_1
I1220 21:06:37.631793 13582 net.cpp:387] label_data_1_split -> label_data_1_split_2
I1220 21:06:37.632104 13582 net.cpp:127] Setting up label_data_1_split
I1220 21:06:37.632114 13582 net.cpp:136] Top shape: 50 (50)
I1220 21:06:37.632120 13582 net.cpp:136] Top shape: 50 (50)
I1220 21:06:37.632127 13582 net.cpp:136] Top shape: 50 (50)
I1220 21:06:37.632129 13582 net.cpp:144] Memory required for data: 30918200
I1220 21:06:37.632134 13582 layer_factory.hpp:77] Creating layer conv1
I1220 21:06:37.632153 13582 net.cpp:84] Creating Layer conv1
I1220 21:06:37.632158 13582 net.cpp:413] conv1 <- data
I1220 21:06:37.632166 13582 net.cpp:387] conv1 -> conv1
I1220 21:06:37.633033 13582 net.cpp:127] Setting up conv1
I1220 21:06:37.633044 13582 net.cpp:136] Top shape: 50 96 55 55 (14520000)
I1220 21:06:37.633047 13582 net.cpp:144] Memory required for data: 88998200
I1220 21:06:37.633056 13582 net.cpp:453] Found INQ layer:conv1, type: INQConvolution, layer id:2
I1220 21:06:37.633065 13582 net.cpp:453] Found INQ layer:conv1, type: INQConvolution, layer id:2
I1220 21:06:37.633074 13582 net.cpp:453] Found INQ layer:conv1, type: INQConvolution, layer id:2
I1220 21:06:37.633080 13582 net.cpp:453] Found INQ layer:conv1, type: INQConvolution, layer id:2
I1220 21:06:37.633085 13582 layer_factory.hpp:77] Creating layer relu1
I1220 21:06:37.633093 13582 net.cpp:84] Creating Layer relu1
I1220 21:06:37.633097 13582 net.cpp:413] relu1 <- conv1
I1220 21:06:37.633105 13582 net.cpp:374] relu1 -> conv1 (in-place)
I1220 21:06:37.633368 13582 net.cpp:127] Setting up relu1
I1220 21:06:37.633378 13582 net.cpp:136] Top shape: 50 96 55 55 (14520000)
I1220 21:06:37.633383 13582 net.cpp:144] Memory required for data: 147078200
I1220 21:06:37.633386 13582 layer_factory.hpp:77] Creating layer norm1
I1220 21:06:37.633399 13582 net.cpp:84] Creating Layer norm1
I1220 21:06:37.633404 13582 net.cpp:413] norm1 <- conv1
I1220 21:06:37.633411 13582 net.cpp:387] norm1 -> norm1
I1220 21:06:37.633793 13582 net.cpp:127] Setting up norm1
I1220 21:06:37.633805 13582 net.cpp:136] Top shape: 50 96 55 55 (14520000)
I1220 21:06:37.633810 13582 net.cpp:144] Memory required for data: 205158200
I1220 21:06:37.633813 13582 layer_factory.hpp:77] Creating layer pool1
I1220 21:06:37.633823 13582 net.cpp:84] Creating Layer pool1
I1220 21:06:37.633828 13582 net.cpp:413] pool1 <- norm1
I1220 21:06:37.633834 13582 net.cpp:387] pool1 -> pool1
I1220 21:06:37.633879 13582 net.cpp:127] Setting up pool1
I1220 21:06:37.633886 13582 net.cpp:136] Top shape: 50 96 27 27 (3499200)
I1220 21:06:37.633890 13582 net.cpp:144] Memory required for data: 219155000
I1220 21:06:37.633894 13582 layer_factory.hpp:77] Creating layer conv2
I1220 21:06:37.633905 13582 net.cpp:84] Creating Layer conv2
I1220 21:06:37.633909 13582 net.cpp:413] conv2 <- pool1
I1220 21:06:37.633918 13582 net.cpp:387] conv2 -> conv2
I1220 21:06:37.640666 13582 net.cpp:127] Setting up conv2
I1220 21:06:37.640684 13582 net.cpp:136] Top shape: 50 256 27 27 (9331200)
I1220 21:06:37.640688 13582 net.cpp:144] Memory required for data: 256479800
I1220 21:06:37.640697 13582 net.cpp:453] Found INQ layer:conv2, type: INQConvolution, layer id:6
I1220 21:06:37.640705 13582 net.cpp:453] Found INQ layer:conv2, type: INQConvolution, layer id:6
I1220 21:06:37.640712 13582 net.cpp:453] Found INQ layer:conv2, type: INQConvolution, layer id:6
I1220 21:06:37.640717 13582 net.cpp:453] Found INQ layer:conv2, type: INQConvolution, layer id:6
I1220 21:06:37.640722 13582 layer_factory.hpp:77] Creating layer relu2
I1220 21:06:37.640733 13582 net.cpp:84] Creating Layer relu2
I1220 21:06:37.640750 13582 net.cpp:413] relu2 <- conv2
I1220 21:06:37.640758 13582 net.cpp:374] relu2 -> conv2 (in-place)
I1220 21:06:37.642180 13582 net.cpp:127] Setting up relu2
I1220 21:06:37.642196 13582 net.cpp:136] Top shape: 50 256 27 27 (9331200)
I1220 21:06:37.642201 13582 net.cpp:144] Memory required for data: 293804600
I1220 21:06:37.642205 13582 layer_factory.hpp:77] Creating layer norm2
I1220 21:06:37.642217 13582 net.cpp:84] Creating Layer norm2
I1220 21:06:37.642221 13582 net.cpp:413] norm2 <- conv2
I1220 21:06:37.642230 13582 net.cpp:387] norm2 -> norm2
I1220 21:06:37.642467 13582 net.cpp:127] Setting up norm2
I1220 21:06:37.642477 13582 net.cpp:136] Top shape: 50 256 27 27 (9331200)
I1220 21:06:37.642482 13582 net.cpp:144] Memory required for data: 331129400
I1220 21:06:37.642485 13582 layer_factory.hpp:77] Creating layer pool2
I1220 21:06:37.642494 13582 net.cpp:84] Creating Layer pool2
I1220 21:06:37.642498 13582 net.cpp:413] pool2 <- norm2
I1220 21:06:37.642505 13582 net.cpp:387] pool2 -> pool2
I1220 21:06:37.642555 13582 net.cpp:127] Setting up pool2
I1220 21:06:37.642563 13582 net.cpp:136] Top shape: 50 256 13 13 (2163200)
I1220 21:06:37.642567 13582 net.cpp:144] Memory required for data: 339782200
I1220 21:06:37.642571 13582 layer_factory.hpp:77] Creating layer conv3
I1220 21:06:37.642582 13582 net.cpp:84] Creating Layer conv3
I1220 21:06:37.642586 13582 net.cpp:413] conv3 <- pool2
I1220 21:06:37.642594 13582 net.cpp:387] conv3 -> conv3
I1220 21:06:37.658058 13582 net.cpp:127] Setting up conv3
I1220 21:06:37.658076 13582 net.cpp:136] Top shape: 50 384 13 13 (3244800)
I1220 21:06:37.658079 13582 net.cpp:144] Memory required for data: 352761400
I1220 21:06:37.658088 13582 net.cpp:453] Found INQ layer:conv3, type: INQConvolution, layer id:10
I1220 21:06:37.658097 13582 net.cpp:453] Found INQ layer:conv3, type: INQConvolution, layer id:10
I1220 21:06:37.658102 13582 net.cpp:453] Found INQ layer:conv3, type: INQConvolution, layer id:10
I1220 21:06:37.658107 13582 net.cpp:453] Found INQ layer:conv3, type: INQConvolution, layer id:10
I1220 21:06:37.658112 13582 layer_factory.hpp:77] Creating layer relu3
I1220 21:06:37.658119 13582 net.cpp:84] Creating Layer relu3
I1220 21:06:37.658124 13582 net.cpp:413] relu3 <- conv3
I1220 21:06:37.658131 13582 net.cpp:374] relu3 -> conv3 (in-place)
I1220 21:06:37.658354 13582 net.cpp:127] Setting up relu3
I1220 21:06:37.658365 13582 net.cpp:136] Top shape: 50 384 13 13 (3244800)
I1220 21:06:37.658370 13582 net.cpp:144] Memory required for data: 365740600
I1220 21:06:37.658375 13582 layer_factory.hpp:77] Creating layer conv4
I1220 21:06:37.658386 13582 net.cpp:84] Creating Layer conv4
I1220 21:06:37.658391 13582 net.cpp:413] conv4 <- conv3
I1220 21:06:37.658401 13582 net.cpp:387] conv4 -> conv4
I1220 21:06:37.670290 13582 net.cpp:127] Setting up conv4
I1220 21:06:37.670307 13582 net.cpp:136] Top shape: 50 384 13 13 (3244800)
I1220 21:06:37.670312 13582 net.cpp:144] Memory required for data: 378719800
I1220 21:06:37.670318 13582 net.cpp:453] Found INQ layer:conv4, type: INQConvolution, layer id:12
I1220 21:06:37.670325 13582 net.cpp:453] Found INQ layer:conv4, type: INQConvolution, layer id:12
I1220 21:06:37.670331 13582 net.cpp:453] Found INQ layer:conv4, type: INQConvolution, layer id:12
I1220 21:06:37.670336 13582 net.cpp:453] Found INQ layer:conv4, type: INQConvolution, layer id:12
I1220 21:06:37.670338 13582 layer_factory.hpp:77] Creating layer relu4
I1220 21:06:37.670346 13582 net.cpp:84] Creating Layer relu4
I1220 21:06:37.670351 13582 net.cpp:413] relu4 <- conv4
I1220 21:06:37.670358 13582 net.cpp:374] relu4 -> conv4 (in-place)
I1220 21:06:37.671790 13582 net.cpp:127] Setting up relu4
I1220 21:06:37.671807 13582 net.cpp:136] Top shape: 50 384 13 13 (3244800)
I1220 21:06:37.671811 13582 net.cpp:144] Memory required for data: 391699000
I1220 21:06:37.671815 13582 layer_factory.hpp:77] Creating layer conv5
I1220 21:06:37.671828 13582 net.cpp:84] Creating Layer conv5
I1220 21:06:37.671838 13582 net.cpp:413] conv5 <- conv4
I1220 21:06:37.671846 13582 net.cpp:387] conv5 -> conv5
I1220 21:06:37.680493 13582 net.cpp:127] Setting up conv5
I1220 21:06:37.680511 13582 net.cpp:136] Top shape: 50 256 13 13 (2163200)
I1220 21:06:37.680516 13582 net.cpp:144] Memory required for data: 400351800
I1220 21:06:37.680526 13582 net.cpp:453] Found INQ layer:conv5, type: INQConvolution, layer id:14
I1220 21:06:37.680534 13582 net.cpp:453] Found INQ layer:conv5, type: INQConvolution, layer id:14
I1220 21:06:37.680546 13582 net.cpp:453] Found INQ layer:conv5, type: INQConvolution, layer id:14
I1220 21:06:37.680552 13582 net.cpp:453] Found INQ layer:conv5, type: INQConvolution, layer id:14
I1220 21:06:37.680555 13582 layer_factory.hpp:77] Creating layer relu5
I1220 21:06:37.680563 13582 net.cpp:84] Creating Layer relu5
I1220 21:06:37.680568 13582 net.cpp:413] relu5 <- conv5
I1220 21:06:37.680577 13582 net.cpp:374] relu5 -> conv5 (in-place)
I1220 21:06:37.680799 13582 net.cpp:127] Setting up relu5
I1220 21:06:37.680810 13582 net.cpp:136] Top shape: 50 256 13 13 (2163200)
I1220 21:06:37.680814 13582 net.cpp:144] Memory required for data: 409004600
I1220 21:06:37.680819 13582 layer_factory.hpp:77] Creating layer pool5
I1220 21:06:37.680830 13582 net.cpp:84] Creating Layer pool5
I1220 21:06:37.680833 13582 net.cpp:413] pool5 <- conv5
I1220 21:06:37.680841 13582 net.cpp:387] pool5 -> pool5
I1220 21:06:37.680896 13582 net.cpp:127] Setting up pool5
I1220 21:06:37.680902 13582 net.cpp:136] Top shape: 50 256 6 6 (460800)
I1220 21:06:37.680907 13582 net.cpp:144] Memory required for data: 410847800
I1220 21:06:37.680910 13582 layer_factory.hpp:77] Creating layer fc6
I1220 21:06:37.680922 13582 net.cpp:84] Creating Layer fc6
I1220 21:06:37.680927 13582 net.cpp:413] fc6 <- pool5
I1220 21:06:37.680934 13582 net.cpp:387] fc6 -> fc6
I1220 21:06:38.284323 13582 net.cpp:127] Setting up fc6
I1220 21:06:38.284373 13582 net.cpp:136] Top shape: 50 4096 (204800)
I1220 21:06:38.284377 13582 net.cpp:144] Memory required for data: 411667000
I1220 21:06:38.284389 13582 net.cpp:453] Found INQ layer:fc6, type: INQInnerProduct, layer id:17
I1220 21:06:38.284396 13582 net.cpp:453] Found INQ layer:fc6, type: INQInnerProduct, layer id:17
I1220 21:06:38.284402 13582 net.cpp:453] Found INQ layer:fc6, type: INQInnerProduct, layer id:17
I1220 21:06:38.284407 13582 net.cpp:453] Found INQ layer:fc6, type: INQInnerProduct, layer id:17
I1220 21:06:38.284411 13582 layer_factory.hpp:77] Creating layer relu6
I1220 21:06:38.284425 13582 net.cpp:84] Creating Layer relu6
I1220 21:06:38.284431 13582 net.cpp:413] relu6 <- fc6
I1220 21:06:38.284440 13582 net.cpp:374] relu6 -> fc6 (in-place)
I1220 21:06:38.284749 13582 net.cpp:127] Setting up relu6
I1220 21:06:38.284759 13582 net.cpp:136] Top shape: 50 4096 (204800)
I1220 21:06:38.284763 13582 net.cpp:144] Memory required for data: 412486200
I1220 21:06:38.284768 13582 layer_factory.hpp:77] Creating layer drop6
I1220 21:06:38.284778 13582 net.cpp:84] Creating Layer drop6
I1220 21:06:38.284782 13582 net.cpp:413] drop6 <- fc6
I1220 21:06:38.284790 13582 net.cpp:374] drop6 -> fc6 (in-place)
I1220 21:06:38.284826 13582 net.cpp:127] Setting up drop6
I1220 21:06:38.284833 13582 net.cpp:136] Top shape: 50 4096 (204800)
I1220 21:06:38.284837 13582 net.cpp:144] Memory required for data: 413305400
I1220 21:06:38.284842 13582 layer_factory.hpp:77] Creating layer fc7
I1220 21:06:38.284855 13582 net.cpp:84] Creating Layer fc7
I1220 21:06:38.284859 13582 net.cpp:413] fc7 <- fc6
I1220 21:06:38.284868 13582 net.cpp:387] fc7 -> fc7
I1220 21:06:38.553726 13582 net.cpp:127] Setting up fc7
I1220 21:06:38.553773 13582 net.cpp:136] Top shape: 50 4096 (204800)
I1220 21:06:38.553778 13582 net.cpp:144] Memory required for data: 414124600
I1220 21:06:38.553789 13582 net.cpp:453] Found INQ layer:fc7, type: INQInnerProduct, layer id:20
I1220 21:06:38.553797 13582 net.cpp:453] Found INQ layer:fc7, type: INQInnerProduct, layer id:20
I1220 21:06:38.553803 13582 net.cpp:453] Found INQ layer:fc7, type: INQInnerProduct, layer id:20
I1220 21:06:38.553808 13582 net.cpp:453] Found INQ layer:fc7, type: INQInnerProduct, layer id:20
I1220 21:06:38.553853 13582 layer_factory.hpp:77] Creating layer relu7
I1220 21:06:38.553866 13582 net.cpp:84] Creating Layer relu7
I1220 21:06:38.553872 13582 net.cpp:413] relu7 <- fc7
I1220 21:06:38.553881 13582 net.cpp:374] relu7 -> fc7 (in-place)
I1220 21:06:38.554188 13582 net.cpp:127] Setting up relu7
I1220 21:06:38.554198 13582 net.cpp:136] Top shape: 50 4096 (204800)
I1220 21:06:38.554203 13582 net.cpp:144] Memory required for data: 414943800
I1220 21:06:38.554208 13582 layer_factory.hpp:77] Creating layer drop7
I1220 21:06:38.554217 13582 net.cpp:84] Creating Layer drop7
I1220 21:06:38.554221 13582 net.cpp:413] drop7 <- fc7
I1220 21:06:38.554229 13582 net.cpp:374] drop7 -> fc7 (in-place)
I1220 21:06:38.554266 13582 net.cpp:127] Setting up drop7
I1220 21:06:38.554273 13582 net.cpp:136] Top shape: 50 4096 (204800)
I1220 21:06:38.554277 13582 net.cpp:144] Memory required for data: 415763000
I1220 21:06:38.554281 13582 layer_factory.hpp:77] Creating layer fc8
I1220 21:06:38.554294 13582 net.cpp:84] Creating Layer fc8
I1220 21:06:38.554299 13582 net.cpp:413] fc8 <- fc7
I1220 21:06:38.554307 13582 net.cpp:387] fc8 -> fc8
I1220 21:06:38.621184 13582 net.cpp:127] Setting up fc8
I1220 21:06:38.621222 13582 net.cpp:136] Top shape: 50 1000 (50000)
I1220 21:06:38.621227 13582 net.cpp:144] Memory required for data: 415963000
I1220 21:06:38.621235 13582 net.cpp:453] Found INQ layer:fc8, type: INQInnerProduct, layer id:23
I1220 21:06:38.621243 13582 net.cpp:453] Found INQ layer:fc8, type: INQInnerProduct, layer id:23
I1220 21:06:38.621249 13582 net.cpp:453] Found INQ layer:fc8, type: INQInnerProduct, layer id:23
I1220 21:06:38.621253 13582 net.cpp:453] Found INQ layer:fc8, type: INQInnerProduct, layer id:23
I1220 21:06:38.621258 13582 layer_factory.hpp:77] Creating layer fc8_fc8_0_split
I1220 21:06:38.621269 13582 net.cpp:84] Creating Layer fc8_fc8_0_split
I1220 21:06:38.621275 13582 net.cpp:413] fc8_fc8_0_split <- fc8
I1220 21:06:38.621284 13582 net.cpp:387] fc8_fc8_0_split -> fc8_fc8_0_split_0
I1220 21:06:38.621295 13582 net.cpp:387] fc8_fc8_0_split -> fc8_fc8_0_split_1
I1220 21:06:38.621302 13582 net.cpp:387] fc8_fc8_0_split -> fc8_fc8_0_split_2
I1220 21:06:38.621368 13582 net.cpp:127] Setting up fc8_fc8_0_split
I1220 21:06:38.621376 13582 net.cpp:136] Top shape: 50 1000 (50000)
I1220 21:06:38.621381 13582 net.cpp:136] Top shape: 50 1000 (50000)
I1220 21:06:38.621387 13582 net.cpp:136] Top shape: 50 1000 (50000)
I1220 21:06:38.621389 13582 net.cpp:144] Memory required for data: 416563000
I1220 21:06:38.621393 13582 layer_factory.hpp:77] Creating layer accuracy_top1
I1220 21:06:38.621412 13582 net.cpp:84] Creating Layer accuracy_top1
I1220 21:06:38.621417 13582 net.cpp:413] accuracy_top1 <- fc8_fc8_0_split_0
I1220 21:06:38.621423 13582 net.cpp:413] accuracy_top1 <- label_data_1_split_0
I1220 21:06:38.621430 13582 net.cpp:387] accuracy_top1 -> accuracy_top1
…
