…
I1029 20:59:20.078269 27430 net.cpp:301] The NetState phase (0) differed from the phase (1) specified by a rule in layer accuracy_top5
I1029 20:59:20.079270 27430 net.cpp:51] Initializing net from parameters: 
name: "SqueezeNet"
state {
  phase: TRAIN
  level: 0
  stage: ""
}
layer {
  name: "data"
  type: "Data"
  top: "data"
  top: "label"
  include {
    phase: TRAIN
  }
  transform_param {
    crop_size: 227
    mean_value: 104
    mean_value: 117
    mean_value: 123
  }
  data_param {
    source: "/home/data/caffe-imagenet/ilsvrc12_train_lmdb"
    batch_size: 128
    backend: LMDB
  }
}
layer {
  name: "conv1"
  type: "INQConvolution"
  bottom: "data"
  top: "conv1"
  convolution_param {
    num_output: 64
    kernel_size: 3
    stride: 2
    weight_filler {
      type: "xavier"
    }
  }
  inq_convolution_param {
    portion: 0.6
    portion: 0.8
    weight_mask_filler {
      type: "constant"
      value: 1
    }
    bias_mask_filler {
      type: "constant"
      value: 1
    }
    num_quantum_values: 7
  }
}
layer {
  name: "relu_conv1"
  type: "ReLU"
  bottom: "conv1"
  top: "conv1"
}
layer {
  name: "pool1"
  type: "Pooling"
  bottom: "conv1"
  top: "pool1"
  pooling_param {
    pool: MAX
    kernel_size: 3
    stride: 2
  }
}
layer {
  name: "fire2/squeeze1x1"
  type: "INQConvolution"
  bottom: "pool1"
  top: "fire2/squeeze1x1"
  convolution_param {
    num_output: 16
    kernel_size: 1
    weight_filler {
      type: "xavier"
    }
  }
  inq_convolution_param {
    portion: 0.6
    portion: 0.8
    weight_mask_filler {
      type: "constant"
      value: 1
    }
    bias_mask_filler {
      type: "constant"
      value: 1
    }
    num_quantum_values: 7
  }
}
layer {
  name: "fire2/relu_squeeze1x1"
  type: "ReLU"
  bottom: "fire2/squeeze1x1"
  top: "fire2/squeeze1x1"
}
layer {
  name: "fire2/expand1x1"
  type: "INQConvolution"
  bottom: "fire2/squeeze1x1"
  top: "fire2/expand1x1"
  convolution_param {
    num_output: 64
    kernel_size: 1
    weight_filler {
      type: "xavier"
    }
  }
  inq_convolution_param {
    portion: 0.6
    portion: 0.8
    weight_mask_filler {
      type: "constant"
      value: 1
    }
    bias_mask_filler {
      type: "constant"
      value: 1
    }
    num_quantum_values: 7
  }
}
layer {
  name: "fire2/relu_expand1x1"
  type: "ReLU"
  bottom: "fire2/expand1x1"
  top: "fire2/expand1x1"
}
layer {
  name: "fire2/expand3x3"
  type: "INQConvolution"
  bottom: "fire2/squeeze1x1"
  top: "fire2/expand3x3"
  convolution_param {
    num_output: 64
    pad: 1
    kernel_size: 3
    weight_filler {
      type: "xavier"
    }
  }
  inq_convolution_param {
    portion: 0.6
    portion: 0.8
    weight_mask_filler {
      type: "constant"
      value: 1
    }
    bias_mask_filler {
      type: "constant"
      value: 1
    }
    num_quantum_values: 7
  }
}
layer {
  name: "fire2/relu_expand3x3"
  type: "ReLU"
  bottom: "fire2/expand3x3"
  top: "fire2/expand3x3"
}
layer {
  name: "fire2/concat"
  type: "Concat"
  bottom: "fire2/expand1x1"
  bottom: "fire2/expand3x3"
  top: "fire2/concat"
}
layer {
  name: "fire3/squeeze1x1"
  type: "INQConvolution"
  bottom: "fire2/concat"
  top: "fire3/squeeze1x1"
  convolution_param {
    num_output: 16
    kernel_size: 1
    weight_filler {
      type: "xavier"
    }
  }
  inq_convolution_param {
    portion: 0.6
    portion: 0.8
    weight_mask_filler {
      type: "constant"
      value: 1
    }
    bias_mask_filler {
      type: "constant"
      value: 1
    }
    num_quantum_values: 7
  }
}
layer {
  name: "fire3/relu_squeeze1x1"
  type: "ReLU"
  bottom: "fire3/squeeze1x1"
  top: "fire3/squeeze1x1"
}
layer {
  name: "fire3/expand1x1"
  type: "INQConvolution"
  bottom: "fire3/squeeze1x1"
  top: "fire3/expand1x1"
  convolution_param {
    num_output: 64
    kernel_size: 1
    weight_filler {
      type: "xavier"
    }
  }
  inq_convolution_param {
    portion: 0.6
    portion: 0.8
    weight_mask_filler {
      type: "constant"
      value: 1
    }
    bias_mask_filler {
      type: "constant"
      value: 1
    }
    num_quantum_values: 7
  }
}
layer {
  name: "fire3/relu_expand1x1"
  type: "ReLU"
  bottom: "fire3/expand1x1"
  top: "fire3/expand1x1"
}
layer {
  name: "fire3/expand3x3"
  type: "INQConvolution"
  bottom: "fire3/squeeze1x1"
  top: "fire3/expand3x3"
  convolution_param {
    num_output: 64
    pad: 1
    kernel_size: 3
    weight_filler {
      type: "xavier"
    }
  }
  inq_convolution_param {
    portion: 0.6
    portion: 0.8
    weight_mask_filler {
      type: "constant"
      value: 1
    }
    bias_mask_filler {
      type: "constant"
      value: 1
    }
    num_quantum_values: 7
  }
}
layer {
  name: "fire3/relu_expand3x3"
  type: "ReLU"
  bottom: "fire3/expand3x3"
  top: "fire3/expand3x3"
}
layer {
  name: "fire3/concat"
  type: "Concat"
  bottom: "fire3/expand1x1"
  bottom: "fire3/expand3x3"
  top: "fire3/concat"
}
layer {
  name: "pool3"
  type: "Pooling"
  bottom: "fire3/concat"
  top: "pool3"
  pooling_param {
    pool: MAX
    kernel_size: 3
    stride: 2
  }
}
layer {
  name: "fire4/squeeze1x1"
  type: "INQConvolution"
  bottom: "pool3"
  top: "fire4/squeeze1x1"
  convolution_param {
    num_output: 32
    kernel_size: 1
    weight_filler {
      type: "xavier"
    }
  }
  inq_convolution_param {
    portion: 0.6
    portion: 0.8
    weight_mask_filler {
      type: "constant"
      value: 1
    }
    bias_mask_filler {
      type: "constant"
      value: 1
    }
    num_quantum_values: 7
  }
}
layer {
  name: "fire4/relu_squeeze1x1"
  type: "ReLU"
  bottom: "fire4/squeeze1x1"
  top: "fire4/squeeze1x1"
}
layer {
  name: "fire4/expand1x1"
  type: "INQConvolution"
  bottom: "fire4/squeeze1x1"
  top: "fire4/expand1x1"
  convolution_param {
    num_output: 128
    kernel_size: 1
    weight_filler {
      type: "xavier"
    }
  }
  inq_convolution_param {
    portion: 0.6
    portion: 0.8
    weight_mask_filler {
      type: "constant"
      value: 1
    }
    bias_mask_filler {
      type: "constant"
      value: 1
    }
    num_quantum_values: 7
  }
}
layer {
  name: "fire4/relu_expand1x1"
  type: "ReLU"
  bottom: "fire4/expand1x1"
  top: "fire4/expand1x1"
}
layer {
  name: "fire4/expand3x3"
  type: "INQConvolution"
  bottom: "fire4/squeeze1x1"
  top: "fire4/expand3x3"
  convolution_param {
    num_output: 128
    pad: 1
    kernel_size: 3
    weight_filler {
      type: "xavier"
    }
  }
  inq_convolution_param {
    portion: 0.6
    portion: 0.8
    weight_mask_filler {
      type: "constant"
      value: 1
    }
    bias_mask_filler {
      type: "constant"
      value: 1
    }
    num_quantum_values: 7
  }
}
layer {
  name: "fire4/relu_expand3x3"
  type: "ReLU"
  bottom: "fire4/expand3x3"
  top: "fire4/expand3x3"
}
layer {
  name: "fire4/concat"
  type: "Concat"
  bottom: "fire4/expand1x1"
  bottom: "fire4/expand3x3"
  top: "fire4/concat"
}
layer {
  name: "fire5/squeeze1x1"
  type: "INQConvolution"
  bottom: "fire4/concat"
  top: "fire5/squeeze1x1"
  convolution_param {
    num_output: 32
    kernel_size: 1
    weight_filler {
      type: "xavier"
    }
  }
  inq_convolution_param {
    portion: 0.6
    portion: 0.8
    weight_mask_filler {
      type: "constant"
      value: 1
    }
    bias_mask_filler {
      type: "constant"
      value: 1
    }
    num_quantum_values: 7
  }
}
layer {
  name: "fire5/relu_squeeze1x1"
  type: "ReLU"
  bottom: "fire5/squeeze1x1"
  top: "fire5/squeeze1x1"
}
layer {
  name: "fire5/expand1x1"
  type: "INQConvolution"
  bottom: "fire5/squeeze1x1"
  top: "fire5/expand1x1"
  convolution_param {
    num_output: 128
    kernel_size: 1
    weight_filler {
      type: "xavier"
    }
  }
  inq_convolution_param {
    portion: 0.6
    portion: 0.8
    weight_mask_filler {
      type: "constant"
      value: 1
    }
    bias_mask_filler {
      type: "constant"
      value: 1
    }
    num_quantum_values: 7
  }
}
layer {
  name: "fire5/relu_expand1x1"
  type: "ReLU"
  bottom: "fire5/expand1x1"
  top: "fire5/expand1x1"
}
layer {
  name: "fire5/expand3x3"
  type: "INQConvolution"
  bottom: "fire5/squeeze1x1"
  top: "fire5/expand3x3"
  convolution_param {
    num_output: 128
    pad: 1
    kernel_size: 3
    weight_filler {
      type: "xavier"
    }
  }
  inq_convolution_param {
    portion: 0.6
    portion: 0.8
    weight_mask_filler {
      type: "constant"
      value: 1
    }
    bias_mask_filler {
      type: "constant"
      value: 1
    }
    num_quantum_values: 7
  }
}
layer {
  name: "fire5/relu_expand3x3"
  type: "ReLU"
  bottom: "fire5/expand3x3"
  top: "fire5/expand3x3"
}
layer {
  name: "fire5/concat"
  type: "Concat"
  bottom: "fire5/expand1x1"
  bottom: "fire5/expand3x3"
  top: "fire5/concat"
}
layer {
  name: "pool5"
  type: "Pooling"
  bottom: "fire5/concat"
  top: "pool5"
  pooling_param {
    pool: MAX
    kernel_size: 3
    stride: 2
  }
}
layer {
  name: "fire6/squeeze1x1"
  type: "INQConvolution"
  bottom: "pool5"
  top: "fire6/squeeze1x1"
  convolution_param {
    num_output: 48
    kernel_size: 1
    weight_filler {
      type: "xavier"
    }
  }
  inq_convolution_param {
    portion: 0.6
    portion: 0.8
    weight_mask_filler {
      type: "constant"
      value: 1
    }
    bias_mask_filler {
      type: "constant"
      value: 1
    }
    num_quantum_values: 7
  }
}
layer {
  name: "fire6/relu_squeeze1x1"
  type: "ReLU"
  bottom: "fire6/squeeze1x1"
  top: "fire6/squeeze1x1"
}
layer {
  name: "fire6/expand1x1"
  type: "INQConvolution"
  bottom: "fire6/squeeze1x1"
  top: "fire6/expand1x1"
  convolution_param {
    num_output: 192
    kernel_size: 1
    weight_filler {
      type: "xavier"
    }
  }
  inq_convolution_param {
    portion: 0.6
    portion: 0.8
    weight_mask_filler {
      type: "constant"
      value: 1
    }
    bias_mask_filler {
      type: "constant"
      value: 1
    }
    num_quantum_values: 7
  }
}
layer {
  name: "fire6/relu_expand1x1"
  type: "ReLU"
  bottom: "fire6/expand1x1"
  top: "fire6/expand1x1"
}
layer {
  name: "fire6/expand3x3"
  type: "INQConvolution"
  bottom: "fire6/squeeze1x1"
  top: "fire6/expand3x3"
  convolution_param {
    num_output: 192
    pad: 1
    kernel_size: 3
    weight_filler {
      type: "xavier"
    }
  }
  inq_convolution_param {
    portion: 0.6
    portion: 0.8
    weight_mask_filler {
      type: "constant"
      value: 1
    }
    bias_mask_filler {
      type: "constant"
      value: 1
    }
    num_quantum_values: 7
  }
}
layer {
  name: "fire6/relu_expand3x3"
  type: "ReLU"
  bottom: "fire6/expand3x3"
  top: "fire6/expand3x3"
}
layer {
  name: "fire6/concat"
  type: "Concat"
  bottom: "fire6/expand1x1"
  bottom: "fire6/expand3x3"
  top: "fire6/concat"
}
layer {
  name: "fire7/squeeze1x1"
  type: "INQConvolution"
  bottom: "fire6/concat"
  top: "fire7/squeeze1x1"
  convolution_param {
    num_output: 48
    kernel_size: 1
    weight_filler {
      type: "xavier"
    }
  }
  inq_convolution_param {
    portion: 0.6
    portion: 0.8
    weight_mask_filler {
      type: "constant"
      value: 1
    }
    bias_mask_filler {
      type: "constant"
      value: 1
    }
    num_quantum_values: 7
  }
}
layer {
  name: "fire7/relu_squeeze1x1"
  type: "ReLU"
  bottom: "fire7/squeeze1x1"
  top: "fire7/squeeze1x1"
}
layer {
  name: "fire7/expand1x1"
  type: "INQConvolution"
  bottom: "fire7/squeeze1x1"
  top: "fire7/expand1x1"
  convolution_param {
    num_output: 192
    kernel_size: 1
    weight_filler {
      type: "xavier"
    }
  }
  inq_convolution_param {
    portion: 0.6
    portion: 0.8
    weight_mask_filler {
      type: "constant"
      value: 1
    }
    bias_mask_filler {
      type: "constant"
      value: 1
    }
    num_quantum_values: 7
  }
}
layer {
  name: "fire7/relu_expand1x1"
  type: "ReLU"
  bottom: "fire7/expand1x1"
  top: "fire7/expand1x1"
}
layer {
  name: "fire7/expand3x3"
  type: "INQConvolution"
  bottom: "fire7/squeeze1x1"
  top: "fire7/expand3x3"
  convolution_param {
    num_output: 192
    pad: 1
    kernel_size: 3
    weight_filler {
      type: "xavier"
    }
  }
  inq_convolution_param {
    portion: 0.6
    portion: 0.8
    weight_mask_filler {
      type: "constant"
      value: 1
    }
    bias_mask_filler {
      type: "constant"
      value: 1
    }
    num_quantum_values: 7
  }
}
layer {
  name: "fire7/relu_expand3x3"
  type: "ReLU"
  bottom: "fire7/expand3x3"
  top: "fire7/expand3x3"
}
layer {
  name: "fire7/concat"
  type: "Concat"
  bottom: "fire7/expand1x1"
  bottom: "fire7/expand3x3"
  top: "fire7/concat"
}
layer {
  name: "fire8/squeeze1x1"
  type: "INQConvolution"
  bottom: "fire7/concat"
  top: "fire8/squeeze1x1"
  convolution_param {
    num_output: 64
    kernel_size: 1
    weight_filler {
      type: "xavier"
    }
  }
  inq_convolution_param {
    portion: 0.6
    portion: 0.8
    weight_mask_filler {
      type: "constant"
      value: 1
    }
    bias_mask_filler {
      type: "constant"
      value: 1
    }
    num_quantum_values: 7
  }
}
layer {
  name: "fire8/relu_squeeze1x1"
  type: "ReLU"
  bottom: "fire8/squeeze1x1"
  top: "fire8/squeeze1x1"
}
layer {
  name: "fire8/expand1x1"
  type: "INQConvolution"
  bottom: "fire8/squeeze1x1"
  top: "fire8/expand1x1"
  convolution_param {
    num_output: 256
    kernel_size: 1
    weight_filler {
      type: "xavier"
    }
  }
  inq_convolution_param {
    portion: 0.6
    portion: 0.8
    weight_mask_filler {
      type: "constant"
      value: 1
    }
    bias_mask_filler {
      type: "constant"
      value: 1
    }
    num_quantum_values: 7
  }
}
layer {
  name: "fire8/relu_expand1x1"
  type: "ReLU"
  bottom: "fire8/expand1x1"
  top: "fire8/expand1x1"
}
layer {
  name: "fire8/expand3x3"
  type: "INQConvolution"
  bottom: "fire8/squeeze1x1"
  top: "fire8/expand3x3"
  convolution_param {
    num_output: 256
    pad: 1
    kernel_size: 3
    weight_filler {
      type: "xavier"
    }
  }
  inq_convolution_param {
    portion: 0.6
    portion: 0.8
    weight_mask_filler {
      type: "constant"
      value: 1
    }
    bias_mask_filler {
      type: "constant"
      value: 1
    }
    num_quantum_values: 7
  }
}
layer {
  name: "fire8/relu_expand3x3"
  type: "ReLU"
  bottom: "fire8/expand3x3"
  top: "fire8/expand3x3"
}
layer {
  name: "fire8/concat"
  type: "Concat"
  bottom: "fire8/expand1x1"
  bottom: "fire8/expand3x3"
  top: "fire8/concat"
}
layer {
  name: "fire9/squeeze1x1"
  type: "INQConvolution"
  bottom: "fire8/concat"
  top: "fire9/squeeze1x1"
  convolution_param {
    num_output: 64
    kernel_size: 1
    weight_filler {
      type: "xavier"
    }
  }
  inq_convolution_param {
    portion: 0.6
    portion: 0.8
    weight_mask_filler {
      type: "constant"
      value: 1
    }
    bias_mask_filler {
      type: "constant"
      value: 1
    }
    num_quantum_values: 7
  }
}
layer {
  name: "fire9/relu_squeeze1x1"
  type: "ReLU"
  bottom: "fire9/squeeze1x1"
  top: "fire9/squeeze1x1"
}
layer {
  name: "fire9/expand1x1"
  type: "INQConvolution"
  bottom: "fire9/squeeze1x1"
  top: "fire9/expand1x1"
  convolution_param {
    num_output: 256
    kernel_size: 1
    weight_filler {
      type: "xavier"
    }
  }
  inq_convolution_param {
    portion: 0.6
    portion: 0.8
    weight_mask_filler {
      type: "constant"
      value: 1
    }
    bias_mask_filler {
      type: "constant"
      value: 1
    }
    num_quantum_values: 7
  }
}
layer {
  name: "fire9/relu_expand1x1"
  type: "ReLU"
  bottom: "fire9/expand1x1"
  top: "fire9/expand1x1"
}
layer {
  name: "fire9/expand3x3"
  type: "INQConvolution"
  bottom: "fire9/squeeze1x1"
  top: "fire9/expand3x3"
  convolution_param {
    num_output: 256
    pad: 1
    kernel_size: 3
    weight_filler {
      type: "xavier"
    }
  }
  inq_convolution_param {
    portion: 0.6
    portion: 0.8
    weight_mask_filler {
      type: "constant"
      value: 1
    }
    bias_mask_filler {
      type: "constant"
      value: 1
    }
    num_quantum_values: 7
  }
}
layer {
  name: "fire9/relu_expand3x3"
  type: "ReLU"
  bottom: "fire9/expand3x3"
  top: "fire9/expand3x3"
}
layer {
  name: "fire9/concat"
  type: "Concat"
  bottom: "fire9/expand1x1"
  bottom: "fire9/expand3x3"
  top: "fire9/concat"
}
layer {
  name: "drop9"
  type: "Dropout"
  bottom: "fire9/concat"
  top: "fire9/concat"
  dropout_param {
    dropout_ratio: 0.5
  }
}
layer {
  name: "conv10"
  type: "INQConvolution"
  bottom: "fire9/concat"
  top: "conv10"
  convolution_param {
    num_output: 1000
    kernel_size: 1
    weight_filler {
      type: "gaussian"
      mean: 0
      std: 0.01
    }
  }
  inq_convolution_param {
    portion: 0.6
    portion: 0.8
    weight_mask_filler {
      type: "constant"
      value: 1
    }
    bias_mask_filler {
      type: "constant"
      value: 1
    }
    num_quantum_values: 7
  }
}
layer {
  name: "relu_conv10"
  type: "ReLU"
  bottom: "conv10"
  top: "conv10"
}
layer {
  name: "pool10"
  type: "Pooling"
  bottom: "conv10"
  top: "pool10"
  pooling_param {
    pool: AVE
    global_pooling: true
  }
}
layer {
  name: "loss"
  type: "SoftmaxWithLoss"
  bottom: "pool10"
  bottom: "label"
  top: "loss"
}
I1029 20:59:20.079849 27430 layer_factory.hpp:77] Creating layer data
I1029 20:59:20.086684 27430 db_lmdb.cpp:35] Opened lmdb /home/data/caffe-imagenet/ilsvrc12_train_lmdb
I1029 20:59:20.086779 27430 net.cpp:84] Creating Layer data
I1029 20:59:20.086802 27430 net.cpp:387] data -> data
I1029 20:59:20.086849 27430 net.cpp:387] data -> label
I1029 20:59:20.089712 27430 data_layer.cpp:45] output data size: 128,3,227,227
I1029 20:59:20.321405 27430 net.cpp:127] Setting up data
I1029 20:59:20.321449 27430 net.cpp:136] Top shape: 128 3 227 227 (19787136)
I1029 20:59:20.321456 27430 net.cpp:136] Top shape: 128 (128)
I1029 20:59:20.321460 27430 net.cpp:144] Memory required for data: 79149056
I1029 20:59:20.321475 27430 layer_factory.hpp:77] Creating layer conv1
I1029 20:59:20.321498 27430 net.cpp:84] Creating Layer conv1
I1029 20:59:20.321507 27430 net.cpp:413] conv1 <- data
I1029 20:59:20.321527 27430 net.cpp:387] conv1 -> conv1
I1029 20:59:20.324710 27430 net.cpp:127] Setting up conv1
I1029 20:59:20.324728 27430 net.cpp:136] Top shape: 128 64 113 113 (104603648)
I1029 20:59:20.324731 27430 net.cpp:144] Memory required for data: 497563648
I1029 20:59:20.324751 27430 net.cpp:453] Found INQ layer:conv1, type: INQConvolution, layer id:1
I1029 20:59:20.324762 27430 net.cpp:453] Found INQ layer:conv1, type: INQConvolution, layer id:1
I1029 20:59:20.324770 27430 net.cpp:453] Found INQ layer:conv1, type: INQConvolution, layer id:1
I1029 20:59:20.324776 27430 net.cpp:453] Found INQ layer:conv1, type: INQConvolution, layer id:1
I1029 20:59:20.324780 27430 layer_factory.hpp:77] Creating layer relu_conv1
I1029 20:59:20.324796 27430 net.cpp:84] Creating Layer relu_conv1
I1029 20:59:20.324800 27430 net.cpp:413] relu_conv1 <- conv1
I1029 20:59:20.324807 27430 net.cpp:374] relu_conv1 -> conv1 (in-place)
I1029 20:59:20.765384 27430 net.cpp:127] Setting up relu_conv1
I1029 20:59:20.765434 27430 net.cpp:136] Top shape: 128 64 113 113 (104603648)
I1029 20:59:20.765444 27430 net.cpp:144] Memory required for data: 915978240
I1029 20:59:20.765455 27430 layer_factory.hpp:77] Creating layer pool1
I1029 20:59:20.765478 27430 net.cpp:84] Creating Layer pool1
I1029 20:59:20.765487 27430 net.cpp:413] pool1 <- conv1
I1029 20:59:20.765502 27430 net.cpp:387] pool1 -> pool1
I1029 20:59:20.765630 27430 net.cpp:127] Setting up pool1
I1029 20:59:20.765682 27430 net.cpp:136] Top shape: 128 64 56 56 (25690112)
I1029 20:59:20.765689 27430 net.cpp:144] Memory required for data: 1018738688
I1029 20:59:20.765697 27430 layer_factory.hpp:77] Creating layer fire2/squeeze1x1
I1029 20:59:20.765722 27430 net.cpp:84] Creating Layer fire2/squeeze1x1
I1029 20:59:20.765728 27430 net.cpp:413] fire2/squeeze1x1 <- pool1
I1029 20:59:20.765740 27430 net.cpp:387] fire2/squeeze1x1 -> fire2/squeeze1x1
I1029 20:59:20.768142 27430 net.cpp:127] Setting up fire2/squeeze1x1
I1029 20:59:20.768167 27430 net.cpp:136] Top shape: 128 16 56 56 (6422528)
I1029 20:59:20.768175 27430 net.cpp:144] Memory required for data: 1044428800
I1029 20:59:20.768193 27430 net.cpp:453] Found INQ layer:fire2/squeeze1x1, type: INQConvolution, layer id:4
I1029 20:59:20.768206 27430 net.cpp:453] Found INQ layer:fire2/squeeze1x1, type: INQConvolution, layer id:4
I1029 20:59:20.768215 27430 net.cpp:453] Found INQ layer:fire2/squeeze1x1, type: INQConvolution, layer id:4
I1029 20:59:20.768224 27430 net.cpp:453] Found INQ layer:fire2/squeeze1x1, type: INQConvolution, layer id:4
I1029 20:59:20.768230 27430 layer_factory.hpp:77] Creating layer fire2/relu_squeeze1x1
I1029 20:59:20.768244 27430 net.cpp:84] Creating Layer fire2/relu_squeeze1x1
I1029 20:59:20.768251 27430 net.cpp:413] fire2/relu_squeeze1x1 <- fire2/squeeze1x1
I1029 20:59:20.768260 27430 net.cpp:374] fire2/relu_squeeze1x1 -> fire2/squeeze1x1 (in-place)
I1029 20:59:20.770210 27430 net.cpp:127] Setting up fire2/relu_squeeze1x1
I1029 20:59:20.770234 27430 net.cpp:136] Top shape: 128 16 56 56 (6422528)
I1029 20:59:20.770241 27430 net.cpp:144] Memory required for data: 1070118912
I1029 20:59:20.770249 27430 layer_factory.hpp:77] Creating layer fire2/squeeze1x1_fire2/relu_squeeze1x1_0_split
I1029 20:59:20.770265 27430 net.cpp:84] Creating Layer fire2/squeeze1x1_fire2/relu_squeeze1x1_0_split
I1029 20:59:20.770273 27430 net.cpp:413] fire2/squeeze1x1_fire2/relu_squeeze1x1_0_split <- fire2/squeeze1x1
I1029 20:59:20.770284 27430 net.cpp:387] fire2/squeeze1x1_fire2/relu_squeeze1x1_0_split -> fire2/squeeze1x1_fire2/relu_squeeze1x1_0_split_0
I1029 20:59:20.770298 27430 net.cpp:387] fire2/squeeze1x1_fire2/relu_squeeze1x1_0_split -> fire2/squeeze1x1_fire2/relu_squeeze1x1_0_split_1
I1029 20:59:20.770371 27430 net.cpp:127] Setting up fire2/squeeze1x1_fire2/relu_squeeze1x1_0_split
I1029 20:59:20.770383 27430 net.cpp:136] Top shape: 128 16 56 56 (6422528)
I1029 20:59:20.770392 27430 net.cpp:136] Top shape: 128 16 56 56 (6422528)
I1029 20:59:20.770398 27430 net.cpp:144] Memory required for data: 1121499136
I1029 20:59:20.770404 27430 layer_factory.hpp:77] Creating layer fire2/expand1x1
I1029 20:59:20.770419 27430 net.cpp:84] Creating Layer fire2/expand1x1
I1029 20:59:20.770426 27430 net.cpp:413] fire2/expand1x1 <- fire2/squeeze1x1_fire2/relu_squeeze1x1_0_split_0
I1029 20:59:20.770437 27430 net.cpp:387] fire2/expand1x1 -> fire2/expand1x1
I1029 20:59:20.770933 27430 net.cpp:127] Setting up fire2/expand1x1
I1029 20:59:20.770949 27430 net.cpp:136] Top shape: 128 64 56 56 (25690112)
I1029 20:59:20.770956 27430 net.cpp:144] Memory required for data: 1224259584
I1029 20:59:20.770969 27430 net.cpp:453] Found INQ layer:fire2/expand1x1, type: INQConvolution, layer id:7
I1029 20:59:20.770982 27430 net.cpp:453] Found INQ layer:fire2/expand1x1, type: INQConvolution, layer id:7
I1029 20:59:20.770990 27430 net.cpp:453] Found INQ layer:fire2/expand1x1, type: INQConvolution, layer id:7
I1029 20:59:20.770999 27430 net.cpp:453] Found INQ layer:fire2/expand1x1, type: INQConvolution, layer id:7
I1029 20:59:20.771006 27430 layer_factory.hpp:77] Creating layer fire2/relu_expand1x1
I1029 20:59:20.771019 27430 net.cpp:84] Creating Layer fire2/relu_expand1x1
I1029 20:59:20.771026 27430 net.cpp:413] fire2/relu_expand1x1 <- fire2/expand1x1
I1029 20:59:20.771035 27430 net.cpp:374] fire2/relu_expand1x1 -> fire2/expand1x1 (in-place)
I1029 20:59:20.771332 27430 net.cpp:127] Setting up fire2/relu_expand1x1
I1029 20:59:20.771347 27430 net.cpp:136] Top shape: 128 64 56 56 (25690112)
I1029 20:59:20.771358 27430 net.cpp:144] Memory required for data: 1327020032
I1029 20:59:20.771384 27430 layer_factory.hpp:77] Creating layer fire2/expand3x3
I1029 20:59:20.771400 27430 net.cpp:84] Creating Layer fire2/expand3x3
I1029 20:59:20.771409 27430 net.cpp:413] fire2/expand3x3 <- fire2/squeeze1x1_fire2/relu_squeeze1x1_0_split_1
I1029 20:59:20.771420 27430 net.cpp:387] fire2/expand3x3 -> fire2/expand3x3
I1029 20:59:20.772042 27430 net.cpp:127] Setting up fire2/expand3x3
I1029 20:59:20.772059 27430 net.cpp:136] Top shape: 128 64 56 56 (25690112)
I1029 20:59:20.772065 27430 net.cpp:144] Memory required for data: 1429780480
I1029 20:59:20.772075 27430 net.cpp:453] Found INQ layer:fire2/expand3x3, type: INQConvolution, layer id:9
I1029 20:59:20.772085 27430 net.cpp:453] Found INQ layer:fire2/expand3x3, type: INQConvolution, layer id:9
I1029 20:59:20.772094 27430 net.cpp:453] Found INQ layer:fire2/expand3x3, type: INQConvolution, layer id:9
I1029 20:59:20.772119 27430 net.cpp:453] Found INQ layer:fire2/expand3x3, type: INQConvolution, layer id:9
I1029 20:59:20.772126 27430 layer_factory.hpp:77] Creating layer fire2/relu_expand3x3
I1029 20:59:20.772136 27430 net.cpp:84] Creating Layer fire2/relu_expand3x3
I1029 20:59:20.772143 27430 net.cpp:413] fire2/relu_expand3x3 <- fire2/expand3x3
I1029 20:59:20.772151 27430 net.cpp:374] fire2/relu_expand3x3 -> fire2/expand3x3 (in-place)
I1029 20:59:20.772428 27430 net.cpp:127] Setting up fire2/relu_expand3x3
I1029 20:59:20.772441 27430 net.cpp:136] Top shape: 128 64 56 56 (25690112)
I1029 20:59:20.772447 27430 net.cpp:144] Memory required for data: 1532540928
I1029 20:59:20.772454 27430 layer_factory.hpp:77] Creating layer fire2/concat
I1029 20:59:20.772469 27430 net.cpp:84] Creating Layer fire2/concat
I1029 20:59:20.772475 27430 net.cpp:413] fire2/concat <- fire2/expand1x1
I1029 20:59:20.772482 27430 net.cpp:413] fire2/concat <- fire2/expand3x3
I1029 20:59:20.772491 27430 net.cpp:387] fire2/concat -> fire2/concat
I1029 20:59:20.772536 27430 net.cpp:127] Setting up fire2/concat
I1029 20:59:20.772547 27430 net.cpp:136] Top shape: 128 128 56 56 (51380224)
I1029 20:59:20.772553 27430 net.cpp:144] Memory required for data: 1738061824
I1029 20:59:20.772558 27430 layer_factory.hpp:77] Creating layer fire3/squeeze1x1
I1029 20:59:20.772572 27430 net.cpp:84] Creating Layer fire3/squeeze1x1
I1029 20:59:20.772578 27430 net.cpp:413] fire3/squeeze1x1 <- fire2/concat
I1029 20:59:20.772588 27430 net.cpp:387] fire3/squeeze1x1 -> fire3/squeeze1x1
I1029 20:59:20.773052 27430 net.cpp:127] Setting up fire3/squeeze1x1
I1029 20:59:20.773066 27430 net.cpp:136] Top shape: 128 16 56 56 (6422528)
I1029 20:59:20.773072 27430 net.cpp:144] Memory required for data: 1763751936
I1029 20:59:20.773084 27430 net.cpp:453] Found INQ layer:fire3/squeeze1x1, type: INQConvolution, layer id:12
I1029 20:59:20.773095 27430 net.cpp:453] Found INQ layer:fire3/squeeze1x1, type: INQConvolution, layer id:12
I1029 20:59:20.773103 27430 net.cpp:453] Found INQ layer:fire3/squeeze1x1, type: INQConvolution, layer id:12
I1029 20:59:20.773111 27430 net.cpp:453] Found INQ layer:fire3/squeeze1x1, type: INQConvolution, layer id:12
I1029 20:59:20.773118 27430 layer_factory.hpp:77] Creating layer fire3/relu_squeeze1x1
I1029 20:59:20.773126 27430 net.cpp:84] Creating Layer fire3/relu_squeeze1x1
I1029 20:59:20.773133 27430 net.cpp:413] fire3/relu_squeeze1x1 <- fire3/squeeze1x1
I1029 20:59:20.773141 27430 net.cpp:374] fire3/relu_squeeze1x1 -> fire3/squeeze1x1 (in-place)
I1029 20:59:20.775089 27430 net.cpp:127] Setting up fire3/relu_squeeze1x1
I1029 20:59:20.775110 27430 net.cpp:136] Top shape: 128 16 56 56 (6422528)
I1029 20:59:20.775117 27430 net.cpp:144] Memory required for data: 1789442048
I1029 20:59:20.775125 27430 layer_factory.hpp:77] Creating layer fire3/squeeze1x1_fire3/relu_squeeze1x1_0_split
I1029 20:59:20.775136 27430 net.cpp:84] Creating Layer fire3/squeeze1x1_fire3/relu_squeeze1x1_0_split
I1029 20:59:20.775143 27430 net.cpp:413] fire3/squeeze1x1_fire3/relu_squeeze1x1_0_split <- fire3/squeeze1x1
I1029 20:59:20.775159 27430 net.cpp:387] fire3/squeeze1x1_fire3/relu_squeeze1x1_0_split -> fire3/squeeze1x1_fire3/relu_squeeze1x1_0_split_0
I1029 20:59:20.775190 27430 net.cpp:387] fire3/squeeze1x1_fire3/relu_squeeze1x1_0_split -> fire3/squeeze1x1_fire3/relu_squeeze1x1_0_split_1
I1029 20:59:20.775259 27430 net.cpp:127] Setting up fire3/squeeze1x1_fire3/relu_squeeze1x1_0_split
I1029 20:59:20.775270 27430 net.cpp:136] Top shape: 128 16 56 56 (6422528)
I1029 20:59:20.775279 27430 net.cpp:136] Top shape: 128 16 56 56 (6422528)
I1029 20:59:20.775285 27430 net.cpp:144] Memory required for data: 1840822272
I1029 20:59:20.775290 27430 layer_factory.hpp:77] Creating layer fire3/expand1x1
I1029 20:59:20.775303 27430 net.cpp:84] Creating Layer fire3/expand1x1
I1029 20:59:20.775310 27430 net.cpp:413] fire3/expand1x1 <- fire3/squeeze1x1_fire3/relu_squeeze1x1_0_split_0
I1029 20:59:20.775321 27430 net.cpp:387] fire3/expand1x1 -> fire3/expand1x1
I1029 20:59:20.775764 27430 net.cpp:127] Setting up fire3/expand1x1
I1029 20:59:20.775777 27430 net.cpp:136] Top shape: 128 64 56 56 (25690112)
I1029 20:59:20.775784 27430 net.cpp:144] Memory required for data: 1943582720
I1029 20:59:20.775794 27430 net.cpp:453] Found INQ layer:fire3/expand1x1, type: INQConvolution, layer id:15
I1029 20:59:20.775802 27430 net.cpp:453] Found INQ layer:fire3/expand1x1, type: INQConvolution, layer id:15
I1029 20:59:20.775810 27430 net.cpp:453] Found INQ layer:fire3/expand1x1, type: INQConvolution, layer id:15
I1029 20:59:20.775817 27430 net.cpp:453] Found INQ layer:fire3/expand1x1, type: INQConvolution, layer id:15
I1029 20:59:20.775823 27430 layer_factory.hpp:77] Creating layer fire3/relu_expand1x1
I1029 20:59:20.775835 27430 net.cpp:84] Creating Layer fire3/relu_expand1x1
I1029 20:59:20.775842 27430 net.cpp:413] fire3/relu_expand1x1 <- fire3/expand1x1
I1029 20:59:20.775851 27430 net.cpp:374] fire3/relu_expand1x1 -> fire3/expand1x1 (in-place)
I1029 20:59:20.776134 27430 net.cpp:127] Setting up fire3/relu_expand1x1
I1029 20:59:20.776149 27430 net.cpp:136] Top shape: 128 64 56 56 (25690112)
I1029 20:59:20.776155 27430 net.cpp:144] Memory required for data: 2046343168
I1029 20:59:20.776162 27430 layer_factory.hpp:77] Creating layer fire3/expand3x3
I1029 20:59:20.776175 27430 net.cpp:84] Creating Layer fire3/expand3x3
I1029 20:59:20.776182 27430 net.cpp:413] fire3/expand3x3 <- fire3/squeeze1x1_fire3/relu_squeeze1x1_0_split_1
I1029 20:59:20.776193 27430 net.cpp:387] fire3/expand3x3 -> fire3/expand3x3
I1029 20:59:20.776748 27430 net.cpp:127] Setting up fire3/expand3x3
I1029 20:59:20.776762 27430 net.cpp:136] Top shape: 128 64 56 56 (25690112)
I1029 20:59:20.776768 27430 net.cpp:144] Memory required for data: 2149103616
I1029 20:59:20.776777 27430 net.cpp:453] Found INQ layer:fire3/expand3x3, type: INQConvolution, layer id:17
I1029 20:59:20.776787 27430 net.cpp:453] Found INQ layer:fire3/expand3x3, type: INQConvolution, layer id:17
I1029 20:59:20.776794 27430 net.cpp:453] Found INQ layer:fire3/expand3x3, type: INQConvolution, layer id:17
I1029 20:59:20.776803 27430 net.cpp:453] Found INQ layer:fire3/expand3x3, type: INQConvolution, layer id:17
I1029 20:59:20.776808 27430 layer_factory.hpp:77] Creating layer fire3/relu_expand3x3
I1029 20:59:20.776818 27430 net.cpp:84] Creating Layer fire3/relu_expand3x3
I1029 20:59:20.776824 27430 net.cpp:413] fire3/relu_expand3x3 <- fire3/expand3x3
I1029 20:59:20.776834 27430 net.cpp:374] fire3/relu_expand3x3 -> fire3/expand3x3 (in-place)
I1029 20:59:20.777118 27430 net.cpp:127] Setting up fire3/relu_expand3x3
I1029 20:59:20.777132 27430 net.cpp:136] Top shape: 128 64 56 56 (25690112)
I1029 20:59:20.777138 27430 net.cpp:144] Memory required for data: 2251864064
I1029 20:59:20.777144 27430 layer_factory.hpp:77] Creating layer fire3/concat
I1029 20:59:20.777155 27430 net.cpp:84] Creating Layer fire3/concat
I1029 20:59:20.777161 27430 net.cpp:413] fire3/concat <- fire3/expand1x1
I1029 20:59:20.777169 27430 net.cpp:413] fire3/concat <- fire3/expand3x3
I1029 20:59:20.777178 27430 net.cpp:387] fire3/concat -> fire3/concat
I1029 20:59:20.777225 27430 net.cpp:127] Setting up fire3/concat
I1029 20:59:20.777235 27430 net.cpp:136] Top shape: 128 128 56 56 (51380224)
I1029 20:59:20.777257 27430 net.cpp:144] Memory required for data: 2457384960
I1029 20:59:20.777264 27430 layer_factory.hpp:77] Creating layer pool3
I1029 20:59:20.777276 27430 net.cpp:84] Creating Layer pool3
I1029 20:59:20.777281 27430 net.cpp:413] pool3 <- fire3/concat
I1029 20:59:20.777290 27430 net.cpp:387] pool3 -> pool3
I1029 20:59:20.777353 27430 net.cpp:127] Setting up pool3
I1029 20:59:20.777364 27430 net.cpp:136] Top shape: 128 128 28 28 (12845056)
I1029 20:59:20.777369 27430 net.cpp:144] Memory required for data: 2508765184
I1029 20:59:20.777375 27430 layer_factory.hpp:77] Creating layer fire4/squeeze1x1
I1029 20:59:20.777387 27430 net.cpp:84] Creating Layer fire4/squeeze1x1
I1029 20:59:20.777395 27430 net.cpp:413] fire4/squeeze1x1 <- pool3
I1029 20:59:20.777405 27430 net.cpp:387] fire4/squeeze1x1 -> fire4/squeeze1x1
I1029 20:59:20.777892 27430 net.cpp:127] Setting up fire4/squeeze1x1
I1029 20:59:20.777906 27430 net.cpp:136] Top shape: 128 32 28 28 (3211264)
I1029 20:59:20.777912 27430 net.cpp:144] Memory required for data: 2521610240
I1029 20:59:20.777930 27430 net.cpp:453] Found INQ layer:fire4/squeeze1x1, type: INQConvolution, layer id:21
I1029 20:59:20.777938 27430 net.cpp:453] Found INQ layer:fire4/squeeze1x1, type: INQConvolution, layer id:21
I1029 20:59:20.777946 27430 net.cpp:453] Found INQ layer:fire4/squeeze1x1, type: INQConvolution, layer id:21
I1029 20:59:20.777953 27430 net.cpp:453] Found INQ layer:fire4/squeeze1x1, type: INQConvolution, layer id:21
I1029 20:59:20.777961 27430 layer_factory.hpp:77] Creating layer fire4/relu_squeeze1x1
I1029 20:59:20.777971 27430 net.cpp:84] Creating Layer fire4/relu_squeeze1x1
I1029 20:59:20.777977 27430 net.cpp:413] fire4/relu_squeeze1x1 <- fire4/squeeze1x1
I1029 20:59:20.777986 27430 net.cpp:374] fire4/relu_squeeze1x1 -> fire4/squeeze1x1 (in-place)
I1029 20:59:20.778265 27430 net.cpp:127] Setting up fire4/relu_squeeze1x1
I1029 20:59:20.778280 27430 net.cpp:136] Top shape: 128 32 28 28 (3211264)
I1029 20:59:20.778286 27430 net.cpp:144] Memory required for data: 2534455296
I1029 20:59:20.778292 27430 layer_factory.hpp:77] Creating layer fire4/squeeze1x1_fire4/relu_squeeze1x1_0_split
I1029 20:59:20.778302 27430 net.cpp:84] Creating Layer fire4/squeeze1x1_fire4/relu_squeeze1x1_0_split
I1029 20:59:20.778308 27430 net.cpp:413] fire4/squeeze1x1_fire4/relu_squeeze1x1_0_split <- fire4/squeeze1x1
I1029 20:59:20.778317 27430 net.cpp:387] fire4/squeeze1x1_fire4/relu_squeeze1x1_0_split -> fire4/squeeze1x1_fire4/relu_squeeze1x1_0_split_0
I1029 20:59:20.778328 27430 net.cpp:387] fire4/squeeze1x1_fire4/relu_squeeze1x1_0_split -> fire4/squeeze1x1_fire4/relu_squeeze1x1_0_split_1
I1029 20:59:20.778389 27430 net.cpp:127] Setting up fire4/squeeze1x1_fire4/relu_squeeze1x1_0_split
I1029 20:59:20.778399 27430 net.cpp:136] Top shape: 128 32 28 28 (3211264)
I1029 20:59:20.778408 27430 net.cpp:136] Top shape: 128 32 28 28 (3211264)
I1029 20:59:20.778412 27430 net.cpp:144] Memory required for data: 2560145408
I1029 20:59:20.778419 27430 layer_factory.hpp:77] Creating layer fire4/expand1x1
I1029 20:59:20.778430 27430 net.cpp:84] Creating Layer fire4/expand1x1
I1029 20:59:20.778436 27430 net.cpp:413] fire4/expand1x1 <- fire4/squeeze1x1_fire4/relu_squeeze1x1_0_split_0
I1029 20:59:20.778446 27430 net.cpp:387] fire4/expand1x1 -> fire4/expand1x1
I1029 20:59:20.778915 27430 net.cpp:127] Setting up fire4/expand1x1
I1029 20:59:20.778936 27430 net.cpp:136] Top shape: 128 128 28 28 (12845056)
I1029 20:59:20.778942 27430 net.cpp:144] Memory required for data: 2611525632
I1029 20:59:20.778956 27430 net.cpp:453] Found INQ layer:fire4/expand1x1, type: INQConvolution, layer id:24
I1029 20:59:20.778969 27430 net.cpp:453] Found INQ layer:fire4/expand1x1, type: INQConvolution, layer id:24
I1029 20:59:20.778977 27430 net.cpp:453] Found INQ layer:fire4/expand1x1, type: INQConvolution, layer id:24
I1029 20:59:20.778985 27430 net.cpp:453] Found INQ layer:fire4/expand1x1, type: INQConvolution, layer id:24
I1029 20:59:20.778995 27430 layer_factory.hpp:77] Creating layer fire4/relu_expand1x1
I1029 20:59:20.779021 27430 net.cpp:84] Creating Layer fire4/relu_expand1x1
I1029 20:59:20.779029 27430 net.cpp:413] fire4/relu_expand1x1 <- fire4/expand1x1
I1029 20:59:20.779037 27430 net.cpp:374] fire4/relu_expand1x1 -> fire4/expand1x1 (in-place)
I1029 20:59:20.780980 27430 net.cpp:127] Setting up fire4/relu_expand1x1
I1029 20:59:20.781002 27430 net.cpp:136] Top shape: 128 128 28 28 (12845056)
I1029 20:59:20.781009 27430 net.cpp:144] Memory required for data: 2662905856
I1029 20:59:20.781016 27430 layer_factory.hpp:77] Creating layer fire4/expand3x3
I1029 20:59:20.781031 27430 net.cpp:84] Creating Layer fire4/expand3x3
I1029 20:59:20.781038 27430 net.cpp:413] fire4/expand3x3 <- fire4/squeeze1x1_fire4/relu_squeeze1x1_0_split_1
I1029 20:59:20.781050 27430 net.cpp:387] fire4/expand3x3 -> fire4/expand3x3
I1029 20:59:20.783545 27430 net.cpp:127] Setting up fire4/expand3x3
I1029 20:59:20.783566 27430 net.cpp:136] Top shape: 128 128 28 28 (12845056)
I1029 20:59:20.783572 27430 net.cpp:144] Memory required for data: 2714286080
I1029 20:59:20.783582 27430 net.cpp:453] Found INQ layer:fire4/expand3x3, type: INQConvolution, layer id:26
I1029 20:59:20.783591 27430 net.cpp:453] Found INQ layer:fire4/expand3x3, type: INQConvolution, layer id:26
I1029 20:59:20.783598 27430 net.cpp:453] Found INQ layer:fire4/expand3x3, type: INQConvolution, layer id:26
I1029 20:59:20.783605 27430 net.cpp:453] Found INQ layer:fire4/expand3x3, type: INQConvolution, layer id:26
I1029 20:59:20.783612 27430 layer_factory.hpp:77] Creating layer fire4/relu_expand3x3
I1029 20:59:20.783622 27430 net.cpp:84] Creating Layer fire4/relu_expand3x3
I1029 20:59:20.783628 27430 net.cpp:413] fire4/relu_expand3x3 <- fire4/expand3x3
I1029 20:59:20.783638 27430 net.cpp:374] fire4/relu_expand3x3 -> fire4/expand3x3 (in-place)
I1029 20:59:20.783910 27430 net.cpp:127] Setting up fire4/relu_expand3x3
I1029 20:59:20.783931 27430 net.cpp:136] Top shape: 128 128 28 28 (12845056)
I1029 20:59:20.783937 27430 net.cpp:144] Memory required for data: 2765666304
I1029 20:59:20.783943 27430 layer_factory.hpp:77] Creating layer fire4/concat
I1029 20:59:20.783953 27430 net.cpp:84] Creating Layer fire4/concat
I1029 20:59:20.783960 27430 net.cpp:413] fire4/concat <- fire4/expand1x1
I1029 20:59:20.783967 27430 net.cpp:413] fire4/concat <- fire4/expand3x3
I1029 20:59:20.783975 27430 net.cpp:387] fire4/concat -> fire4/concat
I1029 20:59:20.784018 27430 net.cpp:127] Setting up fire4/concat
I1029 20:59:20.784027 27430 net.cpp:136] Top shape: 128 256 28 28 (25690112)
I1029 20:59:20.784032 27430 net.cpp:144] Memory required for data: 2868426752
I1029 20:59:20.784037 27430 layer_factory.hpp:77] Creating layer fire5/squeeze1x1
I1029 20:59:20.784050 27430 net.cpp:84] Creating Layer fire5/squeeze1x1
I1029 20:59:20.784056 27430 net.cpp:413] fire5/squeeze1x1 <- fire4/concat
I1029 20:59:20.784065 27430 net.cpp:387] fire5/squeeze1x1 -> fire5/squeeze1x1
I1029 20:59:20.784580 27430 net.cpp:127] Setting up fire5/squeeze1x1
I1029 20:59:20.784593 27430 net.cpp:136] Top shape: 128 32 28 28 (3211264)
I1029 20:59:20.784600 27430 net.cpp:144] Memory required for data: 2881271808
I1029 20:59:20.784608 27430 net.cpp:453] Found INQ layer:fire5/squeeze1x1, type: INQConvolution, layer id:29
I1029 20:59:20.784616 27430 net.cpp:453] Found INQ layer:fire5/squeeze1x1, type: INQConvolution, layer id:29
I1029 20:59:20.784623 27430 net.cpp:453] Found INQ layer:fire5/squeeze1x1, type: INQConvolution, layer id:29
I1029 20:59:20.784631 27430 net.cpp:453] Found INQ layer:fire5/squeeze1x1, type: INQConvolution, layer id:29
I1029 20:59:20.784636 27430 layer_factory.hpp:77] Creating layer fire5/relu_squeeze1x1
I1029 20:59:20.784646 27430 net.cpp:84] Creating Layer fire5/relu_squeeze1x1
I1029 20:59:20.784651 27430 net.cpp:413] fire5/relu_squeeze1x1 <- fire5/squeeze1x1
I1029 20:59:20.784659 27430 net.cpp:374] fire5/relu_squeeze1x1 -> fire5/squeeze1x1 (in-place)
I1029 20:59:20.784934 27430 net.cpp:127] Setting up fire5/relu_squeeze1x1
I1029 20:59:20.784953 27430 net.cpp:136] Top shape: 128 32 28 28 (3211264)
I1029 20:59:20.784976 27430 net.cpp:144] Memory required for data: 2894116864
I1029 20:59:20.784983 27430 layer_factory.hpp:77] Creating layer fire5/squeeze1x1_fire5/relu_squeeze1x1_0_split
I1029 20:59:20.784992 27430 net.cpp:84] Creating Layer fire5/squeeze1x1_fire5/relu_squeeze1x1_0_split
I1029 20:59:20.784998 27430 net.cpp:413] fire5/squeeze1x1_fire5/relu_squeeze1x1_0_split <- fire5/squeeze1x1
I1029 20:59:20.785007 27430 net.cpp:387] fire5/squeeze1x1_fire5/relu_squeeze1x1_0_split -> fire5/squeeze1x1_fire5/relu_squeeze1x1_0_split_0
I1029 20:59:20.785018 27430 net.cpp:387] fire5/squeeze1x1_fire5/relu_squeeze1x1_0_split -> fire5/squeeze1x1_fire5/relu_squeeze1x1_0_split_1
I1029 20:59:20.785080 27430 net.cpp:127] Setting up fire5/squeeze1x1_fire5/relu_squeeze1x1_0_split
I1029 20:59:20.785091 27430 net.cpp:136] Top shape: 128 32 28 28 (3211264)
I1029 20:59:20.785099 27430 net.cpp:136] Top shape: 128 32 28 28 (3211264)
I1029 20:59:20.785104 27430 net.cpp:144] Memory required for data: 2919806976
I1029 20:59:20.785109 27430 layer_factory.hpp:77] Creating layer fire5/expand1x1
I1029 20:59:20.785125 27430 net.cpp:84] Creating Layer fire5/expand1x1
I1029 20:59:20.785131 27430 net.cpp:413] fire5/expand1x1 <- fire5/squeeze1x1_fire5/relu_squeeze1x1_0_split_0
I1029 20:59:20.785141 27430 net.cpp:387] fire5/expand1x1 -> fire5/expand1x1
I1029 20:59:20.785589 27430 net.cpp:127] Setting up fire5/expand1x1
I1029 20:59:20.785601 27430 net.cpp:136] Top shape: 128 128 28 28 (12845056)
I1029 20:59:20.785607 27430 net.cpp:144] Memory required for data: 2971187200
I1029 20:59:20.785616 27430 net.cpp:453] Found INQ layer:fire5/expand1x1, type: INQConvolution, layer id:32
I1029 20:59:20.785624 27430 net.cpp:453] Found INQ layer:fire5/expand1x1, type: INQConvolution, layer id:32
I1029 20:59:20.785631 27430 net.cpp:453] Found INQ layer:fire5/expand1x1, type: INQConvolution, layer id:32
I1029 20:59:20.785639 27430 net.cpp:453] Found INQ layer:fire5/expand1x1, type: INQConvolution, layer id:32
I1029 20:59:20.785645 27430 layer_factory.hpp:77] Creating layer fire5/relu_expand1x1
I1029 20:59:20.785653 27430 net.cpp:84] Creating Layer fire5/relu_expand1x1
I1029 20:59:20.785660 27430 net.cpp:413] fire5/relu_expand1x1 <- fire5/expand1x1
I1029 20:59:20.785667 27430 net.cpp:374] fire5/relu_expand1x1 -> fire5/expand1x1 (in-place)
I1029 20:59:20.785944 27430 net.cpp:127] Setting up fire5/relu_expand1x1
I1029 20:59:20.785959 27430 net.cpp:136] Top shape: 128 128 28 28 (12845056)
I1029 20:59:20.785964 27430 net.cpp:144] Memory required for data: 3022567424
I1029 20:59:20.785969 27430 layer_factory.hpp:77] Creating layer fire5/expand3x3
I1029 20:59:20.785982 27430 net.cpp:84] Creating Layer fire5/expand3x3
I1029 20:59:20.785989 27430 net.cpp:413] fire5/expand3x3 <- fire5/squeeze1x1_fire5/relu_squeeze1x1_0_split_1
I1029 20:59:20.786000 27430 net.cpp:387] fire5/expand3x3 -> fire5/expand3x3
I1029 20:59:20.786804 27430 net.cpp:127] Setting up fire5/expand3x3
I1029 20:59:20.786818 27430 net.cpp:136] Top shape: 128 128 28 28 (12845056)
I1029 20:59:20.786824 27430 net.cpp:144] Memory required for data: 3073947648
I1029 20:59:20.786833 27430 net.cpp:453] Found INQ layer:fire5/expand3x3, type: INQConvolution, layer id:34
I1029 20:59:20.786840 27430 net.cpp:453] Found INQ layer:fire5/expand3x3, type: INQConvolution, layer id:34
I1029 20:59:20.786849 27430 net.cpp:453] Found INQ layer:fire5/expand3x3, type: INQConvolution, layer id:34
I1029 20:59:20.786854 27430 net.cpp:453] Found INQ layer:fire5/expand3x3, type: INQConvolution, layer id:34
I1029 20:59:20.786860 27430 layer_factory.hpp:77] Creating layer fire5/relu_expand3x3
I1029 20:59:20.786870 27430 net.cpp:84] Creating Layer fire5/relu_expand3x3
I1029 20:59:20.786876 27430 net.cpp:413] fire5/relu_expand3x3 <- fire5/expand3x3
I1029 20:59:20.786885 27430 net.cpp:374] fire5/relu_expand3x3 -> fire5/expand3x3 (in-place)
I1029 20:59:20.788743 27430 net.cpp:127] Setting up fire5/relu_expand3x3
I1029 20:59:20.788763 27430 net.cpp:136] Top shape: 128 128 28 28 (12845056)
I1029 20:59:20.788774 27430 net.cpp:144] Memory required for data: 3125327872
I1029 20:59:20.788797 27430 layer_factory.hpp:77] Creating layer fire5/concat
I1029 20:59:20.788810 27430 net.cpp:84] Creating Layer fire5/concat
I1029 20:59:20.788816 27430 net.cpp:413] fire5/concat <- fire5/expand1x1
I1029 20:59:20.788825 27430 net.cpp:413] fire5/concat <- fire5/expand3x3
I1029 20:59:20.788833 27430 net.cpp:387] fire5/concat -> fire5/concat
I1029 20:59:20.788880 27430 net.cpp:127] Setting up fire5/concat
I1029 20:59:20.788890 27430 net.cpp:136] Top shape: 128 256 28 28 (25690112)
I1029 20:59:20.788897 27430 net.cpp:144] Memory required for data: 3228088320
I1029 20:59:20.788902 27430 layer_factory.hpp:77] Creating layer pool5
I1029 20:59:20.788913 27430 net.cpp:84] Creating Layer pool5
I1029 20:59:20.788926 27430 net.cpp:413] pool5 <- fire5/concat
I1029 20:59:20.788934 27430 net.cpp:387] pool5 -> pool5
I1029 20:59:20.788992 27430 net.cpp:127] Setting up pool5
I1029 20:59:20.789002 27430 net.cpp:136] Top shape: 128 256 14 14 (6422528)
I1029 20:59:20.789007 27430 net.cpp:144] Memory required for data: 3253778432
I1029 20:59:20.789013 27430 layer_factory.hpp:77] Creating layer fire6/squeeze1x1
I1029 20:59:20.789026 27430 net.cpp:84] Creating Layer fire6/squeeze1x1
I1029 20:59:20.789032 27430 net.cpp:413] fire6/squeeze1x1 <- pool5
I1029 20:59:20.789041 27430 net.cpp:387] fire6/squeeze1x1 -> fire6/squeeze1x1
I1029 20:59:20.789604 27430 net.cpp:127] Setting up fire6/squeeze1x1
I1029 20:59:20.789618 27430 net.cpp:136] Top shape: 128 48 14 14 (1204224)
I1029 20:59:20.789623 27430 net.cpp:144] Memory required for data: 3258595328
I1029 20:59:20.789633 27430 net.cpp:453] Found INQ layer:fire6/squeeze1x1, type: INQConvolution, layer id:38
I1029 20:59:20.789641 27430 net.cpp:453] Found INQ layer:fire6/squeeze1x1, type: INQConvolution, layer id:38
I1029 20:59:20.789649 27430 net.cpp:453] Found INQ layer:fire6/squeeze1x1, type: INQConvolution, layer id:38
I1029 20:59:20.789655 27430 net.cpp:453] Found INQ layer:fire6/squeeze1x1, type: INQConvolution, layer id:38
I1029 20:59:20.789661 27430 layer_factory.hpp:77] Creating layer fire6/relu_squeeze1x1
I1029 20:59:20.789670 27430 net.cpp:84] Creating Layer fire6/relu_squeeze1x1
I1029 20:59:20.789677 27430 net.cpp:413] fire6/relu_squeeze1x1 <- fire6/squeeze1x1
I1029 20:59:20.789685 27430 net.cpp:374] fire6/relu_squeeze1x1 -> fire6/squeeze1x1 (in-place)
I1029 20:59:20.789950 27430 net.cpp:127] Setting up fire6/relu_squeeze1x1
I1029 20:59:20.789963 27430 net.cpp:136] Top shape: 128 48 14 14 (1204224)
I1029 20:59:20.789968 27430 net.cpp:144] Memory required for data: 3263412224
I1029 20:59:20.789974 27430 layer_factory.hpp:77] Creating layer fire6/squeeze1x1_fire6/relu_squeeze1x1_0_split
I1029 20:59:20.789984 27430 net.cpp:84] Creating Layer fire6/squeeze1x1_fire6/relu_squeeze1x1_0_split
I1029 20:59:20.789990 27430 net.cpp:413] fire6/squeeze1x1_fire6/relu_squeeze1x1_0_split <- fire6/squeeze1x1
I1029 20:59:20.789999 27430 net.cpp:387] fire6/squeeze1x1_fire6/relu_squeeze1x1_0_split -> fire6/squeeze1x1_fire6/relu_squeeze1x1_0_split_0
I1029 20:59:20.790010 27430 net.cpp:387] fire6/squeeze1x1_fire6/relu_squeeze1x1_0_split -> fire6/squeeze1x1_fire6/relu_squeeze1x1_0_split_1
I1029 20:59:20.790079 27430 net.cpp:127] Setting up fire6/squeeze1x1_fire6/relu_squeeze1x1_0_split
I1029 20:59:20.790089 27430 net.cpp:136] Top shape: 128 48 14 14 (1204224)
I1029 20:59:20.790098 27430 net.cpp:136] Top shape: 128 48 14 14 (1204224)
I1029 20:59:20.790103 27430 net.cpp:144] Memory required for data: 3273046016
I1029 20:59:20.790108 27430 layer_factory.hpp:77] Creating layer fire6/expand1x1
I1029 20:59:20.790120 27430 net.cpp:84] Creating Layer fire6/expand1x1
I1029 20:59:20.790127 27430 net.cpp:413] fire6/expand1x1 <- fire6/squeeze1x1_fire6/relu_squeeze1x1_0_split_0
I1029 20:59:20.790136 27430 net.cpp:387] fire6/expand1x1 -> fire6/expand1x1
I1029 20:59:20.790645 27430 net.cpp:127] Setting up fire6/expand1x1
I1029 20:59:20.790658 27430 net.cpp:136] Top shape: 128 192 14 14 (4816896)
I1029 20:59:20.790669 27430 net.cpp:144] Memory required for data: 3292313600
I1029 20:59:20.790693 27430 net.cpp:453] Found INQ layer:fire6/expand1x1, type: INQConvolution, layer id:41
I1029 20:59:20.790701 27430 net.cpp:453] Found INQ layer:fire6/expand1x1, type: INQConvolution, layer id:41
I1029 20:59:20.790709 27430 net.cpp:453] Found INQ layer:fire6/expand1x1, type: INQConvolution, layer id:41
I1029 20:59:20.790716 27430 net.cpp:453] Found INQ layer:fire6/expand1x1, type: INQConvolution, layer id:41
I1029 20:59:20.790721 27430 layer_factory.hpp:77] Creating layer fire6/relu_expand1x1
I1029 20:59:20.790730 27430 net.cpp:84] Creating Layer fire6/relu_expand1x1
I1029 20:59:20.790737 27430 net.cpp:413] fire6/relu_expand1x1 <- fire6/expand1x1
I1029 20:59:20.790745 27430 net.cpp:374] fire6/relu_expand1x1 -> fire6/expand1x1 (in-place)
I1029 20:59:20.791013 27430 net.cpp:127] Setting up fire6/relu_expand1x1
I1029 20:59:20.791026 27430 net.cpp:136] Top shape: 128 192 14 14 (4816896)
I1029 20:59:20.791033 27430 net.cpp:144] Memory required for data: 3311581184
I1029 20:59:20.791038 27430 layer_factory.hpp:77] Creating layer fire6/expand3x3
I1029 20:59:20.791051 27430 net.cpp:84] Creating Layer fire6/expand3x3
I1029 20:59:20.791059 27430 net.cpp:413] fire6/expand3x3 <- fire6/squeeze1x1_fire6/relu_squeeze1x1_0_split_1
I1029 20:59:20.791069 27430 net.cpp:387] fire6/expand3x3 -> fire6/expand3x3
I1029 20:59:20.793987 27430 net.cpp:127] Setting up fire6/expand3x3
I1029 20:59:20.794006 27430 net.cpp:136] Top shape: 128 192 14 14 (4816896)
I1029 20:59:20.794013 27430 net.cpp:144] Memory required for data: 3330848768
I1029 20:59:20.794021 27430 net.cpp:453] Found INQ layer:fire6/expand3x3, type: INQConvolution, layer id:43
I1029 20:59:20.794029 27430 net.cpp:453] Found INQ layer:fire6/expand3x3, type: INQConvolution, layer id:43
I1029 20:59:20.794036 27430 net.cpp:453] Found INQ layer:fire6/expand3x3, type: INQConvolution, layer id:43
I1029 20:59:20.794044 27430 net.cpp:453] Found INQ layer:fire6/expand3x3, type: INQConvolution, layer id:43
I1029 20:59:20.794049 27430 layer_factory.hpp:77] Creating layer fire6/relu_expand3x3
I1029 20:59:20.794059 27430 net.cpp:84] Creating Layer fire6/relu_expand3x3
I1029 20:59:20.794064 27430 net.cpp:413] fire6/relu_expand3x3 <- fire6/expand3x3
I1029 20:59:20.794073 27430 net.cpp:374] fire6/relu_expand3x3 -> fire6/expand3x3 (in-place)
I1029 20:59:20.794343 27430 net.cpp:127] Setting up fire6/relu_expand3x3
I1029 20:59:20.794358 27430 net.cpp:136] Top shape: 128 192 14 14 (4816896)
I1029 20:59:20.794363 27430 net.cpp:144] Memory required for data: 3350116352
I1029 20:59:20.794368 27430 layer_factory.hpp:77] Creating layer fire6/concat
I1029 20:59:20.794378 27430 net.cpp:84] Creating Layer fire6/concat
I1029 20:59:20.794385 27430 net.cpp:413] fire6/concat <- fire6/expand1x1
I1029 20:59:20.794392 27430 net.cpp:413] fire6/concat <- fire6/expand3x3
I1029 20:59:20.794400 27430 net.cpp:387] fire6/concat -> fire6/concat
I1029 20:59:20.794441 27430 net.cpp:127] Setting up fire6/concat
I1029 20:59:20.794450 27430 net.cpp:136] Top shape: 128 384 14 14 (9633792)
I1029 20:59:20.794456 27430 net.cpp:144] Memory required for data: 3388651520
I1029 20:59:20.794461 27430 layer_factory.hpp:77] Creating layer fire7/squeeze1x1
I1029 20:59:20.794472 27430 net.cpp:84] Creating Layer fire7/squeeze1x1
I1029 20:59:20.794478 27430 net.cpp:413] fire7/squeeze1x1 <- fire6/concat
I1029 20:59:20.794486 27430 net.cpp:387] fire7/squeeze1x1 -> fire7/squeeze1x1
I1029 20:59:20.795071 27430 net.cpp:127] Setting up fire7/squeeze1x1
I1029 20:59:20.795084 27430 net.cpp:136] Top shape: 128 48 14 14 (1204224)
I1029 20:59:20.795089 27430 net.cpp:144] Memory required for data: 3393468416
I1029 20:59:20.795104 27430 net.cpp:453] Found INQ layer:fire7/squeeze1x1, type: INQConvolution, layer id:46
I1029 20:59:20.795116 27430 net.cpp:453] Found INQ layer:fire7/squeeze1x1, type: INQConvolution, layer id:46
I1029 20:59:20.795123 27430 net.cpp:453] Found INQ layer:fire7/squeeze1x1, type: INQConvolution, layer id:46
I1029 20:59:20.795130 27430 net.cpp:453] Found INQ layer:fire7/squeeze1x1, type: INQConvolution, layer id:46
I1029 20:59:20.795141 27430 layer_factory.hpp:77] Creating layer fire7/relu_squeeze1x1
I1029 20:59:20.795171 27430 net.cpp:84] Creating Layer fire7/relu_squeeze1x1
I1029 20:59:20.795178 27430 net.cpp:413] fire7/relu_squeeze1x1 <- fire7/squeeze1x1
I1029 20:59:20.795186 27430 net.cpp:374] fire7/relu_squeeze1x1 -> fire7/squeeze1x1 (in-place)
I1029 20:59:20.796924 27430 net.cpp:127] Setting up fire7/relu_squeeze1x1
I1029 20:59:20.796943 27430 net.cpp:136] Top shape: 128 48 14 14 (1204224)
I1029 20:59:20.796950 27430 net.cpp:144] Memory required for data: 3398285312
I1029 20:59:20.796957 27430 layer_factory.hpp:77] Creating layer fire7/squeeze1x1_fire7/relu_squeeze1x1_0_split
I1029 20:59:20.796967 27430 net.cpp:84] Creating Layer fire7/squeeze1x1_fire7/relu_squeeze1x1_0_split
I1029 20:59:20.796973 27430 net.cpp:413] fire7/squeeze1x1_fire7/relu_squeeze1x1_0_split <- fire7/squeeze1x1
I1029 20:59:20.796983 27430 net.cpp:387] fire7/squeeze1x1_fire7/relu_squeeze1x1_0_split -> fire7/squeeze1x1_fire7/relu_squeeze1x1_0_split_0
I1029 20:59:20.796994 27430 net.cpp:387] fire7/squeeze1x1_fire7/relu_squeeze1x1_0_split -> fire7/squeeze1x1_fire7/relu_squeeze1x1_0_split_1
I1029 20:59:20.797056 27430 net.cpp:127] Setting up fire7/squeeze1x1_fire7/relu_squeeze1x1_0_split
I1029 20:59:20.797066 27430 net.cpp:136] Top shape: 128 48 14 14 (1204224)
I1029 20:59:20.797073 27430 net.cpp:136] Top shape: 128 48 14 14 (1204224)
I1029 20:59:20.797078 27430 net.cpp:144] Memory required for data: 3407919104
I1029 20:59:20.797085 27430 layer_factory.hpp:77] Creating layer fire7/expand1x1
I1029 20:59:20.797096 27430 net.cpp:84] Creating Layer fire7/expand1x1
I1029 20:59:20.797102 27430 net.cpp:413] fire7/expand1x1 <- fire7/squeeze1x1_fire7/relu_squeeze1x1_0_split_0
I1029 20:59:20.797111 27430 net.cpp:387] fire7/expand1x1 -> fire7/expand1x1
I1029 20:59:20.797595 27430 net.cpp:127] Setting up fire7/expand1x1
I1029 20:59:20.797607 27430 net.cpp:136] Top shape: 128 192 14 14 (4816896)
I1029 20:59:20.797612 27430 net.cpp:144] Memory required for data: 3427186688
I1029 20:59:20.797621 27430 net.cpp:453] Found INQ layer:fire7/expand1x1, type: INQConvolution, layer id:49
I1029 20:59:20.797629 27430 net.cpp:453] Found INQ layer:fire7/expand1x1, type: INQConvolution, layer id:49
I1029 20:59:20.797636 27430 net.cpp:453] Found INQ layer:fire7/expand1x1, type: INQConvolution, layer id:49
I1029 20:59:20.797642 27430 net.cpp:453] Found INQ layer:fire7/expand1x1, type: INQConvolution, layer id:49
I1029 20:59:20.797648 27430 layer_factory.hpp:77] Creating layer fire7/relu_expand1x1
I1029 20:59:20.797657 27430 net.cpp:84] Creating Layer fire7/relu_expand1x1
I1029 20:59:20.797662 27430 net.cpp:413] fire7/relu_expand1x1 <- fire7/expand1x1
I1029 20:59:20.797670 27430 net.cpp:374] fire7/relu_expand1x1 -> fire7/expand1x1 (in-place)
I1029 20:59:20.797912 27430 net.cpp:127] Setting up fire7/relu_expand1x1
I1029 20:59:20.797932 27430 net.cpp:136] Top shape: 128 192 14 14 (4816896)
I1029 20:59:20.797937 27430 net.cpp:144] Memory required for data: 3446454272
I1029 20:59:20.797943 27430 layer_factory.hpp:77] Creating layer fire7/expand3x3
I1029 20:59:20.797955 27430 net.cpp:84] Creating Layer fire7/expand3x3
I1029 20:59:20.797962 27430 net.cpp:413] fire7/expand3x3 <- fire7/squeeze1x1_fire7/relu_squeeze1x1_0_split_1
I1029 20:59:20.797971 27430 net.cpp:387] fire7/expand3x3 -> fire7/expand3x3
I1029 20:59:20.799216 27430 net.cpp:127] Setting up fire7/expand3x3
I1029 20:59:20.799229 27430 net.cpp:136] Top shape: 128 192 14 14 (4816896)
I1029 20:59:20.799235 27430 net.cpp:144] Memory required for data: 3465721856
I1029 20:59:20.799244 27430 net.cpp:453] Found INQ layer:fire7/expand3x3, type: INQConvolution, layer id:51
I1029 20:59:20.799253 27430 net.cpp:453] Found INQ layer:fire7/expand3x3, type: INQConvolution, layer id:51
I1029 20:59:20.799259 27430 net.cpp:453] Found INQ layer:fire7/expand3x3, type: INQConvolution, layer id:51
I1029 20:59:20.799266 27430 net.cpp:453] Found INQ layer:fire7/expand3x3, type: INQConvolution, layer id:51
I1029 20:59:20.799278 27430 layer_factory.hpp:77] Creating layer fire7/relu_expand3x3
I1029 20:59:20.799302 27430 net.cpp:84] Creating Layer fire7/relu_expand3x3
I1029 20:59:20.799309 27430 net.cpp:413] fire7/relu_expand3x3 <- fire7/expand3x3
I1029 20:59:20.799317 27430 net.cpp:374] fire7/relu_expand3x3 -> fire7/expand3x3 (in-place)
I1029 20:59:20.799559 27430 net.cpp:127] Setting up fire7/relu_expand3x3
I1029 20:59:20.799572 27430 net.cpp:136] Top shape: 128 192 14 14 (4816896)
I1029 20:59:20.799578 27430 net.cpp:144] Memory required for data: 3484989440
I1029 20:59:20.799583 27430 layer_factory.hpp:77] Creating layer fire7/concat
I1029 20:59:20.799593 27430 net.cpp:84] Creating Layer fire7/concat
I1029 20:59:20.799598 27430 net.cpp:413] fire7/concat <- fire7/expand1x1
I1029 20:59:20.799605 27430 net.cpp:413] fire7/concat <- fire7/expand3x3
I1029 20:59:20.799613 27430 net.cpp:387] fire7/concat -> fire7/concat
I1029 20:59:20.799652 27430 net.cpp:127] Setting up fire7/concat
I1029 20:59:20.799662 27430 net.cpp:136] Top shape: 128 384 14 14 (9633792)
I1029 20:59:20.799667 27430 net.cpp:144] Memory required for data: 3523524608
I1029 20:59:20.799672 27430 layer_factory.hpp:77] Creating layer fire8/squeeze1x1
I1029 20:59:20.799685 27430 net.cpp:84] Creating Layer fire8/squeeze1x1
I1029 20:59:20.799690 27430 net.cpp:413] fire8/squeeze1x1 <- fire7/concat
I1029 20:59:20.799698 27430 net.cpp:387] fire8/squeeze1x1 -> fire8/squeeze1x1
I1029 20:59:20.800338 27430 net.cpp:127] Setting up fire8/squeeze1x1
I1029 20:59:20.800350 27430 net.cpp:136] Top shape: 128 64 14 14 (1605632)
I1029 20:59:20.800356 27430 net.cpp:144] Memory required for data: 3529947136
I1029 20:59:20.800364 27430 net.cpp:453] Found INQ layer:fire8/squeeze1x1, type: INQConvolution, layer id:54
I1029 20:59:20.800372 27430 net.cpp:453] Found INQ layer:fire8/squeeze1x1, type: INQConvolution, layer id:54
I1029 20:59:20.800379 27430 net.cpp:453] Found INQ layer:fire8/squeeze1x1, type: INQConvolution, layer id:54
I1029 20:59:20.800385 27430 net.cpp:453] Found INQ layer:fire8/squeeze1x1, type: INQConvolution, layer id:54
I1029 20:59:20.800390 27430 layer_factory.hpp:77] Creating layer fire8/relu_squeeze1x1
I1029 20:59:20.800400 27430 net.cpp:84] Creating Layer fire8/relu_squeeze1x1
I1029 20:59:20.800405 27430 net.cpp:413] fire8/relu_squeeze1x1 <- fire8/squeeze1x1
I1029 20:59:20.800412 27430 net.cpp:374] fire8/relu_squeeze1x1 -> fire8/squeeze1x1 (in-place)
I1029 20:59:20.802007 27430 net.cpp:127] Setting up fire8/relu_squeeze1x1
I1029 20:59:20.802026 27430 net.cpp:136] Top shape: 128 64 14 14 (1605632)
I1029 20:59:20.802033 27430 net.cpp:144] Memory required for data: 3536369664
I1029 20:59:20.802039 27430 layer_factory.hpp:77] Creating layer fire8/squeeze1x1_fire8/relu_squeeze1x1_0_split
I1029 20:59:20.802049 27430 net.cpp:84] Creating Layer fire8/squeeze1x1_fire8/relu_squeeze1x1_0_split
I1029 20:59:20.802055 27430 net.cpp:413] fire8/squeeze1x1_fire8/relu_squeeze1x1_0_split <- fire8/squeeze1x1
I1029 20:59:20.802064 27430 net.cpp:387] fire8/squeeze1x1_fire8/relu_squeeze1x1_0_split -> fire8/squeeze1x1_fire8/relu_squeeze1x1_0_split_0
I1029 20:59:20.802075 27430 net.cpp:387] fire8/squeeze1x1_fire8/relu_squeeze1x1_0_split -> fire8/squeeze1x1_fire8/relu_squeeze1x1_0_split_1
I1029 20:59:20.802146 27430 net.cpp:127] Setting up fire8/squeeze1x1_fire8/relu_squeeze1x1_0_split
I1029 20:59:20.802155 27430 net.cpp:136] Top shape: 128 64 14 14 (1605632)
I1029 20:59:20.802162 27430 net.cpp:136] Top shape: 128 64 14 14 (1605632)
I1029 20:59:20.802166 27430 net.cpp:144] Memory required for data: 3549214720
I1029 20:59:20.802171 27430 layer_factory.hpp:77] Creating layer fire8/expand1x1
I1029 20:59:20.802183 27430 net.cpp:84] Creating Layer fire8/expand1x1
I1029 20:59:20.802189 27430 net.cpp:413] fire8/expand1x1 <- fire8/squeeze1x1_fire8/relu_squeeze1x1_0_split_0
I1029 20:59:20.802197 27430 net.cpp:387] fire8/expand1x1 -> fire8/expand1x1
I1029 20:59:20.802719 27430 net.cpp:127] Setting up fire8/expand1x1
I1029 20:59:20.802731 27430 net.cpp:136] Top shape: 128 256 14 14 (6422528)
I1029 20:59:20.802742 27430 net.cpp:144] Memory required for data: 3574904832
I1029 20:59:20.802764 27430 net.cpp:453] Found INQ layer:fire8/expand1x1, type: INQConvolution, layer id:57
I1029 20:59:20.802773 27430 net.cpp:453] Found INQ layer:fire8/expand1x1, type: INQConvolution, layer id:57
I1029 20:59:20.802779 27430 net.cpp:453] Found INQ layer:fire8/expand1x1, type: INQConvolution, layer id:57
I1029 20:59:20.802785 27430 net.cpp:453] Found INQ layer:fire8/expand1x1, type: INQConvolution, layer id:57
I1029 20:59:20.802791 27430 layer_factory.hpp:77] Creating layer fire8/relu_expand1x1
I1029 20:59:20.802799 27430 net.cpp:84] Creating Layer fire8/relu_expand1x1
I1029 20:59:20.802805 27430 net.cpp:413] fire8/relu_expand1x1 <- fire8/expand1x1
I1029 20:59:20.802814 27430 net.cpp:374] fire8/relu_expand1x1 -> fire8/expand1x1 (in-place)
I1029 20:59:20.803050 27430 net.cpp:127] Setting up fire8/relu_expand1x1
I1029 20:59:20.803062 27430 net.cpp:136] Top shape: 128 256 14 14 (6422528)
I1029 20:59:20.803067 27430 net.cpp:144] Memory required for data: 3600594944
I1029 20:59:20.803072 27430 layer_factory.hpp:77] Creating layer fire8/expand3x3
I1029 20:59:20.803084 27430 net.cpp:84] Creating Layer fire8/expand3x3
I1029 20:59:20.803091 27430 net.cpp:413] fire8/expand3x3 <- fire8/squeeze1x1_fire8/relu_squeeze1x1_0_split_1
I1029 20:59:20.803099 27430 net.cpp:387] fire8/expand3x3 -> fire8/expand3x3
I1029 20:59:20.806391 27430 net.cpp:127] Setting up fire8/expand3x3
I1029 20:59:20.806411 27430 net.cpp:136] Top shape: 128 256 14 14 (6422528)
I1029 20:59:20.806416 27430 net.cpp:144] Memory required for data: 3626285056
I1029 20:59:20.806424 27430 net.cpp:453] Found INQ layer:fire8/expand3x3, type: INQConvolution, layer id:59
I1029 20:59:20.806432 27430 net.cpp:453] Found INQ layer:fire8/expand3x3, type: INQConvolution, layer id:59
I1029 20:59:20.806439 27430 net.cpp:453] Found INQ layer:fire8/expand3x3, type: INQConvolution, layer id:59
I1029 20:59:20.806445 27430 net.cpp:453] Found INQ layer:fire8/expand3x3, type: INQConvolution, layer id:59
I1029 20:59:20.806450 27430 layer_factory.hpp:77] Creating layer fire8/relu_expand3x3
I1029 20:59:20.806459 27430 net.cpp:84] Creating Layer fire8/relu_expand3x3
I1029 20:59:20.806465 27430 net.cpp:413] fire8/relu_expand3x3 <- fire8/expand3x3
I1029 20:59:20.806473 27430 net.cpp:374] fire8/relu_expand3x3 -> fire8/expand3x3 (in-place)
I1029 20:59:20.806715 27430 net.cpp:127] Setting up fire8/relu_expand3x3
I1029 20:59:20.806727 27430 net.cpp:136] Top shape: 128 256 14 14 (6422528)
I1029 20:59:20.806732 27430 net.cpp:144] Memory required for data: 3651975168
I1029 20:59:20.806738 27430 layer_factory.hpp:77] Creating layer fire8/concat
I1029 20:59:20.806747 27430 net.cpp:84] Creating Layer fire8/concat
I1029 20:59:20.806752 27430 net.cpp:413] fire8/concat <- fire8/expand1x1
I1029 20:59:20.806759 27430 net.cpp:413] fire8/concat <- fire8/expand3x3
I1029 20:59:20.806766 27430 net.cpp:387] fire8/concat -> fire8/concat
I1029 20:59:20.806805 27430 net.cpp:127] Setting up fire8/concat
I1029 20:59:20.806814 27430 net.cpp:136] Top shape: 128 512 14 14 (12845056)
I1029 20:59:20.806819 27430 net.cpp:144] Memory required for data: 3703355392
I1029 20:59:20.806824 27430 layer_factory.hpp:77] Creating layer fire9/squeeze1x1
I1029 20:59:20.806836 27430 net.cpp:84] Creating Layer fire9/squeeze1x1
I1029 20:59:20.806841 27430 net.cpp:413] fire9/squeeze1x1 <- fire8/concat
I1029 20:59:20.806850 27430 net.cpp:387] fire9/squeeze1x1 -> fire9/squeeze1x1
I1029 20:59:20.807539 27430 net.cpp:127] Setting up fire9/squeeze1x1
I1029 20:59:20.807552 27430 net.cpp:136] Top shape: 128 64 14 14 (1605632)
I1029 20:59:20.807557 27430 net.cpp:144] Memory required for data: 3709777920
I1029 20:59:20.807565 27430 net.cpp:453] Found INQ layer:fire9/squeeze1x1, type: INQConvolution, layer id:62
I1029 20:59:20.807572 27430 net.cpp:453] Found INQ layer:fire9/squeeze1x1, type: INQConvolution, layer id:62
I1029 20:59:20.807579 27430 net.cpp:453] Found INQ layer:fire9/squeeze1x1, type: INQConvolution, layer id:62
I1029 20:59:20.807585 27430 net.cpp:453] Found INQ layer:fire9/squeeze1x1, type: INQConvolution, layer id:62
I1029 20:59:20.807613 27430 layer_factory.hpp:77] Creating layer fire9/relu_squeeze1x1
I1029 20:59:20.807623 27430 net.cpp:84] Creating Layer fire9/relu_squeeze1x1
I1029 20:59:20.807629 27430 net.cpp:413] fire9/relu_squeeze1x1 <- fire9/squeeze1x1
I1029 20:59:20.807636 27430 net.cpp:374] fire9/relu_squeeze1x1 -> fire9/squeeze1x1 (in-place)
I1029 20:59:20.807873 27430 net.cpp:127] Setting up fire9/relu_squeeze1x1
I1029 20:59:20.807885 27430 net.cpp:136] Top shape: 128 64 14 14 (1605632)
I1029 20:59:20.807890 27430 net.cpp:144] Memory required for data: 3716200448
I1029 20:59:20.807895 27430 layer_factory.hpp:77] Creating layer fire9/squeeze1x1_fire9/relu_squeeze1x1_0_split
I1029 20:59:20.807910 27430 net.cpp:84] Creating Layer fire9/squeeze1x1_fire9/relu_squeeze1x1_0_split
I1029 20:59:20.807916 27430 net.cpp:413] fire9/squeeze1x1_fire9/relu_squeeze1x1_0_split <- fire9/squeeze1x1
I1029 20:59:20.807931 27430 net.cpp:387] fire9/squeeze1x1_fire9/relu_squeeze1x1_0_split -> fire9/squeeze1x1_fire9/relu_squeeze1x1_0_split_0
I1029 20:59:20.807941 27430 net.cpp:387] fire9/squeeze1x1_fire9/relu_squeeze1x1_0_split -> fire9/squeeze1x1_fire9/relu_squeeze1x1_0_split_1
I1029 20:59:20.807997 27430 net.cpp:127] Setting up fire9/squeeze1x1_fire9/relu_squeeze1x1_0_split
I1029 20:59:20.808007 27430 net.cpp:136] Top shape: 128 64 14 14 (1605632)
I1029 20:59:20.808012 27430 net.cpp:136] Top shape: 128 64 14 14 (1605632)
I1029 20:59:20.808017 27430 net.cpp:144] Memory required for data: 3729045504
I1029 20:59:20.808023 27430 layer_factory.hpp:77] Creating layer fire9/expand1x1
I1029 20:59:20.808034 27430 net.cpp:84] Creating Layer fire9/expand1x1
I1029 20:59:20.808039 27430 net.cpp:413] fire9/expand1x1 <- fire9/squeeze1x1_fire9/relu_squeeze1x1_0_split_0
I1029 20:59:20.808048 27430 net.cpp:387] fire9/expand1x1 -> fire9/expand1x1
I1029 20:59:20.808570 27430 net.cpp:127] Setting up fire9/expand1x1
I1029 20:59:20.808583 27430 net.cpp:136] Top shape: 128 256 14 14 (6422528)
I1029 20:59:20.808588 27430 net.cpp:144] Memory required for data: 3754735616
I1029 20:59:20.808594 27430 net.cpp:453] Found INQ layer:fire9/expand1x1, type: INQConvolution, layer id:65
I1029 20:59:20.808603 27430 net.cpp:453] Found INQ layer:fire9/expand1x1, type: INQConvolution, layer id:65
I1029 20:59:20.808609 27430 net.cpp:453] Found INQ layer:fire9/expand1x1, type: INQConvolution, layer id:65
I1029 20:59:20.808615 27430 net.cpp:453] Found INQ layer:fire9/expand1x1, type: INQConvolution, layer id:65
I1029 20:59:20.808620 27430 layer_factory.hpp:77] Creating layer fire9/relu_expand1x1
I1029 20:59:20.808629 27430 net.cpp:84] Creating Layer fire9/relu_expand1x1
I1029 20:59:20.808634 27430 net.cpp:413] fire9/relu_expand1x1 <- fire9/expand1x1
I1029 20:59:20.808641 27430 net.cpp:374] fire9/relu_expand1x1 -> fire9/expand1x1 (in-place)
I1029 20:59:20.810309 27430 net.cpp:127] Setting up fire9/relu_expand1x1
I1029 20:59:20.810329 27430 net.cpp:136] Top shape: 128 256 14 14 (6422528)
I1029 20:59:20.810334 27430 net.cpp:144] Memory required for data: 3780425728
I1029 20:59:20.810340 27430 layer_factory.hpp:77] Creating layer fire9/expand3x3
I1029 20:59:20.810353 27430 net.cpp:84] Creating Layer fire9/expand3x3
I1029 20:59:20.810359 27430 net.cpp:413] fire9/expand3x3 <- fire9/squeeze1x1_fire9/relu_squeeze1x1_0_split_1
I1029 20:59:20.810369 27430 net.cpp:387] fire9/expand3x3 -> fire9/expand3x3
I1029 20:59:20.812183 27430 net.cpp:127] Setting up fire9/expand3x3
I1029 20:59:20.812197 27430 net.cpp:136] Top shape: 128 256 14 14 (6422528)
I1029 20:59:20.812202 27430 net.cpp:144] Memory required for data: 3806115840
I1029 20:59:20.812209 27430 net.cpp:453] Found INQ layer:fire9/expand3x3, type: INQConvolution, layer id:67
I1029 20:59:20.812217 27430 net.cpp:453] Found INQ layer:fire9/expand3x3, type: INQConvolution, layer id:67
I1029 20:59:20.812224 27430 net.cpp:453] Found INQ layer:fire9/expand3x3, type: INQConvolution, layer id:67
I1029 20:59:20.812230 27430 net.cpp:453] Found INQ layer:fire9/expand3x3, type: INQConvolution, layer id:67
I1029 20:59:20.812240 27430 layer_factory.hpp:77] Creating layer fire9/relu_expand3x3
I1029 20:59:20.812263 27430 net.cpp:84] Creating Layer fire9/relu_expand3x3
I1029 20:59:20.812270 27430 net.cpp:413] fire9/relu_expand3x3 <- fire9/expand3x3
I1029 20:59:20.812278 27430 net.cpp:374] fire9/relu_expand3x3 -> fire9/expand3x3 (in-place)
I1029 20:59:20.812530 27430 net.cpp:127] Setting up fire9/relu_expand3x3
I1029 20:59:20.812541 27430 net.cpp:136] Top shape: 128 256 14 14 (6422528)
I1029 20:59:20.812546 27430 net.cpp:144] Memory required for data: 3831805952
I1029 20:59:20.812551 27430 layer_factory.hpp:77] Creating layer fire9/concat
I1029 20:59:20.812559 27430 net.cpp:84] Creating Layer fire9/concat
I1029 20:59:20.812566 27430 net.cpp:413] fire9/concat <- fire9/expand1x1
I1029 20:59:20.812572 27430 net.cpp:413] fire9/concat <- fire9/expand3x3
I1029 20:59:20.812578 27430 net.cpp:387] fire9/concat -> fire9/concat
I1029 20:59:20.812614 27430 net.cpp:127] Setting up fire9/concat
I1029 20:59:20.812623 27430 net.cpp:136] Top shape: 128 512 14 14 (12845056)
I1029 20:59:20.812628 27430 net.cpp:144] Memory required for data: 3883186176
I1029 20:59:20.812633 27430 layer_factory.hpp:77] Creating layer drop9
I1029 20:59:20.812645 27430 net.cpp:84] Creating Layer drop9
I1029 20:59:20.812650 27430 net.cpp:413] drop9 <- fire9/concat
I1029 20:59:20.812657 27430 net.cpp:374] drop9 -> fire9/concat (in-place)
I1029 20:59:20.812695 27430 net.cpp:127] Setting up drop9
I1029 20:59:20.812703 27430 net.cpp:136] Top shape: 128 512 14 14 (12845056)
I1029 20:59:20.812707 27430 net.cpp:144] Memory required for data: 3934566400
I1029 20:59:20.812712 27430 layer_factory.hpp:77] Creating layer conv10
I1029 20:59:20.812722 27430 net.cpp:84] Creating Layer conv10
I1029 20:59:20.812727 27430 net.cpp:413] conv10 <- fire9/concat
I1029 20:59:20.812736 27430 net.cpp:387] conv10 -> conv10
I1029 20:59:20.826284 27430 net.cpp:127] Setting up conv10
I1029 20:59:20.826303 27430 net.cpp:136] Top shape: 128 1000 14 14 (25088000)
I1029 20:59:20.826308 27430 net.cpp:144] Memory required for data: 4034918400
I1029 20:59:20.826315 27430 net.cpp:453] Found INQ layer:conv10, type: INQConvolution, layer id:71
I1029 20:59:20.826323 27430 net.cpp:453] Found INQ layer:conv10, type: INQConvolution, layer id:71
I1029 20:59:20.826329 27430 net.cpp:453] Found INQ layer:conv10, type: INQConvolution, layer id:71
I1029 20:59:20.826334 27430 net.cpp:453] Found INQ layer:conv10, type: INQConvolution, layer id:71
I1029 20:59:20.826339 27430 layer_factory.hpp:77] Creating layer relu_conv10
I1029 20:59:20.826347 27430 net.cpp:84] Creating Layer relu_conv10
I1029 20:59:20.826354 27430 net.cpp:413] relu_conv10 <- conv10
I1029 20:59:20.826360 27430 net.cpp:374] relu_conv10 -> conv10 (in-place)
I1029 20:59:20.826591 27430 net.cpp:127] Setting up relu_conv10
I1029 20:59:20.826603 27430 net.cpp:136] Top shape: 128 1000 14 14 (25088000)
I1029 20:59:20.826608 27430 net.cpp:144] Memory required for data: 4135270400
I1029 20:59:20.826613 27430 layer_factory.hpp:77] Creating layer pool10
I1029 20:59:20.826622 27430 net.cpp:84] Creating Layer pool10
I1029 20:59:20.826627 27430 net.cpp:413] pool10 <- conv10
I1029 20:59:20.826634 27430 net.cpp:387] pool10 -> pool10
I1029 20:59:20.826882 27430 net.cpp:127] Setting up pool10
I1029 20:59:20.826894 27430 net.cpp:136] Top shape: 128 1000 1 1 (128000)
I1029 20:59:20.826898 27430 net.cpp:144] Memory required for data: 4135782400
I1029 20:59:20.826903 27430 layer_factory.hpp:77] Creating layer loss
I1029 20:59:20.826913 27430 net.cpp:84] Creating Layer loss
I1029 20:59:20.826925 27430 net.cpp:413] loss <- pool10
I1029 20:59:20.826932 27430 net.cpp:413] loss <- label
I1029 20:59:20.826941 27430 net.cpp:387] loss -> loss
I1029 20:59:20.826956 27430 layer_factory.hpp:77] Creating layer loss
…
I1029 20:59:20.833879 27430 net.cpp:301] The NetState phase (1) differed from the phase (0) specified by a rule in layer data
I1029 20:59:20.835214 27430 net.cpp:51] Initializing net from parameters: 
name: "SqueezeNet"
state {
  phase: TEST
}
layer {
  name: "data"
  type: "Data"
  top: "data"
  top: "label"
  include {
    phase: TEST
  }
  transform_param {
    crop_size: 227
    mean_value: 104
    mean_value: 117
    mean_value: 123
  }
  data_param {
    source: "/home/data/caffe-imagenet/ilsvrc12_val_lmdb"
    batch_size: 50
    backend: LMDB
  }
}
layer {
  name: "conv1"
  type: "INQConvolution"
  bottom: "data"
  top: "conv1"
  convolution_param {
    num_output: 64
    kernel_size: 3
    stride: 2
    weight_filler {
      type: "xavier"
    }
  }
  inq_convolution_param {
    portion: 0.6
    portion: 0.8
    weight_mask_filler {
      type: "constant"
      value: 1
    }
    bias_mask_filler {
      type: "constant"
      value: 1
    }
    num_quantum_values: 7
  }
}
layer {
  name: "relu_conv1"
  type: "ReLU"
  bottom: "conv1"
  top: "conv1"
}
layer {
  name: "pool1"
  type: "Pooling"
  bottom: "conv1"
  top: "pool1"
  pooling_param {
    pool: MAX
    kernel_size: 3
    stride: 2
  }
}
layer {
  name: "fire2/squeeze1x1"
  type: "INQConvolution"
  bottom: "pool1"
  top: "fire2/squeeze1x1"
  convolution_param {
    num_output: 16
    kernel_size: 1
    weight_filler {
      type: "xavier"
    }
  }
  inq_convolution_param {
    portion: 0.6
    portion: 0.8
    weight_mask_filler {
      type: "constant"
      value: 1
    }
    bias_mask_filler {
      type: "constant"
      value: 1
    }
    num_quantum_values: 7
  }
}
layer {
  name: "fire2/relu_squeeze1x1"
  type: "ReLU"
  bottom: "fire2/squeeze1x1"
  top: "fire2/squeeze1x1"
}
layer {
  name: "fire2/expand1x1"
  type: "INQConvolution"
  bottom: "fire2/squeeze1x1"
  top: "fire2/expand1x1"
  convolution_param {
    num_output: 64
    kernel_size: 1
    weight_filler {
      type: "xavier"
    }
  }
  inq_convolution_param {
    portion: 0.6
    portion: 0.8
    weight_mask_filler {
      type: "constant"
      value: 1
    }
    bias_mask_filler {
      type: "constant"
      value: 1
    }
    num_quantum_values: 7
  }
}
layer {
  name: "fire2/relu_expand1x1"
  type: "ReLU"
  bottom: "fire2/expand1x1"
  top: "fire2/expand1x1"
}
layer {
  name: "fire2/expand3x3"
  type: "INQConvolution"
  bottom: "fire2/squeeze1x1"
  top: "fire2/expand3x3"
  convolution_param {
    num_output: 64
    pad: 1
    kernel_size: 3
    weight_filler {
      type: "xavier"
    }
  }
  inq_convolution_param {
    portion: 0.6
    portion: 0.8
    weight_mask_filler {
      type: "constant"
      value: 1
    }
    bias_mask_filler {
      type: "constant"
      value: 1
    }
    num_quantum_values: 7
  }
}
layer {
  name: "fire2/relu_expand3x3"
  type: "ReLU"
  bottom: "fire2/expand3x3"
  top: "fire2/expand3x3"
}
layer {
  name: "fire2/concat"
  type: "Concat"
  bottom: "fire2/expand1x1"
  bottom: "fire2/expand3x3"
  top: "fire2/concat"
}
layer {
  name: "fire3/squeeze1x1"
  type: "INQConvolution"
  bottom: "fire2/concat"
  top: "fire3/squeeze1x1"
  convolution_param {
    num_output: 16
    kernel_size: 1
    weight_filler {
      type: "xavier"
    }
  }
  inq_convolution_param {
    portion: 0.6
    portion: 0.8
    weight_mask_filler {
      type: "constant"
      value: 1
    }
    bias_mask_filler {
      type: "constant"
      value: 1
    }
    num_quantum_values: 7
  }
}
layer {
  name: "fire3/relu_squeeze1x1"
  type: "ReLU"
  bottom: "fire3/squeeze1x1"
  top: "fire3/squeeze1x1"
}
layer {
  name: "fire3/expand1x1"
  type: "INQConvolution"
  bottom: "fire3/squeeze1x1"
  top: "fire3/expand1x1"
  convolution_param {
    num_output: 64
    kernel_size: 1
    weight_filler {
      type: "xavier"
    }
  }
  inq_convolution_param {
    portion: 0.6
    portion: 0.8
    weight_mask_filler {
      type: "constant"
      value: 1
    }
    bias_mask_filler {
      type: "constant"
      value: 1
    }
    num_quantum_values: 7
  }
}
layer {
  name: "fire3/relu_expand1x1"
  type: "ReLU"
  bottom: "fire3/expand1x1"
  top: "fire3/expand1x1"
}
layer {
  name: "fire3/expand3x3"
  type: "INQConvolution"
  bottom: "fire3/squeeze1x1"
  top: "fire3/expand3x3"
  convolution_param {
    num_output: 64
    pad: 1
    kernel_size: 3
    weight_filler {
      type: "xavier"
    }
  }
  inq_convolution_param {
    portion: 0.6
    portion: 0.8
    weight_mask_filler {
      type: "constant"
      value: 1
    }
    bias_mask_filler {
      type: "constant"
      value: 1
    }
    num_quantum_values: 7
  }
}
layer {
  name: "fire3/relu_expand3x3"
  type: "ReLU"
  bottom: "fire3/expand3x3"
  top: "fire3/expand3x3"
}
layer {
  name: "fire3/concat"
  type: "Concat"
  bottom: "fire3/expand1x1"
  bottom: "fire3/expand3x3"
  top: "fire3/concat"
}
layer {
  name: "pool3"
  type: "Pooling"
  bottom: "fire3/concat"
  top: "pool3"
  pooling_param {
    pool: MAX
    kernel_size: 3
    stride: 2
  }
}
layer {
  name: "fire4/squeeze1x1"
  type: "INQConvolution"
  bottom: "pool3"
  top: "fire4/squeeze1x1"
  convolution_param {
    num_output: 32
    kernel_size: 1
    weight_filler {
      type: "xavier"
    }
  }
  inq_convolution_param {
    portion: 0.6
    portion: 0.8
    weight_mask_filler {
      type: "constant"
      value: 1
    }
    bias_mask_filler {
      type: "constant"
      value: 1
    }
    num_quantum_values: 7
  }
}
layer {
  name: "fire4/relu_squeeze1x1"
  type: "ReLU"
  bottom: "fire4/squeeze1x1"
  top: "fire4/squeeze1x1"
}
layer {
  name: "fire4/expand1x1"
  type: "INQConvolution"
  bottom: "fire4/squeeze1x1"
  top: "fire4/expand1x1"
  convolution_param {
    num_output: 128
    kernel_size: 1
    weight_filler {
      type: "xavier"
    }
  }
  inq_convolution_param {
    portion: 0.6
    portion: 0.8
    weight_mask_filler {
      type: "constant"
      value: 1
    }
    bias_mask_filler {
      type: "constant"
      value: 1
    }
    num_quantum_values: 7
  }
}
layer {
  name: "fire4/relu_expand1x1"
  type: "ReLU"
  bottom: "fire4/expand1x1"
  top: "fire4/expand1x1"
}
layer {
  name: "fire4/expand3x3"
  type: "INQConvolution"
  bottom: "fire4/squeeze1x1"
  top: "fire4/expand3x3"
  convolution_param {
    num_output: 128
    pad: 1
    kernel_size: 3
    weight_filler {
      type: "xavier"
    }
  }
  inq_convolution_param {
    portion: 0.6
    portion: 0.8
    weight_mask_filler {
      type: "constant"
      value: 1
    }
    bias_mask_filler {
      type: "constant"
      value: 1
    }
    num_quantum_values: 7
  }
}
layer {
  name: "fire4/relu_expand3x3"
  type: "ReLU"
  bottom: "fire4/expand3x3"
  top: "fire4/expand3x3"
}
layer {
  name: "fire4/concat"
  type: "Concat"
  bottom: "fire4/expand1x1"
  bottom: "fire4/expand3x3"
  top: "fire4/concat"
}
layer {
  name: "fire5/squeeze1x1"
  type: "INQConvolution"
  bottom: "fire4/concat"
  top: "fire5/squeeze1x1"
  convolution_param {
    num_output: 32
    kernel_size: 1
    weight_filler {
      type: "xavier"
    }
  }
  inq_convolution_param {
    portion: 0.6
    portion: 0.8
    weight_mask_filler {
      type: "constant"
      value: 1
    }
    bias_mask_filler {
      type: "constant"
      value: 1
    }
    num_quantum_values: 7
  }
}
layer {
  name: "fire5/relu_squeeze1x1"
  type: "ReLU"
  bottom: "fire5/squeeze1x1"
  top: "fire5/squeeze1x1"
}
layer {
  name: "fire5/expand1x1"
  type: "INQConvolution"
  bottom: "fire5/squeeze1x1"
  top: "fire5/expand1x1"
  convolution_param {
    num_output: 128
    kernel_size: 1
    weight_filler {
      type: "xavier"
    }
  }
  inq_convolution_param {
    portion: 0.6
    portion: 0.8
    weight_mask_filler {
      type: "constant"
      value: 1
    }
    bias_mask_filler {
      type: "constant"
      value: 1
    }
    num_quantum_values: 7
  }
}
layer {
  name: "fire5/relu_expand1x1"
  type: "ReLU"
  bottom: "fire5/expand1x1"
  top: "fire5/expand1x1"
}
layer {
  name: "fire5/expand3x3"
  type: "INQConvolution"
  bottom: "fire5/squeeze1x1"
  top: "fire5/expand3x3"
  convolution_param {
    num_output: 128
    pad: 1
    kernel_size: 3
    weight_filler {
      type: "xavier"
    }
  }
  inq_convolution_param {
    portion: 0.6
    portion: 0.8
    weight_mask_filler {
      type: "constant"
      value: 1
    }
    bias_mask_filler {
      type: "constant"
      value: 1
    }
    num_quantum_values: 7
  }
}
layer {
  name: "fire5/relu_expand3x3"
  type: "ReLU"
  bottom: "fire5/expand3x3"
  top: "fire5/expand3x3"
}
layer {
  name: "fire5/concat"
  type: "Concat"
  bottom: "fire5/expand1x1"
  bottom: "fire5/expand3x3"
  top: "fire5/concat"
}
layer {
  name: "pool5"
  type: "Pooling"
  bottom: "fire5/concat"
  top: "pool5"
  pooling_param {
    pool: MAX
    kernel_size: 3
    stride: 2
  }
}
layer {
  name: "fire6/squeeze1x1"
  type: "INQConvolution"
  bottom: "pool5"
  top: "fire6/squeeze1x1"
  convolution_param {
    num_output: 48
    kernel_size: 1
    weight_filler {
      type: "xavier"
    }
  }
  inq_convolution_param {
    portion: 0.6
    portion: 0.8
    weight_mask_filler {
      type: "constant"
      value: 1
    }
    bias_mask_filler {
      type: "constant"
      value: 1
    }
    num_quantum_values: 7
  }
}
layer {
  name: "fire6/relu_squeeze1x1"
  type: "ReLU"
  bottom: "fire6/squeeze1x1"
  top: "fire6/squeeze1x1"
}
layer {
  name: "fire6/expand1x1"
  type: "INQConvolution"
  bottom: "fire6/squeeze1x1"
  top: "fire6/expand1x1"
  convolution_param {
    num_output: 192
    kernel_size: 1
    weight_filler {
      type: "xavier"
    }
  }
  inq_convolution_param {
    portion: 0.6
    portion: 0.8
    weight_mask_filler {
      type: "constant"
      value: 1
    }
    bias_mask_filler {
      type: "constant"
      value: 1
    }
    num_quantum_values: 7
  }
}
layer {
  name: "fire6/relu_expand1x1"
  type: "ReLU"
  bottom: "fire6/expand1x1"
  top: "fire6/expand1x1"
}
layer {
  name: "fire6/expand3x3"
  type: "INQConvolution"
  bottom: "fire6/squeeze1x1"
  top: "fire6/expand3x3"
  convolution_param {
    num_output: 192
    pad: 1
    kernel_size: 3
    weight_filler {
      type: "xavier"
    }
  }
  inq_convolution_param {
    portion: 0.6
    portion: 0.8
    weight_mask_filler {
      type: "constant"
      value: 1
    }
    bias_mask_filler {
      type: "constant"
      value: 1
    }
    num_quantum_values: 7
  }
}
layer {
  name: "fire6/relu_expand3x3"
  type: "ReLU"
  bottom: "fire6/expand3x3"
  top: "fire6/expand3x3"
}
layer {
  name: "fire6/concat"
  type: "Concat"
  bottom: "fire6/expand1x1"
  bottom: "fire6/expand3x3"
  top: "fire6/concat"
}
layer {
  name: "fire7/squeeze1x1"
  type: "INQConvolution"
  bottom: "fire6/concat"
  top: "fire7/squeeze1x1"
  convolution_param {
    num_output: 48
    kernel_size: 1
    weight_filler {
      type: "xavier"
    }
  }
  inq_convolution_param {
    portion: 0.6
    portion: 0.8
    weight_mask_filler {
      type: "constant"
      value: 1
    }
    bias_mask_filler {
      type: "constant"
      value: 1
    }
    num_quantum_values: 7
  }
}
layer {
  name: "fire7/relu_squeeze1x1"
  type: "ReLU"
  bottom: "fire7/squeeze1x1"
  top: "fire7/squeeze1x1"
}
layer {
  name: "fire7/expand1x1"
  type: "INQConvolution"
  bottom: "fire7/squeeze1x1"
  top: "fire7/expand1x1"
  convolution_param {
    num_output: 192
    kernel_size: 1
    weight_filler {
      type: "xavier"
    }
  }
  inq_convolution_param {
    portion: 0.6
    portion: 0.8
    weight_mask_filler {
      type: "constant"
      value: 1
    }
    bias_mask_filler {
      type: "constant"
      value: 1
    }
    num_quantum_values: 7
  }
}
layer {
  name: "fire7/relu_expand1x1"
  type: "ReLU"
  bottom: "fire7/expand1x1"
  top: "fire7/expand1x1"
}
layer {
  name: "fire7/expand3x3"
  type: "INQConvolution"
  bottom: "fire7/squeeze1x1"
  top: "fire7/expand3x3"
  convolution_param {
    num_output: 192
    pad: 1
    kernel_size: 3
    weight_filler {
      type: "xavier"
    }
  }
  inq_convolution_param {
    portion: 0.6
    portion: 0.8
    weight_mask_filler {
      type: "constant"
      value: 1
    }
    bias_mask_filler {
      type: "constant"
      value: 1
    }
    num_quantum_values: 7
  }
}
layer {
  name: "fire7/relu_expand3x3"
  type: "ReLU"
  bottom: "fire7/expand3x3"
  top: "fire7/expand3x3"
}
layer {
  name: "fire7/concat"
  type: "Concat"
  bottom: "fire7/expand1x1"
  bottom: "fire7/expand3x3"
  top: "fire7/concat"
}
layer {
  name: "fire8/squeeze1x1"
  type: "INQConvolution"
  bottom: "fire7/concat"
  top: "fire8/squeeze1x1"
  convolution_param {
    num_output: 64
    kernel_size: 1
    weight_filler {
      type: "xavier"
    }
  }
  inq_convolution_param {
    portion: 0.6
    portion: 0.8
    weight_mask_filler {
      type: "constant"
      value: 1
    }
    bias_mask_filler {
      type: "constant"
      value: 1
    }
    num_quantum_values: 7
  }
}
layer {
  name: "fire8/relu_squeeze1x1"
  type: "ReLU"
  bottom: "fire8/squeeze1x1"
  top: "fire8/squeeze1x1"
}
layer {
  name: "fire8/expand1x1"
  type: "INQConvolution"
  bottom: "fire8/squeeze1x1"
  top: "fire8/expand1x1"
  convolution_param {
    num_output: 256
    kernel_size: 1
    weight_filler {
      type: "xavier"
    }
  }
  inq_convolution_param {
    portion: 0.6
    portion: 0.8
    weight_mask_filler {
      type: "constant"
      value: 1
    }
    bias_mask_filler {
      type: "constant"
      value: 1
    }
    num_quantum_values: 7
  }
}
layer {
  name: "fire8/relu_expand1x1"
  type: "ReLU"
  bottom: "fire8/expand1x1"
  top: "fire8/expand1x1"
}
layer {
  name: "fire8/expand3x3"
  type: "INQConvolution"
  bottom: "fire8/squeeze1x1"
  top: "fire8/expand3x3"
  convolution_param {
    num_output: 256
    pad: 1
    kernel_size: 3
    weight_filler {
      type: "xavier"
    }
  }
  inq_convolution_param {
    portion: 0.6
    portion: 0.8
    weight_mask_filler {
      type: "constant"
      value: 1
    }
    bias_mask_filler {
      type: "constant"
      value: 1
    }
    num_quantum_values: 7
  }
}
layer {
  name: "fire8/relu_expand3x3"
  type: "ReLU"
  bottom: "fire8/expand3x3"
  top: "fire8/expand3x3"
}
layer {
  name: "fire8/concat"
  type: "Concat"
  bottom: "fire8/expand1x1"
  bottom: "fire8/expand3x3"
  top: "fire8/concat"
}
layer {
  name: "fire9/squeeze1x1"
  type: "INQConvolution"
  bottom: "fire8/concat"
  top: "fire9/squeeze1x1"
  convolution_param {
    num_output: 64
    kernel_size: 1
    weight_filler {
      type: "xavier"
    }
  }
  inq_convolution_param {
    portion: 0.6
    portion: 0.8
    weight_mask_filler {
      type: "constant"
      value: 1
    }
    bias_mask_filler {
      type: "constant"
      value: 1
    }
    num_quantum_values: 7
  }
}
layer {
  name: "fire9/relu_squeeze1x1"
  type: "ReLU"
  bottom: "fire9/squeeze1x1"
  top: "fire9/squeeze1x1"
}
layer {
  name: "fire9/expand1x1"
  type: "INQConvolution"
  bottom: "fire9/squeeze1x1"
  top: "fire9/expand1x1"
  convolution_param {
    num_output: 256
    kernel_size: 1
    weight_filler {
      type: "xavier"
    }
  }
  inq_convolution_param {
    portion: 0.6
    portion: 0.8
    weight_mask_filler {
      type: "constant"
      value: 1
    }
    bias_mask_filler {
      type: "constant"
      value: 1
    }
    num_quantum_values: 7
  }
}
layer {
  name: "fire9/relu_expand1x1"
  type: "ReLU"
  bottom: "fire9/expand1x1"
  top: "fire9/expand1x1"
}
layer {
  name: "fire9/expand3x3"
  type: "INQConvolution"
  bottom: "fire9/squeeze1x1"
  top: "fire9/expand3x3"
  convolution_param {
    num_output: 256
    pad: 1
    kernel_size: 3
    weight_filler {
      type: "xavier"
    }
  }
  inq_convolution_param {
    portion: 0.6
    portion: 0.8
    weight_mask_filler {
      type: "constant"
      value: 1
    }
    bias_mask_filler {
      type: "constant"
      value: 1
    }
    num_quantum_values: 7
  }
}
layer {
  name: "fire9/relu_expand3x3"
  type: "ReLU"
  bottom: "fire9/expand3x3"
  top: "fire9/expand3x3"
}
layer {
  name: "fire9/concat"
  type: "Concat"
  bottom: "fire9/expand1x1"
  bottom: "fire9/expand3x3"
  top: "fire9/concat"
}
layer {
  name: "drop9"
  type: "Dropout"
  bottom: "fire9/concat"
  top: "fire9/concat"
  dropout_param {
    dropout_ratio: 0.5
  }
}
layer {
  name: "conv10"
  type: "INQConvolution"
  bottom: "fire9/concat"
  top: "conv10"
  convolution_param {
    num_output: 1000
    kernel_size: 1
    weight_filler {
      type: "gaussian"
      mean: 0
      std: 0.01
    }
  }
  inq_convolution_param {
    portion: 0.6
    portion: 0.8
    weight_mask_filler {
      type: "constant"
      value: 1
    }
    bias_mask_filler {
      type: "constant"
      value: 1
    }
    num_quantum_values: 7
  }
}
layer {
  name: "relu_conv10"
  type: "ReLU"
  bottom: "conv10"
  top: "conv10"
}
layer {
  name: "pool10"
  type: "Pooling"
  bottom: "conv10"
  top: "pool10"
  pooling_param {
    pool: AVE
    global_pooling: true
  }
}
layer {
  name: "loss"
  type: "SoftmaxWithLoss"
  bottom: "pool10"
  bottom: "label"
  top: "loss"
}
layer {
  name: "accuracy_top1"
  type: "Accuracy"
  bottom: "pool10"
  bottom: "label"
  top: "accuracy_top1"
  include {
    phase: TEST
  }
}
layer {
  name: "accuracy_top5"
  type: "Accuracy"
  bottom: "pool10"
  bottom: "label"
  top: "accuracy_top5"
  include {
    phase: TEST
  }
  accuracy_param {
    top_k: 5
  }
}
I1029 20:59:20.835846 27430 layer_factory.hpp:77] Creating layer data
I1029 20:59:20.835973 27430 db_lmdb.cpp:35] Opened lmdb /home/data/caffe-imagenet/ilsvrc12_val_lmdb
I1029 20:59:20.836009 27430 net.cpp:84] Creating Layer data
I1029 20:59:20.836022 27430 net.cpp:387] data -> data
I1029 20:59:20.836045 27430 net.cpp:387] data -> label
I1029 20:59:20.836450 27430 data_layer.cpp:45] output data size: 50,3,227,227
I1029 20:59:20.934432 27430 net.cpp:127] Setting up data
I1029 20:59:20.934473 27430 net.cpp:136] Top shape: 50 3 227 227 (7729350)
I1029 20:59:20.934481 27430 net.cpp:136] Top shape: 50 (50)
I1029 20:59:20.934485 27430 net.cpp:144] Memory required for data: 30917600
I1029 20:59:20.934494 27430 layer_factory.hpp:77] Creating layer label_data_1_split
I1029 20:59:20.934511 27430 net.cpp:84] Creating Layer label_data_1_split
I1029 20:59:20.934517 27430 net.cpp:413] label_data_1_split <- label
I1029 20:59:20.934530 27430 net.cpp:387] label_data_1_split -> label_data_1_split_0
I1029 20:59:20.934541 27430 net.cpp:387] label_data_1_split -> label_data_1_split_1
I1029 20:59:20.934548 27430 net.cpp:387] label_data_1_split -> label_data_1_split_2
I1029 20:59:20.934643 27430 net.cpp:127] Setting up label_data_1_split
I1029 20:59:20.934651 27430 net.cpp:136] Top shape: 50 (50)
I1029 20:59:20.934656 27430 net.cpp:136] Top shape: 50 (50)
I1029 20:59:20.934662 27430 net.cpp:136] Top shape: 50 (50)
I1029 20:59:20.934666 27430 net.cpp:144] Memory required for data: 30918200
I1029 20:59:20.934670 27430 layer_factory.hpp:77] Creating layer conv1
I1029 20:59:20.934686 27430 net.cpp:84] Creating Layer conv1
I1029 20:59:20.934690 27430 net.cpp:413] conv1 <- data
I1029 20:59:20.934701 27430 net.cpp:387] conv1 -> conv1
I1029 20:59:20.935138 27430 net.cpp:127] Setting up conv1
I1029 20:59:20.935148 27430 net.cpp:136] Top shape: 50 64 113 113 (40860800)
I1029 20:59:20.935153 27430 net.cpp:144] Memory required for data: 194361400
I1029 20:59:20.935163 27430 net.cpp:453] Found INQ layer:conv1, type: INQConvolution, layer id:2
I1029 20:59:20.935171 27430 net.cpp:453] Found INQ layer:conv1, type: INQConvolution, layer id:2
I1029 20:59:20.935178 27430 net.cpp:453] Found INQ layer:conv1, type: INQConvolution, layer id:2
I1029 20:59:20.935185 27430 net.cpp:453] Found INQ layer:conv1, type: INQConvolution, layer id:2
I1029 20:59:20.935189 27430 layer_factory.hpp:77] Creating layer relu_conv1
I1029 20:59:20.935197 27430 net.cpp:84] Creating Layer relu_conv1
I1029 20:59:20.935202 27430 net.cpp:413] relu_conv1 <- conv1
I1029 20:59:20.935209 27430 net.cpp:374] relu_conv1 -> conv1 (in-place)
I1029 20:59:20.935468 27430 net.cpp:127] Setting up relu_conv1
I1029 20:59:20.935478 27430 net.cpp:136] Top shape: 50 64 113 113 (40860800)
I1029 20:59:20.935482 27430 net.cpp:144] Memory required for data: 357804600
I1029 20:59:20.935487 27430 layer_factory.hpp:77] Creating layer pool1
I1029 20:59:20.935498 27430 net.cpp:84] Creating Layer pool1
I1029 20:59:20.935503 27430 net.cpp:413] pool1 <- conv1
I1029 20:59:20.935509 27430 net.cpp:387] pool1 -> pool1
I1029 20:59:20.935562 27430 net.cpp:127] Setting up pool1
I1029 20:59:20.935570 27430 net.cpp:136] Top shape: 50 64 56 56 (10035200)
I1029 20:59:20.935573 27430 net.cpp:144] Memory required for data: 397945400
I1029 20:59:20.935577 27430 layer_factory.hpp:77] Creating layer fire2/squeeze1x1
I1029 20:59:20.935587 27430 net.cpp:84] Creating Layer fire2/squeeze1x1
I1029 20:59:20.935591 27430 net.cpp:413] fire2/squeeze1x1 <- pool1
I1029 20:59:20.935598 27430 net.cpp:387] fire2/squeeze1x1 -> fire2/squeeze1x1
I1029 20:59:20.935963 27430 net.cpp:127] Setting up fire2/squeeze1x1
I1029 20:59:20.935972 27430 net.cpp:136] Top shape: 50 16 56 56 (2508800)
I1029 20:59:20.935977 27430 net.cpp:144] Memory required for data: 407980600
I1029 20:59:20.935986 27430 net.cpp:453] Found INQ layer:fire2/squeeze1x1, type: INQConvolution, layer id:5
I1029 20:59:20.935993 27430 net.cpp:453] Found INQ layer:fire2/squeeze1x1, type: INQConvolution, layer id:5
I1029 20:59:20.935999 27430 net.cpp:453] Found INQ layer:fire2/squeeze1x1, type: INQConvolution, layer id:5
I1029 20:59:20.936004 27430 net.cpp:453] Found INQ layer:fire2/squeeze1x1, type: INQConvolution, layer id:5
I1029 20:59:20.936008 27430 layer_factory.hpp:77] Creating layer fire2/relu_squeeze1x1
I1029 20:59:20.936015 27430 net.cpp:84] Creating Layer fire2/relu_squeeze1x1
I1029 20:59:20.936024 27430 net.cpp:413] fire2/relu_squeeze1x1 <- fire2/squeeze1x1
I1029 20:59:20.936058 27430 net.cpp:374] fire2/relu_squeeze1x1 -> fire2/squeeze1x1 (in-place)
I1029 20:59:20.936292 27430 net.cpp:127] Setting up fire2/relu_squeeze1x1
I1029 20:59:20.936302 27430 net.cpp:136] Top shape: 50 16 56 56 (2508800)
I1029 20:59:20.936306 27430 net.cpp:144] Memory required for data: 418015800
I1029 20:59:20.936311 27430 layer_factory.hpp:77] Creating layer fire2/squeeze1x1_fire2/relu_squeeze1x1_0_split
I1029 20:59:20.936317 27430 net.cpp:84] Creating Layer fire2/squeeze1x1_fire2/relu_squeeze1x1_0_split
I1029 20:59:20.936321 27430 net.cpp:413] fire2/squeeze1x1_fire2/relu_squeeze1x1_0_split <- fire2/squeeze1x1
I1029 20:59:20.936328 27430 net.cpp:387] fire2/squeeze1x1_fire2/relu_squeeze1x1_0_split -> fire2/squeeze1x1_fire2/relu_squeeze1x1_0_split_0
I1029 20:59:20.936337 27430 net.cpp:387] fire2/squeeze1x1_fire2/relu_squeeze1x1_0_split -> fire2/squeeze1x1_fire2/relu_squeeze1x1_0_split_1
I1029 20:59:20.936386 27430 net.cpp:127] Setting up fire2/squeeze1x1_fire2/relu_squeeze1x1_0_split
I1029 20:59:20.936393 27430 net.cpp:136] Top shape: 50 16 56 56 (2508800)
I1029 20:59:20.936398 27430 net.cpp:136] Top shape: 50 16 56 56 (2508800)
I1029 20:59:20.936403 27430 net.cpp:144] Memory required for data: 438086200
I1029 20:59:20.936405 27430 layer_factory.hpp:77] Creating layer fire2/expand1x1
I1029 20:59:20.936417 27430 net.cpp:84] Creating Layer fire2/expand1x1
I1029 20:59:20.936421 27430 net.cpp:413] fire2/expand1x1 <- fire2/squeeze1x1_fire2/relu_squeeze1x1_0_split_0
I1029 20:59:20.936430 27430 net.cpp:387] fire2/expand1x1 -> fire2/expand1x1
I1029 20:59:20.939319 27430 net.cpp:127] Setting up fire2/expand1x1
I1029 20:59:20.939338 27430 net.cpp:136] Top shape: 50 64 56 56 (10035200)
I1029 20:59:20.939343 27430 net.cpp:144] Memory required for data: 478227000
I1029 20:59:20.939352 27430 net.cpp:453] Found INQ layer:fire2/expand1x1, type: INQConvolution, layer id:8
I1029 20:59:20.939363 27430 net.cpp:453] Found INQ layer:fire2/expand1x1, type: INQConvolution, layer id:8
I1029 20:59:20.939368 27430 net.cpp:453] Found INQ layer:fire2/expand1x1, type: INQConvolution, layer id:8
I1029 20:59:20.939373 27430 net.cpp:453] Found INQ layer:fire2/expand1x1, type: INQConvolution, layer id:8
I1029 20:59:20.939376 27430 layer_factory.hpp:77] Creating layer fire2/relu_expand1x1
I1029 20:59:20.939385 27430 net.cpp:84] Creating Layer fire2/relu_expand1x1
I1029 20:59:20.939390 27430 net.cpp:413] fire2/relu_expand1x1 <- fire2/expand1x1
I1029 20:59:20.939399 27430 net.cpp:374] fire2/relu_expand1x1 -> fire2/expand1x1 (in-place)
I1029 20:59:20.941057 27430 net.cpp:127] Setting up fire2/relu_expand1x1
I1029 20:59:20.941083 27430 net.cpp:136] Top shape: 50 64 56 56 (10035200)
I1029 20:59:20.941092 27430 net.cpp:144] Memory required for data: 518367800
I1029 20:59:20.941099 27430 layer_factory.hpp:77] Creating layer fire2/expand3x3
I1029 20:59:20.941119 27430 net.cpp:84] Creating Layer fire2/expand3x3
I1029 20:59:20.941128 27430 net.cpp:413] fire2/expand3x3 <- fire2/squeeze1x1_fire2/relu_squeeze1x1_0_split_1
I1029 20:59:20.941143 27430 net.cpp:387] fire2/expand3x3 -> fire2/expand3x3
I1029 20:59:20.941653 27430 net.cpp:127] Setting up fire2/expand3x3
I1029 20:59:20.941661 27430 net.cpp:136] Top shape: 50 64 56 56 (10035200)
I1029 20:59:20.941665 27430 net.cpp:144] Memory required for data: 558508600
I1029 20:59:20.941673 27430 net.cpp:453] Found INQ layer:fire2/expand3x3, type: INQConvolution, layer id:10
I1029 20:59:20.941679 27430 net.cpp:453] Found INQ layer:fire2/expand3x3, type: INQConvolution, layer id:10
I1029 20:59:20.941684 27430 net.cpp:453] Found INQ layer:fire2/expand3x3, type: INQConvolution, layer id:10
I1029 20:59:20.941687 27430 net.cpp:453] Found INQ layer:fire2/expand3x3, type: INQConvolution, layer id:10
I1029 20:59:20.941691 27430 layer_factory.hpp:77] Creating layer fire2/relu_expand3x3
I1029 20:59:20.941699 27430 net.cpp:84] Creating Layer fire2/relu_expand3x3
I1029 20:59:20.941704 27430 net.cpp:413] fire2/relu_expand3x3 <- fire2/expand3x3
I1029 20:59:20.941715 27430 net.cpp:374] fire2/relu_expand3x3 -> fire2/expand3x3 (in-place)
I1029 20:59:20.941953 27430 net.cpp:127] Setting up fire2/relu_expand3x3
I1029 20:59:20.941963 27430 net.cpp:136] Top shape: 50 64 56 56 (10035200)
I1029 20:59:20.941967 27430 net.cpp:144] Memory required for data: 598649400
I1029 20:59:20.941972 27430 layer_factory.hpp:77] Creating layer fire2/concat
I1029 20:59:20.941979 27430 net.cpp:84] Creating Layer fire2/concat
I1029 20:59:20.941984 27430 net.cpp:413] fire2/concat <- fire2/expand1x1
I1029 20:59:20.941989 27430 net.cpp:413] fire2/concat <- fire2/expand3x3
I1029 20:59:20.941996 27430 net.cpp:387] fire2/concat -> fire2/concat
I1029 20:59:20.942030 27430 net.cpp:127] Setting up fire2/concat
I1029 20:59:20.942037 27430 net.cpp:136] Top shape: 50 128 56 56 (20070400)
I1029 20:59:20.942041 27430 net.cpp:144] Memory required for data: 678931000
I1029 20:59:20.942044 27430 layer_factory.hpp:77] Creating layer fire3/squeeze1x1
I1029 20:59:20.942054 27430 net.cpp:84] Creating Layer fire3/squeeze1x1
I1029 20:59:20.942059 27430 net.cpp:413] fire3/squeeze1x1 <- fire2/concat
I1029 20:59:20.942065 27430 net.cpp:387] fire3/squeeze1x1 -> fire3/squeeze1x1
I1029 20:59:20.942421 27430 net.cpp:127] Setting up fire3/squeeze1x1
I1029 20:59:20.942430 27430 net.cpp:136] Top shape: 50 16 56 56 (2508800)
I1029 20:59:20.942433 27430 net.cpp:144] Memory required for data: 688966200
I1029 20:59:20.942445 27430 net.cpp:453] Found INQ layer:fire3/squeeze1x1, type: INQConvolution, layer id:13
I1029 20:59:20.942453 27430 net.cpp:453] Found INQ layer:fire3/squeeze1x1, type: INQConvolution, layer id:13
I1029 20:59:20.942458 27430 net.cpp:453] Found INQ layer:fire3/squeeze1x1, type: INQConvolution, layer id:13
I1029 20:59:20.942463 27430 net.cpp:453] Found INQ layer:fire3/squeeze1x1, type: INQConvolution, layer id:13
I1029 20:59:20.942467 27430 layer_factory.hpp:77] Creating layer fire3/relu_squeeze1x1
I1029 20:59:20.942476 27430 net.cpp:84] Creating Layer fire3/relu_squeeze1x1
I1029 20:59:20.942479 27430 net.cpp:413] fire3/relu_squeeze1x1 <- fire3/squeeze1x1
I1029 20:59:20.942487 27430 net.cpp:374] fire3/relu_squeeze1x1 -> fire3/squeeze1x1 (in-place)
I1029 20:59:20.942689 27430 net.cpp:127] Setting up fire3/relu_squeeze1x1
I1029 20:59:20.942698 27430 net.cpp:136] Top shape: 50 16 56 56 (2508800)
I1029 20:59:20.942703 27430 net.cpp:144] Memory required for data: 699001400
I1029 20:59:20.942706 27430 layer_factory.hpp:77] Creating layer fire3/squeeze1x1_fire3/relu_squeeze1x1_0_split
I1029 20:59:20.942714 27430 net.cpp:84] Creating Layer fire3/squeeze1x1_fire3/relu_squeeze1x1_0_split
I1029 20:59:20.942718 27430 net.cpp:413] fire3/squeeze1x1_fire3/relu_squeeze1x1_0_split <- fire3/squeeze1x1
I1029 20:59:20.942725 27430 net.cpp:387] fire3/squeeze1x1_fire3/relu_squeeze1x1_0_split -> fire3/squeeze1x1_fire3/relu_squeeze1x1_0_split_0
I1029 20:59:20.942734 27430 net.cpp:387] fire3/squeeze1x1_fire3/relu_squeeze1x1_0_split -> fire3/squeeze1x1_fire3/relu_squeeze1x1_0_split_1
I1029 20:59:20.942781 27430 net.cpp:127] Setting up fire3/squeeze1x1_fire3/relu_squeeze1x1_0_split
I1029 20:59:20.942787 27430 net.cpp:136] Top shape: 50 16 56 56 (2508800)
I1029 20:59:20.942792 27430 net.cpp:136] Top shape: 50 16 56 56 (2508800)
I1029 20:59:20.942796 27430 net.cpp:144] Memory required for data: 719071800
I1029 20:59:20.942800 27430 layer_factory.hpp:77] Creating layer fire3/expand1x1
I1029 20:59:20.942811 27430 net.cpp:84] Creating Layer fire3/expand1x1
I1029 20:59:20.942816 27430 net.cpp:413] fire3/expand1x1 <- fire3/squeeze1x1_fire3/relu_squeeze1x1_0_split_0
I1029 20:59:20.942823 27430 net.cpp:387] fire3/expand1x1 -> fire3/expand1x1
I1029 20:59:20.943178 27430 net.cpp:127] Setting up fire3/expand1x1
I1029 20:59:20.943188 27430 net.cpp:136] Top shape: 50 64 56 56 (10035200)
I1029 20:59:20.943192 27430 net.cpp:144] Memory required for data: 759212600
I1029 20:59:20.943198 27430 net.cpp:453] Found INQ layer:fire3/expand1x1, type: INQConvolution, layer id:16
I1029 20:59:20.943203 27430 net.cpp:453] Found INQ layer:fire3/expand1x1, type: INQConvolution, layer id:16
I1029 20:59:20.943212 27430 net.cpp:453] Found INQ layer:fire3/expand1x1, type: INQConvolution, layer id:16
I1029 20:59:20.943226 27430 net.cpp:453] Found INQ layer:fire3/expand1x1, type: INQConvolution, layer id:16
I1029 20:59:20.943230 27430 layer_factory.hpp:77] Creating layer fire3/relu_expand1x1
I1029 20:59:20.943238 27430 net.cpp:84] Creating Layer fire3/relu_expand1x1
I1029 20:59:20.943243 27430 net.cpp:413] fire3/relu_expand1x1 <- fire3/expand1x1
I1029 20:59:20.943248 27430 net.cpp:374] fire3/relu_expand1x1 -> fire3/expand1x1 (in-place)
I1029 20:59:20.943451 27430 net.cpp:127] Setting up fire3/relu_expand1x1
I1029 20:59:20.943460 27430 net.cpp:136] Top shape: 50 64 56 56 (10035200)
I1029 20:59:20.943464 27430 net.cpp:144] Memory required for data: 799353400
I1029 20:59:20.943469 27430 layer_factory.hpp:77] Creating layer fire3/expand3x3
I1029 20:59:20.943480 27430 net.cpp:84] Creating Layer fire3/expand3x3
I1029 20:59:20.943483 27430 net.cpp:413] fire3/expand3x3 <- fire3/squeeze1x1_fire3/relu_squeeze1x1_0_split_1
I1029 20:59:20.943491 27430 net.cpp:387] fire3/expand3x3 -> fire3/expand3x3
I1029 20:59:20.943914 27430 net.cpp:127] Setting up fire3/expand3x3
I1029 20:59:20.943928 27430 net.cpp:136] Top shape: 50 64 56 56 (10035200)
I1029 20:59:20.943933 27430 net.cpp:144] Memory required for data: 839494200
I1029 20:59:20.943938 27430 net.cpp:453] Found INQ layer:fire3/expand3x3, type: INQConvolution, layer id:18
I1029 20:59:20.943943 27430 net.cpp:453] Found INQ layer:fire3/expand3x3, type: INQConvolution, layer id:18
I1029 20:59:20.943948 27430 net.cpp:453] Found INQ layer:fire3/expand3x3, type: INQConvolution, layer id:18
I1029 20:59:20.943953 27430 net.cpp:453] Found INQ layer:fire3/expand3x3, type: INQConvolution, layer id:18
I1029 20:59:20.943955 27430 layer_factory.hpp:77] Creating layer fire3/relu_expand3x3
I1029 20:59:20.943964 27430 net.cpp:84] Creating Layer fire3/relu_expand3x3
I1029 20:59:20.943969 27430 net.cpp:413] fire3/relu_expand3x3 <- fire3/expand3x3
I1029 20:59:20.943974 27430 net.cpp:374] fire3/relu_expand3x3 -> fire3/expand3x3 (in-place)
I1029 20:59:20.945385 27430 net.cpp:127] Setting up fire3/relu_expand3x3
I1029 20:59:20.945400 27430 net.cpp:136] Top shape: 50 64 56 56 (10035200)
I1029 20:59:20.945405 27430 net.cpp:144] Memory required for data: 879635000
I1029 20:59:20.945410 27430 layer_factory.hpp:77] Creating layer fire3/concat
I1029 20:59:20.945418 27430 net.cpp:84] Creating Layer fire3/concat
I1029 20:59:20.945422 27430 net.cpp:413] fire3/concat <- fire3/expand1x1
I1029 20:59:20.945430 27430 net.cpp:413] fire3/concat <- fire3/expand3x3
I1029 20:59:20.945436 27430 net.cpp:387] fire3/concat -> fire3/concat
I1029 20:59:20.945472 27430 net.cpp:127] Setting up fire3/concat
I1029 20:59:20.945478 27430 net.cpp:136] Top shape: 50 128 56 56 (20070400)
I1029 20:59:20.945482 27430 net.cpp:144] Memory required for data: 959916600
I1029 20:59:20.945485 27430 layer_factory.hpp:77] Creating layer pool3
I1029 20:59:20.945494 27430 net.cpp:84] Creating Layer pool3
I1029 20:59:20.945498 27430 net.cpp:413] pool3 <- fire3/concat
I1029 20:59:20.945505 27430 net.cpp:387] pool3 -> pool3
I1029 20:59:20.945550 27430 net.cpp:127] Setting up pool3
I1029 20:59:20.945556 27430 net.cpp:136] Top shape: 50 128 28 28 (5017600)
I1029 20:59:20.945560 27430 net.cpp:144] Memory required for data: 979987000
I1029 20:59:20.945564 27430 layer_factory.hpp:77] Creating layer fire4/squeeze1x1
I1029 20:59:20.945574 27430 net.cpp:84] Creating Layer fire4/squeeze1x1
I1029 20:59:20.945577 27430 net.cpp:413] fire4/squeeze1x1 <- pool3
I1029 20:59:20.945586 27430 net.cpp:387] fire4/squeeze1x1 -> fire4/squeeze1x1
I1029 20:59:20.945976 27430 net.cpp:127] Setting up fire4/squeeze1x1
I1029 20:59:20.945986 27430 net.cpp:136] Top shape: 50 32 28 28 (1254400)
I1029 20:59:20.945989 27430 net.cpp:144] Memory required for data: 985004600
I1029 20:59:20.945996 27430 net.cpp:453] Found INQ layer:fire4/squeeze1x1, type: INQConvolution, layer id:22
I1029 20:59:20.946002 27430 net.cpp:453] Found INQ layer:fire4/squeeze1x1, type: INQConvolution, layer id:22
I1029 20:59:20.946010 27430 net.cpp:453] Found INQ layer:fire4/squeeze1x1, type: INQConvolution, layer id:22
I1029 20:59:20.946027 27430 net.cpp:453] Found INQ layer:fire4/squeeze1x1, type: INQConvolution, layer id:22
I1029 20:59:20.946029 27430 layer_factory.hpp:77] Creating layer fire4/relu_squeeze1x1
I1029 20:59:20.946038 27430 net.cpp:84] Creating Layer fire4/relu_squeeze1x1
I1029 20:59:20.946041 27430 net.cpp:413] fire4/relu_squeeze1x1 <- fire4/squeeze1x1
I1029 20:59:20.946048 27430 net.cpp:374] fire4/relu_squeeze1x1 -> fire4/squeeze1x1 (in-place)
I1029 20:59:20.946251 27430 net.cpp:127] Setting up fire4/relu_squeeze1x1
I1029 20:59:20.946260 27430 net.cpp:136] Top shape: 50 32 28 28 (1254400)
I1029 20:59:20.946265 27430 net.cpp:144] Memory required for data: 990022200
I1029 20:59:20.946269 27430 layer_factory.hpp:77] Creating layer fire4/squeeze1x1_fire4/relu_squeeze1x1_0_split
I1029 20:59:20.946276 27430 net.cpp:84] Creating Layer fire4/squeeze1x1_fire4/relu_squeeze1x1_0_split
I1029 20:59:20.946280 27430 net.cpp:413] fire4/squeeze1x1_fire4/relu_squeeze1x1_0_split <- fire4/squeeze1x1
I1029 20:59:20.946290 27430 net.cpp:387] fire4/squeeze1x1_fire4/relu_squeeze1x1_0_split -> fire4/squeeze1x1_fire4/relu_squeeze1x1_0_split_0
I1029 20:59:20.946296 27430 net.cpp:387] fire4/squeeze1x1_fire4/relu_squeeze1x1_0_split -> fire4/squeeze1x1_fire4/relu_squeeze1x1_0_split_1
I1029 20:59:20.946344 27430 net.cpp:127] Setting up fire4/squeeze1x1_fire4/relu_squeeze1x1_0_split
I1029 20:59:20.946350 27430 net.cpp:136] Top shape: 50 32 28 28 (1254400)
I1029 20:59:20.946355 27430 net.cpp:136] Top shape: 50 32 28 28 (1254400)
I1029 20:59:20.946359 27430 net.cpp:144] Memory required for data: 1000057400
I1029 20:59:20.946362 27430 layer_factory.hpp:77] Creating layer fire4/expand1x1
I1029 20:59:20.946372 27430 net.cpp:84] Creating Layer fire4/expand1x1
I1029 20:59:20.946377 27430 net.cpp:413] fire4/expand1x1 <- fire4/squeeze1x1_fire4/relu_squeeze1x1_0_split_0
I1029 20:59:20.946384 27430 net.cpp:387] fire4/expand1x1 -> fire4/expand1x1
I1029 20:59:20.946744 27430 net.cpp:127] Setting up fire4/expand1x1
I1029 20:59:20.946753 27430 net.cpp:136] Top shape: 50 128 28 28 (5017600)
I1029 20:59:20.946758 27430 net.cpp:144] Memory required for data: 1020127800
I1029 20:59:20.946768 27430 net.cpp:453] Found INQ layer:fire4/expand1x1, type: INQConvolution, layer id:25
I1029 20:59:20.946776 27430 net.cpp:453] Found INQ layer:fire4/expand1x1, type: INQConvolution, layer id:25
I1029 20:59:20.946781 27430 net.cpp:453] Found INQ layer:fire4/expand1x1, type: INQConvolution, layer id:25
I1029 20:59:20.946786 27430 net.cpp:453] Found INQ layer:fire4/expand1x1, type: INQConvolution, layer id:25
I1029 20:59:20.946790 27430 layer_factory.hpp:77] Creating layer fire4/relu_expand1x1
I1029 20:59:20.946797 27430 net.cpp:84] Creating Layer fire4/relu_expand1x1
I1029 20:59:20.946802 27430 net.cpp:413] fire4/relu_expand1x1 <- fire4/expand1x1
I1029 20:59:20.946808 27430 net.cpp:374] fire4/relu_expand1x1 -> fire4/expand1x1 (in-place)
I1029 20:59:20.947016 27430 net.cpp:127] Setting up fire4/relu_expand1x1
I1029 20:59:20.947024 27430 net.cpp:136] Top shape: 50 128 28 28 (5017600)
I1029 20:59:20.947029 27430 net.cpp:144] Memory required for data: 1040198200
I1029 20:59:20.947033 27430 layer_factory.hpp:77] Creating layer fire4/expand3x3
I1029 20:59:20.947044 27430 net.cpp:84] Creating Layer fire4/expand3x3
I1029 20:59:20.947048 27430 net.cpp:413] fire4/expand3x3 <- fire4/squeeze1x1_fire4/relu_squeeze1x1_0_split_1
I1029 20:59:20.947057 27430 net.cpp:387] fire4/expand3x3 -> fire4/expand3x3
I1029 20:59:20.947705 27430 net.cpp:127] Setting up fire4/expand3x3
I1029 20:59:20.947713 27430 net.cpp:136] Top shape: 50 128 28 28 (5017600)
I1029 20:59:20.947717 27430 net.cpp:144] Memory required for data: 1060268600
I1029 20:59:20.947723 27430 net.cpp:453] Found INQ layer:fire4/expand3x3, type: INQConvolution, layer id:27
I1029 20:59:20.947728 27430 net.cpp:453] Found INQ layer:fire4/expand3x3, type: INQConvolution, layer id:27
I1029 20:59:20.947737 27430 net.cpp:453] Found INQ layer:fire4/expand3x3, type: INQConvolution, layer id:27
I1029 20:59:20.947751 27430 net.cpp:453] Found INQ layer:fire4/expand3x3, type: INQConvolution, layer id:27
I1029 20:59:20.947755 27430 layer_factory.hpp:77] Creating layer fire4/relu_expand3x3
I1029 20:59:20.947762 27430 net.cpp:84] Creating Layer fire4/relu_expand3x3
I1029 20:59:20.947767 27430 net.cpp:413] fire4/relu_expand3x3 <- fire4/expand3x3
I1029 20:59:20.947773 27430 net.cpp:374] fire4/relu_expand3x3 -> fire4/expand3x3 (in-place)
I1029 20:59:20.947983 27430 net.cpp:127] Setting up fire4/relu_expand3x3
I1029 20:59:20.947991 27430 net.cpp:136] Top shape: 50 128 28 28 (5017600)
I1029 20:59:20.947995 27430 net.cpp:144] Memory required for data: 1080339000
I1029 20:59:20.947999 27430 layer_factory.hpp:77] Creating layer fire4/concat
I1029 20:59:20.948007 27430 net.cpp:84] Creating Layer fire4/concat
I1029 20:59:20.948012 27430 net.cpp:413] fire4/concat <- fire4/expand1x1
I1029 20:59:20.948017 27430 net.cpp:413] fire4/concat <- fire4/expand3x3
I1029 20:59:20.948024 27430 net.cpp:387] fire4/concat -> fire4/concat
I1029 20:59:20.948055 27430 net.cpp:127] Setting up fire4/concat
I1029 20:59:20.948060 27430 net.cpp:136] Top shape: 50 256 28 28 (10035200)
I1029 20:59:20.948065 27430 net.cpp:144] Memory required for data: 1120479800
I1029 20:59:20.948068 27430 layer_factory.hpp:77] Creating layer fire5/squeeze1x1
I1029 20:59:20.948077 27430 net.cpp:84] Creating Layer fire5/squeeze1x1
I1029 20:59:20.948081 27430 net.cpp:413] fire5/squeeze1x1 <- fire4/concat
I1029 20:59:20.948089 27430 net.cpp:387] fire5/squeeze1x1 -> fire5/squeeze1x1
I1029 20:59:20.948494 27430 net.cpp:127] Setting up fire5/squeeze1x1
I1029 20:59:20.948503 27430 net.cpp:136] Top shape: 50 32 28 28 (1254400)
I1029 20:59:20.948508 27430 net.cpp:144] Memory required for data: 1125497400
I1029 20:59:20.948513 27430 net.cpp:453] Found INQ layer:fire5/squeeze1x1, type: INQConvolution, layer id:30
I1029 20:59:20.948518 27430 net.cpp:453] Found INQ layer:fire5/squeeze1x1, type: INQConvolution, layer id:30
I1029 20:59:20.948523 27430 net.cpp:453] Found INQ layer:fire5/squeeze1x1, type: INQConvolution, layer id:30
I1029 20:59:20.948527 27430 net.cpp:453] Found INQ layer:fire5/squeeze1x1, type: INQConvolution, layer id:30
I1029 20:59:20.948530 27430 layer_factory.hpp:77] Creating layer fire5/relu_squeeze1x1
I1029 20:59:20.948537 27430 net.cpp:84] Creating Layer fire5/relu_squeeze1x1
I1029 20:59:20.948542 27430 net.cpp:413] fire5/relu_squeeze1x1 <- fire5/squeeze1x1
I1029 20:59:20.948549 27430 net.cpp:374] fire5/relu_squeeze1x1 -> fire5/squeeze1x1 (in-place)
I1029 20:59:20.949986 27430 net.cpp:127] Setting up fire5/relu_squeeze1x1
I1029 20:59:20.950001 27430 net.cpp:136] Top shape: 50 32 28 28 (1254400)
I1029 20:59:20.950006 27430 net.cpp:144] Memory required for data: 1130515000
I1029 20:59:20.950011 27430 layer_factory.hpp:77] Creating layer fire5/squeeze1x1_fire5/relu_squeeze1x1_0_split
I1029 20:59:20.950023 27430 net.cpp:84] Creating Layer fire5/squeeze1x1_fire5/relu_squeeze1x1_0_split
I1029 20:59:20.950028 27430 net.cpp:413] fire5/squeeze1x1_fire5/relu_squeeze1x1_0_split <- fire5/squeeze1x1
I1029 20:59:20.950037 27430 net.cpp:387] fire5/squeeze1x1_fire5/relu_squeeze1x1_0_split -> fire5/squeeze1x1_fire5/relu_squeeze1x1_0_split_0
I1029 20:59:20.950045 27430 net.cpp:387] fire5/squeeze1x1_fire5/relu_squeeze1x1_0_split -> fire5/squeeze1x1_fire5/relu_squeeze1x1_0_split_1
I1029 20:59:20.950096 27430 net.cpp:127] Setting up fire5/squeeze1x1_fire5/relu_squeeze1x1_0_split
I1029 20:59:20.950103 27430 net.cpp:136] Top shape: 50 32 28 28 (1254400)
I1029 20:59:20.950107 27430 net.cpp:136] Top shape: 50 32 28 28 (1254400)
I1029 20:59:20.950111 27430 net.cpp:144] Memory required for data: 1140550200
I1029 20:59:20.950114 27430 layer_factory.hpp:77] Creating layer fire5/expand1x1
I1029 20:59:20.950125 27430 net.cpp:84] Creating Layer fire5/expand1x1
I1029 20:59:20.950130 27430 net.cpp:413] fire5/expand1x1 <- fire5/squeeze1x1_fire5/relu_squeeze1x1_0_split_0
I1029 20:59:20.950137 27430 net.cpp:387] fire5/expand1x1 -> fire5/expand1x1
I1029 20:59:20.950511 27430 net.cpp:127] Setting up fire5/expand1x1
I1029 20:59:20.950532 27430 net.cpp:136] Top shape: 50 128 28 28 (5017600)
I1029 20:59:20.950536 27430 net.cpp:144] Memory required for data: 1160620600
I1029 20:59:20.950542 27430 net.cpp:453] Found INQ layer:fire5/expand1x1, type: INQConvolution, layer id:33
I1029 20:59:20.950548 27430 net.cpp:453] Found INQ layer:fire5/expand1x1, type: INQConvolution, layer id:33
I1029 20:59:20.950553 27430 net.cpp:453] Found INQ layer:fire5/expand1x1, type: INQConvolution, layer id:33
I1029 20:59:20.950557 27430 net.cpp:453] Found INQ layer:fire5/expand1x1, type: INQConvolution, layer id:33
I1029 20:59:20.950562 27430 layer_factory.hpp:77] Creating layer fire5/relu_expand1x1
I1029 20:59:20.950567 27430 net.cpp:84] Creating Layer fire5/relu_expand1x1
I1029 20:59:20.950572 27430 net.cpp:413] fire5/relu_expand1x1 <- fire5/expand1x1
I1029 20:59:20.950578 27430 net.cpp:374] fire5/relu_expand1x1 -> fire5/expand1x1 (in-place)
I1029 20:59:20.950796 27430 net.cpp:127] Setting up fire5/relu_expand1x1
I1029 20:59:20.950806 27430 net.cpp:136] Top shape: 50 128 28 28 (5017600)
I1029 20:59:20.950810 27430 net.cpp:144] Memory required for data: 1180691000
I1029 20:59:20.950814 27430 layer_factory.hpp:77] Creating layer fire5/expand3x3
I1029 20:59:20.950824 27430 net.cpp:84] Creating Layer fire5/expand3x3
I1029 20:59:20.950829 27430 net.cpp:413] fire5/expand3x3 <- fire5/squeeze1x1_fire5/relu_squeeze1x1_0_split_1
I1029 20:59:20.950839 27430 net.cpp:387] fire5/expand3x3 -> fire5/expand3x3
I1029 20:59:20.951545 27430 net.cpp:127] Setting up fire5/expand3x3
I1029 20:59:20.951555 27430 net.cpp:136] Top shape: 50 128 28 28 (5017600)
I1029 20:59:20.951558 27430 net.cpp:144] Memory required for data: 1200761400
I1029 20:59:20.951565 27430 net.cpp:453] Found INQ layer:fire5/expand3x3, type: INQConvolution, layer id:35
I1029 20:59:20.951570 27430 net.cpp:453] Found INQ layer:fire5/expand3x3, type: INQConvolution, layer id:35
I1029 20:59:20.951575 27430 net.cpp:453] Found INQ layer:fire5/expand3x3, type: INQConvolution, layer id:35
I1029 20:59:20.951581 27430 net.cpp:453] Found INQ layer:fire5/expand3x3, type: INQConvolution, layer id:35
I1029 20:59:20.951584 27430 layer_factory.hpp:77] Creating layer fire5/relu_expand3x3
I1029 20:59:20.951591 27430 net.cpp:84] Creating Layer fire5/relu_expand3x3
I1029 20:59:20.951596 27430 net.cpp:413] fire5/relu_expand3x3 <- fire5/expand3x3
I1029 20:59:20.951603 27430 net.cpp:374] fire5/relu_expand3x3 -> fire5/expand3x3 (in-place)
I1029 20:59:20.951817 27430 net.cpp:127] Setting up fire5/relu_expand3x3
I1029 20:59:20.951825 27430 net.cpp:136] Top shape: 50 128 28 28 (5017600)
I1029 20:59:20.951830 27430 net.cpp:144] Memory required for data: 1220831800
I1029 20:59:20.951834 27430 layer_factory.hpp:77] Creating layer fire5/concat
I1029 20:59:20.951841 27430 net.cpp:84] Creating Layer fire5/concat
I1029 20:59:20.951845 27430 net.cpp:413] fire5/concat <- fire5/expand1x1
I1029 20:59:20.951850 27430 net.cpp:413] fire5/concat <- fire5/expand3x3
I1029 20:59:20.951858 27430 net.cpp:387] fire5/concat -> fire5/concat
I1029 20:59:20.951889 27430 net.cpp:127] Setting up fire5/concat
I1029 20:59:20.951895 27430 net.cpp:136] Top shape: 50 256 28 28 (10035200)
I1029 20:59:20.951900 27430 net.cpp:144] Memory required for data: 1260972600
I1029 20:59:20.951903 27430 layer_factory.hpp:77] Creating layer pool5
I1029 20:59:20.951910 27430 net.cpp:84] Creating Layer pool5
I1029 20:59:20.951915 27430 net.cpp:413] pool5 <- fire5/concat
I1029 20:59:20.951927 27430 net.cpp:387] pool5 -> pool5
I1029 20:59:20.951979 27430 net.cpp:127] Setting up pool5
I1029 20:59:20.951987 27430 net.cpp:136] Top shape: 50 256 14 14 (2508800)
I1029 20:59:20.951990 27430 net.cpp:144] Memory required for data: 1271007800
I1029 20:59:20.951994 27430 layer_factory.hpp:77] Creating layer fire6/squeeze1x1
I1029 20:59:20.952004 27430 net.cpp:84] Creating Layer fire6/squeeze1x1
I1029 20:59:20.952008 27430 net.cpp:413] fire6/squeeze1x1 <- pool5
I1029 20:59:20.952019 27430 net.cpp:387] fire6/squeeze1x1 -> fire6/squeeze1x1
I1029 20:59:20.952466 27430 net.cpp:127] Setting up fire6/squeeze1x1
I1029 20:59:20.952486 27430 net.cpp:136] Top shape: 50 48 14 14 (470400)
I1029 20:59:20.952491 27430 net.cpp:144] Memory required for data: 1272889400
I1029 20:59:20.952497 27430 net.cpp:453] Found INQ layer:fire6/squeeze1x1, type: INQConvolution, layer id:39
I1029 20:59:20.952502 27430 net.cpp:453] Found INQ layer:fire6/squeeze1x1, type: INQConvolution, layer id:39
I1029 20:59:20.952507 27430 net.cpp:453] Found INQ layer:fire6/squeeze1x1, type: INQConvolution, layer id:39
I1029 20:59:20.952510 27430 net.cpp:453] Found INQ layer:fire6/squeeze1x1, type: INQConvolution, layer id:39
I1029 20:59:20.952514 27430 layer_factory.hpp:77] Creating layer fire6/relu_squeeze1x1
I1029 20:59:20.952522 27430 net.cpp:84] Creating Layer fire6/relu_squeeze1x1
I1029 20:59:20.952525 27430 net.cpp:413] fire6/relu_squeeze1x1 <- fire6/squeeze1x1
I1029 20:59:20.952531 27430 net.cpp:374] fire6/relu_squeeze1x1 -> fire6/squeeze1x1 (in-place)
I1029 20:59:20.952733 27430 net.cpp:127] Setting up fire6/relu_squeeze1x1
I1029 20:59:20.952742 27430 net.cpp:136] Top shape: 50 48 14 14 (470400)
I1029 20:59:20.952746 27430 net.cpp:144] Memory required for data: 1274771000
I1029 20:59:20.952750 27430 layer_factory.hpp:77] Creating layer fire6/squeeze1x1_fire6/relu_squeeze1x1_0_split
I1029 20:59:20.952757 27430 net.cpp:84] Creating Layer fire6/squeeze1x1_fire6/relu_squeeze1x1_0_split
I1029 20:59:20.952761 27430 net.cpp:413] fire6/squeeze1x1_fire6/relu_squeeze1x1_0_split <- fire6/squeeze1x1
I1029 20:59:20.952767 27430 net.cpp:387] fire6/squeeze1x1_fire6/relu_squeeze1x1_0_split -> fire6/squeeze1x1_fire6/relu_squeeze1x1_0_split_0
I1029 20:59:20.952775 27430 net.cpp:387] fire6/squeeze1x1_fire6/relu_squeeze1x1_0_split -> fire6/squeeze1x1_fire6/relu_squeeze1x1_0_split_1
I1029 20:59:20.952831 27430 net.cpp:127] Setting up fire6/squeeze1x1_fire6/relu_squeeze1x1_0_split
I1029 20:59:20.952837 27430 net.cpp:136] Top shape: 50 48 14 14 (470400)
I1029 20:59:20.952842 27430 net.cpp:136] Top shape: 50 48 14 14 (470400)
I1029 20:59:20.952847 27430 net.cpp:144] Memory required for data: 1278534200
I1029 20:59:20.952850 27430 layer_factory.hpp:77] Creating layer fire6/expand1x1
I1029 20:59:20.952859 27430 net.cpp:84] Creating Layer fire6/expand1x1
I1029 20:59:20.952863 27430 net.cpp:413] fire6/expand1x1 <- fire6/squeeze1x1_fire6/relu_squeeze1x1_0_split_0
I1029 20:59:20.952870 27430 net.cpp:387] fire6/expand1x1 -> fire6/expand1x1
I1029 20:59:20.953280 27430 net.cpp:127] Setting up fire6/expand1x1
I1029 20:59:20.953289 27430 net.cpp:136] Top shape: 50 192 14 14 (1881600)
I1029 20:59:20.953291 27430 net.cpp:144] Memory required for data: 1286060600
I1029 20:59:20.953297 27430 net.cpp:453] Found INQ layer:fire6/expand1x1, type: INQConvolution, layer id:42
I1029 20:59:20.953303 27430 net.cpp:453] Found INQ layer:fire6/expand1x1, type: INQConvolution, layer id:42
I1029 20:59:20.953307 27430 net.cpp:453] Found INQ layer:fire6/expand1x1, type: INQConvolution, layer id:42
I1029 20:59:20.953312 27430 net.cpp:453] Found INQ layer:fire6/expand1x1, type: INQConvolution, layer id:42
I1029 20:59:20.953316 27430 layer_factory.hpp:77] Creating layer fire6/relu_expand1x1
I1029 20:59:20.953322 27430 net.cpp:84] Creating Layer fire6/relu_expand1x1
I1029 20:59:20.953326 27430 net.cpp:413] fire6/relu_expand1x1 <- fire6/expand1x1
I1029 20:59:20.953333 27430 net.cpp:374] fire6/relu_expand1x1 -> fire6/expand1x1 (in-place)
I1029 20:59:20.954733 27430 net.cpp:127] Setting up fire6/relu_expand1x1
I1029 20:59:20.954747 27430 net.cpp:136] Top shape: 50 192 14 14 (1881600)
I1029 20:59:20.954751 27430 net.cpp:144] Memory required for data: 1293587000
I1029 20:59:20.954756 27430 layer_factory.hpp:77] Creating layer fire6/expand3x3
I1029 20:59:20.954768 27430 net.cpp:84] Creating Layer fire6/expand3x3
I1029 20:59:20.954773 27430 net.cpp:413] fire6/expand3x3 <- fire6/squeeze1x1_fire6/relu_squeeze1x1_0_split_1
I1029 20:59:20.954782 27430 net.cpp:387] fire6/expand3x3 -> fire6/expand3x3
I1029 20:59:20.955847 27430 net.cpp:127] Setting up fire6/expand3x3
I1029 20:59:20.955857 27430 net.cpp:136] Top shape: 50 192 14 14 (1881600)
I1029 20:59:20.955876 27430 net.cpp:144] Memory required for data: 1301113400
I1029 20:59:20.955883 27430 net.cpp:453] Found INQ layer:fire6/expand3x3, type: INQConvolution, layer id:44
I1029 20:59:20.955889 27430 net.cpp:453] Found INQ layer:fire6/expand3x3, type: INQConvolution, layer id:44
I1029 20:59:20.955893 27430 net.cpp:453] Found INQ layer:fire6/expand3x3, type: INQConvolution, layer id:44
I1029 20:59:20.955898 27430 net.cpp:453] Found INQ layer:fire6/expand3x3, type: INQConvolution, layer id:44
I1029 20:59:20.955901 27430 layer_factory.hpp:77] Creating layer fire6/relu_expand3x3
I1029 20:59:20.955909 27430 net.cpp:84] Creating Layer fire6/relu_expand3x3
I1029 20:59:20.955914 27430 net.cpp:413] fire6/relu_expand3x3 <- fire6/expand3x3
I1029 20:59:20.955924 27430 net.cpp:374] fire6/relu_expand3x3 -> fire6/expand3x3 (in-place)
I1029 20:59:20.956128 27430 net.cpp:127] Setting up fire6/relu_expand3x3
I1029 20:59:20.956137 27430 net.cpp:136] Top shape: 50 192 14 14 (1881600)
I1029 20:59:20.956141 27430 net.cpp:144] Memory required for data: 1308639800
I1029 20:59:20.956146 27430 layer_factory.hpp:77] Creating layer fire6/concat
I1029 20:59:20.956153 27430 net.cpp:84] Creating Layer fire6/concat
I1029 20:59:20.956157 27430 net.cpp:413] fire6/concat <- fire6/expand1x1
I1029 20:59:20.956162 27430 net.cpp:413] fire6/concat <- fire6/expand3x3
I1029 20:59:20.956168 27430 net.cpp:387] fire6/concat -> fire6/concat
I1029 20:59:20.956202 27430 net.cpp:127] Setting up fire6/concat
I1029 20:59:20.956207 27430 net.cpp:136] Top shape: 50 384 14 14 (3763200)
I1029 20:59:20.956212 27430 net.cpp:144] Memory required for data: 1323692600
I1029 20:59:20.956215 27430 layer_factory.hpp:77] Creating layer fire7/squeeze1x1
I1029 20:59:20.956224 27430 net.cpp:84] Creating Layer fire7/squeeze1x1
I1029 20:59:20.956228 27430 net.cpp:413] fire7/squeeze1x1 <- fire6/concat
I1029 20:59:20.956236 27430 net.cpp:387] fire7/squeeze1x1 -> fire7/squeeze1x1
I1029 20:59:20.956728 27430 net.cpp:127] Setting up fire7/squeeze1x1
I1029 20:59:20.956737 27430 net.cpp:136] Top shape: 50 48 14 14 (470400)
I1029 20:59:20.956740 27430 net.cpp:144] Memory required for data: 1325574200
I1029 20:59:20.956753 27430 net.cpp:453] Found INQ layer:fire7/squeeze1x1, type: INQConvolution, layer id:47
I1029 20:59:20.956763 27430 net.cpp:453] Found INQ layer:fire7/squeeze1x1, type: INQConvolution, layer id:47
I1029 20:59:20.956768 27430 net.cpp:453] Found INQ layer:fire7/squeeze1x1, type: INQConvolution, layer id:47
I1029 20:59:20.956773 27430 net.cpp:453] Found INQ layer:fire7/squeeze1x1, type: INQConvolution, layer id:47
I1029 20:59:20.956776 27430 layer_factory.hpp:77] Creating layer fire7/relu_squeeze1x1
I1029 20:59:20.956784 27430 net.cpp:84] Creating Layer fire7/relu_squeeze1x1
I1029 20:59:20.956789 27430 net.cpp:413] fire7/relu_squeeze1x1 <- fire7/squeeze1x1
I1029 20:59:20.956794 27430 net.cpp:374] fire7/relu_squeeze1x1 -> fire7/squeeze1x1 (in-place)
I1029 20:59:20.957001 27430 net.cpp:127] Setting up fire7/relu_squeeze1x1
I1029 20:59:20.957011 27430 net.cpp:136] Top shape: 50 48 14 14 (470400)
I1029 20:59:20.957015 27430 net.cpp:144] Memory required for data: 1327455800
I1029 20:59:20.957020 27430 layer_factory.hpp:77] Creating layer fire7/squeeze1x1_fire7/relu_squeeze1x1_0_split
I1029 20:59:20.957026 27430 net.cpp:84] Creating Layer fire7/squeeze1x1_fire7/relu_squeeze1x1_0_split
I1029 20:59:20.957031 27430 net.cpp:413] fire7/squeeze1x1_fire7/relu_squeeze1x1_0_split <- fire7/squeeze1x1
I1029 20:59:20.957037 27430 net.cpp:387] fire7/squeeze1x1_fire7/relu_squeeze1x1_0_split -> fire7/squeeze1x1_fire7/relu_squeeze1x1_0_split_0
I1029 20:59:20.957046 27430 net.cpp:387] fire7/squeeze1x1_fire7/relu_squeeze1x1_0_split -> fire7/squeeze1x1_fire7/relu_squeeze1x1_0_split_1
I1029 20:59:20.957094 27430 net.cpp:127] Setting up fire7/squeeze1x1_fire7/relu_squeeze1x1_0_split
I1029 20:59:20.957100 27430 net.cpp:136] Top shape: 50 48 14 14 (470400)
I1029 20:59:20.957109 27430 net.cpp:136] Top shape: 50 48 14 14 (470400)
I1029 20:59:20.957123 27430 net.cpp:144] Memory required for data: 1331219000
I1029 20:59:20.957126 27430 layer_factory.hpp:77] Creating layer fire7/expand1x1
I1029 20:59:20.957135 27430 net.cpp:84] Creating Layer fire7/expand1x1
I1029 20:59:20.957140 27430 net.cpp:413] fire7/expand1x1 <- fire7/squeeze1x1_fire7/relu_squeeze1x1_0_split_0
I1029 20:59:20.957149 27430 net.cpp:387] fire7/expand1x1 -> fire7/expand1x1
I1029 20:59:20.957561 27430 net.cpp:127] Setting up fire7/expand1x1
I1029 20:59:20.957568 27430 net.cpp:136] Top shape: 50 192 14 14 (1881600)
I1029 20:59:20.957572 27430 net.cpp:144] Memory required for data: 1338745400
I1029 20:59:20.957578 27430 net.cpp:453] Found INQ layer:fire7/expand1x1, type: INQConvolution, layer id:50
I1029 20:59:20.957583 27430 net.cpp:453] Found INQ layer:fire7/expand1x1, type: INQConvolution, layer id:50
I1029 20:59:20.957588 27430 net.cpp:453] Found INQ layer:fire7/expand1x1, type: INQConvolution, layer id:50
I1029 20:59:20.957592 27430 net.cpp:453] Found INQ layer:fire7/expand1x1, type: INQConvolution, layer id:50
I1029 20:59:20.957597 27430 layer_factory.hpp:77] Creating layer fire7/relu_expand1x1
I1029 20:59:20.957602 27430 net.cpp:84] Creating Layer fire7/relu_expand1x1
I1029 20:59:20.957607 27430 net.cpp:413] fire7/relu_expand1x1 <- fire7/expand1x1
I1029 20:59:20.957612 27430 net.cpp:374] fire7/relu_expand1x1 -> fire7/expand1x1 (in-place)
I1029 20:59:20.959014 27430 net.cpp:127] Setting up fire7/relu_expand1x1
I1029 20:59:20.959029 27430 net.cpp:136] Top shape: 50 192 14 14 (1881600)
I1029 20:59:20.959033 27430 net.cpp:144] Memory required for data: 1346271800
I1029 20:59:20.959038 27430 layer_factory.hpp:77] Creating layer fire7/expand3x3
I1029 20:59:20.959049 27430 net.cpp:84] Creating Layer fire7/expand3x3
I1029 20:59:20.959053 27430 net.cpp:413] fire7/expand3x3 <- fire7/squeeze1x1_fire7/relu_squeeze1x1_0_split_1
I1029 20:59:20.959064 27430 net.cpp:387] fire7/expand3x3 -> fire7/expand3x3
I1029 20:59:20.960117 27430 net.cpp:127] Setting up fire7/expand3x3
I1029 20:59:20.960126 27430 net.cpp:136] Top shape: 50 192 14 14 (1881600)
I1029 20:59:20.960130 27430 net.cpp:144] Memory required for data: 1353798200
I1029 20:59:20.960136 27430 net.cpp:453] Found INQ layer:fire7/expand3x3, type: INQConvolution, layer id:52
I1029 20:59:20.960142 27430 net.cpp:453] Found INQ layer:fire7/expand3x3, type: INQConvolution, layer id:52
I1029 20:59:20.960147 27430 net.cpp:453] Found INQ layer:fire7/expand3x3, type: INQConvolution, layer id:52
I1029 20:59:20.960151 27430 net.cpp:453] Found INQ layer:fire7/expand3x3, type: INQConvolution, layer id:52
I1029 20:59:20.960155 27430 layer_factory.hpp:77] Creating layer fire7/relu_expand3x3
I1029 20:59:20.960162 27430 net.cpp:84] Creating Layer fire7/relu_expand3x3
I1029 20:59:20.960166 27430 net.cpp:413] fire7/relu_expand3x3 <- fire7/expand3x3
I1029 20:59:20.960172 27430 net.cpp:374] fire7/relu_expand3x3 -> fire7/expand3x3 (in-place)
I1029 20:59:20.960374 27430 net.cpp:127] Setting up fire7/relu_expand3x3
I1029 20:59:20.960383 27430 net.cpp:136] Top shape: 50 192 14 14 (1881600)
I1029 20:59:20.960388 27430 net.cpp:144] Memory required for data: 1361324600
I1029 20:59:20.960392 27430 layer_factory.hpp:77] Creating layer fire7/concat
I1029 20:59:20.960399 27430 net.cpp:84] Creating Layer fire7/concat
I1029 20:59:20.960403 27430 net.cpp:413] fire7/concat <- fire7/expand1x1
I1029 20:59:20.960408 27430 net.cpp:413] fire7/concat <- fire7/expand3x3
I1029 20:59:20.960414 27430 net.cpp:387] fire7/concat -> fire7/concat
I1029 20:59:20.960448 27430 net.cpp:127] Setting up fire7/concat
I1029 20:59:20.960454 27430 net.cpp:136] Top shape: 50 384 14 14 (3763200)
I1029 20:59:20.960458 27430 net.cpp:144] Memory required for data: 1376377400
I1029 20:59:20.960461 27430 layer_factory.hpp:77] Creating layer fire8/squeeze1x1
I1029 20:59:20.960469 27430 net.cpp:84] Creating Layer fire8/squeeze1x1
I1029 20:59:20.960474 27430 net.cpp:413] fire8/squeeze1x1 <- fire7/concat
I1029 20:59:20.960480 27430 net.cpp:387] fire8/squeeze1x1 -> fire8/squeeze1x1
I1029 20:59:20.962427 27430 net.cpp:127] Setting up fire8/squeeze1x1
I1029 20:59:20.962453 27430 net.cpp:136] Top shape: 50 64 14 14 (627200)
I1029 20:59:20.962458 27430 net.cpp:144] Memory required for data: 1378886200
I1029 20:59:20.962466 27430 net.cpp:453] Found INQ layer:fire8/squeeze1x1, type: INQConvolution, layer id:55
I1029 20:59:20.962471 27430 net.cpp:453] Found INQ layer:fire8/squeeze1x1, type: INQConvolution, layer id:55
I1029 20:59:20.962476 27430 net.cpp:453] Found INQ layer:fire8/squeeze1x1, type: INQConvolution, layer id:55
I1029 20:59:20.962481 27430 net.cpp:453] Found INQ layer:fire8/squeeze1x1, type: INQConvolution, layer id:55
I1029 20:59:20.962484 27430 layer_factory.hpp:77] Creating layer fire8/relu_squeeze1x1
I1029 20:59:20.962492 27430 net.cpp:84] Creating Layer fire8/relu_squeeze1x1
I1029 20:59:20.962497 27430 net.cpp:413] fire8/relu_squeeze1x1 <- fire8/squeeze1x1
I1029 20:59:20.962504 27430 net.cpp:374] fire8/relu_squeeze1x1 -> fire8/squeeze1x1 (in-place)
I1029 20:59:20.962720 27430 net.cpp:127] Setting up fire8/relu_squeeze1x1
I1029 20:59:20.962729 27430 net.cpp:136] Top shape: 50 64 14 14 (627200)
I1029 20:59:20.962733 27430 net.cpp:144] Memory required for data: 1381395000
I1029 20:59:20.962738 27430 layer_factory.hpp:77] Creating layer fire8/squeeze1x1_fire8/relu_squeeze1x1_0_split
I1029 20:59:20.962744 27430 net.cpp:84] Creating Layer fire8/squeeze1x1_fire8/relu_squeeze1x1_0_split
I1029 20:59:20.962749 27430 net.cpp:413] fire8/squeeze1x1_fire8/relu_squeeze1x1_0_split <- fire8/squeeze1x1
I1029 20:59:20.962756 27430 net.cpp:387] fire8/squeeze1x1_fire8/relu_squeeze1x1_0_split -> fire8/squeeze1x1_fire8/relu_squeeze1x1_0_split_0
I1029 20:59:20.962764 27430 net.cpp:387] fire8/squeeze1x1_fire8/relu_squeeze1x1_0_split -> fire8/squeeze1x1_fire8/relu_squeeze1x1_0_split_1
I1029 20:59:20.962813 27430 net.cpp:127] Setting up fire8/squeeze1x1_fire8/relu_squeeze1x1_0_split
I1029 20:59:20.962821 27430 net.cpp:136] Top shape: 50 64 14 14 (627200)
I1029 20:59:20.962826 27430 net.cpp:136] Top shape: 50 64 14 14 (627200)
I1029 20:59:20.962828 27430 net.cpp:144] Memory required for data: 1386412600
I1029 20:59:20.962832 27430 layer_factory.hpp:77] Creating layer fire8/expand1x1
I1029 20:59:20.962842 27430 net.cpp:84] Creating Layer fire8/expand1x1
I1029 20:59:20.962847 27430 net.cpp:413] fire8/expand1x1 <- fire8/squeeze1x1_fire8/relu_squeeze1x1_0_split_0
I1029 20:59:20.962855 27430 net.cpp:387] fire8/expand1x1 -> fire8/expand1x1
I1029 20:59:20.963338 27430 net.cpp:127] Setting up fire8/expand1x1
I1029 20:59:20.963347 27430 net.cpp:136] Top shape: 50 256 14 14 (2508800)
I1029 20:59:20.963351 27430 net.cpp:144] Memory required for data: 1396447800
I1029 20:59:20.963357 27430 net.cpp:453] Found INQ layer:fire8/expand1x1, type: INQConvolution, layer id:58
I1029 20:59:20.963362 27430 net.cpp:453] Found INQ layer:fire8/expand1x1, type: INQConvolution, layer id:58
I1029 20:59:20.963367 27430 net.cpp:453] Found INQ layer:fire8/expand1x1, type: INQConvolution, layer id:58
I1029 20:59:20.963371 27430 net.cpp:453] Found INQ layer:fire8/expand1x1, type: INQConvolution, layer id:58
I1029 20:59:20.963376 27430 layer_factory.hpp:77] Creating layer fire8/relu_expand1x1
I1029 20:59:20.963382 27430 net.cpp:84] Creating Layer fire8/relu_expand1x1
I1029 20:59:20.963387 27430 net.cpp:413] fire8/relu_expand1x1 <- fire8/expand1x1
I1029 20:59:20.963392 27430 net.cpp:374] fire8/relu_expand1x1 -> fire8/expand1x1 (in-place)
I1029 20:59:20.963599 27430 net.cpp:127] Setting up fire8/relu_expand1x1
I1029 20:59:20.963608 27430 net.cpp:136] Top shape: 50 256 14 14 (2508800)
I1029 20:59:20.963613 27430 net.cpp:144] Memory required for data: 1406483000
I1029 20:59:20.963616 27430 layer_factory.hpp:77] Creating layer fire8/expand3x3
I1029 20:59:20.963626 27430 net.cpp:84] Creating Layer fire8/expand3x3
I1029 20:59:20.963630 27430 net.cpp:413] fire8/expand3x3 <- fire8/squeeze1x1_fire8/relu_squeeze1x1_0_split_1
I1029 20:59:20.963639 27430 net.cpp:387] fire8/expand3x3 -> fire8/expand3x3
I1029 20:59:20.966512 27430 net.cpp:127] Setting up fire8/expand3x3
I1029 20:59:20.966531 27430 net.cpp:136] Top shape: 50 256 14 14 (2508800)
I1029 20:59:20.966547 27430 net.cpp:144] Memory required for data: 1416518200
I1029 20:59:20.966553 27430 net.cpp:453] Found INQ layer:fire8/expand3x3, type: INQConvolution, layer id:60
I1029 20:59:20.966559 27430 net.cpp:453] Found INQ layer:fire8/expand3x3, type: INQConvolution, layer id:60
I1029 20:59:20.966564 27430 net.cpp:453] Found INQ layer:fire8/expand3x3, type: INQConvolution, layer id:60
I1029 20:59:20.966568 27430 net.cpp:453] Found INQ layer:fire8/expand3x3, type: INQConvolution, layer id:60
I1029 20:59:20.966572 27430 layer_factory.hpp:77] Creating layer fire8/relu_expand3x3
I1029 20:59:20.966580 27430 net.cpp:84] Creating Layer fire8/relu_expand3x3
I1029 20:59:20.966585 27430 net.cpp:413] fire8/relu_expand3x3 <- fire8/expand3x3
I1029 20:59:20.966593 27430 net.cpp:374] fire8/relu_expand3x3 -> fire8/expand3x3 (in-place)
I1029 20:59:20.968014 27430 net.cpp:127] Setting up fire8/relu_expand3x3
I1029 20:59:20.968029 27430 net.cpp:136] Top shape: 50 256 14 14 (2508800)
I1029 20:59:20.968032 27430 net.cpp:144] Memory required for data: 1426553400
I1029 20:59:20.968037 27430 layer_factory.hpp:77] Creating layer fire8/concat
I1029 20:59:20.968046 27430 net.cpp:84] Creating Layer fire8/concat
I1029 20:59:20.968051 27430 net.cpp:413] fire8/concat <- fire8/expand1x1
I1029 20:59:20.968056 27430 net.cpp:413] fire8/concat <- fire8/expand3x3
I1029 20:59:20.968062 27430 net.cpp:387] fire8/concat -> fire8/concat
I1029 20:59:20.968101 27430 net.cpp:127] Setting up fire8/concat
I1029 20:59:20.968108 27430 net.cpp:136] Top shape: 50 512 14 14 (5017600)
I1029 20:59:20.968111 27430 net.cpp:144] Memory required for data: 1446623800
I1029 20:59:20.968116 27430 layer_factory.hpp:77] Creating layer fire9/squeeze1x1
I1029 20:59:20.968125 27430 net.cpp:84] Creating Layer fire9/squeeze1x1
I1029 20:59:20.968129 27430 net.cpp:413] fire9/squeeze1x1 <- fire8/concat
I1029 20:59:20.968137 27430 net.cpp:387] fire9/squeeze1x1 -> fire9/squeeze1x1
I1029 20:59:20.968744 27430 net.cpp:127] Setting up fire9/squeeze1x1
I1029 20:59:20.968755 27430 net.cpp:136] Top shape: 50 64 14 14 (627200)
I1029 20:59:20.968758 27430 net.cpp:144] Memory required for data: 1449132600
I1029 20:59:20.968765 27430 net.cpp:453] Found INQ layer:fire9/squeeze1x1, type: INQConvolution, layer id:63
I1029 20:59:20.968770 27430 net.cpp:453] Found INQ layer:fire9/squeeze1x1, type: INQConvolution, layer id:63
I1029 20:59:20.968775 27430 net.cpp:453] Found INQ layer:fire9/squeeze1x1, type: INQConvolution, layer id:63
I1029 20:59:20.968778 27430 net.cpp:453] Found INQ layer:fire9/squeeze1x1, type: INQConvolution, layer id:63
I1029 20:59:20.968782 27430 layer_factory.hpp:77] Creating layer fire9/relu_squeeze1x1
I1029 20:59:20.968796 27430 net.cpp:84] Creating Layer fire9/relu_squeeze1x1
I1029 20:59:20.968801 27430 net.cpp:413] fire9/relu_squeeze1x1 <- fire9/squeeze1x1
I1029 20:59:20.968806 27430 net.cpp:374] fire9/relu_squeeze1x1 -> fire9/squeeze1x1 (in-place)
I1029 20:59:20.969018 27430 net.cpp:127] Setting up fire9/relu_squeeze1x1
I1029 20:59:20.969028 27430 net.cpp:136] Top shape: 50 64 14 14 (627200)
I1029 20:59:20.969033 27430 net.cpp:144] Memory required for data: 1451641400
I1029 20:59:20.969036 27430 layer_factory.hpp:77] Creating layer fire9/squeeze1x1_fire9/relu_squeeze1x1_0_split
I1029 20:59:20.969044 27430 net.cpp:84] Creating Layer fire9/squeeze1x1_fire9/relu_squeeze1x1_0_split
I1029 20:59:20.969048 27430 net.cpp:413] fire9/squeeze1x1_fire9/relu_squeeze1x1_0_split <- fire9/squeeze1x1
I1029 20:59:20.969055 27430 net.cpp:387] fire9/squeeze1x1_fire9/relu_squeeze1x1_0_split -> fire9/squeeze1x1_fire9/relu_squeeze1x1_0_split_0
I1029 20:59:20.969063 27430 net.cpp:387] fire9/squeeze1x1_fire9/relu_squeeze1x1_0_split -> fire9/squeeze1x1_fire9/relu_squeeze1x1_0_split_1
I1029 20:59:20.969112 27430 net.cpp:127] Setting up fire9/squeeze1x1_fire9/relu_squeeze1x1_0_split
I1029 20:59:20.969120 27430 net.cpp:136] Top shape: 50 64 14 14 (627200)
I1029 20:59:20.969125 27430 net.cpp:136] Top shape: 50 64 14 14 (627200)
I1029 20:59:20.969130 27430 net.cpp:144] Memory required for data: 1456659000
I1029 20:59:20.969146 27430 layer_factory.hpp:77] Creating layer fire9/expand1x1
I1029 20:59:20.969154 27430 net.cpp:84] Creating Layer fire9/expand1x1
I1029 20:59:20.969159 27430 net.cpp:413] fire9/expand1x1 <- fire9/squeeze1x1_fire9/relu_squeeze1x1_0_split_0
I1029 20:59:20.969167 27430 net.cpp:387] fire9/expand1x1 -> fire9/expand1x1
I1029 20:59:20.969640 27430 net.cpp:127] Setting up fire9/expand1x1
I1029 20:59:20.969650 27430 net.cpp:136] Top shape: 50 256 14 14 (2508800)
I1029 20:59:20.969653 27430 net.cpp:144] Memory required for data: 1466694200
I1029 20:59:20.969660 27430 net.cpp:453] Found INQ layer:fire9/expand1x1, type: INQConvolution, layer id:66
I1029 20:59:20.969665 27430 net.cpp:453] Found INQ layer:fire9/expand1x1, type: INQConvolution, layer id:66
I1029 20:59:20.969669 27430 net.cpp:453] Found INQ layer:fire9/expand1x1, type: INQConvolution, layer id:66
I1029 20:59:20.969673 27430 net.cpp:453] Found INQ layer:fire9/expand1x1, type: INQConvolution, layer id:66
I1029 20:59:20.969677 27430 layer_factory.hpp:77] Creating layer fire9/relu_expand1x1
I1029 20:59:20.969683 27430 net.cpp:84] Creating Layer fire9/relu_expand1x1
I1029 20:59:20.969688 27430 net.cpp:413] fire9/relu_expand1x1 <- fire9/expand1x1
I1029 20:59:20.969693 27430 net.cpp:374] fire9/relu_expand1x1 -> fire9/expand1x1 (in-place)
I1029 20:59:20.969911 27430 net.cpp:127] Setting up fire9/relu_expand1x1
I1029 20:59:20.969925 27430 net.cpp:136] Top shape: 50 256 14 14 (2508800)
I1029 20:59:20.969929 27430 net.cpp:144] Memory required for data: 1476729400
I1029 20:59:20.969933 27430 layer_factory.hpp:77] Creating layer fire9/expand3x3
I1029 20:59:20.969949 27430 net.cpp:84] Creating Layer fire9/expand3x3
I1029 20:59:20.969955 27430 net.cpp:413] fire9/expand3x3 <- fire9/squeeze1x1_fire9/relu_squeeze1x1_0_split_1
I1029 20:59:20.969962 27430 net.cpp:387] fire9/expand3x3 -> fire9/expand3x3
I1029 20:59:20.972844 27430 net.cpp:127] Setting up fire9/expand3x3
I1029 20:59:20.972859 27430 net.cpp:136] Top shape: 50 256 14 14 (2508800)
I1029 20:59:20.972863 27430 net.cpp:144] Memory required for data: 1486764600
I1029 20:59:20.972870 27430 net.cpp:453] Found INQ layer:fire9/expand3x3, type: INQConvolution, layer id:68
I1029 20:59:20.972875 27430 net.cpp:453] Found INQ layer:fire9/expand3x3, type: INQConvolution, layer id:68
I1029 20:59:20.972880 27430 net.cpp:453] Found INQ layer:fire9/expand3x3, type: INQConvolution, layer id:68
I1029 20:59:20.972884 27430 net.cpp:453] Found INQ layer:fire9/expand3x3, type: INQConvolution, layer id:68
I1029 20:59:20.972890 27430 layer_factory.hpp:77] Creating layer fire9/relu_expand3x3
I1029 20:59:20.972898 27430 net.cpp:84] Creating Layer fire9/relu_expand3x3
I1029 20:59:20.972903 27430 net.cpp:413] fire9/relu_expand3x3 <- fire9/expand3x3
I1029 20:59:20.972910 27430 net.cpp:374] fire9/relu_expand3x3 -> fire9/expand3x3 (in-place)
I1029 20:59:20.973146 27430 net.cpp:127] Setting up fire9/relu_expand3x3
I1029 20:59:20.973156 27430 net.cpp:136] Top shape: 50 256 14 14 (2508800)
I1029 20:59:20.973160 27430 net.cpp:144] Memory required for data: 1496799800
I1029 20:59:20.973165 27430 layer_factory.hpp:77] Creating layer fire9/concat
I1029 20:59:20.973171 27430 net.cpp:84] Creating Layer fire9/concat
I1029 20:59:20.973176 27430 net.cpp:413] fire9/concat <- fire9/expand1x1
I1029 20:59:20.973181 27430 net.cpp:413] fire9/concat <- fire9/expand3x3
I1029 20:59:20.973187 27430 net.cpp:387] fire9/concat -> fire9/concat
I1029 20:59:20.973222 27430 net.cpp:127] Setting up fire9/concat
I1029 20:59:20.973227 27430 net.cpp:136] Top shape: 50 512 14 14 (5017600)
I1029 20:59:20.973232 27430 net.cpp:144] Memory required for data: 1516870200
I1029 20:59:20.973234 27430 layer_factory.hpp:77] Creating layer drop9
I1029 20:59:20.973243 27430 net.cpp:84] Creating Layer drop9
I1029 20:59:20.973248 27430 net.cpp:413] drop9 <- fire9/concat
I1029 20:59:20.973253 27430 net.cpp:374] drop9 -> fire9/concat (in-place)
I1029 20:59:20.973286 27430 net.cpp:127] Setting up drop9
I1029 20:59:20.973292 27430 net.cpp:136] Top shape: 50 512 14 14 (5017600)
I1029 20:59:20.973307 27430 net.cpp:144] Memory required for data: 1536940600
I1029 20:59:20.973310 27430 layer_factory.hpp:77] Creating layer conv10
I1029 20:59:20.973321 27430 net.cpp:84] Creating Layer conv10
I1029 20:59:20.973325 27430 net.cpp:413] conv10 <- fire9/concat
I1029 20:59:20.973333 27430 net.cpp:387] conv10 -> conv10
I1029 20:59:20.982879 27430 net.cpp:127] Setting up conv10
I1029 20:59:20.982895 27430 net.cpp:136] Top shape: 50 1000 14 14 (9800000)
I1029 20:59:20.982899 27430 net.cpp:144] Memory required for data: 1576140600
I1029 20:59:20.982906 27430 net.cpp:453] Found INQ layer:conv10, type: INQConvolution, layer id:72
I1029 20:59:20.982913 27430 net.cpp:453] Found INQ layer:conv10, type: INQConvolution, layer id:72
I1029 20:59:20.982916 27430 net.cpp:453] Found INQ layer:conv10, type: INQConvolution, layer id:72
I1029 20:59:20.982926 27430 net.cpp:453] Found INQ layer:conv10, type: INQConvolution, layer id:72
I1029 20:59:20.982930 27430 layer_factory.hpp:77] Creating layer relu_conv10
I1029 20:59:20.982939 27430 net.cpp:84] Creating Layer relu_conv10
I1029 20:59:20.982942 27430 net.cpp:413] relu_conv10 <- conv10
I1029 20:59:20.982954 27430 net.cpp:374] relu_conv10 -> conv10 (in-place)
I1029 20:59:20.984397 27430 net.cpp:127] Setting up relu_conv10
I1029 20:59:20.984413 27430 net.cpp:136] Top shape: 50 1000 14 14 (9800000)
I1029 20:59:20.984417 27430 net.cpp:144] Memory required for data: 1615340600
I1029 20:59:20.984422 27430 layer_factory.hpp:77] Creating layer pool10
I1029 20:59:20.984432 27430 net.cpp:84] Creating Layer pool10
I1029 20:59:20.984436 27430 net.cpp:413] pool10 <- conv10
I1029 20:59:20.984443 27430 net.cpp:387] pool10 -> pool10
I1029 20:59:20.984680 27430 net.cpp:127] Setting up pool10
I1029 20:59:20.984690 27430 net.cpp:136] Top shape: 50 1000 1 1 (50000)
I1029 20:59:20.984694 27430 net.cpp:144] Memory required for data: 1615540600
I1029 20:59:20.984699 27430 layer_factory.hpp:77] Creating layer pool10_pool10_0_split
I1029 20:59:20.984707 27430 net.cpp:84] Creating Layer pool10_pool10_0_split
I1029 20:59:20.984711 27430 net.cpp:413] pool10_pool10_0_split <- pool10
I1029 20:59:20.984717 27430 net.cpp:387] pool10_pool10_0_split -> pool10_pool10_0_split_0
I1029 20:59:20.984727 27430 net.cpp:387] pool10_pool10_0_split -> pool10_pool10_0_split_1
I1029 20:59:20.984735 27430 net.cpp:387] pool10_pool10_0_split -> pool10_pool10_0_split_2
I1029 20:59:20.984797 27430 net.cpp:127] Setting up pool10_pool10_0_split
I1029 20:59:20.984803 27430 net.cpp:136] Top shape: 50 1000 1 1 (50000)
I1029 20:59:20.984808 27430 net.cpp:136] Top shape: 50 1000 1 1 (50000)
I1029 20:59:20.984812 27430 net.cpp:136] Top shape: 50 1000 1 1 (50000)
I1029 20:59:20.984817 27430 net.cpp:144] Memory required for data: 1616140600
I1029 20:59:20.984819 27430 layer_factory.hpp:77] Creating layer loss
I1029 20:59:20.984828 27430 net.cpp:84] Creating Layer loss
I1029 20:59:20.984833 27430 net.cpp:413] loss <- pool10_pool10_0_split_0
I1029 20:59:20.984838 27430 net.cpp:413] loss <- label_data_1_split_0
I1029 20:59:20.984843 27430 net.cpp:387] loss -> loss
…
