…
I1026 15:43:28.841420 37958 net.cpp:301] The NetState phase (0) differed from the phase (1) specified by a rule in layer accuracy_top5
I1026 15:43:28.842113 37958 net.cpp:51] Initializing net from parameters: 
name: "SqueezeNet"
state {
  phase: TRAIN
  level: 0
  stage: ""
}
layer {
  name: "data"
  type: "Data"
  top: "data"
  top: "label"
  include {
    phase: TRAIN
  }
  transform_param {
    crop_size: 227
    mean_value: 104
    mean_value: 117
    mean_value: 123
  }
  data_param {
    source: "/home/data/caffe-imagenet/ilsvrc12_train_lmdb"
    batch_size: 128
    backend: LMDB
  }
}
layer {
  name: "conv1"
  type: "INQConvolution"
  bottom: "data"
  top: "conv1"
  convolution_param {
    num_output: 64
    kernel_size: 3
    stride: 2
    weight_filler {
      type: "xavier"
    }
  }
  inq_convolution_param {
    portion: 0
    portion: 0.2
    weight_mask_filler {
      type: "constant"
      value: 1
    }
    bias_mask_filler {
      type: "constant"
      value: 1
    }
    num_quantum_values: 7
  }
}
layer {
  name: "relu_conv1"
  type: "ReLU"
  bottom: "conv1"
  top: "conv1"
}
layer {
  name: "pool1"
  type: "Pooling"
  bottom: "conv1"
  top: "pool1"
  pooling_param {
    pool: MAX
    kernel_size: 3
    stride: 2
  }
}
layer {
  name: "fire2/squeeze1x1"
  type: "INQConvolution"
  bottom: "pool1"
  top: "fire2/squeeze1x1"
  convolution_param {
    num_output: 16
    kernel_size: 1
    weight_filler {
      type: "xavier"
    }
  }
  inq_convolution_param {
    portion: 0
    portion: 0.2
    weight_mask_filler {
      type: "constant"
      value: 1
    }
    bias_mask_filler {
      type: "constant"
      value: 1
    }
    num_quantum_values: 7
  }
}
layer {
  name: "fire2/relu_squeeze1x1"
  type: "ReLU"
  bottom: "fire2/squeeze1x1"
  top: "fire2/squeeze1x1"
}
layer {
  name: "fire2/expand1x1"
  type: "INQConvolution"
  bottom: "fire2/squeeze1x1"
  top: "fire2/expand1x1"
  convolution_param {
    num_output: 64
    kernel_size: 1
    weight_filler {
      type: "xavier"
    }
  }
  inq_convolution_param {
    portion: 0
    portion: 0.2
    weight_mask_filler {
      type: "constant"
      value: 1
    }
    bias_mask_filler {
      type: "constant"
      value: 1
    }
    num_quantum_values: 7
  }
}
layer {
  name: "fire2/relu_expand1x1"
  type: "ReLU"
  bottom: "fire2/expand1x1"
  top: "fire2/expand1x1"
}
layer {
  name: "fire2/expand3x3"
  type: "INQConvolution"
  bottom: "fire2/squeeze1x1"
  top: "fire2/expand3x3"
  convolution_param {
    num_output: 64
    pad: 1
    kernel_size: 3
    weight_filler {
      type: "xavier"
    }
  }
  inq_convolution_param {
    portion: 0
    portion: 0.2
    weight_mask_filler {
      type: "constant"
      value: 1
    }
    bias_mask_filler {
      type: "constant"
      value: 1
    }
    num_quantum_values: 7
  }
}
layer {
  name: "fire2/relu_expand3x3"
  type: "ReLU"
  bottom: "fire2/expand3x3"
  top: "fire2/expand3x3"
}
layer {
  name: "fire2/concat"
  type: "Concat"
  bottom: "fire2/expand1x1"
  bottom: "fire2/expand3x3"
  top: "fire2/concat"
}
layer {
  name: "fire3/squeeze1x1"
  type: "INQConvolution"
  bottom: "fire2/concat"
  top: "fire3/squeeze1x1"
  convolution_param {
    num_output: 16
    kernel_size: 1
    weight_filler {
      type: "xavier"
    }
  }
  inq_convolution_param {
    portion: 0
    portion: 0.2
    weight_mask_filler {
      type: "constant"
      value: 1
    }
    bias_mask_filler {
      type: "constant"
      value: 1
    }
    num_quantum_values: 7
  }
}
layer {
  name: "fire3/relu_squeeze1x1"
  type: "ReLU"
  bottom: "fire3/squeeze1x1"
  top: "fire3/squeeze1x1"
}
layer {
  name: "fire3/expand1x1"
  type: "INQConvolution"
  bottom: "fire3/squeeze1x1"
  top: "fire3/expand1x1"
  convolution_param {
    num_output: 64
    kernel_size: 1
    weight_filler {
      type: "xavier"
    }
  }
  inq_convolution_param {
    portion: 0
    portion: 0.2
    weight_mask_filler {
      type: "constant"
      value: 1
    }
    bias_mask_filler {
      type: "constant"
      value: 1
    }
    num_quantum_values: 7
  }
}
layer {
  name: "fire3/relu_expand1x1"
  type: "ReLU"
  bottom: "fire3/expand1x1"
  top: "fire3/expand1x1"
}
layer {
  name: "fire3/expand3x3"
  type: "INQConvolution"
  bottom: "fire3/squeeze1x1"
  top: "fire3/expand3x3"
  convolution_param {
    num_output: 64
    pad: 1
    kernel_size: 3
    weight_filler {
      type: "xavier"
    }
  }
  inq_convolution_param {
    portion: 0
    portion: 0.2
    weight_mask_filler {
      type: "constant"
      value: 1
    }
    bias_mask_filler {
      type: "constant"
      value: 1
    }
    num_quantum_values: 7
  }
}
layer {
  name: "fire3/relu_expand3x3"
  type: "ReLU"
  bottom: "fire3/expand3x3"
  top: "fire3/expand3x3"
}
layer {
  name: "fire3/concat"
  type: "Concat"
  bottom: "fire3/expand1x1"
  bottom: "fire3/expand3x3"
  top: "fire3/concat"
}
layer {
  name: "pool3"
  type: "Pooling"
  bottom: "fire3/concat"
  top: "pool3"
  pooling_param {
    pool: MAX
    kernel_size: 3
    stride: 2
  }
}
layer {
  name: "fire4/squeeze1x1"
  type: "INQConvolution"
  bottom: "pool3"
  top: "fire4/squeeze1x1"
  convolution_param {
    num_output: 32
    kernel_size: 1
    weight_filler {
      type: "xavier"
    }
  }
  inq_convolution_param {
    portion: 0
    portion: 0.2
    weight_mask_filler {
      type: "constant"
      value: 1
    }
    bias_mask_filler {
      type: "constant"
      value: 1
    }
    num_quantum_values: 7
  }
}
layer {
  name: "fire4/relu_squeeze1x1"
  type: "ReLU"
  bottom: "fire4/squeeze1x1"
  top: "fire4/squeeze1x1"
}
layer {
  name: "fire4/expand1x1"
  type: "INQConvolution"
  bottom: "fire4/squeeze1x1"
  top: "fire4/expand1x1"
  convolution_param {
    num_output: 128
    kernel_size: 1
    weight_filler {
      type: "xavier"
    }
  }
  inq_convolution_param {
    portion: 0
    portion: 0.2
    weight_mask_filler {
      type: "constant"
      value: 1
    }
    bias_mask_filler {
      type: "constant"
      value: 1
    }
    num_quantum_values: 7
  }
}
layer {
  name: "fire4/relu_expand1x1"
  type: "ReLU"
  bottom: "fire4/expand1x1"
  top: "fire4/expand1x1"
}
layer {
  name: "fire4/expand3x3"
  type: "INQConvolution"
  bottom: "fire4/squeeze1x1"
  top: "fire4/expand3x3"
  convolution_param {
    num_output: 128
    pad: 1
    kernel_size: 3
    weight_filler {
      type: "xavier"
    }
  }
  inq_convolution_param {
    portion: 0
    portion: 0.2
    weight_mask_filler {
      type: "constant"
      value: 1
    }
    bias_mask_filler {
      type: "constant"
      value: 1
    }
    num_quantum_values: 7
  }
}
layer {
  name: "fire4/relu_expand3x3"
  type: "ReLU"
  bottom: "fire4/expand3x3"
  top: "fire4/expand3x3"
}
layer {
  name: "fire4/concat"
  type: "Concat"
  bottom: "fire4/expand1x1"
  bottom: "fire4/expand3x3"
  top: "fire4/concat"
}
layer {
  name: "fire5/squeeze1x1"
  type: "INQConvolution"
  bottom: "fire4/concat"
  top: "fire5/squeeze1x1"
  convolution_param {
    num_output: 32
    kernel_size: 1
    weight_filler {
      type: "xavier"
    }
  }
  inq_convolution_param {
    portion: 0
    portion: 0.2
    weight_mask_filler {
      type: "constant"
      value: 1
    }
    bias_mask_filler {
      type: "constant"
      value: 1
    }
    num_quantum_values: 7
  }
}
layer {
  name: "fire5/relu_squeeze1x1"
  type: "ReLU"
  bottom: "fire5/squeeze1x1"
  top: "fire5/squeeze1x1"
}
layer {
  name: "fire5/expand1x1"
  type: "INQConvolution"
  bottom: "fire5/squeeze1x1"
  top: "fire5/expand1x1"
  convolution_param {
    num_output: 128
    kernel_size: 1
    weight_filler {
      type: "xavier"
    }
  }
  inq_convolution_param {
    portion: 0
    portion: 0.2
    weight_mask_filler {
      type: "constant"
      value: 1
    }
    bias_mask_filler {
      type: "constant"
      value: 1
    }
    num_quantum_values: 7
  }
}
layer {
  name: "fire5/relu_expand1x1"
  type: "ReLU"
  bottom: "fire5/expand1x1"
  top: "fire5/expand1x1"
}
layer {
  name: "fire5/expand3x3"
  type: "INQConvolution"
  bottom: "fire5/squeeze1x1"
  top: "fire5/expand3x3"
  convolution_param {
    num_output: 128
    pad: 1
    kernel_size: 3
    weight_filler {
      type: "xavier"
    }
  }
  inq_convolution_param {
    portion: 0
    portion: 0.2
    weight_mask_filler {
      type: "constant"
      value: 1
    }
    bias_mask_filler {
      type: "constant"
      value: 1
    }
    num_quantum_values: 7
  }
}
layer {
  name: "fire5/relu_expand3x3"
  type: "ReLU"
  bottom: "fire5/expand3x3"
  top: "fire5/expand3x3"
}
layer {
  name: "fire5/concat"
  type: "Concat"
  bottom: "fire5/expand1x1"
  bottom: "fire5/expand3x3"
  top: "fire5/concat"
}
layer {
  name: "pool5"
  type: "Pooling"
  bottom: "fire5/concat"
  top: "pool5"
  pooling_param {
    pool: MAX
    kernel_size: 3
    stride: 2
  }
}
layer {
  name: "fire6/squeeze1x1"
  type: "INQConvolution"
  bottom: "pool5"
  top: "fire6/squeeze1x1"
  convolution_param {
    num_output: 48
    kernel_size: 1
    weight_filler {
      type: "xavier"
    }
  }
  inq_convolution_param {
    portion: 0
    portion: 0.2
    weight_mask_filler {
      type: "constant"
      value: 1
    }
    bias_mask_filler {
      type: "constant"
      value: 1
    }
    num_quantum_values: 7
  }
}
layer {
  name: "fire6/relu_squeeze1x1"
  type: "ReLU"
  bottom: "fire6/squeeze1x1"
  top: "fire6/squeeze1x1"
}
layer {
  name: "fire6/expand1x1"
  type: "INQConvolution"
  bottom: "fire6/squeeze1x1"
  top: "fire6/expand1x1"
  convolution_param {
    num_output: 192
    kernel_size: 1
    weight_filler {
      type: "xavier"
    }
  }
  inq_convolution_param {
    portion: 0
    portion: 0.2
    weight_mask_filler {
      type: "constant"
      value: 1
    }
    bias_mask_filler {
      type: "constant"
      value: 1
    }
    num_quantum_values: 7
  }
}
layer {
  name: "fire6/relu_expand1x1"
  type: "ReLU"
  bottom: "fire6/expand1x1"
  top: "fire6/expand1x1"
}
layer {
  name: "fire6/expand3x3"
  type: "INQConvolution"
  bottom: "fire6/squeeze1x1"
  top: "fire6/expand3x3"
  convolution_param {
    num_output: 192
    pad: 1
    kernel_size: 3
    weight_filler {
      type: "xavier"
    }
  }
  inq_convolution_param {
    portion: 0
    portion: 0.2
    weight_mask_filler {
      type: "constant"
      value: 1
    }
    bias_mask_filler {
      type: "constant"
      value: 1
    }
    num_quantum_values: 7
  }
}
layer {
  name: "fire6/relu_expand3x3"
  type: "ReLU"
  bottom: "fire6/expand3x3"
  top: "fire6/expand3x3"
}
layer {
  name: "fire6/concat"
  type: "Concat"
  bottom: "fire6/expand1x1"
  bottom: "fire6/expand3x3"
  top: "fire6/concat"
}
layer {
  name: "fire7/squeeze1x1"
  type: "INQConvolution"
  bottom: "fire6/concat"
  top: "fire7/squeeze1x1"
  convolution_param {
    num_output: 48
    kernel_size: 1
    weight_filler {
      type: "xavier"
    }
  }
  inq_convolution_param {
    portion: 0
    portion: 0.2
    weight_mask_filler {
      type: "constant"
      value: 1
    }
    bias_mask_filler {
      type: "constant"
      value: 1
    }
    num_quantum_values: 7
  }
}
layer {
  name: "fire7/relu_squeeze1x1"
  type: "ReLU"
  bottom: "fire7/squeeze1x1"
  top: "fire7/squeeze1x1"
}
layer {
  name: "fire7/expand1x1"
  type: "INQConvolution"
  bottom: "fire7/squeeze1x1"
  top: "fire7/expand1x1"
  convolution_param {
    num_output: 192
    kernel_size: 1
    weight_filler {
      type: "xavier"
    }
  }
  inq_convolution_param {
    portion: 0
    portion: 0.2
    weight_mask_filler {
      type: "constant"
      value: 1
    }
    bias_mask_filler {
      type: "constant"
      value: 1
    }
    num_quantum_values: 7
  }
}
layer {
  name: "fire7/relu_expand1x1"
  type: "ReLU"
  bottom: "fire7/expand1x1"
  top: "fire7/expand1x1"
}
layer {
  name: "fire7/expand3x3"
  type: "INQConvolution"
  bottom: "fire7/squeeze1x1"
  top: "fire7/expand3x3"
  convolution_param {
    num_output: 192
    pad: 1
    kernel_size: 3
    weight_filler {
      type: "xavier"
    }
  }
  inq_convolution_param {
    portion: 0
    portion: 0.2
    weight_mask_filler {
      type: "constant"
      value: 1
    }
    bias_mask_filler {
      type: "constant"
      value: 1
    }
    num_quantum_values: 7
  }
}
layer {
  name: "fire7/relu_expand3x3"
  type: "ReLU"
  bottom: "fire7/expand3x3"
  top: "fire7/expand3x3"
}
layer {
  name: "fire7/concat"
  type: "Concat"
  bottom: "fire7/expand1x1"
  bottom: "fire7/expand3x3"
  top: "fire7/concat"
}
layer {
  name: "fire8/squeeze1x1"
  type: "INQConvolution"
  bottom: "fire7/concat"
  top: "fire8/squeeze1x1"
  convolution_param {
    num_output: 64
    kernel_size: 1
    weight_filler {
      type: "xavier"
    }
  }
  inq_convolution_param {
    portion: 0
    portion: 0.2
    weight_mask_filler {
      type: "constant"
      value: 1
    }
    bias_mask_filler {
      type: "constant"
      value: 1
    }
    num_quantum_values: 7
  }
}
layer {
  name: "fire8/relu_squeeze1x1"
  type: "ReLU"
  bottom: "fire8/squeeze1x1"
  top: "fire8/squeeze1x1"
}
layer {
  name: "fire8/expand1x1"
  type: "INQConvolution"
  bottom: "fire8/squeeze1x1"
  top: "fire8/expand1x1"
  convolution_param {
    num_output: 256
    kernel_size: 1
    weight_filler {
      type: "xavier"
    }
  }
  inq_convolution_param {
    portion: 0
    portion: 0.2
    weight_mask_filler {
      type: "constant"
      value: 1
    }
    bias_mask_filler {
      type: "constant"
      value: 1
    }
    num_quantum_values: 7
  }
}
layer {
  name: "fire8/relu_expand1x1"
  type: "ReLU"
  bottom: "fire8/expand1x1"
  top: "fire8/expand1x1"
}
layer {
  name: "fire8/expand3x3"
  type: "INQConvolution"
  bottom: "fire8/squeeze1x1"
  top: "fire8/expand3x3"
  convolution_param {
    num_output: 256
    pad: 1
    kernel_size: 3
    weight_filler {
      type: "xavier"
    }
  }
  inq_convolution_param {
    portion: 0
    portion: 0.2
    weight_mask_filler {
      type: "constant"
      value: 1
    }
    bias_mask_filler {
      type: "constant"
      value: 1
    }
    num_quantum_values: 7
  }
}
layer {
  name: "fire8/relu_expand3x3"
  type: "ReLU"
  bottom: "fire8/expand3x3"
  top: "fire8/expand3x3"
}
layer {
  name: "fire8/concat"
  type: "Concat"
  bottom: "fire8/expand1x1"
  bottom: "fire8/expand3x3"
  top: "fire8/concat"
}
layer {
  name: "fire9/squeeze1x1"
  type: "INQConvolution"
  bottom: "fire8/concat"
  top: "fire9/squeeze1x1"
  convolution_param {
    num_output: 64
    kernel_size: 1
    weight_filler {
      type: "xavier"
    }
  }
  inq_convolution_param {
    portion: 0
    portion: 0.2
    weight_mask_filler {
      type: "constant"
      value: 1
    }
    bias_mask_filler {
      type: "constant"
      value: 1
    }
    num_quantum_values: 7
  }
}
layer {
  name: "fire9/relu_squeeze1x1"
  type: "ReLU"
  bottom: "fire9/squeeze1x1"
  top: "fire9/squeeze1x1"
}
layer {
  name: "fire9/expand1x1"
  type: "INQConvolution"
  bottom: "fire9/squeeze1x1"
  top: "fire9/expand1x1"
  convolution_param {
    num_output: 256
    kernel_size: 1
    weight_filler {
      type: "xavier"
    }
  }
  inq_convolution_param {
    portion: 0
    portion: 0.2
    weight_mask_filler {
      type: "constant"
      value: 1
    }
    bias_mask_filler {
      type: "constant"
      value: 1
    }
    num_quantum_values: 7
  }
}
layer {
  name: "fire9/relu_expand1x1"
  type: "ReLU"
  bottom: "fire9/expand1x1"
  top: "fire9/expand1x1"
}
layer {
  name: "fire9/expand3x3"
  type: "INQConvolution"
  bottom: "fire9/squeeze1x1"
  top: "fire9/expand3x3"
  convolution_param {
    num_output: 256
    pad: 1
    kernel_size: 3
    weight_filler {
      type: "xavier"
    }
  }
  inq_convolution_param {
    portion: 0
    portion: 0.2
    weight_mask_filler {
      type: "constant"
      value: 1
    }
    bias_mask_filler {
      type: "constant"
      value: 1
    }
    num_quantum_values: 7
  }
}
layer {
  name: "fire9/relu_expand3x3"
  type: "ReLU"
  bottom: "fire9/expand3x3"
  top: "fire9/expand3x3"
}
layer {
  name: "fire9/concat"
  type: "Concat"
  bottom: "fire9/expand1x1"
  bottom: "fire9/expand3x3"
  top: "fire9/concat"
}
layer {
  name: "drop9"
  type: "Dropout"
  bottom: "fire9/concat"
  top: "fire9/concat"
  dropout_param {
    dropout_ratio: 0.5
  }
}
layer {
  name: "conv10"
  type: "INQConvolution"
  bottom: "fire9/concat"
  top: "conv10"
  convolution_param {
    num_output: 1000
    kernel_size: 1
    weight_filler {
      type: "gaussian"
      mean: 0
      std: 0.01
    }
  }
  inq_convolution_param {
    portion: 0
    portion: 0.2
    weight_mask_filler {
      type: "constant"
      value: 1
    }
    bias_mask_filler {
      type: "constant"
      value: 1
    }
    num_quantum_values: 7
  }
}
layer {
  name: "relu_conv10"
  type: "ReLU"
  bottom: "conv10"
  top: "conv10"
}
layer {
  name: "pool10"
  type: "Pooling"
  bottom: "conv10"
  top: "pool10"
  pooling_param {
    pool: AVE
    global_pooling: true
  }
}
layer {
  name: "loss"
  type: "SoftmaxWithLoss"
  bottom: "pool10"
  bottom: "label"
  top: "loss"
}
I1026 15:43:28.842542 37958 layer_factory.hpp:77] Creating layer data
I1026 15:43:28.842742 37958 db_lmdb.cpp:35] Opened lmdb /home/data/caffe-imagenet/ilsvrc12_train_lmdb
I1026 15:43:28.842792 37958 net.cpp:84] Creating Layer data
I1026 15:43:28.842805 37958 net.cpp:387] data -> data
I1026 15:43:28.842834 37958 net.cpp:387] data -> label
I1026 15:43:28.844622 37958 data_layer.cpp:45] output data size: 128,3,227,227
I1026 15:43:29.048271 37958 net.cpp:127] Setting up data
I1026 15:43:29.048329 37958 net.cpp:136] Top shape: 128 3 227 227 (19787136)
I1026 15:43:29.048341 37958 net.cpp:136] Top shape: 128 (128)
I1026 15:43:29.048346 37958 net.cpp:144] Memory required for data: 79149056
I1026 15:43:29.048359 37958 layer_factory.hpp:77] Creating layer conv1
I1026 15:43:29.048389 37958 net.cpp:84] Creating Layer conv1
I1026 15:43:29.048413 37958 net.cpp:413] conv1 <- data
I1026 15:43:29.048435 37958 net.cpp:387] conv1 -> conv1
I1026 15:43:29.051635 37958 net.cpp:127] Setting up conv1
I1026 15:43:29.051656 37958 net.cpp:136] Top shape: 128 64 113 113 (104603648)
I1026 15:43:29.051662 37958 net.cpp:144] Memory required for data: 497563648
I1026 15:43:29.051681 37958 net.cpp:453] Found INQ layer:conv1, type: INQConvolution, layer id:1
I1026 15:43:29.051695 37958 net.cpp:453] Found INQ layer:conv1, type: INQConvolution, layer id:1
I1026 15:43:29.051707 37958 net.cpp:453] Found INQ layer:conv1, type: INQConvolution, layer id:1
I1026 15:43:29.051715 37958 net.cpp:453] Found INQ layer:conv1, type: INQConvolution, layer id:1
I1026 15:43:29.051722 37958 layer_factory.hpp:77] Creating layer relu_conv1
I1026 15:43:29.051738 37958 net.cpp:84] Creating Layer relu_conv1
I1026 15:43:29.051745 37958 net.cpp:413] relu_conv1 <- conv1
I1026 15:43:29.051753 37958 net.cpp:374] relu_conv1 -> conv1 (in-place)
I1026 15:43:29.418511 37958 net.cpp:127] Setting up relu_conv1
I1026 15:43:29.418560 37958 net.cpp:136] Top shape: 128 64 113 113 (104603648)
I1026 15:43:29.418567 37958 net.cpp:144] Memory required for data: 915978240
I1026 15:43:29.418576 37958 layer_factory.hpp:77] Creating layer pool1
I1026 15:43:29.418593 37958 net.cpp:84] Creating Layer pool1
I1026 15:43:29.418599 37958 net.cpp:413] pool1 <- conv1
I1026 15:43:29.418612 37958 net.cpp:387] pool1 -> pool1
I1026 15:43:29.418695 37958 net.cpp:127] Setting up pool1
I1026 15:43:29.418720 37958 net.cpp:136] Top shape: 128 64 56 56 (25690112)
I1026 15:43:29.418756 37958 net.cpp:144] Memory required for data: 1018738688
I1026 15:43:29.418763 37958 layer_factory.hpp:77] Creating layer fire2/squeeze1x1
I1026 15:43:29.418781 37958 net.cpp:84] Creating Layer fire2/squeeze1x1
I1026 15:43:29.418789 37958 net.cpp:413] fire2/squeeze1x1 <- pool1
I1026 15:43:29.418797 37958 net.cpp:387] fire2/squeeze1x1 -> fire2/squeeze1x1
I1026 15:43:29.420557 37958 net.cpp:127] Setting up fire2/squeeze1x1
I1026 15:43:29.420577 37958 net.cpp:136] Top shape: 128 16 56 56 (6422528)
I1026 15:43:29.420583 37958 net.cpp:144] Memory required for data: 1044428800
I1026 15:43:29.420593 37958 net.cpp:453] Found INQ layer:fire2/squeeze1x1, type: INQConvolution, layer id:4
I1026 15:43:29.420603 37958 net.cpp:453] Found INQ layer:fire2/squeeze1x1, type: INQConvolution, layer id:4
I1026 15:43:29.420610 37958 net.cpp:453] Found INQ layer:fire2/squeeze1x1, type: INQConvolution, layer id:4
I1026 15:43:29.420617 37958 net.cpp:453] Found INQ layer:fire2/squeeze1x1, type: INQConvolution, layer id:4
I1026 15:43:29.420625 37958 layer_factory.hpp:77] Creating layer fire2/relu_squeeze1x1
I1026 15:43:29.420635 37958 net.cpp:84] Creating Layer fire2/relu_squeeze1x1
I1026 15:43:29.420640 37958 net.cpp:413] fire2/relu_squeeze1x1 <- fire2/squeeze1x1
I1026 15:43:29.420648 37958 net.cpp:374] fire2/relu_squeeze1x1 -> fire2/squeeze1x1 (in-place)
I1026 15:43:29.421972 37958 net.cpp:127] Setting up fire2/relu_squeeze1x1
I1026 15:43:29.421991 37958 net.cpp:136] Top shape: 128 16 56 56 (6422528)
I1026 15:43:29.421998 37958 net.cpp:144] Memory required for data: 1070118912
I1026 15:43:29.422003 37958 layer_factory.hpp:77] Creating layer fire2/squeeze1x1_fire2/relu_squeeze1x1_0_split
I1026 15:43:29.422014 37958 net.cpp:84] Creating Layer fire2/squeeze1x1_fire2/relu_squeeze1x1_0_split
I1026 15:43:29.422019 37958 net.cpp:413] fire2/squeeze1x1_fire2/relu_squeeze1x1_0_split <- fire2/squeeze1x1
I1026 15:43:29.422029 37958 net.cpp:387] fire2/squeeze1x1_fire2/relu_squeeze1x1_0_split -> fire2/squeeze1x1_fire2/relu_squeeze1x1_0_split_0
I1026 15:43:29.422039 37958 net.cpp:387] fire2/squeeze1x1_fire2/relu_squeeze1x1_0_split -> fire2/squeeze1x1_fire2/relu_squeeze1x1_0_split_1
I1026 15:43:29.422091 37958 net.cpp:127] Setting up fire2/squeeze1x1_fire2/relu_squeeze1x1_0_split
I1026 15:43:29.422099 37958 net.cpp:136] Top shape: 128 16 56 56 (6422528)
I1026 15:43:29.422106 37958 net.cpp:136] Top shape: 128 16 56 56 (6422528)
I1026 15:43:29.422112 37958 net.cpp:144] Memory required for data: 1121499136
I1026 15:43:29.422117 37958 layer_factory.hpp:77] Creating layer fire2/expand1x1
I1026 15:43:29.422129 37958 net.cpp:84] Creating Layer fire2/expand1x1
I1026 15:43:29.422137 37958 net.cpp:413] fire2/expand1x1 <- fire2/squeeze1x1_fire2/relu_squeeze1x1_0_split_0
I1026 15:43:29.422145 37958 net.cpp:387] fire2/expand1x1 -> fire2/expand1x1
I1026 15:43:29.422463 37958 net.cpp:127] Setting up fire2/expand1x1
I1026 15:43:29.422477 37958 net.cpp:136] Top shape: 128 64 56 56 (25690112)
I1026 15:43:29.422482 37958 net.cpp:144] Memory required for data: 1224259584
I1026 15:43:29.422493 37958 net.cpp:453] Found INQ layer:fire2/expand1x1, type: INQConvolution, layer id:7
I1026 15:43:29.422503 37958 net.cpp:453] Found INQ layer:fire2/expand1x1, type: INQConvolution, layer id:7
I1026 15:43:29.422510 37958 net.cpp:453] Found INQ layer:fire2/expand1x1, type: INQConvolution, layer id:7
I1026 15:43:29.422518 37958 net.cpp:453] Found INQ layer:fire2/expand1x1, type: INQConvolution, layer id:7
I1026 15:43:29.422526 37958 layer_factory.hpp:77] Creating layer fire2/relu_expand1x1
I1026 15:43:29.422535 37958 net.cpp:84] Creating Layer fire2/relu_expand1x1
I1026 15:43:29.422541 37958 net.cpp:413] fire2/relu_expand1x1 <- fire2/expand1x1
I1026 15:43:29.422547 37958 net.cpp:374] fire2/relu_expand1x1 -> fire2/expand1x1 (in-place)
I1026 15:43:29.422734 37958 net.cpp:127] Setting up fire2/relu_expand1x1
I1026 15:43:29.422745 37958 net.cpp:136] Top shape: 128 64 56 56 (25690112)
I1026 15:43:29.422760 37958 net.cpp:144] Memory required for data: 1327020032
I1026 15:43:29.422768 37958 layer_factory.hpp:77] Creating layer fire2/expand3x3
I1026 15:43:29.422793 37958 net.cpp:84] Creating Layer fire2/expand3x3
I1026 15:43:29.422799 37958 net.cpp:413] fire2/expand3x3 <- fire2/squeeze1x1_fire2/relu_squeeze1x1_0_split_1
I1026 15:43:29.422807 37958 net.cpp:387] fire2/expand3x3 -> fire2/expand3x3
I1026 15:43:29.423207 37958 net.cpp:127] Setting up fire2/expand3x3
I1026 15:43:29.423219 37958 net.cpp:136] Top shape: 128 64 56 56 (25690112)
I1026 15:43:29.423224 37958 net.cpp:144] Memory required for data: 1429780480
I1026 15:43:29.423231 37958 net.cpp:453] Found INQ layer:fire2/expand3x3, type: INQConvolution, layer id:9
I1026 15:43:29.423238 37958 net.cpp:453] Found INQ layer:fire2/expand3x3, type: INQConvolution, layer id:9
I1026 15:43:29.423243 37958 net.cpp:453] Found INQ layer:fire2/expand3x3, type: INQConvolution, layer id:9
I1026 15:43:29.423249 37958 net.cpp:453] Found INQ layer:fire2/expand3x3, type: INQConvolution, layer id:9
I1026 15:43:29.423254 37958 layer_factory.hpp:77] Creating layer fire2/relu_expand3x3
I1026 15:43:29.423264 37958 net.cpp:84] Creating Layer fire2/relu_expand3x3
I1026 15:43:29.423271 37958 net.cpp:413] fire2/relu_expand3x3 <- fire2/expand3x3
I1026 15:43:29.423279 37958 net.cpp:374] fire2/relu_expand3x3 -> fire2/expand3x3 (in-place)
I1026 15:43:29.423497 37958 net.cpp:127] Setting up fire2/relu_expand3x3
I1026 15:43:29.423511 37958 net.cpp:136] Top shape: 128 64 56 56 (25690112)
I1026 15:43:29.423516 37958 net.cpp:144] Memory required for data: 1532540928
I1026 15:43:29.423522 37958 layer_factory.hpp:77] Creating layer fire2/concat
I1026 15:43:29.423533 37958 net.cpp:84] Creating Layer fire2/concat
I1026 15:43:29.423540 37958 net.cpp:413] fire2/concat <- fire2/expand1x1
I1026 15:43:29.423547 37958 net.cpp:413] fire2/concat <- fire2/expand3x3
I1026 15:43:29.423557 37958 net.cpp:387] fire2/concat -> fire2/concat
I1026 15:43:29.423588 37958 net.cpp:127] Setting up fire2/concat
I1026 15:43:29.423597 37958 net.cpp:136] Top shape: 128 128 56 56 (51380224)
I1026 15:43:29.423602 37958 net.cpp:144] Memory required for data: 1738061824
I1026 15:43:29.423607 37958 layer_factory.hpp:77] Creating layer fire3/squeeze1x1
I1026 15:43:29.423624 37958 net.cpp:84] Creating Layer fire3/squeeze1x1
I1026 15:43:29.423629 37958 net.cpp:413] fire3/squeeze1x1 <- fire2/concat
I1026 15:43:29.423637 37958 net.cpp:387] fire3/squeeze1x1 -> fire3/squeeze1x1
I1026 15:43:29.423976 37958 net.cpp:127] Setting up fire3/squeeze1x1
I1026 15:43:29.423987 37958 net.cpp:136] Top shape: 128 16 56 56 (6422528)
I1026 15:43:29.423992 37958 net.cpp:144] Memory required for data: 1763751936
I1026 15:43:29.424001 37958 net.cpp:453] Found INQ layer:fire3/squeeze1x1, type: INQConvolution, layer id:12
I1026 15:43:29.424011 37958 net.cpp:453] Found INQ layer:fire3/squeeze1x1, type: INQConvolution, layer id:12
I1026 15:43:29.424017 37958 net.cpp:453] Found INQ layer:fire3/squeeze1x1, type: INQConvolution, layer id:12
I1026 15:43:29.424023 37958 net.cpp:453] Found INQ layer:fire3/squeeze1x1, type: INQConvolution, layer id:12
I1026 15:43:29.424029 37958 layer_factory.hpp:77] Creating layer fire3/relu_squeeze1x1
I1026 15:43:29.424037 37958 net.cpp:84] Creating Layer fire3/relu_squeeze1x1
I1026 15:43:29.424042 37958 net.cpp:413] fire3/relu_squeeze1x1 <- fire3/squeeze1x1
I1026 15:43:29.424051 37958 net.cpp:374] fire3/relu_squeeze1x1 -> fire3/squeeze1x1 (in-place)
I1026 15:43:29.425392 37958 net.cpp:127] Setting up fire3/relu_squeeze1x1
I1026 15:43:29.425410 37958 net.cpp:136] Top shape: 128 16 56 56 (6422528)
I1026 15:43:29.425416 37958 net.cpp:144] Memory required for data: 1789442048
I1026 15:43:29.425422 37958 layer_factory.hpp:77] Creating layer fire3/squeeze1x1_fire3/relu_squeeze1x1_0_split
I1026 15:43:29.425431 37958 net.cpp:84] Creating Layer fire3/squeeze1x1_fire3/relu_squeeze1x1_0_split
I1026 15:43:29.425436 37958 net.cpp:413] fire3/squeeze1x1_fire3/relu_squeeze1x1_0_split <- fire3/squeeze1x1
I1026 15:43:29.425444 37958 net.cpp:387] fire3/squeeze1x1_fire3/relu_squeeze1x1_0_split -> fire3/squeeze1x1_fire3/relu_squeeze1x1_0_split_0
I1026 15:43:29.425473 37958 net.cpp:387] fire3/squeeze1x1_fire3/relu_squeeze1x1_0_split -> fire3/squeeze1x1_fire3/relu_squeeze1x1_0_split_1
I1026 15:43:29.425523 37958 net.cpp:127] Setting up fire3/squeeze1x1_fire3/relu_squeeze1x1_0_split
I1026 15:43:29.425534 37958 net.cpp:136] Top shape: 128 16 56 56 (6422528)
I1026 15:43:29.425539 37958 net.cpp:136] Top shape: 128 16 56 56 (6422528)
I1026 15:43:29.425544 37958 net.cpp:144] Memory required for data: 1840822272
I1026 15:43:29.425549 37958 layer_factory.hpp:77] Creating layer fire3/expand1x1
I1026 15:43:29.425565 37958 net.cpp:84] Creating Layer fire3/expand1x1
I1026 15:43:29.425573 37958 net.cpp:413] fire3/expand1x1 <- fire3/squeeze1x1_fire3/relu_squeeze1x1_0_split_0
I1026 15:43:29.425580 37958 net.cpp:387] fire3/expand1x1 -> fire3/expand1x1
I1026 15:43:29.425900 37958 net.cpp:127] Setting up fire3/expand1x1
I1026 15:43:29.425911 37958 net.cpp:136] Top shape: 128 64 56 56 (25690112)
I1026 15:43:29.425916 37958 net.cpp:144] Memory required for data: 1943582720
I1026 15:43:29.425923 37958 net.cpp:453] Found INQ layer:fire3/expand1x1, type: INQConvolution, layer id:15
I1026 15:43:29.425930 37958 net.cpp:453] Found INQ layer:fire3/expand1x1, type: INQConvolution, layer id:15
I1026 15:43:29.425935 37958 net.cpp:453] Found INQ layer:fire3/expand1x1, type: INQConvolution, layer id:15
I1026 15:43:29.425940 37958 net.cpp:453] Found INQ layer:fire3/expand1x1, type: INQConvolution, layer id:15
I1026 15:43:29.425946 37958 layer_factory.hpp:77] Creating layer fire3/relu_expand1x1
I1026 15:43:29.425957 37958 net.cpp:84] Creating Layer fire3/relu_expand1x1
I1026 15:43:29.425966 37958 net.cpp:413] fire3/relu_expand1x1 <- fire3/expand1x1
I1026 15:43:29.425972 37958 net.cpp:374] fire3/relu_expand1x1 -> fire3/expand1x1 (in-place)
I1026 15:43:29.426182 37958 net.cpp:127] Setting up fire3/relu_expand1x1
I1026 15:43:29.426193 37958 net.cpp:136] Top shape: 128 64 56 56 (25690112)
I1026 15:43:29.426198 37958 net.cpp:144] Memory required for data: 2046343168
I1026 15:43:29.426204 37958 layer_factory.hpp:77] Creating layer fire3/expand3x3
I1026 15:43:29.426218 37958 net.cpp:84] Creating Layer fire3/expand3x3
I1026 15:43:29.426226 37958 net.cpp:413] fire3/expand3x3 <- fire3/squeeze1x1_fire3/relu_squeeze1x1_0_split_1
I1026 15:43:29.426234 37958 net.cpp:387] fire3/expand3x3 -> fire3/expand3x3
I1026 15:43:29.426643 37958 net.cpp:127] Setting up fire3/expand3x3
I1026 15:43:29.426656 37958 net.cpp:136] Top shape: 128 64 56 56 (25690112)
I1026 15:43:29.426661 37958 net.cpp:144] Memory required for data: 2149103616
I1026 15:43:29.426672 37958 net.cpp:453] Found INQ layer:fire3/expand3x3, type: INQConvolution, layer id:17
I1026 15:43:29.426681 37958 net.cpp:453] Found INQ layer:fire3/expand3x3, type: INQConvolution, layer id:17
I1026 15:43:29.426687 37958 net.cpp:453] Found INQ layer:fire3/expand3x3, type: INQConvolution, layer id:17
I1026 15:43:29.426693 37958 net.cpp:453] Found INQ layer:fire3/expand3x3, type: INQConvolution, layer id:17
I1026 15:43:29.426699 37958 layer_factory.hpp:77] Creating layer fire3/relu_expand3x3
I1026 15:43:29.426708 37958 net.cpp:84] Creating Layer fire3/relu_expand3x3
I1026 15:43:29.426715 37958 net.cpp:413] fire3/relu_expand3x3 <- fire3/expand3x3
I1026 15:43:29.426724 37958 net.cpp:374] fire3/relu_expand3x3 -> fire3/expand3x3 (in-place)
I1026 15:43:29.426929 37958 net.cpp:127] Setting up fire3/relu_expand3x3
I1026 15:43:29.426941 37958 net.cpp:136] Top shape: 128 64 56 56 (25690112)
I1026 15:43:29.426946 37958 net.cpp:144] Memory required for data: 2251864064
I1026 15:43:29.426952 37958 layer_factory.hpp:77] Creating layer fire3/concat
I1026 15:43:29.426962 37958 net.cpp:84] Creating Layer fire3/concat
I1026 15:43:29.426970 37958 net.cpp:413] fire3/concat <- fire3/expand1x1
I1026 15:43:29.426976 37958 net.cpp:413] fire3/concat <- fire3/expand3x3
I1026 15:43:29.426985 37958 net.cpp:387] fire3/concat -> fire3/concat
I1026 15:43:29.427017 37958 net.cpp:127] Setting up fire3/concat
I1026 15:43:29.427032 37958 net.cpp:136] Top shape: 128 128 56 56 (51380224)
I1026 15:43:29.427047 37958 net.cpp:144] Memory required for data: 2457384960
I1026 15:43:29.427052 37958 layer_factory.hpp:77] Creating layer pool3
I1026 15:43:29.427060 37958 net.cpp:84] Creating Layer pool3
I1026 15:43:29.427065 37958 net.cpp:413] pool3 <- fire3/concat
I1026 15:43:29.427074 37958 net.cpp:387] pool3 -> pool3
I1026 15:43:29.427121 37958 net.cpp:127] Setting up pool3
I1026 15:43:29.427131 37958 net.cpp:136] Top shape: 128 128 28 28 (12845056)
I1026 15:43:29.427139 37958 net.cpp:144] Memory required for data: 2508765184
I1026 15:43:29.427145 37958 layer_factory.hpp:77] Creating layer fire4/squeeze1x1
I1026 15:43:29.427168 37958 net.cpp:84] Creating Layer fire4/squeeze1x1
I1026 15:43:29.427176 37958 net.cpp:413] fire4/squeeze1x1 <- pool3
I1026 15:43:29.427184 37958 net.cpp:387] fire4/squeeze1x1 -> fire4/squeeze1x1
I1026 15:43:29.427544 37958 net.cpp:127] Setting up fire4/squeeze1x1
I1026 15:43:29.427556 37958 net.cpp:136] Top shape: 128 32 28 28 (3211264)
I1026 15:43:29.427561 37958 net.cpp:144] Memory required for data: 2521610240
I1026 15:43:29.427568 37958 net.cpp:453] Found INQ layer:fire4/squeeze1x1, type: INQConvolution, layer id:21
I1026 15:43:29.427575 37958 net.cpp:453] Found INQ layer:fire4/squeeze1x1, type: INQConvolution, layer id:21
I1026 15:43:29.427580 37958 net.cpp:453] Found INQ layer:fire4/squeeze1x1, type: INQConvolution, layer id:21
I1026 15:43:29.427587 37958 net.cpp:453] Found INQ layer:fire4/squeeze1x1, type: INQConvolution, layer id:21
I1026 15:43:29.427593 37958 layer_factory.hpp:77] Creating layer fire4/relu_squeeze1x1
I1026 15:43:29.427604 37958 net.cpp:84] Creating Layer fire4/relu_squeeze1x1
I1026 15:43:29.427610 37958 net.cpp:413] fire4/relu_squeeze1x1 <- fire4/squeeze1x1
I1026 15:43:29.427618 37958 net.cpp:374] fire4/relu_squeeze1x1 -> fire4/squeeze1x1 (in-place)
I1026 15:43:29.427829 37958 net.cpp:127] Setting up fire4/relu_squeeze1x1
I1026 15:43:29.427844 37958 net.cpp:136] Top shape: 128 32 28 28 (3211264)
I1026 15:43:29.427850 37958 net.cpp:144] Memory required for data: 2534455296
I1026 15:43:29.427856 37958 layer_factory.hpp:77] Creating layer fire4/squeeze1x1_fire4/relu_squeeze1x1_0_split
I1026 15:43:29.427865 37958 net.cpp:84] Creating Layer fire4/squeeze1x1_fire4/relu_squeeze1x1_0_split
I1026 15:43:29.427870 37958 net.cpp:413] fire4/squeeze1x1_fire4/relu_squeeze1x1_0_split <- fire4/squeeze1x1
I1026 15:43:29.427878 37958 net.cpp:387] fire4/squeeze1x1_fire4/relu_squeeze1x1_0_split -> fire4/squeeze1x1_fire4/relu_squeeze1x1_0_split_0
I1026 15:43:29.427889 37958 net.cpp:387] fire4/squeeze1x1_fire4/relu_squeeze1x1_0_split -> fire4/squeeze1x1_fire4/relu_squeeze1x1_0_split_1
I1026 15:43:29.427938 37958 net.cpp:127] Setting up fire4/squeeze1x1_fire4/relu_squeeze1x1_0_split
I1026 15:43:29.427947 37958 net.cpp:136] Top shape: 128 32 28 28 (3211264)
I1026 15:43:29.427954 37958 net.cpp:136] Top shape: 128 32 28 28 (3211264)
I1026 15:43:29.427959 37958 net.cpp:144] Memory required for data: 2560145408
I1026 15:43:29.427965 37958 layer_factory.hpp:77] Creating layer fire4/expand1x1
I1026 15:43:29.427979 37958 net.cpp:84] Creating Layer fire4/expand1x1
I1026 15:43:29.427984 37958 net.cpp:413] fire4/expand1x1 <- fire4/squeeze1x1_fire4/relu_squeeze1x1_0_split_0
I1026 15:43:29.427994 37958 net.cpp:387] fire4/expand1x1 -> fire4/expand1x1
I1026 15:43:29.428338 37958 net.cpp:127] Setting up fire4/expand1x1
I1026 15:43:29.428349 37958 net.cpp:136] Top shape: 128 128 28 28 (12845056)
I1026 15:43:29.428354 37958 net.cpp:144] Memory required for data: 2611525632
I1026 15:43:29.428367 37958 net.cpp:453] Found INQ layer:fire4/expand1x1, type: INQConvolution, layer id:24
I1026 15:43:29.428376 37958 net.cpp:453] Found INQ layer:fire4/expand1x1, type: INQConvolution, layer id:24
I1026 15:43:29.428382 37958 net.cpp:453] Found INQ layer:fire4/expand1x1, type: INQConvolution, layer id:24
I1026 15:43:29.428388 37958 net.cpp:453] Found INQ layer:fire4/expand1x1, type: INQConvolution, layer id:24
I1026 15:43:29.428393 37958 layer_factory.hpp:77] Creating layer fire4/relu_expand1x1
I1026 15:43:29.428411 37958 net.cpp:84] Creating Layer fire4/relu_expand1x1
I1026 15:43:29.428428 37958 net.cpp:413] fire4/relu_expand1x1 <- fire4/expand1x1
I1026 15:43:29.428437 37958 net.cpp:374] fire4/relu_expand1x1 -> fire4/expand1x1 (in-place)
I1026 15:43:29.429786 37958 net.cpp:127] Setting up fire4/relu_expand1x1
I1026 15:43:29.429805 37958 net.cpp:136] Top shape: 128 128 28 28 (12845056)
I1026 15:43:29.429811 37958 net.cpp:144] Memory required for data: 2662905856
I1026 15:43:29.429816 37958 layer_factory.hpp:77] Creating layer fire4/expand3x3
I1026 15:43:29.429831 37958 net.cpp:84] Creating Layer fire4/expand3x3
I1026 15:43:29.429837 37958 net.cpp:413] fire4/expand3x3 <- fire4/squeeze1x1_fire4/relu_squeeze1x1_0_split_1
I1026 15:43:29.429850 37958 net.cpp:387] fire4/expand3x3 -> fire4/expand3x3
I1026 15:43:29.431815 37958 net.cpp:127] Setting up fire4/expand3x3
I1026 15:43:29.431834 37958 net.cpp:136] Top shape: 128 128 28 28 (12845056)
I1026 15:43:29.431840 37958 net.cpp:144] Memory required for data: 2714286080
I1026 15:43:29.431848 37958 net.cpp:453] Found INQ layer:fire4/expand3x3, type: INQConvolution, layer id:26
I1026 15:43:29.431854 37958 net.cpp:453] Found INQ layer:fire4/expand3x3, type: INQConvolution, layer id:26
I1026 15:43:29.431859 37958 net.cpp:453] Found INQ layer:fire4/expand3x3, type: INQConvolution, layer id:26
I1026 15:43:29.431864 37958 net.cpp:453] Found INQ layer:fire4/expand3x3, type: INQConvolution, layer id:26
I1026 15:43:29.431869 37958 layer_factory.hpp:77] Creating layer fire4/relu_expand3x3
I1026 15:43:29.431879 37958 net.cpp:84] Creating Layer fire4/relu_expand3x3
I1026 15:43:29.431885 37958 net.cpp:413] fire4/relu_expand3x3 <- fire4/expand3x3
I1026 15:43:29.431892 37958 net.cpp:374] fire4/relu_expand3x3 -> fire4/expand3x3 (in-place)
I1026 15:43:29.432109 37958 net.cpp:127] Setting up fire4/relu_expand3x3
I1026 15:43:29.432121 37958 net.cpp:136] Top shape: 128 128 28 28 (12845056)
I1026 15:43:29.432127 37958 net.cpp:144] Memory required for data: 2765666304
I1026 15:43:29.432134 37958 layer_factory.hpp:77] Creating layer fire4/concat
I1026 15:43:29.432144 37958 net.cpp:84] Creating Layer fire4/concat
I1026 15:43:29.432149 37958 net.cpp:413] fire4/concat <- fire4/expand1x1
I1026 15:43:29.432155 37958 net.cpp:413] fire4/concat <- fire4/expand3x3
I1026 15:43:29.432163 37958 net.cpp:387] fire4/concat -> fire4/concat
I1026 15:43:29.432194 37958 net.cpp:127] Setting up fire4/concat
I1026 15:43:29.432204 37958 net.cpp:136] Top shape: 128 256 28 28 (25690112)
I1026 15:43:29.432209 37958 net.cpp:144] Memory required for data: 2868426752
I1026 15:43:29.432214 37958 layer_factory.hpp:77] Creating layer fire5/squeeze1x1
I1026 15:43:29.432227 37958 net.cpp:84] Creating Layer fire5/squeeze1x1
I1026 15:43:29.432235 37958 net.cpp:413] fire5/squeeze1x1 <- fire4/concat
I1026 15:43:29.432242 37958 net.cpp:387] fire5/squeeze1x1 -> fire5/squeeze1x1
I1026 15:43:29.432639 37958 net.cpp:127] Setting up fire5/squeeze1x1
I1026 15:43:29.432651 37958 net.cpp:136] Top shape: 128 32 28 28 (3211264)
I1026 15:43:29.432657 37958 net.cpp:144] Memory required for data: 2881271808
I1026 15:43:29.432663 37958 net.cpp:453] Found INQ layer:fire5/squeeze1x1, type: INQConvolution, layer id:29
I1026 15:43:29.432669 37958 net.cpp:453] Found INQ layer:fire5/squeeze1x1, type: INQConvolution, layer id:29
I1026 15:43:29.432675 37958 net.cpp:453] Found INQ layer:fire5/squeeze1x1, type: INQConvolution, layer id:29
I1026 15:43:29.432680 37958 net.cpp:453] Found INQ layer:fire5/squeeze1x1, type: INQConvolution, layer id:29
I1026 15:43:29.432687 37958 layer_factory.hpp:77] Creating layer fire5/relu_squeeze1x1
I1026 15:43:29.432695 37958 net.cpp:84] Creating Layer fire5/relu_squeeze1x1
I1026 15:43:29.432704 37958 net.cpp:413] fire5/relu_squeeze1x1 <- fire5/squeeze1x1
I1026 15:43:29.432714 37958 net.cpp:374] fire5/relu_squeeze1x1 -> fire5/squeeze1x1 (in-place)
I1026 15:43:29.432947 37958 net.cpp:127] Setting up fire5/relu_squeeze1x1
I1026 15:43:29.432960 37958 net.cpp:136] Top shape: 128 32 28 28 (3211264)
I1026 15:43:29.432978 37958 net.cpp:144] Memory required for data: 2894116864
I1026 15:43:29.432998 37958 layer_factory.hpp:77] Creating layer fire5/squeeze1x1_fire5/relu_squeeze1x1_0_split
I1026 15:43:29.433012 37958 net.cpp:84] Creating Layer fire5/squeeze1x1_fire5/relu_squeeze1x1_0_split
I1026 15:43:29.433018 37958 net.cpp:413] fire5/squeeze1x1_fire5/relu_squeeze1x1_0_split <- fire5/squeeze1x1
I1026 15:43:29.433027 37958 net.cpp:387] fire5/squeeze1x1_fire5/relu_squeeze1x1_0_split -> fire5/squeeze1x1_fire5/relu_squeeze1x1_0_split_0
I1026 15:43:29.433035 37958 net.cpp:387] fire5/squeeze1x1_fire5/relu_squeeze1x1_0_split -> fire5/squeeze1x1_fire5/relu_squeeze1x1_0_split_1
I1026 15:43:29.433087 37958 net.cpp:127] Setting up fire5/squeeze1x1_fire5/relu_squeeze1x1_0_split
I1026 15:43:29.433097 37958 net.cpp:136] Top shape: 128 32 28 28 (3211264)
I1026 15:43:29.433104 37958 net.cpp:136] Top shape: 128 32 28 28 (3211264)
I1026 15:43:29.433110 37958 net.cpp:144] Memory required for data: 2919806976
I1026 15:43:29.433115 37958 layer_factory.hpp:77] Creating layer fire5/expand1x1
I1026 15:43:29.433130 37958 net.cpp:84] Creating Layer fire5/expand1x1
I1026 15:43:29.433138 37958 net.cpp:413] fire5/expand1x1 <- fire5/squeeze1x1_fire5/relu_squeeze1x1_0_split_0
I1026 15:43:29.433148 37958 net.cpp:387] fire5/expand1x1 -> fire5/expand1x1
I1026 15:43:29.433507 37958 net.cpp:127] Setting up fire5/expand1x1
I1026 15:43:29.433521 37958 net.cpp:136] Top shape: 128 128 28 28 (12845056)
I1026 15:43:29.433526 37958 net.cpp:144] Memory required for data: 2971187200
I1026 15:43:29.433532 37958 net.cpp:453] Found INQ layer:fire5/expand1x1, type: INQConvolution, layer id:32
I1026 15:43:29.433539 37958 net.cpp:453] Found INQ layer:fire5/expand1x1, type: INQConvolution, layer id:32
I1026 15:43:29.433544 37958 net.cpp:453] Found INQ layer:fire5/expand1x1, type: INQConvolution, layer id:32
I1026 15:43:29.433549 37958 net.cpp:453] Found INQ layer:fire5/expand1x1, type: INQConvolution, layer id:32
I1026 15:43:29.433554 37958 layer_factory.hpp:77] Creating layer fire5/relu_expand1x1
I1026 15:43:29.433563 37958 net.cpp:84] Creating Layer fire5/relu_expand1x1
I1026 15:43:29.433568 37958 net.cpp:413] fire5/relu_expand1x1 <- fire5/expand1x1
I1026 15:43:29.433578 37958 net.cpp:374] fire5/relu_expand1x1 -> fire5/expand1x1 (in-place)
I1026 15:43:29.433794 37958 net.cpp:127] Setting up fire5/relu_expand1x1
I1026 15:43:29.433806 37958 net.cpp:136] Top shape: 128 128 28 28 (12845056)
I1026 15:43:29.433814 37958 net.cpp:144] Memory required for data: 3022567424
I1026 15:43:29.433820 37958 layer_factory.hpp:77] Creating layer fire5/expand3x3
I1026 15:43:29.433832 37958 net.cpp:84] Creating Layer fire5/expand3x3
I1026 15:43:29.433840 37958 net.cpp:413] fire5/expand3x3 <- fire5/squeeze1x1_fire5/relu_squeeze1x1_0_split_1
I1026 15:43:29.433851 37958 net.cpp:387] fire5/expand3x3 -> fire5/expand3x3
I1026 15:43:29.434473 37958 net.cpp:127] Setting up fire5/expand3x3
I1026 15:43:29.434485 37958 net.cpp:136] Top shape: 128 128 28 28 (12845056)
I1026 15:43:29.434490 37958 net.cpp:144] Memory required for data: 3073947648
I1026 15:43:29.434496 37958 net.cpp:453] Found INQ layer:fire5/expand3x3, type: INQConvolution, layer id:34
I1026 15:43:29.434502 37958 net.cpp:453] Found INQ layer:fire5/expand3x3, type: INQConvolution, layer id:34
I1026 15:43:29.434509 37958 net.cpp:453] Found INQ layer:fire5/expand3x3, type: INQConvolution, layer id:34
I1026 15:43:29.434514 37958 net.cpp:453] Found INQ layer:fire5/expand3x3, type: INQConvolution, layer id:34
I1026 15:43:29.434520 37958 layer_factory.hpp:77] Creating layer fire5/relu_expand3x3
I1026 15:43:29.434531 37958 net.cpp:84] Creating Layer fire5/relu_expand3x3
I1026 15:43:29.434537 37958 net.cpp:413] fire5/relu_expand3x3 <- fire5/expand3x3
I1026 15:43:29.434545 37958 net.cpp:374] fire5/relu_expand3x3 -> fire5/expand3x3 (in-place)
I1026 15:43:29.437345 37958 net.cpp:127] Setting up fire5/relu_expand3x3
I1026 15:43:29.437366 37958 net.cpp:136] Top shape: 128 128 28 28 (12845056)
I1026 15:43:29.437371 37958 net.cpp:144] Memory required for data: 3125327872
I1026 15:43:29.437381 37958 layer_factory.hpp:77] Creating layer fire5/concat
I1026 15:43:29.437404 37958 net.cpp:84] Creating Layer fire5/concat
I1026 15:43:29.437412 37958 net.cpp:413] fire5/concat <- fire5/expand1x1
I1026 15:43:29.437422 37958 net.cpp:413] fire5/concat <- fire5/expand3x3
I1026 15:43:29.437428 37958 net.cpp:387] fire5/concat -> fire5/concat
I1026 15:43:29.437465 37958 net.cpp:127] Setting up fire5/concat
I1026 15:43:29.437474 37958 net.cpp:136] Top shape: 128 256 28 28 (25690112)
I1026 15:43:29.437479 37958 net.cpp:144] Memory required for data: 3228088320
I1026 15:43:29.437485 37958 layer_factory.hpp:77] Creating layer pool5
I1026 15:43:29.437497 37958 net.cpp:84] Creating Layer pool5
I1026 15:43:29.437503 37958 net.cpp:413] pool5 <- fire5/concat
I1026 15:43:29.437510 37958 net.cpp:387] pool5 -> pool5
I1026 15:43:29.437554 37958 net.cpp:127] Setting up pool5
I1026 15:43:29.437563 37958 net.cpp:136] Top shape: 128 256 14 14 (6422528)
I1026 15:43:29.437569 37958 net.cpp:144] Memory required for data: 3253778432
I1026 15:43:29.437574 37958 layer_factory.hpp:77] Creating layer fire6/squeeze1x1
I1026 15:43:29.437588 37958 net.cpp:84] Creating Layer fire6/squeeze1x1
I1026 15:43:29.437594 37958 net.cpp:413] fire6/squeeze1x1 <- pool5
I1026 15:43:29.437603 37958 net.cpp:387] fire6/squeeze1x1 -> fire6/squeeze1x1
I1026 15:43:29.438036 37958 net.cpp:127] Setting up fire6/squeeze1x1
I1026 15:43:29.438050 37958 net.cpp:136] Top shape: 128 48 14 14 (1204224)
I1026 15:43:29.438055 37958 net.cpp:144] Memory required for data: 3258595328
I1026 15:43:29.438061 37958 net.cpp:453] Found INQ layer:fire6/squeeze1x1, type: INQConvolution, layer id:38
I1026 15:43:29.438067 37958 net.cpp:453] Found INQ layer:fire6/squeeze1x1, type: INQConvolution, layer id:38
I1026 15:43:29.438073 37958 net.cpp:453] Found INQ layer:fire6/squeeze1x1, type: INQConvolution, layer id:38
I1026 15:43:29.438078 37958 net.cpp:453] Found INQ layer:fire6/squeeze1x1, type: INQConvolution, layer id:38
I1026 15:43:29.438084 37958 layer_factory.hpp:77] Creating layer fire6/relu_squeeze1x1
I1026 15:43:29.438092 37958 net.cpp:84] Creating Layer fire6/relu_squeeze1x1
I1026 15:43:29.438097 37958 net.cpp:413] fire6/relu_squeeze1x1 <- fire6/squeeze1x1
I1026 15:43:29.438103 37958 net.cpp:374] fire6/relu_squeeze1x1 -> fire6/squeeze1x1 (in-place)
I1026 15:43:29.438321 37958 net.cpp:127] Setting up fire6/relu_squeeze1x1
I1026 15:43:29.438338 37958 net.cpp:136] Top shape: 128 48 14 14 (1204224)
I1026 15:43:29.438345 37958 net.cpp:144] Memory required for data: 3263412224
I1026 15:43:29.438352 37958 layer_factory.hpp:77] Creating layer fire6/squeeze1x1_fire6/relu_squeeze1x1_0_split
I1026 15:43:29.438360 37958 net.cpp:84] Creating Layer fire6/squeeze1x1_fire6/relu_squeeze1x1_0_split
I1026 15:43:29.438366 37958 net.cpp:413] fire6/squeeze1x1_fire6/relu_squeeze1x1_0_split <- fire6/squeeze1x1
I1026 15:43:29.438374 37958 net.cpp:387] fire6/squeeze1x1_fire6/relu_squeeze1x1_0_split -> fire6/squeeze1x1_fire6/relu_squeeze1x1_0_split_0
I1026 15:43:29.438383 37958 net.cpp:387] fire6/squeeze1x1_fire6/relu_squeeze1x1_0_split -> fire6/squeeze1x1_fire6/relu_squeeze1x1_0_split_1
I1026 15:43:29.438444 37958 net.cpp:127] Setting up fire6/squeeze1x1_fire6/relu_squeeze1x1_0_split
I1026 15:43:29.438454 37958 net.cpp:136] Top shape: 128 48 14 14 (1204224)
I1026 15:43:29.438462 37958 net.cpp:136] Top shape: 128 48 14 14 (1204224)
I1026 15:43:29.438465 37958 net.cpp:144] Memory required for data: 3273046016
I1026 15:43:29.438470 37958 layer_factory.hpp:77] Creating layer fire6/expand1x1
I1026 15:43:29.438484 37958 net.cpp:84] Creating Layer fire6/expand1x1
I1026 15:43:29.438491 37958 net.cpp:413] fire6/expand1x1 <- fire6/squeeze1x1_fire6/relu_squeeze1x1_0_split_0
I1026 15:43:29.438498 37958 net.cpp:387] fire6/expand1x1 -> fire6/expand1x1
I1026 15:43:29.438896 37958 net.cpp:127] Setting up fire6/expand1x1
I1026 15:43:29.438907 37958 net.cpp:136] Top shape: 128 192 14 14 (4816896)
I1026 15:43:29.438912 37958 net.cpp:144] Memory required for data: 3292313600
I1026 15:43:29.438925 37958 net.cpp:453] Found INQ layer:fire6/expand1x1, type: INQConvolution, layer id:41
I1026 15:43:29.438942 37958 net.cpp:453] Found INQ layer:fire6/expand1x1, type: INQConvolution, layer id:41
I1026 15:43:29.438951 37958 net.cpp:453] Found INQ layer:fire6/expand1x1, type: INQConvolution, layer id:41
I1026 15:43:29.438957 37958 net.cpp:453] Found INQ layer:fire6/expand1x1, type: INQConvolution, layer id:41
I1026 15:43:29.438962 37958 layer_factory.hpp:77] Creating layer fire6/relu_expand1x1
I1026 15:43:29.438971 37958 net.cpp:84] Creating Layer fire6/relu_expand1x1
I1026 15:43:29.438976 37958 net.cpp:413] fire6/relu_expand1x1 <- fire6/expand1x1
I1026 15:43:29.438987 37958 net.cpp:374] fire6/relu_expand1x1 -> fire6/expand1x1 (in-place)
I1026 15:43:29.439196 37958 net.cpp:127] Setting up fire6/relu_expand1x1
I1026 15:43:29.439208 37958 net.cpp:136] Top shape: 128 192 14 14 (4816896)
I1026 15:43:29.439213 37958 net.cpp:144] Memory required for data: 3311581184
I1026 15:43:29.439219 37958 layer_factory.hpp:77] Creating layer fire6/expand3x3
I1026 15:43:29.439231 37958 net.cpp:84] Creating Layer fire6/expand3x3
I1026 15:43:29.439237 37958 net.cpp:413] fire6/expand3x3 <- fire6/squeeze1x1_fire6/relu_squeeze1x1_0_split_1
I1026 15:43:29.439249 37958 net.cpp:387] fire6/expand3x3 -> fire6/expand3x3
I1026 15:43:29.447301 37958 net.cpp:127] Setting up fire6/expand3x3
I1026 15:43:29.447325 37958 net.cpp:136] Top shape: 128 192 14 14 (4816896)
I1026 15:43:29.447331 37958 net.cpp:144] Memory required for data: 3330848768
I1026 15:43:29.447338 37958 net.cpp:453] Found INQ layer:fire6/expand3x3, type: INQConvolution, layer id:43
I1026 15:43:29.447345 37958 net.cpp:453] Found INQ layer:fire6/expand3x3, type: INQConvolution, layer id:43
I1026 15:43:29.447351 37958 net.cpp:453] Found INQ layer:fire6/expand3x3, type: INQConvolution, layer id:43
I1026 15:43:29.447356 37958 net.cpp:453] Found INQ layer:fire6/expand3x3, type: INQConvolution, layer id:43
I1026 15:43:29.447361 37958 layer_factory.hpp:77] Creating layer fire6/relu_expand3x3
I1026 15:43:29.447373 37958 net.cpp:84] Creating Layer fire6/relu_expand3x3
I1026 15:43:29.447381 37958 net.cpp:413] fire6/relu_expand3x3 <- fire6/expand3x3
I1026 15:43:29.447388 37958 net.cpp:374] fire6/relu_expand3x3 -> fire6/expand3x3 (in-place)
I1026 15:43:29.447618 37958 net.cpp:127] Setting up fire6/relu_expand3x3
I1026 15:43:29.447633 37958 net.cpp:136] Top shape: 128 192 14 14 (4816896)
I1026 15:43:29.447638 37958 net.cpp:144] Memory required for data: 3350116352
I1026 15:43:29.447644 37958 layer_factory.hpp:77] Creating layer fire6/concat
I1026 15:43:29.447654 37958 net.cpp:84] Creating Layer fire6/concat
I1026 15:43:29.447659 37958 net.cpp:413] fire6/concat <- fire6/expand1x1
I1026 15:43:29.447667 37958 net.cpp:413] fire6/concat <- fire6/expand3x3
I1026 15:43:29.447677 37958 net.cpp:387] fire6/concat -> fire6/concat
I1026 15:43:29.447720 37958 net.cpp:127] Setting up fire6/concat
I1026 15:43:29.447727 37958 net.cpp:136] Top shape: 128 384 14 14 (9633792)
I1026 15:43:29.447732 37958 net.cpp:144] Memory required for data: 3388651520
I1026 15:43:29.447737 37958 layer_factory.hpp:77] Creating layer fire7/squeeze1x1
I1026 15:43:29.447749 37958 net.cpp:84] Creating Layer fire7/squeeze1x1
I1026 15:43:29.447754 37958 net.cpp:413] fire7/squeeze1x1 <- fire6/concat
I1026 15:43:29.447763 37958 net.cpp:387] fire7/squeeze1x1 -> fire7/squeeze1x1
I1026 15:43:29.448242 37958 net.cpp:127] Setting up fire7/squeeze1x1
I1026 15:43:29.448253 37958 net.cpp:136] Top shape: 128 48 14 14 (1204224)
I1026 15:43:29.448258 37958 net.cpp:144] Memory required for data: 3393468416
I1026 15:43:29.448273 37958 net.cpp:453] Found INQ layer:fire7/squeeze1x1, type: INQConvolution, layer id:46
I1026 15:43:29.448285 37958 net.cpp:453] Found INQ layer:fire7/squeeze1x1, type: INQConvolution, layer id:46
I1026 15:43:29.448292 37958 net.cpp:453] Found INQ layer:fire7/squeeze1x1, type: INQConvolution, layer id:46
I1026 15:43:29.448303 37958 net.cpp:453] Found INQ layer:fire7/squeeze1x1, type: INQConvolution, layer id:46
I1026 15:43:29.448318 37958 layer_factory.hpp:77] Creating layer fire7/relu_squeeze1x1
I1026 15:43:29.448341 37958 net.cpp:84] Creating Layer fire7/relu_squeeze1x1
I1026 15:43:29.448346 37958 net.cpp:413] fire7/relu_squeeze1x1 <- fire7/squeeze1x1
I1026 15:43:29.448355 37958 net.cpp:374] fire7/relu_squeeze1x1 -> fire7/squeeze1x1 (in-place)
I1026 15:43:29.449724 37958 net.cpp:127] Setting up fire7/relu_squeeze1x1
I1026 15:43:29.449743 37958 net.cpp:136] Top shape: 128 48 14 14 (1204224)
I1026 15:43:29.449748 37958 net.cpp:144] Memory required for data: 3398285312
I1026 15:43:29.449754 37958 layer_factory.hpp:77] Creating layer fire7/squeeze1x1_fire7/relu_squeeze1x1_0_split
I1026 15:43:29.449762 37958 net.cpp:84] Creating Layer fire7/squeeze1x1_fire7/relu_squeeze1x1_0_split
I1026 15:43:29.449767 37958 net.cpp:413] fire7/squeeze1x1_fire7/relu_squeeze1x1_0_split <- fire7/squeeze1x1
I1026 15:43:29.449774 37958 net.cpp:387] fire7/squeeze1x1_fire7/relu_squeeze1x1_0_split -> fire7/squeeze1x1_fire7/relu_squeeze1x1_0_split_0
I1026 15:43:29.449786 37958 net.cpp:387] fire7/squeeze1x1_fire7/relu_squeeze1x1_0_split -> fire7/squeeze1x1_fire7/relu_squeeze1x1_0_split_1
I1026 15:43:29.449841 37958 net.cpp:127] Setting up fire7/squeeze1x1_fire7/relu_squeeze1x1_0_split
I1026 15:43:29.449848 37958 net.cpp:136] Top shape: 128 48 14 14 (1204224)
I1026 15:43:29.449854 37958 net.cpp:136] Top shape: 128 48 14 14 (1204224)
I1026 15:43:29.449858 37958 net.cpp:144] Memory required for data: 3407919104
I1026 15:43:29.449863 37958 layer_factory.hpp:77] Creating layer fire7/expand1x1
I1026 15:43:29.449877 37958 net.cpp:84] Creating Layer fire7/expand1x1
I1026 15:43:29.449883 37958 net.cpp:413] fire7/expand1x1 <- fire7/squeeze1x1_fire7/relu_squeeze1x1_0_split_0
I1026 15:43:29.449892 37958 net.cpp:387] fire7/expand1x1 -> fire7/expand1x1
I1026 15:43:29.450302 37958 net.cpp:127] Setting up fire7/expand1x1
I1026 15:43:29.450315 37958 net.cpp:136] Top shape: 128 192 14 14 (4816896)
I1026 15:43:29.450320 37958 net.cpp:144] Memory required for data: 3427186688
I1026 15:43:29.450327 37958 net.cpp:453] Found INQ layer:fire7/expand1x1, type: INQConvolution, layer id:49
I1026 15:43:29.450335 37958 net.cpp:453] Found INQ layer:fire7/expand1x1, type: INQConvolution, layer id:49
I1026 15:43:29.450340 37958 net.cpp:453] Found INQ layer:fire7/expand1x1, type: INQConvolution, layer id:49
I1026 15:43:29.450345 37958 net.cpp:453] Found INQ layer:fire7/expand1x1, type: INQConvolution, layer id:49
I1026 15:43:29.450350 37958 layer_factory.hpp:77] Creating layer fire7/relu_expand1x1
I1026 15:43:29.450358 37958 net.cpp:84] Creating Layer fire7/relu_expand1x1
I1026 15:43:29.450369 37958 net.cpp:413] fire7/relu_expand1x1 <- fire7/expand1x1
I1026 15:43:29.450378 37958 net.cpp:374] fire7/relu_expand1x1 -> fire7/expand1x1 (in-place)
I1026 15:43:29.450582 37958 net.cpp:127] Setting up fire7/relu_expand1x1
I1026 15:43:29.450593 37958 net.cpp:136] Top shape: 128 192 14 14 (4816896)
I1026 15:43:29.450599 37958 net.cpp:144] Memory required for data: 3446454272
I1026 15:43:29.450605 37958 layer_factory.hpp:77] Creating layer fire7/expand3x3
I1026 15:43:29.450616 37958 net.cpp:84] Creating Layer fire7/expand3x3
I1026 15:43:29.450621 37958 net.cpp:413] fire7/expand3x3 <- fire7/squeeze1x1_fire7/relu_squeeze1x1_0_split_1
I1026 15:43:29.450633 37958 net.cpp:387] fire7/expand3x3 -> fire7/expand3x3
I1026 15:43:29.451634 37958 net.cpp:127] Setting up fire7/expand3x3
I1026 15:43:29.451647 37958 net.cpp:136] Top shape: 128 192 14 14 (4816896)
I1026 15:43:29.451652 37958 net.cpp:144] Memory required for data: 3465721856
I1026 15:43:29.451658 37958 net.cpp:453] Found INQ layer:fire7/expand3x3, type: INQConvolution, layer id:51
I1026 15:43:29.451664 37958 net.cpp:453] Found INQ layer:fire7/expand3x3, type: INQConvolution, layer id:51
I1026 15:43:29.451669 37958 net.cpp:453] Found INQ layer:fire7/expand3x3, type: INQConvolution, layer id:51
I1026 15:43:29.451675 37958 net.cpp:453] Found INQ layer:fire7/expand3x3, type: INQConvolution, layer id:51
I1026 15:43:29.451683 37958 layer_factory.hpp:77] Creating layer fire7/relu_expand3x3
I1026 15:43:29.451700 37958 net.cpp:84] Creating Layer fire7/relu_expand3x3
I1026 15:43:29.451719 37958 net.cpp:413] fire7/relu_expand3x3 <- fire7/expand3x3
I1026 15:43:29.451728 37958 net.cpp:374] fire7/relu_expand3x3 -> fire7/expand3x3 (in-place)
I1026 15:43:29.451942 37958 net.cpp:127] Setting up fire7/relu_expand3x3
I1026 15:43:29.451953 37958 net.cpp:136] Top shape: 128 192 14 14 (4816896)
I1026 15:43:29.451959 37958 net.cpp:144] Memory required for data: 3484989440
I1026 15:43:29.451966 37958 layer_factory.hpp:77] Creating layer fire7/concat
I1026 15:43:29.451972 37958 net.cpp:84] Creating Layer fire7/concat
I1026 15:43:29.451977 37958 net.cpp:413] fire7/concat <- fire7/expand1x1
I1026 15:43:29.451984 37958 net.cpp:413] fire7/concat <- fire7/expand3x3
I1026 15:43:29.451993 37958 net.cpp:387] fire7/concat -> fire7/concat
I1026 15:43:29.452024 37958 net.cpp:127] Setting up fire7/concat
I1026 15:43:29.452035 37958 net.cpp:136] Top shape: 128 384 14 14 (9633792)
I1026 15:43:29.452041 37958 net.cpp:144] Memory required for data: 3523524608
I1026 15:43:29.452046 37958 layer_factory.hpp:77] Creating layer fire8/squeeze1x1
I1026 15:43:29.452055 37958 net.cpp:84] Creating Layer fire8/squeeze1x1
I1026 15:43:29.452061 37958 net.cpp:413] fire8/squeeze1x1 <- fire7/concat
I1026 15:43:29.452070 37958 net.cpp:387] fire8/squeeze1x1 -> fire8/squeeze1x1
I1026 15:43:29.452600 37958 net.cpp:127] Setting up fire8/squeeze1x1
I1026 15:43:29.452611 37958 net.cpp:136] Top shape: 128 64 14 14 (1605632)
I1026 15:43:29.452616 37958 net.cpp:144] Memory required for data: 3529947136
I1026 15:43:29.452623 37958 net.cpp:453] Found INQ layer:fire8/squeeze1x1, type: INQConvolution, layer id:54
I1026 15:43:29.452630 37958 net.cpp:453] Found INQ layer:fire8/squeeze1x1, type: INQConvolution, layer id:54
I1026 15:43:29.452636 37958 net.cpp:453] Found INQ layer:fire8/squeeze1x1, type: INQConvolution, layer id:54
I1026 15:43:29.452641 37958 net.cpp:453] Found INQ layer:fire8/squeeze1x1, type: INQConvolution, layer id:54
I1026 15:43:29.452644 37958 layer_factory.hpp:77] Creating layer fire8/relu_squeeze1x1
I1026 15:43:29.452654 37958 net.cpp:84] Creating Layer fire8/relu_squeeze1x1
I1026 15:43:29.452663 37958 net.cpp:413] fire8/relu_squeeze1x1 <- fire8/squeeze1x1
I1026 15:43:29.452672 37958 net.cpp:374] fire8/relu_squeeze1x1 -> fire8/squeeze1x1 (in-place)
I1026 15:43:29.454047 37958 net.cpp:127] Setting up fire8/relu_squeeze1x1
I1026 15:43:29.454066 37958 net.cpp:136] Top shape: 128 64 14 14 (1605632)
I1026 15:43:29.454071 37958 net.cpp:144] Memory required for data: 3536369664
I1026 15:43:29.454077 37958 layer_factory.hpp:77] Creating layer fire8/squeeze1x1_fire8/relu_squeeze1x1_0_split
I1026 15:43:29.454087 37958 net.cpp:84] Creating Layer fire8/squeeze1x1_fire8/relu_squeeze1x1_0_split
I1026 15:43:29.454092 37958 net.cpp:413] fire8/squeeze1x1_fire8/relu_squeeze1x1_0_split <- fire8/squeeze1x1
I1026 15:43:29.454099 37958 net.cpp:387] fire8/squeeze1x1_fire8/relu_squeeze1x1_0_split -> fire8/squeeze1x1_fire8/relu_squeeze1x1_0_split_0
I1026 15:43:29.454109 37958 net.cpp:387] fire8/squeeze1x1_fire8/relu_squeeze1x1_0_split -> fire8/squeeze1x1_fire8/relu_squeeze1x1_0_split_1
I1026 15:43:29.454165 37958 net.cpp:127] Setting up fire8/squeeze1x1_fire8/relu_squeeze1x1_0_split
I1026 15:43:29.454172 37958 net.cpp:136] Top shape: 128 64 14 14 (1605632)
I1026 15:43:29.454179 37958 net.cpp:136] Top shape: 128 64 14 14 (1605632)
I1026 15:43:29.454183 37958 net.cpp:144] Memory required for data: 3549214720
I1026 15:43:29.454188 37958 layer_factory.hpp:77] Creating layer fire8/expand1x1
I1026 15:43:29.454200 37958 net.cpp:84] Creating Layer fire8/expand1x1
I1026 15:43:29.454205 37958 net.cpp:413] fire8/expand1x1 <- fire8/squeeze1x1_fire8/relu_squeeze1x1_0_split_0
I1026 15:43:29.454216 37958 net.cpp:387] fire8/expand1x1 -> fire8/expand1x1
I1026 15:43:29.454677 37958 net.cpp:127] Setting up fire8/expand1x1
I1026 15:43:29.454690 37958 net.cpp:136] Top shape: 128 256 14 14 (6422528)
I1026 15:43:29.454695 37958 net.cpp:144] Memory required for data: 3574904832
I1026 15:43:29.454708 37958 net.cpp:453] Found INQ layer:fire8/expand1x1, type: INQConvolution, layer id:57
I1026 15:43:29.454727 37958 net.cpp:453] Found INQ layer:fire8/expand1x1, type: INQConvolution, layer id:57
I1026 15:43:29.454733 37958 net.cpp:453] Found INQ layer:fire8/expand1x1, type: INQConvolution, layer id:57
I1026 15:43:29.454741 37958 net.cpp:453] Found INQ layer:fire8/expand1x1, type: INQConvolution, layer id:57
I1026 15:43:29.454746 37958 layer_factory.hpp:77] Creating layer fire8/relu_expand1x1
I1026 15:43:29.454754 37958 net.cpp:84] Creating Layer fire8/relu_expand1x1
I1026 15:43:29.454759 37958 net.cpp:413] fire8/relu_expand1x1 <- fire8/expand1x1
I1026 15:43:29.454768 37958 net.cpp:374] fire8/relu_expand1x1 -> fire8/expand1x1 (in-place)
I1026 15:43:29.454974 37958 net.cpp:127] Setting up fire8/relu_expand1x1
I1026 15:43:29.454987 37958 net.cpp:136] Top shape: 128 256 14 14 (6422528)
I1026 15:43:29.454993 37958 net.cpp:144] Memory required for data: 3600594944
I1026 15:43:29.454998 37958 layer_factory.hpp:77] Creating layer fire8/expand3x3
I1026 15:43:29.455008 37958 net.cpp:84] Creating Layer fire8/expand3x3
I1026 15:43:29.455014 37958 net.cpp:413] fire8/expand3x3 <- fire8/squeeze1x1_fire8/relu_squeeze1x1_0_split_1
I1026 15:43:29.455025 37958 net.cpp:387] fire8/expand3x3 -> fire8/expand3x3
I1026 15:43:29.457890 37958 net.cpp:127] Setting up fire8/expand3x3
I1026 15:43:29.457909 37958 net.cpp:136] Top shape: 128 256 14 14 (6422528)
I1026 15:43:29.457916 37958 net.cpp:144] Memory required for data: 3626285056
I1026 15:43:29.457922 37958 net.cpp:453] Found INQ layer:fire8/expand3x3, type: INQConvolution, layer id:59
I1026 15:43:29.457929 37958 net.cpp:453] Found INQ layer:fire8/expand3x3, type: INQConvolution, layer id:59
I1026 15:43:29.457934 37958 net.cpp:453] Found INQ layer:fire8/expand3x3, type: INQConvolution, layer id:59
I1026 15:43:29.457939 37958 net.cpp:453] Found INQ layer:fire8/expand3x3, type: INQConvolution, layer id:59
I1026 15:43:29.457945 37958 layer_factory.hpp:77] Creating layer fire8/relu_expand3x3
I1026 15:43:29.457957 37958 net.cpp:84] Creating Layer fire8/relu_expand3x3
I1026 15:43:29.457964 37958 net.cpp:413] fire8/relu_expand3x3 <- fire8/expand3x3
I1026 15:43:29.457972 37958 net.cpp:374] fire8/relu_expand3x3 -> fire8/expand3x3 (in-place)
I1026 15:43:29.458190 37958 net.cpp:127] Setting up fire8/relu_expand3x3
I1026 15:43:29.458202 37958 net.cpp:136] Top shape: 128 256 14 14 (6422528)
I1026 15:43:29.458209 37958 net.cpp:144] Memory required for data: 3651975168
I1026 15:43:29.458214 37958 layer_factory.hpp:77] Creating layer fire8/concat
I1026 15:43:29.458223 37958 net.cpp:84] Creating Layer fire8/concat
I1026 15:43:29.458228 37958 net.cpp:413] fire8/concat <- fire8/expand1x1
I1026 15:43:29.458235 37958 net.cpp:413] fire8/concat <- fire8/expand3x3
I1026 15:43:29.458243 37958 net.cpp:387] fire8/concat -> fire8/concat
I1026 15:43:29.458276 37958 net.cpp:127] Setting up fire8/concat
I1026 15:43:29.458284 37958 net.cpp:136] Top shape: 128 512 14 14 (12845056)
I1026 15:43:29.458290 37958 net.cpp:144] Memory required for data: 3703355392
I1026 15:43:29.458295 37958 layer_factory.hpp:77] Creating layer fire9/squeeze1x1
I1026 15:43:29.458314 37958 net.cpp:84] Creating Layer fire9/squeeze1x1
I1026 15:43:29.458320 37958 net.cpp:413] fire9/squeeze1x1 <- fire8/concat
I1026 15:43:29.458333 37958 net.cpp:387] fire9/squeeze1x1 -> fire9/squeeze1x1
I1026 15:43:29.458925 37958 net.cpp:127] Setting up fire9/squeeze1x1
I1026 15:43:29.458936 37958 net.cpp:136] Top shape: 128 64 14 14 (1605632)
I1026 15:43:29.458941 37958 net.cpp:144] Memory required for data: 3709777920
I1026 15:43:29.458948 37958 net.cpp:453] Found INQ layer:fire9/squeeze1x1, type: INQConvolution, layer id:62
I1026 15:43:29.458955 37958 net.cpp:453] Found INQ layer:fire9/squeeze1x1, type: INQConvolution, layer id:62
I1026 15:43:29.458959 37958 net.cpp:453] Found INQ layer:fire9/squeeze1x1, type: INQConvolution, layer id:62
I1026 15:43:29.458966 37958 net.cpp:453] Found INQ layer:fire9/squeeze1x1, type: INQConvolution, layer id:62
I1026 15:43:29.458976 37958 layer_factory.hpp:77] Creating layer fire9/relu_squeeze1x1
I1026 15:43:29.458997 37958 net.cpp:84] Creating Layer fire9/relu_squeeze1x1
I1026 15:43:29.459003 37958 net.cpp:413] fire9/relu_squeeze1x1 <- fire9/squeeze1x1
I1026 15:43:29.459017 37958 net.cpp:374] fire9/relu_squeeze1x1 -> fire9/squeeze1x1 (in-place)
I1026 15:43:29.459229 37958 net.cpp:127] Setting up fire9/relu_squeeze1x1
I1026 15:43:29.459240 37958 net.cpp:136] Top shape: 128 64 14 14 (1605632)
I1026 15:43:29.459246 37958 net.cpp:144] Memory required for data: 3716200448
I1026 15:43:29.459252 37958 layer_factory.hpp:77] Creating layer fire9/squeeze1x1_fire9/relu_squeeze1x1_0_split
I1026 15:43:29.459270 37958 net.cpp:84] Creating Layer fire9/squeeze1x1_fire9/relu_squeeze1x1_0_split
I1026 15:43:29.459275 37958 net.cpp:413] fire9/squeeze1x1_fire9/relu_squeeze1x1_0_split <- fire9/squeeze1x1
I1026 15:43:29.459285 37958 net.cpp:387] fire9/squeeze1x1_fire9/relu_squeeze1x1_0_split -> fire9/squeeze1x1_fire9/relu_squeeze1x1_0_split_0
I1026 15:43:29.459295 37958 net.cpp:387] fire9/squeeze1x1_fire9/relu_squeeze1x1_0_split -> fire9/squeeze1x1_fire9/relu_squeeze1x1_0_split_1
I1026 15:43:29.459352 37958 net.cpp:127] Setting up fire9/squeeze1x1_fire9/relu_squeeze1x1_0_split
I1026 15:43:29.459362 37958 net.cpp:136] Top shape: 128 64 14 14 (1605632)
I1026 15:43:29.459369 37958 net.cpp:136] Top shape: 128 64 14 14 (1605632)
I1026 15:43:29.459375 37958 net.cpp:144] Memory required for data: 3729045504
I1026 15:43:29.459380 37958 layer_factory.hpp:77] Creating layer fire9/expand1x1
I1026 15:43:29.459393 37958 net.cpp:84] Creating Layer fire9/expand1x1
I1026 15:43:29.459398 37958 net.cpp:413] fire9/expand1x1 <- fire9/squeeze1x1_fire9/relu_squeeze1x1_0_split_0
I1026 15:43:29.459406 37958 net.cpp:387] fire9/expand1x1 -> fire9/expand1x1
I1026 15:43:29.459853 37958 net.cpp:127] Setting up fire9/expand1x1
I1026 15:43:29.459863 37958 net.cpp:136] Top shape: 128 256 14 14 (6422528)
I1026 15:43:29.459868 37958 net.cpp:144] Memory required for data: 3754735616
I1026 15:43:29.459875 37958 net.cpp:453] Found INQ layer:fire9/expand1x1, type: INQConvolution, layer id:65
I1026 15:43:29.459882 37958 net.cpp:453] Found INQ layer:fire9/expand1x1, type: INQConvolution, layer id:65
I1026 15:43:29.459887 37958 net.cpp:453] Found INQ layer:fire9/expand1x1, type: INQConvolution, layer id:65
I1026 15:43:29.459893 37958 net.cpp:453] Found INQ layer:fire9/expand1x1, type: INQConvolution, layer id:65
I1026 15:43:29.459897 37958 layer_factory.hpp:77] Creating layer fire9/relu_expand1x1
I1026 15:43:29.459908 37958 net.cpp:84] Creating Layer fire9/relu_expand1x1
I1026 15:43:29.459913 37958 net.cpp:413] fire9/relu_expand1x1 <- fire9/expand1x1
I1026 15:43:29.459920 37958 net.cpp:374] fire9/relu_expand1x1 -> fire9/expand1x1 (in-place)
I1026 15:43:29.461284 37958 net.cpp:127] Setting up fire9/relu_expand1x1
I1026 15:43:29.461309 37958 net.cpp:136] Top shape: 128 256 14 14 (6422528)
I1026 15:43:29.461316 37958 net.cpp:144] Memory required for data: 3780425728
I1026 15:43:29.461321 37958 layer_factory.hpp:77] Creating layer fire9/expand3x3
I1026 15:43:29.461334 37958 net.cpp:84] Creating Layer fire9/expand3x3
I1026 15:43:29.461341 37958 net.cpp:413] fire9/expand3x3 <- fire9/squeeze1x1_fire9/relu_squeeze1x1_0_split_1
I1026 15:43:29.461350 37958 net.cpp:387] fire9/expand3x3 -> fire9/expand3x3
I1026 15:43:29.462855 37958 net.cpp:127] Setting up fire9/expand3x3
I1026 15:43:29.462869 37958 net.cpp:136] Top shape: 128 256 14 14 (6422528)
I1026 15:43:29.462874 37958 net.cpp:144] Memory required for data: 3806115840
I1026 15:43:29.462882 37958 net.cpp:453] Found INQ layer:fire9/expand3x3, type: INQConvolution, layer id:67
I1026 15:43:29.462888 37958 net.cpp:453] Found INQ layer:fire9/expand3x3, type: INQConvolution, layer id:67
I1026 15:43:29.462893 37958 net.cpp:453] Found INQ layer:fire9/expand3x3, type: INQConvolution, layer id:67
I1026 15:43:29.462899 37958 net.cpp:453] Found INQ layer:fire9/expand3x3, type: INQConvolution, layer id:67
I1026 15:43:29.462905 37958 layer_factory.hpp:77] Creating layer fire9/relu_expand3x3
I1026 15:43:29.462924 37958 net.cpp:84] Creating Layer fire9/relu_expand3x3
I1026 15:43:29.462942 37958 net.cpp:413] fire9/relu_expand3x3 <- fire9/expand3x3
I1026 15:43:29.462951 37958 net.cpp:374] fire9/relu_expand3x3 -> fire9/expand3x3 (in-place)
I1026 15:43:29.463156 37958 net.cpp:127] Setting up fire9/relu_expand3x3
I1026 15:43:29.463168 37958 net.cpp:136] Top shape: 128 256 14 14 (6422528)
I1026 15:43:29.463173 37958 net.cpp:144] Memory required for data: 3831805952
I1026 15:43:29.463179 37958 layer_factory.hpp:77] Creating layer fire9/concat
I1026 15:43:29.463186 37958 net.cpp:84] Creating Layer fire9/concat
I1026 15:43:29.463191 37958 net.cpp:413] fire9/concat <- fire9/expand1x1
I1026 15:43:29.463197 37958 net.cpp:413] fire9/concat <- fire9/expand3x3
I1026 15:43:29.463207 37958 net.cpp:387] fire9/concat -> fire9/concat
I1026 15:43:29.463238 37958 net.cpp:127] Setting up fire9/concat
I1026 15:43:29.463246 37958 net.cpp:136] Top shape: 128 512 14 14 (12845056)
I1026 15:43:29.463251 37958 net.cpp:144] Memory required for data: 3883186176
I1026 15:43:29.463255 37958 layer_factory.hpp:77] Creating layer drop9
I1026 15:43:29.463268 37958 net.cpp:84] Creating Layer drop9
I1026 15:43:29.463274 37958 net.cpp:413] drop9 <- fire9/concat
I1026 15:43:29.463280 37958 net.cpp:374] drop9 -> fire9/concat (in-place)
I1026 15:43:29.463322 37958 net.cpp:127] Setting up drop9
I1026 15:43:29.463341 37958 net.cpp:136] Top shape: 128 512 14 14 (12845056)
I1026 15:43:29.463346 37958 net.cpp:144] Memory required for data: 3934566400
I1026 15:43:29.463351 37958 layer_factory.hpp:77] Creating layer conv10
I1026 15:43:29.463363 37958 net.cpp:84] Creating Layer conv10
I1026 15:43:29.463368 37958 net.cpp:413] conv10 <- fire9/concat
I1026 15:43:29.463378 37958 net.cpp:387] conv10 -> conv10
I1026 15:43:29.472939 37958 net.cpp:127] Setting up conv10
I1026 15:43:29.472959 37958 net.cpp:136] Top shape: 128 1000 14 14 (25088000)
I1026 15:43:29.472965 37958 net.cpp:144] Memory required for data: 4034918400
I1026 15:43:29.472972 37958 net.cpp:453] Found INQ layer:conv10, type: INQConvolution, layer id:71
I1026 15:43:29.472980 37958 net.cpp:453] Found INQ layer:conv10, type: INQConvolution, layer id:71
I1026 15:43:29.472985 37958 net.cpp:453] Found INQ layer:conv10, type: INQConvolution, layer id:71
I1026 15:43:29.472990 37958 net.cpp:453] Found INQ layer:conv10, type: INQConvolution, layer id:71
I1026 15:43:29.472996 37958 layer_factory.hpp:77] Creating layer relu_conv10
I1026 15:43:29.473006 37958 net.cpp:84] Creating Layer relu_conv10
I1026 15:43:29.473014 37958 net.cpp:413] relu_conv10 <- conv10
I1026 15:43:29.473023 37958 net.cpp:374] relu_conv10 -> conv10 (in-place)
I1026 15:43:29.473251 37958 net.cpp:127] Setting up relu_conv10
I1026 15:43:29.473264 37958 net.cpp:136] Top shape: 128 1000 14 14 (25088000)
I1026 15:43:29.473269 37958 net.cpp:144] Memory required for data: 4135270400
I1026 15:43:29.473276 37958 layer_factory.hpp:77] Creating layer pool10
I1026 15:43:29.473289 37958 net.cpp:84] Creating Layer pool10
I1026 15:43:29.473294 37958 net.cpp:413] pool10 <- conv10
I1026 15:43:29.473306 37958 net.cpp:387] pool10 -> pool10
I1026 15:43:29.473553 37958 net.cpp:127] Setting up pool10
I1026 15:43:29.473570 37958 net.cpp:136] Top shape: 128 1000 1 1 (128000)
I1026 15:43:29.473577 37958 net.cpp:144] Memory required for data: 4135782400
I1026 15:43:29.473582 37958 layer_factory.hpp:77] Creating layer loss
I1026 15:43:29.473592 37958 net.cpp:84] Creating Layer loss
I1026 15:43:29.473598 37958 net.cpp:413] loss <- pool10
I1026 15:43:29.473603 37958 net.cpp:413] loss <- label
I1026 15:43:29.473611 37958 net.cpp:387] loss -> loss
I1026 15:43:29.473624 37958 layer_factory.hpp:77] Creating layer loss
…
I1026 15:43:29.478943 37958 net.cpp:301] The NetState phase (1) differed from the phase (0) specified by a rule in layer data
I1026 15:43:29.479681 37958 net.cpp:51] Initializing net from parameters: 
name: "SqueezeNet"
state {
  phase: TEST
}
layer {
  name: "data"
  type: "Data"
  top: "data"
  top: "label"
  include {
    phase: TEST
  }
  transform_param {
    crop_size: 227
    mean_value: 104
    mean_value: 117
    mean_value: 123
  }
  data_param {
    source: "/home/data/caffe-imagenet/ilsvrc12_val_lmdb"
    batch_size: 50
    backend: LMDB
  }
}
layer {
  name: "conv1"
  type: "INQConvolution"
  bottom: "data"
  top: "conv1"
  convolution_param {
    num_output: 64
    kernel_size: 3
    stride: 2
    weight_filler {
      type: "xavier"
    }
  }
  inq_convolution_param {
    portion: 0
    portion: 0.2
    weight_mask_filler {
      type: "constant"
      value: 1
    }
    bias_mask_filler {
      type: "constant"
      value: 1
    }
    num_quantum_values: 7
  }
}
layer {
  name: "relu_conv1"
  type: "ReLU"
  bottom: "conv1"
  top: "conv1"
}
layer {
  name: "pool1"
  type: "Pooling"
  bottom: "conv1"
  top: "pool1"
  pooling_param {
    pool: MAX
    kernel_size: 3
    stride: 2
  }
}
layer {
  name: "fire2/squeeze1x1"
  type: "INQConvolution"
  bottom: "pool1"
  top: "fire2/squeeze1x1"
  convolution_param {
    num_output: 16
    kernel_size: 1
    weight_filler {
      type: "xavier"
    }
  }
  inq_convolution_param {
    portion: 0
    portion: 0.2
    weight_mask_filler {
      type: "constant"
      value: 1
    }
    bias_mask_filler {
      type: "constant"
      value: 1
    }
    num_quantum_values: 7
  }
}
layer {
  name: "fire2/relu_squeeze1x1"
  type: "ReLU"
  bottom: "fire2/squeeze1x1"
  top: "fire2/squeeze1x1"
}
layer {
  name: "fire2/expand1x1"
  type: "INQConvolution"
  bottom: "fire2/squeeze1x1"
  top: "fire2/expand1x1"
  convolution_param {
    num_output: 64
    kernel_size: 1
    weight_filler {
      type: "xavier"
    }
  }
  inq_convolution_param {
    portion: 0
    portion: 0.2
    weight_mask_filler {
      type: "constant"
      value: 1
    }
    bias_mask_filler {
      type: "constant"
      value: 1
    }
    num_quantum_values: 7
  }
}
layer {
  name: "fire2/relu_expand1x1"
  type: "ReLU"
  bottom: "fire2/expand1x1"
  top: "fire2/expand1x1"
}
layer {
  name: "fire2/expand3x3"
  type: "INQConvolution"
  bottom: "fire2/squeeze1x1"
  top: "fire2/expand3x3"
  convolution_param {
    num_output: 64
    pad: 1
    kernel_size: 3
    weight_filler {
      type: "xavier"
    }
  }
  inq_convolution_param {
    portion: 0
    portion: 0.2
    weight_mask_filler {
      type: "constant"
      value: 1
    }
    bias_mask_filler {
      type: "constant"
      value: 1
    }
    num_quantum_values: 7
  }
}
layer {
  name: "fire2/relu_expand3x3"
  type: "ReLU"
  bottom: "fire2/expand3x3"
  top: "fire2/expand3x3"
}
layer {
  name: "fire2/concat"
  type: "Concat"
  bottom: "fire2/expand1x1"
  bottom: "fire2/expand3x3"
  top: "fire2/concat"
}
layer {
  name: "fire3/squeeze1x1"
  type: "INQConvolution"
  bottom: "fire2/concat"
  top: "fire3/squeeze1x1"
  convolution_param {
    num_output: 16
    kernel_size: 1
    weight_filler {
      type: "xavier"
    }
  }
  inq_convolution_param {
    portion: 0
    portion: 0.2
    weight_mask_filler {
      type: "constant"
      value: 1
    }
    bias_mask_filler {
      type: "constant"
      value: 1
    }
    num_quantum_values: 7
  }
}
layer {
  name: "fire3/relu_squeeze1x1"
  type: "ReLU"
  bottom: "fire3/squeeze1x1"
  top: "fire3/squeeze1x1"
}
layer {
  name: "fire3/expand1x1"
  type: "INQConvolution"
  bottom: "fire3/squeeze1x1"
  top: "fire3/expand1x1"
  convolution_param {
    num_output: 64
    kernel_size: 1
    weight_filler {
      type: "xavier"
    }
  }
  inq_convolution_param {
    portion: 0
    portion: 0.2
    weight_mask_filler {
      type: "constant"
      value: 1
    }
    bias_mask_filler {
      type: "constant"
      value: 1
    }
    num_quantum_values: 7
  }
}
layer {
  name: "fire3/relu_expand1x1"
  type: "ReLU"
  bottom: "fire3/expand1x1"
  top: "fire3/expand1x1"
}
layer {
  name: "fire3/expand3x3"
  type: "INQConvolution"
  bottom: "fire3/squeeze1x1"
  top: "fire3/expand3x3"
  convolution_param {
    num_output: 64
    pad: 1
    kernel_size: 3
    weight_filler {
      type: "xavier"
    }
  }
  inq_convolution_param {
    portion: 0
    portion: 0.2
    weight_mask_filler {
      type: "constant"
      value: 1
    }
    bias_mask_filler {
      type: "constant"
      value: 1
    }
    num_quantum_values: 7
  }
}
layer {
  name: "fire3/relu_expand3x3"
  type: "ReLU"
  bottom: "fire3/expand3x3"
  top: "fire3/expand3x3"
}
layer {
  name: "fire3/concat"
  type: "Concat"
  bottom: "fire3/expand1x1"
  bottom: "fire3/expand3x3"
  top: "fire3/concat"
}
layer {
  name: "pool3"
  type: "Pooling"
  bottom: "fire3/concat"
  top: "pool3"
  pooling_param {
    pool: MAX
    kernel_size: 3
    stride: 2
  }
}
layer {
  name: "fire4/squeeze1x1"
  type: "INQConvolution"
  bottom: "pool3"
  top: "fire4/squeeze1x1"
  convolution_param {
    num_output: 32
    kernel_size: 1
    weight_filler {
      type: "xavier"
    }
  }
  inq_convolution_param {
    portion: 0
    portion: 0.2
    weight_mask_filler {
      type: "constant"
      value: 1
    }
    bias_mask_filler {
      type: "constant"
      value: 1
    }
    num_quantum_values: 7
  }
}
layer {
  name: "fire4/relu_squeeze1x1"
  type: "ReLU"
  bottom: "fire4/squeeze1x1"
  top: "fire4/squeeze1x1"
}
layer {
  name: "fire4/expand1x1"
  type: "INQConvolution"
  bottom: "fire4/squeeze1x1"
  top: "fire4/expand1x1"
  convolution_param {
    num_output: 128
    kernel_size: 1
    weight_filler {
      type: "xavier"
    }
  }
  inq_convolution_param {
    portion: 0
    portion: 0.2
    weight_mask_filler {
      type: "constant"
      value: 1
    }
    bias_mask_filler {
      type: "constant"
      value: 1
    }
    num_quantum_values: 7
  }
}
layer {
  name: "fire4/relu_expand1x1"
  type: "ReLU"
  bottom: "fire4/expand1x1"
  top: "fire4/expand1x1"
}
layer {
  name: "fire4/expand3x3"
  type: "INQConvolution"
  bottom: "fire4/squeeze1x1"
  top: "fire4/expand3x3"
  convolution_param {
    num_output: 128
    pad: 1
    kernel_size: 3
    weight_filler {
      type: "xavier"
    }
  }
  inq_convolution_param {
    portion: 0
    portion: 0.2
    weight_mask_filler {
      type: "constant"
      value: 1
    }
    bias_mask_filler {
      type: "constant"
      value: 1
    }
    num_quantum_values: 7
  }
}
layer {
  name: "fire4/relu_expand3x3"
  type: "ReLU"
  bottom: "fire4/expand3x3"
  top: "fire4/expand3x3"
}
layer {
  name: "fire4/concat"
  type: "Concat"
  bottom: "fire4/expand1x1"
  bottom: "fire4/expand3x3"
  top: "fire4/concat"
}
layer {
  name: "fire5/squeeze1x1"
  type: "INQConvolution"
  bottom: "fire4/concat"
  top: "fire5/squeeze1x1"
  convolution_param {
    num_output: 32
    kernel_size: 1
    weight_filler {
      type: "xavier"
    }
  }
  inq_convolution_param {
    portion: 0
    portion: 0.2
    weight_mask_filler {
      type: "constant"
      value: 1
    }
    bias_mask_filler {
      type: "constant"
      value: 1
    }
    num_quantum_values: 7
  }
}
layer {
  name: "fire5/relu_squeeze1x1"
  type: "ReLU"
  bottom: "fire5/squeeze1x1"
  top: "fire5/squeeze1x1"
}
layer {
  name: "fire5/expand1x1"
  type: "INQConvolution"
  bottom: "fire5/squeeze1x1"
  top: "fire5/expand1x1"
  convolution_param {
    num_output: 128
    kernel_size: 1
    weight_filler {
      type: "xavier"
    }
  }
  inq_convolution_param {
    portion: 0
    portion: 0.2
    weight_mask_filler {
      type: "constant"
      value: 1
    }
    bias_mask_filler {
      type: "constant"
      value: 1
    }
    num_quantum_values: 7
  }
}
layer {
  name: "fire5/relu_expand1x1"
  type: "ReLU"
  bottom: "fire5/expand1x1"
  top: "fire5/expand1x1"
}
layer {
  name: "fire5/expand3x3"
  type: "INQConvolution"
  bottom: "fire5/squeeze1x1"
  top: "fire5/expand3x3"
  convolution_param {
    num_output: 128
    pad: 1
    kernel_size: 3
    weight_filler {
      type: "xavier"
    }
  }
  inq_convolution_param {
    portion: 0
    portion: 0.2
    weight_mask_filler {
      type: "constant"
      value: 1
    }
    bias_mask_filler {
      type: "constant"
      value: 1
    }
    num_quantum_values: 7
  }
}
layer {
  name: "fire5/relu_expand3x3"
  type: "ReLU"
  bottom: "fire5/expand3x3"
  top: "fire5/expand3x3"
}
layer {
  name: "fire5/concat"
  type: "Concat"
  bottom: "fire5/expand1x1"
  bottom: "fire5/expand3x3"
  top: "fire5/concat"
}
layer {
  name: "pool5"
  type: "Pooling"
  bottom: "fire5/concat"
  top: "pool5"
  pooling_param {
    pool: MAX
    kernel_size: 3
    stride: 2
  }
}
layer {
  name: "fire6/squeeze1x1"
  type: "INQConvolution"
  bottom: "pool5"
  top: "fire6/squeeze1x1"
  convolution_param {
    num_output: 48
    kernel_size: 1
    weight_filler {
      type: "xavier"
    }
  }
  inq_convolution_param {
    portion: 0
    portion: 0.2
    weight_mask_filler {
      type: "constant"
      value: 1
    }
    bias_mask_filler {
      type: "constant"
      value: 1
    }
    num_quantum_values: 7
  }
}
layer {
  name: "fire6/relu_squeeze1x1"
  type: "ReLU"
  bottom: "fire6/squeeze1x1"
  top: "fire6/squeeze1x1"
}
layer {
  name: "fire6/expand1x1"
  type: "INQConvolution"
  bottom: "fire6/squeeze1x1"
  top: "fire6/expand1x1"
  convolution_param {
    num_output: 192
    kernel_size: 1
    weight_filler {
      type: "xavier"
    }
  }
  inq_convolution_param {
    portion: 0
    portion: 0.2
    weight_mask_filler {
      type: "constant"
      value: 1
    }
    bias_mask_filler {
      type: "constant"
      value: 1
    }
    num_quantum_values: 7
  }
}
layer {
  name: "fire6/relu_expand1x1"
  type: "ReLU"
  bottom: "fire6/expand1x1"
  top: "fire6/expand1x1"
}
layer {
  name: "fire6/expand3x3"
  type: "INQConvolution"
  bottom: "fire6/squeeze1x1"
  top: "fire6/expand3x3"
  convolution_param {
    num_output: 192
    pad: 1
    kernel_size: 3
    weight_filler {
      type: "xavier"
    }
  }
  inq_convolution_param {
    portion: 0
    portion: 0.2
    weight_mask_filler {
      type: "constant"
      value: 1
    }
    bias_mask_filler {
      type: "constant"
      value: 1
    }
    num_quantum_values: 7
  }
}
layer {
  name: "fire6/relu_expand3x3"
  type: "ReLU"
  bottom: "fire6/expand3x3"
  top: "fire6/expand3x3"
}
layer {
  name: "fire6/concat"
  type: "Concat"
  bottom: "fire6/expand1x1"
  bottom: "fire6/expand3x3"
  top: "fire6/concat"
}
layer {
  name: "fire7/squeeze1x1"
  type: "INQConvolution"
  bottom: "fire6/concat"
  top: "fire7/squeeze1x1"
  convolution_param {
    num_output: 48
    kernel_size: 1
    weight_filler {
      type: "xavier"
    }
  }
  inq_convolution_param {
    portion: 0
    portion: 0.2
    weight_mask_filler {
      type: "constant"
      value: 1
    }
    bias_mask_filler {
      type: "constant"
      value: 1
    }
    num_quantum_values: 7
  }
}
layer {
  name: "fire7/relu_squeeze1x1"
  type: "ReLU"
  bottom: "fire7/squeeze1x1"
  top: "fire7/squeeze1x1"
}
layer {
  name: "fire7/expand1x1"
  type: "INQConvolution"
  bottom: "fire7/squeeze1x1"
  top: "fire7/expand1x1"
  convolution_param {
    num_output: 192
    kernel_size: 1
    weight_filler {
      type: "xavier"
    }
  }
  inq_convolution_param {
    portion: 0
    portion: 0.2
    weight_mask_filler {
      type: "constant"
      value: 1
    }
    bias_mask_filler {
      type: "constant"
      value: 1
    }
    num_quantum_values: 7
  }
}
layer {
  name: "fire7/relu_expand1x1"
  type: "ReLU"
  bottom: "fire7/expand1x1"
  top: "fire7/expand1x1"
}
layer {
  name: "fire7/expand3x3"
  type: "INQConvolution"
  bottom: "fire7/squeeze1x1"
  top: "fire7/expand3x3"
  convolution_param {
    num_output: 192
    pad: 1
    kernel_size: 3
    weight_filler {
      type: "xavier"
    }
  }
  inq_convolution_param {
    portion: 0
    portion: 0.2
    weight_mask_filler {
      type: "constant"
      value: 1
    }
    bias_mask_filler {
      type: "constant"
      value: 1
    }
    num_quantum_values: 7
  }
}
layer {
  name: "fire7/relu_expand3x3"
  type: "ReLU"
  bottom: "fire7/expand3x3"
  top: "fire7/expand3x3"
}
layer {
  name: "fire7/concat"
  type: "Concat"
  bottom: "fire7/expand1x1"
  bottom: "fire7/expand3x3"
  top: "fire7/concat"
}
layer {
  name: "fire8/squeeze1x1"
  type: "INQConvolution"
  bottom: "fire7/concat"
  top: "fire8/squeeze1x1"
  convolution_param {
    num_output: 64
    kernel_size: 1
    weight_filler {
      type: "xavier"
    }
  }
  inq_convolution_param {
    portion: 0
    portion: 0.2
    weight_mask_filler {
      type: "constant"
      value: 1
    }
    bias_mask_filler {
      type: "constant"
      value: 1
    }
    num_quantum_values: 7
  }
}
layer {
  name: "fire8/relu_squeeze1x1"
  type: "ReLU"
  bottom: "fire8/squeeze1x1"
  top: "fire8/squeeze1x1"
}
layer {
  name: "fire8/expand1x1"
  type: "INQConvolution"
  bottom: "fire8/squeeze1x1"
  top: "fire8/expand1x1"
  convolution_param {
    num_output: 256
    kernel_size: 1
    weight_filler {
      type: "xavier"
    }
  }
  inq_convolution_param {
    portion: 0
    portion: 0.2
    weight_mask_filler {
      type: "constant"
      value: 1
    }
    bias_mask_filler {
      type: "constant"
      value: 1
    }
    num_quantum_values: 7
  }
}
layer {
  name: "fire8/relu_expand1x1"
  type: "ReLU"
  bottom: "fire8/expand1x1"
  top: "fire8/expand1x1"
}
layer {
  name: "fire8/expand3x3"
  type: "INQConvolution"
  bottom: "fire8/squeeze1x1"
  top: "fire8/expand3x3"
  convolution_param {
    num_output: 256
    pad: 1
    kernel_size: 3
    weight_filler {
      type: "xavier"
    }
  }
  inq_convolution_param {
    portion: 0
    portion: 0.2
    weight_mask_filler {
      type: "constant"
      value: 1
    }
    bias_mask_filler {
      type: "constant"
      value: 1
    }
    num_quantum_values: 7
  }
}
layer {
  name: "fire8/relu_expand3x3"
  type: "ReLU"
  bottom: "fire8/expand3x3"
  top: "fire8/expand3x3"
}
layer {
  name: "fire8/concat"
  type: "Concat"
  bottom: "fire8/expand1x1"
  bottom: "fire8/expand3x3"
  top: "fire8/concat"
}
layer {
  name: "fire9/squeeze1x1"
  type: "INQConvolution"
  bottom: "fire8/concat"
  top: "fire9/squeeze1x1"
  convolution_param {
    num_output: 64
    kernel_size: 1
    weight_filler {
      type: "xavier"
    }
  }
  inq_convolution_param {
    portion: 0
    portion: 0.2
    weight_mask_filler {
      type: "constant"
      value: 1
    }
    bias_mask_filler {
      type: "constant"
      value: 1
    }
    num_quantum_values: 7
  }
}
layer {
  name: "fire9/relu_squeeze1x1"
  type: "ReLU"
  bottom: "fire9/squeeze1x1"
  top: "fire9/squeeze1x1"
}
layer {
  name: "fire9/expand1x1"
  type: "INQConvolution"
  bottom: "fire9/squeeze1x1"
  top: "fire9/expand1x1"
  convolution_param {
    num_output: 256
    kernel_size: 1
    weight_filler {
      type: "xavier"
    }
  }
  inq_convolution_param {
    portion: 0
    portion: 0.2
    weight_mask_filler {
      type: "constant"
      value: 1
    }
    bias_mask_filler {
      type: "constant"
      value: 1
    }
    num_quantum_values: 7
  }
}
layer {
  name: "fire9/relu_expand1x1"
  type: "ReLU"
  bottom: "fire9/expand1x1"
  top: "fire9/expand1x1"
}
layer {
  name: "fire9/expand3x3"
  type: "INQConvolution"
  bottom: "fire9/squeeze1x1"
  top: "fire9/expand3x3"
  convolution_param {
    num_output: 256
    pad: 1
    kernel_size: 3
    weight_filler {
      type: "xavier"
    }
  }
  inq_convolution_param {
    portion: 0
    portion: 0.2
    weight_mask_filler {
      type: "constant"
      value: 1
    }
    bias_mask_filler {
      type: "constant"
      value: 1
    }
    num_quantum_values: 7
  }
}
layer {
  name: "fire9/relu_expand3x3"
  type: "ReLU"
  bottom: "fire9/expand3x3"
  top: "fire9/expand3x3"
}
layer {
  name: "fire9/concat"
  type: "Concat"
  bottom: "fire9/expand1x1"
  bottom: "fire9/expand3x3"
  top: "fire9/concat"
}
layer {
  name: "drop9"
  type: "Dropout"
  bottom: "fire9/concat"
  top: "fire9/concat"
  dropout_param {
    dropout_ratio: 0.5
  }
}
layer {
  name: "conv10"
  type: "INQConvolution"
  bottom: "fire9/concat"
  top: "conv10"
  convolution_param {
    num_output: 1000
    kernel_size: 1
    weight_filler {
      type: "gaussian"
      mean: 0
      std: 0.01
    }
  }
  inq_convolution_param {
    portion: 0
    portion: 0.2
    weight_mask_filler {
      type: "constant"
      value: 1
    }
    bias_mask_filler {
      type: "constant"
      value: 1
    }
    num_quantum_values: 7
  }
}
layer {
  name: "relu_conv10"
  type: "ReLU"
  bottom: "conv10"
  top: "conv10"
}
layer {
  name: "pool10"
  type: "Pooling"
  bottom: "conv10"
  top: "pool10"
  pooling_param {
    pool: AVE
    global_pooling: true
  }
}
layer {
  name: "loss"
  type: "SoftmaxWithLoss"
  bottom: "pool10"
  bottom: "label"
  top: "loss"
}
layer {
  name: "accuracy_top1"
  type: "Accuracy"
  bottom: "pool10"
  bottom: "label"
  top: "accuracy_top1"
  include {
    phase: TEST
  }
}
layer {
  name: "accuracy_top5"
  type: "Accuracy"
  bottom: "pool10"
  bottom: "label"
  top: "accuracy_top5"
  include {
    phase: TEST
  }
  accuracy_param {
    top_k: 5
  }
}
I1026 15:43:29.480067 37958 layer_factory.hpp:77] Creating layer data
I1026 15:43:29.480147 37958 db_lmdb.cpp:35] Opened lmdb /home/data/caffe-imagenet/ilsvrc12_val_lmdb
I1026 15:43:29.480170 37958 net.cpp:84] Creating Layer data
I1026 15:43:29.480178 37958 net.cpp:387] data -> data
I1026 15:43:29.480191 37958 net.cpp:387] data -> label
I1026 15:43:29.480706 37958 data_layer.cpp:45] output data size: 50,3,227,227
I1026 15:43:29.569011 37958 net.cpp:127] Setting up data
I1026 15:43:29.569061 37958 net.cpp:136] Top shape: 50 3 227 227 (7729350)
I1026 15:43:29.569097 37958 net.cpp:136] Top shape: 50 (50)
I1026 15:43:29.569104 37958 net.cpp:144] Memory required for data: 30917600
I1026 15:43:29.569114 37958 layer_factory.hpp:77] Creating layer label_data_1_split
I1026 15:43:29.569134 37958 net.cpp:84] Creating Layer label_data_1_split
I1026 15:43:29.569140 37958 net.cpp:413] label_data_1_split <- label
I1026 15:43:29.569150 37958 net.cpp:387] label_data_1_split -> label_data_1_split_0
I1026 15:43:29.569164 37958 net.cpp:387] label_data_1_split -> label_data_1_split_1
I1026 15:43:29.569173 37958 net.cpp:387] label_data_1_split -> label_data_1_split_2
I1026 15:43:29.569283 37958 net.cpp:127] Setting up label_data_1_split
I1026 15:43:29.569293 37958 net.cpp:136] Top shape: 50 (50)
I1026 15:43:29.569308 37958 net.cpp:136] Top shape: 50 (50)
I1026 15:43:29.569320 37958 net.cpp:136] Top shape: 50 (50)
I1026 15:43:29.569324 37958 net.cpp:144] Memory required for data: 30918200
I1026 15:43:29.569329 37958 layer_factory.hpp:77] Creating layer conv1
I1026 15:43:29.569350 37958 net.cpp:84] Creating Layer conv1
I1026 15:43:29.569355 37958 net.cpp:413] conv1 <- data
I1026 15:43:29.569365 37958 net.cpp:387] conv1 -> conv1
I1026 15:43:29.569772 37958 net.cpp:127] Setting up conv1
I1026 15:43:29.569784 37958 net.cpp:136] Top shape: 50 64 113 113 (40860800)
I1026 15:43:29.569789 37958 net.cpp:144] Memory required for data: 194361400
I1026 15:43:29.569798 37958 net.cpp:453] Found INQ layer:conv1, type: INQConvolution, layer id:2
I1026 15:43:29.569808 37958 net.cpp:453] Found INQ layer:conv1, type: INQConvolution, layer id:2
I1026 15:43:29.569816 37958 net.cpp:453] Found INQ layer:conv1, type: INQConvolution, layer id:2
I1026 15:43:29.569823 37958 net.cpp:453] Found INQ layer:conv1, type: INQConvolution, layer id:2
I1026 15:43:29.569831 37958 layer_factory.hpp:77] Creating layer relu_conv1
I1026 15:43:29.569841 37958 net.cpp:84] Creating Layer relu_conv1
I1026 15:43:29.569846 37958 net.cpp:413] relu_conv1 <- conv1
I1026 15:43:29.569854 37958 net.cpp:374] relu_conv1 -> conv1 (in-place)
I1026 15:43:29.570111 37958 net.cpp:127] Setting up relu_conv1
I1026 15:43:29.570123 37958 net.cpp:136] Top shape: 50 64 113 113 (40860800)
I1026 15:43:29.570128 37958 net.cpp:144] Memory required for data: 357804600
I1026 15:43:29.570134 37958 layer_factory.hpp:77] Creating layer pool1
I1026 15:43:29.570147 37958 net.cpp:84] Creating Layer pool1
I1026 15:43:29.570152 37958 net.cpp:413] pool1 <- conv1
I1026 15:43:29.570160 37958 net.cpp:387] pool1 -> pool1
I1026 15:43:29.570231 37958 net.cpp:127] Setting up pool1
I1026 15:43:29.570241 37958 net.cpp:136] Top shape: 50 64 56 56 (10035200)
I1026 15:43:29.570247 37958 net.cpp:144] Memory required for data: 397945400
I1026 15:43:29.570252 37958 layer_factory.hpp:77] Creating layer fire2/squeeze1x1
I1026 15:43:29.570263 37958 net.cpp:84] Creating Layer fire2/squeeze1x1
I1026 15:43:29.570268 37958 net.cpp:413] fire2/squeeze1x1 <- pool1
I1026 15:43:29.570277 37958 net.cpp:387] fire2/squeeze1x1 -> fire2/squeeze1x1
I1026 15:43:29.573071 37958 net.cpp:127] Setting up fire2/squeeze1x1
I1026 15:43:29.573083 37958 net.cpp:136] Top shape: 50 16 56 56 (2508800)
I1026 15:43:29.573088 37958 net.cpp:144] Memory required for data: 407980600
I1026 15:43:29.573097 37958 net.cpp:453] Found INQ layer:fire2/squeeze1x1, type: INQConvolution, layer id:5
I1026 15:43:29.573106 37958 net.cpp:453] Found INQ layer:fire2/squeeze1x1, type: INQConvolution, layer id:5
I1026 15:43:29.573112 37958 net.cpp:453] Found INQ layer:fire2/squeeze1x1, type: INQConvolution, layer id:5
I1026 15:43:29.573119 37958 net.cpp:453] Found INQ layer:fire2/squeeze1x1, type: INQConvolution, layer id:5
I1026 15:43:29.573125 37958 layer_factory.hpp:77] Creating layer fire2/relu_squeeze1x1
I1026 15:43:29.573137 37958 net.cpp:84] Creating Layer fire2/relu_squeeze1x1
I1026 15:43:29.573143 37958 net.cpp:413] fire2/relu_squeeze1x1 <- fire2/squeeze1x1
I1026 15:43:29.573150 37958 net.cpp:374] fire2/relu_squeeze1x1 -> fire2/squeeze1x1 (in-place)
I1026 15:43:29.573397 37958 net.cpp:127] Setting up fire2/relu_squeeze1x1
I1026 15:43:29.573422 37958 net.cpp:136] Top shape: 50 16 56 56 (2508800)
I1026 15:43:29.573427 37958 net.cpp:144] Memory required for data: 418015800
I1026 15:43:29.573434 37958 layer_factory.hpp:77] Creating layer fire2/squeeze1x1_fire2/relu_squeeze1x1_0_split
I1026 15:43:29.573443 37958 net.cpp:84] Creating Layer fire2/squeeze1x1_fire2/relu_squeeze1x1_0_split
I1026 15:43:29.573448 37958 net.cpp:413] fire2/squeeze1x1_fire2/relu_squeeze1x1_0_split <- fire2/squeeze1x1
I1026 15:43:29.573456 37958 net.cpp:387] fire2/squeeze1x1_fire2/relu_squeeze1x1_0_split -> fire2/squeeze1x1_fire2/relu_squeeze1x1_0_split_0
I1026 15:43:29.573467 37958 net.cpp:387] fire2/squeeze1x1_fire2/relu_squeeze1x1_0_split -> fire2/squeeze1x1_fire2/relu_squeeze1x1_0_split_1
I1026 15:43:29.573518 37958 net.cpp:127] Setting up fire2/squeeze1x1_fire2/relu_squeeze1x1_0_split
I1026 15:43:29.573527 37958 net.cpp:136] Top shape: 50 16 56 56 (2508800)
I1026 15:43:29.573534 37958 net.cpp:136] Top shape: 50 16 56 56 (2508800)
I1026 15:43:29.573539 37958 net.cpp:144] Memory required for data: 438086200
I1026 15:43:29.573544 37958 layer_factory.hpp:77] Creating layer fire2/expand1x1
I1026 15:43:29.573554 37958 net.cpp:84] Creating Layer fire2/expand1x1
I1026 15:43:29.573559 37958 net.cpp:413] fire2/expand1x1 <- fire2/squeeze1x1_fire2/relu_squeeze1x1_0_split_0
I1026 15:43:29.573568 37958 net.cpp:387] fire2/expand1x1 -> fire2/expand1x1
I1026 15:43:29.573957 37958 net.cpp:127] Setting up fire2/expand1x1
I1026 15:43:29.573968 37958 net.cpp:136] Top shape: 50 64 56 56 (10035200)
I1026 15:43:29.573973 37958 net.cpp:144] Memory required for data: 478227000
I1026 15:43:29.573983 37958 net.cpp:453] Found INQ layer:fire2/expand1x1, type: INQConvolution, layer id:8
I1026 15:43:29.573992 37958 net.cpp:453] Found INQ layer:fire2/expand1x1, type: INQConvolution, layer id:8
I1026 15:43:29.573997 37958 net.cpp:453] Found INQ layer:fire2/expand1x1, type: INQConvolution, layer id:8
I1026 15:43:29.574004 37958 net.cpp:453] Found INQ layer:fire2/expand1x1, type: INQConvolution, layer id:8
I1026 15:43:29.574010 37958 layer_factory.hpp:77] Creating layer fire2/relu_expand1x1
I1026 15:43:29.574018 37958 net.cpp:84] Creating Layer fire2/relu_expand1x1
I1026 15:43:29.574024 37958 net.cpp:413] fire2/relu_expand1x1 <- fire2/expand1x1
I1026 15:43:29.574031 37958 net.cpp:374] fire2/relu_expand1x1 -> fire2/expand1x1 (in-place)
I1026 15:43:29.575448 37958 net.cpp:127] Setting up fire2/relu_expand1x1
I1026 15:43:29.575469 37958 net.cpp:136] Top shape: 50 64 56 56 (10035200)
I1026 15:43:29.575474 37958 net.cpp:144] Memory required for data: 518367800
I1026 15:43:29.575479 37958 layer_factory.hpp:77] Creating layer fire2/expand3x3
I1026 15:43:29.575490 37958 net.cpp:84] Creating Layer fire2/expand3x3
I1026 15:43:29.575496 37958 net.cpp:413] fire2/expand3x3 <- fire2/squeeze1x1_fire2/relu_squeeze1x1_0_split_1
I1026 15:43:29.575507 37958 net.cpp:387] fire2/expand3x3 -> fire2/expand3x3
I1026 15:43:29.575955 37958 net.cpp:127] Setting up fire2/expand3x3
I1026 15:43:29.575968 37958 net.cpp:136] Top shape: 50 64 56 56 (10035200)
I1026 15:43:29.575973 37958 net.cpp:144] Memory required for data: 558508600
I1026 15:43:29.575979 37958 net.cpp:453] Found INQ layer:fire2/expand3x3, type: INQConvolution, layer id:10
I1026 15:43:29.575985 37958 net.cpp:453] Found INQ layer:fire2/expand3x3, type: INQConvolution, layer id:10
I1026 15:43:29.575991 37958 net.cpp:453] Found INQ layer:fire2/expand3x3, type: INQConvolution, layer id:10
I1026 15:43:29.575996 37958 net.cpp:453] Found INQ layer:fire2/expand3x3, type: INQConvolution, layer id:10
I1026 15:43:29.576001 37958 layer_factory.hpp:77] Creating layer fire2/relu_expand3x3
I1026 15:43:29.576009 37958 net.cpp:84] Creating Layer fire2/relu_expand3x3
I1026 15:43:29.576016 37958 net.cpp:413] fire2/relu_expand3x3 <- fire2/expand3x3
I1026 15:43:29.576025 37958 net.cpp:374] fire2/relu_expand3x3 -> fire2/expand3x3 (in-place)
I1026 15:43:29.576247 37958 net.cpp:127] Setting up fire2/relu_expand3x3
I1026 15:43:29.576261 37958 net.cpp:136] Top shape: 50 64 56 56 (10035200)
I1026 15:43:29.576277 37958 net.cpp:144] Memory required for data: 598649400
I1026 15:43:29.576284 37958 layer_factory.hpp:77] Creating layer fire2/concat
I1026 15:43:29.576294 37958 net.cpp:84] Creating Layer fire2/concat
I1026 15:43:29.576308 37958 net.cpp:413] fire2/concat <- fire2/expand1x1
I1026 15:43:29.576314 37958 net.cpp:413] fire2/concat <- fire2/expand3x3
I1026 15:43:29.576325 37958 net.cpp:387] fire2/concat -> fire2/concat
I1026 15:43:29.576364 37958 net.cpp:127] Setting up fire2/concat
I1026 15:43:29.576378 37958 net.cpp:136] Top shape: 50 128 56 56 (20070400)
I1026 15:43:29.576383 37958 net.cpp:144] Memory required for data: 678931000
I1026 15:43:29.576388 37958 layer_factory.hpp:77] Creating layer fire3/squeeze1x1
I1026 15:43:29.576400 37958 net.cpp:84] Creating Layer fire3/squeeze1x1
I1026 15:43:29.576405 37958 net.cpp:413] fire3/squeeze1x1 <- fire2/concat
I1026 15:43:29.576413 37958 net.cpp:387] fire3/squeeze1x1 -> fire3/squeeze1x1
I1026 15:43:29.576786 37958 net.cpp:127] Setting up fire3/squeeze1x1
I1026 15:43:29.576797 37958 net.cpp:136] Top shape: 50 16 56 56 (2508800)
I1026 15:43:29.576800 37958 net.cpp:144] Memory required for data: 688966200
I1026 15:43:29.576809 37958 net.cpp:453] Found INQ layer:fire3/squeeze1x1, type: INQConvolution, layer id:13
I1026 15:43:29.576817 37958 net.cpp:453] Found INQ layer:fire3/squeeze1x1, type: INQConvolution, layer id:13
I1026 15:43:29.576823 37958 net.cpp:453] Found INQ layer:fire3/squeeze1x1, type: INQConvolution, layer id:13
I1026 15:43:29.576829 37958 net.cpp:453] Found INQ layer:fire3/squeeze1x1, type: INQConvolution, layer id:13
I1026 15:43:29.576833 37958 layer_factory.hpp:77] Creating layer fire3/relu_squeeze1x1
I1026 15:43:29.576843 37958 net.cpp:84] Creating Layer fire3/relu_squeeze1x1
I1026 15:43:29.576848 37958 net.cpp:413] fire3/relu_squeeze1x1 <- fire3/squeeze1x1
I1026 15:43:29.576858 37958 net.cpp:374] fire3/relu_squeeze1x1 -> fire3/squeeze1x1 (in-place)
I1026 15:43:29.577069 37958 net.cpp:127] Setting up fire3/relu_squeeze1x1
I1026 15:43:29.577081 37958 net.cpp:136] Top shape: 50 16 56 56 (2508800)
I1026 15:43:29.577086 37958 net.cpp:144] Memory required for data: 699001400
I1026 15:43:29.577092 37958 layer_factory.hpp:77] Creating layer fire3/squeeze1x1_fire3/relu_squeeze1x1_0_split
I1026 15:43:29.577100 37958 net.cpp:84] Creating Layer fire3/squeeze1x1_fire3/relu_squeeze1x1_0_split
I1026 15:43:29.577105 37958 net.cpp:413] fire3/squeeze1x1_fire3/relu_squeeze1x1_0_split <- fire3/squeeze1x1
I1026 15:43:29.577114 37958 net.cpp:387] fire3/squeeze1x1_fire3/relu_squeeze1x1_0_split -> fire3/squeeze1x1_fire3/relu_squeeze1x1_0_split_0
I1026 15:43:29.577123 37958 net.cpp:387] fire3/squeeze1x1_fire3/relu_squeeze1x1_0_split -> fire3/squeeze1x1_fire3/relu_squeeze1x1_0_split_1
I1026 15:43:29.577177 37958 net.cpp:127] Setting up fire3/squeeze1x1_fire3/relu_squeeze1x1_0_split
I1026 15:43:29.577188 37958 net.cpp:136] Top shape: 50 16 56 56 (2508800)
I1026 15:43:29.577195 37958 net.cpp:136] Top shape: 50 16 56 56 (2508800)
I1026 15:43:29.577200 37958 net.cpp:144] Memory required for data: 719071800
I1026 15:43:29.577205 37958 layer_factory.hpp:77] Creating layer fire3/expand1x1
I1026 15:43:29.577219 37958 net.cpp:84] Creating Layer fire3/expand1x1
I1026 15:43:29.577224 37958 net.cpp:413] fire3/expand1x1 <- fire3/squeeze1x1_fire3/relu_squeeze1x1_0_split_0
I1026 15:43:29.577234 37958 net.cpp:387] fire3/expand1x1 -> fire3/expand1x1
I1026 15:43:29.577605 37958 net.cpp:127] Setting up fire3/expand1x1
I1026 15:43:29.577617 37958 net.cpp:136] Top shape: 50 64 56 56 (10035200)
I1026 15:43:29.577623 37958 net.cpp:144] Memory required for data: 759212600
I1026 15:43:29.577630 37958 net.cpp:453] Found INQ layer:fire3/expand1x1, type: INQConvolution, layer id:16
I1026 15:43:29.577636 37958 net.cpp:453] Found INQ layer:fire3/expand1x1, type: INQConvolution, layer id:16
I1026 15:43:29.577641 37958 net.cpp:453] Found INQ layer:fire3/expand1x1, type: INQConvolution, layer id:16
I1026 15:43:29.577654 37958 net.cpp:453] Found INQ layer:fire3/expand1x1, type: INQConvolution, layer id:16
I1026 15:43:29.577673 37958 layer_factory.hpp:77] Creating layer fire3/relu_expand1x1
I1026 15:43:29.577682 37958 net.cpp:84] Creating Layer fire3/relu_expand1x1
I1026 15:43:29.577687 37958 net.cpp:413] fire3/relu_expand1x1 <- fire3/expand1x1
I1026 15:43:29.577694 37958 net.cpp:374] fire3/relu_expand1x1 -> fire3/expand1x1 (in-place)
I1026 15:43:29.577908 37958 net.cpp:127] Setting up fire3/relu_expand1x1
I1026 15:43:29.577920 37958 net.cpp:136] Top shape: 50 64 56 56 (10035200)
I1026 15:43:29.577925 37958 net.cpp:144] Memory required for data: 799353400
I1026 15:43:29.577931 37958 layer_factory.hpp:77] Creating layer fire3/expand3x3
I1026 15:43:29.577941 37958 net.cpp:84] Creating Layer fire3/expand3x3
I1026 15:43:29.577947 37958 net.cpp:413] fire3/expand3x3 <- fire3/squeeze1x1_fire3/relu_squeeze1x1_0_split_1
I1026 15:43:29.577957 37958 net.cpp:387] fire3/expand3x3 -> fire3/expand3x3
I1026 15:43:29.578402 37958 net.cpp:127] Setting up fire3/expand3x3
I1026 15:43:29.578414 37958 net.cpp:136] Top shape: 50 64 56 56 (10035200)
I1026 15:43:29.578419 37958 net.cpp:144] Memory required for data: 839494200
I1026 15:43:29.578425 37958 net.cpp:453] Found INQ layer:fire3/expand3x3, type: INQConvolution, layer id:18
I1026 15:43:29.578433 37958 net.cpp:453] Found INQ layer:fire3/expand3x3, type: INQConvolution, layer id:18
I1026 15:43:29.578438 37958 net.cpp:453] Found INQ layer:fire3/expand3x3, type: INQConvolution, layer id:18
I1026 15:43:29.578443 37958 net.cpp:453] Found INQ layer:fire3/expand3x3, type: INQConvolution, layer id:18
I1026 15:43:29.578446 37958 layer_factory.hpp:77] Creating layer fire3/relu_expand3x3
I1026 15:43:29.578460 37958 net.cpp:84] Creating Layer fire3/relu_expand3x3
I1026 15:43:29.578469 37958 net.cpp:413] fire3/relu_expand3x3 <- fire3/expand3x3
I1026 15:43:29.578477 37958 net.cpp:374] fire3/relu_expand3x3 -> fire3/expand3x3 (in-place)
I1026 15:43:29.579869 37958 net.cpp:127] Setting up fire3/relu_expand3x3
I1026 15:43:29.579887 37958 net.cpp:136] Top shape: 50 64 56 56 (10035200)
I1026 15:43:29.579893 37958 net.cpp:144] Memory required for data: 879635000
I1026 15:43:29.579898 37958 layer_factory.hpp:77] Creating layer fire3/concat
I1026 15:43:29.579906 37958 net.cpp:84] Creating Layer fire3/concat
I1026 15:43:29.579912 37958 net.cpp:413] fire3/concat <- fire3/expand1x1
I1026 15:43:29.579919 37958 net.cpp:413] fire3/concat <- fire3/expand3x3
I1026 15:43:29.579926 37958 net.cpp:387] fire3/concat -> fire3/concat
I1026 15:43:29.579965 37958 net.cpp:127] Setting up fire3/concat
I1026 15:43:29.579974 37958 net.cpp:136] Top shape: 50 128 56 56 (20070400)
I1026 15:43:29.579978 37958 net.cpp:144] Memory required for data: 959916600
I1026 15:43:29.579983 37958 layer_factory.hpp:77] Creating layer pool3
I1026 15:43:29.579993 37958 net.cpp:84] Creating Layer pool3
I1026 15:43:29.579998 37958 net.cpp:413] pool3 <- fire3/concat
I1026 15:43:29.580004 37958 net.cpp:387] pool3 -> pool3
I1026 15:43:29.580054 37958 net.cpp:127] Setting up pool3
I1026 15:43:29.580061 37958 net.cpp:136] Top shape: 50 128 28 28 (5017600)
I1026 15:43:29.580066 37958 net.cpp:144] Memory required for data: 979987000
I1026 15:43:29.580070 37958 layer_factory.hpp:77] Creating layer fire4/squeeze1x1
I1026 15:43:29.580082 37958 net.cpp:84] Creating Layer fire4/squeeze1x1
I1026 15:43:29.580088 37958 net.cpp:413] fire4/squeeze1x1 <- pool3
I1026 15:43:29.580097 37958 net.cpp:387] fire4/squeeze1x1 -> fire4/squeeze1x1
I1026 15:43:29.580498 37958 net.cpp:127] Setting up fire4/squeeze1x1
I1026 15:43:29.580513 37958 net.cpp:136] Top shape: 50 32 28 28 (1254400)
I1026 15:43:29.580519 37958 net.cpp:144] Memory required for data: 985004600
I1026 15:43:29.580526 37958 net.cpp:453] Found INQ layer:fire4/squeeze1x1, type: INQConvolution, layer id:22
I1026 15:43:29.580533 37958 net.cpp:453] Found INQ layer:fire4/squeeze1x1, type: INQConvolution, layer id:22
I1026 15:43:29.580539 37958 net.cpp:453] Found INQ layer:fire4/squeeze1x1, type: INQConvolution, layer id:22
I1026 15:43:29.580551 37958 net.cpp:453] Found INQ layer:fire4/squeeze1x1, type: INQConvolution, layer id:22
I1026 15:43:29.580569 37958 layer_factory.hpp:77] Creating layer fire4/relu_squeeze1x1
I1026 15:43:29.580577 37958 net.cpp:84] Creating Layer fire4/relu_squeeze1x1
I1026 15:43:29.580582 37958 net.cpp:413] fire4/relu_squeeze1x1 <- fire4/squeeze1x1
I1026 15:43:29.580590 37958 net.cpp:374] fire4/relu_squeeze1x1 -> fire4/squeeze1x1 (in-place)
I1026 15:43:29.580807 37958 net.cpp:127] Setting up fire4/relu_squeeze1x1
I1026 15:43:29.580819 37958 net.cpp:136] Top shape: 50 32 28 28 (1254400)
I1026 15:43:29.580826 37958 net.cpp:144] Memory required for data: 990022200
I1026 15:43:29.580832 37958 layer_factory.hpp:77] Creating layer fire4/squeeze1x1_fire4/relu_squeeze1x1_0_split
I1026 15:43:29.580838 37958 net.cpp:84] Creating Layer fire4/squeeze1x1_fire4/relu_squeeze1x1_0_split
I1026 15:43:29.580843 37958 net.cpp:413] fire4/squeeze1x1_fire4/relu_squeeze1x1_0_split <- fire4/squeeze1x1
I1026 15:43:29.580850 37958 net.cpp:387] fire4/squeeze1x1_fire4/relu_squeeze1x1_0_split -> fire4/squeeze1x1_fire4/relu_squeeze1x1_0_split_0
I1026 15:43:29.580860 37958 net.cpp:387] fire4/squeeze1x1_fire4/relu_squeeze1x1_0_split -> fire4/squeeze1x1_fire4/relu_squeeze1x1_0_split_1
I1026 15:43:29.580911 37958 net.cpp:127] Setting up fire4/squeeze1x1_fire4/relu_squeeze1x1_0_split
I1026 15:43:29.580921 37958 net.cpp:136] Top shape: 50 32 28 28 (1254400)
I1026 15:43:29.580927 37958 net.cpp:136] Top shape: 50 32 28 28 (1254400)
I1026 15:43:29.580932 37958 net.cpp:144] Memory required for data: 1000057400
I1026 15:43:29.580937 37958 layer_factory.hpp:77] Creating layer fire4/expand1x1
I1026 15:43:29.580948 37958 net.cpp:84] Creating Layer fire4/expand1x1
I1026 15:43:29.580955 37958 net.cpp:413] fire4/expand1x1 <- fire4/squeeze1x1_fire4/relu_squeeze1x1_0_split_0
I1026 15:43:29.580963 37958 net.cpp:387] fire4/expand1x1 -> fire4/expand1x1
I1026 15:43:29.581341 37958 net.cpp:127] Setting up fire4/expand1x1
I1026 15:43:29.581356 37958 net.cpp:136] Top shape: 50 128 28 28 (5017600)
I1026 15:43:29.581360 37958 net.cpp:144] Memory required for data: 1020127800
I1026 15:43:29.581370 37958 net.cpp:453] Found INQ layer:fire4/expand1x1, type: INQConvolution, layer id:25
I1026 15:43:29.581380 37958 net.cpp:453] Found INQ layer:fire4/expand1x1, type: INQConvolution, layer id:25
I1026 15:43:29.581387 37958 net.cpp:453] Found INQ layer:fire4/expand1x1, type: INQConvolution, layer id:25
I1026 15:43:29.581393 37958 net.cpp:453] Found INQ layer:fire4/expand1x1, type: INQConvolution, layer id:25
I1026 15:43:29.581400 37958 layer_factory.hpp:77] Creating layer fire4/relu_expand1x1
I1026 15:43:29.581411 37958 net.cpp:84] Creating Layer fire4/relu_expand1x1
I1026 15:43:29.581416 37958 net.cpp:413] fire4/relu_expand1x1 <- fire4/expand1x1
I1026 15:43:29.581423 37958 net.cpp:374] fire4/relu_expand1x1 -> fire4/expand1x1 (in-place)
I1026 15:43:29.581635 37958 net.cpp:127] Setting up fire4/relu_expand1x1
I1026 15:43:29.581647 37958 net.cpp:136] Top shape: 50 128 28 28 (5017600)
I1026 15:43:29.581653 37958 net.cpp:144] Memory required for data: 1040198200
I1026 15:43:29.581658 37958 layer_factory.hpp:77] Creating layer fire4/expand3x3
I1026 15:43:29.581672 37958 net.cpp:84] Creating Layer fire4/expand3x3
I1026 15:43:29.581677 37958 net.cpp:413] fire4/expand3x3 <- fire4/squeeze1x1_fire4/relu_squeeze1x1_0_split_1
I1026 15:43:29.581686 37958 net.cpp:387] fire4/expand3x3 -> fire4/expand3x3
I1026 15:43:29.582365 37958 net.cpp:127] Setting up fire4/expand3x3
I1026 15:43:29.582377 37958 net.cpp:136] Top shape: 50 128 28 28 (5017600)
I1026 15:43:29.582382 37958 net.cpp:144] Memory required for data: 1060268600
I1026 15:43:29.582388 37958 net.cpp:453] Found INQ layer:fire4/expand3x3, type: INQConvolution, layer id:27
I1026 15:43:29.582396 37958 net.cpp:453] Found INQ layer:fire4/expand3x3, type: INQConvolution, layer id:27
I1026 15:43:29.582401 37958 net.cpp:453] Found INQ layer:fire4/expand3x3, type: INQConvolution, layer id:27
I1026 15:43:29.582412 37958 net.cpp:453] Found INQ layer:fire4/expand3x3, type: INQConvolution, layer id:27
I1026 15:43:29.582428 37958 layer_factory.hpp:77] Creating layer fire4/relu_expand3x3
I1026 15:43:29.582438 37958 net.cpp:84] Creating Layer fire4/relu_expand3x3
I1026 15:43:29.582443 37958 net.cpp:413] fire4/relu_expand3x3 <- fire4/expand3x3
I1026 15:43:29.582449 37958 net.cpp:374] fire4/relu_expand3x3 -> fire4/expand3x3 (in-place)
I1026 15:43:29.582662 37958 net.cpp:127] Setting up fire4/relu_expand3x3
I1026 15:43:29.582674 37958 net.cpp:136] Top shape: 50 128 28 28 (5017600)
I1026 15:43:29.582679 37958 net.cpp:144] Memory required for data: 1080339000
I1026 15:43:29.582684 37958 layer_factory.hpp:77] Creating layer fire4/concat
I1026 15:43:29.582692 37958 net.cpp:84] Creating Layer fire4/concat
I1026 15:43:29.582697 37958 net.cpp:413] fire4/concat <- fire4/expand1x1
I1026 15:43:29.582702 37958 net.cpp:413] fire4/concat <- fire4/expand3x3
I1026 15:43:29.582710 37958 net.cpp:387] fire4/concat -> fire4/concat
I1026 15:43:29.582743 37958 net.cpp:127] Setting up fire4/concat
I1026 15:43:29.582751 37958 net.cpp:136] Top shape: 50 256 28 28 (10035200)
I1026 15:43:29.582756 37958 net.cpp:144] Memory required for data: 1120479800
I1026 15:43:29.582762 37958 layer_factory.hpp:77] Creating layer fire5/squeeze1x1
I1026 15:43:29.582773 37958 net.cpp:84] Creating Layer fire5/squeeze1x1
I1026 15:43:29.582779 37958 net.cpp:413] fire5/squeeze1x1 <- fire4/concat
I1026 15:43:29.582790 37958 net.cpp:387] fire5/squeeze1x1 -> fire5/squeeze1x1
I1026 15:43:29.583212 37958 net.cpp:127] Setting up fire5/squeeze1x1
I1026 15:43:29.583225 37958 net.cpp:136] Top shape: 50 32 28 28 (1254400)
I1026 15:43:29.583230 37958 net.cpp:144] Memory required for data: 1125497400
I1026 15:43:29.583235 37958 net.cpp:453] Found INQ layer:fire5/squeeze1x1, type: INQConvolution, layer id:30
I1026 15:43:29.583242 37958 net.cpp:453] Found INQ layer:fire5/squeeze1x1, type: INQConvolution, layer id:30
I1026 15:43:29.583247 37958 net.cpp:453] Found INQ layer:fire5/squeeze1x1, type: INQConvolution, layer id:30
I1026 15:43:29.583252 37958 net.cpp:453] Found INQ layer:fire5/squeeze1x1, type: INQConvolution, layer id:30
I1026 15:43:29.583258 37958 layer_factory.hpp:77] Creating layer fire5/relu_squeeze1x1
I1026 15:43:29.583267 37958 net.cpp:84] Creating Layer fire5/relu_squeeze1x1
I1026 15:43:29.583273 37958 net.cpp:413] fire5/relu_squeeze1x1 <- fire5/squeeze1x1
I1026 15:43:29.583281 37958 net.cpp:374] fire5/relu_squeeze1x1 -> fire5/squeeze1x1 (in-place)
I1026 15:43:29.584710 37958 net.cpp:127] Setting up fire5/relu_squeeze1x1
I1026 15:43:29.584728 37958 net.cpp:136] Top shape: 50 32 28 28 (1254400)
I1026 15:43:29.584734 37958 net.cpp:144] Memory required for data: 1130515000
I1026 15:43:29.584740 37958 layer_factory.hpp:77] Creating layer fire5/squeeze1x1_fire5/relu_squeeze1x1_0_split
I1026 15:43:29.584753 37958 net.cpp:84] Creating Layer fire5/squeeze1x1_fire5/relu_squeeze1x1_0_split
I1026 15:43:29.584758 37958 net.cpp:413] fire5/squeeze1x1_fire5/relu_squeeze1x1_0_split <- fire5/squeeze1x1
I1026 15:43:29.584767 37958 net.cpp:387] fire5/squeeze1x1_fire5/relu_squeeze1x1_0_split -> fire5/squeeze1x1_fire5/relu_squeeze1x1_0_split_0
I1026 15:43:29.584779 37958 net.cpp:387] fire5/squeeze1x1_fire5/relu_squeeze1x1_0_split -> fire5/squeeze1x1_fire5/relu_squeeze1x1_0_split_1
I1026 15:43:29.584836 37958 net.cpp:127] Setting up fire5/squeeze1x1_fire5/relu_squeeze1x1_0_split
I1026 15:43:29.584844 37958 net.cpp:136] Top shape: 50 32 28 28 (1254400)
I1026 15:43:29.584851 37958 net.cpp:136] Top shape: 50 32 28 28 (1254400)
I1026 15:43:29.584856 37958 net.cpp:144] Memory required for data: 1140550200
I1026 15:43:29.584859 37958 layer_factory.hpp:77] Creating layer fire5/expand1x1
I1026 15:43:29.584872 37958 net.cpp:84] Creating Layer fire5/expand1x1
I1026 15:43:29.584877 37958 net.cpp:413] fire5/expand1x1 <- fire5/squeeze1x1_fire5/relu_squeeze1x1_0_split_0
I1026 15:43:29.584887 37958 net.cpp:387] fire5/expand1x1 -> fire5/expand1x1
I1026 15:43:29.585260 37958 net.cpp:127] Setting up fire5/expand1x1
I1026 15:43:29.585278 37958 net.cpp:136] Top shape: 50 128 28 28 (5017600)
I1026 15:43:29.585294 37958 net.cpp:144] Memory required for data: 1160620600
I1026 15:43:29.585306 37958 net.cpp:453] Found INQ layer:fire5/expand1x1, type: INQConvolution, layer id:33
I1026 15:43:29.585314 37958 net.cpp:453] Found INQ layer:fire5/expand1x1, type: INQConvolution, layer id:33
I1026 15:43:29.585321 37958 net.cpp:453] Found INQ layer:fire5/expand1x1, type: INQConvolution, layer id:33
I1026 15:43:29.585330 37958 net.cpp:453] Found INQ layer:fire5/expand1x1, type: INQConvolution, layer id:33
I1026 15:43:29.585335 37958 layer_factory.hpp:77] Creating layer fire5/relu_expand1x1
I1026 15:43:29.585342 37958 net.cpp:84] Creating Layer fire5/relu_expand1x1
I1026 15:43:29.585347 37958 net.cpp:413] fire5/relu_expand1x1 <- fire5/expand1x1
I1026 15:43:29.585356 37958 net.cpp:374] fire5/relu_expand1x1 -> fire5/expand1x1 (in-place)
I1026 15:43:29.585567 37958 net.cpp:127] Setting up fire5/relu_expand1x1
I1026 15:43:29.585578 37958 net.cpp:136] Top shape: 50 128 28 28 (5017600)
I1026 15:43:29.585584 37958 net.cpp:144] Memory required for data: 1180691000
I1026 15:43:29.585590 37958 layer_factory.hpp:77] Creating layer fire5/expand3x3
I1026 15:43:29.585602 37958 net.cpp:84] Creating Layer fire5/expand3x3
I1026 15:43:29.585608 37958 net.cpp:413] fire5/expand3x3 <- fire5/squeeze1x1_fire5/relu_squeeze1x1_0_split_1
I1026 15:43:29.585618 37958 net.cpp:387] fire5/expand3x3 -> fire5/expand3x3
I1026 15:43:29.586277 37958 net.cpp:127] Setting up fire5/expand3x3
I1026 15:43:29.586292 37958 net.cpp:136] Top shape: 50 128 28 28 (5017600)
I1026 15:43:29.586302 37958 net.cpp:144] Memory required for data: 1200761400
I1026 15:43:29.586309 37958 net.cpp:453] Found INQ layer:fire5/expand3x3, type: INQConvolution, layer id:35
I1026 15:43:29.586316 37958 net.cpp:453] Found INQ layer:fire5/expand3x3, type: INQConvolution, layer id:35
I1026 15:43:29.586321 37958 net.cpp:453] Found INQ layer:fire5/expand3x3, type: INQConvolution, layer id:35
I1026 15:43:29.586328 37958 net.cpp:453] Found INQ layer:fire5/expand3x3, type: INQConvolution, layer id:35
I1026 15:43:29.586334 37958 layer_factory.hpp:77] Creating layer fire5/relu_expand3x3
I1026 15:43:29.586345 37958 net.cpp:84] Creating Layer fire5/relu_expand3x3
I1026 15:43:29.586350 37958 net.cpp:413] fire5/relu_expand3x3 <- fire5/expand3x3
I1026 15:43:29.586357 37958 net.cpp:374] fire5/relu_expand3x3 -> fire5/expand3x3 (in-place)
I1026 15:43:29.586568 37958 net.cpp:127] Setting up fire5/relu_expand3x3
I1026 15:43:29.586582 37958 net.cpp:136] Top shape: 50 128 28 28 (5017600)
I1026 15:43:29.586589 37958 net.cpp:144] Memory required for data: 1220831800
I1026 15:43:29.586594 37958 layer_factory.hpp:77] Creating layer fire5/concat
I1026 15:43:29.586601 37958 net.cpp:84] Creating Layer fire5/concat
I1026 15:43:29.586607 37958 net.cpp:413] fire5/concat <- fire5/expand1x1
I1026 15:43:29.586613 37958 net.cpp:413] fire5/concat <- fire5/expand3x3
I1026 15:43:29.586619 37958 net.cpp:387] fire5/concat -> fire5/concat
I1026 15:43:29.586654 37958 net.cpp:127] Setting up fire5/concat
I1026 15:43:29.586661 37958 net.cpp:136] Top shape: 50 256 28 28 (10035200)
I1026 15:43:29.586666 37958 net.cpp:144] Memory required for data: 1260972600
I1026 15:43:29.586670 37958 layer_factory.hpp:77] Creating layer pool5
I1026 15:43:29.586681 37958 net.cpp:84] Creating Layer pool5
I1026 15:43:29.586686 37958 net.cpp:413] pool5 <- fire5/concat
I1026 15:43:29.586694 37958 net.cpp:387] pool5 -> pool5
I1026 15:43:29.586745 37958 net.cpp:127] Setting up pool5
I1026 15:43:29.586755 37958 net.cpp:136] Top shape: 50 256 14 14 (2508800)
I1026 15:43:29.586760 37958 net.cpp:144] Memory required for data: 1271007800
I1026 15:43:29.586766 37958 layer_factory.hpp:77] Creating layer fire6/squeeze1x1
I1026 15:43:29.586776 37958 net.cpp:84] Creating Layer fire6/squeeze1x1
I1026 15:43:29.586783 37958 net.cpp:413] fire6/squeeze1x1 <- pool5
I1026 15:43:29.586792 37958 net.cpp:387] fire6/squeeze1x1 -> fire6/squeeze1x1
I1026 15:43:29.587242 37958 net.cpp:127] Setting up fire6/squeeze1x1
I1026 15:43:29.587258 37958 net.cpp:136] Top shape: 50 48 14 14 (470400)
I1026 15:43:29.587273 37958 net.cpp:144] Memory required for data: 1272889400
I1026 15:43:29.587280 37958 net.cpp:453] Found INQ layer:fire6/squeeze1x1, type: INQConvolution, layer id:39
I1026 15:43:29.587286 37958 net.cpp:453] Found INQ layer:fire6/squeeze1x1, type: INQConvolution, layer id:39
I1026 15:43:29.587292 37958 net.cpp:453] Found INQ layer:fire6/squeeze1x1, type: INQConvolution, layer id:39
I1026 15:43:29.587302 37958 net.cpp:453] Found INQ layer:fire6/squeeze1x1, type: INQConvolution, layer id:39
I1026 15:43:29.587309 37958 layer_factory.hpp:77] Creating layer fire6/relu_squeeze1x1
I1026 15:43:29.587318 37958 net.cpp:84] Creating Layer fire6/relu_squeeze1x1
I1026 15:43:29.587326 37958 net.cpp:413] fire6/relu_squeeze1x1 <- fire6/squeeze1x1
I1026 15:43:29.587334 37958 net.cpp:374] fire6/relu_squeeze1x1 -> fire6/squeeze1x1 (in-place)
I1026 15:43:29.587553 37958 net.cpp:127] Setting up fire6/relu_squeeze1x1
I1026 15:43:29.587564 37958 net.cpp:136] Top shape: 50 48 14 14 (470400)
I1026 15:43:29.587569 37958 net.cpp:144] Memory required for data: 1274771000
I1026 15:43:29.587575 37958 layer_factory.hpp:77] Creating layer fire6/squeeze1x1_fire6/relu_squeeze1x1_0_split
I1026 15:43:29.587582 37958 net.cpp:84] Creating Layer fire6/squeeze1x1_fire6/relu_squeeze1x1_0_split
I1026 15:43:29.587587 37958 net.cpp:413] fire6/squeeze1x1_fire6/relu_squeeze1x1_0_split <- fire6/squeeze1x1
I1026 15:43:29.587599 37958 net.cpp:387] fire6/squeeze1x1_fire6/relu_squeeze1x1_0_split -> fire6/squeeze1x1_fire6/relu_squeeze1x1_0_split_0
I1026 15:43:29.587606 37958 net.cpp:387] fire6/squeeze1x1_fire6/relu_squeeze1x1_0_split -> fire6/squeeze1x1_fire6/relu_squeeze1x1_0_split_1
I1026 15:43:29.587663 37958 net.cpp:127] Setting up fire6/squeeze1x1_fire6/relu_squeeze1x1_0_split
I1026 15:43:29.587672 37958 net.cpp:136] Top shape: 50 48 14 14 (470400)
I1026 15:43:29.587678 37958 net.cpp:136] Top shape: 50 48 14 14 (470400)
I1026 15:43:29.587683 37958 net.cpp:144] Memory required for data: 1278534200
I1026 15:43:29.587688 37958 layer_factory.hpp:77] Creating layer fire6/expand1x1
I1026 15:43:29.587702 37958 net.cpp:84] Creating Layer fire6/expand1x1
I1026 15:43:29.587707 37958 net.cpp:413] fire6/expand1x1 <- fire6/squeeze1x1_fire6/relu_squeeze1x1_0_split_0
I1026 15:43:29.587714 37958 net.cpp:387] fire6/expand1x1 -> fire6/expand1x1
I1026 15:43:29.588135 37958 net.cpp:127] Setting up fire6/expand1x1
I1026 15:43:29.588145 37958 net.cpp:136] Top shape: 50 192 14 14 (1881600)
I1026 15:43:29.588150 37958 net.cpp:144] Memory required for data: 1286060600
I1026 15:43:29.588156 37958 net.cpp:453] Found INQ layer:fire6/expand1x1, type: INQConvolution, layer id:42
I1026 15:43:29.588163 37958 net.cpp:453] Found INQ layer:fire6/expand1x1, type: INQConvolution, layer id:42
I1026 15:43:29.588171 37958 net.cpp:453] Found INQ layer:fire6/expand1x1, type: INQConvolution, layer id:42
I1026 15:43:29.588176 37958 net.cpp:453] Found INQ layer:fire6/expand1x1, type: INQConvolution, layer id:42
I1026 15:43:29.588181 37958 layer_factory.hpp:77] Creating layer fire6/relu_expand1x1
I1026 15:43:29.588188 37958 net.cpp:84] Creating Layer fire6/relu_expand1x1
I1026 15:43:29.588193 37958 net.cpp:413] fire6/relu_expand1x1 <- fire6/expand1x1
I1026 15:43:29.588204 37958 net.cpp:374] fire6/relu_expand1x1 -> fire6/expand1x1 (in-place)
I1026 15:43:29.589593 37958 net.cpp:127] Setting up fire6/relu_expand1x1
I1026 15:43:29.589612 37958 net.cpp:136] Top shape: 50 192 14 14 (1881600)
I1026 15:43:29.589617 37958 net.cpp:144] Memory required for data: 1293587000
I1026 15:43:29.589623 37958 layer_factory.hpp:77] Creating layer fire6/expand3x3
I1026 15:43:29.589637 37958 net.cpp:84] Creating Layer fire6/expand3x3
I1026 15:43:29.589645 37958 net.cpp:413] fire6/expand3x3 <- fire6/squeeze1x1_fire6/relu_squeeze1x1_0_split_1
I1026 15:43:29.589655 37958 net.cpp:387] fire6/expand3x3 -> fire6/expand3x3
I1026 15:43:29.593120 37958 net.cpp:127] Setting up fire6/expand3x3
I1026 15:43:29.593137 37958 net.cpp:136] Top shape: 50 192 14 14 (1881600)
I1026 15:43:29.593152 37958 net.cpp:144] Memory required for data: 1301113400
I1026 15:43:29.593178 37958 net.cpp:453] Found INQ layer:fire6/expand3x3, type: INQConvolution, layer id:44
I1026 15:43:29.593190 37958 net.cpp:453] Found INQ layer:fire6/expand3x3, type: INQConvolution, layer id:44
I1026 15:43:29.593197 37958 net.cpp:453] Found INQ layer:fire6/expand3x3, type: INQConvolution, layer id:44
I1026 15:43:29.593202 37958 net.cpp:453] Found INQ layer:fire6/expand3x3, type: INQConvolution, layer id:44
I1026 15:43:29.593209 37958 layer_factory.hpp:77] Creating layer fire6/relu_expand3x3
I1026 15:43:29.593221 37958 net.cpp:84] Creating Layer fire6/relu_expand3x3
I1026 15:43:29.593227 37958 net.cpp:413] fire6/relu_expand3x3 <- fire6/expand3x3
I1026 15:43:29.593236 37958 net.cpp:374] fire6/relu_expand3x3 -> fire6/expand3x3 (in-place)
I1026 15:43:29.593627 37958 net.cpp:127] Setting up fire6/relu_expand3x3
I1026 15:43:29.593643 37958 net.cpp:136] Top shape: 50 192 14 14 (1881600)
I1026 15:43:29.593649 37958 net.cpp:144] Memory required for data: 1308639800
I1026 15:43:29.593657 37958 layer_factory.hpp:77] Creating layer fire6/concat
I1026 15:43:29.593667 37958 net.cpp:84] Creating Layer fire6/concat
I1026 15:43:29.593672 37958 net.cpp:413] fire6/concat <- fire6/expand1x1
I1026 15:43:29.593677 37958 net.cpp:413] fire6/concat <- fire6/expand3x3
I1026 15:43:29.593684 37958 net.cpp:387] fire6/concat -> fire6/concat
I1026 15:43:29.593734 37958 net.cpp:127] Setting up fire6/concat
I1026 15:43:29.593752 37958 net.cpp:136] Top shape: 50 384 14 14 (3763200)
I1026 15:43:29.593756 37958 net.cpp:144] Memory required for data: 1323692600
I1026 15:43:29.593762 37958 layer_factory.hpp:77] Creating layer fire7/squeeze1x1
I1026 15:43:29.593780 37958 net.cpp:84] Creating Layer fire7/squeeze1x1
I1026 15:43:29.593787 37958 net.cpp:413] fire7/squeeze1x1 <- fire6/concat
I1026 15:43:29.593794 37958 net.cpp:387] fire7/squeeze1x1 -> fire7/squeeze1x1
I1026 15:43:29.594324 37958 net.cpp:127] Setting up fire7/squeeze1x1
I1026 15:43:29.594338 37958 net.cpp:136] Top shape: 50 48 14 14 (470400)
I1026 15:43:29.594344 37958 net.cpp:144] Memory required for data: 1325574200
I1026 15:43:29.594362 37958 net.cpp:453] Found INQ layer:fire7/squeeze1x1, type: INQConvolution, layer id:47
I1026 15:43:29.594372 37958 net.cpp:453] Found INQ layer:fire7/squeeze1x1, type: INQConvolution, layer id:47
I1026 15:43:29.594379 37958 net.cpp:453] Found INQ layer:fire7/squeeze1x1, type: INQConvolution, layer id:47
I1026 15:43:29.594384 37958 net.cpp:453] Found INQ layer:fire7/squeeze1x1, type: INQConvolution, layer id:47
I1026 15:43:29.594390 37958 layer_factory.hpp:77] Creating layer fire7/relu_squeeze1x1
I1026 15:43:29.594399 37958 net.cpp:84] Creating Layer fire7/relu_squeeze1x1
I1026 15:43:29.594405 37958 net.cpp:413] fire7/relu_squeeze1x1 <- fire7/squeeze1x1
I1026 15:43:29.594413 37958 net.cpp:374] fire7/relu_squeeze1x1 -> fire7/squeeze1x1 (in-place)
I1026 15:43:29.594624 37958 net.cpp:127] Setting up fire7/relu_squeeze1x1
I1026 15:43:29.594636 37958 net.cpp:136] Top shape: 50 48 14 14 (470400)
I1026 15:43:29.594641 37958 net.cpp:144] Memory required for data: 1327455800
I1026 15:43:29.594648 37958 layer_factory.hpp:77] Creating layer fire7/squeeze1x1_fire7/relu_squeeze1x1_0_split
I1026 15:43:29.594663 37958 net.cpp:84] Creating Layer fire7/squeeze1x1_fire7/relu_squeeze1x1_0_split
I1026 15:43:29.594669 37958 net.cpp:413] fire7/squeeze1x1_fire7/relu_squeeze1x1_0_split <- fire7/squeeze1x1
I1026 15:43:29.594676 37958 net.cpp:387] fire7/squeeze1x1_fire7/relu_squeeze1x1_0_split -> fire7/squeeze1x1_fire7/relu_squeeze1x1_0_split_0
I1026 15:43:29.594686 37958 net.cpp:387] fire7/squeeze1x1_fire7/relu_squeeze1x1_0_split -> fire7/squeeze1x1_fire7/relu_squeeze1x1_0_split_1
I1026 15:43:29.594736 37958 net.cpp:127] Setting up fire7/squeeze1x1_fire7/relu_squeeze1x1_0_split
I1026 15:43:29.594746 37958 net.cpp:136] Top shape: 50 48 14 14 (470400)
I1026 15:43:29.594753 37958 net.cpp:136] Top shape: 50 48 14 14 (470400)
I1026 15:43:29.594758 37958 net.cpp:144] Memory required for data: 1331219000
I1026 15:43:29.594769 37958 layer_factory.hpp:77] Creating layer fire7/expand1x1
I1026 15:43:29.594792 37958 net.cpp:84] Creating Layer fire7/expand1x1
I1026 15:43:29.594799 37958 net.cpp:413] fire7/expand1x1 <- fire7/squeeze1x1_fire7/relu_squeeze1x1_0_split_0
I1026 15:43:29.594808 37958 net.cpp:387] fire7/expand1x1 -> fire7/expand1x1
I1026 15:43:29.595237 37958 net.cpp:127] Setting up fire7/expand1x1
I1026 15:43:29.595249 37958 net.cpp:136] Top shape: 50 192 14 14 (1881600)
I1026 15:43:29.595254 37958 net.cpp:144] Memory required for data: 1338745400
I1026 15:43:29.595260 37958 net.cpp:453] Found INQ layer:fire7/expand1x1, type: INQConvolution, layer id:50
I1026 15:43:29.595268 37958 net.cpp:453] Found INQ layer:fire7/expand1x1, type: INQConvolution, layer id:50
I1026 15:43:29.595273 37958 net.cpp:453] Found INQ layer:fire7/expand1x1, type: INQConvolution, layer id:50
I1026 15:43:29.595279 37958 net.cpp:453] Found INQ layer:fire7/expand1x1, type: INQConvolution, layer id:50
I1026 15:43:29.595283 37958 layer_factory.hpp:77] Creating layer fire7/relu_expand1x1
I1026 15:43:29.595290 37958 net.cpp:84] Creating Layer fire7/relu_expand1x1
I1026 15:43:29.595295 37958 net.cpp:413] fire7/relu_expand1x1 <- fire7/expand1x1
I1026 15:43:29.595309 37958 net.cpp:374] fire7/relu_expand1x1 -> fire7/expand1x1 (in-place)
I1026 15:43:29.596784 37958 net.cpp:127] Setting up fire7/relu_expand1x1
I1026 15:43:29.596803 37958 net.cpp:136] Top shape: 50 192 14 14 (1881600)
I1026 15:43:29.596812 37958 net.cpp:144] Memory required for data: 1346271800
I1026 15:43:29.596819 37958 layer_factory.hpp:77] Creating layer fire7/expand3x3
I1026 15:43:29.596834 37958 net.cpp:84] Creating Layer fire7/expand3x3
I1026 15:43:29.596840 37958 net.cpp:413] fire7/expand3x3 <- fire7/squeeze1x1_fire7/relu_squeeze1x1_0_split_1
I1026 15:43:29.596851 37958 net.cpp:387] fire7/expand3x3 -> fire7/expand3x3
I1026 15:43:29.597931 37958 net.cpp:127] Setting up fire7/expand3x3
I1026 15:43:29.597949 37958 net.cpp:136] Top shape: 50 192 14 14 (1881600)
I1026 15:43:29.597954 37958 net.cpp:144] Memory required for data: 1353798200
I1026 15:43:29.597960 37958 net.cpp:453] Found INQ layer:fire7/expand3x3, type: INQConvolution, layer id:52
I1026 15:43:29.597967 37958 net.cpp:453] Found INQ layer:fire7/expand3x3, type: INQConvolution, layer id:52
I1026 15:43:29.597976 37958 net.cpp:453] Found INQ layer:fire7/expand3x3, type: INQConvolution, layer id:52
I1026 15:43:29.597981 37958 net.cpp:453] Found INQ layer:fire7/expand3x3, type: INQConvolution, layer id:52
I1026 15:43:29.597986 37958 layer_factory.hpp:77] Creating layer fire7/relu_expand3x3
I1026 15:43:29.597995 37958 net.cpp:84] Creating Layer fire7/relu_expand3x3
I1026 15:43:29.598001 37958 net.cpp:413] fire7/relu_expand3x3 <- fire7/expand3x3
I1026 15:43:29.598006 37958 net.cpp:374] fire7/relu_expand3x3 -> fire7/expand3x3 (in-place)
I1026 15:43:29.598222 37958 net.cpp:127] Setting up fire7/relu_expand3x3
I1026 15:43:29.598235 37958 net.cpp:136] Top shape: 50 192 14 14 (1881600)
I1026 15:43:29.598242 37958 net.cpp:144] Memory required for data: 1361324600
I1026 15:43:29.598248 37958 layer_factory.hpp:77] Creating layer fire7/concat
I1026 15:43:29.598255 37958 net.cpp:84] Creating Layer fire7/concat
I1026 15:43:29.598260 37958 net.cpp:413] fire7/concat <- fire7/expand1x1
I1026 15:43:29.598268 37958 net.cpp:413] fire7/concat <- fire7/expand3x3
I1026 15:43:29.598274 37958 net.cpp:387] fire7/concat -> fire7/concat
I1026 15:43:29.598315 37958 net.cpp:127] Setting up fire7/concat
I1026 15:43:29.598328 37958 net.cpp:136] Top shape: 50 384 14 14 (3763200)
I1026 15:43:29.598335 37958 net.cpp:144] Memory required for data: 1376377400
I1026 15:43:29.598340 37958 layer_factory.hpp:77] Creating layer fire8/squeeze1x1
I1026 15:43:29.598353 37958 net.cpp:84] Creating Layer fire8/squeeze1x1
I1026 15:43:29.598358 37958 net.cpp:413] fire8/squeeze1x1 <- fire7/concat
I1026 15:43:29.598368 37958 net.cpp:387] fire8/squeeze1x1 -> fire8/squeeze1x1
I1026 15:43:29.600330 37958 net.cpp:127] Setting up fire8/squeeze1x1
I1026 15:43:29.600356 37958 net.cpp:136] Top shape: 50 64 14 14 (627200)
I1026 15:43:29.600368 37958 net.cpp:144] Memory required for data: 1378886200
I1026 15:43:29.600388 37958 net.cpp:453] Found INQ layer:fire8/squeeze1x1, type: INQConvolution, layer id:55
I1026 15:43:29.600395 37958 net.cpp:453] Found INQ layer:fire8/squeeze1x1, type: INQConvolution, layer id:55
I1026 15:43:29.600400 37958 net.cpp:453] Found INQ layer:fire8/squeeze1x1, type: INQConvolution, layer id:55
I1026 15:43:29.600406 37958 net.cpp:453] Found INQ layer:fire8/squeeze1x1, type: INQConvolution, layer id:55
I1026 15:43:29.600410 37958 layer_factory.hpp:77] Creating layer fire8/relu_squeeze1x1
I1026 15:43:29.600420 37958 net.cpp:84] Creating Layer fire8/relu_squeeze1x1
I1026 15:43:29.600426 37958 net.cpp:413] fire8/relu_squeeze1x1 <- fire8/squeeze1x1
I1026 15:43:29.600435 37958 net.cpp:374] fire8/relu_squeeze1x1 -> fire8/squeeze1x1 (in-place)
I1026 15:43:29.600664 37958 net.cpp:127] Setting up fire8/relu_squeeze1x1
I1026 15:43:29.600677 37958 net.cpp:136] Top shape: 50 64 14 14 (627200)
I1026 15:43:29.600682 37958 net.cpp:144] Memory required for data: 1381395000
I1026 15:43:29.600688 37958 layer_factory.hpp:77] Creating layer fire8/squeeze1x1_fire8/relu_squeeze1x1_0_split
I1026 15:43:29.600695 37958 net.cpp:84] Creating Layer fire8/squeeze1x1_fire8/relu_squeeze1x1_0_split
I1026 15:43:29.600702 37958 net.cpp:413] fire8/squeeze1x1_fire8/relu_squeeze1x1_0_split <- fire8/squeeze1x1
I1026 15:43:29.600710 37958 net.cpp:387] fire8/squeeze1x1_fire8/relu_squeeze1x1_0_split -> fire8/squeeze1x1_fire8/relu_squeeze1x1_0_split_0
I1026 15:43:29.600719 37958 net.cpp:387] fire8/squeeze1x1_fire8/relu_squeeze1x1_0_split -> fire8/squeeze1x1_fire8/relu_squeeze1x1_0_split_1
I1026 15:43:29.600776 37958 net.cpp:127] Setting up fire8/squeeze1x1_fire8/relu_squeeze1x1_0_split
I1026 15:43:29.600785 37958 net.cpp:136] Top shape: 50 64 14 14 (627200)
I1026 15:43:29.600792 37958 net.cpp:136] Top shape: 50 64 14 14 (627200)
I1026 15:43:29.600797 37958 net.cpp:144] Memory required for data: 1386412600
I1026 15:43:29.600802 37958 layer_factory.hpp:77] Creating layer fire8/expand1x1
I1026 15:43:29.600814 37958 net.cpp:84] Creating Layer fire8/expand1x1
I1026 15:43:29.600821 37958 net.cpp:413] fire8/expand1x1 <- fire8/squeeze1x1_fire8/relu_squeeze1x1_0_split_0
I1026 15:43:29.600828 37958 net.cpp:387] fire8/expand1x1 -> fire8/expand1x1
I1026 15:43:29.601325 37958 net.cpp:127] Setting up fire8/expand1x1
I1026 15:43:29.601338 37958 net.cpp:136] Top shape: 50 256 14 14 (2508800)
I1026 15:43:29.601343 37958 net.cpp:144] Memory required for data: 1396447800
I1026 15:43:29.601349 37958 net.cpp:453] Found INQ layer:fire8/expand1x1, type: INQConvolution, layer id:58
I1026 15:43:29.601356 37958 net.cpp:453] Found INQ layer:fire8/expand1x1, type: INQConvolution, layer id:58
I1026 15:43:29.601363 37958 net.cpp:453] Found INQ layer:fire8/expand1x1, type: INQConvolution, layer id:58
I1026 15:43:29.601371 37958 net.cpp:453] Found INQ layer:fire8/expand1x1, type: INQConvolution, layer id:58
I1026 15:43:29.601374 37958 layer_factory.hpp:77] Creating layer fire8/relu_expand1x1
I1026 15:43:29.601382 37958 net.cpp:84] Creating Layer fire8/relu_expand1x1
I1026 15:43:29.601388 37958 net.cpp:413] fire8/relu_expand1x1 <- fire8/expand1x1
I1026 15:43:29.601397 37958 net.cpp:374] fire8/relu_expand1x1 -> fire8/expand1x1 (in-place)
I1026 15:43:29.601614 37958 net.cpp:127] Setting up fire8/relu_expand1x1
I1026 15:43:29.601625 37958 net.cpp:136] Top shape: 50 256 14 14 (2508800)
I1026 15:43:29.601631 37958 net.cpp:144] Memory required for data: 1406483000
I1026 15:43:29.601637 37958 layer_factory.hpp:77] Creating layer fire8/expand3x3
I1026 15:43:29.601650 37958 net.cpp:84] Creating Layer fire8/expand3x3
I1026 15:43:29.601656 37958 net.cpp:413] fire8/expand3x3 <- fire8/squeeze1x1_fire8/relu_squeeze1x1_0_split_1
I1026 15:43:29.601666 37958 net.cpp:387] fire8/expand3x3 -> fire8/expand3x3
I1026 15:43:29.604552 37958 net.cpp:127] Setting up fire8/expand3x3
I1026 15:43:29.604571 37958 net.cpp:136] Top shape: 50 256 14 14 (2508800)
I1026 15:43:29.604583 37958 net.cpp:144] Memory required for data: 1416518200
I1026 15:43:29.604602 37958 net.cpp:453] Found INQ layer:fire8/expand3x3, type: INQConvolution, layer id:60
I1026 15:43:29.604610 37958 net.cpp:453] Found INQ layer:fire8/expand3x3, type: INQConvolution, layer id:60
I1026 15:43:29.604616 37958 net.cpp:453] Found INQ layer:fire8/expand3x3, type: INQConvolution, layer id:60
I1026 15:43:29.604622 37958 net.cpp:453] Found INQ layer:fire8/expand3x3, type: INQConvolution, layer id:60
I1026 15:43:29.604626 37958 layer_factory.hpp:77] Creating layer fire8/relu_expand3x3
I1026 15:43:29.604638 37958 net.cpp:84] Creating Layer fire8/relu_expand3x3
I1026 15:43:29.604645 37958 net.cpp:413] fire8/relu_expand3x3 <- fire8/expand3x3
I1026 15:43:29.604651 37958 net.cpp:374] fire8/relu_expand3x3 -> fire8/expand3x3 (in-place)
I1026 15:43:29.606056 37958 net.cpp:127] Setting up fire8/relu_expand3x3
I1026 15:43:29.606077 37958 net.cpp:136] Top shape: 50 256 14 14 (2508800)
I1026 15:43:29.606083 37958 net.cpp:144] Memory required for data: 1426553400
I1026 15:43:29.606089 37958 layer_factory.hpp:77] Creating layer fire8/concat
I1026 15:43:29.606097 37958 net.cpp:84] Creating Layer fire8/concat
I1026 15:43:29.606113 37958 net.cpp:413] fire8/concat <- fire8/expand1x1
I1026 15:43:29.606119 37958 net.cpp:413] fire8/concat <- fire8/expand3x3
I1026 15:43:29.606127 37958 net.cpp:387] fire8/concat -> fire8/concat
I1026 15:43:29.606166 37958 net.cpp:127] Setting up fire8/concat
I1026 15:43:29.606176 37958 net.cpp:136] Top shape: 50 512 14 14 (5017600)
I1026 15:43:29.606181 37958 net.cpp:144] Memory required for data: 1446623800
I1026 15:43:29.606186 37958 layer_factory.hpp:77] Creating layer fire9/squeeze1x1
I1026 15:43:29.606201 37958 net.cpp:84] Creating Layer fire9/squeeze1x1
I1026 15:43:29.606207 37958 net.cpp:413] fire9/squeeze1x1 <- fire8/concat
I1026 15:43:29.606216 37958 net.cpp:387] fire9/squeeze1x1 -> fire9/squeeze1x1
I1026 15:43:29.606848 37958 net.cpp:127] Setting up fire9/squeeze1x1
I1026 15:43:29.606860 37958 net.cpp:136] Top shape: 50 64 14 14 (627200)
I1026 15:43:29.606865 37958 net.cpp:144] Memory required for data: 1449132600
I1026 15:43:29.606873 37958 net.cpp:453] Found INQ layer:fire9/squeeze1x1, type: INQConvolution, layer id:63
I1026 15:43:29.606879 37958 net.cpp:453] Found INQ layer:fire9/squeeze1x1, type: INQConvolution, layer id:63
I1026 15:43:29.606885 37958 net.cpp:453] Found INQ layer:fire9/squeeze1x1, type: INQConvolution, layer id:63
I1026 15:43:29.606892 37958 net.cpp:453] Found INQ layer:fire9/squeeze1x1, type: INQConvolution, layer id:63
I1026 15:43:29.606897 37958 layer_factory.hpp:77] Creating layer fire9/relu_squeeze1x1
I1026 15:43:29.606916 37958 net.cpp:84] Creating Layer fire9/relu_squeeze1x1
I1026 15:43:29.606922 37958 net.cpp:413] fire9/relu_squeeze1x1 <- fire9/squeeze1x1
I1026 15:43:29.606930 37958 net.cpp:374] fire9/relu_squeeze1x1 -> fire9/squeeze1x1 (in-place)
I1026 15:43:29.607148 37958 net.cpp:127] Setting up fire9/relu_squeeze1x1
I1026 15:43:29.607161 37958 net.cpp:136] Top shape: 50 64 14 14 (627200)
I1026 15:43:29.607167 37958 net.cpp:144] Memory required for data: 1451641400
I1026 15:43:29.607172 37958 layer_factory.hpp:77] Creating layer fire9/squeeze1x1_fire9/relu_squeeze1x1_0_split
I1026 15:43:29.607180 37958 net.cpp:84] Creating Layer fire9/squeeze1x1_fire9/relu_squeeze1x1_0_split
I1026 15:43:29.607185 37958 net.cpp:413] fire9/squeeze1x1_fire9/relu_squeeze1x1_0_split <- fire9/squeeze1x1
I1026 15:43:29.607192 37958 net.cpp:387] fire9/squeeze1x1_fire9/relu_squeeze1x1_0_split -> fire9/squeeze1x1_fire9/relu_squeeze1x1_0_split_0
I1026 15:43:29.607200 37958 net.cpp:387] fire9/squeeze1x1_fire9/relu_squeeze1x1_0_split -> fire9/squeeze1x1_fire9/relu_squeeze1x1_0_split_1
I1026 15:43:29.607254 37958 net.cpp:127] Setting up fire9/squeeze1x1_fire9/relu_squeeze1x1_0_split
I1026 15:43:29.607265 37958 net.cpp:136] Top shape: 50 64 14 14 (627200)
I1026 15:43:29.607273 37958 net.cpp:136] Top shape: 50 64 14 14 (627200)
I1026 15:43:29.607280 37958 net.cpp:144] Memory required for data: 1456659000
I1026 15:43:29.607292 37958 layer_factory.hpp:77] Creating layer fire9/expand1x1
I1026 15:43:29.607326 37958 net.cpp:84] Creating Layer fire9/expand1x1
I1026 15:43:29.607333 37958 net.cpp:413] fire9/expand1x1 <- fire9/squeeze1x1_fire9/relu_squeeze1x1_0_split_0
I1026 15:43:29.607344 37958 net.cpp:387] fire9/expand1x1 -> fire9/expand1x1
I1026 15:43:29.607832 37958 net.cpp:127] Setting up fire9/expand1x1
I1026 15:43:29.607847 37958 net.cpp:136] Top shape: 50 256 14 14 (2508800)
I1026 15:43:29.607853 37958 net.cpp:144] Memory required for data: 1466694200
I1026 15:43:29.607861 37958 net.cpp:453] Found INQ layer:fire9/expand1x1, type: INQConvolution, layer id:66
I1026 15:43:29.607867 37958 net.cpp:453] Found INQ layer:fire9/expand1x1, type: INQConvolution, layer id:66
I1026 15:43:29.607872 37958 net.cpp:453] Found INQ layer:fire9/expand1x1, type: INQConvolution, layer id:66
I1026 15:43:29.607878 37958 net.cpp:453] Found INQ layer:fire9/expand1x1, type: INQConvolution, layer id:66
I1026 15:43:29.607883 37958 layer_factory.hpp:77] Creating layer fire9/relu_expand1x1
I1026 15:43:29.607892 37958 net.cpp:84] Creating Layer fire9/relu_expand1x1
I1026 15:43:29.607897 37958 net.cpp:413] fire9/relu_expand1x1 <- fire9/expand1x1
I1026 15:43:29.607903 37958 net.cpp:374] fire9/relu_expand1x1 -> fire9/expand1x1 (in-place)
I1026 15:43:29.608119 37958 net.cpp:127] Setting up fire9/relu_expand1x1
I1026 15:43:29.608131 37958 net.cpp:136] Top shape: 50 256 14 14 (2508800)
I1026 15:43:29.608137 37958 net.cpp:144] Memory required for data: 1476729400
I1026 15:43:29.608144 37958 layer_factory.hpp:77] Creating layer fire9/expand3x3
I1026 15:43:29.608155 37958 net.cpp:84] Creating Layer fire9/expand3x3
I1026 15:43:29.608160 37958 net.cpp:413] fire9/expand3x3 <- fire9/squeeze1x1_fire9/relu_squeeze1x1_0_split_1
I1026 15:43:29.608170 37958 net.cpp:387] fire9/expand3x3 -> fire9/expand3x3
I1026 15:43:29.611071 37958 net.cpp:127] Setting up fire9/expand3x3
I1026 15:43:29.611090 37958 net.cpp:136] Top shape: 50 256 14 14 (2508800)
I1026 15:43:29.611095 37958 net.cpp:144] Memory required for data: 1486764600
I1026 15:43:29.611104 37958 net.cpp:453] Found INQ layer:fire9/expand3x3, type: INQConvolution, layer id:68
I1026 15:43:29.611110 37958 net.cpp:453] Found INQ layer:fire9/expand3x3, type: INQConvolution, layer id:68
I1026 15:43:29.611119 37958 net.cpp:453] Found INQ layer:fire9/expand3x3, type: INQConvolution, layer id:68
I1026 15:43:29.611124 37958 net.cpp:453] Found INQ layer:fire9/expand3x3, type: INQConvolution, layer id:68
I1026 15:43:29.611129 37958 layer_factory.hpp:77] Creating layer fire9/relu_expand3x3
I1026 15:43:29.611137 37958 net.cpp:84] Creating Layer fire9/relu_expand3x3
I1026 15:43:29.611142 37958 net.cpp:413] fire9/relu_expand3x3 <- fire9/expand3x3
I1026 15:43:29.611151 37958 net.cpp:374] fire9/relu_expand3x3 -> fire9/expand3x3 (in-place)
I1026 15:43:29.611402 37958 net.cpp:127] Setting up fire9/relu_expand3x3
I1026 15:43:29.611415 37958 net.cpp:136] Top shape: 50 256 14 14 (2508800)
I1026 15:43:29.611421 37958 net.cpp:144] Memory required for data: 1496799800
I1026 15:43:29.611428 37958 layer_factory.hpp:77] Creating layer fire9/concat
I1026 15:43:29.611438 37958 net.cpp:84] Creating Layer fire9/concat
I1026 15:43:29.611443 37958 net.cpp:413] fire9/concat <- fire9/expand1x1
I1026 15:43:29.611449 37958 net.cpp:413] fire9/concat <- fire9/expand3x3
I1026 15:43:29.611459 37958 net.cpp:387] fire9/concat -> fire9/concat
I1026 15:43:29.611493 37958 net.cpp:127] Setting up fire9/concat
I1026 15:43:29.611505 37958 net.cpp:136] Top shape: 50 512 14 14 (5017600)
I1026 15:43:29.611510 37958 net.cpp:144] Memory required for data: 1516870200
I1026 15:43:29.611515 37958 layer_factory.hpp:77] Creating layer drop9
I1026 15:43:29.611524 37958 net.cpp:84] Creating Layer drop9
I1026 15:43:29.611529 37958 net.cpp:413] drop9 <- fire9/concat
I1026 15:43:29.611536 37958 net.cpp:374] drop9 -> fire9/concat (in-place)
I1026 15:43:29.611567 37958 net.cpp:127] Setting up drop9
I1026 15:43:29.611574 37958 net.cpp:136] Top shape: 50 512 14 14 (5017600)
I1026 15:43:29.611588 37958 net.cpp:144] Memory required for data: 1536940600
I1026 15:43:29.611611 37958 layer_factory.hpp:77] Creating layer conv10
I1026 15:43:29.611624 37958 net.cpp:84] Creating Layer conv10
I1026 15:43:29.611630 37958 net.cpp:413] conv10 <- fire9/concat
I1026 15:43:29.611640 37958 net.cpp:387] conv10 -> conv10
I1026 15:43:29.621688 37958 net.cpp:127] Setting up conv10
I1026 15:43:29.621712 37958 net.cpp:136] Top shape: 50 1000 14 14 (9800000)
I1026 15:43:29.621718 37958 net.cpp:144] Memory required for data: 1576140600
I1026 15:43:29.621726 37958 net.cpp:453] Found INQ layer:conv10, type: INQConvolution, layer id:72
I1026 15:43:29.621732 37958 net.cpp:453] Found INQ layer:conv10, type: INQConvolution, layer id:72
I1026 15:43:29.621740 37958 net.cpp:453] Found INQ layer:conv10, type: INQConvolution, layer id:72
I1026 15:43:29.621752 37958 net.cpp:453] Found INQ layer:conv10, type: INQConvolution, layer id:72
I1026 15:43:29.621757 37958 layer_factory.hpp:77] Creating layer relu_conv10
I1026 15:43:29.621767 37958 net.cpp:84] Creating Layer relu_conv10
I1026 15:43:29.621773 37958 net.cpp:413] relu_conv10 <- conv10
I1026 15:43:29.621779 37958 net.cpp:374] relu_conv10 -> conv10 (in-place)
I1026 15:43:29.623188 37958 net.cpp:127] Setting up relu_conv10
I1026 15:43:29.623206 37958 net.cpp:136] Top shape: 50 1000 14 14 (9800000)
I1026 15:43:29.623212 37958 net.cpp:144] Memory required for data: 1615340600
I1026 15:43:29.623217 37958 layer_factory.hpp:77] Creating layer pool10
I1026 15:43:29.623230 37958 net.cpp:84] Creating Layer pool10
I1026 15:43:29.623236 37958 net.cpp:413] pool10 <- conv10
I1026 15:43:29.623245 37958 net.cpp:387] pool10 -> pool10
I1026 15:43:29.623492 37958 net.cpp:127] Setting up pool10
I1026 15:43:29.623507 37958 net.cpp:136] Top shape: 50 1000 1 1 (50000)
I1026 15:43:29.623513 37958 net.cpp:144] Memory required for data: 1615540600
I1026 15:43:29.623518 37958 layer_factory.hpp:77] Creating layer pool10_pool10_0_split
I1026 15:43:29.623527 37958 net.cpp:84] Creating Layer pool10_pool10_0_split
I1026 15:43:29.623531 37958 net.cpp:413] pool10_pool10_0_split <- pool10
I1026 15:43:29.623538 37958 net.cpp:387] pool10_pool10_0_split -> pool10_pool10_0_split_0
I1026 15:43:29.623549 37958 net.cpp:387] pool10_pool10_0_split -> pool10_pool10_0_split_1
I1026 15:43:29.623558 37958 net.cpp:387] pool10_pool10_0_split -> pool10_pool10_0_split_2
I1026 15:43:29.623625 37958 net.cpp:127] Setting up pool10_pool10_0_split
I1026 15:43:29.623636 37958 net.cpp:136] Top shape: 50 1000 1 1 (50000)
I1026 15:43:29.623641 37958 net.cpp:136] Top shape: 50 1000 1 1 (50000)
I1026 15:43:29.623647 37958 net.cpp:136] Top shape: 50 1000 1 1 (50000)
I1026 15:43:29.623652 37958 net.cpp:144] Memory required for data: 1616140600
I1026 15:43:29.623656 37958 layer_factory.hpp:77] Creating layer loss
I1026 15:43:29.623667 37958 net.cpp:84] Creating Layer loss
I1026 15:43:29.623672 37958 net.cpp:413] loss <- pool10_pool10_0_split_0
I1026 15:43:29.623678 37958 net.cpp:413] loss <- label_data_1_split_0
I1026 15:43:29.623685 37958 net.cpp:387] loss -> loss
…
