…
I1030 05:31:12.721539  1046 net.cpp:301] The NetState phase (0) differed from the phase (1) specified by a rule in layer accuracy_top5
I1030 05:31:12.722215  1046 net.cpp:51] Initializing net from parameters: 
name: "SqueezeNet"
state {
  phase: TRAIN
  level: 0
  stage: ""
}
layer {
  name: "data"
  type: "Data"
  top: "data"
  top: "label"
  include {
    phase: TRAIN
  }
  transform_param {
    crop_size: 227
    mean_value: 104
    mean_value: 117
    mean_value: 123
  }
  data_param {
    source: "/home/data/caffe-imagenet/ilsvrc12_train_lmdb"
    batch_size: 128
    backend: LMDB
  }
}
layer {
  name: "conv1"
  type: "INQConvolution"
  bottom: "data"
  top: "conv1"
  convolution_param {
    num_output: 64
    kernel_size: 3
    stride: 2
    weight_filler {
      type: "xavier"
    }
  }
  inq_convolution_param {
    portion: 0.8
    portion: 0.9
    weight_mask_filler {
      type: "constant"
      value: 1
    }
    bias_mask_filler {
      type: "constant"
      value: 1
    }
    num_quantum_values: 7
  }
}
layer {
  name: "relu_conv1"
  type: "ReLU"
  bottom: "conv1"
  top: "conv1"
}
layer {
  name: "pool1"
  type: "Pooling"
  bottom: "conv1"
  top: "pool1"
  pooling_param {
    pool: MAX
    kernel_size: 3
    stride: 2
  }
}
layer {
  name: "fire2/squeeze1x1"
  type: "INQConvolution"
  bottom: "pool1"
  top: "fire2/squeeze1x1"
  convolution_param {
    num_output: 16
    kernel_size: 1
    weight_filler {
      type: "xavier"
    }
  }
  inq_convolution_param {
    portion: 0.8
    portion: 0.9
    weight_mask_filler {
      type: "constant"
      value: 1
    }
    bias_mask_filler {
      type: "constant"
      value: 1
    }
    num_quantum_values: 7
  }
}
layer {
  name: "fire2/relu_squeeze1x1"
  type: "ReLU"
  bottom: "fire2/squeeze1x1"
  top: "fire2/squeeze1x1"
}
layer {
  name: "fire2/expand1x1"
  type: "INQConvolution"
  bottom: "fire2/squeeze1x1"
  top: "fire2/expand1x1"
  convolution_param {
    num_output: 64
    kernel_size: 1
    weight_filler {
      type: "xavier"
    }
  }
  inq_convolution_param {
    portion: 0.8
    portion: 0.9
    weight_mask_filler {
      type: "constant"
      value: 1
    }
    bias_mask_filler {
      type: "constant"
      value: 1
    }
    num_quantum_values: 7
  }
}
layer {
  name: "fire2/relu_expand1x1"
  type: "ReLU"
  bottom: "fire2/expand1x1"
  top: "fire2/expand1x1"
}
layer {
  name: "fire2/expand3x3"
  type: "INQConvolution"
  bottom: "fire2/squeeze1x1"
  top: "fire2/expand3x3"
  convolution_param {
    num_output: 64
    pad: 1
    kernel_size: 3
    weight_filler {
      type: "xavier"
    }
  }
  inq_convolution_param {
    portion: 0.8
    portion: 0.9
    weight_mask_filler {
      type: "constant"
      value: 1
    }
    bias_mask_filler {
      type: "constant"
      value: 1
    }
    num_quantum_values: 7
  }
}
layer {
  name: "fire2/relu_expand3x3"
  type: "ReLU"
  bottom: "fire2/expand3x3"
  top: "fire2/expand3x3"
}
layer {
  name: "fire2/concat"
  type: "Concat"
  bottom: "fire2/expand1x1"
  bottom: "fire2/expand3x3"
  top: "fire2/concat"
}
layer {
  name: "fire3/squeeze1x1"
  type: "INQConvolution"
  bottom: "fire2/concat"
  top: "fire3/squeeze1x1"
  convolution_param {
    num_output: 16
    kernel_size: 1
    weight_filler {
      type: "xavier"
    }
  }
  inq_convolution_param {
    portion: 0.8
    portion: 0.9
    weight_mask_filler {
      type: "constant"
      value: 1
    }
    bias_mask_filler {
      type: "constant"
      value: 1
    }
    num_quantum_values: 7
  }
}
layer {
  name: "fire3/relu_squeeze1x1"
  type: "ReLU"
  bottom: "fire3/squeeze1x1"
  top: "fire3/squeeze1x1"
}
layer {
  name: "fire3/expand1x1"
  type: "INQConvolution"
  bottom: "fire3/squeeze1x1"
  top: "fire3/expand1x1"
  convolution_param {
    num_output: 64
    kernel_size: 1
    weight_filler {
      type: "xavier"
    }
  }
  inq_convolution_param {
    portion: 0.8
    portion: 0.9
    weight_mask_filler {
      type: "constant"
      value: 1
    }
    bias_mask_filler {
      type: "constant"
      value: 1
    }
    num_quantum_values: 7
  }
}
layer {
  name: "fire3/relu_expand1x1"
  type: "ReLU"
  bottom: "fire3/expand1x1"
  top: "fire3/expand1x1"
}
layer {
  name: "fire3/expand3x3"
  type: "INQConvolution"
  bottom: "fire3/squeeze1x1"
  top: "fire3/expand3x3"
  convolution_param {
    num_output: 64
    pad: 1
    kernel_size: 3
    weight_filler {
      type: "xavier"
    }
  }
  inq_convolution_param {
    portion: 0.8
    portion: 0.9
    weight_mask_filler {
      type: "constant"
      value: 1
    }
    bias_mask_filler {
      type: "constant"
      value: 1
    }
    num_quantum_values: 7
  }
}
layer {
  name: "fire3/relu_expand3x3"
  type: "ReLU"
  bottom: "fire3/expand3x3"
  top: "fire3/expand3x3"
}
layer {
  name: "fire3/concat"
  type: "Concat"
  bottom: "fire3/expand1x1"
  bottom: "fire3/expand3x3"
  top: "fire3/concat"
}
layer {
  name: "pool3"
  type: "Pooling"
  bottom: "fire3/concat"
  top: "pool3"
  pooling_param {
    pool: MAX
    kernel_size: 3
    stride: 2
  }
}
layer {
  name: "fire4/squeeze1x1"
  type: "INQConvolution"
  bottom: "pool3"
  top: "fire4/squeeze1x1"
  convolution_param {
    num_output: 32
    kernel_size: 1
    weight_filler {
      type: "xavier"
    }
  }
  inq_convolution_param {
    portion: 0.8
    portion: 0.9
    weight_mask_filler {
      type: "constant"
      value: 1
    }
    bias_mask_filler {
      type: "constant"
      value: 1
    }
    num_quantum_values: 7
  }
}
layer {
  name: "fire4/relu_squeeze1x1"
  type: "ReLU"
  bottom: "fire4/squeeze1x1"
  top: "fire4/squeeze1x1"
}
layer {
  name: "fire4/expand1x1"
  type: "INQConvolution"
  bottom: "fire4/squeeze1x1"
  top: "fire4/expand1x1"
  convolution_param {
    num_output: 128
    kernel_size: 1
    weight_filler {
      type: "xavier"
    }
  }
  inq_convolution_param {
    portion: 0.8
    portion: 0.9
    weight_mask_filler {
      type: "constant"
      value: 1
    }
    bias_mask_filler {
      type: "constant"
      value: 1
    }
    num_quantum_values: 7
  }
}
layer {
  name: "fire4/relu_expand1x1"
  type: "ReLU"
  bottom: "fire4/expand1x1"
  top: "fire4/expand1x1"
}
layer {
  name: "fire4/expand3x3"
  type: "INQConvolution"
  bottom: "fire4/squeeze1x1"
  top: "fire4/expand3x3"
  convolution_param {
    num_output: 128
    pad: 1
    kernel_size: 3
    weight_filler {
      type: "xavier"
    }
  }
  inq_convolution_param {
    portion: 0.8
    portion: 0.9
    weight_mask_filler {
      type: "constant"
      value: 1
    }
    bias_mask_filler {
      type: "constant"
      value: 1
    }
    num_quantum_values: 7
  }
}
layer {
  name: "fire4/relu_expand3x3"
  type: "ReLU"
  bottom: "fire4/expand3x3"
  top: "fire4/expand3x3"
}
layer {
  name: "fire4/concat"
  type: "Concat"
  bottom: "fire4/expand1x1"
  bottom: "fire4/expand3x3"
  top: "fire4/concat"
}
layer {
  name: "fire5/squeeze1x1"
  type: "INQConvolution"
  bottom: "fire4/concat"
  top: "fire5/squeeze1x1"
  convolution_param {
    num_output: 32
    kernel_size: 1
    weight_filler {
      type: "xavier"
    }
  }
  inq_convolution_param {
    portion: 0.8
    portion: 0.9
    weight_mask_filler {
      type: "constant"
      value: 1
    }
    bias_mask_filler {
      type: "constant"
      value: 1
    }
    num_quantum_values: 7
  }
}
layer {
  name: "fire5/relu_squeeze1x1"
  type: "ReLU"
  bottom: "fire5/squeeze1x1"
  top: "fire5/squeeze1x1"
}
layer {
  name: "fire5/expand1x1"
  type: "INQConvolution"
  bottom: "fire5/squeeze1x1"
  top: "fire5/expand1x1"
  convolution_param {
    num_output: 128
    kernel_size: 1
    weight_filler {
      type: "xavier"
    }
  }
  inq_convolution_param {
    portion: 0.8
    portion: 0.9
    weight_mask_filler {
      type: "constant"
      value: 1
    }
    bias_mask_filler {
      type: "constant"
      value: 1
    }
    num_quantum_values: 7
  }
}
layer {
  name: "fire5/relu_expand1x1"
  type: "ReLU"
  bottom: "fire5/expand1x1"
  top: "fire5/expand1x1"
}
layer {
  name: "fire5/expand3x3"
  type: "INQConvolution"
  bottom: "fire5/squeeze1x1"
  top: "fire5/expand3x3"
  convolution_param {
    num_output: 128
    pad: 1
    kernel_size: 3
    weight_filler {
      type: "xavier"
    }
  }
  inq_convolution_param {
    portion: 0.8
    portion: 0.9
    weight_mask_filler {
      type: "constant"
      value: 1
    }
    bias_mask_filler {
      type: "constant"
      value: 1
    }
    num_quantum_values: 7
  }
}
layer {
  name: "fire5/relu_expand3x3"
  type: "ReLU"
  bottom: "fire5/expand3x3"
  top: "fire5/expand3x3"
}
layer {
  name: "fire5/concat"
  type: "Concat"
  bottom: "fire5/expand1x1"
  bottom: "fire5/expand3x3"
  top: "fire5/concat"
}
layer {
  name: "pool5"
  type: "Pooling"
  bottom: "fire5/concat"
  top: "pool5"
  pooling_param {
    pool: MAX
    kernel_size: 3
    stride: 2
  }
}
layer {
  name: "fire6/squeeze1x1"
  type: "INQConvolution"
  bottom: "pool5"
  top: "fire6/squeeze1x1"
  convolution_param {
    num_output: 48
    kernel_size: 1
    weight_filler {
      type: "xavier"
    }
  }
  inq_convolution_param {
    portion: 0.8
    portion: 0.9
    weight_mask_filler {
      type: "constant"
      value: 1
    }
    bias_mask_filler {
      type: "constant"
      value: 1
    }
    num_quantum_values: 7
  }
}
layer {
  name: "fire6/relu_squeeze1x1"
  type: "ReLU"
  bottom: "fire6/squeeze1x1"
  top: "fire6/squeeze1x1"
}
layer {
  name: "fire6/expand1x1"
  type: "INQConvolution"
  bottom: "fire6/squeeze1x1"
  top: "fire6/expand1x1"
  convolution_param {
    num_output: 192
    kernel_size: 1
    weight_filler {
      type: "xavier"
    }
  }
  inq_convolution_param {
    portion: 0.8
    portion: 0.9
    weight_mask_filler {
      type: "constant"
      value: 1
    }
    bias_mask_filler {
      type: "constant"
      value: 1
    }
    num_quantum_values: 7
  }
}
layer {
  name: "fire6/relu_expand1x1"
  type: "ReLU"
  bottom: "fire6/expand1x1"
  top: "fire6/expand1x1"
}
layer {
  name: "fire6/expand3x3"
  type: "INQConvolution"
  bottom: "fire6/squeeze1x1"
  top: "fire6/expand3x3"
  convolution_param {
    num_output: 192
    pad: 1
    kernel_size: 3
    weight_filler {
      type: "xavier"
    }
  }
  inq_convolution_param {
    portion: 0.8
    portion: 0.9
    weight_mask_filler {
      type: "constant"
      value: 1
    }
    bias_mask_filler {
      type: "constant"
      value: 1
    }
    num_quantum_values: 7
  }
}
layer {
  name: "fire6/relu_expand3x3"
  type: "ReLU"
  bottom: "fire6/expand3x3"
  top: "fire6/expand3x3"
}
layer {
  name: "fire6/concat"
  type: "Concat"
  bottom: "fire6/expand1x1"
  bottom: "fire6/expand3x3"
  top: "fire6/concat"
}
layer {
  name: "fire7/squeeze1x1"
  type: "INQConvolution"
  bottom: "fire6/concat"
  top: "fire7/squeeze1x1"
  convolution_param {
    num_output: 48
    kernel_size: 1
    weight_filler {
      type: "xavier"
    }
  }
  inq_convolution_param {
    portion: 0.8
    portion: 0.9
    weight_mask_filler {
      type: "constant"
      value: 1
    }
    bias_mask_filler {
      type: "constant"
      value: 1
    }
    num_quantum_values: 7
  }
}
layer {
  name: "fire7/relu_squeeze1x1"
  type: "ReLU"
  bottom: "fire7/squeeze1x1"
  top: "fire7/squeeze1x1"
}
layer {
  name: "fire7/expand1x1"
  type: "INQConvolution"
  bottom: "fire7/squeeze1x1"
  top: "fire7/expand1x1"
  convolution_param {
    num_output: 192
    kernel_size: 1
    weight_filler {
      type: "xavier"
    }
  }
  inq_convolution_param {
    portion: 0.8
    portion: 0.9
    weight_mask_filler {
      type: "constant"
      value: 1
    }
    bias_mask_filler {
      type: "constant"
      value: 1
    }
    num_quantum_values: 7
  }
}
layer {
  name: "fire7/relu_expand1x1"
  type: "ReLU"
  bottom: "fire7/expand1x1"
  top: "fire7/expand1x1"
}
layer {
  name: "fire7/expand3x3"
  type: "INQConvolution"
  bottom: "fire7/squeeze1x1"
  top: "fire7/expand3x3"
  convolution_param {
    num_output: 192
    pad: 1
    kernel_size: 3
    weight_filler {
      type: "xavier"
    }
  }
  inq_convolution_param {
    portion: 0.8
    portion: 0.9
    weight_mask_filler {
      type: "constant"
      value: 1
    }
    bias_mask_filler {
      type: "constant"
      value: 1
    }
    num_quantum_values: 7
  }
}
layer {
  name: "fire7/relu_expand3x3"
  type: "ReLU"
  bottom: "fire7/expand3x3"
  top: "fire7/expand3x3"
}
layer {
  name: "fire7/concat"
  type: "Concat"
  bottom: "fire7/expand1x1"
  bottom: "fire7/expand3x3"
  top: "fire7/concat"
}
layer {
  name: "fire8/squeeze1x1"
  type: "INQConvolution"
  bottom: "fire7/concat"
  top: "fire8/squeeze1x1"
  convolution_param {
    num_output: 64
    kernel_size: 1
    weight_filler {
      type: "xavier"
    }
  }
  inq_convolution_param {
    portion: 0.8
    portion: 0.9
    weight_mask_filler {
      type: "constant"
      value: 1
    }
    bias_mask_filler {
      type: "constant"
      value: 1
    }
    num_quantum_values: 7
  }
}
layer {
  name: "fire8/relu_squeeze1x1"
  type: "ReLU"
  bottom: "fire8/squeeze1x1"
  top: "fire8/squeeze1x1"
}
layer {
  name: "fire8/expand1x1"
  type: "INQConvolution"
  bottom: "fire8/squeeze1x1"
  top: "fire8/expand1x1"
  convolution_param {
    num_output: 256
    kernel_size: 1
    weight_filler {
      type: "xavier"
    }
  }
  inq_convolution_param {
    portion: 0.8
    portion: 0.9
    weight_mask_filler {
      type: "constant"
      value: 1
    }
    bias_mask_filler {
      type: "constant"
      value: 1
    }
    num_quantum_values: 7
  }
}
layer {
  name: "fire8/relu_expand1x1"
  type: "ReLU"
  bottom: "fire8/expand1x1"
  top: "fire8/expand1x1"
}
layer {
  name: "fire8/expand3x3"
  type: "INQConvolution"
  bottom: "fire8/squeeze1x1"
  top: "fire8/expand3x3"
  convolution_param {
    num_output: 256
    pad: 1
    kernel_size: 3
    weight_filler {
      type: "xavier"
    }
  }
  inq_convolution_param {
    portion: 0.8
    portion: 0.9
    weight_mask_filler {
      type: "constant"
      value: 1
    }
    bias_mask_filler {
      type: "constant"
      value: 1
    }
    num_quantum_values: 7
  }
}
layer {
  name: "fire8/relu_expand3x3"
  type: "ReLU"
  bottom: "fire8/expand3x3"
  top: "fire8/expand3x3"
}
layer {
  name: "fire8/concat"
  type: "Concat"
  bottom: "fire8/expand1x1"
  bottom: "fire8/expand3x3"
  top: "fire8/concat"
}
layer {
  name: "fire9/squeeze1x1"
  type: "INQConvolution"
  bottom: "fire8/concat"
  top: "fire9/squeeze1x1"
  convolution_param {
    num_output: 64
    kernel_size: 1
    weight_filler {
      type: "xavier"
    }
  }
  inq_convolution_param {
    portion: 0.8
    portion: 0.9
    weight_mask_filler {
      type: "constant"
      value: 1
    }
    bias_mask_filler {
      type: "constant"
      value: 1
    }
    num_quantum_values: 7
  }
}
layer {
  name: "fire9/relu_squeeze1x1"
  type: "ReLU"
  bottom: "fire9/squeeze1x1"
  top: "fire9/squeeze1x1"
}
layer {
  name: "fire9/expand1x1"
  type: "INQConvolution"
  bottom: "fire9/squeeze1x1"
  top: "fire9/expand1x1"
  convolution_param {
    num_output: 256
    kernel_size: 1
    weight_filler {
      type: "xavier"
    }
  }
  inq_convolution_param {
    portion: 0.8
    portion: 0.9
    weight_mask_filler {
      type: "constant"
      value: 1
    }
    bias_mask_filler {
      type: "constant"
      value: 1
    }
    num_quantum_values: 7
  }
}
layer {
  name: "fire9/relu_expand1x1"
  type: "ReLU"
  bottom: "fire9/expand1x1"
  top: "fire9/expand1x1"
}
layer {
  name: "fire9/expand3x3"
  type: "INQConvolution"
  bottom: "fire9/squeeze1x1"
  top: "fire9/expand3x3"
  convolution_param {
    num_output: 256
    pad: 1
    kernel_size: 3
    weight_filler {
      type: "xavier"
    }
  }
  inq_convolution_param {
    portion: 0.8
    portion: 0.9
    weight_mask_filler {
      type: "constant"
      value: 1
    }
    bias_mask_filler {
      type: "constant"
      value: 1
    }
    num_quantum_values: 7
  }
}
layer {
  name: "fire9/relu_expand3x3"
  type: "ReLU"
  bottom: "fire9/expand3x3"
  top: "fire9/expand3x3"
}
layer {
  name: "fire9/concat"
  type: "Concat"
  bottom: "fire9/expand1x1"
  bottom: "fire9/expand3x3"
  top: "fire9/concat"
}
layer {
  name: "drop9"
  type: "Dropout"
  bottom: "fire9/concat"
  top: "fire9/concat"
  dropout_param {
    dropout_ratio: 0.5
  }
}
layer {
  name: "conv10"
  type: "INQConvolution"
  bottom: "fire9/concat"
  top: "conv10"
  convolution_param {
    num_output: 1000
    kernel_size: 1
    weight_filler {
      type: "gaussian"
      mean: 0
      std: 0.01
    }
  }
  inq_convolution_param {
    portion: 0.8
    portion: 0.9
    weight_mask_filler {
      type: "constant"
      value: 1
    }
    bias_mask_filler {
      type: "constant"
      value: 1
    }
    num_quantum_values: 7
  }
}
layer {
  name: "relu_conv10"
  type: "ReLU"
  bottom: "conv10"
  top: "conv10"
}
layer {
  name: "pool10"
  type: "Pooling"
  bottom: "conv10"
  top: "pool10"
  pooling_param {
    pool: AVE
    global_pooling: true
  }
}
layer {
  name: "loss"
  type: "SoftmaxWithLoss"
  bottom: "pool10"
  bottom: "label"
  top: "loss"
}
I1030 05:31:12.722625  1046 layer_factory.hpp:77] Creating layer data
I1030 05:31:12.723148  1046 db_lmdb.cpp:35] Opened lmdb /home/data/caffe-imagenet/ilsvrc12_train_lmdb
I1030 05:31:12.723201  1046 net.cpp:84] Creating Layer data
I1030 05:31:12.723213  1046 net.cpp:387] data -> data
I1030 05:31:12.723248  1046 net.cpp:387] data -> label
I1030 05:31:12.725025  1046 data_layer.cpp:45] output data size: 128,3,227,227
I1030 05:31:12.938027  1046 net.cpp:127] Setting up data
I1030 05:31:12.938100  1046 net.cpp:136] Top shape: 128 3 227 227 (19787136)
I1030 05:31:12.938109  1046 net.cpp:136] Top shape: 128 (128)
I1030 05:31:12.938115  1046 net.cpp:144] Memory required for data: 79149056
I1030 05:31:12.938134  1046 layer_factory.hpp:77] Creating layer conv1
I1030 05:31:12.938163  1046 net.cpp:84] Creating Layer conv1
I1030 05:31:12.938175  1046 net.cpp:413] conv1 <- data
I1030 05:31:12.938196  1046 net.cpp:387] conv1 -> conv1
I1030 05:31:12.941555  1046 net.cpp:127] Setting up conv1
I1030 05:31:12.941577  1046 net.cpp:136] Top shape: 128 64 113 113 (104603648)
I1030 05:31:12.941583  1046 net.cpp:144] Memory required for data: 497563648
I1030 05:31:12.941606  1046 net.cpp:453] Found INQ layer:conv1, type: INQConvolution, layer id:1
I1030 05:31:12.941620  1046 net.cpp:453] Found INQ layer:conv1, type: INQConvolution, layer id:1
I1030 05:31:12.941632  1046 net.cpp:453] Found INQ layer:conv1, type: INQConvolution, layer id:1
I1030 05:31:12.941640  1046 net.cpp:453] Found INQ layer:conv1, type: INQConvolution, layer id:1
I1030 05:31:12.941645  1046 layer_factory.hpp:77] Creating layer relu_conv1
I1030 05:31:12.941663  1046 net.cpp:84] Creating Layer relu_conv1
I1030 05:31:12.941668  1046 net.cpp:413] relu_conv1 <- conv1
I1030 05:31:12.941676  1046 net.cpp:374] relu_conv1 -> conv1 (in-place)
I1030 05:31:13.310590  1046 net.cpp:127] Setting up relu_conv1
I1030 05:31:13.310642  1046 net.cpp:136] Top shape: 128 64 113 113 (104603648)
I1030 05:31:13.310649  1046 net.cpp:144] Memory required for data: 915978240
I1030 05:31:13.310660  1046 layer_factory.hpp:77] Creating layer pool1
I1030 05:31:13.310683  1046 net.cpp:84] Creating Layer pool1
I1030 05:31:13.310690  1046 net.cpp:413] pool1 <- conv1
I1030 05:31:13.310703  1046 net.cpp:387] pool1 -> pool1
I1030 05:31:13.310812  1046 net.cpp:127] Setting up pool1
I1030 05:31:13.310858  1046 net.cpp:136] Top shape: 128 64 56 56 (25690112)
I1030 05:31:13.310864  1046 net.cpp:144] Memory required for data: 1018738688
I1030 05:31:13.310869  1046 layer_factory.hpp:77] Creating layer fire2/squeeze1x1
I1030 05:31:13.310887  1046 net.cpp:84] Creating Layer fire2/squeeze1x1
I1030 05:31:13.310894  1046 net.cpp:413] fire2/squeeze1x1 <- pool1
I1030 05:31:13.310901  1046 net.cpp:387] fire2/squeeze1x1 -> fire2/squeeze1x1
I1030 05:31:13.312747  1046 net.cpp:127] Setting up fire2/squeeze1x1
I1030 05:31:13.312768  1046 net.cpp:136] Top shape: 128 16 56 56 (6422528)
I1030 05:31:13.312774  1046 net.cpp:144] Memory required for data: 1044428800
I1030 05:31:13.312786  1046 net.cpp:453] Found INQ layer:fire2/squeeze1x1, type: INQConvolution, layer id:4
I1030 05:31:13.312796  1046 net.cpp:453] Found INQ layer:fire2/squeeze1x1, type: INQConvolution, layer id:4
I1030 05:31:13.312803  1046 net.cpp:453] Found INQ layer:fire2/squeeze1x1, type: INQConvolution, layer id:4
I1030 05:31:13.312809  1046 net.cpp:453] Found INQ layer:fire2/squeeze1x1, type: INQConvolution, layer id:4
I1030 05:31:13.312814  1046 layer_factory.hpp:77] Creating layer fire2/relu_squeeze1x1
I1030 05:31:13.312824  1046 net.cpp:84] Creating Layer fire2/relu_squeeze1x1
I1030 05:31:13.312830  1046 net.cpp:413] fire2/relu_squeeze1x1 <- fire2/squeeze1x1
I1030 05:31:13.312837  1046 net.cpp:374] fire2/relu_squeeze1x1 -> fire2/squeeze1x1 (in-place)
I1030 05:31:13.314172  1046 net.cpp:127] Setting up fire2/relu_squeeze1x1
I1030 05:31:13.314191  1046 net.cpp:136] Top shape: 128 16 56 56 (6422528)
I1030 05:31:13.314198  1046 net.cpp:144] Memory required for data: 1070118912
I1030 05:31:13.314203  1046 layer_factory.hpp:77] Creating layer fire2/squeeze1x1_fire2/relu_squeeze1x1_0_split
I1030 05:31:13.314215  1046 net.cpp:84] Creating Layer fire2/squeeze1x1_fire2/relu_squeeze1x1_0_split
I1030 05:31:13.314221  1046 net.cpp:413] fire2/squeeze1x1_fire2/relu_squeeze1x1_0_split <- fire2/squeeze1x1
I1030 05:31:13.314229  1046 net.cpp:387] fire2/squeeze1x1_fire2/relu_squeeze1x1_0_split -> fire2/squeeze1x1_fire2/relu_squeeze1x1_0_split_0
I1030 05:31:13.314239  1046 net.cpp:387] fire2/squeeze1x1_fire2/relu_squeeze1x1_0_split -> fire2/squeeze1x1_fire2/relu_squeeze1x1_0_split_1
I1030 05:31:13.314287  1046 net.cpp:127] Setting up fire2/squeeze1x1_fire2/relu_squeeze1x1_0_split
I1030 05:31:13.314303  1046 net.cpp:136] Top shape: 128 16 56 56 (6422528)
I1030 05:31:13.314311  1046 net.cpp:136] Top shape: 128 16 56 56 (6422528)
I1030 05:31:13.314316  1046 net.cpp:144] Memory required for data: 1121499136
I1030 05:31:13.314321  1046 layer_factory.hpp:77] Creating layer fire2/expand1x1
I1030 05:31:13.314330  1046 net.cpp:84] Creating Layer fire2/expand1x1
I1030 05:31:13.314337  1046 net.cpp:413] fire2/expand1x1 <- fire2/squeeze1x1_fire2/relu_squeeze1x1_0_split_0
I1030 05:31:13.314345  1046 net.cpp:387] fire2/expand1x1 -> fire2/expand1x1
I1030 05:31:13.314663  1046 net.cpp:127] Setting up fire2/expand1x1
I1030 05:31:13.314676  1046 net.cpp:136] Top shape: 128 64 56 56 (25690112)
I1030 05:31:13.314682  1046 net.cpp:144] Memory required for data: 1224259584
I1030 05:31:13.314690  1046 net.cpp:453] Found INQ layer:fire2/expand1x1, type: INQConvolution, layer id:7
I1030 05:31:13.314702  1046 net.cpp:453] Found INQ layer:fire2/expand1x1, type: INQConvolution, layer id:7
I1030 05:31:13.314709  1046 net.cpp:453] Found INQ layer:fire2/expand1x1, type: INQConvolution, layer id:7
I1030 05:31:13.314714  1046 net.cpp:453] Found INQ layer:fire2/expand1x1, type: INQConvolution, layer id:7
I1030 05:31:13.314719  1046 layer_factory.hpp:77] Creating layer fire2/relu_expand1x1
I1030 05:31:13.314728  1046 net.cpp:84] Creating Layer fire2/relu_expand1x1
I1030 05:31:13.314734  1046 net.cpp:413] fire2/relu_expand1x1 <- fire2/expand1x1
I1030 05:31:13.314741  1046 net.cpp:374] fire2/relu_expand1x1 -> fire2/expand1x1 (in-place)
I1030 05:31:13.314930  1046 net.cpp:127] Setting up fire2/relu_expand1x1
I1030 05:31:13.314941  1046 net.cpp:136] Top shape: 128 64 56 56 (25690112)
I1030 05:31:13.314956  1046 net.cpp:144] Memory required for data: 1327020032
I1030 05:31:13.314975  1046 layer_factory.hpp:77] Creating layer fire2/expand3x3
I1030 05:31:13.314985  1046 net.cpp:84] Creating Layer fire2/expand3x3
I1030 05:31:13.314990  1046 net.cpp:413] fire2/expand3x3 <- fire2/squeeze1x1_fire2/relu_squeeze1x1_0_split_1
I1030 05:31:13.314998  1046 net.cpp:387] fire2/expand3x3 -> fire2/expand3x3
I1030 05:31:13.315402  1046 net.cpp:127] Setting up fire2/expand3x3
I1030 05:31:13.315415  1046 net.cpp:136] Top shape: 128 64 56 56 (25690112)
I1030 05:31:13.315421  1046 net.cpp:144] Memory required for data: 1429780480
I1030 05:31:13.315429  1046 net.cpp:453] Found INQ layer:fire2/expand3x3, type: INQConvolution, layer id:9
I1030 05:31:13.315436  1046 net.cpp:453] Found INQ layer:fire2/expand3x3, type: INQConvolution, layer id:9
I1030 05:31:13.315443  1046 net.cpp:453] Found INQ layer:fire2/expand3x3, type: INQConvolution, layer id:9
I1030 05:31:13.315449  1046 net.cpp:453] Found INQ layer:fire2/expand3x3, type: INQConvolution, layer id:9
I1030 05:31:13.315454  1046 layer_factory.hpp:77] Creating layer fire2/relu_expand3x3
I1030 05:31:13.315461  1046 net.cpp:84] Creating Layer fire2/relu_expand3x3
I1030 05:31:13.315467  1046 net.cpp:413] fire2/relu_expand3x3 <- fire2/expand3x3
I1030 05:31:13.315474  1046 net.cpp:374] fire2/relu_expand3x3 -> fire2/expand3x3 (in-place)
I1030 05:31:13.315666  1046 net.cpp:127] Setting up fire2/relu_expand3x3
I1030 05:31:13.315677  1046 net.cpp:136] Top shape: 128 64 56 56 (25690112)
I1030 05:31:13.315683  1046 net.cpp:144] Memory required for data: 1532540928
I1030 05:31:13.315688  1046 layer_factory.hpp:77] Creating layer fire2/concat
I1030 05:31:13.315699  1046 net.cpp:84] Creating Layer fire2/concat
I1030 05:31:13.315707  1046 net.cpp:413] fire2/concat <- fire2/expand1x1
I1030 05:31:13.315713  1046 net.cpp:413] fire2/concat <- fire2/expand3x3
I1030 05:31:13.315719  1046 net.cpp:387] fire2/concat -> fire2/concat
I1030 05:31:13.315752  1046 net.cpp:127] Setting up fire2/concat
I1030 05:31:13.315760  1046 net.cpp:136] Top shape: 128 128 56 56 (51380224)
I1030 05:31:13.315765  1046 net.cpp:144] Memory required for data: 1738061824
I1030 05:31:13.315770  1046 layer_factory.hpp:77] Creating layer fire3/squeeze1x1
I1030 05:31:13.315780  1046 net.cpp:84] Creating Layer fire3/squeeze1x1
I1030 05:31:13.315788  1046 net.cpp:413] fire3/squeeze1x1 <- fire2/concat
I1030 05:31:13.315795  1046 net.cpp:387] fire3/squeeze1x1 -> fire3/squeeze1x1
I1030 05:31:13.316107  1046 net.cpp:127] Setting up fire3/squeeze1x1
I1030 05:31:13.316118  1046 net.cpp:136] Top shape: 128 16 56 56 (6422528)
I1030 05:31:13.316123  1046 net.cpp:144] Memory required for data: 1763751936
I1030 05:31:13.316131  1046 net.cpp:453] Found INQ layer:fire3/squeeze1x1, type: INQConvolution, layer id:12
I1030 05:31:13.316140  1046 net.cpp:453] Found INQ layer:fire3/squeeze1x1, type: INQConvolution, layer id:12
I1030 05:31:13.316149  1046 net.cpp:453] Found INQ layer:fire3/squeeze1x1, type: INQConvolution, layer id:12
I1030 05:31:13.316155  1046 net.cpp:453] Found INQ layer:fire3/squeeze1x1, type: INQConvolution, layer id:12
I1030 05:31:13.316160  1046 layer_factory.hpp:77] Creating layer fire3/relu_squeeze1x1
I1030 05:31:13.316167  1046 net.cpp:84] Creating Layer fire3/relu_squeeze1x1
I1030 05:31:13.316174  1046 net.cpp:413] fire3/relu_squeeze1x1 <- fire3/squeeze1x1
I1030 05:31:13.316181  1046 net.cpp:374] fire3/relu_squeeze1x1 -> fire3/squeeze1x1 (in-place)
I1030 05:31:13.317522  1046 net.cpp:127] Setting up fire3/relu_squeeze1x1
I1030 05:31:13.317540  1046 net.cpp:136] Top shape: 128 16 56 56 (6422528)
I1030 05:31:13.317546  1046 net.cpp:144] Memory required for data: 1789442048
I1030 05:31:13.317553  1046 layer_factory.hpp:77] Creating layer fire3/squeeze1x1_fire3/relu_squeeze1x1_0_split
I1030 05:31:13.317569  1046 net.cpp:84] Creating Layer fire3/squeeze1x1_fire3/relu_squeeze1x1_0_split
I1030 05:31:13.317574  1046 net.cpp:413] fire3/squeeze1x1_fire3/relu_squeeze1x1_0_split <- fire3/squeeze1x1
I1030 05:31:13.317589  1046 net.cpp:387] fire3/squeeze1x1_fire3/relu_squeeze1x1_0_split -> fire3/squeeze1x1_fire3/relu_squeeze1x1_0_split_0
I1030 05:31:13.317612  1046 net.cpp:387] fire3/squeeze1x1_fire3/relu_squeeze1x1_0_split -> fire3/squeeze1x1_fire3/relu_squeeze1x1_0_split_1
I1030 05:31:13.317661  1046 net.cpp:127] Setting up fire3/squeeze1x1_fire3/relu_squeeze1x1_0_split
I1030 05:31:13.317670  1046 net.cpp:136] Top shape: 128 16 56 56 (6422528)
I1030 05:31:13.317677  1046 net.cpp:136] Top shape: 128 16 56 56 (6422528)
I1030 05:31:13.317682  1046 net.cpp:144] Memory required for data: 1840822272
I1030 05:31:13.317687  1046 layer_factory.hpp:77] Creating layer fire3/expand1x1
I1030 05:31:13.317695  1046 net.cpp:84] Creating Layer fire3/expand1x1
I1030 05:31:13.317700  1046 net.cpp:413] fire3/expand1x1 <- fire3/squeeze1x1_fire3/relu_squeeze1x1_0_split_0
I1030 05:31:13.317708  1046 net.cpp:387] fire3/expand1x1 -> fire3/expand1x1
I1030 05:31:13.318012  1046 net.cpp:127] Setting up fire3/expand1x1
I1030 05:31:13.318023  1046 net.cpp:136] Top shape: 128 64 56 56 (25690112)
I1030 05:31:13.318028  1046 net.cpp:144] Memory required for data: 1943582720
I1030 05:31:13.318037  1046 net.cpp:453] Found INQ layer:fire3/expand1x1, type: INQConvolution, layer id:15
I1030 05:31:13.318044  1046 net.cpp:453] Found INQ layer:fire3/expand1x1, type: INQConvolution, layer id:15
I1030 05:31:13.318050  1046 net.cpp:453] Found INQ layer:fire3/expand1x1, type: INQConvolution, layer id:15
I1030 05:31:13.318055  1046 net.cpp:453] Found INQ layer:fire3/expand1x1, type: INQConvolution, layer id:15
I1030 05:31:13.318060  1046 layer_factory.hpp:77] Creating layer fire3/relu_expand1x1
I1030 05:31:13.318070  1046 net.cpp:84] Creating Layer fire3/relu_expand1x1
I1030 05:31:13.318078  1046 net.cpp:413] fire3/relu_expand1x1 <- fire3/expand1x1
I1030 05:31:13.318084  1046 net.cpp:374] fire3/relu_expand1x1 -> fire3/expand1x1 (in-place)
I1030 05:31:13.318271  1046 net.cpp:127] Setting up fire3/relu_expand1x1
I1030 05:31:13.318284  1046 net.cpp:136] Top shape: 128 64 56 56 (25690112)
I1030 05:31:13.318289  1046 net.cpp:144] Memory required for data: 2046343168
I1030 05:31:13.318295  1046 layer_factory.hpp:77] Creating layer fire3/expand3x3
I1030 05:31:13.318311  1046 net.cpp:84] Creating Layer fire3/expand3x3
I1030 05:31:13.318317  1046 net.cpp:413] fire3/expand3x3 <- fire3/squeeze1x1_fire3/relu_squeeze1x1_0_split_1
I1030 05:31:13.318325  1046 net.cpp:387] fire3/expand3x3 -> fire3/expand3x3
I1030 05:31:13.318706  1046 net.cpp:127] Setting up fire3/expand3x3
I1030 05:31:13.318717  1046 net.cpp:136] Top shape: 128 64 56 56 (25690112)
I1030 05:31:13.318722  1046 net.cpp:144] Memory required for data: 2149103616
I1030 05:31:13.318728  1046 net.cpp:453] Found INQ layer:fire3/expand3x3, type: INQConvolution, layer id:17
I1030 05:31:13.318735  1046 net.cpp:453] Found INQ layer:fire3/expand3x3, type: INQConvolution, layer id:17
I1030 05:31:13.318740  1046 net.cpp:453] Found INQ layer:fire3/expand3x3, type: INQConvolution, layer id:17
I1030 05:31:13.318747  1046 net.cpp:453] Found INQ layer:fire3/expand3x3, type: INQConvolution, layer id:17
I1030 05:31:13.318752  1046 layer_factory.hpp:77] Creating layer fire3/relu_expand3x3
I1030 05:31:13.318759  1046 net.cpp:84] Creating Layer fire3/relu_expand3x3
I1030 05:31:13.318764  1046 net.cpp:413] fire3/relu_expand3x3 <- fire3/expand3x3
I1030 05:31:13.318771  1046 net.cpp:374] fire3/relu_expand3x3 -> fire3/expand3x3 (in-place)
I1030 05:31:13.318955  1046 net.cpp:127] Setting up fire3/relu_expand3x3
I1030 05:31:13.318967  1046 net.cpp:136] Top shape: 128 64 56 56 (25690112)
I1030 05:31:13.318974  1046 net.cpp:144] Memory required for data: 2251864064
I1030 05:31:13.318979  1046 layer_factory.hpp:77] Creating layer fire3/concat
I1030 05:31:13.318987  1046 net.cpp:84] Creating Layer fire3/concat
I1030 05:31:13.318992  1046 net.cpp:413] fire3/concat <- fire3/expand1x1
I1030 05:31:13.319000  1046 net.cpp:413] fire3/concat <- fire3/expand3x3
I1030 05:31:13.319005  1046 net.cpp:387] fire3/concat -> fire3/concat
I1030 05:31:13.319043  1046 net.cpp:127] Setting up fire3/concat
I1030 05:31:13.319052  1046 net.cpp:136] Top shape: 128 128 56 56 (51380224)
I1030 05:31:13.319068  1046 net.cpp:144] Memory required for data: 2457384960
I1030 05:31:13.319074  1046 layer_factory.hpp:77] Creating layer pool3
I1030 05:31:13.319082  1046 net.cpp:84] Creating Layer pool3
I1030 05:31:13.319087  1046 net.cpp:413] pool3 <- fire3/concat
I1030 05:31:13.319095  1046 net.cpp:387] pool3 -> pool3
I1030 05:31:13.319138  1046 net.cpp:127] Setting up pool3
I1030 05:31:13.319147  1046 net.cpp:136] Top shape: 128 128 28 28 (12845056)
I1030 05:31:13.319152  1046 net.cpp:144] Memory required for data: 2508765184
I1030 05:31:13.319157  1046 layer_factory.hpp:77] Creating layer fire4/squeeze1x1
I1030 05:31:13.319167  1046 net.cpp:84] Creating Layer fire4/squeeze1x1
I1030 05:31:13.319175  1046 net.cpp:413] fire4/squeeze1x1 <- pool3
I1030 05:31:13.319182  1046 net.cpp:387] fire4/squeeze1x1 -> fire4/squeeze1x1
I1030 05:31:13.319525  1046 net.cpp:127] Setting up fire4/squeeze1x1
I1030 05:31:13.319536  1046 net.cpp:136] Top shape: 128 32 28 28 (3211264)
I1030 05:31:13.319541  1046 net.cpp:144] Memory required for data: 2521610240
I1030 05:31:13.319548  1046 net.cpp:453] Found INQ layer:fire4/squeeze1x1, type: INQConvolution, layer id:21
I1030 05:31:13.319555  1046 net.cpp:453] Found INQ layer:fire4/squeeze1x1, type: INQConvolution, layer id:21
I1030 05:31:13.319561  1046 net.cpp:453] Found INQ layer:fire4/squeeze1x1, type: INQConvolution, layer id:21
I1030 05:31:13.319566  1046 net.cpp:453] Found INQ layer:fire4/squeeze1x1, type: INQConvolution, layer id:21
I1030 05:31:13.319571  1046 layer_factory.hpp:77] Creating layer fire4/relu_squeeze1x1
I1030 05:31:13.319578  1046 net.cpp:84] Creating Layer fire4/relu_squeeze1x1
I1030 05:31:13.319586  1046 net.cpp:413] fire4/relu_squeeze1x1 <- fire4/squeeze1x1
I1030 05:31:13.319592  1046 net.cpp:374] fire4/relu_squeeze1x1 -> fire4/squeeze1x1 (in-place)
I1030 05:31:13.319782  1046 net.cpp:127] Setting up fire4/relu_squeeze1x1
I1030 05:31:13.319793  1046 net.cpp:136] Top shape: 128 32 28 28 (3211264)
I1030 05:31:13.319798  1046 net.cpp:144] Memory required for data: 2534455296
I1030 05:31:13.319804  1046 layer_factory.hpp:77] Creating layer fire4/squeeze1x1_fire4/relu_squeeze1x1_0_split
I1030 05:31:13.319813  1046 net.cpp:84] Creating Layer fire4/squeeze1x1_fire4/relu_squeeze1x1_0_split
I1030 05:31:13.319818  1046 net.cpp:413] fire4/squeeze1x1_fire4/relu_squeeze1x1_0_split <- fire4/squeeze1x1
I1030 05:31:13.319824  1046 net.cpp:387] fire4/squeeze1x1_fire4/relu_squeeze1x1_0_split -> fire4/squeeze1x1_fire4/relu_squeeze1x1_0_split_0
I1030 05:31:13.319835  1046 net.cpp:387] fire4/squeeze1x1_fire4/relu_squeeze1x1_0_split -> fire4/squeeze1x1_fire4/relu_squeeze1x1_0_split_1
I1030 05:31:13.319878  1046 net.cpp:127] Setting up fire4/squeeze1x1_fire4/relu_squeeze1x1_0_split
I1030 05:31:13.319887  1046 net.cpp:136] Top shape: 128 32 28 28 (3211264)
I1030 05:31:13.319893  1046 net.cpp:136] Top shape: 128 32 28 28 (3211264)
I1030 05:31:13.319900  1046 net.cpp:144] Memory required for data: 2560145408
I1030 05:31:13.319905  1046 layer_factory.hpp:77] Creating layer fire4/expand1x1
I1030 05:31:13.319914  1046 net.cpp:84] Creating Layer fire4/expand1x1
I1030 05:31:13.319921  1046 net.cpp:413] fire4/expand1x1 <- fire4/squeeze1x1_fire4/relu_squeeze1x1_0_split_0
I1030 05:31:13.319927  1046 net.cpp:387] fire4/expand1x1 -> fire4/expand1x1
I1030 05:31:13.320252  1046 net.cpp:127] Setting up fire4/expand1x1
I1030 05:31:13.320266  1046 net.cpp:136] Top shape: 128 128 28 28 (12845056)
I1030 05:31:13.320271  1046 net.cpp:144] Memory required for data: 2611525632
I1030 05:31:13.320279  1046 net.cpp:453] Found INQ layer:fire4/expand1x1, type: INQConvolution, layer id:24
I1030 05:31:13.320288  1046 net.cpp:453] Found INQ layer:fire4/expand1x1, type: INQConvolution, layer id:24
I1030 05:31:13.320294  1046 net.cpp:453] Found INQ layer:fire4/expand1x1, type: INQConvolution, layer id:24
I1030 05:31:13.320307  1046 net.cpp:453] Found INQ layer:fire4/expand1x1, type: INQConvolution, layer id:24
I1030 05:31:13.320317  1046 layer_factory.hpp:77] Creating layer fire4/relu_expand1x1
I1030 05:31:13.320338  1046 net.cpp:84] Creating Layer fire4/relu_expand1x1
I1030 05:31:13.320344  1046 net.cpp:413] fire4/relu_expand1x1 <- fire4/expand1x1
I1030 05:31:13.320350  1046 net.cpp:374] fire4/relu_expand1x1 -> fire4/expand1x1 (in-place)
I1030 05:31:13.321774  1046 net.cpp:127] Setting up fire4/relu_expand1x1
I1030 05:31:13.321794  1046 net.cpp:136] Top shape: 128 128 28 28 (12845056)
I1030 05:31:13.321799  1046 net.cpp:144] Memory required for data: 2662905856
I1030 05:31:13.321805  1046 layer_factory.hpp:77] Creating layer fire4/expand3x3
I1030 05:31:13.321817  1046 net.cpp:84] Creating Layer fire4/expand3x3
I1030 05:31:13.321825  1046 net.cpp:413] fire4/expand3x3 <- fire4/squeeze1x1_fire4/relu_squeeze1x1_0_split_1
I1030 05:31:13.321835  1046 net.cpp:387] fire4/expand3x3 -> fire4/expand3x3
I1030 05:31:13.327466  1046 net.cpp:127] Setting up fire4/expand3x3
I1030 05:31:13.327486  1046 net.cpp:136] Top shape: 128 128 28 28 (12845056)
I1030 05:31:13.327491  1046 net.cpp:144] Memory required for data: 2714286080
I1030 05:31:13.327498  1046 net.cpp:453] Found INQ layer:fire4/expand3x3, type: INQConvolution, layer id:26
I1030 05:31:13.327507  1046 net.cpp:453] Found INQ layer:fire4/expand3x3, type: INQConvolution, layer id:26
I1030 05:31:13.327512  1046 net.cpp:453] Found INQ layer:fire4/expand3x3, type: INQConvolution, layer id:26
I1030 05:31:13.327517  1046 net.cpp:453] Found INQ layer:fire4/expand3x3, type: INQConvolution, layer id:26
I1030 05:31:13.327522  1046 layer_factory.hpp:77] Creating layer fire4/relu_expand3x3
I1030 05:31:13.327533  1046 net.cpp:84] Creating Layer fire4/relu_expand3x3
I1030 05:31:13.327538  1046 net.cpp:413] fire4/relu_expand3x3 <- fire4/expand3x3
I1030 05:31:13.327545  1046 net.cpp:374] fire4/relu_expand3x3 -> fire4/expand3x3 (in-place)
I1030 05:31:13.327776  1046 net.cpp:127] Setting up fire4/relu_expand3x3
I1030 05:31:13.327790  1046 net.cpp:136] Top shape: 128 128 28 28 (12845056)
I1030 05:31:13.327795  1046 net.cpp:144] Memory required for data: 2765666304
I1030 05:31:13.327800  1046 layer_factory.hpp:77] Creating layer fire4/concat
I1030 05:31:13.327807  1046 net.cpp:84] Creating Layer fire4/concat
I1030 05:31:13.327812  1046 net.cpp:413] fire4/concat <- fire4/expand1x1
I1030 05:31:13.327818  1046 net.cpp:413] fire4/concat <- fire4/expand3x3
I1030 05:31:13.327826  1046 net.cpp:387] fire4/concat -> fire4/concat
I1030 05:31:13.327857  1046 net.cpp:127] Setting up fire4/concat
I1030 05:31:13.327865  1046 net.cpp:136] Top shape: 128 256 28 28 (25690112)
I1030 05:31:13.327870  1046 net.cpp:144] Memory required for data: 2868426752
I1030 05:31:13.327874  1046 layer_factory.hpp:77] Creating layer fire5/squeeze1x1
I1030 05:31:13.327886  1046 net.cpp:84] Creating Layer fire5/squeeze1x1
I1030 05:31:13.327891  1046 net.cpp:413] fire5/squeeze1x1 <- fire4/concat
I1030 05:31:13.327900  1046 net.cpp:387] fire5/squeeze1x1 -> fire5/squeeze1x1
I1030 05:31:13.328301  1046 net.cpp:127] Setting up fire5/squeeze1x1
I1030 05:31:13.328313  1046 net.cpp:136] Top shape: 128 32 28 28 (3211264)
I1030 05:31:13.328318  1046 net.cpp:144] Memory required for data: 2881271808
I1030 05:31:13.328325  1046 net.cpp:453] Found INQ layer:fire5/squeeze1x1, type: INQConvolution, layer id:29
I1030 05:31:13.328331  1046 net.cpp:453] Found INQ layer:fire5/squeeze1x1, type: INQConvolution, layer id:29
I1030 05:31:13.328337  1046 net.cpp:453] Found INQ layer:fire5/squeeze1x1, type: INQConvolution, layer id:29
I1030 05:31:13.328342  1046 net.cpp:453] Found INQ layer:fire5/squeeze1x1, type: INQConvolution, layer id:29
I1030 05:31:13.328347  1046 layer_factory.hpp:77] Creating layer fire5/relu_squeeze1x1
I1030 05:31:13.328354  1046 net.cpp:84] Creating Layer fire5/relu_squeeze1x1
I1030 05:31:13.328361  1046 net.cpp:413] fire5/relu_squeeze1x1 <- fire5/squeeze1x1
I1030 05:31:13.328368  1046 net.cpp:374] fire5/relu_squeeze1x1 -> fire5/squeeze1x1 (in-place)
I1030 05:31:13.328603  1046 net.cpp:127] Setting up fire5/relu_squeeze1x1
I1030 05:31:13.328624  1046 net.cpp:136] Top shape: 128 32 28 28 (3211264)
I1030 05:31:13.328649  1046 net.cpp:144] Memory required for data: 2894116864
I1030 05:31:13.328655  1046 layer_factory.hpp:77] Creating layer fire5/squeeze1x1_fire5/relu_squeeze1x1_0_split
I1030 05:31:13.328666  1046 net.cpp:84] Creating Layer fire5/squeeze1x1_fire5/relu_squeeze1x1_0_split
I1030 05:31:13.328671  1046 net.cpp:413] fire5/squeeze1x1_fire5/relu_squeeze1x1_0_split <- fire5/squeeze1x1
I1030 05:31:13.328678  1046 net.cpp:387] fire5/squeeze1x1_fire5/relu_squeeze1x1_0_split -> fire5/squeeze1x1_fire5/relu_squeeze1x1_0_split_0
I1030 05:31:13.328687  1046 net.cpp:387] fire5/squeeze1x1_fire5/relu_squeeze1x1_0_split -> fire5/squeeze1x1_fire5/relu_squeeze1x1_0_split_1
I1030 05:31:13.334833  1046 net.cpp:127] Setting up fire5/squeeze1x1_fire5/relu_squeeze1x1_0_split
I1030 05:31:13.334844  1046 net.cpp:136] Top shape: 128 32 28 28 (3211264)
I1030 05:31:13.334851  1046 net.cpp:136] Top shape: 128 32 28 28 (3211264)
I1030 05:31:13.334856  1046 net.cpp:144] Memory required for data: 2919806976
I1030 05:31:13.334861  1046 layer_factory.hpp:77] Creating layer fire5/expand1x1
I1030 05:31:13.334874  1046 net.cpp:84] Creating Layer fire5/expand1x1
I1030 05:31:13.334880  1046 net.cpp:413] fire5/expand1x1 <- fire5/squeeze1x1_fire5/relu_squeeze1x1_0_split_0
I1030 05:31:13.334890  1046 net.cpp:387] fire5/expand1x1 -> fire5/expand1x1
I1030 05:31:13.335237  1046 net.cpp:127] Setting up fire5/expand1x1
I1030 05:31:13.335248  1046 net.cpp:136] Top shape: 128 128 28 28 (12845056)
I1030 05:31:13.335254  1046 net.cpp:144] Memory required for data: 2971187200
I1030 05:31:13.335261  1046 net.cpp:453] Found INQ layer:fire5/expand1x1, type: INQConvolution, layer id:32
I1030 05:31:13.335268  1046 net.cpp:453] Found INQ layer:fire5/expand1x1, type: INQConvolution, layer id:32
I1030 05:31:13.335273  1046 net.cpp:453] Found INQ layer:fire5/expand1x1, type: INQConvolution, layer id:32
I1030 05:31:13.335279  1046 net.cpp:453] Found INQ layer:fire5/expand1x1, type: INQConvolution, layer id:32
I1030 05:31:13.335283  1046 layer_factory.hpp:77] Creating layer fire5/relu_expand1x1
I1030 05:31:13.335292  1046 net.cpp:84] Creating Layer fire5/relu_expand1x1
I1030 05:31:13.335304  1046 net.cpp:413] fire5/relu_expand1x1 <- fire5/expand1x1
I1030 05:31:13.335311  1046 net.cpp:374] fire5/relu_expand1x1 -> fire5/expand1x1 (in-place)
I1030 05:31:13.335561  1046 net.cpp:127] Setting up fire5/relu_expand1x1
I1030 05:31:13.335573  1046 net.cpp:136] Top shape: 128 128 28 28 (12845056)
I1030 05:31:13.335579  1046 net.cpp:144] Memory required for data: 3022567424
I1030 05:31:13.335584  1046 layer_factory.hpp:77] Creating layer fire5/expand3x3
I1030 05:31:13.335595  1046 net.cpp:84] Creating Layer fire5/expand3x3
I1030 05:31:13.335602  1046 net.cpp:413] fire5/expand3x3 <- fire5/squeeze1x1_fire5/relu_squeeze1x1_0_split_1
I1030 05:31:13.335610  1046 net.cpp:387] fire5/expand3x3 -> fire5/expand3x3
I1030 05:31:13.336220  1046 net.cpp:127] Setting up fire5/expand3x3
I1030 05:31:13.336231  1046 net.cpp:136] Top shape: 128 128 28 28 (12845056)
I1030 05:31:13.336236  1046 net.cpp:144] Memory required for data: 3073947648
I1030 05:31:13.336243  1046 net.cpp:453] Found INQ layer:fire5/expand3x3, type: INQConvolution, layer id:34
I1030 05:31:13.336249  1046 net.cpp:453] Found INQ layer:fire5/expand3x3, type: INQConvolution, layer id:34
I1030 05:31:13.336256  1046 net.cpp:453] Found INQ layer:fire5/expand3x3, type: INQConvolution, layer id:34
I1030 05:31:13.336261  1046 net.cpp:453] Found INQ layer:fire5/expand3x3, type: INQConvolution, layer id:34
I1030 05:31:13.336266  1046 layer_factory.hpp:77] Creating layer fire5/relu_expand3x3
I1030 05:31:13.336275  1046 net.cpp:84] Creating Layer fire5/relu_expand3x3
I1030 05:31:13.336280  1046 net.cpp:413] fire5/relu_expand3x3 <- fire5/expand3x3
I1030 05:31:13.336287  1046 net.cpp:374] fire5/relu_expand3x3 -> fire5/expand3x3 (in-place)
I1030 05:31:13.337656  1046 net.cpp:127] Setting up fire5/relu_expand3x3
I1030 05:31:13.337677  1046 net.cpp:136] Top shape: 128 128 28 28 (12845056)
I1030 05:31:13.337689  1046 net.cpp:144] Memory required for data: 3125327872
I1030 05:31:13.337713  1046 layer_factory.hpp:77] Creating layer fire5/concat
I1030 05:31:13.337723  1046 net.cpp:84] Creating Layer fire5/concat
I1030 05:31:13.337730  1046 net.cpp:413] fire5/concat <- fire5/expand1x1
I1030 05:31:13.337738  1046 net.cpp:413] fire5/concat <- fire5/expand3x3
I1030 05:31:13.337744  1046 net.cpp:387] fire5/concat -> fire5/concat
I1030 05:31:13.337782  1046 net.cpp:127] Setting up fire5/concat
I1030 05:31:13.337790  1046 net.cpp:136] Top shape: 128 256 28 28 (25690112)
I1030 05:31:13.337795  1046 net.cpp:144] Memory required for data: 3228088320
I1030 05:31:13.337800  1046 layer_factory.hpp:77] Creating layer pool5
I1030 05:31:13.337810  1046 net.cpp:84] Creating Layer pool5
I1030 05:31:13.337815  1046 net.cpp:413] pool5 <- fire5/concat
I1030 05:31:13.337821  1046 net.cpp:387] pool5 -> pool5
I1030 05:31:13.337867  1046 net.cpp:127] Setting up pool5
I1030 05:31:13.337877  1046 net.cpp:136] Top shape: 128 256 14 14 (6422528)
I1030 05:31:13.337882  1046 net.cpp:144] Memory required for data: 3253778432
I1030 05:31:13.337887  1046 layer_factory.hpp:77] Creating layer fire6/squeeze1x1
I1030 05:31:13.337898  1046 net.cpp:84] Creating Layer fire6/squeeze1x1
I1030 05:31:13.337903  1046 net.cpp:413] fire6/squeeze1x1 <- pool5
I1030 05:31:13.337911  1046 net.cpp:387] fire6/squeeze1x1 -> fire6/squeeze1x1
I1030 05:31:13.338354  1046 net.cpp:127] Setting up fire6/squeeze1x1
I1030 05:31:13.338368  1046 net.cpp:136] Top shape: 128 48 14 14 (1204224)
I1030 05:31:13.338373  1046 net.cpp:144] Memory required for data: 3258595328
I1030 05:31:13.338380  1046 net.cpp:453] Found INQ layer:fire6/squeeze1x1, type: INQConvolution, layer id:38
I1030 05:31:13.338387  1046 net.cpp:453] Found INQ layer:fire6/squeeze1x1, type: INQConvolution, layer id:38
I1030 05:31:13.338392  1046 net.cpp:453] Found INQ layer:fire6/squeeze1x1, type: INQConvolution, layer id:38
I1030 05:31:13.338398  1046 net.cpp:453] Found INQ layer:fire6/squeeze1x1, type: INQConvolution, layer id:38
I1030 05:31:13.338403  1046 layer_factory.hpp:77] Creating layer fire6/relu_squeeze1x1
I1030 05:31:13.338412  1046 net.cpp:84] Creating Layer fire6/relu_squeeze1x1
I1030 05:31:13.338416  1046 net.cpp:413] fire6/relu_squeeze1x1 <- fire6/squeeze1x1
I1030 05:31:13.338423  1046 net.cpp:374] fire6/relu_squeeze1x1 -> fire6/squeeze1x1 (in-place)
I1030 05:31:13.338631  1046 net.cpp:127] Setting up fire6/relu_squeeze1x1
I1030 05:31:13.338646  1046 net.cpp:136] Top shape: 128 48 14 14 (1204224)
I1030 05:31:13.338651  1046 net.cpp:144] Memory required for data: 3263412224
I1030 05:31:13.338657  1046 layer_factory.hpp:77] Creating layer fire6/squeeze1x1_fire6/relu_squeeze1x1_0_split
I1030 05:31:13.338665  1046 net.cpp:84] Creating Layer fire6/squeeze1x1_fire6/relu_squeeze1x1_0_split
I1030 05:31:13.338670  1046 net.cpp:413] fire6/squeeze1x1_fire6/relu_squeeze1x1_0_split <- fire6/squeeze1x1
I1030 05:31:13.338675  1046 net.cpp:387] fire6/squeeze1x1_fire6/relu_squeeze1x1_0_split -> fire6/squeeze1x1_fire6/relu_squeeze1x1_0_split_0
I1030 05:31:13.338683  1046 net.cpp:387] fire6/squeeze1x1_fire6/relu_squeeze1x1_0_split -> fire6/squeeze1x1_fire6/relu_squeeze1x1_0_split_1
I1030 05:31:13.338738  1046 net.cpp:127] Setting up fire6/squeeze1x1_fire6/relu_squeeze1x1_0_split
I1030 05:31:13.338747  1046 net.cpp:136] Top shape: 128 48 14 14 (1204224)
I1030 05:31:13.338754  1046 net.cpp:136] Top shape: 128 48 14 14 (1204224)
I1030 05:31:13.338759  1046 net.cpp:144] Memory required for data: 3273046016
I1030 05:31:13.338763  1046 layer_factory.hpp:77] Creating layer fire6/expand1x1
I1030 05:31:13.338776  1046 net.cpp:84] Creating Layer fire6/expand1x1
I1030 05:31:13.338781  1046 net.cpp:413] fire6/expand1x1 <- fire6/squeeze1x1_fire6/relu_squeeze1x1_0_split_0
I1030 05:31:13.338788  1046 net.cpp:387] fire6/expand1x1 -> fire6/expand1x1
I1030 05:31:13.339191  1046 net.cpp:127] Setting up fire6/expand1x1
I1030 05:31:13.339202  1046 net.cpp:136] Top shape: 128 192 14 14 (4816896)
I1030 05:31:13.339212  1046 net.cpp:144] Memory required for data: 3292313600
I1030 05:31:13.339229  1046 net.cpp:453] Found INQ layer:fire6/expand1x1, type: INQConvolution, layer id:41
I1030 05:31:13.339236  1046 net.cpp:453] Found INQ layer:fire6/expand1x1, type: INQConvolution, layer id:41
I1030 05:31:13.339243  1046 net.cpp:453] Found INQ layer:fire6/expand1x1, type: INQConvolution, layer id:41
I1030 05:31:13.339248  1046 net.cpp:453] Found INQ layer:fire6/expand1x1, type: INQConvolution, layer id:41
I1030 05:31:13.339253  1046 layer_factory.hpp:77] Creating layer fire6/relu_expand1x1
I1030 05:31:13.339269  1046 net.cpp:84] Creating Layer fire6/relu_expand1x1
I1030 05:31:13.339275  1046 net.cpp:413] fire6/relu_expand1x1 <- fire6/expand1x1
I1030 05:31:13.339282  1046 net.cpp:374] fire6/relu_expand1x1 -> fire6/expand1x1 (in-place)
I1030 05:31:13.339495  1046 net.cpp:127] Setting up fire6/relu_expand1x1
I1030 05:31:13.339509  1046 net.cpp:136] Top shape: 128 192 14 14 (4816896)
I1030 05:31:13.339514  1046 net.cpp:144] Memory required for data: 3311581184
I1030 05:31:13.339519  1046 layer_factory.hpp:77] Creating layer fire6/expand3x3
I1030 05:31:13.339530  1046 net.cpp:84] Creating Layer fire6/expand3x3
I1030 05:31:13.339538  1046 net.cpp:413] fire6/expand3x3 <- fire6/squeeze1x1_fire6/relu_squeeze1x1_0_split_1
I1030 05:31:13.339545  1046 net.cpp:387] fire6/expand3x3 -> fire6/expand3x3
I1030 05:31:13.341956  1046 net.cpp:127] Setting up fire6/expand3x3
I1030 05:31:13.341979  1046 net.cpp:136] Top shape: 128 192 14 14 (4816896)
I1030 05:31:13.341984  1046 net.cpp:144] Memory required for data: 3330848768
I1030 05:31:13.341991  1046 net.cpp:453] Found INQ layer:fire6/expand3x3, type: INQConvolution, layer id:43
I1030 05:31:13.342000  1046 net.cpp:453] Found INQ layer:fire6/expand3x3, type: INQConvolution, layer id:43
I1030 05:31:13.342005  1046 net.cpp:453] Found INQ layer:fire6/expand3x3, type: INQConvolution, layer id:43
I1030 05:31:13.342011  1046 net.cpp:453] Found INQ layer:fire6/expand3x3, type: INQConvolution, layer id:43
I1030 05:31:13.342015  1046 layer_factory.hpp:77] Creating layer fire6/relu_expand3x3
I1030 05:31:13.342023  1046 net.cpp:84] Creating Layer fire6/relu_expand3x3
I1030 05:31:13.342030  1046 net.cpp:413] fire6/relu_expand3x3 <- fire6/expand3x3
I1030 05:31:13.342036  1046 net.cpp:374] fire6/relu_expand3x3 -> fire6/expand3x3 (in-place)
I1030 05:31:13.342263  1046 net.cpp:127] Setting up fire6/relu_expand3x3
I1030 05:31:13.342278  1046 net.cpp:136] Top shape: 128 192 14 14 (4816896)
I1030 05:31:13.342283  1046 net.cpp:144] Memory required for data: 3350116352
I1030 05:31:13.342289  1046 layer_factory.hpp:77] Creating layer fire6/concat
I1030 05:31:13.342301  1046 net.cpp:84] Creating Layer fire6/concat
I1030 05:31:13.342308  1046 net.cpp:413] fire6/concat <- fire6/expand1x1
I1030 05:31:13.342314  1046 net.cpp:413] fire6/concat <- fire6/expand3x3
I1030 05:31:13.342321  1046 net.cpp:387] fire6/concat -> fire6/concat
I1030 05:31:13.342357  1046 net.cpp:127] Setting up fire6/concat
I1030 05:31:13.342366  1046 net.cpp:136] Top shape: 128 384 14 14 (9633792)
I1030 05:31:13.342370  1046 net.cpp:144] Memory required for data: 3388651520
I1030 05:31:13.342375  1046 layer_factory.hpp:77] Creating layer fire7/squeeze1x1
I1030 05:31:13.342386  1046 net.cpp:84] Creating Layer fire7/squeeze1x1
I1030 05:31:13.342391  1046 net.cpp:413] fire7/squeeze1x1 <- fire6/concat
I1030 05:31:13.342401  1046 net.cpp:387] fire7/squeeze1x1 -> fire7/squeeze1x1
I1030 05:31:13.342882  1046 net.cpp:127] Setting up fire7/squeeze1x1
I1030 05:31:13.342895  1046 net.cpp:136] Top shape: 128 48 14 14 (1204224)
I1030 05:31:13.342900  1046 net.cpp:144] Memory required for data: 3393468416
I1030 05:31:13.342914  1046 net.cpp:453] Found INQ layer:fire7/squeeze1x1, type: INQConvolution, layer id:46
I1030 05:31:13.342926  1046 net.cpp:453] Found INQ layer:fire7/squeeze1x1, type: INQConvolution, layer id:46
I1030 05:31:13.342932  1046 net.cpp:453] Found INQ layer:fire7/squeeze1x1, type: INQConvolution, layer id:46
I1030 05:31:13.342938  1046 net.cpp:453] Found INQ layer:fire7/squeeze1x1, type: INQConvolution, layer id:46
I1030 05:31:13.342949  1046 layer_factory.hpp:77] Creating layer fire7/relu_squeeze1x1
I1030 05:31:13.342969  1046 net.cpp:84] Creating Layer fire7/relu_squeeze1x1
I1030 05:31:13.342975  1046 net.cpp:413] fire7/relu_squeeze1x1 <- fire7/squeeze1x1
I1030 05:31:13.342983  1046 net.cpp:374] fire7/relu_squeeze1x1 -> fire7/squeeze1x1 (in-place)
I1030 05:31:13.344372  1046 net.cpp:127] Setting up fire7/relu_squeeze1x1
I1030 05:31:13.344391  1046 net.cpp:136] Top shape: 128 48 14 14 (1204224)
I1030 05:31:13.344396  1046 net.cpp:144] Memory required for data: 3398285312
I1030 05:31:13.344403  1046 layer_factory.hpp:77] Creating layer fire7/squeeze1x1_fire7/relu_squeeze1x1_0_split
I1030 05:31:13.344410  1046 net.cpp:84] Creating Layer fire7/squeeze1x1_fire7/relu_squeeze1x1_0_split
I1030 05:31:13.344418  1046 net.cpp:413] fire7/squeeze1x1_fire7/relu_squeeze1x1_0_split <- fire7/squeeze1x1
I1030 05:31:13.344426  1046 net.cpp:387] fire7/squeeze1x1_fire7/relu_squeeze1x1_0_split -> fire7/squeeze1x1_fire7/relu_squeeze1x1_0_split_0
I1030 05:31:13.344435  1046 net.cpp:387] fire7/squeeze1x1_fire7/relu_squeeze1x1_0_split -> fire7/squeeze1x1_fire7/relu_squeeze1x1_0_split_1
I1030 05:31:13.344487  1046 net.cpp:127] Setting up fire7/squeeze1x1_fire7/relu_squeeze1x1_0_split
I1030 05:31:13.344499  1046 net.cpp:136] Top shape: 128 48 14 14 (1204224)
I1030 05:31:13.344506  1046 net.cpp:136] Top shape: 128 48 14 14 (1204224)
I1030 05:31:13.344521  1046 net.cpp:144] Memory required for data: 3407919104
I1030 05:31:13.344527  1046 layer_factory.hpp:77] Creating layer fire7/expand1x1
I1030 05:31:13.344537  1046 net.cpp:84] Creating Layer fire7/expand1x1
I1030 05:31:13.344544  1046 net.cpp:413] fire7/expand1x1 <- fire7/squeeze1x1_fire7/relu_squeeze1x1_0_split_0
I1030 05:31:13.344552  1046 net.cpp:387] fire7/expand1x1 -> fire7/expand1x1
I1030 05:31:13.344957  1046 net.cpp:127] Setting up fire7/expand1x1
I1030 05:31:13.344969  1046 net.cpp:136] Top shape: 128 192 14 14 (4816896)
I1030 05:31:13.344974  1046 net.cpp:144] Memory required for data: 3427186688
I1030 05:31:13.344981  1046 net.cpp:453] Found INQ layer:fire7/expand1x1, type: INQConvolution, layer id:49
I1030 05:31:13.344988  1046 net.cpp:453] Found INQ layer:fire7/expand1x1, type: INQConvolution, layer id:49
I1030 05:31:13.344993  1046 net.cpp:453] Found INQ layer:fire7/expand1x1, type: INQConvolution, layer id:49
I1030 05:31:13.345000  1046 net.cpp:453] Found INQ layer:fire7/expand1x1, type: INQConvolution, layer id:49
I1030 05:31:13.345005  1046 layer_factory.hpp:77] Creating layer fire7/relu_expand1x1
I1030 05:31:13.345011  1046 net.cpp:84] Creating Layer fire7/relu_expand1x1
I1030 05:31:13.345017  1046 net.cpp:413] fire7/relu_expand1x1 <- fire7/expand1x1
I1030 05:31:13.345026  1046 net.cpp:374] fire7/relu_expand1x1 -> fire7/expand1x1 (in-place)
I1030 05:31:13.345244  1046 net.cpp:127] Setting up fire7/relu_expand1x1
I1030 05:31:13.345257  1046 net.cpp:136] Top shape: 128 192 14 14 (4816896)
I1030 05:31:13.345262  1046 net.cpp:144] Memory required for data: 3446454272
I1030 05:31:13.345266  1046 layer_factory.hpp:77] Creating layer fire7/expand3x3
I1030 05:31:13.345278  1046 net.cpp:84] Creating Layer fire7/expand3x3
I1030 05:31:13.345283  1046 net.cpp:413] fire7/expand3x3 <- fire7/squeeze1x1_fire7/relu_squeeze1x1_0_split_1
I1030 05:31:13.345294  1046 net.cpp:387] fire7/expand3x3 -> fire7/expand3x3
I1030 05:31:13.346302  1046 net.cpp:127] Setting up fire7/expand3x3
I1030 05:31:13.346316  1046 net.cpp:136] Top shape: 128 192 14 14 (4816896)
I1030 05:31:13.346321  1046 net.cpp:144] Memory required for data: 3465721856
I1030 05:31:13.346328  1046 net.cpp:453] Found INQ layer:fire7/expand3x3, type: INQConvolution, layer id:51
I1030 05:31:13.346335  1046 net.cpp:453] Found INQ layer:fire7/expand3x3, type: INQConvolution, layer id:51
I1030 05:31:13.346343  1046 net.cpp:453] Found INQ layer:fire7/expand3x3, type: INQConvolution, layer id:51
I1030 05:31:13.346348  1046 net.cpp:453] Found INQ layer:fire7/expand3x3, type: INQConvolution, layer id:51
I1030 05:31:13.346359  1046 layer_factory.hpp:77] Creating layer fire7/relu_expand3x3
I1030 05:31:13.346379  1046 net.cpp:84] Creating Layer fire7/relu_expand3x3
I1030 05:31:13.346385  1046 net.cpp:413] fire7/relu_expand3x3 <- fire7/expand3x3
I1030 05:31:13.346393  1046 net.cpp:374] fire7/relu_expand3x3 -> fire7/expand3x3 (in-place)
I1030 05:31:13.346603  1046 net.cpp:127] Setting up fire7/relu_expand3x3
I1030 05:31:13.346616  1046 net.cpp:136] Top shape: 128 192 14 14 (4816896)
I1030 05:31:13.346621  1046 net.cpp:144] Memory required for data: 3484989440
I1030 05:31:13.346626  1046 layer_factory.hpp:77] Creating layer fire7/concat
I1030 05:31:13.346633  1046 net.cpp:84] Creating Layer fire7/concat
I1030 05:31:13.346638  1046 net.cpp:413] fire7/concat <- fire7/expand1x1
I1030 05:31:13.346644  1046 net.cpp:413] fire7/concat <- fire7/expand3x3
I1030 05:31:13.346653  1046 net.cpp:387] fire7/concat -> fire7/concat
I1030 05:31:13.346688  1046 net.cpp:127] Setting up fire7/concat
I1030 05:31:13.346695  1046 net.cpp:136] Top shape: 128 384 14 14 (9633792)
I1030 05:31:13.346699  1046 net.cpp:144] Memory required for data: 3523524608
I1030 05:31:13.346704  1046 layer_factory.hpp:77] Creating layer fire8/squeeze1x1
I1030 05:31:13.346715  1046 net.cpp:84] Creating Layer fire8/squeeze1x1
I1030 05:31:13.346720  1046 net.cpp:413] fire8/squeeze1x1 <- fire7/concat
I1030 05:31:13.346735  1046 net.cpp:387] fire8/squeeze1x1 -> fire8/squeeze1x1
I1030 05:31:13.347259  1046 net.cpp:127] Setting up fire8/squeeze1x1
I1030 05:31:13.347270  1046 net.cpp:136] Top shape: 128 64 14 14 (1605632)
I1030 05:31:13.347275  1046 net.cpp:144] Memory required for data: 3529947136
I1030 05:31:13.347282  1046 net.cpp:453] Found INQ layer:fire8/squeeze1x1, type: INQConvolution, layer id:54
I1030 05:31:13.347288  1046 net.cpp:453] Found INQ layer:fire8/squeeze1x1, type: INQConvolution, layer id:54
I1030 05:31:13.347295  1046 net.cpp:453] Found INQ layer:fire8/squeeze1x1, type: INQConvolution, layer id:54
I1030 05:31:13.347306  1046 net.cpp:453] Found INQ layer:fire8/squeeze1x1, type: INQConvolution, layer id:54
I1030 05:31:13.347311  1046 layer_factory.hpp:77] Creating layer fire8/relu_squeeze1x1
I1030 05:31:13.347319  1046 net.cpp:84] Creating Layer fire8/relu_squeeze1x1
I1030 05:31:13.347326  1046 net.cpp:413] fire8/relu_squeeze1x1 <- fire8/squeeze1x1
I1030 05:31:13.347332  1046 net.cpp:374] fire8/relu_squeeze1x1 -> fire8/squeeze1x1 (in-place)
I1030 05:31:13.348726  1046 net.cpp:127] Setting up fire8/relu_squeeze1x1
I1030 05:31:13.348745  1046 net.cpp:136] Top shape: 128 64 14 14 (1605632)
I1030 05:31:13.348752  1046 net.cpp:144] Memory required for data: 3536369664
I1030 05:31:13.348757  1046 layer_factory.hpp:77] Creating layer fire8/squeeze1x1_fire8/relu_squeeze1x1_0_split
I1030 05:31:13.348768  1046 net.cpp:84] Creating Layer fire8/squeeze1x1_fire8/relu_squeeze1x1_0_split
I1030 05:31:13.348774  1046 net.cpp:413] fire8/squeeze1x1_fire8/relu_squeeze1x1_0_split <- fire8/squeeze1x1
I1030 05:31:13.348781  1046 net.cpp:387] fire8/squeeze1x1_fire8/relu_squeeze1x1_0_split -> fire8/squeeze1x1_fire8/relu_squeeze1x1_0_split_0
I1030 05:31:13.348790  1046 net.cpp:387] fire8/squeeze1x1_fire8/relu_squeeze1x1_0_split -> fire8/squeeze1x1_fire8/relu_squeeze1x1_0_split_1
I1030 05:31:13.348845  1046 net.cpp:127] Setting up fire8/squeeze1x1_fire8/relu_squeeze1x1_0_split
I1030 05:31:13.348855  1046 net.cpp:136] Top shape: 128 64 14 14 (1605632)
I1030 05:31:13.348861  1046 net.cpp:136] Top shape: 128 64 14 14 (1605632)
I1030 05:31:13.348866  1046 net.cpp:144] Memory required for data: 3549214720
I1030 05:31:13.348871  1046 layer_factory.hpp:77] Creating layer fire8/expand1x1
I1030 05:31:13.348883  1046 net.cpp:84] Creating Layer fire8/expand1x1
I1030 05:31:13.348888  1046 net.cpp:413] fire8/expand1x1 <- fire8/squeeze1x1_fire8/relu_squeeze1x1_0_split_0
I1030 05:31:13.348897  1046 net.cpp:387] fire8/expand1x1 -> fire8/expand1x1
I1030 05:31:13.349361  1046 net.cpp:127] Setting up fire8/expand1x1
I1030 05:31:13.349375  1046 net.cpp:136] Top shape: 128 256 14 14 (6422528)
I1030 05:31:13.349385  1046 net.cpp:144] Memory required for data: 3574904832
I1030 05:31:13.349406  1046 net.cpp:453] Found INQ layer:fire8/expand1x1, type: INQConvolution, layer id:57
I1030 05:31:13.349413  1046 net.cpp:453] Found INQ layer:fire8/expand1x1, type: INQConvolution, layer id:57
I1030 05:31:13.349419  1046 net.cpp:453] Found INQ layer:fire8/expand1x1, type: INQConvolution, layer id:57
I1030 05:31:13.349424  1046 net.cpp:453] Found INQ layer:fire8/expand1x1, type: INQConvolution, layer id:57
I1030 05:31:13.349428  1046 layer_factory.hpp:77] Creating layer fire8/relu_expand1x1
I1030 05:31:13.349437  1046 net.cpp:84] Creating Layer fire8/relu_expand1x1
I1030 05:31:13.349442  1046 net.cpp:413] fire8/relu_expand1x1 <- fire8/expand1x1
I1030 05:31:13.349450  1046 net.cpp:374] fire8/relu_expand1x1 -> fire8/expand1x1 (in-place)
I1030 05:31:13.349663  1046 net.cpp:127] Setting up fire8/relu_expand1x1
I1030 05:31:13.349674  1046 net.cpp:136] Top shape: 128 256 14 14 (6422528)
I1030 05:31:13.349680  1046 net.cpp:144] Memory required for data: 3600594944
I1030 05:31:13.349685  1046 layer_factory.hpp:77] Creating layer fire8/expand3x3
I1030 05:31:13.349697  1046 net.cpp:84] Creating Layer fire8/expand3x3
I1030 05:31:13.349702  1046 net.cpp:413] fire8/expand3x3 <- fire8/squeeze1x1_fire8/relu_squeeze1x1_0_split_1
I1030 05:31:13.349714  1046 net.cpp:387] fire8/expand3x3 -> fire8/expand3x3
I1030 05:31:13.352618  1046 net.cpp:127] Setting up fire8/expand3x3
I1030 05:31:13.352638  1046 net.cpp:136] Top shape: 128 256 14 14 (6422528)
I1030 05:31:13.352644  1046 net.cpp:144] Memory required for data: 3626285056
I1030 05:31:13.352651  1046 net.cpp:453] Found INQ layer:fire8/expand3x3, type: INQConvolution, layer id:59
I1030 05:31:13.352659  1046 net.cpp:453] Found INQ layer:fire8/expand3x3, type: INQConvolution, layer id:59
I1030 05:31:13.352665  1046 net.cpp:453] Found INQ layer:fire8/expand3x3, type: INQConvolution, layer id:59
I1030 05:31:13.352671  1046 net.cpp:453] Found INQ layer:fire8/expand3x3, type: INQConvolution, layer id:59
I1030 05:31:13.352675  1046 layer_factory.hpp:77] Creating layer fire8/relu_expand3x3
I1030 05:31:13.352684  1046 net.cpp:84] Creating Layer fire8/relu_expand3x3
I1030 05:31:13.352689  1046 net.cpp:413] fire8/relu_expand3x3 <- fire8/expand3x3
I1030 05:31:13.352699  1046 net.cpp:374] fire8/relu_expand3x3 -> fire8/expand3x3 (in-place)
I1030 05:31:13.352922  1046 net.cpp:127] Setting up fire8/relu_expand3x3
I1030 05:31:13.352936  1046 net.cpp:136] Top shape: 128 256 14 14 (6422528)
I1030 05:31:13.352941  1046 net.cpp:144] Memory required for data: 3651975168
I1030 05:31:13.352946  1046 layer_factory.hpp:77] Creating layer fire8/concat
I1030 05:31:13.352954  1046 net.cpp:84] Creating Layer fire8/concat
I1030 05:31:13.352959  1046 net.cpp:413] fire8/concat <- fire8/expand1x1
I1030 05:31:13.352965  1046 net.cpp:413] fire8/concat <- fire8/expand3x3
I1030 05:31:13.352974  1046 net.cpp:387] fire8/concat -> fire8/concat
I1030 05:31:13.353008  1046 net.cpp:127] Setting up fire8/concat
I1030 05:31:13.353018  1046 net.cpp:136] Top shape: 128 512 14 14 (12845056)
I1030 05:31:13.353022  1046 net.cpp:144] Memory required for data: 3703355392
I1030 05:31:13.353027  1046 layer_factory.hpp:77] Creating layer fire9/squeeze1x1
I1030 05:31:13.353039  1046 net.cpp:84] Creating Layer fire9/squeeze1x1
I1030 05:31:13.353044  1046 net.cpp:413] fire9/squeeze1x1 <- fire8/concat
I1030 05:31:13.353056  1046 net.cpp:387] fire9/squeeze1x1 -> fire9/squeeze1x1
I1030 05:31:13.353651  1046 net.cpp:127] Setting up fire9/squeeze1x1
I1030 05:31:13.353663  1046 net.cpp:136] Top shape: 128 64 14 14 (1605632)
I1030 05:31:13.353667  1046 net.cpp:144] Memory required for data: 3709777920
I1030 05:31:13.353674  1046 net.cpp:453] Found INQ layer:fire9/squeeze1x1, type: INQConvolution, layer id:62
I1030 05:31:13.353682  1046 net.cpp:453] Found INQ layer:fire9/squeeze1x1, type: INQConvolution, layer id:62
I1030 05:31:13.353688  1046 net.cpp:453] Found INQ layer:fire9/squeeze1x1, type: INQConvolution, layer id:62
I1030 05:31:13.353694  1046 net.cpp:453] Found INQ layer:fire9/squeeze1x1, type: INQConvolution, layer id:62
I1030 05:31:13.353719  1046 layer_factory.hpp:77] Creating layer fire9/relu_squeeze1x1
I1030 05:31:13.353727  1046 net.cpp:84] Creating Layer fire9/relu_squeeze1x1
I1030 05:31:13.353734  1046 net.cpp:413] fire9/relu_squeeze1x1 <- fire9/squeeze1x1
I1030 05:31:13.353742  1046 net.cpp:374] fire9/relu_squeeze1x1 -> fire9/squeeze1x1 (in-place)
I1030 05:31:13.353958  1046 net.cpp:127] Setting up fire9/relu_squeeze1x1
I1030 05:31:13.353971  1046 net.cpp:136] Top shape: 128 64 14 14 (1605632)
I1030 05:31:13.353977  1046 net.cpp:144] Memory required for data: 3716200448
I1030 05:31:13.353982  1046 layer_factory.hpp:77] Creating layer fire9/squeeze1x1_fire9/relu_squeeze1x1_0_split
I1030 05:31:13.353999  1046 net.cpp:84] Creating Layer fire9/squeeze1x1_fire9/relu_squeeze1x1_0_split
I1030 05:31:13.354005  1046 net.cpp:413] fire9/squeeze1x1_fire9/relu_squeeze1x1_0_split <- fire9/squeeze1x1
I1030 05:31:13.354012  1046 net.cpp:387] fire9/squeeze1x1_fire9/relu_squeeze1x1_0_split -> fire9/squeeze1x1_fire9/relu_squeeze1x1_0_split_0
I1030 05:31:13.354020  1046 net.cpp:387] fire9/squeeze1x1_fire9/relu_squeeze1x1_0_split -> fire9/squeeze1x1_fire9/relu_squeeze1x1_0_split_1
I1030 05:31:13.354070  1046 net.cpp:127] Setting up fire9/squeeze1x1_fire9/relu_squeeze1x1_0_split
I1030 05:31:13.354081  1046 net.cpp:136] Top shape: 128 64 14 14 (1605632)
I1030 05:31:13.354087  1046 net.cpp:136] Top shape: 128 64 14 14 (1605632)
I1030 05:31:13.354092  1046 net.cpp:144] Memory required for data: 3729045504
I1030 05:31:13.354099  1046 layer_factory.hpp:77] Creating layer fire9/expand1x1
I1030 05:31:13.354106  1046 net.cpp:84] Creating Layer fire9/expand1x1
I1030 05:31:13.354112  1046 net.cpp:413] fire9/expand1x1 <- fire9/squeeze1x1_fire9/relu_squeeze1x1_0_split_0
I1030 05:31:13.354121  1046 net.cpp:387] fire9/expand1x1 -> fire9/expand1x1
I1030 05:31:13.354579  1046 net.cpp:127] Setting up fire9/expand1x1
I1030 05:31:13.354593  1046 net.cpp:136] Top shape: 128 256 14 14 (6422528)
I1030 05:31:13.354596  1046 net.cpp:144] Memory required for data: 3754735616
I1030 05:31:13.354604  1046 net.cpp:453] Found INQ layer:fire9/expand1x1, type: INQConvolution, layer id:65
I1030 05:31:13.354610  1046 net.cpp:453] Found INQ layer:fire9/expand1x1, type: INQConvolution, layer id:65
I1030 05:31:13.354617  1046 net.cpp:453] Found INQ layer:fire9/expand1x1, type: INQConvolution, layer id:65
I1030 05:31:13.354622  1046 net.cpp:453] Found INQ layer:fire9/expand1x1, type: INQConvolution, layer id:65
I1030 05:31:13.354627  1046 layer_factory.hpp:77] Creating layer fire9/relu_expand1x1
I1030 05:31:13.354636  1046 net.cpp:84] Creating Layer fire9/relu_expand1x1
I1030 05:31:13.354641  1046 net.cpp:413] fire9/relu_expand1x1 <- fire9/expand1x1
I1030 05:31:13.354650  1046 net.cpp:374] fire9/relu_expand1x1 -> fire9/expand1x1 (in-place)
I1030 05:31:13.356036  1046 net.cpp:127] Setting up fire9/relu_expand1x1
I1030 05:31:13.356055  1046 net.cpp:136] Top shape: 128 256 14 14 (6422528)
I1030 05:31:13.356061  1046 net.cpp:144] Memory required for data: 3780425728
I1030 05:31:13.356066  1046 layer_factory.hpp:77] Creating layer fire9/expand3x3
I1030 05:31:13.356081  1046 net.cpp:84] Creating Layer fire9/expand3x3
I1030 05:31:13.356088  1046 net.cpp:413] fire9/expand3x3 <- fire9/squeeze1x1_fire9/relu_squeeze1x1_0_split_1
I1030 05:31:13.356099  1046 net.cpp:387] fire9/expand3x3 -> fire9/expand3x3
I1030 05:31:13.357599  1046 net.cpp:127] Setting up fire9/expand3x3
I1030 05:31:13.357614  1046 net.cpp:136] Top shape: 128 256 14 14 (6422528)
I1030 05:31:13.357617  1046 net.cpp:144] Memory required for data: 3806115840
I1030 05:31:13.357625  1046 net.cpp:453] Found INQ layer:fire9/expand3x3, type: INQConvolution, layer id:67
I1030 05:31:13.357632  1046 net.cpp:453] Found INQ layer:fire9/expand3x3, type: INQConvolution, layer id:67
I1030 05:31:13.357638  1046 net.cpp:453] Found INQ layer:fire9/expand3x3, type: INQConvolution, layer id:67
I1030 05:31:13.357645  1046 net.cpp:453] Found INQ layer:fire9/expand3x3, type: INQConvolution, layer id:67
I1030 05:31:13.357661  1046 layer_factory.hpp:77] Creating layer fire9/relu_expand3x3
I1030 05:31:13.357681  1046 net.cpp:84] Creating Layer fire9/relu_expand3x3
I1030 05:31:13.357686  1046 net.cpp:413] fire9/relu_expand3x3 <- fire9/expand3x3
I1030 05:31:13.357694  1046 net.cpp:374] fire9/relu_expand3x3 -> fire9/expand3x3 (in-place)
I1030 05:31:13.357904  1046 net.cpp:127] Setting up fire9/relu_expand3x3
I1030 05:31:13.357916  1046 net.cpp:136] Top shape: 128 256 14 14 (6422528)
I1030 05:31:13.357921  1046 net.cpp:144] Memory required for data: 3831805952
I1030 05:31:13.357928  1046 layer_factory.hpp:77] Creating layer fire9/concat
I1030 05:31:13.357934  1046 net.cpp:84] Creating Layer fire9/concat
I1030 05:31:13.357939  1046 net.cpp:413] fire9/concat <- fire9/expand1x1
I1030 05:31:13.357945  1046 net.cpp:413] fire9/concat <- fire9/expand3x3
I1030 05:31:13.357954  1046 net.cpp:387] fire9/concat -> fire9/concat
I1030 05:31:13.357986  1046 net.cpp:127] Setting up fire9/concat
I1030 05:31:13.357995  1046 net.cpp:136] Top shape: 128 512 14 14 (12845056)
I1030 05:31:13.358000  1046 net.cpp:144] Memory required for data: 3883186176
I1030 05:31:13.358006  1046 layer_factory.hpp:77] Creating layer drop9
I1030 05:31:13.358018  1046 net.cpp:84] Creating Layer drop9
I1030 05:31:13.358024  1046 net.cpp:413] drop9 <- fire9/concat
I1030 05:31:13.358032  1046 net.cpp:374] drop9 -> fire9/concat (in-place)
I1030 05:31:13.358067  1046 net.cpp:127] Setting up drop9
I1030 05:31:13.358075  1046 net.cpp:136] Top shape: 128 512 14 14 (12845056)
I1030 05:31:13.358080  1046 net.cpp:144] Memory required for data: 3934566400
I1030 05:31:13.358085  1046 layer_factory.hpp:77] Creating layer conv10
I1030 05:31:13.358098  1046 net.cpp:84] Creating Layer conv10
I1030 05:31:13.358103  1046 net.cpp:413] conv10 <- fire9/concat
I1030 05:31:13.358113  1046 net.cpp:387] conv10 -> conv10
I1030 05:31:13.367784  1046 net.cpp:127] Setting up conv10
I1030 05:31:13.367805  1046 net.cpp:136] Top shape: 128 1000 14 14 (25088000)
I1030 05:31:13.367811  1046 net.cpp:144] Memory required for data: 4034918400
I1030 05:31:13.367818  1046 net.cpp:453] Found INQ layer:conv10, type: INQConvolution, layer id:71
I1030 05:31:13.367826  1046 net.cpp:453] Found INQ layer:conv10, type: INQConvolution, layer id:71
I1030 05:31:13.367832  1046 net.cpp:453] Found INQ layer:conv10, type: INQConvolution, layer id:71
I1030 05:31:13.367838  1046 net.cpp:453] Found INQ layer:conv10, type: INQConvolution, layer id:71
I1030 05:31:13.367842  1046 layer_factory.hpp:77] Creating layer relu_conv10
I1030 05:31:13.367852  1046 net.cpp:84] Creating Layer relu_conv10
I1030 05:31:13.367858  1046 net.cpp:413] relu_conv10 <- conv10
I1030 05:31:13.367866  1046 net.cpp:374] relu_conv10 -> conv10 (in-place)
I1030 05:31:13.368101  1046 net.cpp:127] Setting up relu_conv10
I1030 05:31:13.368114  1046 net.cpp:136] Top shape: 128 1000 14 14 (25088000)
I1030 05:31:13.368120  1046 net.cpp:144] Memory required for data: 4135270400
I1030 05:31:13.368126  1046 layer_factory.hpp:77] Creating layer pool10
I1030 05:31:13.368136  1046 net.cpp:84] Creating Layer pool10
I1030 05:31:13.368141  1046 net.cpp:413] pool10 <- conv10
I1030 05:31:13.368149  1046 net.cpp:387] pool10 -> pool10
I1030 05:31:13.368408  1046 net.cpp:127] Setting up pool10
I1030 05:31:13.368422  1046 net.cpp:136] Top shape: 128 1000 1 1 (128000)
I1030 05:31:13.368428  1046 net.cpp:144] Memory required for data: 4135782400
I1030 05:31:13.368434  1046 layer_factory.hpp:77] Creating layer loss
I1030 05:31:13.368444  1046 net.cpp:84] Creating Layer loss
I1030 05:31:13.368449  1046 net.cpp:413] loss <- pool10
I1030 05:31:13.368455  1046 net.cpp:413] loss <- label
I1030 05:31:13.368466  1046 net.cpp:387] loss -> loss
I1030 05:31:13.368480  1046 layer_factory.hpp:77] Creating layer loss
…
I1030 05:31:13.373914  1046 net.cpp:301] The NetState phase (1) differed from the phase (0) specified by a rule in layer data
I1030 05:31:13.374681  1046 net.cpp:51] Initializing net from parameters: 
name: "SqueezeNet"
state {
  phase: TEST
}
layer {
  name: "data"
  type: "Data"
  top: "data"
  top: "label"
  include {
    phase: TEST
  }
  transform_param {
    crop_size: 227
    mean_value: 104
    mean_value: 117
    mean_value: 123
  }
  data_param {
    source: "/home/data/caffe-imagenet/ilsvrc12_val_lmdb"
    batch_size: 50
    backend: LMDB
  }
}
layer {
  name: "conv1"
  type: "INQConvolution"
  bottom: "data"
  top: "conv1"
  convolution_param {
    num_output: 64
    kernel_size: 3
    stride: 2
    weight_filler {
      type: "xavier"
    }
  }
  inq_convolution_param {
    portion: 0.8
    portion: 0.9
    weight_mask_filler {
      type: "constant"
      value: 1
    }
    bias_mask_filler {
      type: "constant"
      value: 1
    }
    num_quantum_values: 7
  }
}
layer {
  name: "relu_conv1"
  type: "ReLU"
  bottom: "conv1"
  top: "conv1"
}
layer {
  name: "pool1"
  type: "Pooling"
  bottom: "conv1"
  top: "pool1"
  pooling_param {
    pool: MAX
    kernel_size: 3
    stride: 2
  }
}
layer {
  name: "fire2/squeeze1x1"
  type: "INQConvolution"
  bottom: "pool1"
  top: "fire2/squeeze1x1"
  convolution_param {
    num_output: 16
    kernel_size: 1
    weight_filler {
      type: "xavier"
    }
  }
  inq_convolution_param {
    portion: 0.8
    portion: 0.9
    weight_mask_filler {
      type: "constant"
      value: 1
    }
    bias_mask_filler {
      type: "constant"
      value: 1
    }
    num_quantum_values: 7
  }
}
layer {
  name: "fire2/relu_squeeze1x1"
  type: "ReLU"
  bottom: "fire2/squeeze1x1"
  top: "fire2/squeeze1x1"
}
layer {
  name: "fire2/expand1x1"
  type: "INQConvolution"
  bottom: "fire2/squeeze1x1"
  top: "fire2/expand1x1"
  convolution_param {
    num_output: 64
    kernel_size: 1
    weight_filler {
      type: "xavier"
    }
  }
  inq_convolution_param {
    portion: 0.8
    portion: 0.9
    weight_mask_filler {
      type: "constant"
      value: 1
    }
    bias_mask_filler {
      type: "constant"
      value: 1
    }
    num_quantum_values: 7
  }
}
layer {
  name: "fire2/relu_expand1x1"
  type: "ReLU"
  bottom: "fire2/expand1x1"
  top: "fire2/expand1x1"
}
layer {
  name: "fire2/expand3x3"
  type: "INQConvolution"
  bottom: "fire2/squeeze1x1"
  top: "fire2/expand3x3"
  convolution_param {
    num_output: 64
    pad: 1
    kernel_size: 3
    weight_filler {
      type: "xavier"
    }
  }
  inq_convolution_param {
    portion: 0.8
    portion: 0.9
    weight_mask_filler {
      type: "constant"
      value: 1
    }
    bias_mask_filler {
      type: "constant"
      value: 1
    }
    num_quantum_values: 7
  }
}
layer {
  name: "fire2/relu_expand3x3"
  type: "ReLU"
  bottom: "fire2/expand3x3"
  top: "fire2/expand3x3"
}
layer {
  name: "fire2/concat"
  type: "Concat"
  bottom: "fire2/expand1x1"
  bottom: "fire2/expand3x3"
  top: "fire2/concat"
}
layer {
  name: "fire3/squeeze1x1"
  type: "INQConvolution"
  bottom: "fire2/concat"
  top: "fire3/squeeze1x1"
  convolution_param {
    num_output: 16
    kernel_size: 1
    weight_filler {
      type: "xavier"
    }
  }
  inq_convolution_param {
    portion: 0.8
    portion: 0.9
    weight_mask_filler {
      type: "constant"
      value: 1
    }
    bias_mask_filler {
      type: "constant"
      value: 1
    }
    num_quantum_values: 7
  }
}
layer {
  name: "fire3/relu_squeeze1x1"
  type: "ReLU"
  bottom: "fire3/squeeze1x1"
  top: "fire3/squeeze1x1"
}
layer {
  name: "fire3/expand1x1"
  type: "INQConvolution"
  bottom: "fire3/squeeze1x1"
  top: "fire3/expand1x1"
  convolution_param {
    num_output: 64
    kernel_size: 1
    weight_filler {
      type: "xavier"
    }
  }
  inq_convolution_param {
    portion: 0.8
    portion: 0.9
    weight_mask_filler {
      type: "constant"
      value: 1
    }
    bias_mask_filler {
      type: "constant"
      value: 1
    }
    num_quantum_values: 7
  }
}
layer {
  name: "fire3/relu_expand1x1"
  type: "ReLU"
  bottom: "fire3/expand1x1"
  top: "fire3/expand1x1"
}
layer {
  name: "fire3/expand3x3"
  type: "INQConvolution"
  bottom: "fire3/squeeze1x1"
  top: "fire3/expand3x3"
  convolution_param {
    num_output: 64
    pad: 1
    kernel_size: 3
    weight_filler {
      type: "xavier"
    }
  }
  inq_convolution_param {
    portion: 0.8
    portion: 0.9
    weight_mask_filler {
      type: "constant"
      value: 1
    }
    bias_mask_filler {
      type: "constant"
      value: 1
    }
    num_quantum_values: 7
  }
}
layer {
  name: "fire3/relu_expand3x3"
  type: "ReLU"
  bottom: "fire3/expand3x3"
  top: "fire3/expand3x3"
}
layer {
  name: "fire3/concat"
  type: "Concat"
  bottom: "fire3/expand1x1"
  bottom: "fire3/expand3x3"
  top: "fire3/concat"
}
layer {
  name: "pool3"
  type: "Pooling"
  bottom: "fire3/concat"
  top: "pool3"
  pooling_param {
    pool: MAX
    kernel_size: 3
    stride: 2
  }
}
layer {
  name: "fire4/squeeze1x1"
  type: "INQConvolution"
  bottom: "pool3"
  top: "fire4/squeeze1x1"
  convolution_param {
    num_output: 32
    kernel_size: 1
    weight_filler {
      type: "xavier"
    }
  }
  inq_convolution_param {
    portion: 0.8
    portion: 0.9
    weight_mask_filler {
      type: "constant"
      value: 1
    }
    bias_mask_filler {
      type: "constant"
      value: 1
    }
    num_quantum_values: 7
  }
}
layer {
  name: "fire4/relu_squeeze1x1"
  type: "ReLU"
  bottom: "fire4/squeeze1x1"
  top: "fire4/squeeze1x1"
}
layer {
  name: "fire4/expand1x1"
  type: "INQConvolution"
  bottom: "fire4/squeeze1x1"
  top: "fire4/expand1x1"
  convolution_param {
    num_output: 128
    kernel_size: 1
    weight_filler {
      type: "xavier"
    }
  }
  inq_convolution_param {
    portion: 0.8
    portion: 0.9
    weight_mask_filler {
      type: "constant"
      value: 1
    }
    bias_mask_filler {
      type: "constant"
      value: 1
    }
    num_quantum_values: 7
  }
}
layer {
  name: "fire4/relu_expand1x1"
  type: "ReLU"
  bottom: "fire4/expand1x1"
  top: "fire4/expand1x1"
}
layer {
  name: "fire4/expand3x3"
  type: "INQConvolution"
  bottom: "fire4/squeeze1x1"
  top: "fire4/expand3x3"
  convolution_param {
    num_output: 128
    pad: 1
    kernel_size: 3
    weight_filler {
      type: "xavier"
    }
  }
  inq_convolution_param {
    portion: 0.8
    portion: 0.9
    weight_mask_filler {
      type: "constant"
      value: 1
    }
    bias_mask_filler {
      type: "constant"
      value: 1
    }
    num_quantum_values: 7
  }
}
layer {
  name: "fire4/relu_expand3x3"
  type: "ReLU"
  bottom: "fire4/expand3x3"
  top: "fire4/expand3x3"
}
layer {
  name: "fire4/concat"
  type: "Concat"
  bottom: "fire4/expand1x1"
  bottom: "fire4/expand3x3"
  top: "fire4/concat"
}
layer {
  name: "fire5/squeeze1x1"
  type: "INQConvolution"
  bottom: "fire4/concat"
  top: "fire5/squeeze1x1"
  convolution_param {
    num_output: 32
    kernel_size: 1
    weight_filler {
      type: "xavier"
    }
  }
  inq_convolution_param {
    portion: 0.8
    portion: 0.9
    weight_mask_filler {
      type: "constant"
      value: 1
    }
    bias_mask_filler {
      type: "constant"
      value: 1
    }
    num_quantum_values: 7
  }
}
layer {
  name: "fire5/relu_squeeze1x1"
  type: "ReLU"
  bottom: "fire5/squeeze1x1"
  top: "fire5/squeeze1x1"
}
layer {
  name: "fire5/expand1x1"
  type: "INQConvolution"
  bottom: "fire5/squeeze1x1"
  top: "fire5/expand1x1"
  convolution_param {
    num_output: 128
    kernel_size: 1
    weight_filler {
      type: "xavier"
    }
  }
  inq_convolution_param {
    portion: 0.8
    portion: 0.9
    weight_mask_filler {
      type: "constant"
      value: 1
    }
    bias_mask_filler {
      type: "constant"
      value: 1
    }
    num_quantum_values: 7
  }
}
layer {
  name: "fire5/relu_expand1x1"
  type: "ReLU"
  bottom: "fire5/expand1x1"
  top: "fire5/expand1x1"
}
layer {
  name: "fire5/expand3x3"
  type: "INQConvolution"
  bottom: "fire5/squeeze1x1"
  top: "fire5/expand3x3"
  convolution_param {
    num_output: 128
    pad: 1
    kernel_size: 3
    weight_filler {
      type: "xavier"
    }
  }
  inq_convolution_param {
    portion: 0.8
    portion: 0.9
    weight_mask_filler {
      type: "constant"
      value: 1
    }
    bias_mask_filler {
      type: "constant"
      value: 1
    }
    num_quantum_values: 7
  }
}
layer {
  name: "fire5/relu_expand3x3"
  type: "ReLU"
  bottom: "fire5/expand3x3"
  top: "fire5/expand3x3"
}
layer {
  name: "fire5/concat"
  type: "Concat"
  bottom: "fire5/expand1x1"
  bottom: "fire5/expand3x3"
  top: "fire5/concat"
}
layer {
  name: "pool5"
  type: "Pooling"
  bottom: "fire5/concat"
  top: "pool5"
  pooling_param {
    pool: MAX
    kernel_size: 3
    stride: 2
  }
}
layer {
  name: "fire6/squeeze1x1"
  type: "INQConvolution"
  bottom: "pool5"
  top: "fire6/squeeze1x1"
  convolution_param {
    num_output: 48
    kernel_size: 1
    weight_filler {
      type: "xavier"
    }
  }
  inq_convolution_param {
    portion: 0.8
    portion: 0.9
    weight_mask_filler {
      type: "constant"
      value: 1
    }
    bias_mask_filler {
      type: "constant"
      value: 1
    }
    num_quantum_values: 7
  }
}
layer {
  name: "fire6/relu_squeeze1x1"
  type: "ReLU"
  bottom: "fire6/squeeze1x1"
  top: "fire6/squeeze1x1"
}
layer {
  name: "fire6/expand1x1"
  type: "INQConvolution"
  bottom: "fire6/squeeze1x1"
  top: "fire6/expand1x1"
  convolution_param {
    num_output: 192
    kernel_size: 1
    weight_filler {
      type: "xavier"
    }
  }
  inq_convolution_param {
    portion: 0.8
    portion: 0.9
    weight_mask_filler {
      type: "constant"
      value: 1
    }
    bias_mask_filler {
      type: "constant"
      value: 1
    }
    num_quantum_values: 7
  }
}
layer {
  name: "fire6/relu_expand1x1"
  type: "ReLU"
  bottom: "fire6/expand1x1"
  top: "fire6/expand1x1"
}
layer {
  name: "fire6/expand3x3"
  type: "INQConvolution"
  bottom: "fire6/squeeze1x1"
  top: "fire6/expand3x3"
  convolution_param {
    num_output: 192
    pad: 1
    kernel_size: 3
    weight_filler {
      type: "xavier"
    }
  }
  inq_convolution_param {
    portion: 0.8
    portion: 0.9
    weight_mask_filler {
      type: "constant"
      value: 1
    }
    bias_mask_filler {
      type: "constant"
      value: 1
    }
    num_quantum_values: 7
  }
}
layer {
  name: "fire6/relu_expand3x3"
  type: "ReLU"
  bottom: "fire6/expand3x3"
  top: "fire6/expand3x3"
}
layer {
  name: "fire6/concat"
  type: "Concat"
  bottom: "fire6/expand1x1"
  bottom: "fire6/expand3x3"
  top: "fire6/concat"
}
layer {
  name: "fire7/squeeze1x1"
  type: "INQConvolution"
  bottom: "fire6/concat"
  top: "fire7/squeeze1x1"
  convolution_param {
    num_output: 48
    kernel_size: 1
    weight_filler {
      type: "xavier"
    }
  }
  inq_convolution_param {
    portion: 0.8
    portion: 0.9
    weight_mask_filler {
      type: "constant"
      value: 1
    }
    bias_mask_filler {
      type: "constant"
      value: 1
    }
    num_quantum_values: 7
  }
}
layer {
  name: "fire7/relu_squeeze1x1"
  type: "ReLU"
  bottom: "fire7/squeeze1x1"
  top: "fire7/squeeze1x1"
}
layer {
  name: "fire7/expand1x1"
  type: "INQConvolution"
  bottom: "fire7/squeeze1x1"
  top: "fire7/expand1x1"
  convolution_param {
    num_output: 192
    kernel_size: 1
    weight_filler {
      type: "xavier"
    }
  }
  inq_convolution_param {
    portion: 0.8
    portion: 0.9
    weight_mask_filler {
      type: "constant"
      value: 1
    }
    bias_mask_filler {
      type: "constant"
      value: 1
    }
    num_quantum_values: 7
  }
}
layer {
  name: "fire7/relu_expand1x1"
  type: "ReLU"
  bottom: "fire7/expand1x1"
  top: "fire7/expand1x1"
}
layer {
  name: "fire7/expand3x3"
  type: "INQConvolution"
  bottom: "fire7/squeeze1x1"
  top: "fire7/expand3x3"
  convolution_param {
    num_output: 192
    pad: 1
    kernel_size: 3
    weight_filler {
      type: "xavier"
    }
  }
  inq_convolution_param {
    portion: 0.8
    portion: 0.9
    weight_mask_filler {
      type: "constant"
      value: 1
    }
    bias_mask_filler {
      type: "constant"
      value: 1
    }
    num_quantum_values: 7
  }
}
layer {
  name: "fire7/relu_expand3x3"
  type: "ReLU"
  bottom: "fire7/expand3x3"
  top: "fire7/expand3x3"
}
layer {
  name: "fire7/concat"
  type: "Concat"
  bottom: "fire7/expand1x1"
  bottom: "fire7/expand3x3"
  top: "fire7/concat"
}
layer {
  name: "fire8/squeeze1x1"
  type: "INQConvolution"
  bottom: "fire7/concat"
  top: "fire8/squeeze1x1"
  convolution_param {
    num_output: 64
    kernel_size: 1
    weight_filler {
      type: "xavier"
    }
  }
  inq_convolution_param {
    portion: 0.8
    portion: 0.9
    weight_mask_filler {
      type: "constant"
      value: 1
    }
    bias_mask_filler {
      type: "constant"
      value: 1
    }
    num_quantum_values: 7
  }
}
layer {
  name: "fire8/relu_squeeze1x1"
  type: "ReLU"
  bottom: "fire8/squeeze1x1"
  top: "fire8/squeeze1x1"
}
layer {
  name: "fire8/expand1x1"
  type: "INQConvolution"
  bottom: "fire8/squeeze1x1"
  top: "fire8/expand1x1"
  convolution_param {
    num_output: 256
    kernel_size: 1
    weight_filler {
      type: "xavier"
    }
  }
  inq_convolution_param {
    portion: 0.8
    portion: 0.9
    weight_mask_filler {
      type: "constant"
      value: 1
    }
    bias_mask_filler {
      type: "constant"
      value: 1
    }
    num_quantum_values: 7
  }
}
layer {
  name: "fire8/relu_expand1x1"
  type: "ReLU"
  bottom: "fire8/expand1x1"
  top: "fire8/expand1x1"
}
layer {
  name: "fire8/expand3x3"
  type: "INQConvolution"
  bottom: "fire8/squeeze1x1"
  top: "fire8/expand3x3"
  convolution_param {
    num_output: 256
    pad: 1
    kernel_size: 3
    weight_filler {
      type: "xavier"
    }
  }
  inq_convolution_param {
    portion: 0.8
    portion: 0.9
    weight_mask_filler {
      type: "constant"
      value: 1
    }
    bias_mask_filler {
      type: "constant"
      value: 1
    }
    num_quantum_values: 7
  }
}
layer {
  name: "fire8/relu_expand3x3"
  type: "ReLU"
  bottom: "fire8/expand3x3"
  top: "fire8/expand3x3"
}
layer {
  name: "fire8/concat"
  type: "Concat"
  bottom: "fire8/expand1x1"
  bottom: "fire8/expand3x3"
  top: "fire8/concat"
}
layer {
  name: "fire9/squeeze1x1"
  type: "INQConvolution"
  bottom: "fire8/concat"
  top: "fire9/squeeze1x1"
  convolution_param {
    num_output: 64
    kernel_size: 1
    weight_filler {
      type: "xavier"
    }
  }
  inq_convolution_param {
    portion: 0.8
    portion: 0.9
    weight_mask_filler {
      type: "constant"
      value: 1
    }
    bias_mask_filler {
      type: "constant"
      value: 1
    }
    num_quantum_values: 7
  }
}
layer {
  name: "fire9/relu_squeeze1x1"
  type: "ReLU"
  bottom: "fire9/squeeze1x1"
  top: "fire9/squeeze1x1"
}
layer {
  name: "fire9/expand1x1"
  type: "INQConvolution"
  bottom: "fire9/squeeze1x1"
  top: "fire9/expand1x1"
  convolution_param {
    num_output: 256
    kernel_size: 1
    weight_filler {
      type: "xavier"
    }
  }
  inq_convolution_param {
    portion: 0.8
    portion: 0.9
    weight_mask_filler {
      type: "constant"
      value: 1
    }
    bias_mask_filler {
      type: "constant"
      value: 1
    }
    num_quantum_values: 7
  }
}
layer {
  name: "fire9/relu_expand1x1"
  type: "ReLU"
  bottom: "fire9/expand1x1"
  top: "fire9/expand1x1"
}
layer {
  name: "fire9/expand3x3"
  type: "INQConvolution"
  bottom: "fire9/squeeze1x1"
  top: "fire9/expand3x3"
  convolution_param {
    num_output: 256
    pad: 1
    kernel_size: 3
    weight_filler {
      type: "xavier"
    }
  }
  inq_convolution_param {
    portion: 0.8
    portion: 0.9
    weight_mask_filler {
      type: "constant"
      value: 1
    }
    bias_mask_filler {
      type: "constant"
      value: 1
    }
    num_quantum_values: 7
  }
}
layer {
  name: "fire9/relu_expand3x3"
  type: "ReLU"
  bottom: "fire9/expand3x3"
  top: "fire9/expand3x3"
}
layer {
  name: "fire9/concat"
  type: "Concat"
  bottom: "fire9/expand1x1"
  bottom: "fire9/expand3x3"
  top: "fire9/concat"
}
layer {
  name: "drop9"
  type: "Dropout"
  bottom: "fire9/concat"
  top: "fire9/concat"
  dropout_param {
    dropout_ratio: 0.5
  }
}
layer {
  name: "conv10"
  type: "INQConvolution"
  bottom: "fire9/concat"
  top: "conv10"
  convolution_param {
    num_output: 1000
    kernel_size: 1
    weight_filler {
      type: "gaussian"
      mean: 0
      std: 0.01
    }
  }
  inq_convolution_param {
    portion: 0.8
    portion: 0.9
    weight_mask_filler {
      type: "constant"
      value: 1
    }
    bias_mask_filler {
      type: "constant"
      value: 1
    }
    num_quantum_values: 7
  }
}
layer {
  name: "relu_conv10"
  type: "ReLU"
  bottom: "conv10"
  top: "conv10"
}
layer {
  name: "pool10"
  type: "Pooling"
  bottom: "conv10"
  top: "pool10"
  pooling_param {
    pool: AVE
    global_pooling: true
  }
}
layer {
  name: "loss"
  type: "SoftmaxWithLoss"
  bottom: "pool10"
  bottom: "label"
  top: "loss"
}
layer {
  name: "accuracy_top1"
  type: "Accuracy"
  bottom: "pool10"
  bottom: "label"
  top: "accuracy_top1"
  include {
    phase: TEST
  }
}
layer {
  name: "accuracy_top5"
  type: "Accuracy"
  bottom: "pool10"
  bottom: "label"
  top: "accuracy_top5"
  include {
    phase: TEST
  }
  accuracy_param {
    top_k: 5
  }
}
I1030 05:31:13.375072  1046 layer_factory.hpp:77] Creating layer data
I1030 05:31:13.375150  1046 db_lmdb.cpp:35] Opened lmdb /home/data/caffe-imagenet/ilsvrc12_val_lmdb
I1030 05:31:13.375172  1046 net.cpp:84] Creating Layer data
I1030 05:31:13.375182  1046 net.cpp:387] data -> data
I1030 05:31:13.375200  1046 net.cpp:387] data -> label
I1030 05:31:13.375627  1046 data_layer.cpp:45] output data size: 50,3,227,227
I1030 05:31:13.466626  1046 net.cpp:127] Setting up data
I1030 05:31:13.466680  1046 net.cpp:136] Top shape: 50 3 227 227 (7729350)
I1030 05:31:13.466688  1046 net.cpp:136] Top shape: 50 (50)
I1030 05:31:13.466694  1046 net.cpp:144] Memory required for data: 30917600
I1030 05:31:13.466704  1046 layer_factory.hpp:77] Creating layer label_data_1_split
I1030 05:31:13.466722  1046 net.cpp:84] Creating Layer label_data_1_split
I1030 05:31:13.466729  1046 net.cpp:413] label_data_1_split <- label
I1030 05:31:13.466740  1046 net.cpp:387] label_data_1_split -> label_data_1_split_0
I1030 05:31:13.466754  1046 net.cpp:387] label_data_1_split -> label_data_1_split_1
I1030 05:31:13.466763  1046 net.cpp:387] label_data_1_split -> label_data_1_split_2
I1030 05:31:13.466895  1046 net.cpp:127] Setting up label_data_1_split
I1030 05:31:13.466907  1046 net.cpp:136] Top shape: 50 (50)
I1030 05:31:13.466913  1046 net.cpp:136] Top shape: 50 (50)
I1030 05:31:13.466919  1046 net.cpp:136] Top shape: 50 (50)
I1030 05:31:13.466924  1046 net.cpp:144] Memory required for data: 30918200
I1030 05:31:13.466929  1046 layer_factory.hpp:77] Creating layer conv1
I1030 05:31:13.466945  1046 net.cpp:84] Creating Layer conv1
I1030 05:31:13.466951  1046 net.cpp:413] conv1 <- data
I1030 05:31:13.466960  1046 net.cpp:387] conv1 -> conv1
I1030 05:31:13.467381  1046 net.cpp:127] Setting up conv1
I1030 05:31:13.467394  1046 net.cpp:136] Top shape: 50 64 113 113 (40860800)
I1030 05:31:13.467399  1046 net.cpp:144] Memory required for data: 194361400
I1030 05:31:13.467411  1046 net.cpp:453] Found INQ layer:conv1, type: INQConvolution, layer id:2
I1030 05:31:13.467420  1046 net.cpp:453] Found INQ layer:conv1, type: INQConvolution, layer id:2
I1030 05:31:13.467428  1046 net.cpp:453] Found INQ layer:conv1, type: INQConvolution, layer id:2
I1030 05:31:13.467437  1046 net.cpp:453] Found INQ layer:conv1, type: INQConvolution, layer id:2
I1030 05:31:13.467442  1046 layer_factory.hpp:77] Creating layer relu_conv1
I1030 05:31:13.467453  1046 net.cpp:84] Creating Layer relu_conv1
I1030 05:31:13.467458  1046 net.cpp:413] relu_conv1 <- conv1
I1030 05:31:13.467465  1046 net.cpp:374] relu_conv1 -> conv1 (in-place)
I1030 05:31:13.467809  1046 net.cpp:127] Setting up relu_conv1
I1030 05:31:13.467823  1046 net.cpp:136] Top shape: 50 64 113 113 (40860800)
I1030 05:31:13.467828  1046 net.cpp:144] Memory required for data: 357804600
I1030 05:31:13.467833  1046 layer_factory.hpp:77] Creating layer pool1
I1030 05:31:13.467846  1046 net.cpp:84] Creating Layer pool1
I1030 05:31:13.467851  1046 net.cpp:413] pool1 <- conv1
I1030 05:31:13.467859  1046 net.cpp:387] pool1 -> pool1
I1030 05:31:13.467916  1046 net.cpp:127] Setting up pool1
I1030 05:31:13.467923  1046 net.cpp:136] Top shape: 50 64 56 56 (10035200)
I1030 05:31:13.467928  1046 net.cpp:144] Memory required for data: 397945400
I1030 05:31:13.467933  1046 layer_factory.hpp:77] Creating layer fire2/squeeze1x1
I1030 05:31:13.467944  1046 net.cpp:84] Creating Layer fire2/squeeze1x1
I1030 05:31:13.467949  1046 net.cpp:413] fire2/squeeze1x1 <- pool1
I1030 05:31:13.467958  1046 net.cpp:387] fire2/squeeze1x1 -> fire2/squeeze1x1
I1030 05:31:13.470738  1046 net.cpp:127] Setting up fire2/squeeze1x1
I1030 05:31:13.470752  1046 net.cpp:136] Top shape: 50 16 56 56 (2508800)
I1030 05:31:13.470757  1046 net.cpp:144] Memory required for data: 407980600
I1030 05:31:13.470764  1046 net.cpp:453] Found INQ layer:fire2/squeeze1x1, type: INQConvolution, layer id:5
I1030 05:31:13.470773  1046 net.cpp:453] Found INQ layer:fire2/squeeze1x1, type: INQConvolution, layer id:5
I1030 05:31:13.470780  1046 net.cpp:453] Found INQ layer:fire2/squeeze1x1, type: INQConvolution, layer id:5
I1030 05:31:13.470787  1046 net.cpp:453] Found INQ layer:fire2/squeeze1x1, type: INQConvolution, layer id:5
I1030 05:31:13.470793  1046 layer_factory.hpp:77] Creating layer fire2/relu_squeeze1x1
I1030 05:31:13.470801  1046 net.cpp:84] Creating Layer fire2/relu_squeeze1x1
I1030 05:31:13.470818  1046 net.cpp:413] fire2/relu_squeeze1x1 <- fire2/squeeze1x1
I1030 05:31:13.470850  1046 net.cpp:374] fire2/relu_squeeze1x1 -> fire2/squeeze1x1 (in-place)
I1030 05:31:13.471078  1046 net.cpp:127] Setting up fire2/relu_squeeze1x1
I1030 05:31:13.471091  1046 net.cpp:136] Top shape: 50 16 56 56 (2508800)
I1030 05:31:13.471096  1046 net.cpp:144] Memory required for data: 418015800
I1030 05:31:13.471101  1046 layer_factory.hpp:77] Creating layer fire2/squeeze1x1_fire2/relu_squeeze1x1_0_split
I1030 05:31:13.471109  1046 net.cpp:84] Creating Layer fire2/squeeze1x1_fire2/relu_squeeze1x1_0_split
I1030 05:31:13.471114  1046 net.cpp:413] fire2/squeeze1x1_fire2/relu_squeeze1x1_0_split <- fire2/squeeze1x1
I1030 05:31:13.471122  1046 net.cpp:387] fire2/squeeze1x1_fire2/relu_squeeze1x1_0_split -> fire2/squeeze1x1_fire2/relu_squeeze1x1_0_split_0
I1030 05:31:13.471132  1046 net.cpp:387] fire2/squeeze1x1_fire2/relu_squeeze1x1_0_split -> fire2/squeeze1x1_fire2/relu_squeeze1x1_0_split_1
I1030 05:31:13.471184  1046 net.cpp:127] Setting up fire2/squeeze1x1_fire2/relu_squeeze1x1_0_split
I1030 05:31:13.471194  1046 net.cpp:136] Top shape: 50 16 56 56 (2508800)
I1030 05:31:13.471199  1046 net.cpp:136] Top shape: 50 16 56 56 (2508800)
I1030 05:31:13.471205  1046 net.cpp:144] Memory required for data: 438086200
I1030 05:31:13.471210  1046 layer_factory.hpp:77] Creating layer fire2/expand1x1
I1030 05:31:13.471222  1046 net.cpp:84] Creating Layer fire2/expand1x1
I1030 05:31:13.471228  1046 net.cpp:413] fire2/expand1x1 <- fire2/squeeze1x1_fire2/relu_squeeze1x1_0_split_0
I1030 05:31:13.471236  1046 net.cpp:387] fire2/expand1x1 -> fire2/expand1x1
I1030 05:31:13.473871  1046 net.cpp:127] Setting up fire2/expand1x1
I1030 05:31:13.473886  1046 net.cpp:136] Top shape: 50 64 56 56 (10035200)
I1030 05:31:13.473891  1046 net.cpp:144] Memory required for data: 478227000
I1030 05:31:13.473902  1046 net.cpp:453] Found INQ layer:fire2/expand1x1, type: INQConvolution, layer id:8
I1030 05:31:13.473912  1046 net.cpp:453] Found INQ layer:fire2/expand1x1, type: INQConvolution, layer id:8
I1030 05:31:13.473919  1046 net.cpp:453] Found INQ layer:fire2/expand1x1, type: INQConvolution, layer id:8
I1030 05:31:13.473925  1046 net.cpp:453] Found INQ layer:fire2/expand1x1, type: INQConvolution, layer id:8
I1030 05:31:13.473932  1046 layer_factory.hpp:77] Creating layer fire2/relu_expand1x1
I1030 05:31:13.473949  1046 net.cpp:84] Creating Layer fire2/relu_expand1x1
I1030 05:31:13.473956  1046 net.cpp:413] fire2/relu_expand1x1 <- fire2/expand1x1
I1030 05:31:13.473963  1046 net.cpp:374] fire2/relu_expand1x1 -> fire2/expand1x1 (in-place)
I1030 05:31:13.475474  1046 net.cpp:127] Setting up fire2/relu_expand1x1
I1030 05:31:13.475495  1046 net.cpp:136] Top shape: 50 64 56 56 (10035200)
I1030 05:31:13.475500  1046 net.cpp:144] Memory required for data: 518367800
I1030 05:31:13.475507  1046 layer_factory.hpp:77] Creating layer fire2/expand3x3
I1030 05:31:13.475520  1046 net.cpp:84] Creating Layer fire2/expand3x3
I1030 05:31:13.475527  1046 net.cpp:413] fire2/expand3x3 <- fire2/squeeze1x1_fire2/relu_squeeze1x1_0_split_1
I1030 05:31:13.475535  1046 net.cpp:387] fire2/expand3x3 -> fire2/expand3x3
I1030 05:31:13.475996  1046 net.cpp:127] Setting up fire2/expand3x3
I1030 05:31:13.476007  1046 net.cpp:136] Top shape: 50 64 56 56 (10035200)
I1030 05:31:13.476011  1046 net.cpp:144] Memory required for data: 558508600
I1030 05:31:13.476018  1046 net.cpp:453] Found INQ layer:fire2/expand3x3, type: INQConvolution, layer id:10
I1030 05:31:13.476025  1046 net.cpp:453] Found INQ layer:fire2/expand3x3, type: INQConvolution, layer id:10
I1030 05:31:13.476032  1046 net.cpp:453] Found INQ layer:fire2/expand3x3, type: INQConvolution, layer id:10
I1030 05:31:13.476037  1046 net.cpp:453] Found INQ layer:fire2/expand3x3, type: INQConvolution, layer id:10
I1030 05:31:13.476043  1046 layer_factory.hpp:77] Creating layer fire2/relu_expand3x3
I1030 05:31:13.476052  1046 net.cpp:84] Creating Layer fire2/relu_expand3x3
I1030 05:31:13.476058  1046 net.cpp:413] fire2/relu_expand3x3 <- fire2/expand3x3
I1030 05:31:13.476071  1046 net.cpp:374] fire2/relu_expand3x3 -> fire2/expand3x3 (in-place)
I1030 05:31:13.476307  1046 net.cpp:127] Setting up fire2/relu_expand3x3
I1030 05:31:13.476325  1046 net.cpp:136] Top shape: 50 64 56 56 (10035200)
I1030 05:31:13.476333  1046 net.cpp:144] Memory required for data: 598649400
I1030 05:31:13.476338  1046 layer_factory.hpp:77] Creating layer fire2/concat
I1030 05:31:13.476348  1046 net.cpp:84] Creating Layer fire2/concat
I1030 05:31:13.476354  1046 net.cpp:413] fire2/concat <- fire2/expand1x1
I1030 05:31:13.476361  1046 net.cpp:413] fire2/concat <- fire2/expand3x3
I1030 05:31:13.476369  1046 net.cpp:387] fire2/concat -> fire2/concat
I1030 05:31:13.476403  1046 net.cpp:127] Setting up fire2/concat
I1030 05:31:13.476411  1046 net.cpp:136] Top shape: 50 128 56 56 (20070400)
I1030 05:31:13.476416  1046 net.cpp:144] Memory required for data: 678931000
I1030 05:31:13.476421  1046 layer_factory.hpp:77] Creating layer fire3/squeeze1x1
I1030 05:31:13.476433  1046 net.cpp:84] Creating Layer fire3/squeeze1x1
I1030 05:31:13.476439  1046 net.cpp:413] fire3/squeeze1x1 <- fire2/concat
I1030 05:31:13.476449  1046 net.cpp:387] fire3/squeeze1x1 -> fire3/squeeze1x1
I1030 05:31:13.476825  1046 net.cpp:127] Setting up fire3/squeeze1x1
I1030 05:31:13.476836  1046 net.cpp:136] Top shape: 50 16 56 56 (2508800)
I1030 05:31:13.476840  1046 net.cpp:144] Memory required for data: 688966200
I1030 05:31:13.476850  1046 net.cpp:453] Found INQ layer:fire3/squeeze1x1, type: INQConvolution, layer id:13
I1030 05:31:13.476861  1046 net.cpp:453] Found INQ layer:fire3/squeeze1x1, type: INQConvolution, layer id:13
I1030 05:31:13.476868  1046 net.cpp:453] Found INQ layer:fire3/squeeze1x1, type: INQConvolution, layer id:13
I1030 05:31:13.476874  1046 net.cpp:453] Found INQ layer:fire3/squeeze1x1, type: INQConvolution, layer id:13
I1030 05:31:13.476879  1046 layer_factory.hpp:77] Creating layer fire3/relu_squeeze1x1
I1030 05:31:13.476887  1046 net.cpp:84] Creating Layer fire3/relu_squeeze1x1
I1030 05:31:13.476892  1046 net.cpp:413] fire3/relu_squeeze1x1 <- fire3/squeeze1x1
I1030 05:31:13.476899  1046 net.cpp:374] fire3/relu_squeeze1x1 -> fire3/squeeze1x1 (in-place)
I1030 05:31:13.477109  1046 net.cpp:127] Setting up fire3/relu_squeeze1x1
I1030 05:31:13.477120  1046 net.cpp:136] Top shape: 50 16 56 56 (2508800)
I1030 05:31:13.477126  1046 net.cpp:144] Memory required for data: 699001400
I1030 05:31:13.477131  1046 layer_factory.hpp:77] Creating layer fire3/squeeze1x1_fire3/relu_squeeze1x1_0_split
I1030 05:31:13.477141  1046 net.cpp:84] Creating Layer fire3/squeeze1x1_fire3/relu_squeeze1x1_0_split
I1030 05:31:13.477146  1046 net.cpp:413] fire3/squeeze1x1_fire3/relu_squeeze1x1_0_split <- fire3/squeeze1x1
I1030 05:31:13.477154  1046 net.cpp:387] fire3/squeeze1x1_fire3/relu_squeeze1x1_0_split -> fire3/squeeze1x1_fire3/relu_squeeze1x1_0_split_0
I1030 05:31:13.477164  1046 net.cpp:387] fire3/squeeze1x1_fire3/relu_squeeze1x1_0_split -> fire3/squeeze1x1_fire3/relu_squeeze1x1_0_split_1
I1030 05:31:13.477213  1046 net.cpp:127] Setting up fire3/squeeze1x1_fire3/relu_squeeze1x1_0_split
I1030 05:31:13.477222  1046 net.cpp:136] Top shape: 50 16 56 56 (2508800)
I1030 05:31:13.477229  1046 net.cpp:136] Top shape: 50 16 56 56 (2508800)
I1030 05:31:13.477233  1046 net.cpp:144] Memory required for data: 719071800
I1030 05:31:13.477239  1046 layer_factory.hpp:77] Creating layer fire3/expand1x1
I1030 05:31:13.477253  1046 net.cpp:84] Creating Layer fire3/expand1x1
I1030 05:31:13.477259  1046 net.cpp:413] fire3/expand1x1 <- fire3/squeeze1x1_fire3/relu_squeeze1x1_0_split_0
I1030 05:31:13.477269  1046 net.cpp:387] fire3/expand1x1 -> fire3/expand1x1
I1030 05:31:13.477643  1046 net.cpp:127] Setting up fire3/expand1x1
I1030 05:31:13.477658  1046 net.cpp:136] Top shape: 50 64 56 56 (10035200)
I1030 05:31:13.477663  1046 net.cpp:144] Memory required for data: 759212600
I1030 05:31:13.477670  1046 net.cpp:453] Found INQ layer:fire3/expand1x1, type: INQConvolution, layer id:16
I1030 05:31:13.477676  1046 net.cpp:453] Found INQ layer:fire3/expand1x1, type: INQConvolution, layer id:16
I1030 05:31:13.477689  1046 net.cpp:453] Found INQ layer:fire3/expand1x1, type: INQConvolution, layer id:16
I1030 05:31:13.477705  1046 net.cpp:453] Found INQ layer:fire3/expand1x1, type: INQConvolution, layer id:16
I1030 05:31:13.477710  1046 layer_factory.hpp:77] Creating layer fire3/relu_expand1x1
I1030 05:31:13.477717  1046 net.cpp:84] Creating Layer fire3/relu_expand1x1
I1030 05:31:13.477723  1046 net.cpp:413] fire3/relu_expand1x1 <- fire3/expand1x1
I1030 05:31:13.477730  1046 net.cpp:374] fire3/relu_expand1x1 -> fire3/expand1x1 (in-place)
I1030 05:31:13.477948  1046 net.cpp:127] Setting up fire3/relu_expand1x1
I1030 05:31:13.477962  1046 net.cpp:136] Top shape: 50 64 56 56 (10035200)
I1030 05:31:13.477967  1046 net.cpp:144] Memory required for data: 799353400
I1030 05:31:13.477972  1046 layer_factory.hpp:77] Creating layer fire3/expand3x3
I1030 05:31:13.477982  1046 net.cpp:84] Creating Layer fire3/expand3x3
I1030 05:31:13.477988  1046 net.cpp:413] fire3/expand3x3 <- fire3/squeeze1x1_fire3/relu_squeeze1x1_0_split_1
I1030 05:31:13.477998  1046 net.cpp:387] fire3/expand3x3 -> fire3/expand3x3
I1030 05:31:13.478446  1046 net.cpp:127] Setting up fire3/expand3x3
I1030 05:31:13.478459  1046 net.cpp:136] Top shape: 50 64 56 56 (10035200)
I1030 05:31:13.478463  1046 net.cpp:144] Memory required for data: 839494200
I1030 05:31:13.478471  1046 net.cpp:453] Found INQ layer:fire3/expand3x3, type: INQConvolution, layer id:18
I1030 05:31:13.478477  1046 net.cpp:453] Found INQ layer:fire3/expand3x3, type: INQConvolution, layer id:18
I1030 05:31:13.478482  1046 net.cpp:453] Found INQ layer:fire3/expand3x3, type: INQConvolution, layer id:18
I1030 05:31:13.478487  1046 net.cpp:453] Found INQ layer:fire3/expand3x3, type: INQConvolution, layer id:18
I1030 05:31:13.478492  1046 layer_factory.hpp:77] Creating layer fire3/relu_expand3x3
I1030 05:31:13.478502  1046 net.cpp:84] Creating Layer fire3/relu_expand3x3
I1030 05:31:13.478507  1046 net.cpp:413] fire3/relu_expand3x3 <- fire3/expand3x3
I1030 05:31:13.478514  1046 net.cpp:374] fire3/relu_expand3x3 -> fire3/expand3x3 (in-place)
I1030 05:31:13.479945  1046 net.cpp:127] Setting up fire3/relu_expand3x3
I1030 05:31:13.479965  1046 net.cpp:136] Top shape: 50 64 56 56 (10035200)
I1030 05:31:13.479971  1046 net.cpp:144] Memory required for data: 879635000
I1030 05:31:13.479979  1046 layer_factory.hpp:77] Creating layer fire3/concat
I1030 05:31:13.479988  1046 net.cpp:84] Creating Layer fire3/concat
I1030 05:31:13.479995  1046 net.cpp:413] fire3/concat <- fire3/expand1x1
I1030 05:31:13.480002  1046 net.cpp:413] fire3/concat <- fire3/expand3x3
I1030 05:31:13.480011  1046 net.cpp:387] fire3/concat -> fire3/concat
I1030 05:31:13.480051  1046 net.cpp:127] Setting up fire3/concat
I1030 05:31:13.480058  1046 net.cpp:136] Top shape: 50 128 56 56 (20070400)
I1030 05:31:13.480063  1046 net.cpp:144] Memory required for data: 959916600
I1030 05:31:13.480067  1046 layer_factory.hpp:77] Creating layer pool3
I1030 05:31:13.480077  1046 net.cpp:84] Creating Layer pool3
I1030 05:31:13.480082  1046 net.cpp:413] pool3 <- fire3/concat
I1030 05:31:13.480090  1046 net.cpp:387] pool3 -> pool3
I1030 05:31:13.480139  1046 net.cpp:127] Setting up pool3
I1030 05:31:13.480157  1046 net.cpp:136] Top shape: 50 128 28 28 (5017600)
I1030 05:31:13.480161  1046 net.cpp:144] Memory required for data: 979987000
I1030 05:31:13.480166  1046 layer_factory.hpp:77] Creating layer fire4/squeeze1x1
I1030 05:31:13.480180  1046 net.cpp:84] Creating Layer fire4/squeeze1x1
I1030 05:31:13.480186  1046 net.cpp:413] fire4/squeeze1x1 <- pool3
I1030 05:31:13.480193  1046 net.cpp:387] fire4/squeeze1x1 -> fire4/squeeze1x1
I1030 05:31:13.480604  1046 net.cpp:127] Setting up fire4/squeeze1x1
I1030 05:31:13.480618  1046 net.cpp:136] Top shape: 50 32 28 28 (1254400)
I1030 05:31:13.480623  1046 net.cpp:144] Memory required for data: 985004600
I1030 05:31:13.480629  1046 net.cpp:453] Found INQ layer:fire4/squeeze1x1, type: INQConvolution, layer id:22
I1030 05:31:13.480636  1046 net.cpp:453] Found INQ layer:fire4/squeeze1x1, type: INQConvolution, layer id:22
I1030 05:31:13.480648  1046 net.cpp:453] Found INQ layer:fire4/squeeze1x1, type: INQConvolution, layer id:22
I1030 05:31:13.480667  1046 net.cpp:453] Found INQ layer:fire4/squeeze1x1, type: INQConvolution, layer id:22
I1030 05:31:13.480672  1046 layer_factory.hpp:77] Creating layer fire4/relu_squeeze1x1
I1030 05:31:13.480681  1046 net.cpp:84] Creating Layer fire4/relu_squeeze1x1
I1030 05:31:13.480686  1046 net.cpp:413] fire4/relu_squeeze1x1 <- fire4/squeeze1x1
I1030 05:31:13.480695  1046 net.cpp:374] fire4/relu_squeeze1x1 -> fire4/squeeze1x1 (in-place)
I1030 05:31:13.480911  1046 net.cpp:127] Setting up fire4/relu_squeeze1x1
I1030 05:31:13.480923  1046 net.cpp:136] Top shape: 50 32 28 28 (1254400)
I1030 05:31:13.480929  1046 net.cpp:144] Memory required for data: 990022200
I1030 05:31:13.480936  1046 layer_factory.hpp:77] Creating layer fire4/squeeze1x1_fire4/relu_squeeze1x1_0_split
I1030 05:31:13.480942  1046 net.cpp:84] Creating Layer fire4/squeeze1x1_fire4/relu_squeeze1x1_0_split
I1030 05:31:13.480947  1046 net.cpp:413] fire4/squeeze1x1_fire4/relu_squeeze1x1_0_split <- fire4/squeeze1x1
I1030 05:31:13.480957  1046 net.cpp:387] fire4/squeeze1x1_fire4/relu_squeeze1x1_0_split -> fire4/squeeze1x1_fire4/relu_squeeze1x1_0_split_0
I1030 05:31:13.480967  1046 net.cpp:387] fire4/squeeze1x1_fire4/relu_squeeze1x1_0_split -> fire4/squeeze1x1_fire4/relu_squeeze1x1_0_split_1
I1030 05:31:13.481019  1046 net.cpp:127] Setting up fire4/squeeze1x1_fire4/relu_squeeze1x1_0_split
I1030 05:31:13.481029  1046 net.cpp:136] Top shape: 50 32 28 28 (1254400)
I1030 05:31:13.481035  1046 net.cpp:136] Top shape: 50 32 28 28 (1254400)
I1030 05:31:13.481040  1046 net.cpp:144] Memory required for data: 1000057400
I1030 05:31:13.481045  1046 layer_factory.hpp:77] Creating layer fire4/expand1x1
I1030 05:31:13.481057  1046 net.cpp:84] Creating Layer fire4/expand1x1
I1030 05:31:13.481062  1046 net.cpp:413] fire4/expand1x1 <- fire4/squeeze1x1_fire4/relu_squeeze1x1_0_split_0
I1030 05:31:13.481072  1046 net.cpp:387] fire4/expand1x1 -> fire4/expand1x1
I1030 05:31:13.481454  1046 net.cpp:127] Setting up fire4/expand1x1
I1030 05:31:13.481474  1046 net.cpp:136] Top shape: 50 128 28 28 (5017600)
I1030 05:31:13.481479  1046 net.cpp:144] Memory required for data: 1020127800
I1030 05:31:13.481492  1046 net.cpp:453] Found INQ layer:fire4/expand1x1, type: INQConvolution, layer id:25
I1030 05:31:13.481501  1046 net.cpp:453] Found INQ layer:fire4/expand1x1, type: INQConvolution, layer id:25
I1030 05:31:13.481508  1046 net.cpp:453] Found INQ layer:fire4/expand1x1, type: INQConvolution, layer id:25
I1030 05:31:13.481513  1046 net.cpp:453] Found INQ layer:fire4/expand1x1, type: INQConvolution, layer id:25
I1030 05:31:13.481518  1046 layer_factory.hpp:77] Creating layer fire4/relu_expand1x1
I1030 05:31:13.481528  1046 net.cpp:84] Creating Layer fire4/relu_expand1x1
I1030 05:31:13.481534  1046 net.cpp:413] fire4/relu_expand1x1 <- fire4/expand1x1
I1030 05:31:13.481540  1046 net.cpp:374] fire4/relu_expand1x1 -> fire4/expand1x1 (in-place)
I1030 05:31:13.481760  1046 net.cpp:127] Setting up fire4/relu_expand1x1
I1030 05:31:13.481772  1046 net.cpp:136] Top shape: 50 128 28 28 (5017600)
I1030 05:31:13.481778  1046 net.cpp:144] Memory required for data: 1040198200
I1030 05:31:13.481784  1046 layer_factory.hpp:77] Creating layer fire4/expand3x3
I1030 05:31:13.481797  1046 net.cpp:84] Creating Layer fire4/expand3x3
I1030 05:31:13.481803  1046 net.cpp:413] fire4/expand3x3 <- fire4/squeeze1x1_fire4/relu_squeeze1x1_0_split_1
I1030 05:31:13.481813  1046 net.cpp:387] fire4/expand3x3 -> fire4/expand3x3
I1030 05:31:13.482489  1046 net.cpp:127] Setting up fire4/expand3x3
I1030 05:31:13.482501  1046 net.cpp:136] Top shape: 50 128 28 28 (5017600)
I1030 05:31:13.482506  1046 net.cpp:144] Memory required for data: 1060268600
I1030 05:31:13.482513  1046 net.cpp:453] Found INQ layer:fire4/expand3x3, type: INQConvolution, layer id:27
I1030 05:31:13.482519  1046 net.cpp:453] Found INQ layer:fire4/expand3x3, type: INQConvolution, layer id:27
I1030 05:31:13.482530  1046 net.cpp:453] Found INQ layer:fire4/expand3x3, type: INQConvolution, layer id:27
I1030 05:31:13.482547  1046 net.cpp:453] Found INQ layer:fire4/expand3x3, type: INQConvolution, layer id:27
I1030 05:31:13.482553  1046 layer_factory.hpp:77] Creating layer fire4/relu_expand3x3
I1030 05:31:13.482561  1046 net.cpp:84] Creating Layer fire4/relu_expand3x3
I1030 05:31:13.482566  1046 net.cpp:413] fire4/relu_expand3x3 <- fire4/expand3x3
I1030 05:31:13.482575  1046 net.cpp:374] fire4/relu_expand3x3 -> fire4/expand3x3 (in-place)
I1030 05:31:13.482790  1046 net.cpp:127] Setting up fire4/relu_expand3x3
I1030 05:31:13.482802  1046 net.cpp:136] Top shape: 50 128 28 28 (5017600)
I1030 05:31:13.482807  1046 net.cpp:144] Memory required for data: 1080339000
I1030 05:31:13.482812  1046 layer_factory.hpp:77] Creating layer fire4/concat
I1030 05:31:13.482821  1046 net.cpp:84] Creating Layer fire4/concat
I1030 05:31:13.482827  1046 net.cpp:413] fire4/concat <- fire4/expand1x1
I1030 05:31:13.482833  1046 net.cpp:413] fire4/concat <- fire4/expand3x3
I1030 05:31:13.482839  1046 net.cpp:387] fire4/concat -> fire4/concat
I1030 05:31:13.482875  1046 net.cpp:127] Setting up fire4/concat
I1030 05:31:13.482884  1046 net.cpp:136] Top shape: 50 256 28 28 (10035200)
I1030 05:31:13.482889  1046 net.cpp:144] Memory required for data: 1120479800
I1030 05:31:13.482894  1046 layer_factory.hpp:77] Creating layer fire5/squeeze1x1
I1030 05:31:13.482906  1046 net.cpp:84] Creating Layer fire5/squeeze1x1
I1030 05:31:13.482913  1046 net.cpp:413] fire5/squeeze1x1 <- fire4/concat
I1030 05:31:13.482921  1046 net.cpp:387] fire5/squeeze1x1 -> fire5/squeeze1x1
I1030 05:31:13.483356  1046 net.cpp:127] Setting up fire5/squeeze1x1
I1030 05:31:13.483368  1046 net.cpp:136] Top shape: 50 32 28 28 (1254400)
I1030 05:31:13.483373  1046 net.cpp:144] Memory required for data: 1125497400
I1030 05:31:13.483379  1046 net.cpp:453] Found INQ layer:fire5/squeeze1x1, type: INQConvolution, layer id:30
I1030 05:31:13.483386  1046 net.cpp:453] Found INQ layer:fire5/squeeze1x1, type: INQConvolution, layer id:30
I1030 05:31:13.483392  1046 net.cpp:453] Found INQ layer:fire5/squeeze1x1, type: INQConvolution, layer id:30
I1030 05:31:13.483397  1046 net.cpp:453] Found INQ layer:fire5/squeeze1x1, type: INQConvolution, layer id:30
I1030 05:31:13.483404  1046 layer_factory.hpp:77] Creating layer fire5/relu_squeeze1x1
I1030 05:31:13.483412  1046 net.cpp:84] Creating Layer fire5/relu_squeeze1x1
I1030 05:31:13.483418  1046 net.cpp:413] fire5/relu_squeeze1x1 <- fire5/squeeze1x1
I1030 05:31:13.483424  1046 net.cpp:374] fire5/relu_squeeze1x1 -> fire5/squeeze1x1 (in-place)
I1030 05:31:13.484840  1046 net.cpp:127] Setting up fire5/relu_squeeze1x1
I1030 05:31:13.484859  1046 net.cpp:136] Top shape: 50 32 28 28 (1254400)
I1030 05:31:13.484865  1046 net.cpp:144] Memory required for data: 1130515000
I1030 05:31:13.484870  1046 layer_factory.hpp:77] Creating layer fire5/squeeze1x1_fire5/relu_squeeze1x1_0_split
I1030 05:31:13.484884  1046 net.cpp:84] Creating Layer fire5/squeeze1x1_fire5/relu_squeeze1x1_0_split
I1030 05:31:13.484892  1046 net.cpp:413] fire5/squeeze1x1_fire5/relu_squeeze1x1_0_split <- fire5/squeeze1x1
I1030 05:31:13.484901  1046 net.cpp:387] fire5/squeeze1x1_fire5/relu_squeeze1x1_0_split -> fire5/squeeze1x1_fire5/relu_squeeze1x1_0_split_0
I1030 05:31:13.484910  1046 net.cpp:387] fire5/squeeze1x1_fire5/relu_squeeze1x1_0_split -> fire5/squeeze1x1_fire5/relu_squeeze1x1_0_split_1
I1030 05:31:13.484967  1046 net.cpp:127] Setting up fire5/squeeze1x1_fire5/relu_squeeze1x1_0_split
I1030 05:31:13.484975  1046 net.cpp:136] Top shape: 50 32 28 28 (1254400)
I1030 05:31:13.484982  1046 net.cpp:136] Top shape: 50 32 28 28 (1254400)
I1030 05:31:13.484987  1046 net.cpp:144] Memory required for data: 1140550200
I1030 05:31:13.484990  1046 layer_factory.hpp:77] Creating layer fire5/expand1x1
I1030 05:31:13.485003  1046 net.cpp:84] Creating Layer fire5/expand1x1
I1030 05:31:13.485009  1046 net.cpp:413] fire5/expand1x1 <- fire5/squeeze1x1_fire5/relu_squeeze1x1_0_split_0
I1030 05:31:13.485016  1046 net.cpp:387] fire5/expand1x1 -> fire5/expand1x1
I1030 05:31:13.485424  1046 net.cpp:127] Setting up fire5/expand1x1
I1030 05:31:13.485450  1046 net.cpp:136] Top shape: 50 128 28 28 (5017600)
I1030 05:31:13.485456  1046 net.cpp:144] Memory required for data: 1160620600
I1030 05:31:13.485463  1046 net.cpp:453] Found INQ layer:fire5/expand1x1, type: INQConvolution, layer id:33
I1030 05:31:13.485471  1046 net.cpp:453] Found INQ layer:fire5/expand1x1, type: INQConvolution, layer id:33
I1030 05:31:13.485476  1046 net.cpp:453] Found INQ layer:fire5/expand1x1, type: INQConvolution, layer id:33
I1030 05:31:13.485481  1046 net.cpp:453] Found INQ layer:fire5/expand1x1, type: INQConvolution, layer id:33
I1030 05:31:13.485486  1046 layer_factory.hpp:77] Creating layer fire5/relu_expand1x1
I1030 05:31:13.485497  1046 net.cpp:84] Creating Layer fire5/relu_expand1x1
I1030 05:31:13.485503  1046 net.cpp:413] fire5/relu_expand1x1 <- fire5/expand1x1
I1030 05:31:13.485512  1046 net.cpp:374] fire5/relu_expand1x1 -> fire5/expand1x1 (in-place)
I1030 05:31:13.485733  1046 net.cpp:127] Setting up fire5/relu_expand1x1
I1030 05:31:13.485746  1046 net.cpp:136] Top shape: 50 128 28 28 (5017600)
I1030 05:31:13.485752  1046 net.cpp:144] Memory required for data: 1180691000
I1030 05:31:13.485759  1046 layer_factory.hpp:77] Creating layer fire5/expand3x3
I1030 05:31:13.485769  1046 net.cpp:84] Creating Layer fire5/expand3x3
I1030 05:31:13.485775  1046 net.cpp:413] fire5/expand3x3 <- fire5/squeeze1x1_fire5/relu_squeeze1x1_0_split_1
I1030 05:31:13.485785  1046 net.cpp:387] fire5/expand3x3 -> fire5/expand3x3
I1030 05:31:13.486457  1046 net.cpp:127] Setting up fire5/expand3x3
I1030 05:31:13.486470  1046 net.cpp:136] Top shape: 50 128 28 28 (5017600)
I1030 05:31:13.486475  1046 net.cpp:144] Memory required for data: 1200761400
I1030 05:31:13.486482  1046 net.cpp:453] Found INQ layer:fire5/expand3x3, type: INQConvolution, layer id:35
I1030 05:31:13.486488  1046 net.cpp:453] Found INQ layer:fire5/expand3x3, type: INQConvolution, layer id:35
I1030 05:31:13.486495  1046 net.cpp:453] Found INQ layer:fire5/expand3x3, type: INQConvolution, layer id:35
I1030 05:31:13.486500  1046 net.cpp:453] Found INQ layer:fire5/expand3x3, type: INQConvolution, layer id:35
I1030 05:31:13.486505  1046 layer_factory.hpp:77] Creating layer fire5/relu_expand3x3
I1030 05:31:13.486512  1046 net.cpp:84] Creating Layer fire5/relu_expand3x3
I1030 05:31:13.486518  1046 net.cpp:413] fire5/relu_expand3x3 <- fire5/expand3x3
I1030 05:31:13.486527  1046 net.cpp:374] fire5/relu_expand3x3 -> fire5/expand3x3 (in-place)
I1030 05:31:13.486740  1046 net.cpp:127] Setting up fire5/relu_expand3x3
I1030 05:31:13.486752  1046 net.cpp:136] Top shape: 50 128 28 28 (5017600)
I1030 05:31:13.486757  1046 net.cpp:144] Memory required for data: 1220831800
I1030 05:31:13.486763  1046 layer_factory.hpp:77] Creating layer fire5/concat
I1030 05:31:13.486771  1046 net.cpp:84] Creating Layer fire5/concat
I1030 05:31:13.486776  1046 net.cpp:413] fire5/concat <- fire5/expand1x1
I1030 05:31:13.486783  1046 net.cpp:413] fire5/concat <- fire5/expand3x3
I1030 05:31:13.486791  1046 net.cpp:387] fire5/concat -> fire5/concat
I1030 05:31:13.486825  1046 net.cpp:127] Setting up fire5/concat
I1030 05:31:13.486834  1046 net.cpp:136] Top shape: 50 256 28 28 (10035200)
I1030 05:31:13.486837  1046 net.cpp:144] Memory required for data: 1260972600
I1030 05:31:13.486843  1046 layer_factory.hpp:77] Creating layer pool5
I1030 05:31:13.486850  1046 net.cpp:84] Creating Layer pool5
I1030 05:31:13.486855  1046 net.cpp:413] pool5 <- fire5/concat
I1030 05:31:13.486863  1046 net.cpp:387] pool5 -> pool5
I1030 05:31:13.486913  1046 net.cpp:127] Setting up pool5
I1030 05:31:13.486925  1046 net.cpp:136] Top shape: 50 256 14 14 (2508800)
I1030 05:31:13.486930  1046 net.cpp:144] Memory required for data: 1271007800
I1030 05:31:13.486934  1046 layer_factory.hpp:77] Creating layer fire6/squeeze1x1
I1030 05:31:13.486945  1046 net.cpp:84] Creating Layer fire6/squeeze1x1
I1030 05:31:13.486950  1046 net.cpp:413] fire6/squeeze1x1 <- pool5
I1030 05:31:13.486963  1046 net.cpp:387] fire6/squeeze1x1 -> fire6/squeeze1x1
I1030 05:31:13.487445  1046 net.cpp:127] Setting up fire6/squeeze1x1
I1030 05:31:13.487469  1046 net.cpp:136] Top shape: 50 48 14 14 (470400)
I1030 05:31:13.487474  1046 net.cpp:144] Memory required for data: 1272889400
I1030 05:31:13.487480  1046 net.cpp:453] Found INQ layer:fire6/squeeze1x1, type: INQConvolution, layer id:39
I1030 05:31:13.487488  1046 net.cpp:453] Found INQ layer:fire6/squeeze1x1, type: INQConvolution, layer id:39
I1030 05:31:13.487493  1046 net.cpp:453] Found INQ layer:fire6/squeeze1x1, type: INQConvolution, layer id:39
I1030 05:31:13.487498  1046 net.cpp:453] Found INQ layer:fire6/squeeze1x1, type: INQConvolution, layer id:39
I1030 05:31:13.487504  1046 layer_factory.hpp:77] Creating layer fire6/relu_squeeze1x1
I1030 05:31:13.487514  1046 net.cpp:84] Creating Layer fire6/relu_squeeze1x1
I1030 05:31:13.487520  1046 net.cpp:413] fire6/relu_squeeze1x1 <- fire6/squeeze1x1
I1030 05:31:13.487527  1046 net.cpp:374] fire6/relu_squeeze1x1 -> fire6/squeeze1x1 (in-place)
I1030 05:31:13.487740  1046 net.cpp:127] Setting up fire6/relu_squeeze1x1
I1030 05:31:13.487751  1046 net.cpp:136] Top shape: 50 48 14 14 (470400)
I1030 05:31:13.487756  1046 net.cpp:144] Memory required for data: 1274771000
I1030 05:31:13.487761  1046 layer_factory.hpp:77] Creating layer fire6/squeeze1x1_fire6/relu_squeeze1x1_0_split
I1030 05:31:13.487772  1046 net.cpp:84] Creating Layer fire6/squeeze1x1_fire6/relu_squeeze1x1_0_split
I1030 05:31:13.487777  1046 net.cpp:413] fire6/squeeze1x1_fire6/relu_squeeze1x1_0_split <- fire6/squeeze1x1
I1030 05:31:13.487784  1046 net.cpp:387] fire6/squeeze1x1_fire6/relu_squeeze1x1_0_split -> fire6/squeeze1x1_fire6/relu_squeeze1x1_0_split_0
I1030 05:31:13.487794  1046 net.cpp:387] fire6/squeeze1x1_fire6/relu_squeeze1x1_0_split -> fire6/squeeze1x1_fire6/relu_squeeze1x1_0_split_1
I1030 05:31:13.487869  1046 net.cpp:127] Setting up fire6/squeeze1x1_fire6/relu_squeeze1x1_0_split
I1030 05:31:13.487879  1046 net.cpp:136] Top shape: 50 48 14 14 (470400)
I1030 05:31:13.487886  1046 net.cpp:136] Top shape: 50 48 14 14 (470400)
I1030 05:31:13.487890  1046 net.cpp:144] Memory required for data: 1278534200
I1030 05:31:13.487896  1046 layer_factory.hpp:77] Creating layer fire6/expand1x1
I1030 05:31:13.487907  1046 net.cpp:84] Creating Layer fire6/expand1x1
I1030 05:31:13.487913  1046 net.cpp:413] fire6/expand1x1 <- fire6/squeeze1x1_fire6/relu_squeeze1x1_0_split_0
I1030 05:31:13.487922  1046 net.cpp:387] fire6/expand1x1 -> fire6/expand1x1
I1030 05:31:13.488354  1046 net.cpp:127] Setting up fire6/expand1x1
I1030 05:31:13.488366  1046 net.cpp:136] Top shape: 50 192 14 14 (1881600)
I1030 05:31:13.488370  1046 net.cpp:144] Memory required for data: 1286060600
I1030 05:31:13.488378  1046 net.cpp:453] Found INQ layer:fire6/expand1x1, type: INQConvolution, layer id:42
I1030 05:31:13.488384  1046 net.cpp:453] Found INQ layer:fire6/expand1x1, type: INQConvolution, layer id:42
I1030 05:31:13.488389  1046 net.cpp:453] Found INQ layer:fire6/expand1x1, type: INQConvolution, layer id:42
I1030 05:31:13.488395  1046 net.cpp:453] Found INQ layer:fire6/expand1x1, type: INQConvolution, layer id:42
I1030 05:31:13.488399  1046 layer_factory.hpp:77] Creating layer fire6/relu_expand1x1
I1030 05:31:13.488407  1046 net.cpp:84] Creating Layer fire6/relu_expand1x1
I1030 05:31:13.488414  1046 net.cpp:413] fire6/relu_expand1x1 <- fire6/expand1x1
I1030 05:31:13.488421  1046 net.cpp:374] fire6/relu_expand1x1 -> fire6/expand1x1 (in-place)
I1030 05:31:13.489830  1046 net.cpp:127] Setting up fire6/relu_expand1x1
I1030 05:31:13.489850  1046 net.cpp:136] Top shape: 50 192 14 14 (1881600)
I1030 05:31:13.489856  1046 net.cpp:144] Memory required for data: 1293587000
I1030 05:31:13.489861  1046 layer_factory.hpp:77] Creating layer fire6/expand3x3
I1030 05:31:13.489873  1046 net.cpp:84] Creating Layer fire6/expand3x3
I1030 05:31:13.489881  1046 net.cpp:413] fire6/expand3x3 <- fire6/squeeze1x1_fire6/relu_squeeze1x1_0_split_1
I1030 05:31:13.489892  1046 net.cpp:387] fire6/expand3x3 -> fire6/expand3x3
I1030 05:31:13.490975  1046 net.cpp:127] Setting up fire6/expand3x3
I1030 05:31:13.490989  1046 net.cpp:136] Top shape: 50 192 14 14 (1881600)
I1030 05:31:13.491009  1046 net.cpp:144] Memory required for data: 1301113400
I1030 05:31:13.491017  1046 net.cpp:453] Found INQ layer:fire6/expand3x3, type: INQConvolution, layer id:44
I1030 05:31:13.491024  1046 net.cpp:453] Found INQ layer:fire6/expand3x3, type: INQConvolution, layer id:44
I1030 05:31:13.491030  1046 net.cpp:453] Found INQ layer:fire6/expand3x3, type: INQConvolution, layer id:44
I1030 05:31:13.491036  1046 net.cpp:453] Found INQ layer:fire6/expand3x3, type: INQConvolution, layer id:44
I1030 05:31:13.491042  1046 layer_factory.hpp:77] Creating layer fire6/relu_expand3x3
I1030 05:31:13.491051  1046 net.cpp:84] Creating Layer fire6/relu_expand3x3
I1030 05:31:13.491056  1046 net.cpp:413] fire6/relu_expand3x3 <- fire6/expand3x3
I1030 05:31:13.491063  1046 net.cpp:374] fire6/relu_expand3x3 -> fire6/expand3x3 (in-place)
I1030 05:31:13.491282  1046 net.cpp:127] Setting up fire6/relu_expand3x3
I1030 05:31:13.491295  1046 net.cpp:136] Top shape: 50 192 14 14 (1881600)
I1030 05:31:13.491307  1046 net.cpp:144] Memory required for data: 1308639800
I1030 05:31:13.491314  1046 layer_factory.hpp:77] Creating layer fire6/concat
I1030 05:31:13.491322  1046 net.cpp:84] Creating Layer fire6/concat
I1030 05:31:13.491328  1046 net.cpp:413] fire6/concat <- fire6/expand1x1
I1030 05:31:13.491333  1046 net.cpp:413] fire6/concat <- fire6/expand3x3
I1030 05:31:13.491340  1046 net.cpp:387] fire6/concat -> fire6/concat
I1030 05:31:13.491377  1046 net.cpp:127] Setting up fire6/concat
I1030 05:31:13.491386  1046 net.cpp:136] Top shape: 50 384 14 14 (3763200)
I1030 05:31:13.491390  1046 net.cpp:144] Memory required for data: 1323692600
I1030 05:31:13.491394  1046 layer_factory.hpp:77] Creating layer fire7/squeeze1x1
I1030 05:31:13.491406  1046 net.cpp:84] Creating Layer fire7/squeeze1x1
I1030 05:31:13.491412  1046 net.cpp:413] fire7/squeeze1x1 <- fire6/concat
I1030 05:31:13.491421  1046 net.cpp:387] fire7/squeeze1x1 -> fire7/squeeze1x1
I1030 05:31:13.491940  1046 net.cpp:127] Setting up fire7/squeeze1x1
I1030 05:31:13.491950  1046 net.cpp:136] Top shape: 50 48 14 14 (470400)
I1030 05:31:13.491955  1046 net.cpp:144] Memory required for data: 1325574200
I1030 05:31:13.491969  1046 net.cpp:453] Found INQ layer:fire7/squeeze1x1, type: INQConvolution, layer id:47
I1030 05:31:13.491984  1046 net.cpp:453] Found INQ layer:fire7/squeeze1x1, type: INQConvolution, layer id:47
I1030 05:31:13.491991  1046 net.cpp:453] Found INQ layer:fire7/squeeze1x1, type: INQConvolution, layer id:47
I1030 05:31:13.491997  1046 net.cpp:453] Found INQ layer:fire7/squeeze1x1, type: INQConvolution, layer id:47
I1030 05:31:13.492002  1046 layer_factory.hpp:77] Creating layer fire7/relu_squeeze1x1
I1030 05:31:13.492009  1046 net.cpp:84] Creating Layer fire7/relu_squeeze1x1
I1030 05:31:13.492014  1046 net.cpp:413] fire7/relu_squeeze1x1 <- fire7/squeeze1x1
I1030 05:31:13.492022  1046 net.cpp:374] fire7/relu_squeeze1x1 -> fire7/squeeze1x1 (in-place)
I1030 05:31:13.492238  1046 net.cpp:127] Setting up fire7/relu_squeeze1x1
I1030 05:31:13.492250  1046 net.cpp:136] Top shape: 50 48 14 14 (470400)
I1030 05:31:13.492255  1046 net.cpp:144] Memory required for data: 1327455800
I1030 05:31:13.492261  1046 layer_factory.hpp:77] Creating layer fire7/squeeze1x1_fire7/relu_squeeze1x1_0_split
I1030 05:31:13.492270  1046 net.cpp:84] Creating Layer fire7/squeeze1x1_fire7/relu_squeeze1x1_0_split
I1030 05:31:13.492276  1046 net.cpp:413] fire7/squeeze1x1_fire7/relu_squeeze1x1_0_split <- fire7/squeeze1x1
I1030 05:31:13.492282  1046 net.cpp:387] fire7/squeeze1x1_fire7/relu_squeeze1x1_0_split -> fire7/squeeze1x1_fire7/relu_squeeze1x1_0_split_0
I1030 05:31:13.492291  1046 net.cpp:387] fire7/squeeze1x1_fire7/relu_squeeze1x1_0_split -> fire7/squeeze1x1_fire7/relu_squeeze1x1_0_split_1
I1030 05:31:13.492348  1046 net.cpp:127] Setting up fire7/squeeze1x1_fire7/relu_squeeze1x1_0_split
I1030 05:31:13.492360  1046 net.cpp:136] Top shape: 50 48 14 14 (470400)
I1030 05:31:13.492372  1046 net.cpp:136] Top shape: 50 48 14 14 (470400)
I1030 05:31:13.492388  1046 net.cpp:144] Memory required for data: 1331219000
I1030 05:31:13.492393  1046 layer_factory.hpp:77] Creating layer fire7/expand1x1
I1030 05:31:13.492403  1046 net.cpp:84] Creating Layer fire7/expand1x1
I1030 05:31:13.492408  1046 net.cpp:413] fire7/expand1x1 <- fire7/squeeze1x1_fire7/relu_squeeze1x1_0_split_0
I1030 05:31:13.492419  1046 net.cpp:387] fire7/expand1x1 -> fire7/expand1x1
I1030 05:31:13.492846  1046 net.cpp:127] Setting up fire7/expand1x1
I1030 05:31:13.492859  1046 net.cpp:136] Top shape: 50 192 14 14 (1881600)
I1030 05:31:13.492864  1046 net.cpp:144] Memory required for data: 1338745400
I1030 05:31:13.492871  1046 net.cpp:453] Found INQ layer:fire7/expand1x1, type: INQConvolution, layer id:50
I1030 05:31:13.492878  1046 net.cpp:453] Found INQ layer:fire7/expand1x1, type: INQConvolution, layer id:50
I1030 05:31:13.492883  1046 net.cpp:453] Found INQ layer:fire7/expand1x1, type: INQConvolution, layer id:50
I1030 05:31:13.492889  1046 net.cpp:453] Found INQ layer:fire7/expand1x1, type: INQConvolution, layer id:50
I1030 05:31:13.492893  1046 layer_factory.hpp:77] Creating layer fire7/relu_expand1x1
I1030 05:31:13.492900  1046 net.cpp:84] Creating Layer fire7/relu_expand1x1
I1030 05:31:13.492905  1046 net.cpp:413] fire7/relu_expand1x1 <- fire7/expand1x1
I1030 05:31:13.492913  1046 net.cpp:374] fire7/relu_expand1x1 -> fire7/expand1x1 (in-place)
I1030 05:31:13.494326  1046 net.cpp:127] Setting up fire7/relu_expand1x1
I1030 05:31:13.494346  1046 net.cpp:136] Top shape: 50 192 14 14 (1881600)
I1030 05:31:13.494352  1046 net.cpp:144] Memory required for data: 1346271800
I1030 05:31:13.494360  1046 layer_factory.hpp:77] Creating layer fire7/expand3x3
I1030 05:31:13.494374  1046 net.cpp:84] Creating Layer fire7/expand3x3
I1030 05:31:13.494380  1046 net.cpp:413] fire7/expand3x3 <- fire7/squeeze1x1_fire7/relu_squeeze1x1_0_split_1
I1030 05:31:13.494390  1046 net.cpp:387] fire7/expand3x3 -> fire7/expand3x3
I1030 05:31:13.495476  1046 net.cpp:127] Setting up fire7/expand3x3
I1030 05:31:13.495491  1046 net.cpp:136] Top shape: 50 192 14 14 (1881600)
I1030 05:31:13.495496  1046 net.cpp:144] Memory required for data: 1353798200
I1030 05:31:13.495502  1046 net.cpp:453] Found INQ layer:fire7/expand3x3, type: INQConvolution, layer id:52
I1030 05:31:13.495509  1046 net.cpp:453] Found INQ layer:fire7/expand3x3, type: INQConvolution, layer id:52
I1030 05:31:13.495517  1046 net.cpp:453] Found INQ layer:fire7/expand3x3, type: INQConvolution, layer id:52
I1030 05:31:13.495522  1046 net.cpp:453] Found INQ layer:fire7/expand3x3, type: INQConvolution, layer id:52
I1030 05:31:13.495525  1046 layer_factory.hpp:77] Creating layer fire7/relu_expand3x3
I1030 05:31:13.495533  1046 net.cpp:84] Creating Layer fire7/relu_expand3x3
I1030 05:31:13.495538  1046 net.cpp:413] fire7/relu_expand3x3 <- fire7/expand3x3
I1030 05:31:13.495549  1046 net.cpp:374] fire7/relu_expand3x3 -> fire7/expand3x3 (in-place)
I1030 05:31:13.495766  1046 net.cpp:127] Setting up fire7/relu_expand3x3
I1030 05:31:13.495779  1046 net.cpp:136] Top shape: 50 192 14 14 (1881600)
I1030 05:31:13.495784  1046 net.cpp:144] Memory required for data: 1361324600
I1030 05:31:13.495788  1046 layer_factory.hpp:77] Creating layer fire7/concat
I1030 05:31:13.495798  1046 net.cpp:84] Creating Layer fire7/concat
I1030 05:31:13.495805  1046 net.cpp:413] fire7/concat <- fire7/expand1x1
I1030 05:31:13.495810  1046 net.cpp:413] fire7/concat <- fire7/expand3x3
I1030 05:31:13.495816  1046 net.cpp:387] fire7/concat -> fire7/concat
I1030 05:31:13.495851  1046 net.cpp:127] Setting up fire7/concat
I1030 05:31:13.495862  1046 net.cpp:136] Top shape: 50 384 14 14 (3763200)
I1030 05:31:13.495867  1046 net.cpp:144] Memory required for data: 1376377400
I1030 05:31:13.495872  1046 layer_factory.hpp:77] Creating layer fire8/squeeze1x1
I1030 05:31:13.495882  1046 net.cpp:84] Creating Layer fire8/squeeze1x1
I1030 05:31:13.495888  1046 net.cpp:413] fire8/squeeze1x1 <- fire7/concat
I1030 05:31:13.495898  1046 net.cpp:387] fire8/squeeze1x1 -> fire8/squeeze1x1
I1030 05:31:13.497915  1046 net.cpp:127] Setting up fire8/squeeze1x1
I1030 05:31:13.497946  1046 net.cpp:136] Top shape: 50 64 14 14 (627200)
I1030 05:31:13.497952  1046 net.cpp:144] Memory required for data: 1378886200
I1030 05:31:13.497961  1046 net.cpp:453] Found INQ layer:fire8/squeeze1x1, type: INQConvolution, layer id:55
I1030 05:31:13.497967  1046 net.cpp:453] Found INQ layer:fire8/squeeze1x1, type: INQConvolution, layer id:55
I1030 05:31:13.497974  1046 net.cpp:453] Found INQ layer:fire8/squeeze1x1, type: INQConvolution, layer id:55
I1030 05:31:13.497979  1046 net.cpp:453] Found INQ layer:fire8/squeeze1x1, type: INQConvolution, layer id:55
I1030 05:31:13.497984  1046 layer_factory.hpp:77] Creating layer fire8/relu_squeeze1x1
I1030 05:31:13.497994  1046 net.cpp:84] Creating Layer fire8/relu_squeeze1x1
I1030 05:31:13.497999  1046 net.cpp:413] fire8/relu_squeeze1x1 <- fire8/squeeze1x1
I1030 05:31:13.498009  1046 net.cpp:374] fire8/relu_squeeze1x1 -> fire8/squeeze1x1 (in-place)
I1030 05:31:13.498241  1046 net.cpp:127] Setting up fire8/relu_squeeze1x1
I1030 05:31:13.498255  1046 net.cpp:136] Top shape: 50 64 14 14 (627200)
I1030 05:31:13.498260  1046 net.cpp:144] Memory required for data: 1381395000
I1030 05:31:13.498265  1046 layer_factory.hpp:77] Creating layer fire8/squeeze1x1_fire8/relu_squeeze1x1_0_split
I1030 05:31:13.498273  1046 net.cpp:84] Creating Layer fire8/squeeze1x1_fire8/relu_squeeze1x1_0_split
I1030 05:31:13.498278  1046 net.cpp:413] fire8/squeeze1x1_fire8/relu_squeeze1x1_0_split <- fire8/squeeze1x1
I1030 05:31:13.498287  1046 net.cpp:387] fire8/squeeze1x1_fire8/relu_squeeze1x1_0_split -> fire8/squeeze1x1_fire8/relu_squeeze1x1_0_split_0
I1030 05:31:13.498302  1046 net.cpp:387] fire8/squeeze1x1_fire8/relu_squeeze1x1_0_split -> fire8/squeeze1x1_fire8/relu_squeeze1x1_0_split_1
I1030 05:31:13.498358  1046 net.cpp:127] Setting up fire8/squeeze1x1_fire8/relu_squeeze1x1_0_split
I1030 05:31:13.498370  1046 net.cpp:136] Top shape: 50 64 14 14 (627200)
I1030 05:31:13.498376  1046 net.cpp:136] Top shape: 50 64 14 14 (627200)
I1030 05:31:13.498381  1046 net.cpp:144] Memory required for data: 1386412600
I1030 05:31:13.498386  1046 layer_factory.hpp:77] Creating layer fire8/expand1x1
I1030 05:31:13.498396  1046 net.cpp:84] Creating Layer fire8/expand1x1
I1030 05:31:13.498402  1046 net.cpp:413] fire8/expand1x1 <- fire8/squeeze1x1_fire8/relu_squeeze1x1_0_split_0
I1030 05:31:13.498412  1046 net.cpp:387] fire8/expand1x1 -> fire8/expand1x1
I1030 05:31:13.498904  1046 net.cpp:127] Setting up fire8/expand1x1
I1030 05:31:13.498915  1046 net.cpp:136] Top shape: 50 256 14 14 (2508800)
I1030 05:31:13.498920  1046 net.cpp:144] Memory required for data: 1396447800
I1030 05:31:13.498927  1046 net.cpp:453] Found INQ layer:fire8/expand1x1, type: INQConvolution, layer id:58
I1030 05:31:13.498934  1046 net.cpp:453] Found INQ layer:fire8/expand1x1, type: INQConvolution, layer id:58
I1030 05:31:13.498939  1046 net.cpp:453] Found INQ layer:fire8/expand1x1, type: INQConvolution, layer id:58
I1030 05:31:13.498945  1046 net.cpp:453] Found INQ layer:fire8/expand1x1, type: INQConvolution, layer id:58
I1030 05:31:13.498950  1046 layer_factory.hpp:77] Creating layer fire8/relu_expand1x1
I1030 05:31:13.498957  1046 net.cpp:84] Creating Layer fire8/relu_expand1x1
I1030 05:31:13.498963  1046 net.cpp:413] fire8/relu_expand1x1 <- fire8/expand1x1
I1030 05:31:13.498971  1046 net.cpp:374] fire8/relu_expand1x1 -> fire8/expand1x1 (in-place)
I1030 05:31:13.499192  1046 net.cpp:127] Setting up fire8/relu_expand1x1
I1030 05:31:13.499204  1046 net.cpp:136] Top shape: 50 256 14 14 (2508800)
I1030 05:31:13.499209  1046 net.cpp:144] Memory required for data: 1406483000
I1030 05:31:13.499214  1046 layer_factory.hpp:77] Creating layer fire8/expand3x3
I1030 05:31:13.499228  1046 net.cpp:84] Creating Layer fire8/expand3x3
I1030 05:31:13.499233  1046 net.cpp:413] fire8/expand3x3 <- fire8/squeeze1x1_fire8/relu_squeeze1x1_0_split_1
I1030 05:31:13.499243  1046 net.cpp:387] fire8/expand3x3 -> fire8/expand3x3
I1030 05:31:13.502176  1046 net.cpp:127] Setting up fire8/expand3x3
I1030 05:31:13.502199  1046 net.cpp:136] Top shape: 50 256 14 14 (2508800)
I1030 05:31:13.502221  1046 net.cpp:144] Memory required for data: 1416518200
I1030 05:31:13.502230  1046 net.cpp:453] Found INQ layer:fire8/expand3x3, type: INQConvolution, layer id:60
I1030 05:31:13.502238  1046 net.cpp:453] Found INQ layer:fire8/expand3x3, type: INQConvolution, layer id:60
I1030 05:31:13.502243  1046 net.cpp:453] Found INQ layer:fire8/expand3x3, type: INQConvolution, layer id:60
I1030 05:31:13.502249  1046 net.cpp:453] Found INQ layer:fire8/expand3x3, type: INQConvolution, layer id:60
I1030 05:31:13.502254  1046 layer_factory.hpp:77] Creating layer fire8/relu_expand3x3
I1030 05:31:13.502264  1046 net.cpp:84] Creating Layer fire8/relu_expand3x3
I1030 05:31:13.502270  1046 net.cpp:413] fire8/relu_expand3x3 <- fire8/expand3x3
I1030 05:31:13.502277  1046 net.cpp:374] fire8/relu_expand3x3 -> fire8/expand3x3 (in-place)
I1030 05:31:13.503706  1046 net.cpp:127] Setting up fire8/relu_expand3x3
I1030 05:31:13.503726  1046 net.cpp:136] Top shape: 50 256 14 14 (2508800)
I1030 05:31:13.503733  1046 net.cpp:144] Memory required for data: 1426553400
I1030 05:31:13.503739  1046 layer_factory.hpp:77] Creating layer fire8/concat
I1030 05:31:13.503749  1046 net.cpp:84] Creating Layer fire8/concat
I1030 05:31:13.503756  1046 net.cpp:413] fire8/concat <- fire8/expand1x1
I1030 05:31:13.503762  1046 net.cpp:413] fire8/concat <- fire8/expand3x3
I1030 05:31:13.503769  1046 net.cpp:387] fire8/concat -> fire8/concat
I1030 05:31:13.503810  1046 net.cpp:127] Setting up fire8/concat
I1030 05:31:13.503820  1046 net.cpp:136] Top shape: 50 512 14 14 (5017600)
I1030 05:31:13.503825  1046 net.cpp:144] Memory required for data: 1446623800
I1030 05:31:13.503830  1046 layer_factory.hpp:77] Creating layer fire9/squeeze1x1
I1030 05:31:13.503844  1046 net.cpp:84] Creating Layer fire9/squeeze1x1
I1030 05:31:13.503849  1046 net.cpp:413] fire9/squeeze1x1 <- fire8/concat
I1030 05:31:13.503859  1046 net.cpp:387] fire9/squeeze1x1 -> fire9/squeeze1x1
I1030 05:31:13.504495  1046 net.cpp:127] Setting up fire9/squeeze1x1
I1030 05:31:13.504508  1046 net.cpp:136] Top shape: 50 64 14 14 (627200)
I1030 05:31:13.504513  1046 net.cpp:144] Memory required for data: 1449132600
I1030 05:31:13.504520  1046 net.cpp:453] Found INQ layer:fire9/squeeze1x1, type: INQConvolution, layer id:63
I1030 05:31:13.504528  1046 net.cpp:453] Found INQ layer:fire9/squeeze1x1, type: INQConvolution, layer id:63
I1030 05:31:13.504534  1046 net.cpp:453] Found INQ layer:fire9/squeeze1x1, type: INQConvolution, layer id:63
I1030 05:31:13.504539  1046 net.cpp:453] Found INQ layer:fire9/squeeze1x1, type: INQConvolution, layer id:63
I1030 05:31:13.504544  1046 layer_factory.hpp:77] Creating layer fire9/relu_squeeze1x1
I1030 05:31:13.504559  1046 net.cpp:84] Creating Layer fire9/relu_squeeze1x1
I1030 05:31:13.504565  1046 net.cpp:413] fire9/relu_squeeze1x1 <- fire9/squeeze1x1
I1030 05:31:13.504571  1046 net.cpp:374] fire9/relu_squeeze1x1 -> fire9/squeeze1x1 (in-place)
I1030 05:31:13.504789  1046 net.cpp:127] Setting up fire9/relu_squeeze1x1
I1030 05:31:13.504801  1046 net.cpp:136] Top shape: 50 64 14 14 (627200)
I1030 05:31:13.504806  1046 net.cpp:144] Memory required for data: 1451641400
I1030 05:31:13.504812  1046 layer_factory.hpp:77] Creating layer fire9/squeeze1x1_fire9/relu_squeeze1x1_0_split
I1030 05:31:13.504822  1046 net.cpp:84] Creating Layer fire9/squeeze1x1_fire9/relu_squeeze1x1_0_split
I1030 05:31:13.504827  1046 net.cpp:413] fire9/squeeze1x1_fire9/relu_squeeze1x1_0_split <- fire9/squeeze1x1
I1030 05:31:13.504833  1046 net.cpp:387] fire9/squeeze1x1_fire9/relu_squeeze1x1_0_split -> fire9/squeeze1x1_fire9/relu_squeeze1x1_0_split_0
I1030 05:31:13.504842  1046 net.cpp:387] fire9/squeeze1x1_fire9/relu_squeeze1x1_0_split -> fire9/squeeze1x1_fire9/relu_squeeze1x1_0_split_1
I1030 05:31:13.504895  1046 net.cpp:127] Setting up fire9/squeeze1x1_fire9/relu_squeeze1x1_0_split
I1030 05:31:13.504905  1046 net.cpp:136] Top shape: 50 64 14 14 (627200)
I1030 05:31:13.504912  1046 net.cpp:136] Top shape: 50 64 14 14 (627200)
I1030 05:31:13.504923  1046 net.cpp:144] Memory required for data: 1456659000
I1030 05:31:13.504940  1046 layer_factory.hpp:77] Creating layer fire9/expand1x1
I1030 05:31:13.504951  1046 net.cpp:84] Creating Layer fire9/expand1x1
I1030 05:31:13.504956  1046 net.cpp:413] fire9/expand1x1 <- fire9/squeeze1x1_fire9/relu_squeeze1x1_0_split_0
I1030 05:31:13.504966  1046 net.cpp:387] fire9/expand1x1 -> fire9/expand1x1
I1030 05:31:13.505461  1046 net.cpp:127] Setting up fire9/expand1x1
I1030 05:31:13.505475  1046 net.cpp:136] Top shape: 50 256 14 14 (2508800)
I1030 05:31:13.505479  1046 net.cpp:144] Memory required for data: 1466694200
I1030 05:31:13.505486  1046 net.cpp:453] Found INQ layer:fire9/expand1x1, type: INQConvolution, layer id:66
I1030 05:31:13.505492  1046 net.cpp:453] Found INQ layer:fire9/expand1x1, type: INQConvolution, layer id:66
I1030 05:31:13.505499  1046 net.cpp:453] Found INQ layer:fire9/expand1x1, type: INQConvolution, layer id:66
I1030 05:31:13.505504  1046 net.cpp:453] Found INQ layer:fire9/expand1x1, type: INQConvolution, layer id:66
I1030 05:31:13.505508  1046 layer_factory.hpp:77] Creating layer fire9/relu_expand1x1
I1030 05:31:13.505517  1046 net.cpp:84] Creating Layer fire9/relu_expand1x1
I1030 05:31:13.505522  1046 net.cpp:413] fire9/relu_expand1x1 <- fire9/expand1x1
I1030 05:31:13.505530  1046 net.cpp:374] fire9/relu_expand1x1 -> fire9/expand1x1 (in-place)
I1030 05:31:13.505753  1046 net.cpp:127] Setting up fire9/relu_expand1x1
I1030 05:31:13.505765  1046 net.cpp:136] Top shape: 50 256 14 14 (2508800)
I1030 05:31:13.505770  1046 net.cpp:144] Memory required for data: 1476729400
I1030 05:31:13.505775  1046 layer_factory.hpp:77] Creating layer fire9/expand3x3
I1030 05:31:13.505787  1046 net.cpp:84] Creating Layer fire9/expand3x3
I1030 05:31:13.505792  1046 net.cpp:413] fire9/expand3x3 <- fire9/squeeze1x1_fire9/relu_squeeze1x1_0_split_1
I1030 05:31:13.505802  1046 net.cpp:387] fire9/expand3x3 -> fire9/expand3x3
I1030 05:31:13.508749  1046 net.cpp:127] Setting up fire9/expand3x3
I1030 05:31:13.508770  1046 net.cpp:136] Top shape: 50 256 14 14 (2508800)
I1030 05:31:13.508776  1046 net.cpp:144] Memory required for data: 1486764600
I1030 05:31:13.508783  1046 net.cpp:453] Found INQ layer:fire9/expand3x3, type: INQConvolution, layer id:68
I1030 05:31:13.508791  1046 net.cpp:453] Found INQ layer:fire9/expand3x3, type: INQConvolution, layer id:68
I1030 05:31:13.508798  1046 net.cpp:453] Found INQ layer:fire9/expand3x3, type: INQConvolution, layer id:68
I1030 05:31:13.508803  1046 net.cpp:453] Found INQ layer:fire9/expand3x3, type: INQConvolution, layer id:68
I1030 05:31:13.508808  1046 layer_factory.hpp:77] Creating layer fire9/relu_expand3x3
I1030 05:31:13.508816  1046 net.cpp:84] Creating Layer fire9/relu_expand3x3
I1030 05:31:13.508822  1046 net.cpp:413] fire9/relu_expand3x3 <- fire9/expand3x3
I1030 05:31:13.508831  1046 net.cpp:374] fire9/relu_expand3x3 -> fire9/expand3x3 (in-place)
I1030 05:31:13.509061  1046 net.cpp:127] Setting up fire9/relu_expand3x3
I1030 05:31:13.509075  1046 net.cpp:136] Top shape: 50 256 14 14 (2508800)
I1030 05:31:13.509080  1046 net.cpp:144] Memory required for data: 1496799800
I1030 05:31:13.509085  1046 layer_factory.hpp:77] Creating layer fire9/concat
I1030 05:31:13.509093  1046 net.cpp:84] Creating Layer fire9/concat
I1030 05:31:13.509099  1046 net.cpp:413] fire9/concat <- fire9/expand1x1
I1030 05:31:13.509104  1046 net.cpp:413] fire9/concat <- fire9/expand3x3
I1030 05:31:13.509114  1046 net.cpp:387] fire9/concat -> fire9/concat
I1030 05:31:13.509160  1046 net.cpp:127] Setting up fire9/concat
I1030 05:31:13.509169  1046 net.cpp:136] Top shape: 50 512 14 14 (5017600)
I1030 05:31:13.509174  1046 net.cpp:144] Memory required for data: 1516870200
I1030 05:31:13.509179  1046 layer_factory.hpp:77] Creating layer drop9
I1030 05:31:13.509192  1046 net.cpp:84] Creating Layer drop9
I1030 05:31:13.509197  1046 net.cpp:413] drop9 <- fire9/concat
I1030 05:31:13.509203  1046 net.cpp:374] drop9 -> fire9/concat (in-place)
I1030 05:31:13.509243  1046 net.cpp:127] Setting up drop9
I1030 05:31:13.509253  1046 net.cpp:136] Top shape: 50 512 14 14 (5017600)
I1030 05:31:13.509270  1046 net.cpp:144] Memory required for data: 1536940600
I1030 05:31:13.509275  1046 layer_factory.hpp:77] Creating layer conv10
I1030 05:31:13.509286  1046 net.cpp:84] Creating Layer conv10
I1030 05:31:13.509292  1046 net.cpp:413] conv10 <- fire9/concat
I1030 05:31:13.509310  1046 net.cpp:387] conv10 -> conv10
I1030 05:31:13.519031  1046 net.cpp:127] Setting up conv10
I1030 05:31:13.519057  1046 net.cpp:136] Top shape: 50 1000 14 14 (9800000)
I1030 05:31:13.519062  1046 net.cpp:144] Memory required for data: 1576140600
I1030 05:31:13.519071  1046 net.cpp:453] Found INQ layer:conv10, type: INQConvolution, layer id:72
I1030 05:31:13.519078  1046 net.cpp:453] Found INQ layer:conv10, type: INQConvolution, layer id:72
I1030 05:31:13.519084  1046 net.cpp:453] Found INQ layer:conv10, type: INQConvolution, layer id:72
I1030 05:31:13.519089  1046 net.cpp:453] Found INQ layer:conv10, type: INQConvolution, layer id:72
I1030 05:31:13.519093  1046 layer_factory.hpp:77] Creating layer relu_conv10
I1030 05:31:13.519103  1046 net.cpp:84] Creating Layer relu_conv10
I1030 05:31:13.519109  1046 net.cpp:413] relu_conv10 <- conv10
I1030 05:31:13.519117  1046 net.cpp:374] relu_conv10 -> conv10 (in-place)
I1030 05:31:13.520611  1046 net.cpp:127] Setting up relu_conv10
I1030 05:31:13.520630  1046 net.cpp:136] Top shape: 50 1000 14 14 (9800000)
I1030 05:31:13.520637  1046 net.cpp:144] Memory required for data: 1615340600
I1030 05:31:13.520642  1046 layer_factory.hpp:77] Creating layer pool10
I1030 05:31:13.520653  1046 net.cpp:84] Creating Layer pool10
I1030 05:31:13.520660  1046 net.cpp:413] pool10 <- conv10
I1030 05:31:13.520668  1046 net.cpp:387] pool10 -> pool10
I1030 05:31:13.520917  1046 net.cpp:127] Setting up pool10
I1030 05:31:13.520931  1046 net.cpp:136] Top shape: 50 1000 1 1 (50000)
I1030 05:31:13.520936  1046 net.cpp:144] Memory required for data: 1615540600
I1030 05:31:13.520941  1046 layer_factory.hpp:77] Creating layer pool10_pool10_0_split
I1030 05:31:13.520951  1046 net.cpp:84] Creating Layer pool10_pool10_0_split
I1030 05:31:13.520956  1046 net.cpp:413] pool10_pool10_0_split <- pool10
I1030 05:31:13.520963  1046 net.cpp:387] pool10_pool10_0_split -> pool10_pool10_0_split_0
I1030 05:31:13.520973  1046 net.cpp:387] pool10_pool10_0_split -> pool10_pool10_0_split_1
I1030 05:31:13.520982  1046 net.cpp:387] pool10_pool10_0_split -> pool10_pool10_0_split_2
I1030 05:31:13.521047  1046 net.cpp:127] Setting up pool10_pool10_0_split
I1030 05:31:13.521056  1046 net.cpp:136] Top shape: 50 1000 1 1 (50000)
I1030 05:31:13.521064  1046 net.cpp:136] Top shape: 50 1000 1 1 (50000)
I1030 05:31:13.521070  1046 net.cpp:136] Top shape: 50 1000 1 1 (50000)
I1030 05:31:13.521073  1046 net.cpp:144] Memory required for data: 1616140600
I1030 05:31:13.521078  1046 layer_factory.hpp:77] Creating layer loss
I1030 05:31:13.521086  1046 net.cpp:84] Creating Layer loss
I1030 05:31:13.521092  1046 net.cpp:413] loss <- pool10_pool10_0_split_0
I1030 05:31:13.521098  1046 net.cpp:413] loss <- label_data_1_split_0
I1030 05:31:13.521106  1046 net.cpp:387] loss -> loss
…
