…
I1028 17:19:26.777175 29475 net.cpp:301] The NetState phase (0) differed from the phase (1) specified by a rule in layer accuracy_top5
I1028 17:19:26.777887 29475 net.cpp:51] Initializing net from parameters: 
name: "SqueezeNet"
state {
  phase: TRAIN
  level: 0
  stage: ""
}
layer {
  name: "data"
  type: "Data"
  top: "data"
  top: "label"
  include {
    phase: TRAIN
  }
  transform_param {
    crop_size: 227
    mean_value: 104
    mean_value: 117
    mean_value: 123
  }
  data_param {
    source: "/home/data/caffe-imagenet/ilsvrc12_train_lmdb"
    batch_size: 128
    backend: LMDB
  }
}
layer {
  name: "conv1"
  type: "INQConvolution"
  bottom: "data"
  top: "conv1"
  convolution_param {
    num_output: 64
    kernel_size: 3
    stride: 2
    weight_filler {
      type: "xavier"
    }
  }
  inq_convolution_param {
    portion: 0.2
    portion: 0.4
    weight_mask_filler {
      type: "constant"
      value: 1
    }
    bias_mask_filler {
      type: "constant"
      value: 1
    }
    num_quantum_values: 7
  }
}
layer {
  name: "relu_conv1"
  type: "ReLU"
  bottom: "conv1"
  top: "conv1"
}
layer {
  name: "pool1"
  type: "Pooling"
  bottom: "conv1"
  top: "pool1"
  pooling_param {
    pool: MAX
    kernel_size: 3
    stride: 2
  }
}
layer {
  name: "fire2/squeeze1x1"
  type: "INQConvolution"
  bottom: "pool1"
  top: "fire2/squeeze1x1"
  convolution_param {
    num_output: 16
    kernel_size: 1
    weight_filler {
      type: "xavier"
    }
  }
  inq_convolution_param {
    portion: 0.2
    portion: 0.4
    weight_mask_filler {
      type: "constant"
      value: 1
    }
    bias_mask_filler {
      type: "constant"
      value: 1
    }
    num_quantum_values: 7
  }
}
layer {
  name: "fire2/relu_squeeze1x1"
  type: "ReLU"
  bottom: "fire2/squeeze1x1"
  top: "fire2/squeeze1x1"
}
layer {
  name: "fire2/expand1x1"
  type: "INQConvolution"
  bottom: "fire2/squeeze1x1"
  top: "fire2/expand1x1"
  convolution_param {
    num_output: 64
    kernel_size: 1
    weight_filler {
      type: "xavier"
    }
  }
  inq_convolution_param {
    portion: 0.2
    portion: 0.4
    weight_mask_filler {
      type: "constant"
      value: 1
    }
    bias_mask_filler {
      type: "constant"
      value: 1
    }
    num_quantum_values: 7
  }
}
layer {
  name: "fire2/relu_expand1x1"
  type: "ReLU"
  bottom: "fire2/expand1x1"
  top: "fire2/expand1x1"
}
layer {
  name: "fire2/expand3x3"
  type: "INQConvolution"
  bottom: "fire2/squeeze1x1"
  top: "fire2/expand3x3"
  convolution_param {
    num_output: 64
    pad: 1
    kernel_size: 3
    weight_filler {
      type: "xavier"
    }
  }
  inq_convolution_param {
    portion: 0.2
    portion: 0.4
    weight_mask_filler {
      type: "constant"
      value: 1
    }
    bias_mask_filler {
      type: "constant"
      value: 1
    }
    num_quantum_values: 7
  }
}
layer {
  name: "fire2/relu_expand3x3"
  type: "ReLU"
  bottom: "fire2/expand3x3"
  top: "fire2/expand3x3"
}
layer {
  name: "fire2/concat"
  type: "Concat"
  bottom: "fire2/expand1x1"
  bottom: "fire2/expand3x3"
  top: "fire2/concat"
}
layer {
  name: "fire3/squeeze1x1"
  type: "INQConvolution"
  bottom: "fire2/concat"
  top: "fire3/squeeze1x1"
  convolution_param {
    num_output: 16
    kernel_size: 1
    weight_filler {
      type: "xavier"
    }
  }
  inq_convolution_param {
    portion: 0.2
    portion: 0.4
    weight_mask_filler {
      type: "constant"
      value: 1
    }
    bias_mask_filler {
      type: "constant"
      value: 1
    }
    num_quantum_values: 7
  }
}
layer {
  name: "fire3/relu_squeeze1x1"
  type: "ReLU"
  bottom: "fire3/squeeze1x1"
  top: "fire3/squeeze1x1"
}
layer {
  name: "fire3/expand1x1"
  type: "INQConvolution"
  bottom: "fire3/squeeze1x1"
  top: "fire3/expand1x1"
  convolution_param {
    num_output: 64
    kernel_size: 1
    weight_filler {
      type: "xavier"
    }
  }
  inq_convolution_param {
    portion: 0.2
    portion: 0.4
    weight_mask_filler {
      type: "constant"
      value: 1
    }
    bias_mask_filler {
      type: "constant"
      value: 1
    }
    num_quantum_values: 7
  }
}
layer {
  name: "fire3/relu_expand1x1"
  type: "ReLU"
  bottom: "fire3/expand1x1"
  top: "fire3/expand1x1"
}
layer {
  name: "fire3/expand3x3"
  type: "INQConvolution"
  bottom: "fire3/squeeze1x1"
  top: "fire3/expand3x3"
  convolution_param {
    num_output: 64
    pad: 1
    kernel_size: 3
    weight_filler {
      type: "xavier"
    }
  }
  inq_convolution_param {
    portion: 0.2
    portion: 0.4
    weight_mask_filler {
      type: "constant"
      value: 1
    }
    bias_mask_filler {
      type: "constant"
      value: 1
    }
    num_quantum_values: 7
  }
}
layer {
  name: "fire3/relu_expand3x3"
  type: "ReLU"
  bottom: "fire3/expand3x3"
  top: "fire3/expand3x3"
}
layer {
  name: "fire3/concat"
  type: "Concat"
  bottom: "fire3/expand1x1"
  bottom: "fire3/expand3x3"
  top: "fire3/concat"
}
layer {
  name: "pool3"
  type: "Pooling"
  bottom: "fire3/concat"
  top: "pool3"
  pooling_param {
    pool: MAX
    kernel_size: 3
    stride: 2
  }
}
layer {
  name: "fire4/squeeze1x1"
  type: "INQConvolution"
  bottom: "pool3"
  top: "fire4/squeeze1x1"
  convolution_param {
    num_output: 32
    kernel_size: 1
    weight_filler {
      type: "xavier"
    }
  }
  inq_convolution_param {
    portion: 0.2
    portion: 0.4
    weight_mask_filler {
      type: "constant"
      value: 1
    }
    bias_mask_filler {
      type: "constant"
      value: 1
    }
    num_quantum_values: 7
  }
}
layer {
  name: "fire4/relu_squeeze1x1"
  type: "ReLU"
  bottom: "fire4/squeeze1x1"
  top: "fire4/squeeze1x1"
}
layer {
  name: "fire4/expand1x1"
  type: "INQConvolution"
  bottom: "fire4/squeeze1x1"
  top: "fire4/expand1x1"
  convolution_param {
    num_output: 128
    kernel_size: 1
    weight_filler {
      type: "xavier"
    }
  }
  inq_convolution_param {
    portion: 0.2
    portion: 0.4
    weight_mask_filler {
      type: "constant"
      value: 1
    }
    bias_mask_filler {
      type: "constant"
      value: 1
    }
    num_quantum_values: 7
  }
}
layer {
  name: "fire4/relu_expand1x1"
  type: "ReLU"
  bottom: "fire4/expand1x1"
  top: "fire4/expand1x1"
}
layer {
  name: "fire4/expand3x3"
  type: "INQConvolution"
  bottom: "fire4/squeeze1x1"
  top: "fire4/expand3x3"
  convolution_param {
    num_output: 128
    pad: 1
    kernel_size: 3
    weight_filler {
      type: "xavier"
    }
  }
  inq_convolution_param {
    portion: 0.2
    portion: 0.4
    weight_mask_filler {
      type: "constant"
      value: 1
    }
    bias_mask_filler {
      type: "constant"
      value: 1
    }
    num_quantum_values: 7
  }
}
layer {
  name: "fire4/relu_expand3x3"
  type: "ReLU"
  bottom: "fire4/expand3x3"
  top: "fire4/expand3x3"
}
layer {
  name: "fire4/concat"
  type: "Concat"
  bottom: "fire4/expand1x1"
  bottom: "fire4/expand3x3"
  top: "fire4/concat"
}
layer {
  name: "fire5/squeeze1x1"
  type: "INQConvolution"
  bottom: "fire4/concat"
  top: "fire5/squeeze1x1"
  convolution_param {
    num_output: 32
    kernel_size: 1
    weight_filler {
      type: "xavier"
    }
  }
  inq_convolution_param {
    portion: 0.2
    portion: 0.4
    weight_mask_filler {
      type: "constant"
      value: 1
    }
    bias_mask_filler {
      type: "constant"
      value: 1
    }
    num_quantum_values: 7
  }
}
layer {
  name: "fire5/relu_squeeze1x1"
  type: "ReLU"
  bottom: "fire5/squeeze1x1"
  top: "fire5/squeeze1x1"
}
layer {
  name: "fire5/expand1x1"
  type: "INQConvolution"
  bottom: "fire5/squeeze1x1"
  top: "fire5/expand1x1"
  convolution_param {
    num_output: 128
    kernel_size: 1
    weight_filler {
      type: "xavier"
    }
  }
  inq_convolution_param {
    portion: 0.2
    portion: 0.4
    weight_mask_filler {
      type: "constant"
      value: 1
    }
    bias_mask_filler {
      type: "constant"
      value: 1
    }
    num_quantum_values: 7
  }
}
layer {
  name: "fire5/relu_expand1x1"
  type: "ReLU"
  bottom: "fire5/expand1x1"
  top: "fire5/expand1x1"
}
layer {
  name: "fire5/expand3x3"
  type: "INQConvolution"
  bottom: "fire5/squeeze1x1"
  top: "fire5/expand3x3"
  convolution_param {
    num_output: 128
    pad: 1
    kernel_size: 3
    weight_filler {
      type: "xavier"
    }
  }
  inq_convolution_param {
    portion: 0.2
    portion: 0.4
    weight_mask_filler {
      type: "constant"
      value: 1
    }
    bias_mask_filler {
      type: "constant"
      value: 1
    }
    num_quantum_values: 7
  }
}
layer {
  name: "fire5/relu_expand3x3"
  type: "ReLU"
  bottom: "fire5/expand3x3"
  top: "fire5/expand3x3"
}
layer {
  name: "fire5/concat"
  type: "Concat"
  bottom: "fire5/expand1x1"
  bottom: "fire5/expand3x3"
  top: "fire5/concat"
}
layer {
  name: "pool5"
  type: "Pooling"
  bottom: "fire5/concat"
  top: "pool5"
  pooling_param {
    pool: MAX
    kernel_size: 3
    stride: 2
  }
}
layer {
  name: "fire6/squeeze1x1"
  type: "INQConvolution"
  bottom: "pool5"
  top: "fire6/squeeze1x1"
  convolution_param {
    num_output: 48
    kernel_size: 1
    weight_filler {
      type: "xavier"
    }
  }
  inq_convolution_param {
    portion: 0.2
    portion: 0.4
    weight_mask_filler {
      type: "constant"
      value: 1
    }
    bias_mask_filler {
      type: "constant"
      value: 1
    }
    num_quantum_values: 7
  }
}
layer {
  name: "fire6/relu_squeeze1x1"
  type: "ReLU"
  bottom: "fire6/squeeze1x1"
  top: "fire6/squeeze1x1"
}
layer {
  name: "fire6/expand1x1"
  type: "INQConvolution"
  bottom: "fire6/squeeze1x1"
  top: "fire6/expand1x1"
  convolution_param {
    num_output: 192
    kernel_size: 1
    weight_filler {
      type: "xavier"
    }
  }
  inq_convolution_param {
    portion: 0.2
    portion: 0.4
    weight_mask_filler {
      type: "constant"
      value: 1
    }
    bias_mask_filler {
      type: "constant"
      value: 1
    }
    num_quantum_values: 7
  }
}
layer {
  name: "fire6/relu_expand1x1"
  type: "ReLU"
  bottom: "fire6/expand1x1"
  top: "fire6/expand1x1"
}
layer {
  name: "fire6/expand3x3"
  type: "INQConvolution"
  bottom: "fire6/squeeze1x1"
  top: "fire6/expand3x3"
  convolution_param {
    num_output: 192
    pad: 1
    kernel_size: 3
    weight_filler {
      type: "xavier"
    }
  }
  inq_convolution_param {
    portion: 0.2
    portion: 0.4
    weight_mask_filler {
      type: "constant"
      value: 1
    }
    bias_mask_filler {
      type: "constant"
      value: 1
    }
    num_quantum_values: 7
  }
}
layer {
  name: "fire6/relu_expand3x3"
  type: "ReLU"
  bottom: "fire6/expand3x3"
  top: "fire6/expand3x3"
}
layer {
  name: "fire6/concat"
  type: "Concat"
  bottom: "fire6/expand1x1"
  bottom: "fire6/expand3x3"
  top: "fire6/concat"
}
layer {
  name: "fire7/squeeze1x1"
  type: "INQConvolution"
  bottom: "fire6/concat"
  top: "fire7/squeeze1x1"
  convolution_param {
    num_output: 48
    kernel_size: 1
    weight_filler {
      type: "xavier"
    }
  }
  inq_convolution_param {
    portion: 0.2
    portion: 0.4
    weight_mask_filler {
      type: "constant"
      value: 1
    }
    bias_mask_filler {
      type: "constant"
      value: 1
    }
    num_quantum_values: 7
  }
}
layer {
  name: "fire7/relu_squeeze1x1"
  type: "ReLU"
  bottom: "fire7/squeeze1x1"
  top: "fire7/squeeze1x1"
}
layer {
  name: "fire7/expand1x1"
  type: "INQConvolution"
  bottom: "fire7/squeeze1x1"
  top: "fire7/expand1x1"
  convolution_param {
    num_output: 192
    kernel_size: 1
    weight_filler {
      type: "xavier"
    }
  }
  inq_convolution_param {
    portion: 0.2
    portion: 0.4
    weight_mask_filler {
      type: "constant"
      value: 1
    }
    bias_mask_filler {
      type: "constant"
      value: 1
    }
    num_quantum_values: 7
  }
}
layer {
  name: "fire7/relu_expand1x1"
  type: "ReLU"
  bottom: "fire7/expand1x1"
  top: "fire7/expand1x1"
}
layer {
  name: "fire7/expand3x3"
  type: "INQConvolution"
  bottom: "fire7/squeeze1x1"
  top: "fire7/expand3x3"
  convolution_param {
    num_output: 192
    pad: 1
    kernel_size: 3
    weight_filler {
      type: "xavier"
    }
  }
  inq_convolution_param {
    portion: 0.2
    portion: 0.4
    weight_mask_filler {
      type: "constant"
      value: 1
    }
    bias_mask_filler {
      type: "constant"
      value: 1
    }
    num_quantum_values: 7
  }
}
layer {
  name: "fire7/relu_expand3x3"
  type: "ReLU"
  bottom: "fire7/expand3x3"
  top: "fire7/expand3x3"
}
layer {
  name: "fire7/concat"
  type: "Concat"
  bottom: "fire7/expand1x1"
  bottom: "fire7/expand3x3"
  top: "fire7/concat"
}
layer {
  name: "fire8/squeeze1x1"
  type: "INQConvolution"
  bottom: "fire7/concat"
  top: "fire8/squeeze1x1"
  convolution_param {
    num_output: 64
    kernel_size: 1
    weight_filler {
      type: "xavier"
    }
  }
  inq_convolution_param {
    portion: 0.2
    portion: 0.4
    weight_mask_filler {
      type: "constant"
      value: 1
    }
    bias_mask_filler {
      type: "constant"
      value: 1
    }
    num_quantum_values: 7
  }
}
layer {
  name: "fire8/relu_squeeze1x1"
  type: "ReLU"
  bottom: "fire8/squeeze1x1"
  top: "fire8/squeeze1x1"
}
layer {
  name: "fire8/expand1x1"
  type: "INQConvolution"
  bottom: "fire8/squeeze1x1"
  top: "fire8/expand1x1"
  convolution_param {
    num_output: 256
    kernel_size: 1
    weight_filler {
      type: "xavier"
    }
  }
  inq_convolution_param {
    portion: 0.2
    portion: 0.4
    weight_mask_filler {
      type: "constant"
      value: 1
    }
    bias_mask_filler {
      type: "constant"
      value: 1
    }
    num_quantum_values: 7
  }
}
layer {
  name: "fire8/relu_expand1x1"
  type: "ReLU"
  bottom: "fire8/expand1x1"
  top: "fire8/expand1x1"
}
layer {
  name: "fire8/expand3x3"
  type: "INQConvolution"
  bottom: "fire8/squeeze1x1"
  top: "fire8/expand3x3"
  convolution_param {
    num_output: 256
    pad: 1
    kernel_size: 3
    weight_filler {
      type: "xavier"
    }
  }
  inq_convolution_param {
    portion: 0.2
    portion: 0.4
    weight_mask_filler {
      type: "constant"
      value: 1
    }
    bias_mask_filler {
      type: "constant"
      value: 1
    }
    num_quantum_values: 7
  }
}
layer {
  name: "fire8/relu_expand3x3"
  type: "ReLU"
  bottom: "fire8/expand3x3"
  top: "fire8/expand3x3"
}
layer {
  name: "fire8/concat"
  type: "Concat"
  bottom: "fire8/expand1x1"
  bottom: "fire8/expand3x3"
  top: "fire8/concat"
}
layer {
  name: "fire9/squeeze1x1"
  type: "INQConvolution"
  bottom: "fire8/concat"
  top: "fire9/squeeze1x1"
  convolution_param {
    num_output: 64
    kernel_size: 1
    weight_filler {
      type: "xavier"
    }
  }
  inq_convolution_param {
    portion: 0.2
    portion: 0.4
    weight_mask_filler {
      type: "constant"
      value: 1
    }
    bias_mask_filler {
      type: "constant"
      value: 1
    }
    num_quantum_values: 7
  }
}
layer {
  name: "fire9/relu_squeeze1x1"
  type: "ReLU"
  bottom: "fire9/squeeze1x1"
  top: "fire9/squeeze1x1"
}
layer {
  name: "fire9/expand1x1"
  type: "INQConvolution"
  bottom: "fire9/squeeze1x1"
  top: "fire9/expand1x1"
  convolution_param {
    num_output: 256
    kernel_size: 1
    weight_filler {
      type: "xavier"
    }
  }
  inq_convolution_param {
    portion: 0.2
    portion: 0.4
    weight_mask_filler {
      type: "constant"
      value: 1
    }
    bias_mask_filler {
      type: "constant"
      value: 1
    }
    num_quantum_values: 7
  }
}
layer {
  name: "fire9/relu_expand1x1"
  type: "ReLU"
  bottom: "fire9/expand1x1"
  top: "fire9/expand1x1"
}
layer {
  name: "fire9/expand3x3"
  type: "INQConvolution"
  bottom: "fire9/squeeze1x1"
  top: "fire9/expand3x3"
  convolution_param {
    num_output: 256
    pad: 1
    kernel_size: 3
    weight_filler {
      type: "xavier"
    }
  }
  inq_convolution_param {
    portion: 0.2
    portion: 0.4
    weight_mask_filler {
      type: "constant"
      value: 1
    }
    bias_mask_filler {
      type: "constant"
      value: 1
    }
    num_quantum_values: 7
  }
}
layer {
  name: "fire9/relu_expand3x3"
  type: "ReLU"
  bottom: "fire9/expand3x3"
  top: "fire9/expand3x3"
}
layer {
  name: "fire9/concat"
  type: "Concat"
  bottom: "fire9/expand1x1"
  bottom: "fire9/expand3x3"
  top: "fire9/concat"
}
layer {
  name: "drop9"
  type: "Dropout"
  bottom: "fire9/concat"
  top: "fire9/concat"
  dropout_param {
    dropout_ratio: 0.5
  }
}
layer {
  name: "conv10"
  type: "INQConvolution"
  bottom: "fire9/concat"
  top: "conv10"
  convolution_param {
    num_output: 1000
    kernel_size: 1
    weight_filler {
      type: "gaussian"
      mean: 0
      std: 0.01
    }
  }
  inq_convolution_param {
    portion: 0.2
    portion: 0.4
    weight_mask_filler {
      type: "constant"
      value: 1
    }
    bias_mask_filler {
      type: "constant"
      value: 1
    }
    num_quantum_values: 7
  }
}
layer {
  name: "relu_conv10"
  type: "ReLU"
  bottom: "conv10"
  top: "conv10"
}
layer {
  name: "pool10"
  type: "Pooling"
  bottom: "conv10"
  top: "pool10"
  pooling_param {
    pool: AVE
    global_pooling: true
  }
}
layer {
  name: "loss"
  type: "SoftmaxWithLoss"
  bottom: "pool10"
  bottom: "label"
  top: "loss"
}
I1028 17:19:26.778319 29475 layer_factory.hpp:77] Creating layer data
I1028 17:19:26.778816 29475 db_lmdb.cpp:35] Opened lmdb /home/data/caffe-imagenet/ilsvrc12_train_lmdb
I1028 17:19:26.778870 29475 net.cpp:84] Creating Layer data
I1028 17:19:26.778883 29475 net.cpp:387] data -> data
I1028 17:19:26.778915 29475 net.cpp:387] data -> label
I1028 17:19:26.780686 29475 data_layer.cpp:45] output data size: 128,3,227,227
I1028 17:19:26.977221 29475 net.cpp:127] Setting up data
I1028 17:19:26.977293 29475 net.cpp:136] Top shape: 128 3 227 227 (19787136)
I1028 17:19:26.977309 29475 net.cpp:136] Top shape: 128 (128)
I1028 17:19:26.977315 29475 net.cpp:144] Memory required for data: 79149056
I1028 17:19:26.977335 29475 layer_factory.hpp:77] Creating layer conv1
I1028 17:19:26.977363 29475 net.cpp:84] Creating Layer conv1
I1028 17:19:26.977373 29475 net.cpp:413] conv1 <- data
I1028 17:19:26.977393 29475 net.cpp:387] conv1 -> conv1
I1028 17:19:26.980479 29475 net.cpp:127] Setting up conv1
I1028 17:19:26.980499 29475 net.cpp:136] Top shape: 128 64 113 113 (104603648)
I1028 17:19:26.980505 29475 net.cpp:144] Memory required for data: 497563648
I1028 17:19:26.980526 29475 net.cpp:453] Found INQ layer:conv1, type: INQConvolution, layer id:1
I1028 17:19:26.980538 29475 net.cpp:453] Found INQ layer:conv1, type: INQConvolution, layer id:1
I1028 17:19:26.980551 29475 net.cpp:453] Found INQ layer:conv1, type: INQConvolution, layer id:1
I1028 17:19:26.980559 29475 net.cpp:453] Found INQ layer:conv1, type: INQConvolution, layer id:1
I1028 17:19:26.980564 29475 layer_factory.hpp:77] Creating layer relu_conv1
I1028 17:19:26.980579 29475 net.cpp:84] Creating Layer relu_conv1
I1028 17:19:26.980585 29475 net.cpp:413] relu_conv1 <- conv1
I1028 17:19:26.980592 29475 net.cpp:374] relu_conv1 -> conv1 (in-place)
I1028 17:19:27.346036 29475 net.cpp:127] Setting up relu_conv1
I1028 17:19:27.346086 29475 net.cpp:136] Top shape: 128 64 113 113 (104603648)
I1028 17:19:27.346093 29475 net.cpp:144] Memory required for data: 915978240
I1028 17:19:27.346102 29475 layer_factory.hpp:77] Creating layer pool1
I1028 17:19:27.346122 29475 net.cpp:84] Creating Layer pool1
I1028 17:19:27.346130 29475 net.cpp:413] pool1 <- conv1
I1028 17:19:27.346144 29475 net.cpp:387] pool1 -> pool1
I1028 17:19:27.346258 29475 net.cpp:127] Setting up pool1
I1028 17:19:27.346269 29475 net.cpp:136] Top shape: 128 64 56 56 (25690112)
I1028 17:19:27.346312 29475 net.cpp:144] Memory required for data: 1018738688
I1028 17:19:27.346318 29475 layer_factory.hpp:77] Creating layer fire2/squeeze1x1
I1028 17:19:27.346334 29475 net.cpp:84] Creating Layer fire2/squeeze1x1
I1028 17:19:27.346341 29475 net.cpp:413] fire2/squeeze1x1 <- pool1
I1028 17:19:27.346350 29475 net.cpp:387] fire2/squeeze1x1 -> fire2/squeeze1x1
I1028 17:19:27.348079 29475 net.cpp:127] Setting up fire2/squeeze1x1
I1028 17:19:27.348100 29475 net.cpp:136] Top shape: 128 16 56 56 (6422528)
I1028 17:19:27.348105 29475 net.cpp:144] Memory required for data: 1044428800
I1028 17:19:27.348117 29475 net.cpp:453] Found INQ layer:fire2/squeeze1x1, type: INQConvolution, layer id:4
I1028 17:19:27.348127 29475 net.cpp:453] Found INQ layer:fire2/squeeze1x1, type: INQConvolution, layer id:4
I1028 17:19:27.348134 29475 net.cpp:453] Found INQ layer:fire2/squeeze1x1, type: INQConvolution, layer id:4
I1028 17:19:27.348142 29475 net.cpp:453] Found INQ layer:fire2/squeeze1x1, type: INQConvolution, layer id:4
I1028 17:19:27.348151 29475 layer_factory.hpp:77] Creating layer fire2/relu_squeeze1x1
I1028 17:19:27.348160 29475 net.cpp:84] Creating Layer fire2/relu_squeeze1x1
I1028 17:19:27.348165 29475 net.cpp:413] fire2/relu_squeeze1x1 <- fire2/squeeze1x1
I1028 17:19:27.348172 29475 net.cpp:374] fire2/relu_squeeze1x1 -> fire2/squeeze1x1 (in-place)
I1028 17:19:27.351274 29475 net.cpp:127] Setting up fire2/relu_squeeze1x1
I1028 17:19:27.351294 29475 net.cpp:136] Top shape: 128 16 56 56 (6422528)
I1028 17:19:27.351303 29475 net.cpp:144] Memory required for data: 1070118912
I1028 17:19:27.351310 29475 layer_factory.hpp:77] Creating layer fire2/squeeze1x1_fire2/relu_squeeze1x1_0_split
I1028 17:19:27.351322 29475 net.cpp:84] Creating Layer fire2/squeeze1x1_fire2/relu_squeeze1x1_0_split
I1028 17:19:27.351328 29475 net.cpp:413] fire2/squeeze1x1_fire2/relu_squeeze1x1_0_split <- fire2/squeeze1x1
I1028 17:19:27.351336 29475 net.cpp:387] fire2/squeeze1x1_fire2/relu_squeeze1x1_0_split -> fire2/squeeze1x1_fire2/relu_squeeze1x1_0_split_0
I1028 17:19:27.351347 29475 net.cpp:387] fire2/squeeze1x1_fire2/relu_squeeze1x1_0_split -> fire2/squeeze1x1_fire2/relu_squeeze1x1_0_split_1
I1028 17:19:27.351395 29475 net.cpp:127] Setting up fire2/squeeze1x1_fire2/relu_squeeze1x1_0_split
I1028 17:19:27.351404 29475 net.cpp:136] Top shape: 128 16 56 56 (6422528)
I1028 17:19:27.351410 29475 net.cpp:136] Top shape: 128 16 56 56 (6422528)
I1028 17:19:27.351414 29475 net.cpp:144] Memory required for data: 1121499136
I1028 17:19:27.351419 29475 layer_factory.hpp:77] Creating layer fire2/expand1x1
I1028 17:19:27.351428 29475 net.cpp:84] Creating Layer fire2/expand1x1
I1028 17:19:27.351433 29475 net.cpp:413] fire2/expand1x1 <- fire2/squeeze1x1_fire2/relu_squeeze1x1_0_split_0
I1028 17:19:27.351440 29475 net.cpp:387] fire2/expand1x1 -> fire2/expand1x1
I1028 17:19:27.351754 29475 net.cpp:127] Setting up fire2/expand1x1
I1028 17:19:27.351765 29475 net.cpp:136] Top shape: 128 64 56 56 (25690112)
I1028 17:19:27.351770 29475 net.cpp:144] Memory required for data: 1224259584
I1028 17:19:27.351781 29475 net.cpp:453] Found INQ layer:fire2/expand1x1, type: INQConvolution, layer id:7
I1028 17:19:27.351789 29475 net.cpp:453] Found INQ layer:fire2/expand1x1, type: INQConvolution, layer id:7
I1028 17:19:27.351795 29475 net.cpp:453] Found INQ layer:fire2/expand1x1, type: INQConvolution, layer id:7
I1028 17:19:27.351801 29475 net.cpp:453] Found INQ layer:fire2/expand1x1, type: INQConvolution, layer id:7
I1028 17:19:27.351806 29475 layer_factory.hpp:77] Creating layer fire2/relu_expand1x1
I1028 17:19:27.351815 29475 net.cpp:84] Creating Layer fire2/relu_expand1x1
I1028 17:19:27.351820 29475 net.cpp:413] fire2/relu_expand1x1 <- fire2/expand1x1
I1028 17:19:27.351826 29475 net.cpp:374] fire2/relu_expand1x1 -> fire2/expand1x1 (in-place)
I1028 17:19:27.352020 29475 net.cpp:127] Setting up fire2/relu_expand1x1
I1028 17:19:27.352030 29475 net.cpp:136] Top shape: 128 64 56 56 (25690112)
I1028 17:19:27.352042 29475 net.cpp:144] Memory required for data: 1327020032
I1028 17:19:27.352061 29475 layer_factory.hpp:77] Creating layer fire2/expand3x3
I1028 17:19:27.352072 29475 net.cpp:84] Creating Layer fire2/expand3x3
I1028 17:19:27.352077 29475 net.cpp:413] fire2/expand3x3 <- fire2/squeeze1x1_fire2/relu_squeeze1x1_0_split_1
I1028 17:19:27.352085 29475 net.cpp:387] fire2/expand3x3 -> fire2/expand3x3
I1028 17:19:27.352489 29475 net.cpp:127] Setting up fire2/expand3x3
I1028 17:19:27.352501 29475 net.cpp:136] Top shape: 128 64 56 56 (25690112)
I1028 17:19:27.352507 29475 net.cpp:144] Memory required for data: 1429780480
I1028 17:19:27.352514 29475 net.cpp:453] Found INQ layer:fire2/expand3x3, type: INQConvolution, layer id:9
I1028 17:19:27.352520 29475 net.cpp:453] Found INQ layer:fire2/expand3x3, type: INQConvolution, layer id:9
I1028 17:19:27.352526 29475 net.cpp:453] Found INQ layer:fire2/expand3x3, type: INQConvolution, layer id:9
I1028 17:19:27.352531 29475 net.cpp:453] Found INQ layer:fire2/expand3x3, type: INQConvolution, layer id:9
I1028 17:19:27.352537 29475 layer_factory.hpp:77] Creating layer fire2/relu_expand3x3
I1028 17:19:27.352545 29475 net.cpp:84] Creating Layer fire2/relu_expand3x3
I1028 17:19:27.352553 29475 net.cpp:413] fire2/relu_expand3x3 <- fire2/expand3x3
I1028 17:19:27.352560 29475 net.cpp:374] fire2/relu_expand3x3 -> fire2/expand3x3 (in-place)
I1028 17:19:27.352751 29475 net.cpp:127] Setting up fire2/relu_expand3x3
I1028 17:19:27.352761 29475 net.cpp:136] Top shape: 128 64 56 56 (25690112)
I1028 17:19:27.352766 29475 net.cpp:144] Memory required for data: 1532540928
I1028 17:19:27.352772 29475 layer_factory.hpp:77] Creating layer fire2/concat
I1028 17:19:27.352783 29475 net.cpp:84] Creating Layer fire2/concat
I1028 17:19:27.352788 29475 net.cpp:413] fire2/concat <- fire2/expand1x1
I1028 17:19:27.352795 29475 net.cpp:413] fire2/concat <- fire2/expand3x3
I1028 17:19:27.352802 29475 net.cpp:387] fire2/concat -> fire2/concat
I1028 17:19:27.352833 29475 net.cpp:127] Setting up fire2/concat
I1028 17:19:27.352841 29475 net.cpp:136] Top shape: 128 128 56 56 (51380224)
I1028 17:19:27.352845 29475 net.cpp:144] Memory required for data: 1738061824
I1028 17:19:27.352850 29475 layer_factory.hpp:77] Creating layer fire3/squeeze1x1
I1028 17:19:27.352859 29475 net.cpp:84] Creating Layer fire3/squeeze1x1
I1028 17:19:27.352864 29475 net.cpp:413] fire3/squeeze1x1 <- fire2/concat
I1028 17:19:27.352872 29475 net.cpp:387] fire3/squeeze1x1 -> fire3/squeeze1x1
I1028 17:19:27.353178 29475 net.cpp:127] Setting up fire3/squeeze1x1
I1028 17:19:27.353188 29475 net.cpp:136] Top shape: 128 16 56 56 (6422528)
I1028 17:19:27.353193 29475 net.cpp:144] Memory required for data: 1763751936
I1028 17:19:27.353202 29475 net.cpp:453] Found INQ layer:fire3/squeeze1x1, type: INQConvolution, layer id:12
I1028 17:19:27.353211 29475 net.cpp:453] Found INQ layer:fire3/squeeze1x1, type: INQConvolution, layer id:12
I1028 17:19:27.353217 29475 net.cpp:453] Found INQ layer:fire3/squeeze1x1, type: INQConvolution, layer id:12
I1028 17:19:27.353224 29475 net.cpp:453] Found INQ layer:fire3/squeeze1x1, type: INQConvolution, layer id:12
I1028 17:19:27.353229 29475 layer_factory.hpp:77] Creating layer fire3/relu_squeeze1x1
I1028 17:19:27.353236 29475 net.cpp:84] Creating Layer fire3/relu_squeeze1x1
I1028 17:19:27.353241 29475 net.cpp:413] fire3/relu_squeeze1x1 <- fire3/squeeze1x1
I1028 17:19:27.353248 29475 net.cpp:374] fire3/relu_squeeze1x1 -> fire3/squeeze1x1 (in-place)
I1028 17:19:27.354737 29475 net.cpp:127] Setting up fire3/relu_squeeze1x1
I1028 17:19:27.354758 29475 net.cpp:136] Top shape: 128 16 56 56 (6422528)
I1028 17:19:27.354763 29475 net.cpp:144] Memory required for data: 1789442048
I1028 17:19:27.354768 29475 layer_factory.hpp:77] Creating layer fire3/squeeze1x1_fire3/relu_squeeze1x1_0_split
I1028 17:19:27.354777 29475 net.cpp:84] Creating Layer fire3/squeeze1x1_fire3/relu_squeeze1x1_0_split
I1028 17:19:27.354782 29475 net.cpp:413] fire3/squeeze1x1_fire3/relu_squeeze1x1_0_split <- fire3/squeeze1x1
I1028 17:19:27.354797 29475 net.cpp:387] fire3/squeeze1x1_fire3/relu_squeeze1x1_0_split -> fire3/squeeze1x1_fire3/relu_squeeze1x1_0_split_0
I1028 17:19:27.354821 29475 net.cpp:387] fire3/squeeze1x1_fire3/relu_squeeze1x1_0_split -> fire3/squeeze1x1_fire3/relu_squeeze1x1_0_split_1
I1028 17:19:27.360883 29475 net.cpp:127] Setting up fire3/squeeze1x1_fire3/relu_squeeze1x1_0_split
I1028 17:19:27.360894 29475 net.cpp:136] Top shape: 128 16 56 56 (6422528)
I1028 17:19:27.360901 29475 net.cpp:136] Top shape: 128 16 56 56 (6422528)
I1028 17:19:27.360905 29475 net.cpp:144] Memory required for data: 1840822272
I1028 17:19:27.360910 29475 layer_factory.hpp:77] Creating layer fire3/expand1x1
I1028 17:19:27.360919 29475 net.cpp:84] Creating Layer fire3/expand1x1
I1028 17:19:27.360925 29475 net.cpp:413] fire3/expand1x1 <- fire3/squeeze1x1_fire3/relu_squeeze1x1_0_split_0
I1028 17:19:27.360934 29475 net.cpp:387] fire3/expand1x1 -> fire3/expand1x1
I1028 17:19:27.361235 29475 net.cpp:127] Setting up fire3/expand1x1
I1028 17:19:27.361248 29475 net.cpp:136] Top shape: 128 64 56 56 (25690112)
I1028 17:19:27.361253 29475 net.cpp:144] Memory required for data: 1943582720
I1028 17:19:27.361260 29475 net.cpp:453] Found INQ layer:fire3/expand1x1, type: INQConvolution, layer id:15
I1028 17:19:27.361268 29475 net.cpp:453] Found INQ layer:fire3/expand1x1, type: INQConvolution, layer id:15
I1028 17:19:27.361273 29475 net.cpp:453] Found INQ layer:fire3/expand1x1, type: INQConvolution, layer id:15
I1028 17:19:27.361277 29475 net.cpp:453] Found INQ layer:fire3/expand1x1, type: INQConvolution, layer id:15
I1028 17:19:27.361282 29475 layer_factory.hpp:77] Creating layer fire3/relu_expand1x1
I1028 17:19:27.361291 29475 net.cpp:84] Creating Layer fire3/relu_expand1x1
I1028 17:19:27.361304 29475 net.cpp:413] fire3/relu_expand1x1 <- fire3/expand1x1
I1028 17:19:27.361310 29475 net.cpp:374] fire3/relu_expand1x1 -> fire3/expand1x1 (in-place)
I1028 17:19:27.361506 29475 net.cpp:127] Setting up fire3/relu_expand1x1
I1028 17:19:27.361518 29475 net.cpp:136] Top shape: 128 64 56 56 (25690112)
I1028 17:19:27.361524 29475 net.cpp:144] Memory required for data: 2046343168
I1028 17:19:27.361529 29475 layer_factory.hpp:77] Creating layer fire3/expand3x3
I1028 17:19:27.361539 29475 net.cpp:84] Creating Layer fire3/expand3x3
I1028 17:19:27.361544 29475 net.cpp:413] fire3/expand3x3 <- fire3/squeeze1x1_fire3/relu_squeeze1x1_0_split_1
I1028 17:19:27.361552 29475 net.cpp:387] fire3/expand3x3 -> fire3/expand3x3
I1028 17:19:27.361948 29475 net.cpp:127] Setting up fire3/expand3x3
I1028 17:19:27.361958 29475 net.cpp:136] Top shape: 128 64 56 56 (25690112)
I1028 17:19:27.361963 29475 net.cpp:144] Memory required for data: 2149103616
I1028 17:19:27.361969 29475 net.cpp:453] Found INQ layer:fire3/expand3x3, type: INQConvolution, layer id:17
I1028 17:19:27.361975 29475 net.cpp:453] Found INQ layer:fire3/expand3x3, type: INQConvolution, layer id:17
I1028 17:19:27.361981 29475 net.cpp:453] Found INQ layer:fire3/expand3x3, type: INQConvolution, layer id:17
I1028 17:19:27.361986 29475 net.cpp:453] Found INQ layer:fire3/expand3x3, type: INQConvolution, layer id:17
I1028 17:19:27.361991 29475 layer_factory.hpp:77] Creating layer fire3/relu_expand3x3
I1028 17:19:27.361999 29475 net.cpp:84] Creating Layer fire3/relu_expand3x3
I1028 17:19:27.362005 29475 net.cpp:413] fire3/relu_expand3x3 <- fire3/expand3x3
I1028 17:19:27.362011 29475 net.cpp:374] fire3/relu_expand3x3 -> fire3/expand3x3 (in-place)
I1028 17:19:27.362220 29475 net.cpp:127] Setting up fire3/relu_expand3x3
I1028 17:19:27.362231 29475 net.cpp:136] Top shape: 128 64 56 56 (25690112)
I1028 17:19:27.362236 29475 net.cpp:144] Memory required for data: 2251864064
I1028 17:19:27.362242 29475 layer_factory.hpp:77] Creating layer fire3/concat
I1028 17:19:27.362249 29475 net.cpp:84] Creating Layer fire3/concat
I1028 17:19:27.362254 29475 net.cpp:413] fire3/concat <- fire3/expand1x1
I1028 17:19:27.362260 29475 net.cpp:413] fire3/concat <- fire3/expand3x3
I1028 17:19:27.362267 29475 net.cpp:387] fire3/concat -> fire3/concat
I1028 17:19:27.362309 29475 net.cpp:127] Setting up fire3/concat
I1028 17:19:27.362319 29475 net.cpp:136] Top shape: 128 128 56 56 (51380224)
I1028 17:19:27.362336 29475 net.cpp:144] Memory required for data: 2457384960
I1028 17:19:27.362341 29475 layer_factory.hpp:77] Creating layer pool3
I1028 17:19:27.362351 29475 net.cpp:84] Creating Layer pool3
I1028 17:19:27.362357 29475 net.cpp:413] pool3 <- fire3/concat
I1028 17:19:27.362363 29475 net.cpp:387] pool3 -> pool3
I1028 17:19:27.362411 29475 net.cpp:127] Setting up pool3
I1028 17:19:27.362421 29475 net.cpp:136] Top shape: 128 128 28 28 (12845056)
I1028 17:19:27.362426 29475 net.cpp:144] Memory required for data: 2508765184
I1028 17:19:27.362432 29475 layer_factory.hpp:77] Creating layer fire4/squeeze1x1
I1028 17:19:27.362442 29475 net.cpp:84] Creating Layer fire4/squeeze1x1
I1028 17:19:27.362448 29475 net.cpp:413] fire4/squeeze1x1 <- pool3
I1028 17:19:27.362457 29475 net.cpp:387] fire4/squeeze1x1 -> fire4/squeeze1x1
I1028 17:19:27.362802 29475 net.cpp:127] Setting up fire4/squeeze1x1
I1028 17:19:27.362812 29475 net.cpp:136] Top shape: 128 32 28 28 (3211264)
I1028 17:19:27.362818 29475 net.cpp:144] Memory required for data: 2521610240
I1028 17:19:27.362823 29475 net.cpp:453] Found INQ layer:fire4/squeeze1x1, type: INQConvolution, layer id:21
I1028 17:19:27.362830 29475 net.cpp:453] Found INQ layer:fire4/squeeze1x1, type: INQConvolution, layer id:21
I1028 17:19:27.362835 29475 net.cpp:453] Found INQ layer:fire4/squeeze1x1, type: INQConvolution, layer id:21
I1028 17:19:27.362840 29475 net.cpp:453] Found INQ layer:fire4/squeeze1x1, type: INQConvolution, layer id:21
I1028 17:19:27.362845 29475 layer_factory.hpp:77] Creating layer fire4/relu_squeeze1x1
I1028 17:19:27.362854 29475 net.cpp:84] Creating Layer fire4/relu_squeeze1x1
I1028 17:19:27.362859 29475 net.cpp:413] fire4/relu_squeeze1x1 <- fire4/squeeze1x1
I1028 17:19:27.362865 29475 net.cpp:374] fire4/relu_squeeze1x1 -> fire4/squeeze1x1 (in-place)
I1028 17:19:27.363076 29475 net.cpp:127] Setting up fire4/relu_squeeze1x1
I1028 17:19:27.363087 29475 net.cpp:136] Top shape: 128 32 28 28 (3211264)
I1028 17:19:27.363092 29475 net.cpp:144] Memory required for data: 2534455296
I1028 17:19:27.363098 29475 layer_factory.hpp:77] Creating layer fire4/squeeze1x1_fire4/relu_squeeze1x1_0_split
I1028 17:19:27.363106 29475 net.cpp:84] Creating Layer fire4/squeeze1x1_fire4/relu_squeeze1x1_0_split
I1028 17:19:27.363111 29475 net.cpp:413] fire4/squeeze1x1_fire4/relu_squeeze1x1_0_split <- fire4/squeeze1x1
I1028 17:19:27.363119 29475 net.cpp:387] fire4/squeeze1x1_fire4/relu_squeeze1x1_0_split -> fire4/squeeze1x1_fire4/relu_squeeze1x1_0_split_0
I1028 17:19:27.363128 29475 net.cpp:387] fire4/squeeze1x1_fire4/relu_squeeze1x1_0_split -> fire4/squeeze1x1_fire4/relu_squeeze1x1_0_split_1
I1028 17:19:27.363171 29475 net.cpp:127] Setting up fire4/squeeze1x1_fire4/relu_squeeze1x1_0_split
I1028 17:19:27.363188 29475 net.cpp:136] Top shape: 128 32 28 28 (3211264)
I1028 17:19:27.363193 29475 net.cpp:136] Top shape: 128 32 28 28 (3211264)
I1028 17:19:27.363199 29475 net.cpp:144] Memory required for data: 2560145408
I1028 17:19:27.363204 29475 layer_factory.hpp:77] Creating layer fire4/expand1x1
I1028 17:19:27.363212 29475 net.cpp:84] Creating Layer fire4/expand1x1
I1028 17:19:27.363219 29475 net.cpp:413] fire4/expand1x1 <- fire4/squeeze1x1_fire4/relu_squeeze1x1_0_split_0
I1028 17:19:27.363226 29475 net.cpp:387] fire4/expand1x1 -> fire4/expand1x1
I1028 17:19:27.363560 29475 net.cpp:127] Setting up fire4/expand1x1
I1028 17:19:27.363571 29475 net.cpp:136] Top shape: 128 128 28 28 (12845056)
I1028 17:19:27.363576 29475 net.cpp:144] Memory required for data: 2611525632
I1028 17:19:27.363590 29475 net.cpp:453] Found INQ layer:fire4/expand1x1, type: INQConvolution, layer id:24
I1028 17:19:27.363600 29475 net.cpp:453] Found INQ layer:fire4/expand1x1, type: INQConvolution, layer id:24
I1028 17:19:27.363606 29475 net.cpp:453] Found INQ layer:fire4/expand1x1, type: INQConvolution, layer id:24
I1028 17:19:27.363613 29475 net.cpp:453] Found INQ layer:fire4/expand1x1, type: INQConvolution, layer id:24
I1028 17:19:27.363626 29475 layer_factory.hpp:77] Creating layer fire4/relu_expand1x1
I1028 17:19:27.363643 29475 net.cpp:84] Creating Layer fire4/relu_expand1x1
I1028 17:19:27.363649 29475 net.cpp:413] fire4/relu_expand1x1 <- fire4/expand1x1
I1028 17:19:27.363656 29475 net.cpp:374] fire4/relu_expand1x1 -> fire4/expand1x1 (in-place)
I1028 17:19:27.365020 29475 net.cpp:127] Setting up fire4/relu_expand1x1
I1028 17:19:27.365041 29475 net.cpp:136] Top shape: 128 128 28 28 (12845056)
I1028 17:19:27.365046 29475 net.cpp:144] Memory required for data: 2662905856
I1028 17:19:27.365051 29475 layer_factory.hpp:77] Creating layer fire4/expand3x3
I1028 17:19:27.365063 29475 net.cpp:84] Creating Layer fire4/expand3x3
I1028 17:19:27.365072 29475 net.cpp:413] fire4/expand3x3 <- fire4/squeeze1x1_fire4/relu_squeeze1x1_0_split_1
I1028 17:19:27.365082 29475 net.cpp:387] fire4/expand3x3 -> fire4/expand3x3
I1028 17:19:27.366966 29475 net.cpp:127] Setting up fire4/expand3x3
I1028 17:19:27.366986 29475 net.cpp:136] Top shape: 128 128 28 28 (12845056)
I1028 17:19:27.366991 29475 net.cpp:144] Memory required for data: 2714286080
I1028 17:19:27.366998 29475 net.cpp:453] Found INQ layer:fire4/expand3x3, type: INQConvolution, layer id:26
I1028 17:19:27.367005 29475 net.cpp:453] Found INQ layer:fire4/expand3x3, type: INQConvolution, layer id:26
I1028 17:19:27.367012 29475 net.cpp:453] Found INQ layer:fire4/expand3x3, type: INQConvolution, layer id:26
I1028 17:19:27.367019 29475 net.cpp:453] Found INQ layer:fire4/expand3x3, type: INQConvolution, layer id:26
I1028 17:19:27.367025 29475 layer_factory.hpp:77] Creating layer fire4/relu_expand3x3
I1028 17:19:27.367039 29475 net.cpp:84] Creating Layer fire4/relu_expand3x3
I1028 17:19:27.367046 29475 net.cpp:413] fire4/relu_expand3x3 <- fire4/expand3x3
I1028 17:19:27.367053 29475 net.cpp:374] fire4/relu_expand3x3 -> fire4/expand3x3 (in-place)
I1028 17:19:27.367274 29475 net.cpp:127] Setting up fire4/relu_expand3x3
I1028 17:19:27.367285 29475 net.cpp:136] Top shape: 128 128 28 28 (12845056)
I1028 17:19:27.367290 29475 net.cpp:144] Memory required for data: 2765666304
I1028 17:19:27.367301 29475 layer_factory.hpp:77] Creating layer fire4/concat
I1028 17:19:27.367311 29475 net.cpp:84] Creating Layer fire4/concat
I1028 17:19:27.367316 29475 net.cpp:413] fire4/concat <- fire4/expand1x1
I1028 17:19:27.367323 29475 net.cpp:413] fire4/concat <- fire4/expand3x3
I1028 17:19:27.367331 29475 net.cpp:387] fire4/concat -> fire4/concat
I1028 17:19:27.367364 29475 net.cpp:127] Setting up fire4/concat
I1028 17:19:27.367372 29475 net.cpp:136] Top shape: 128 256 28 28 (25690112)
I1028 17:19:27.367377 29475 net.cpp:144] Memory required for data: 2868426752
I1028 17:19:27.367380 29475 layer_factory.hpp:77] Creating layer fire5/squeeze1x1
I1028 17:19:27.367393 29475 net.cpp:84] Creating Layer fire5/squeeze1x1
I1028 17:19:27.367398 29475 net.cpp:413] fire5/squeeze1x1 <- fire4/concat
I1028 17:19:27.367406 29475 net.cpp:387] fire5/squeeze1x1 -> fire5/squeeze1x1
I1028 17:19:27.367790 29475 net.cpp:127] Setting up fire5/squeeze1x1
I1028 17:19:27.367801 29475 net.cpp:136] Top shape: 128 32 28 28 (3211264)
I1028 17:19:27.367806 29475 net.cpp:144] Memory required for data: 2881271808
I1028 17:19:27.367812 29475 net.cpp:453] Found INQ layer:fire5/squeeze1x1, type: INQConvolution, layer id:29
I1028 17:19:27.367820 29475 net.cpp:453] Found INQ layer:fire5/squeeze1x1, type: INQConvolution, layer id:29
I1028 17:19:27.367825 29475 net.cpp:453] Found INQ layer:fire5/squeeze1x1, type: INQConvolution, layer id:29
I1028 17:19:27.367831 29475 net.cpp:453] Found INQ layer:fire5/squeeze1x1, type: INQConvolution, layer id:29
I1028 17:19:27.367835 29475 layer_factory.hpp:77] Creating layer fire5/relu_squeeze1x1
I1028 17:19:27.367846 29475 net.cpp:84] Creating Layer fire5/relu_squeeze1x1
I1028 17:19:27.367851 29475 net.cpp:413] fire5/relu_squeeze1x1 <- fire5/squeeze1x1
I1028 17:19:27.367856 29475 net.cpp:374] fire5/relu_squeeze1x1 -> fire5/squeeze1x1 (in-place)
I1028 17:19:27.368067 29475 net.cpp:127] Setting up fire5/relu_squeeze1x1
I1028 17:19:27.368084 29475 net.cpp:136] Top shape: 128 32 28 28 (3211264)
I1028 17:19:27.368110 29475 net.cpp:144] Memory required for data: 2894116864
I1028 17:19:27.368116 29475 layer_factory.hpp:77] Creating layer fire5/squeeze1x1_fire5/relu_squeeze1x1_0_split
I1028 17:19:27.368127 29475 net.cpp:84] Creating Layer fire5/squeeze1x1_fire5/relu_squeeze1x1_0_split
I1028 17:19:27.368132 29475 net.cpp:413] fire5/squeeze1x1_fire5/relu_squeeze1x1_0_split <- fire5/squeeze1x1
I1028 17:19:27.368144 29475 net.cpp:387] fire5/squeeze1x1_fire5/relu_squeeze1x1_0_split -> fire5/squeeze1x1_fire5/relu_squeeze1x1_0_split_0
I1028 17:19:27.368152 29475 net.cpp:387] fire5/squeeze1x1_fire5/relu_squeeze1x1_0_split -> fire5/squeeze1x1_fire5/relu_squeeze1x1_0_split_1
I1028 17:19:27.368198 29475 net.cpp:127] Setting up fire5/squeeze1x1_fire5/relu_squeeze1x1_0_split
I1028 17:19:27.368207 29475 net.cpp:136] Top shape: 128 32 28 28 (3211264)
I1028 17:19:27.368214 29475 net.cpp:136] Top shape: 128 32 28 28 (3211264)
I1028 17:19:27.368221 29475 net.cpp:144] Memory required for data: 2919806976
I1028 17:19:27.368225 29475 layer_factory.hpp:77] Creating layer fire5/expand1x1
I1028 17:19:27.368240 29475 net.cpp:84] Creating Layer fire5/expand1x1
I1028 17:19:27.368247 29475 net.cpp:413] fire5/expand1x1 <- fire5/squeeze1x1_fire5/relu_squeeze1x1_0_split_0
I1028 17:19:27.368254 29475 net.cpp:387] fire5/expand1x1 -> fire5/expand1x1
I1028 17:19:27.368597 29475 net.cpp:127] Setting up fire5/expand1x1
I1028 17:19:27.368609 29475 net.cpp:136] Top shape: 128 128 28 28 (12845056)
I1028 17:19:27.368614 29475 net.cpp:144] Memory required for data: 2971187200
I1028 17:19:27.368620 29475 net.cpp:453] Found INQ layer:fire5/expand1x1, type: INQConvolution, layer id:32
I1028 17:19:27.368628 29475 net.cpp:453] Found INQ layer:fire5/expand1x1, type: INQConvolution, layer id:32
I1028 17:19:27.368638 29475 net.cpp:453] Found INQ layer:fire5/expand1x1, type: INQConvolution, layer id:32
I1028 17:19:27.368645 29475 net.cpp:453] Found INQ layer:fire5/expand1x1, type: INQConvolution, layer id:32
I1028 17:19:27.368650 29475 layer_factory.hpp:77] Creating layer fire5/relu_expand1x1
I1028 17:19:27.368657 29475 net.cpp:84] Creating Layer fire5/relu_expand1x1
I1028 17:19:27.368662 29475 net.cpp:413] fire5/relu_expand1x1 <- fire5/expand1x1
I1028 17:19:27.368670 29475 net.cpp:374] fire5/relu_expand1x1 -> fire5/expand1x1 (in-place)
I1028 17:19:27.368877 29475 net.cpp:127] Setting up fire5/relu_expand1x1
I1028 17:19:27.368888 29475 net.cpp:136] Top shape: 128 128 28 28 (12845056)
I1028 17:19:27.368894 29475 net.cpp:144] Memory required for data: 3022567424
I1028 17:19:27.368901 29475 layer_factory.hpp:77] Creating layer fire5/expand3x3
I1028 17:19:27.368911 29475 net.cpp:84] Creating Layer fire5/expand3x3
I1028 17:19:27.368916 29475 net.cpp:413] fire5/expand3x3 <- fire5/squeeze1x1_fire5/relu_squeeze1x1_0_split_1
I1028 17:19:27.368926 29475 net.cpp:387] fire5/expand3x3 -> fire5/expand3x3
I1028 17:19:27.369530 29475 net.cpp:127] Setting up fire5/expand3x3
I1028 17:19:27.369544 29475 net.cpp:136] Top shape: 128 128 28 28 (12845056)
I1028 17:19:27.369549 29475 net.cpp:144] Memory required for data: 3073947648
I1028 17:19:27.369554 29475 net.cpp:453] Found INQ layer:fire5/expand3x3, type: INQConvolution, layer id:34
I1028 17:19:27.369560 29475 net.cpp:453] Found INQ layer:fire5/expand3x3, type: INQConvolution, layer id:34
I1028 17:19:27.369566 29475 net.cpp:453] Found INQ layer:fire5/expand3x3, type: INQConvolution, layer id:34
I1028 17:19:27.369571 29475 net.cpp:453] Found INQ layer:fire5/expand3x3, type: INQConvolution, layer id:34
I1028 17:19:27.369576 29475 layer_factory.hpp:77] Creating layer fire5/relu_expand3x3
I1028 17:19:27.369585 29475 net.cpp:84] Creating Layer fire5/relu_expand3x3
I1028 17:19:27.369592 29475 net.cpp:413] fire5/relu_expand3x3 <- fire5/expand3x3
I1028 17:19:27.369601 29475 net.cpp:374] fire5/relu_expand3x3 -> fire5/expand3x3 (in-place)
I1028 17:19:27.370971 29475 net.cpp:127] Setting up fire5/relu_expand3x3
I1028 17:19:27.370990 29475 net.cpp:136] Top shape: 128 128 28 28 (12845056)
I1028 17:19:27.371002 29475 net.cpp:144] Memory required for data: 3125327872
I1028 17:19:27.371019 29475 layer_factory.hpp:77] Creating layer fire5/concat
I1028 17:19:27.371031 29475 net.cpp:84] Creating Layer fire5/concat
I1028 17:19:27.371039 29475 net.cpp:413] fire5/concat <- fire5/expand1x1
I1028 17:19:27.371047 29475 net.cpp:413] fire5/concat <- fire5/expand3x3
I1028 17:19:27.371053 29475 net.cpp:387] fire5/concat -> fire5/concat
I1028 17:19:27.371086 29475 net.cpp:127] Setting up fire5/concat
I1028 17:19:27.371094 29475 net.cpp:136] Top shape: 128 256 28 28 (25690112)
I1028 17:19:27.371099 29475 net.cpp:144] Memory required for data: 3228088320
I1028 17:19:27.371104 29475 layer_factory.hpp:77] Creating layer pool5
I1028 17:19:27.371114 29475 net.cpp:84] Creating Layer pool5
I1028 17:19:27.371119 29475 net.cpp:413] pool5 <- fire5/concat
I1028 17:19:27.371126 29475 net.cpp:387] pool5 -> pool5
I1028 17:19:27.371170 29475 net.cpp:127] Setting up pool5
I1028 17:19:27.371176 29475 net.cpp:136] Top shape: 128 256 14 14 (6422528)
I1028 17:19:27.371181 29475 net.cpp:144] Memory required for data: 3253778432
I1028 17:19:27.371186 29475 layer_factory.hpp:77] Creating layer fire6/squeeze1x1
I1028 17:19:27.371197 29475 net.cpp:84] Creating Layer fire6/squeeze1x1
I1028 17:19:27.371202 29475 net.cpp:413] fire6/squeeze1x1 <- pool5
I1028 17:19:27.371210 29475 net.cpp:387] fire6/squeeze1x1 -> fire6/squeeze1x1
I1028 17:19:27.371645 29475 net.cpp:127] Setting up fire6/squeeze1x1
I1028 17:19:27.371657 29475 net.cpp:136] Top shape: 128 48 14 14 (1204224)
I1028 17:19:27.371662 29475 net.cpp:144] Memory required for data: 3258595328
I1028 17:19:27.371670 29475 net.cpp:453] Found INQ layer:fire6/squeeze1x1, type: INQConvolution, layer id:38
I1028 17:19:27.371676 29475 net.cpp:453] Found INQ layer:fire6/squeeze1x1, type: INQConvolution, layer id:38
I1028 17:19:27.371681 29475 net.cpp:453] Found INQ layer:fire6/squeeze1x1, type: INQConvolution, layer id:38
I1028 17:19:27.371686 29475 net.cpp:453] Found INQ layer:fire6/squeeze1x1, type: INQConvolution, layer id:38
I1028 17:19:27.371692 29475 layer_factory.hpp:77] Creating layer fire6/relu_squeeze1x1
I1028 17:19:27.371701 29475 net.cpp:84] Creating Layer fire6/relu_squeeze1x1
I1028 17:19:27.371709 29475 net.cpp:413] fire6/relu_squeeze1x1 <- fire6/squeeze1x1
I1028 17:19:27.371717 29475 net.cpp:374] fire6/relu_squeeze1x1 -> fire6/squeeze1x1 (in-place)
I1028 17:19:27.371922 29475 net.cpp:127] Setting up fire6/relu_squeeze1x1
I1028 17:19:27.371934 29475 net.cpp:136] Top shape: 128 48 14 14 (1204224)
I1028 17:19:27.371939 29475 net.cpp:144] Memory required for data: 3263412224
I1028 17:19:27.371945 29475 layer_factory.hpp:77] Creating layer fire6/squeeze1x1_fire6/relu_squeeze1x1_0_split
I1028 17:19:27.371954 29475 net.cpp:84] Creating Layer fire6/squeeze1x1_fire6/relu_squeeze1x1_0_split
I1028 17:19:27.371959 29475 net.cpp:413] fire6/squeeze1x1_fire6/relu_squeeze1x1_0_split <- fire6/squeeze1x1
I1028 17:19:27.371966 29475 net.cpp:387] fire6/squeeze1x1_fire6/relu_squeeze1x1_0_split -> fire6/squeeze1x1_fire6/relu_squeeze1x1_0_split_0
I1028 17:19:27.371974 29475 net.cpp:387] fire6/squeeze1x1_fire6/relu_squeeze1x1_0_split -> fire6/squeeze1x1_fire6/relu_squeeze1x1_0_split_1
I1028 17:19:27.372035 29475 net.cpp:127] Setting up fire6/squeeze1x1_fire6/relu_squeeze1x1_0_split
I1028 17:19:27.372045 29475 net.cpp:136] Top shape: 128 48 14 14 (1204224)
I1028 17:19:27.372051 29475 net.cpp:136] Top shape: 128 48 14 14 (1204224)
I1028 17:19:27.372056 29475 net.cpp:144] Memory required for data: 3273046016
I1028 17:19:27.372061 29475 layer_factory.hpp:77] Creating layer fire6/expand1x1
I1028 17:19:27.372071 29475 net.cpp:84] Creating Layer fire6/expand1x1
I1028 17:19:27.372076 29475 net.cpp:413] fire6/expand1x1 <- fire6/squeeze1x1_fire6/relu_squeeze1x1_0_split_0
I1028 17:19:27.372086 29475 net.cpp:387] fire6/expand1x1 -> fire6/expand1x1
I1028 17:19:27.372475 29475 net.cpp:127] Setting up fire6/expand1x1
I1028 17:19:27.372488 29475 net.cpp:136] Top shape: 128 192 14 14 (4816896)
I1028 17:19:27.372498 29475 net.cpp:144] Memory required for data: 3292313600
I1028 17:19:27.372504 29475 net.cpp:453] Found INQ layer:fire6/expand1x1, type: INQConvolution, layer id:41
I1028 17:19:27.372524 29475 net.cpp:453] Found INQ layer:fire6/expand1x1, type: INQConvolution, layer id:41
I1028 17:19:27.372531 29475 net.cpp:453] Found INQ layer:fire6/expand1x1, type: INQConvolution, layer id:41
I1028 17:19:27.372539 29475 net.cpp:453] Found INQ layer:fire6/expand1x1, type: INQConvolution, layer id:41
I1028 17:19:27.372544 29475 layer_factory.hpp:77] Creating layer fire6/relu_expand1x1
I1028 17:19:27.372550 29475 net.cpp:84] Creating Layer fire6/relu_expand1x1
I1028 17:19:27.372555 29475 net.cpp:413] fire6/relu_expand1x1 <- fire6/expand1x1
I1028 17:19:27.372566 29475 net.cpp:374] fire6/relu_expand1x1 -> fire6/expand1x1 (in-place)
I1028 17:19:27.372771 29475 net.cpp:127] Setting up fire6/relu_expand1x1
I1028 17:19:27.372783 29475 net.cpp:136] Top shape: 128 192 14 14 (4816896)
I1028 17:19:27.372788 29475 net.cpp:144] Memory required for data: 3311581184
I1028 17:19:27.372794 29475 layer_factory.hpp:77] Creating layer fire6/expand3x3
I1028 17:19:27.372805 29475 net.cpp:84] Creating Layer fire6/expand3x3
I1028 17:19:27.372810 29475 net.cpp:413] fire6/expand3x3 <- fire6/squeeze1x1_fire6/relu_squeeze1x1_0_split_1
I1028 17:19:27.372820 29475 net.cpp:387] fire6/expand3x3 -> fire6/expand3x3
I1028 17:19:27.375099 29475 net.cpp:127] Setting up fire6/expand3x3
I1028 17:19:27.375118 29475 net.cpp:136] Top shape: 128 192 14 14 (4816896)
I1028 17:19:27.375124 29475 net.cpp:144] Memory required for data: 3330848768
I1028 17:19:27.375131 29475 net.cpp:453] Found INQ layer:fire6/expand3x3, type: INQConvolution, layer id:43
I1028 17:19:27.375138 29475 net.cpp:453] Found INQ layer:fire6/expand3x3, type: INQConvolution, layer id:43
I1028 17:19:27.375144 29475 net.cpp:453] Found INQ layer:fire6/expand3x3, type: INQConvolution, layer id:43
I1028 17:19:27.375151 29475 net.cpp:453] Found INQ layer:fire6/expand3x3, type: INQConvolution, layer id:43
I1028 17:19:27.375156 29475 layer_factory.hpp:77] Creating layer fire6/relu_expand3x3
I1028 17:19:27.375166 29475 net.cpp:84] Creating Layer fire6/relu_expand3x3
I1028 17:19:27.375174 29475 net.cpp:413] fire6/relu_expand3x3 <- fire6/expand3x3
I1028 17:19:27.375182 29475 net.cpp:374] fire6/relu_expand3x3 -> fire6/expand3x3 (in-place)
I1028 17:19:27.375409 29475 net.cpp:127] Setting up fire6/relu_expand3x3
I1028 17:19:27.375422 29475 net.cpp:136] Top shape: 128 192 14 14 (4816896)
I1028 17:19:27.375427 29475 net.cpp:144] Memory required for data: 3350116352
I1028 17:19:27.375434 29475 layer_factory.hpp:77] Creating layer fire6/concat
I1028 17:19:27.375443 29475 net.cpp:84] Creating Layer fire6/concat
I1028 17:19:27.375448 29475 net.cpp:413] fire6/concat <- fire6/expand1x1
I1028 17:19:27.375455 29475 net.cpp:413] fire6/concat <- fire6/expand3x3
I1028 17:19:27.375461 29475 net.cpp:387] fire6/concat -> fire6/concat
I1028 17:19:27.375494 29475 net.cpp:127] Setting up fire6/concat
I1028 17:19:27.375502 29475 net.cpp:136] Top shape: 128 384 14 14 (9633792)
I1028 17:19:27.375506 29475 net.cpp:144] Memory required for data: 3388651520
I1028 17:19:27.375511 29475 layer_factory.hpp:77] Creating layer fire7/squeeze1x1
I1028 17:19:27.375525 29475 net.cpp:84] Creating Layer fire7/squeeze1x1
I1028 17:19:27.375530 29475 net.cpp:413] fire7/squeeze1x1 <- fire6/concat
I1028 17:19:27.375537 29475 net.cpp:387] fire7/squeeze1x1 -> fire7/squeeze1x1
I1028 17:19:27.376008 29475 net.cpp:127] Setting up fire7/squeeze1x1
I1028 17:19:27.376019 29475 net.cpp:136] Top shape: 128 48 14 14 (1204224)
I1028 17:19:27.376024 29475 net.cpp:144] Memory required for data: 3393468416
I1028 17:19:27.376039 29475 net.cpp:453] Found INQ layer:fire7/squeeze1x1, type: INQConvolution, layer id:46
I1028 17:19:27.376049 29475 net.cpp:453] Found INQ layer:fire7/squeeze1x1, type: INQConvolution, layer id:46
I1028 17:19:27.376055 29475 net.cpp:453] Found INQ layer:fire7/squeeze1x1, type: INQConvolution, layer id:46
I1028 17:19:27.376062 29475 net.cpp:453] Found INQ layer:fire7/squeeze1x1, type: INQConvolution, layer id:46
I1028 17:19:27.376075 29475 layer_factory.hpp:77] Creating layer fire7/relu_squeeze1x1
I1028 17:19:27.376096 29475 net.cpp:84] Creating Layer fire7/relu_squeeze1x1
I1028 17:19:27.376101 29475 net.cpp:413] fire7/relu_squeeze1x1 <- fire7/squeeze1x1
I1028 17:19:27.376108 29475 net.cpp:374] fire7/relu_squeeze1x1 -> fire7/squeeze1x1 (in-place)
I1028 17:19:27.377471 29475 net.cpp:127] Setting up fire7/relu_squeeze1x1
I1028 17:19:27.377492 29475 net.cpp:136] Top shape: 128 48 14 14 (1204224)
I1028 17:19:27.377498 29475 net.cpp:144] Memory required for data: 3398285312
I1028 17:19:27.377503 29475 layer_factory.hpp:77] Creating layer fire7/squeeze1x1_fire7/relu_squeeze1x1_0_split
I1028 17:19:27.377511 29475 net.cpp:84] Creating Layer fire7/squeeze1x1_fire7/relu_squeeze1x1_0_split
I1028 17:19:27.377516 29475 net.cpp:413] fire7/squeeze1x1_fire7/relu_squeeze1x1_0_split <- fire7/squeeze1x1
I1028 17:19:27.377526 29475 net.cpp:387] fire7/squeeze1x1_fire7/relu_squeeze1x1_0_split -> fire7/squeeze1x1_fire7/relu_squeeze1x1_0_split_0
I1028 17:19:27.377537 29475 net.cpp:387] fire7/squeeze1x1_fire7/relu_squeeze1x1_0_split -> fire7/squeeze1x1_fire7/relu_squeeze1x1_0_split_1
I1028 17:19:27.377589 29475 net.cpp:127] Setting up fire7/squeeze1x1_fire7/relu_squeeze1x1_0_split
I1028 17:19:27.377598 29475 net.cpp:136] Top shape: 128 48 14 14 (1204224)
I1028 17:19:27.377602 29475 net.cpp:136] Top shape: 128 48 14 14 (1204224)
I1028 17:19:27.377607 29475 net.cpp:144] Memory required for data: 3407919104
I1028 17:19:27.377611 29475 layer_factory.hpp:77] Creating layer fire7/expand1x1
I1028 17:19:27.377624 29475 net.cpp:84] Creating Layer fire7/expand1x1
I1028 17:19:27.377629 29475 net.cpp:413] fire7/expand1x1 <- fire7/squeeze1x1_fire7/relu_squeeze1x1_0_split_0
I1028 17:19:27.377637 29475 net.cpp:387] fire7/expand1x1 -> fire7/expand1x1
I1028 17:19:27.378032 29475 net.cpp:127] Setting up fire7/expand1x1
I1028 17:19:27.378043 29475 net.cpp:136] Top shape: 128 192 14 14 (4816896)
I1028 17:19:27.378048 29475 net.cpp:144] Memory required for data: 3427186688
I1028 17:19:27.378056 29475 net.cpp:453] Found INQ layer:fire7/expand1x1, type: INQConvolution, layer id:49
I1028 17:19:27.378062 29475 net.cpp:453] Found INQ layer:fire7/expand1x1, type: INQConvolution, layer id:49
I1028 17:19:27.378067 29475 net.cpp:453] Found INQ layer:fire7/expand1x1, type: INQConvolution, layer id:49
I1028 17:19:27.378072 29475 net.cpp:453] Found INQ layer:fire7/expand1x1, type: INQConvolution, layer id:49
I1028 17:19:27.378077 29475 layer_factory.hpp:77] Creating layer fire7/relu_expand1x1
I1028 17:19:27.378087 29475 net.cpp:84] Creating Layer fire7/relu_expand1x1
I1028 17:19:27.378093 29475 net.cpp:413] fire7/relu_expand1x1 <- fire7/expand1x1
I1028 17:19:27.378098 29475 net.cpp:374] fire7/relu_expand1x1 -> fire7/expand1x1 (in-place)
I1028 17:19:27.378315 29475 net.cpp:127] Setting up fire7/relu_expand1x1
I1028 17:19:27.378329 29475 net.cpp:136] Top shape: 128 192 14 14 (4816896)
I1028 17:19:27.378334 29475 net.cpp:144] Memory required for data: 3446454272
I1028 17:19:27.378342 29475 layer_factory.hpp:77] Creating layer fire7/expand3x3
I1028 17:19:27.378353 29475 net.cpp:84] Creating Layer fire7/expand3x3
I1028 17:19:27.378358 29475 net.cpp:413] fire7/expand3x3 <- fire7/squeeze1x1_fire7/relu_squeeze1x1_0_split_1
I1028 17:19:27.378370 29475 net.cpp:387] fire7/expand3x3 -> fire7/expand3x3
I1028 17:19:27.379354 29475 net.cpp:127] Setting up fire7/expand3x3
I1028 17:19:27.379369 29475 net.cpp:136] Top shape: 128 192 14 14 (4816896)
I1028 17:19:27.379374 29475 net.cpp:144] Memory required for data: 3465721856
I1028 17:19:27.379379 29475 net.cpp:453] Found INQ layer:fire7/expand3x3, type: INQConvolution, layer id:51
I1028 17:19:27.379386 29475 net.cpp:453] Found INQ layer:fire7/expand3x3, type: INQConvolution, layer id:51
I1028 17:19:27.379391 29475 net.cpp:453] Found INQ layer:fire7/expand3x3, type: INQConvolution, layer id:51
I1028 17:19:27.379397 29475 net.cpp:453] Found INQ layer:fire7/expand3x3, type: INQConvolution, layer id:51
I1028 17:19:27.379413 29475 layer_factory.hpp:77] Creating layer fire7/relu_expand3x3
I1028 17:19:27.379436 29475 net.cpp:84] Creating Layer fire7/relu_expand3x3
I1028 17:19:27.379441 29475 net.cpp:413] fire7/relu_expand3x3 <- fire7/expand3x3
I1028 17:19:27.379448 29475 net.cpp:374] fire7/relu_expand3x3 -> fire7/expand3x3 (in-place)
I1028 17:19:27.379662 29475 net.cpp:127] Setting up fire7/relu_expand3x3
I1028 17:19:27.379674 29475 net.cpp:136] Top shape: 128 192 14 14 (4816896)
I1028 17:19:27.379679 29475 net.cpp:144] Memory required for data: 3484989440
I1028 17:19:27.379685 29475 layer_factory.hpp:77] Creating layer fire7/concat
I1028 17:19:27.379693 29475 net.cpp:84] Creating Layer fire7/concat
I1028 17:19:27.379698 29475 net.cpp:413] fire7/concat <- fire7/expand1x1
I1028 17:19:27.379704 29475 net.cpp:413] fire7/concat <- fire7/expand3x3
I1028 17:19:27.379710 29475 net.cpp:387] fire7/concat -> fire7/concat
I1028 17:19:27.379743 29475 net.cpp:127] Setting up fire7/concat
I1028 17:19:27.379751 29475 net.cpp:136] Top shape: 128 384 14 14 (9633792)
I1028 17:19:27.379755 29475 net.cpp:144] Memory required for data: 3523524608
I1028 17:19:27.379760 29475 layer_factory.hpp:77] Creating layer fire8/squeeze1x1
I1028 17:19:27.379775 29475 net.cpp:84] Creating Layer fire8/squeeze1x1
I1028 17:19:27.379779 29475 net.cpp:413] fire8/squeeze1x1 <- fire7/concat
I1028 17:19:27.379788 29475 net.cpp:387] fire8/squeeze1x1 -> fire8/squeeze1x1
I1028 17:19:27.380304 29475 net.cpp:127] Setting up fire8/squeeze1x1
I1028 17:19:27.380316 29475 net.cpp:136] Top shape: 128 64 14 14 (1605632)
I1028 17:19:27.380321 29475 net.cpp:144] Memory required for data: 3529947136
I1028 17:19:27.380328 29475 net.cpp:453] Found INQ layer:fire8/squeeze1x1, type: INQConvolution, layer id:54
I1028 17:19:27.380334 29475 net.cpp:453] Found INQ layer:fire8/squeeze1x1, type: INQConvolution, layer id:54
I1028 17:19:27.380340 29475 net.cpp:453] Found INQ layer:fire8/squeeze1x1, type: INQConvolution, layer id:54
I1028 17:19:27.380345 29475 net.cpp:453] Found INQ layer:fire8/squeeze1x1, type: INQConvolution, layer id:54
I1028 17:19:27.380352 29475 layer_factory.hpp:77] Creating layer fire8/relu_squeeze1x1
I1028 17:19:27.380359 29475 net.cpp:84] Creating Layer fire8/relu_squeeze1x1
I1028 17:19:27.380367 29475 net.cpp:413] fire8/relu_squeeze1x1 <- fire8/squeeze1x1
I1028 17:19:27.380375 29475 net.cpp:374] fire8/relu_squeeze1x1 -> fire8/squeeze1x1 (in-place)
I1028 17:19:27.381742 29475 net.cpp:127] Setting up fire8/relu_squeeze1x1
I1028 17:19:27.381760 29475 net.cpp:136] Top shape: 128 64 14 14 (1605632)
I1028 17:19:27.381767 29475 net.cpp:144] Memory required for data: 3536369664
I1028 17:19:27.381772 29475 layer_factory.hpp:77] Creating layer fire8/squeeze1x1_fire8/relu_squeeze1x1_0_split
I1028 17:19:27.381780 29475 net.cpp:84] Creating Layer fire8/squeeze1x1_fire8/relu_squeeze1x1_0_split
I1028 17:19:27.381785 29475 net.cpp:413] fire8/squeeze1x1_fire8/relu_squeeze1x1_0_split <- fire8/squeeze1x1
I1028 17:19:27.381794 29475 net.cpp:387] fire8/squeeze1x1_fire8/relu_squeeze1x1_0_split -> fire8/squeeze1x1_fire8/relu_squeeze1x1_0_split_0
I1028 17:19:27.381804 29475 net.cpp:387] fire8/squeeze1x1_fire8/relu_squeeze1x1_0_split -> fire8/squeeze1x1_fire8/relu_squeeze1x1_0_split_1
I1028 17:19:27.381856 29475 net.cpp:127] Setting up fire8/squeeze1x1_fire8/relu_squeeze1x1_0_split
I1028 17:19:27.381865 29475 net.cpp:136] Top shape: 128 64 14 14 (1605632)
I1028 17:19:27.381870 29475 net.cpp:136] Top shape: 128 64 14 14 (1605632)
I1028 17:19:27.381875 29475 net.cpp:144] Memory required for data: 3549214720
I1028 17:19:27.381880 29475 layer_factory.hpp:77] Creating layer fire8/expand1x1
I1028 17:19:27.381894 29475 net.cpp:84] Creating Layer fire8/expand1x1
I1028 17:19:27.381899 29475 net.cpp:413] fire8/expand1x1 <- fire8/squeeze1x1_fire8/relu_squeeze1x1_0_split_0
I1028 17:19:27.381906 29475 net.cpp:387] fire8/expand1x1 -> fire8/expand1x1
I1028 17:19:27.382359 29475 net.cpp:127] Setting up fire8/expand1x1
I1028 17:19:27.382371 29475 net.cpp:136] Top shape: 128 256 14 14 (6422528)
I1028 17:19:27.382382 29475 net.cpp:144] Memory required for data: 3574904832
I1028 17:19:27.382390 29475 net.cpp:453] Found INQ layer:fire8/expand1x1, type: INQConvolution, layer id:57
I1028 17:19:27.382412 29475 net.cpp:453] Found INQ layer:fire8/expand1x1, type: INQConvolution, layer id:57
I1028 17:19:27.382422 29475 net.cpp:453] Found INQ layer:fire8/expand1x1, type: INQConvolution, layer id:57
I1028 17:19:27.382428 29475 net.cpp:453] Found INQ layer:fire8/expand1x1, type: INQConvolution, layer id:57
I1028 17:19:27.382432 29475 layer_factory.hpp:77] Creating layer fire8/relu_expand1x1
I1028 17:19:27.382441 29475 net.cpp:84] Creating Layer fire8/relu_expand1x1
I1028 17:19:27.382446 29475 net.cpp:413] fire8/relu_expand1x1 <- fire8/expand1x1
I1028 17:19:27.382452 29475 net.cpp:374] fire8/relu_expand1x1 -> fire8/expand1x1 (in-place)
I1028 17:19:27.382658 29475 net.cpp:127] Setting up fire8/relu_expand1x1
I1028 17:19:27.382670 29475 net.cpp:136] Top shape: 128 256 14 14 (6422528)
I1028 17:19:27.382675 29475 net.cpp:144] Memory required for data: 3600594944
I1028 17:19:27.382681 29475 layer_factory.hpp:77] Creating layer fire8/expand3x3
I1028 17:19:27.382694 29475 net.cpp:84] Creating Layer fire8/expand3x3
I1028 17:19:27.382699 29475 net.cpp:413] fire8/expand3x3 <- fire8/squeeze1x1_fire8/relu_squeeze1x1_0_split_1
I1028 17:19:27.382710 29475 net.cpp:387] fire8/expand3x3 -> fire8/expand3x3
I1028 17:19:27.385493 29475 net.cpp:127] Setting up fire8/expand3x3
I1028 17:19:27.385512 29475 net.cpp:136] Top shape: 128 256 14 14 (6422528)
I1028 17:19:27.385517 29475 net.cpp:144] Memory required for data: 3626285056
I1028 17:19:27.385524 29475 net.cpp:453] Found INQ layer:fire8/expand3x3, type: INQConvolution, layer id:59
I1028 17:19:27.385531 29475 net.cpp:453] Found INQ layer:fire8/expand3x3, type: INQConvolution, layer id:59
I1028 17:19:27.385537 29475 net.cpp:453] Found INQ layer:fire8/expand3x3, type: INQConvolution, layer id:59
I1028 17:19:27.385542 29475 net.cpp:453] Found INQ layer:fire8/expand3x3, type: INQConvolution, layer id:59
I1028 17:19:27.385547 29475 layer_factory.hpp:77] Creating layer fire8/relu_expand3x3
I1028 17:19:27.385558 29475 net.cpp:84] Creating Layer fire8/relu_expand3x3
I1028 17:19:27.385565 29475 net.cpp:413] fire8/relu_expand3x3 <- fire8/expand3x3
I1028 17:19:27.385572 29475 net.cpp:374] fire8/relu_expand3x3 -> fire8/expand3x3 (in-place)
I1028 17:19:27.385792 29475 net.cpp:127] Setting up fire8/relu_expand3x3
I1028 17:19:27.385804 29475 net.cpp:136] Top shape: 128 256 14 14 (6422528)
I1028 17:19:27.385809 29475 net.cpp:144] Memory required for data: 3651975168
I1028 17:19:27.385815 29475 layer_factory.hpp:77] Creating layer fire8/concat
I1028 17:19:27.385825 29475 net.cpp:84] Creating Layer fire8/concat
I1028 17:19:27.385830 29475 net.cpp:413] fire8/concat <- fire8/expand1x1
I1028 17:19:27.385836 29475 net.cpp:413] fire8/concat <- fire8/expand3x3
I1028 17:19:27.385843 29475 net.cpp:387] fire8/concat -> fire8/concat
I1028 17:19:27.385877 29475 net.cpp:127] Setting up fire8/concat
I1028 17:19:27.385885 29475 net.cpp:136] Top shape: 128 512 14 14 (12845056)
I1028 17:19:27.385890 29475 net.cpp:144] Memory required for data: 3703355392
I1028 17:19:27.385895 29475 layer_factory.hpp:77] Creating layer fire9/squeeze1x1
I1028 17:19:27.385905 29475 net.cpp:84] Creating Layer fire9/squeeze1x1
I1028 17:19:27.385910 29475 net.cpp:413] fire9/squeeze1x1 <- fire8/concat
I1028 17:19:27.385921 29475 net.cpp:387] fire9/squeeze1x1 -> fire9/squeeze1x1
I1028 17:19:27.386503 29475 net.cpp:127] Setting up fire9/squeeze1x1
I1028 17:19:27.386514 29475 net.cpp:136] Top shape: 128 64 14 14 (1605632)
I1028 17:19:27.386519 29475 net.cpp:144] Memory required for data: 3709777920
I1028 17:19:27.386526 29475 net.cpp:453] Found INQ layer:fire9/squeeze1x1, type: INQConvolution, layer id:62
I1028 17:19:27.386533 29475 net.cpp:453] Found INQ layer:fire9/squeeze1x1, type: INQConvolution, layer id:62
I1028 17:19:27.386538 29475 net.cpp:453] Found INQ layer:fire9/squeeze1x1, type: INQConvolution, layer id:62
I1028 17:19:27.386544 29475 net.cpp:453] Found INQ layer:fire9/squeeze1x1, type: INQConvolution, layer id:62
I1028 17:19:27.386555 29475 layer_factory.hpp:77] Creating layer fire9/relu_squeeze1x1
I1028 17:19:27.386579 29475 net.cpp:84] Creating Layer fire9/relu_squeeze1x1
I1028 17:19:27.386585 29475 net.cpp:413] fire9/relu_squeeze1x1 <- fire9/squeeze1x1
I1028 17:19:27.386591 29475 net.cpp:374] fire9/relu_squeeze1x1 -> fire9/squeeze1x1 (in-place)
I1028 17:19:27.386804 29475 net.cpp:127] Setting up fire9/relu_squeeze1x1
I1028 17:19:27.386816 29475 net.cpp:136] Top shape: 128 64 14 14 (1605632)
I1028 17:19:27.386821 29475 net.cpp:144] Memory required for data: 3716200448
I1028 17:19:27.386827 29475 layer_factory.hpp:77] Creating layer fire9/squeeze1x1_fire9/relu_squeeze1x1_0_split
I1028 17:19:27.386842 29475 net.cpp:84] Creating Layer fire9/squeeze1x1_fire9/relu_squeeze1x1_0_split
I1028 17:19:27.386848 29475 net.cpp:413] fire9/squeeze1x1_fire9/relu_squeeze1x1_0_split <- fire9/squeeze1x1
I1028 17:19:27.386855 29475 net.cpp:387] fire9/squeeze1x1_fire9/relu_squeeze1x1_0_split -> fire9/squeeze1x1_fire9/relu_squeeze1x1_0_split_0
I1028 17:19:27.386867 29475 net.cpp:387] fire9/squeeze1x1_fire9/relu_squeeze1x1_0_split -> fire9/squeeze1x1_fire9/relu_squeeze1x1_0_split_1
I1028 17:19:27.386914 29475 net.cpp:127] Setting up fire9/squeeze1x1_fire9/relu_squeeze1x1_0_split
I1028 17:19:27.386924 29475 net.cpp:136] Top shape: 128 64 14 14 (1605632)
I1028 17:19:27.386929 29475 net.cpp:136] Top shape: 128 64 14 14 (1605632)
I1028 17:19:27.386935 29475 net.cpp:144] Memory required for data: 3729045504
I1028 17:19:27.386940 29475 layer_factory.hpp:77] Creating layer fire9/expand1x1
I1028 17:19:27.386951 29475 net.cpp:84] Creating Layer fire9/expand1x1
I1028 17:19:27.386956 29475 net.cpp:413] fire9/expand1x1 <- fire9/squeeze1x1_fire9/relu_squeeze1x1_0_split_0
I1028 17:19:27.386965 29475 net.cpp:387] fire9/expand1x1 -> fire9/expand1x1
I1028 17:19:27.387416 29475 net.cpp:127] Setting up fire9/expand1x1
I1028 17:19:27.387428 29475 net.cpp:136] Top shape: 128 256 14 14 (6422528)
I1028 17:19:27.387432 29475 net.cpp:144] Memory required for data: 3754735616
I1028 17:19:27.387439 29475 net.cpp:453] Found INQ layer:fire9/expand1x1, type: INQConvolution, layer id:65
I1028 17:19:27.387445 29475 net.cpp:453] Found INQ layer:fire9/expand1x1, type: INQConvolution, layer id:65
I1028 17:19:27.387451 29475 net.cpp:453] Found INQ layer:fire9/expand1x1, type: INQConvolution, layer id:65
I1028 17:19:27.387456 29475 net.cpp:453] Found INQ layer:fire9/expand1x1, type: INQConvolution, layer id:65
I1028 17:19:27.387461 29475 layer_factory.hpp:77] Creating layer fire9/relu_expand1x1
I1028 17:19:27.387471 29475 net.cpp:84] Creating Layer fire9/relu_expand1x1
I1028 17:19:27.387478 29475 net.cpp:413] fire9/relu_expand1x1 <- fire9/expand1x1
I1028 17:19:27.387485 29475 net.cpp:374] fire9/relu_expand1x1 -> fire9/expand1x1 (in-place)
I1028 17:19:27.388859 29475 net.cpp:127] Setting up fire9/relu_expand1x1
I1028 17:19:27.388878 29475 net.cpp:136] Top shape: 128 256 14 14 (6422528)
I1028 17:19:27.388885 29475 net.cpp:144] Memory required for data: 3780425728
I1028 17:19:27.388891 29475 layer_factory.hpp:77] Creating layer fire9/expand3x3
I1028 17:19:27.388902 29475 net.cpp:84] Creating Layer fire9/expand3x3
I1028 17:19:27.388911 29475 net.cpp:413] fire9/expand3x3 <- fire9/squeeze1x1_fire9/relu_squeeze1x1_0_split_1
I1028 17:19:27.388921 29475 net.cpp:387] fire9/expand3x3 -> fire9/expand3x3
I1028 17:19:27.390416 29475 net.cpp:127] Setting up fire9/expand3x3
I1028 17:19:27.390429 29475 net.cpp:136] Top shape: 128 256 14 14 (6422528)
I1028 17:19:27.390434 29475 net.cpp:144] Memory required for data: 3806115840
I1028 17:19:27.390440 29475 net.cpp:453] Found INQ layer:fire9/expand3x3, type: INQConvolution, layer id:67
I1028 17:19:27.390447 29475 net.cpp:453] Found INQ layer:fire9/expand3x3, type: INQConvolution, layer id:67
I1028 17:19:27.390452 29475 net.cpp:453] Found INQ layer:fire9/expand3x3, type: INQConvolution, layer id:67
I1028 17:19:27.390457 29475 net.cpp:453] Found INQ layer:fire9/expand3x3, type: INQConvolution, layer id:67
I1028 17:19:27.390470 29475 layer_factory.hpp:77] Creating layer fire9/relu_expand3x3
I1028 17:19:27.390493 29475 net.cpp:84] Creating Layer fire9/relu_expand3x3
I1028 17:19:27.390499 29475 net.cpp:413] fire9/relu_expand3x3 <- fire9/expand3x3
I1028 17:19:27.390506 29475 net.cpp:374] fire9/relu_expand3x3 -> fire9/expand3x3 (in-place)
I1028 17:19:27.390709 29475 net.cpp:127] Setting up fire9/relu_expand3x3
I1028 17:19:27.390722 29475 net.cpp:136] Top shape: 128 256 14 14 (6422528)
I1028 17:19:27.390727 29475 net.cpp:144] Memory required for data: 3831805952
I1028 17:19:27.390733 29475 layer_factory.hpp:77] Creating layer fire9/concat
I1028 17:19:27.390743 29475 net.cpp:84] Creating Layer fire9/concat
I1028 17:19:27.390748 29475 net.cpp:413] fire9/concat <- fire9/expand1x1
I1028 17:19:27.390753 29475 net.cpp:413] fire9/concat <- fire9/expand3x3
I1028 17:19:27.390760 29475 net.cpp:387] fire9/concat -> fire9/concat
I1028 17:19:27.390792 29475 net.cpp:127] Setting up fire9/concat
I1028 17:19:27.390800 29475 net.cpp:136] Top shape: 128 512 14 14 (12845056)
I1028 17:19:27.390805 29475 net.cpp:144] Memory required for data: 3883186176
I1028 17:19:27.390810 29475 layer_factory.hpp:77] Creating layer drop9
I1028 17:19:27.390820 29475 net.cpp:84] Creating Layer drop9
I1028 17:19:27.390825 29475 net.cpp:413] drop9 <- fire9/concat
I1028 17:19:27.390835 29475 net.cpp:374] drop9 -> fire9/concat (in-place)
I1028 17:19:27.390869 29475 net.cpp:127] Setting up drop9
I1028 17:19:27.390877 29475 net.cpp:136] Top shape: 128 512 14 14 (12845056)
I1028 17:19:27.390882 29475 net.cpp:144] Memory required for data: 3934566400
I1028 17:19:27.390887 29475 layer_factory.hpp:77] Creating layer conv10
I1028 17:19:27.390898 29475 net.cpp:84] Creating Layer conv10
I1028 17:19:27.390903 29475 net.cpp:413] conv10 <- fire9/concat
I1028 17:19:27.390913 29475 net.cpp:387] conv10 -> conv10
I1028 17:19:27.400362 29475 net.cpp:127] Setting up conv10
I1028 17:19:27.400382 29475 net.cpp:136] Top shape: 128 1000 14 14 (25088000)
I1028 17:19:27.400388 29475 net.cpp:144] Memory required for data: 4034918400
I1028 17:19:27.400396 29475 net.cpp:453] Found INQ layer:conv10, type: INQConvolution, layer id:71
I1028 17:19:27.400403 29475 net.cpp:453] Found INQ layer:conv10, type: INQConvolution, layer id:71
I1028 17:19:27.400409 29475 net.cpp:453] Found INQ layer:conv10, type: INQConvolution, layer id:71
I1028 17:19:27.400415 29475 net.cpp:453] Found INQ layer:conv10, type: INQConvolution, layer id:71
I1028 17:19:27.400423 29475 layer_factory.hpp:77] Creating layer relu_conv10
I1028 17:19:27.400434 29475 net.cpp:84] Creating Layer relu_conv10
I1028 17:19:27.400439 29475 net.cpp:413] relu_conv10 <- conv10
I1028 17:19:27.400449 29475 net.cpp:374] relu_conv10 -> conv10 (in-place)
I1028 17:19:27.400681 29475 net.cpp:127] Setting up relu_conv10
I1028 17:19:27.400693 29475 net.cpp:136] Top shape: 128 1000 14 14 (25088000)
I1028 17:19:27.400698 29475 net.cpp:144] Memory required for data: 4135270400
I1028 17:19:27.400705 29475 layer_factory.hpp:77] Creating layer pool10
I1028 17:19:27.400713 29475 net.cpp:84] Creating Layer pool10
I1028 17:19:27.400718 29475 net.cpp:413] pool10 <- conv10
I1028 17:19:27.400727 29475 net.cpp:387] pool10 -> pool10
I1028 17:19:27.400967 29475 net.cpp:127] Setting up pool10
I1028 17:19:27.400980 29475 net.cpp:136] Top shape: 128 1000 1 1 (128000)
I1028 17:19:27.400988 29475 net.cpp:144] Memory required for data: 4135782400
I1028 17:19:27.400995 29475 layer_factory.hpp:77] Creating layer loss
I1028 17:19:27.401005 29475 net.cpp:84] Creating Layer loss
I1028 17:19:27.401010 29475 net.cpp:413] loss <- pool10
I1028 17:19:27.401017 29475 net.cpp:413] loss <- label
I1028 17:19:27.401026 29475 net.cpp:387] loss -> loss
I1028 17:19:27.401039 29475 layer_factory.hpp:77] Creating layer loss
…
I1028 17:19:27.406343 29475 net.cpp:301] The NetState phase (1) differed from the phase (0) specified by a rule in layer data
I1028 17:19:27.407100 29475 net.cpp:51] Initializing net from parameters: 
name: "SqueezeNet"
state {
  phase: TEST
}
layer {
  name: "data"
  type: "Data"
  top: "data"
  top: "label"
  include {
    phase: TEST
  }
  transform_param {
    crop_size: 227
    mean_value: 104
    mean_value: 117
    mean_value: 123
  }
  data_param {
    source: "/home/data/caffe-imagenet/ilsvrc12_val_lmdb"
    batch_size: 50
    backend: LMDB
  }
}
layer {
  name: "conv1"
  type: "INQConvolution"
  bottom: "data"
  top: "conv1"
  convolution_param {
    num_output: 64
    kernel_size: 3
    stride: 2
    weight_filler {
      type: "xavier"
    }
  }
  inq_convolution_param {
    portion: 0.2
    portion: 0.4
    weight_mask_filler {
      type: "constant"
      value: 1
    }
    bias_mask_filler {
      type: "constant"
      value: 1
    }
    num_quantum_values: 7
  }
}
layer {
  name: "relu_conv1"
  type: "ReLU"
  bottom: "conv1"
  top: "conv1"
}
layer {
  name: "pool1"
  type: "Pooling"
  bottom: "conv1"
  top: "pool1"
  pooling_param {
    pool: MAX
    kernel_size: 3
    stride: 2
  }
}
layer {
  name: "fire2/squeeze1x1"
  type: "INQConvolution"
  bottom: "pool1"
  top: "fire2/squeeze1x1"
  convolution_param {
    num_output: 16
    kernel_size: 1
    weight_filler {
      type: "xavier"
    }
  }
  inq_convolution_param {
    portion: 0.2
    portion: 0.4
    weight_mask_filler {
      type: "constant"
      value: 1
    }
    bias_mask_filler {
      type: "constant"
      value: 1
    }
    num_quantum_values: 7
  }
}
layer {
  name: "fire2/relu_squeeze1x1"
  type: "ReLU"
  bottom: "fire2/squeeze1x1"
  top: "fire2/squeeze1x1"
}
layer {
  name: "fire2/expand1x1"
  type: "INQConvolution"
  bottom: "fire2/squeeze1x1"
  top: "fire2/expand1x1"
  convolution_param {
    num_output: 64
    kernel_size: 1
    weight_filler {
      type: "xavier"
    }
  }
  inq_convolution_param {
    portion: 0.2
    portion: 0.4
    weight_mask_filler {
      type: "constant"
      value: 1
    }
    bias_mask_filler {
      type: "constant"
      value: 1
    }
    num_quantum_values: 7
  }
}
layer {
  name: "fire2/relu_expand1x1"
  type: "ReLU"
  bottom: "fire2/expand1x1"
  top: "fire2/expand1x1"
}
layer {
  name: "fire2/expand3x3"
  type: "INQConvolution"
  bottom: "fire2/squeeze1x1"
  top: "fire2/expand3x3"
  convolution_param {
    num_output: 64
    pad: 1
    kernel_size: 3
    weight_filler {
      type: "xavier"
    }
  }
  inq_convolution_param {
    portion: 0.2
    portion: 0.4
    weight_mask_filler {
      type: "constant"
      value: 1
    }
    bias_mask_filler {
      type: "constant"
      value: 1
    }
    num_quantum_values: 7
  }
}
layer {
  name: "fire2/relu_expand3x3"
  type: "ReLU"
  bottom: "fire2/expand3x3"
  top: "fire2/expand3x3"
}
layer {
  name: "fire2/concat"
  type: "Concat"
  bottom: "fire2/expand1x1"
  bottom: "fire2/expand3x3"
  top: "fire2/concat"
}
layer {
  name: "fire3/squeeze1x1"
  type: "INQConvolution"
  bottom: "fire2/concat"
  top: "fire3/squeeze1x1"
  convolution_param {
    num_output: 16
    kernel_size: 1
    weight_filler {
      type: "xavier"
    }
  }
  inq_convolution_param {
    portion: 0.2
    portion: 0.4
    weight_mask_filler {
      type: "constant"
      value: 1
    }
    bias_mask_filler {
      type: "constant"
      value: 1
    }
    num_quantum_values: 7
  }
}
layer {
  name: "fire3/relu_squeeze1x1"
  type: "ReLU"
  bottom: "fire3/squeeze1x1"
  top: "fire3/squeeze1x1"
}
layer {
  name: "fire3/expand1x1"
  type: "INQConvolution"
  bottom: "fire3/squeeze1x1"
  top: "fire3/expand1x1"
  convolution_param {
    num_output: 64
    kernel_size: 1
    weight_filler {
      type: "xavier"
    }
  }
  inq_convolution_param {
    portion: 0.2
    portion: 0.4
    weight_mask_filler {
      type: "constant"
      value: 1
    }
    bias_mask_filler {
      type: "constant"
      value: 1
    }
    num_quantum_values: 7
  }
}
layer {
  name: "fire3/relu_expand1x1"
  type: "ReLU"
  bottom: "fire3/expand1x1"
  top: "fire3/expand1x1"
}
layer {
  name: "fire3/expand3x3"
  type: "INQConvolution"
  bottom: "fire3/squeeze1x1"
  top: "fire3/expand3x3"
  convolution_param {
    num_output: 64
    pad: 1
    kernel_size: 3
    weight_filler {
      type: "xavier"
    }
  }
  inq_convolution_param {
    portion: 0.2
    portion: 0.4
    weight_mask_filler {
      type: "constant"
      value: 1
    }
    bias_mask_filler {
      type: "constant"
      value: 1
    }
    num_quantum_values: 7
  }
}
layer {
  name: "fire3/relu_expand3x3"
  type: "ReLU"
  bottom: "fire3/expand3x3"
  top: "fire3/expand3x3"
}
layer {
  name: "fire3/concat"
  type: "Concat"
  bottom: "fire3/expand1x1"
  bottom: "fire3/expand3x3"
  top: "fire3/concat"
}
layer {
  name: "pool3"
  type: "Pooling"
  bottom: "fire3/concat"
  top: "pool3"
  pooling_param {
    pool: MAX
    kernel_size: 3
    stride: 2
  }
}
layer {
  name: "fire4/squeeze1x1"
  type: "INQConvolution"
  bottom: "pool3"
  top: "fire4/squeeze1x1"
  convolution_param {
    num_output: 32
    kernel_size: 1
    weight_filler {
      type: "xavier"
    }
  }
  inq_convolution_param {
    portion: 0.2
    portion: 0.4
    weight_mask_filler {
      type: "constant"
      value: 1
    }
    bias_mask_filler {
      type: "constant"
      value: 1
    }
    num_quantum_values: 7
  }
}
layer {
  name: "fire4/relu_squeeze1x1"
  type: "ReLU"
  bottom: "fire4/squeeze1x1"
  top: "fire4/squeeze1x1"
}
layer {
  name: "fire4/expand1x1"
  type: "INQConvolution"
  bottom: "fire4/squeeze1x1"
  top: "fire4/expand1x1"
  convolution_param {
    num_output: 128
    kernel_size: 1
    weight_filler {
      type: "xavier"
    }
  }
  inq_convolution_param {
    portion: 0.2
    portion: 0.4
    weight_mask_filler {
      type: "constant"
      value: 1
    }
    bias_mask_filler {
      type: "constant"
      value: 1
    }
    num_quantum_values: 7
  }
}
layer {
  name: "fire4/relu_expand1x1"
  type: "ReLU"
  bottom: "fire4/expand1x1"
  top: "fire4/expand1x1"
}
layer {
  name: "fire4/expand3x3"
  type: "INQConvolution"
  bottom: "fire4/squeeze1x1"
  top: "fire4/expand3x3"
  convolution_param {
    num_output: 128
    pad: 1
    kernel_size: 3
    weight_filler {
      type: "xavier"
    }
  }
  inq_convolution_param {
    portion: 0.2
    portion: 0.4
    weight_mask_filler {
      type: "constant"
      value: 1
    }
    bias_mask_filler {
      type: "constant"
      value: 1
    }
    num_quantum_values: 7
  }
}
layer {
  name: "fire4/relu_expand3x3"
  type: "ReLU"
  bottom: "fire4/expand3x3"
  top: "fire4/expand3x3"
}
layer {
  name: "fire4/concat"
  type: "Concat"
  bottom: "fire4/expand1x1"
  bottom: "fire4/expand3x3"
  top: "fire4/concat"
}
layer {
  name: "fire5/squeeze1x1"
  type: "INQConvolution"
  bottom: "fire4/concat"
  top: "fire5/squeeze1x1"
  convolution_param {
    num_output: 32
    kernel_size: 1
    weight_filler {
      type: "xavier"
    }
  }
  inq_convolution_param {
    portion: 0.2
    portion: 0.4
    weight_mask_filler {
      type: "constant"
      value: 1
    }
    bias_mask_filler {
      type: "constant"
      value: 1
    }
    num_quantum_values: 7
  }
}
layer {
  name: "fire5/relu_squeeze1x1"
  type: "ReLU"
  bottom: "fire5/squeeze1x1"
  top: "fire5/squeeze1x1"
}
layer {
  name: "fire5/expand1x1"
  type: "INQConvolution"
  bottom: "fire5/squeeze1x1"
  top: "fire5/expand1x1"
  convolution_param {
    num_output: 128
    kernel_size: 1
    weight_filler {
      type: "xavier"
    }
  }
  inq_convolution_param {
    portion: 0.2
    portion: 0.4
    weight_mask_filler {
      type: "constant"
      value: 1
    }
    bias_mask_filler {
      type: "constant"
      value: 1
    }
    num_quantum_values: 7
  }
}
layer {
  name: "fire5/relu_expand1x1"
  type: "ReLU"
  bottom: "fire5/expand1x1"
  top: "fire5/expand1x1"
}
layer {
  name: "fire5/expand3x3"
  type: "INQConvolution"
  bottom: "fire5/squeeze1x1"
  top: "fire5/expand3x3"
  convolution_param {
    num_output: 128
    pad: 1
    kernel_size: 3
    weight_filler {
      type: "xavier"
    }
  }
  inq_convolution_param {
    portion: 0.2
    portion: 0.4
    weight_mask_filler {
      type: "constant"
      value: 1
    }
    bias_mask_filler {
      type: "constant"
      value: 1
    }
    num_quantum_values: 7
  }
}
layer {
  name: "fire5/relu_expand3x3"
  type: "ReLU"
  bottom: "fire5/expand3x3"
  top: "fire5/expand3x3"
}
layer {
  name: "fire5/concat"
  type: "Concat"
  bottom: "fire5/expand1x1"
  bottom: "fire5/expand3x3"
  top: "fire5/concat"
}
layer {
  name: "pool5"
  type: "Pooling"
  bottom: "fire5/concat"
  top: "pool5"
  pooling_param {
    pool: MAX
    kernel_size: 3
    stride: 2
  }
}
layer {
  name: "fire6/squeeze1x1"
  type: "INQConvolution"
  bottom: "pool5"
  top: "fire6/squeeze1x1"
  convolution_param {
    num_output: 48
    kernel_size: 1
    weight_filler {
      type: "xavier"
    }
  }
  inq_convolution_param {
    portion: 0.2
    portion: 0.4
    weight_mask_filler {
      type: "constant"
      value: 1
    }
    bias_mask_filler {
      type: "constant"
      value: 1
    }
    num_quantum_values: 7
  }
}
layer {
  name: "fire6/relu_squeeze1x1"
  type: "ReLU"
  bottom: "fire6/squeeze1x1"
  top: "fire6/squeeze1x1"
}
layer {
  name: "fire6/expand1x1"
  type: "INQConvolution"
  bottom: "fire6/squeeze1x1"
  top: "fire6/expand1x1"
  convolution_param {
    num_output: 192
    kernel_size: 1
    weight_filler {
      type: "xavier"
    }
  }
  inq_convolution_param {
    portion: 0.2
    portion: 0.4
    weight_mask_filler {
      type: "constant"
      value: 1
    }
    bias_mask_filler {
      type: "constant"
      value: 1
    }
    num_quantum_values: 7
  }
}
layer {
  name: "fire6/relu_expand1x1"
  type: "ReLU"
  bottom: "fire6/expand1x1"
  top: "fire6/expand1x1"
}
layer {
  name: "fire6/expand3x3"
  type: "INQConvolution"
  bottom: "fire6/squeeze1x1"
  top: "fire6/expand3x3"
  convolution_param {
    num_output: 192
    pad: 1
    kernel_size: 3
    weight_filler {
      type: "xavier"
    }
  }
  inq_convolution_param {
    portion: 0.2
    portion: 0.4
    weight_mask_filler {
      type: "constant"
      value: 1
    }
    bias_mask_filler {
      type: "constant"
      value: 1
    }
    num_quantum_values: 7
  }
}
layer {
  name: "fire6/relu_expand3x3"
  type: "ReLU"
  bottom: "fire6/expand3x3"
  top: "fire6/expand3x3"
}
layer {
  name: "fire6/concat"
  type: "Concat"
  bottom: "fire6/expand1x1"
  bottom: "fire6/expand3x3"
  top: "fire6/concat"
}
layer {
  name: "fire7/squeeze1x1"
  type: "INQConvolution"
  bottom: "fire6/concat"
  top: "fire7/squeeze1x1"
  convolution_param {
    num_output: 48
    kernel_size: 1
    weight_filler {
      type: "xavier"
    }
  }
  inq_convolution_param {
    portion: 0.2
    portion: 0.4
    weight_mask_filler {
      type: "constant"
      value: 1
    }
    bias_mask_filler {
      type: "constant"
      value: 1
    }
    num_quantum_values: 7
  }
}
layer {
  name: "fire7/relu_squeeze1x1"
  type: "ReLU"
  bottom: "fire7/squeeze1x1"
  top: "fire7/squeeze1x1"
}
layer {
  name: "fire7/expand1x1"
  type: "INQConvolution"
  bottom: "fire7/squeeze1x1"
  top: "fire7/expand1x1"
  convolution_param {
    num_output: 192
    kernel_size: 1
    weight_filler {
      type: "xavier"
    }
  }
  inq_convolution_param {
    portion: 0.2
    portion: 0.4
    weight_mask_filler {
      type: "constant"
      value: 1
    }
    bias_mask_filler {
      type: "constant"
      value: 1
    }
    num_quantum_values: 7
  }
}
layer {
  name: "fire7/relu_expand1x1"
  type: "ReLU"
  bottom: "fire7/expand1x1"
  top: "fire7/expand1x1"
}
layer {
  name: "fire7/expand3x3"
  type: "INQConvolution"
  bottom: "fire7/squeeze1x1"
  top: "fire7/expand3x3"
  convolution_param {
    num_output: 192
    pad: 1
    kernel_size: 3
    weight_filler {
      type: "xavier"
    }
  }
  inq_convolution_param {
    portion: 0.2
    portion: 0.4
    weight_mask_filler {
      type: "constant"
      value: 1
    }
    bias_mask_filler {
      type: "constant"
      value: 1
    }
    num_quantum_values: 7
  }
}
layer {
  name: "fire7/relu_expand3x3"
  type: "ReLU"
  bottom: "fire7/expand3x3"
  top: "fire7/expand3x3"
}
layer {
  name: "fire7/concat"
  type: "Concat"
  bottom: "fire7/expand1x1"
  bottom: "fire7/expand3x3"
  top: "fire7/concat"
}
layer {
  name: "fire8/squeeze1x1"
  type: "INQConvolution"
  bottom: "fire7/concat"
  top: "fire8/squeeze1x1"
  convolution_param {
    num_output: 64
    kernel_size: 1
    weight_filler {
      type: "xavier"
    }
  }
  inq_convolution_param {
    portion: 0.2
    portion: 0.4
    weight_mask_filler {
      type: "constant"
      value: 1
    }
    bias_mask_filler {
      type: "constant"
      value: 1
    }
    num_quantum_values: 7
  }
}
layer {
  name: "fire8/relu_squeeze1x1"
  type: "ReLU"
  bottom: "fire8/squeeze1x1"
  top: "fire8/squeeze1x1"
}
layer {
  name: "fire8/expand1x1"
  type: "INQConvolution"
  bottom: "fire8/squeeze1x1"
  top: "fire8/expand1x1"
  convolution_param {
    num_output: 256
    kernel_size: 1
    weight_filler {
      type: "xavier"
    }
  }
  inq_convolution_param {
    portion: 0.2
    portion: 0.4
    weight_mask_filler {
      type: "constant"
      value: 1
    }
    bias_mask_filler {
      type: "constant"
      value: 1
    }
    num_quantum_values: 7
  }
}
layer {
  name: "fire8/relu_expand1x1"
  type: "ReLU"
  bottom: "fire8/expand1x1"
  top: "fire8/expand1x1"
}
layer {
  name: "fire8/expand3x3"
  type: "INQConvolution"
  bottom: "fire8/squeeze1x1"
  top: "fire8/expand3x3"
  convolution_param {
    num_output: 256
    pad: 1
    kernel_size: 3
    weight_filler {
      type: "xavier"
    }
  }
  inq_convolution_param {
    portion: 0.2
    portion: 0.4
    weight_mask_filler {
      type: "constant"
      value: 1
    }
    bias_mask_filler {
      type: "constant"
      value: 1
    }
    num_quantum_values: 7
  }
}
layer {
  name: "fire8/relu_expand3x3"
  type: "ReLU"
  bottom: "fire8/expand3x3"
  top: "fire8/expand3x3"
}
layer {
  name: "fire8/concat"
  type: "Concat"
  bottom: "fire8/expand1x1"
  bottom: "fire8/expand3x3"
  top: "fire8/concat"
}
layer {
  name: "fire9/squeeze1x1"
  type: "INQConvolution"
  bottom: "fire8/concat"
  top: "fire9/squeeze1x1"
  convolution_param {
    num_output: 64
    kernel_size: 1
    weight_filler {
      type: "xavier"
    }
  }
  inq_convolution_param {
    portion: 0.2
    portion: 0.4
    weight_mask_filler {
      type: "constant"
      value: 1
    }
    bias_mask_filler {
      type: "constant"
      value: 1
    }
    num_quantum_values: 7
  }
}
layer {
  name: "fire9/relu_squeeze1x1"
  type: "ReLU"
  bottom: "fire9/squeeze1x1"
  top: "fire9/squeeze1x1"
}
layer {
  name: "fire9/expand1x1"
  type: "INQConvolution"
  bottom: "fire9/squeeze1x1"
  top: "fire9/expand1x1"
  convolution_param {
    num_output: 256
    kernel_size: 1
    weight_filler {
      type: "xavier"
    }
  }
  inq_convolution_param {
    portion: 0.2
    portion: 0.4
    weight_mask_filler {
      type: "constant"
      value: 1
    }
    bias_mask_filler {
      type: "constant"
      value: 1
    }
    num_quantum_values: 7
  }
}
layer {
  name: "fire9/relu_expand1x1"
  type: "ReLU"
  bottom: "fire9/expand1x1"
  top: "fire9/expand1x1"
}
layer {
  name: "fire9/expand3x3"
  type: "INQConvolution"
  bottom: "fire9/squeeze1x1"
  top: "fire9/expand3x3"
  convolution_param {
    num_output: 256
    pad: 1
    kernel_size: 3
    weight_filler {
      type: "xavier"
    }
  }
  inq_convolution_param {
    portion: 0.2
    portion: 0.4
    weight_mask_filler {
      type: "constant"
      value: 1
    }
    bias_mask_filler {
      type: "constant"
      value: 1
    }
    num_quantum_values: 7
  }
}
layer {
  name: "fire9/relu_expand3x3"
  type: "ReLU"
  bottom: "fire9/expand3x3"
  top: "fire9/expand3x3"
}
layer {
  name: "fire9/concat"
  type: "Concat"
  bottom: "fire9/expand1x1"
  bottom: "fire9/expand3x3"
  top: "fire9/concat"
}
layer {
  name: "drop9"
  type: "Dropout"
  bottom: "fire9/concat"
  top: "fire9/concat"
  dropout_param {
    dropout_ratio: 0.5
  }
}
layer {
  name: "conv10"
  type: "INQConvolution"
  bottom: "fire9/concat"
  top: "conv10"
  convolution_param {
    num_output: 1000
    kernel_size: 1
    weight_filler {
      type: "gaussian"
      mean: 0
      std: 0.01
    }
  }
  inq_convolution_param {
    portion: 0.2
    portion: 0.4
    weight_mask_filler {
      type: "constant"
      value: 1
    }
    bias_mask_filler {
      type: "constant"
      value: 1
    }
    num_quantum_values: 7
  }
}
layer {
  name: "relu_conv10"
  type: "ReLU"
  bottom: "conv10"
  top: "conv10"
}
layer {
  name: "pool10"
  type: "Pooling"
  bottom: "conv10"
  top: "pool10"
  pooling_param {
    pool: AVE
    global_pooling: true
  }
}
layer {
  name: "loss"
  type: "SoftmaxWithLoss"
  bottom: "pool10"
  bottom: "label"
  top: "loss"
}
layer {
  name: "accuracy_top1"
  type: "Accuracy"
  bottom: "pool10"
  bottom: "label"
  top: "accuracy_top1"
  include {
    phase: TEST
  }
}
layer {
  name: "accuracy_top5"
  type: "Accuracy"
  bottom: "pool10"
  bottom: "label"
  top: "accuracy_top5"
  include {
    phase: TEST
  }
  accuracy_param {
    top_k: 5
  }
}
I1028 17:19:27.407488 29475 layer_factory.hpp:77] Creating layer data
I1028 17:19:27.407567 29475 db_lmdb.cpp:35] Opened lmdb /home/data/caffe-imagenet/ilsvrc12_val_lmdb
I1028 17:19:27.407589 29475 net.cpp:84] Creating Layer data
I1028 17:19:27.407598 29475 net.cpp:387] data -> data
I1028 17:19:27.407613 29475 net.cpp:387] data -> label
I1028 17:19:27.408025 29475 data_layer.cpp:45] output data size: 50,3,227,227
I1028 17:19:27.492040 29475 net.cpp:127] Setting up data
I1028 17:19:27.492089 29475 net.cpp:136] Top shape: 50 3 227 227 (7729350)
I1028 17:19:27.492099 29475 net.cpp:136] Top shape: 50 (50)
I1028 17:19:27.492103 29475 net.cpp:144] Memory required for data: 30917600
I1028 17:19:27.492116 29475 layer_factory.hpp:77] Creating layer label_data_1_split
I1028 17:19:27.492144 29475 net.cpp:84] Creating Layer label_data_1_split
I1028 17:19:27.492154 29475 net.cpp:413] label_data_1_split <- label
I1028 17:19:27.492164 29475 net.cpp:387] label_data_1_split -> label_data_1_split_0
I1028 17:19:27.492179 29475 net.cpp:387] label_data_1_split -> label_data_1_split_1
I1028 17:19:27.492188 29475 net.cpp:387] label_data_1_split -> label_data_1_split_2
I1028 17:19:27.492513 29475 net.cpp:127] Setting up label_data_1_split
I1028 17:19:27.492528 29475 net.cpp:136] Top shape: 50 (50)
I1028 17:19:27.492534 29475 net.cpp:136] Top shape: 50 (50)
I1028 17:19:27.492542 29475 net.cpp:136] Top shape: 50 (50)
I1028 17:19:27.492547 29475 net.cpp:144] Memory required for data: 30918200
I1028 17:19:27.492552 29475 layer_factory.hpp:77] Creating layer conv1
I1028 17:19:27.492574 29475 net.cpp:84] Creating Layer conv1
I1028 17:19:27.492579 29475 net.cpp:413] conv1 <- data
I1028 17:19:27.492588 29475 net.cpp:387] conv1 -> conv1
I1028 17:19:27.493007 29475 net.cpp:127] Setting up conv1
I1028 17:19:27.493019 29475 net.cpp:136] Top shape: 50 64 113 113 (40860800)
I1028 17:19:27.493024 29475 net.cpp:144] Memory required for data: 194361400
I1028 17:19:27.493034 29475 net.cpp:453] Found INQ layer:conv1, type: INQConvolution, layer id:2
I1028 17:19:27.493044 29475 net.cpp:453] Found INQ layer:conv1, type: INQConvolution, layer id:2
I1028 17:19:27.493053 29475 net.cpp:453] Found INQ layer:conv1, type: INQConvolution, layer id:2
I1028 17:19:27.493060 29475 net.cpp:453] Found INQ layer:conv1, type: INQConvolution, layer id:2
I1028 17:19:27.493067 29475 layer_factory.hpp:77] Creating layer relu_conv1
I1028 17:19:27.493080 29475 net.cpp:84] Creating Layer relu_conv1
I1028 17:19:27.493086 29475 net.cpp:413] relu_conv1 <- conv1
I1028 17:19:27.493093 29475 net.cpp:374] relu_conv1 -> conv1 (in-place)
I1028 17:19:27.493372 29475 net.cpp:127] Setting up relu_conv1
I1028 17:19:27.493386 29475 net.cpp:136] Top shape: 50 64 113 113 (40860800)
I1028 17:19:27.493392 29475 net.cpp:144] Memory required for data: 357804600
I1028 17:19:27.493399 29475 layer_factory.hpp:77] Creating layer pool1
I1028 17:19:27.493414 29475 net.cpp:84] Creating Layer pool1
I1028 17:19:27.493420 29475 net.cpp:413] pool1 <- conv1
I1028 17:19:27.493427 29475 net.cpp:387] pool1 -> pool1
I1028 17:19:27.493502 29475 net.cpp:127] Setting up pool1
I1028 17:19:27.493512 29475 net.cpp:136] Top shape: 50 64 56 56 (10035200)
I1028 17:19:27.493517 29475 net.cpp:144] Memory required for data: 397945400
I1028 17:19:27.493522 29475 layer_factory.hpp:77] Creating layer fire2/squeeze1x1
I1028 17:19:27.493540 29475 net.cpp:84] Creating Layer fire2/squeeze1x1
I1028 17:19:27.493546 29475 net.cpp:413] fire2/squeeze1x1 <- pool1
I1028 17:19:27.493553 29475 net.cpp:387] fire2/squeeze1x1 -> fire2/squeeze1x1
I1028 17:19:27.493949 29475 net.cpp:127] Setting up fire2/squeeze1x1
I1028 17:19:27.493960 29475 net.cpp:136] Top shape: 50 16 56 56 (2508800)
I1028 17:19:27.493965 29475 net.cpp:144] Memory required for data: 407980600
I1028 17:19:27.493973 29475 net.cpp:453] Found INQ layer:fire2/squeeze1x1, type: INQConvolution, layer id:5
I1028 17:19:27.493983 29475 net.cpp:453] Found INQ layer:fire2/squeeze1x1, type: INQConvolution, layer id:5
I1028 17:19:27.493991 29475 net.cpp:453] Found INQ layer:fire2/squeeze1x1, type: INQConvolution, layer id:5
I1028 17:19:27.493998 29475 net.cpp:453] Found INQ layer:fire2/squeeze1x1, type: INQConvolution, layer id:5
I1028 17:19:27.494002 29475 layer_factory.hpp:77] Creating layer fire2/relu_squeeze1x1
I1028 17:19:27.494014 29475 net.cpp:84] Creating Layer fire2/relu_squeeze1x1
I1028 17:19:27.494033 29475 net.cpp:413] fire2/relu_squeeze1x1 <- fire2/squeeze1x1
I1028 17:19:27.494065 29475 net.cpp:374] fire2/relu_squeeze1x1 -> fire2/squeeze1x1 (in-place)
I1028 17:19:27.496632 29475 net.cpp:127] Setting up fire2/relu_squeeze1x1
I1028 17:19:27.496646 29475 net.cpp:136] Top shape: 50 16 56 56 (2508800)
I1028 17:19:27.496651 29475 net.cpp:144] Memory required for data: 418015800
I1028 17:19:27.496656 29475 layer_factory.hpp:77] Creating layer fire2/squeeze1x1_fire2/relu_squeeze1x1_0_split
I1028 17:19:27.496665 29475 net.cpp:84] Creating Layer fire2/squeeze1x1_fire2/relu_squeeze1x1_0_split
I1028 17:19:27.496670 29475 net.cpp:413] fire2/squeeze1x1_fire2/relu_squeeze1x1_0_split <- fire2/squeeze1x1
I1028 17:19:27.496677 29475 net.cpp:387] fire2/squeeze1x1_fire2/relu_squeeze1x1_0_split -> fire2/squeeze1x1_fire2/relu_squeeze1x1_0_split_0
I1028 17:19:27.496686 29475 net.cpp:387] fire2/squeeze1x1_fire2/relu_squeeze1x1_0_split -> fire2/squeeze1x1_fire2/relu_squeeze1x1_0_split_1
I1028 17:19:27.496737 29475 net.cpp:127] Setting up fire2/squeeze1x1_fire2/relu_squeeze1x1_0_split
I1028 17:19:27.496747 29475 net.cpp:136] Top shape: 50 16 56 56 (2508800)
I1028 17:19:27.496752 29475 net.cpp:136] Top shape: 50 16 56 56 (2508800)
I1028 17:19:27.496757 29475 net.cpp:144] Memory required for data: 438086200
I1028 17:19:27.496760 29475 layer_factory.hpp:77] Creating layer fire2/expand1x1
I1028 17:19:27.496774 29475 net.cpp:84] Creating Layer fire2/expand1x1
I1028 17:19:27.496780 29475 net.cpp:413] fire2/expand1x1 <- fire2/squeeze1x1_fire2/relu_squeeze1x1_0_split_0
I1028 17:19:27.496789 29475 net.cpp:387] fire2/expand1x1 -> fire2/expand1x1
I1028 17:19:27.497143 29475 net.cpp:127] Setting up fire2/expand1x1
I1028 17:19:27.497153 29475 net.cpp:136] Top shape: 50 64 56 56 (10035200)
I1028 17:19:27.497158 29475 net.cpp:144] Memory required for data: 478227000
I1028 17:19:27.497166 29475 net.cpp:453] Found INQ layer:fire2/expand1x1, type: INQConvolution, layer id:8
I1028 17:19:27.497174 29475 net.cpp:453] Found INQ layer:fire2/expand1x1, type: INQConvolution, layer id:8
I1028 17:19:27.497180 29475 net.cpp:453] Found INQ layer:fire2/expand1x1, type: INQConvolution, layer id:8
I1028 17:19:27.497189 29475 net.cpp:453] Found INQ layer:fire2/expand1x1, type: INQConvolution, layer id:8
I1028 17:19:27.497195 29475 layer_factory.hpp:77] Creating layer fire2/relu_expand1x1
I1028 17:19:27.497205 29475 net.cpp:84] Creating Layer fire2/relu_expand1x1
I1028 17:19:27.497210 29475 net.cpp:413] fire2/relu_expand1x1 <- fire2/expand1x1
I1028 17:19:27.497217 29475 net.cpp:374] fire2/relu_expand1x1 -> fire2/expand1x1 (in-place)
I1028 17:19:27.498641 29475 net.cpp:127] Setting up fire2/relu_expand1x1
I1028 17:19:27.498661 29475 net.cpp:136] Top shape: 50 64 56 56 (10035200)
I1028 17:19:27.498667 29475 net.cpp:144] Memory required for data: 518367800
I1028 17:19:27.498672 29475 layer_factory.hpp:77] Creating layer fire2/expand3x3
I1028 17:19:27.498687 29475 net.cpp:84] Creating Layer fire2/expand3x3
I1028 17:19:27.498693 29475 net.cpp:413] fire2/expand3x3 <- fire2/squeeze1x1_fire2/relu_squeeze1x1_0_split_1
I1028 17:19:27.498703 29475 net.cpp:387] fire2/expand3x3 -> fire2/expand3x3
I1028 17:19:27.499155 29475 net.cpp:127] Setting up fire2/expand3x3
I1028 17:19:27.499166 29475 net.cpp:136] Top shape: 50 64 56 56 (10035200)
I1028 17:19:27.499171 29475 net.cpp:144] Memory required for data: 558508600
I1028 17:19:27.499178 29475 net.cpp:453] Found INQ layer:fire2/expand3x3, type: INQConvolution, layer id:10
I1028 17:19:27.499184 29475 net.cpp:453] Found INQ layer:fire2/expand3x3, type: INQConvolution, layer id:10
I1028 17:19:27.499191 29475 net.cpp:453] Found INQ layer:fire2/expand3x3, type: INQConvolution, layer id:10
I1028 17:19:27.499195 29475 net.cpp:453] Found INQ layer:fire2/expand3x3, type: INQConvolution, layer id:10
I1028 17:19:27.499204 29475 layer_factory.hpp:77] Creating layer fire2/relu_expand3x3
I1028 17:19:27.499213 29475 net.cpp:84] Creating Layer fire2/relu_expand3x3
I1028 17:19:27.499219 29475 net.cpp:413] fire2/relu_expand3x3 <- fire2/expand3x3
I1028 17:19:27.499233 29475 net.cpp:374] fire2/relu_expand3x3 -> fire2/expand3x3 (in-place)
I1028 17:19:27.499469 29475 net.cpp:127] Setting up fire2/relu_expand3x3
I1028 17:19:27.499485 29475 net.cpp:136] Top shape: 50 64 56 56 (10035200)
I1028 17:19:27.499490 29475 net.cpp:144] Memory required for data: 598649400
I1028 17:19:27.499495 29475 layer_factory.hpp:77] Creating layer fire2/concat
I1028 17:19:27.499507 29475 net.cpp:84] Creating Layer fire2/concat
I1028 17:19:27.499512 29475 net.cpp:413] fire2/concat <- fire2/expand1x1
I1028 17:19:27.499519 29475 net.cpp:413] fire2/concat <- fire2/expand3x3
I1028 17:19:27.499526 29475 net.cpp:387] fire2/concat -> fire2/concat
I1028 17:19:27.499562 29475 net.cpp:127] Setting up fire2/concat
I1028 17:19:27.499570 29475 net.cpp:136] Top shape: 50 128 56 56 (20070400)
I1028 17:19:27.499574 29475 net.cpp:144] Memory required for data: 678931000
I1028 17:19:27.499579 29475 layer_factory.hpp:77] Creating layer fire3/squeeze1x1
I1028 17:19:27.499590 29475 net.cpp:84] Creating Layer fire3/squeeze1x1
I1028 17:19:27.499595 29475 net.cpp:413] fire3/squeeze1x1 <- fire2/concat
I1028 17:19:27.499604 29475 net.cpp:387] fire3/squeeze1x1 -> fire3/squeeze1x1
I1028 17:19:27.499969 29475 net.cpp:127] Setting up fire3/squeeze1x1
I1028 17:19:27.499980 29475 net.cpp:136] Top shape: 50 16 56 56 (2508800)
I1028 17:19:27.499985 29475 net.cpp:144] Memory required for data: 688966200
I1028 17:19:27.499994 29475 net.cpp:453] Found INQ layer:fire3/squeeze1x1, type: INQConvolution, layer id:13
I1028 17:19:27.500002 29475 net.cpp:453] Found INQ layer:fire3/squeeze1x1, type: INQConvolution, layer id:13
I1028 17:19:27.500008 29475 net.cpp:453] Found INQ layer:fire3/squeeze1x1, type: INQConvolution, layer id:13
I1028 17:19:27.500013 29475 net.cpp:453] Found INQ layer:fire3/squeeze1x1, type: INQConvolution, layer id:13
I1028 17:19:27.500020 29475 layer_factory.hpp:77] Creating layer fire3/relu_squeeze1x1
I1028 17:19:27.500031 29475 net.cpp:84] Creating Layer fire3/relu_squeeze1x1
I1028 17:19:27.500037 29475 net.cpp:413] fire3/relu_squeeze1x1 <- fire3/squeeze1x1
I1028 17:19:27.500043 29475 net.cpp:374] fire3/relu_squeeze1x1 -> fire3/squeeze1x1 (in-place)
I1028 17:19:27.500253 29475 net.cpp:127] Setting up fire3/relu_squeeze1x1
I1028 17:19:27.500265 29475 net.cpp:136] Top shape: 50 16 56 56 (2508800)
I1028 17:19:27.500270 29475 net.cpp:144] Memory required for data: 699001400
I1028 17:19:27.500277 29475 layer_factory.hpp:77] Creating layer fire3/squeeze1x1_fire3/relu_squeeze1x1_0_split
I1028 17:19:27.500283 29475 net.cpp:84] Creating Layer fire3/squeeze1x1_fire3/relu_squeeze1x1_0_split
I1028 17:19:27.500288 29475 net.cpp:413] fire3/squeeze1x1_fire3/relu_squeeze1x1_0_split <- fire3/squeeze1x1
I1028 17:19:27.500301 29475 net.cpp:387] fire3/squeeze1x1_fire3/relu_squeeze1x1_0_split -> fire3/squeeze1x1_fire3/relu_squeeze1x1_0_split_0
I1028 17:19:27.500310 29475 net.cpp:387] fire3/squeeze1x1_fire3/relu_squeeze1x1_0_split -> fire3/squeeze1x1_fire3/relu_squeeze1x1_0_split_1
I1028 17:19:27.500363 29475 net.cpp:127] Setting up fire3/squeeze1x1_fire3/relu_squeeze1x1_0_split
I1028 17:19:27.500372 29475 net.cpp:136] Top shape: 50 16 56 56 (2508800)
I1028 17:19:27.500378 29475 net.cpp:136] Top shape: 50 16 56 56 (2508800)
I1028 17:19:27.500382 29475 net.cpp:144] Memory required for data: 719071800
I1028 17:19:27.500387 29475 layer_factory.hpp:77] Creating layer fire3/expand1x1
I1028 17:19:27.500401 29475 net.cpp:84] Creating Layer fire3/expand1x1
I1028 17:19:27.500406 29475 net.cpp:413] fire3/expand1x1 <- fire3/squeeze1x1_fire3/relu_squeeze1x1_0_split_0
I1028 17:19:27.500416 29475 net.cpp:387] fire3/expand1x1 -> fire3/expand1x1
I1028 17:19:27.500772 29475 net.cpp:127] Setting up fire3/expand1x1
I1028 17:19:27.500783 29475 net.cpp:136] Top shape: 50 64 56 56 (10035200)
I1028 17:19:27.500788 29475 net.cpp:144] Memory required for data: 759212600
I1028 17:19:27.500795 29475 net.cpp:453] Found INQ layer:fire3/expand1x1, type: INQConvolution, layer id:16
I1028 17:19:27.500802 29475 net.cpp:453] Found INQ layer:fire3/expand1x1, type: INQConvolution, layer id:16
I1028 17:19:27.500813 29475 net.cpp:453] Found INQ layer:fire3/expand1x1, type: INQConvolution, layer id:16
I1028 17:19:27.500830 29475 net.cpp:453] Found INQ layer:fire3/expand1x1, type: INQConvolution, layer id:16
I1028 17:19:27.500836 29475 layer_factory.hpp:77] Creating layer fire3/relu_expand1x1
I1028 17:19:27.500844 29475 net.cpp:84] Creating Layer fire3/relu_expand1x1
I1028 17:19:27.500849 29475 net.cpp:413] fire3/relu_expand1x1 <- fire3/expand1x1
I1028 17:19:27.500856 29475 net.cpp:374] fire3/relu_expand1x1 -> fire3/expand1x1 (in-place)
I1028 17:19:27.501072 29475 net.cpp:127] Setting up fire3/relu_expand1x1
I1028 17:19:27.501085 29475 net.cpp:136] Top shape: 50 64 56 56 (10035200)
I1028 17:19:27.501090 29475 net.cpp:144] Memory required for data: 799353400
I1028 17:19:27.501096 29475 layer_factory.hpp:77] Creating layer fire3/expand3x3
I1028 17:19:27.501107 29475 net.cpp:84] Creating Layer fire3/expand3x3
I1028 17:19:27.501112 29475 net.cpp:413] fire3/expand3x3 <- fire3/squeeze1x1_fire3/relu_squeeze1x1_0_split_1
I1028 17:19:27.501122 29475 net.cpp:387] fire3/expand3x3 -> fire3/expand3x3
I1028 17:19:27.501562 29475 net.cpp:127] Setting up fire3/expand3x3
I1028 17:19:27.501574 29475 net.cpp:136] Top shape: 50 64 56 56 (10035200)
I1028 17:19:27.501579 29475 net.cpp:144] Memory required for data: 839494200
I1028 17:19:27.501585 29475 net.cpp:453] Found INQ layer:fire3/expand3x3, type: INQConvolution, layer id:18
I1028 17:19:27.501591 29475 net.cpp:453] Found INQ layer:fire3/expand3x3, type: INQConvolution, layer id:18
I1028 17:19:27.501596 29475 net.cpp:453] Found INQ layer:fire3/expand3x3, type: INQConvolution, layer id:18
I1028 17:19:27.501601 29475 net.cpp:453] Found INQ layer:fire3/expand3x3, type: INQConvolution, layer id:18
I1028 17:19:27.501606 29475 layer_factory.hpp:77] Creating layer fire3/relu_expand3x3
I1028 17:19:27.501613 29475 net.cpp:84] Creating Layer fire3/relu_expand3x3
I1028 17:19:27.501621 29475 net.cpp:413] fire3/relu_expand3x3 <- fire3/expand3x3
I1028 17:19:27.501631 29475 net.cpp:374] fire3/relu_expand3x3 -> fire3/expand3x3 (in-place)
I1028 17:19:27.503026 29475 net.cpp:127] Setting up fire3/relu_expand3x3
I1028 17:19:27.503046 29475 net.cpp:136] Top shape: 50 64 56 56 (10035200)
I1028 17:19:27.503051 29475 net.cpp:144] Memory required for data: 879635000
I1028 17:19:27.503057 29475 layer_factory.hpp:77] Creating layer fire3/concat
I1028 17:19:27.503064 29475 net.cpp:84] Creating Layer fire3/concat
I1028 17:19:27.503070 29475 net.cpp:413] fire3/concat <- fire3/expand1x1
I1028 17:19:27.503077 29475 net.cpp:413] fire3/concat <- fire3/expand3x3
I1028 17:19:27.503085 29475 net.cpp:387] fire3/concat -> fire3/concat
I1028 17:19:27.503125 29475 net.cpp:127] Setting up fire3/concat
I1028 17:19:27.503135 29475 net.cpp:136] Top shape: 50 128 56 56 (20070400)
I1028 17:19:27.503139 29475 net.cpp:144] Memory required for data: 959916600
I1028 17:19:27.503144 29475 layer_factory.hpp:77] Creating layer pool3
I1028 17:19:27.503151 29475 net.cpp:84] Creating Layer pool3
I1028 17:19:27.503156 29475 net.cpp:413] pool3 <- fire3/concat
I1028 17:19:27.503162 29475 net.cpp:387] pool3 -> pool3
I1028 17:19:27.503211 29475 net.cpp:127] Setting up pool3
I1028 17:19:27.503218 29475 net.cpp:136] Top shape: 50 128 28 28 (5017600)
I1028 17:19:27.503222 29475 net.cpp:144] Memory required for data: 979987000
I1028 17:19:27.503229 29475 layer_factory.hpp:77] Creating layer fire4/squeeze1x1
I1028 17:19:27.503242 29475 net.cpp:84] Creating Layer fire4/squeeze1x1
I1028 17:19:27.503247 29475 net.cpp:413] fire4/squeeze1x1 <- pool3
I1028 17:19:27.503257 29475 net.cpp:387] fire4/squeeze1x1 -> fire4/squeeze1x1
I1028 17:19:27.503660 29475 net.cpp:127] Setting up fire4/squeeze1x1
I1028 17:19:27.503674 29475 net.cpp:136] Top shape: 50 32 28 28 (1254400)
I1028 17:19:27.503679 29475 net.cpp:144] Memory required for data: 985004600
I1028 17:19:27.503685 29475 net.cpp:453] Found INQ layer:fire4/squeeze1x1, type: INQConvolution, layer id:22
I1028 17:19:27.503691 29475 net.cpp:453] Found INQ layer:fire4/squeeze1x1, type: INQConvolution, layer id:22
I1028 17:19:27.503703 29475 net.cpp:453] Found INQ layer:fire4/squeeze1x1, type: INQConvolution, layer id:22
I1028 17:19:27.503721 29475 net.cpp:453] Found INQ layer:fire4/squeeze1x1, type: INQConvolution, layer id:22
I1028 17:19:27.503726 29475 layer_factory.hpp:77] Creating layer fire4/relu_squeeze1x1
I1028 17:19:27.503734 29475 net.cpp:84] Creating Layer fire4/relu_squeeze1x1
I1028 17:19:27.503739 29475 net.cpp:413] fire4/relu_squeeze1x1 <- fire4/squeeze1x1
I1028 17:19:27.503746 29475 net.cpp:374] fire4/relu_squeeze1x1 -> fire4/squeeze1x1 (in-place)
I1028 17:19:27.503959 29475 net.cpp:127] Setting up fire4/relu_squeeze1x1
I1028 17:19:27.503971 29475 net.cpp:136] Top shape: 50 32 28 28 (1254400)
I1028 17:19:27.503976 29475 net.cpp:144] Memory required for data: 990022200
I1028 17:19:27.503983 29475 layer_factory.hpp:77] Creating layer fire4/squeeze1x1_fire4/relu_squeeze1x1_0_split
I1028 17:19:27.503989 29475 net.cpp:84] Creating Layer fire4/squeeze1x1_fire4/relu_squeeze1x1_0_split
I1028 17:19:27.503994 29475 net.cpp:413] fire4/squeeze1x1_fire4/relu_squeeze1x1_0_split <- fire4/squeeze1x1
I1028 17:19:27.504004 29475 net.cpp:387] fire4/squeeze1x1_fire4/relu_squeeze1x1_0_split -> fire4/squeeze1x1_fire4/relu_squeeze1x1_0_split_0
I1028 17:19:27.504014 29475 net.cpp:387] fire4/squeeze1x1_fire4/relu_squeeze1x1_0_split -> fire4/squeeze1x1_fire4/relu_squeeze1x1_0_split_1
I1028 17:19:27.504065 29475 net.cpp:127] Setting up fire4/squeeze1x1_fire4/relu_squeeze1x1_0_split
I1028 17:19:27.504073 29475 net.cpp:136] Top shape: 50 32 28 28 (1254400)
I1028 17:19:27.504081 29475 net.cpp:136] Top shape: 50 32 28 28 (1254400)
I1028 17:19:27.504086 29475 net.cpp:144] Memory required for data: 1000057400
I1028 17:19:27.504091 29475 layer_factory.hpp:77] Creating layer fire4/expand1x1
I1028 17:19:27.504103 29475 net.cpp:84] Creating Layer fire4/expand1x1
I1028 17:19:27.504109 29475 net.cpp:413] fire4/expand1x1 <- fire4/squeeze1x1_fire4/relu_squeeze1x1_0_split_0
I1028 17:19:27.504117 29475 net.cpp:387] fire4/expand1x1 -> fire4/expand1x1
I1028 17:19:27.504492 29475 net.cpp:127] Setting up fire4/expand1x1
I1028 17:19:27.504503 29475 net.cpp:136] Top shape: 50 128 28 28 (5017600)
I1028 17:19:27.504508 29475 net.cpp:144] Memory required for data: 1020127800
I1028 17:19:27.504518 29475 net.cpp:453] Found INQ layer:fire4/expand1x1, type: INQConvolution, layer id:25
I1028 17:19:27.504528 29475 net.cpp:453] Found INQ layer:fire4/expand1x1, type: INQConvolution, layer id:25
I1028 17:19:27.504534 29475 net.cpp:453] Found INQ layer:fire4/expand1x1, type: INQConvolution, layer id:25
I1028 17:19:27.504540 29475 net.cpp:453] Found INQ layer:fire4/expand1x1, type: INQConvolution, layer id:25
I1028 17:19:27.504546 29475 layer_factory.hpp:77] Creating layer fire4/relu_expand1x1
I1028 17:19:27.504557 29475 net.cpp:84] Creating Layer fire4/relu_expand1x1
I1028 17:19:27.504562 29475 net.cpp:413] fire4/relu_expand1x1 <- fire4/expand1x1
I1028 17:19:27.504570 29475 net.cpp:374] fire4/relu_expand1x1 -> fire4/expand1x1 (in-place)
I1028 17:19:27.504789 29475 net.cpp:127] Setting up fire4/relu_expand1x1
I1028 17:19:27.504801 29475 net.cpp:136] Top shape: 50 128 28 28 (5017600)
I1028 17:19:27.504806 29475 net.cpp:144] Memory required for data: 1040198200
I1028 17:19:27.504812 29475 layer_factory.hpp:77] Creating layer fire4/expand3x3
I1028 17:19:27.504827 29475 net.cpp:84] Creating Layer fire4/expand3x3
I1028 17:19:27.504832 29475 net.cpp:413] fire4/expand3x3 <- fire4/squeeze1x1_fire4/relu_squeeze1x1_0_split_1
I1028 17:19:27.504840 29475 net.cpp:387] fire4/expand3x3 -> fire4/expand3x3
I1028 17:19:27.505509 29475 net.cpp:127] Setting up fire4/expand3x3
I1028 17:19:27.505522 29475 net.cpp:136] Top shape: 50 128 28 28 (5017600)
I1028 17:19:27.505527 29475 net.cpp:144] Memory required for data: 1060268600
I1028 17:19:27.505532 29475 net.cpp:453] Found INQ layer:fire4/expand3x3, type: INQConvolution, layer id:27
I1028 17:19:27.505539 29475 net.cpp:453] Found INQ layer:fire4/expand3x3, type: INQConvolution, layer id:27
I1028 17:19:27.505544 29475 net.cpp:453] Found INQ layer:fire4/expand3x3, type: INQConvolution, layer id:27
I1028 17:19:27.505565 29475 net.cpp:453] Found INQ layer:fire4/expand3x3, type: INQConvolution, layer id:27
I1028 17:19:27.505574 29475 layer_factory.hpp:77] Creating layer fire4/relu_expand3x3
I1028 17:19:27.505581 29475 net.cpp:84] Creating Layer fire4/relu_expand3x3
I1028 17:19:27.505587 29475 net.cpp:413] fire4/relu_expand3x3 <- fire4/expand3x3
I1028 17:19:27.505594 29475 net.cpp:374] fire4/relu_expand3x3 -> fire4/expand3x3 (in-place)
I1028 17:19:27.505806 29475 net.cpp:127] Setting up fire4/relu_expand3x3
I1028 17:19:27.505818 29475 net.cpp:136] Top shape: 50 128 28 28 (5017600)
I1028 17:19:27.505823 29475 net.cpp:144] Memory required for data: 1080339000
I1028 17:19:27.505831 29475 layer_factory.hpp:77] Creating layer fire4/concat
I1028 17:19:27.505838 29475 net.cpp:84] Creating Layer fire4/concat
I1028 17:19:27.505842 29475 net.cpp:413] fire4/concat <- fire4/expand1x1
I1028 17:19:27.505849 29475 net.cpp:413] fire4/concat <- fire4/expand3x3
I1028 17:19:27.505857 29475 net.cpp:387] fire4/concat -> fire4/concat
I1028 17:19:27.505888 29475 net.cpp:127] Setting up fire4/concat
I1028 17:19:27.505898 29475 net.cpp:136] Top shape: 50 256 28 28 (10035200)
I1028 17:19:27.505903 29475 net.cpp:144] Memory required for data: 1120479800
I1028 17:19:27.505908 29475 layer_factory.hpp:77] Creating layer fire5/squeeze1x1
I1028 17:19:27.505916 29475 net.cpp:84] Creating Layer fire5/squeeze1x1
I1028 17:19:27.505921 29475 net.cpp:413] fire5/squeeze1x1 <- fire4/concat
I1028 17:19:27.505931 29475 net.cpp:387] fire5/squeeze1x1 -> fire5/squeeze1x1
I1028 17:19:27.506361 29475 net.cpp:127] Setting up fire5/squeeze1x1
I1028 17:19:27.506373 29475 net.cpp:136] Top shape: 50 32 28 28 (1254400)
I1028 17:19:27.506377 29475 net.cpp:144] Memory required for data: 1125497400
I1028 17:19:27.506384 29475 net.cpp:453] Found INQ layer:fire5/squeeze1x1, type: INQConvolution, layer id:30
I1028 17:19:27.506391 29475 net.cpp:453] Found INQ layer:fire5/squeeze1x1, type: INQConvolution, layer id:30
I1028 17:19:27.506395 29475 net.cpp:453] Found INQ layer:fire5/squeeze1x1, type: INQConvolution, layer id:30
I1028 17:19:27.506400 29475 net.cpp:453] Found INQ layer:fire5/squeeze1x1, type: INQConvolution, layer id:30
I1028 17:19:27.506405 29475 layer_factory.hpp:77] Creating layer fire5/relu_squeeze1x1
I1028 17:19:27.506414 29475 net.cpp:84] Creating Layer fire5/relu_squeeze1x1
I1028 17:19:27.506424 29475 net.cpp:413] fire5/relu_squeeze1x1 <- fire5/squeeze1x1
I1028 17:19:27.506433 29475 net.cpp:374] fire5/relu_squeeze1x1 -> fire5/squeeze1x1 (in-place)
I1028 17:19:27.507829 29475 net.cpp:127] Setting up fire5/relu_squeeze1x1
I1028 17:19:27.507848 29475 net.cpp:136] Top shape: 50 32 28 28 (1254400)
I1028 17:19:27.507853 29475 net.cpp:144] Memory required for data: 1130515000
I1028 17:19:27.507859 29475 layer_factory.hpp:77] Creating layer fire5/squeeze1x1_fire5/relu_squeeze1x1_0_split
I1028 17:19:27.507874 29475 net.cpp:84] Creating Layer fire5/squeeze1x1_fire5/relu_squeeze1x1_0_split
I1028 17:19:27.507879 29475 net.cpp:413] fire5/squeeze1x1_fire5/relu_squeeze1x1_0_split <- fire5/squeeze1x1
I1028 17:19:27.507890 29475 net.cpp:387] fire5/squeeze1x1_fire5/relu_squeeze1x1_0_split -> fire5/squeeze1x1_fire5/relu_squeeze1x1_0_split_0
I1028 17:19:27.507903 29475 net.cpp:387] fire5/squeeze1x1_fire5/relu_squeeze1x1_0_split -> fire5/squeeze1x1_fire5/relu_squeeze1x1_0_split_1
I1028 17:19:27.507956 29475 net.cpp:127] Setting up fire5/squeeze1x1_fire5/relu_squeeze1x1_0_split
I1028 17:19:27.507963 29475 net.cpp:136] Top shape: 50 32 28 28 (1254400)
I1028 17:19:27.507971 29475 net.cpp:136] Top shape: 50 32 28 28 (1254400)
I1028 17:19:27.507975 29475 net.cpp:144] Memory required for data: 1140550200
I1028 17:19:27.507979 29475 layer_factory.hpp:77] Creating layer fire5/expand1x1
I1028 17:19:27.507990 29475 net.cpp:84] Creating Layer fire5/expand1x1
I1028 17:19:27.507997 29475 net.cpp:413] fire5/expand1x1 <- fire5/squeeze1x1_fire5/relu_squeeze1x1_0_split_0
I1028 17:19:27.508005 29475 net.cpp:387] fire5/expand1x1 -> fire5/expand1x1
I1028 17:19:27.508405 29475 net.cpp:127] Setting up fire5/expand1x1
I1028 17:19:27.508430 29475 net.cpp:136] Top shape: 50 128 28 28 (5017600)
I1028 17:19:27.508435 29475 net.cpp:144] Memory required for data: 1160620600
I1028 17:19:27.508442 29475 net.cpp:453] Found INQ layer:fire5/expand1x1, type: INQConvolution, layer id:33
I1028 17:19:27.508448 29475 net.cpp:453] Found INQ layer:fire5/expand1x1, type: INQConvolution, layer id:33
I1028 17:19:27.508455 29475 net.cpp:453] Found INQ layer:fire5/expand1x1, type: INQConvolution, layer id:33
I1028 17:19:27.508460 29475 net.cpp:453] Found INQ layer:fire5/expand1x1, type: INQConvolution, layer id:33
I1028 17:19:27.508466 29475 layer_factory.hpp:77] Creating layer fire5/relu_expand1x1
I1028 17:19:27.508476 29475 net.cpp:84] Creating Layer fire5/relu_expand1x1
I1028 17:19:27.508483 29475 net.cpp:413] fire5/relu_expand1x1 <- fire5/expand1x1
I1028 17:19:27.508491 29475 net.cpp:374] fire5/relu_expand1x1 -> fire5/expand1x1 (in-place)
I1028 17:19:27.508705 29475 net.cpp:127] Setting up fire5/relu_expand1x1
I1028 17:19:27.508718 29475 net.cpp:136] Top shape: 50 128 28 28 (5017600)
I1028 17:19:27.508723 29475 net.cpp:144] Memory required for data: 1180691000
I1028 17:19:27.508729 29475 layer_factory.hpp:77] Creating layer fire5/expand3x3
I1028 17:19:27.508743 29475 net.cpp:84] Creating Layer fire5/expand3x3
I1028 17:19:27.508749 29475 net.cpp:413] fire5/expand3x3 <- fire5/squeeze1x1_fire5/relu_squeeze1x1_0_split_1
I1028 17:19:27.508756 29475 net.cpp:387] fire5/expand3x3 -> fire5/expand3x3
I1028 17:19:27.509425 29475 net.cpp:127] Setting up fire5/expand3x3
I1028 17:19:27.509438 29475 net.cpp:136] Top shape: 50 128 28 28 (5017600)
I1028 17:19:27.509443 29475 net.cpp:144] Memory required for data: 1200761400
I1028 17:19:27.509449 29475 net.cpp:453] Found INQ layer:fire5/expand3x3, type: INQConvolution, layer id:35
I1028 17:19:27.509454 29475 net.cpp:453] Found INQ layer:fire5/expand3x3, type: INQConvolution, layer id:35
I1028 17:19:27.509460 29475 net.cpp:453] Found INQ layer:fire5/expand3x3, type: INQConvolution, layer id:35
I1028 17:19:27.509465 29475 net.cpp:453] Found INQ layer:fire5/expand3x3, type: INQConvolution, layer id:35
I1028 17:19:27.509474 29475 layer_factory.hpp:77] Creating layer fire5/relu_expand3x3
I1028 17:19:27.509483 29475 net.cpp:84] Creating Layer fire5/relu_expand3x3
I1028 17:19:27.509490 29475 net.cpp:413] fire5/relu_expand3x3 <- fire5/expand3x3
I1028 17:19:27.509497 29475 net.cpp:374] fire5/relu_expand3x3 -> fire5/expand3x3 (in-place)
I1028 17:19:27.509711 29475 net.cpp:127] Setting up fire5/relu_expand3x3
I1028 17:19:27.509722 29475 net.cpp:136] Top shape: 50 128 28 28 (5017600)
I1028 17:19:27.509727 29475 net.cpp:144] Memory required for data: 1220831800
I1028 17:19:27.509733 29475 layer_factory.hpp:77] Creating layer fire5/concat
I1028 17:19:27.509742 29475 net.cpp:84] Creating Layer fire5/concat
I1028 17:19:27.509747 29475 net.cpp:413] fire5/concat <- fire5/expand1x1
I1028 17:19:27.509752 29475 net.cpp:413] fire5/concat <- fire5/expand3x3
I1028 17:19:27.509759 29475 net.cpp:387] fire5/concat -> fire5/concat
I1028 17:19:27.509793 29475 net.cpp:127] Setting up fire5/concat
I1028 17:19:27.509800 29475 net.cpp:136] Top shape: 50 256 28 28 (10035200)
I1028 17:19:27.509804 29475 net.cpp:144] Memory required for data: 1260972600
I1028 17:19:27.509809 29475 layer_factory.hpp:77] Creating layer pool5
I1028 17:19:27.509819 29475 net.cpp:84] Creating Layer pool5
I1028 17:19:27.509824 29475 net.cpp:413] pool5 <- fire5/concat
I1028 17:19:27.509829 29475 net.cpp:387] pool5 -> pool5
I1028 17:19:27.509881 29475 net.cpp:127] Setting up pool5
I1028 17:19:27.509889 29475 net.cpp:136] Top shape: 50 256 14 14 (2508800)
I1028 17:19:27.509894 29475 net.cpp:144] Memory required for data: 1271007800
I1028 17:19:27.509901 29475 layer_factory.hpp:77] Creating layer fire6/squeeze1x1
I1028 17:19:27.509912 29475 net.cpp:84] Creating Layer fire6/squeeze1x1
I1028 17:19:27.509917 29475 net.cpp:413] fire6/squeeze1x1 <- pool5
I1028 17:19:27.509929 29475 net.cpp:387] fire6/squeeze1x1 -> fire6/squeeze1x1
I1028 17:19:27.510401 29475 net.cpp:127] Setting up fire6/squeeze1x1
I1028 17:19:27.510426 29475 net.cpp:136] Top shape: 50 48 14 14 (470400)
I1028 17:19:27.510432 29475 net.cpp:144] Memory required for data: 1272889400
I1028 17:19:27.510437 29475 net.cpp:453] Found INQ layer:fire6/squeeze1x1, type: INQConvolution, layer id:39
I1028 17:19:27.510444 29475 net.cpp:453] Found INQ layer:fire6/squeeze1x1, type: INQConvolution, layer id:39
I1028 17:19:27.510450 29475 net.cpp:453] Found INQ layer:fire6/squeeze1x1, type: INQConvolution, layer id:39
I1028 17:19:27.510455 29475 net.cpp:453] Found INQ layer:fire6/squeeze1x1, type: INQConvolution, layer id:39
I1028 17:19:27.510460 29475 layer_factory.hpp:77] Creating layer fire6/relu_squeeze1x1
I1028 17:19:27.510469 29475 net.cpp:84] Creating Layer fire6/relu_squeeze1x1
I1028 17:19:27.510478 29475 net.cpp:413] fire6/relu_squeeze1x1 <- fire6/squeeze1x1
I1028 17:19:27.510486 29475 net.cpp:374] fire6/relu_squeeze1x1 -> fire6/squeeze1x1 (in-place)
I1028 17:19:27.510699 29475 net.cpp:127] Setting up fire6/relu_squeeze1x1
I1028 17:19:27.510711 29475 net.cpp:136] Top shape: 50 48 14 14 (470400)
I1028 17:19:27.510716 29475 net.cpp:144] Memory required for data: 1274771000
I1028 17:19:27.510722 29475 layer_factory.hpp:77] Creating layer fire6/squeeze1x1_fire6/relu_squeeze1x1_0_split
I1028 17:19:27.510730 29475 net.cpp:84] Creating Layer fire6/squeeze1x1_fire6/relu_squeeze1x1_0_split
I1028 17:19:27.510735 29475 net.cpp:413] fire6/squeeze1x1_fire6/relu_squeeze1x1_0_split <- fire6/squeeze1x1
I1028 17:19:27.510746 29475 net.cpp:387] fire6/squeeze1x1_fire6/relu_squeeze1x1_0_split -> fire6/squeeze1x1_fire6/relu_squeeze1x1_0_split_0
I1028 17:19:27.510753 29475 net.cpp:387] fire6/squeeze1x1_fire6/relu_squeeze1x1_0_split -> fire6/squeeze1x1_fire6/relu_squeeze1x1_0_split_1
I1028 17:19:27.510826 29475 net.cpp:127] Setting up fire6/squeeze1x1_fire6/relu_squeeze1x1_0_split
I1028 17:19:27.510838 29475 net.cpp:136] Top shape: 50 48 14 14 (470400)
I1028 17:19:27.510843 29475 net.cpp:136] Top shape: 50 48 14 14 (470400)
I1028 17:19:27.510848 29475 net.cpp:144] Memory required for data: 1278534200
I1028 17:19:27.510854 29475 layer_factory.hpp:77] Creating layer fire6/expand1x1
I1028 17:19:27.510865 29475 net.cpp:84] Creating Layer fire6/expand1x1
I1028 17:19:27.510871 29475 net.cpp:413] fire6/expand1x1 <- fire6/squeeze1x1_fire6/relu_squeeze1x1_0_split_0
I1028 17:19:27.510879 29475 net.cpp:387] fire6/expand1x1 -> fire6/expand1x1
I1028 17:19:27.511294 29475 net.cpp:127] Setting up fire6/expand1x1
I1028 17:19:27.511312 29475 net.cpp:136] Top shape: 50 192 14 14 (1881600)
I1028 17:19:27.511317 29475 net.cpp:144] Memory required for data: 1286060600
I1028 17:19:27.511322 29475 net.cpp:453] Found INQ layer:fire6/expand1x1, type: INQConvolution, layer id:42
I1028 17:19:27.511329 29475 net.cpp:453] Found INQ layer:fire6/expand1x1, type: INQConvolution, layer id:42
I1028 17:19:27.511334 29475 net.cpp:453] Found INQ layer:fire6/expand1x1, type: INQConvolution, layer id:42
I1028 17:19:27.511339 29475 net.cpp:453] Found INQ layer:fire6/expand1x1, type: INQConvolution, layer id:42
I1028 17:19:27.511344 29475 layer_factory.hpp:77] Creating layer fire6/relu_expand1x1
I1028 17:19:27.511358 29475 net.cpp:84] Creating Layer fire6/relu_expand1x1
I1028 17:19:27.511364 29475 net.cpp:413] fire6/relu_expand1x1 <- fire6/expand1x1
I1028 17:19:27.511370 29475 net.cpp:374] fire6/relu_expand1x1 -> fire6/expand1x1 (in-place)
I1028 17:19:27.512776 29475 net.cpp:127] Setting up fire6/relu_expand1x1
I1028 17:19:27.512797 29475 net.cpp:136] Top shape: 50 192 14 14 (1881600)
I1028 17:19:27.512804 29475 net.cpp:144] Memory required for data: 1293587000
I1028 17:19:27.512809 29475 layer_factory.hpp:77] Creating layer fire6/expand3x3
I1028 17:19:27.512820 29475 net.cpp:84] Creating Layer fire6/expand3x3
I1028 17:19:27.512825 29475 net.cpp:413] fire6/expand3x3 <- fire6/squeeze1x1_fire6/relu_squeeze1x1_0_split_1
I1028 17:19:27.512836 29475 net.cpp:387] fire6/expand3x3 -> fire6/expand3x3
I1028 17:19:27.513921 29475 net.cpp:127] Setting up fire6/expand3x3
I1028 17:19:27.513936 29475 net.cpp:136] Top shape: 50 192 14 14 (1881600)
I1028 17:19:27.513955 29475 net.cpp:144] Memory required for data: 1301113400
I1028 17:19:27.513962 29475 net.cpp:453] Found INQ layer:fire6/expand3x3, type: INQConvolution, layer id:44
I1028 17:19:27.513972 29475 net.cpp:453] Found INQ layer:fire6/expand3x3, type: INQConvolution, layer id:44
I1028 17:19:27.513979 29475 net.cpp:453] Found INQ layer:fire6/expand3x3, type: INQConvolution, layer id:44
I1028 17:19:27.513988 29475 net.cpp:453] Found INQ layer:fire6/expand3x3, type: INQConvolution, layer id:44
I1028 17:19:27.513993 29475 layer_factory.hpp:77] Creating layer fire6/relu_expand3x3
I1028 17:19:27.514001 29475 net.cpp:84] Creating Layer fire6/relu_expand3x3
I1028 17:19:27.514008 29475 net.cpp:413] fire6/relu_expand3x3 <- fire6/expand3x3
I1028 17:19:27.514014 29475 net.cpp:374] fire6/relu_expand3x3 -> fire6/expand3x3 (in-place)
I1028 17:19:27.514226 29475 net.cpp:127] Setting up fire6/relu_expand3x3
I1028 17:19:27.514238 29475 net.cpp:136] Top shape: 50 192 14 14 (1881600)
I1028 17:19:27.514247 29475 net.cpp:144] Memory required for data: 1308639800
I1028 17:19:27.514252 29475 layer_factory.hpp:77] Creating layer fire6/concat
I1028 17:19:27.514261 29475 net.cpp:84] Creating Layer fire6/concat
I1028 17:19:27.514266 29475 net.cpp:413] fire6/concat <- fire6/expand1x1
I1028 17:19:27.514271 29475 net.cpp:413] fire6/concat <- fire6/expand3x3
I1028 17:19:27.514278 29475 net.cpp:387] fire6/concat -> fire6/concat
I1028 17:19:27.514320 29475 net.cpp:127] Setting up fire6/concat
I1028 17:19:27.514330 29475 net.cpp:136] Top shape: 50 384 14 14 (3763200)
I1028 17:19:27.514334 29475 net.cpp:144] Memory required for data: 1323692600
I1028 17:19:27.514340 29475 layer_factory.hpp:77] Creating layer fire7/squeeze1x1
I1028 17:19:27.514351 29475 net.cpp:84] Creating Layer fire7/squeeze1x1
I1028 17:19:27.514358 29475 net.cpp:413] fire7/squeeze1x1 <- fire6/concat
I1028 17:19:27.514369 29475 net.cpp:387] fire7/squeeze1x1 -> fire7/squeeze1x1
I1028 17:19:27.514883 29475 net.cpp:127] Setting up fire7/squeeze1x1
I1028 17:19:27.514894 29475 net.cpp:136] Top shape: 50 48 14 14 (470400)
I1028 17:19:27.514899 29475 net.cpp:144] Memory required for data: 1325574200
I1028 17:19:27.514914 29475 net.cpp:453] Found INQ layer:fire7/squeeze1x1, type: INQConvolution, layer id:47
I1028 17:19:27.514924 29475 net.cpp:453] Found INQ layer:fire7/squeeze1x1, type: INQConvolution, layer id:47
I1028 17:19:27.514930 29475 net.cpp:453] Found INQ layer:fire7/squeeze1x1, type: INQConvolution, layer id:47
I1028 17:19:27.514940 29475 net.cpp:453] Found INQ layer:fire7/squeeze1x1, type: INQConvolution, layer id:47
I1028 17:19:27.514945 29475 layer_factory.hpp:77] Creating layer fire7/relu_squeeze1x1
I1028 17:19:27.514952 29475 net.cpp:84] Creating Layer fire7/relu_squeeze1x1
I1028 17:19:27.514957 29475 net.cpp:413] fire7/relu_squeeze1x1 <- fire7/squeeze1x1
I1028 17:19:27.514966 29475 net.cpp:374] fire7/relu_squeeze1x1 -> fire7/squeeze1x1 (in-place)
I1028 17:19:27.515178 29475 net.cpp:127] Setting up fire7/relu_squeeze1x1
I1028 17:19:27.515190 29475 net.cpp:136] Top shape: 50 48 14 14 (470400)
I1028 17:19:27.515195 29475 net.cpp:144] Memory required for data: 1327455800
I1028 17:19:27.515202 29475 layer_factory.hpp:77] Creating layer fire7/squeeze1x1_fire7/relu_squeeze1x1_0_split
I1028 17:19:27.515210 29475 net.cpp:84] Creating Layer fire7/squeeze1x1_fire7/relu_squeeze1x1_0_split
I1028 17:19:27.515216 29475 net.cpp:413] fire7/squeeze1x1_fire7/relu_squeeze1x1_0_split <- fire7/squeeze1x1
I1028 17:19:27.515225 29475 net.cpp:387] fire7/squeeze1x1_fire7/relu_squeeze1x1_0_split -> fire7/squeeze1x1_fire7/relu_squeeze1x1_0_split_0
I1028 17:19:27.515234 29475 net.cpp:387] fire7/squeeze1x1_fire7/relu_squeeze1x1_0_split -> fire7/squeeze1x1_fire7/relu_squeeze1x1_0_split_1
I1028 17:19:27.515285 29475 net.cpp:127] Setting up fire7/squeeze1x1_fire7/relu_squeeze1x1_0_split
I1028 17:19:27.515293 29475 net.cpp:136] Top shape: 50 48 14 14 (470400)
I1028 17:19:27.515311 29475 net.cpp:136] Top shape: 50 48 14 14 (470400)
I1028 17:19:27.515318 29475 net.cpp:144] Memory required for data: 1331219000
I1028 17:19:27.515333 29475 layer_factory.hpp:77] Creating layer fire7/expand1x1
I1028 17:19:27.515347 29475 net.cpp:84] Creating Layer fire7/expand1x1
I1028 17:19:27.515352 29475 net.cpp:413] fire7/expand1x1 <- fire7/squeeze1x1_fire7/relu_squeeze1x1_0_split_0
I1028 17:19:27.515362 29475 net.cpp:387] fire7/expand1x1 -> fire7/expand1x1
I1028 17:19:27.515784 29475 net.cpp:127] Setting up fire7/expand1x1
I1028 17:19:27.515795 29475 net.cpp:136] Top shape: 50 192 14 14 (1881600)
I1028 17:19:27.515800 29475 net.cpp:144] Memory required for data: 1338745400
I1028 17:19:27.515807 29475 net.cpp:453] Found INQ layer:fire7/expand1x1, type: INQConvolution, layer id:50
I1028 17:19:27.515813 29475 net.cpp:453] Found INQ layer:fire7/expand1x1, type: INQConvolution, layer id:50
I1028 17:19:27.515820 29475 net.cpp:453] Found INQ layer:fire7/expand1x1, type: INQConvolution, layer id:50
I1028 17:19:27.515825 29475 net.cpp:453] Found INQ layer:fire7/expand1x1, type: INQConvolution, layer id:50
I1028 17:19:27.515830 29475 layer_factory.hpp:77] Creating layer fire7/relu_expand1x1
I1028 17:19:27.515836 29475 net.cpp:84] Creating Layer fire7/relu_expand1x1
I1028 17:19:27.515842 29475 net.cpp:413] fire7/relu_expand1x1 <- fire7/expand1x1
I1028 17:19:27.515853 29475 net.cpp:374] fire7/relu_expand1x1 -> fire7/expand1x1 (in-place)
I1028 17:19:27.517251 29475 net.cpp:127] Setting up fire7/relu_expand1x1
I1028 17:19:27.517269 29475 net.cpp:136] Top shape: 50 192 14 14 (1881600)
I1028 17:19:27.517276 29475 net.cpp:144] Memory required for data: 1346271800
I1028 17:19:27.517280 29475 layer_factory.hpp:77] Creating layer fire7/expand3x3
I1028 17:19:27.517293 29475 net.cpp:84] Creating Layer fire7/expand3x3
I1028 17:19:27.517303 29475 net.cpp:413] fire7/expand3x3 <- fire7/squeeze1x1_fire7/relu_squeeze1x1_0_split_1
I1028 17:19:27.517318 29475 net.cpp:387] fire7/expand3x3 -> fire7/expand3x3
I1028 17:19:27.518399 29475 net.cpp:127] Setting up fire7/expand3x3
I1028 17:19:27.518412 29475 net.cpp:136] Top shape: 50 192 14 14 (1881600)
I1028 17:19:27.518417 29475 net.cpp:144] Memory required for data: 1353798200
I1028 17:19:27.518424 29475 net.cpp:453] Found INQ layer:fire7/expand3x3, type: INQConvolution, layer id:52
I1028 17:19:27.518431 29475 net.cpp:453] Found INQ layer:fire7/expand3x3, type: INQConvolution, layer id:52
I1028 17:19:27.518437 29475 net.cpp:453] Found INQ layer:fire7/expand3x3, type: INQConvolution, layer id:52
I1028 17:19:27.518442 29475 net.cpp:453] Found INQ layer:fire7/expand3x3, type: INQConvolution, layer id:52
I1028 17:19:27.518447 29475 layer_factory.hpp:77] Creating layer fire7/relu_expand3x3
I1028 17:19:27.518456 29475 net.cpp:84] Creating Layer fire7/relu_expand3x3
I1028 17:19:27.518465 29475 net.cpp:413] fire7/relu_expand3x3 <- fire7/expand3x3
I1028 17:19:27.518476 29475 net.cpp:374] fire7/relu_expand3x3 -> fire7/expand3x3 (in-place)
I1028 17:19:27.518690 29475 net.cpp:127] Setting up fire7/relu_expand3x3
I1028 17:19:27.518702 29475 net.cpp:136] Top shape: 50 192 14 14 (1881600)
I1028 17:19:27.518707 29475 net.cpp:144] Memory required for data: 1361324600
I1028 17:19:27.518714 29475 layer_factory.hpp:77] Creating layer fire7/concat
I1028 17:19:27.518721 29475 net.cpp:84] Creating Layer fire7/concat
I1028 17:19:27.518726 29475 net.cpp:413] fire7/concat <- fire7/expand1x1
I1028 17:19:27.518733 29475 net.cpp:413] fire7/concat <- fire7/expand3x3
I1028 17:19:27.518743 29475 net.cpp:387] fire7/concat -> fire7/concat
I1028 17:19:27.518775 29475 net.cpp:127] Setting up fire7/concat
I1028 17:19:27.518785 29475 net.cpp:136] Top shape: 50 384 14 14 (3763200)
I1028 17:19:27.518790 29475 net.cpp:144] Memory required for data: 1376377400
I1028 17:19:27.518795 29475 layer_factory.hpp:77] Creating layer fire8/squeeze1x1
I1028 17:19:27.518803 29475 net.cpp:84] Creating Layer fire8/squeeze1x1
I1028 17:19:27.518808 29475 net.cpp:413] fire8/squeeze1x1 <- fire7/concat
I1028 17:19:27.518822 29475 net.cpp:387] fire8/squeeze1x1 -> fire8/squeeze1x1
I1028 17:19:27.520720 29475 net.cpp:127] Setting up fire8/squeeze1x1
I1028 17:19:27.520751 29475 net.cpp:136] Top shape: 50 64 14 14 (627200)
I1028 17:19:27.520756 29475 net.cpp:144] Memory required for data: 1378886200
I1028 17:19:27.520764 29475 net.cpp:453] Found INQ layer:fire8/squeeze1x1, type: INQConvolution, layer id:55
I1028 17:19:27.520771 29475 net.cpp:453] Found INQ layer:fire8/squeeze1x1, type: INQConvolution, layer id:55
I1028 17:19:27.520777 29475 net.cpp:453] Found INQ layer:fire8/squeeze1x1, type: INQConvolution, layer id:55
I1028 17:19:27.520782 29475 net.cpp:453] Found INQ layer:fire8/squeeze1x1, type: INQConvolution, layer id:55
I1028 17:19:27.520787 29475 layer_factory.hpp:77] Creating layer fire8/relu_squeeze1x1
I1028 17:19:27.520798 29475 net.cpp:84] Creating Layer fire8/relu_squeeze1x1
I1028 17:19:27.520805 29475 net.cpp:413] fire8/relu_squeeze1x1 <- fire8/squeeze1x1
I1028 17:19:27.520812 29475 net.cpp:374] fire8/relu_squeeze1x1 -> fire8/squeeze1x1 (in-place)
I1028 17:19:27.521044 29475 net.cpp:127] Setting up fire8/relu_squeeze1x1
I1028 17:19:27.521056 29475 net.cpp:136] Top shape: 50 64 14 14 (627200)
I1028 17:19:27.521061 29475 net.cpp:144] Memory required for data: 1381395000
I1028 17:19:27.521067 29475 layer_factory.hpp:77] Creating layer fire8/squeeze1x1_fire8/relu_squeeze1x1_0_split
I1028 17:19:27.521076 29475 net.cpp:84] Creating Layer fire8/squeeze1x1_fire8/relu_squeeze1x1_0_split
I1028 17:19:27.521081 29475 net.cpp:413] fire8/squeeze1x1_fire8/relu_squeeze1x1_0_split <- fire8/squeeze1x1
I1028 17:19:27.521090 29475 net.cpp:387] fire8/squeeze1x1_fire8/relu_squeeze1x1_0_split -> fire8/squeeze1x1_fire8/relu_squeeze1x1_0_split_0
I1028 17:19:27.521100 29475 net.cpp:387] fire8/squeeze1x1_fire8/relu_squeeze1x1_0_split -> fire8/squeeze1x1_fire8/relu_squeeze1x1_0_split_1
I1028 17:19:27.521152 29475 net.cpp:127] Setting up fire8/squeeze1x1_fire8/relu_squeeze1x1_0_split
I1028 17:19:27.521162 29475 net.cpp:136] Top shape: 50 64 14 14 (627200)
I1028 17:19:27.521169 29475 net.cpp:136] Top shape: 50 64 14 14 (627200)
I1028 17:19:27.521174 29475 net.cpp:144] Memory required for data: 1386412600
I1028 17:19:27.521180 29475 layer_factory.hpp:77] Creating layer fire8/expand1x1
I1028 17:19:27.521193 29475 net.cpp:84] Creating Layer fire8/expand1x1
I1028 17:19:27.521198 29475 net.cpp:413] fire8/expand1x1 <- fire8/squeeze1x1_fire8/relu_squeeze1x1_0_split_0
I1028 17:19:27.521209 29475 net.cpp:387] fire8/expand1x1 -> fire8/expand1x1
I1028 17:19:27.521698 29475 net.cpp:127] Setting up fire8/expand1x1
I1028 17:19:27.521710 29475 net.cpp:136] Top shape: 50 256 14 14 (2508800)
I1028 17:19:27.521715 29475 net.cpp:144] Memory required for data: 1396447800
I1028 17:19:27.521721 29475 net.cpp:453] Found INQ layer:fire8/expand1x1, type: INQConvolution, layer id:58
I1028 17:19:27.521728 29475 net.cpp:453] Found INQ layer:fire8/expand1x1, type: INQConvolution, layer id:58
I1028 17:19:27.521733 29475 net.cpp:453] Found INQ layer:fire8/expand1x1, type: INQConvolution, layer id:58
I1028 17:19:27.521739 29475 net.cpp:453] Found INQ layer:fire8/expand1x1, type: INQConvolution, layer id:58
I1028 17:19:27.521744 29475 layer_factory.hpp:77] Creating layer fire8/relu_expand1x1
I1028 17:19:27.521752 29475 net.cpp:84] Creating Layer fire8/relu_expand1x1
I1028 17:19:27.521761 29475 net.cpp:413] fire8/relu_expand1x1 <- fire8/expand1x1
I1028 17:19:27.521769 29475 net.cpp:374] fire8/relu_expand1x1 -> fire8/expand1x1 (in-place)
I1028 17:19:27.521986 29475 net.cpp:127] Setting up fire8/relu_expand1x1
I1028 17:19:27.521998 29475 net.cpp:136] Top shape: 50 256 14 14 (2508800)
I1028 17:19:27.522003 29475 net.cpp:144] Memory required for data: 1406483000
I1028 17:19:27.522009 29475 layer_factory.hpp:77] Creating layer fire8/expand3x3
I1028 17:19:27.522022 29475 net.cpp:84] Creating Layer fire8/expand3x3
I1028 17:19:27.522030 29475 net.cpp:413] fire8/expand3x3 <- fire8/squeeze1x1_fire8/relu_squeeze1x1_0_split_1
I1028 17:19:27.522038 29475 net.cpp:387] fire8/expand3x3 -> fire8/expand3x3
I1028 17:19:27.524853 29475 net.cpp:127] Setting up fire8/expand3x3
I1028 17:19:27.524878 29475 net.cpp:136] Top shape: 50 256 14 14 (2508800)
I1028 17:19:27.524896 29475 net.cpp:144] Memory required for data: 1416518200
I1028 17:19:27.524904 29475 net.cpp:453] Found INQ layer:fire8/expand3x3, type: INQConvolution, layer id:60
I1028 17:19:27.524911 29475 net.cpp:453] Found INQ layer:fire8/expand3x3, type: INQConvolution, layer id:60
I1028 17:19:27.524924 29475 net.cpp:453] Found INQ layer:fire8/expand3x3, type: INQConvolution, layer id:60
I1028 17:19:27.524931 29475 net.cpp:453] Found INQ layer:fire8/expand3x3, type: INQConvolution, layer id:60
I1028 17:19:27.524938 29475 layer_factory.hpp:77] Creating layer fire8/relu_expand3x3
I1028 17:19:27.524947 29475 net.cpp:84] Creating Layer fire8/relu_expand3x3
I1028 17:19:27.524953 29475 net.cpp:413] fire8/relu_expand3x3 <- fire8/expand3x3
I1028 17:19:27.524962 29475 net.cpp:374] fire8/relu_expand3x3 -> fire8/expand3x3 (in-place)
I1028 17:19:27.526386 29475 net.cpp:127] Setting up fire8/relu_expand3x3
I1028 17:19:27.526406 29475 net.cpp:136] Top shape: 50 256 14 14 (2508800)
I1028 17:19:27.526412 29475 net.cpp:144] Memory required for data: 1426553400
I1028 17:19:27.526417 29475 layer_factory.hpp:77] Creating layer fire8/concat
I1028 17:19:27.526424 29475 net.cpp:84] Creating Layer fire8/concat
I1028 17:19:27.526430 29475 net.cpp:413] fire8/concat <- fire8/expand1x1
I1028 17:19:27.526439 29475 net.cpp:413] fire8/concat <- fire8/expand3x3
I1028 17:19:27.526449 29475 net.cpp:387] fire8/concat -> fire8/concat
I1028 17:19:27.526489 29475 net.cpp:127] Setting up fire8/concat
I1028 17:19:27.526499 29475 net.cpp:136] Top shape: 50 512 14 14 (5017600)
I1028 17:19:27.526504 29475 net.cpp:144] Memory required for data: 1446623800
I1028 17:19:27.526509 29475 layer_factory.hpp:77] Creating layer fire9/squeeze1x1
I1028 17:19:27.526518 29475 net.cpp:84] Creating Layer fire9/squeeze1x1
I1028 17:19:27.526523 29475 net.cpp:413] fire9/squeeze1x1 <- fire8/concat
I1028 17:19:27.526533 29475 net.cpp:387] fire9/squeeze1x1 -> fire9/squeeze1x1
I1028 17:19:27.527153 29475 net.cpp:127] Setting up fire9/squeeze1x1
I1028 17:19:27.527163 29475 net.cpp:136] Top shape: 50 64 14 14 (627200)
I1028 17:19:27.527168 29475 net.cpp:144] Memory required for data: 1449132600
I1028 17:19:27.527175 29475 net.cpp:453] Found INQ layer:fire9/squeeze1x1, type: INQConvolution, layer id:63
I1028 17:19:27.527181 29475 net.cpp:453] Found INQ layer:fire9/squeeze1x1, type: INQConvolution, layer id:63
I1028 17:19:27.527187 29475 net.cpp:453] Found INQ layer:fire9/squeeze1x1, type: INQConvolution, layer id:63
I1028 17:19:27.527192 29475 net.cpp:453] Found INQ layer:fire9/squeeze1x1, type: INQConvolution, layer id:63
I1028 17:19:27.527199 29475 layer_factory.hpp:77] Creating layer fire9/relu_squeeze1x1
I1028 17:19:27.527215 29475 net.cpp:84] Creating Layer fire9/relu_squeeze1x1
I1028 17:19:27.527222 29475 net.cpp:413] fire9/relu_squeeze1x1 <- fire9/squeeze1x1
I1028 17:19:27.527230 29475 net.cpp:374] fire9/relu_squeeze1x1 -> fire9/squeeze1x1 (in-place)
I1028 17:19:27.527453 29475 net.cpp:127] Setting up fire9/relu_squeeze1x1
I1028 17:19:27.527467 29475 net.cpp:136] Top shape: 50 64 14 14 (627200)
I1028 17:19:27.527472 29475 net.cpp:144] Memory required for data: 1451641400
I1028 17:19:27.527478 29475 layer_factory.hpp:77] Creating layer fire9/squeeze1x1_fire9/relu_squeeze1x1_0_split
I1028 17:19:27.527485 29475 net.cpp:84] Creating Layer fire9/squeeze1x1_fire9/relu_squeeze1x1_0_split
I1028 17:19:27.527490 29475 net.cpp:413] fire9/squeeze1x1_fire9/relu_squeeze1x1_0_split <- fire9/squeeze1x1
I1028 17:19:27.527500 29475 net.cpp:387] fire9/squeeze1x1_fire9/relu_squeeze1x1_0_split -> fire9/squeeze1x1_fire9/relu_squeeze1x1_0_split_0
I1028 17:19:27.527509 29475 net.cpp:387] fire9/squeeze1x1_fire9/relu_squeeze1x1_0_split -> fire9/squeeze1x1_fire9/relu_squeeze1x1_0_split_1
I1028 17:19:27.527560 29475 net.cpp:127] Setting up fire9/squeeze1x1_fire9/relu_squeeze1x1_0_split
I1028 17:19:27.527570 29475 net.cpp:136] Top shape: 50 64 14 14 (627200)
I1028 17:19:27.527580 29475 net.cpp:136] Top shape: 50 64 14 14 (627200)
I1028 17:19:27.527591 29475 net.cpp:144] Memory required for data: 1456659000
I1028 17:19:27.527608 29475 layer_factory.hpp:77] Creating layer fire9/expand1x1
I1028 17:19:27.527622 29475 net.cpp:84] Creating Layer fire9/expand1x1
I1028 17:19:27.527628 29475 net.cpp:413] fire9/expand1x1 <- fire9/squeeze1x1_fire9/relu_squeeze1x1_0_split_0
I1028 17:19:27.527635 29475 net.cpp:387] fire9/expand1x1 -> fire9/expand1x1
I1028 17:19:27.528128 29475 net.cpp:127] Setting up fire9/expand1x1
I1028 17:19:27.528141 29475 net.cpp:136] Top shape: 50 256 14 14 (2508800)
I1028 17:19:27.528146 29475 net.cpp:144] Memory required for data: 1466694200
I1028 17:19:27.528153 29475 net.cpp:453] Found INQ layer:fire9/expand1x1, type: INQConvolution, layer id:66
I1028 17:19:27.528159 29475 net.cpp:453] Found INQ layer:fire9/expand1x1, type: INQConvolution, layer id:66
I1028 17:19:27.528165 29475 net.cpp:453] Found INQ layer:fire9/expand1x1, type: INQConvolution, layer id:66
I1028 17:19:27.528170 29475 net.cpp:453] Found INQ layer:fire9/expand1x1, type: INQConvolution, layer id:66
I1028 17:19:27.528175 29475 layer_factory.hpp:77] Creating layer fire9/relu_expand1x1
I1028 17:19:27.528182 29475 net.cpp:84] Creating Layer fire9/relu_expand1x1
I1028 17:19:27.528187 29475 net.cpp:413] fire9/relu_expand1x1 <- fire9/expand1x1
I1028 17:19:27.528193 29475 net.cpp:374] fire9/relu_expand1x1 -> fire9/expand1x1 (in-place)
I1028 17:19:27.528416 29475 net.cpp:127] Setting up fire9/relu_expand1x1
I1028 17:19:27.528429 29475 net.cpp:136] Top shape: 50 256 14 14 (2508800)
I1028 17:19:27.528434 29475 net.cpp:144] Memory required for data: 1476729400
I1028 17:19:27.528441 29475 layer_factory.hpp:77] Creating layer fire9/expand3x3
I1028 17:19:27.528452 29475 net.cpp:84] Creating Layer fire9/expand3x3
I1028 17:19:27.528458 29475 net.cpp:413] fire9/expand3x3 <- fire9/squeeze1x1_fire9/relu_squeeze1x1_0_split_1
I1028 17:19:27.528468 29475 net.cpp:387] fire9/expand3x3 -> fire9/expand3x3
I1028 17:19:27.531301 29475 net.cpp:127] Setting up fire9/expand3x3
I1028 17:19:27.531322 29475 net.cpp:136] Top shape: 50 256 14 14 (2508800)
I1028 17:19:27.531327 29475 net.cpp:144] Memory required for data: 1486764600
I1028 17:19:27.531334 29475 net.cpp:453] Found INQ layer:fire9/expand3x3, type: INQConvolution, layer id:68
I1028 17:19:27.531342 29475 net.cpp:453] Found INQ layer:fire9/expand3x3, type: INQConvolution, layer id:68
I1028 17:19:27.531347 29475 net.cpp:453] Found INQ layer:fire9/expand3x3, type: INQConvolution, layer id:68
I1028 17:19:27.531352 29475 net.cpp:453] Found INQ layer:fire9/expand3x3, type: INQConvolution, layer id:68
I1028 17:19:27.531358 29475 layer_factory.hpp:77] Creating layer fire9/relu_expand3x3
I1028 17:19:27.531369 29475 net.cpp:84] Creating Layer fire9/relu_expand3x3
I1028 17:19:27.531376 29475 net.cpp:413] fire9/relu_expand3x3 <- fire9/expand3x3
I1028 17:19:27.531384 29475 net.cpp:374] fire9/relu_expand3x3 -> fire9/expand3x3 (in-place)
I1028 17:19:27.531608 29475 net.cpp:127] Setting up fire9/relu_expand3x3
I1028 17:19:27.531620 29475 net.cpp:136] Top shape: 50 256 14 14 (2508800)
I1028 17:19:27.531625 29475 net.cpp:144] Memory required for data: 1496799800
I1028 17:19:27.531631 29475 layer_factory.hpp:77] Creating layer fire9/concat
I1028 17:19:27.531641 29475 net.cpp:84] Creating Layer fire9/concat
I1028 17:19:27.531646 29475 net.cpp:413] fire9/concat <- fire9/expand1x1
I1028 17:19:27.531652 29475 net.cpp:413] fire9/concat <- fire9/expand3x3
I1028 17:19:27.531659 29475 net.cpp:387] fire9/concat -> fire9/concat
I1028 17:19:27.531695 29475 net.cpp:127] Setting up fire9/concat
I1028 17:19:27.531703 29475 net.cpp:136] Top shape: 50 512 14 14 (5017600)
I1028 17:19:27.531708 29475 net.cpp:144] Memory required for data: 1516870200
I1028 17:19:27.531713 29475 layer_factory.hpp:77] Creating layer drop9
I1028 17:19:27.531721 29475 net.cpp:84] Creating Layer drop9
I1028 17:19:27.531726 29475 net.cpp:413] drop9 <- fire9/concat
I1028 17:19:27.531734 29475 net.cpp:374] drop9 -> fire9/concat (in-place)
I1028 17:19:27.531764 29475 net.cpp:127] Setting up drop9
I1028 17:19:27.531780 29475 net.cpp:136] Top shape: 50 512 14 14 (5017600)
I1028 17:19:27.531802 29475 net.cpp:144] Memory required for data: 1536940600
I1028 17:19:27.531808 29475 layer_factory.hpp:77] Creating layer conv10
I1028 17:19:27.531818 29475 net.cpp:84] Creating Layer conv10
I1028 17:19:27.531824 29475 net.cpp:413] conv10 <- fire9/concat
I1028 17:19:27.531834 29475 net.cpp:387] conv10 -> conv10
I1028 17:19:27.542536 29475 net.cpp:127] Setting up conv10
I1028 17:19:27.542557 29475 net.cpp:136] Top shape: 50 1000 14 14 (9800000)
I1028 17:19:27.542562 29475 net.cpp:144] Memory required for data: 1576140600
I1028 17:19:27.542569 29475 net.cpp:453] Found INQ layer:conv10, type: INQConvolution, layer id:72
I1028 17:19:27.542577 29475 net.cpp:453] Found INQ layer:conv10, type: INQConvolution, layer id:72
I1028 17:19:27.542582 29475 net.cpp:453] Found INQ layer:conv10, type: INQConvolution, layer id:72
I1028 17:19:27.542587 29475 net.cpp:453] Found INQ layer:conv10, type: INQConvolution, layer id:72
I1028 17:19:27.542593 29475 layer_factory.hpp:77] Creating layer relu_conv10
I1028 17:19:27.542603 29475 net.cpp:84] Creating Layer relu_conv10
I1028 17:19:27.542609 29475 net.cpp:413] relu_conv10 <- conv10
I1028 17:19:27.542618 29475 net.cpp:374] relu_conv10 -> conv10 (in-place)
I1028 17:19:27.544035 29475 net.cpp:127] Setting up relu_conv10
I1028 17:19:27.544054 29475 net.cpp:136] Top shape: 50 1000 14 14 (9800000)
I1028 17:19:27.544060 29475 net.cpp:144] Memory required for data: 1615340600
I1028 17:19:27.544065 29475 layer_factory.hpp:77] Creating layer pool10
I1028 17:19:27.544075 29475 net.cpp:84] Creating Layer pool10
I1028 17:19:27.544080 29475 net.cpp:413] pool10 <- conv10
I1028 17:19:27.544090 29475 net.cpp:387] pool10 -> pool10
I1028 17:19:27.544333 29475 net.cpp:127] Setting up pool10
I1028 17:19:27.544348 29475 net.cpp:136] Top shape: 50 1000 1 1 (50000)
I1028 17:19:27.544353 29475 net.cpp:144] Memory required for data: 1615540600
I1028 17:19:27.544360 29475 layer_factory.hpp:77] Creating layer pool10_pool10_0_split
I1028 17:19:27.544368 29475 net.cpp:84] Creating Layer pool10_pool10_0_split
I1028 17:19:27.544373 29475 net.cpp:413] pool10_pool10_0_split <- pool10
I1028 17:19:27.544381 29475 net.cpp:387] pool10_pool10_0_split -> pool10_pool10_0_split_0
I1028 17:19:27.544390 29475 net.cpp:387] pool10_pool10_0_split -> pool10_pool10_0_split_1
I1028 17:19:27.544397 29475 net.cpp:387] pool10_pool10_0_split -> pool10_pool10_0_split_2
I1028 17:19:27.544464 29475 net.cpp:127] Setting up pool10_pool10_0_split
I1028 17:19:27.544473 29475 net.cpp:136] Top shape: 50 1000 1 1 (50000)
I1028 17:19:27.544481 29475 net.cpp:136] Top shape: 50 1000 1 1 (50000)
I1028 17:19:27.544486 29475 net.cpp:136] Top shape: 50 1000 1 1 (50000)
I1028 17:19:27.544490 29475 net.cpp:144] Memory required for data: 1616140600
I1028 17:19:27.544494 29475 layer_factory.hpp:77] Creating layer loss
I1028 17:19:27.544503 29475 net.cpp:84] Creating Layer loss
I1028 17:19:27.544508 29475 net.cpp:413] loss <- pool10_pool10_0_split_0
I1028 17:19:27.544515 29475 net.cpp:413] loss <- label_data_1_split_0
I1028 17:19:27.544522 29475 net.cpp:387] loss -> loss
…
