…
I1028 18:09:31.395635 12309 net.cpp:301] The NetState phase (0) differed from the phase (1) specified by a rule in layer accuracy_top5
I1028 18:09:31.396630 12309 net.cpp:51] Initializing net from parameters: 
name: "SqueezeNet"
state {
  phase: TRAIN
  level: 0
  stage: ""
}
layer {
  name: "data"
  type: "Data"
  top: "data"
  top: "label"
  include {
    phase: TRAIN
  }
  transform_param {
    crop_size: 227
    mean_value: 104
    mean_value: 117
    mean_value: 123
  }
  data_param {
    source: "/home/data/caffe-imagenet/ilsvrc12_train_lmdb"
    batch_size: 128
    backend: LMDB
  }
}
layer {
  name: "conv1"
  type: "INQConvolution"
  bottom: "data"
  top: "conv1"
  convolution_param {
    num_output: 64
    kernel_size: 3
    stride: 2
    weight_filler {
      type: "xavier"
    }
  }
  inq_convolution_param {
    portion: 0.2
    portion: 0.4
    weight_mask_filler {
      type: "constant"
      value: 1
    }
    bias_mask_filler {
      type: "constant"
      value: 1
    }
    num_quantum_values: 7
  }
}
layer {
  name: "relu_conv1"
  type: "ReLU"
  bottom: "conv1"
  top: "conv1"
}
layer {
  name: "pool1"
  type: "Pooling"
  bottom: "conv1"
  top: "pool1"
  pooling_param {
    pool: MAX
    kernel_size: 3
    stride: 2
  }
}
layer {
  name: "fire2/squeeze1x1"
  type: "INQConvolution"
  bottom: "pool1"
  top: "fire2/squeeze1x1"
  convolution_param {
    num_output: 16
    kernel_size: 1
    weight_filler {
      type: "xavier"
    }
  }
  inq_convolution_param {
    portion: 0.2
    portion: 0.4
    weight_mask_filler {
      type: "constant"
      value: 1
    }
    bias_mask_filler {
      type: "constant"
      value: 1
    }
    num_quantum_values: 7
  }
}
layer {
  name: "fire2/relu_squeeze1x1"
  type: "ReLU"
  bottom: "fire2/squeeze1x1"
  top: "fire2/squeeze1x1"
}
layer {
  name: "fire2/expand1x1"
  type: "INQConvolution"
  bottom: "fire2/squeeze1x1"
  top: "fire2/expand1x1"
  convolution_param {
    num_output: 64
    kernel_size: 1
    weight_filler {
      type: "xavier"
    }
  }
  inq_convolution_param {
    portion: 0.2
    portion: 0.4
    weight_mask_filler {
      type: "constant"
      value: 1
    }
    bias_mask_filler {
      type: "constant"
      value: 1
    }
    num_quantum_values: 7
  }
}
layer {
  name: "fire2/relu_expand1x1"
  type: "ReLU"
  bottom: "fire2/expand1x1"
  top: "fire2/expand1x1"
}
layer {
  name: "fire2/expand3x3"
  type: "INQConvolution"
  bottom: "fire2/squeeze1x1"
  top: "fire2/expand3x3"
  convolution_param {
    num_output: 64
    pad: 1
    kernel_size: 3
    weight_filler {
      type: "xavier"
    }
  }
  inq_convolution_param {
    portion: 0.2
    portion: 0.4
    weight_mask_filler {
      type: "constant"
      value: 1
    }
    bias_mask_filler {
      type: "constant"
      value: 1
    }
    num_quantum_values: 7
  }
}
layer {
  name: "fire2/relu_expand3x3"
  type: "ReLU"
  bottom: "fire2/expand3x3"
  top: "fire2/expand3x3"
}
layer {
  name: "fire2/concat"
  type: "Concat"
  bottom: "fire2/expand1x1"
  bottom: "fire2/expand3x3"
  top: "fire2/concat"
}
layer {
  name: "fire3/squeeze1x1"
  type: "INQConvolution"
  bottom: "fire2/concat"
  top: "fire3/squeeze1x1"
  convolution_param {
    num_output: 16
    kernel_size: 1
    weight_filler {
      type: "xavier"
    }
  }
  inq_convolution_param {
    portion: 0.2
    portion: 0.4
    weight_mask_filler {
      type: "constant"
      value: 1
    }
    bias_mask_filler {
      type: "constant"
      value: 1
    }
    num_quantum_values: 7
  }
}
layer {
  name: "fire3/relu_squeeze1x1"
  type: "ReLU"
  bottom: "fire3/squeeze1x1"
  top: "fire3/squeeze1x1"
}
layer {
  name: "fire3/expand1x1"
  type: "INQConvolution"
  bottom: "fire3/squeeze1x1"
  top: "fire3/expand1x1"
  convolution_param {
    num_output: 64
    kernel_size: 1
    weight_filler {
      type: "xavier"
    }
  }
  inq_convolution_param {
    portion: 0.2
    portion: 0.4
    weight_mask_filler {
      type: "constant"
      value: 1
    }
    bias_mask_filler {
      type: "constant"
      value: 1
    }
    num_quantum_values: 7
  }
}
layer {
  name: "fire3/relu_expand1x1"
  type: "ReLU"
  bottom: "fire3/expand1x1"
  top: "fire3/expand1x1"
}
layer {
  name: "fire3/expand3x3"
  type: "INQConvolution"
  bottom: "fire3/squeeze1x1"
  top: "fire3/expand3x3"
  convolution_param {
    num_output: 64
    pad: 1
    kernel_size: 3
    weight_filler {
      type: "xavier"
    }
  }
  inq_convolution_param {
    portion: 0.2
    portion: 0.4
    weight_mask_filler {
      type: "constant"
      value: 1
    }
    bias_mask_filler {
      type: "constant"
      value: 1
    }
    num_quantum_values: 7
  }
}
layer {
  name: "fire3/relu_expand3x3"
  type: "ReLU"
  bottom: "fire3/expand3x3"
  top: "fire3/expand3x3"
}
layer {
  name: "fire3/concat"
  type: "Concat"
  bottom: "fire3/expand1x1"
  bottom: "fire3/expand3x3"
  top: "fire3/concat"
}
layer {
  name: "pool3"
  type: "Pooling"
  bottom: "fire3/concat"
  top: "pool3"
  pooling_param {
    pool: MAX
    kernel_size: 3
    stride: 2
  }
}
layer {
  name: "fire4/squeeze1x1"
  type: "INQConvolution"
  bottom: "pool3"
  top: "fire4/squeeze1x1"
  convolution_param {
    num_output: 32
    kernel_size: 1
    weight_filler {
      type: "xavier"
    }
  }
  inq_convolution_param {
    portion: 0.2
    portion: 0.4
    weight_mask_filler {
      type: "constant"
      value: 1
    }
    bias_mask_filler {
      type: "constant"
      value: 1
    }
    num_quantum_values: 7
  }
}
layer {
  name: "fire4/relu_squeeze1x1"
  type: "ReLU"
  bottom: "fire4/squeeze1x1"
  top: "fire4/squeeze1x1"
}
layer {
  name: "fire4/expand1x1"
  type: "INQConvolution"
  bottom: "fire4/squeeze1x1"
  top: "fire4/expand1x1"
  convolution_param {
    num_output: 128
    kernel_size: 1
    weight_filler {
      type: "xavier"
    }
  }
  inq_convolution_param {
    portion: 0.2
    portion: 0.4
    weight_mask_filler {
      type: "constant"
      value: 1
    }
    bias_mask_filler {
      type: "constant"
      value: 1
    }
    num_quantum_values: 7
  }
}
layer {
  name: "fire4/relu_expand1x1"
  type: "ReLU"
  bottom: "fire4/expand1x1"
  top: "fire4/expand1x1"
}
layer {
  name: "fire4/expand3x3"
  type: "INQConvolution"
  bottom: "fire4/squeeze1x1"
  top: "fire4/expand3x3"
  convolution_param {
    num_output: 128
    pad: 1
    kernel_size: 3
    weight_filler {
      type: "xavier"
    }
  }
  inq_convolution_param {
    portion: 0.2
    portion: 0.4
    weight_mask_filler {
      type: "constant"
      value: 1
    }
    bias_mask_filler {
      type: "constant"
      value: 1
    }
    num_quantum_values: 7
  }
}
layer {
  name: "fire4/relu_expand3x3"
  type: "ReLU"
  bottom: "fire4/expand3x3"
  top: "fire4/expand3x3"
}
layer {
  name: "fire4/concat"
  type: "Concat"
  bottom: "fire4/expand1x1"
  bottom: "fire4/expand3x3"
  top: "fire4/concat"
}
layer {
  name: "fire5/squeeze1x1"
  type: "INQConvolution"
  bottom: "fire4/concat"
  top: "fire5/squeeze1x1"
  convolution_param {
    num_output: 32
    kernel_size: 1
    weight_filler {
      type: "xavier"
    }
  }
  inq_convolution_param {
    portion: 0.2
    portion: 0.4
    weight_mask_filler {
      type: "constant"
      value: 1
    }
    bias_mask_filler {
      type: "constant"
      value: 1
    }
    num_quantum_values: 7
  }
}
layer {
  name: "fire5/relu_squeeze1x1"
  type: "ReLU"
  bottom: "fire5/squeeze1x1"
  top: "fire5/squeeze1x1"
}
layer {
  name: "fire5/expand1x1"
  type: "INQConvolution"
  bottom: "fire5/squeeze1x1"
  top: "fire5/expand1x1"
  convolution_param {
    num_output: 128
    kernel_size: 1
    weight_filler {
      type: "xavier"
    }
  }
  inq_convolution_param {
    portion: 0.2
    portion: 0.4
    weight_mask_filler {
      type: "constant"
      value: 1
    }
    bias_mask_filler {
      type: "constant"
      value: 1
    }
    num_quantum_values: 7
  }
}
layer {
  name: "fire5/relu_expand1x1"
  type: "ReLU"
  bottom: "fire5/expand1x1"
  top: "fire5/expand1x1"
}
layer {
  name: "fire5/expand3x3"
  type: "INQConvolution"
  bottom: "fire5/squeeze1x1"
  top: "fire5/expand3x3"
  convolution_param {
    num_output: 128
    pad: 1
    kernel_size: 3
    weight_filler {
      type: "xavier"
    }
  }
  inq_convolution_param {
    portion: 0.2
    portion: 0.4
    weight_mask_filler {
      type: "constant"
      value: 1
    }
    bias_mask_filler {
      type: "constant"
      value: 1
    }
    num_quantum_values: 7
  }
}
layer {
  name: "fire5/relu_expand3x3"
  type: "ReLU"
  bottom: "fire5/expand3x3"
  top: "fire5/expand3x3"
}
layer {
  name: "fire5/concat"
  type: "Concat"
  bottom: "fire5/expand1x1"
  bottom: "fire5/expand3x3"
  top: "fire5/concat"
}
layer {
  name: "pool5"
  type: "Pooling"
  bottom: "fire5/concat"
  top: "pool5"
  pooling_param {
    pool: MAX
    kernel_size: 3
    stride: 2
  }
}
layer {
  name: "fire6/squeeze1x1"
  type: "INQConvolution"
  bottom: "pool5"
  top: "fire6/squeeze1x1"
  convolution_param {
    num_output: 48
    kernel_size: 1
    weight_filler {
      type: "xavier"
    }
  }
  inq_convolution_param {
    portion: 0.2
    portion: 0.4
    weight_mask_filler {
      type: "constant"
      value: 1
    }
    bias_mask_filler {
      type: "constant"
      value: 1
    }
    num_quantum_values: 7
  }
}
layer {
  name: "fire6/relu_squeeze1x1"
  type: "ReLU"
  bottom: "fire6/squeeze1x1"
  top: "fire6/squeeze1x1"
}
layer {
  name: "fire6/expand1x1"
  type: "INQConvolution"
  bottom: "fire6/squeeze1x1"
  top: "fire6/expand1x1"
  convolution_param {
    num_output: 192
    kernel_size: 1
    weight_filler {
      type: "xavier"
    }
  }
  inq_convolution_param {
    portion: 0.2
    portion: 0.4
    weight_mask_filler {
      type: "constant"
      value: 1
    }
    bias_mask_filler {
      type: "constant"
      value: 1
    }
    num_quantum_values: 7
  }
}
layer {
  name: "fire6/relu_expand1x1"
  type: "ReLU"
  bottom: "fire6/expand1x1"
  top: "fire6/expand1x1"
}
layer {
  name: "fire6/expand3x3"
  type: "INQConvolution"
  bottom: "fire6/squeeze1x1"
  top: "fire6/expand3x3"
  convolution_param {
    num_output: 192
    pad: 1
    kernel_size: 3
    weight_filler {
      type: "xavier"
    }
  }
  inq_convolution_param {
    portion: 0.2
    portion: 0.4
    weight_mask_filler {
      type: "constant"
      value: 1
    }
    bias_mask_filler {
      type: "constant"
      value: 1
    }
    num_quantum_values: 7
  }
}
layer {
  name: "fire6/relu_expand3x3"
  type: "ReLU"
  bottom: "fire6/expand3x3"
  top: "fire6/expand3x3"
}
layer {
  name: "fire6/concat"
  type: "Concat"
  bottom: "fire6/expand1x1"
  bottom: "fire6/expand3x3"
  top: "fire6/concat"
}
layer {
  name: "fire7/squeeze1x1"
  type: "INQConvolution"
  bottom: "fire6/concat"
  top: "fire7/squeeze1x1"
  convolution_param {
    num_output: 48
    kernel_size: 1
    weight_filler {
      type: "xavier"
    }
  }
  inq_convolution_param {
    portion: 0.2
    portion: 0.4
    weight_mask_filler {
      type: "constant"
      value: 1
    }
    bias_mask_filler {
      type: "constant"
      value: 1
    }
    num_quantum_values: 7
  }
}
layer {
  name: "fire7/relu_squeeze1x1"
  type: "ReLU"
  bottom: "fire7/squeeze1x1"
  top: "fire7/squeeze1x1"
}
layer {
  name: "fire7/expand1x1"
  type: "INQConvolution"
  bottom: "fire7/squeeze1x1"
  top: "fire7/expand1x1"
  convolution_param {
    num_output: 192
    kernel_size: 1
    weight_filler {
      type: "xavier"
    }
  }
  inq_convolution_param {
    portion: 0.2
    portion: 0.4
    weight_mask_filler {
      type: "constant"
      value: 1
    }
    bias_mask_filler {
      type: "constant"
      value: 1
    }
    num_quantum_values: 7
  }
}
layer {
  name: "fire7/relu_expand1x1"
  type: "ReLU"
  bottom: "fire7/expand1x1"
  top: "fire7/expand1x1"
}
layer {
  name: "fire7/expand3x3"
  type: "INQConvolution"
  bottom: "fire7/squeeze1x1"
  top: "fire7/expand3x3"
  convolution_param {
    num_output: 192
    pad: 1
    kernel_size: 3
    weight_filler {
      type: "xavier"
    }
  }
  inq_convolution_param {
    portion: 0.2
    portion: 0.4
    weight_mask_filler {
      type: "constant"
      value: 1
    }
    bias_mask_filler {
      type: "constant"
      value: 1
    }
    num_quantum_values: 7
  }
}
layer {
  name: "fire7/relu_expand3x3"
  type: "ReLU"
  bottom: "fire7/expand3x3"
  top: "fire7/expand3x3"
}
layer {
  name: "fire7/concat"
  type: "Concat"
  bottom: "fire7/expand1x1"
  bottom: "fire7/expand3x3"
  top: "fire7/concat"
}
layer {
  name: "fire8/squeeze1x1"
  type: "INQConvolution"
  bottom: "fire7/concat"
  top: "fire8/squeeze1x1"
  convolution_param {
    num_output: 64
    kernel_size: 1
    weight_filler {
      type: "xavier"
    }
  }
  inq_convolution_param {
    portion: 0.2
    portion: 0.4
    weight_mask_filler {
      type: "constant"
      value: 1
    }
    bias_mask_filler {
      type: "constant"
      value: 1
    }
    num_quantum_values: 7
  }
}
layer {
  name: "fire8/relu_squeeze1x1"
  type: "ReLU"
  bottom: "fire8/squeeze1x1"
  top: "fire8/squeeze1x1"
}
layer {
  name: "fire8/expand1x1"
  type: "INQConvolution"
  bottom: "fire8/squeeze1x1"
  top: "fire8/expand1x1"
  convolution_param {
    num_output: 256
    kernel_size: 1
    weight_filler {
      type: "xavier"
    }
  }
  inq_convolution_param {
    portion: 0.2
    portion: 0.4
    weight_mask_filler {
      type: "constant"
      value: 1
    }
    bias_mask_filler {
      type: "constant"
      value: 1
    }
    num_quantum_values: 7
  }
}
layer {
  name: "fire8/relu_expand1x1"
  type: "ReLU"
  bottom: "fire8/expand1x1"
  top: "fire8/expand1x1"
}
layer {
  name: "fire8/expand3x3"
  type: "INQConvolution"
  bottom: "fire8/squeeze1x1"
  top: "fire8/expand3x3"
  convolution_param {
    num_output: 256
    pad: 1
    kernel_size: 3
    weight_filler {
      type: "xavier"
    }
  }
  inq_convolution_param {
    portion: 0.2
    portion: 0.4
    weight_mask_filler {
      type: "constant"
      value: 1
    }
    bias_mask_filler {
      type: "constant"
      value: 1
    }
    num_quantum_values: 7
  }
}
layer {
  name: "fire8/relu_expand3x3"
  type: "ReLU"
  bottom: "fire8/expand3x3"
  top: "fire8/expand3x3"
}
layer {
  name: "fire8/concat"
  type: "Concat"
  bottom: "fire8/expand1x1"
  bottom: "fire8/expand3x3"
  top: "fire8/concat"
}
layer {
  name: "fire9/squeeze1x1"
  type: "INQConvolution"
  bottom: "fire8/concat"
  top: "fire9/squeeze1x1"
  convolution_param {
    num_output: 64
    kernel_size: 1
    weight_filler {
      type: "xavier"
    }
  }
  inq_convolution_param {
    portion: 0.2
    portion: 0.4
    weight_mask_filler {
      type: "constant"
      value: 1
    }
    bias_mask_filler {
      type: "constant"
      value: 1
    }
    num_quantum_values: 7
  }
}
layer {
  name: "fire9/relu_squeeze1x1"
  type: "ReLU"
  bottom: "fire9/squeeze1x1"
  top: "fire9/squeeze1x1"
}
layer {
  name: "fire9/expand1x1"
  type: "INQConvolution"
  bottom: "fire9/squeeze1x1"
  top: "fire9/expand1x1"
  convolution_param {
    num_output: 256
    kernel_size: 1
    weight_filler {
      type: "xavier"
    }
  }
  inq_convolution_param {
    portion: 0.2
    portion: 0.4
    weight_mask_filler {
      type: "constant"
      value: 1
    }
    bias_mask_filler {
      type: "constant"
      value: 1
    }
    num_quantum_values: 7
  }
}
layer {
  name: "fire9/relu_expand1x1"
  type: "ReLU"
  bottom: "fire9/expand1x1"
  top: "fire9/expand1x1"
}
layer {
  name: "fire9/expand3x3"
  type: "INQConvolution"
  bottom: "fire9/squeeze1x1"
  top: "fire9/expand3x3"
  convolution_param {
    num_output: 256
    pad: 1
    kernel_size: 3
    weight_filler {
      type: "xavier"
    }
  }
  inq_convolution_param {
    portion: 0.2
    portion: 0.4
    weight_mask_filler {
      type: "constant"
      value: 1
    }
    bias_mask_filler {
      type: "constant"
      value: 1
    }
    num_quantum_values: 7
  }
}
layer {
  name: "fire9/relu_expand3x3"
  type: "ReLU"
  bottom: "fire9/expand3x3"
  top: "fire9/expand3x3"
}
layer {
  name: "fire9/concat"
  type: "Concat"
  bottom: "fire9/expand1x1"
  bottom: "fire9/expand3x3"
  top: "fire9/concat"
}
layer {
  name: "drop9"
  type: "Dropout"
  bottom: "fire9/concat"
  top: "fire9/concat"
  dropout_param {
    dropout_ratio: 0.5
  }
}
layer {
  name: "conv10"
  type: "INQConvolution"
  bottom: "fire9/concat"
  top: "conv10"
  convolution_param {
    num_output: 1000
    kernel_size: 1
    weight_filler {
      type: "gaussian"
      mean: 0
      std: 0.01
    }
  }
  inq_convolution_param {
    portion: 0.2
    portion: 0.4
    weight_mask_filler {
      type: "constant"
      value: 1
    }
    bias_mask_filler {
      type: "constant"
      value: 1
    }
    num_quantum_values: 7
  }
}
layer {
  name: "relu_conv10"
  type: "ReLU"
  bottom: "conv10"
  top: "conv10"
}
layer {
  name: "pool10"
  type: "Pooling"
  bottom: "conv10"
  top: "pool10"
  pooling_param {
    pool: AVE
    global_pooling: true
  }
}
layer {
  name: "loss"
  type: "SoftmaxWithLoss"
  bottom: "pool10"
  bottom: "label"
  top: "loss"
}
I1028 18:09:31.397192 12309 layer_factory.hpp:77] Creating layer data
I1028 18:09:31.397903 12309 db_lmdb.cpp:35] Opened lmdb /home/data/caffe-imagenet/ilsvrc12_train_lmdb
I1028 18:09:31.397975 12309 net.cpp:84] Creating Layer data
I1028 18:09:31.397989 12309 net.cpp:387] data -> data
I1028 18:09:31.398025 12309 net.cpp:387] data -> label
I1028 18:09:31.400394 12309 data_layer.cpp:45] output data size: 128,3,227,227
I1028 18:09:31.620085 12309 net.cpp:127] Setting up data
I1028 18:09:31.620126 12309 net.cpp:136] Top shape: 128 3 227 227 (19787136)
I1028 18:09:31.620133 12309 net.cpp:136] Top shape: 128 (128)
I1028 18:09:31.620137 12309 net.cpp:144] Memory required for data: 79149056
I1028 18:09:31.620151 12309 layer_factory.hpp:77] Creating layer conv1
I1028 18:09:31.620175 12309 net.cpp:84] Creating Layer conv1
I1028 18:09:31.620183 12309 net.cpp:413] conv1 <- data
I1028 18:09:31.620201 12309 net.cpp:387] conv1 -> conv1
I1028 18:09:31.623431 12309 net.cpp:127] Setting up conv1
I1028 18:09:31.623448 12309 net.cpp:136] Top shape: 128 64 113 113 (104603648)
I1028 18:09:31.623453 12309 net.cpp:144] Memory required for data: 497563648
I1028 18:09:31.623472 12309 net.cpp:453] Found INQ layer:conv1, type: INQConvolution, layer id:1
I1028 18:09:31.623483 12309 net.cpp:453] Found INQ layer:conv1, type: INQConvolution, layer id:1
I1028 18:09:31.623492 12309 net.cpp:453] Found INQ layer:conv1, type: INQConvolution, layer id:1
I1028 18:09:31.623497 12309 net.cpp:453] Found INQ layer:conv1, type: INQConvolution, layer id:1
I1028 18:09:31.623502 12309 layer_factory.hpp:77] Creating layer relu_conv1
I1028 18:09:31.623517 12309 net.cpp:84] Creating Layer relu_conv1
I1028 18:09:31.623520 12309 net.cpp:413] relu_conv1 <- conv1
I1028 18:09:31.623528 12309 net.cpp:374] relu_conv1 -> conv1 (in-place)
I1028 18:09:32.087132 12309 net.cpp:127] Setting up relu_conv1
I1028 18:09:32.087175 12309 net.cpp:136] Top shape: 128 64 113 113 (104603648)
I1028 18:09:32.087182 12309 net.cpp:144] Memory required for data: 915978240
I1028 18:09:32.087188 12309 layer_factory.hpp:77] Creating layer pool1
I1028 18:09:32.087206 12309 net.cpp:84] Creating Layer pool1
I1028 18:09:32.087213 12309 net.cpp:413] pool1 <- conv1
I1028 18:09:32.087222 12309 net.cpp:387] pool1 -> pool1
I1028 18:09:32.087312 12309 net.cpp:127] Setting up pool1
I1028 18:09:32.087321 12309 net.cpp:136] Top shape: 128 64 56 56 (25690112)
I1028 18:09:32.087355 12309 net.cpp:144] Memory required for data: 1018738688
I1028 18:09:32.087360 12309 layer_factory.hpp:77] Creating layer fire2/squeeze1x1
I1028 18:09:32.087375 12309 net.cpp:84] Creating Layer fire2/squeeze1x1
I1028 18:09:32.087380 12309 net.cpp:413] fire2/squeeze1x1 <- pool1
I1028 18:09:32.087388 12309 net.cpp:387] fire2/squeeze1x1 -> fire2/squeeze1x1
I1028 18:09:32.089166 12309 net.cpp:127] Setting up fire2/squeeze1x1
I1028 18:09:32.089184 12309 net.cpp:136] Top shape: 128 16 56 56 (6422528)
I1028 18:09:32.089187 12309 net.cpp:144] Memory required for data: 1044428800
I1028 18:09:32.089198 12309 net.cpp:453] Found INQ layer:fire2/squeeze1x1, type: INQConvolution, layer id:4
I1028 18:09:32.089207 12309 net.cpp:453] Found INQ layer:fire2/squeeze1x1, type: INQConvolution, layer id:4
I1028 18:09:32.089212 12309 net.cpp:453] Found INQ layer:fire2/squeeze1x1, type: INQConvolution, layer id:4
I1028 18:09:32.089217 12309 net.cpp:453] Found INQ layer:fire2/squeeze1x1, type: INQConvolution, layer id:4
I1028 18:09:32.089221 12309 layer_factory.hpp:77] Creating layer fire2/relu_squeeze1x1
I1028 18:09:32.089229 12309 net.cpp:84] Creating Layer fire2/relu_squeeze1x1
I1028 18:09:32.089233 12309 net.cpp:413] fire2/relu_squeeze1x1 <- fire2/squeeze1x1
I1028 18:09:32.089239 12309 net.cpp:374] fire2/relu_squeeze1x1 -> fire2/squeeze1x1 (in-place)
I1028 18:09:32.090602 12309 net.cpp:127] Setting up fire2/relu_squeeze1x1
I1028 18:09:32.090617 12309 net.cpp:136] Top shape: 128 16 56 56 (6422528)
I1028 18:09:32.090621 12309 net.cpp:144] Memory required for data: 1070118912
I1028 18:09:32.090626 12309 layer_factory.hpp:77] Creating layer fire2/squeeze1x1_fire2/relu_squeeze1x1_0_split
I1028 18:09:32.090637 12309 net.cpp:84] Creating Layer fire2/squeeze1x1_fire2/relu_squeeze1x1_0_split
I1028 18:09:32.090641 12309 net.cpp:413] fire2/squeeze1x1_fire2/relu_squeeze1x1_0_split <- fire2/squeeze1x1
I1028 18:09:32.090648 12309 net.cpp:387] fire2/squeeze1x1_fire2/relu_squeeze1x1_0_split -> fire2/squeeze1x1_fire2/relu_squeeze1x1_0_split_0
I1028 18:09:32.090656 12309 net.cpp:387] fire2/squeeze1x1_fire2/relu_squeeze1x1_0_split -> fire2/squeeze1x1_fire2/relu_squeeze1x1_0_split_1
I1028 18:09:32.090703 12309 net.cpp:127] Setting up fire2/squeeze1x1_fire2/relu_squeeze1x1_0_split
I1028 18:09:32.090710 12309 net.cpp:136] Top shape: 128 16 56 56 (6422528)
I1028 18:09:32.090715 12309 net.cpp:136] Top shape: 128 16 56 56 (6422528)
I1028 18:09:32.090718 12309 net.cpp:144] Memory required for data: 1121499136
I1028 18:09:32.090723 12309 layer_factory.hpp:77] Creating layer fire2/expand1x1
I1028 18:09:32.090730 12309 net.cpp:84] Creating Layer fire2/expand1x1
I1028 18:09:32.090735 12309 net.cpp:413] fire2/expand1x1 <- fire2/squeeze1x1_fire2/relu_squeeze1x1_0_split_0
I1028 18:09:32.090741 12309 net.cpp:387] fire2/expand1x1 -> fire2/expand1x1
I1028 18:09:32.091059 12309 net.cpp:127] Setting up fire2/expand1x1
I1028 18:09:32.091068 12309 net.cpp:136] Top shape: 128 64 56 56 (25690112)
I1028 18:09:32.091073 12309 net.cpp:144] Memory required for data: 1224259584
I1028 18:09:32.091080 12309 net.cpp:453] Found INQ layer:fire2/expand1x1, type: INQConvolution, layer id:7
I1028 18:09:32.091089 12309 net.cpp:453] Found INQ layer:fire2/expand1x1, type: INQConvolution, layer id:7
I1028 18:09:32.091094 12309 net.cpp:453] Found INQ layer:fire2/expand1x1, type: INQConvolution, layer id:7
I1028 18:09:32.091099 12309 net.cpp:453] Found INQ layer:fire2/expand1x1, type: INQConvolution, layer id:7
I1028 18:09:32.091102 12309 layer_factory.hpp:77] Creating layer fire2/relu_expand1x1
I1028 18:09:32.091110 12309 net.cpp:84] Creating Layer fire2/relu_expand1x1
I1028 18:09:32.091114 12309 net.cpp:413] fire2/relu_expand1x1 <- fire2/expand1x1
I1028 18:09:32.091120 12309 net.cpp:374] fire2/relu_expand1x1 -> fire2/expand1x1 (in-place)
I1028 18:09:32.091310 12309 net.cpp:127] Setting up fire2/relu_expand1x1
I1028 18:09:32.091318 12309 net.cpp:136] Top shape: 128 64 56 56 (25690112)
I1028 18:09:32.091326 12309 net.cpp:144] Memory required for data: 1327020032
I1028 18:09:32.091342 12309 layer_factory.hpp:77] Creating layer fire2/expand3x3
I1028 18:09:32.091351 12309 net.cpp:84] Creating Layer fire2/expand3x3
I1028 18:09:32.091356 12309 net.cpp:413] fire2/expand3x3 <- fire2/squeeze1x1_fire2/relu_squeeze1x1_0_split_1
I1028 18:09:32.091363 12309 net.cpp:387] fire2/expand3x3 -> fire2/expand3x3
I1028 18:09:32.091784 12309 net.cpp:127] Setting up fire2/expand3x3
I1028 18:09:32.091794 12309 net.cpp:136] Top shape: 128 64 56 56 (25690112)
I1028 18:09:32.091797 12309 net.cpp:144] Memory required for data: 1429780480
I1028 18:09:32.091804 12309 net.cpp:453] Found INQ layer:fire2/expand3x3, type: INQConvolution, layer id:9
I1028 18:09:32.091809 12309 net.cpp:453] Found INQ layer:fire2/expand3x3, type: INQConvolution, layer id:9
I1028 18:09:32.091812 12309 net.cpp:453] Found INQ layer:fire2/expand3x3, type: INQConvolution, layer id:9
I1028 18:09:32.091817 12309 net.cpp:453] Found INQ layer:fire2/expand3x3, type: INQConvolution, layer id:9
I1028 18:09:32.091820 12309 layer_factory.hpp:77] Creating layer fire2/relu_expand3x3
I1028 18:09:32.091826 12309 net.cpp:84] Creating Layer fire2/relu_expand3x3
I1028 18:09:32.091830 12309 net.cpp:413] fire2/relu_expand3x3 <- fire2/expand3x3
I1028 18:09:32.091838 12309 net.cpp:374] fire2/relu_expand3x3 -> fire2/expand3x3 (in-place)
I1028 18:09:32.092053 12309 net.cpp:127] Setting up fire2/relu_expand3x3
I1028 18:09:32.092062 12309 net.cpp:136] Top shape: 128 64 56 56 (25690112)
I1028 18:09:32.092067 12309 net.cpp:144] Memory required for data: 1532540928
I1028 18:09:32.092070 12309 layer_factory.hpp:77] Creating layer fire2/concat
I1028 18:09:32.092079 12309 net.cpp:84] Creating Layer fire2/concat
I1028 18:09:32.092083 12309 net.cpp:413] fire2/concat <- fire2/expand1x1
I1028 18:09:32.092088 12309 net.cpp:413] fire2/concat <- fire2/expand3x3
I1028 18:09:32.092097 12309 net.cpp:387] fire2/concat -> fire2/concat
I1028 18:09:32.092128 12309 net.cpp:127] Setting up fire2/concat
I1028 18:09:32.092134 12309 net.cpp:136] Top shape: 128 128 56 56 (51380224)
I1028 18:09:32.092137 12309 net.cpp:144] Memory required for data: 1738061824
I1028 18:09:32.092141 12309 layer_factory.hpp:77] Creating layer fire3/squeeze1x1
I1028 18:09:32.092154 12309 net.cpp:84] Creating Layer fire3/squeeze1x1
I1028 18:09:32.092157 12309 net.cpp:413] fire3/squeeze1x1 <- fire2/concat
I1028 18:09:32.092164 12309 net.cpp:387] fire3/squeeze1x1 -> fire3/squeeze1x1
I1028 18:09:32.092486 12309 net.cpp:127] Setting up fire3/squeeze1x1
I1028 18:09:32.092495 12309 net.cpp:136] Top shape: 128 16 56 56 (6422528)
I1028 18:09:32.092499 12309 net.cpp:144] Memory required for data: 1763751936
I1028 18:09:32.092506 12309 net.cpp:453] Found INQ layer:fire3/squeeze1x1, type: INQConvolution, layer id:12
I1028 18:09:32.092515 12309 net.cpp:453] Found INQ layer:fire3/squeeze1x1, type: INQConvolution, layer id:12
I1028 18:09:32.092520 12309 net.cpp:453] Found INQ layer:fire3/squeeze1x1, type: INQConvolution, layer id:12
I1028 18:09:32.092525 12309 net.cpp:453] Found INQ layer:fire3/squeeze1x1, type: INQConvolution, layer id:12
I1028 18:09:32.092530 12309 layer_factory.hpp:77] Creating layer fire3/relu_squeeze1x1
I1028 18:09:32.092535 12309 net.cpp:84] Creating Layer fire3/relu_squeeze1x1
I1028 18:09:32.092540 12309 net.cpp:413] fire3/relu_squeeze1x1 <- fire3/squeeze1x1
I1028 18:09:32.092545 12309 net.cpp:374] fire3/relu_squeeze1x1 -> fire3/squeeze1x1 (in-place)
I1028 18:09:32.093904 12309 net.cpp:127] Setting up fire3/relu_squeeze1x1
I1028 18:09:32.093917 12309 net.cpp:136] Top shape: 128 16 56 56 (6422528)
I1028 18:09:32.093927 12309 net.cpp:144] Memory required for data: 1789442048
I1028 18:09:32.093932 12309 layer_factory.hpp:77] Creating layer fire3/squeeze1x1_fire3/relu_squeeze1x1_0_split
I1028 18:09:32.093940 12309 net.cpp:84] Creating Layer fire3/squeeze1x1_fire3/relu_squeeze1x1_0_split
I1028 18:09:32.093945 12309 net.cpp:413] fire3/squeeze1x1_fire3/relu_squeeze1x1_0_split <- fire3/squeeze1x1
I1028 18:09:32.093955 12309 net.cpp:387] fire3/squeeze1x1_fire3/relu_squeeze1x1_0_split -> fire3/squeeze1x1_fire3/relu_squeeze1x1_0_split_0
I1028 18:09:32.093977 12309 net.cpp:387] fire3/squeeze1x1_fire3/relu_squeeze1x1_0_split -> fire3/squeeze1x1_fire3/relu_squeeze1x1_0_split_1
I1028 18:09:32.094027 12309 net.cpp:127] Setting up fire3/squeeze1x1_fire3/relu_squeeze1x1_0_split
I1028 18:09:32.094033 12309 net.cpp:136] Top shape: 128 16 56 56 (6422528)
I1028 18:09:32.094038 12309 net.cpp:136] Top shape: 128 16 56 56 (6422528)
I1028 18:09:32.094041 12309 net.cpp:144] Memory required for data: 1840822272
I1028 18:09:32.094044 12309 layer_factory.hpp:77] Creating layer fire3/expand1x1
I1028 18:09:32.094055 12309 net.cpp:84] Creating Layer fire3/expand1x1
I1028 18:09:32.094059 12309 net.cpp:413] fire3/expand1x1 <- fire3/squeeze1x1_fire3/relu_squeeze1x1_0_split_0
I1028 18:09:32.094068 12309 net.cpp:387] fire3/expand1x1 -> fire3/expand1x1
I1028 18:09:32.094383 12309 net.cpp:127] Setting up fire3/expand1x1
I1028 18:09:32.094391 12309 net.cpp:136] Top shape: 128 64 56 56 (25690112)
I1028 18:09:32.094394 12309 net.cpp:144] Memory required for data: 1943582720
I1028 18:09:32.094400 12309 net.cpp:453] Found INQ layer:fire3/expand1x1, type: INQConvolution, layer id:15
I1028 18:09:32.094406 12309 net.cpp:453] Found INQ layer:fire3/expand1x1, type: INQConvolution, layer id:15
I1028 18:09:32.094410 12309 net.cpp:453] Found INQ layer:fire3/expand1x1, type: INQConvolution, layer id:15
I1028 18:09:32.094415 12309 net.cpp:453] Found INQ layer:fire3/expand1x1, type: INQConvolution, layer id:15
I1028 18:09:32.094419 12309 layer_factory.hpp:77] Creating layer fire3/relu_expand1x1
I1028 18:09:32.094431 12309 net.cpp:84] Creating Layer fire3/relu_expand1x1
I1028 18:09:32.094435 12309 net.cpp:413] fire3/relu_expand1x1 <- fire3/expand1x1
I1028 18:09:32.094441 12309 net.cpp:374] fire3/relu_expand1x1 -> fire3/expand1x1 (in-place)
I1028 18:09:32.094640 12309 net.cpp:127] Setting up fire3/relu_expand1x1
I1028 18:09:32.094650 12309 net.cpp:136] Top shape: 128 64 56 56 (25690112)
I1028 18:09:32.094652 12309 net.cpp:144] Memory required for data: 2046343168
I1028 18:09:32.094656 12309 layer_factory.hpp:77] Creating layer fire3/expand3x3
I1028 18:09:32.094667 12309 net.cpp:84] Creating Layer fire3/expand3x3
I1028 18:09:32.094671 12309 net.cpp:413] fire3/expand3x3 <- fire3/squeeze1x1_fire3/relu_squeeze1x1_0_split_1
I1028 18:09:32.094681 12309 net.cpp:387] fire3/expand3x3 -> fire3/expand3x3
I1028 18:09:32.095088 12309 net.cpp:127] Setting up fire3/expand3x3
I1028 18:09:32.095096 12309 net.cpp:136] Top shape: 128 64 56 56 (25690112)
I1028 18:09:32.095100 12309 net.cpp:144] Memory required for data: 2149103616
I1028 18:09:32.095106 12309 net.cpp:453] Found INQ layer:fire3/expand3x3, type: INQConvolution, layer id:17
I1028 18:09:32.095111 12309 net.cpp:453] Found INQ layer:fire3/expand3x3, type: INQConvolution, layer id:17
I1028 18:09:32.095116 12309 net.cpp:453] Found INQ layer:fire3/expand3x3, type: INQConvolution, layer id:17
I1028 18:09:32.095120 12309 net.cpp:453] Found INQ layer:fire3/expand3x3, type: INQConvolution, layer id:17
I1028 18:09:32.095124 12309 layer_factory.hpp:77] Creating layer fire3/relu_expand3x3
I1028 18:09:32.095129 12309 net.cpp:84] Creating Layer fire3/relu_expand3x3
I1028 18:09:32.095134 12309 net.cpp:413] fire3/relu_expand3x3 <- fire3/expand3x3
I1028 18:09:32.095140 12309 net.cpp:374] fire3/relu_expand3x3 -> fire3/expand3x3 (in-place)
I1028 18:09:32.095341 12309 net.cpp:127] Setting up fire3/relu_expand3x3
I1028 18:09:32.095350 12309 net.cpp:136] Top shape: 128 64 56 56 (25690112)
I1028 18:09:32.095355 12309 net.cpp:144] Memory required for data: 2251864064
I1028 18:09:32.095357 12309 layer_factory.hpp:77] Creating layer fire3/concat
I1028 18:09:32.095365 12309 net.cpp:84] Creating Layer fire3/concat
I1028 18:09:32.095367 12309 net.cpp:413] fire3/concat <- fire3/expand1x1
I1028 18:09:32.095372 12309 net.cpp:413] fire3/concat <- fire3/expand3x3
I1028 18:09:32.095379 12309 net.cpp:387] fire3/concat -> fire3/concat
I1028 18:09:32.095413 12309 net.cpp:127] Setting up fire3/concat
I1028 18:09:32.095420 12309 net.cpp:136] Top shape: 128 128 56 56 (51380224)
I1028 18:09:32.095434 12309 net.cpp:144] Memory required for data: 2457384960
I1028 18:09:32.095438 12309 layer_factory.hpp:77] Creating layer pool3
I1028 18:09:32.095444 12309 net.cpp:84] Creating Layer pool3
I1028 18:09:32.095448 12309 net.cpp:413] pool3 <- fire3/concat
I1028 18:09:32.095456 12309 net.cpp:387] pool3 -> pool3
I1028 18:09:32.095500 12309 net.cpp:127] Setting up pool3
I1028 18:09:32.095506 12309 net.cpp:136] Top shape: 128 128 28 28 (12845056)
I1028 18:09:32.095510 12309 net.cpp:144] Memory required for data: 2508765184
I1028 18:09:32.095515 12309 layer_factory.hpp:77] Creating layer fire4/squeeze1x1
I1028 18:09:32.095525 12309 net.cpp:84] Creating Layer fire4/squeeze1x1
I1028 18:09:32.095530 12309 net.cpp:413] fire4/squeeze1x1 <- pool3
I1028 18:09:32.095535 12309 net.cpp:387] fire4/squeeze1x1 -> fire4/squeeze1x1
I1028 18:09:32.095881 12309 net.cpp:127] Setting up fire4/squeeze1x1
I1028 18:09:32.095890 12309 net.cpp:136] Top shape: 128 32 28 28 (3211264)
I1028 18:09:32.095893 12309 net.cpp:144] Memory required for data: 2521610240
I1028 18:09:32.095898 12309 net.cpp:453] Found INQ layer:fire4/squeeze1x1, type: INQConvolution, layer id:21
I1028 18:09:32.095903 12309 net.cpp:453] Found INQ layer:fire4/squeeze1x1, type: INQConvolution, layer id:21
I1028 18:09:32.095908 12309 net.cpp:453] Found INQ layer:fire4/squeeze1x1, type: INQConvolution, layer id:21
I1028 18:09:32.095912 12309 net.cpp:453] Found INQ layer:fire4/squeeze1x1, type: INQConvolution, layer id:21
I1028 18:09:32.095916 12309 layer_factory.hpp:77] Creating layer fire4/relu_squeeze1x1
I1028 18:09:32.095927 12309 net.cpp:84] Creating Layer fire4/relu_squeeze1x1
I1028 18:09:32.095932 12309 net.cpp:413] fire4/relu_squeeze1x1 <- fire4/squeeze1x1
I1028 18:09:32.095938 12309 net.cpp:374] fire4/relu_squeeze1x1 -> fire4/squeeze1x1 (in-place)
I1028 18:09:32.096145 12309 net.cpp:127] Setting up fire4/relu_squeeze1x1
I1028 18:09:32.096154 12309 net.cpp:136] Top shape: 128 32 28 28 (3211264)
I1028 18:09:32.096160 12309 net.cpp:144] Memory required for data: 2534455296
I1028 18:09:32.096165 12309 layer_factory.hpp:77] Creating layer fire4/squeeze1x1_fire4/relu_squeeze1x1_0_split
I1028 18:09:32.096170 12309 net.cpp:84] Creating Layer fire4/squeeze1x1_fire4/relu_squeeze1x1_0_split
I1028 18:09:32.096174 12309 net.cpp:413] fire4/squeeze1x1_fire4/relu_squeeze1x1_0_split <- fire4/squeeze1x1
I1028 18:09:32.096180 12309 net.cpp:387] fire4/squeeze1x1_fire4/relu_squeeze1x1_0_split -> fire4/squeeze1x1_fire4/relu_squeeze1x1_0_split_0
I1028 18:09:32.096186 12309 net.cpp:387] fire4/squeeze1x1_fire4/relu_squeeze1x1_0_split -> fire4/squeeze1x1_fire4/relu_squeeze1x1_0_split_1
I1028 18:09:32.096232 12309 net.cpp:127] Setting up fire4/squeeze1x1_fire4/relu_squeeze1x1_0_split
I1028 18:09:32.096238 12309 net.cpp:136] Top shape: 128 32 28 28 (3211264)
I1028 18:09:32.096243 12309 net.cpp:136] Top shape: 128 32 28 28 (3211264)
I1028 18:09:32.096246 12309 net.cpp:144] Memory required for data: 2560145408
I1028 18:09:32.096251 12309 layer_factory.hpp:77] Creating layer fire4/expand1x1
I1028 18:09:32.096259 12309 net.cpp:84] Creating Layer fire4/expand1x1
I1028 18:09:32.096263 12309 net.cpp:413] fire4/expand1x1 <- fire4/squeeze1x1_fire4/relu_squeeze1x1_0_split_0
I1028 18:09:32.096271 12309 net.cpp:387] fire4/expand1x1 -> fire4/expand1x1
I1028 18:09:32.096602 12309 net.cpp:127] Setting up fire4/expand1x1
I1028 18:09:32.096611 12309 net.cpp:136] Top shape: 128 128 28 28 (12845056)
I1028 18:09:32.096614 12309 net.cpp:144] Memory required for data: 2611525632
I1028 18:09:32.096626 12309 net.cpp:453] Found INQ layer:fire4/expand1x1, type: INQConvolution, layer id:24
I1028 18:09:32.096633 12309 net.cpp:453] Found INQ layer:fire4/expand1x1, type: INQConvolution, layer id:24
I1028 18:09:32.096638 12309 net.cpp:453] Found INQ layer:fire4/expand1x1, type: INQConvolution, layer id:24
I1028 18:09:32.096642 12309 net.cpp:453] Found INQ layer:fire4/expand1x1, type: INQConvolution, layer id:24
I1028 18:09:32.096649 12309 layer_factory.hpp:77] Creating layer fire4/relu_expand1x1
I1028 18:09:32.096668 12309 net.cpp:84] Creating Layer fire4/relu_expand1x1
I1028 18:09:32.096673 12309 net.cpp:413] fire4/relu_expand1x1 <- fire4/expand1x1
I1028 18:09:32.096678 12309 net.cpp:374] fire4/relu_expand1x1 -> fire4/expand1x1 (in-place)
I1028 18:09:32.098052 12309 net.cpp:127] Setting up fire4/relu_expand1x1
I1028 18:09:32.098067 12309 net.cpp:136] Top shape: 128 128 28 28 (12845056)
I1028 18:09:32.098071 12309 net.cpp:144] Memory required for data: 2662905856
I1028 18:09:32.098076 12309 layer_factory.hpp:77] Creating layer fire4/expand3x3
I1028 18:09:32.098088 12309 net.cpp:84] Creating Layer fire4/expand3x3
I1028 18:09:32.098093 12309 net.cpp:413] fire4/expand3x3 <- fire4/squeeze1x1_fire4/relu_squeeze1x1_0_split_1
I1028 18:09:32.098101 12309 net.cpp:387] fire4/expand3x3 -> fire4/expand3x3
I1028 18:09:32.100044 12309 net.cpp:127] Setting up fire4/expand3x3
I1028 18:09:32.100060 12309 net.cpp:136] Top shape: 128 128 28 28 (12845056)
I1028 18:09:32.100065 12309 net.cpp:144] Memory required for data: 2714286080
I1028 18:09:32.100071 12309 net.cpp:453] Found INQ layer:fire4/expand3x3, type: INQConvolution, layer id:26
I1028 18:09:32.100077 12309 net.cpp:453] Found INQ layer:fire4/expand3x3, type: INQConvolution, layer id:26
I1028 18:09:32.100082 12309 net.cpp:453] Found INQ layer:fire4/expand3x3, type: INQConvolution, layer id:26
I1028 18:09:32.100087 12309 net.cpp:453] Found INQ layer:fire4/expand3x3, type: INQConvolution, layer id:26
I1028 18:09:32.100090 12309 layer_factory.hpp:77] Creating layer fire4/relu_expand3x3
I1028 18:09:32.100098 12309 net.cpp:84] Creating Layer fire4/relu_expand3x3
I1028 18:09:32.100102 12309 net.cpp:413] fire4/relu_expand3x3 <- fire4/expand3x3
I1028 18:09:32.100108 12309 net.cpp:374] fire4/relu_expand3x3 -> fire4/expand3x3 (in-place)
I1028 18:09:32.100327 12309 net.cpp:127] Setting up fire4/relu_expand3x3
I1028 18:09:32.100337 12309 net.cpp:136] Top shape: 128 128 28 28 (12845056)
I1028 18:09:32.100339 12309 net.cpp:144] Memory required for data: 2765666304
I1028 18:09:32.100344 12309 layer_factory.hpp:77] Creating layer fire4/concat
I1028 18:09:32.100350 12309 net.cpp:84] Creating Layer fire4/concat
I1028 18:09:32.100354 12309 net.cpp:413] fire4/concat <- fire4/expand1x1
I1028 18:09:32.100359 12309 net.cpp:413] fire4/concat <- fire4/expand3x3
I1028 18:09:32.100364 12309 net.cpp:387] fire4/concat -> fire4/concat
I1028 18:09:32.100395 12309 net.cpp:127] Setting up fire4/concat
I1028 18:09:32.100401 12309 net.cpp:136] Top shape: 128 256 28 28 (25690112)
I1028 18:09:32.100404 12309 net.cpp:144] Memory required for data: 2868426752
I1028 18:09:32.100409 12309 layer_factory.hpp:77] Creating layer fire5/squeeze1x1
I1028 18:09:32.100419 12309 net.cpp:84] Creating Layer fire5/squeeze1x1
I1028 18:09:32.100422 12309 net.cpp:413] fire5/squeeze1x1 <- fire4/concat
I1028 18:09:32.100430 12309 net.cpp:387] fire5/squeeze1x1 -> fire5/squeeze1x1
I1028 18:09:32.100817 12309 net.cpp:127] Setting up fire5/squeeze1x1
I1028 18:09:32.100826 12309 net.cpp:136] Top shape: 128 32 28 28 (3211264)
I1028 18:09:32.100829 12309 net.cpp:144] Memory required for data: 2881271808
I1028 18:09:32.100836 12309 net.cpp:453] Found INQ layer:fire5/squeeze1x1, type: INQConvolution, layer id:29
I1028 18:09:32.100841 12309 net.cpp:453] Found INQ layer:fire5/squeeze1x1, type: INQConvolution, layer id:29
I1028 18:09:32.100844 12309 net.cpp:453] Found INQ layer:fire5/squeeze1x1, type: INQConvolution, layer id:29
I1028 18:09:32.100849 12309 net.cpp:453] Found INQ layer:fire5/squeeze1x1, type: INQConvolution, layer id:29
I1028 18:09:32.100852 12309 layer_factory.hpp:77] Creating layer fire5/relu_squeeze1x1
I1028 18:09:32.100858 12309 net.cpp:84] Creating Layer fire5/relu_squeeze1x1
I1028 18:09:32.100862 12309 net.cpp:413] fire5/relu_squeeze1x1 <- fire5/squeeze1x1
I1028 18:09:32.100870 12309 net.cpp:374] fire5/relu_squeeze1x1 -> fire5/squeeze1x1 (in-place)
I1028 18:09:32.101083 12309 net.cpp:127] Setting up fire5/relu_squeeze1x1
I1028 18:09:32.101094 12309 net.cpp:136] Top shape: 128 32 28 28 (3211264)
I1028 18:09:32.101112 12309 net.cpp:144] Memory required for data: 2894116864
I1028 18:09:32.101116 12309 layer_factory.hpp:77] Creating layer fire5/squeeze1x1_fire5/relu_squeeze1x1_0_split
I1028 18:09:32.101125 12309 net.cpp:84] Creating Layer fire5/squeeze1x1_fire5/relu_squeeze1x1_0_split
I1028 18:09:32.101130 12309 net.cpp:413] fire5/squeeze1x1_fire5/relu_squeeze1x1_0_split <- fire5/squeeze1x1
I1028 18:09:32.101135 12309 net.cpp:387] fire5/squeeze1x1_fire5/relu_squeeze1x1_0_split -> fire5/squeeze1x1_fire5/relu_squeeze1x1_0_split_0
I1028 18:09:32.101142 12309 net.cpp:387] fire5/squeeze1x1_fire5/relu_squeeze1x1_0_split -> fire5/squeeze1x1_fire5/relu_squeeze1x1_0_split_1
I1028 18:09:32.101189 12309 net.cpp:127] Setting up fire5/squeeze1x1_fire5/relu_squeeze1x1_0_split
I1028 18:09:32.101196 12309 net.cpp:136] Top shape: 128 32 28 28 (3211264)
I1028 18:09:32.101200 12309 net.cpp:136] Top shape: 128 32 28 28 (3211264)
I1028 18:09:32.101203 12309 net.cpp:144] Memory required for data: 2919806976
I1028 18:09:32.101207 12309 layer_factory.hpp:77] Creating layer fire5/expand1x1
I1028 18:09:32.101220 12309 net.cpp:84] Creating Layer fire5/expand1x1
I1028 18:09:32.101224 12309 net.cpp:413] fire5/expand1x1 <- fire5/squeeze1x1_fire5/relu_squeeze1x1_0_split_0
I1028 18:09:32.101233 12309 net.cpp:387] fire5/expand1x1 -> fire5/expand1x1
I1028 18:09:32.101578 12309 net.cpp:127] Setting up fire5/expand1x1
I1028 18:09:32.101588 12309 net.cpp:136] Top shape: 128 128 28 28 (12845056)
I1028 18:09:32.101590 12309 net.cpp:144] Memory required for data: 2971187200
I1028 18:09:32.101596 12309 net.cpp:453] Found INQ layer:fire5/expand1x1, type: INQConvolution, layer id:32
I1028 18:09:32.101601 12309 net.cpp:453] Found INQ layer:fire5/expand1x1, type: INQConvolution, layer id:32
I1028 18:09:32.101606 12309 net.cpp:453] Found INQ layer:fire5/expand1x1, type: INQConvolution, layer id:32
I1028 18:09:32.101610 12309 net.cpp:453] Found INQ layer:fire5/expand1x1, type: INQConvolution, layer id:32
I1028 18:09:32.101614 12309 layer_factory.hpp:77] Creating layer fire5/relu_expand1x1
I1028 18:09:32.101622 12309 net.cpp:84] Creating Layer fire5/relu_expand1x1
I1028 18:09:32.101626 12309 net.cpp:413] fire5/relu_expand1x1 <- fire5/expand1x1
I1028 18:09:32.101632 12309 net.cpp:374] fire5/relu_expand1x1 -> fire5/expand1x1 (in-place)
I1028 18:09:32.101835 12309 net.cpp:127] Setting up fire5/relu_expand1x1
I1028 18:09:32.101843 12309 net.cpp:136] Top shape: 128 128 28 28 (12845056)
I1028 18:09:32.101846 12309 net.cpp:144] Memory required for data: 3022567424
I1028 18:09:32.101850 12309 layer_factory.hpp:77] Creating layer fire5/expand3x3
I1028 18:09:32.101861 12309 net.cpp:84] Creating Layer fire5/expand3x3
I1028 18:09:32.101864 12309 net.cpp:413] fire5/expand3x3 <- fire5/squeeze1x1_fire5/relu_squeeze1x1_0_split_1
I1028 18:09:32.101873 12309 net.cpp:387] fire5/expand3x3 -> fire5/expand3x3
I1028 18:09:32.102479 12309 net.cpp:127] Setting up fire5/expand3x3
I1028 18:09:32.102488 12309 net.cpp:136] Top shape: 128 128 28 28 (12845056)
I1028 18:09:32.102491 12309 net.cpp:144] Memory required for data: 3073947648
I1028 18:09:32.102497 12309 net.cpp:453] Found INQ layer:fire5/expand3x3, type: INQConvolution, layer id:34
I1028 18:09:32.102502 12309 net.cpp:453] Found INQ layer:fire5/expand3x3, type: INQConvolution, layer id:34
I1028 18:09:32.102506 12309 net.cpp:453] Found INQ layer:fire5/expand3x3, type: INQConvolution, layer id:34
I1028 18:09:32.102510 12309 net.cpp:453] Found INQ layer:fire5/expand3x3, type: INQConvolution, layer id:34
I1028 18:09:32.102514 12309 layer_factory.hpp:77] Creating layer fire5/relu_expand3x3
I1028 18:09:32.102522 12309 net.cpp:84] Creating Layer fire5/relu_expand3x3
I1028 18:09:32.102526 12309 net.cpp:413] fire5/relu_expand3x3 <- fire5/expand3x3
I1028 18:09:32.102532 12309 net.cpp:374] fire5/relu_expand3x3 -> fire5/expand3x3 (in-place)
I1028 18:09:32.103899 12309 net.cpp:127] Setting up fire5/relu_expand3x3
I1028 18:09:32.103926 12309 net.cpp:136] Top shape: 128 128 28 28 (12845056)
I1028 18:09:32.103934 12309 net.cpp:144] Memory required for data: 3125327872
I1028 18:09:32.103950 12309 layer_factory.hpp:77] Creating layer fire5/concat
I1028 18:09:32.103957 12309 net.cpp:84] Creating Layer fire5/concat
I1028 18:09:32.103962 12309 net.cpp:413] fire5/concat <- fire5/expand1x1
I1028 18:09:32.103967 12309 net.cpp:413] fire5/concat <- fire5/expand3x3
I1028 18:09:32.103973 12309 net.cpp:387] fire5/concat -> fire5/concat
I1028 18:09:32.104008 12309 net.cpp:127] Setting up fire5/concat
I1028 18:09:32.104015 12309 net.cpp:136] Top shape: 128 256 28 28 (25690112)
I1028 18:09:32.104018 12309 net.cpp:144] Memory required for data: 3228088320
I1028 18:09:32.104022 12309 layer_factory.hpp:77] Creating layer pool5
I1028 18:09:32.104030 12309 net.cpp:84] Creating Layer pool5
I1028 18:09:32.104034 12309 net.cpp:413] pool5 <- fire5/concat
I1028 18:09:32.104040 12309 net.cpp:387] pool5 -> pool5
I1028 18:09:32.104082 12309 net.cpp:127] Setting up pool5
I1028 18:09:32.104089 12309 net.cpp:136] Top shape: 128 256 14 14 (6422528)
I1028 18:09:32.104091 12309 net.cpp:144] Memory required for data: 3253778432
I1028 18:09:32.104094 12309 layer_factory.hpp:77] Creating layer fire6/squeeze1x1
I1028 18:09:32.104104 12309 net.cpp:84] Creating Layer fire6/squeeze1x1
I1028 18:09:32.104109 12309 net.cpp:413] fire6/squeeze1x1 <- pool5
I1028 18:09:32.104116 12309 net.cpp:387] fire6/squeeze1x1 -> fire6/squeeze1x1
I1028 18:09:32.104537 12309 net.cpp:127] Setting up fire6/squeeze1x1
I1028 18:09:32.104547 12309 net.cpp:136] Top shape: 128 48 14 14 (1204224)
I1028 18:09:32.104552 12309 net.cpp:144] Memory required for data: 3258595328
I1028 18:09:32.104557 12309 net.cpp:453] Found INQ layer:fire6/squeeze1x1, type: INQConvolution, layer id:38
I1028 18:09:32.104562 12309 net.cpp:453] Found INQ layer:fire6/squeeze1x1, type: INQConvolution, layer id:38
I1028 18:09:32.104568 12309 net.cpp:453] Found INQ layer:fire6/squeeze1x1, type: INQConvolution, layer id:38
I1028 18:09:32.104571 12309 net.cpp:453] Found INQ layer:fire6/squeeze1x1, type: INQConvolution, layer id:38
I1028 18:09:32.104575 12309 layer_factory.hpp:77] Creating layer fire6/relu_squeeze1x1
I1028 18:09:32.104581 12309 net.cpp:84] Creating Layer fire6/relu_squeeze1x1
I1028 18:09:32.104585 12309 net.cpp:413] fire6/relu_squeeze1x1 <- fire6/squeeze1x1
I1028 18:09:32.104590 12309 net.cpp:374] fire6/relu_squeeze1x1 -> fire6/squeeze1x1 (in-place)
I1028 18:09:32.104791 12309 net.cpp:127] Setting up fire6/relu_squeeze1x1
I1028 18:09:32.104804 12309 net.cpp:136] Top shape: 128 48 14 14 (1204224)
I1028 18:09:32.104807 12309 net.cpp:144] Memory required for data: 3263412224
I1028 18:09:32.104810 12309 layer_factory.hpp:77] Creating layer fire6/squeeze1x1_fire6/relu_squeeze1x1_0_split
I1028 18:09:32.104816 12309 net.cpp:84] Creating Layer fire6/squeeze1x1_fire6/relu_squeeze1x1_0_split
I1028 18:09:32.104820 12309 net.cpp:413] fire6/squeeze1x1_fire6/relu_squeeze1x1_0_split <- fire6/squeeze1x1
I1028 18:09:32.104826 12309 net.cpp:387] fire6/squeeze1x1_fire6/relu_squeeze1x1_0_split -> fire6/squeeze1x1_fire6/relu_squeeze1x1_0_split_0
I1028 18:09:32.104832 12309 net.cpp:387] fire6/squeeze1x1_fire6/relu_squeeze1x1_0_split -> fire6/squeeze1x1_fire6/relu_squeeze1x1_0_split_1
I1028 18:09:32.104887 12309 net.cpp:127] Setting up fire6/squeeze1x1_fire6/relu_squeeze1x1_0_split
I1028 18:09:32.104892 12309 net.cpp:136] Top shape: 128 48 14 14 (1204224)
I1028 18:09:32.104898 12309 net.cpp:136] Top shape: 128 48 14 14 (1204224)
I1028 18:09:32.104902 12309 net.cpp:144] Memory required for data: 3273046016
I1028 18:09:32.104905 12309 layer_factory.hpp:77] Creating layer fire6/expand1x1
I1028 18:09:32.104917 12309 net.cpp:84] Creating Layer fire6/expand1x1
I1028 18:09:32.104925 12309 net.cpp:413] fire6/expand1x1 <- fire6/squeeze1x1_fire6/relu_squeeze1x1_0_split_0
I1028 18:09:32.104933 12309 net.cpp:387] fire6/expand1x1 -> fire6/expand1x1
I1028 18:09:32.105319 12309 net.cpp:127] Setting up fire6/expand1x1
I1028 18:09:32.105329 12309 net.cpp:136] Top shape: 128 192 14 14 (4816896)
I1028 18:09:32.105334 12309 net.cpp:144] Memory required for data: 3292313600
I1028 18:09:32.105340 12309 net.cpp:453] Found INQ layer:fire6/expand1x1, type: INQConvolution, layer id:41
I1028 18:09:32.105357 12309 net.cpp:453] Found INQ layer:fire6/expand1x1, type: INQConvolution, layer id:41
I1028 18:09:32.105361 12309 net.cpp:453] Found INQ layer:fire6/expand1x1, type: INQConvolution, layer id:41
I1028 18:09:32.105366 12309 net.cpp:453] Found INQ layer:fire6/expand1x1, type: INQConvolution, layer id:41
I1028 18:09:32.105370 12309 layer_factory.hpp:77] Creating layer fire6/relu_expand1x1
I1028 18:09:32.105381 12309 net.cpp:84] Creating Layer fire6/relu_expand1x1
I1028 18:09:32.105386 12309 net.cpp:413] fire6/relu_expand1x1 <- fire6/expand1x1
I1028 18:09:32.105391 12309 net.cpp:374] fire6/relu_expand1x1 -> fire6/expand1x1 (in-place)
I1028 18:09:32.105592 12309 net.cpp:127] Setting up fire6/relu_expand1x1
I1028 18:09:32.105599 12309 net.cpp:136] Top shape: 128 192 14 14 (4816896)
I1028 18:09:32.105603 12309 net.cpp:144] Memory required for data: 3311581184
I1028 18:09:32.105607 12309 layer_factory.hpp:77] Creating layer fire6/expand3x3
I1028 18:09:32.105618 12309 net.cpp:84] Creating Layer fire6/expand3x3
I1028 18:09:32.105623 12309 net.cpp:413] fire6/expand3x3 <- fire6/squeeze1x1_fire6/relu_squeeze1x1_0_split_1
I1028 18:09:32.105629 12309 net.cpp:387] fire6/expand3x3 -> fire6/expand3x3
I1028 18:09:32.107990 12309 net.cpp:127] Setting up fire6/expand3x3
I1028 18:09:32.108006 12309 net.cpp:136] Top shape: 128 192 14 14 (4816896)
I1028 18:09:32.108011 12309 net.cpp:144] Memory required for data: 3330848768
I1028 18:09:32.108016 12309 net.cpp:453] Found INQ layer:fire6/expand3x3, type: INQConvolution, layer id:43
I1028 18:09:32.108022 12309 net.cpp:453] Found INQ layer:fire6/expand3x3, type: INQConvolution, layer id:43
I1028 18:09:32.108026 12309 net.cpp:453] Found INQ layer:fire6/expand3x3, type: INQConvolution, layer id:43
I1028 18:09:32.108031 12309 net.cpp:453] Found INQ layer:fire6/expand3x3, type: INQConvolution, layer id:43
I1028 18:09:32.108034 12309 layer_factory.hpp:77] Creating layer fire6/relu_expand3x3
I1028 18:09:32.108042 12309 net.cpp:84] Creating Layer fire6/relu_expand3x3
I1028 18:09:32.108047 12309 net.cpp:413] fire6/relu_expand3x3 <- fire6/expand3x3
I1028 18:09:32.108052 12309 net.cpp:374] fire6/relu_expand3x3 -> fire6/expand3x3 (in-place)
I1028 18:09:32.108278 12309 net.cpp:127] Setting up fire6/relu_expand3x3
I1028 18:09:32.108289 12309 net.cpp:136] Top shape: 128 192 14 14 (4816896)
I1028 18:09:32.108292 12309 net.cpp:144] Memory required for data: 3350116352
I1028 18:09:32.108296 12309 layer_factory.hpp:77] Creating layer fire6/concat
I1028 18:09:32.108304 12309 net.cpp:84] Creating Layer fire6/concat
I1028 18:09:32.108307 12309 net.cpp:413] fire6/concat <- fire6/expand1x1
I1028 18:09:32.108312 12309 net.cpp:413] fire6/concat <- fire6/expand3x3
I1028 18:09:32.108317 12309 net.cpp:387] fire6/concat -> fire6/concat
I1028 18:09:32.108350 12309 net.cpp:127] Setting up fire6/concat
I1028 18:09:32.108357 12309 net.cpp:136] Top shape: 128 384 14 14 (9633792)
I1028 18:09:32.108361 12309 net.cpp:144] Memory required for data: 3388651520
I1028 18:09:32.108364 12309 layer_factory.hpp:77] Creating layer fire7/squeeze1x1
I1028 18:09:32.108374 12309 net.cpp:84] Creating Layer fire7/squeeze1x1
I1028 18:09:32.108378 12309 net.cpp:413] fire7/squeeze1x1 <- fire6/concat
I1028 18:09:32.108386 12309 net.cpp:387] fire7/squeeze1x1 -> fire7/squeeze1x1
I1028 18:09:32.108857 12309 net.cpp:127] Setting up fire7/squeeze1x1
I1028 18:09:32.108865 12309 net.cpp:136] Top shape: 128 48 14 14 (1204224)
I1028 18:09:32.108870 12309 net.cpp:144] Memory required for data: 3393468416
I1028 18:09:32.108882 12309 net.cpp:453] Found INQ layer:fire7/squeeze1x1, type: INQConvolution, layer id:46
I1028 18:09:32.108893 12309 net.cpp:453] Found INQ layer:fire7/squeeze1x1, type: INQConvolution, layer id:46
I1028 18:09:32.108898 12309 net.cpp:453] Found INQ layer:fire7/squeeze1x1, type: INQConvolution, layer id:46
I1028 18:09:32.108903 12309 net.cpp:453] Found INQ layer:fire7/squeeze1x1, type: INQConvolution, layer id:46
I1028 18:09:32.108911 12309 layer_factory.hpp:77] Creating layer fire7/relu_squeeze1x1
I1028 18:09:32.108934 12309 net.cpp:84] Creating Layer fire7/relu_squeeze1x1
I1028 18:09:32.108939 12309 net.cpp:413] fire7/relu_squeeze1x1 <- fire7/squeeze1x1
I1028 18:09:32.108947 12309 net.cpp:374] fire7/relu_squeeze1x1 -> fire7/squeeze1x1 (in-place)
I1028 18:09:32.110323 12309 net.cpp:127] Setting up fire7/relu_squeeze1x1
I1028 18:09:32.110337 12309 net.cpp:136] Top shape: 128 48 14 14 (1204224)
I1028 18:09:32.110342 12309 net.cpp:144] Memory required for data: 3398285312
I1028 18:09:32.110345 12309 layer_factory.hpp:77] Creating layer fire7/squeeze1x1_fire7/relu_squeeze1x1_0_split
I1028 18:09:32.110352 12309 net.cpp:84] Creating Layer fire7/squeeze1x1_fire7/relu_squeeze1x1_0_split
I1028 18:09:32.110357 12309 net.cpp:413] fire7/squeeze1x1_fire7/relu_squeeze1x1_0_split <- fire7/squeeze1x1
I1028 18:09:32.110365 12309 net.cpp:387] fire7/squeeze1x1_fire7/relu_squeeze1x1_0_split -> fire7/squeeze1x1_fire7/relu_squeeze1x1_0_split_0
I1028 18:09:32.110373 12309 net.cpp:387] fire7/squeeze1x1_fire7/relu_squeeze1x1_0_split -> fire7/squeeze1x1_fire7/relu_squeeze1x1_0_split_1
I1028 18:09:32.110424 12309 net.cpp:127] Setting up fire7/squeeze1x1_fire7/relu_squeeze1x1_0_split
I1028 18:09:32.110430 12309 net.cpp:136] Top shape: 128 48 14 14 (1204224)
I1028 18:09:32.110435 12309 net.cpp:136] Top shape: 128 48 14 14 (1204224)
I1028 18:09:32.110438 12309 net.cpp:144] Memory required for data: 3407919104
I1028 18:09:32.110442 12309 layer_factory.hpp:77] Creating layer fire7/expand1x1
I1028 18:09:32.110455 12309 net.cpp:84] Creating Layer fire7/expand1x1
I1028 18:09:32.110458 12309 net.cpp:413] fire7/expand1x1 <- fire7/squeeze1x1_fire7/relu_squeeze1x1_0_split_0
I1028 18:09:32.110465 12309 net.cpp:387] fire7/expand1x1 -> fire7/expand1x1
I1028 18:09:32.110863 12309 net.cpp:127] Setting up fire7/expand1x1
I1028 18:09:32.110872 12309 net.cpp:136] Top shape: 128 192 14 14 (4816896)
I1028 18:09:32.110875 12309 net.cpp:144] Memory required for data: 3427186688
I1028 18:09:32.110882 12309 net.cpp:453] Found INQ layer:fire7/expand1x1, type: INQConvolution, layer id:49
I1028 18:09:32.110888 12309 net.cpp:453] Found INQ layer:fire7/expand1x1, type: INQConvolution, layer id:49
I1028 18:09:32.110891 12309 net.cpp:453] Found INQ layer:fire7/expand1x1, type: INQConvolution, layer id:49
I1028 18:09:32.110895 12309 net.cpp:453] Found INQ layer:fire7/expand1x1, type: INQConvolution, layer id:49
I1028 18:09:32.110899 12309 layer_factory.hpp:77] Creating layer fire7/relu_expand1x1
I1028 18:09:32.110905 12309 net.cpp:84] Creating Layer fire7/relu_expand1x1
I1028 18:09:32.110909 12309 net.cpp:413] fire7/relu_expand1x1 <- fire7/expand1x1
I1028 18:09:32.110916 12309 net.cpp:374] fire7/relu_expand1x1 -> fire7/expand1x1 (in-place)
I1028 18:09:32.111127 12309 net.cpp:127] Setting up fire7/relu_expand1x1
I1028 18:09:32.111136 12309 net.cpp:136] Top shape: 128 192 14 14 (4816896)
I1028 18:09:32.111140 12309 net.cpp:144] Memory required for data: 3446454272
I1028 18:09:32.111145 12309 layer_factory.hpp:77] Creating layer fire7/expand3x3
I1028 18:09:32.111155 12309 net.cpp:84] Creating Layer fire7/expand3x3
I1028 18:09:32.111158 12309 net.cpp:413] fire7/expand3x3 <- fire7/squeeze1x1_fire7/relu_squeeze1x1_0_split_1
I1028 18:09:32.111168 12309 net.cpp:387] fire7/expand3x3 -> fire7/expand3x3
I1028 18:09:32.112161 12309 net.cpp:127] Setting up fire7/expand3x3
I1028 18:09:32.112170 12309 net.cpp:136] Top shape: 128 192 14 14 (4816896)
I1028 18:09:32.112174 12309 net.cpp:144] Memory required for data: 3465721856
I1028 18:09:32.112180 12309 net.cpp:453] Found INQ layer:fire7/expand3x3, type: INQConvolution, layer id:51
I1028 18:09:32.112185 12309 net.cpp:453] Found INQ layer:fire7/expand3x3, type: INQConvolution, layer id:51
I1028 18:09:32.112190 12309 net.cpp:453] Found INQ layer:fire7/expand3x3, type: INQConvolution, layer id:51
I1028 18:09:32.112195 12309 net.cpp:453] Found INQ layer:fire7/expand3x3, type: INQConvolution, layer id:51
I1028 18:09:32.112202 12309 layer_factory.hpp:77] Creating layer fire7/relu_expand3x3
I1028 18:09:32.112221 12309 net.cpp:84] Creating Layer fire7/relu_expand3x3
I1028 18:09:32.112226 12309 net.cpp:413] fire7/relu_expand3x3 <- fire7/expand3x3
I1028 18:09:32.112232 12309 net.cpp:374] fire7/relu_expand3x3 -> fire7/expand3x3 (in-place)
I1028 18:09:32.112437 12309 net.cpp:127] Setting up fire7/relu_expand3x3
I1028 18:09:32.112445 12309 net.cpp:136] Top shape: 128 192 14 14 (4816896)
I1028 18:09:32.112448 12309 net.cpp:144] Memory required for data: 3484989440
I1028 18:09:32.112452 12309 layer_factory.hpp:77] Creating layer fire7/concat
I1028 18:09:32.112458 12309 net.cpp:84] Creating Layer fire7/concat
I1028 18:09:32.112462 12309 net.cpp:413] fire7/concat <- fire7/expand1x1
I1028 18:09:32.112468 12309 net.cpp:413] fire7/concat <- fire7/expand3x3
I1028 18:09:32.112475 12309 net.cpp:387] fire7/concat -> fire7/concat
I1028 18:09:32.112506 12309 net.cpp:127] Setting up fire7/concat
I1028 18:09:32.112512 12309 net.cpp:136] Top shape: 128 384 14 14 (9633792)
I1028 18:09:32.112515 12309 net.cpp:144] Memory required for data: 3523524608
I1028 18:09:32.112519 12309 layer_factory.hpp:77] Creating layer fire8/squeeze1x1
I1028 18:09:32.112529 12309 net.cpp:84] Creating Layer fire8/squeeze1x1
I1028 18:09:32.112534 12309 net.cpp:413] fire8/squeeze1x1 <- fire7/concat
I1028 18:09:32.112540 12309 net.cpp:387] fire8/squeeze1x1 -> fire8/squeeze1x1
I1028 18:09:32.113061 12309 net.cpp:127] Setting up fire8/squeeze1x1
I1028 18:09:32.113072 12309 net.cpp:136] Top shape: 128 64 14 14 (1605632)
I1028 18:09:32.113076 12309 net.cpp:144] Memory required for data: 3529947136
I1028 18:09:32.113081 12309 net.cpp:453] Found INQ layer:fire8/squeeze1x1, type: INQConvolution, layer id:54
I1028 18:09:32.113087 12309 net.cpp:453] Found INQ layer:fire8/squeeze1x1, type: INQConvolution, layer id:54
I1028 18:09:32.113091 12309 net.cpp:453] Found INQ layer:fire8/squeeze1x1, type: INQConvolution, layer id:54
I1028 18:09:32.113096 12309 net.cpp:453] Found INQ layer:fire8/squeeze1x1, type: INQConvolution, layer id:54
I1028 18:09:32.113099 12309 layer_factory.hpp:77] Creating layer fire8/relu_squeeze1x1
I1028 18:09:32.113106 12309 net.cpp:84] Creating Layer fire8/relu_squeeze1x1
I1028 18:09:32.113109 12309 net.cpp:413] fire8/relu_squeeze1x1 <- fire8/squeeze1x1
I1028 18:09:32.113116 12309 net.cpp:374] fire8/relu_squeeze1x1 -> fire8/squeeze1x1 (in-place)
I1028 18:09:32.114491 12309 net.cpp:127] Setting up fire8/relu_squeeze1x1
I1028 18:09:32.114506 12309 net.cpp:136] Top shape: 128 64 14 14 (1605632)
I1028 18:09:32.114511 12309 net.cpp:144] Memory required for data: 3536369664
I1028 18:09:32.114514 12309 layer_factory.hpp:77] Creating layer fire8/squeeze1x1_fire8/relu_squeeze1x1_0_split
I1028 18:09:32.114523 12309 net.cpp:84] Creating Layer fire8/squeeze1x1_fire8/relu_squeeze1x1_0_split
I1028 18:09:32.114528 12309 net.cpp:413] fire8/squeeze1x1_fire8/relu_squeeze1x1_0_split <- fire8/squeeze1x1
I1028 18:09:32.114534 12309 net.cpp:387] fire8/squeeze1x1_fire8/relu_squeeze1x1_0_split -> fire8/squeeze1x1_fire8/relu_squeeze1x1_0_split_0
I1028 18:09:32.114542 12309 net.cpp:387] fire8/squeeze1x1_fire8/relu_squeeze1x1_0_split -> fire8/squeeze1x1_fire8/relu_squeeze1x1_0_split_1
I1028 18:09:32.114593 12309 net.cpp:127] Setting up fire8/squeeze1x1_fire8/relu_squeeze1x1_0_split
I1028 18:09:32.114599 12309 net.cpp:136] Top shape: 128 64 14 14 (1605632)
I1028 18:09:32.114604 12309 net.cpp:136] Top shape: 128 64 14 14 (1605632)
I1028 18:09:32.114608 12309 net.cpp:144] Memory required for data: 3549214720
I1028 18:09:32.114611 12309 layer_factory.hpp:77] Creating layer fire8/expand1x1
I1028 18:09:32.114622 12309 net.cpp:84] Creating Layer fire8/expand1x1
I1028 18:09:32.114626 12309 net.cpp:413] fire8/expand1x1 <- fire8/squeeze1x1_fire8/relu_squeeze1x1_0_split_0
I1028 18:09:32.114634 12309 net.cpp:387] fire8/expand1x1 -> fire8/expand1x1
I1028 18:09:32.115092 12309 net.cpp:127] Setting up fire8/expand1x1
I1028 18:09:32.115100 12309 net.cpp:136] Top shape: 128 256 14 14 (6422528)
I1028 18:09:32.115108 12309 net.cpp:144] Memory required for data: 3574904832
I1028 18:09:32.115126 12309 net.cpp:453] Found INQ layer:fire8/expand1x1, type: INQConvolution, layer id:57
I1028 18:09:32.115133 12309 net.cpp:453] Found INQ layer:fire8/expand1x1, type: INQConvolution, layer id:57
I1028 18:09:32.115136 12309 net.cpp:453] Found INQ layer:fire8/expand1x1, type: INQConvolution, layer id:57
I1028 18:09:32.115141 12309 net.cpp:453] Found INQ layer:fire8/expand1x1, type: INQConvolution, layer id:57
I1028 18:09:32.115144 12309 layer_factory.hpp:77] Creating layer fire8/relu_expand1x1
I1028 18:09:32.115151 12309 net.cpp:84] Creating Layer fire8/relu_expand1x1
I1028 18:09:32.115155 12309 net.cpp:413] fire8/relu_expand1x1 <- fire8/expand1x1
I1028 18:09:32.115164 12309 net.cpp:374] fire8/relu_expand1x1 -> fire8/expand1x1 (in-place)
I1028 18:09:32.115368 12309 net.cpp:127] Setting up fire8/relu_expand1x1
I1028 18:09:32.115377 12309 net.cpp:136] Top shape: 128 256 14 14 (6422528)
I1028 18:09:32.115381 12309 net.cpp:144] Memory required for data: 3600594944
I1028 18:09:32.115386 12309 layer_factory.hpp:77] Creating layer fire8/expand3x3
I1028 18:09:32.115396 12309 net.cpp:84] Creating Layer fire8/expand3x3
I1028 18:09:32.115399 12309 net.cpp:413] fire8/expand3x3 <- fire8/squeeze1x1_fire8/relu_squeeze1x1_0_split_1
I1028 18:09:32.115407 12309 net.cpp:387] fire8/expand3x3 -> fire8/expand3x3
I1028 18:09:32.118233 12309 net.cpp:127] Setting up fire8/expand3x3
I1028 18:09:32.118247 12309 net.cpp:136] Top shape: 128 256 14 14 (6422528)
I1028 18:09:32.118252 12309 net.cpp:144] Memory required for data: 3626285056
I1028 18:09:32.118258 12309 net.cpp:453] Found INQ layer:fire8/expand3x3, type: INQConvolution, layer id:59
I1028 18:09:32.118264 12309 net.cpp:453] Found INQ layer:fire8/expand3x3, type: INQConvolution, layer id:59
I1028 18:09:32.118268 12309 net.cpp:453] Found INQ layer:fire8/expand3x3, type: INQConvolution, layer id:59
I1028 18:09:32.118273 12309 net.cpp:453] Found INQ layer:fire8/expand3x3, type: INQConvolution, layer id:59
I1028 18:09:32.118276 12309 layer_factory.hpp:77] Creating layer fire8/relu_expand3x3
I1028 18:09:32.118283 12309 net.cpp:84] Creating Layer fire8/relu_expand3x3
I1028 18:09:32.118288 12309 net.cpp:413] fire8/relu_expand3x3 <- fire8/expand3x3
I1028 18:09:32.118296 12309 net.cpp:374] fire8/relu_expand3x3 -> fire8/expand3x3 (in-place)
I1028 18:09:32.118521 12309 net.cpp:127] Setting up fire8/relu_expand3x3
I1028 18:09:32.118531 12309 net.cpp:136] Top shape: 128 256 14 14 (6422528)
I1028 18:09:32.118535 12309 net.cpp:144] Memory required for data: 3651975168
I1028 18:09:32.118540 12309 layer_factory.hpp:77] Creating layer fire8/concat
I1028 18:09:32.118546 12309 net.cpp:84] Creating Layer fire8/concat
I1028 18:09:32.118549 12309 net.cpp:413] fire8/concat <- fire8/expand1x1
I1028 18:09:32.118554 12309 net.cpp:413] fire8/concat <- fire8/expand3x3
I1028 18:09:32.118561 12309 net.cpp:387] fire8/concat -> fire8/concat
I1028 18:09:32.118592 12309 net.cpp:127] Setting up fire8/concat
I1028 18:09:32.118598 12309 net.cpp:136] Top shape: 128 512 14 14 (12845056)
I1028 18:09:32.118602 12309 net.cpp:144] Memory required for data: 3703355392
I1028 18:09:32.118605 12309 layer_factory.hpp:77] Creating layer fire9/squeeze1x1
I1028 18:09:32.118615 12309 net.cpp:84] Creating Layer fire9/squeeze1x1
I1028 18:09:32.118621 12309 net.cpp:413] fire9/squeeze1x1 <- fire8/concat
I1028 18:09:32.118628 12309 net.cpp:387] fire9/squeeze1x1 -> fire9/squeeze1x1
I1028 18:09:32.119220 12309 net.cpp:127] Setting up fire9/squeeze1x1
I1028 18:09:32.119230 12309 net.cpp:136] Top shape: 128 64 14 14 (1605632)
I1028 18:09:32.119233 12309 net.cpp:144] Memory required for data: 3709777920
I1028 18:09:32.119240 12309 net.cpp:453] Found INQ layer:fire9/squeeze1x1, type: INQConvolution, layer id:62
I1028 18:09:32.119244 12309 net.cpp:453] Found INQ layer:fire9/squeeze1x1, type: INQConvolution, layer id:62
I1028 18:09:32.119248 12309 net.cpp:453] Found INQ layer:fire9/squeeze1x1, type: INQConvolution, layer id:62
I1028 18:09:32.119252 12309 net.cpp:453] Found INQ layer:fire9/squeeze1x1, type: INQConvolution, layer id:62
I1028 18:09:32.119274 12309 layer_factory.hpp:77] Creating layer fire9/relu_squeeze1x1
I1028 18:09:32.119282 12309 net.cpp:84] Creating Layer fire9/relu_squeeze1x1
I1028 18:09:32.119285 12309 net.cpp:413] fire9/relu_squeeze1x1 <- fire9/squeeze1x1
I1028 18:09:32.119293 12309 net.cpp:374] fire9/relu_squeeze1x1 -> fire9/squeeze1x1 (in-place)
I1028 18:09:32.119501 12309 net.cpp:127] Setting up fire9/relu_squeeze1x1
I1028 18:09:32.119509 12309 net.cpp:136] Top shape: 128 64 14 14 (1605632)
I1028 18:09:32.119513 12309 net.cpp:144] Memory required for data: 3716200448
I1028 18:09:32.119518 12309 layer_factory.hpp:77] Creating layer fire9/squeeze1x1_fire9/relu_squeeze1x1_0_split
I1028 18:09:32.119534 12309 net.cpp:84] Creating Layer fire9/squeeze1x1_fire9/relu_squeeze1x1_0_split
I1028 18:09:32.119539 12309 net.cpp:413] fire9/squeeze1x1_fire9/relu_squeeze1x1_0_split <- fire9/squeeze1x1
I1028 18:09:32.119545 12309 net.cpp:387] fire9/squeeze1x1_fire9/relu_squeeze1x1_0_split -> fire9/squeeze1x1_fire9/relu_squeeze1x1_0_split_0
I1028 18:09:32.119554 12309 net.cpp:387] fire9/squeeze1x1_fire9/relu_squeeze1x1_0_split -> fire9/squeeze1x1_fire9/relu_squeeze1x1_0_split_1
I1028 18:09:32.119606 12309 net.cpp:127] Setting up fire9/squeeze1x1_fire9/relu_squeeze1x1_0_split
I1028 18:09:32.119613 12309 net.cpp:136] Top shape: 128 64 14 14 (1605632)
I1028 18:09:32.119618 12309 net.cpp:136] Top shape: 128 64 14 14 (1605632)
I1028 18:09:32.119621 12309 net.cpp:144] Memory required for data: 3729045504
I1028 18:09:32.119626 12309 layer_factory.hpp:77] Creating layer fire9/expand1x1
I1028 18:09:32.119633 12309 net.cpp:84] Creating Layer fire9/expand1x1
I1028 18:09:32.119637 12309 net.cpp:413] fire9/expand1x1 <- fire9/squeeze1x1_fire9/relu_squeeze1x1_0_split_0
I1028 18:09:32.119645 12309 net.cpp:387] fire9/expand1x1 -> fire9/expand1x1
I1028 18:09:32.120103 12309 net.cpp:127] Setting up fire9/expand1x1
I1028 18:09:32.120111 12309 net.cpp:136] Top shape: 128 256 14 14 (6422528)
I1028 18:09:32.120115 12309 net.cpp:144] Memory required for data: 3754735616
I1028 18:09:32.120121 12309 net.cpp:453] Found INQ layer:fire9/expand1x1, type: INQConvolution, layer id:65
I1028 18:09:32.120126 12309 net.cpp:453] Found INQ layer:fire9/expand1x1, type: INQConvolution, layer id:65
I1028 18:09:32.120131 12309 net.cpp:453] Found INQ layer:fire9/expand1x1, type: INQConvolution, layer id:65
I1028 18:09:32.120136 12309 net.cpp:453] Found INQ layer:fire9/expand1x1, type: INQConvolution, layer id:65
I1028 18:09:32.120138 12309 layer_factory.hpp:77] Creating layer fire9/relu_expand1x1
I1028 18:09:32.120146 12309 net.cpp:84] Creating Layer fire9/relu_expand1x1
I1028 18:09:32.120149 12309 net.cpp:413] fire9/relu_expand1x1 <- fire9/expand1x1
I1028 18:09:32.120157 12309 net.cpp:374] fire9/relu_expand1x1 -> fire9/expand1x1 (in-place)
I1028 18:09:32.121551 12309 net.cpp:127] Setting up fire9/relu_expand1x1
I1028 18:09:32.121565 12309 net.cpp:136] Top shape: 128 256 14 14 (6422528)
I1028 18:09:32.121570 12309 net.cpp:144] Memory required for data: 3780425728
I1028 18:09:32.121574 12309 layer_factory.hpp:77] Creating layer fire9/expand3x3
I1028 18:09:32.121587 12309 net.cpp:84] Creating Layer fire9/expand3x3
I1028 18:09:32.121592 12309 net.cpp:413] fire9/expand3x3 <- fire9/squeeze1x1_fire9/relu_squeeze1x1_0_split_1
I1028 18:09:32.121600 12309 net.cpp:387] fire9/expand3x3 -> fire9/expand3x3
I1028 18:09:32.123100 12309 net.cpp:127] Setting up fire9/expand3x3
I1028 18:09:32.123109 12309 net.cpp:136] Top shape: 128 256 14 14 (6422528)
I1028 18:09:32.123113 12309 net.cpp:144] Memory required for data: 3806115840
I1028 18:09:32.123119 12309 net.cpp:453] Found INQ layer:fire9/expand3x3, type: INQConvolution, layer id:67
I1028 18:09:32.123124 12309 net.cpp:453] Found INQ layer:fire9/expand3x3, type: INQConvolution, layer id:67
I1028 18:09:32.123129 12309 net.cpp:453] Found INQ layer:fire9/expand3x3, type: INQConvolution, layer id:67
I1028 18:09:32.123133 12309 net.cpp:453] Found INQ layer:fire9/expand3x3, type: INQConvolution, layer id:67
I1028 18:09:32.123142 12309 layer_factory.hpp:77] Creating layer fire9/relu_expand3x3
I1028 18:09:32.123159 12309 net.cpp:84] Creating Layer fire9/relu_expand3x3
I1028 18:09:32.123164 12309 net.cpp:413] fire9/relu_expand3x3 <- fire9/expand3x3
I1028 18:09:32.123172 12309 net.cpp:374] fire9/relu_expand3x3 -> fire9/expand3x3 (in-place)
I1028 18:09:32.123383 12309 net.cpp:127] Setting up fire9/relu_expand3x3
I1028 18:09:32.123391 12309 net.cpp:136] Top shape: 128 256 14 14 (6422528)
I1028 18:09:32.123394 12309 net.cpp:144] Memory required for data: 3831805952
I1028 18:09:32.123399 12309 layer_factory.hpp:77] Creating layer fire9/concat
I1028 18:09:32.123405 12309 net.cpp:84] Creating Layer fire9/concat
I1028 18:09:32.123411 12309 net.cpp:413] fire9/concat <- fire9/expand1x1
I1028 18:09:32.123416 12309 net.cpp:413] fire9/concat <- fire9/expand3x3
I1028 18:09:32.123421 12309 net.cpp:387] fire9/concat -> fire9/concat
I1028 18:09:32.123451 12309 net.cpp:127] Setting up fire9/concat
I1028 18:09:32.123457 12309 net.cpp:136] Top shape: 128 512 14 14 (12845056)
I1028 18:09:32.123461 12309 net.cpp:144] Memory required for data: 3883186176
I1028 18:09:32.123464 12309 layer_factory.hpp:77] Creating layer drop9
I1028 18:09:32.123476 12309 net.cpp:84] Creating Layer drop9
I1028 18:09:32.123479 12309 net.cpp:413] drop9 <- fire9/concat
I1028 18:09:32.123486 12309 net.cpp:374] drop9 -> fire9/concat (in-place)
I1028 18:09:32.123515 12309 net.cpp:127] Setting up drop9
I1028 18:09:32.123522 12309 net.cpp:136] Top shape: 128 512 14 14 (12845056)
I1028 18:09:32.123524 12309 net.cpp:144] Memory required for data: 3934566400
I1028 18:09:32.123528 12309 layer_factory.hpp:77] Creating layer conv10
I1028 18:09:32.123539 12309 net.cpp:84] Creating Layer conv10
I1028 18:09:32.123543 12309 net.cpp:413] conv10 <- fire9/concat
I1028 18:09:32.123551 12309 net.cpp:387] conv10 -> conv10
I1028 18:09:32.137145 12309 net.cpp:127] Setting up conv10
I1028 18:09:32.137161 12309 net.cpp:136] Top shape: 128 1000 14 14 (25088000)
I1028 18:09:32.137164 12309 net.cpp:144] Memory required for data: 4034918400
I1028 18:09:32.137171 12309 net.cpp:453] Found INQ layer:conv10, type: INQConvolution, layer id:71
I1028 18:09:32.137177 12309 net.cpp:453] Found INQ layer:conv10, type: INQConvolution, layer id:71
I1028 18:09:32.137181 12309 net.cpp:453] Found INQ layer:conv10, type: INQConvolution, layer id:71
I1028 18:09:32.137186 12309 net.cpp:453] Found INQ layer:conv10, type: INQConvolution, layer id:71
I1028 18:09:32.137189 12309 layer_factory.hpp:77] Creating layer relu_conv10
I1028 18:09:32.137198 12309 net.cpp:84] Creating Layer relu_conv10
I1028 18:09:32.137203 12309 net.cpp:413] relu_conv10 <- conv10
I1028 18:09:32.137209 12309 net.cpp:374] relu_conv10 -> conv10 (in-place)
I1028 18:09:32.137439 12309 net.cpp:127] Setting up relu_conv10
I1028 18:09:32.137449 12309 net.cpp:136] Top shape: 128 1000 14 14 (25088000)
I1028 18:09:32.137452 12309 net.cpp:144] Memory required for data: 4135270400
I1028 18:09:32.137456 12309 layer_factory.hpp:77] Creating layer pool10
I1028 18:09:32.137470 12309 net.cpp:84] Creating Layer pool10
I1028 18:09:32.137473 12309 net.cpp:413] pool10 <- conv10
I1028 18:09:32.137481 12309 net.cpp:387] pool10 -> pool10
I1028 18:09:32.137717 12309 net.cpp:127] Setting up pool10
I1028 18:09:32.137725 12309 net.cpp:136] Top shape: 128 1000 1 1 (128000)
I1028 18:09:32.137729 12309 net.cpp:144] Memory required for data: 4135782400
I1028 18:09:32.137733 12309 layer_factory.hpp:77] Creating layer loss
I1028 18:09:32.137742 12309 net.cpp:84] Creating Layer loss
I1028 18:09:32.137745 12309 net.cpp:413] loss <- pool10
I1028 18:09:32.137750 12309 net.cpp:413] loss <- label
I1028 18:09:32.137759 12309 net.cpp:387] loss -> loss
I1028 18:09:32.137771 12309 layer_factory.hpp:77] Creating layer loss
…
I1028 18:09:32.144511 12309 net.cpp:301] The NetState phase (1) differed from the phase (0) specified by a rule in layer data
I1028 18:09:32.145982 12309 net.cpp:51] Initializing net from parameters: 
name: "SqueezeNet"
state {
  phase: TEST
}
layer {
  name: "data"
  type: "Data"
  top: "data"
  top: "label"
  include {
    phase: TEST
  }
  transform_param {
    crop_size: 227
    mean_value: 104
    mean_value: 117
    mean_value: 123
  }
  data_param {
    source: "/home/data/caffe-imagenet/ilsvrc12_val_lmdb"
    batch_size: 50
    backend: LMDB
  }
}
layer {
  name: "conv1"
  type: "INQConvolution"
  bottom: "data"
  top: "conv1"
  convolution_param {
    num_output: 64
    kernel_size: 3
    stride: 2
    weight_filler {
      type: "xavier"
    }
  }
  inq_convolution_param {
    portion: 0.2
    portion: 0.4
    weight_mask_filler {
      type: "constant"
      value: 1
    }
    bias_mask_filler {
      type: "constant"
      value: 1
    }
    num_quantum_values: 7
  }
}
layer {
  name: "relu_conv1"
  type: "ReLU"
  bottom: "conv1"
  top: "conv1"
}
layer {
  name: "pool1"
  type: "Pooling"
  bottom: "conv1"
  top: "pool1"
  pooling_param {
    pool: MAX
    kernel_size: 3
    stride: 2
  }
}
layer {
  name: "fire2/squeeze1x1"
  type: "INQConvolution"
  bottom: "pool1"
  top: "fire2/squeeze1x1"
  convolution_param {
    num_output: 16
    kernel_size: 1
    weight_filler {
      type: "xavier"
    }
  }
  inq_convolution_param {
    portion: 0.2
    portion: 0.4
    weight_mask_filler {
      type: "constant"
      value: 1
    }
    bias_mask_filler {
      type: "constant"
      value: 1
    }
    num_quantum_values: 7
  }
}
layer {
  name: "fire2/relu_squeeze1x1"
  type: "ReLU"
  bottom: "fire2/squeeze1x1"
  top: "fire2/squeeze1x1"
}
layer {
  name: "fire2/expand1x1"
  type: "INQConvolution"
  bottom: "fire2/squeeze1x1"
  top: "fire2/expand1x1"
  convolution_param {
    num_output: 64
    kernel_size: 1
    weight_filler {
      type: "xavier"
    }
  }
  inq_convolution_param {
    portion: 0.2
    portion: 0.4
    weight_mask_filler {
      type: "constant"
      value: 1
    }
    bias_mask_filler {
      type: "constant"
      value: 1
    }
    num_quantum_values: 7
  }
}
layer {
  name: "fire2/relu_expand1x1"
  type: "ReLU"
  bottom: "fire2/expand1x1"
  top: "fire2/expand1x1"
}
layer {
  name: "fire2/expand3x3"
  type: "INQConvolution"
  bottom: "fire2/squeeze1x1"
  top: "fire2/expand3x3"
  convolution_param {
    num_output: 64
    pad: 1
    kernel_size: 3
    weight_filler {
      type: "xavier"
    }
  }
  inq_convolution_param {
    portion: 0.2
    portion: 0.4
    weight_mask_filler {
      type: "constant"
      value: 1
    }
    bias_mask_filler {
      type: "constant"
      value: 1
    }
    num_quantum_values: 7
  }
}
layer {
  name: "fire2/relu_expand3x3"
  type: "ReLU"
  bottom: "fire2/expand3x3"
  top: "fire2/expand3x3"
}
layer {
  name: "fire2/concat"
  type: "Concat"
  bottom: "fire2/expand1x1"
  bottom: "fire2/expand3x3"
  top: "fire2/concat"
}
layer {
  name: "fire3/squeeze1x1"
  type: "INQConvolution"
  bottom: "fire2/concat"
  top: "fire3/squeeze1x1"
  convolution_param {
    num_output: 16
    kernel_size: 1
    weight_filler {
      type: "xavier"
    }
  }
  inq_convolution_param {
    portion: 0.2
    portion: 0.4
    weight_mask_filler {
      type: "constant"
      value: 1
    }
    bias_mask_filler {
      type: "constant"
      value: 1
    }
    num_quantum_values: 7
  }
}
layer {
  name: "fire3/relu_squeeze1x1"
  type: "ReLU"
  bottom: "fire3/squeeze1x1"
  top: "fire3/squeeze1x1"
}
layer {
  name: "fire3/expand1x1"
  type: "INQConvolution"
  bottom: "fire3/squeeze1x1"
  top: "fire3/expand1x1"
  convolution_param {
    num_output: 64
    kernel_size: 1
    weight_filler {
      type: "xavier"
    }
  }
  inq_convolution_param {
    portion: 0.2
    portion: 0.4
    weight_mask_filler {
      type: "constant"
      value: 1
    }
    bias_mask_filler {
      type: "constant"
      value: 1
    }
    num_quantum_values: 7
  }
}
layer {
  name: "fire3/relu_expand1x1"
  type: "ReLU"
  bottom: "fire3/expand1x1"
  top: "fire3/expand1x1"
}
layer {
  name: "fire3/expand3x3"
  type: "INQConvolution"
  bottom: "fire3/squeeze1x1"
  top: "fire3/expand3x3"
  convolution_param {
    num_output: 64
    pad: 1
    kernel_size: 3
    weight_filler {
      type: "xavier"
    }
  }
  inq_convolution_param {
    portion: 0.2
    portion: 0.4
    weight_mask_filler {
      type: "constant"
      value: 1
    }
    bias_mask_filler {
      type: "constant"
      value: 1
    }
    num_quantum_values: 7
  }
}
layer {
  name: "fire3/relu_expand3x3"
  type: "ReLU"
  bottom: "fire3/expand3x3"
  top: "fire3/expand3x3"
}
layer {
  name: "fire3/concat"
  type: "Concat"
  bottom: "fire3/expand1x1"
  bottom: "fire3/expand3x3"
  top: "fire3/concat"
}
layer {
  name: "pool3"
  type: "Pooling"
  bottom: "fire3/concat"
  top: "pool3"
  pooling_param {
    pool: MAX
    kernel_size: 3
    stride: 2
  }
}
layer {
  name: "fire4/squeeze1x1"
  type: "INQConvolution"
  bottom: "pool3"
  top: "fire4/squeeze1x1"
  convolution_param {
    num_output: 32
    kernel_size: 1
    weight_filler {
      type: "xavier"
    }
  }
  inq_convolution_param {
    portion: 0.2
    portion: 0.4
    weight_mask_filler {
      type: "constant"
      value: 1
    }
    bias_mask_filler {
      type: "constant"
      value: 1
    }
    num_quantum_values: 7
  }
}
layer {
  name: "fire4/relu_squeeze1x1"
  type: "ReLU"
  bottom: "fire4/squeeze1x1"
  top: "fire4/squeeze1x1"
}
layer {
  name: "fire4/expand1x1"
  type: "INQConvolution"
  bottom: "fire4/squeeze1x1"
  top: "fire4/expand1x1"
  convolution_param {
    num_output: 128
    kernel_size: 1
    weight_filler {
      type: "xavier"
    }
  }
  inq_convolution_param {
    portion: 0.2
    portion: 0.4
    weight_mask_filler {
      type: "constant"
      value: 1
    }
    bias_mask_filler {
      type: "constant"
      value: 1
    }
    num_quantum_values: 7
  }
}
layer {
  name: "fire4/relu_expand1x1"
  type: "ReLU"
  bottom: "fire4/expand1x1"
  top: "fire4/expand1x1"
}
layer {
  name: "fire4/expand3x3"
  type: "INQConvolution"
  bottom: "fire4/squeeze1x1"
  top: "fire4/expand3x3"
  convolution_param {
    num_output: 128
    pad: 1
    kernel_size: 3
    weight_filler {
      type: "xavier"
    }
  }
  inq_convolution_param {
    portion: 0.2
    portion: 0.4
    weight_mask_filler {
      type: "constant"
      value: 1
    }
    bias_mask_filler {
      type: "constant"
      value: 1
    }
    num_quantum_values: 7
  }
}
layer {
  name: "fire4/relu_expand3x3"
  type: "ReLU"
  bottom: "fire4/expand3x3"
  top: "fire4/expand3x3"
}
layer {
  name: "fire4/concat"
  type: "Concat"
  bottom: "fire4/expand1x1"
  bottom: "fire4/expand3x3"
  top: "fire4/concat"
}
layer {
  name: "fire5/squeeze1x1"
  type: "INQConvolution"
  bottom: "fire4/concat"
  top: "fire5/squeeze1x1"
  convolution_param {
    num_output: 32
    kernel_size: 1
    weight_filler {
      type: "xavier"
    }
  }
  inq_convolution_param {
    portion: 0.2
    portion: 0.4
    weight_mask_filler {
      type: "constant"
      value: 1
    }
    bias_mask_filler {
      type: "constant"
      value: 1
    }
    num_quantum_values: 7
  }
}
layer {
  name: "fire5/relu_squeeze1x1"
  type: "ReLU"
  bottom: "fire5/squeeze1x1"
  top: "fire5/squeeze1x1"
}
layer {
  name: "fire5/expand1x1"
  type: "INQConvolution"
  bottom: "fire5/squeeze1x1"
  top: "fire5/expand1x1"
  convolution_param {
    num_output: 128
    kernel_size: 1
    weight_filler {
      type: "xavier"
    }
  }
  inq_convolution_param {
    portion: 0.2
    portion: 0.4
    weight_mask_filler {
      type: "constant"
      value: 1
    }
    bias_mask_filler {
      type: "constant"
      value: 1
    }
    num_quantum_values: 7
  }
}
layer {
  name: "fire5/relu_expand1x1"
  type: "ReLU"
  bottom: "fire5/expand1x1"
  top: "fire5/expand1x1"
}
layer {
  name: "fire5/expand3x3"
  type: "INQConvolution"
  bottom: "fire5/squeeze1x1"
  top: "fire5/expand3x3"
  convolution_param {
    num_output: 128
    pad: 1
    kernel_size: 3
    weight_filler {
      type: "xavier"
    }
  }
  inq_convolution_param {
    portion: 0.2
    portion: 0.4
    weight_mask_filler {
      type: "constant"
      value: 1
    }
    bias_mask_filler {
      type: "constant"
      value: 1
    }
    num_quantum_values: 7
  }
}
layer {
  name: "fire5/relu_expand3x3"
  type: "ReLU"
  bottom: "fire5/expand3x3"
  top: "fire5/expand3x3"
}
layer {
  name: "fire5/concat"
  type: "Concat"
  bottom: "fire5/expand1x1"
  bottom: "fire5/expand3x3"
  top: "fire5/concat"
}
layer {
  name: "pool5"
  type: "Pooling"
  bottom: "fire5/concat"
  top: "pool5"
  pooling_param {
    pool: MAX
    kernel_size: 3
    stride: 2
  }
}
layer {
  name: "fire6/squeeze1x1"
  type: "INQConvolution"
  bottom: "pool5"
  top: "fire6/squeeze1x1"
  convolution_param {
    num_output: 48
    kernel_size: 1
    weight_filler {
      type: "xavier"
    }
  }
  inq_convolution_param {
    portion: 0.2
    portion: 0.4
    weight_mask_filler {
      type: "constant"
      value: 1
    }
    bias_mask_filler {
      type: "constant"
      value: 1
    }
    num_quantum_values: 7
  }
}
layer {
  name: "fire6/relu_squeeze1x1"
  type: "ReLU"
  bottom: "fire6/squeeze1x1"
  top: "fire6/squeeze1x1"
}
layer {
  name: "fire6/expand1x1"
  type: "INQConvolution"
  bottom: "fire6/squeeze1x1"
  top: "fire6/expand1x1"
  convolution_param {
    num_output: 192
    kernel_size: 1
    weight_filler {
      type: "xavier"
    }
  }
  inq_convolution_param {
    portion: 0.2
    portion: 0.4
    weight_mask_filler {
      type: "constant"
      value: 1
    }
    bias_mask_filler {
      type: "constant"
      value: 1
    }
    num_quantum_values: 7
  }
}
layer {
  name: "fire6/relu_expand1x1"
  type: "ReLU"
  bottom: "fire6/expand1x1"
  top: "fire6/expand1x1"
}
layer {
  name: "fire6/expand3x3"
  type: "INQConvolution"
  bottom: "fire6/squeeze1x1"
  top: "fire6/expand3x3"
  convolution_param {
    num_output: 192
    pad: 1
    kernel_size: 3
    weight_filler {
      type: "xavier"
    }
  }
  inq_convolution_param {
    portion: 0.2
    portion: 0.4
    weight_mask_filler {
      type: "constant"
      value: 1
    }
    bias_mask_filler {
      type: "constant"
      value: 1
    }
    num_quantum_values: 7
  }
}
layer {
  name: "fire6/relu_expand3x3"
  type: "ReLU"
  bottom: "fire6/expand3x3"
  top: "fire6/expand3x3"
}
layer {
  name: "fire6/concat"
  type: "Concat"
  bottom: "fire6/expand1x1"
  bottom: "fire6/expand3x3"
  top: "fire6/concat"
}
layer {
  name: "fire7/squeeze1x1"
  type: "INQConvolution"
  bottom: "fire6/concat"
  top: "fire7/squeeze1x1"
  convolution_param {
    num_output: 48
    kernel_size: 1
    weight_filler {
      type: "xavier"
    }
  }
  inq_convolution_param {
    portion: 0.2
    portion: 0.4
    weight_mask_filler {
      type: "constant"
      value: 1
    }
    bias_mask_filler {
      type: "constant"
      value: 1
    }
    num_quantum_values: 7
  }
}
layer {
  name: "fire7/relu_squeeze1x1"
  type: "ReLU"
  bottom: "fire7/squeeze1x1"
  top: "fire7/squeeze1x1"
}
layer {
  name: "fire7/expand1x1"
  type: "INQConvolution"
  bottom: "fire7/squeeze1x1"
  top: "fire7/expand1x1"
  convolution_param {
    num_output: 192
    kernel_size: 1
    weight_filler {
      type: "xavier"
    }
  }
  inq_convolution_param {
    portion: 0.2
    portion: 0.4
    weight_mask_filler {
      type: "constant"
      value: 1
    }
    bias_mask_filler {
      type: "constant"
      value: 1
    }
    num_quantum_values: 7
  }
}
layer {
  name: "fire7/relu_expand1x1"
  type: "ReLU"
  bottom: "fire7/expand1x1"
  top: "fire7/expand1x1"
}
layer {
  name: "fire7/expand3x3"
  type: "INQConvolution"
  bottom: "fire7/squeeze1x1"
  top: "fire7/expand3x3"
  convolution_param {
    num_output: 192
    pad: 1
    kernel_size: 3
    weight_filler {
      type: "xavier"
    }
  }
  inq_convolution_param {
    portion: 0.2
    portion: 0.4
    weight_mask_filler {
      type: "constant"
      value: 1
    }
    bias_mask_filler {
      type: "constant"
      value: 1
    }
    num_quantum_values: 7
  }
}
layer {
  name: "fire7/relu_expand3x3"
  type: "ReLU"
  bottom: "fire7/expand3x3"
  top: "fire7/expand3x3"
}
layer {
  name: "fire7/concat"
  type: "Concat"
  bottom: "fire7/expand1x1"
  bottom: "fire7/expand3x3"
  top: "fire7/concat"
}
layer {
  name: "fire8/squeeze1x1"
  type: "INQConvolution"
  bottom: "fire7/concat"
  top: "fire8/squeeze1x1"
  convolution_param {
    num_output: 64
    kernel_size: 1
    weight_filler {
      type: "xavier"
    }
  }
  inq_convolution_param {
    portion: 0.2
    portion: 0.4
    weight_mask_filler {
      type: "constant"
      value: 1
    }
    bias_mask_filler {
      type: "constant"
      value: 1
    }
    num_quantum_values: 7
  }
}
layer {
  name: "fire8/relu_squeeze1x1"
  type: "ReLU"
  bottom: "fire8/squeeze1x1"
  top: "fire8/squeeze1x1"
}
layer {
  name: "fire8/expand1x1"
  type: "INQConvolution"
  bottom: "fire8/squeeze1x1"
  top: "fire8/expand1x1"
  convolution_param {
    num_output: 256
    kernel_size: 1
    weight_filler {
      type: "xavier"
    }
  }
  inq_convolution_param {
    portion: 0.2
    portion: 0.4
    weight_mask_filler {
      type: "constant"
      value: 1
    }
    bias_mask_filler {
      type: "constant"
      value: 1
    }
    num_quantum_values: 7
  }
}
layer {
  name: "fire8/relu_expand1x1"
  type: "ReLU"
  bottom: "fire8/expand1x1"
  top: "fire8/expand1x1"
}
layer {
  name: "fire8/expand3x3"
  type: "INQConvolution"
  bottom: "fire8/squeeze1x1"
  top: "fire8/expand3x3"
  convolution_param {
    num_output: 256
    pad: 1
    kernel_size: 3
    weight_filler {
      type: "xavier"
    }
  }
  inq_convolution_param {
    portion: 0.2
    portion: 0.4
    weight_mask_filler {
      type: "constant"
      value: 1
    }
    bias_mask_filler {
      type: "constant"
      value: 1
    }
    num_quantum_values: 7
  }
}
layer {
  name: "fire8/relu_expand3x3"
  type: "ReLU"
  bottom: "fire8/expand3x3"
  top: "fire8/expand3x3"
}
layer {
  name: "fire8/concat"
  type: "Concat"
  bottom: "fire8/expand1x1"
  bottom: "fire8/expand3x3"
  top: "fire8/concat"
}
layer {
  name: "fire9/squeeze1x1"
  type: "INQConvolution"
  bottom: "fire8/concat"
  top: "fire9/squeeze1x1"
  convolution_param {
    num_output: 64
    kernel_size: 1
    weight_filler {
      type: "xavier"
    }
  }
  inq_convolution_param {
    portion: 0.2
    portion: 0.4
    weight_mask_filler {
      type: "constant"
      value: 1
    }
    bias_mask_filler {
      type: "constant"
      value: 1
    }
    num_quantum_values: 7
  }
}
layer {
  name: "fire9/relu_squeeze1x1"
  type: "ReLU"
  bottom: "fire9/squeeze1x1"
  top: "fire9/squeeze1x1"
}
layer {
  name: "fire9/expand1x1"
  type: "INQConvolution"
  bottom: "fire9/squeeze1x1"
  top: "fire9/expand1x1"
  convolution_param {
    num_output: 256
    kernel_size: 1
    weight_filler {
      type: "xavier"
    }
  }
  inq_convolution_param {
    portion: 0.2
    portion: 0.4
    weight_mask_filler {
      type: "constant"
      value: 1
    }
    bias_mask_filler {
      type: "constant"
      value: 1
    }
    num_quantum_values: 7
  }
}
layer {
  name: "fire9/relu_expand1x1"
  type: "ReLU"
  bottom: "fire9/expand1x1"
  top: "fire9/expand1x1"
}
layer {
  name: "fire9/expand3x3"
  type: "INQConvolution"
  bottom: "fire9/squeeze1x1"
  top: "fire9/expand3x3"
  convolution_param {
    num_output: 256
    pad: 1
    kernel_size: 3
    weight_filler {
      type: "xavier"
    }
  }
  inq_convolution_param {
    portion: 0.2
    portion: 0.4
    weight_mask_filler {
      type: "constant"
      value: 1
    }
    bias_mask_filler {
      type: "constant"
      value: 1
    }
    num_quantum_values: 7
  }
}
layer {
  name: "fire9/relu_expand3x3"
  type: "ReLU"
  bottom: "fire9/expand3x3"
  top: "fire9/expand3x3"
}
layer {
  name: "fire9/concat"
  type: "Concat"
  bottom: "fire9/expand1x1"
  bottom: "fire9/expand3x3"
  top: "fire9/concat"
}
layer {
  name: "drop9"
  type: "Dropout"
  bottom: "fire9/concat"
  top: "fire9/concat"
  dropout_param {
    dropout_ratio: 0.5
  }
}
layer {
  name: "conv10"
  type: "INQConvolution"
  bottom: "fire9/concat"
  top: "conv10"
  convolution_param {
    num_output: 1000
    kernel_size: 1
    weight_filler {
      type: "gaussian"
      mean: 0
      std: 0.01
    }
  }
  inq_convolution_param {
    portion: 0.2
    portion: 0.4
    weight_mask_filler {
      type: "constant"
      value: 1
    }
    bias_mask_filler {
      type: "constant"
      value: 1
    }
    num_quantum_values: 7
  }
}
layer {
  name: "relu_conv10"
  type: "ReLU"
  bottom: "conv10"
  top: "conv10"
}
layer {
  name: "pool10"
  type: "Pooling"
  bottom: "conv10"
  top: "pool10"
  pooling_param {
    pool: AVE
    global_pooling: true
  }
}
layer {
  name: "loss"
  type: "SoftmaxWithLoss"
  bottom: "pool10"
  bottom: "label"
  top: "loss"
}
layer {
  name: "accuracy_top1"
  type: "Accuracy"
  bottom: "pool10"
  bottom: "label"
  top: "accuracy_top1"
  include {
    phase: TEST
  }
}
layer {
  name: "accuracy_top5"
  type: "Accuracy"
  bottom: "pool10"
  bottom: "label"
  top: "accuracy_top5"
  include {
    phase: TEST
  }
  accuracy_param {
    top_k: 5
  }
}
I1028 18:09:32.146654 12309 layer_factory.hpp:77] Creating layer data
I1028 18:09:32.146769 12309 db_lmdb.cpp:35] Opened lmdb /home/data/caffe-imagenet/ilsvrc12_val_lmdb
I1028 18:09:32.146801 12309 net.cpp:84] Creating Layer data
I1028 18:09:32.146816 12309 net.cpp:387] data -> data
I1028 18:09:32.146838 12309 net.cpp:387] data -> label
I1028 18:09:32.147526 12309 data_layer.cpp:45] output data size: 50,3,227,227
I1028 18:09:32.246062 12309 net.cpp:127] Setting up data
I1028 18:09:32.246104 12309 net.cpp:136] Top shape: 50 3 227 227 (7729350)
I1028 18:09:32.246111 12309 net.cpp:136] Top shape: 50 (50)
I1028 18:09:32.246115 12309 net.cpp:144] Memory required for data: 30917600
I1028 18:09:32.246124 12309 layer_factory.hpp:77] Creating layer label_data_1_split
I1028 18:09:32.246140 12309 net.cpp:84] Creating Layer label_data_1_split
I1028 18:09:32.246145 12309 net.cpp:413] label_data_1_split <- label
I1028 18:09:32.246155 12309 net.cpp:387] label_data_1_split -> label_data_1_split_0
I1028 18:09:32.246166 12309 net.cpp:387] label_data_1_split -> label_data_1_split_1
I1028 18:09:32.246173 12309 net.cpp:387] label_data_1_split -> label_data_1_split_2
I1028 18:09:32.246310 12309 net.cpp:127] Setting up label_data_1_split
I1028 18:09:32.246320 12309 net.cpp:136] Top shape: 50 (50)
I1028 18:09:32.246325 12309 net.cpp:136] Top shape: 50 (50)
I1028 18:09:32.246330 12309 net.cpp:136] Top shape: 50 (50)
I1028 18:09:32.246333 12309 net.cpp:144] Memory required for data: 30918200
I1028 18:09:32.246338 12309 layer_factory.hpp:77] Creating layer conv1
I1028 18:09:32.246353 12309 net.cpp:84] Creating Layer conv1
I1028 18:09:32.246357 12309 net.cpp:413] conv1 <- data
I1028 18:09:32.246366 12309 net.cpp:387] conv1 -> conv1
I1028 18:09:32.246779 12309 net.cpp:127] Setting up conv1
I1028 18:09:32.246788 12309 net.cpp:136] Top shape: 50 64 113 113 (40860800)
I1028 18:09:32.246791 12309 net.cpp:144] Memory required for data: 194361400
I1028 18:09:32.246800 12309 net.cpp:453] Found INQ layer:conv1, type: INQConvolution, layer id:2
I1028 18:09:32.246809 12309 net.cpp:453] Found INQ layer:conv1, type: INQConvolution, layer id:2
I1028 18:09:32.246817 12309 net.cpp:453] Found INQ layer:conv1, type: INQConvolution, layer id:2
I1028 18:09:32.246822 12309 net.cpp:453] Found INQ layer:conv1, type: INQConvolution, layer id:2
I1028 18:09:32.246827 12309 layer_factory.hpp:77] Creating layer relu_conv1
I1028 18:09:32.246835 12309 net.cpp:84] Creating Layer relu_conv1
I1028 18:09:32.246840 12309 net.cpp:413] relu_conv1 <- conv1
I1028 18:09:32.246846 12309 net.cpp:374] relu_conv1 -> conv1 (in-place)
I1028 18:09:32.247112 12309 net.cpp:127] Setting up relu_conv1
I1028 18:09:32.247123 12309 net.cpp:136] Top shape: 50 64 113 113 (40860800)
I1028 18:09:32.247126 12309 net.cpp:144] Memory required for data: 357804600
I1028 18:09:32.247130 12309 layer_factory.hpp:77] Creating layer pool1
I1028 18:09:32.247141 12309 net.cpp:84] Creating Layer pool1
I1028 18:09:32.247145 12309 net.cpp:413] pool1 <- conv1
I1028 18:09:32.247153 12309 net.cpp:387] pool1 -> pool1
I1028 18:09:32.247205 12309 net.cpp:127] Setting up pool1
I1028 18:09:32.247210 12309 net.cpp:136] Top shape: 50 64 56 56 (10035200)
I1028 18:09:32.247215 12309 net.cpp:144] Memory required for data: 397945400
I1028 18:09:32.247218 12309 layer_factory.hpp:77] Creating layer fire2/squeeze1x1
I1028 18:09:32.247228 12309 net.cpp:84] Creating Layer fire2/squeeze1x1
I1028 18:09:32.247232 12309 net.cpp:413] fire2/squeeze1x1 <- pool1
I1028 18:09:32.247239 12309 net.cpp:387] fire2/squeeze1x1 -> fire2/squeeze1x1
I1028 18:09:32.247725 12309 net.cpp:127] Setting up fire2/squeeze1x1
I1028 18:09:32.247735 12309 net.cpp:136] Top shape: 50 16 56 56 (2508800)
I1028 18:09:32.247740 12309 net.cpp:144] Memory required for data: 407980600
I1028 18:09:32.247747 12309 net.cpp:453] Found INQ layer:fire2/squeeze1x1, type: INQConvolution, layer id:5
I1028 18:09:32.247756 12309 net.cpp:453] Found INQ layer:fire2/squeeze1x1, type: INQConvolution, layer id:5
I1028 18:09:32.247761 12309 net.cpp:453] Found INQ layer:fire2/squeeze1x1, type: INQConvolution, layer id:5
I1028 18:09:32.247766 12309 net.cpp:453] Found INQ layer:fire2/squeeze1x1, type: INQConvolution, layer id:5
I1028 18:09:32.247769 12309 layer_factory.hpp:77] Creating layer fire2/relu_squeeze1x1
I1028 18:09:32.247776 12309 net.cpp:84] Creating Layer fire2/relu_squeeze1x1
I1028 18:09:32.247786 12309 net.cpp:413] fire2/relu_squeeze1x1 <- fire2/squeeze1x1
I1028 18:09:32.247820 12309 net.cpp:374] fire2/relu_squeeze1x1 -> fire2/squeeze1x1 (in-place)
I1028 18:09:32.248064 12309 net.cpp:127] Setting up fire2/relu_squeeze1x1
I1028 18:09:32.248073 12309 net.cpp:136] Top shape: 50 16 56 56 (2508800)
I1028 18:09:32.248077 12309 net.cpp:144] Memory required for data: 418015800
I1028 18:09:32.248081 12309 layer_factory.hpp:77] Creating layer fire2/squeeze1x1_fire2/relu_squeeze1x1_0_split
I1028 18:09:32.248088 12309 net.cpp:84] Creating Layer fire2/squeeze1x1_fire2/relu_squeeze1x1_0_split
I1028 18:09:32.248092 12309 net.cpp:413] fire2/squeeze1x1_fire2/relu_squeeze1x1_0_split <- fire2/squeeze1x1
I1028 18:09:32.248100 12309 net.cpp:387] fire2/squeeze1x1_fire2/relu_squeeze1x1_0_split -> fire2/squeeze1x1_fire2/relu_squeeze1x1_0_split_0
I1028 18:09:32.248107 12309 net.cpp:387] fire2/squeeze1x1_fire2/relu_squeeze1x1_0_split -> fire2/squeeze1x1_fire2/relu_squeeze1x1_0_split_1
I1028 18:09:32.248159 12309 net.cpp:127] Setting up fire2/squeeze1x1_fire2/relu_squeeze1x1_0_split
I1028 18:09:32.248167 12309 net.cpp:136] Top shape: 50 16 56 56 (2508800)
I1028 18:09:32.248172 12309 net.cpp:136] Top shape: 50 16 56 56 (2508800)
I1028 18:09:32.248175 12309 net.cpp:144] Memory required for data: 438086200
I1028 18:09:32.248178 12309 layer_factory.hpp:77] Creating layer fire2/expand1x1
I1028 18:09:32.248189 12309 net.cpp:84] Creating Layer fire2/expand1x1
I1028 18:09:32.248193 12309 net.cpp:413] fire2/expand1x1 <- fire2/squeeze1x1_fire2/relu_squeeze1x1_0_split_0
I1028 18:09:32.248201 12309 net.cpp:387] fire2/expand1x1 -> fire2/expand1x1
I1028 18:09:32.250970 12309 net.cpp:127] Setting up fire2/expand1x1
I1028 18:09:32.250989 12309 net.cpp:136] Top shape: 50 64 56 56 (10035200)
I1028 18:09:32.250993 12309 net.cpp:144] Memory required for data: 478227000
I1028 18:09:32.251003 12309 net.cpp:453] Found INQ layer:fire2/expand1x1, type: INQConvolution, layer id:8
I1028 18:09:32.251011 12309 net.cpp:453] Found INQ layer:fire2/expand1x1, type: INQConvolution, layer id:8
I1028 18:09:32.251016 12309 net.cpp:453] Found INQ layer:fire2/expand1x1, type: INQConvolution, layer id:8
I1028 18:09:32.251021 12309 net.cpp:453] Found INQ layer:fire2/expand1x1, type: INQConvolution, layer id:8
I1028 18:09:32.251024 12309 layer_factory.hpp:77] Creating layer fire2/relu_expand1x1
I1028 18:09:32.251034 12309 net.cpp:84] Creating Layer fire2/relu_expand1x1
I1028 18:09:32.251037 12309 net.cpp:413] fire2/relu_expand1x1 <- fire2/expand1x1
I1028 18:09:32.251044 12309 net.cpp:374] fire2/relu_expand1x1 -> fire2/expand1x1 (in-place)
I1028 18:09:32.252516 12309 net.cpp:127] Setting up fire2/relu_expand1x1
I1028 18:09:32.252532 12309 net.cpp:136] Top shape: 50 64 56 56 (10035200)
I1028 18:09:32.252537 12309 net.cpp:144] Memory required for data: 518367800
I1028 18:09:32.252540 12309 layer_factory.hpp:77] Creating layer fire2/expand3x3
I1028 18:09:32.252552 12309 net.cpp:84] Creating Layer fire2/expand3x3
I1028 18:09:32.252557 12309 net.cpp:413] fire2/expand3x3 <- fire2/squeeze1x1_fire2/relu_squeeze1x1_0_split_1
I1028 18:09:32.252565 12309 net.cpp:387] fire2/expand3x3 -> fire2/expand3x3
I1028 18:09:32.253021 12309 net.cpp:127] Setting up fire2/expand3x3
I1028 18:09:32.253031 12309 net.cpp:136] Top shape: 50 64 56 56 (10035200)
I1028 18:09:32.253034 12309 net.cpp:144] Memory required for data: 558508600
I1028 18:09:32.253041 12309 net.cpp:453] Found INQ layer:fire2/expand3x3, type: INQConvolution, layer id:10
I1028 18:09:32.253046 12309 net.cpp:453] Found INQ layer:fire2/expand3x3, type: INQConvolution, layer id:10
I1028 18:09:32.253051 12309 net.cpp:453] Found INQ layer:fire2/expand3x3, type: INQConvolution, layer id:10
I1028 18:09:32.253054 12309 net.cpp:453] Found INQ layer:fire2/expand3x3, type: INQConvolution, layer id:10
I1028 18:09:32.253058 12309 layer_factory.hpp:77] Creating layer fire2/relu_expand3x3
I1028 18:09:32.253065 12309 net.cpp:84] Creating Layer fire2/relu_expand3x3
I1028 18:09:32.253069 12309 net.cpp:413] fire2/relu_expand3x3 <- fire2/expand3x3
I1028 18:09:32.253079 12309 net.cpp:374] fire2/relu_expand3x3 -> fire2/expand3x3 (in-place)
I1028 18:09:32.253311 12309 net.cpp:127] Setting up fire2/relu_expand3x3
I1028 18:09:32.253322 12309 net.cpp:136] Top shape: 50 64 56 56 (10035200)
I1028 18:09:32.253326 12309 net.cpp:144] Memory required for data: 598649400
I1028 18:09:32.253330 12309 layer_factory.hpp:77] Creating layer fire2/concat
I1028 18:09:32.253338 12309 net.cpp:84] Creating Layer fire2/concat
I1028 18:09:32.253342 12309 net.cpp:413] fire2/concat <- fire2/expand1x1
I1028 18:09:32.253347 12309 net.cpp:413] fire2/concat <- fire2/expand3x3
I1028 18:09:32.253355 12309 net.cpp:387] fire2/concat -> fire2/concat
I1028 18:09:32.253387 12309 net.cpp:127] Setting up fire2/concat
I1028 18:09:32.253392 12309 net.cpp:136] Top shape: 50 128 56 56 (20070400)
I1028 18:09:32.253396 12309 net.cpp:144] Memory required for data: 678931000
I1028 18:09:32.253399 12309 layer_factory.hpp:77] Creating layer fire3/squeeze1x1
I1028 18:09:32.253409 12309 net.cpp:84] Creating Layer fire3/squeeze1x1
I1028 18:09:32.253413 12309 net.cpp:413] fire3/squeeze1x1 <- fire2/concat
I1028 18:09:32.253422 12309 net.cpp:387] fire3/squeeze1x1 -> fire3/squeeze1x1
I1028 18:09:32.253783 12309 net.cpp:127] Setting up fire3/squeeze1x1
I1028 18:09:32.253792 12309 net.cpp:136] Top shape: 50 16 56 56 (2508800)
I1028 18:09:32.253794 12309 net.cpp:144] Memory required for data: 688966200
I1028 18:09:32.253803 12309 net.cpp:453] Found INQ layer:fire3/squeeze1x1, type: INQConvolution, layer id:13
I1028 18:09:32.253813 12309 net.cpp:453] Found INQ layer:fire3/squeeze1x1, type: INQConvolution, layer id:13
I1028 18:09:32.253818 12309 net.cpp:453] Found INQ layer:fire3/squeeze1x1, type: INQConvolution, layer id:13
I1028 18:09:32.253823 12309 net.cpp:453] Found INQ layer:fire3/squeeze1x1, type: INQConvolution, layer id:13
I1028 18:09:32.253826 12309 layer_factory.hpp:77] Creating layer fire3/relu_squeeze1x1
I1028 18:09:32.253832 12309 net.cpp:84] Creating Layer fire3/relu_squeeze1x1
I1028 18:09:32.253836 12309 net.cpp:413] fire3/relu_squeeze1x1 <- fire3/squeeze1x1
I1028 18:09:32.253841 12309 net.cpp:374] fire3/relu_squeeze1x1 -> fire3/squeeze1x1 (in-place)
I1028 18:09:32.254056 12309 net.cpp:127] Setting up fire3/relu_squeeze1x1
I1028 18:09:32.254066 12309 net.cpp:136] Top shape: 50 16 56 56 (2508800)
I1028 18:09:32.254070 12309 net.cpp:144] Memory required for data: 699001400
I1028 18:09:32.254073 12309 layer_factory.hpp:77] Creating layer fire3/squeeze1x1_fire3/relu_squeeze1x1_0_split
I1028 18:09:32.254082 12309 net.cpp:84] Creating Layer fire3/squeeze1x1_fire3/relu_squeeze1x1_0_split
I1028 18:09:32.254086 12309 net.cpp:413] fire3/squeeze1x1_fire3/relu_squeeze1x1_0_split <- fire3/squeeze1x1
I1028 18:09:32.254091 12309 net.cpp:387] fire3/squeeze1x1_fire3/relu_squeeze1x1_0_split -> fire3/squeeze1x1_fire3/relu_squeeze1x1_0_split_0
I1028 18:09:32.254101 12309 net.cpp:387] fire3/squeeze1x1_fire3/relu_squeeze1x1_0_split -> fire3/squeeze1x1_fire3/relu_squeeze1x1_0_split_1
I1028 18:09:32.254148 12309 net.cpp:127] Setting up fire3/squeeze1x1_fire3/relu_squeeze1x1_0_split
I1028 18:09:32.254155 12309 net.cpp:136] Top shape: 50 16 56 56 (2508800)
I1028 18:09:32.254159 12309 net.cpp:136] Top shape: 50 16 56 56 (2508800)
I1028 18:09:32.254163 12309 net.cpp:144] Memory required for data: 719071800
I1028 18:09:32.254166 12309 layer_factory.hpp:77] Creating layer fire3/expand1x1
I1028 18:09:32.254178 12309 net.cpp:84] Creating Layer fire3/expand1x1
I1028 18:09:32.254181 12309 net.cpp:413] fire3/expand1x1 <- fire3/squeeze1x1_fire3/relu_squeeze1x1_0_split_0
I1028 18:09:32.254189 12309 net.cpp:387] fire3/expand1x1 -> fire3/expand1x1
I1028 18:09:32.254549 12309 net.cpp:127] Setting up fire3/expand1x1
I1028 18:09:32.254559 12309 net.cpp:136] Top shape: 50 64 56 56 (10035200)
I1028 18:09:32.254562 12309 net.cpp:144] Memory required for data: 759212600
I1028 18:09:32.254567 12309 net.cpp:453] Found INQ layer:fire3/expand1x1, type: INQConvolution, layer id:16
I1028 18:09:32.254573 12309 net.cpp:453] Found INQ layer:fire3/expand1x1, type: INQConvolution, layer id:16
I1028 18:09:32.254580 12309 net.cpp:453] Found INQ layer:fire3/expand1x1, type: INQConvolution, layer id:16
I1028 18:09:32.254595 12309 net.cpp:453] Found INQ layer:fire3/expand1x1, type: INQConvolution, layer id:16
I1028 18:09:32.254600 12309 layer_factory.hpp:77] Creating layer fire3/relu_expand1x1
I1028 18:09:32.254606 12309 net.cpp:84] Creating Layer fire3/relu_expand1x1
I1028 18:09:32.254609 12309 net.cpp:413] fire3/relu_expand1x1 <- fire3/expand1x1
I1028 18:09:32.254616 12309 net.cpp:374] fire3/relu_expand1x1 -> fire3/expand1x1 (in-place)
I1028 18:09:32.254827 12309 net.cpp:127] Setting up fire3/relu_expand1x1
I1028 18:09:32.254837 12309 net.cpp:136] Top shape: 50 64 56 56 (10035200)
I1028 18:09:32.254839 12309 net.cpp:144] Memory required for data: 799353400
I1028 18:09:32.254843 12309 layer_factory.hpp:77] Creating layer fire3/expand3x3
I1028 18:09:32.254853 12309 net.cpp:84] Creating Layer fire3/expand3x3
I1028 18:09:32.254856 12309 net.cpp:413] fire3/expand3x3 <- fire3/squeeze1x1_fire3/relu_squeeze1x1_0_split_1
I1028 18:09:32.254864 12309 net.cpp:387] fire3/expand3x3 -> fire3/expand3x3
I1028 18:09:32.255301 12309 net.cpp:127] Setting up fire3/expand3x3
I1028 18:09:32.255309 12309 net.cpp:136] Top shape: 50 64 56 56 (10035200)
I1028 18:09:32.255313 12309 net.cpp:144] Memory required for data: 839494200
I1028 18:09:32.255318 12309 net.cpp:453] Found INQ layer:fire3/expand3x3, type: INQConvolution, layer id:18
I1028 18:09:32.255323 12309 net.cpp:453] Found INQ layer:fire3/expand3x3, type: INQConvolution, layer id:18
I1028 18:09:32.255328 12309 net.cpp:453] Found INQ layer:fire3/expand3x3, type: INQConvolution, layer id:18
I1028 18:09:32.255332 12309 net.cpp:453] Found INQ layer:fire3/expand3x3, type: INQConvolution, layer id:18
I1028 18:09:32.255336 12309 layer_factory.hpp:77] Creating layer fire3/relu_expand3x3
I1028 18:09:32.255344 12309 net.cpp:84] Creating Layer fire3/relu_expand3x3
I1028 18:09:32.255348 12309 net.cpp:413] fire3/relu_expand3x3 <- fire3/expand3x3
I1028 18:09:32.255353 12309 net.cpp:374] fire3/relu_expand3x3 -> fire3/expand3x3 (in-place)
I1028 18:09:32.256763 12309 net.cpp:127] Setting up fire3/relu_expand3x3
I1028 18:09:32.256778 12309 net.cpp:136] Top shape: 50 64 56 56 (10035200)
I1028 18:09:32.256781 12309 net.cpp:144] Memory required for data: 879635000
I1028 18:09:32.256785 12309 layer_factory.hpp:77] Creating layer fire3/concat
I1028 18:09:32.256795 12309 net.cpp:84] Creating Layer fire3/concat
I1028 18:09:32.256799 12309 net.cpp:413] fire3/concat <- fire3/expand1x1
I1028 18:09:32.256805 12309 net.cpp:413] fire3/concat <- fire3/expand3x3
I1028 18:09:32.256811 12309 net.cpp:387] fire3/concat -> fire3/concat
I1028 18:09:32.256847 12309 net.cpp:127] Setting up fire3/concat
I1028 18:09:32.256855 12309 net.cpp:136] Top shape: 50 128 56 56 (20070400)
I1028 18:09:32.256857 12309 net.cpp:144] Memory required for data: 959916600
I1028 18:09:32.256861 12309 layer_factory.hpp:77] Creating layer pool3
I1028 18:09:32.256867 12309 net.cpp:84] Creating Layer pool3
I1028 18:09:32.256871 12309 net.cpp:413] pool3 <- fire3/concat
I1028 18:09:32.256880 12309 net.cpp:387] pool3 -> pool3
I1028 18:09:32.256930 12309 net.cpp:127] Setting up pool3
I1028 18:09:32.256937 12309 net.cpp:136] Top shape: 50 128 28 28 (5017600)
I1028 18:09:32.256940 12309 net.cpp:144] Memory required for data: 979987000
I1028 18:09:32.256944 12309 layer_factory.hpp:77] Creating layer fire4/squeeze1x1
I1028 18:09:32.256954 12309 net.cpp:84] Creating Layer fire4/squeeze1x1
I1028 18:09:32.256960 12309 net.cpp:413] fire4/squeeze1x1 <- pool3
I1028 18:09:32.256966 12309 net.cpp:387] fire4/squeeze1x1 -> fire4/squeeze1x1
I1028 18:09:32.257354 12309 net.cpp:127] Setting up fire4/squeeze1x1
I1028 18:09:32.257364 12309 net.cpp:136] Top shape: 50 32 28 28 (1254400)
I1028 18:09:32.257367 12309 net.cpp:144] Memory required for data: 985004600
I1028 18:09:32.257374 12309 net.cpp:453] Found INQ layer:fire4/squeeze1x1, type: INQConvolution, layer id:22
I1028 18:09:32.257378 12309 net.cpp:453] Found INQ layer:fire4/squeeze1x1, type: INQConvolution, layer id:22
I1028 18:09:32.257386 12309 net.cpp:453] Found INQ layer:fire4/squeeze1x1, type: INQConvolution, layer id:22
I1028 18:09:32.257405 12309 net.cpp:453] Found INQ layer:fire4/squeeze1x1, type: INQConvolution, layer id:22
I1028 18:09:32.257410 12309 layer_factory.hpp:77] Creating layer fire4/relu_squeeze1x1
I1028 18:09:32.257416 12309 net.cpp:84] Creating Layer fire4/relu_squeeze1x1
I1028 18:09:32.257421 12309 net.cpp:413] fire4/relu_squeeze1x1 <- fire4/squeeze1x1
I1028 18:09:32.257428 12309 net.cpp:374] fire4/relu_squeeze1x1 -> fire4/squeeze1x1 (in-place)
I1028 18:09:32.257638 12309 net.cpp:127] Setting up fire4/relu_squeeze1x1
I1028 18:09:32.257647 12309 net.cpp:136] Top shape: 50 32 28 28 (1254400)
I1028 18:09:32.257650 12309 net.cpp:144] Memory required for data: 990022200
I1028 18:09:32.257654 12309 layer_factory.hpp:77] Creating layer fire4/squeeze1x1_fire4/relu_squeeze1x1_0_split
I1028 18:09:32.257660 12309 net.cpp:84] Creating Layer fire4/squeeze1x1_fire4/relu_squeeze1x1_0_split
I1028 18:09:32.257664 12309 net.cpp:413] fire4/squeeze1x1_fire4/relu_squeeze1x1_0_split <- fire4/squeeze1x1
I1028 18:09:32.257673 12309 net.cpp:387] fire4/squeeze1x1_fire4/relu_squeeze1x1_0_split -> fire4/squeeze1x1_fire4/relu_squeeze1x1_0_split_0
I1028 18:09:32.257679 12309 net.cpp:387] fire4/squeeze1x1_fire4/relu_squeeze1x1_0_split -> fire4/squeeze1x1_fire4/relu_squeeze1x1_0_split_1
I1028 18:09:32.257735 12309 net.cpp:127] Setting up fire4/squeeze1x1_fire4/relu_squeeze1x1_0_split
I1028 18:09:32.257740 12309 net.cpp:136] Top shape: 50 32 28 28 (1254400)
I1028 18:09:32.257745 12309 net.cpp:136] Top shape: 50 32 28 28 (1254400)
I1028 18:09:32.257748 12309 net.cpp:144] Memory required for data: 1000057400
I1028 18:09:32.257751 12309 layer_factory.hpp:77] Creating layer fire4/expand1x1
I1028 18:09:32.257761 12309 net.cpp:84] Creating Layer fire4/expand1x1
I1028 18:09:32.257767 12309 net.cpp:413] fire4/expand1x1 <- fire4/squeeze1x1_fire4/relu_squeeze1x1_0_split_0
I1028 18:09:32.257776 12309 net.cpp:387] fire4/expand1x1 -> fire4/expand1x1
I1028 18:09:32.258147 12309 net.cpp:127] Setting up fire4/expand1x1
I1028 18:09:32.258157 12309 net.cpp:136] Top shape: 50 128 28 28 (5017600)
I1028 18:09:32.258159 12309 net.cpp:144] Memory required for data: 1020127800
I1028 18:09:32.258170 12309 net.cpp:453] Found INQ layer:fire4/expand1x1, type: INQConvolution, layer id:25
I1028 18:09:32.258178 12309 net.cpp:453] Found INQ layer:fire4/expand1x1, type: INQConvolution, layer id:25
I1028 18:09:32.258183 12309 net.cpp:453] Found INQ layer:fire4/expand1x1, type: INQConvolution, layer id:25
I1028 18:09:32.258188 12309 net.cpp:453] Found INQ layer:fire4/expand1x1, type: INQConvolution, layer id:25
I1028 18:09:32.258191 12309 layer_factory.hpp:77] Creating layer fire4/relu_expand1x1
I1028 18:09:32.258200 12309 net.cpp:84] Creating Layer fire4/relu_expand1x1
I1028 18:09:32.258204 12309 net.cpp:413] fire4/relu_expand1x1 <- fire4/expand1x1
I1028 18:09:32.258209 12309 net.cpp:374] fire4/relu_expand1x1 -> fire4/expand1x1 (in-place)
I1028 18:09:32.258417 12309 net.cpp:127] Setting up fire4/relu_expand1x1
I1028 18:09:32.258425 12309 net.cpp:136] Top shape: 50 128 28 28 (5017600)
I1028 18:09:32.258430 12309 net.cpp:144] Memory required for data: 1040198200
I1028 18:09:32.258432 12309 layer_factory.hpp:77] Creating layer fire4/expand3x3
I1028 18:09:32.258443 12309 net.cpp:84] Creating Layer fire4/expand3x3
I1028 18:09:32.258447 12309 net.cpp:413] fire4/expand3x3 <- fire4/squeeze1x1_fire4/relu_squeeze1x1_0_split_1
I1028 18:09:32.258455 12309 net.cpp:387] fire4/expand3x3 -> fire4/expand3x3
I1028 18:09:32.259121 12309 net.cpp:127] Setting up fire4/expand3x3
I1028 18:09:32.259130 12309 net.cpp:136] Top shape: 50 128 28 28 (5017600)
I1028 18:09:32.259133 12309 net.cpp:144] Memory required for data: 1060268600
I1028 18:09:32.259140 12309 net.cpp:453] Found INQ layer:fire4/expand3x3, type: INQConvolution, layer id:27
I1028 18:09:32.259145 12309 net.cpp:453] Found INQ layer:fire4/expand3x3, type: INQConvolution, layer id:27
I1028 18:09:32.259151 12309 net.cpp:453] Found INQ layer:fire4/expand3x3, type: INQConvolution, layer id:27
I1028 18:09:32.259167 12309 net.cpp:453] Found INQ layer:fire4/expand3x3, type: INQConvolution, layer id:27
I1028 18:09:32.259171 12309 layer_factory.hpp:77] Creating layer fire4/relu_expand3x3
I1028 18:09:32.259177 12309 net.cpp:84] Creating Layer fire4/relu_expand3x3
I1028 18:09:32.259181 12309 net.cpp:413] fire4/relu_expand3x3 <- fire4/expand3x3
I1028 18:09:32.259188 12309 net.cpp:374] fire4/relu_expand3x3 -> fire4/expand3x3 (in-place)
I1028 18:09:32.259400 12309 net.cpp:127] Setting up fire4/relu_expand3x3
I1028 18:09:32.259408 12309 net.cpp:136] Top shape: 50 128 28 28 (5017600)
I1028 18:09:32.259413 12309 net.cpp:144] Memory required for data: 1080339000
I1028 18:09:32.259416 12309 layer_factory.hpp:77] Creating layer fire4/concat
I1028 18:09:32.259424 12309 net.cpp:84] Creating Layer fire4/concat
I1028 18:09:32.259428 12309 net.cpp:413] fire4/concat <- fire4/expand1x1
I1028 18:09:32.259433 12309 net.cpp:413] fire4/concat <- fire4/expand3x3
I1028 18:09:32.259438 12309 net.cpp:387] fire4/concat -> fire4/concat
I1028 18:09:32.259470 12309 net.cpp:127] Setting up fire4/concat
I1028 18:09:32.259476 12309 net.cpp:136] Top shape: 50 256 28 28 (10035200)
I1028 18:09:32.259480 12309 net.cpp:144] Memory required for data: 1120479800
I1028 18:09:32.259483 12309 layer_factory.hpp:77] Creating layer fire5/squeeze1x1
I1028 18:09:32.259492 12309 net.cpp:84] Creating Layer fire5/squeeze1x1
I1028 18:09:32.259496 12309 net.cpp:413] fire5/squeeze1x1 <- fire4/concat
I1028 18:09:32.259505 12309 net.cpp:387] fire5/squeeze1x1 -> fire5/squeeze1x1
I1028 18:09:32.259925 12309 net.cpp:127] Setting up fire5/squeeze1x1
I1028 18:09:32.259933 12309 net.cpp:136] Top shape: 50 32 28 28 (1254400)
I1028 18:09:32.259937 12309 net.cpp:144] Memory required for data: 1125497400
I1028 18:09:32.259943 12309 net.cpp:453] Found INQ layer:fire5/squeeze1x1, type: INQConvolution, layer id:30
I1028 18:09:32.259948 12309 net.cpp:453] Found INQ layer:fire5/squeeze1x1, type: INQConvolution, layer id:30
I1028 18:09:32.259951 12309 net.cpp:453] Found INQ layer:fire5/squeeze1x1, type: INQConvolution, layer id:30
I1028 18:09:32.259956 12309 net.cpp:453] Found INQ layer:fire5/squeeze1x1, type: INQConvolution, layer id:30
I1028 18:09:32.259959 12309 layer_factory.hpp:77] Creating layer fire5/relu_squeeze1x1
I1028 18:09:32.259965 12309 net.cpp:84] Creating Layer fire5/relu_squeeze1x1
I1028 18:09:32.259969 12309 net.cpp:413] fire5/relu_squeeze1x1 <- fire5/squeeze1x1
I1028 18:09:32.259974 12309 net.cpp:374] fire5/relu_squeeze1x1 -> fire5/squeeze1x1 (in-place)
I1028 18:09:32.261412 12309 net.cpp:127] Setting up fire5/relu_squeeze1x1
I1028 18:09:32.261426 12309 net.cpp:136] Top shape: 50 32 28 28 (1254400)
I1028 18:09:32.261430 12309 net.cpp:144] Memory required for data: 1130515000
I1028 18:09:32.261435 12309 layer_factory.hpp:77] Creating layer fire5/squeeze1x1_fire5/relu_squeeze1x1_0_split
I1028 18:09:32.261447 12309 net.cpp:84] Creating Layer fire5/squeeze1x1_fire5/relu_squeeze1x1_0_split
I1028 18:09:32.261453 12309 net.cpp:413] fire5/squeeze1x1_fire5/relu_squeeze1x1_0_split <- fire5/squeeze1x1
I1028 18:09:32.261461 12309 net.cpp:387] fire5/squeeze1x1_fire5/relu_squeeze1x1_0_split -> fire5/squeeze1x1_fire5/relu_squeeze1x1_0_split_0
I1028 18:09:32.261468 12309 net.cpp:387] fire5/squeeze1x1_fire5/relu_squeeze1x1_0_split -> fire5/squeeze1x1_fire5/relu_squeeze1x1_0_split_1
I1028 18:09:32.261529 12309 net.cpp:127] Setting up fire5/squeeze1x1_fire5/relu_squeeze1x1_0_split
I1028 18:09:32.261538 12309 net.cpp:136] Top shape: 50 32 28 28 (1254400)
I1028 18:09:32.261543 12309 net.cpp:136] Top shape: 50 32 28 28 (1254400)
I1028 18:09:32.261545 12309 net.cpp:144] Memory required for data: 1140550200
I1028 18:09:32.261549 12309 layer_factory.hpp:77] Creating layer fire5/expand1x1
I1028 18:09:32.261559 12309 net.cpp:84] Creating Layer fire5/expand1x1
I1028 18:09:32.261564 12309 net.cpp:413] fire5/expand1x1 <- fire5/squeeze1x1_fire5/relu_squeeze1x1_0_split_0
I1028 18:09:32.261570 12309 net.cpp:387] fire5/expand1x1 -> fire5/expand1x1
I1028 18:09:32.261960 12309 net.cpp:127] Setting up fire5/expand1x1
I1028 18:09:32.261981 12309 net.cpp:136] Top shape: 50 128 28 28 (5017600)
I1028 18:09:32.261986 12309 net.cpp:144] Memory required for data: 1160620600
I1028 18:09:32.261991 12309 net.cpp:453] Found INQ layer:fire5/expand1x1, type: INQConvolution, layer id:33
I1028 18:09:32.261997 12309 net.cpp:453] Found INQ layer:fire5/expand1x1, type: INQConvolution, layer id:33
I1028 18:09:32.262002 12309 net.cpp:453] Found INQ layer:fire5/expand1x1, type: INQConvolution, layer id:33
I1028 18:09:32.262006 12309 net.cpp:453] Found INQ layer:fire5/expand1x1, type: INQConvolution, layer id:33
I1028 18:09:32.262010 12309 layer_factory.hpp:77] Creating layer fire5/relu_expand1x1
I1028 18:09:32.262017 12309 net.cpp:84] Creating Layer fire5/relu_expand1x1
I1028 18:09:32.262022 12309 net.cpp:413] fire5/relu_expand1x1 <- fire5/expand1x1
I1028 18:09:32.262028 12309 net.cpp:374] fire5/relu_expand1x1 -> fire5/expand1x1 (in-place)
I1028 18:09:32.262238 12309 net.cpp:127] Setting up fire5/relu_expand1x1
I1028 18:09:32.262246 12309 net.cpp:136] Top shape: 50 128 28 28 (5017600)
I1028 18:09:32.262250 12309 net.cpp:144] Memory required for data: 1180691000
I1028 18:09:32.262254 12309 layer_factory.hpp:77] Creating layer fire5/expand3x3
I1028 18:09:32.262264 12309 net.cpp:84] Creating Layer fire5/expand3x3
I1028 18:09:32.262269 12309 net.cpp:413] fire5/expand3x3 <- fire5/squeeze1x1_fire5/relu_squeeze1x1_0_split_1
I1028 18:09:32.262277 12309 net.cpp:387] fire5/expand3x3 -> fire5/expand3x3
I1028 18:09:32.262938 12309 net.cpp:127] Setting up fire5/expand3x3
I1028 18:09:32.262948 12309 net.cpp:136] Top shape: 50 128 28 28 (5017600)
I1028 18:09:32.262950 12309 net.cpp:144] Memory required for data: 1200761400
I1028 18:09:32.262956 12309 net.cpp:453] Found INQ layer:fire5/expand3x3, type: INQConvolution, layer id:35
I1028 18:09:32.262961 12309 net.cpp:453] Found INQ layer:fire5/expand3x3, type: INQConvolution, layer id:35
I1028 18:09:32.262966 12309 net.cpp:453] Found INQ layer:fire5/expand3x3, type: INQConvolution, layer id:35
I1028 18:09:32.262970 12309 net.cpp:453] Found INQ layer:fire5/expand3x3, type: INQConvolution, layer id:35
I1028 18:09:32.262974 12309 layer_factory.hpp:77] Creating layer fire5/relu_expand3x3
I1028 18:09:32.262981 12309 net.cpp:84] Creating Layer fire5/relu_expand3x3
I1028 18:09:32.262985 12309 net.cpp:413] fire5/relu_expand3x3 <- fire5/expand3x3
I1028 18:09:32.262993 12309 net.cpp:374] fire5/relu_expand3x3 -> fire5/expand3x3 (in-place)
I1028 18:09:32.263204 12309 net.cpp:127] Setting up fire5/relu_expand3x3
I1028 18:09:32.263213 12309 net.cpp:136] Top shape: 50 128 28 28 (5017600)
I1028 18:09:32.263217 12309 net.cpp:144] Memory required for data: 1220831800
I1028 18:09:32.263221 12309 layer_factory.hpp:77] Creating layer fire5/concat
I1028 18:09:32.263227 12309 net.cpp:84] Creating Layer fire5/concat
I1028 18:09:32.263231 12309 net.cpp:413] fire5/concat <- fire5/expand1x1
I1028 18:09:32.263236 12309 net.cpp:413] fire5/concat <- fire5/expand3x3
I1028 18:09:32.263243 12309 net.cpp:387] fire5/concat -> fire5/concat
I1028 18:09:32.263275 12309 net.cpp:127] Setting up fire5/concat
I1028 18:09:32.263281 12309 net.cpp:136] Top shape: 50 256 28 28 (10035200)
I1028 18:09:32.263284 12309 net.cpp:144] Memory required for data: 1260972600
I1028 18:09:32.263288 12309 layer_factory.hpp:77] Creating layer pool5
I1028 18:09:32.263294 12309 net.cpp:84] Creating Layer pool5
I1028 18:09:32.263298 12309 net.cpp:413] pool5 <- fire5/concat
I1028 18:09:32.263305 12309 net.cpp:387] pool5 -> pool5
I1028 18:09:32.263351 12309 net.cpp:127] Setting up pool5
I1028 18:09:32.263360 12309 net.cpp:136] Top shape: 50 256 14 14 (2508800)
I1028 18:09:32.263363 12309 net.cpp:144] Memory required for data: 1271007800
I1028 18:09:32.263366 12309 layer_factory.hpp:77] Creating layer fire6/squeeze1x1
I1028 18:09:32.263377 12309 net.cpp:84] Creating Layer fire6/squeeze1x1
I1028 18:09:32.263381 12309 net.cpp:413] fire6/squeeze1x1 <- pool5
I1028 18:09:32.263387 12309 net.cpp:387] fire6/squeeze1x1 -> fire6/squeeze1x1
I1028 18:09:32.263839 12309 net.cpp:127] Setting up fire6/squeeze1x1
I1028 18:09:32.263859 12309 net.cpp:136] Top shape: 50 48 14 14 (470400)
I1028 18:09:32.263862 12309 net.cpp:144] Memory required for data: 1272889400
I1028 18:09:32.263867 12309 net.cpp:453] Found INQ layer:fire6/squeeze1x1, type: INQConvolution, layer id:39
I1028 18:09:32.263872 12309 net.cpp:453] Found INQ layer:fire6/squeeze1x1, type: INQConvolution, layer id:39
I1028 18:09:32.263877 12309 net.cpp:453] Found INQ layer:fire6/squeeze1x1, type: INQConvolution, layer id:39
I1028 18:09:32.263881 12309 net.cpp:453] Found INQ layer:fire6/squeeze1x1, type: INQConvolution, layer id:39
I1028 18:09:32.263885 12309 layer_factory.hpp:77] Creating layer fire6/relu_squeeze1x1
I1028 18:09:32.263895 12309 net.cpp:84] Creating Layer fire6/relu_squeeze1x1
I1028 18:09:32.263898 12309 net.cpp:413] fire6/relu_squeeze1x1 <- fire6/squeeze1x1
I1028 18:09:32.263903 12309 net.cpp:374] fire6/relu_squeeze1x1 -> fire6/squeeze1x1 (in-place)
I1028 18:09:32.264122 12309 net.cpp:127] Setting up fire6/relu_squeeze1x1
I1028 18:09:32.264129 12309 net.cpp:136] Top shape: 50 48 14 14 (470400)
I1028 18:09:32.264133 12309 net.cpp:144] Memory required for data: 1274771000
I1028 18:09:32.264137 12309 layer_factory.hpp:77] Creating layer fire6/squeeze1x1_fire6/relu_squeeze1x1_0_split
I1028 18:09:32.264147 12309 net.cpp:84] Creating Layer fire6/squeeze1x1_fire6/relu_squeeze1x1_0_split
I1028 18:09:32.264150 12309 net.cpp:413] fire6/squeeze1x1_fire6/relu_squeeze1x1_0_split <- fire6/squeeze1x1
I1028 18:09:32.264156 12309 net.cpp:387] fire6/squeeze1x1_fire6/relu_squeeze1x1_0_split -> fire6/squeeze1x1_fire6/relu_squeeze1x1_0_split_0
I1028 18:09:32.264170 12309 net.cpp:387] fire6/squeeze1x1_fire6/relu_squeeze1x1_0_split -> fire6/squeeze1x1_fire6/relu_squeeze1x1_0_split_1
I1028 18:09:32.264225 12309 net.cpp:127] Setting up fire6/squeeze1x1_fire6/relu_squeeze1x1_0_split
I1028 18:09:32.264230 12309 net.cpp:136] Top shape: 50 48 14 14 (470400)
I1028 18:09:32.264235 12309 net.cpp:136] Top shape: 50 48 14 14 (470400)
I1028 18:09:32.264238 12309 net.cpp:144] Memory required for data: 1278534200
I1028 18:09:32.264242 12309 layer_factory.hpp:77] Creating layer fire6/expand1x1
I1028 18:09:32.264251 12309 net.cpp:84] Creating Layer fire6/expand1x1
I1028 18:09:32.264256 12309 net.cpp:413] fire6/expand1x1 <- fire6/squeeze1x1_fire6/relu_squeeze1x1_0_split_0
I1028 18:09:32.264264 12309 net.cpp:387] fire6/expand1x1 -> fire6/expand1x1
I1028 18:09:32.264681 12309 net.cpp:127] Setting up fire6/expand1x1
I1028 18:09:32.264689 12309 net.cpp:136] Top shape: 50 192 14 14 (1881600)
I1028 18:09:32.264693 12309 net.cpp:144] Memory required for data: 1286060600
I1028 18:09:32.264698 12309 net.cpp:453] Found INQ layer:fire6/expand1x1, type: INQConvolution, layer id:42
I1028 18:09:32.264703 12309 net.cpp:453] Found INQ layer:fire6/expand1x1, type: INQConvolution, layer id:42
I1028 18:09:32.264708 12309 net.cpp:453] Found INQ layer:fire6/expand1x1, type: INQConvolution, layer id:42
I1028 18:09:32.264713 12309 net.cpp:453] Found INQ layer:fire6/expand1x1, type: INQConvolution, layer id:42
I1028 18:09:32.264716 12309 layer_factory.hpp:77] Creating layer fire6/relu_expand1x1
I1028 18:09:32.264722 12309 net.cpp:84] Creating Layer fire6/relu_expand1x1
I1028 18:09:32.264726 12309 net.cpp:413] fire6/relu_expand1x1 <- fire6/expand1x1
I1028 18:09:32.264734 12309 net.cpp:374] fire6/relu_expand1x1 -> fire6/expand1x1 (in-place)
I1028 18:09:32.266144 12309 net.cpp:127] Setting up fire6/relu_expand1x1
I1028 18:09:32.266158 12309 net.cpp:136] Top shape: 50 192 14 14 (1881600)
I1028 18:09:32.266162 12309 net.cpp:144] Memory required for data: 1293587000
I1028 18:09:32.266166 12309 layer_factory.hpp:77] Creating layer fire6/expand3x3
I1028 18:09:32.266178 12309 net.cpp:84] Creating Layer fire6/expand3x3
I1028 18:09:32.266183 12309 net.cpp:413] fire6/expand3x3 <- fire6/squeeze1x1_fire6/relu_squeeze1x1_0_split_1
I1028 18:09:32.266192 12309 net.cpp:387] fire6/expand3x3 -> fire6/expand3x3
I1028 18:09:32.267262 12309 net.cpp:127] Setting up fire6/expand3x3
I1028 18:09:32.267271 12309 net.cpp:136] Top shape: 50 192 14 14 (1881600)
I1028 18:09:32.267294 12309 net.cpp:144] Memory required for data: 1301113400
I1028 18:09:32.267302 12309 net.cpp:453] Found INQ layer:fire6/expand3x3, type: INQConvolution, layer id:44
I1028 18:09:32.267307 12309 net.cpp:453] Found INQ layer:fire6/expand3x3, type: INQConvolution, layer id:44
I1028 18:09:32.267312 12309 net.cpp:453] Found INQ layer:fire6/expand3x3, type: INQConvolution, layer id:44
I1028 18:09:32.267315 12309 net.cpp:453] Found INQ layer:fire6/expand3x3, type: INQConvolution, layer id:44
I1028 18:09:32.267319 12309 layer_factory.hpp:77] Creating layer fire6/relu_expand3x3
I1028 18:09:32.267326 12309 net.cpp:84] Creating Layer fire6/relu_expand3x3
I1028 18:09:32.267331 12309 net.cpp:413] fire6/relu_expand3x3 <- fire6/expand3x3
I1028 18:09:32.267336 12309 net.cpp:374] fire6/relu_expand3x3 -> fire6/expand3x3 (in-place)
I1028 18:09:32.267549 12309 net.cpp:127] Setting up fire6/relu_expand3x3
I1028 18:09:32.267557 12309 net.cpp:136] Top shape: 50 192 14 14 (1881600)
I1028 18:09:32.267561 12309 net.cpp:144] Memory required for data: 1308639800
I1028 18:09:32.267565 12309 layer_factory.hpp:77] Creating layer fire6/concat
I1028 18:09:32.267571 12309 net.cpp:84] Creating Layer fire6/concat
I1028 18:09:32.267575 12309 net.cpp:413] fire6/concat <- fire6/expand1x1
I1028 18:09:32.267580 12309 net.cpp:413] fire6/concat <- fire6/expand3x3
I1028 18:09:32.267585 12309 net.cpp:387] fire6/concat -> fire6/concat
I1028 18:09:32.267621 12309 net.cpp:127] Setting up fire6/concat
I1028 18:09:32.267627 12309 net.cpp:136] Top shape: 50 384 14 14 (3763200)
I1028 18:09:32.267630 12309 net.cpp:144] Memory required for data: 1323692600
I1028 18:09:32.267634 12309 layer_factory.hpp:77] Creating layer fire7/squeeze1x1
I1028 18:09:32.267644 12309 net.cpp:84] Creating Layer fire7/squeeze1x1
I1028 18:09:32.267648 12309 net.cpp:413] fire7/squeeze1x1 <- fire6/concat
I1028 18:09:32.267657 12309 net.cpp:387] fire7/squeeze1x1 -> fire7/squeeze1x1
I1028 18:09:32.268167 12309 net.cpp:127] Setting up fire7/squeeze1x1
I1028 18:09:32.268175 12309 net.cpp:136] Top shape: 50 48 14 14 (470400)
I1028 18:09:32.268179 12309 net.cpp:144] Memory required for data: 1325574200
I1028 18:09:32.268193 12309 net.cpp:453] Found INQ layer:fire7/squeeze1x1, type: INQConvolution, layer id:47
I1028 18:09:32.268204 12309 net.cpp:453] Found INQ layer:fire7/squeeze1x1, type: INQConvolution, layer id:47
I1028 18:09:32.268209 12309 net.cpp:453] Found INQ layer:fire7/squeeze1x1, type: INQConvolution, layer id:47
I1028 18:09:32.268214 12309 net.cpp:453] Found INQ layer:fire7/squeeze1x1, type: INQConvolution, layer id:47
I1028 18:09:32.268218 12309 layer_factory.hpp:77] Creating layer fire7/relu_squeeze1x1
I1028 18:09:32.268224 12309 net.cpp:84] Creating Layer fire7/relu_squeeze1x1
I1028 18:09:32.268229 12309 net.cpp:413] fire7/relu_squeeze1x1 <- fire7/squeeze1x1
I1028 18:09:32.268234 12309 net.cpp:374] fire7/relu_squeeze1x1 -> fire7/squeeze1x1 (in-place)
I1028 18:09:32.268443 12309 net.cpp:127] Setting up fire7/relu_squeeze1x1
I1028 18:09:32.268452 12309 net.cpp:136] Top shape: 50 48 14 14 (470400)
I1028 18:09:32.268455 12309 net.cpp:144] Memory required for data: 1327455800
I1028 18:09:32.268460 12309 layer_factory.hpp:77] Creating layer fire7/squeeze1x1_fire7/relu_squeeze1x1_0_split
I1028 18:09:32.268467 12309 net.cpp:84] Creating Layer fire7/squeeze1x1_fire7/relu_squeeze1x1_0_split
I1028 18:09:32.268471 12309 net.cpp:413] fire7/squeeze1x1_fire7/relu_squeeze1x1_0_split <- fire7/squeeze1x1
I1028 18:09:32.268477 12309 net.cpp:387] fire7/squeeze1x1_fire7/relu_squeeze1x1_0_split -> fire7/squeeze1x1_fire7/relu_squeeze1x1_0_split_0
I1028 18:09:32.268484 12309 net.cpp:387] fire7/squeeze1x1_fire7/relu_squeeze1x1_0_split -> fire7/squeeze1x1_fire7/relu_squeeze1x1_0_split_1
I1028 18:09:32.268538 12309 net.cpp:127] Setting up fire7/squeeze1x1_fire7/relu_squeeze1x1_0_split
I1028 18:09:32.268544 12309 net.cpp:136] Top shape: 50 48 14 14 (470400)
I1028 18:09:32.268553 12309 net.cpp:136] Top shape: 50 48 14 14 (470400)
I1028 18:09:32.268555 12309 net.cpp:144] Memory required for data: 1331219000
I1028 18:09:32.268569 12309 layer_factory.hpp:77] Creating layer fire7/expand1x1
I1028 18:09:32.268579 12309 net.cpp:84] Creating Layer fire7/expand1x1
I1028 18:09:32.268584 12309 net.cpp:413] fire7/expand1x1 <- fire7/squeeze1x1_fire7/relu_squeeze1x1_0_split_0
I1028 18:09:32.268592 12309 net.cpp:387] fire7/expand1x1 -> fire7/expand1x1
I1028 18:09:32.269016 12309 net.cpp:127] Setting up fire7/expand1x1
I1028 18:09:32.269026 12309 net.cpp:136] Top shape: 50 192 14 14 (1881600)
I1028 18:09:32.269029 12309 net.cpp:144] Memory required for data: 1338745400
I1028 18:09:32.269034 12309 net.cpp:453] Found INQ layer:fire7/expand1x1, type: INQConvolution, layer id:50
I1028 18:09:32.269040 12309 net.cpp:453] Found INQ layer:fire7/expand1x1, type: INQConvolution, layer id:50
I1028 18:09:32.269044 12309 net.cpp:453] Found INQ layer:fire7/expand1x1, type: INQConvolution, layer id:50
I1028 18:09:32.269048 12309 net.cpp:453] Found INQ layer:fire7/expand1x1, type: INQConvolution, layer id:50
I1028 18:09:32.269052 12309 layer_factory.hpp:77] Creating layer fire7/relu_expand1x1
I1028 18:09:32.269058 12309 net.cpp:84] Creating Layer fire7/relu_expand1x1
I1028 18:09:32.269062 12309 net.cpp:413] fire7/relu_expand1x1 <- fire7/expand1x1
I1028 18:09:32.269068 12309 net.cpp:374] fire7/relu_expand1x1 -> fire7/expand1x1 (in-place)
I1028 18:09:32.270478 12309 net.cpp:127] Setting up fire7/relu_expand1x1
I1028 18:09:32.270491 12309 net.cpp:136] Top shape: 50 192 14 14 (1881600)
I1028 18:09:32.270495 12309 net.cpp:144] Memory required for data: 1346271800
I1028 18:09:32.270500 12309 layer_factory.hpp:77] Creating layer fire7/expand3x3
I1028 18:09:32.270514 12309 net.cpp:84] Creating Layer fire7/expand3x3
I1028 18:09:32.270519 12309 net.cpp:413] fire7/expand3x3 <- fire7/squeeze1x1_fire7/relu_squeeze1x1_0_split_1
I1028 18:09:32.270525 12309 net.cpp:387] fire7/expand3x3 -> fire7/expand3x3
I1028 18:09:32.271600 12309 net.cpp:127] Setting up fire7/expand3x3
I1028 18:09:32.271610 12309 net.cpp:136] Top shape: 50 192 14 14 (1881600)
I1028 18:09:32.271613 12309 net.cpp:144] Memory required for data: 1353798200
I1028 18:09:32.271620 12309 net.cpp:453] Found INQ layer:fire7/expand3x3, type: INQConvolution, layer id:52
I1028 18:09:32.271625 12309 net.cpp:453] Found INQ layer:fire7/expand3x3, type: INQConvolution, layer id:52
I1028 18:09:32.271630 12309 net.cpp:453] Found INQ layer:fire7/expand3x3, type: INQConvolution, layer id:52
I1028 18:09:32.271633 12309 net.cpp:453] Found INQ layer:fire7/expand3x3, type: INQConvolution, layer id:52
I1028 18:09:32.271637 12309 layer_factory.hpp:77] Creating layer fire7/relu_expand3x3
I1028 18:09:32.271643 12309 net.cpp:84] Creating Layer fire7/relu_expand3x3
I1028 18:09:32.271648 12309 net.cpp:413] fire7/relu_expand3x3 <- fire7/expand3x3
I1028 18:09:32.271657 12309 net.cpp:374] fire7/relu_expand3x3 -> fire7/expand3x3 (in-place)
I1028 18:09:32.271867 12309 net.cpp:127] Setting up fire7/relu_expand3x3
I1028 18:09:32.271875 12309 net.cpp:136] Top shape: 50 192 14 14 (1881600)
I1028 18:09:32.271878 12309 net.cpp:144] Memory required for data: 1361324600
I1028 18:09:32.271883 12309 layer_factory.hpp:77] Creating layer fire7/concat
I1028 18:09:32.271890 12309 net.cpp:84] Creating Layer fire7/concat
I1028 18:09:32.271894 12309 net.cpp:413] fire7/concat <- fire7/expand1x1
I1028 18:09:32.271899 12309 net.cpp:413] fire7/concat <- fire7/expand3x3
I1028 18:09:32.271904 12309 net.cpp:387] fire7/concat -> fire7/concat
I1028 18:09:32.271946 12309 net.cpp:127] Setting up fire7/concat
I1028 18:09:32.271952 12309 net.cpp:136] Top shape: 50 384 14 14 (3763200)
I1028 18:09:32.271955 12309 net.cpp:144] Memory required for data: 1376377400
I1028 18:09:32.271960 12309 layer_factory.hpp:77] Creating layer fire8/squeeze1x1
I1028 18:09:32.271970 12309 net.cpp:84] Creating Layer fire8/squeeze1x1
I1028 18:09:32.271973 12309 net.cpp:413] fire8/squeeze1x1 <- fire7/concat
I1028 18:09:32.271981 12309 net.cpp:387] fire8/squeeze1x1 -> fire8/squeeze1x1
I1028 18:09:32.273933 12309 net.cpp:127] Setting up fire8/squeeze1x1
I1028 18:09:32.273959 12309 net.cpp:136] Top shape: 50 64 14 14 (627200)
I1028 18:09:32.273963 12309 net.cpp:144] Memory required for data: 1378886200
I1028 18:09:32.273970 12309 net.cpp:453] Found INQ layer:fire8/squeeze1x1, type: INQConvolution, layer id:55
I1028 18:09:32.273977 12309 net.cpp:453] Found INQ layer:fire8/squeeze1x1, type: INQConvolution, layer id:55
I1028 18:09:32.273980 12309 net.cpp:453] Found INQ layer:fire8/squeeze1x1, type: INQConvolution, layer id:55
I1028 18:09:32.273985 12309 net.cpp:453] Found INQ layer:fire8/squeeze1x1, type: INQConvolution, layer id:55
I1028 18:09:32.273988 12309 layer_factory.hpp:77] Creating layer fire8/relu_squeeze1x1
I1028 18:09:32.273995 12309 net.cpp:84] Creating Layer fire8/relu_squeeze1x1
I1028 18:09:32.274000 12309 net.cpp:413] fire8/relu_squeeze1x1 <- fire8/squeeze1x1
I1028 18:09:32.274008 12309 net.cpp:374] fire8/relu_squeeze1x1 -> fire8/squeeze1x1 (in-place)
I1028 18:09:32.274235 12309 net.cpp:127] Setting up fire8/relu_squeeze1x1
I1028 18:09:32.274245 12309 net.cpp:136] Top shape: 50 64 14 14 (627200)
I1028 18:09:32.274248 12309 net.cpp:144] Memory required for data: 1381395000
I1028 18:09:32.274252 12309 layer_factory.hpp:77] Creating layer fire8/squeeze1x1_fire8/relu_squeeze1x1_0_split
I1028 18:09:32.274258 12309 net.cpp:84] Creating Layer fire8/squeeze1x1_fire8/relu_squeeze1x1_0_split
I1028 18:09:32.274262 12309 net.cpp:413] fire8/squeeze1x1_fire8/relu_squeeze1x1_0_split <- fire8/squeeze1x1
I1028 18:09:32.274271 12309 net.cpp:387] fire8/squeeze1x1_fire8/relu_squeeze1x1_0_split -> fire8/squeeze1x1_fire8/relu_squeeze1x1_0_split_0
I1028 18:09:32.274278 12309 net.cpp:387] fire8/squeeze1x1_fire8/relu_squeeze1x1_0_split -> fire8/squeeze1x1_fire8/relu_squeeze1x1_0_split_1
I1028 18:09:32.274329 12309 net.cpp:127] Setting up fire8/squeeze1x1_fire8/relu_squeeze1x1_0_split
I1028 18:09:32.274338 12309 net.cpp:136] Top shape: 50 64 14 14 (627200)
I1028 18:09:32.274343 12309 net.cpp:136] Top shape: 50 64 14 14 (627200)
I1028 18:09:32.274345 12309 net.cpp:144] Memory required for data: 1386412600
I1028 18:09:32.274349 12309 layer_factory.hpp:77] Creating layer fire8/expand1x1
I1028 18:09:32.274358 12309 net.cpp:84] Creating Layer fire8/expand1x1
I1028 18:09:32.274363 12309 net.cpp:413] fire8/expand1x1 <- fire8/squeeze1x1_fire8/relu_squeeze1x1_0_split_0
I1028 18:09:32.274371 12309 net.cpp:387] fire8/expand1x1 -> fire8/expand1x1
I1028 18:09:32.274852 12309 net.cpp:127] Setting up fire8/expand1x1
I1028 18:09:32.274860 12309 net.cpp:136] Top shape: 50 256 14 14 (2508800)
I1028 18:09:32.274864 12309 net.cpp:144] Memory required for data: 1396447800
I1028 18:09:32.274869 12309 net.cpp:453] Found INQ layer:fire8/expand1x1, type: INQConvolution, layer id:58
I1028 18:09:32.274875 12309 net.cpp:453] Found INQ layer:fire8/expand1x1, type: INQConvolution, layer id:58
I1028 18:09:32.274879 12309 net.cpp:453] Found INQ layer:fire8/expand1x1, type: INQConvolution, layer id:58
I1028 18:09:32.274884 12309 net.cpp:453] Found INQ layer:fire8/expand1x1, type: INQConvolution, layer id:58
I1028 18:09:32.274888 12309 layer_factory.hpp:77] Creating layer fire8/relu_expand1x1
I1028 18:09:32.274893 12309 net.cpp:84] Creating Layer fire8/relu_expand1x1
I1028 18:09:32.274899 12309 net.cpp:413] fire8/relu_expand1x1 <- fire8/expand1x1
I1028 18:09:32.274905 12309 net.cpp:374] fire8/relu_expand1x1 -> fire8/expand1x1 (in-place)
I1028 18:09:32.275131 12309 net.cpp:127] Setting up fire8/relu_expand1x1
I1028 18:09:32.275141 12309 net.cpp:136] Top shape: 50 256 14 14 (2508800)
I1028 18:09:32.275143 12309 net.cpp:144] Memory required for data: 1406483000
I1028 18:09:32.275147 12309 layer_factory.hpp:77] Creating layer fire8/expand3x3
I1028 18:09:32.275159 12309 net.cpp:84] Creating Layer fire8/expand3x3
I1028 18:09:32.275163 12309 net.cpp:413] fire8/expand3x3 <- fire8/squeeze1x1_fire8/relu_squeeze1x1_0_split_1
I1028 18:09:32.275172 12309 net.cpp:387] fire8/expand3x3 -> fire8/expand3x3
I1028 18:09:32.278044 12309 net.cpp:127] Setting up fire8/expand3x3
I1028 18:09:32.278061 12309 net.cpp:136] Top shape: 50 256 14 14 (2508800)
I1028 18:09:32.278076 12309 net.cpp:144] Memory required for data: 1416518200
I1028 18:09:32.278084 12309 net.cpp:453] Found INQ layer:fire8/expand3x3, type: INQConvolution, layer id:60
I1028 18:09:32.278090 12309 net.cpp:453] Found INQ layer:fire8/expand3x3, type: INQConvolution, layer id:60
I1028 18:09:32.278095 12309 net.cpp:453] Found INQ layer:fire8/expand3x3, type: INQConvolution, layer id:60
I1028 18:09:32.278098 12309 net.cpp:453] Found INQ layer:fire8/expand3x3, type: INQConvolution, layer id:60
I1028 18:09:32.278102 12309 layer_factory.hpp:77] Creating layer fire8/relu_expand3x3
I1028 18:09:32.278112 12309 net.cpp:84] Creating Layer fire8/relu_expand3x3
I1028 18:09:32.278116 12309 net.cpp:413] fire8/relu_expand3x3 <- fire8/expand3x3
I1028 18:09:32.278122 12309 net.cpp:374] fire8/relu_expand3x3 -> fire8/expand3x3 (in-place)
I1028 18:09:32.279546 12309 net.cpp:127] Setting up fire8/relu_expand3x3
I1028 18:09:32.279559 12309 net.cpp:136] Top shape: 50 256 14 14 (2508800)
I1028 18:09:32.279564 12309 net.cpp:144] Memory required for data: 1426553400
I1028 18:09:32.279568 12309 layer_factory.hpp:77] Creating layer fire8/concat
I1028 18:09:32.279577 12309 net.cpp:84] Creating Layer fire8/concat
I1028 18:09:32.279582 12309 net.cpp:413] fire8/concat <- fire8/expand1x1
I1028 18:09:32.279587 12309 net.cpp:413] fire8/concat <- fire8/expand3x3
I1028 18:09:32.279593 12309 net.cpp:387] fire8/concat -> fire8/concat
I1028 18:09:32.279631 12309 net.cpp:127] Setting up fire8/concat
I1028 18:09:32.279639 12309 net.cpp:136] Top shape: 50 512 14 14 (5017600)
I1028 18:09:32.279641 12309 net.cpp:144] Memory required for data: 1446623800
I1028 18:09:32.279645 12309 layer_factory.hpp:77] Creating layer fire9/squeeze1x1
I1028 18:09:32.279655 12309 net.cpp:84] Creating Layer fire9/squeeze1x1
I1028 18:09:32.279659 12309 net.cpp:413] fire9/squeeze1x1 <- fire8/concat
I1028 18:09:32.279667 12309 net.cpp:387] fire9/squeeze1x1 -> fire9/squeeze1x1
I1028 18:09:32.280289 12309 net.cpp:127] Setting up fire9/squeeze1x1
I1028 18:09:32.280298 12309 net.cpp:136] Top shape: 50 64 14 14 (627200)
I1028 18:09:32.280302 12309 net.cpp:144] Memory required for data: 1449132600
I1028 18:09:32.280308 12309 net.cpp:453] Found INQ layer:fire9/squeeze1x1, type: INQConvolution, layer id:63
I1028 18:09:32.280313 12309 net.cpp:453] Found INQ layer:fire9/squeeze1x1, type: INQConvolution, layer id:63
I1028 18:09:32.280318 12309 net.cpp:453] Found INQ layer:fire9/squeeze1x1, type: INQConvolution, layer id:63
I1028 18:09:32.280321 12309 net.cpp:453] Found INQ layer:fire9/squeeze1x1, type: INQConvolution, layer id:63
I1028 18:09:32.280325 12309 layer_factory.hpp:77] Creating layer fire9/relu_squeeze1x1
I1028 18:09:32.280339 12309 net.cpp:84] Creating Layer fire9/relu_squeeze1x1
I1028 18:09:32.280344 12309 net.cpp:413] fire9/relu_squeeze1x1 <- fire9/squeeze1x1
I1028 18:09:32.280349 12309 net.cpp:374] fire9/relu_squeeze1x1 -> fire9/squeeze1x1 (in-place)
I1028 18:09:32.280566 12309 net.cpp:127] Setting up fire9/relu_squeeze1x1
I1028 18:09:32.280575 12309 net.cpp:136] Top shape: 50 64 14 14 (627200)
I1028 18:09:32.280580 12309 net.cpp:144] Memory required for data: 1451641400
I1028 18:09:32.280583 12309 layer_factory.hpp:77] Creating layer fire9/squeeze1x1_fire9/relu_squeeze1x1_0_split
I1028 18:09:32.280591 12309 net.cpp:84] Creating Layer fire9/squeeze1x1_fire9/relu_squeeze1x1_0_split
I1028 18:09:32.280596 12309 net.cpp:413] fire9/squeeze1x1_fire9/relu_squeeze1x1_0_split <- fire9/squeeze1x1
I1028 18:09:32.280601 12309 net.cpp:387] fire9/squeeze1x1_fire9/relu_squeeze1x1_0_split -> fire9/squeeze1x1_fire9/relu_squeeze1x1_0_split_0
I1028 18:09:32.280607 12309 net.cpp:387] fire9/squeeze1x1_fire9/relu_squeeze1x1_0_split -> fire9/squeeze1x1_fire9/relu_squeeze1x1_0_split_1
I1028 18:09:32.280658 12309 net.cpp:127] Setting up fire9/squeeze1x1_fire9/relu_squeeze1x1_0_split
I1028 18:09:32.280664 12309 net.cpp:136] Top shape: 50 64 14 14 (627200)
I1028 18:09:32.280668 12309 net.cpp:136] Top shape: 50 64 14 14 (627200)
I1028 18:09:32.280676 12309 net.cpp:144] Memory required for data: 1456659000
I1028 18:09:32.280692 12309 layer_factory.hpp:77] Creating layer fire9/expand1x1
I1028 18:09:32.280702 12309 net.cpp:84] Creating Layer fire9/expand1x1
I1028 18:09:32.280706 12309 net.cpp:413] fire9/expand1x1 <- fire9/squeeze1x1_fire9/relu_squeeze1x1_0_split_0
I1028 18:09:32.280714 12309 net.cpp:387] fire9/expand1x1 -> fire9/expand1x1
I1028 18:09:32.281205 12309 net.cpp:127] Setting up fire9/expand1x1
I1028 18:09:32.281213 12309 net.cpp:136] Top shape: 50 256 14 14 (2508800)
I1028 18:09:32.281217 12309 net.cpp:144] Memory required for data: 1466694200
I1028 18:09:32.281224 12309 net.cpp:453] Found INQ layer:fire9/expand1x1, type: INQConvolution, layer id:66
I1028 18:09:32.281229 12309 net.cpp:453] Found INQ layer:fire9/expand1x1, type: INQConvolution, layer id:66
I1028 18:09:32.281234 12309 net.cpp:453] Found INQ layer:fire9/expand1x1, type: INQConvolution, layer id:66
I1028 18:09:32.281237 12309 net.cpp:453] Found INQ layer:fire9/expand1x1, type: INQConvolution, layer id:66
I1028 18:09:32.281241 12309 layer_factory.hpp:77] Creating layer fire9/relu_expand1x1
I1028 18:09:32.281247 12309 net.cpp:84] Creating Layer fire9/relu_expand1x1
I1028 18:09:32.281251 12309 net.cpp:413] fire9/relu_expand1x1 <- fire9/expand1x1
I1028 18:09:32.281260 12309 net.cpp:374] fire9/relu_expand1x1 -> fire9/expand1x1 (in-place)
I1028 18:09:32.281472 12309 net.cpp:127] Setting up fire9/relu_expand1x1
I1028 18:09:32.281481 12309 net.cpp:136] Top shape: 50 256 14 14 (2508800)
I1028 18:09:32.281486 12309 net.cpp:144] Memory required for data: 1476729400
I1028 18:09:32.281489 12309 layer_factory.hpp:77] Creating layer fire9/expand3x3
I1028 18:09:32.281498 12309 net.cpp:84] Creating Layer fire9/expand3x3
I1028 18:09:32.281502 12309 net.cpp:413] fire9/expand3x3 <- fire9/squeeze1x1_fire9/relu_squeeze1x1_0_split_1
I1028 18:09:32.281512 12309 net.cpp:387] fire9/expand3x3 -> fire9/expand3x3
I1028 18:09:32.284400 12309 net.cpp:127] Setting up fire9/expand3x3
I1028 18:09:32.284415 12309 net.cpp:136] Top shape: 50 256 14 14 (2508800)
I1028 18:09:32.284418 12309 net.cpp:144] Memory required for data: 1486764600
I1028 18:09:32.284425 12309 net.cpp:453] Found INQ layer:fire9/expand3x3, type: INQConvolution, layer id:68
I1028 18:09:32.284430 12309 net.cpp:453] Found INQ layer:fire9/expand3x3, type: INQConvolution, layer id:68
I1028 18:09:32.284435 12309 net.cpp:453] Found INQ layer:fire9/expand3x3, type: INQConvolution, layer id:68
I1028 18:09:32.284440 12309 net.cpp:453] Found INQ layer:fire9/expand3x3, type: INQConvolution, layer id:68
I1028 18:09:32.284443 12309 layer_factory.hpp:77] Creating layer fire9/relu_expand3x3
I1028 18:09:32.284451 12309 net.cpp:84] Creating Layer fire9/relu_expand3x3
I1028 18:09:32.284454 12309 net.cpp:413] fire9/relu_expand3x3 <- fire9/expand3x3
I1028 18:09:32.284463 12309 net.cpp:374] fire9/relu_expand3x3 -> fire9/expand3x3 (in-place)
I1028 18:09:32.284685 12309 net.cpp:127] Setting up fire9/relu_expand3x3
I1028 18:09:32.284694 12309 net.cpp:136] Top shape: 50 256 14 14 (2508800)
I1028 18:09:32.284698 12309 net.cpp:144] Memory required for data: 1496799800
I1028 18:09:32.284703 12309 layer_factory.hpp:77] Creating layer fire9/concat
I1028 18:09:32.284708 12309 net.cpp:84] Creating Layer fire9/concat
I1028 18:09:32.284713 12309 net.cpp:413] fire9/concat <- fire9/expand1x1
I1028 18:09:32.284718 12309 net.cpp:413] fire9/concat <- fire9/expand3x3
I1028 18:09:32.284725 12309 net.cpp:387] fire9/concat -> fire9/concat
I1028 18:09:32.284757 12309 net.cpp:127] Setting up fire9/concat
I1028 18:09:32.284763 12309 net.cpp:136] Top shape: 50 512 14 14 (5017600)
I1028 18:09:32.284767 12309 net.cpp:144] Memory required for data: 1516870200
I1028 18:09:32.284770 12309 layer_factory.hpp:77] Creating layer drop9
I1028 18:09:32.284780 12309 net.cpp:84] Creating Layer drop9
I1028 18:09:32.284783 12309 net.cpp:413] drop9 <- fire9/concat
I1028 18:09:32.284790 12309 net.cpp:374] drop9 -> fire9/concat (in-place)
I1028 18:09:32.284822 12309 net.cpp:127] Setting up drop9
I1028 18:09:32.284831 12309 net.cpp:136] Top shape: 50 512 14 14 (5017600)
I1028 18:09:32.284845 12309 net.cpp:144] Memory required for data: 1536940600
I1028 18:09:32.284849 12309 layer_factory.hpp:77] Creating layer conv10
I1028 18:09:32.284859 12309 net.cpp:84] Creating Layer conv10
I1028 18:09:32.284863 12309 net.cpp:413] conv10 <- fire9/concat
I1028 18:09:32.284871 12309 net.cpp:387] conv10 -> conv10
I1028 18:09:32.294481 12309 net.cpp:127] Setting up conv10
I1028 18:09:32.294497 12309 net.cpp:136] Top shape: 50 1000 14 14 (9800000)
I1028 18:09:32.294502 12309 net.cpp:144] Memory required for data: 1576140600
I1028 18:09:32.294507 12309 net.cpp:453] Found INQ layer:conv10, type: INQConvolution, layer id:72
I1028 18:09:32.294513 12309 net.cpp:453] Found INQ layer:conv10, type: INQConvolution, layer id:72
I1028 18:09:32.294518 12309 net.cpp:453] Found INQ layer:conv10, type: INQConvolution, layer id:72
I1028 18:09:32.294523 12309 net.cpp:453] Found INQ layer:conv10, type: INQConvolution, layer id:72
I1028 18:09:32.294526 12309 layer_factory.hpp:77] Creating layer relu_conv10
I1028 18:09:32.294533 12309 net.cpp:84] Creating Layer relu_conv10
I1028 18:09:32.294538 12309 net.cpp:413] relu_conv10 <- conv10
I1028 18:09:32.294546 12309 net.cpp:374] relu_conv10 -> conv10 (in-place)
I1028 18:09:32.295972 12309 net.cpp:127] Setting up relu_conv10
I1028 18:09:32.295986 12309 net.cpp:136] Top shape: 50 1000 14 14 (9800000)
I1028 18:09:32.295990 12309 net.cpp:144] Memory required for data: 1615340600
I1028 18:09:32.295995 12309 layer_factory.hpp:77] Creating layer pool10
I1028 18:09:32.296005 12309 net.cpp:84] Creating Layer pool10
I1028 18:09:32.296010 12309 net.cpp:413] pool10 <- conv10
I1028 18:09:32.296015 12309 net.cpp:387] pool10 -> pool10
I1028 18:09:32.296252 12309 net.cpp:127] Setting up pool10
I1028 18:09:32.296262 12309 net.cpp:136] Top shape: 50 1000 1 1 (50000)
I1028 18:09:32.296267 12309 net.cpp:144] Memory required for data: 1615540600
I1028 18:09:32.296270 12309 layer_factory.hpp:77] Creating layer pool10_pool10_0_split
I1028 18:09:32.296278 12309 net.cpp:84] Creating Layer pool10_pool10_0_split
I1028 18:09:32.296283 12309 net.cpp:413] pool10_pool10_0_split <- pool10
I1028 18:09:32.296288 12309 net.cpp:387] pool10_pool10_0_split -> pool10_pool10_0_split_0
I1028 18:09:32.296298 12309 net.cpp:387] pool10_pool10_0_split -> pool10_pool10_0_split_1
I1028 18:09:32.296304 12309 net.cpp:387] pool10_pool10_0_split -> pool10_pool10_0_split_2
I1028 18:09:32.296368 12309 net.cpp:127] Setting up pool10_pool10_0_split
I1028 18:09:32.296375 12309 net.cpp:136] Top shape: 50 1000 1 1 (50000)
I1028 18:09:32.296380 12309 net.cpp:136] Top shape: 50 1000 1 1 (50000)
I1028 18:09:32.296383 12309 net.cpp:136] Top shape: 50 1000 1 1 (50000)
I1028 18:09:32.296386 12309 net.cpp:144] Memory required for data: 1616140600
I1028 18:09:32.296391 12309 layer_factory.hpp:77] Creating layer loss
I1028 18:09:32.296396 12309 net.cpp:84] Creating Layer loss
I1028 18:09:32.296401 12309 net.cpp:413] loss <- pool10_pool10_0_split_0
I1028 18:09:32.296406 12309 net.cpp:413] loss <- label_data_1_split_0
I1028 18:09:32.296413 12309 net.cpp:387] loss -> loss
…
