…
I1029 12:04:18.240803  9851 net.cpp:301] The NetState phase (0) differed from the phase (1) specified by a rule in layer accuracy_top5
I1029 12:04:18.241483  9851 net.cpp:51] Initializing net from parameters: 
name: "SqueezeNet"
state {
  phase: TRAIN
  level: 0
  stage: ""
}
layer {
  name: "data"
  type: "Data"
  top: "data"
  top: "label"
  include {
    phase: TRAIN
  }
  transform_param {
    crop_size: 227
    mean_value: 104
    mean_value: 117
    mean_value: 123
  }
  data_param {
    source: "/home/data/caffe-imagenet/ilsvrc12_train_lmdb"
    batch_size: 128
    backend: LMDB
  }
}
layer {
  name: "conv1"
  type: "INQConvolution"
  bottom: "data"
  top: "conv1"
  convolution_param {
    num_output: 64
    kernel_size: 3
    stride: 2
    weight_filler {
      type: "xavier"
    }
  }
  inq_convolution_param {
    portion: 0.4
    portion: 0.6
    weight_mask_filler {
      type: "constant"
      value: 1
    }
    bias_mask_filler {
      type: "constant"
      value: 1
    }
    num_quantum_values: 7
  }
}
layer {
  name: "relu_conv1"
  type: "ReLU"
  bottom: "conv1"
  top: "conv1"
}
layer {
  name: "pool1"
  type: "Pooling"
  bottom: "conv1"
  top: "pool1"
  pooling_param {
    pool: MAX
    kernel_size: 3
    stride: 2
  }
}
layer {
  name: "fire2/squeeze1x1"
  type: "INQConvolution"
  bottom: "pool1"
  top: "fire2/squeeze1x1"
  convolution_param {
    num_output: 16
    kernel_size: 1
    weight_filler {
      type: "xavier"
    }
  }
  inq_convolution_param {
    portion: 0.4
    portion: 0.6
    weight_mask_filler {
      type: "constant"
      value: 1
    }
    bias_mask_filler {
      type: "constant"
      value: 1
    }
    num_quantum_values: 7
  }
}
layer {
  name: "fire2/relu_squeeze1x1"
  type: "ReLU"
  bottom: "fire2/squeeze1x1"
  top: "fire2/squeeze1x1"
}
layer {
  name: "fire2/expand1x1"
  type: "INQConvolution"
  bottom: "fire2/squeeze1x1"
  top: "fire2/expand1x1"
  convolution_param {
    num_output: 64
    kernel_size: 1
    weight_filler {
      type: "xavier"
    }
  }
  inq_convolution_param {
    portion: 0.4
    portion: 0.6
    weight_mask_filler {
      type: "constant"
      value: 1
    }
    bias_mask_filler {
      type: "constant"
      value: 1
    }
    num_quantum_values: 7
  }
}
layer {
  name: "fire2/relu_expand1x1"
  type: "ReLU"
  bottom: "fire2/expand1x1"
  top: "fire2/expand1x1"
}
layer {
  name: "fire2/expand3x3"
  type: "INQConvolution"
  bottom: "fire2/squeeze1x1"
  top: "fire2/expand3x3"
  convolution_param {
    num_output: 64
    pad: 1
    kernel_size: 3
    weight_filler {
      type: "xavier"
    }
  }
  inq_convolution_param {
    portion: 0.4
    portion: 0.6
    weight_mask_filler {
      type: "constant"
      value: 1
    }
    bias_mask_filler {
      type: "constant"
      value: 1
    }
    num_quantum_values: 7
  }
}
layer {
  name: "fire2/relu_expand3x3"
  type: "ReLU"
  bottom: "fire2/expand3x3"
  top: "fire2/expand3x3"
}
layer {
  name: "fire2/concat"
  type: "Concat"
  bottom: "fire2/expand1x1"
  bottom: "fire2/expand3x3"
  top: "fire2/concat"
}
layer {
  name: "fire3/squeeze1x1"
  type: "INQConvolution"
  bottom: "fire2/concat"
  top: "fire3/squeeze1x1"
  convolution_param {
    num_output: 16
    kernel_size: 1
    weight_filler {
      type: "xavier"
    }
  }
  inq_convolution_param {
    portion: 0.4
    portion: 0.6
    weight_mask_filler {
      type: "constant"
      value: 1
    }
    bias_mask_filler {
      type: "constant"
      value: 1
    }
    num_quantum_values: 7
  }
}
layer {
  name: "fire3/relu_squeeze1x1"
  type: "ReLU"
  bottom: "fire3/squeeze1x1"
  top: "fire3/squeeze1x1"
}
layer {
  name: "fire3/expand1x1"
  type: "INQConvolution"
  bottom: "fire3/squeeze1x1"
  top: "fire3/expand1x1"
  convolution_param {
    num_output: 64
    kernel_size: 1
    weight_filler {
      type: "xavier"
    }
  }
  inq_convolution_param {
    portion: 0.4
    portion: 0.6
    weight_mask_filler {
      type: "constant"
      value: 1
    }
    bias_mask_filler {
      type: "constant"
      value: 1
    }
    num_quantum_values: 7
  }
}
layer {
  name: "fire3/relu_expand1x1"
  type: "ReLU"
  bottom: "fire3/expand1x1"
  top: "fire3/expand1x1"
}
layer {
  name: "fire3/expand3x3"
  type: "INQConvolution"
  bottom: "fire3/squeeze1x1"
  top: "fire3/expand3x3"
  convolution_param {
    num_output: 64
    pad: 1
    kernel_size: 3
    weight_filler {
      type: "xavier"
    }
  }
  inq_convolution_param {
    portion: 0.4
    portion: 0.6
    weight_mask_filler {
      type: "constant"
      value: 1
    }
    bias_mask_filler {
      type: "constant"
      value: 1
    }
    num_quantum_values: 7
  }
}
layer {
  name: "fire3/relu_expand3x3"
  type: "ReLU"
  bottom: "fire3/expand3x3"
  top: "fire3/expand3x3"
}
layer {
  name: "fire3/concat"
  type: "Concat"
  bottom: "fire3/expand1x1"
  bottom: "fire3/expand3x3"
  top: "fire3/concat"
}
layer {
  name: "pool3"
  type: "Pooling"
  bottom: "fire3/concat"
  top: "pool3"
  pooling_param {
    pool: MAX
    kernel_size: 3
    stride: 2
  }
}
layer {
  name: "fire4/squeeze1x1"
  type: "INQConvolution"
  bottom: "pool3"
  top: "fire4/squeeze1x1"
  convolution_param {
    num_output: 32
    kernel_size: 1
    weight_filler {
      type: "xavier"
    }
  }
  inq_convolution_param {
    portion: 0.4
    portion: 0.6
    weight_mask_filler {
      type: "constant"
      value: 1
    }
    bias_mask_filler {
      type: "constant"
      value: 1
    }
    num_quantum_values: 7
  }
}
layer {
  name: "fire4/relu_squeeze1x1"
  type: "ReLU"
  bottom: "fire4/squeeze1x1"
  top: "fire4/squeeze1x1"
}
layer {
  name: "fire4/expand1x1"
  type: "INQConvolution"
  bottom: "fire4/squeeze1x1"
  top: "fire4/expand1x1"
  convolution_param {
    num_output: 128
    kernel_size: 1
    weight_filler {
      type: "xavier"
    }
  }
  inq_convolution_param {
    portion: 0.4
    portion: 0.6
    weight_mask_filler {
      type: "constant"
      value: 1
    }
    bias_mask_filler {
      type: "constant"
      value: 1
    }
    num_quantum_values: 7
  }
}
layer {
  name: "fire4/relu_expand1x1"
  type: "ReLU"
  bottom: "fire4/expand1x1"
  top: "fire4/expand1x1"
}
layer {
  name: "fire4/expand3x3"
  type: "INQConvolution"
  bottom: "fire4/squeeze1x1"
  top: "fire4/expand3x3"
  convolution_param {
    num_output: 128
    pad: 1
    kernel_size: 3
    weight_filler {
      type: "xavier"
    }
  }
  inq_convolution_param {
    portion: 0.4
    portion: 0.6
    weight_mask_filler {
      type: "constant"
      value: 1
    }
    bias_mask_filler {
      type: "constant"
      value: 1
    }
    num_quantum_values: 7
  }
}
layer {
  name: "fire4/relu_expand3x3"
  type: "ReLU"
  bottom: "fire4/expand3x3"
  top: "fire4/expand3x3"
}
layer {
  name: "fire4/concat"
  type: "Concat"
  bottom: "fire4/expand1x1"
  bottom: "fire4/expand3x3"
  top: "fire4/concat"
}
layer {
  name: "fire5/squeeze1x1"
  type: "INQConvolution"
  bottom: "fire4/concat"
  top: "fire5/squeeze1x1"
  convolution_param {
    num_output: 32
    kernel_size: 1
    weight_filler {
      type: "xavier"
    }
  }
  inq_convolution_param {
    portion: 0.4
    portion: 0.6
    weight_mask_filler {
      type: "constant"
      value: 1
    }
    bias_mask_filler {
      type: "constant"
      value: 1
    }
    num_quantum_values: 7
  }
}
layer {
  name: "fire5/relu_squeeze1x1"
  type: "ReLU"
  bottom: "fire5/squeeze1x1"
  top: "fire5/squeeze1x1"
}
layer {
  name: "fire5/expand1x1"
  type: "INQConvolution"
  bottom: "fire5/squeeze1x1"
  top: "fire5/expand1x1"
  convolution_param {
    num_output: 128
    kernel_size: 1
    weight_filler {
      type: "xavier"
    }
  }
  inq_convolution_param {
    portion: 0.4
    portion: 0.6
    weight_mask_filler {
      type: "constant"
      value: 1
    }
    bias_mask_filler {
      type: "constant"
      value: 1
    }
    num_quantum_values: 7
  }
}
layer {
  name: "fire5/relu_expand1x1"
  type: "ReLU"
  bottom: "fire5/expand1x1"
  top: "fire5/expand1x1"
}
layer {
  name: "fire5/expand3x3"
  type: "INQConvolution"
  bottom: "fire5/squeeze1x1"
  top: "fire5/expand3x3"
  convolution_param {
    num_output: 128
    pad: 1
    kernel_size: 3
    weight_filler {
      type: "xavier"
    }
  }
  inq_convolution_param {
    portion: 0.4
    portion: 0.6
    weight_mask_filler {
      type: "constant"
      value: 1
    }
    bias_mask_filler {
      type: "constant"
      value: 1
    }
    num_quantum_values: 7
  }
}
layer {
  name: "fire5/relu_expand3x3"
  type: "ReLU"
  bottom: "fire5/expand3x3"
  top: "fire5/expand3x3"
}
layer {
  name: "fire5/concat"
  type: "Concat"
  bottom: "fire5/expand1x1"
  bottom: "fire5/expand3x3"
  top: "fire5/concat"
}
layer {
  name: "pool5"
  type: "Pooling"
  bottom: "fire5/concat"
  top: "pool5"
  pooling_param {
    pool: MAX
    kernel_size: 3
    stride: 2
  }
}
layer {
  name: "fire6/squeeze1x1"
  type: "INQConvolution"
  bottom: "pool5"
  top: "fire6/squeeze1x1"
  convolution_param {
    num_output: 48
    kernel_size: 1
    weight_filler {
      type: "xavier"
    }
  }
  inq_convolution_param {
    portion: 0.4
    portion: 0.6
    weight_mask_filler {
      type: "constant"
      value: 1
    }
    bias_mask_filler {
      type: "constant"
      value: 1
    }
    num_quantum_values: 7
  }
}
layer {
  name: "fire6/relu_squeeze1x1"
  type: "ReLU"
  bottom: "fire6/squeeze1x1"
  top: "fire6/squeeze1x1"
}
layer {
  name: "fire6/expand1x1"
  type: "INQConvolution"
  bottom: "fire6/squeeze1x1"
  top: "fire6/expand1x1"
  convolution_param {
    num_output: 192
    kernel_size: 1
    weight_filler {
      type: "xavier"
    }
  }
  inq_convolution_param {
    portion: 0.4
    portion: 0.6
    weight_mask_filler {
      type: "constant"
      value: 1
    }
    bias_mask_filler {
      type: "constant"
      value: 1
    }
    num_quantum_values: 7
  }
}
layer {
  name: "fire6/relu_expand1x1"
  type: "ReLU"
  bottom: "fire6/expand1x1"
  top: "fire6/expand1x1"
}
layer {
  name: "fire6/expand3x3"
  type: "INQConvolution"
  bottom: "fire6/squeeze1x1"
  top: "fire6/expand3x3"
  convolution_param {
    num_output: 192
    pad: 1
    kernel_size: 3
    weight_filler {
      type: "xavier"
    }
  }
  inq_convolution_param {
    portion: 0.4
    portion: 0.6
    weight_mask_filler {
      type: "constant"
      value: 1
    }
    bias_mask_filler {
      type: "constant"
      value: 1
    }
    num_quantum_values: 7
  }
}
layer {
  name: "fire6/relu_expand3x3"
  type: "ReLU"
  bottom: "fire6/expand3x3"
  top: "fire6/expand3x3"
}
layer {
  name: "fire6/concat"
  type: "Concat"
  bottom: "fire6/expand1x1"
  bottom: "fire6/expand3x3"
  top: "fire6/concat"
}
layer {
  name: "fire7/squeeze1x1"
  type: "INQConvolution"
  bottom: "fire6/concat"
  top: "fire7/squeeze1x1"
  convolution_param {
    num_output: 48
    kernel_size: 1
    weight_filler {
      type: "xavier"
    }
  }
  inq_convolution_param {
    portion: 0.4
    portion: 0.6
    weight_mask_filler {
      type: "constant"
      value: 1
    }
    bias_mask_filler {
      type: "constant"
      value: 1
    }
    num_quantum_values: 7
  }
}
layer {
  name: "fire7/relu_squeeze1x1"
  type: "ReLU"
  bottom: "fire7/squeeze1x1"
  top: "fire7/squeeze1x1"
}
layer {
  name: "fire7/expand1x1"
  type: "INQConvolution"
  bottom: "fire7/squeeze1x1"
  top: "fire7/expand1x1"
  convolution_param {
    num_output: 192
    kernel_size: 1
    weight_filler {
      type: "xavier"
    }
  }
  inq_convolution_param {
    portion: 0.4
    portion: 0.6
    weight_mask_filler {
      type: "constant"
      value: 1
    }
    bias_mask_filler {
      type: "constant"
      value: 1
    }
    num_quantum_values: 7
  }
}
layer {
  name: "fire7/relu_expand1x1"
  type: "ReLU"
  bottom: "fire7/expand1x1"
  top: "fire7/expand1x1"
}
layer {
  name: "fire7/expand3x3"
  type: "INQConvolution"
  bottom: "fire7/squeeze1x1"
  top: "fire7/expand3x3"
  convolution_param {
    num_output: 192
    pad: 1
    kernel_size: 3
    weight_filler {
      type: "xavier"
    }
  }
  inq_convolution_param {
    portion: 0.4
    portion: 0.6
    weight_mask_filler {
      type: "constant"
      value: 1
    }
    bias_mask_filler {
      type: "constant"
      value: 1
    }
    num_quantum_values: 7
  }
}
layer {
  name: "fire7/relu_expand3x3"
  type: "ReLU"
  bottom: "fire7/expand3x3"
  top: "fire7/expand3x3"
}
layer {
  name: "fire7/concat"
  type: "Concat"
  bottom: "fire7/expand1x1"
  bottom: "fire7/expand3x3"
  top: "fire7/concat"
}
layer {
  name: "fire8/squeeze1x1"
  type: "INQConvolution"
  bottom: "fire7/concat"
  top: "fire8/squeeze1x1"
  convolution_param {
    num_output: 64
    kernel_size: 1
    weight_filler {
      type: "xavier"
    }
  }
  inq_convolution_param {
    portion: 0.4
    portion: 0.6
    weight_mask_filler {
      type: "constant"
      value: 1
    }
    bias_mask_filler {
      type: "constant"
      value: 1
    }
    num_quantum_values: 7
  }
}
layer {
  name: "fire8/relu_squeeze1x1"
  type: "ReLU"
  bottom: "fire8/squeeze1x1"
  top: "fire8/squeeze1x1"
}
layer {
  name: "fire8/expand1x1"
  type: "INQConvolution"
  bottom: "fire8/squeeze1x1"
  top: "fire8/expand1x1"
  convolution_param {
    num_output: 256
    kernel_size: 1
    weight_filler {
      type: "xavier"
    }
  }
  inq_convolution_param {
    portion: 0.4
    portion: 0.6
    weight_mask_filler {
      type: "constant"
      value: 1
    }
    bias_mask_filler {
      type: "constant"
      value: 1
    }
    num_quantum_values: 7
  }
}
layer {
  name: "fire8/relu_expand1x1"
  type: "ReLU"
  bottom: "fire8/expand1x1"
  top: "fire8/expand1x1"
}
layer {
  name: "fire8/expand3x3"
  type: "INQConvolution"
  bottom: "fire8/squeeze1x1"
  top: "fire8/expand3x3"
  convolution_param {
    num_output: 256
    pad: 1
    kernel_size: 3
    weight_filler {
      type: "xavier"
    }
  }
  inq_convolution_param {
    portion: 0.4
    portion: 0.6
    weight_mask_filler {
      type: "constant"
      value: 1
    }
    bias_mask_filler {
      type: "constant"
      value: 1
    }
    num_quantum_values: 7
  }
}
layer {
  name: "fire8/relu_expand3x3"
  type: "ReLU"
  bottom: "fire8/expand3x3"
  top: "fire8/expand3x3"
}
layer {
  name: "fire8/concat"
  type: "Concat"
  bottom: "fire8/expand1x1"
  bottom: "fire8/expand3x3"
  top: "fire8/concat"
}
layer {
  name: "fire9/squeeze1x1"
  type: "INQConvolution"
  bottom: "fire8/concat"
  top: "fire9/squeeze1x1"
  convolution_param {
    num_output: 64
    kernel_size: 1
    weight_filler {
      type: "xavier"
    }
  }
  inq_convolution_param {
    portion: 0.4
    portion: 0.6
    weight_mask_filler {
      type: "constant"
      value: 1
    }
    bias_mask_filler {
      type: "constant"
      value: 1
    }
    num_quantum_values: 7
  }
}
layer {
  name: "fire9/relu_squeeze1x1"
  type: "ReLU"
  bottom: "fire9/squeeze1x1"
  top: "fire9/squeeze1x1"
}
layer {
  name: "fire9/expand1x1"
  type: "INQConvolution"
  bottom: "fire9/squeeze1x1"
  top: "fire9/expand1x1"
  convolution_param {
    num_output: 256
    kernel_size: 1
    weight_filler {
      type: "xavier"
    }
  }
  inq_convolution_param {
    portion: 0.4
    portion: 0.6
    weight_mask_filler {
      type: "constant"
      value: 1
    }
    bias_mask_filler {
      type: "constant"
      value: 1
    }
    num_quantum_values: 7
  }
}
layer {
  name: "fire9/relu_expand1x1"
  type: "ReLU"
  bottom: "fire9/expand1x1"
  top: "fire9/expand1x1"
}
layer {
  name: "fire9/expand3x3"
  type: "INQConvolution"
  bottom: "fire9/squeeze1x1"
  top: "fire9/expand3x3"
  convolution_param {
    num_output: 256
    pad: 1
    kernel_size: 3
    weight_filler {
      type: "xavier"
    }
  }
  inq_convolution_param {
    portion: 0.4
    portion: 0.6
    weight_mask_filler {
      type: "constant"
      value: 1
    }
    bias_mask_filler {
      type: "constant"
      value: 1
    }
    num_quantum_values: 7
  }
}
layer {
  name: "fire9/relu_expand3x3"
  type: "ReLU"
  bottom: "fire9/expand3x3"
  top: "fire9/expand3x3"
}
layer {
  name: "fire9/concat"
  type: "Concat"
  bottom: "fire9/expand1x1"
  bottom: "fire9/expand3x3"
  top: "fire9/concat"
}
layer {
  name: "drop9"
  type: "Dropout"
  bottom: "fire9/concat"
  top: "fire9/concat"
  dropout_param {
    dropout_ratio: 0.5
  }
}
layer {
  name: "conv10"
  type: "INQConvolution"
  bottom: "fire9/concat"
  top: "conv10"
  convolution_param {
    num_output: 1000
    kernel_size: 1
    weight_filler {
      type: "gaussian"
      mean: 0
      std: 0.01
    }
  }
  inq_convolution_param {
    portion: 0.4
    portion: 0.6
    weight_mask_filler {
      type: "constant"
      value: 1
    }
    bias_mask_filler {
      type: "constant"
      value: 1
    }
    num_quantum_values: 7
  }
}
layer {
  name: "relu_conv10"
  type: "ReLU"
  bottom: "conv10"
  top: "conv10"
}
layer {
  name: "pool10"
  type: "Pooling"
  bottom: "conv10"
  top: "pool10"
  pooling_param {
    pool: AVE
    global_pooling: true
  }
}
layer {
  name: "loss"
  type: "SoftmaxWithLoss"
  bottom: "pool10"
  bottom: "label"
  top: "loss"
}
I1029 12:04:18.241884  9851 layer_factory.hpp:77] Creating layer data
I1029 12:04:18.257743  9851 db_lmdb.cpp:35] Opened lmdb /home/data/caffe-imagenet/ilsvrc12_train_lmdb
I1029 12:04:18.257817  9851 net.cpp:84] Creating Layer data
I1029 12:04:18.257836  9851 net.cpp:387] data -> data
I1029 12:04:18.257871  9851 net.cpp:387] data -> label
I1029 12:04:18.259901  9851 data_layer.cpp:45] output data size: 128,3,227,227
I1029 12:04:18.479229  9851 net.cpp:127] Setting up data
I1029 12:04:18.479308  9851 net.cpp:136] Top shape: 128 3 227 227 (19787136)
I1029 12:04:18.479321  9851 net.cpp:136] Top shape: 128 (128)
I1029 12:04:18.479328  9851 net.cpp:144] Memory required for data: 79149056
I1029 12:04:18.479346  9851 layer_factory.hpp:77] Creating layer conv1
I1029 12:04:18.479373  9851 net.cpp:84] Creating Layer conv1
I1029 12:04:18.479385  9851 net.cpp:413] conv1 <- data
I1029 12:04:18.479408  9851 net.cpp:387] conv1 -> conv1
I1029 12:04:18.482514  9851 net.cpp:127] Setting up conv1
I1029 12:04:18.482535  9851 net.cpp:136] Top shape: 128 64 113 113 (104603648)
I1029 12:04:18.482542  9851 net.cpp:144] Memory required for data: 497563648
I1029 12:04:18.482566  9851 net.cpp:453] Found INQ layer:conv1, type: INQConvolution, layer id:1
I1029 12:04:18.482580  9851 net.cpp:453] Found INQ layer:conv1, type: INQConvolution, layer id:1
I1029 12:04:18.482589  9851 net.cpp:453] Found INQ layer:conv1, type: INQConvolution, layer id:1
I1029 12:04:18.482597  9851 net.cpp:453] Found INQ layer:conv1, type: INQConvolution, layer id:1
I1029 12:04:18.482604  9851 layer_factory.hpp:77] Creating layer relu_conv1
I1029 12:04:18.482619  9851 net.cpp:84] Creating Layer relu_conv1
I1029 12:04:18.482625  9851 net.cpp:413] relu_conv1 <- conv1
I1029 12:04:18.482633  9851 net.cpp:374] relu_conv1 -> conv1 (in-place)
I1029 12:04:18.854652  9851 net.cpp:127] Setting up relu_conv1
I1029 12:04:18.854702  9851 net.cpp:136] Top shape: 128 64 113 113 (104603648)
I1029 12:04:18.854710  9851 net.cpp:144] Memory required for data: 915978240
I1029 12:04:18.854722  9851 layer_factory.hpp:77] Creating layer pool1
I1029 12:04:18.854748  9851 net.cpp:84] Creating Layer pool1
I1029 12:04:18.854758  9851 net.cpp:413] pool1 <- conv1
I1029 12:04:18.854771  9851 net.cpp:387] pool1 -> pool1
I1029 12:04:18.854876  9851 net.cpp:127] Setting up pool1
I1029 12:04:18.854887  9851 net.cpp:136] Top shape: 128 64 56 56 (25690112)
I1029 12:04:18.854928  9851 net.cpp:144] Memory required for data: 1018738688
I1029 12:04:18.854935  9851 layer_factory.hpp:77] Creating layer fire2/squeeze1x1
I1029 12:04:18.854955  9851 net.cpp:84] Creating Layer fire2/squeeze1x1
I1029 12:04:18.854961  9851 net.cpp:413] fire2/squeeze1x1 <- pool1
I1029 12:04:18.854971  9851 net.cpp:387] fire2/squeeze1x1 -> fire2/squeeze1x1
I1029 12:04:18.856770  9851 net.cpp:127] Setting up fire2/squeeze1x1
I1029 12:04:18.856791  9851 net.cpp:136] Top shape: 128 16 56 56 (6422528)
I1029 12:04:18.856797  9851 net.cpp:144] Memory required for data: 1044428800
I1029 12:04:18.856808  9851 net.cpp:453] Found INQ layer:fire2/squeeze1x1, type: INQConvolution, layer id:4
I1029 12:04:18.856818  9851 net.cpp:453] Found INQ layer:fire2/squeeze1x1, type: INQConvolution, layer id:4
I1029 12:04:18.856827  9851 net.cpp:453] Found INQ layer:fire2/squeeze1x1, type: INQConvolution, layer id:4
I1029 12:04:18.856834  9851 net.cpp:453] Found INQ layer:fire2/squeeze1x1, type: INQConvolution, layer id:4
I1029 12:04:18.856843  9851 layer_factory.hpp:77] Creating layer fire2/relu_squeeze1x1
I1029 12:04:18.856854  9851 net.cpp:84] Creating Layer fire2/relu_squeeze1x1
I1029 12:04:18.856859  9851 net.cpp:413] fire2/relu_squeeze1x1 <- fire2/squeeze1x1
I1029 12:04:18.856868  9851 net.cpp:374] fire2/relu_squeeze1x1 -> fire2/squeeze1x1 (in-place)
I1029 12:04:18.859920  9851 net.cpp:127] Setting up fire2/relu_squeeze1x1
I1029 12:04:18.859939  9851 net.cpp:136] Top shape: 128 16 56 56 (6422528)
I1029 12:04:18.859946  9851 net.cpp:144] Memory required for data: 1070118912
I1029 12:04:18.859951  9851 layer_factory.hpp:77] Creating layer fire2/squeeze1x1_fire2/relu_squeeze1x1_0_split
I1029 12:04:18.859964  9851 net.cpp:84] Creating Layer fire2/squeeze1x1_fire2/relu_squeeze1x1_0_split
I1029 12:04:18.859984  9851 net.cpp:413] fire2/squeeze1x1_fire2/relu_squeeze1x1_0_split <- fire2/squeeze1x1
I1029 12:04:18.859993  9851 net.cpp:387] fire2/squeeze1x1_fire2/relu_squeeze1x1_0_split -> fire2/squeeze1x1_fire2/relu_squeeze1x1_0_split_0
I1029 12:04:18.860004  9851 net.cpp:387] fire2/squeeze1x1_fire2/relu_squeeze1x1_0_split -> fire2/squeeze1x1_fire2/relu_squeeze1x1_0_split_1
I1029 12:04:18.860054  9851 net.cpp:127] Setting up fire2/squeeze1x1_fire2/relu_squeeze1x1_0_split
I1029 12:04:18.860061  9851 net.cpp:136] Top shape: 128 16 56 56 (6422528)
I1029 12:04:18.860067  9851 net.cpp:136] Top shape: 128 16 56 56 (6422528)
I1029 12:04:18.860072  9851 net.cpp:144] Memory required for data: 1121499136
I1029 12:04:18.860077  9851 layer_factory.hpp:77] Creating layer fire2/expand1x1
I1029 12:04:18.860087  9851 net.cpp:84] Creating Layer fire2/expand1x1
I1029 12:04:18.860093  9851 net.cpp:413] fire2/expand1x1 <- fire2/squeeze1x1_fire2/relu_squeeze1x1_0_split_0
I1029 12:04:18.860101  9851 net.cpp:387] fire2/expand1x1 -> fire2/expand1x1
I1029 12:04:18.860419  9851 net.cpp:127] Setting up fire2/expand1x1
I1029 12:04:18.860432  9851 net.cpp:136] Top shape: 128 64 56 56 (25690112)
I1029 12:04:18.860437  9851 net.cpp:144] Memory required for data: 1224259584
I1029 12:04:18.860450  9851 net.cpp:453] Found INQ layer:fire2/expand1x1, type: INQConvolution, layer id:7
I1029 12:04:18.860458  9851 net.cpp:453] Found INQ layer:fire2/expand1x1, type: INQConvolution, layer id:7
I1029 12:04:18.860466  9851 net.cpp:453] Found INQ layer:fire2/expand1x1, type: INQConvolution, layer id:7
I1029 12:04:18.860471  9851 net.cpp:453] Found INQ layer:fire2/expand1x1, type: INQConvolution, layer id:7
I1029 12:04:18.860476  9851 layer_factory.hpp:77] Creating layer fire2/relu_expand1x1
I1029 12:04:18.860487  9851 net.cpp:84] Creating Layer fire2/relu_expand1x1
I1029 12:04:18.860493  9851 net.cpp:413] fire2/relu_expand1x1 <- fire2/expand1x1
I1029 12:04:18.860502  9851 net.cpp:374] fire2/relu_expand1x1 -> fire2/expand1x1 (in-place)
I1029 12:04:18.860697  9851 net.cpp:127] Setting up fire2/relu_expand1x1
I1029 12:04:18.860708  9851 net.cpp:136] Top shape: 128 64 56 56 (25690112)
I1029 12:04:18.860724  9851 net.cpp:144] Memory required for data: 1327020032
I1029 12:04:18.860744  9851 layer_factory.hpp:77] Creating layer fire2/expand3x3
I1029 12:04:18.860756  9851 net.cpp:84] Creating Layer fire2/expand3x3
I1029 12:04:18.860761  9851 net.cpp:413] fire2/expand3x3 <- fire2/squeeze1x1_fire2/relu_squeeze1x1_0_split_1
I1029 12:04:18.860770  9851 net.cpp:387] fire2/expand3x3 -> fire2/expand3x3
I1029 12:04:18.861173  9851 net.cpp:127] Setting up fire2/expand3x3
I1029 12:04:18.861186  9851 net.cpp:136] Top shape: 128 64 56 56 (25690112)
I1029 12:04:18.861191  9851 net.cpp:144] Memory required for data: 1429780480
I1029 12:04:18.861198  9851 net.cpp:453] Found INQ layer:fire2/expand3x3, type: INQConvolution, layer id:9
I1029 12:04:18.861205  9851 net.cpp:453] Found INQ layer:fire2/expand3x3, type: INQConvolution, layer id:9
I1029 12:04:18.861212  9851 net.cpp:453] Found INQ layer:fire2/expand3x3, type: INQConvolution, layer id:9
I1029 12:04:18.861217  9851 net.cpp:453] Found INQ layer:fire2/expand3x3, type: INQConvolution, layer id:9
I1029 12:04:18.861224  9851 layer_factory.hpp:77] Creating layer fire2/relu_expand3x3
I1029 12:04:18.861233  9851 net.cpp:84] Creating Layer fire2/relu_expand3x3
I1029 12:04:18.861239  9851 net.cpp:413] fire2/relu_expand3x3 <- fire2/expand3x3
I1029 12:04:18.861246  9851 net.cpp:374] fire2/relu_expand3x3 -> fire2/expand3x3 (in-place)
I1029 12:04:18.861443  9851 net.cpp:127] Setting up fire2/relu_expand3x3
I1029 12:04:18.861456  9851 net.cpp:136] Top shape: 128 64 56 56 (25690112)
I1029 12:04:18.861462  9851 net.cpp:144] Memory required for data: 1532540928
I1029 12:04:18.861469  9851 layer_factory.hpp:77] Creating layer fire2/concat
I1029 12:04:18.861480  9851 net.cpp:84] Creating Layer fire2/concat
I1029 12:04:18.861486  9851 net.cpp:413] fire2/concat <- fire2/expand1x1
I1029 12:04:18.861493  9851 net.cpp:413] fire2/concat <- fire2/expand3x3
I1029 12:04:18.861500  9851 net.cpp:387] fire2/concat -> fire2/concat
I1029 12:04:18.861533  9851 net.cpp:127] Setting up fire2/concat
I1029 12:04:18.861542  9851 net.cpp:136] Top shape: 128 128 56 56 (51380224)
I1029 12:04:18.861547  9851 net.cpp:144] Memory required for data: 1738061824
I1029 12:04:18.861552  9851 layer_factory.hpp:77] Creating layer fire3/squeeze1x1
I1029 12:04:18.861562  9851 net.cpp:84] Creating Layer fire3/squeeze1x1
I1029 12:04:18.861567  9851 net.cpp:413] fire3/squeeze1x1 <- fire2/concat
I1029 12:04:18.861575  9851 net.cpp:387] fire3/squeeze1x1 -> fire3/squeeze1x1
I1029 12:04:18.861886  9851 net.cpp:127] Setting up fire3/squeeze1x1
I1029 12:04:18.861896  9851 net.cpp:136] Top shape: 128 16 56 56 (6422528)
I1029 12:04:18.861901  9851 net.cpp:144] Memory required for data: 1763751936
I1029 12:04:18.861910  9851 net.cpp:453] Found INQ layer:fire3/squeeze1x1, type: INQConvolution, layer id:12
I1029 12:04:18.861918  9851 net.cpp:453] Found INQ layer:fire3/squeeze1x1, type: INQConvolution, layer id:12
I1029 12:04:18.861925  9851 net.cpp:453] Found INQ layer:fire3/squeeze1x1, type: INQConvolution, layer id:12
I1029 12:04:18.861932  9851 net.cpp:453] Found INQ layer:fire3/squeeze1x1, type: INQConvolution, layer id:12
I1029 12:04:18.861937  9851 layer_factory.hpp:77] Creating layer fire3/relu_squeeze1x1
I1029 12:04:18.861945  9851 net.cpp:84] Creating Layer fire3/relu_squeeze1x1
I1029 12:04:18.861951  9851 net.cpp:413] fire3/relu_squeeze1x1 <- fire3/squeeze1x1
I1029 12:04:18.861958  9851 net.cpp:374] fire3/relu_squeeze1x1 -> fire3/squeeze1x1 (in-place)
I1029 12:04:18.863394  9851 net.cpp:127] Setting up fire3/relu_squeeze1x1
I1029 12:04:18.863414  9851 net.cpp:136] Top shape: 128 16 56 56 (6422528)
I1029 12:04:18.863420  9851 net.cpp:144] Memory required for data: 1789442048
I1029 12:04:18.863428  9851 layer_factory.hpp:77] Creating layer fire3/squeeze1x1_fire3/relu_squeeze1x1_0_split
I1029 12:04:18.863437  9851 net.cpp:84] Creating Layer fire3/squeeze1x1_fire3/relu_squeeze1x1_0_split
I1029 12:04:18.863443  9851 net.cpp:413] fire3/squeeze1x1_fire3/relu_squeeze1x1_0_split <- fire3/squeeze1x1
I1029 12:04:18.863459  9851 net.cpp:387] fire3/squeeze1x1_fire3/relu_squeeze1x1_0_split -> fire3/squeeze1x1_fire3/relu_squeeze1x1_0_split_0
I1029 12:04:18.863482  9851 net.cpp:387] fire3/squeeze1x1_fire3/relu_squeeze1x1_0_split -> fire3/squeeze1x1_fire3/relu_squeeze1x1_0_split_1
I1029 12:04:18.863533  9851 net.cpp:127] Setting up fire3/squeeze1x1_fire3/relu_squeeze1x1_0_split
I1029 12:04:18.863553  9851 net.cpp:136] Top shape: 128 16 56 56 (6422528)
I1029 12:04:18.863559  9851 net.cpp:136] Top shape: 128 16 56 56 (6422528)
I1029 12:04:18.863564  9851 net.cpp:144] Memory required for data: 1840822272
I1029 12:04:18.863569  9851 layer_factory.hpp:77] Creating layer fire3/expand1x1
I1029 12:04:18.863582  9851 net.cpp:84] Creating Layer fire3/expand1x1
I1029 12:04:18.863587  9851 net.cpp:413] fire3/expand1x1 <- fire3/squeeze1x1_fire3/relu_squeeze1x1_0_split_0
I1029 12:04:18.863595  9851 net.cpp:387] fire3/expand1x1 -> fire3/expand1x1
I1029 12:04:18.869854  9851 net.cpp:127] Setting up fire3/expand1x1
I1029 12:04:18.869868  9851 net.cpp:136] Top shape: 128 64 56 56 (25690112)
I1029 12:04:18.869874  9851 net.cpp:144] Memory required for data: 1943582720
I1029 12:04:18.869880  9851 net.cpp:453] Found INQ layer:fire3/expand1x1, type: INQConvolution, layer id:15
I1029 12:04:18.869889  9851 net.cpp:453] Found INQ layer:fire3/expand1x1, type: INQConvolution, layer id:15
I1029 12:04:18.869894  9851 net.cpp:453] Found INQ layer:fire3/expand1x1, type: INQConvolution, layer id:15
I1029 12:04:18.869900  9851 net.cpp:453] Found INQ layer:fire3/expand1x1, type: INQConvolution, layer id:15
I1029 12:04:18.869905  9851 layer_factory.hpp:77] Creating layer fire3/relu_expand1x1
I1029 12:04:18.869915  9851 net.cpp:84] Creating Layer fire3/relu_expand1x1
I1029 12:04:18.869922  9851 net.cpp:413] fire3/relu_expand1x1 <- fire3/expand1x1
I1029 12:04:18.869930  9851 net.cpp:374] fire3/relu_expand1x1 -> fire3/expand1x1 (in-place)
I1029 12:04:18.870116  9851 net.cpp:127] Setting up fire3/relu_expand1x1
I1029 12:04:18.870128  9851 net.cpp:136] Top shape: 128 64 56 56 (25690112)
I1029 12:04:18.870133  9851 net.cpp:144] Memory required for data: 2046343168
I1029 12:04:18.870141  9851 layer_factory.hpp:77] Creating layer fire3/expand3x3
I1029 12:04:18.870153  9851 net.cpp:84] Creating Layer fire3/expand3x3
I1029 12:04:18.870158  9851 net.cpp:413] fire3/expand3x3 <- fire3/squeeze1x1_fire3/relu_squeeze1x1_0_split_1
I1029 12:04:18.870167  9851 net.cpp:387] fire3/expand3x3 -> fire3/expand3x3
I1029 12:04:18.870568  9851 net.cpp:127] Setting up fire3/expand3x3
I1029 12:04:18.870581  9851 net.cpp:136] Top shape: 128 64 56 56 (25690112)
I1029 12:04:18.870586  9851 net.cpp:144] Memory required for data: 2149103616
I1029 12:04:18.870594  9851 net.cpp:453] Found INQ layer:fire3/expand3x3, type: INQConvolution, layer id:17
I1029 12:04:18.870600  9851 net.cpp:453] Found INQ layer:fire3/expand3x3, type: INQConvolution, layer id:17
I1029 12:04:18.870606  9851 net.cpp:453] Found INQ layer:fire3/expand3x3, type: INQConvolution, layer id:17
I1029 12:04:18.870612  9851 net.cpp:453] Found INQ layer:fire3/expand3x3, type: INQConvolution, layer id:17
I1029 12:04:18.870617  9851 layer_factory.hpp:77] Creating layer fire3/relu_expand3x3
I1029 12:04:18.870626  9851 net.cpp:84] Creating Layer fire3/relu_expand3x3
I1029 12:04:18.870633  9851 net.cpp:413] fire3/relu_expand3x3 <- fire3/expand3x3
I1029 12:04:18.870640  9851 net.cpp:374] fire3/relu_expand3x3 -> fire3/expand3x3 (in-place)
I1029 12:04:18.870831  9851 net.cpp:127] Setting up fire3/relu_expand3x3
I1029 12:04:18.870841  9851 net.cpp:136] Top shape: 128 64 56 56 (25690112)
I1029 12:04:18.870847  9851 net.cpp:144] Memory required for data: 2251864064
I1029 12:04:18.870853  9851 layer_factory.hpp:77] Creating layer fire3/concat
I1029 12:04:18.870860  9851 net.cpp:84] Creating Layer fire3/concat
I1029 12:04:18.870865  9851 net.cpp:413] fire3/concat <- fire3/expand1x1
I1029 12:04:18.870872  9851 net.cpp:413] fire3/concat <- fire3/expand3x3
I1029 12:04:18.870879  9851 net.cpp:387] fire3/concat -> fire3/concat
I1029 12:04:18.870915  9851 net.cpp:127] Setting up fire3/concat
I1029 12:04:18.870924  9851 net.cpp:136] Top shape: 128 128 56 56 (51380224)
I1029 12:04:18.870940  9851 net.cpp:144] Memory required for data: 2457384960
I1029 12:04:18.870946  9851 layer_factory.hpp:77] Creating layer pool3
I1029 12:04:18.870955  9851 net.cpp:84] Creating Layer pool3
I1029 12:04:18.870960  9851 net.cpp:413] pool3 <- fire3/concat
I1029 12:04:18.870967  9851 net.cpp:387] pool3 -> pool3
I1029 12:04:18.871011  9851 net.cpp:127] Setting up pool3
I1029 12:04:18.871021  9851 net.cpp:136] Top shape: 128 128 28 28 (12845056)
I1029 12:04:18.871026  9851 net.cpp:144] Memory required for data: 2508765184
I1029 12:04:18.871033  9851 layer_factory.hpp:77] Creating layer fire4/squeeze1x1
I1029 12:04:18.871043  9851 net.cpp:84] Creating Layer fire4/squeeze1x1
I1029 12:04:18.871049  9851 net.cpp:413] fire4/squeeze1x1 <- pool3
I1029 12:04:18.871057  9851 net.cpp:387] fire4/squeeze1x1 -> fire4/squeeze1x1
I1029 12:04:18.871398  9851 net.cpp:127] Setting up fire4/squeeze1x1
I1029 12:04:18.871412  9851 net.cpp:136] Top shape: 128 32 28 28 (3211264)
I1029 12:04:18.871417  9851 net.cpp:144] Memory required for data: 2521610240
I1029 12:04:18.871423  9851 net.cpp:453] Found INQ layer:fire4/squeeze1x1, type: INQConvolution, layer id:21
I1029 12:04:18.871430  9851 net.cpp:453] Found INQ layer:fire4/squeeze1x1, type: INQConvolution, layer id:21
I1029 12:04:18.871436  9851 net.cpp:453] Found INQ layer:fire4/squeeze1x1, type: INQConvolution, layer id:21
I1029 12:04:18.871441  9851 net.cpp:453] Found INQ layer:fire4/squeeze1x1, type: INQConvolution, layer id:21
I1029 12:04:18.871448  9851 layer_factory.hpp:77] Creating layer fire4/relu_squeeze1x1
I1029 12:04:18.871456  9851 net.cpp:84] Creating Layer fire4/relu_squeeze1x1
I1029 12:04:18.871465  9851 net.cpp:413] fire4/relu_squeeze1x1 <- fire4/squeeze1x1
I1029 12:04:18.871472  9851 net.cpp:374] fire4/relu_squeeze1x1 -> fire4/squeeze1x1 (in-place)
I1029 12:04:18.871672  9851 net.cpp:127] Setting up fire4/relu_squeeze1x1
I1029 12:04:18.871685  9851 net.cpp:136] Top shape: 128 32 28 28 (3211264)
I1029 12:04:18.871690  9851 net.cpp:144] Memory required for data: 2534455296
I1029 12:04:18.871695  9851 layer_factory.hpp:77] Creating layer fire4/squeeze1x1_fire4/relu_squeeze1x1_0_split
I1029 12:04:18.871703  9851 net.cpp:84] Creating Layer fire4/squeeze1x1_fire4/relu_squeeze1x1_0_split
I1029 12:04:18.871708  9851 net.cpp:413] fire4/squeeze1x1_fire4/relu_squeeze1x1_0_split <- fire4/squeeze1x1
I1029 12:04:18.871716  9851 net.cpp:387] fire4/squeeze1x1_fire4/relu_squeeze1x1_0_split -> fire4/squeeze1x1_fire4/relu_squeeze1x1_0_split_0
I1029 12:04:18.871724  9851 net.cpp:387] fire4/squeeze1x1_fire4/relu_squeeze1x1_0_split -> fire4/squeeze1x1_fire4/relu_squeeze1x1_0_split_1
I1029 12:04:18.871767  9851 net.cpp:127] Setting up fire4/squeeze1x1_fire4/relu_squeeze1x1_0_split
I1029 12:04:18.871774  9851 net.cpp:136] Top shape: 128 32 28 28 (3211264)
I1029 12:04:18.871781  9851 net.cpp:136] Top shape: 128 32 28 28 (3211264)
I1029 12:04:18.871785  9851 net.cpp:144] Memory required for data: 2560145408
I1029 12:04:18.871793  9851 layer_factory.hpp:77] Creating layer fire4/expand1x1
I1029 12:04:18.871803  9851 net.cpp:84] Creating Layer fire4/expand1x1
I1029 12:04:18.871809  9851 net.cpp:413] fire4/expand1x1 <- fire4/squeeze1x1_fire4/relu_squeeze1x1_0_split_0
I1029 12:04:18.871816  9851 net.cpp:387] fire4/expand1x1 -> fire4/expand1x1
I1029 12:04:18.872139  9851 net.cpp:127] Setting up fire4/expand1x1
I1029 12:04:18.872150  9851 net.cpp:136] Top shape: 128 128 28 28 (12845056)
I1029 12:04:18.872155  9851 net.cpp:144] Memory required for data: 2611525632
I1029 12:04:18.872165  9851 net.cpp:453] Found INQ layer:fire4/expand1x1, type: INQConvolution, layer id:24
I1029 12:04:18.872174  9851 net.cpp:453] Found INQ layer:fire4/expand1x1, type: INQConvolution, layer id:24
I1029 12:04:18.872181  9851 net.cpp:453] Found INQ layer:fire4/expand1x1, type: INQConvolution, layer id:24
I1029 12:04:18.872187  9851 net.cpp:453] Found INQ layer:fire4/expand1x1, type: INQConvolution, layer id:24
I1029 12:04:18.872200  9851 layer_factory.hpp:77] Creating layer fire4/relu_expand1x1
I1029 12:04:18.872220  9851 net.cpp:84] Creating Layer fire4/relu_expand1x1
I1029 12:04:18.872225  9851 net.cpp:413] fire4/relu_expand1x1 <- fire4/expand1x1
I1029 12:04:18.872232  9851 net.cpp:374] fire4/relu_expand1x1 -> fire4/expand1x1 (in-place)
I1029 12:04:18.873594  9851 net.cpp:127] Setting up fire4/relu_expand1x1
I1029 12:04:18.873615  9851 net.cpp:136] Top shape: 128 128 28 28 (12845056)
I1029 12:04:18.873620  9851 net.cpp:144] Memory required for data: 2662905856
I1029 12:04:18.873626  9851 layer_factory.hpp:77] Creating layer fire4/expand3x3
I1029 12:04:18.873637  9851 net.cpp:84] Creating Layer fire4/expand3x3
I1029 12:04:18.873643  9851 net.cpp:413] fire4/expand3x3 <- fire4/squeeze1x1_fire4/relu_squeeze1x1_0_split_1
I1029 12:04:18.873652  9851 net.cpp:387] fire4/expand3x3 -> fire4/expand3x3
I1029 12:04:18.875552  9851 net.cpp:127] Setting up fire4/expand3x3
I1029 12:04:18.875573  9851 net.cpp:136] Top shape: 128 128 28 28 (12845056)
I1029 12:04:18.875581  9851 net.cpp:144] Memory required for data: 2714286080
I1029 12:04:18.875587  9851 net.cpp:453] Found INQ layer:fire4/expand3x3, type: INQConvolution, layer id:26
I1029 12:04:18.875596  9851 net.cpp:453] Found INQ layer:fire4/expand3x3, type: INQConvolution, layer id:26
I1029 12:04:18.875602  9851 net.cpp:453] Found INQ layer:fire4/expand3x3, type: INQConvolution, layer id:26
I1029 12:04:18.875607  9851 net.cpp:453] Found INQ layer:fire4/expand3x3, type: INQConvolution, layer id:26
I1029 12:04:18.875614  9851 layer_factory.hpp:77] Creating layer fire4/relu_expand3x3
I1029 12:04:18.875627  9851 net.cpp:84] Creating Layer fire4/relu_expand3x3
I1029 12:04:18.875633  9851 net.cpp:413] fire4/relu_expand3x3 <- fire4/expand3x3
I1029 12:04:18.875640  9851 net.cpp:374] fire4/relu_expand3x3 -> fire4/expand3x3 (in-place)
I1029 12:04:18.875840  9851 net.cpp:127] Setting up fire4/relu_expand3x3
I1029 12:04:18.875852  9851 net.cpp:136] Top shape: 128 128 28 28 (12845056)
I1029 12:04:18.875859  9851 net.cpp:144] Memory required for data: 2765666304
I1029 12:04:18.875866  9851 layer_factory.hpp:77] Creating layer fire4/concat
I1029 12:04:18.875874  9851 net.cpp:84] Creating Layer fire4/concat
I1029 12:04:18.875880  9851 net.cpp:413] fire4/concat <- fire4/expand1x1
I1029 12:04:18.875887  9851 net.cpp:413] fire4/concat <- fire4/expand3x3
I1029 12:04:18.875893  9851 net.cpp:387] fire4/concat -> fire4/concat
I1029 12:04:18.875924  9851 net.cpp:127] Setting up fire4/concat
I1029 12:04:18.875933  9851 net.cpp:136] Top shape: 128 256 28 28 (25690112)
I1029 12:04:18.875938  9851 net.cpp:144] Memory required for data: 2868426752
I1029 12:04:18.875943  9851 layer_factory.hpp:77] Creating layer fire5/squeeze1x1
I1029 12:04:18.875953  9851 net.cpp:84] Creating Layer fire5/squeeze1x1
I1029 12:04:18.875958  9851 net.cpp:413] fire5/squeeze1x1 <- fire4/concat
I1029 12:04:18.875967  9851 net.cpp:387] fire5/squeeze1x1 -> fire5/squeeze1x1
I1029 12:04:18.876344  9851 net.cpp:127] Setting up fire5/squeeze1x1
I1029 12:04:18.876358  9851 net.cpp:136] Top shape: 128 32 28 28 (3211264)
I1029 12:04:18.876363  9851 net.cpp:144] Memory required for data: 2881271808
I1029 12:04:18.876370  9851 net.cpp:453] Found INQ layer:fire5/squeeze1x1, type: INQConvolution, layer id:29
I1029 12:04:18.876377  9851 net.cpp:453] Found INQ layer:fire5/squeeze1x1, type: INQConvolution, layer id:29
I1029 12:04:18.876384  9851 net.cpp:453] Found INQ layer:fire5/squeeze1x1, type: INQConvolution, layer id:29
I1029 12:04:18.876389  9851 net.cpp:453] Found INQ layer:fire5/squeeze1x1, type: INQConvolution, layer id:29
I1029 12:04:18.876394  9851 layer_factory.hpp:77] Creating layer fire5/relu_squeeze1x1
I1029 12:04:18.876404  9851 net.cpp:84] Creating Layer fire5/relu_squeeze1x1
I1029 12:04:18.876410  9851 net.cpp:413] fire5/relu_squeeze1x1 <- fire5/squeeze1x1
I1029 12:04:18.876417  9851 net.cpp:374] fire5/relu_squeeze1x1 -> fire5/squeeze1x1 (in-place)
I1029 12:04:18.876612  9851 net.cpp:127] Setting up fire5/relu_squeeze1x1
I1029 12:04:18.876631  9851 net.cpp:136] Top shape: 128 32 28 28 (3211264)
I1029 12:04:18.876651  9851 net.cpp:144] Memory required for data: 2894116864
I1029 12:04:18.876657  9851 layer_factory.hpp:77] Creating layer fire5/squeeze1x1_fire5/relu_squeeze1x1_0_split
I1029 12:04:18.876667  9851 net.cpp:84] Creating Layer fire5/squeeze1x1_fire5/relu_squeeze1x1_0_split
I1029 12:04:18.876672  9851 net.cpp:413] fire5/squeeze1x1_fire5/relu_squeeze1x1_0_split <- fire5/squeeze1x1
I1029 12:04:18.876679  9851 net.cpp:387] fire5/squeeze1x1_fire5/relu_squeeze1x1_0_split -> fire5/squeeze1x1_fire5/relu_squeeze1x1_0_split_0
I1029 12:04:18.876689  9851 net.cpp:387] fire5/squeeze1x1_fire5/relu_squeeze1x1_0_split -> fire5/squeeze1x1_fire5/relu_squeeze1x1_0_split_1
I1029 12:04:18.876734  9851 net.cpp:127] Setting up fire5/squeeze1x1_fire5/relu_squeeze1x1_0_split
I1029 12:04:18.876744  9851 net.cpp:136] Top shape: 128 32 28 28 (3211264)
I1029 12:04:18.876750  9851 net.cpp:136] Top shape: 128 32 28 28 (3211264)
I1029 12:04:18.876755  9851 net.cpp:144] Memory required for data: 2919806976
I1029 12:04:18.876760  9851 layer_factory.hpp:77] Creating layer fire5/expand1x1
I1029 12:04:18.876773  9851 net.cpp:84] Creating Layer fire5/expand1x1
I1029 12:04:18.876780  9851 net.cpp:413] fire5/expand1x1 <- fire5/squeeze1x1_fire5/relu_squeeze1x1_0_split_0
I1029 12:04:18.876787  9851 net.cpp:387] fire5/expand1x1 -> fire5/expand1x1
I1029 12:04:18.877110  9851 net.cpp:127] Setting up fire5/expand1x1
I1029 12:04:18.877121  9851 net.cpp:136] Top shape: 128 128 28 28 (12845056)
I1029 12:04:18.877126  9851 net.cpp:144] Memory required for data: 2971187200
I1029 12:04:18.877133  9851 net.cpp:453] Found INQ layer:fire5/expand1x1, type: INQConvolution, layer id:32
I1029 12:04:18.877140  9851 net.cpp:453] Found INQ layer:fire5/expand1x1, type: INQConvolution, layer id:32
I1029 12:04:18.877146  9851 net.cpp:453] Found INQ layer:fire5/expand1x1, type: INQConvolution, layer id:32
I1029 12:04:18.877152  9851 net.cpp:453] Found INQ layer:fire5/expand1x1, type: INQConvolution, layer id:32
I1029 12:04:18.877156  9851 layer_factory.hpp:77] Creating layer fire5/relu_expand1x1
I1029 12:04:18.877166  9851 net.cpp:84] Creating Layer fire5/relu_expand1x1
I1029 12:04:18.877171  9851 net.cpp:413] fire5/relu_expand1x1 <- fire5/expand1x1
I1029 12:04:18.877177  9851 net.cpp:374] fire5/relu_expand1x1 -> fire5/expand1x1 (in-place)
I1029 12:04:18.877373  9851 net.cpp:127] Setting up fire5/relu_expand1x1
I1029 12:04:18.877387  9851 net.cpp:136] Top shape: 128 128 28 28 (12845056)
I1029 12:04:18.877393  9851 net.cpp:144] Memory required for data: 3022567424
I1029 12:04:18.877401  9851 layer_factory.hpp:77] Creating layer fire5/expand3x3
I1029 12:04:18.877413  9851 net.cpp:84] Creating Layer fire5/expand3x3
I1029 12:04:18.877418  9851 net.cpp:413] fire5/expand3x3 <- fire5/squeeze1x1_fire5/relu_squeeze1x1_0_split_1
I1029 12:04:18.877427  9851 net.cpp:387] fire5/expand3x3 -> fire5/expand3x3
I1029 12:04:18.878013  9851 net.cpp:127] Setting up fire5/expand3x3
I1029 12:04:18.878026  9851 net.cpp:136] Top shape: 128 128 28 28 (12845056)
I1029 12:04:18.878031  9851 net.cpp:144] Memory required for data: 3073947648
I1029 12:04:18.878037  9851 net.cpp:453] Found INQ layer:fire5/expand3x3, type: INQConvolution, layer id:34
I1029 12:04:18.878044  9851 net.cpp:453] Found INQ layer:fire5/expand3x3, type: INQConvolution, layer id:34
I1029 12:04:18.878051  9851 net.cpp:453] Found INQ layer:fire5/expand3x3, type: INQConvolution, layer id:34
I1029 12:04:18.878056  9851 net.cpp:453] Found INQ layer:fire5/expand3x3, type: INQConvolution, layer id:34
I1029 12:04:18.878062  9851 layer_factory.hpp:77] Creating layer fire5/relu_expand3x3
I1029 12:04:18.878070  9851 net.cpp:84] Creating Layer fire5/relu_expand3x3
I1029 12:04:18.878077  9851 net.cpp:413] fire5/relu_expand3x3 <- fire5/expand3x3
I1029 12:04:18.878083  9851 net.cpp:374] fire5/relu_expand3x3 -> fire5/expand3x3 (in-place)
I1029 12:04:18.879457  9851 net.cpp:127] Setting up fire5/relu_expand3x3
I1029 12:04:18.879477  9851 net.cpp:136] Top shape: 128 128 28 28 (12845056)
I1029 12:04:18.879488  9851 net.cpp:144] Memory required for data: 3125327872
I1029 12:04:18.879506  9851 layer_factory.hpp:77] Creating layer fire5/concat
I1029 12:04:18.879516  9851 net.cpp:84] Creating Layer fire5/concat
I1029 12:04:18.879526  9851 net.cpp:413] fire5/concat <- fire5/expand1x1
I1029 12:04:18.879534  9851 net.cpp:413] fire5/concat <- fire5/expand3x3
I1029 12:04:18.879540  9851 net.cpp:387] fire5/concat -> fire5/concat
I1029 12:04:18.879575  9851 net.cpp:127] Setting up fire5/concat
I1029 12:04:18.879585  9851 net.cpp:136] Top shape: 128 256 28 28 (25690112)
I1029 12:04:18.879590  9851 net.cpp:144] Memory required for data: 3228088320
I1029 12:04:18.879595  9851 layer_factory.hpp:77] Creating layer pool5
I1029 12:04:18.879603  9851 net.cpp:84] Creating Layer pool5
I1029 12:04:18.879609  9851 net.cpp:413] pool5 <- fire5/concat
I1029 12:04:18.879616  9851 net.cpp:387] pool5 -> pool5
I1029 12:04:18.879657  9851 net.cpp:127] Setting up pool5
I1029 12:04:18.879664  9851 net.cpp:136] Top shape: 128 256 14 14 (6422528)
I1029 12:04:18.879670  9851 net.cpp:144] Memory required for data: 3253778432
I1029 12:04:18.879675  9851 layer_factory.hpp:77] Creating layer fire6/squeeze1x1
I1029 12:04:18.879691  9851 net.cpp:84] Creating Layer fire6/squeeze1x1
I1029 12:04:18.879698  9851 net.cpp:413] fire6/squeeze1x1 <- pool5
I1029 12:04:18.879704  9851 net.cpp:387] fire6/squeeze1x1 -> fire6/squeeze1x1
I1029 12:04:18.880137  9851 net.cpp:127] Setting up fire6/squeeze1x1
I1029 12:04:18.880149  9851 net.cpp:136] Top shape: 128 48 14 14 (1204224)
I1029 12:04:18.880154  9851 net.cpp:144] Memory required for data: 3258595328
I1029 12:04:18.880162  9851 net.cpp:453] Found INQ layer:fire6/squeeze1x1, type: INQConvolution, layer id:38
I1029 12:04:18.880169  9851 net.cpp:453] Found INQ layer:fire6/squeeze1x1, type: INQConvolution, layer id:38
I1029 12:04:18.880175  9851 net.cpp:453] Found INQ layer:fire6/squeeze1x1, type: INQConvolution, layer id:38
I1029 12:04:18.880180  9851 net.cpp:453] Found INQ layer:fire6/squeeze1x1, type: INQConvolution, layer id:38
I1029 12:04:18.880185  9851 layer_factory.hpp:77] Creating layer fire6/relu_squeeze1x1
I1029 12:04:18.880197  9851 net.cpp:84] Creating Layer fire6/relu_squeeze1x1
I1029 12:04:18.880201  9851 net.cpp:413] fire6/relu_squeeze1x1 <- fire6/squeeze1x1
I1029 12:04:18.880208  9851 net.cpp:374] fire6/relu_squeeze1x1 -> fire6/squeeze1x1 (in-place)
I1029 12:04:18.880424  9851 net.cpp:127] Setting up fire6/relu_squeeze1x1
I1029 12:04:18.880439  9851 net.cpp:136] Top shape: 128 48 14 14 (1204224)
I1029 12:04:18.880445  9851 net.cpp:144] Memory required for data: 3263412224
I1029 12:04:18.880451  9851 layer_factory.hpp:77] Creating layer fire6/squeeze1x1_fire6/relu_squeeze1x1_0_split
I1029 12:04:18.880460  9851 net.cpp:84] Creating Layer fire6/squeeze1x1_fire6/relu_squeeze1x1_0_split
I1029 12:04:18.880465  9851 net.cpp:413] fire6/squeeze1x1_fire6/relu_squeeze1x1_0_split <- fire6/squeeze1x1
I1029 12:04:18.880472  9851 net.cpp:387] fire6/squeeze1x1_fire6/relu_squeeze1x1_0_split -> fire6/squeeze1x1_fire6/relu_squeeze1x1_0_split_0
I1029 12:04:18.880482  9851 net.cpp:387] fire6/squeeze1x1_fire6/relu_squeeze1x1_0_split -> fire6/squeeze1x1_fire6/relu_squeeze1x1_0_split_1
I1029 12:04:18.880547  9851 net.cpp:127] Setting up fire6/squeeze1x1_fire6/relu_squeeze1x1_0_split
I1029 12:04:18.880558  9851 net.cpp:136] Top shape: 128 48 14 14 (1204224)
I1029 12:04:18.880568  9851 net.cpp:136] Top shape: 128 48 14 14 (1204224)
I1029 12:04:18.880573  9851 net.cpp:144] Memory required for data: 3273046016
I1029 12:04:18.880578  9851 layer_factory.hpp:77] Creating layer fire6/expand1x1
I1029 12:04:18.880589  9851 net.cpp:84] Creating Layer fire6/expand1x1
I1029 12:04:18.880594  9851 net.cpp:413] fire6/expand1x1 <- fire6/squeeze1x1_fire6/relu_squeeze1x1_0_split_0
I1029 12:04:18.880605  9851 net.cpp:387] fire6/expand1x1 -> fire6/expand1x1
I1029 12:04:18.880993  9851 net.cpp:127] Setting up fire6/expand1x1
I1029 12:04:18.881005  9851 net.cpp:136] Top shape: 128 192 14 14 (4816896)
I1029 12:04:18.881016  9851 net.cpp:144] Memory required for data: 3292313600
I1029 12:04:18.881022  9851 net.cpp:453] Found INQ layer:fire6/expand1x1, type: INQConvolution, layer id:41
I1029 12:04:18.881042  9851 net.cpp:453] Found INQ layer:fire6/expand1x1, type: INQConvolution, layer id:41
I1029 12:04:18.881047  9851 net.cpp:453] Found INQ layer:fire6/expand1x1, type: INQConvolution, layer id:41
I1029 12:04:18.881054  9851 net.cpp:453] Found INQ layer:fire6/expand1x1, type: INQConvolution, layer id:41
I1029 12:04:18.881059  9851 layer_factory.hpp:77] Creating layer fire6/relu_expand1x1
I1029 12:04:18.881070  9851 net.cpp:84] Creating Layer fire6/relu_expand1x1
I1029 12:04:18.881076  9851 net.cpp:413] fire6/relu_expand1x1 <- fire6/expand1x1
I1029 12:04:18.881083  9851 net.cpp:374] fire6/relu_expand1x1 -> fire6/expand1x1 (in-place)
I1029 12:04:18.881289  9851 net.cpp:127] Setting up fire6/relu_expand1x1
I1029 12:04:18.881305  9851 net.cpp:136] Top shape: 128 192 14 14 (4816896)
I1029 12:04:18.881317  9851 net.cpp:144] Memory required for data: 3311581184
I1029 12:04:18.881323  9851 layer_factory.hpp:77] Creating layer fire6/expand3x3
I1029 12:04:18.881337  9851 net.cpp:84] Creating Layer fire6/expand3x3
I1029 12:04:18.881343  9851 net.cpp:413] fire6/expand3x3 <- fire6/squeeze1x1_fire6/relu_squeeze1x1_0_split_1
I1029 12:04:18.881352  9851 net.cpp:387] fire6/expand3x3 -> fire6/expand3x3
I1029 12:04:18.883651  9851 net.cpp:127] Setting up fire6/expand3x3
I1029 12:04:18.883672  9851 net.cpp:136] Top shape: 128 192 14 14 (4816896)
I1029 12:04:18.883678  9851 net.cpp:144] Memory required for data: 3330848768
I1029 12:04:18.883685  9851 net.cpp:453] Found INQ layer:fire6/expand3x3, type: INQConvolution, layer id:43
I1029 12:04:18.883692  9851 net.cpp:453] Found INQ layer:fire6/expand3x3, type: INQConvolution, layer id:43
I1029 12:04:18.883698  9851 net.cpp:453] Found INQ layer:fire6/expand3x3, type: INQConvolution, layer id:43
I1029 12:04:18.883705  9851 net.cpp:453] Found INQ layer:fire6/expand3x3, type: INQConvolution, layer id:43
I1029 12:04:18.883711  9851 layer_factory.hpp:77] Creating layer fire6/relu_expand3x3
I1029 12:04:18.883723  9851 net.cpp:84] Creating Layer fire6/relu_expand3x3
I1029 12:04:18.883730  9851 net.cpp:413] fire6/relu_expand3x3 <- fire6/expand3x3
I1029 12:04:18.883738  9851 net.cpp:374] fire6/relu_expand3x3 -> fire6/expand3x3 (in-place)
I1029 12:04:18.883965  9851 net.cpp:127] Setting up fire6/relu_expand3x3
I1029 12:04:18.883976  9851 net.cpp:136] Top shape: 128 192 14 14 (4816896)
I1029 12:04:18.883982  9851 net.cpp:144] Memory required for data: 3350116352
I1029 12:04:18.883988  9851 layer_factory.hpp:77] Creating layer fire6/concat
I1029 12:04:18.883996  9851 net.cpp:84] Creating Layer fire6/concat
I1029 12:04:18.884001  9851 net.cpp:413] fire6/concat <- fire6/expand1x1
I1029 12:04:18.884008  9851 net.cpp:413] fire6/concat <- fire6/expand3x3
I1029 12:04:18.884016  9851 net.cpp:387] fire6/concat -> fire6/concat
I1029 12:04:18.884049  9851 net.cpp:127] Setting up fire6/concat
I1029 12:04:18.884058  9851 net.cpp:136] Top shape: 128 384 14 14 (9633792)
I1029 12:04:18.884063  9851 net.cpp:144] Memory required for data: 3388651520
I1029 12:04:18.884069  9851 layer_factory.hpp:77] Creating layer fire7/squeeze1x1
I1029 12:04:18.884083  9851 net.cpp:84] Creating Layer fire7/squeeze1x1
I1029 12:04:18.884089  9851 net.cpp:413] fire7/squeeze1x1 <- fire6/concat
I1029 12:04:18.884099  9851 net.cpp:387] fire7/squeeze1x1 -> fire7/squeeze1x1
I1029 12:04:18.884578  9851 net.cpp:127] Setting up fire7/squeeze1x1
I1029 12:04:18.884591  9851 net.cpp:136] Top shape: 128 48 14 14 (1204224)
I1029 12:04:18.884596  9851 net.cpp:144] Memory required for data: 3393468416
I1029 12:04:18.884611  9851 net.cpp:453] Found INQ layer:fire7/squeeze1x1, type: INQConvolution, layer id:46
I1029 12:04:18.884624  9851 net.cpp:453] Found INQ layer:fire7/squeeze1x1, type: INQConvolution, layer id:46
I1029 12:04:18.884630  9851 net.cpp:453] Found INQ layer:fire7/squeeze1x1, type: INQConvolution, layer id:46
I1029 12:04:18.884639  9851 net.cpp:453] Found INQ layer:fire7/squeeze1x1, type: INQConvolution, layer id:46
I1029 12:04:18.884652  9851 layer_factory.hpp:77] Creating layer fire7/relu_squeeze1x1
I1029 12:04:18.884675  9851 net.cpp:84] Creating Layer fire7/relu_squeeze1x1
I1029 12:04:18.884681  9851 net.cpp:413] fire7/relu_squeeze1x1 <- fire7/squeeze1x1
I1029 12:04:18.884688  9851 net.cpp:374] fire7/relu_squeeze1x1 -> fire7/squeeze1x1 (in-place)
I1029 12:04:18.886071  9851 net.cpp:127] Setting up fire7/relu_squeeze1x1
I1029 12:04:18.886091  9851 net.cpp:136] Top shape: 128 48 14 14 (1204224)
I1029 12:04:18.886097  9851 net.cpp:144] Memory required for data: 3398285312
I1029 12:04:18.886103  9851 layer_factory.hpp:77] Creating layer fire7/squeeze1x1_fire7/relu_squeeze1x1_0_split
I1029 12:04:18.886111  9851 net.cpp:84] Creating Layer fire7/squeeze1x1_fire7/relu_squeeze1x1_0_split
I1029 12:04:18.886117  9851 net.cpp:413] fire7/squeeze1x1_fire7/relu_squeeze1x1_0_split <- fire7/squeeze1x1
I1029 12:04:18.886129  9851 net.cpp:387] fire7/squeeze1x1_fire7/relu_squeeze1x1_0_split -> fire7/squeeze1x1_fire7/relu_squeeze1x1_0_split_0
I1029 12:04:18.886140  9851 net.cpp:387] fire7/squeeze1x1_fire7/relu_squeeze1x1_0_split -> fire7/squeeze1x1_fire7/relu_squeeze1x1_0_split_1
I1029 12:04:18.886193  9851 net.cpp:127] Setting up fire7/squeeze1x1_fire7/relu_squeeze1x1_0_split
I1029 12:04:18.886201  9851 net.cpp:136] Top shape: 128 48 14 14 (1204224)
I1029 12:04:18.886207  9851 net.cpp:136] Top shape: 128 48 14 14 (1204224)
I1029 12:04:18.886212  9851 net.cpp:144] Memory required for data: 3407919104
I1029 12:04:18.886216  9851 layer_factory.hpp:77] Creating layer fire7/expand1x1
I1029 12:04:18.886230  9851 net.cpp:84] Creating Layer fire7/expand1x1
I1029 12:04:18.886236  9851 net.cpp:413] fire7/expand1x1 <- fire7/squeeze1x1_fire7/relu_squeeze1x1_0_split_0
I1029 12:04:18.886243  9851 net.cpp:387] fire7/expand1x1 -> fire7/expand1x1
I1029 12:04:18.886653  9851 net.cpp:127] Setting up fire7/expand1x1
I1029 12:04:18.886667  9851 net.cpp:136] Top shape: 128 192 14 14 (4816896)
I1029 12:04:18.886672  9851 net.cpp:144] Memory required for data: 3427186688
I1029 12:04:18.886678  9851 net.cpp:453] Found INQ layer:fire7/expand1x1, type: INQConvolution, layer id:49
I1029 12:04:18.886685  9851 net.cpp:453] Found INQ layer:fire7/expand1x1, type: INQConvolution, layer id:49
I1029 12:04:18.886693  9851 net.cpp:453] Found INQ layer:fire7/expand1x1, type: INQConvolution, layer id:49
I1029 12:04:18.886699  9851 net.cpp:453] Found INQ layer:fire7/expand1x1, type: INQConvolution, layer id:49
I1029 12:04:18.886705  9851 layer_factory.hpp:77] Creating layer fire7/relu_expand1x1
I1029 12:04:18.886718  9851 net.cpp:84] Creating Layer fire7/relu_expand1x1
I1029 12:04:18.886724  9851 net.cpp:413] fire7/relu_expand1x1 <- fire7/expand1x1
I1029 12:04:18.886731  9851 net.cpp:374] fire7/relu_expand1x1 -> fire7/expand1x1 (in-place)
I1029 12:04:18.886946  9851 net.cpp:127] Setting up fire7/relu_expand1x1
I1029 12:04:18.886958  9851 net.cpp:136] Top shape: 128 192 14 14 (4816896)
I1029 12:04:18.886965  9851 net.cpp:144] Memory required for data: 3446454272
I1029 12:04:18.886971  9851 layer_factory.hpp:77] Creating layer fire7/expand3x3
I1029 12:04:18.886986  9851 net.cpp:84] Creating Layer fire7/expand3x3
I1029 12:04:18.886991  9851 net.cpp:413] fire7/expand3x3 <- fire7/squeeze1x1_fire7/relu_squeeze1x1_0_split_1
I1029 12:04:18.886999  9851 net.cpp:387] fire7/expand3x3 -> fire7/expand3x3
I1029 12:04:18.887993  9851 net.cpp:127] Setting up fire7/expand3x3
I1029 12:04:18.888006  9851 net.cpp:136] Top shape: 128 192 14 14 (4816896)
I1029 12:04:18.888011  9851 net.cpp:144] Memory required for data: 3465721856
I1029 12:04:18.888018  9851 net.cpp:453] Found INQ layer:fire7/expand3x3, type: INQConvolution, layer id:51
I1029 12:04:18.888027  9851 net.cpp:453] Found INQ layer:fire7/expand3x3, type: INQConvolution, layer id:51
I1029 12:04:18.888036  9851 net.cpp:453] Found INQ layer:fire7/expand3x3, type: INQConvolution, layer id:51
I1029 12:04:18.888042  9851 net.cpp:453] Found INQ layer:fire7/expand3x3, type: INQConvolution, layer id:51
I1029 12:04:18.888053  9851 layer_factory.hpp:77] Creating layer fire7/relu_expand3x3
I1029 12:04:18.888073  9851 net.cpp:84] Creating Layer fire7/relu_expand3x3
I1029 12:04:18.888079  9851 net.cpp:413] fire7/relu_expand3x3 <- fire7/expand3x3
I1029 12:04:18.888089  9851 net.cpp:374] fire7/relu_expand3x3 -> fire7/expand3x3 (in-place)
I1029 12:04:18.888303  9851 net.cpp:127] Setting up fire7/relu_expand3x3
I1029 12:04:18.888315  9851 net.cpp:136] Top shape: 128 192 14 14 (4816896)
I1029 12:04:18.888322  9851 net.cpp:144] Memory required for data: 3484989440
I1029 12:04:18.888330  9851 layer_factory.hpp:77] Creating layer fire7/concat
I1029 12:04:18.888341  9851 net.cpp:84] Creating Layer fire7/concat
I1029 12:04:18.888348  9851 net.cpp:413] fire7/concat <- fire7/expand1x1
I1029 12:04:18.888355  9851 net.cpp:413] fire7/concat <- fire7/expand3x3
I1029 12:04:18.888360  9851 net.cpp:387] fire7/concat -> fire7/concat
I1029 12:04:18.888398  9851 net.cpp:127] Setting up fire7/concat
I1029 12:04:18.888414  9851 net.cpp:136] Top shape: 128 384 14 14 (9633792)
I1029 12:04:18.888420  9851 net.cpp:144] Memory required for data: 3523524608
I1029 12:04:18.888425  9851 layer_factory.hpp:77] Creating layer fire8/squeeze1x1
I1029 12:04:18.888437  9851 net.cpp:84] Creating Layer fire8/squeeze1x1
I1029 12:04:18.888449  9851 net.cpp:413] fire8/squeeze1x1 <- fire7/concat
I1029 12:04:18.888459  9851 net.cpp:387] fire8/squeeze1x1 -> fire8/squeeze1x1
I1029 12:04:18.888974  9851 net.cpp:127] Setting up fire8/squeeze1x1
I1029 12:04:18.888985  9851 net.cpp:136] Top shape: 128 64 14 14 (1605632)
I1029 12:04:18.888990  9851 net.cpp:144] Memory required for data: 3529947136
I1029 12:04:18.888998  9851 net.cpp:453] Found INQ layer:fire8/squeeze1x1, type: INQConvolution, layer id:54
I1029 12:04:18.889004  9851 net.cpp:453] Found INQ layer:fire8/squeeze1x1, type: INQConvolution, layer id:54
I1029 12:04:18.889009  9851 net.cpp:453] Found INQ layer:fire8/squeeze1x1, type: INQConvolution, layer id:54
I1029 12:04:18.889015  9851 net.cpp:453] Found INQ layer:fire8/squeeze1x1, type: INQConvolution, layer id:54
I1029 12:04:18.889020  9851 layer_factory.hpp:77] Creating layer fire8/relu_squeeze1x1
I1029 12:04:18.889029  9851 net.cpp:84] Creating Layer fire8/relu_squeeze1x1
I1029 12:04:18.889034  9851 net.cpp:413] fire8/relu_squeeze1x1 <- fire8/squeeze1x1
I1029 12:04:18.889040  9851 net.cpp:374] fire8/relu_squeeze1x1 -> fire8/squeeze1x1 (in-place)
I1029 12:04:18.890426  9851 net.cpp:127] Setting up fire8/relu_squeeze1x1
I1029 12:04:18.890445  9851 net.cpp:136] Top shape: 128 64 14 14 (1605632)
I1029 12:04:18.890451  9851 net.cpp:144] Memory required for data: 3536369664
I1029 12:04:18.890456  9851 layer_factory.hpp:77] Creating layer fire8/squeeze1x1_fire8/relu_squeeze1x1_0_split
I1029 12:04:18.890466  9851 net.cpp:84] Creating Layer fire8/squeeze1x1_fire8/relu_squeeze1x1_0_split
I1029 12:04:18.890472  9851 net.cpp:413] fire8/squeeze1x1_fire8/relu_squeeze1x1_0_split <- fire8/squeeze1x1
I1029 12:04:18.890482  9851 net.cpp:387] fire8/squeeze1x1_fire8/relu_squeeze1x1_0_split -> fire8/squeeze1x1_fire8/relu_squeeze1x1_0_split_0
I1029 12:04:18.890496  9851 net.cpp:387] fire8/squeeze1x1_fire8/relu_squeeze1x1_0_split -> fire8/squeeze1x1_fire8/relu_squeeze1x1_0_split_1
I1029 12:04:18.890547  9851 net.cpp:127] Setting up fire8/squeeze1x1_fire8/relu_squeeze1x1_0_split
I1029 12:04:18.890557  9851 net.cpp:136] Top shape: 128 64 14 14 (1605632)
I1029 12:04:18.890563  9851 net.cpp:136] Top shape: 128 64 14 14 (1605632)
I1029 12:04:18.890566  9851 net.cpp:144] Memory required for data: 3549214720
I1029 12:04:18.890573  9851 layer_factory.hpp:77] Creating layer fire8/expand1x1
I1029 12:04:18.890586  9851 net.cpp:84] Creating Layer fire8/expand1x1
I1029 12:04:18.890591  9851 net.cpp:413] fire8/expand1x1 <- fire8/squeeze1x1_fire8/relu_squeeze1x1_0_split_0
I1029 12:04:18.890601  9851 net.cpp:387] fire8/expand1x1 -> fire8/expand1x1
I1029 12:04:18.891049  9851 net.cpp:127] Setting up fire8/expand1x1
I1029 12:04:18.891062  9851 net.cpp:136] Top shape: 128 256 14 14 (6422528)
I1029 12:04:18.891072  9851 net.cpp:144] Memory required for data: 3574904832
I1029 12:04:18.891094  9851 net.cpp:453] Found INQ layer:fire8/expand1x1, type: INQConvolution, layer id:57
I1029 12:04:18.891103  9851 net.cpp:453] Found INQ layer:fire8/expand1x1, type: INQConvolution, layer id:57
I1029 12:04:18.891110  9851 net.cpp:453] Found INQ layer:fire8/expand1x1, type: INQConvolution, layer id:57
I1029 12:04:18.891115  9851 net.cpp:453] Found INQ layer:fire8/expand1x1, type: INQConvolution, layer id:57
I1029 12:04:18.891120  9851 layer_factory.hpp:77] Creating layer fire8/relu_expand1x1
I1029 12:04:18.891130  9851 net.cpp:84] Creating Layer fire8/relu_expand1x1
I1029 12:04:18.891135  9851 net.cpp:413] fire8/relu_expand1x1 <- fire8/expand1x1
I1029 12:04:18.891142  9851 net.cpp:374] fire8/relu_expand1x1 -> fire8/expand1x1 (in-place)
I1029 12:04:18.891357  9851 net.cpp:127] Setting up fire8/relu_expand1x1
I1029 12:04:18.891371  9851 net.cpp:136] Top shape: 128 256 14 14 (6422528)
I1029 12:04:18.891376  9851 net.cpp:144] Memory required for data: 3600594944
I1029 12:04:18.891384  9851 layer_factory.hpp:77] Creating layer fire8/expand3x3
I1029 12:04:18.891399  9851 net.cpp:84] Creating Layer fire8/expand3x3
I1029 12:04:18.891405  9851 net.cpp:413] fire8/expand3x3 <- fire8/squeeze1x1_fire8/relu_squeeze1x1_0_split_1
I1029 12:04:18.891413  9851 net.cpp:387] fire8/expand3x3 -> fire8/expand3x3
I1029 12:04:18.894207  9851 net.cpp:127] Setting up fire8/expand3x3
I1029 12:04:18.894227  9851 net.cpp:136] Top shape: 128 256 14 14 (6422528)
I1029 12:04:18.894233  9851 net.cpp:144] Memory required for data: 3626285056
I1029 12:04:18.894240  9851 net.cpp:453] Found INQ layer:fire8/expand3x3, type: INQConvolution, layer id:59
I1029 12:04:18.894248  9851 net.cpp:453] Found INQ layer:fire8/expand3x3, type: INQConvolution, layer id:59
I1029 12:04:18.894253  9851 net.cpp:453] Found INQ layer:fire8/expand3x3, type: INQConvolution, layer id:59
I1029 12:04:18.894260  9851 net.cpp:453] Found INQ layer:fire8/expand3x3, type: INQConvolution, layer id:59
I1029 12:04:18.894268  9851 layer_factory.hpp:77] Creating layer fire8/relu_expand3x3
I1029 12:04:18.894279  9851 net.cpp:84] Creating Layer fire8/relu_expand3x3
I1029 12:04:18.894284  9851 net.cpp:413] fire8/relu_expand3x3 <- fire8/expand3x3
I1029 12:04:18.894294  9851 net.cpp:374] fire8/relu_expand3x3 -> fire8/expand3x3 (in-place)
I1029 12:04:18.894522  9851 net.cpp:127] Setting up fire8/relu_expand3x3
I1029 12:04:18.894536  9851 net.cpp:136] Top shape: 128 256 14 14 (6422528)
I1029 12:04:18.894543  9851 net.cpp:144] Memory required for data: 3651975168
I1029 12:04:18.894548  9851 layer_factory.hpp:77] Creating layer fire8/concat
I1029 12:04:18.894556  9851 net.cpp:84] Creating Layer fire8/concat
I1029 12:04:18.894564  9851 net.cpp:413] fire8/concat <- fire8/expand1x1
I1029 12:04:18.894570  9851 net.cpp:413] fire8/concat <- fire8/expand3x3
I1029 12:04:18.894577  9851 net.cpp:387] fire8/concat -> fire8/concat
I1029 12:04:18.894611  9851 net.cpp:127] Setting up fire8/concat
I1029 12:04:18.894619  9851 net.cpp:136] Top shape: 128 512 14 14 (12845056)
I1029 12:04:18.894624  9851 net.cpp:144] Memory required for data: 3703355392
I1029 12:04:18.894629  9851 layer_factory.hpp:77] Creating layer fire9/squeeze1x1
I1029 12:04:18.894644  9851 net.cpp:84] Creating Layer fire9/squeeze1x1
I1029 12:04:18.894650  9851 net.cpp:413] fire9/squeeze1x1 <- fire8/concat
I1029 12:04:18.894659  9851 net.cpp:387] fire9/squeeze1x1 -> fire9/squeeze1x1
I1029 12:04:18.895261  9851 net.cpp:127] Setting up fire9/squeeze1x1
I1029 12:04:18.895272  9851 net.cpp:136] Top shape: 128 64 14 14 (1605632)
I1029 12:04:18.895278  9851 net.cpp:144] Memory required for data: 3709777920
I1029 12:04:18.895285  9851 net.cpp:453] Found INQ layer:fire9/squeeze1x1, type: INQConvolution, layer id:62
I1029 12:04:18.895292  9851 net.cpp:453] Found INQ layer:fire9/squeeze1x1, type: INQConvolution, layer id:62
I1029 12:04:18.895304  9851 net.cpp:453] Found INQ layer:fire9/squeeze1x1, type: INQConvolution, layer id:62
I1029 12:04:18.895311  9851 net.cpp:453] Found INQ layer:fire9/squeeze1x1, type: INQConvolution, layer id:62
I1029 12:04:18.895339  9851 layer_factory.hpp:77] Creating layer fire9/relu_squeeze1x1
I1029 12:04:18.895349  9851 net.cpp:84] Creating Layer fire9/relu_squeeze1x1
I1029 12:04:18.895356  9851 net.cpp:413] fire9/relu_squeeze1x1 <- fire9/squeeze1x1
I1029 12:04:18.895364  9851 net.cpp:374] fire9/relu_squeeze1x1 -> fire9/squeeze1x1 (in-place)
I1029 12:04:18.895576  9851 net.cpp:127] Setting up fire9/relu_squeeze1x1
I1029 12:04:18.895588  9851 net.cpp:136] Top shape: 128 64 14 14 (1605632)
I1029 12:04:18.895594  9851 net.cpp:144] Memory required for data: 3716200448
I1029 12:04:18.895601  9851 layer_factory.hpp:77] Creating layer fire9/squeeze1x1_fire9/relu_squeeze1x1_0_split
I1029 12:04:18.895619  9851 net.cpp:84] Creating Layer fire9/squeeze1x1_fire9/relu_squeeze1x1_0_split
I1029 12:04:18.895627  9851 net.cpp:413] fire9/squeeze1x1_fire9/relu_squeeze1x1_0_split <- fire9/squeeze1x1
I1029 12:04:18.895633  9851 net.cpp:387] fire9/squeeze1x1_fire9/relu_squeeze1x1_0_split -> fire9/squeeze1x1_fire9/relu_squeeze1x1_0_split_0
I1029 12:04:18.895642  9851 net.cpp:387] fire9/squeeze1x1_fire9/relu_squeeze1x1_0_split -> fire9/squeeze1x1_fire9/relu_squeeze1x1_0_split_1
I1029 12:04:18.895694  9851 net.cpp:127] Setting up fire9/squeeze1x1_fire9/relu_squeeze1x1_0_split
I1029 12:04:18.895704  9851 net.cpp:136] Top shape: 128 64 14 14 (1605632)
I1029 12:04:18.895710  9851 net.cpp:136] Top shape: 128 64 14 14 (1605632)
I1029 12:04:18.895715  9851 net.cpp:144] Memory required for data: 3729045504
I1029 12:04:18.895720  9851 layer_factory.hpp:77] Creating layer fire9/expand1x1
I1029 12:04:18.895732  9851 net.cpp:84] Creating Layer fire9/expand1x1
I1029 12:04:18.895738  9851 net.cpp:413] fire9/expand1x1 <- fire9/squeeze1x1_fire9/relu_squeeze1x1_0_split_0
I1029 12:04:18.895747  9851 net.cpp:387] fire9/expand1x1 -> fire9/expand1x1
I1029 12:04:18.896191  9851 net.cpp:127] Setting up fire9/expand1x1
I1029 12:04:18.896203  9851 net.cpp:136] Top shape: 128 256 14 14 (6422528)
I1029 12:04:18.896208  9851 net.cpp:144] Memory required for data: 3754735616
I1029 12:04:18.896214  9851 net.cpp:453] Found INQ layer:fire9/expand1x1, type: INQConvolution, layer id:65
I1029 12:04:18.896224  9851 net.cpp:453] Found INQ layer:fire9/expand1x1, type: INQConvolution, layer id:65
I1029 12:04:18.896230  9851 net.cpp:453] Found INQ layer:fire9/expand1x1, type: INQConvolution, layer id:65
I1029 12:04:18.896235  9851 net.cpp:453] Found INQ layer:fire9/expand1x1, type: INQConvolution, layer id:65
I1029 12:04:18.896240  9851 layer_factory.hpp:77] Creating layer fire9/relu_expand1x1
I1029 12:04:18.896250  9851 net.cpp:84] Creating Layer fire9/relu_expand1x1
I1029 12:04:18.896255  9851 net.cpp:413] fire9/relu_expand1x1 <- fire9/expand1x1
I1029 12:04:18.896263  9851 net.cpp:374] fire9/relu_expand1x1 -> fire9/expand1x1 (in-place)
I1029 12:04:18.897653  9851 net.cpp:127] Setting up fire9/relu_expand1x1
I1029 12:04:18.897671  9851 net.cpp:136] Top shape: 128 256 14 14 (6422528)
I1029 12:04:18.897680  9851 net.cpp:144] Memory required for data: 3780425728
I1029 12:04:18.897687  9851 layer_factory.hpp:77] Creating layer fire9/expand3x3
I1029 12:04:18.897701  9851 net.cpp:84] Creating Layer fire9/expand3x3
I1029 12:04:18.897707  9851 net.cpp:413] fire9/expand3x3 <- fire9/squeeze1x1_fire9/relu_squeeze1x1_0_split_1
I1029 12:04:18.897717  9851 net.cpp:387] fire9/expand3x3 -> fire9/expand3x3
I1029 12:04:18.899222  9851 net.cpp:127] Setting up fire9/expand3x3
I1029 12:04:18.899236  9851 net.cpp:136] Top shape: 128 256 14 14 (6422528)
I1029 12:04:18.899241  9851 net.cpp:144] Memory required for data: 3806115840
I1029 12:04:18.899248  9851 net.cpp:453] Found INQ layer:fire9/expand3x3, type: INQConvolution, layer id:67
I1029 12:04:18.899258  9851 net.cpp:453] Found INQ layer:fire9/expand3x3, type: INQConvolution, layer id:67
I1029 12:04:18.899268  9851 net.cpp:453] Found INQ layer:fire9/expand3x3, type: INQConvolution, layer id:67
I1029 12:04:18.899274  9851 net.cpp:453] Found INQ layer:fire9/expand3x3, type: INQConvolution, layer id:67
I1029 12:04:18.899286  9851 layer_factory.hpp:77] Creating layer fire9/relu_expand3x3
I1029 12:04:18.899317  9851 net.cpp:84] Creating Layer fire9/relu_expand3x3
I1029 12:04:18.899323  9851 net.cpp:413] fire9/relu_expand3x3 <- fire9/expand3x3
I1029 12:04:18.899330  9851 net.cpp:374] fire9/relu_expand3x3 -> fire9/expand3x3 (in-place)
I1029 12:04:18.899538  9851 net.cpp:127] Setting up fire9/relu_expand3x3
I1029 12:04:18.899550  9851 net.cpp:136] Top shape: 128 256 14 14 (6422528)
I1029 12:04:18.899557  9851 net.cpp:144] Memory required for data: 3831805952
I1029 12:04:18.899564  9851 layer_factory.hpp:77] Creating layer fire9/concat
I1029 12:04:18.899574  9851 net.cpp:84] Creating Layer fire9/concat
I1029 12:04:18.899580  9851 net.cpp:413] fire9/concat <- fire9/expand1x1
I1029 12:04:18.899586  9851 net.cpp:413] fire9/concat <- fire9/expand3x3
I1029 12:04:18.899592  9851 net.cpp:387] fire9/concat -> fire9/concat
I1029 12:04:18.899627  9851 net.cpp:127] Setting up fire9/concat
I1029 12:04:18.899636  9851 net.cpp:136] Top shape: 128 512 14 14 (12845056)
I1029 12:04:18.899641  9851 net.cpp:144] Memory required for data: 3883186176
I1029 12:04:18.899647  9851 layer_factory.hpp:77] Creating layer drop9
I1029 12:04:18.899658  9851 net.cpp:84] Creating Layer drop9
I1029 12:04:18.899664  9851 net.cpp:413] drop9 <- fire9/concat
I1029 12:04:18.899674  9851 net.cpp:374] drop9 -> fire9/concat (in-place)
I1029 12:04:18.899708  9851 net.cpp:127] Setting up drop9
I1029 12:04:18.899716  9851 net.cpp:136] Top shape: 128 512 14 14 (12845056)
I1029 12:04:18.899722  9851 net.cpp:144] Memory required for data: 3934566400
I1029 12:04:18.899727  9851 layer_factory.hpp:77] Creating layer conv10
I1029 12:04:18.899741  9851 net.cpp:84] Creating Layer conv10
I1029 12:04:18.899746  9851 net.cpp:413] conv10 <- fire9/concat
I1029 12:04:18.899755  9851 net.cpp:387] conv10 -> conv10
I1029 12:04:18.909247  9851 net.cpp:127] Setting up conv10
I1029 12:04:18.909270  9851 net.cpp:136] Top shape: 128 1000 14 14 (25088000)
I1029 12:04:18.909281  9851 net.cpp:144] Memory required for data: 4034918400
I1029 12:04:18.909289  9851 net.cpp:453] Found INQ layer:conv10, type: INQConvolution, layer id:71
I1029 12:04:18.909302  9851 net.cpp:453] Found INQ layer:conv10, type: INQConvolution, layer id:71
I1029 12:04:18.909309  9851 net.cpp:453] Found INQ layer:conv10, type: INQConvolution, layer id:71
I1029 12:04:18.909315  9851 net.cpp:453] Found INQ layer:conv10, type: INQConvolution, layer id:71
I1029 12:04:18.909320  9851 layer_factory.hpp:77] Creating layer relu_conv10
I1029 12:04:18.909332  9851 net.cpp:84] Creating Layer relu_conv10
I1029 12:04:18.909337  9851 net.cpp:413] relu_conv10 <- conv10
I1029 12:04:18.909345  9851 net.cpp:374] relu_conv10 -> conv10 (in-place)
I1029 12:04:18.909574  9851 net.cpp:127] Setting up relu_conv10
I1029 12:04:18.909588  9851 net.cpp:136] Top shape: 128 1000 14 14 (25088000)
I1029 12:04:18.909595  9851 net.cpp:144] Memory required for data: 4135270400
I1029 12:04:18.909601  9851 layer_factory.hpp:77] Creating layer pool10
I1029 12:04:18.909612  9851 net.cpp:84] Creating Layer pool10
I1029 12:04:18.909618  9851 net.cpp:413] pool10 <- conv10
I1029 12:04:18.909627  9851 net.cpp:387] pool10 -> pool10
I1029 12:04:18.909874  9851 net.cpp:127] Setting up pool10
I1029 12:04:18.909888  9851 net.cpp:136] Top shape: 128 1000 1 1 (128000)
I1029 12:04:18.909894  9851 net.cpp:144] Memory required for data: 4135782400
I1029 12:04:18.909899  9851 layer_factory.hpp:77] Creating layer loss
I1029 12:04:18.909910  9851 net.cpp:84] Creating Layer loss
I1029 12:04:18.909916  9851 net.cpp:413] loss <- pool10
I1029 12:04:18.909922  9851 net.cpp:413] loss <- label
I1029 12:04:18.909934  9851 net.cpp:387] loss -> loss
I1029 12:04:18.909950  9851 layer_factory.hpp:77] Creating layer loss
…
I1029 12:04:18.915433  9851 net.cpp:301] The NetState phase (1) differed from the phase (0) specified by a rule in layer data
I1029 12:04:18.916188  9851 net.cpp:51] Initializing net from parameters: 
name: "SqueezeNet"
state {
  phase: TEST
}
layer {
  name: "data"
  type: "Data"
  top: "data"
  top: "label"
  include {
    phase: TEST
  }
  transform_param {
    crop_size: 227
    mean_value: 104
    mean_value: 117
    mean_value: 123
  }
  data_param {
    source: "/home/data/caffe-imagenet/ilsvrc12_val_lmdb"
    batch_size: 50
    backend: LMDB
  }
}
layer {
  name: "conv1"
  type: "INQConvolution"
  bottom: "data"
  top: "conv1"
  convolution_param {
    num_output: 64
    kernel_size: 3
    stride: 2
    weight_filler {
      type: "xavier"
    }
  }
  inq_convolution_param {
    portion: 0.4
    portion: 0.6
    weight_mask_filler {
      type: "constant"
      value: 1
    }
    bias_mask_filler {
      type: "constant"
      value: 1
    }
    num_quantum_values: 7
  }
}
layer {
  name: "relu_conv1"
  type: "ReLU"
  bottom: "conv1"
  top: "conv1"
}
layer {
  name: "pool1"
  type: "Pooling"
  bottom: "conv1"
  top: "pool1"
  pooling_param {
    pool: MAX
    kernel_size: 3
    stride: 2
  }
}
layer {
  name: "fire2/squeeze1x1"
  type: "INQConvolution"
  bottom: "pool1"
  top: "fire2/squeeze1x1"
  convolution_param {
    num_output: 16
    kernel_size: 1
    weight_filler {
      type: "xavier"
    }
  }
  inq_convolution_param {
    portion: 0.4
    portion: 0.6
    weight_mask_filler {
      type: "constant"
      value: 1
    }
    bias_mask_filler {
      type: "constant"
      value: 1
    }
    num_quantum_values: 7
  }
}
layer {
  name: "fire2/relu_squeeze1x1"
  type: "ReLU"
  bottom: "fire2/squeeze1x1"
  top: "fire2/squeeze1x1"
}
layer {
  name: "fire2/expand1x1"
  type: "INQConvolution"
  bottom: "fire2/squeeze1x1"
  top: "fire2/expand1x1"
  convolution_param {
    num_output: 64
    kernel_size: 1
    weight_filler {
      type: "xavier"
    }
  }
  inq_convolution_param {
    portion: 0.4
    portion: 0.6
    weight_mask_filler {
      type: "constant"
      value: 1
    }
    bias_mask_filler {
      type: "constant"
      value: 1
    }
    num_quantum_values: 7
  }
}
layer {
  name: "fire2/relu_expand1x1"
  type: "ReLU"
  bottom: "fire2/expand1x1"
  top: "fire2/expand1x1"
}
layer {
  name: "fire2/expand3x3"
  type: "INQConvolution"
  bottom: "fire2/squeeze1x1"
  top: "fire2/expand3x3"
  convolution_param {
    num_output: 64
    pad: 1
    kernel_size: 3
    weight_filler {
      type: "xavier"
    }
  }
  inq_convolution_param {
    portion: 0.4
    portion: 0.6
    weight_mask_filler {
      type: "constant"
      value: 1
    }
    bias_mask_filler {
      type: "constant"
      value: 1
    }
    num_quantum_values: 7
  }
}
layer {
  name: "fire2/relu_expand3x3"
  type: "ReLU"
  bottom: "fire2/expand3x3"
  top: "fire2/expand3x3"
}
layer {
  name: "fire2/concat"
  type: "Concat"
  bottom: "fire2/expand1x1"
  bottom: "fire2/expand3x3"
  top: "fire2/concat"
}
layer {
  name: "fire3/squeeze1x1"
  type: "INQConvolution"
  bottom: "fire2/concat"
  top: "fire3/squeeze1x1"
  convolution_param {
    num_output: 16
    kernel_size: 1
    weight_filler {
      type: "xavier"
    }
  }
  inq_convolution_param {
    portion: 0.4
    portion: 0.6
    weight_mask_filler {
      type: "constant"
      value: 1
    }
    bias_mask_filler {
      type: "constant"
      value: 1
    }
    num_quantum_values: 7
  }
}
layer {
  name: "fire3/relu_squeeze1x1"
  type: "ReLU"
  bottom: "fire3/squeeze1x1"
  top: "fire3/squeeze1x1"
}
layer {
  name: "fire3/expand1x1"
  type: "INQConvolution"
  bottom: "fire3/squeeze1x1"
  top: "fire3/expand1x1"
  convolution_param {
    num_output: 64
    kernel_size: 1
    weight_filler {
      type: "xavier"
    }
  }
  inq_convolution_param {
    portion: 0.4
    portion: 0.6
    weight_mask_filler {
      type: "constant"
      value: 1
    }
    bias_mask_filler {
      type: "constant"
      value: 1
    }
    num_quantum_values: 7
  }
}
layer {
  name: "fire3/relu_expand1x1"
  type: "ReLU"
  bottom: "fire3/expand1x1"
  top: "fire3/expand1x1"
}
layer {
  name: "fire3/expand3x3"
  type: "INQConvolution"
  bottom: "fire3/squeeze1x1"
  top: "fire3/expand3x3"
  convolution_param {
    num_output: 64
    pad: 1
    kernel_size: 3
    weight_filler {
      type: "xavier"
    }
  }
  inq_convolution_param {
    portion: 0.4
    portion: 0.6
    weight_mask_filler {
      type: "constant"
      value: 1
    }
    bias_mask_filler {
      type: "constant"
      value: 1
    }
    num_quantum_values: 7
  }
}
layer {
  name: "fire3/relu_expand3x3"
  type: "ReLU"
  bottom: "fire3/expand3x3"
  top: "fire3/expand3x3"
}
layer {
  name: "fire3/concat"
  type: "Concat"
  bottom: "fire3/expand1x1"
  bottom: "fire3/expand3x3"
  top: "fire3/concat"
}
layer {
  name: "pool3"
  type: "Pooling"
  bottom: "fire3/concat"
  top: "pool3"
  pooling_param {
    pool: MAX
    kernel_size: 3
    stride: 2
  }
}
layer {
  name: "fire4/squeeze1x1"
  type: "INQConvolution"
  bottom: "pool3"
  top: "fire4/squeeze1x1"
  convolution_param {
    num_output: 32
    kernel_size: 1
    weight_filler {
      type: "xavier"
    }
  }
  inq_convolution_param {
    portion: 0.4
    portion: 0.6
    weight_mask_filler {
      type: "constant"
      value: 1
    }
    bias_mask_filler {
      type: "constant"
      value: 1
    }
    num_quantum_values: 7
  }
}
layer {
  name: "fire4/relu_squeeze1x1"
  type: "ReLU"
  bottom: "fire4/squeeze1x1"
  top: "fire4/squeeze1x1"
}
layer {
  name: "fire4/expand1x1"
  type: "INQConvolution"
  bottom: "fire4/squeeze1x1"
  top: "fire4/expand1x1"
  convolution_param {
    num_output: 128
    kernel_size: 1
    weight_filler {
      type: "xavier"
    }
  }
  inq_convolution_param {
    portion: 0.4
    portion: 0.6
    weight_mask_filler {
      type: "constant"
      value: 1
    }
    bias_mask_filler {
      type: "constant"
      value: 1
    }
    num_quantum_values: 7
  }
}
layer {
  name: "fire4/relu_expand1x1"
  type: "ReLU"
  bottom: "fire4/expand1x1"
  top: "fire4/expand1x1"
}
layer {
  name: "fire4/expand3x3"
  type: "INQConvolution"
  bottom: "fire4/squeeze1x1"
  top: "fire4/expand3x3"
  convolution_param {
    num_output: 128
    pad: 1
    kernel_size: 3
    weight_filler {
      type: "xavier"
    }
  }
  inq_convolution_param {
    portion: 0.4
    portion: 0.6
    weight_mask_filler {
      type: "constant"
      value: 1
    }
    bias_mask_filler {
      type: "constant"
      value: 1
    }
    num_quantum_values: 7
  }
}
layer {
  name: "fire4/relu_expand3x3"
  type: "ReLU"
  bottom: "fire4/expand3x3"
  top: "fire4/expand3x3"
}
layer {
  name: "fire4/concat"
  type: "Concat"
  bottom: "fire4/expand1x1"
  bottom: "fire4/expand3x3"
  top: "fire4/concat"
}
layer {
  name: "fire5/squeeze1x1"
  type: "INQConvolution"
  bottom: "fire4/concat"
  top: "fire5/squeeze1x1"
  convolution_param {
    num_output: 32
    kernel_size: 1
    weight_filler {
      type: "xavier"
    }
  }
  inq_convolution_param {
    portion: 0.4
    portion: 0.6
    weight_mask_filler {
      type: "constant"
      value: 1
    }
    bias_mask_filler {
      type: "constant"
      value: 1
    }
    num_quantum_values: 7
  }
}
layer {
  name: "fire5/relu_squeeze1x1"
  type: "ReLU"
  bottom: "fire5/squeeze1x1"
  top: "fire5/squeeze1x1"
}
layer {
  name: "fire5/expand1x1"
  type: "INQConvolution"
  bottom: "fire5/squeeze1x1"
  top: "fire5/expand1x1"
  convolution_param {
    num_output: 128
    kernel_size: 1
    weight_filler {
      type: "xavier"
    }
  }
  inq_convolution_param {
    portion: 0.4
    portion: 0.6
    weight_mask_filler {
      type: "constant"
      value: 1
    }
    bias_mask_filler {
      type: "constant"
      value: 1
    }
    num_quantum_values: 7
  }
}
layer {
  name: "fire5/relu_expand1x1"
  type: "ReLU"
  bottom: "fire5/expand1x1"
  top: "fire5/expand1x1"
}
layer {
  name: "fire5/expand3x3"
  type: "INQConvolution"
  bottom: "fire5/squeeze1x1"
  top: "fire5/expand3x3"
  convolution_param {
    num_output: 128
    pad: 1
    kernel_size: 3
    weight_filler {
      type: "xavier"
    }
  }
  inq_convolution_param {
    portion: 0.4
    portion: 0.6
    weight_mask_filler {
      type: "constant"
      value: 1
    }
    bias_mask_filler {
      type: "constant"
      value: 1
    }
    num_quantum_values: 7
  }
}
layer {
  name: "fire5/relu_expand3x3"
  type: "ReLU"
  bottom: "fire5/expand3x3"
  top: "fire5/expand3x3"
}
layer {
  name: "fire5/concat"
  type: "Concat"
  bottom: "fire5/expand1x1"
  bottom: "fire5/expand3x3"
  top: "fire5/concat"
}
layer {
  name: "pool5"
  type: "Pooling"
  bottom: "fire5/concat"
  top: "pool5"
  pooling_param {
    pool: MAX
    kernel_size: 3
    stride: 2
  }
}
layer {
  name: "fire6/squeeze1x1"
  type: "INQConvolution"
  bottom: "pool5"
  top: "fire6/squeeze1x1"
  convolution_param {
    num_output: 48
    kernel_size: 1
    weight_filler {
      type: "xavier"
    }
  }
  inq_convolution_param {
    portion: 0.4
    portion: 0.6
    weight_mask_filler {
      type: "constant"
      value: 1
    }
    bias_mask_filler {
      type: "constant"
      value: 1
    }
    num_quantum_values: 7
  }
}
layer {
  name: "fire6/relu_squeeze1x1"
  type: "ReLU"
  bottom: "fire6/squeeze1x1"
  top: "fire6/squeeze1x1"
}
layer {
  name: "fire6/expand1x1"
  type: "INQConvolution"
  bottom: "fire6/squeeze1x1"
  top: "fire6/expand1x1"
  convolution_param {
    num_output: 192
    kernel_size: 1
    weight_filler {
      type: "xavier"
    }
  }
  inq_convolution_param {
    portion: 0.4
    portion: 0.6
    weight_mask_filler {
      type: "constant"
      value: 1
    }
    bias_mask_filler {
      type: "constant"
      value: 1
    }
    num_quantum_values: 7
  }
}
layer {
  name: "fire6/relu_expand1x1"
  type: "ReLU"
  bottom: "fire6/expand1x1"
  top: "fire6/expand1x1"
}
layer {
  name: "fire6/expand3x3"
  type: "INQConvolution"
  bottom: "fire6/squeeze1x1"
  top: "fire6/expand3x3"
  convolution_param {
    num_output: 192
    pad: 1
    kernel_size: 3
    weight_filler {
      type: "xavier"
    }
  }
  inq_convolution_param {
    portion: 0.4
    portion: 0.6
    weight_mask_filler {
      type: "constant"
      value: 1
    }
    bias_mask_filler {
      type: "constant"
      value: 1
    }
    num_quantum_values: 7
  }
}
layer {
  name: "fire6/relu_expand3x3"
  type: "ReLU"
  bottom: "fire6/expand3x3"
  top: "fire6/expand3x3"
}
layer {
  name: "fire6/concat"
  type: "Concat"
  bottom: "fire6/expand1x1"
  bottom: "fire6/expand3x3"
  top: "fire6/concat"
}
layer {
  name: "fire7/squeeze1x1"
  type: "INQConvolution"
  bottom: "fire6/concat"
  top: "fire7/squeeze1x1"
  convolution_param {
    num_output: 48
    kernel_size: 1
    weight_filler {
      type: "xavier"
    }
  }
  inq_convolution_param {
    portion: 0.4
    portion: 0.6
    weight_mask_filler {
      type: "constant"
      value: 1
    }
    bias_mask_filler {
      type: "constant"
      value: 1
    }
    num_quantum_values: 7
  }
}
layer {
  name: "fire7/relu_squeeze1x1"
  type: "ReLU"
  bottom: "fire7/squeeze1x1"
  top: "fire7/squeeze1x1"
}
layer {
  name: "fire7/expand1x1"
  type: "INQConvolution"
  bottom: "fire7/squeeze1x1"
  top: "fire7/expand1x1"
  convolution_param {
    num_output: 192
    kernel_size: 1
    weight_filler {
      type: "xavier"
    }
  }
  inq_convolution_param {
    portion: 0.4
    portion: 0.6
    weight_mask_filler {
      type: "constant"
      value: 1
    }
    bias_mask_filler {
      type: "constant"
      value: 1
    }
    num_quantum_values: 7
  }
}
layer {
  name: "fire7/relu_expand1x1"
  type: "ReLU"
  bottom: "fire7/expand1x1"
  top: "fire7/expand1x1"
}
layer {
  name: "fire7/expand3x3"
  type: "INQConvolution"
  bottom: "fire7/squeeze1x1"
  top: "fire7/expand3x3"
  convolution_param {
    num_output: 192
    pad: 1
    kernel_size: 3
    weight_filler {
      type: "xavier"
    }
  }
  inq_convolution_param {
    portion: 0.4
    portion: 0.6
    weight_mask_filler {
      type: "constant"
      value: 1
    }
    bias_mask_filler {
      type: "constant"
      value: 1
    }
    num_quantum_values: 7
  }
}
layer {
  name: "fire7/relu_expand3x3"
  type: "ReLU"
  bottom: "fire7/expand3x3"
  top: "fire7/expand3x3"
}
layer {
  name: "fire7/concat"
  type: "Concat"
  bottom: "fire7/expand1x1"
  bottom: "fire7/expand3x3"
  top: "fire7/concat"
}
layer {
  name: "fire8/squeeze1x1"
  type: "INQConvolution"
  bottom: "fire7/concat"
  top: "fire8/squeeze1x1"
  convolution_param {
    num_output: 64
    kernel_size: 1
    weight_filler {
      type: "xavier"
    }
  }
  inq_convolution_param {
    portion: 0.4
    portion: 0.6
    weight_mask_filler {
      type: "constant"
      value: 1
    }
    bias_mask_filler {
      type: "constant"
      value: 1
    }
    num_quantum_values: 7
  }
}
layer {
  name: "fire8/relu_squeeze1x1"
  type: "ReLU"
  bottom: "fire8/squeeze1x1"
  top: "fire8/squeeze1x1"
}
layer {
  name: "fire8/expand1x1"
  type: "INQConvolution"
  bottom: "fire8/squeeze1x1"
  top: "fire8/expand1x1"
  convolution_param {
    num_output: 256
    kernel_size: 1
    weight_filler {
      type: "xavier"
    }
  }
  inq_convolution_param {
    portion: 0.4
    portion: 0.6
    weight_mask_filler {
      type: "constant"
      value: 1
    }
    bias_mask_filler {
      type: "constant"
      value: 1
    }
    num_quantum_values: 7
  }
}
layer {
  name: "fire8/relu_expand1x1"
  type: "ReLU"
  bottom: "fire8/expand1x1"
  top: "fire8/expand1x1"
}
layer {
  name: "fire8/expand3x3"
  type: "INQConvolution"
  bottom: "fire8/squeeze1x1"
  top: "fire8/expand3x3"
  convolution_param {
    num_output: 256
    pad: 1
    kernel_size: 3
    weight_filler {
      type: "xavier"
    }
  }
  inq_convolution_param {
    portion: 0.4
    portion: 0.6
    weight_mask_filler {
      type: "constant"
      value: 1
    }
    bias_mask_filler {
      type: "constant"
      value: 1
    }
    num_quantum_values: 7
  }
}
layer {
  name: "fire8/relu_expand3x3"
  type: "ReLU"
  bottom: "fire8/expand3x3"
  top: "fire8/expand3x3"
}
layer {
  name: "fire8/concat"
  type: "Concat"
  bottom: "fire8/expand1x1"
  bottom: "fire8/expand3x3"
  top: "fire8/concat"
}
layer {
  name: "fire9/squeeze1x1"
  type: "INQConvolution"
  bottom: "fire8/concat"
  top: "fire9/squeeze1x1"
  convolution_param {
    num_output: 64
    kernel_size: 1
    weight_filler {
      type: "xavier"
    }
  }
  inq_convolution_param {
    portion: 0.4
    portion: 0.6
    weight_mask_filler {
      type: "constant"
      value: 1
    }
    bias_mask_filler {
      type: "constant"
      value: 1
    }
    num_quantum_values: 7
  }
}
layer {
  name: "fire9/relu_squeeze1x1"
  type: "ReLU"
  bottom: "fire9/squeeze1x1"
  top: "fire9/squeeze1x1"
}
layer {
  name: "fire9/expand1x1"
  type: "INQConvolution"
  bottom: "fire9/squeeze1x1"
  top: "fire9/expand1x1"
  convolution_param {
    num_output: 256
    kernel_size: 1
    weight_filler {
      type: "xavier"
    }
  }
  inq_convolution_param {
    portion: 0.4
    portion: 0.6
    weight_mask_filler {
      type: "constant"
      value: 1
    }
    bias_mask_filler {
      type: "constant"
      value: 1
    }
    num_quantum_values: 7
  }
}
layer {
  name: "fire9/relu_expand1x1"
  type: "ReLU"
  bottom: "fire9/expand1x1"
  top: "fire9/expand1x1"
}
layer {
  name: "fire9/expand3x3"
  type: "INQConvolution"
  bottom: "fire9/squeeze1x1"
  top: "fire9/expand3x3"
  convolution_param {
    num_output: 256
    pad: 1
    kernel_size: 3
    weight_filler {
      type: "xavier"
    }
  }
  inq_convolution_param {
    portion: 0.4
    portion: 0.6
    weight_mask_filler {
      type: "constant"
      value: 1
    }
    bias_mask_filler {
      type: "constant"
      value: 1
    }
    num_quantum_values: 7
  }
}
layer {
  name: "fire9/relu_expand3x3"
  type: "ReLU"
  bottom: "fire9/expand3x3"
  top: "fire9/expand3x3"
}
layer {
  name: "fire9/concat"
  type: "Concat"
  bottom: "fire9/expand1x1"
  bottom: "fire9/expand3x3"
  top: "fire9/concat"
}
layer {
  name: "drop9"
  type: "Dropout"
  bottom: "fire9/concat"
  top: "fire9/concat"
  dropout_param {
    dropout_ratio: 0.5
  }
}
layer {
  name: "conv10"
  type: "INQConvolution"
  bottom: "fire9/concat"
  top: "conv10"
  convolution_param {
    num_output: 1000
    kernel_size: 1
    weight_filler {
      type: "gaussian"
      mean: 0
      std: 0.01
    }
  }
  inq_convolution_param {
    portion: 0.4
    portion: 0.6
    weight_mask_filler {
      type: "constant"
      value: 1
    }
    bias_mask_filler {
      type: "constant"
      value: 1
    }
    num_quantum_values: 7
  }
}
layer {
  name: "relu_conv10"
  type: "ReLU"
  bottom: "conv10"
  top: "conv10"
}
layer {
  name: "pool10"
  type: "Pooling"
  bottom: "conv10"
  top: "pool10"
  pooling_param {
    pool: AVE
    global_pooling: true
  }
}
layer {
  name: "loss"
  type: "SoftmaxWithLoss"
  bottom: "pool10"
  bottom: "label"
  top: "loss"
}
layer {
  name: "accuracy_top1"
  type: "Accuracy"
  bottom: "pool10"
  bottom: "label"
  top: "accuracy_top1"
  include {
    phase: TEST
  }
}
layer {
  name: "accuracy_top5"
  type: "Accuracy"
  bottom: "pool10"
  bottom: "label"
  top: "accuracy_top5"
  include {
    phase: TEST
  }
  accuracy_param {
    top_k: 5
  }
}
I1029 12:04:18.916587  9851 layer_factory.hpp:77] Creating layer data
I1029 12:04:18.916673  9851 db_lmdb.cpp:35] Opened lmdb /home/data/caffe-imagenet/ilsvrc12_val_lmdb
I1029 12:04:18.916697  9851 net.cpp:84] Creating Layer data
I1029 12:04:18.916707  9851 net.cpp:387] data -> data
I1029 12:04:18.916723  9851 net.cpp:387] data -> label
I1029 12:04:18.917119  9851 data_layer.cpp:45] output data size: 50,3,227,227
I1029 12:04:19.003418  9851 net.cpp:127] Setting up data
I1029 12:04:19.003468  9851 net.cpp:136] Top shape: 50 3 227 227 (7729350)
I1029 12:04:19.003478  9851 net.cpp:136] Top shape: 50 (50)
I1029 12:04:19.003484  9851 net.cpp:144] Memory required for data: 30917600
I1029 12:04:19.003494  9851 layer_factory.hpp:77] Creating layer label_data_1_split
I1029 12:04:19.003513  9851 net.cpp:84] Creating Layer label_data_1_split
I1029 12:04:19.003520  9851 net.cpp:413] label_data_1_split <- label
I1029 12:04:19.003531  9851 net.cpp:387] label_data_1_split -> label_data_1_split_0
I1029 12:04:19.003543  9851 net.cpp:387] label_data_1_split -> label_data_1_split_1
I1029 12:04:19.003551  9851 net.cpp:387] label_data_1_split -> label_data_1_split_2
I1029 12:04:19.003804  9851 net.cpp:127] Setting up label_data_1_split
I1029 12:04:19.003816  9851 net.cpp:136] Top shape: 50 (50)
I1029 12:04:19.003823  9851 net.cpp:136] Top shape: 50 (50)
I1029 12:04:19.003830  9851 net.cpp:136] Top shape: 50 (50)
I1029 12:04:19.003836  9851 net.cpp:144] Memory required for data: 30918200
I1029 12:04:19.003841  9851 layer_factory.hpp:77] Creating layer conv1
I1029 12:04:19.003859  9851 net.cpp:84] Creating Layer conv1
I1029 12:04:19.003865  9851 net.cpp:413] conv1 <- data
I1029 12:04:19.003875  9851 net.cpp:387] conv1 -> conv1
I1029 12:04:19.004289  9851 net.cpp:127] Setting up conv1
I1029 12:04:19.004309  9851 net.cpp:136] Top shape: 50 64 113 113 (40860800)
I1029 12:04:19.004321  9851 net.cpp:144] Memory required for data: 194361400
I1029 12:04:19.004331  9851 net.cpp:453] Found INQ layer:conv1, type: INQConvolution, layer id:2
I1029 12:04:19.004343  9851 net.cpp:453] Found INQ layer:conv1, type: INQConvolution, layer id:2
I1029 12:04:19.004351  9851 net.cpp:453] Found INQ layer:conv1, type: INQConvolution, layer id:2
I1029 12:04:19.004359  9851 net.cpp:453] Found INQ layer:conv1, type: INQConvolution, layer id:2
I1029 12:04:19.004365  9851 layer_factory.hpp:77] Creating layer relu_conv1
I1029 12:04:19.004375  9851 net.cpp:84] Creating Layer relu_conv1
I1029 12:04:19.004380  9851 net.cpp:413] relu_conv1 <- conv1
I1029 12:04:19.004390  9851 net.cpp:374] relu_conv1 -> conv1 (in-place)
I1029 12:04:19.004652  9851 net.cpp:127] Setting up relu_conv1
I1029 12:04:19.004664  9851 net.cpp:136] Top shape: 50 64 113 113 (40860800)
I1029 12:04:19.004673  9851 net.cpp:144] Memory required for data: 357804600
I1029 12:04:19.004679  9851 layer_factory.hpp:77] Creating layer pool1
I1029 12:04:19.004691  9851 net.cpp:84] Creating Layer pool1
I1029 12:04:19.004698  9851 net.cpp:413] pool1 <- conv1
I1029 12:04:19.004705  9851 net.cpp:387] pool1 -> pool1
I1029 12:04:19.004758  9851 net.cpp:127] Setting up pool1
I1029 12:04:19.004768  9851 net.cpp:136] Top shape: 50 64 56 56 (10035200)
I1029 12:04:19.004775  9851 net.cpp:144] Memory required for data: 397945400
I1029 12:04:19.004779  9851 layer_factory.hpp:77] Creating layer fire2/squeeze1x1
I1029 12:04:19.004791  9851 net.cpp:84] Creating Layer fire2/squeeze1x1
I1029 12:04:19.004798  9851 net.cpp:413] fire2/squeeze1x1 <- pool1
I1029 12:04:19.004807  9851 net.cpp:387] fire2/squeeze1x1 -> fire2/squeeze1x1
I1029 12:04:19.005291  9851 net.cpp:127] Setting up fire2/squeeze1x1
I1029 12:04:19.005311  9851 net.cpp:136] Top shape: 50 16 56 56 (2508800)
I1029 12:04:19.005318  9851 net.cpp:144] Memory required for data: 407980600
I1029 12:04:19.005329  9851 net.cpp:453] Found INQ layer:fire2/squeeze1x1, type: INQConvolution, layer id:5
I1029 12:04:19.005338  9851 net.cpp:453] Found INQ layer:fire2/squeeze1x1, type: INQConvolution, layer id:5
I1029 12:04:19.005347  9851 net.cpp:453] Found INQ layer:fire2/squeeze1x1, type: INQConvolution, layer id:5
I1029 12:04:19.005352  9851 net.cpp:453] Found INQ layer:fire2/squeeze1x1, type: INQConvolution, layer id:5
I1029 12:04:19.005358  9851 layer_factory.hpp:77] Creating layer fire2/relu_squeeze1x1
I1029 12:04:19.005367  9851 net.cpp:84] Creating Layer fire2/relu_squeeze1x1
I1029 12:04:19.005383  9851 net.cpp:413] fire2/relu_squeeze1x1 <- fire2/squeeze1x1
I1029 12:04:19.005422  9851 net.cpp:374] fire2/relu_squeeze1x1 -> fire2/squeeze1x1 (in-place)
I1029 12:04:19.005659  9851 net.cpp:127] Setting up fire2/relu_squeeze1x1
I1029 12:04:19.005671  9851 net.cpp:136] Top shape: 50 16 56 56 (2508800)
I1029 12:04:19.005677  9851 net.cpp:144] Memory required for data: 418015800
I1029 12:04:19.005686  9851 layer_factory.hpp:77] Creating layer fire2/squeeze1x1_fire2/relu_squeeze1x1_0_split
I1029 12:04:19.005693  9851 net.cpp:84] Creating Layer fire2/squeeze1x1_fire2/relu_squeeze1x1_0_split
I1029 12:04:19.005699  9851 net.cpp:413] fire2/squeeze1x1_fire2/relu_squeeze1x1_0_split <- fire2/squeeze1x1
I1029 12:04:19.005707  9851 net.cpp:387] fire2/squeeze1x1_fire2/relu_squeeze1x1_0_split -> fire2/squeeze1x1_fire2/relu_squeeze1x1_0_split_0
I1029 12:04:19.005717  9851 net.cpp:387] fire2/squeeze1x1_fire2/relu_squeeze1x1_0_split -> fire2/squeeze1x1_fire2/relu_squeeze1x1_0_split_1
I1029 12:04:19.008157  9851 net.cpp:127] Setting up fire2/squeeze1x1_fire2/relu_squeeze1x1_0_split
I1029 12:04:19.008183  9851 net.cpp:136] Top shape: 50 16 56 56 (2508800)
I1029 12:04:19.008193  9851 net.cpp:136] Top shape: 50 16 56 56 (2508800)
I1029 12:04:19.008198  9851 net.cpp:144] Memory required for data: 438086200
I1029 12:04:19.008204  9851 layer_factory.hpp:77] Creating layer fire2/expand1x1
I1029 12:04:19.008219  9851 net.cpp:84] Creating Layer fire2/expand1x1
I1029 12:04:19.008227  9851 net.cpp:413] fire2/expand1x1 <- fire2/squeeze1x1_fire2/relu_squeeze1x1_0_split_0
I1029 12:04:19.008239  9851 net.cpp:387] fire2/expand1x1 -> fire2/expand1x1
I1029 12:04:19.008604  9851 net.cpp:127] Setting up fire2/expand1x1
I1029 12:04:19.008617  9851 net.cpp:136] Top shape: 50 64 56 56 (10035200)
I1029 12:04:19.008625  9851 net.cpp:144] Memory required for data: 478227000
I1029 12:04:19.008635  9851 net.cpp:453] Found INQ layer:fire2/expand1x1, type: INQConvolution, layer id:8
I1029 12:04:19.008646  9851 net.cpp:453] Found INQ layer:fire2/expand1x1, type: INQConvolution, layer id:8
I1029 12:04:19.008654  9851 net.cpp:453] Found INQ layer:fire2/expand1x1, type: INQConvolution, layer id:8
I1029 12:04:19.008661  9851 net.cpp:453] Found INQ layer:fire2/expand1x1, type: INQConvolution, layer id:8
I1029 12:04:19.008666  9851 layer_factory.hpp:77] Creating layer fire2/relu_expand1x1
I1029 12:04:19.008674  9851 net.cpp:84] Creating Layer fire2/relu_expand1x1
I1029 12:04:19.008680  9851 net.cpp:413] fire2/relu_expand1x1 <- fire2/expand1x1
I1029 12:04:19.008688  9851 net.cpp:374] fire2/relu_expand1x1 -> fire2/expand1x1 (in-place)
I1029 12:04:19.010164  9851 net.cpp:127] Setting up fire2/relu_expand1x1
I1029 12:04:19.010185  9851 net.cpp:136] Top shape: 50 64 56 56 (10035200)
I1029 12:04:19.010192  9851 net.cpp:144] Memory required for data: 518367800
I1029 12:04:19.010200  9851 layer_factory.hpp:77] Creating layer fire2/expand3x3
I1029 12:04:19.010212  9851 net.cpp:84] Creating Layer fire2/expand3x3
I1029 12:04:19.010218  9851 net.cpp:413] fire2/expand3x3 <- fire2/squeeze1x1_fire2/relu_squeeze1x1_0_split_1
I1029 12:04:19.010229  9851 net.cpp:387] fire2/expand3x3 -> fire2/expand3x3
I1029 12:04:19.010687  9851 net.cpp:127] Setting up fire2/expand3x3
I1029 12:04:19.010701  9851 net.cpp:136] Top shape: 50 64 56 56 (10035200)
I1029 12:04:19.010709  9851 net.cpp:144] Memory required for data: 558508600
I1029 12:04:19.010717  9851 net.cpp:453] Found INQ layer:fire2/expand3x3, type: INQConvolution, layer id:10
I1029 12:04:19.010725  9851 net.cpp:453] Found INQ layer:fire2/expand3x3, type: INQConvolution, layer id:10
I1029 12:04:19.010730  9851 net.cpp:453] Found INQ layer:fire2/expand3x3, type: INQConvolution, layer id:10
I1029 12:04:19.010736  9851 net.cpp:453] Found INQ layer:fire2/expand3x3, type: INQConvolution, layer id:10
I1029 12:04:19.010741  9851 layer_factory.hpp:77] Creating layer fire2/relu_expand3x3
I1029 12:04:19.010749  9851 net.cpp:84] Creating Layer fire2/relu_expand3x3
I1029 12:04:19.010756  9851 net.cpp:413] fire2/relu_expand3x3 <- fire2/expand3x3
I1029 12:04:19.010771  9851 net.cpp:374] fire2/relu_expand3x3 -> fire2/expand3x3 (in-place)
I1029 12:04:19.011008  9851 net.cpp:127] Setting up fire2/relu_expand3x3
I1029 12:04:19.011021  9851 net.cpp:136] Top shape: 50 64 56 56 (10035200)
I1029 12:04:19.011029  9851 net.cpp:144] Memory required for data: 598649400
I1029 12:04:19.011034  9851 layer_factory.hpp:77] Creating layer fire2/concat
I1029 12:04:19.011044  9851 net.cpp:84] Creating Layer fire2/concat
I1029 12:04:19.011049  9851 net.cpp:413] fire2/concat <- fire2/expand1x1
I1029 12:04:19.011055  9851 net.cpp:413] fire2/concat <- fire2/expand3x3
I1029 12:04:19.011065  9851 net.cpp:387] fire2/concat -> fire2/concat
I1029 12:04:19.011101  9851 net.cpp:127] Setting up fire2/concat
I1029 12:04:19.011111  9851 net.cpp:136] Top shape: 50 128 56 56 (20070400)
I1029 12:04:19.011116  9851 net.cpp:144] Memory required for data: 678931000
I1029 12:04:19.011121  9851 layer_factory.hpp:77] Creating layer fire3/squeeze1x1
I1029 12:04:19.011138  9851 net.cpp:84] Creating Layer fire3/squeeze1x1
I1029 12:04:19.011145  9851 net.cpp:413] fire3/squeeze1x1 <- fire2/concat
I1029 12:04:19.011154  9851 net.cpp:387] fire3/squeeze1x1 -> fire3/squeeze1x1
I1029 12:04:19.011535  9851 net.cpp:127] Setting up fire3/squeeze1x1
I1029 12:04:19.011548  9851 net.cpp:136] Top shape: 50 16 56 56 (2508800)
I1029 12:04:19.011554  9851 net.cpp:144] Memory required for data: 688966200
I1029 12:04:19.011564  9851 net.cpp:453] Found INQ layer:fire3/squeeze1x1, type: INQConvolution, layer id:13
I1029 12:04:19.011577  9851 net.cpp:453] Found INQ layer:fire3/squeeze1x1, type: INQConvolution, layer id:13
I1029 12:04:19.011585  9851 net.cpp:453] Found INQ layer:fire3/squeeze1x1, type: INQConvolution, layer id:13
I1029 12:04:19.011591  9851 net.cpp:453] Found INQ layer:fire3/squeeze1x1, type: INQConvolution, layer id:13
I1029 12:04:19.011597  9851 layer_factory.hpp:77] Creating layer fire3/relu_squeeze1x1
I1029 12:04:19.011605  9851 net.cpp:84] Creating Layer fire3/relu_squeeze1x1
I1029 12:04:19.011611  9851 net.cpp:413] fire3/relu_squeeze1x1 <- fire3/squeeze1x1
I1029 12:04:19.011621  9851 net.cpp:374] fire3/relu_squeeze1x1 -> fire3/squeeze1x1 (in-place)
I1029 12:04:19.011831  9851 net.cpp:127] Setting up fire3/relu_squeeze1x1
I1029 12:04:19.011844  9851 net.cpp:136] Top shape: 50 16 56 56 (2508800)
I1029 12:04:19.011850  9851 net.cpp:144] Memory required for data: 699001400
I1029 12:04:19.011857  9851 layer_factory.hpp:77] Creating layer fire3/squeeze1x1_fire3/relu_squeeze1x1_0_split
I1029 12:04:19.011864  9851 net.cpp:84] Creating Layer fire3/squeeze1x1_fire3/relu_squeeze1x1_0_split
I1029 12:04:19.011870  9851 net.cpp:413] fire3/squeeze1x1_fire3/relu_squeeze1x1_0_split <- fire3/squeeze1x1
I1029 12:04:19.011880  9851 net.cpp:387] fire3/squeeze1x1_fire3/relu_squeeze1x1_0_split -> fire3/squeeze1x1_fire3/relu_squeeze1x1_0_split_0
I1029 12:04:19.011889  9851 net.cpp:387] fire3/squeeze1x1_fire3/relu_squeeze1x1_0_split -> fire3/squeeze1x1_fire3/relu_squeeze1x1_0_split_1
I1029 12:04:19.011940  9851 net.cpp:127] Setting up fire3/squeeze1x1_fire3/relu_squeeze1x1_0_split
I1029 12:04:19.011951  9851 net.cpp:136] Top shape: 50 16 56 56 (2508800)
I1029 12:04:19.011960  9851 net.cpp:136] Top shape: 50 16 56 56 (2508800)
I1029 12:04:19.011965  9851 net.cpp:144] Memory required for data: 719071800
I1029 12:04:19.011970  9851 layer_factory.hpp:77] Creating layer fire3/expand1x1
I1029 12:04:19.011984  9851 net.cpp:84] Creating Layer fire3/expand1x1
I1029 12:04:19.011991  9851 net.cpp:413] fire3/expand1x1 <- fire3/squeeze1x1_fire3/relu_squeeze1x1_0_split_0
I1029 12:04:19.011998  9851 net.cpp:387] fire3/expand1x1 -> fire3/expand1x1
I1029 12:04:19.012365  9851 net.cpp:127] Setting up fire3/expand1x1
I1029 12:04:19.012382  9851 net.cpp:136] Top shape: 50 64 56 56 (10035200)
I1029 12:04:19.012390  9851 net.cpp:144] Memory required for data: 759212600
I1029 12:04:19.012398  9851 net.cpp:453] Found INQ layer:fire3/expand1x1, type: INQConvolution, layer id:16
I1029 12:04:19.012405  9851 net.cpp:453] Found INQ layer:fire3/expand1x1, type: INQConvolution, layer id:16
I1029 12:04:19.012418  9851 net.cpp:453] Found INQ layer:fire3/expand1x1, type: INQConvolution, layer id:16
I1029 12:04:19.012445  9851 net.cpp:453] Found INQ layer:fire3/expand1x1, type: INQConvolution, layer id:16
I1029 12:04:19.012451  9851 layer_factory.hpp:77] Creating layer fire3/relu_expand1x1
I1029 12:04:19.012460  9851 net.cpp:84] Creating Layer fire3/relu_expand1x1
I1029 12:04:19.012465  9851 net.cpp:413] fire3/relu_expand1x1 <- fire3/expand1x1
I1029 12:04:19.012473  9851 net.cpp:374] fire3/relu_expand1x1 -> fire3/expand1x1 (in-place)
I1029 12:04:19.012691  9851 net.cpp:127] Setting up fire3/relu_expand1x1
I1029 12:04:19.012702  9851 net.cpp:136] Top shape: 50 64 56 56 (10035200)
I1029 12:04:19.012708  9851 net.cpp:144] Memory required for data: 799353400
I1029 12:04:19.012714  9851 layer_factory.hpp:77] Creating layer fire3/expand3x3
I1029 12:04:19.012727  9851 net.cpp:84] Creating Layer fire3/expand3x3
I1029 12:04:19.012734  9851 net.cpp:413] fire3/expand3x3 <- fire3/squeeze1x1_fire3/relu_squeeze1x1_0_split_1
I1029 12:04:19.012745  9851 net.cpp:387] fire3/expand3x3 -> fire3/expand3x3
I1029 12:04:19.013182  9851 net.cpp:127] Setting up fire3/expand3x3
I1029 12:04:19.013196  9851 net.cpp:136] Top shape: 50 64 56 56 (10035200)
I1029 12:04:19.013202  9851 net.cpp:144] Memory required for data: 839494200
I1029 12:04:19.013211  9851 net.cpp:453] Found INQ layer:fire3/expand3x3, type: INQConvolution, layer id:18
I1029 12:04:19.013217  9851 net.cpp:453] Found INQ layer:fire3/expand3x3, type: INQConvolution, layer id:18
I1029 12:04:19.013223  9851 net.cpp:453] Found INQ layer:fire3/expand3x3, type: INQConvolution, layer id:18
I1029 12:04:19.013229  9851 net.cpp:453] Found INQ layer:fire3/expand3x3, type: INQConvolution, layer id:18
I1029 12:04:19.013236  9851 layer_factory.hpp:77] Creating layer fire3/relu_expand3x3
I1029 12:04:19.013243  9851 net.cpp:84] Creating Layer fire3/relu_expand3x3
I1029 12:04:19.013248  9851 net.cpp:413] fire3/relu_expand3x3 <- fire3/expand3x3
I1029 12:04:19.013257  9851 net.cpp:374] fire3/relu_expand3x3 -> fire3/expand3x3 (in-place)
I1029 12:04:19.014677  9851 net.cpp:127] Setting up fire3/relu_expand3x3
I1029 12:04:19.014696  9851 net.cpp:136] Top shape: 50 64 56 56 (10035200)
I1029 12:04:19.014705  9851 net.cpp:144] Memory required for data: 879635000
I1029 12:04:19.014713  9851 layer_factory.hpp:77] Creating layer fire3/concat
I1029 12:04:19.014724  9851 net.cpp:84] Creating Layer fire3/concat
I1029 12:04:19.014730  9851 net.cpp:413] fire3/concat <- fire3/expand1x1
I1029 12:04:19.014737  9851 net.cpp:413] fire3/concat <- fire3/expand3x3
I1029 12:04:19.014745  9851 net.cpp:387] fire3/concat -> fire3/concat
I1029 12:04:19.014786  9851 net.cpp:127] Setting up fire3/concat
I1029 12:04:19.014797  9851 net.cpp:136] Top shape: 50 128 56 56 (20070400)
I1029 12:04:19.014802  9851 net.cpp:144] Memory required for data: 959916600
I1029 12:04:19.014808  9851 layer_factory.hpp:77] Creating layer pool3
I1029 12:04:19.014816  9851 net.cpp:84] Creating Layer pool3
I1029 12:04:19.014822  9851 net.cpp:413] pool3 <- fire3/concat
I1029 12:04:19.014833  9851 net.cpp:387] pool3 -> pool3
I1029 12:04:19.014883  9851 net.cpp:127] Setting up pool3
I1029 12:04:19.014891  9851 net.cpp:136] Top shape: 50 128 28 28 (5017600)
I1029 12:04:19.014897  9851 net.cpp:144] Memory required for data: 979987000
I1029 12:04:19.014904  9851 layer_factory.hpp:77] Creating layer fire4/squeeze1x1
I1029 12:04:19.014916  9851 net.cpp:84] Creating Layer fire4/squeeze1x1
I1029 12:04:19.014924  9851 net.cpp:413] fire4/squeeze1x1 <- pool3
I1029 12:04:19.014931  9851 net.cpp:387] fire4/squeeze1x1 -> fire4/squeeze1x1
I1029 12:04:19.015331  9851 net.cpp:127] Setting up fire4/squeeze1x1
I1029 12:04:19.015343  9851 net.cpp:136] Top shape: 50 32 28 28 (1254400)
I1029 12:04:19.015352  9851 net.cpp:144] Memory required for data: 985004600
I1029 12:04:19.015362  9851 net.cpp:453] Found INQ layer:fire4/squeeze1x1, type: INQConvolution, layer id:22
I1029 12:04:19.015368  9851 net.cpp:453] Found INQ layer:fire4/squeeze1x1, type: INQConvolution, layer id:22
I1029 12:04:19.015383  9851 net.cpp:453] Found INQ layer:fire4/squeeze1x1, type: INQConvolution, layer id:22
I1029 12:04:19.015404  9851 net.cpp:453] Found INQ layer:fire4/squeeze1x1, type: INQConvolution, layer id:22
I1029 12:04:19.015411  9851 layer_factory.hpp:77] Creating layer fire4/relu_squeeze1x1
I1029 12:04:19.015422  9851 net.cpp:84] Creating Layer fire4/relu_squeeze1x1
I1029 12:04:19.015429  9851 net.cpp:413] fire4/relu_squeeze1x1 <- fire4/squeeze1x1
I1029 12:04:19.015437  9851 net.cpp:374] fire4/relu_squeeze1x1 -> fire4/squeeze1x1 (in-place)
I1029 12:04:19.015656  9851 net.cpp:127] Setting up fire4/relu_squeeze1x1
I1029 12:04:19.015671  9851 net.cpp:136] Top shape: 50 32 28 28 (1254400)
I1029 12:04:19.015676  9851 net.cpp:144] Memory required for data: 990022200
I1029 12:04:19.015682  9851 layer_factory.hpp:77] Creating layer fire4/squeeze1x1_fire4/relu_squeeze1x1_0_split
I1029 12:04:19.015694  9851 net.cpp:84] Creating Layer fire4/squeeze1x1_fire4/relu_squeeze1x1_0_split
I1029 12:04:19.015700  9851 net.cpp:413] fire4/squeeze1x1_fire4/relu_squeeze1x1_0_split <- fire4/squeeze1x1
I1029 12:04:19.015708  9851 net.cpp:387] fire4/squeeze1x1_fire4/relu_squeeze1x1_0_split -> fire4/squeeze1x1_fire4/relu_squeeze1x1_0_split_0
I1029 12:04:19.015717  9851 net.cpp:387] fire4/squeeze1x1_fire4/relu_squeeze1x1_0_split -> fire4/squeeze1x1_fire4/relu_squeeze1x1_0_split_1
I1029 12:04:19.015772  9851 net.cpp:127] Setting up fire4/squeeze1x1_fire4/relu_squeeze1x1_0_split
I1029 12:04:19.015782  9851 net.cpp:136] Top shape: 50 32 28 28 (1254400)
I1029 12:04:19.015789  9851 net.cpp:136] Top shape: 50 32 28 28 (1254400)
I1029 12:04:19.015794  9851 net.cpp:144] Memory required for data: 1000057400
I1029 12:04:19.015800  9851 layer_factory.hpp:77] Creating layer fire4/expand1x1
I1029 12:04:19.015812  9851 net.cpp:84] Creating Layer fire4/expand1x1
I1029 12:04:19.015818  9851 net.cpp:413] fire4/expand1x1 <- fire4/squeeze1x1_fire4/relu_squeeze1x1_0_split_0
I1029 12:04:19.015827  9851 net.cpp:387] fire4/expand1x1 -> fire4/expand1x1
I1029 12:04:19.016202  9851 net.cpp:127] Setting up fire4/expand1x1
I1029 12:04:19.016212  9851 net.cpp:136] Top shape: 50 128 28 28 (5017600)
I1029 12:04:19.016217  9851 net.cpp:144] Memory required for data: 1020127800
I1029 12:04:19.016229  9851 net.cpp:453] Found INQ layer:fire4/expand1x1, type: INQConvolution, layer id:25
I1029 12:04:19.016242  9851 net.cpp:453] Found INQ layer:fire4/expand1x1, type: INQConvolution, layer id:25
I1029 12:04:19.016247  9851 net.cpp:453] Found INQ layer:fire4/expand1x1, type: INQConvolution, layer id:25
I1029 12:04:19.016253  9851 net.cpp:453] Found INQ layer:fire4/expand1x1, type: INQConvolution, layer id:25
I1029 12:04:19.016258  9851 layer_factory.hpp:77] Creating layer fire4/relu_expand1x1
I1029 12:04:19.016266  9851 net.cpp:84] Creating Layer fire4/relu_expand1x1
I1029 12:04:19.016273  9851 net.cpp:413] fire4/relu_expand1x1 <- fire4/expand1x1
I1029 12:04:19.016278  9851 net.cpp:374] fire4/relu_expand1x1 -> fire4/expand1x1 (in-place)
I1029 12:04:19.016497  9851 net.cpp:127] Setting up fire4/relu_expand1x1
I1029 12:04:19.016510  9851 net.cpp:136] Top shape: 50 128 28 28 (5017600)
I1029 12:04:19.016515  9851 net.cpp:144] Memory required for data: 1040198200
I1029 12:04:19.016520  9851 layer_factory.hpp:77] Creating layer fire4/expand3x3
I1029 12:04:19.016531  9851 net.cpp:84] Creating Layer fire4/expand3x3
I1029 12:04:19.016537  9851 net.cpp:413] fire4/expand3x3 <- fire4/squeeze1x1_fire4/relu_squeeze1x1_0_split_1
I1029 12:04:19.016547  9851 net.cpp:387] fire4/expand3x3 -> fire4/expand3x3
I1029 12:04:19.017215  9851 net.cpp:127] Setting up fire4/expand3x3
I1029 12:04:19.017225  9851 net.cpp:136] Top shape: 50 128 28 28 (5017600)
I1029 12:04:19.017230  9851 net.cpp:144] Memory required for data: 1060268600
I1029 12:04:19.017236  9851 net.cpp:453] Found INQ layer:fire4/expand3x3, type: INQConvolution, layer id:27
I1029 12:04:19.017243  9851 net.cpp:453] Found INQ layer:fire4/expand3x3, type: INQConvolution, layer id:27
I1029 12:04:19.017256  9851 net.cpp:453] Found INQ layer:fire4/expand3x3, type: INQConvolution, layer id:27
I1029 12:04:19.017272  9851 net.cpp:453] Found INQ layer:fire4/expand3x3, type: INQConvolution, layer id:27
I1029 12:04:19.017277  9851 layer_factory.hpp:77] Creating layer fire4/relu_expand3x3
I1029 12:04:19.017287  9851 net.cpp:84] Creating Layer fire4/relu_expand3x3
I1029 12:04:19.017293  9851 net.cpp:413] fire4/relu_expand3x3 <- fire4/expand3x3
I1029 12:04:19.017305  9851 net.cpp:374] fire4/relu_expand3x3 -> fire4/expand3x3 (in-place)
I1029 12:04:19.017518  9851 net.cpp:127] Setting up fire4/relu_expand3x3
I1029 12:04:19.017529  9851 net.cpp:136] Top shape: 50 128 28 28 (5017600)
I1029 12:04:19.017534  9851 net.cpp:144] Memory required for data: 1080339000
I1029 12:04:19.017539  9851 layer_factory.hpp:77] Creating layer fire4/concat
I1029 12:04:19.017551  9851 net.cpp:84] Creating Layer fire4/concat
I1029 12:04:19.017557  9851 net.cpp:413] fire4/concat <- fire4/expand1x1
I1029 12:04:19.017563  9851 net.cpp:413] fire4/concat <- fire4/expand3x3
I1029 12:04:19.017570  9851 net.cpp:387] fire4/concat -> fire4/concat
I1029 12:04:19.017606  9851 net.cpp:127] Setting up fire4/concat
I1029 12:04:19.017613  9851 net.cpp:136] Top shape: 50 256 28 28 (10035200)
I1029 12:04:19.017617  9851 net.cpp:144] Memory required for data: 1120479800
I1029 12:04:19.017622  9851 layer_factory.hpp:77] Creating layer fire5/squeeze1x1
I1029 12:04:19.017633  9851 net.cpp:84] Creating Layer fire5/squeeze1x1
I1029 12:04:19.017638  9851 net.cpp:413] fire5/squeeze1x1 <- fire4/concat
I1029 12:04:19.017647  9851 net.cpp:387] fire5/squeeze1x1 -> fire5/squeeze1x1
I1029 12:04:19.018069  9851 net.cpp:127] Setting up fire5/squeeze1x1
I1029 12:04:19.018079  9851 net.cpp:136] Top shape: 50 32 28 28 (1254400)
I1029 12:04:19.018084  9851 net.cpp:144] Memory required for data: 1125497400
I1029 12:04:19.018090  9851 net.cpp:453] Found INQ layer:fire5/squeeze1x1, type: INQConvolution, layer id:30
I1029 12:04:19.018096  9851 net.cpp:453] Found INQ layer:fire5/squeeze1x1, type: INQConvolution, layer id:30
I1029 12:04:19.018102  9851 net.cpp:453] Found INQ layer:fire5/squeeze1x1, type: INQConvolution, layer id:30
I1029 12:04:19.018107  9851 net.cpp:453] Found INQ layer:fire5/squeeze1x1, type: INQConvolution, layer id:30
I1029 12:04:19.018112  9851 layer_factory.hpp:77] Creating layer fire5/relu_squeeze1x1
I1029 12:04:19.018120  9851 net.cpp:84] Creating Layer fire5/relu_squeeze1x1
I1029 12:04:19.018126  9851 net.cpp:413] fire5/relu_squeeze1x1 <- fire5/squeeze1x1
I1029 12:04:19.018133  9851 net.cpp:374] fire5/relu_squeeze1x1 -> fire5/squeeze1x1 (in-place)
I1029 12:04:19.019557  9851 net.cpp:127] Setting up fire5/relu_squeeze1x1
I1029 12:04:19.019575  9851 net.cpp:136] Top shape: 50 32 28 28 (1254400)
I1029 12:04:19.019582  9851 net.cpp:144] Memory required for data: 1130515000
I1029 12:04:19.019587  9851 layer_factory.hpp:77] Creating layer fire5/squeeze1x1_fire5/relu_squeeze1x1_0_split
I1029 12:04:19.019600  9851 net.cpp:84] Creating Layer fire5/squeeze1x1_fire5/relu_squeeze1x1_0_split
I1029 12:04:19.019606  9851 net.cpp:413] fire5/squeeze1x1_fire5/relu_squeeze1x1_0_split <- fire5/squeeze1x1
I1029 12:04:19.019614  9851 net.cpp:387] fire5/squeeze1x1_fire5/relu_squeeze1x1_0_split -> fire5/squeeze1x1_fire5/relu_squeeze1x1_0_split_0
I1029 12:04:19.019623  9851 net.cpp:387] fire5/squeeze1x1_fire5/relu_squeeze1x1_0_split -> fire5/squeeze1x1_fire5/relu_squeeze1x1_0_split_1
I1029 12:04:19.019678  9851 net.cpp:127] Setting up fire5/squeeze1x1_fire5/relu_squeeze1x1_0_split
I1029 12:04:19.019686  9851 net.cpp:136] Top shape: 50 32 28 28 (1254400)
I1029 12:04:19.019693  9851 net.cpp:136] Top shape: 50 32 28 28 (1254400)
I1029 12:04:19.019697  9851 net.cpp:144] Memory required for data: 1140550200
I1029 12:04:19.019702  9851 layer_factory.hpp:77] Creating layer fire5/expand1x1
I1029 12:04:19.019714  9851 net.cpp:84] Creating Layer fire5/expand1x1
I1029 12:04:19.019719  9851 net.cpp:413] fire5/expand1x1 <- fire5/squeeze1x1_fire5/relu_squeeze1x1_0_split_0
I1029 12:04:19.019729  9851 net.cpp:387] fire5/expand1x1 -> fire5/expand1x1
I1029 12:04:19.020110  9851 net.cpp:127] Setting up fire5/expand1x1
I1029 12:04:19.020133  9851 net.cpp:136] Top shape: 50 128 28 28 (5017600)
I1029 12:04:19.020139  9851 net.cpp:144] Memory required for data: 1160620600
I1029 12:04:19.020146  9851 net.cpp:453] Found INQ layer:fire5/expand1x1, type: INQConvolution, layer id:33
I1029 12:04:19.020153  9851 net.cpp:453] Found INQ layer:fire5/expand1x1, type: INQConvolution, layer id:33
I1029 12:04:19.020159  9851 net.cpp:453] Found INQ layer:fire5/expand1x1, type: INQConvolution, layer id:33
I1029 12:04:19.020164  9851 net.cpp:453] Found INQ layer:fire5/expand1x1, type: INQConvolution, layer id:33
I1029 12:04:19.020169  9851 layer_factory.hpp:77] Creating layer fire5/relu_expand1x1
I1029 12:04:19.020177  9851 net.cpp:84] Creating Layer fire5/relu_expand1x1
I1029 12:04:19.020182  9851 net.cpp:413] fire5/relu_expand1x1 <- fire5/expand1x1
I1029 12:04:19.020191  9851 net.cpp:374] fire5/relu_expand1x1 -> fire5/expand1x1 (in-place)
I1029 12:04:19.020409  9851 net.cpp:127] Setting up fire5/relu_expand1x1
I1029 12:04:19.020422  9851 net.cpp:136] Top shape: 50 128 28 28 (5017600)
I1029 12:04:19.020427  9851 net.cpp:144] Memory required for data: 1180691000
I1029 12:04:19.020432  9851 layer_factory.hpp:77] Creating layer fire5/expand3x3
I1029 12:04:19.020445  9851 net.cpp:84] Creating Layer fire5/expand3x3
I1029 12:04:19.020452  9851 net.cpp:413] fire5/expand3x3 <- fire5/squeeze1x1_fire5/relu_squeeze1x1_0_split_1
I1029 12:04:19.020462  9851 net.cpp:387] fire5/expand3x3 -> fire5/expand3x3
I1029 12:04:19.021122  9851 net.cpp:127] Setting up fire5/expand3x3
I1029 12:04:19.021133  9851 net.cpp:136] Top shape: 50 128 28 28 (5017600)
I1029 12:04:19.021138  9851 net.cpp:144] Memory required for data: 1200761400
I1029 12:04:19.021144  9851 net.cpp:453] Found INQ layer:fire5/expand3x3, type: INQConvolution, layer id:35
I1029 12:04:19.021152  9851 net.cpp:453] Found INQ layer:fire5/expand3x3, type: INQConvolution, layer id:35
I1029 12:04:19.021157  9851 net.cpp:453] Found INQ layer:fire5/expand3x3, type: INQConvolution, layer id:35
I1029 12:04:19.021162  9851 net.cpp:453] Found INQ layer:fire5/expand3x3, type: INQConvolution, layer id:35
I1029 12:04:19.021168  9851 layer_factory.hpp:77] Creating layer fire5/relu_expand3x3
I1029 12:04:19.021178  9851 net.cpp:84] Creating Layer fire5/relu_expand3x3
I1029 12:04:19.021183  9851 net.cpp:413] fire5/relu_expand3x3 <- fire5/expand3x3
I1029 12:04:19.021190  9851 net.cpp:374] fire5/relu_expand3x3 -> fire5/expand3x3 (in-place)
I1029 12:04:19.021412  9851 net.cpp:127] Setting up fire5/relu_expand3x3
I1029 12:04:19.021425  9851 net.cpp:136] Top shape: 50 128 28 28 (5017600)
I1029 12:04:19.021430  9851 net.cpp:144] Memory required for data: 1220831800
I1029 12:04:19.021435  9851 layer_factory.hpp:77] Creating layer fire5/concat
I1029 12:04:19.021445  9851 net.cpp:84] Creating Layer fire5/concat
I1029 12:04:19.021450  9851 net.cpp:413] fire5/concat <- fire5/expand1x1
I1029 12:04:19.021457  9851 net.cpp:413] fire5/concat <- fire5/expand3x3
I1029 12:04:19.021463  9851 net.cpp:387] fire5/concat -> fire5/concat
I1029 12:04:19.021502  9851 net.cpp:127] Setting up fire5/concat
I1029 12:04:19.021509  9851 net.cpp:136] Top shape: 50 256 28 28 (10035200)
I1029 12:04:19.021514  9851 net.cpp:144] Memory required for data: 1260972600
I1029 12:04:19.021518  9851 layer_factory.hpp:77] Creating layer pool5
I1029 12:04:19.021526  9851 net.cpp:84] Creating Layer pool5
I1029 12:04:19.021531  9851 net.cpp:413] pool5 <- fire5/concat
I1029 12:04:19.021540  9851 net.cpp:387] pool5 -> pool5
I1029 12:04:19.021591  9851 net.cpp:127] Setting up pool5
I1029 12:04:19.021600  9851 net.cpp:136] Top shape: 50 256 14 14 (2508800)
I1029 12:04:19.021605  9851 net.cpp:144] Memory required for data: 1271007800
I1029 12:04:19.021610  9851 layer_factory.hpp:77] Creating layer fire6/squeeze1x1
I1029 12:04:19.021621  9851 net.cpp:84] Creating Layer fire6/squeeze1x1
I1029 12:04:19.021626  9851 net.cpp:413] fire6/squeeze1x1 <- pool5
I1029 12:04:19.021636  9851 net.cpp:387] fire6/squeeze1x1 -> fire6/squeeze1x1
I1029 12:04:19.022099  9851 net.cpp:127] Setting up fire6/squeeze1x1
I1029 12:04:19.022119  9851 net.cpp:136] Top shape: 50 48 14 14 (470400)
I1029 12:04:19.022125  9851 net.cpp:144] Memory required for data: 1272889400
I1029 12:04:19.022132  9851 net.cpp:453] Found INQ layer:fire6/squeeze1x1, type: INQConvolution, layer id:39
I1029 12:04:19.022138  9851 net.cpp:453] Found INQ layer:fire6/squeeze1x1, type: INQConvolution, layer id:39
I1029 12:04:19.022145  9851 net.cpp:453] Found INQ layer:fire6/squeeze1x1, type: INQConvolution, layer id:39
I1029 12:04:19.022150  9851 net.cpp:453] Found INQ layer:fire6/squeeze1x1, type: INQConvolution, layer id:39
I1029 12:04:19.022155  9851 layer_factory.hpp:77] Creating layer fire6/relu_squeeze1x1
I1029 12:04:19.022164  9851 net.cpp:84] Creating Layer fire6/relu_squeeze1x1
I1029 12:04:19.022171  9851 net.cpp:413] fire6/relu_squeeze1x1 <- fire6/squeeze1x1
I1029 12:04:19.022178  9851 net.cpp:374] fire6/relu_squeeze1x1 -> fire6/squeeze1x1 (in-place)
I1029 12:04:19.022399  9851 net.cpp:127] Setting up fire6/relu_squeeze1x1
I1029 12:04:19.022411  9851 net.cpp:136] Top shape: 50 48 14 14 (470400)
I1029 12:04:19.022416  9851 net.cpp:144] Memory required for data: 1274771000
I1029 12:04:19.022423  9851 layer_factory.hpp:77] Creating layer fire6/squeeze1x1_fire6/relu_squeeze1x1_0_split
I1029 12:04:19.022429  9851 net.cpp:84] Creating Layer fire6/squeeze1x1_fire6/relu_squeeze1x1_0_split
I1029 12:04:19.022434  9851 net.cpp:413] fire6/squeeze1x1_fire6/relu_squeeze1x1_0_split <- fire6/squeeze1x1
I1029 12:04:19.022444  9851 net.cpp:387] fire6/squeeze1x1_fire6/relu_squeeze1x1_0_split -> fire6/squeeze1x1_fire6/relu_squeeze1x1_0_split_0
I1029 12:04:19.022451  9851 net.cpp:387] fire6/squeeze1x1_fire6/relu_squeeze1x1_0_split -> fire6/squeeze1x1_fire6/relu_squeeze1x1_0_split_1
I1029 12:04:19.022508  9851 net.cpp:127] Setting up fire6/squeeze1x1_fire6/relu_squeeze1x1_0_split
I1029 12:04:19.022516  9851 net.cpp:136] Top shape: 50 48 14 14 (470400)
I1029 12:04:19.022524  9851 net.cpp:136] Top shape: 50 48 14 14 (470400)
I1029 12:04:19.022529  9851 net.cpp:144] Memory required for data: 1278534200
I1029 12:04:19.022533  9851 layer_factory.hpp:77] Creating layer fire6/expand1x1
I1029 12:04:19.022542  9851 net.cpp:84] Creating Layer fire6/expand1x1
I1029 12:04:19.022548  9851 net.cpp:413] fire6/expand1x1 <- fire6/squeeze1x1_fire6/relu_squeeze1x1_0_split_0
I1029 12:04:19.022558  9851 net.cpp:387] fire6/expand1x1 -> fire6/expand1x1
I1029 12:04:19.022984  9851 net.cpp:127] Setting up fire6/expand1x1
I1029 12:04:19.022994  9851 net.cpp:136] Top shape: 50 192 14 14 (1881600)
I1029 12:04:19.023000  9851 net.cpp:144] Memory required for data: 1286060600
I1029 12:04:19.023006  9851 net.cpp:453] Found INQ layer:fire6/expand1x1, type: INQConvolution, layer id:42
I1029 12:04:19.023012  9851 net.cpp:453] Found INQ layer:fire6/expand1x1, type: INQConvolution, layer id:42
I1029 12:04:19.023018  9851 net.cpp:453] Found INQ layer:fire6/expand1x1, type: INQConvolution, layer id:42
I1029 12:04:19.023025  9851 net.cpp:453] Found INQ layer:fire6/expand1x1, type: INQConvolution, layer id:42
I1029 12:04:19.023028  9851 layer_factory.hpp:77] Creating layer fire6/relu_expand1x1
I1029 12:04:19.023036  9851 net.cpp:84] Creating Layer fire6/relu_expand1x1
I1029 12:04:19.023044  9851 net.cpp:413] fire6/relu_expand1x1 <- fire6/expand1x1
I1029 12:04:19.023051  9851 net.cpp:374] fire6/relu_expand1x1 -> fire6/expand1x1 (in-place)
I1029 12:04:19.024471  9851 net.cpp:127] Setting up fire6/relu_expand1x1
I1029 12:04:19.024488  9851 net.cpp:136] Top shape: 50 192 14 14 (1881600)
I1029 12:04:19.024494  9851 net.cpp:144] Memory required for data: 1293587000
I1029 12:04:19.024499  9851 layer_factory.hpp:77] Creating layer fire6/expand3x3
I1029 12:04:19.024513  9851 net.cpp:84] Creating Layer fire6/expand3x3
I1029 12:04:19.024519  9851 net.cpp:413] fire6/expand3x3 <- fire6/squeeze1x1_fire6/relu_squeeze1x1_0_split_1
I1029 12:04:19.024530  9851 net.cpp:387] fire6/expand3x3 -> fire6/expand3x3
I1029 12:04:19.025609  9851 net.cpp:127] Setting up fire6/expand3x3
I1029 12:04:19.025621  9851 net.cpp:136] Top shape: 50 192 14 14 (1881600)
I1029 12:04:19.025641  9851 net.cpp:144] Memory required for data: 1301113400
I1029 12:04:19.025650  9851 net.cpp:453] Found INQ layer:fire6/expand3x3, type: INQConvolution, layer id:44
I1029 12:04:19.025656  9851 net.cpp:453] Found INQ layer:fire6/expand3x3, type: INQConvolution, layer id:44
I1029 12:04:19.025662  9851 net.cpp:453] Found INQ layer:fire6/expand3x3, type: INQConvolution, layer id:44
I1029 12:04:19.025667  9851 net.cpp:453] Found INQ layer:fire6/expand3x3, type: INQConvolution, layer id:44
I1029 12:04:19.025672  9851 layer_factory.hpp:77] Creating layer fire6/relu_expand3x3
I1029 12:04:19.025681  9851 net.cpp:84] Creating Layer fire6/relu_expand3x3
I1029 12:04:19.025686  9851 net.cpp:413] fire6/relu_expand3x3 <- fire6/expand3x3
I1029 12:04:19.025696  9851 net.cpp:374] fire6/relu_expand3x3 -> fire6/expand3x3 (in-place)
I1029 12:04:19.025914  9851 net.cpp:127] Setting up fire6/relu_expand3x3
I1029 12:04:19.025925  9851 net.cpp:136] Top shape: 50 192 14 14 (1881600)
I1029 12:04:19.025931  9851 net.cpp:144] Memory required for data: 1308639800
I1029 12:04:19.025936  9851 layer_factory.hpp:77] Creating layer fire6/concat
I1029 12:04:19.025944  9851 net.cpp:84] Creating Layer fire6/concat
I1029 12:04:19.025949  9851 net.cpp:413] fire6/concat <- fire6/expand1x1
I1029 12:04:19.025955  9851 net.cpp:413] fire6/concat <- fire6/expand3x3
I1029 12:04:19.025964  9851 net.cpp:387] fire6/concat -> fire6/concat
I1029 12:04:19.025998  9851 net.cpp:127] Setting up fire6/concat
I1029 12:04:19.026008  9851 net.cpp:136] Top shape: 50 384 14 14 (3763200)
I1029 12:04:19.026012  9851 net.cpp:144] Memory required for data: 1323692600
I1029 12:04:19.026017  9851 layer_factory.hpp:77] Creating layer fire7/squeeze1x1
I1029 12:04:19.026026  9851 net.cpp:84] Creating Layer fire7/squeeze1x1
I1029 12:04:19.026032  9851 net.cpp:413] fire7/squeeze1x1 <- fire6/concat
I1029 12:04:19.026042  9851 net.cpp:387] fire7/squeeze1x1 -> fire7/squeeze1x1
I1029 12:04:19.026554  9851 net.cpp:127] Setting up fire7/squeeze1x1
I1029 12:04:19.026566  9851 net.cpp:136] Top shape: 50 48 14 14 (470400)
I1029 12:04:19.026571  9851 net.cpp:144] Memory required for data: 1325574200
I1029 12:04:19.026587  9851 net.cpp:453] Found INQ layer:fire7/squeeze1x1, type: INQConvolution, layer id:47
I1029 12:04:19.026600  9851 net.cpp:453] Found INQ layer:fire7/squeeze1x1, type: INQConvolution, layer id:47
I1029 12:04:19.026607  9851 net.cpp:453] Found INQ layer:fire7/squeeze1x1, type: INQConvolution, layer id:47
I1029 12:04:19.026613  9851 net.cpp:453] Found INQ layer:fire7/squeeze1x1, type: INQConvolution, layer id:47
I1029 12:04:19.026618  9851 layer_factory.hpp:77] Creating layer fire7/relu_squeeze1x1
I1029 12:04:19.026626  9851 net.cpp:84] Creating Layer fire7/relu_squeeze1x1
I1029 12:04:19.026631  9851 net.cpp:413] fire7/relu_squeeze1x1 <- fire7/squeeze1x1
I1029 12:04:19.026638  9851 net.cpp:374] fire7/relu_squeeze1x1 -> fire7/squeeze1x1 (in-place)
I1029 12:04:19.026855  9851 net.cpp:127] Setting up fire7/relu_squeeze1x1
I1029 12:04:19.026866  9851 net.cpp:136] Top shape: 50 48 14 14 (470400)
I1029 12:04:19.026871  9851 net.cpp:144] Memory required for data: 1327455800
I1029 12:04:19.026876  9851 layer_factory.hpp:77] Creating layer fire7/squeeze1x1_fire7/relu_squeeze1x1_0_split
I1029 12:04:19.026886  9851 net.cpp:84] Creating Layer fire7/squeeze1x1_fire7/relu_squeeze1x1_0_split
I1029 12:04:19.026891  9851 net.cpp:413] fire7/squeeze1x1_fire7/relu_squeeze1x1_0_split <- fire7/squeeze1x1
I1029 12:04:19.026898  9851 net.cpp:387] fire7/squeeze1x1_fire7/relu_squeeze1x1_0_split -> fire7/squeeze1x1_fire7/relu_squeeze1x1_0_split_0
I1029 12:04:19.026906  9851 net.cpp:387] fire7/squeeze1x1_fire7/relu_squeeze1x1_0_split -> fire7/squeeze1x1_fire7/relu_squeeze1x1_0_split_1
I1029 12:04:19.026959  9851 net.cpp:127] Setting up fire7/squeeze1x1_fire7/relu_squeeze1x1_0_split
I1029 12:04:19.026967  9851 net.cpp:136] Top shape: 50 48 14 14 (470400)
I1029 12:04:19.026978  9851 net.cpp:136] Top shape: 50 48 14 14 (470400)
I1029 12:04:19.026983  9851 net.cpp:144] Memory required for data: 1331219000
I1029 12:04:19.026999  9851 layer_factory.hpp:77] Creating layer fire7/expand1x1
I1029 12:04:19.027011  9851 net.cpp:84] Creating Layer fire7/expand1x1
I1029 12:04:19.027016  9851 net.cpp:413] fire7/expand1x1 <- fire7/squeeze1x1_fire7/relu_squeeze1x1_0_split_0
I1029 12:04:19.027025  9851 net.cpp:387] fire7/expand1x1 -> fire7/expand1x1
I1029 12:04:19.027464  9851 net.cpp:127] Setting up fire7/expand1x1
I1029 12:04:19.027475  9851 net.cpp:136] Top shape: 50 192 14 14 (1881600)
I1029 12:04:19.027480  9851 net.cpp:144] Memory required for data: 1338745400
I1029 12:04:19.027487  9851 net.cpp:453] Found INQ layer:fire7/expand1x1, type: INQConvolution, layer id:50
I1029 12:04:19.027494  9851 net.cpp:453] Found INQ layer:fire7/expand1x1, type: INQConvolution, layer id:50
I1029 12:04:19.027500  9851 net.cpp:453] Found INQ layer:fire7/expand1x1, type: INQConvolution, layer id:50
I1029 12:04:19.027505  9851 net.cpp:453] Found INQ layer:fire7/expand1x1, type: INQConvolution, layer id:50
I1029 12:04:19.027510  9851 layer_factory.hpp:77] Creating layer fire7/relu_expand1x1
I1029 12:04:19.027518  9851 net.cpp:84] Creating Layer fire7/relu_expand1x1
I1029 12:04:19.027523  9851 net.cpp:413] fire7/relu_expand1x1 <- fire7/expand1x1
I1029 12:04:19.027529  9851 net.cpp:374] fire7/relu_expand1x1 -> fire7/expand1x1 (in-place)
I1029 12:04:19.028947  9851 net.cpp:127] Setting up fire7/relu_expand1x1
I1029 12:04:19.028965  9851 net.cpp:136] Top shape: 50 192 14 14 (1881600)
I1029 12:04:19.028970  9851 net.cpp:144] Memory required for data: 1346271800
I1029 12:04:19.028976  9851 layer_factory.hpp:77] Creating layer fire7/expand3x3
I1029 12:04:19.028991  9851 net.cpp:84] Creating Layer fire7/expand3x3
I1029 12:04:19.028998  9851 net.cpp:413] fire7/expand3x3 <- fire7/squeeze1x1_fire7/relu_squeeze1x1_0_split_1
I1029 12:04:19.029007  9851 net.cpp:387] fire7/expand3x3 -> fire7/expand3x3
I1029 12:04:19.030092  9851 net.cpp:127] Setting up fire7/expand3x3
I1029 12:04:19.030107  9851 net.cpp:136] Top shape: 50 192 14 14 (1881600)
I1029 12:04:19.030112  9851 net.cpp:144] Memory required for data: 1353798200
I1029 12:04:19.030118  9851 net.cpp:453] Found INQ layer:fire7/expand3x3, type: INQConvolution, layer id:52
I1029 12:04:19.030125  9851 net.cpp:453] Found INQ layer:fire7/expand3x3, type: INQConvolution, layer id:52
I1029 12:04:19.030131  9851 net.cpp:453] Found INQ layer:fire7/expand3x3, type: INQConvolution, layer id:52
I1029 12:04:19.030138  9851 net.cpp:453] Found INQ layer:fire7/expand3x3, type: INQConvolution, layer id:52
I1029 12:04:19.030143  9851 layer_factory.hpp:77] Creating layer fire7/relu_expand3x3
I1029 12:04:19.030154  9851 net.cpp:84] Creating Layer fire7/relu_expand3x3
I1029 12:04:19.030160  9851 net.cpp:413] fire7/relu_expand3x3 <- fire7/expand3x3
I1029 12:04:19.030167  9851 net.cpp:374] fire7/relu_expand3x3 -> fire7/expand3x3 (in-place)
I1029 12:04:19.030390  9851 net.cpp:127] Setting up fire7/relu_expand3x3
I1029 12:04:19.030402  9851 net.cpp:136] Top shape: 50 192 14 14 (1881600)
I1029 12:04:19.030407  9851 net.cpp:144] Memory required for data: 1361324600
I1029 12:04:19.030413  9851 layer_factory.hpp:77] Creating layer fire7/concat
I1029 12:04:19.030423  9851 net.cpp:84] Creating Layer fire7/concat
I1029 12:04:19.030428  9851 net.cpp:413] fire7/concat <- fire7/expand1x1
I1029 12:04:19.030436  9851 net.cpp:413] fire7/concat <- fire7/expand3x3
I1029 12:04:19.030442  9851 net.cpp:387] fire7/concat -> fire7/concat
I1029 12:04:19.030478  9851 net.cpp:127] Setting up fire7/concat
I1029 12:04:19.030485  9851 net.cpp:136] Top shape: 50 384 14 14 (3763200)
I1029 12:04:19.030490  9851 net.cpp:144] Memory required for data: 1376377400
I1029 12:04:19.030495  9851 layer_factory.hpp:77] Creating layer fire8/squeeze1x1
I1029 12:04:19.030508  9851 net.cpp:84] Creating Layer fire8/squeeze1x1
I1029 12:04:19.030513  9851 net.cpp:413] fire8/squeeze1x1 <- fire7/concat
I1029 12:04:19.030522  9851 net.cpp:387] fire8/squeeze1x1 -> fire8/squeeze1x1
I1029 12:04:19.032471  9851 net.cpp:127] Setting up fire8/squeeze1x1
I1029 12:04:19.032505  9851 net.cpp:136] Top shape: 50 64 14 14 (627200)
I1029 12:04:19.032513  9851 net.cpp:144] Memory required for data: 1378886200
I1029 12:04:19.032522  9851 net.cpp:453] Found INQ layer:fire8/squeeze1x1, type: INQConvolution, layer id:55
I1029 12:04:19.032531  9851 net.cpp:453] Found INQ layer:fire8/squeeze1x1, type: INQConvolution, layer id:55
I1029 12:04:19.032536  9851 net.cpp:453] Found INQ layer:fire8/squeeze1x1, type: INQConvolution, layer id:55
I1029 12:04:19.032543  9851 net.cpp:453] Found INQ layer:fire8/squeeze1x1, type: INQConvolution, layer id:55
I1029 12:04:19.032548  9851 layer_factory.hpp:77] Creating layer fire8/relu_squeeze1x1
I1029 12:04:19.032557  9851 net.cpp:84] Creating Layer fire8/relu_squeeze1x1
I1029 12:04:19.032569  9851 net.cpp:413] fire8/relu_squeeze1x1 <- fire8/squeeze1x1
I1029 12:04:19.032577  9851 net.cpp:374] fire8/relu_squeeze1x1 -> fire8/squeeze1x1 (in-place)
I1029 12:04:19.032805  9851 net.cpp:127] Setting up fire8/relu_squeeze1x1
I1029 12:04:19.032819  9851 net.cpp:136] Top shape: 50 64 14 14 (627200)
I1029 12:04:19.032826  9851 net.cpp:144] Memory required for data: 1381395000
I1029 12:04:19.032832  9851 layer_factory.hpp:77] Creating layer fire8/squeeze1x1_fire8/relu_squeeze1x1_0_split
I1029 12:04:19.032842  9851 net.cpp:84] Creating Layer fire8/squeeze1x1_fire8/relu_squeeze1x1_0_split
I1029 12:04:19.032848  9851 net.cpp:413] fire8/squeeze1x1_fire8/relu_squeeze1x1_0_split <- fire8/squeeze1x1
I1029 12:04:19.032855  9851 net.cpp:387] fire8/squeeze1x1_fire8/relu_squeeze1x1_0_split -> fire8/squeeze1x1_fire8/relu_squeeze1x1_0_split_0
I1029 12:04:19.032865  9851 net.cpp:387] fire8/squeeze1x1_fire8/relu_squeeze1x1_0_split -> fire8/squeeze1x1_fire8/relu_squeeze1x1_0_split_1
I1029 12:04:19.032920  9851 net.cpp:127] Setting up fire8/squeeze1x1_fire8/relu_squeeze1x1_0_split
I1029 12:04:19.032929  9851 net.cpp:136] Top shape: 50 64 14 14 (627200)
I1029 12:04:19.032935  9851 net.cpp:136] Top shape: 50 64 14 14 (627200)
I1029 12:04:19.032940  9851 net.cpp:144] Memory required for data: 1386412600
I1029 12:04:19.032945  9851 layer_factory.hpp:77] Creating layer fire8/expand1x1
I1029 12:04:19.032958  9851 net.cpp:84] Creating Layer fire8/expand1x1
I1029 12:04:19.032963  9851 net.cpp:413] fire8/expand1x1 <- fire8/squeeze1x1_fire8/relu_squeeze1x1_0_split_0
I1029 12:04:19.032974  9851 net.cpp:387] fire8/expand1x1 -> fire8/expand1x1
I1029 12:04:19.033463  9851 net.cpp:127] Setting up fire8/expand1x1
I1029 12:04:19.033478  9851 net.cpp:136] Top shape: 50 256 14 14 (2508800)
I1029 12:04:19.033484  9851 net.cpp:144] Memory required for data: 1396447800
I1029 12:04:19.033493  9851 net.cpp:453] Found INQ layer:fire8/expand1x1, type: INQConvolution, layer id:58
I1029 12:04:19.033500  9851 net.cpp:453] Found INQ layer:fire8/expand1x1, type: INQConvolution, layer id:58
I1029 12:04:19.033506  9851 net.cpp:453] Found INQ layer:fire8/expand1x1, type: INQConvolution, layer id:58
I1029 12:04:19.033512  9851 net.cpp:453] Found INQ layer:fire8/expand1x1, type: INQConvolution, layer id:58
I1029 12:04:19.033517  9851 layer_factory.hpp:77] Creating layer fire8/relu_expand1x1
I1029 12:04:19.033524  9851 net.cpp:84] Creating Layer fire8/relu_expand1x1
I1029 12:04:19.033531  9851 net.cpp:413] fire8/relu_expand1x1 <- fire8/expand1x1
I1029 12:04:19.033540  9851 net.cpp:374] fire8/relu_expand1x1 -> fire8/expand1x1 (in-place)
I1029 12:04:19.033759  9851 net.cpp:127] Setting up fire8/relu_expand1x1
I1029 12:04:19.033772  9851 net.cpp:136] Top shape: 50 256 14 14 (2508800)
I1029 12:04:19.033778  9851 net.cpp:144] Memory required for data: 1406483000
I1029 12:04:19.033784  9851 layer_factory.hpp:77] Creating layer fire8/expand3x3
I1029 12:04:19.033797  9851 net.cpp:84] Creating Layer fire8/expand3x3
I1029 12:04:19.033802  9851 net.cpp:413] fire8/expand3x3 <- fire8/squeeze1x1_fire8/relu_squeeze1x1_0_split_1
I1029 12:04:19.033812  9851 net.cpp:387] fire8/expand3x3 -> fire8/expand3x3
I1029 12:04:19.036660  9851 net.cpp:127] Setting up fire8/expand3x3
I1029 12:04:19.036689  9851 net.cpp:136] Top shape: 50 256 14 14 (2508800)
I1029 12:04:19.036712  9851 net.cpp:144] Memory required for data: 1416518200
I1029 12:04:19.036721  9851 net.cpp:453] Found INQ layer:fire8/expand3x3, type: INQConvolution, layer id:60
I1029 12:04:19.036731  9851 net.cpp:453] Found INQ layer:fire8/expand3x3, type: INQConvolution, layer id:60
I1029 12:04:19.036736  9851 net.cpp:453] Found INQ layer:fire8/expand3x3, type: INQConvolution, layer id:60
I1029 12:04:19.036742  9851 net.cpp:453] Found INQ layer:fire8/expand3x3, type: INQConvolution, layer id:60
I1029 12:04:19.036748  9851 layer_factory.hpp:77] Creating layer fire8/relu_expand3x3
I1029 12:04:19.036756  9851 net.cpp:84] Creating Layer fire8/relu_expand3x3
I1029 12:04:19.036763  9851 net.cpp:413] fire8/relu_expand3x3 <- fire8/expand3x3
I1029 12:04:19.036770  9851 net.cpp:374] fire8/relu_expand3x3 -> fire8/expand3x3 (in-place)
I1029 12:04:19.038205  9851 net.cpp:127] Setting up fire8/relu_expand3x3
I1029 12:04:19.038225  9851 net.cpp:136] Top shape: 50 256 14 14 (2508800)
I1029 12:04:19.038234  9851 net.cpp:144] Memory required for data: 1426553400
I1029 12:04:19.038240  9851 layer_factory.hpp:77] Creating layer fire8/concat
I1029 12:04:19.038252  9851 net.cpp:84] Creating Layer fire8/concat
I1029 12:04:19.038259  9851 net.cpp:413] fire8/concat <- fire8/expand1x1
I1029 12:04:19.038266  9851 net.cpp:413] fire8/concat <- fire8/expand3x3
I1029 12:04:19.038275  9851 net.cpp:387] fire8/concat -> fire8/concat
I1029 12:04:19.038319  9851 net.cpp:127] Setting up fire8/concat
I1029 12:04:19.038331  9851 net.cpp:136] Top shape: 50 512 14 14 (5017600)
I1029 12:04:19.038337  9851 net.cpp:144] Memory required for data: 1446623800
I1029 12:04:19.038342  9851 layer_factory.hpp:77] Creating layer fire9/squeeze1x1
I1029 12:04:19.038355  9851 net.cpp:84] Creating Layer fire9/squeeze1x1
I1029 12:04:19.038362  9851 net.cpp:413] fire9/squeeze1x1 <- fire8/concat
I1029 12:04:19.038372  9851 net.cpp:387] fire9/squeeze1x1 -> fire9/squeeze1x1
I1029 12:04:19.038991  9851 net.cpp:127] Setting up fire9/squeeze1x1
I1029 12:04:19.039005  9851 net.cpp:136] Top shape: 50 64 14 14 (627200)
I1029 12:04:19.039011  9851 net.cpp:144] Memory required for data: 1449132600
I1029 12:04:19.039018  9851 net.cpp:453] Found INQ layer:fire9/squeeze1x1, type: INQConvolution, layer id:63
I1029 12:04:19.039026  9851 net.cpp:453] Found INQ layer:fire9/squeeze1x1, type: INQConvolution, layer id:63
I1029 12:04:19.039032  9851 net.cpp:453] Found INQ layer:fire9/squeeze1x1, type: INQConvolution, layer id:63
I1029 12:04:19.039037  9851 net.cpp:453] Found INQ layer:fire9/squeeze1x1, type: INQConvolution, layer id:63
I1029 12:04:19.039042  9851 layer_factory.hpp:77] Creating layer fire9/relu_squeeze1x1
I1029 12:04:19.039058  9851 net.cpp:84] Creating Layer fire9/relu_squeeze1x1
I1029 12:04:19.039064  9851 net.cpp:413] fire9/relu_squeeze1x1 <- fire9/squeeze1x1
I1029 12:04:19.039072  9851 net.cpp:374] fire9/relu_squeeze1x1 -> fire9/squeeze1x1 (in-place)
I1029 12:04:19.039290  9851 net.cpp:127] Setting up fire9/relu_squeeze1x1
I1029 12:04:19.039309  9851 net.cpp:136] Top shape: 50 64 14 14 (627200)
I1029 12:04:19.039317  9851 net.cpp:144] Memory required for data: 1451641400
I1029 12:04:19.039324  9851 layer_factory.hpp:77] Creating layer fire9/squeeze1x1_fire9/relu_squeeze1x1_0_split
I1029 12:04:19.039335  9851 net.cpp:84] Creating Layer fire9/squeeze1x1_fire9/relu_squeeze1x1_0_split
I1029 12:04:19.039340  9851 net.cpp:413] fire9/squeeze1x1_fire9/relu_squeeze1x1_0_split <- fire9/squeeze1x1
I1029 12:04:19.039350  9851 net.cpp:387] fire9/squeeze1x1_fire9/relu_squeeze1x1_0_split -> fire9/squeeze1x1_fire9/relu_squeeze1x1_0_split_0
I1029 12:04:19.039358  9851 net.cpp:387] fire9/squeeze1x1_fire9/relu_squeeze1x1_0_split -> fire9/squeeze1x1_fire9/relu_squeeze1x1_0_split_1
I1029 12:04:19.039410  9851 net.cpp:127] Setting up fire9/squeeze1x1_fire9/relu_squeeze1x1_0_split
I1029 12:04:19.039420  9851 net.cpp:136] Top shape: 50 64 14 14 (627200)
I1029 12:04:19.039427  9851 net.cpp:136] Top shape: 50 64 14 14 (627200)
I1029 12:04:19.039440  9851 net.cpp:144] Memory required for data: 1456659000
I1029 12:04:19.039464  9851 layer_factory.hpp:77] Creating layer fire9/expand1x1
I1029 12:04:19.039477  9851 net.cpp:84] Creating Layer fire9/expand1x1
I1029 12:04:19.039484  9851 net.cpp:413] fire9/expand1x1 <- fire9/squeeze1x1_fire9/relu_squeeze1x1_0_split_0
I1029 12:04:19.039497  9851 net.cpp:387] fire9/expand1x1 -> fire9/expand1x1
I1029 12:04:19.039983  9851 net.cpp:127] Setting up fire9/expand1x1
I1029 12:04:19.039994  9851 net.cpp:136] Top shape: 50 256 14 14 (2508800)
I1029 12:04:19.040000  9851 net.cpp:144] Memory required for data: 1466694200
I1029 12:04:19.040009  9851 net.cpp:453] Found INQ layer:fire9/expand1x1, type: INQConvolution, layer id:66
I1029 12:04:19.040015  9851 net.cpp:453] Found INQ layer:fire9/expand1x1, type: INQConvolution, layer id:66
I1029 12:04:19.040021  9851 net.cpp:453] Found INQ layer:fire9/expand1x1, type: INQConvolution, layer id:66
I1029 12:04:19.040026  9851 net.cpp:453] Found INQ layer:fire9/expand1x1, type: INQConvolution, layer id:66
I1029 12:04:19.040031  9851 layer_factory.hpp:77] Creating layer fire9/relu_expand1x1
I1029 12:04:19.040040  9851 net.cpp:84] Creating Layer fire9/relu_expand1x1
I1029 12:04:19.040047  9851 net.cpp:413] fire9/relu_expand1x1 <- fire9/expand1x1
I1029 12:04:19.040053  9851 net.cpp:374] fire9/relu_expand1x1 -> fire9/expand1x1 (in-place)
I1029 12:04:19.040271  9851 net.cpp:127] Setting up fire9/relu_expand1x1
I1029 12:04:19.040284  9851 net.cpp:136] Top shape: 50 256 14 14 (2508800)
I1029 12:04:19.040292  9851 net.cpp:144] Memory required for data: 1476729400
I1029 12:04:19.040302  9851 layer_factory.hpp:77] Creating layer fire9/expand3x3
I1029 12:04:19.040318  9851 net.cpp:84] Creating Layer fire9/expand3x3
I1029 12:04:19.040324  9851 net.cpp:413] fire9/expand3x3 <- fire9/squeeze1x1_fire9/relu_squeeze1x1_0_split_1
I1029 12:04:19.040333  9851 net.cpp:387] fire9/expand3x3 -> fire9/expand3x3
I1029 12:04:19.043190  9851 net.cpp:127] Setting up fire9/expand3x3
I1029 12:04:19.043210  9851 net.cpp:136] Top shape: 50 256 14 14 (2508800)
I1029 12:04:19.043217  9851 net.cpp:144] Memory required for data: 1486764600
I1029 12:04:19.043226  9851 net.cpp:453] Found INQ layer:fire9/expand3x3, type: INQConvolution, layer id:68
I1029 12:04:19.043234  9851 net.cpp:453] Found INQ layer:fire9/expand3x3, type: INQConvolution, layer id:68
I1029 12:04:19.043241  9851 net.cpp:453] Found INQ layer:fire9/expand3x3, type: INQConvolution, layer id:68
I1029 12:04:19.043246  9851 net.cpp:453] Found INQ layer:fire9/expand3x3, type: INQConvolution, layer id:68
I1029 12:04:19.043251  9851 layer_factory.hpp:77] Creating layer fire9/relu_expand3x3
I1029 12:04:19.043260  9851 net.cpp:84] Creating Layer fire9/relu_expand3x3
I1029 12:04:19.043267  9851 net.cpp:413] fire9/relu_expand3x3 <- fire9/expand3x3
I1029 12:04:19.043275  9851 net.cpp:374] fire9/relu_expand3x3 -> fire9/expand3x3 (in-place)
I1029 12:04:19.043509  9851 net.cpp:127] Setting up fire9/relu_expand3x3
I1029 12:04:19.043524  9851 net.cpp:136] Top shape: 50 256 14 14 (2508800)
I1029 12:04:19.043530  9851 net.cpp:144] Memory required for data: 1496799800
I1029 12:04:19.043536  9851 layer_factory.hpp:77] Creating layer fire9/concat
I1029 12:04:19.043545  9851 net.cpp:84] Creating Layer fire9/concat
I1029 12:04:19.043550  9851 net.cpp:413] fire9/concat <- fire9/expand1x1
I1029 12:04:19.043557  9851 net.cpp:413] fire9/concat <- fire9/expand3x3
I1029 12:04:19.043566  9851 net.cpp:387] fire9/concat -> fire9/concat
I1029 12:04:19.043601  9851 net.cpp:127] Setting up fire9/concat
I1029 12:04:19.043612  9851 net.cpp:136] Top shape: 50 512 14 14 (5017600)
I1029 12:04:19.043617  9851 net.cpp:144] Memory required for data: 1516870200
I1029 12:04:19.043622  9851 layer_factory.hpp:77] Creating layer drop9
I1029 12:04:19.043633  9851 net.cpp:84] Creating Layer drop9
I1029 12:04:19.043639  9851 net.cpp:413] drop9 <- fire9/concat
I1029 12:04:19.043645  9851 net.cpp:374] drop9 -> fire9/concat (in-place)
I1029 12:04:19.043685  9851 net.cpp:127] Setting up drop9
I1029 12:04:19.043695  9851 net.cpp:136] Top shape: 50 512 14 14 (5017600)
I1029 12:04:19.043717  9851 net.cpp:144] Memory required for data: 1536940600
I1029 12:04:19.043723  9851 layer_factory.hpp:77] Creating layer conv10
I1029 12:04:19.043736  9851 net.cpp:84] Creating Layer conv10
I1029 12:04:19.043742  9851 net.cpp:413] conv10 <- fire9/concat
I1029 12:04:19.043752  9851 net.cpp:387] conv10 -> conv10
I1029 12:04:19.053344  9851 net.cpp:127] Setting up conv10
I1029 12:04:19.053365  9851 net.cpp:136] Top shape: 50 1000 14 14 (9800000)
I1029 12:04:19.053375  9851 net.cpp:144] Memory required for data: 1576140600
I1029 12:04:19.053385  9851 net.cpp:453] Found INQ layer:conv10, type: INQConvolution, layer id:72
I1029 12:04:19.053393  9851 net.cpp:453] Found INQ layer:conv10, type: INQConvolution, layer id:72
I1029 12:04:19.053400  9851 net.cpp:453] Found INQ layer:conv10, type: INQConvolution, layer id:72
I1029 12:04:19.053405  9851 net.cpp:453] Found INQ layer:conv10, type: INQConvolution, layer id:72
I1029 12:04:19.053409  9851 layer_factory.hpp:77] Creating layer relu_conv10
I1029 12:04:19.053421  9851 net.cpp:84] Creating Layer relu_conv10
I1029 12:04:19.053426  9851 net.cpp:413] relu_conv10 <- conv10
I1029 12:04:19.053434  9851 net.cpp:374] relu_conv10 -> conv10 (in-place)
I1029 12:04:19.054886  9851 net.cpp:127] Setting up relu_conv10
I1029 12:04:19.054908  9851 net.cpp:136] Top shape: 50 1000 14 14 (9800000)
I1029 12:04:19.054916  9851 net.cpp:144] Memory required for data: 1615340600
I1029 12:04:19.054924  9851 layer_factory.hpp:77] Creating layer pool10
I1029 12:04:19.054934  9851 net.cpp:84] Creating Layer pool10
I1029 12:04:19.054940  9851 net.cpp:413] pool10 <- conv10
I1029 12:04:19.054949  9851 net.cpp:387] pool10 -> pool10
I1029 12:04:19.055188  9851 net.cpp:127] Setting up pool10
I1029 12:04:19.055202  9851 net.cpp:136] Top shape: 50 1000 1 1 (50000)
I1029 12:04:19.055209  9851 net.cpp:144] Memory required for data: 1615540600
I1029 12:04:19.055214  9851 layer_factory.hpp:77] Creating layer pool10_pool10_0_split
I1029 12:04:19.055225  9851 net.cpp:84] Creating Layer pool10_pool10_0_split
I1029 12:04:19.055230  9851 net.cpp:413] pool10_pool10_0_split <- pool10
I1029 12:04:19.055239  9851 net.cpp:387] pool10_pool10_0_split -> pool10_pool10_0_split_0
I1029 12:04:19.055248  9851 net.cpp:387] pool10_pool10_0_split -> pool10_pool10_0_split_1
I1029 12:04:19.055256  9851 net.cpp:387] pool10_pool10_0_split -> pool10_pool10_0_split_2
I1029 12:04:19.055330  9851 net.cpp:127] Setting up pool10_pool10_0_split
I1029 12:04:19.055341  9851 net.cpp:136] Top shape: 50 1000 1 1 (50000)
I1029 12:04:19.055347  9851 net.cpp:136] Top shape: 50 1000 1 1 (50000)
I1029 12:04:19.055354  9851 net.cpp:136] Top shape: 50 1000 1 1 (50000)
I1029 12:04:19.055358  9851 net.cpp:144] Memory required for data: 1616140600
I1029 12:04:19.055363  9851 layer_factory.hpp:77] Creating layer loss
I1029 12:04:19.055373  9851 net.cpp:84] Creating Layer loss
I1029 12:04:19.055379  9851 net.cpp:413] loss <- pool10_pool10_0_split_0
I1029 12:04:19.055387  9851 net.cpp:413] loss <- label_data_1_split_0
I1029 12:04:19.055393  9851 net.cpp:387] loss -> loss
…
