…
I1026 14:57:58.543014 20580 net.cpp:301] The NetState phase (0) differed from the phase (1) specified by a rule in layer accuracy_top5
I1026 14:57:58.543725 20580 net.cpp:51] Initializing net from parameters: 
name: "SqueezeNet"
state {
  phase: TRAIN
  level: 0
  stage: ""
}
layer {
  name: "data"
  type: "Data"
  top: "data"
  top: "label"
  include {
    phase: TRAIN
  }
  transform_param {
    crop_size: 227
    mean_value: 104
    mean_value: 117
    mean_value: 123
  }
  data_param {
    source: "/home/data/caffe-imagenet/ilsvrc12_train_lmdb"
    batch_size: 128
    backend: LMDB
  }
}
layer {
  name: "conv1"
  type: "INQConvolution"
  bottom: "data"
  top: "conv1"
  convolution_param {
    num_output: 64
    kernel_size: 3
    stride: 2
    weight_filler {
      type: "xavier"
    }
  }
  inq_convolution_param {
    portion: 0
    portion: 0.1
    weight_mask_filler {
      type: "constant"
      value: 1
    }
    bias_mask_filler {
      type: "constant"
      value: 1
    }
    num_quantum_values: 7
  }
}
layer {
  name: "relu_conv1"
  type: "ReLU"
  bottom: "conv1"
  top: "conv1"
}
layer {
  name: "pool1"
  type: "Pooling"
  bottom: "conv1"
  top: "pool1"
  pooling_param {
    pool: MAX
    kernel_size: 3
    stride: 2
  }
}
layer {
  name: "fire2/squeeze1x1"
  type: "INQConvolution"
  bottom: "pool1"
  top: "fire2/squeeze1x1"
  convolution_param {
    num_output: 16
    kernel_size: 1
    weight_filler {
      type: "xavier"
    }
  }
  inq_convolution_param {
    portion: 0
    portion: 0.1
    weight_mask_filler {
      type: "constant"
      value: 1
    }
    bias_mask_filler {
      type: "constant"
      value: 1
    }
    num_quantum_values: 7
  }
}
layer {
  name: "fire2/relu_squeeze1x1"
  type: "ReLU"
  bottom: "fire2/squeeze1x1"
  top: "fire2/squeeze1x1"
}
layer {
  name: "fire2/expand1x1"
  type: "INQConvolution"
  bottom: "fire2/squeeze1x1"
  top: "fire2/expand1x1"
  convolution_param {
    num_output: 64
    kernel_size: 1
    weight_filler {
      type: "xavier"
    }
  }
  inq_convolution_param {
    portion: 0
    portion: 0.1
    weight_mask_filler {
      type: "constant"
      value: 1
    }
    bias_mask_filler {
      type: "constant"
      value: 1
    }
    num_quantum_values: 7
  }
}
layer {
  name: "fire2/relu_expand1x1"
  type: "ReLU"
  bottom: "fire2/expand1x1"
  top: "fire2/expand1x1"
}
layer {
  name: "fire2/expand3x3"
  type: "INQConvolution"
  bottom: "fire2/squeeze1x1"
  top: "fire2/expand3x3"
  convolution_param {
    num_output: 64
    pad: 1
    kernel_size: 3
    weight_filler {
      type: "xavier"
    }
  }
  inq_convolution_param {
    portion: 0
    portion: 0.1
    weight_mask_filler {
      type: "constant"
      value: 1
    }
    bias_mask_filler {
      type: "constant"
      value: 1
    }
    num_quantum_values: 7
  }
}
layer {
  name: "fire2/relu_expand3x3"
  type: "ReLU"
  bottom: "fire2/expand3x3"
  top: "fire2/expand3x3"
}
layer {
  name: "fire2/concat"
  type: "Concat"
  bottom: "fire2/expand1x1"
  bottom: "fire2/expand3x3"
  top: "fire2/concat"
}
layer {
  name: "fire3/squeeze1x1"
  type: "INQConvolution"
  bottom: "fire2/concat"
  top: "fire3/squeeze1x1"
  convolution_param {
    num_output: 16
    kernel_size: 1
    weight_filler {
      type: "xavier"
    }
  }
  inq_convolution_param {
    portion: 0
    portion: 0.1
    weight_mask_filler {
      type: "constant"
      value: 1
    }
    bias_mask_filler {
      type: "constant"
      value: 1
    }
    num_quantum_values: 7
  }
}
layer {
  name: "fire3/relu_squeeze1x1"
  type: "ReLU"
  bottom: "fire3/squeeze1x1"
  top: "fire3/squeeze1x1"
}
layer {
  name: "fire3/expand1x1"
  type: "INQConvolution"
  bottom: "fire3/squeeze1x1"
  top: "fire3/expand1x1"
  convolution_param {
    num_output: 64
    kernel_size: 1
    weight_filler {
      type: "xavier"
    }
  }
  inq_convolution_param {
    portion: 0
    portion: 0.1
    weight_mask_filler {
      type: "constant"
      value: 1
    }
    bias_mask_filler {
      type: "constant"
      value: 1
    }
    num_quantum_values: 7
  }
}
layer {
  name: "fire3/relu_expand1x1"
  type: "ReLU"
  bottom: "fire3/expand1x1"
  top: "fire3/expand1x1"
}
layer {
  name: "fire3/expand3x3"
  type: "INQConvolution"
  bottom: "fire3/squeeze1x1"
  top: "fire3/expand3x3"
  convolution_param {
    num_output: 64
    pad: 1
    kernel_size: 3
    weight_filler {
      type: "xavier"
    }
  }
  inq_convolution_param {
    portion: 0
    portion: 0.1
    weight_mask_filler {
      type: "constant"
      value: 1
    }
    bias_mask_filler {
      type: "constant"
      value: 1
    }
    num_quantum_values: 7
  }
}
layer {
  name: "fire3/relu_expand3x3"
  type: "ReLU"
  bottom: "fire3/expand3x3"
  top: "fire3/expand3x3"
}
layer {
  name: "fire3/concat"
  type: "Concat"
  bottom: "fire3/expand1x1"
  bottom: "fire3/expand3x3"
  top: "fire3/concat"
}
layer {
  name: "pool3"
  type: "Pooling"
  bottom: "fire3/concat"
  top: "pool3"
  pooling_param {
    pool: MAX
    kernel_size: 3
    stride: 2
  }
}
layer {
  name: "fire4/squeeze1x1"
  type: "INQConvolution"
  bottom: "pool3"
  top: "fire4/squeeze1x1"
  convolution_param {
    num_output: 32
    kernel_size: 1
    weight_filler {
      type: "xavier"
    }
  }
  inq_convolution_param {
    portion: 0
    portion: 0.1
    weight_mask_filler {
      type: "constant"
      value: 1
    }
    bias_mask_filler {
      type: "constant"
      value: 1
    }
    num_quantum_values: 7
  }
}
layer {
  name: "fire4/relu_squeeze1x1"
  type: "ReLU"
  bottom: "fire4/squeeze1x1"
  top: "fire4/squeeze1x1"
}
layer {
  name: "fire4/expand1x1"
  type: "INQConvolution"
  bottom: "fire4/squeeze1x1"
  top: "fire4/expand1x1"
  convolution_param {
    num_output: 128
    kernel_size: 1
    weight_filler {
      type: "xavier"
    }
  }
  inq_convolution_param {
    portion: 0
    portion: 0.1
    weight_mask_filler {
      type: "constant"
      value: 1
    }
    bias_mask_filler {
      type: "constant"
      value: 1
    }
    num_quantum_values: 7
  }
}
layer {
  name: "fire4/relu_expand1x1"
  type: "ReLU"
  bottom: "fire4/expand1x1"
  top: "fire4/expand1x1"
}
layer {
  name: "fire4/expand3x3"
  type: "INQConvolution"
  bottom: "fire4/squeeze1x1"
  top: "fire4/expand3x3"
  convolution_param {
    num_output: 128
    pad: 1
    kernel_size: 3
    weight_filler {
      type: "xavier"
    }
  }
  inq_convolution_param {
    portion: 0
    portion: 0.1
    weight_mask_filler {
      type: "constant"
      value: 1
    }
    bias_mask_filler {
      type: "constant"
      value: 1
    }
    num_quantum_values: 7
  }
}
layer {
  name: "fire4/relu_expand3x3"
  type: "ReLU"
  bottom: "fire4/expand3x3"
  top: "fire4/expand3x3"
}
layer {
  name: "fire4/concat"
  type: "Concat"
  bottom: "fire4/expand1x1"
  bottom: "fire4/expand3x3"
  top: "fire4/concat"
}
layer {
  name: "fire5/squeeze1x1"
  type: "INQConvolution"
  bottom: "fire4/concat"
  top: "fire5/squeeze1x1"
  convolution_param {
    num_output: 32
    kernel_size: 1
    weight_filler {
      type: "xavier"
    }
  }
  inq_convolution_param {
    portion: 0
    portion: 0.1
    weight_mask_filler {
      type: "constant"
      value: 1
    }
    bias_mask_filler {
      type: "constant"
      value: 1
    }
    num_quantum_values: 7
  }
}
layer {
  name: "fire5/relu_squeeze1x1"
  type: "ReLU"
  bottom: "fire5/squeeze1x1"
  top: "fire5/squeeze1x1"
}
layer {
  name: "fire5/expand1x1"
  type: "INQConvolution"
  bottom: "fire5/squeeze1x1"
  top: "fire5/expand1x1"
  convolution_param {
    num_output: 128
    kernel_size: 1
    weight_filler {
      type: "xavier"
    }
  }
  inq_convolution_param {
    portion: 0
    portion: 0.1
    weight_mask_filler {
      type: "constant"
      value: 1
    }
    bias_mask_filler {
      type: "constant"
      value: 1
    }
    num_quantum_values: 7
  }
}
layer {
  name: "fire5/relu_expand1x1"
  type: "ReLU"
  bottom: "fire5/expand1x1"
  top: "fire5/expand1x1"
}
layer {
  name: "fire5/expand3x3"
  type: "INQConvolution"
  bottom: "fire5/squeeze1x1"
  top: "fire5/expand3x3"
  convolution_param {
    num_output: 128
    pad: 1
    kernel_size: 3
    weight_filler {
      type: "xavier"
    }
  }
  inq_convolution_param {
    portion: 0
    portion: 0.1
    weight_mask_filler {
      type: "constant"
      value: 1
    }
    bias_mask_filler {
      type: "constant"
      value: 1
    }
    num_quantum_values: 7
  }
}
layer {
  name: "fire5/relu_expand3x3"
  type: "ReLU"
  bottom: "fire5/expand3x3"
  top: "fire5/expand3x3"
}
layer {
  name: "fire5/concat"
  type: "Concat"
  bottom: "fire5/expand1x1"
  bottom: "fire5/expand3x3"
  top: "fire5/concat"
}
layer {
  name: "pool5"
  type: "Pooling"
  bottom: "fire5/concat"
  top: "pool5"
  pooling_param {
    pool: MAX
    kernel_size: 3
    stride: 2
  }
}
layer {
  name: "fire6/squeeze1x1"
  type: "INQConvolution"
  bottom: "pool5"
  top: "fire6/squeeze1x1"
  convolution_param {
    num_output: 48
    kernel_size: 1
    weight_filler {
      type: "xavier"
    }
  }
  inq_convolution_param {
    portion: 0
    portion: 0.1
    weight_mask_filler {
      type: "constant"
      value: 1
    }
    bias_mask_filler {
      type: "constant"
      value: 1
    }
    num_quantum_values: 7
  }
}
layer {
  name: "fire6/relu_squeeze1x1"
  type: "ReLU"
  bottom: "fire6/squeeze1x1"
  top: "fire6/squeeze1x1"
}
layer {
  name: "fire6/expand1x1"
  type: "INQConvolution"
  bottom: "fire6/squeeze1x1"
  top: "fire6/expand1x1"
  convolution_param {
    num_output: 192
    kernel_size: 1
    weight_filler {
      type: "xavier"
    }
  }
  inq_convolution_param {
    portion: 0
    portion: 0.1
    weight_mask_filler {
      type: "constant"
      value: 1
    }
    bias_mask_filler {
      type: "constant"
      value: 1
    }
    num_quantum_values: 7
  }
}
layer {
  name: "fire6/relu_expand1x1"
  type: "ReLU"
  bottom: "fire6/expand1x1"
  top: "fire6/expand1x1"
}
layer {
  name: "fire6/expand3x3"
  type: "INQConvolution"
  bottom: "fire6/squeeze1x1"
  top: "fire6/expand3x3"
  convolution_param {
    num_output: 192
    pad: 1
    kernel_size: 3
    weight_filler {
      type: "xavier"
    }
  }
  inq_convolution_param {
    portion: 0
    portion: 0.1
    weight_mask_filler {
      type: "constant"
      value: 1
    }
    bias_mask_filler {
      type: "constant"
      value: 1
    }
    num_quantum_values: 7
  }
}
layer {
  name: "fire6/relu_expand3x3"
  type: "ReLU"
  bottom: "fire6/expand3x3"
  top: "fire6/expand3x3"
}
layer {
  name: "fire6/concat"
  type: "Concat"
  bottom: "fire6/expand1x1"
  bottom: "fire6/expand3x3"
  top: "fire6/concat"
}
layer {
  name: "fire7/squeeze1x1"
  type: "INQConvolution"
  bottom: "fire6/concat"
  top: "fire7/squeeze1x1"
  convolution_param {
    num_output: 48
    kernel_size: 1
    weight_filler {
      type: "xavier"
    }
  }
  inq_convolution_param {
    portion: 0
    portion: 0.1
    weight_mask_filler {
      type: "constant"
      value: 1
    }
    bias_mask_filler {
      type: "constant"
      value: 1
    }
    num_quantum_values: 7
  }
}
layer {
  name: "fire7/relu_squeeze1x1"
  type: "ReLU"
  bottom: "fire7/squeeze1x1"
  top: "fire7/squeeze1x1"
}
layer {
  name: "fire7/expand1x1"
  type: "INQConvolution"
  bottom: "fire7/squeeze1x1"
  top: "fire7/expand1x1"
  convolution_param {
    num_output: 192
    kernel_size: 1
    weight_filler {
      type: "xavier"
    }
  }
  inq_convolution_param {
    portion: 0
    portion: 0.1
    weight_mask_filler {
      type: "constant"
      value: 1
    }
    bias_mask_filler {
      type: "constant"
      value: 1
    }
    num_quantum_values: 7
  }
}
layer {
  name: "fire7/relu_expand1x1"
  type: "ReLU"
  bottom: "fire7/expand1x1"
  top: "fire7/expand1x1"
}
layer {
  name: "fire7/expand3x3"
  type: "INQConvolution"
  bottom: "fire7/squeeze1x1"
  top: "fire7/expand3x3"
  convolution_param {
    num_output: 192
    pad: 1
    kernel_size: 3
    weight_filler {
      type: "xavier"
    }
  }
  inq_convolution_param {
    portion: 0
    portion: 0.1
    weight_mask_filler {
      type: "constant"
      value: 1
    }
    bias_mask_filler {
      type: "constant"
      value: 1
    }
    num_quantum_values: 7
  }
}
layer {
  name: "fire7/relu_expand3x3"
  type: "ReLU"
  bottom: "fire7/expand3x3"
  top: "fire7/expand3x3"
}
layer {
  name: "fire7/concat"
  type: "Concat"
  bottom: "fire7/expand1x1"
  bottom: "fire7/expand3x3"
  top: "fire7/concat"
}
layer {
  name: "fire8/squeeze1x1"
  type: "INQConvolution"
  bottom: "fire7/concat"
  top: "fire8/squeeze1x1"
  convolution_param {
    num_output: 64
    kernel_size: 1
    weight_filler {
      type: "xavier"
    }
  }
  inq_convolution_param {
    portion: 0
    portion: 0.1
    weight_mask_filler {
      type: "constant"
      value: 1
    }
    bias_mask_filler {
      type: "constant"
      value: 1
    }
    num_quantum_values: 7
  }
}
layer {
  name: "fire8/relu_squeeze1x1"
  type: "ReLU"
  bottom: "fire8/squeeze1x1"
  top: "fire8/squeeze1x1"
}
layer {
  name: "fire8/expand1x1"
  type: "INQConvolution"
  bottom: "fire8/squeeze1x1"
  top: "fire8/expand1x1"
  convolution_param {
    num_output: 256
    kernel_size: 1
    weight_filler {
      type: "xavier"
    }
  }
  inq_convolution_param {
    portion: 0
    portion: 0.1
    weight_mask_filler {
      type: "constant"
      value: 1
    }
    bias_mask_filler {
      type: "constant"
      value: 1
    }
    num_quantum_values: 7
  }
}
layer {
  name: "fire8/relu_expand1x1"
  type: "ReLU"
  bottom: "fire8/expand1x1"
  top: "fire8/expand1x1"
}
layer {
  name: "fire8/expand3x3"
  type: "INQConvolution"
  bottom: "fire8/squeeze1x1"
  top: "fire8/expand3x3"
  convolution_param {
    num_output: 256
    pad: 1
    kernel_size: 3
    weight_filler {
      type: "xavier"
    }
  }
  inq_convolution_param {
    portion: 0
    portion: 0.1
    weight_mask_filler {
      type: "constant"
      value: 1
    }
    bias_mask_filler {
      type: "constant"
      value: 1
    }
    num_quantum_values: 7
  }
}
layer {
  name: "fire8/relu_expand3x3"
  type: "ReLU"
  bottom: "fire8/expand3x3"
  top: "fire8/expand3x3"
}
layer {
  name: "fire8/concat"
  type: "Concat"
  bottom: "fire8/expand1x1"
  bottom: "fire8/expand3x3"
  top: "fire8/concat"
}
layer {
  name: "fire9/squeeze1x1"
  type: "INQConvolution"
  bottom: "fire8/concat"
  top: "fire9/squeeze1x1"
  convolution_param {
    num_output: 64
    kernel_size: 1
    weight_filler {
      type: "xavier"
    }
  }
  inq_convolution_param {
    portion: 0
    portion: 0.1
    weight_mask_filler {
      type: "constant"
      value: 1
    }
    bias_mask_filler {
      type: "constant"
      value: 1
    }
    num_quantum_values: 7
  }
}
layer {
  name: "fire9/relu_squeeze1x1"
  type: "ReLU"
  bottom: "fire9/squeeze1x1"
  top: "fire9/squeeze1x1"
}
layer {
  name: "fire9/expand1x1"
  type: "INQConvolution"
  bottom: "fire9/squeeze1x1"
  top: "fire9/expand1x1"
  convolution_param {
    num_output: 256
    kernel_size: 1
    weight_filler {
      type: "xavier"
    }
  }
  inq_convolution_param {
    portion: 0
    portion: 0.1
    weight_mask_filler {
      type: "constant"
      value: 1
    }
    bias_mask_filler {
      type: "constant"
      value: 1
    }
    num_quantum_values: 7
  }
}
layer {
  name: "fire9/relu_expand1x1"
  type: "ReLU"
  bottom: "fire9/expand1x1"
  top: "fire9/expand1x1"
}
layer {
  name: "fire9/expand3x3"
  type: "INQConvolution"
  bottom: "fire9/squeeze1x1"
  top: "fire9/expand3x3"
  convolution_param {
    num_output: 256
    pad: 1
    kernel_size: 3
    weight_filler {
      type: "xavier"
    }
  }
  inq_convolution_param {
    portion: 0
    portion: 0.1
    weight_mask_filler {
      type: "constant"
      value: 1
    }
    bias_mask_filler {
      type: "constant"
      value: 1
    }
    num_quantum_values: 7
  }
}
layer {
  name: "fire9/relu_expand3x3"
  type: "ReLU"
  bottom: "fire9/expand3x3"
  top: "fire9/expand3x3"
}
layer {
  name: "fire9/concat"
  type: "Concat"
  bottom: "fire9/expand1x1"
  bottom: "fire9/expand3x3"
  top: "fire9/concat"
}
layer {
  name: "drop9"
  type: "Dropout"
  bottom: "fire9/concat"
  top: "fire9/concat"
  dropout_param {
    dropout_ratio: 0.5
  }
}
layer {
  name: "conv10"
  type: "INQConvolution"
  bottom: "fire9/concat"
  top: "conv10"
  convolution_param {
    num_output: 1000
    kernel_size: 1
    weight_filler {
      type: "gaussian"
      mean: 0
      std: 0.01
    }
  }
  inq_convolution_param {
    portion: 0
    portion: 0.1
    weight_mask_filler {
      type: "constant"
      value: 1
    }
    bias_mask_filler {
      type: "constant"
      value: 1
    }
    num_quantum_values: 7
  }
}
layer {
  name: "relu_conv10"
  type: "ReLU"
  bottom: "conv10"
  top: "conv10"
}
layer {
  name: "pool10"
  type: "Pooling"
  bottom: "conv10"
  top: "pool10"
  pooling_param {
    pool: AVE
    global_pooling: true
  }
}
layer {
  name: "loss"
  type: "SoftmaxWithLoss"
  bottom: "pool10"
  bottom: "label"
  top: "loss"
}
I1026 14:57:58.544149 20580 layer_factory.hpp:77] Creating layer data
I1026 14:57:58.544312 20580 db_lmdb.cpp:35] Opened lmdb /home/data/caffe-imagenet/ilsvrc12_train_lmdb
I1026 14:57:58.544364 20580 net.cpp:84] Creating Layer data
I1026 14:57:58.544378 20580 net.cpp:387] data -> data
I1026 14:57:58.544409 20580 net.cpp:387] data -> label
I1026 14:57:58.546216 20580 data_layer.cpp:45] output data size: 128,3,227,227
I1026 14:57:58.752892 20580 net.cpp:127] Setting up data
I1026 14:57:58.752946 20580 net.cpp:136] Top shape: 128 3 227 227 (19787136)
I1026 14:57:58.752960 20580 net.cpp:136] Top shape: 128 (128)
I1026 14:57:58.752967 20580 net.cpp:144] Memory required for data: 79149056
I1026 14:57:58.752985 20580 layer_factory.hpp:77] Creating layer conv1
I1026 14:57:58.753011 20580 net.cpp:84] Creating Layer conv1
I1026 14:57:58.753023 20580 net.cpp:413] conv1 <- data
I1026 14:57:58.753042 20580 net.cpp:387] conv1 -> conv1
I1026 14:57:58.756284 20580 net.cpp:127] Setting up conv1
I1026 14:57:58.756311 20580 net.cpp:136] Top shape: 128 64 113 113 (104603648)
I1026 14:57:58.756319 20580 net.cpp:144] Memory required for data: 497563648
I1026 14:57:58.756338 20580 net.cpp:453] Found INQ layer:conv1, type: INQConvolution, layer id:1
I1026 14:57:58.756351 20580 net.cpp:453] Found INQ layer:conv1, type: INQConvolution, layer id:1
I1026 14:57:58.756363 20580 net.cpp:453] Found INQ layer:conv1, type: INQConvolution, layer id:1
I1026 14:57:58.756371 20580 net.cpp:453] Found INQ layer:conv1, type: INQConvolution, layer id:1
I1026 14:57:58.756376 20580 layer_factory.hpp:77] Creating layer relu_conv1
I1026 14:57:58.756392 20580 net.cpp:84] Creating Layer relu_conv1
I1026 14:57:58.756397 20580 net.cpp:413] relu_conv1 <- conv1
I1026 14:57:58.756405 20580 net.cpp:374] relu_conv1 -> conv1 (in-place)
I1026 14:57:59.151679 20580 net.cpp:127] Setting up relu_conv1
I1026 14:57:59.151748 20580 net.cpp:136] Top shape: 128 64 113 113 (104603648)
I1026 14:57:59.151757 20580 net.cpp:144] Memory required for data: 915978240
I1026 14:57:59.151803 20580 layer_factory.hpp:77] Creating layer pool1
I1026 14:57:59.151839 20580 net.cpp:84] Creating Layer pool1
I1026 14:57:59.151847 20580 net.cpp:413] pool1 <- conv1
I1026 14:57:59.151870 20580 net.cpp:387] pool1 -> pool1
I1026 14:57:59.151964 20580 net.cpp:127] Setting up pool1
I1026 14:57:59.151988 20580 net.cpp:136] Top shape: 128 64 56 56 (25690112)
I1026 14:57:59.152024 20580 net.cpp:144] Memory required for data: 1018738688
I1026 14:57:59.152030 20580 layer_factory.hpp:77] Creating layer fire2/squeeze1x1
I1026 14:57:59.152076 20580 net.cpp:84] Creating Layer fire2/squeeze1x1
I1026 14:57:59.152086 20580 net.cpp:413] fire2/squeeze1x1 <- pool1
I1026 14:57:59.152094 20580 net.cpp:387] fire2/squeeze1x1 -> fire2/squeeze1x1
I1026 14:57:59.154520 20580 net.cpp:127] Setting up fire2/squeeze1x1
I1026 14:57:59.154541 20580 net.cpp:136] Top shape: 128 16 56 56 (6422528)
I1026 14:57:59.154548 20580 net.cpp:144] Memory required for data: 1044428800
I1026 14:57:59.154559 20580 net.cpp:453] Found INQ layer:fire2/squeeze1x1, type: INQConvolution, layer id:4
I1026 14:57:59.154572 20580 net.cpp:453] Found INQ layer:fire2/squeeze1x1, type: INQConvolution, layer id:4
I1026 14:57:59.154583 20580 net.cpp:453] Found INQ layer:fire2/squeeze1x1, type: INQConvolution, layer id:4
I1026 14:57:59.154589 20580 net.cpp:453] Found INQ layer:fire2/squeeze1x1, type: INQConvolution, layer id:4
I1026 14:57:59.154595 20580 layer_factory.hpp:77] Creating layer fire2/relu_squeeze1x1
I1026 14:57:59.154623 20580 net.cpp:84] Creating Layer fire2/relu_squeeze1x1
I1026 14:57:59.154630 20580 net.cpp:413] fire2/relu_squeeze1x1 <- fire2/squeeze1x1
I1026 14:57:59.154639 20580 net.cpp:374] fire2/relu_squeeze1x1 -> fire2/squeeze1x1 (in-place)
I1026 14:57:59.156003 20580 net.cpp:127] Setting up fire2/relu_squeeze1x1
I1026 14:57:59.156023 20580 net.cpp:136] Top shape: 128 16 56 56 (6422528)
I1026 14:57:59.156028 20580 net.cpp:144] Memory required for data: 1070118912
I1026 14:57:59.156034 20580 layer_factory.hpp:77] Creating layer fire2/squeeze1x1_fire2/relu_squeeze1x1_0_split
I1026 14:57:59.156049 20580 net.cpp:84] Creating Layer fire2/squeeze1x1_fire2/relu_squeeze1x1_0_split
I1026 14:57:59.156055 20580 net.cpp:413] fire2/squeeze1x1_fire2/relu_squeeze1x1_0_split <- fire2/squeeze1x1
I1026 14:57:59.156075 20580 net.cpp:387] fire2/squeeze1x1_fire2/relu_squeeze1x1_0_split -> fire2/squeeze1x1_fire2/relu_squeeze1x1_0_split_0
I1026 14:57:59.156087 20580 net.cpp:387] fire2/squeeze1x1_fire2/relu_squeeze1x1_0_split -> fire2/squeeze1x1_fire2/relu_squeeze1x1_0_split_1
I1026 14:57:59.156139 20580 net.cpp:127] Setting up fire2/squeeze1x1_fire2/relu_squeeze1x1_0_split
I1026 14:57:59.156149 20580 net.cpp:136] Top shape: 128 16 56 56 (6422528)
I1026 14:57:59.156155 20580 net.cpp:136] Top shape: 128 16 56 56 (6422528)
I1026 14:57:59.156160 20580 net.cpp:144] Memory required for data: 1121499136
I1026 14:57:59.156168 20580 layer_factory.hpp:77] Creating layer fire2/expand1x1
I1026 14:57:59.156178 20580 net.cpp:84] Creating Layer fire2/expand1x1
I1026 14:57:59.156184 20580 net.cpp:413] fire2/expand1x1 <- fire2/squeeze1x1_fire2/relu_squeeze1x1_0_split_0
I1026 14:57:59.156191 20580 net.cpp:387] fire2/expand1x1 -> fire2/expand1x1
I1026 14:57:59.156524 20580 net.cpp:127] Setting up fire2/expand1x1
I1026 14:57:59.156538 20580 net.cpp:136] Top shape: 128 64 56 56 (25690112)
I1026 14:57:59.156543 20580 net.cpp:144] Memory required for data: 1224259584
I1026 14:57:59.156553 20580 net.cpp:453] Found INQ layer:fire2/expand1x1, type: INQConvolution, layer id:7
I1026 14:57:59.156560 20580 net.cpp:453] Found INQ layer:fire2/expand1x1, type: INQConvolution, layer id:7
I1026 14:57:59.156568 20580 net.cpp:453] Found INQ layer:fire2/expand1x1, type: INQConvolution, layer id:7
I1026 14:57:59.156574 20580 net.cpp:453] Found INQ layer:fire2/expand1x1, type: INQConvolution, layer id:7
I1026 14:57:59.156579 20580 layer_factory.hpp:77] Creating layer fire2/relu_expand1x1
I1026 14:57:59.156589 20580 net.cpp:84] Creating Layer fire2/relu_expand1x1
I1026 14:57:59.156596 20580 net.cpp:413] fire2/relu_expand1x1 <- fire2/expand1x1
I1026 14:57:59.156603 20580 net.cpp:374] fire2/relu_expand1x1 -> fire2/expand1x1 (in-place)
I1026 14:57:59.156795 20580 net.cpp:127] Setting up fire2/relu_expand1x1
I1026 14:57:59.156807 20580 net.cpp:136] Top shape: 128 64 56 56 (25690112)
I1026 14:57:59.156821 20580 net.cpp:144] Memory required for data: 1327020032
I1026 14:57:59.156828 20580 layer_factory.hpp:77] Creating layer fire2/expand3x3
I1026 14:57:59.156867 20580 net.cpp:84] Creating Layer fire2/expand3x3
I1026 14:57:59.156873 20580 net.cpp:413] fire2/expand3x3 <- fire2/squeeze1x1_fire2/relu_squeeze1x1_0_split_1
I1026 14:57:59.156883 20580 net.cpp:387] fire2/expand3x3 -> fire2/expand3x3
I1026 14:57:59.157330 20580 net.cpp:127] Setting up fire2/expand3x3
I1026 14:57:59.157344 20580 net.cpp:136] Top shape: 128 64 56 56 (25690112)
I1026 14:57:59.157351 20580 net.cpp:144] Memory required for data: 1429780480
I1026 14:57:59.157361 20580 net.cpp:453] Found INQ layer:fire2/expand3x3, type: INQConvolution, layer id:9
I1026 14:57:59.157368 20580 net.cpp:453] Found INQ layer:fire2/expand3x3, type: INQConvolution, layer id:9
I1026 14:57:59.157374 20580 net.cpp:453] Found INQ layer:fire2/expand3x3, type: INQConvolution, layer id:9
I1026 14:57:59.157382 20580 net.cpp:453] Found INQ layer:fire2/expand3x3, type: INQConvolution, layer id:9
I1026 14:57:59.157399 20580 layer_factory.hpp:77] Creating layer fire2/relu_expand3x3
I1026 14:57:59.157409 20580 net.cpp:84] Creating Layer fire2/relu_expand3x3
I1026 14:57:59.157415 20580 net.cpp:413] fire2/relu_expand3x3 <- fire2/expand3x3
I1026 14:57:59.157423 20580 net.cpp:374] fire2/relu_expand3x3 -> fire2/expand3x3 (in-place)
I1026 14:57:59.157620 20580 net.cpp:127] Setting up fire2/relu_expand3x3
I1026 14:57:59.157632 20580 net.cpp:136] Top shape: 128 64 56 56 (25690112)
I1026 14:57:59.157639 20580 net.cpp:144] Memory required for data: 1532540928
I1026 14:57:59.157644 20580 layer_factory.hpp:77] Creating layer fire2/concat
I1026 14:57:59.157667 20580 net.cpp:84] Creating Layer fire2/concat
I1026 14:57:59.157675 20580 net.cpp:413] fire2/concat <- fire2/expand1x1
I1026 14:57:59.157682 20580 net.cpp:413] fire2/concat <- fire2/expand3x3
I1026 14:57:59.157688 20580 net.cpp:387] fire2/concat -> fire2/concat
I1026 14:57:59.157721 20580 net.cpp:127] Setting up fire2/concat
I1026 14:57:59.157732 20580 net.cpp:136] Top shape: 128 128 56 56 (51380224)
I1026 14:57:59.157737 20580 net.cpp:144] Memory required for data: 1738061824
I1026 14:57:59.157755 20580 layer_factory.hpp:77] Creating layer fire3/squeeze1x1
I1026 14:57:59.157773 20580 net.cpp:84] Creating Layer fire3/squeeze1x1
I1026 14:57:59.157781 20580 net.cpp:413] fire3/squeeze1x1 <- fire2/concat
I1026 14:57:59.157788 20580 net.cpp:387] fire3/squeeze1x1 -> fire3/squeeze1x1
I1026 14:57:59.158118 20580 net.cpp:127] Setting up fire3/squeeze1x1
I1026 14:57:59.158130 20580 net.cpp:136] Top shape: 128 16 56 56 (6422528)
I1026 14:57:59.158135 20580 net.cpp:144] Memory required for data: 1763751936
I1026 14:57:59.158144 20580 net.cpp:453] Found INQ layer:fire3/squeeze1x1, type: INQConvolution, layer id:12
I1026 14:57:59.158152 20580 net.cpp:453] Found INQ layer:fire3/squeeze1x1, type: INQConvolution, layer id:12
I1026 14:57:59.158159 20580 net.cpp:453] Found INQ layer:fire3/squeeze1x1, type: INQConvolution, layer id:12
I1026 14:57:59.158165 20580 net.cpp:453] Found INQ layer:fire3/squeeze1x1, type: INQConvolution, layer id:12
I1026 14:57:59.158169 20580 layer_factory.hpp:77] Creating layer fire3/relu_squeeze1x1
I1026 14:57:59.158179 20580 net.cpp:84] Creating Layer fire3/relu_squeeze1x1
I1026 14:57:59.158196 20580 net.cpp:413] fire3/relu_squeeze1x1 <- fire3/squeeze1x1
I1026 14:57:59.158206 20580 net.cpp:374] fire3/relu_squeeze1x1 -> fire3/squeeze1x1 (in-place)
I1026 14:57:59.159577 20580 net.cpp:127] Setting up fire3/relu_squeeze1x1
I1026 14:57:59.159596 20580 net.cpp:136] Top shape: 128 16 56 56 (6422528)
I1026 14:57:59.159602 20580 net.cpp:144] Memory required for data: 1789442048
I1026 14:57:59.159607 20580 layer_factory.hpp:77] Creating layer fire3/squeeze1x1_fire3/relu_squeeze1x1_0_split
I1026 14:57:59.159615 20580 net.cpp:84] Creating Layer fire3/squeeze1x1_fire3/relu_squeeze1x1_0_split
I1026 14:57:59.159621 20580 net.cpp:413] fire3/squeeze1x1_fire3/relu_squeeze1x1_0_split <- fire3/squeeze1x1
I1026 14:57:59.159631 20580 net.cpp:387] fire3/squeeze1x1_fire3/relu_squeeze1x1_0_split -> fire3/squeeze1x1_fire3/relu_squeeze1x1_0_split_0
I1026 14:57:59.159659 20580 net.cpp:387] fire3/squeeze1x1_fire3/relu_squeeze1x1_0_split -> fire3/squeeze1x1_fire3/relu_squeeze1x1_0_split_1
I1026 14:57:59.159713 20580 net.cpp:127] Setting up fire3/squeeze1x1_fire3/relu_squeeze1x1_0_split
I1026 14:57:59.159723 20580 net.cpp:136] Top shape: 128 16 56 56 (6422528)
I1026 14:57:59.159729 20580 net.cpp:136] Top shape: 128 16 56 56 (6422528)
I1026 14:57:59.159735 20580 net.cpp:144] Memory required for data: 1840822272
I1026 14:57:59.159750 20580 layer_factory.hpp:77] Creating layer fire3/expand1x1
I1026 14:57:59.159765 20580 net.cpp:84] Creating Layer fire3/expand1x1
I1026 14:57:59.159771 20580 net.cpp:413] fire3/expand1x1 <- fire3/squeeze1x1_fire3/relu_squeeze1x1_0_split_0
I1026 14:57:59.159778 20580 net.cpp:387] fire3/expand1x1 -> fire3/expand1x1
I1026 14:57:59.160117 20580 net.cpp:127] Setting up fire3/expand1x1
I1026 14:57:59.160130 20580 net.cpp:136] Top shape: 128 64 56 56 (25690112)
I1026 14:57:59.160135 20580 net.cpp:144] Memory required for data: 1943582720
I1026 14:57:59.160141 20580 net.cpp:453] Found INQ layer:fire3/expand1x1, type: INQConvolution, layer id:15
I1026 14:57:59.160147 20580 net.cpp:453] Found INQ layer:fire3/expand1x1, type: INQConvolution, layer id:15
I1026 14:57:59.160153 20580 net.cpp:453] Found INQ layer:fire3/expand1x1, type: INQConvolution, layer id:15
I1026 14:57:59.160158 20580 net.cpp:453] Found INQ layer:fire3/expand1x1, type: INQConvolution, layer id:15
I1026 14:57:59.160164 20580 layer_factory.hpp:77] Creating layer fire3/relu_expand1x1
I1026 14:57:59.160185 20580 net.cpp:84] Creating Layer fire3/relu_expand1x1
I1026 14:57:59.160192 20580 net.cpp:413] fire3/relu_expand1x1 <- fire3/expand1x1
I1026 14:57:59.160198 20580 net.cpp:374] fire3/relu_expand1x1 -> fire3/expand1x1 (in-place)
I1026 14:57:59.160424 20580 net.cpp:127] Setting up fire3/relu_expand1x1
I1026 14:57:59.160437 20580 net.cpp:136] Top shape: 128 64 56 56 (25690112)
I1026 14:57:59.160444 20580 net.cpp:144] Memory required for data: 2046343168
I1026 14:57:59.160452 20580 layer_factory.hpp:77] Creating layer fire3/expand3x3
I1026 14:57:59.160465 20580 net.cpp:84] Creating Layer fire3/expand3x3
I1026 14:57:59.160472 20580 net.cpp:413] fire3/expand3x3 <- fire3/squeeze1x1_fire3/relu_squeeze1x1_0_split_1
I1026 14:57:59.160481 20580 net.cpp:387] fire3/expand3x3 -> fire3/expand3x3
I1026 14:57:59.160889 20580 net.cpp:127] Setting up fire3/expand3x3
I1026 14:57:59.160900 20580 net.cpp:136] Top shape: 128 64 56 56 (25690112)
I1026 14:57:59.160907 20580 net.cpp:144] Memory required for data: 2149103616
I1026 14:57:59.160913 20580 net.cpp:453] Found INQ layer:fire3/expand3x3, type: INQConvolution, layer id:17
I1026 14:57:59.160923 20580 net.cpp:453] Found INQ layer:fire3/expand3x3, type: INQConvolution, layer id:17
I1026 14:57:59.160928 20580 net.cpp:453] Found INQ layer:fire3/expand3x3, type: INQConvolution, layer id:17
I1026 14:57:59.160933 20580 net.cpp:453] Found INQ layer:fire3/expand3x3, type: INQConvolution, layer id:17
I1026 14:57:59.160938 20580 layer_factory.hpp:77] Creating layer fire3/relu_expand3x3
I1026 14:57:59.160956 20580 net.cpp:84] Creating Layer fire3/relu_expand3x3
I1026 14:57:59.160964 20580 net.cpp:413] fire3/relu_expand3x3 <- fire3/expand3x3
I1026 14:57:59.160969 20580 net.cpp:374] fire3/relu_expand3x3 -> fire3/expand3x3 (in-place)
I1026 14:57:59.161185 20580 net.cpp:127] Setting up fire3/relu_expand3x3
I1026 14:57:59.161200 20580 net.cpp:136] Top shape: 128 64 56 56 (25690112)
I1026 14:57:59.161206 20580 net.cpp:144] Memory required for data: 2251864064
I1026 14:57:59.161222 20580 layer_factory.hpp:77] Creating layer fire3/concat
I1026 14:57:59.161229 20580 net.cpp:84] Creating Layer fire3/concat
I1026 14:57:59.161234 20580 net.cpp:413] fire3/concat <- fire3/expand1x1
I1026 14:57:59.161242 20580 net.cpp:413] fire3/concat <- fire3/expand3x3
I1026 14:57:59.161249 20580 net.cpp:387] fire3/concat -> fire3/concat
I1026 14:57:59.161283 20580 net.cpp:127] Setting up fire3/concat
I1026 14:57:59.161310 20580 net.cpp:136] Top shape: 128 128 56 56 (51380224)
I1026 14:57:59.161329 20580 net.cpp:144] Memory required for data: 2457384960
I1026 14:57:59.161334 20580 layer_factory.hpp:77] Creating layer pool3
I1026 14:57:59.161347 20580 net.cpp:84] Creating Layer pool3
I1026 14:57:59.161352 20580 net.cpp:413] pool3 <- fire3/concat
I1026 14:57:59.161360 20580 net.cpp:387] pool3 -> pool3
I1026 14:57:59.161412 20580 net.cpp:127] Setting up pool3
I1026 14:57:59.161422 20580 net.cpp:136] Top shape: 128 128 28 28 (12845056)
I1026 14:57:59.161427 20580 net.cpp:144] Memory required for data: 2508765184
I1026 14:57:59.161432 20580 layer_factory.hpp:77] Creating layer fire4/squeeze1x1
I1026 14:57:59.161451 20580 net.cpp:84] Creating Layer fire4/squeeze1x1
I1026 14:57:59.161459 20580 net.cpp:413] fire4/squeeze1x1 <- pool3
I1026 14:57:59.161469 20580 net.cpp:387] fire4/squeeze1x1 -> fire4/squeeze1x1
I1026 14:57:59.161870 20580 net.cpp:127] Setting up fire4/squeeze1x1
I1026 14:57:59.161883 20580 net.cpp:136] Top shape: 128 32 28 28 (3211264)
I1026 14:57:59.161888 20580 net.cpp:144] Memory required for data: 2521610240
I1026 14:57:59.161895 20580 net.cpp:453] Found INQ layer:fire4/squeeze1x1, type: INQConvolution, layer id:21
I1026 14:57:59.161901 20580 net.cpp:453] Found INQ layer:fire4/squeeze1x1, type: INQConvolution, layer id:21
I1026 14:57:59.161907 20580 net.cpp:453] Found INQ layer:fire4/squeeze1x1, type: INQConvolution, layer id:21
I1026 14:57:59.161912 20580 net.cpp:453] Found INQ layer:fire4/squeeze1x1, type: INQConvolution, layer id:21
I1026 14:57:59.161924 20580 layer_factory.hpp:77] Creating layer fire4/relu_squeeze1x1
I1026 14:57:59.161932 20580 net.cpp:84] Creating Layer fire4/relu_squeeze1x1
I1026 14:57:59.161937 20580 net.cpp:413] fire4/relu_squeeze1x1 <- fire4/squeeze1x1
I1026 14:57:59.161943 20580 net.cpp:374] fire4/relu_squeeze1x1 -> fire4/squeeze1x1 (in-place)
I1026 14:57:59.162161 20580 net.cpp:127] Setting up fire4/relu_squeeze1x1
I1026 14:57:59.162174 20580 net.cpp:136] Top shape: 128 32 28 28 (3211264)
I1026 14:57:59.162179 20580 net.cpp:144] Memory required for data: 2534455296
I1026 14:57:59.162184 20580 layer_factory.hpp:77] Creating layer fire4/squeeze1x1_fire4/relu_squeeze1x1_0_split
I1026 14:57:59.162194 20580 net.cpp:84] Creating Layer fire4/squeeze1x1_fire4/relu_squeeze1x1_0_split
I1026 14:57:59.162201 20580 net.cpp:413] fire4/squeeze1x1_fire4/relu_squeeze1x1_0_split <- fire4/squeeze1x1
I1026 14:57:59.162209 20580 net.cpp:387] fire4/squeeze1x1_fire4/relu_squeeze1x1_0_split -> fire4/squeeze1x1_fire4/relu_squeeze1x1_0_split_0
I1026 14:57:59.162220 20580 net.cpp:387] fire4/squeeze1x1_fire4/relu_squeeze1x1_0_split -> fire4/squeeze1x1_fire4/relu_squeeze1x1_0_split_1
I1026 14:57:59.162271 20580 net.cpp:127] Setting up fire4/squeeze1x1_fire4/relu_squeeze1x1_0_split
I1026 14:57:59.162281 20580 net.cpp:136] Top shape: 128 32 28 28 (3211264)
I1026 14:57:59.162286 20580 net.cpp:136] Top shape: 128 32 28 28 (3211264)
I1026 14:57:59.162291 20580 net.cpp:144] Memory required for data: 2560145408
I1026 14:57:59.162294 20580 layer_factory.hpp:77] Creating layer fire4/expand1x1
I1026 14:57:59.162312 20580 net.cpp:84] Creating Layer fire4/expand1x1
I1026 14:57:59.162318 20580 net.cpp:413] fire4/expand1x1 <- fire4/squeeze1x1_fire4/relu_squeeze1x1_0_split_0
I1026 14:57:59.162328 20580 net.cpp:387] fire4/expand1x1 -> fire4/expand1x1
I1026 14:57:59.162672 20580 net.cpp:127] Setting up fire4/expand1x1
I1026 14:57:59.162683 20580 net.cpp:136] Top shape: 128 128 28 28 (12845056)
I1026 14:57:59.162686 20580 net.cpp:144] Memory required for data: 2611525632
I1026 14:57:59.162698 20580 net.cpp:453] Found INQ layer:fire4/expand1x1, type: INQConvolution, layer id:24
I1026 14:57:59.162709 20580 net.cpp:453] Found INQ layer:fire4/expand1x1, type: INQConvolution, layer id:24
I1026 14:57:59.162715 20580 net.cpp:453] Found INQ layer:fire4/expand1x1, type: INQConvolution, layer id:24
I1026 14:57:59.162721 20580 net.cpp:453] Found INQ layer:fire4/expand1x1, type: INQConvolution, layer id:24
I1026 14:57:59.162729 20580 layer_factory.hpp:77] Creating layer fire4/relu_expand1x1
I1026 14:57:59.162750 20580 net.cpp:84] Creating Layer fire4/relu_expand1x1
I1026 14:57:59.162767 20580 net.cpp:413] fire4/relu_expand1x1 <- fire4/expand1x1
I1026 14:57:59.162775 20580 net.cpp:374] fire4/relu_expand1x1 -> fire4/expand1x1 (in-place)
I1026 14:57:59.164144 20580 net.cpp:127] Setting up fire4/relu_expand1x1
I1026 14:57:59.164163 20580 net.cpp:136] Top shape: 128 128 28 28 (12845056)
I1026 14:57:59.164170 20580 net.cpp:144] Memory required for data: 2662905856
I1026 14:57:59.164185 20580 layer_factory.hpp:77] Creating layer fire4/expand3x3
I1026 14:57:59.164199 20580 net.cpp:84] Creating Layer fire4/expand3x3
I1026 14:57:59.164206 20580 net.cpp:413] fire4/expand3x3 <- fire4/squeeze1x1_fire4/relu_squeeze1x1_0_split_1
I1026 14:57:59.164217 20580 net.cpp:387] fire4/expand3x3 -> fire4/expand3x3
I1026 14:57:59.166210 20580 net.cpp:127] Setting up fire4/expand3x3
I1026 14:57:59.166230 20580 net.cpp:136] Top shape: 128 128 28 28 (12845056)
I1026 14:57:59.166235 20580 net.cpp:144] Memory required for data: 2714286080
I1026 14:57:59.166242 20580 net.cpp:453] Found INQ layer:fire4/expand3x3, type: INQConvolution, layer id:26
I1026 14:57:59.166249 20580 net.cpp:453] Found INQ layer:fire4/expand3x3, type: INQConvolution, layer id:26
I1026 14:57:59.166255 20580 net.cpp:453] Found INQ layer:fire4/expand3x3, type: INQConvolution, layer id:26
I1026 14:57:59.166261 20580 net.cpp:453] Found INQ layer:fire4/expand3x3, type: INQConvolution, layer id:26
I1026 14:57:59.166267 20580 layer_factory.hpp:77] Creating layer fire4/relu_expand3x3
I1026 14:57:59.166275 20580 net.cpp:84] Creating Layer fire4/relu_expand3x3
I1026 14:57:59.166282 20580 net.cpp:413] fire4/relu_expand3x3 <- fire4/expand3x3
I1026 14:57:59.166291 20580 net.cpp:374] fire4/relu_expand3x3 -> fire4/expand3x3 (in-place)
I1026 14:57:59.166513 20580 net.cpp:127] Setting up fire4/relu_expand3x3
I1026 14:57:59.166527 20580 net.cpp:136] Top shape: 128 128 28 28 (12845056)
I1026 14:57:59.166533 20580 net.cpp:144] Memory required for data: 2765666304
I1026 14:57:59.166538 20580 layer_factory.hpp:77] Creating layer fire4/concat
I1026 14:57:59.166555 20580 net.cpp:84] Creating Layer fire4/concat
I1026 14:57:59.166564 20580 net.cpp:413] fire4/concat <- fire4/expand1x1
I1026 14:57:59.166570 20580 net.cpp:413] fire4/concat <- fire4/expand3x3
I1026 14:57:59.166579 20580 net.cpp:387] fire4/concat -> fire4/concat
I1026 14:57:59.166610 20580 net.cpp:127] Setting up fire4/concat
I1026 14:57:59.166618 20580 net.cpp:136] Top shape: 128 256 28 28 (25690112)
I1026 14:57:59.166623 20580 net.cpp:144] Memory required for data: 2868426752
I1026 14:57:59.166627 20580 layer_factory.hpp:77] Creating layer fire5/squeeze1x1
I1026 14:57:59.166657 20580 net.cpp:84] Creating Layer fire5/squeeze1x1
I1026 14:57:59.166666 20580 net.cpp:413] fire5/squeeze1x1 <- fire4/concat
I1026 14:57:59.166672 20580 net.cpp:387] fire5/squeeze1x1 -> fire5/squeeze1x1
I1026 14:57:59.167070 20580 net.cpp:127] Setting up fire5/squeeze1x1
I1026 14:57:59.167081 20580 net.cpp:136] Top shape: 128 32 28 28 (3211264)
I1026 14:57:59.167085 20580 net.cpp:144] Memory required for data: 2881271808
I1026 14:57:59.167093 20580 net.cpp:453] Found INQ layer:fire5/squeeze1x1, type: INQConvolution, layer id:29
I1026 14:57:59.167099 20580 net.cpp:453] Found INQ layer:fire5/squeeze1x1, type: INQConvolution, layer id:29
I1026 14:57:59.167104 20580 net.cpp:453] Found INQ layer:fire5/squeeze1x1, type: INQConvolution, layer id:29
I1026 14:57:59.167109 20580 net.cpp:453] Found INQ layer:fire5/squeeze1x1, type: INQConvolution, layer id:29
I1026 14:57:59.167114 20580 layer_factory.hpp:77] Creating layer fire5/relu_squeeze1x1
I1026 14:57:59.167122 20580 net.cpp:84] Creating Layer fire5/relu_squeeze1x1
I1026 14:57:59.167127 20580 net.cpp:413] fire5/relu_squeeze1x1 <- fire5/squeeze1x1
I1026 14:57:59.167135 20580 net.cpp:374] fire5/relu_squeeze1x1 -> fire5/squeeze1x1 (in-place)
I1026 14:57:59.167358 20580 net.cpp:127] Setting up fire5/relu_squeeze1x1
I1026 14:57:59.167371 20580 net.cpp:136] Top shape: 128 32 28 28 (3211264)
I1026 14:57:59.167383 20580 net.cpp:144] Memory required for data: 2894116864
I1026 14:57:59.167402 20580 layer_factory.hpp:77] Creating layer fire5/squeeze1x1_fire5/relu_squeeze1x1_0_split
I1026 14:57:59.167412 20580 net.cpp:84] Creating Layer fire5/squeeze1x1_fire5/relu_squeeze1x1_0_split
I1026 14:57:59.167420 20580 net.cpp:413] fire5/squeeze1x1_fire5/relu_squeeze1x1_0_split <- fire5/squeeze1x1
I1026 14:57:59.167428 20580 net.cpp:387] fire5/squeeze1x1_fire5/relu_squeeze1x1_0_split -> fire5/squeeze1x1_fire5/relu_squeeze1x1_0_split_0
I1026 14:57:59.167436 20580 net.cpp:387] fire5/squeeze1x1_fire5/relu_squeeze1x1_0_split -> fire5/squeeze1x1_fire5/relu_squeeze1x1_0_split_1
I1026 14:57:59.167486 20580 net.cpp:127] Setting up fire5/squeeze1x1_fire5/relu_squeeze1x1_0_split
I1026 14:57:59.167496 20580 net.cpp:136] Top shape: 128 32 28 28 (3211264)
I1026 14:57:59.167502 20580 net.cpp:136] Top shape: 128 32 28 28 (3211264)
I1026 14:57:59.167508 20580 net.cpp:144] Memory required for data: 2919806976
I1026 14:57:59.167513 20580 layer_factory.hpp:77] Creating layer fire5/expand1x1
I1026 14:57:59.167536 20580 net.cpp:84] Creating Layer fire5/expand1x1
I1026 14:57:59.167542 20580 net.cpp:413] fire5/expand1x1 <- fire5/squeeze1x1_fire5/relu_squeeze1x1_0_split_0
I1026 14:57:59.167552 20580 net.cpp:387] fire5/expand1x1 -> fire5/expand1x1
I1026 14:57:59.167913 20580 net.cpp:127] Setting up fire5/expand1x1
I1026 14:57:59.167924 20580 net.cpp:136] Top shape: 128 128 28 28 (12845056)
I1026 14:57:59.167929 20580 net.cpp:144] Memory required for data: 2971187200
I1026 14:57:59.167937 20580 net.cpp:453] Found INQ layer:fire5/expand1x1, type: INQConvolution, layer id:32
I1026 14:57:59.167943 20580 net.cpp:453] Found INQ layer:fire5/expand1x1, type: INQConvolution, layer id:32
I1026 14:57:59.167948 20580 net.cpp:453] Found INQ layer:fire5/expand1x1, type: INQConvolution, layer id:32
I1026 14:57:59.167953 20580 net.cpp:453] Found INQ layer:fire5/expand1x1, type: INQConvolution, layer id:32
I1026 14:57:59.167958 20580 layer_factory.hpp:77] Creating layer fire5/relu_expand1x1
I1026 14:57:59.167976 20580 net.cpp:84] Creating Layer fire5/relu_expand1x1
I1026 14:57:59.167981 20580 net.cpp:413] fire5/relu_expand1x1 <- fire5/expand1x1
I1026 14:57:59.167989 20580 net.cpp:374] fire5/relu_expand1x1 -> fire5/expand1x1 (in-place)
I1026 14:57:59.168203 20580 net.cpp:127] Setting up fire5/relu_expand1x1
I1026 14:57:59.168215 20580 net.cpp:136] Top shape: 128 128 28 28 (12845056)
I1026 14:57:59.168221 20580 net.cpp:144] Memory required for data: 3022567424
I1026 14:57:59.168226 20580 layer_factory.hpp:77] Creating layer fire5/expand3x3
I1026 14:57:59.168241 20580 net.cpp:84] Creating Layer fire5/expand3x3
I1026 14:57:59.168248 20580 net.cpp:413] fire5/expand3x3 <- fire5/squeeze1x1_fire5/relu_squeeze1x1_0_split_1
I1026 14:57:59.168257 20580 net.cpp:387] fire5/expand3x3 -> fire5/expand3x3
I1026 14:57:59.168876 20580 net.cpp:127] Setting up fire5/expand3x3
I1026 14:57:59.168889 20580 net.cpp:136] Top shape: 128 128 28 28 (12845056)
I1026 14:57:59.168895 20580 net.cpp:144] Memory required for data: 3073947648
I1026 14:57:59.168902 20580 net.cpp:453] Found INQ layer:fire5/expand3x3, type: INQConvolution, layer id:34
I1026 14:57:59.168908 20580 net.cpp:453] Found INQ layer:fire5/expand3x3, type: INQConvolution, layer id:34
I1026 14:57:59.168915 20580 net.cpp:453] Found INQ layer:fire5/expand3x3, type: INQConvolution, layer id:34
I1026 14:57:59.168920 20580 net.cpp:453] Found INQ layer:fire5/expand3x3, type: INQConvolution, layer id:34
I1026 14:57:59.168926 20580 layer_factory.hpp:77] Creating layer fire5/relu_expand3x3
I1026 14:57:59.168943 20580 net.cpp:84] Creating Layer fire5/relu_expand3x3
I1026 14:57:59.168951 20580 net.cpp:413] fire5/relu_expand3x3 <- fire5/expand3x3
I1026 14:57:59.168958 20580 net.cpp:374] fire5/relu_expand3x3 -> fire5/expand3x3 (in-place)
I1026 14:57:59.170189 20580 net.cpp:127] Setting up fire5/relu_expand3x3
I1026 14:57:59.170210 20580 net.cpp:136] Top shape: 128 128 28 28 (12845056)
I1026 14:57:59.170217 20580 net.cpp:144] Memory required for data: 3125327872
I1026 14:57:59.170228 20580 layer_factory.hpp:77] Creating layer fire5/concat
I1026 14:57:59.170251 20580 net.cpp:84] Creating Layer fire5/concat
I1026 14:57:59.170258 20580 net.cpp:413] fire5/concat <- fire5/expand1x1
I1026 14:57:59.170264 20580 net.cpp:413] fire5/concat <- fire5/expand3x3
I1026 14:57:59.170274 20580 net.cpp:387] fire5/concat -> fire5/concat
I1026 14:57:59.170315 20580 net.cpp:127] Setting up fire5/concat
I1026 14:57:59.170325 20580 net.cpp:136] Top shape: 128 256 28 28 (25690112)
I1026 14:57:59.170328 20580 net.cpp:144] Memory required for data: 3228088320
I1026 14:57:59.170343 20580 layer_factory.hpp:77] Creating layer pool5
I1026 14:57:59.170354 20580 net.cpp:84] Creating Layer pool5
I1026 14:57:59.170361 20580 net.cpp:413] pool5 <- fire5/concat
I1026 14:57:59.170368 20580 net.cpp:387] pool5 -> pool5
I1026 14:57:59.170419 20580 net.cpp:127] Setting up pool5
I1026 14:57:59.170430 20580 net.cpp:136] Top shape: 128 256 14 14 (6422528)
I1026 14:57:59.170435 20580 net.cpp:144] Memory required for data: 3253778432
I1026 14:57:59.170439 20580 layer_factory.hpp:77] Creating layer fire6/squeeze1x1
I1026 14:57:59.170464 20580 net.cpp:84] Creating Layer fire6/squeeze1x1
I1026 14:57:59.170471 20580 net.cpp:413] fire6/squeeze1x1 <- pool5
I1026 14:57:59.170481 20580 net.cpp:387] fire6/squeeze1x1 -> fire6/squeeze1x1
I1026 14:57:59.170977 20580 net.cpp:127] Setting up fire6/squeeze1x1
I1026 14:57:59.170989 20580 net.cpp:136] Top shape: 128 48 14 14 (1204224)
I1026 14:57:59.170994 20580 net.cpp:144] Memory required for data: 3258595328
I1026 14:57:59.171001 20580 net.cpp:453] Found INQ layer:fire6/squeeze1x1, type: INQConvolution, layer id:38
I1026 14:57:59.171007 20580 net.cpp:453] Found INQ layer:fire6/squeeze1x1, type: INQConvolution, layer id:38
I1026 14:57:59.171013 20580 net.cpp:453] Found INQ layer:fire6/squeeze1x1, type: INQConvolution, layer id:38
I1026 14:57:59.171020 20580 net.cpp:453] Found INQ layer:fire6/squeeze1x1, type: INQConvolution, layer id:38
I1026 14:57:59.171023 20580 layer_factory.hpp:77] Creating layer fire6/relu_squeeze1x1
I1026 14:57:59.171033 20580 net.cpp:84] Creating Layer fire6/relu_squeeze1x1
I1026 14:57:59.171038 20580 net.cpp:413] fire6/relu_squeeze1x1 <- fire6/squeeze1x1
I1026 14:57:59.171046 20580 net.cpp:374] fire6/relu_squeeze1x1 -> fire6/squeeze1x1 (in-place)
I1026 14:57:59.171262 20580 net.cpp:127] Setting up fire6/relu_squeeze1x1
I1026 14:57:59.171274 20580 net.cpp:136] Top shape: 128 48 14 14 (1204224)
I1026 14:57:59.171280 20580 net.cpp:144] Memory required for data: 3263412224
I1026 14:57:59.171286 20580 layer_factory.hpp:77] Creating layer fire6/squeeze1x1_fire6/relu_squeeze1x1_0_split
I1026 14:57:59.171310 20580 net.cpp:84] Creating Layer fire6/squeeze1x1_fire6/relu_squeeze1x1_0_split
I1026 14:57:59.171315 20580 net.cpp:413] fire6/squeeze1x1_fire6/relu_squeeze1x1_0_split <- fire6/squeeze1x1
I1026 14:57:59.171324 20580 net.cpp:387] fire6/squeeze1x1_fire6/relu_squeeze1x1_0_split -> fire6/squeeze1x1_fire6/relu_squeeze1x1_0_split_0
I1026 14:57:59.171334 20580 net.cpp:387] fire6/squeeze1x1_fire6/relu_squeeze1x1_0_split -> fire6/squeeze1x1_fire6/relu_squeeze1x1_0_split_1
I1026 14:57:59.171422 20580 net.cpp:127] Setting up fire6/squeeze1x1_fire6/relu_squeeze1x1_0_split
I1026 14:57:59.171432 20580 net.cpp:136] Top shape: 128 48 14 14 (1204224)
I1026 14:57:59.171439 20580 net.cpp:136] Top shape: 128 48 14 14 (1204224)
I1026 14:57:59.171444 20580 net.cpp:144] Memory required for data: 3273046016
I1026 14:57:59.171448 20580 layer_factory.hpp:77] Creating layer fire6/expand1x1
I1026 14:57:59.171468 20580 net.cpp:84] Creating Layer fire6/expand1x1
I1026 14:57:59.171473 20580 net.cpp:413] fire6/expand1x1 <- fire6/squeeze1x1_fire6/relu_squeeze1x1_0_split_0
I1026 14:57:59.171483 20580 net.cpp:387] fire6/expand1x1 -> fire6/expand1x1
I1026 14:57:59.171878 20580 net.cpp:127] Setting up fire6/expand1x1
I1026 14:57:59.171891 20580 net.cpp:136] Top shape: 128 192 14 14 (4816896)
I1026 14:57:59.171896 20580 net.cpp:144] Memory required for data: 3292313600
I1026 14:57:59.171911 20580 net.cpp:453] Found INQ layer:fire6/expand1x1, type: INQConvolution, layer id:41
I1026 14:57:59.171929 20580 net.cpp:453] Found INQ layer:fire6/expand1x1, type: INQConvolution, layer id:41
I1026 14:57:59.171936 20580 net.cpp:453] Found INQ layer:fire6/expand1x1, type: INQConvolution, layer id:41
I1026 14:57:59.171941 20580 net.cpp:453] Found INQ layer:fire6/expand1x1, type: INQConvolution, layer id:41
I1026 14:57:59.171946 20580 layer_factory.hpp:77] Creating layer fire6/relu_expand1x1
I1026 14:57:59.171952 20580 net.cpp:84] Creating Layer fire6/relu_expand1x1
I1026 14:57:59.171957 20580 net.cpp:413] fire6/relu_expand1x1 <- fire6/expand1x1
I1026 14:57:59.171963 20580 net.cpp:374] fire6/relu_expand1x1 -> fire6/expand1x1 (in-place)
I1026 14:57:59.172176 20580 net.cpp:127] Setting up fire6/relu_expand1x1
I1026 14:57:59.172190 20580 net.cpp:136] Top shape: 128 192 14 14 (4816896)
I1026 14:57:59.172195 20580 net.cpp:144] Memory required for data: 3311581184
I1026 14:57:59.172200 20580 layer_factory.hpp:77] Creating layer fire6/expand3x3
I1026 14:57:59.172209 20580 net.cpp:84] Creating Layer fire6/expand3x3
I1026 14:57:59.172215 20580 net.cpp:413] fire6/expand3x3 <- fire6/squeeze1x1_fire6/relu_squeeze1x1_0_split_1
I1026 14:57:59.172224 20580 net.cpp:387] fire6/expand3x3 -> fire6/expand3x3
I1026 14:57:59.174597 20580 net.cpp:127] Setting up fire6/expand3x3
I1026 14:57:59.174618 20580 net.cpp:136] Top shape: 128 192 14 14 (4816896)
I1026 14:57:59.174623 20580 net.cpp:144] Memory required for data: 3330848768
I1026 14:57:59.174629 20580 net.cpp:453] Found INQ layer:fire6/expand3x3, type: INQConvolution, layer id:43
I1026 14:57:59.174636 20580 net.cpp:453] Found INQ layer:fire6/expand3x3, type: INQConvolution, layer id:43
I1026 14:57:59.174643 20580 net.cpp:453] Found INQ layer:fire6/expand3x3, type: INQConvolution, layer id:43
I1026 14:57:59.174649 20580 net.cpp:453] Found INQ layer:fire6/expand3x3, type: INQConvolution, layer id:43
I1026 14:57:59.174664 20580 layer_factory.hpp:77] Creating layer fire6/relu_expand3x3
I1026 14:57:59.174682 20580 net.cpp:84] Creating Layer fire6/relu_expand3x3
I1026 14:57:59.174690 20580 net.cpp:413] fire6/relu_expand3x3 <- fire6/expand3x3
I1026 14:57:59.174696 20580 net.cpp:374] fire6/relu_expand3x3 -> fire6/expand3x3 (in-place)
I1026 14:57:59.174927 20580 net.cpp:127] Setting up fire6/relu_expand3x3
I1026 14:57:59.174939 20580 net.cpp:136] Top shape: 128 192 14 14 (4816896)
I1026 14:57:59.174944 20580 net.cpp:144] Memory required for data: 3350116352
I1026 14:57:59.174949 20580 layer_factory.hpp:77] Creating layer fire6/concat
I1026 14:57:59.174959 20580 net.cpp:84] Creating Layer fire6/concat
I1026 14:57:59.174965 20580 net.cpp:413] fire6/concat <- fire6/expand1x1
I1026 14:57:59.174971 20580 net.cpp:413] fire6/concat <- fire6/expand3x3
I1026 14:57:59.174978 20580 net.cpp:387] fire6/concat -> fire6/concat
I1026 14:57:59.175017 20580 net.cpp:127] Setting up fire6/concat
I1026 14:57:59.175026 20580 net.cpp:136] Top shape: 128 384 14 14 (9633792)
I1026 14:57:59.175031 20580 net.cpp:144] Memory required for data: 3388651520
I1026 14:57:59.175036 20580 layer_factory.hpp:77] Creating layer fire7/squeeze1x1
I1026 14:57:59.175047 20580 net.cpp:84] Creating Layer fire7/squeeze1x1
I1026 14:57:59.175052 20580 net.cpp:413] fire7/squeeze1x1 <- fire6/concat
I1026 14:57:59.175061 20580 net.cpp:387] fire7/squeeze1x1 -> fire7/squeeze1x1
I1026 14:57:59.175545 20580 net.cpp:127] Setting up fire7/squeeze1x1
I1026 14:57:59.175557 20580 net.cpp:136] Top shape: 128 48 14 14 (1204224)
I1026 14:57:59.175562 20580 net.cpp:144] Memory required for data: 3393468416
I1026 14:57:59.175578 20580 net.cpp:453] Found INQ layer:fire7/squeeze1x1, type: INQConvolution, layer id:46
I1026 14:57:59.175590 20580 net.cpp:453] Found INQ layer:fire7/squeeze1x1, type: INQConvolution, layer id:46
I1026 14:57:59.175595 20580 net.cpp:453] Found INQ layer:fire7/squeeze1x1, type: INQConvolution, layer id:46
I1026 14:57:59.175602 20580 net.cpp:453] Found INQ layer:fire7/squeeze1x1, type: INQConvolution, layer id:46
I1026 14:57:59.175613 20580 layer_factory.hpp:77] Creating layer fire7/relu_squeeze1x1
I1026 14:57:59.175644 20580 net.cpp:84] Creating Layer fire7/relu_squeeze1x1
I1026 14:57:59.175652 20580 net.cpp:413] fire7/relu_squeeze1x1 <- fire7/squeeze1x1
I1026 14:57:59.175660 20580 net.cpp:374] fire7/relu_squeeze1x1 -> fire7/squeeze1x1 (in-place)
I1026 14:57:59.177049 20580 net.cpp:127] Setting up fire7/relu_squeeze1x1
I1026 14:57:59.177068 20580 net.cpp:136] Top shape: 128 48 14 14 (1204224)
I1026 14:57:59.177073 20580 net.cpp:144] Memory required for data: 3398285312
I1026 14:57:59.177093 20580 layer_factory.hpp:77] Creating layer fire7/squeeze1x1_fire7/relu_squeeze1x1_0_split
I1026 14:57:59.177104 20580 net.cpp:84] Creating Layer fire7/squeeze1x1_fire7/relu_squeeze1x1_0_split
I1026 14:57:59.177109 20580 net.cpp:413] fire7/squeeze1x1_fire7/relu_squeeze1x1_0_split <- fire7/squeeze1x1
I1026 14:57:59.177119 20580 net.cpp:387] fire7/squeeze1x1_fire7/relu_squeeze1x1_0_split -> fire7/squeeze1x1_fire7/relu_squeeze1x1_0_split_0
I1026 14:57:59.177129 20580 net.cpp:387] fire7/squeeze1x1_fire7/relu_squeeze1x1_0_split -> fire7/squeeze1x1_fire7/relu_squeeze1x1_0_split_1
I1026 14:57:59.177181 20580 net.cpp:127] Setting up fire7/squeeze1x1_fire7/relu_squeeze1x1_0_split
I1026 14:57:59.177192 20580 net.cpp:136] Top shape: 128 48 14 14 (1204224)
I1026 14:57:59.177198 20580 net.cpp:136] Top shape: 128 48 14 14 (1204224)
I1026 14:57:59.177203 20580 net.cpp:144] Memory required for data: 3407919104
I1026 14:57:59.177207 20580 layer_factory.hpp:77] Creating layer fire7/expand1x1
I1026 14:57:59.177217 20580 net.cpp:84] Creating Layer fire7/expand1x1
I1026 14:57:59.177222 20580 net.cpp:413] fire7/expand1x1 <- fire7/squeeze1x1_fire7/relu_squeeze1x1_0_split_0
I1026 14:57:59.177232 20580 net.cpp:387] fire7/expand1x1 -> fire7/expand1x1
I1026 14:57:59.177646 20580 net.cpp:127] Setting up fire7/expand1x1
I1026 14:57:59.177659 20580 net.cpp:136] Top shape: 128 192 14 14 (4816896)
I1026 14:57:59.177664 20580 net.cpp:144] Memory required for data: 3427186688
I1026 14:57:59.177670 20580 net.cpp:453] Found INQ layer:fire7/expand1x1, type: INQConvolution, layer id:49
I1026 14:57:59.177677 20580 net.cpp:453] Found INQ layer:fire7/expand1x1, type: INQConvolution, layer id:49
I1026 14:57:59.177682 20580 net.cpp:453] Found INQ layer:fire7/expand1x1, type: INQConvolution, layer id:49
I1026 14:57:59.177688 20580 net.cpp:453] Found INQ layer:fire7/expand1x1, type: INQConvolution, layer id:49
I1026 14:57:59.177693 20580 layer_factory.hpp:77] Creating layer fire7/relu_expand1x1
I1026 14:57:59.177702 20580 net.cpp:84] Creating Layer fire7/relu_expand1x1
I1026 14:57:59.177708 20580 net.cpp:413] fire7/relu_expand1x1 <- fire7/expand1x1
I1026 14:57:59.177716 20580 net.cpp:374] fire7/relu_expand1x1 -> fire7/expand1x1 (in-place)
I1026 14:57:59.177927 20580 net.cpp:127] Setting up fire7/relu_expand1x1
I1026 14:57:59.177939 20580 net.cpp:136] Top shape: 128 192 14 14 (4816896)
I1026 14:57:59.177944 20580 net.cpp:144] Memory required for data: 3446454272
I1026 14:57:59.177958 20580 layer_factory.hpp:77] Creating layer fire7/expand3x3
I1026 14:57:59.177978 20580 net.cpp:84] Creating Layer fire7/expand3x3
I1026 14:57:59.177983 20580 net.cpp:413] fire7/expand3x3 <- fire7/squeeze1x1_fire7/relu_squeeze1x1_0_split_1
I1026 14:57:59.177994 20580 net.cpp:387] fire7/expand3x3 -> fire7/expand3x3
I1026 14:57:59.178994 20580 net.cpp:127] Setting up fire7/expand3x3
I1026 14:57:59.179008 20580 net.cpp:136] Top shape: 128 192 14 14 (4816896)
I1026 14:57:59.179013 20580 net.cpp:144] Memory required for data: 3465721856
I1026 14:57:59.179019 20580 net.cpp:453] Found INQ layer:fire7/expand3x3, type: INQConvolution, layer id:51
I1026 14:57:59.179026 20580 net.cpp:453] Found INQ layer:fire7/expand3x3, type: INQConvolution, layer id:51
I1026 14:57:59.179031 20580 net.cpp:453] Found INQ layer:fire7/expand3x3, type: INQConvolution, layer id:51
I1026 14:57:59.179038 20580 net.cpp:453] Found INQ layer:fire7/expand3x3, type: INQConvolution, layer id:51
I1026 14:57:59.179042 20580 layer_factory.hpp:77] Creating layer fire7/relu_expand3x3
I1026 14:57:59.179055 20580 net.cpp:84] Creating Layer fire7/relu_expand3x3
I1026 14:57:59.179074 20580 net.cpp:413] fire7/relu_expand3x3 <- fire7/expand3x3
I1026 14:57:59.179082 20580 net.cpp:374] fire7/relu_expand3x3 -> fire7/expand3x3 (in-place)
I1026 14:57:59.179293 20580 net.cpp:127] Setting up fire7/relu_expand3x3
I1026 14:57:59.179312 20580 net.cpp:136] Top shape: 128 192 14 14 (4816896)
I1026 14:57:59.179319 20580 net.cpp:144] Memory required for data: 3484989440
I1026 14:57:59.179324 20580 layer_factory.hpp:77] Creating layer fire7/concat
I1026 14:57:59.179334 20580 net.cpp:84] Creating Layer fire7/concat
I1026 14:57:59.179339 20580 net.cpp:413] fire7/concat <- fire7/expand1x1
I1026 14:57:59.179345 20580 net.cpp:413] fire7/concat <- fire7/expand3x3
I1026 14:57:59.179352 20580 net.cpp:387] fire7/concat -> fire7/concat
I1026 14:57:59.179383 20580 net.cpp:127] Setting up fire7/concat
I1026 14:57:59.179391 20580 net.cpp:136] Top shape: 128 384 14 14 (9633792)
I1026 14:57:59.179395 20580 net.cpp:144] Memory required for data: 3523524608
I1026 14:57:59.179400 20580 layer_factory.hpp:77] Creating layer fire8/squeeze1x1
I1026 14:57:59.179425 20580 net.cpp:84] Creating Layer fire8/squeeze1x1
I1026 14:57:59.179430 20580 net.cpp:413] fire8/squeeze1x1 <- fire7/concat
I1026 14:57:59.179437 20580 net.cpp:387] fire8/squeeze1x1 -> fire8/squeeze1x1
I1026 14:57:59.179960 20580 net.cpp:127] Setting up fire8/squeeze1x1
I1026 14:57:59.179971 20580 net.cpp:136] Top shape: 128 64 14 14 (1605632)
I1026 14:57:59.179976 20580 net.cpp:144] Memory required for data: 3529947136
I1026 14:57:59.179982 20580 net.cpp:453] Found INQ layer:fire8/squeeze1x1, type: INQConvolution, layer id:54
I1026 14:57:59.179989 20580 net.cpp:453] Found INQ layer:fire8/squeeze1x1, type: INQConvolution, layer id:54
I1026 14:57:59.179994 20580 net.cpp:453] Found INQ layer:fire8/squeeze1x1, type: INQConvolution, layer id:54
I1026 14:57:59.179999 20580 net.cpp:453] Found INQ layer:fire8/squeeze1x1, type: INQConvolution, layer id:54
I1026 14:57:59.180013 20580 layer_factory.hpp:77] Creating layer fire8/relu_squeeze1x1
I1026 14:57:59.180022 20580 net.cpp:84] Creating Layer fire8/relu_squeeze1x1
I1026 14:57:59.180028 20580 net.cpp:413] fire8/relu_squeeze1x1 <- fire8/squeeze1x1
I1026 14:57:59.180034 20580 net.cpp:374] fire8/relu_squeeze1x1 -> fire8/squeeze1x1 (in-place)
I1026 14:57:59.181447 20580 net.cpp:127] Setting up fire8/relu_squeeze1x1
I1026 14:57:59.181468 20580 net.cpp:136] Top shape: 128 64 14 14 (1605632)
I1026 14:57:59.181473 20580 net.cpp:144] Memory required for data: 3536369664
I1026 14:57:59.181479 20580 layer_factory.hpp:77] Creating layer fire8/squeeze1x1_fire8/relu_squeeze1x1_0_split
I1026 14:57:59.181486 20580 net.cpp:84] Creating Layer fire8/squeeze1x1_fire8/relu_squeeze1x1_0_split
I1026 14:57:59.181493 20580 net.cpp:413] fire8/squeeze1x1_fire8/relu_squeeze1x1_0_split <- fire8/squeeze1x1
I1026 14:57:59.181501 20580 net.cpp:387] fire8/squeeze1x1_fire8/relu_squeeze1x1_0_split -> fire8/squeeze1x1_fire8/relu_squeeze1x1_0_split_0
I1026 14:57:59.181510 20580 net.cpp:387] fire8/squeeze1x1_fire8/relu_squeeze1x1_0_split -> fire8/squeeze1x1_fire8/relu_squeeze1x1_0_split_1
I1026 14:57:59.181565 20580 net.cpp:127] Setting up fire8/squeeze1x1_fire8/relu_squeeze1x1_0_split
I1026 14:57:59.181573 20580 net.cpp:136] Top shape: 128 64 14 14 (1605632)
I1026 14:57:59.181579 20580 net.cpp:136] Top shape: 128 64 14 14 (1605632)
I1026 14:57:59.181583 20580 net.cpp:144] Memory required for data: 3549214720
I1026 14:57:59.181588 20580 layer_factory.hpp:77] Creating layer fire8/expand1x1
I1026 14:57:59.181609 20580 net.cpp:84] Creating Layer fire8/expand1x1
I1026 14:57:59.181617 20580 net.cpp:413] fire8/expand1x1 <- fire8/squeeze1x1_fire8/relu_squeeze1x1_0_split_0
I1026 14:57:59.181627 20580 net.cpp:387] fire8/expand1x1 -> fire8/expand1x1
I1026 14:57:59.182091 20580 net.cpp:127] Setting up fire8/expand1x1
I1026 14:57:59.182102 20580 net.cpp:136] Top shape: 128 256 14 14 (6422528)
I1026 14:57:59.182107 20580 net.cpp:144] Memory required for data: 3574904832
I1026 14:57:59.182121 20580 net.cpp:453] Found INQ layer:fire8/expand1x1, type: INQConvolution, layer id:57
I1026 14:57:59.182142 20580 net.cpp:453] Found INQ layer:fire8/expand1x1, type: INQConvolution, layer id:57
I1026 14:57:59.182147 20580 net.cpp:453] Found INQ layer:fire8/expand1x1, type: INQConvolution, layer id:57
I1026 14:57:59.182152 20580 net.cpp:453] Found INQ layer:fire8/expand1x1, type: INQConvolution, layer id:57
I1026 14:57:59.182165 20580 layer_factory.hpp:77] Creating layer fire8/relu_expand1x1
I1026 14:57:59.182175 20580 net.cpp:84] Creating Layer fire8/relu_expand1x1
I1026 14:57:59.182180 20580 net.cpp:413] fire8/relu_expand1x1 <- fire8/expand1x1
I1026 14:57:59.182188 20580 net.cpp:374] fire8/relu_expand1x1 -> fire8/expand1x1 (in-place)
I1026 14:57:59.182405 20580 net.cpp:127] Setting up fire8/relu_expand1x1
I1026 14:57:59.182418 20580 net.cpp:136] Top shape: 128 256 14 14 (6422528)
I1026 14:57:59.182425 20580 net.cpp:144] Memory required for data: 3600594944
I1026 14:57:59.182430 20580 layer_factory.hpp:77] Creating layer fire8/expand3x3
I1026 14:57:59.182440 20580 net.cpp:84] Creating Layer fire8/expand3x3
I1026 14:57:59.182446 20580 net.cpp:413] fire8/expand3x3 <- fire8/squeeze1x1_fire8/relu_squeeze1x1_0_split_1
I1026 14:57:59.182456 20580 net.cpp:387] fire8/expand3x3 -> fire8/expand3x3
I1026 14:57:59.185322 20580 net.cpp:127] Setting up fire8/expand3x3
I1026 14:57:59.185341 20580 net.cpp:136] Top shape: 128 256 14 14 (6422528)
I1026 14:57:59.185346 20580 net.cpp:144] Memory required for data: 3626285056
I1026 14:57:59.185353 20580 net.cpp:453] Found INQ layer:fire8/expand3x3, type: INQConvolution, layer id:59
I1026 14:57:59.185360 20580 net.cpp:453] Found INQ layer:fire8/expand3x3, type: INQConvolution, layer id:59
I1026 14:57:59.185366 20580 net.cpp:453] Found INQ layer:fire8/expand3x3, type: INQConvolution, layer id:59
I1026 14:57:59.185371 20580 net.cpp:453] Found INQ layer:fire8/expand3x3, type: INQConvolution, layer id:59
I1026 14:57:59.185376 20580 layer_factory.hpp:77] Creating layer fire8/relu_expand3x3
I1026 14:57:59.185395 20580 net.cpp:84] Creating Layer fire8/relu_expand3x3
I1026 14:57:59.185400 20580 net.cpp:413] fire8/relu_expand3x3 <- fire8/expand3x3
I1026 14:57:59.185407 20580 net.cpp:374] fire8/relu_expand3x3 -> fire8/expand3x3 (in-place)
I1026 14:57:59.185647 20580 net.cpp:127] Setting up fire8/relu_expand3x3
I1026 14:57:59.185659 20580 net.cpp:136] Top shape: 128 256 14 14 (6422528)
I1026 14:57:59.185665 20580 net.cpp:144] Memory required for data: 3651975168
I1026 14:57:59.185670 20580 layer_factory.hpp:77] Creating layer fire8/concat
I1026 14:57:59.185678 20580 net.cpp:84] Creating Layer fire8/concat
I1026 14:57:59.185683 20580 net.cpp:413] fire8/concat <- fire8/expand1x1
I1026 14:57:59.185689 20580 net.cpp:413] fire8/concat <- fire8/expand3x3
I1026 14:57:59.185698 20580 net.cpp:387] fire8/concat -> fire8/concat
I1026 14:57:59.185732 20580 net.cpp:127] Setting up fire8/concat
I1026 14:57:59.185742 20580 net.cpp:136] Top shape: 128 512 14 14 (12845056)
I1026 14:57:59.185747 20580 net.cpp:144] Memory required for data: 3703355392
I1026 14:57:59.185760 20580 layer_factory.hpp:77] Creating layer fire9/squeeze1x1
I1026 14:57:59.185770 20580 net.cpp:84] Creating Layer fire9/squeeze1x1
I1026 14:57:59.185775 20580 net.cpp:413] fire9/squeeze1x1 <- fire8/concat
I1026 14:57:59.185786 20580 net.cpp:387] fire9/squeeze1x1 -> fire9/squeeze1x1
I1026 14:57:59.186379 20580 net.cpp:127] Setting up fire9/squeeze1x1
I1026 14:57:59.186393 20580 net.cpp:136] Top shape: 128 64 14 14 (1605632)
I1026 14:57:59.186398 20580 net.cpp:144] Memory required for data: 3709777920
I1026 14:57:59.186404 20580 net.cpp:453] Found INQ layer:fire9/squeeze1x1, type: INQConvolution, layer id:62
I1026 14:57:59.186410 20580 net.cpp:453] Found INQ layer:fire9/squeeze1x1, type: INQConvolution, layer id:62
I1026 14:57:59.186416 20580 net.cpp:453] Found INQ layer:fire9/squeeze1x1, type: INQConvolution, layer id:62
I1026 14:57:59.186422 20580 net.cpp:453] Found INQ layer:fire9/squeeze1x1, type: INQConvolution, layer id:62
I1026 14:57:59.186436 20580 layer_factory.hpp:77] Creating layer fire9/relu_squeeze1x1
I1026 14:57:59.186470 20580 net.cpp:84] Creating Layer fire9/relu_squeeze1x1
I1026 14:57:59.186478 20580 net.cpp:413] fire9/relu_squeeze1x1 <- fire9/squeeze1x1
I1026 14:57:59.186486 20580 net.cpp:374] fire9/relu_squeeze1x1 -> fire9/squeeze1x1 (in-place)
I1026 14:57:59.186702 20580 net.cpp:127] Setting up fire9/relu_squeeze1x1
I1026 14:57:59.186713 20580 net.cpp:136] Top shape: 128 64 14 14 (1605632)
I1026 14:57:59.186718 20580 net.cpp:144] Memory required for data: 3716200448
I1026 14:57:59.186724 20580 layer_factory.hpp:77] Creating layer fire9/squeeze1x1_fire9/relu_squeeze1x1_0_split
I1026 14:57:59.186738 20580 net.cpp:84] Creating Layer fire9/squeeze1x1_fire9/relu_squeeze1x1_0_split
I1026 14:57:59.186743 20580 net.cpp:413] fire9/squeeze1x1_fire9/relu_squeeze1x1_0_split <- fire9/squeeze1x1
I1026 14:57:59.186753 20580 net.cpp:387] fire9/squeeze1x1_fire9/relu_squeeze1x1_0_split -> fire9/squeeze1x1_fire9/relu_squeeze1x1_0_split_0
I1026 14:57:59.186763 20580 net.cpp:387] fire9/squeeze1x1_fire9/relu_squeeze1x1_0_split -> fire9/squeeze1x1_fire9/relu_squeeze1x1_0_split_1
I1026 14:57:59.186810 20580 net.cpp:127] Setting up fire9/squeeze1x1_fire9/relu_squeeze1x1_0_split
I1026 14:57:59.186820 20580 net.cpp:136] Top shape: 128 64 14 14 (1605632)
I1026 14:57:59.186826 20580 net.cpp:136] Top shape: 128 64 14 14 (1605632)
I1026 14:57:59.186830 20580 net.cpp:144] Memory required for data: 3729045504
I1026 14:57:59.186836 20580 layer_factory.hpp:77] Creating layer fire9/expand1x1
I1026 14:57:59.186847 20580 net.cpp:84] Creating Layer fire9/expand1x1
I1026 14:57:59.186853 20580 net.cpp:413] fire9/expand1x1 <- fire9/squeeze1x1_fire9/relu_squeeze1x1_0_split_0
I1026 14:57:59.186861 20580 net.cpp:387] fire9/expand1x1 -> fire9/expand1x1
I1026 14:57:59.187332 20580 net.cpp:127] Setting up fire9/expand1x1
I1026 14:57:59.187345 20580 net.cpp:136] Top shape: 128 256 14 14 (6422528)
I1026 14:57:59.187350 20580 net.cpp:144] Memory required for data: 3754735616
I1026 14:57:59.187356 20580 net.cpp:453] Found INQ layer:fire9/expand1x1, type: INQConvolution, layer id:65
I1026 14:57:59.187363 20580 net.cpp:453] Found INQ layer:fire9/expand1x1, type: INQConvolution, layer id:65
I1026 14:57:59.187368 20580 net.cpp:453] Found INQ layer:fire9/expand1x1, type: INQConvolution, layer id:65
I1026 14:57:59.187373 20580 net.cpp:453] Found INQ layer:fire9/expand1x1, type: INQConvolution, layer id:65
I1026 14:57:59.187378 20580 layer_factory.hpp:77] Creating layer fire9/relu_expand1x1
I1026 14:57:59.187386 20580 net.cpp:84] Creating Layer fire9/relu_expand1x1
I1026 14:57:59.187392 20580 net.cpp:413] fire9/relu_expand1x1 <- fire9/expand1x1
I1026 14:57:59.187398 20580 net.cpp:374] fire9/relu_expand1x1 -> fire9/expand1x1 (in-place)
I1026 14:57:59.188791 20580 net.cpp:127] Setting up fire9/relu_expand1x1
I1026 14:57:59.188812 20580 net.cpp:136] Top shape: 128 256 14 14 (6422528)
I1026 14:57:59.188817 20580 net.cpp:144] Memory required for data: 3780425728
I1026 14:57:59.188822 20580 layer_factory.hpp:77] Creating layer fire9/expand3x3
I1026 14:57:59.188845 20580 net.cpp:84] Creating Layer fire9/expand3x3
I1026 14:57:59.188853 20580 net.cpp:413] fire9/expand3x3 <- fire9/squeeze1x1_fire9/relu_squeeze1x1_0_split_1
I1026 14:57:59.188860 20580 net.cpp:387] fire9/expand3x3 -> fire9/expand3x3
I1026 14:57:59.190366 20580 net.cpp:127] Setting up fire9/expand3x3
I1026 14:57:59.190381 20580 net.cpp:136] Top shape: 128 256 14 14 (6422528)
I1026 14:57:59.190384 20580 net.cpp:144] Memory required for data: 3806115840
I1026 14:57:59.190392 20580 net.cpp:453] Found INQ layer:fire9/expand3x3, type: INQConvolution, layer id:67
I1026 14:57:59.190398 20580 net.cpp:453] Found INQ layer:fire9/expand3x3, type: INQConvolution, layer id:67
I1026 14:57:59.190404 20580 net.cpp:453] Found INQ layer:fire9/expand3x3, type: INQConvolution, layer id:67
I1026 14:57:59.190410 20580 net.cpp:453] Found INQ layer:fire9/expand3x3, type: INQConvolution, layer id:67
I1026 14:57:59.190415 20580 layer_factory.hpp:77] Creating layer fire9/relu_expand3x3
I1026 14:57:59.190438 20580 net.cpp:84] Creating Layer fire9/relu_expand3x3
I1026 14:57:59.190454 20580 net.cpp:413] fire9/relu_expand3x3 <- fire9/expand3x3
I1026 14:57:59.190464 20580 net.cpp:374] fire9/relu_expand3x3 -> fire9/expand3x3 (in-place)
I1026 14:57:59.190680 20580 net.cpp:127] Setting up fire9/relu_expand3x3
I1026 14:57:59.190691 20580 net.cpp:136] Top shape: 128 256 14 14 (6422528)
I1026 14:57:59.190696 20580 net.cpp:144] Memory required for data: 3831805952
I1026 14:57:59.190701 20580 layer_factory.hpp:77] Creating layer fire9/concat
I1026 14:57:59.190709 20580 net.cpp:84] Creating Layer fire9/concat
I1026 14:57:59.190714 20580 net.cpp:413] fire9/concat <- fire9/expand1x1
I1026 14:57:59.190721 20580 net.cpp:413] fire9/concat <- fire9/expand3x3
I1026 14:57:59.190729 20580 net.cpp:387] fire9/concat -> fire9/concat
I1026 14:57:59.190763 20580 net.cpp:127] Setting up fire9/concat
I1026 14:57:59.190771 20580 net.cpp:136] Top shape: 128 512 14 14 (12845056)
I1026 14:57:59.190775 20580 net.cpp:144] Memory required for data: 3883186176
I1026 14:57:59.190780 20580 layer_factory.hpp:77] Creating layer drop9
I1026 14:57:59.190801 20580 net.cpp:84] Creating Layer drop9
I1026 14:57:59.190807 20580 net.cpp:413] drop9 <- fire9/concat
I1026 14:57:59.190814 20580 net.cpp:374] drop9 -> fire9/concat (in-place)
I1026 14:57:59.190850 20580 net.cpp:127] Setting up drop9
I1026 14:57:59.190860 20580 net.cpp:136] Top shape: 128 512 14 14 (12845056)
I1026 14:57:59.190865 20580 net.cpp:144] Memory required for data: 3934566400
I1026 14:57:59.190870 20580 layer_factory.hpp:77] Creating layer conv10
I1026 14:57:59.190881 20580 net.cpp:84] Creating Layer conv10
I1026 14:57:59.190887 20580 net.cpp:413] conv10 <- fire9/concat
I1026 14:57:59.190897 20580 net.cpp:387] conv10 -> conv10
I1026 14:57:59.200469 20580 net.cpp:127] Setting up conv10
I1026 14:57:59.200489 20580 net.cpp:136] Top shape: 128 1000 14 14 (25088000)
I1026 14:57:59.200495 20580 net.cpp:144] Memory required for data: 4034918400
I1026 14:57:59.200502 20580 net.cpp:453] Found INQ layer:conv10, type: INQConvolution, layer id:71
I1026 14:57:59.200510 20580 net.cpp:453] Found INQ layer:conv10, type: INQConvolution, layer id:71
I1026 14:57:59.200515 20580 net.cpp:453] Found INQ layer:conv10, type: INQConvolution, layer id:71
I1026 14:57:59.200522 20580 net.cpp:453] Found INQ layer:conv10, type: INQConvolution, layer id:71
I1026 14:57:59.200527 20580 layer_factory.hpp:77] Creating layer relu_conv10
I1026 14:57:59.200537 20580 net.cpp:84] Creating Layer relu_conv10
I1026 14:57:59.200543 20580 net.cpp:413] relu_conv10 <- conv10
I1026 14:57:59.200558 20580 net.cpp:374] relu_conv10 -> conv10 (in-place)
I1026 14:57:59.200788 20580 net.cpp:127] Setting up relu_conv10
I1026 14:57:59.200804 20580 net.cpp:136] Top shape: 128 1000 14 14 (25088000)
I1026 14:57:59.200809 20580 net.cpp:144] Memory required for data: 4135270400
I1026 14:57:59.200815 20580 layer_factory.hpp:77] Creating layer pool10
I1026 14:57:59.200841 20580 net.cpp:84] Creating Layer pool10
I1026 14:57:59.200847 20580 net.cpp:413] pool10 <- conv10
I1026 14:57:59.200855 20580 net.cpp:387] pool10 -> pool10
I1026 14:57:59.201100 20580 net.cpp:127] Setting up pool10
I1026 14:57:59.201113 20580 net.cpp:136] Top shape: 128 1000 1 1 (128000)
I1026 14:57:59.201118 20580 net.cpp:144] Memory required for data: 4135782400
I1026 14:57:59.201123 20580 layer_factory.hpp:77] Creating layer loss
I1026 14:57:59.201136 20580 net.cpp:84] Creating Layer loss
I1026 14:57:59.201141 20580 net.cpp:413] loss <- pool10
I1026 14:57:59.201148 20580 net.cpp:413] loss <- label
I1026 14:57:59.201158 20580 net.cpp:387] loss -> loss
I1026 14:57:59.201172 20580 layer_factory.hpp:77] Creating layer loss
…
I1026 14:57:59.206768 20580 net.cpp:301] The NetState phase (1) differed from the phase (0) specified by a rule in layer data
I1026 14:57:59.207510 20580 net.cpp:51] Initializing net from parameters: 
name: "SqueezeNet"
state {
  phase: TEST
}
layer {
  name: "data"
  type: "Data"
  top: "data"
  top: "label"
  include {
    phase: TEST
  }
  transform_param {
    crop_size: 227
    mean_value: 104
    mean_value: 117
    mean_value: 123
  }
  data_param {
    source: "/home/data/caffe-imagenet/ilsvrc12_val_lmdb"
    batch_size: 50
    backend: LMDB
  }
}
layer {
  name: "conv1"
  type: "INQConvolution"
  bottom: "data"
  top: "conv1"
  convolution_param {
    num_output: 64
    kernel_size: 3
    stride: 2
    weight_filler {
      type: "xavier"
    }
  }
  inq_convolution_param {
    portion: 0
    portion: 0.1
    weight_mask_filler {
      type: "constant"
      value: 1
    }
    bias_mask_filler {
      type: "constant"
      value: 1
    }
    num_quantum_values: 7
  }
}
layer {
  name: "relu_conv1"
  type: "ReLU"
  bottom: "conv1"
  top: "conv1"
}
layer {
  name: "pool1"
  type: "Pooling"
  bottom: "conv1"
  top: "pool1"
  pooling_param {
    pool: MAX
    kernel_size: 3
    stride: 2
  }
}
layer {
  name: "fire2/squeeze1x1"
  type: "INQConvolution"
  bottom: "pool1"
  top: "fire2/squeeze1x1"
  convolution_param {
    num_output: 16
    kernel_size: 1
    weight_filler {
      type: "xavier"
    }
  }
  inq_convolution_param {
    portion: 0
    portion: 0.1
    weight_mask_filler {
      type: "constant"
      value: 1
    }
    bias_mask_filler {
      type: "constant"
      value: 1
    }
    num_quantum_values: 7
  }
}
layer {
  name: "fire2/relu_squeeze1x1"
  type: "ReLU"
  bottom: "fire2/squeeze1x1"
  top: "fire2/squeeze1x1"
}
layer {
  name: "fire2/expand1x1"
  type: "INQConvolution"
  bottom: "fire2/squeeze1x1"
  top: "fire2/expand1x1"
  convolution_param {
    num_output: 64
    kernel_size: 1
    weight_filler {
      type: "xavier"
    }
  }
  inq_convolution_param {
    portion: 0
    portion: 0.1
    weight_mask_filler {
      type: "constant"
      value: 1
    }
    bias_mask_filler {
      type: "constant"
      value: 1
    }
    num_quantum_values: 7
  }
}
layer {
  name: "fire2/relu_expand1x1"
  type: "ReLU"
  bottom: "fire2/expand1x1"
  top: "fire2/expand1x1"
}
layer {
  name: "fire2/expand3x3"
  type: "INQConvolution"
  bottom: "fire2/squeeze1x1"
  top: "fire2/expand3x3"
  convolution_param {
    num_output: 64
    pad: 1
    kernel_size: 3
    weight_filler {
      type: "xavier"
    }
  }
  inq_convolution_param {
    portion: 0
    portion: 0.1
    weight_mask_filler {
      type: "constant"
      value: 1
    }
    bias_mask_filler {
      type: "constant"
      value: 1
    }
    num_quantum_values: 7
  }
}
layer {
  name: "fire2/relu_expand3x3"
  type: "ReLU"
  bottom: "fire2/expand3x3"
  top: "fire2/expand3x3"
}
layer {
  name: "fire2/concat"
  type: "Concat"
  bottom: "fire2/expand1x1"
  bottom: "fire2/expand3x3"
  top: "fire2/concat"
}
layer {
  name: "fire3/squeeze1x1"
  type: "INQConvolution"
  bottom: "fire2/concat"
  top: "fire3/squeeze1x1"
  convolution_param {
    num_output: 16
    kernel_size: 1
    weight_filler {
      type: "xavier"
    }
  }
  inq_convolution_param {
    portion: 0
    portion: 0.1
    weight_mask_filler {
      type: "constant"
      value: 1
    }
    bias_mask_filler {
      type: "constant"
      value: 1
    }
    num_quantum_values: 7
  }
}
layer {
  name: "fire3/relu_squeeze1x1"
  type: "ReLU"
  bottom: "fire3/squeeze1x1"
  top: "fire3/squeeze1x1"
}
layer {
  name: "fire3/expand1x1"
  type: "INQConvolution"
  bottom: "fire3/squeeze1x1"
  top: "fire3/expand1x1"
  convolution_param {
    num_output: 64
    kernel_size: 1
    weight_filler {
      type: "xavier"
    }
  }
  inq_convolution_param {
    portion: 0
    portion: 0.1
    weight_mask_filler {
      type: "constant"
      value: 1
    }
    bias_mask_filler {
      type: "constant"
      value: 1
    }
    num_quantum_values: 7
  }
}
layer {
  name: "fire3/relu_expand1x1"
  type: "ReLU"
  bottom: "fire3/expand1x1"
  top: "fire3/expand1x1"
}
layer {
  name: "fire3/expand3x3"
  type: "INQConvolution"
  bottom: "fire3/squeeze1x1"
  top: "fire3/expand3x3"
  convolution_param {
    num_output: 64
    pad: 1
    kernel_size: 3
    weight_filler {
      type: "xavier"
    }
  }
  inq_convolution_param {
    portion: 0
    portion: 0.1
    weight_mask_filler {
      type: "constant"
      value: 1
    }
    bias_mask_filler {
      type: "constant"
      value: 1
    }
    num_quantum_values: 7
  }
}
layer {
  name: "fire3/relu_expand3x3"
  type: "ReLU"
  bottom: "fire3/expand3x3"
  top: "fire3/expand3x3"
}
layer {
  name: "fire3/concat"
  type: "Concat"
  bottom: "fire3/expand1x1"
  bottom: "fire3/expand3x3"
  top: "fire3/concat"
}
layer {
  name: "pool3"
  type: "Pooling"
  bottom: "fire3/concat"
  top: "pool3"
  pooling_param {
    pool: MAX
    kernel_size: 3
    stride: 2
  }
}
layer {
  name: "fire4/squeeze1x1"
  type: "INQConvolution"
  bottom: "pool3"
  top: "fire4/squeeze1x1"
  convolution_param {
    num_output: 32
    kernel_size: 1
    weight_filler {
      type: "xavier"
    }
  }
  inq_convolution_param {
    portion: 0
    portion: 0.1
    weight_mask_filler {
      type: "constant"
      value: 1
    }
    bias_mask_filler {
      type: "constant"
      value: 1
    }
    num_quantum_values: 7
  }
}
layer {
  name: "fire4/relu_squeeze1x1"
  type: "ReLU"
  bottom: "fire4/squeeze1x1"
  top: "fire4/squeeze1x1"
}
layer {
  name: "fire4/expand1x1"
  type: "INQConvolution"
  bottom: "fire4/squeeze1x1"
  top: "fire4/expand1x1"
  convolution_param {
    num_output: 128
    kernel_size: 1
    weight_filler {
      type: "xavier"
    }
  }
  inq_convolution_param {
    portion: 0
    portion: 0.1
    weight_mask_filler {
      type: "constant"
      value: 1
    }
    bias_mask_filler {
      type: "constant"
      value: 1
    }
    num_quantum_values: 7
  }
}
layer {
  name: "fire4/relu_expand1x1"
  type: "ReLU"
  bottom: "fire4/expand1x1"
  top: "fire4/expand1x1"
}
layer {
  name: "fire4/expand3x3"
  type: "INQConvolution"
  bottom: "fire4/squeeze1x1"
  top: "fire4/expand3x3"
  convolution_param {
    num_output: 128
    pad: 1
    kernel_size: 3
    weight_filler {
      type: "xavier"
    }
  }
  inq_convolution_param {
    portion: 0
    portion: 0.1
    weight_mask_filler {
      type: "constant"
      value: 1
    }
    bias_mask_filler {
      type: "constant"
      value: 1
    }
    num_quantum_values: 7
  }
}
layer {
  name: "fire4/relu_expand3x3"
  type: "ReLU"
  bottom: "fire4/expand3x3"
  top: "fire4/expand3x3"
}
layer {
  name: "fire4/concat"
  type: "Concat"
  bottom: "fire4/expand1x1"
  bottom: "fire4/expand3x3"
  top: "fire4/concat"
}
layer {
  name: "fire5/squeeze1x1"
  type: "INQConvolution"
  bottom: "fire4/concat"
  top: "fire5/squeeze1x1"
  convolution_param {
    num_output: 32
    kernel_size: 1
    weight_filler {
      type: "xavier"
    }
  }
  inq_convolution_param {
    portion: 0
    portion: 0.1
    weight_mask_filler {
      type: "constant"
      value: 1
    }
    bias_mask_filler {
      type: "constant"
      value: 1
    }
    num_quantum_values: 7
  }
}
layer {
  name: "fire5/relu_squeeze1x1"
  type: "ReLU"
  bottom: "fire5/squeeze1x1"
  top: "fire5/squeeze1x1"
}
layer {
  name: "fire5/expand1x1"
  type: "INQConvolution"
  bottom: "fire5/squeeze1x1"
  top: "fire5/expand1x1"
  convolution_param {
    num_output: 128
    kernel_size: 1
    weight_filler {
      type: "xavier"
    }
  }
  inq_convolution_param {
    portion: 0
    portion: 0.1
    weight_mask_filler {
      type: "constant"
      value: 1
    }
    bias_mask_filler {
      type: "constant"
      value: 1
    }
    num_quantum_values: 7
  }
}
layer {
  name: "fire5/relu_expand1x1"
  type: "ReLU"
  bottom: "fire5/expand1x1"
  top: "fire5/expand1x1"
}
layer {
  name: "fire5/expand3x3"
  type: "INQConvolution"
  bottom: "fire5/squeeze1x1"
  top: "fire5/expand3x3"
  convolution_param {
    num_output: 128
    pad: 1
    kernel_size: 3
    weight_filler {
      type: "xavier"
    }
  }
  inq_convolution_param {
    portion: 0
    portion: 0.1
    weight_mask_filler {
      type: "constant"
      value: 1
    }
    bias_mask_filler {
      type: "constant"
      value: 1
    }
    num_quantum_values: 7
  }
}
layer {
  name: "fire5/relu_expand3x3"
  type: "ReLU"
  bottom: "fire5/expand3x3"
  top: "fire5/expand3x3"
}
layer {
  name: "fire5/concat"
  type: "Concat"
  bottom: "fire5/expand1x1"
  bottom: "fire5/expand3x3"
  top: "fire5/concat"
}
layer {
  name: "pool5"
  type: "Pooling"
  bottom: "fire5/concat"
  top: "pool5"
  pooling_param {
    pool: MAX
    kernel_size: 3
    stride: 2
  }
}
layer {
  name: "fire6/squeeze1x1"
  type: "INQConvolution"
  bottom: "pool5"
  top: "fire6/squeeze1x1"
  convolution_param {
    num_output: 48
    kernel_size: 1
    weight_filler {
      type: "xavier"
    }
  }
  inq_convolution_param {
    portion: 0
    portion: 0.1
    weight_mask_filler {
      type: "constant"
      value: 1
    }
    bias_mask_filler {
      type: "constant"
      value: 1
    }
    num_quantum_values: 7
  }
}
layer {
  name: "fire6/relu_squeeze1x1"
  type: "ReLU"
  bottom: "fire6/squeeze1x1"
  top: "fire6/squeeze1x1"
}
layer {
  name: "fire6/expand1x1"
  type: "INQConvolution"
  bottom: "fire6/squeeze1x1"
  top: "fire6/expand1x1"
  convolution_param {
    num_output: 192
    kernel_size: 1
    weight_filler {
      type: "xavier"
    }
  }
  inq_convolution_param {
    portion: 0
    portion: 0.1
    weight_mask_filler {
      type: "constant"
      value: 1
    }
    bias_mask_filler {
      type: "constant"
      value: 1
    }
    num_quantum_values: 7
  }
}
layer {
  name: "fire6/relu_expand1x1"
  type: "ReLU"
  bottom: "fire6/expand1x1"
  top: "fire6/expand1x1"
}
layer {
  name: "fire6/expand3x3"
  type: "INQConvolution"
  bottom: "fire6/squeeze1x1"
  top: "fire6/expand3x3"
  convolution_param {
    num_output: 192
    pad: 1
    kernel_size: 3
    weight_filler {
      type: "xavier"
    }
  }
  inq_convolution_param {
    portion: 0
    portion: 0.1
    weight_mask_filler {
      type: "constant"
      value: 1
    }
    bias_mask_filler {
      type: "constant"
      value: 1
    }
    num_quantum_values: 7
  }
}
layer {
  name: "fire6/relu_expand3x3"
  type: "ReLU"
  bottom: "fire6/expand3x3"
  top: "fire6/expand3x3"
}
layer {
  name: "fire6/concat"
  type: "Concat"
  bottom: "fire6/expand1x1"
  bottom: "fire6/expand3x3"
  top: "fire6/concat"
}
layer {
  name: "fire7/squeeze1x1"
  type: "INQConvolution"
  bottom: "fire6/concat"
  top: "fire7/squeeze1x1"
  convolution_param {
    num_output: 48
    kernel_size: 1
    weight_filler {
      type: "xavier"
    }
  }
  inq_convolution_param {
    portion: 0
    portion: 0.1
    weight_mask_filler {
      type: "constant"
      value: 1
    }
    bias_mask_filler {
      type: "constant"
      value: 1
    }
    num_quantum_values: 7
  }
}
layer {
  name: "fire7/relu_squeeze1x1"
  type: "ReLU"
  bottom: "fire7/squeeze1x1"
  top: "fire7/squeeze1x1"
}
layer {
  name: "fire7/expand1x1"
  type: "INQConvolution"
  bottom: "fire7/squeeze1x1"
  top: "fire7/expand1x1"
  convolution_param {
    num_output: 192
    kernel_size: 1
    weight_filler {
      type: "xavier"
    }
  }
  inq_convolution_param {
    portion: 0
    portion: 0.1
    weight_mask_filler {
      type: "constant"
      value: 1
    }
    bias_mask_filler {
      type: "constant"
      value: 1
    }
    num_quantum_values: 7
  }
}
layer {
  name: "fire7/relu_expand1x1"
  type: "ReLU"
  bottom: "fire7/expand1x1"
  top: "fire7/expand1x1"
}
layer {
  name: "fire7/expand3x3"
  type: "INQConvolution"
  bottom: "fire7/squeeze1x1"
  top: "fire7/expand3x3"
  convolution_param {
    num_output: 192
    pad: 1
    kernel_size: 3
    weight_filler {
      type: "xavier"
    }
  }
  inq_convolution_param {
    portion: 0
    portion: 0.1
    weight_mask_filler {
      type: "constant"
      value: 1
    }
    bias_mask_filler {
      type: "constant"
      value: 1
    }
    num_quantum_values: 7
  }
}
layer {
  name: "fire7/relu_expand3x3"
  type: "ReLU"
  bottom: "fire7/expand3x3"
  top: "fire7/expand3x3"
}
layer {
  name: "fire7/concat"
  type: "Concat"
  bottom: "fire7/expand1x1"
  bottom: "fire7/expand3x3"
  top: "fire7/concat"
}
layer {
  name: "fire8/squeeze1x1"
  type: "INQConvolution"
  bottom: "fire7/concat"
  top: "fire8/squeeze1x1"
  convolution_param {
    num_output: 64
    kernel_size: 1
    weight_filler {
      type: "xavier"
    }
  }
  inq_convolution_param {
    portion: 0
    portion: 0.1
    weight_mask_filler {
      type: "constant"
      value: 1
    }
    bias_mask_filler {
      type: "constant"
      value: 1
    }
    num_quantum_values: 7
  }
}
layer {
  name: "fire8/relu_squeeze1x1"
  type: "ReLU"
  bottom: "fire8/squeeze1x1"
  top: "fire8/squeeze1x1"
}
layer {
  name: "fire8/expand1x1"
  type: "INQConvolution"
  bottom: "fire8/squeeze1x1"
  top: "fire8/expand1x1"
  convolution_param {
    num_output: 256
    kernel_size: 1
    weight_filler {
      type: "xavier"
    }
  }
  inq_convolution_param {
    portion: 0
    portion: 0.1
    weight_mask_filler {
      type: "constant"
      value: 1
    }
    bias_mask_filler {
      type: "constant"
      value: 1
    }
    num_quantum_values: 7
  }
}
layer {
  name: "fire8/relu_expand1x1"
  type: "ReLU"
  bottom: "fire8/expand1x1"
  top: "fire8/expand1x1"
}
layer {
  name: "fire8/expand3x3"
  type: "INQConvolution"
  bottom: "fire8/squeeze1x1"
  top: "fire8/expand3x3"
  convolution_param {
    num_output: 256
    pad: 1
    kernel_size: 3
    weight_filler {
      type: "xavier"
    }
  }
  inq_convolution_param {
    portion: 0
    portion: 0.1
    weight_mask_filler {
      type: "constant"
      value: 1
    }
    bias_mask_filler {
      type: "constant"
      value: 1
    }
    num_quantum_values: 7
  }
}
layer {
  name: "fire8/relu_expand3x3"
  type: "ReLU"
  bottom: "fire8/expand3x3"
  top: "fire8/expand3x3"
}
layer {
  name: "fire8/concat"
  type: "Concat"
  bottom: "fire8/expand1x1"
  bottom: "fire8/expand3x3"
  top: "fire8/concat"
}
layer {
  name: "fire9/squeeze1x1"
  type: "INQConvolution"
  bottom: "fire8/concat"
  top: "fire9/squeeze1x1"
  convolution_param {
    num_output: 64
    kernel_size: 1
    weight_filler {
      type: "xavier"
    }
  }
  inq_convolution_param {
    portion: 0
    portion: 0.1
    weight_mask_filler {
      type: "constant"
      value: 1
    }
    bias_mask_filler {
      type: "constant"
      value: 1
    }
    num_quantum_values: 7
  }
}
layer {
  name: "fire9/relu_squeeze1x1"
  type: "ReLU"
  bottom: "fire9/squeeze1x1"
  top: "fire9/squeeze1x1"
}
layer {
  name: "fire9/expand1x1"
  type: "INQConvolution"
  bottom: "fire9/squeeze1x1"
  top: "fire9/expand1x1"
  convolution_param {
    num_output: 256
    kernel_size: 1
    weight_filler {
      type: "xavier"
    }
  }
  inq_convolution_param {
    portion: 0
    portion: 0.1
    weight_mask_filler {
      type: "constant"
      value: 1
    }
    bias_mask_filler {
      type: "constant"
      value: 1
    }
    num_quantum_values: 7
  }
}
layer {
  name: "fire9/relu_expand1x1"
  type: "ReLU"
  bottom: "fire9/expand1x1"
  top: "fire9/expand1x1"
}
layer {
  name: "fire9/expand3x3"
  type: "INQConvolution"
  bottom: "fire9/squeeze1x1"
  top: "fire9/expand3x3"
  convolution_param {
    num_output: 256
    pad: 1
    kernel_size: 3
    weight_filler {
      type: "xavier"
    }
  }
  inq_convolution_param {
    portion: 0
    portion: 0.1
    weight_mask_filler {
      type: "constant"
      value: 1
    }
    bias_mask_filler {
      type: "constant"
      value: 1
    }
    num_quantum_values: 7
  }
}
layer {
  name: "fire9/relu_expand3x3"
  type: "ReLU"
  bottom: "fire9/expand3x3"
  top: "fire9/expand3x3"
}
layer {
  name: "fire9/concat"
  type: "Concat"
  bottom: "fire9/expand1x1"
  bottom: "fire9/expand3x3"
  top: "fire9/concat"
}
layer {
  name: "drop9"
  type: "Dropout"
  bottom: "fire9/concat"
  top: "fire9/concat"
  dropout_param {
    dropout_ratio: 0.5
  }
}
layer {
  name: "conv10"
  type: "INQConvolution"
  bottom: "fire9/concat"
  top: "conv10"
  convolution_param {
    num_output: 1000
    kernel_size: 1
    weight_filler {
      type: "gaussian"
      mean: 0
      std: 0.01
    }
  }
  inq_convolution_param {
    portion: 0
    portion: 0.1
    weight_mask_filler {
      type: "constant"
      value: 1
    }
    bias_mask_filler {
      type: "constant"
      value: 1
    }
    num_quantum_values: 7
  }
}
layer {
  name: "relu_conv10"
  type: "ReLU"
  bottom: "conv10"
  top: "conv10"
}
layer {
  name: "pool10"
  type: "Pooling"
  bottom: "conv10"
  top: "pool10"
  pooling_param {
    pool: AVE
    global_pooling: true
  }
}
layer {
  name: "loss"
  type: "SoftmaxWithLoss"
  bottom: "pool10"
  bottom: "label"
  top: "loss"
}
layer {
  name: "accuracy_top1"
  type: "Accuracy"
  bottom: "pool10"
  bottom: "label"
  top: "accuracy_top1"
  include {
    phase: TEST
  }
}
layer {
  name: "accuracy_top5"
  type: "Accuracy"
  bottom: "pool10"
  bottom: "label"
  top: "accuracy_top5"
  include {
    phase: TEST
  }
  accuracy_param {
    top_k: 5
  }
}
I1026 14:57:59.207908 20580 layer_factory.hpp:77] Creating layer data
I1026 14:57:59.207988 20580 db_lmdb.cpp:35] Opened lmdb /home/data/caffe-imagenet/ilsvrc12_val_lmdb
I1026 14:57:59.208009 20580 net.cpp:84] Creating Layer data
I1026 14:57:59.208019 20580 net.cpp:387] data -> data
I1026 14:57:59.208030 20580 net.cpp:387] data -> label
I1026 14:57:59.208467 20580 data_layer.cpp:45] output data size: 50,3,227,227
I1026 14:57:59.294282 20580 net.cpp:127] Setting up data
I1026 14:57:59.294337 20580 net.cpp:136] Top shape: 50 3 227 227 (7729350)
I1026 14:57:59.294374 20580 net.cpp:136] Top shape: 50 (50)
I1026 14:57:59.294380 20580 net.cpp:144] Memory required for data: 30917600
I1026 14:57:59.294389 20580 layer_factory.hpp:77] Creating layer label_data_1_split
I1026 14:57:59.294410 20580 net.cpp:84] Creating Layer label_data_1_split
I1026 14:57:59.294416 20580 net.cpp:413] label_data_1_split <- label
I1026 14:57:59.294427 20580 net.cpp:387] label_data_1_split -> label_data_1_split_0
I1026 14:57:59.294442 20580 net.cpp:387] label_data_1_split -> label_data_1_split_1
I1026 14:57:59.294450 20580 net.cpp:387] label_data_1_split -> label_data_1_split_2
I1026 14:57:59.294548 20580 net.cpp:127] Setting up label_data_1_split
I1026 14:57:59.294559 20580 net.cpp:136] Top shape: 50 (50)
I1026 14:57:59.294565 20580 net.cpp:136] Top shape: 50 (50)
I1026 14:57:59.294571 20580 net.cpp:136] Top shape: 50 (50)
I1026 14:57:59.294575 20580 net.cpp:144] Memory required for data: 30918200
I1026 14:57:59.294580 20580 layer_factory.hpp:77] Creating layer conv1
I1026 14:57:59.294598 20580 net.cpp:84] Creating Layer conv1
I1026 14:57:59.294605 20580 net.cpp:413] conv1 <- data
I1026 14:57:59.294613 20580 net.cpp:387] conv1 -> conv1
I1026 14:57:59.295039 20580 net.cpp:127] Setting up conv1
I1026 14:57:59.295050 20580 net.cpp:136] Top shape: 50 64 113 113 (40860800)
I1026 14:57:59.295055 20580 net.cpp:144] Memory required for data: 194361400
I1026 14:57:59.295065 20580 net.cpp:453] Found INQ layer:conv1, type: INQConvolution, layer id:2
I1026 14:57:59.295075 20580 net.cpp:453] Found INQ layer:conv1, type: INQConvolution, layer id:2
I1026 14:57:59.295084 20580 net.cpp:453] Found INQ layer:conv1, type: INQConvolution, layer id:2
I1026 14:57:59.295092 20580 net.cpp:453] Found INQ layer:conv1, type: INQConvolution, layer id:2
I1026 14:57:59.295099 20580 layer_factory.hpp:77] Creating layer relu_conv1
I1026 14:57:59.295109 20580 net.cpp:84] Creating Layer relu_conv1
I1026 14:57:59.295114 20580 net.cpp:413] relu_conv1 <- conv1
I1026 14:57:59.295122 20580 net.cpp:374] relu_conv1 -> conv1 (in-place)
I1026 14:57:59.295397 20580 net.cpp:127] Setting up relu_conv1
I1026 14:57:59.295410 20580 net.cpp:136] Top shape: 50 64 113 113 (40860800)
I1026 14:57:59.295415 20580 net.cpp:144] Memory required for data: 357804600
I1026 14:57:59.295423 20580 layer_factory.hpp:77] Creating layer pool1
I1026 14:57:59.295434 20580 net.cpp:84] Creating Layer pool1
I1026 14:57:59.295439 20580 net.cpp:413] pool1 <- conv1
I1026 14:57:59.295447 20580 net.cpp:387] pool1 -> pool1
I1026 14:57:59.295508 20580 net.cpp:127] Setting up pool1
I1026 14:57:59.295518 20580 net.cpp:136] Top shape: 50 64 56 56 (10035200)
I1026 14:57:59.295523 20580 net.cpp:144] Memory required for data: 397945400
I1026 14:57:59.295528 20580 layer_factory.hpp:77] Creating layer fire2/squeeze1x1
I1026 14:57:59.295541 20580 net.cpp:84] Creating Layer fire2/squeeze1x1
I1026 14:57:59.295545 20580 net.cpp:413] fire2/squeeze1x1 <- pool1
I1026 14:57:59.295553 20580 net.cpp:387] fire2/squeeze1x1 -> fire2/squeeze1x1
I1026 14:57:59.295946 20580 net.cpp:127] Setting up fire2/squeeze1x1
I1026 14:57:59.295958 20580 net.cpp:136] Top shape: 50 16 56 56 (2508800)
I1026 14:57:59.295963 20580 net.cpp:144] Memory required for data: 407980600
I1026 14:57:59.295970 20580 net.cpp:453] Found INQ layer:fire2/squeeze1x1, type: INQConvolution, layer id:5
I1026 14:57:59.295979 20580 net.cpp:453] Found INQ layer:fire2/squeeze1x1, type: INQConvolution, layer id:5
I1026 14:57:59.295986 20580 net.cpp:453] Found INQ layer:fire2/squeeze1x1, type: INQConvolution, layer id:5
I1026 14:57:59.295992 20580 net.cpp:453] Found INQ layer:fire2/squeeze1x1, type: INQConvolution, layer id:5
I1026 14:57:59.295999 20580 layer_factory.hpp:77] Creating layer fire2/relu_squeeze1x1
I1026 14:57:59.296007 20580 net.cpp:84] Creating Layer fire2/relu_squeeze1x1
I1026 14:57:59.296012 20580 net.cpp:413] fire2/relu_squeeze1x1 <- fire2/squeeze1x1
I1026 14:57:59.296020 20580 net.cpp:374] fire2/relu_squeeze1x1 -> fire2/squeeze1x1 (in-place)
I1026 14:57:59.298630 20580 net.cpp:127] Setting up fire2/relu_squeeze1x1
I1026 14:57:59.298645 20580 net.cpp:136] Top shape: 50 16 56 56 (2508800)
I1026 14:57:59.298650 20580 net.cpp:144] Memory required for data: 418015800
I1026 14:57:59.298655 20580 layer_factory.hpp:77] Creating layer fire2/squeeze1x1_fire2/relu_squeeze1x1_0_split
I1026 14:57:59.298663 20580 net.cpp:84] Creating Layer fire2/squeeze1x1_fire2/relu_squeeze1x1_0_split
I1026 14:57:59.298668 20580 net.cpp:413] fire2/squeeze1x1_fire2/relu_squeeze1x1_0_split <- fire2/squeeze1x1
I1026 14:57:59.298676 20580 net.cpp:387] fire2/squeeze1x1_fire2/relu_squeeze1x1_0_split -> fire2/squeeze1x1_fire2/relu_squeeze1x1_0_split_0
I1026 14:57:59.298687 20580 net.cpp:387] fire2/squeeze1x1_fire2/relu_squeeze1x1_0_split -> fire2/squeeze1x1_fire2/relu_squeeze1x1_0_split_1
I1026 14:57:59.298738 20580 net.cpp:127] Setting up fire2/squeeze1x1_fire2/relu_squeeze1x1_0_split
I1026 14:57:59.298746 20580 net.cpp:136] Top shape: 50 16 56 56 (2508800)
I1026 14:57:59.298753 20580 net.cpp:136] Top shape: 50 16 56 56 (2508800)
I1026 14:57:59.298758 20580 net.cpp:144] Memory required for data: 438086200
I1026 14:57:59.298763 20580 layer_factory.hpp:77] Creating layer fire2/expand1x1
I1026 14:57:59.298774 20580 net.cpp:84] Creating Layer fire2/expand1x1
I1026 14:57:59.298784 20580 net.cpp:413] fire2/expand1x1 <- fire2/squeeze1x1_fire2/relu_squeeze1x1_0_split_0
I1026 14:57:59.298792 20580 net.cpp:387] fire2/expand1x1 -> fire2/expand1x1
I1026 14:57:59.299154 20580 net.cpp:127] Setting up fire2/expand1x1
I1026 14:57:59.299163 20580 net.cpp:136] Top shape: 50 64 56 56 (10035200)
I1026 14:57:59.299170 20580 net.cpp:144] Memory required for data: 478227000
I1026 14:57:59.299177 20580 net.cpp:453] Found INQ layer:fire2/expand1x1, type: INQConvolution, layer id:8
I1026 14:57:59.299186 20580 net.cpp:453] Found INQ layer:fire2/expand1x1, type: INQConvolution, layer id:8
I1026 14:57:59.299193 20580 net.cpp:453] Found INQ layer:fire2/expand1x1, type: INQConvolution, layer id:8
I1026 14:57:59.299199 20580 net.cpp:453] Found INQ layer:fire2/expand1x1, type: INQConvolution, layer id:8
I1026 14:57:59.299204 20580 layer_factory.hpp:77] Creating layer fire2/relu_expand1x1
I1026 14:57:59.299212 20580 net.cpp:84] Creating Layer fire2/relu_expand1x1
I1026 14:57:59.299217 20580 net.cpp:413] fire2/relu_expand1x1 <- fire2/expand1x1
I1026 14:57:59.299224 20580 net.cpp:374] fire2/relu_expand1x1 -> fire2/expand1x1 (in-place)
I1026 14:57:59.300652 20580 net.cpp:127] Setting up fire2/relu_expand1x1
I1026 14:57:59.300671 20580 net.cpp:136] Top shape: 50 64 56 56 (10035200)
I1026 14:57:59.300678 20580 net.cpp:144] Memory required for data: 518367800
I1026 14:57:59.300683 20580 layer_factory.hpp:77] Creating layer fire2/expand3x3
I1026 14:57:59.300694 20580 net.cpp:84] Creating Layer fire2/expand3x3
I1026 14:57:59.300701 20580 net.cpp:413] fire2/expand3x3 <- fire2/squeeze1x1_fire2/relu_squeeze1x1_0_split_1
I1026 14:57:59.300712 20580 net.cpp:387] fire2/expand3x3 -> fire2/expand3x3
I1026 14:57:59.301161 20580 net.cpp:127] Setting up fire2/expand3x3
I1026 14:57:59.301172 20580 net.cpp:136] Top shape: 50 64 56 56 (10035200)
I1026 14:57:59.301177 20580 net.cpp:144] Memory required for data: 558508600
I1026 14:57:59.301183 20580 net.cpp:453] Found INQ layer:fire2/expand3x3, type: INQConvolution, layer id:10
I1026 14:57:59.301189 20580 net.cpp:453] Found INQ layer:fire2/expand3x3, type: INQConvolution, layer id:10
I1026 14:57:59.301195 20580 net.cpp:453] Found INQ layer:fire2/expand3x3, type: INQConvolution, layer id:10
I1026 14:57:59.301200 20580 net.cpp:453] Found INQ layer:fire2/expand3x3, type: INQConvolution, layer id:10
I1026 14:57:59.301205 20580 layer_factory.hpp:77] Creating layer fire2/relu_expand3x3
I1026 14:57:59.301213 20580 net.cpp:84] Creating Layer fire2/relu_expand3x3
I1026 14:57:59.301218 20580 net.cpp:413] fire2/relu_expand3x3 <- fire2/expand3x3
I1026 14:57:59.301226 20580 net.cpp:374] fire2/relu_expand3x3 -> fire2/expand3x3 (in-place)
I1026 14:57:59.301460 20580 net.cpp:127] Setting up fire2/relu_expand3x3
I1026 14:57:59.301475 20580 net.cpp:136] Top shape: 50 64 56 56 (10035200)
I1026 14:57:59.301491 20580 net.cpp:144] Memory required for data: 598649400
I1026 14:57:59.301497 20580 layer_factory.hpp:77] Creating layer fire2/concat
I1026 14:57:59.301506 20580 net.cpp:84] Creating Layer fire2/concat
I1026 14:57:59.301512 20580 net.cpp:413] fire2/concat <- fire2/expand1x1
I1026 14:57:59.301517 20580 net.cpp:413] fire2/concat <- fire2/expand3x3
I1026 14:57:59.301524 20580 net.cpp:387] fire2/concat -> fire2/concat
I1026 14:57:59.301563 20580 net.cpp:127] Setting up fire2/concat
I1026 14:57:59.301574 20580 net.cpp:136] Top shape: 50 128 56 56 (20070400)
I1026 14:57:59.301579 20580 net.cpp:144] Memory required for data: 678931000
I1026 14:57:59.301584 20580 layer_factory.hpp:77] Creating layer fire3/squeeze1x1
I1026 14:57:59.301595 20580 net.cpp:84] Creating Layer fire3/squeeze1x1
I1026 14:57:59.301601 20580 net.cpp:413] fire3/squeeze1x1 <- fire2/concat
I1026 14:57:59.301610 20580 net.cpp:387] fire3/squeeze1x1 -> fire3/squeeze1x1
I1026 14:57:59.301982 20580 net.cpp:127] Setting up fire3/squeeze1x1
I1026 14:57:59.301993 20580 net.cpp:136] Top shape: 50 16 56 56 (2508800)
I1026 14:57:59.301997 20580 net.cpp:144] Memory required for data: 688966200
I1026 14:57:59.302006 20580 net.cpp:453] Found INQ layer:fire3/squeeze1x1, type: INQConvolution, layer id:13
I1026 14:57:59.302018 20580 net.cpp:453] Found INQ layer:fire3/squeeze1x1, type: INQConvolution, layer id:13
I1026 14:57:59.302024 20580 net.cpp:453] Found INQ layer:fire3/squeeze1x1, type: INQConvolution, layer id:13
I1026 14:57:59.302031 20580 net.cpp:453] Found INQ layer:fire3/squeeze1x1, type: INQConvolution, layer id:13
I1026 14:57:59.302036 20580 layer_factory.hpp:77] Creating layer fire3/relu_squeeze1x1
I1026 14:57:59.302043 20580 net.cpp:84] Creating Layer fire3/relu_squeeze1x1
I1026 14:57:59.302048 20580 net.cpp:413] fire3/relu_squeeze1x1 <- fire3/squeeze1x1
I1026 14:57:59.302054 20580 net.cpp:374] fire3/relu_squeeze1x1 -> fire3/squeeze1x1 (in-place)
I1026 14:57:59.302268 20580 net.cpp:127] Setting up fire3/relu_squeeze1x1
I1026 14:57:59.302280 20580 net.cpp:136] Top shape: 50 16 56 56 (2508800)
I1026 14:57:59.302289 20580 net.cpp:144] Memory required for data: 699001400
I1026 14:57:59.302294 20580 layer_factory.hpp:77] Creating layer fire3/squeeze1x1_fire3/relu_squeeze1x1_0_split
I1026 14:57:59.302305 20580 net.cpp:84] Creating Layer fire3/squeeze1x1_fire3/relu_squeeze1x1_0_split
I1026 14:57:59.302314 20580 net.cpp:413] fire3/squeeze1x1_fire3/relu_squeeze1x1_0_split <- fire3/squeeze1x1
I1026 14:57:59.302320 20580 net.cpp:387] fire3/squeeze1x1_fire3/relu_squeeze1x1_0_split -> fire3/squeeze1x1_fire3/relu_squeeze1x1_0_split_0
I1026 14:57:59.302330 20580 net.cpp:387] fire3/squeeze1x1_fire3/relu_squeeze1x1_0_split -> fire3/squeeze1x1_fire3/relu_squeeze1x1_0_split_1
I1026 14:57:59.302382 20580 net.cpp:127] Setting up fire3/squeeze1x1_fire3/relu_squeeze1x1_0_split
I1026 14:57:59.302392 20580 net.cpp:136] Top shape: 50 16 56 56 (2508800)
I1026 14:57:59.302397 20580 net.cpp:136] Top shape: 50 16 56 56 (2508800)
I1026 14:57:59.302402 20580 net.cpp:144] Memory required for data: 719071800
I1026 14:57:59.302407 20580 layer_factory.hpp:77] Creating layer fire3/expand1x1
I1026 14:57:59.302420 20580 net.cpp:84] Creating Layer fire3/expand1x1
I1026 14:57:59.302425 20580 net.cpp:413] fire3/expand1x1 <- fire3/squeeze1x1_fire3/relu_squeeze1x1_0_split_0
I1026 14:57:59.302435 20580 net.cpp:387] fire3/expand1x1 -> fire3/expand1x1
I1026 14:57:59.302796 20580 net.cpp:127] Setting up fire3/expand1x1
I1026 14:57:59.302809 20580 net.cpp:136] Top shape: 50 64 56 56 (10035200)
I1026 14:57:59.302812 20580 net.cpp:144] Memory required for data: 759212600
I1026 14:57:59.302819 20580 net.cpp:453] Found INQ layer:fire3/expand1x1, type: INQConvolution, layer id:16
I1026 14:57:59.302826 20580 net.cpp:453] Found INQ layer:fire3/expand1x1, type: INQConvolution, layer id:16
I1026 14:57:59.302831 20580 net.cpp:453] Found INQ layer:fire3/expand1x1, type: INQConvolution, layer id:16
I1026 14:57:59.302842 20580 net.cpp:453] Found INQ layer:fire3/expand1x1, type: INQConvolution, layer id:16
I1026 14:57:59.302858 20580 layer_factory.hpp:77] Creating layer fire3/relu_expand1x1
I1026 14:57:59.302865 20580 net.cpp:84] Creating Layer fire3/relu_expand1x1
I1026 14:57:59.302870 20580 net.cpp:413] fire3/relu_expand1x1 <- fire3/expand1x1
I1026 14:57:59.302878 20580 net.cpp:374] fire3/relu_expand1x1 -> fire3/expand1x1 (in-place)
I1026 14:57:59.303094 20580 net.cpp:127] Setting up fire3/relu_expand1x1
I1026 14:57:59.303107 20580 net.cpp:136] Top shape: 50 64 56 56 (10035200)
I1026 14:57:59.303112 20580 net.cpp:144] Memory required for data: 799353400
I1026 14:57:59.303117 20580 layer_factory.hpp:77] Creating layer fire3/expand3x3
I1026 14:57:59.303128 20580 net.cpp:84] Creating Layer fire3/expand3x3
I1026 14:57:59.303134 20580 net.cpp:413] fire3/expand3x3 <- fire3/squeeze1x1_fire3/relu_squeeze1x1_0_split_1
I1026 14:57:59.303149 20580 net.cpp:387] fire3/expand3x3 -> fire3/expand3x3
I1026 14:57:59.303596 20580 net.cpp:127] Setting up fire3/expand3x3
I1026 14:57:59.303606 20580 net.cpp:136] Top shape: 50 64 56 56 (10035200)
I1026 14:57:59.303611 20580 net.cpp:144] Memory required for data: 839494200
I1026 14:57:59.303618 20580 net.cpp:453] Found INQ layer:fire3/expand3x3, type: INQConvolution, layer id:18
I1026 14:57:59.303624 20580 net.cpp:453] Found INQ layer:fire3/expand3x3, type: INQConvolution, layer id:18
I1026 14:57:59.303632 20580 net.cpp:453] Found INQ layer:fire3/expand3x3, type: INQConvolution, layer id:18
I1026 14:57:59.303638 20580 net.cpp:453] Found INQ layer:fire3/expand3x3, type: INQConvolution, layer id:18
I1026 14:57:59.303643 20580 layer_factory.hpp:77] Creating layer fire3/relu_expand3x3
I1026 14:57:59.303650 20580 net.cpp:84] Creating Layer fire3/relu_expand3x3
I1026 14:57:59.303655 20580 net.cpp:413] fire3/relu_expand3x3 <- fire3/expand3x3
I1026 14:57:59.303664 20580 net.cpp:374] fire3/relu_expand3x3 -> fire3/expand3x3 (in-place)
I1026 14:57:59.305075 20580 net.cpp:127] Setting up fire3/relu_expand3x3
I1026 14:57:59.305094 20580 net.cpp:136] Top shape: 50 64 56 56 (10035200)
I1026 14:57:59.305100 20580 net.cpp:144] Memory required for data: 879635000
I1026 14:57:59.305106 20580 layer_factory.hpp:77] Creating layer fire3/concat
I1026 14:57:59.305114 20580 net.cpp:84] Creating Layer fire3/concat
I1026 14:57:59.305120 20580 net.cpp:413] fire3/concat <- fire3/expand1x1
I1026 14:57:59.305128 20580 net.cpp:413] fire3/concat <- fire3/expand3x3
I1026 14:57:59.305137 20580 net.cpp:387] fire3/concat -> fire3/concat
I1026 14:57:59.305173 20580 net.cpp:127] Setting up fire3/concat
I1026 14:57:59.305182 20580 net.cpp:136] Top shape: 50 128 56 56 (20070400)
I1026 14:57:59.305187 20580 net.cpp:144] Memory required for data: 959916600
I1026 14:57:59.305191 20580 layer_factory.hpp:77] Creating layer pool3
I1026 14:57:59.305202 20580 net.cpp:84] Creating Layer pool3
I1026 14:57:59.305207 20580 net.cpp:413] pool3 <- fire3/concat
I1026 14:57:59.305215 20580 net.cpp:387] pool3 -> pool3
I1026 14:57:59.305264 20580 net.cpp:127] Setting up pool3
I1026 14:57:59.305274 20580 net.cpp:136] Top shape: 50 128 28 28 (5017600)
I1026 14:57:59.305279 20580 net.cpp:144] Memory required for data: 979987000
I1026 14:57:59.305284 20580 layer_factory.hpp:77] Creating layer fire4/squeeze1x1
I1026 14:57:59.305295 20580 net.cpp:84] Creating Layer fire4/squeeze1x1
I1026 14:57:59.305308 20580 net.cpp:413] fire4/squeeze1x1 <- pool3
I1026 14:57:59.305318 20580 net.cpp:387] fire4/squeeze1x1 -> fire4/squeeze1x1
I1026 14:57:59.305721 20580 net.cpp:127] Setting up fire4/squeeze1x1
I1026 14:57:59.305732 20580 net.cpp:136] Top shape: 50 32 28 28 (1254400)
I1026 14:57:59.305737 20580 net.cpp:144] Memory required for data: 985004600
I1026 14:57:59.305745 20580 net.cpp:453] Found INQ layer:fire4/squeeze1x1, type: INQConvolution, layer id:22
I1026 14:57:59.305752 20580 net.cpp:453] Found INQ layer:fire4/squeeze1x1, type: INQConvolution, layer id:22
I1026 14:57:59.305757 20580 net.cpp:453] Found INQ layer:fire4/squeeze1x1, type: INQConvolution, layer id:22
I1026 14:57:59.305778 20580 net.cpp:453] Found INQ layer:fire4/squeeze1x1, type: INQConvolution, layer id:22
I1026 14:57:59.305794 20580 layer_factory.hpp:77] Creating layer fire4/relu_squeeze1x1
I1026 14:57:59.305802 20580 net.cpp:84] Creating Layer fire4/relu_squeeze1x1
I1026 14:57:59.305807 20580 net.cpp:413] fire4/relu_squeeze1x1 <- fire4/squeeze1x1
I1026 14:57:59.305816 20580 net.cpp:374] fire4/relu_squeeze1x1 -> fire4/squeeze1x1 (in-place)
I1026 14:57:59.306033 20580 net.cpp:127] Setting up fire4/relu_squeeze1x1
I1026 14:57:59.306046 20580 net.cpp:136] Top shape: 50 32 28 28 (1254400)
I1026 14:57:59.306051 20580 net.cpp:144] Memory required for data: 990022200
I1026 14:57:59.306056 20580 layer_factory.hpp:77] Creating layer fire4/squeeze1x1_fire4/relu_squeeze1x1_0_split
I1026 14:57:59.306063 20580 net.cpp:84] Creating Layer fire4/squeeze1x1_fire4/relu_squeeze1x1_0_split
I1026 14:57:59.306069 20580 net.cpp:413] fire4/squeeze1x1_fire4/relu_squeeze1x1_0_split <- fire4/squeeze1x1
I1026 14:57:59.306079 20580 net.cpp:387] fire4/squeeze1x1_fire4/relu_squeeze1x1_0_split -> fire4/squeeze1x1_fire4/relu_squeeze1x1_0_split_0
I1026 14:57:59.306088 20580 net.cpp:387] fire4/squeeze1x1_fire4/relu_squeeze1x1_0_split -> fire4/squeeze1x1_fire4/relu_squeeze1x1_0_split_1
I1026 14:57:59.306138 20580 net.cpp:127] Setting up fire4/squeeze1x1_fire4/relu_squeeze1x1_0_split
I1026 14:57:59.306150 20580 net.cpp:136] Top shape: 50 32 28 28 (1254400)
I1026 14:57:59.306156 20580 net.cpp:136] Top shape: 50 32 28 28 (1254400)
I1026 14:57:59.306161 20580 net.cpp:144] Memory required for data: 1000057400
I1026 14:57:59.306166 20580 layer_factory.hpp:77] Creating layer fire4/expand1x1
I1026 14:57:59.306175 20580 net.cpp:84] Creating Layer fire4/expand1x1
I1026 14:57:59.306181 20580 net.cpp:413] fire4/expand1x1 <- fire4/squeeze1x1_fire4/relu_squeeze1x1_0_split_0
I1026 14:57:59.306190 20580 net.cpp:387] fire4/expand1x1 -> fire4/expand1x1
I1026 14:57:59.306572 20580 net.cpp:127] Setting up fire4/expand1x1
I1026 14:57:59.306584 20580 net.cpp:136] Top shape: 50 128 28 28 (5017600)
I1026 14:57:59.306591 20580 net.cpp:144] Memory required for data: 1020127800
I1026 14:57:59.306605 20580 net.cpp:453] Found INQ layer:fire4/expand1x1, type: INQConvolution, layer id:25
I1026 14:57:59.306615 20580 net.cpp:453] Found INQ layer:fire4/expand1x1, type: INQConvolution, layer id:25
I1026 14:57:59.306622 20580 net.cpp:453] Found INQ layer:fire4/expand1x1, type: INQConvolution, layer id:25
I1026 14:57:59.306627 20580 net.cpp:453] Found INQ layer:fire4/expand1x1, type: INQConvolution, layer id:25
I1026 14:57:59.306632 20580 layer_factory.hpp:77] Creating layer fire4/relu_expand1x1
I1026 14:57:59.306640 20580 net.cpp:84] Creating Layer fire4/relu_expand1x1
I1026 14:57:59.306645 20580 net.cpp:413] fire4/relu_expand1x1 <- fire4/expand1x1
I1026 14:57:59.306651 20580 net.cpp:374] fire4/relu_expand1x1 -> fire4/expand1x1 (in-place)
I1026 14:57:59.306872 20580 net.cpp:127] Setting up fire4/relu_expand1x1
I1026 14:57:59.306885 20580 net.cpp:136] Top shape: 50 128 28 28 (5017600)
I1026 14:57:59.306890 20580 net.cpp:144] Memory required for data: 1040198200
I1026 14:57:59.306895 20580 layer_factory.hpp:77] Creating layer fire4/expand3x3
I1026 14:57:59.306911 20580 net.cpp:84] Creating Layer fire4/expand3x3
I1026 14:57:59.306917 20580 net.cpp:413] fire4/expand3x3 <- fire4/squeeze1x1_fire4/relu_squeeze1x1_0_split_1
I1026 14:57:59.306927 20580 net.cpp:387] fire4/expand3x3 -> fire4/expand3x3
I1026 14:57:59.307600 20580 net.cpp:127] Setting up fire4/expand3x3
I1026 14:57:59.307611 20580 net.cpp:136] Top shape: 50 128 28 28 (5017600)
I1026 14:57:59.307616 20580 net.cpp:144] Memory required for data: 1060268600
I1026 14:57:59.307624 20580 net.cpp:453] Found INQ layer:fire4/expand3x3, type: INQConvolution, layer id:27
I1026 14:57:59.307631 20580 net.cpp:453] Found INQ layer:fire4/expand3x3, type: INQConvolution, layer id:27
I1026 14:57:59.307637 20580 net.cpp:453] Found INQ layer:fire4/expand3x3, type: INQConvolution, layer id:27
I1026 14:57:59.307648 20580 net.cpp:453] Found INQ layer:fire4/expand3x3, type: INQConvolution, layer id:27
I1026 14:57:59.307663 20580 layer_factory.hpp:77] Creating layer fire4/relu_expand3x3
I1026 14:57:59.307672 20580 net.cpp:84] Creating Layer fire4/relu_expand3x3
I1026 14:57:59.307677 20580 net.cpp:413] fire4/relu_expand3x3 <- fire4/expand3x3
I1026 14:57:59.307687 20580 net.cpp:374] fire4/relu_expand3x3 -> fire4/expand3x3 (in-place)
I1026 14:57:59.307899 20580 net.cpp:127] Setting up fire4/relu_expand3x3
I1026 14:57:59.307911 20580 net.cpp:136] Top shape: 50 128 28 28 (5017600)
I1026 14:57:59.307916 20580 net.cpp:144] Memory required for data: 1080339000
I1026 14:57:59.307921 20580 layer_factory.hpp:77] Creating layer fire4/concat
I1026 14:57:59.307929 20580 net.cpp:84] Creating Layer fire4/concat
I1026 14:57:59.307934 20580 net.cpp:413] fire4/concat <- fire4/expand1x1
I1026 14:57:59.307940 20580 net.cpp:413] fire4/concat <- fire4/expand3x3
I1026 14:57:59.307948 20580 net.cpp:387] fire4/concat -> fire4/concat
I1026 14:57:59.307981 20580 net.cpp:127] Setting up fire4/concat
I1026 14:57:59.307988 20580 net.cpp:136] Top shape: 50 256 28 28 (10035200)
I1026 14:57:59.307992 20580 net.cpp:144] Memory required for data: 1120479800
I1026 14:57:59.307997 20580 layer_factory.hpp:77] Creating layer fire5/squeeze1x1
I1026 14:57:59.308012 20580 net.cpp:84] Creating Layer fire5/squeeze1x1
I1026 14:57:59.308017 20580 net.cpp:413] fire5/squeeze1x1 <- fire4/concat
I1026 14:57:59.308025 20580 net.cpp:387] fire5/squeeze1x1 -> fire5/squeeze1x1
I1026 14:57:59.308459 20580 net.cpp:127] Setting up fire5/squeeze1x1
I1026 14:57:59.308471 20580 net.cpp:136] Top shape: 50 32 28 28 (1254400)
I1026 14:57:59.308476 20580 net.cpp:144] Memory required for data: 1125497400
I1026 14:57:59.308482 20580 net.cpp:453] Found INQ layer:fire5/squeeze1x1, type: INQConvolution, layer id:30
I1026 14:57:59.308490 20580 net.cpp:453] Found INQ layer:fire5/squeeze1x1, type: INQConvolution, layer id:30
I1026 14:57:59.308496 20580 net.cpp:453] Found INQ layer:fire5/squeeze1x1, type: INQConvolution, layer id:30
I1026 14:57:59.308502 20580 net.cpp:453] Found INQ layer:fire5/squeeze1x1, type: INQConvolution, layer id:30
I1026 14:57:59.308506 20580 layer_factory.hpp:77] Creating layer fire5/relu_squeeze1x1
I1026 14:57:59.308513 20580 net.cpp:84] Creating Layer fire5/relu_squeeze1x1
I1026 14:57:59.308519 20580 net.cpp:413] fire5/relu_squeeze1x1 <- fire5/squeeze1x1
I1026 14:57:59.308531 20580 net.cpp:374] fire5/relu_squeeze1x1 -> fire5/squeeze1x1 (in-place)
I1026 14:57:59.309944 20580 net.cpp:127] Setting up fire5/relu_squeeze1x1
I1026 14:57:59.309963 20580 net.cpp:136] Top shape: 50 32 28 28 (1254400)
I1026 14:57:59.309969 20580 net.cpp:144] Memory required for data: 1130515000
I1026 14:57:59.309974 20580 layer_factory.hpp:77] Creating layer fire5/squeeze1x1_fire5/relu_squeeze1x1_0_split
I1026 14:57:59.309988 20580 net.cpp:84] Creating Layer fire5/squeeze1x1_fire5/relu_squeeze1x1_0_split
I1026 14:57:59.309994 20580 net.cpp:413] fire5/squeeze1x1_fire5/relu_squeeze1x1_0_split <- fire5/squeeze1x1
I1026 14:57:59.310003 20580 net.cpp:387] fire5/squeeze1x1_fire5/relu_squeeze1x1_0_split -> fire5/squeeze1x1_fire5/relu_squeeze1x1_0_split_0
I1026 14:57:59.310014 20580 net.cpp:387] fire5/squeeze1x1_fire5/relu_squeeze1x1_0_split -> fire5/squeeze1x1_fire5/relu_squeeze1x1_0_split_1
I1026 14:57:59.310066 20580 net.cpp:127] Setting up fire5/squeeze1x1_fire5/relu_squeeze1x1_0_split
I1026 14:57:59.310076 20580 net.cpp:136] Top shape: 50 32 28 28 (1254400)
I1026 14:57:59.310082 20580 net.cpp:136] Top shape: 50 32 28 28 (1254400)
I1026 14:57:59.310087 20580 net.cpp:144] Memory required for data: 1140550200
I1026 14:57:59.310091 20580 layer_factory.hpp:77] Creating layer fire5/expand1x1
I1026 14:57:59.310104 20580 net.cpp:84] Creating Layer fire5/expand1x1
I1026 14:57:59.310109 20580 net.cpp:413] fire5/expand1x1 <- fire5/squeeze1x1_fire5/relu_squeeze1x1_0_split_0
I1026 14:57:59.310119 20580 net.cpp:387] fire5/expand1x1 -> fire5/expand1x1
I1026 14:57:59.310516 20580 net.cpp:127] Setting up fire5/expand1x1
I1026 14:57:59.310537 20580 net.cpp:136] Top shape: 50 128 28 28 (5017600)
I1026 14:57:59.310554 20580 net.cpp:144] Memory required for data: 1160620600
I1026 14:57:59.310561 20580 net.cpp:453] Found INQ layer:fire5/expand1x1, type: INQConvolution, layer id:33
I1026 14:57:59.310569 20580 net.cpp:453] Found INQ layer:fire5/expand1x1, type: INQConvolution, layer id:33
I1026 14:57:59.310573 20580 net.cpp:453] Found INQ layer:fire5/expand1x1, type: INQConvolution, layer id:33
I1026 14:57:59.310580 20580 net.cpp:453] Found INQ layer:fire5/expand1x1, type: INQConvolution, layer id:33
I1026 14:57:59.310585 20580 layer_factory.hpp:77] Creating layer fire5/relu_expand1x1
I1026 14:57:59.310592 20580 net.cpp:84] Creating Layer fire5/relu_expand1x1
I1026 14:57:59.310597 20580 net.cpp:413] fire5/relu_expand1x1 <- fire5/expand1x1
I1026 14:57:59.310605 20580 net.cpp:374] fire5/relu_expand1x1 -> fire5/expand1x1 (in-place)
I1026 14:57:59.310818 20580 net.cpp:127] Setting up fire5/relu_expand1x1
I1026 14:57:59.310837 20580 net.cpp:136] Top shape: 50 128 28 28 (5017600)
I1026 14:57:59.310843 20580 net.cpp:144] Memory required for data: 1180691000
I1026 14:57:59.310848 20580 layer_factory.hpp:77] Creating layer fire5/expand3x3
I1026 14:57:59.310858 20580 net.cpp:84] Creating Layer fire5/expand3x3
I1026 14:57:59.310864 20580 net.cpp:413] fire5/expand3x3 <- fire5/squeeze1x1_fire5/relu_squeeze1x1_0_split_1
I1026 14:57:59.310875 20580 net.cpp:387] fire5/expand3x3 -> fire5/expand3x3
I1026 14:57:59.311545 20580 net.cpp:127] Setting up fire5/expand3x3
I1026 14:57:59.311558 20580 net.cpp:136] Top shape: 50 128 28 28 (5017600)
I1026 14:57:59.311563 20580 net.cpp:144] Memory required for data: 1200761400
I1026 14:57:59.311570 20580 net.cpp:453] Found INQ layer:fire5/expand3x3, type: INQConvolution, layer id:35
I1026 14:57:59.311576 20580 net.cpp:453] Found INQ layer:fire5/expand3x3, type: INQConvolution, layer id:35
I1026 14:57:59.311583 20580 net.cpp:453] Found INQ layer:fire5/expand3x3, type: INQConvolution, layer id:35
I1026 14:57:59.311589 20580 net.cpp:453] Found INQ layer:fire5/expand3x3, type: INQConvolution, layer id:35
I1026 14:57:59.311592 20580 layer_factory.hpp:77] Creating layer fire5/relu_expand3x3
I1026 14:57:59.311602 20580 net.cpp:84] Creating Layer fire5/relu_expand3x3
I1026 14:57:59.311607 20580 net.cpp:413] fire5/relu_expand3x3 <- fire5/expand3x3
I1026 14:57:59.311614 20580 net.cpp:374] fire5/relu_expand3x3 -> fire5/expand3x3 (in-place)
I1026 14:57:59.311830 20580 net.cpp:127] Setting up fire5/relu_expand3x3
I1026 14:57:59.311844 20580 net.cpp:136] Top shape: 50 128 28 28 (5017600)
I1026 14:57:59.311849 20580 net.cpp:144] Memory required for data: 1220831800
I1026 14:57:59.311856 20580 layer_factory.hpp:77] Creating layer fire5/concat
I1026 14:57:59.311863 20580 net.cpp:84] Creating Layer fire5/concat
I1026 14:57:59.311868 20580 net.cpp:413] fire5/concat <- fire5/expand1x1
I1026 14:57:59.311874 20580 net.cpp:413] fire5/concat <- fire5/expand3x3
I1026 14:57:59.311883 20580 net.cpp:387] fire5/concat -> fire5/concat
I1026 14:57:59.311915 20580 net.cpp:127] Setting up fire5/concat
I1026 14:57:59.311923 20580 net.cpp:136] Top shape: 50 256 28 28 (10035200)
I1026 14:57:59.311928 20580 net.cpp:144] Memory required for data: 1260972600
I1026 14:57:59.311933 20580 layer_factory.hpp:77] Creating layer pool5
I1026 14:57:59.311941 20580 net.cpp:84] Creating Layer pool5
I1026 14:57:59.311947 20580 net.cpp:413] pool5 <- fire5/concat
I1026 14:57:59.311954 20580 net.cpp:387] pool5 -> pool5
I1026 14:57:59.312003 20580 net.cpp:127] Setting up pool5
I1026 14:57:59.312016 20580 net.cpp:136] Top shape: 50 256 14 14 (2508800)
I1026 14:57:59.312021 20580 net.cpp:144] Memory required for data: 1271007800
I1026 14:57:59.312026 20580 layer_factory.hpp:77] Creating layer fire6/squeeze1x1
I1026 14:57:59.312036 20580 net.cpp:84] Creating Layer fire6/squeeze1x1
I1026 14:57:59.312041 20580 net.cpp:413] fire6/squeeze1x1 <- pool5
I1026 14:57:59.312052 20580 net.cpp:387] fire6/squeeze1x1 -> fire6/squeeze1x1
I1026 14:57:59.312515 20580 net.cpp:127] Setting up fire6/squeeze1x1
I1026 14:57:59.312538 20580 net.cpp:136] Top shape: 50 48 14 14 (470400)
I1026 14:57:59.312556 20580 net.cpp:144] Memory required for data: 1272889400
I1026 14:57:59.312563 20580 net.cpp:453] Found INQ layer:fire6/squeeze1x1, type: INQConvolution, layer id:39
I1026 14:57:59.312571 20580 net.cpp:453] Found INQ layer:fire6/squeeze1x1, type: INQConvolution, layer id:39
I1026 14:57:59.312575 20580 net.cpp:453] Found INQ layer:fire6/squeeze1x1, type: INQConvolution, layer id:39
I1026 14:57:59.312580 20580 net.cpp:453] Found INQ layer:fire6/squeeze1x1, type: INQConvolution, layer id:39
I1026 14:57:59.312585 20580 layer_factory.hpp:77] Creating layer fire6/relu_squeeze1x1
I1026 14:57:59.312592 20580 net.cpp:84] Creating Layer fire6/relu_squeeze1x1
I1026 14:57:59.312598 20580 net.cpp:413] fire6/relu_squeeze1x1 <- fire6/squeeze1x1
I1026 14:57:59.312607 20580 net.cpp:374] fire6/relu_squeeze1x1 -> fire6/squeeze1x1 (in-place)
I1026 14:57:59.312821 20580 net.cpp:127] Setting up fire6/relu_squeeze1x1
I1026 14:57:59.312834 20580 net.cpp:136] Top shape: 50 48 14 14 (470400)
I1026 14:57:59.312839 20580 net.cpp:144] Memory required for data: 1274771000
I1026 14:57:59.312844 20580 layer_factory.hpp:77] Creating layer fire6/squeeze1x1_fire6/relu_squeeze1x1_0_split
I1026 14:57:59.312855 20580 net.cpp:84] Creating Layer fire6/squeeze1x1_fire6/relu_squeeze1x1_0_split
I1026 14:57:59.312860 20580 net.cpp:413] fire6/squeeze1x1_fire6/relu_squeeze1x1_0_split <- fire6/squeeze1x1
I1026 14:57:59.312866 20580 net.cpp:387] fire6/squeeze1x1_fire6/relu_squeeze1x1_0_split -> fire6/squeeze1x1_fire6/relu_squeeze1x1_0_split_0
I1026 14:57:59.312875 20580 net.cpp:387] fire6/squeeze1x1_fire6/relu_squeeze1x1_0_split -> fire6/squeeze1x1_fire6/relu_squeeze1x1_0_split_1
I1026 14:57:59.312937 20580 net.cpp:127] Setting up fire6/squeeze1x1_fire6/relu_squeeze1x1_0_split
I1026 14:57:59.312947 20580 net.cpp:136] Top shape: 50 48 14 14 (470400)
I1026 14:57:59.312952 20580 net.cpp:136] Top shape: 50 48 14 14 (470400)
I1026 14:57:59.312958 20580 net.cpp:144] Memory required for data: 1278534200
I1026 14:57:59.312963 20580 layer_factory.hpp:77] Creating layer fire6/expand1x1
I1026 14:57:59.312973 20580 net.cpp:84] Creating Layer fire6/expand1x1
I1026 14:57:59.312979 20580 net.cpp:413] fire6/expand1x1 <- fire6/squeeze1x1_fire6/relu_squeeze1x1_0_split_0
I1026 14:57:59.312988 20580 net.cpp:387] fire6/expand1x1 -> fire6/expand1x1
I1026 14:57:59.313421 20580 net.cpp:127] Setting up fire6/expand1x1
I1026 14:57:59.313436 20580 net.cpp:136] Top shape: 50 192 14 14 (1881600)
I1026 14:57:59.313439 20580 net.cpp:144] Memory required for data: 1286060600
I1026 14:57:59.313446 20580 net.cpp:453] Found INQ layer:fire6/expand1x1, type: INQConvolution, layer id:42
I1026 14:57:59.313453 20580 net.cpp:453] Found INQ layer:fire6/expand1x1, type: INQConvolution, layer id:42
I1026 14:57:59.313459 20580 net.cpp:453] Found INQ layer:fire6/expand1x1, type: INQConvolution, layer id:42
I1026 14:57:59.313464 20580 net.cpp:453] Found INQ layer:fire6/expand1x1, type: INQConvolution, layer id:42
I1026 14:57:59.313469 20580 layer_factory.hpp:77] Creating layer fire6/relu_expand1x1
I1026 14:57:59.313477 20580 net.cpp:84] Creating Layer fire6/relu_expand1x1
I1026 14:57:59.313482 20580 net.cpp:413] fire6/relu_expand1x1 <- fire6/expand1x1
I1026 14:57:59.313488 20580 net.cpp:374] fire6/relu_expand1x1 -> fire6/expand1x1 (in-place)
I1026 14:57:59.314908 20580 net.cpp:127] Setting up fire6/relu_expand1x1
I1026 14:57:59.314927 20580 net.cpp:136] Top shape: 50 192 14 14 (1881600)
I1026 14:57:59.314932 20580 net.cpp:144] Memory required for data: 1293587000
I1026 14:57:59.314937 20580 layer_factory.hpp:77] Creating layer fire6/expand3x3
I1026 14:57:59.314954 20580 net.cpp:84] Creating Layer fire6/expand3x3
I1026 14:57:59.314960 20580 net.cpp:413] fire6/expand3x3 <- fire6/squeeze1x1_fire6/relu_squeeze1x1_0_split_1
I1026 14:57:59.314968 20580 net.cpp:387] fire6/expand3x3 -> fire6/expand3x3
I1026 14:57:59.316052 20580 net.cpp:127] Setting up fire6/expand3x3
I1026 14:57:59.316066 20580 net.cpp:136] Top shape: 50 192 14 14 (1881600)
I1026 14:57:59.316076 20580 net.cpp:144] Memory required for data: 1301113400
I1026 14:57:59.316100 20580 net.cpp:453] Found INQ layer:fire6/expand3x3, type: INQConvolution, layer id:44
I1026 14:57:59.316107 20580 net.cpp:453] Found INQ layer:fire6/expand3x3, type: INQConvolution, layer id:44
I1026 14:57:59.316121 20580 net.cpp:453] Found INQ layer:fire6/expand3x3, type: INQConvolution, layer id:44
I1026 14:57:59.316128 20580 net.cpp:453] Found INQ layer:fire6/expand3x3, type: INQConvolution, layer id:44
I1026 14:57:59.316133 20580 layer_factory.hpp:77] Creating layer fire6/relu_expand3x3
I1026 14:57:59.316139 20580 net.cpp:84] Creating Layer fire6/relu_expand3x3
I1026 14:57:59.316145 20580 net.cpp:413] fire6/relu_expand3x3 <- fire6/expand3x3
I1026 14:57:59.316154 20580 net.cpp:374] fire6/relu_expand3x3 -> fire6/expand3x3 (in-place)
I1026 14:57:59.316377 20580 net.cpp:127] Setting up fire6/relu_expand3x3
I1026 14:57:59.316390 20580 net.cpp:136] Top shape: 50 192 14 14 (1881600)
I1026 14:57:59.316395 20580 net.cpp:144] Memory required for data: 1308639800
I1026 14:57:59.316401 20580 layer_factory.hpp:77] Creating layer fire6/concat
I1026 14:57:59.316412 20580 net.cpp:84] Creating Layer fire6/concat
I1026 14:57:59.316417 20580 net.cpp:413] fire6/concat <- fire6/expand1x1
I1026 14:57:59.316424 20580 net.cpp:413] fire6/concat <- fire6/expand3x3
I1026 14:57:59.316431 20580 net.cpp:387] fire6/concat -> fire6/concat
I1026 14:57:59.316478 20580 net.cpp:127] Setting up fire6/concat
I1026 14:57:59.316488 20580 net.cpp:136] Top shape: 50 384 14 14 (3763200)
I1026 14:57:59.316493 20580 net.cpp:144] Memory required for data: 1323692600
I1026 14:57:59.316540 20580 layer_factory.hpp:77] Creating layer fire7/squeeze1x1
I1026 14:57:59.316553 20580 net.cpp:84] Creating Layer fire7/squeeze1x1
I1026 14:57:59.316560 20580 net.cpp:413] fire7/squeeze1x1 <- fire6/concat
I1026 14:57:59.316570 20580 net.cpp:387] fire7/squeeze1x1 -> fire7/squeeze1x1
I1026 14:57:59.317095 20580 net.cpp:127] Setting up fire7/squeeze1x1
I1026 14:57:59.317106 20580 net.cpp:136] Top shape: 50 48 14 14 (470400)
I1026 14:57:59.317111 20580 net.cpp:144] Memory required for data: 1325574200
I1026 14:57:59.317126 20580 net.cpp:453] Found INQ layer:fire7/squeeze1x1, type: INQConvolution, layer id:47
I1026 14:57:59.317138 20580 net.cpp:453] Found INQ layer:fire7/squeeze1x1, type: INQConvolution, layer id:47
I1026 14:57:59.317144 20580 net.cpp:453] Found INQ layer:fire7/squeeze1x1, type: INQConvolution, layer id:47
I1026 14:57:59.317150 20580 net.cpp:453] Found INQ layer:fire7/squeeze1x1, type: INQConvolution, layer id:47
I1026 14:57:59.317155 20580 layer_factory.hpp:77] Creating layer fire7/relu_squeeze1x1
I1026 14:57:59.317163 20580 net.cpp:84] Creating Layer fire7/relu_squeeze1x1
I1026 14:57:59.317168 20580 net.cpp:413] fire7/relu_squeeze1x1 <- fire7/squeeze1x1
I1026 14:57:59.317175 20580 net.cpp:374] fire7/relu_squeeze1x1 -> fire7/squeeze1x1 (in-place)
I1026 14:57:59.317404 20580 net.cpp:127] Setting up fire7/relu_squeeze1x1
I1026 14:57:59.317416 20580 net.cpp:136] Top shape: 50 48 14 14 (470400)
I1026 14:57:59.317422 20580 net.cpp:144] Memory required for data: 1327455800
I1026 14:57:59.317428 20580 layer_factory.hpp:77] Creating layer fire7/squeeze1x1_fire7/relu_squeeze1x1_0_split
I1026 14:57:59.317435 20580 net.cpp:84] Creating Layer fire7/squeeze1x1_fire7/relu_squeeze1x1_0_split
I1026 14:57:59.317440 20580 net.cpp:413] fire7/squeeze1x1_fire7/relu_squeeze1x1_0_split <- fire7/squeeze1x1
I1026 14:57:59.317448 20580 net.cpp:387] fire7/squeeze1x1_fire7/relu_squeeze1x1_0_split -> fire7/squeeze1x1_fire7/relu_squeeze1x1_0_split_0
I1026 14:57:59.317456 20580 net.cpp:387] fire7/squeeze1x1_fire7/relu_squeeze1x1_0_split -> fire7/squeeze1x1_fire7/relu_squeeze1x1_0_split_1
I1026 14:57:59.317509 20580 net.cpp:127] Setting up fire7/squeeze1x1_fire7/relu_squeeze1x1_0_split
I1026 14:57:59.317526 20580 net.cpp:136] Top shape: 50 48 14 14 (470400)
I1026 14:57:59.317533 20580 net.cpp:136] Top shape: 50 48 14 14 (470400)
I1026 14:57:59.317538 20580 net.cpp:144] Memory required for data: 1331219000
I1026 14:57:59.317549 20580 layer_factory.hpp:77] Creating layer fire7/expand1x1
I1026 14:57:59.317571 20580 net.cpp:84] Creating Layer fire7/expand1x1
I1026 14:57:59.317577 20580 net.cpp:413] fire7/expand1x1 <- fire7/squeeze1x1_fire7/relu_squeeze1x1_0_split_0
I1026 14:57:59.317587 20580 net.cpp:387] fire7/expand1x1 -> fire7/expand1x1
I1026 14:57:59.318017 20580 net.cpp:127] Setting up fire7/expand1x1
I1026 14:57:59.318027 20580 net.cpp:136] Top shape: 50 192 14 14 (1881600)
I1026 14:57:59.318032 20580 net.cpp:144] Memory required for data: 1338745400
I1026 14:57:59.318038 20580 net.cpp:453] Found INQ layer:fire7/expand1x1, type: INQConvolution, layer id:50
I1026 14:57:59.318045 20580 net.cpp:453] Found INQ layer:fire7/expand1x1, type: INQConvolution, layer id:50
I1026 14:57:59.318053 20580 net.cpp:453] Found INQ layer:fire7/expand1x1, type: INQConvolution, layer id:50
I1026 14:57:59.318058 20580 net.cpp:453] Found INQ layer:fire7/expand1x1, type: INQConvolution, layer id:50
I1026 14:57:59.318063 20580 layer_factory.hpp:77] Creating layer fire7/relu_expand1x1
I1026 14:57:59.318069 20580 net.cpp:84] Creating Layer fire7/relu_expand1x1
I1026 14:57:59.318074 20580 net.cpp:413] fire7/relu_expand1x1 <- fire7/expand1x1
I1026 14:57:59.318084 20580 net.cpp:374] fire7/relu_expand1x1 -> fire7/expand1x1 (in-place)
I1026 14:57:59.319500 20580 net.cpp:127] Setting up fire7/relu_expand1x1
I1026 14:57:59.319519 20580 net.cpp:136] Top shape: 50 192 14 14 (1881600)
I1026 14:57:59.319525 20580 net.cpp:144] Memory required for data: 1346271800
I1026 14:57:59.319530 20580 layer_factory.hpp:77] Creating layer fire7/expand3x3
I1026 14:57:59.319545 20580 net.cpp:84] Creating Layer fire7/expand3x3
I1026 14:57:59.319552 20580 net.cpp:413] fire7/expand3x3 <- fire7/squeeze1x1_fire7/relu_squeeze1x1_0_split_1
I1026 14:57:59.319563 20580 net.cpp:387] fire7/expand3x3 -> fire7/expand3x3
I1026 14:57:59.320636 20580 net.cpp:127] Setting up fire7/expand3x3
I1026 14:57:59.320649 20580 net.cpp:136] Top shape: 50 192 14 14 (1881600)
I1026 14:57:59.320654 20580 net.cpp:144] Memory required for data: 1353798200
I1026 14:57:59.320662 20580 net.cpp:453] Found INQ layer:fire7/expand3x3, type: INQConvolution, layer id:52
I1026 14:57:59.320669 20580 net.cpp:453] Found INQ layer:fire7/expand3x3, type: INQConvolution, layer id:52
I1026 14:57:59.320675 20580 net.cpp:453] Found INQ layer:fire7/expand3x3, type: INQConvolution, layer id:52
I1026 14:57:59.320682 20580 net.cpp:453] Found INQ layer:fire7/expand3x3, type: INQConvolution, layer id:52
I1026 14:57:59.320685 20580 layer_factory.hpp:77] Creating layer fire7/relu_expand3x3
I1026 14:57:59.320695 20580 net.cpp:84] Creating Layer fire7/relu_expand3x3
I1026 14:57:59.320701 20580 net.cpp:413] fire7/relu_expand3x3 <- fire7/expand3x3
I1026 14:57:59.320711 20580 net.cpp:374] fire7/relu_expand3x3 -> fire7/expand3x3 (in-place)
I1026 14:57:59.320930 20580 net.cpp:127] Setting up fire7/relu_expand3x3
I1026 14:57:59.320941 20580 net.cpp:136] Top shape: 50 192 14 14 (1881600)
I1026 14:57:59.320946 20580 net.cpp:144] Memory required for data: 1361324600
I1026 14:57:59.320951 20580 layer_factory.hpp:77] Creating layer fire7/concat
I1026 14:57:59.320960 20580 net.cpp:84] Creating Layer fire7/concat
I1026 14:57:59.320964 20580 net.cpp:413] fire7/concat <- fire7/expand1x1
I1026 14:57:59.320971 20580 net.cpp:413] fire7/concat <- fire7/expand3x3
I1026 14:57:59.320979 20580 net.cpp:387] fire7/concat -> fire7/concat
I1026 14:57:59.321013 20580 net.cpp:127] Setting up fire7/concat
I1026 14:57:59.321020 20580 net.cpp:136] Top shape: 50 384 14 14 (3763200)
I1026 14:57:59.321027 20580 net.cpp:144] Memory required for data: 1376377400
I1026 14:57:59.321032 20580 layer_factory.hpp:77] Creating layer fire8/squeeze1x1
I1026 14:57:59.321044 20580 net.cpp:84] Creating Layer fire8/squeeze1x1
I1026 14:57:59.321049 20580 net.cpp:413] fire8/squeeze1x1 <- fire7/concat
I1026 14:57:59.321059 20580 net.cpp:387] fire8/squeeze1x1 -> fire8/squeeze1x1
I1026 14:57:59.323026 20580 net.cpp:127] Setting up fire8/squeeze1x1
I1026 14:57:59.323051 20580 net.cpp:136] Top shape: 50 64 14 14 (627200)
I1026 14:57:59.323056 20580 net.cpp:144] Memory required for data: 1378886200
I1026 14:57:59.323076 20580 net.cpp:453] Found INQ layer:fire8/squeeze1x1, type: INQConvolution, layer id:55
I1026 14:57:59.323083 20580 net.cpp:453] Found INQ layer:fire8/squeeze1x1, type: INQConvolution, layer id:55
I1026 14:57:59.323089 20580 net.cpp:453] Found INQ layer:fire8/squeeze1x1, type: INQConvolution, layer id:55
I1026 14:57:59.323094 20580 net.cpp:453] Found INQ layer:fire8/squeeze1x1, type: INQConvolution, layer id:55
I1026 14:57:59.323099 20580 layer_factory.hpp:77] Creating layer fire8/relu_squeeze1x1
I1026 14:57:59.323110 20580 net.cpp:84] Creating Layer fire8/relu_squeeze1x1
I1026 14:57:59.323122 20580 net.cpp:413] fire8/relu_squeeze1x1 <- fire8/squeeze1x1
I1026 14:57:59.323129 20580 net.cpp:374] fire8/relu_squeeze1x1 -> fire8/squeeze1x1 (in-place)
I1026 14:57:59.323367 20580 net.cpp:127] Setting up fire8/relu_squeeze1x1
I1026 14:57:59.323384 20580 net.cpp:136] Top shape: 50 64 14 14 (627200)
I1026 14:57:59.323390 20580 net.cpp:144] Memory required for data: 1381395000
I1026 14:57:59.323395 20580 layer_factory.hpp:77] Creating layer fire8/squeeze1x1_fire8/relu_squeeze1x1_0_split
I1026 14:57:59.323402 20580 net.cpp:84] Creating Layer fire8/squeeze1x1_fire8/relu_squeeze1x1_0_split
I1026 14:57:59.323408 20580 net.cpp:413] fire8/squeeze1x1_fire8/relu_squeeze1x1_0_split <- fire8/squeeze1x1
I1026 14:57:59.323416 20580 net.cpp:387] fire8/squeeze1x1_fire8/relu_squeeze1x1_0_split -> fire8/squeeze1x1_fire8/relu_squeeze1x1_0_split_0
I1026 14:57:59.323426 20580 net.cpp:387] fire8/squeeze1x1_fire8/relu_squeeze1x1_0_split -> fire8/squeeze1x1_fire8/relu_squeeze1x1_0_split_1
I1026 14:57:59.323488 20580 net.cpp:127] Setting up fire8/squeeze1x1_fire8/relu_squeeze1x1_0_split
I1026 14:57:59.323498 20580 net.cpp:136] Top shape: 50 64 14 14 (627200)
I1026 14:57:59.323504 20580 net.cpp:136] Top shape: 50 64 14 14 (627200)
I1026 14:57:59.323509 20580 net.cpp:144] Memory required for data: 1386412600
I1026 14:57:59.323513 20580 layer_factory.hpp:77] Creating layer fire8/expand1x1
I1026 14:57:59.323525 20580 net.cpp:84] Creating Layer fire8/expand1x1
I1026 14:57:59.323531 20580 net.cpp:413] fire8/expand1x1 <- fire8/squeeze1x1_fire8/relu_squeeze1x1_0_split_0
I1026 14:57:59.323540 20580 net.cpp:387] fire8/expand1x1 -> fire8/expand1x1
I1026 14:57:59.324029 20580 net.cpp:127] Setting up fire8/expand1x1
I1026 14:57:59.324040 20580 net.cpp:136] Top shape: 50 256 14 14 (2508800)
I1026 14:57:59.324046 20580 net.cpp:144] Memory required for data: 1396447800
I1026 14:57:59.324053 20580 net.cpp:453] Found INQ layer:fire8/expand1x1, type: INQConvolution, layer id:58
I1026 14:57:59.324059 20580 net.cpp:453] Found INQ layer:fire8/expand1x1, type: INQConvolution, layer id:58
I1026 14:57:59.324065 20580 net.cpp:453] Found INQ layer:fire8/expand1x1, type: INQConvolution, layer id:58
I1026 14:57:59.324070 20580 net.cpp:453] Found INQ layer:fire8/expand1x1, type: INQConvolution, layer id:58
I1026 14:57:59.324074 20580 layer_factory.hpp:77] Creating layer fire8/relu_expand1x1
I1026 14:57:59.324084 20580 net.cpp:84] Creating Layer fire8/relu_expand1x1
I1026 14:57:59.324090 20580 net.cpp:413] fire8/relu_expand1x1 <- fire8/expand1x1
I1026 14:57:59.324097 20580 net.cpp:374] fire8/relu_expand1x1 -> fire8/expand1x1 (in-place)
I1026 14:57:59.324321 20580 net.cpp:127] Setting up fire8/relu_expand1x1
I1026 14:57:59.324334 20580 net.cpp:136] Top shape: 50 256 14 14 (2508800)
I1026 14:57:59.324339 20580 net.cpp:144] Memory required for data: 1406483000
I1026 14:57:59.324345 20580 layer_factory.hpp:77] Creating layer fire8/expand3x3
I1026 14:57:59.324357 20580 net.cpp:84] Creating Layer fire8/expand3x3
I1026 14:57:59.324363 20580 net.cpp:413] fire8/expand3x3 <- fire8/squeeze1x1_fire8/relu_squeeze1x1_0_split_1
I1026 14:57:59.324373 20580 net.cpp:387] fire8/expand3x3 -> fire8/expand3x3
I1026 14:57:59.327280 20580 net.cpp:127] Setting up fire8/expand3x3
I1026 14:57:59.327303 20580 net.cpp:136] Top shape: 50 256 14 14 (2508800)
I1026 14:57:59.327316 20580 net.cpp:144] Memory required for data: 1416518200
I1026 14:57:59.327337 20580 net.cpp:453] Found INQ layer:fire8/expand3x3, type: INQConvolution, layer id:60
I1026 14:57:59.327349 20580 net.cpp:453] Found INQ layer:fire8/expand3x3, type: INQConvolution, layer id:60
I1026 14:57:59.327355 20580 net.cpp:453] Found INQ layer:fire8/expand3x3, type: INQConvolution, layer id:60
I1026 14:57:59.327361 20580 net.cpp:453] Found INQ layer:fire8/expand3x3, type: INQConvolution, layer id:60
I1026 14:57:59.327366 20580 layer_factory.hpp:77] Creating layer fire8/relu_expand3x3
I1026 14:57:59.327374 20580 net.cpp:84] Creating Layer fire8/relu_expand3x3
I1026 14:57:59.327380 20580 net.cpp:413] fire8/relu_expand3x3 <- fire8/expand3x3
I1026 14:57:59.327388 20580 net.cpp:374] fire8/relu_expand3x3 -> fire8/expand3x3 (in-place)
I1026 14:57:59.328809 20580 net.cpp:127] Setting up fire8/relu_expand3x3
I1026 14:57:59.328829 20580 net.cpp:136] Top shape: 50 256 14 14 (2508800)
I1026 14:57:59.328833 20580 net.cpp:144] Memory required for data: 1426553400
I1026 14:57:59.328840 20580 layer_factory.hpp:77] Creating layer fire8/concat
I1026 14:57:59.328850 20580 net.cpp:84] Creating Layer fire8/concat
I1026 14:57:59.328855 20580 net.cpp:413] fire8/concat <- fire8/expand1x1
I1026 14:57:59.328863 20580 net.cpp:413] fire8/concat <- fire8/expand3x3
I1026 14:57:59.328872 20580 net.cpp:387] fire8/concat -> fire8/concat
I1026 14:57:59.328910 20580 net.cpp:127] Setting up fire8/concat
I1026 14:57:59.328919 20580 net.cpp:136] Top shape: 50 512 14 14 (5017600)
I1026 14:57:59.328924 20580 net.cpp:144] Memory required for data: 1446623800
I1026 14:57:59.328929 20580 layer_factory.hpp:77] Creating layer fire9/squeeze1x1
I1026 14:57:59.328941 20580 net.cpp:84] Creating Layer fire9/squeeze1x1
I1026 14:57:59.328948 20580 net.cpp:413] fire9/squeeze1x1 <- fire8/concat
I1026 14:57:59.328956 20580 net.cpp:387] fire9/squeeze1x1 -> fire9/squeeze1x1
I1026 14:57:59.329586 20580 net.cpp:127] Setting up fire9/squeeze1x1
I1026 14:57:59.329598 20580 net.cpp:136] Top shape: 50 64 14 14 (627200)
I1026 14:57:59.329603 20580 net.cpp:144] Memory required for data: 1449132600
I1026 14:57:59.329610 20580 net.cpp:453] Found INQ layer:fire9/squeeze1x1, type: INQConvolution, layer id:63
I1026 14:57:59.329617 20580 net.cpp:453] Found INQ layer:fire9/squeeze1x1, type: INQConvolution, layer id:63
I1026 14:57:59.329623 20580 net.cpp:453] Found INQ layer:fire9/squeeze1x1, type: INQConvolution, layer id:63
I1026 14:57:59.329628 20580 net.cpp:453] Found INQ layer:fire9/squeeze1x1, type: INQConvolution, layer id:63
I1026 14:57:59.329633 20580 layer_factory.hpp:77] Creating layer fire9/relu_squeeze1x1
I1026 14:57:59.329648 20580 net.cpp:84] Creating Layer fire9/relu_squeeze1x1
I1026 14:57:59.329653 20580 net.cpp:413] fire9/relu_squeeze1x1 <- fire9/squeeze1x1
I1026 14:57:59.329663 20580 net.cpp:374] fire9/relu_squeeze1x1 -> fire9/squeeze1x1 (in-place)
I1026 14:57:59.329881 20580 net.cpp:127] Setting up fire9/relu_squeeze1x1
I1026 14:57:59.329893 20580 net.cpp:136] Top shape: 50 64 14 14 (627200)
I1026 14:57:59.329900 20580 net.cpp:144] Memory required for data: 1451641400
I1026 14:57:59.329905 20580 layer_factory.hpp:77] Creating layer fire9/squeeze1x1_fire9/relu_squeeze1x1_0_split
I1026 14:57:59.329912 20580 net.cpp:84] Creating Layer fire9/squeeze1x1_fire9/relu_squeeze1x1_0_split
I1026 14:57:59.329917 20580 net.cpp:413] fire9/squeeze1x1_fire9/relu_squeeze1x1_0_split <- fire9/squeeze1x1
I1026 14:57:59.329926 20580 net.cpp:387] fire9/squeeze1x1_fire9/relu_squeeze1x1_0_split -> fire9/squeeze1x1_fire9/relu_squeeze1x1_0_split_0
I1026 14:57:59.329934 20580 net.cpp:387] fire9/squeeze1x1_fire9/relu_squeeze1x1_0_split -> fire9/squeeze1x1_fire9/relu_squeeze1x1_0_split_1
I1026 14:57:59.329987 20580 net.cpp:127] Setting up fire9/squeeze1x1_fire9/relu_squeeze1x1_0_split
I1026 14:57:59.329999 20580 net.cpp:136] Top shape: 50 64 14 14 (627200)
I1026 14:57:59.330005 20580 net.cpp:136] Top shape: 50 64 14 14 (627200)
I1026 14:57:59.330009 20580 net.cpp:144] Memory required for data: 1456659000
I1026 14:57:59.330020 20580 layer_factory.hpp:77] Creating layer fire9/expand1x1
I1026 14:57:59.330041 20580 net.cpp:84] Creating Layer fire9/expand1x1
I1026 14:57:59.330047 20580 net.cpp:413] fire9/expand1x1 <- fire9/squeeze1x1_fire9/relu_squeeze1x1_0_split_0
I1026 14:57:59.330057 20580 net.cpp:387] fire9/expand1x1 -> fire9/expand1x1
I1026 14:57:59.330555 20580 net.cpp:127] Setting up fire9/expand1x1
I1026 14:57:59.330569 20580 net.cpp:136] Top shape: 50 256 14 14 (2508800)
I1026 14:57:59.330574 20580 net.cpp:144] Memory required for data: 1466694200
I1026 14:57:59.330579 20580 net.cpp:453] Found INQ layer:fire9/expand1x1, type: INQConvolution, layer id:66
I1026 14:57:59.330586 20580 net.cpp:453] Found INQ layer:fire9/expand1x1, type: INQConvolution, layer id:66
I1026 14:57:59.330592 20580 net.cpp:453] Found INQ layer:fire9/expand1x1, type: INQConvolution, layer id:66
I1026 14:57:59.330598 20580 net.cpp:453] Found INQ layer:fire9/expand1x1, type: INQConvolution, layer id:66
I1026 14:57:59.330602 20580 layer_factory.hpp:77] Creating layer fire9/relu_expand1x1
I1026 14:57:59.330612 20580 net.cpp:84] Creating Layer fire9/relu_expand1x1
I1026 14:57:59.330617 20580 net.cpp:413] fire9/relu_expand1x1 <- fire9/expand1x1
I1026 14:57:59.330624 20580 net.cpp:374] fire9/relu_expand1x1 -> fire9/expand1x1 (in-place)
I1026 14:57:59.330847 20580 net.cpp:127] Setting up fire9/relu_expand1x1
I1026 14:57:59.330858 20580 net.cpp:136] Top shape: 50 256 14 14 (2508800)
I1026 14:57:59.330863 20580 net.cpp:144] Memory required for data: 1476729400
I1026 14:57:59.330868 20580 layer_factory.hpp:77] Creating layer fire9/expand3x3
I1026 14:57:59.330883 20580 net.cpp:84] Creating Layer fire9/expand3x3
I1026 14:57:59.330890 20580 net.cpp:413] fire9/expand3x3 <- fire9/squeeze1x1_fire9/relu_squeeze1x1_0_split_1
I1026 14:57:59.330899 20580 net.cpp:387] fire9/expand3x3 -> fire9/expand3x3
I1026 14:57:59.333803 20580 net.cpp:127] Setting up fire9/expand3x3
I1026 14:57:59.333823 20580 net.cpp:136] Top shape: 50 256 14 14 (2508800)
I1026 14:57:59.333828 20580 net.cpp:144] Memory required for data: 1486764600
I1026 14:57:59.333835 20580 net.cpp:453] Found INQ layer:fire9/expand3x3, type: INQConvolution, layer id:68
I1026 14:57:59.333842 20580 net.cpp:453] Found INQ layer:fire9/expand3x3, type: INQConvolution, layer id:68
I1026 14:57:59.333849 20580 net.cpp:453] Found INQ layer:fire9/expand3x3, type: INQConvolution, layer id:68
I1026 14:57:59.333854 20580 net.cpp:453] Found INQ layer:fire9/expand3x3, type: INQConvolution, layer id:68
I1026 14:57:59.333858 20580 layer_factory.hpp:77] Creating layer fire9/relu_expand3x3
I1026 14:57:59.333866 20580 net.cpp:84] Creating Layer fire9/relu_expand3x3
I1026 14:57:59.333878 20580 net.cpp:413] fire9/relu_expand3x3 <- fire9/expand3x3
I1026 14:57:59.333886 20580 net.cpp:374] fire9/relu_expand3x3 -> fire9/expand3x3 (in-place)
I1026 14:57:59.334115 20580 net.cpp:127] Setting up fire9/relu_expand3x3
I1026 14:57:59.334127 20580 net.cpp:136] Top shape: 50 256 14 14 (2508800)
I1026 14:57:59.334132 20580 net.cpp:144] Memory required for data: 1496799800
I1026 14:57:59.334138 20580 layer_factory.hpp:77] Creating layer fire9/concat
I1026 14:57:59.334148 20580 net.cpp:84] Creating Layer fire9/concat
I1026 14:57:59.334153 20580 net.cpp:413] fire9/concat <- fire9/expand1x1
I1026 14:57:59.334159 20580 net.cpp:413] fire9/concat <- fire9/expand3x3
I1026 14:57:59.334167 20580 net.cpp:387] fire9/concat -> fire9/concat
I1026 14:57:59.334204 20580 net.cpp:127] Setting up fire9/concat
I1026 14:57:59.334213 20580 net.cpp:136] Top shape: 50 512 14 14 (5017600)
I1026 14:57:59.334218 20580 net.cpp:144] Memory required for data: 1516870200
I1026 14:57:59.334223 20580 layer_factory.hpp:77] Creating layer drop9
I1026 14:57:59.334240 20580 net.cpp:84] Creating Layer drop9
I1026 14:57:59.334245 20580 net.cpp:413] drop9 <- fire9/concat
I1026 14:57:59.334254 20580 net.cpp:374] drop9 -> fire9/concat (in-place)
I1026 14:57:59.334283 20580 net.cpp:127] Setting up drop9
I1026 14:57:59.334290 20580 net.cpp:136] Top shape: 50 512 14 14 (5017600)
I1026 14:57:59.334306 20580 net.cpp:144] Memory required for data: 1536940600
I1026 14:57:59.334323 20580 layer_factory.hpp:77] Creating layer conv10
I1026 14:57:59.334336 20580 net.cpp:84] Creating Layer conv10
I1026 14:57:59.334342 20580 net.cpp:413] conv10 <- fire9/concat
I1026 14:57:59.334350 20580 net.cpp:387] conv10 -> conv10
I1026 14:57:59.343981 20580 net.cpp:127] Setting up conv10
I1026 14:57:59.344003 20580 net.cpp:136] Top shape: 50 1000 14 14 (9800000)
I1026 14:57:59.344009 20580 net.cpp:144] Memory required for data: 1576140600
I1026 14:57:59.344017 20580 net.cpp:453] Found INQ layer:conv10, type: INQConvolution, layer id:72
I1026 14:57:59.344024 20580 net.cpp:453] Found INQ layer:conv10, type: INQConvolution, layer id:72
I1026 14:57:59.344030 20580 net.cpp:453] Found INQ layer:conv10, type: INQConvolution, layer id:72
I1026 14:57:59.344035 20580 net.cpp:453] Found INQ layer:conv10, type: INQConvolution, layer id:72
I1026 14:57:59.344039 20580 layer_factory.hpp:77] Creating layer relu_conv10
I1026 14:57:59.344050 20580 net.cpp:84] Creating Layer relu_conv10
I1026 14:57:59.344055 20580 net.cpp:413] relu_conv10 <- conv10
I1026 14:57:59.344063 20580 net.cpp:374] relu_conv10 -> conv10 (in-place)
I1026 14:57:59.345495 20580 net.cpp:127] Setting up relu_conv10
I1026 14:57:59.345516 20580 net.cpp:136] Top shape: 50 1000 14 14 (9800000)
I1026 14:57:59.345522 20580 net.cpp:144] Memory required for data: 1615340600
I1026 14:57:59.345527 20580 layer_factory.hpp:77] Creating layer pool10
I1026 14:57:59.345536 20580 net.cpp:84] Creating Layer pool10
I1026 14:57:59.345542 20580 net.cpp:413] pool10 <- conv10
I1026 14:57:59.345551 20580 net.cpp:387] pool10 -> pool10
I1026 14:57:59.345791 20580 net.cpp:127] Setting up pool10
I1026 14:57:59.345804 20580 net.cpp:136] Top shape: 50 1000 1 1 (50000)
I1026 14:57:59.345810 20580 net.cpp:144] Memory required for data: 1615540600
I1026 14:57:59.345815 20580 layer_factory.hpp:77] Creating layer pool10_pool10_0_split
I1026 14:57:59.345824 20580 net.cpp:84] Creating Layer pool10_pool10_0_split
I1026 14:57:59.345829 20580 net.cpp:413] pool10_pool10_0_split <- pool10
I1026 14:57:59.345837 20580 net.cpp:387] pool10_pool10_0_split -> pool10_pool10_0_split_0
I1026 14:57:59.345846 20580 net.cpp:387] pool10_pool10_0_split -> pool10_pool10_0_split_1
I1026 14:57:59.345854 20580 net.cpp:387] pool10_pool10_0_split -> pool10_pool10_0_split_2
I1026 14:57:59.345919 20580 net.cpp:127] Setting up pool10_pool10_0_split
I1026 14:57:59.345928 20580 net.cpp:136] Top shape: 50 1000 1 1 (50000)
I1026 14:57:59.345935 20580 net.cpp:136] Top shape: 50 1000 1 1 (50000)
I1026 14:57:59.345940 20580 net.cpp:136] Top shape: 50 1000 1 1 (50000)
I1026 14:57:59.345944 20580 net.cpp:144] Memory required for data: 1616140600
I1026 14:57:59.345949 20580 layer_factory.hpp:77] Creating layer loss
I1026 14:57:59.345958 20580 net.cpp:84] Creating Layer loss
I1026 14:57:59.345964 20580 net.cpp:413] loss <- pool10_pool10_0_split_0
I1026 14:57:59.345970 20580 net.cpp:413] loss <- label_data_1_split_0
I1026 14:57:59.345978 20580 net.cpp:387] loss -> loss
…
